test/model/actor_4_3_2_2_2_26_best_rou3.pth (torch, 689372 bytes, 17 tensors)

v2lLayer.W f4 [3, 40]
00000000: a03f c1be d492 28be 3389 1b3e ff25 84be
00000010: 89f9 e1bd ebcb c23e bcfa ccbd 85fb 1abe
00000020: 5006 1c3e 6718 8bbd 3a82 efbd f422 1c3e
00000030: f0e4 0c3e 1f90 c03d 688d 52be a939 d23c
00000040: 82fb a03e 42ef 82be 7467 98be 089c f43d
00000050: f051 c13d dd3a 1c3e b717 b3bd e1b4 2e3c
00000060: e009 fe3d d0c6 b83e 0726 973e fa54 01bd
00000070: 684f 843e f9a7 f1bc e157 84be 9f30 afbe
00000080: 4281 883e 60ed 58be 38db 97bd 60bc 333d
00000090: eaa9 47be 68ab 95bd 2763 51bc 5ca3 b53e
000000a0: 0d8f 0f3d 6223 31be 3b18 2bbe 62f8 d33d
000000b0: 191e a53d fe40 c8be 15c8 ac3e 0d8a f53a
000000c0: 6245 adbd b51c e1bd eb79 21be 2b2f 55be
000000d0: d0b9 543e cad5 84be 46c2 733e 3005 2cbe
000000e0: 540a 873d 7adc 83be 89ab 923e 9540 9ebe
000000f0: cd9d e4bd e841 443d 5102 b9bc c9ad e03d
00000100: 43cf f33d ccbb ddbc 684b 7ebe 362b ccbe
00000110: d83b b1be 825c 293d e498 2b3e 9902 383b
00000120: 9192 813d 34d8 a4be 3452 383d 6c85 30be
00000130: 4aaf 9bbe 6fc5 973e 09c0 0c3e 76cb 103e
00000140: 4e49 85be 0b24 a73e 606b 233e d400 ddbe
00000150: 7938 6dbe 0469 73bd 4db4 d53d 80d0 23be
00000160: 9ac6 b03e f46d 34bd db17 9abd eac7 d3bd
00000170: a95f 8e3e c3dc bfbb 86fd 9e3e 2f0e ac3c
00000180: 0864 f43e 58b9 b0bd ea34 533e 0904 3ebe
00000190: 23a3 1c3e de4f cb3d b72b 613e c9bc bdbe
000001a0: aea7 96be 2cec 76bc 5386 cb3e 99a8 6bbe
000001b0: 5168 793e 04cd 42be 265c 93be 0a13 54be
000001c0: ed2b f53b 26fc a2be bc3d 30be ee47 903d
000001d0: 8929 c1bd 9467 943e b4a2 653e 5d7d 683e
-0.37743855 -0.1646226 0.15189056 -0.2581024 -0.11033923 0.38046202 -0.10008761 -0.1513501
0.15236783 -0.06791764 -0.116947606 0.15247709 0.13759208 0.09402489 -0.20561755 0.02566226
0.31441885 -0.25573164 -0.29766428 0.11943823 0.094394565 0.1525683 -0.087447576 0.010663242
0.12404227 0.36089182 0.295212 -0.03157518 0.25841832 -0.02949904 -0.25848296 -0.34216782
0.26661116 -0.21184301 -0.074148595 0.04388082 -0.19498411 -0.07308084 -0.012779987 0.35476196
0.035048533 -0.17298654 -0.16708462 0.1035011 0.08062381 -0.39112085 0.337464 0.0018733159
-0.08460499 -0.109918036 -0.15769164 -0.20818774 0.20774007 -0.25944358 0.23804578 -0.16798854
0.06593767 -0.25754148 0.28646496 -0.30908647 -0.111629106 0.047914416 -0.022584112 0.10970647
0.119047664 -0.027067088 -0.24833453 -0.39876717 -0.3461597 0.041347988 0.16757542 0.002807772
0.063267834 -0.321962 0.04500027 -0.17238396 -0.30407172 0.29642817 0.1374513 0.14140114
-0.2603249 0.32644686 0.15958929 -0.43164694 -0.23166074 -0.059426323 0.1043478 -0.15997505
0.3452652 -0.044050172 -0.07524081 -0.10340865 0.27807358 -0.0058551743 0.31052798 0.021002857
0.47732568 -0.086291015 0.20625654 -0.18556227 0.15296607 0.09927343 0.21989332 -0.37058094
-0.29424804 -0.015070956 0.3975092 -0.23013534 0.243562 -0.1902352 -0.2878124 -0.20710388
0.007482043 -0.31833 -0.1721105 0.070449695 -0.0943175 0.28985274 0.22425348 0.22704072

v2lLayer.a f4 [80, 1]
00000000: 7486 893d a37a 853d aad1 1ebe 2f7a 82bc
00000010: 77fe 70bd 545f 21be c559 ef3c 29b1 3fbd
00000020: 9372 e8bc 38d0 97bd c4ec 223e d72a 78bd
00000030: 9f60 0cbe 98c0 543e 5c2c 4fbe 8ec6 2e3e
00000040: 6019 05be a2c4 833d 64bf 693e 6746 34bd
00000050: 7423 3a3e 5e99 13be 3d12 37be fb3b 7fbe
00000060: 6c3b fbbd ec22 0c3e a9dc 14bc 3b33 4abe
00000070: 4caa 18be 7ff2 13be 5a0f adbe 11f0 6dbe
00000080: 2a24 d13d 5a28 d4bb e759 82be 617b 5cbe
00000090: 76a9 debd 8bd9 483e 0418 923e 6d7a 74bd
000000a0: a477 d63c 3d53 5a3e af98 2e3d 241b 013e
000000b0: aac8 31bd a4c4 d9bd 9096 ae3d 1e18 99be
000000c0: 1ab0 443e 8ec1 20be 03ca 54be 1ff5 7e3e
000000d0: 1cf7 e7bc 4dce ae3e 3d7e bb3c 572e 2a3e
000000e0: 4d24 b93e 25ca a73c b42a aebe 36aa 113e
000000f0: c007 09bd 4d30 2dbe fe13 d73c 4947 633d
00000100: eecf 90bc 5c1c 0f3e 81d4 a53e 920b 26be
00000110: 4333 d43d bcb2 31ba 8b0b bbbe 91d6 44be
00000120: 1bec 283e 0fd2 323e d6b3 92be 5719 0ebe
00000130: 669d 84be e538 213e b8a5 83bb 1fe8 263e
0.06715098 0.06517532 -0.15509668 -0.015927402 -0.058836427 -0.15759021 0.02921761 -0.046799812
-0.028374946 -0.074127614 0.15910631 -0.06058773 -0.13708733 0.20776594 -0.20231766 0.1706793
-0.12997961 0.06433989 0.22826916 -0.044012453 0.18177587 -0.14413974 -0.17878051 -0.24925224
-0.12267193 0.13685197 -0.009085813 -0.19746105 -0.14908713 -0.14447974 -0.33800775 -0.2323611
0.10211976 -0.006474537 -0.25459215 -0.2153144 -0.10872166 0.19614236 0.28533947 -0.059687067
0.026180096 0.21320815 0.04262608 0.1260801 -0.04340426 -0.10633209 0.08524811 -0.29901212
0.19207802 -0.15698835 -0.20780186 0.24898194 -0.028316073 0.3414177 0.022887344 0.1661924
0.36160508 0.020482132 -0.34016955 0.14225087 -0.033454657 -0.16912957 0.02625465 0.055487905
-0.017677274 0.13975662 0.3238869 -0.16215351 0.1036134 -0.00067786477 -0.36532244 -0.19222476
0.16496317 0.17462943 -0.2865283 -0.13876854 -0.25901335 0.1574436 -0.004017558 0.16299485

laneLayer.W f4 [12, 12]
00000000: ebbf ecbe f940 87bc 8ecd bd3e a2bf a63e
00000010: d3d3 c13d 5f44 96be 7f23 ccbd 0fd6 11be
00000020: 2b5c 733e 871a 3ebe a50b b33e 1552 62bd
00000030: 81f7 c6be 563e 1b3e 4c2c 81be e7bc 36be
00000040: e104 65be 7a13 9d3e ad1a de3e 622d 63be
00000050: 4b6f 1d3d f3a4 14be f489 4c3e 7d7d d63e
00000060: 7e20 b73c 45cf d73e 9e85 a6be be7d d6be
00000070: 2b85 bc3e d1be c63e 80e6 c6be ce17 c83e
00000080: b4ec 84bd b09a 81bd 5d28 803e 4600 593e
00000090: 3637 ea3e d0f1 d2be fec3 dcbe ca34 e4be
000000a0: 4e88 883e fb18 f9bc 94e5 7ebd 3952 863e
000000b0: 7c5f cbbe 3276 eb3c a972 a0be dd1f 083f
000000c0: 3bbe 123e 8b73 b13c d394 cdbe e760 aebe
000000d0: 899c c8be d841 063f 6f89 adbe 637d 923e
000000e0: 2755 c6be 5411 11be 091e d9bc 015f 6dbc
000000f0: 9e97 b83e e0d1 eabe e7f3 33be fc7c 0b3e
00000100: 8e2a d43e 048f 85bb 38a6 943e c12b a53d
00000110: 64ce 3b3e 056b 8dbe 4ae1 a8be c112 97be
00000120: 54c0 f53e 9968 04bb 8a7f 933e 2aca 9b3b
00000130: ec90 6dbe 627c 37be 3344 0c3e 2782 90be
00000140: 5e1f d13e f271 b13e 162a c13d 9567 30be
00000150: a6fa c53e 986e d0bd 70e5 c43e 8114 b2be
00000160: 3a72 0cbe 85e1 d13e c75c bebd cb25 1dbd
00000170: 15b7 1abf 5e2c dd3d 3302 933e 6bcb d43d
00000180: c650 89be 887e d1be 9c11 aebe ae70 e6be
00000190: 507a c53e 6157 e7bd 4f4d 813e 0117 5dbe
000001a0: 11f7 fe3d 0efd 22bd 5304 9b3e b18d cb3e
000001b0: 7d51 96be 3ce5 ed3e d5aa 043e 9787 bbbe
000001c0: 73ed dfbe 9162 85be 7a7f b6bd 4ba6 5b3c
000001d0: 07c5 b4be 1479 953e 4ac0 21be 7ee2 8b3e
000001e0: 2275 2dbd 5f38 a43e 7497 203e 15cc 833e
000001f0: 2539 e4be bf74 3c3e edfe b63e 9bf7 0bbe
00000200: cf4a 88be 6715 d4bd cd0c a3be 0f3d cc3e
00000210: a07e d9bd 2acb e3be f064 093e 1279 90be
00000220: 5001 65be 0cda 3c3e 4c72 dc3e 00de c33d
00000230: fc9b 413e a40d 3b3e a011 f1bc 5ecc e1be
-0.46240172 -0.016510474 0.37070888 0.3256808 0.094642304 -0.29349038 -0.09967708 -0.14241813
0.23765628 -0.18564807 0.34969822 -0.05525406 -0.38860705 0.15160498 -0.25229108 -0.17845498
-0.22365142 0.30678922 0.43379727 -0.22185281 0.038436215 -0.14516048 0.199745 0.41892615
0.02235436 0.42150322 -0.32523817 -0.4189281 0.3682035 0.38817456 -0.38847733 0.39080662
-0.0649046 -0.063283324 0.25030795 0.2119151 0.45745248 -0.41200113 -0.4311828 -0.44571525
0.26666492 -0.03040742 -0.06223066 0.26234606 -0.39721286 0.028742883 -0.3133748 0.5317362
0.1433038 0.02166154 -0.40152606 -0.34058306 -0.39181927 0.5244422 -0.33893916 0.28611287
-0.3873684 -0.14166766 -0.02650358 -0.014487983 0.36053175 -0.45863247 -0.1757351 0.13621897
0.41438717 -0.0040758867 0.29033065 0.08064986 0.1834045 -0.27620712 -0.32984382 -0.29506496
0.47998297 -0.0020203947 0.28808242 0.0047543244 -0.23199815 -0.17918542 0.13697891 -0.28224298
0.40844244 0.34657246 0.094318554 -0.17227013 0.38667792 -0.10177344 0.38456297 -0.34781268
-0.13715449 0.4099237 -0.092950396 -0.03836612 -0.6043561 0.10799478 0.28712615 0.103903614
-0.26819438 -0.40916848 -0.3399781 -0.45007843 0.3856988 -0.11295963 0.25254294 -0.21590807
0.12449468 -0.039792113 0.30276737 0.3975654 -0.29359046 0.46463954 0.12955792 -0.36626884
-0.43735847 -0.26051763 -0.08911033 0.013406347 -0.3530657 0.29193938 -0.15796009 0.27321237
-0.042348035 0.32074258 0.15682775 0.2574164 -0.44574848 0.1840391 0.35741368 -0.13668673
-0.26619574 -0.10355645 -0.31845704 0.39890334 -0.10619855 -0.4449094 0.13417411 -0.2821737
-0.22363782 0.18442553 0.43055952 0.095638275 0.1890716 0.18266922 -0.02942735 -0.44101232

l2pLayer.W f4 [12, 88]
00000000: 27aa b1bd 91c0 16be 2871 3bbe 7538 793e
00000010: 47c3 253e 0c35 1b3d 39cd 31be f590 053e
00000020: 4865 a73d dad3 51be e48a 76bd f275 3ebd
00000030: 4ab0 33bd 8dd4 0a3e 9ac6 753e d0e6 37be
00000040: bc04 043e bc68 943b e90d a0bd df7f 27bd
00000050: 1e71 9abd b8d2 3a3d ce6c e4bd e31e 0dbe
00000060: 1ebb 36bd 34c5 26be 9306 fa3d c52f b2bd
00000070: aeb0 13be 6dc2 aa3c 4d45 443e fc94 3abe
00000080: b21e d73d 6d6d 483e 5933 b53d 6292 c4bc
00000090: 9902 693e c95f 27be a6bf bfb9 4035 2f3d
000000a0: 3a88 37be a976 8ebe 283d b5bd e672 c9bc
000000b0: fd9f 473e 4a90 4ebe 1727 53be 8abc febd
000000c0: af3d efbd 6bda 2bbe 5587 393e 74fd 22bd
000000d0: 5c16 b1bd 88c3 3a3e 6c4c 6b3e 0539 1b3e
000000e0: b827 4bbe f371 173c 01c3 9d3d a5fd 5c3c
000000f0: 4cd8 aa3d aaf0 6cbe 30e3 3e3e 9160 75be
00000100: eec6 183d ee54 013e 4561 2cbd f6bc af3d
00000110: 9903 0dbe b396 8f3d c23a 323e 38b9 69be
00000120: 189b 8cbe e025 0e3e 33d0 90bd 845b 153e
00000130: c9ac cd3d 5574 2bbb 39ff a4bd 0ad7 6d3e
00000140: 5287 873e c84d d6bd d511 c93d 2108 98bd
00000150: 5453 383e d5d0 bd3d bb3b 35bc 4134 5dbd
00000160: 1562 41bd 3c9c f43d 9d24 b03d 0fa9 393e
00000170: 31e6 3ebe 8ae0 263e f03f 4d3e 4e6a c13d
00000180: 0950 723d 12c2 8abd 97ff 27be e286 77bd
00000190: d4e0 ed3d 2021 35be 1f90 51be 5f4f 303e
000001a0: ba5b 313e b910 a43d b938 73be 4821 ce3d
000001b0: 34d0 01be 2385 25be e997 e1bd 7c39 21bd
000001c0: 0ca9 02be ec47 74be 0e1a e7bd 7355 913d
000001d0: f8f2 ccbd ec09 7d3e a6f0 213e 4172 a63d
000001e0: 9a5d 70be 4fdb 723e d7bb ba3d ef71 5abe
000001f0: 758e 543e 7a74 e9bc c4de 15be 80de 053e
00000200: 5e33 ae3d a467 d9bc fb93 11bd 3d1b 06be
00000210: b055 63be 49b5 0dbd 6862 05be 8753 c1bb
00000220: 0a89 4e3e 47f8 4fbe e2bd aa3c 1b41 c53d
00000230: edd5 73bc 0ff6 213e 15d0 5c3e b275 3a3e
00000240: cf4e e5bd eaad 373e cff2 5c3e 285a bdbd
00000250: 313f 7c3d 34a3 55be dfc6 cb3c 940f 97bd
00000260: 8267 cdbd a7b0 b7bc c5ad 493e 3334 6a3e
00000270: 82ba 45be c093 abbd d521 34be fdf7 833e
00000280: 5599 16be 55e5 63be c0d8 8a3d b233 62be
00000290: c466 373e 2064 0abe b151 6fbe 0f9b 973d
000002a0: d61f 253e 9325 403e 8429 c9bb dd7e d9bd
000002b0: 27c3 4f3e 1c07 babd 1318 113d 2db6 ee3d
000002c0: 5bb2 e43d 4a2c 4abe ac2e 3ebe 1294 663e
000002d0: fe61 0ebb 0885 fabd 4d87 593e ef0c 70bc
000002e0: a2a8 163d 9ce0 823d b479 db3d 6548 24bc
000002f0: f60e 15bd f61f 803d 9a29 5ebe 0315 513e
00000300: fb9e 07be 0dac b0bd 8c23 9c3d 7f80 003e
00000310: 8684 82be 69b1 053e fad4 40be a78f 3ebe
00000320: f788 27be 5099 303e 1380 d3bd f529 65bc
00000330: 8c05 25be 7858 593e b5f9 513e c213 7c3d
00000340: 7c8b 093e 6c6b a13d 02c5 533e 1adf a13c
00000350: 8c0f 51be 0fc2 57bc ac4d 463e 1244 0c3c
00000360: 0f5d ad3d f18f 793d 4b0e 463d 7fc5 30be
00000370: e4c3 0c3c 4ab7 3a3d 6f7b 743c 1692 4ebe
00000380: eb23 2b3e 0b88 eabc 6055 773e 6616 3bbd
00000390: cc2c f9bd 289d 3cbe d634 49bd e37d 5fbe
000003a0: 2827 52be 2a90 cc3d bc62 583e 800b 2cbe
000003b0: 98a1 2bbe 8505 e83d a8bd 483e e3ca d0bd
000003c0: 8cff 2bbd 7217 bd3b 90bd 643d 911b 1a3c
000003d0: db88 483d c53e 973d 1681 f6bd 5766 853e
000003e0: b25c 3ebe 8253 dd3d 927d c63b 9748 493e
000003f0: a997 533e f815 48be 1ed7 70bd 803f 45be
-0.08675032 -0.14721896 -0.18304884 0.24337943 0.16187774 0.037892386 -0.17363442 0.13043578
0.08173615 -0.20490971 -0.06019105 -0.0464992 -0.043869294 0.13557644 0.24001542 -0.17959142
0.12892431 0.004529087 -0.07815153 -0.04089343 -0.07541107 0.045611113 -0.11153565 -0.13781314
-0.044612043 -0.16286165 0.12208285 -0.087005176 -0.14422867 0.020844663 0.19167061 -0.18220896
0.105039015 0.19572993 0.088476844 -0.023995582 0.22754897 -0.16345133 -0.00036573148 0.042775393
-0.1792306 -0.27824906 -0.08849555 -0.02459092 0.19494624 -0.2017223 -0.2062038 -0.12438305
-0.11681687 -0.16782539 0.18118031 -0.039792493 -0.08646843 0.18238652 0.22978371 0.1515847
-0.1983937 0.009243476 0.0770321 0.013488208 0.083420366 -0.23138681 0.18641353 -0.23962618
0.03729909 0.12630054 -0.04208495 0.08580963 -0.13770904 0.070111655 0.17405227 -0.22824562
-0.27462077 0.13881636 -0.07070961 0.14585692 0.10042722 -0.0026161869 -0.08056492 0.23226562
0.2647043 -0.10464054 0.09817854 -0.074234255 0.18000537 0.09268347 -0.011061604 -0.05400491
-0.04721268 0.11943862 0.086007334 0.18130897 -0.18642499 0.16296592 0.20043921 0.09444104
0.05915836 -0.06775297 -0.16406094 -0.06043137 0.11615148 -0.17688417 -0.20465134 0.17217778
0.17320147 0.08011002 -0.23752107 0.10064942 -0.1267708 -0.16164069 -0.11015303 -0.039361462
-0.12759799 -0.23855561 -0.112842664 0.07096376 -0.1000728 0.24710816 0.15814456 0.08127261
-0.23473206 0.23716472 0.09117859 -0.21332525 0.20757468 -0.028497923 -0.1463576 0.13073158
0.08505891 -0.026538678 -0.035541516 -0.13096328 -0.22200656 -0.034596715 -0.1302582 -0.00589985
0.20169464 -0.20309554 0.020842496 0.096315585 -0.014882547 0.1581652 0.21563752 0.1820896
-0.11196672 0.17937437 0.21576999 -0.092457116 0.0615837 -0.20863038 0.024875103 -0.07376018
-0.10029508 -0.022423102 0.19695194 0.22871475 -0.19309428 -0.083777905 -0.17591031 0.25775138
-0.14706929 -0.22255452 0.06779623 -0.22090033 0.17910296 -0.13514757 -0.23371007 0.07402622
0.16125426 0.18764333 -0.0061389823 -0.106199004 0.20289288 -0.09083387 0.03542335 0.11655841
0.11166831 -0.19743457 -0.18572491 0.22517422 -0.0021725888 -0.12232405 0.2124302 -0.014651521
0.036781915 0.06390497 0.107165724 -0.010027026 -0.03639122 0.06256096 -0.21695557 0.20418172
-0.1324424 -0.08626566 0.076239675 0.12549017 -0.25491732 0.13055958 -0.18831244 -0.18609487
-0.16360842 0.17245984 -0.103271626 -0.013987054 -0.16115397 0.21225154 0.20505412 0.06154228
0.13432115 0.07881817 0.20680621 0.019759703 -0.20416087 -0.013168826 0.19365567 0.008561151
0.08465015 0.06092829 0.048353475 -0.17262839 0.008591626 0.045584954 0.014922007 -0.20172915
0.1671292 -0.028629323 0.24153662 -0.045675658 -0.121667475 -0.18419325 -0.049122654 -0.21825366
-0.2052275 0.099884346 0.21131414 -0.16801262 -0.16760862 0.11329178 0.19603598 -0.101949476
-0.041991755 0.005770617 0.055844843 0.009405986 0.04895864 0.07385019 -0.1203634 0.26054642
-0.18590048 0.108069435 0.0060574496 0.19656597 0.20663323 -0.1953963 -0.0587989 -0.19262505

l2pLayer.a f4 [176, 1]
00000000: fe58 0f3e 1e43 afbd f393 fd3d 5f9f dcbd
00000010: 2b81 b73c 5c49 08bd 0c69 2ebe 277a f2bd
00000020: c5ba ed3d 1b88 4c3c 3c7e b53d 8564 a5bb
00000030: ec77 0cbe 374d 143e 92a7 d0bd c227 3c3c
00000040: 11c4 80bc b8a5 f73c 228e 833d 6be7 643d
00000050: e1ee b33d 8633 663d 8b8f 03be 05c3 1e3e
00000060: 19ed 10be 284d 01be f418 223e b41c 7f3d
00000070: d99a b03d f47b 49bc 2a4d f8bd 8f1c 32bd
00000080: 8757 fabd 202d dd3d f772 62bd 73b8 e53d
00000090: 6a2f 0ebc 6a36 b8bd 79b3 9dbb 740d 81bd
000000a0: 0f6b 4e3d 0f8d c43d 4d40 663d 6ab0 643d
000000b0: 71de d0bc bf3e d4bd 5a6e 9dbd 6f92 a93d
000000c0: 90a0 6a3d 9d3d d33d 7a82 e43d 20b3 b53d
000000d0: f07d f03d 7087 13be 5f73 143e 81b1 08be
000000e0: 58e3 823d fc59 063d a299 0a3d 9ef8 253e
000000f0: b3d5 0c3d 9516 1b3d ee47 183d 9093 b6bd
00000100: a7e1 e0bd 2ea7 7d3c dffb 8d3d 8772 c4bc
00000110: da55 0bbe a368 8c3c 6b3a ecbd 77c6 4c3c
00000120: ad64 95bc 2378 17be 1e02 dd3d 0ce6 d23d
00000130: ae88 873b eddc 033e 87f8 1e3e f1e5 bdbd
00000140: fa2b 68bc 66ab cd3d 58b1 ed3d 95c0 4f3d
00000150: a3b1 2c3e 9a7b 403e 874a 8e3c 026d ec3d
00000160: f5f4 3f3e 9d14 0e3e 2019 033d d9bc 34bd
00000170: 0863 45bc 8f7c 143e 4c23 e13d 0520 31bc
00000180: 95bf edbc cb74 17bd 9424 23bd 0f81 eebc
00000190: de3c c13d 90ab e7ba 52de 153e 4134 083d
000001a0: 4d31 0f3d c2a9 013e 50c6 73bd 32b7 ddbd
000001b0: d711 afbc f54d e0bd 6296 463d 85f3 aa3d
000001c0: 775a 753d cf02 1c3e 17db adbc b638 f23d
000001d0: 8024 96bd 2e36 50be 54b3 55be 406f 06be
000001e0: 5945 80bd d27b b3bd a8c6 de3c 28d9 103e
000001f0: d040 133e 9398 b43d 7e9d 3bbe a31d 0f3d
00000200: b161 b63d de44 b4bd 3ec8 08bd 6896 143e
00000210: 0739 843e a409 2fbd cd17 5dbe 27d6 bdbb
00000220: 8a38 243d 27c8 173e bcf7 73be 676d 5d3e
00000230: a049 ad3e 560a 3b3e b5d5 1a3e 1664 78bc
00000240: 304a 783e e474 553e b2b3 b9bd eb9e dc3d
00000250: 5e7e 1bbe dc18 95bc 2004 0fbe fb34 bf3d
00000260: cec5 a73d 06dd 9ebd 459f 4a3d e647 033e
00000270: 56f1 60be 15c6 40bd 375c 0cbe c2f5 8ebd
00000280: 3971 3abd 6a90 03bd 8ac6 8e3d 222d 8abd
00000290: a548 0abe 2ea3 3abe d4cf 833e 519a 35bd
000002a0: 685e 53bb 295d 073d 35f0 1f3b baca 783d
000002b0: 4332 4b3e 4406 78bc 7421 f93d fe71 60be
0.13998792 -0.085577235 0.12381735 -0.10772585 0.02240046 -0.033273086 -0.1703226 -0.11839705
0.11607889 0.012483622 0.08861968 -0.0050473833 -0.13717622 0.1448258 -0.101882115 0.011484088
-0.015718492 0.030230388 0.06423594 0.05588476 0.08785797 0.05620148 -0.12847726 0.15504082
-0.14152946 -0.12627089 0.15829831 0.062283233 0.08623285 -0.012297619 -0.12124093 -0.043484267
-0.12223726 0.107996225 -0.05528542 0.112168215 -0.008678297 -0.08994754 -0.0048126546 -0.06301394
0.050395068 0.09597217 0.056213666 0.055832304 -0.025496693 -0.1036353 -0.076870635 0.08279883
0.05728203 0.10314486 0.11157699 0.08872056 0.11742771 -0.14407134 0.14497136 -0.13348962
0.06391019 0.03280066 0.033837922 0.16208121 0.034383487 0.037863333 0.037177972 -0.08914864
-0.1098054 0.015481753 0.06932806 -0.023980392 -0.13606969 0.017139738 -0.1153458 0.01249849
-0.018236483 -0.14791922 0.107914194 0.10297784 0.0041361665 0.12877245 0.15524493 -0.092723735
-0.014170641 0.10042457 0.11606091 0.05072077 0.16864638 0.1879715 0.017369522 0.11544229
0.18745787 0.13875051 0.032006383 -0.04412541 -0.012047537 0.1450064 0.109930605 -0.010810857
-0.029022017 -0.036976617 -0.039829805 -0.029114274 0.094354376 -0.0017675031 0.1463559 0.03325296
0.034959126 0.12662414 -0.059515297 -0.10825957 -0.021370811 -0.10952369 0.04848326 0.08347229
0.059900727 0.15235446 -0.021222634 0.11827223 -0.073311806 -0.20333168 -0.2086919 -0.13128376
-0.06263227 -0.08763851 0.027194336 0.14145339 0.14380193 0.08818164 -0.18321797 0.034940373
0.08905352 -0.08802198 -0.03339409 0.145105 0.25824758 -0.042733803 -0.2159111 -0.005793351
0.040092982 0.14822446 -0.23824972 0.21623765 0.33845234 0.18265662 0.15120585 -0.015160581
0.2424705 0.20845371 -0.09067477 0.10772499 -0.15184924 -0.01820033 -0.13966417 0.09336277
0.08192025 -0.077570006 0.049468298 0.12820396 -0.21967062 -0.047063906 -0.13707052 -0.06980468
-0.045518134 -0.032120146 0.06971462 -0.0674689 -0.13504274 -0.1822631 0.25744498 -0.04433662
-0.0032252315 0.03304783 0.002440465 0.06074021 0.19843392 -0.015138213 0.12164584 -0.21918485

phaseLayer.W f4 [24, 26]
00000000: 0443 60be 531a 983d 65f5 593e e7c7 773d
00000010: 08c1 04bd 6d7a 183e c53d 2f3e 2cc9 9f3e
00000020: 423e 553e d246 29bd 3a34 313d b3d1 693e
00000030: 6614 e03d 1728 2eba 474e ba3c ec4a 24b9
00000040: b4f3 0abe f999 dbbd 654e 57be f4bc b2be
00000050: 859d 6bbe 67de 953d d383 b6be 3a36 6d3e
00000060: 5001 86be 2950 a9be dbc8 73bb 3825 043e
00000070: 7be8 acbe 7930 85be afdf 67be 9ca3 a2bd
00000080: 5de8 7e3e cf80 91bd 3012 ad3d 0b9b 12bd
00000090: 6e9f 9d3c c087 41be bb54 5ebe 3f81 3abe
000000a0: 8111 e6bd c564 81be 6634 85bd c4f8 34be
000000b0: e74b 833d 4b92 23bd 331d 8a3e 27e0 30bb
000000c0: d191 a4bc f23b 703e b92d aebe 34fb bd3e
000000d0: 9061 c93d 0eba b93d ef89 3e3e d1d8 f23c
000000e0: ebb8 853d c540 5a3e b5bf 17bd 6842 31be
000000f0: 9b27 ef3c d260 963e 22a3 543d dddb 66be
00000100: 9f9e 36be d13e 9f3e 66ee ef3d ef70 b03e
00000110: aab9 143e 80cf 693e 5c9c 5a3e 6295 713d
00000120: 2edb 41be 6e7f 113d 6d59 003e 5202 2c3e
00000130: b73e e53d 0f14 8f3e 044b 843e 8845 893e
00000140: 67d8 90be e4fc 42be 4e46 653e 02d1 71bd
00000150: d9a6 4b3e a2a1 1ebd 8801 c9bd 0486 443e
00000160: a36a 9cbe f169 c3bd 34d9 4fbe e8ff 843d
00000170: 8a2c b23d 163f db3d 5641 973e 638f a93e
00000180: 9ec0 19bd 1956 7d3e 424f 91bd 5d20 a83d
00000190: 4350 913e a395 9dbd 3108 093c 4d31 76bd
000001a0: 6ad3 ad3e 3dbd 9f3e 95c2 a6be 4769 cbbb
000001b0: ffdf b6be 2646 fdbd 1224 a03e cd69 19be
000001c0: 221e 1e3c 8e32 6abe beab 693e 1174 6cbd
000001d0: 8be5 ff3d 29fa a13e 44cf 9ebd 3bd4 993e
000001e0: 34d4 7e3e bd2f 393e 8634 b13e f992 a4be
000001f0: ed07 3f3e 8982 48be 544c 2b3c bc2a 0d3e
00000200: 2355 8a3e 51a9 fbbd 404f 9bbc f110 163e
00000210: d2e8 a43b d225 683e 9dda 2c3e 02e8 3c3e
00000220: c750 d3bd ec6a 513e b72b 9fbe 6f59 0b3c
00000230: bed6 13be 15e6 57bc b76f 063c 843d 5c3d
00000240: 69e1 a9be c091 6b3e 6f2d 6e3c a1c7 043e
00000250: 2249 dc3d 3f4c 9dbe a0dc 3dbd e16b 373e
00000260: b047 0b3e 7c38 ae3e 5164 ba3e 4588 a6bc
00000270: 9215 97be 8339 25be 53e0 0d3e cd16 ac3d
00000280: 1b08 6f3d 01c5 49bd 1fa9 efbc ce10 e7bd
00000290: a2d7 17be 3511 073e 5f40 8e3d 63ba 08be
000002a0: 2ced 84be 142f 2dbd ae08 a1be 27b1 9b3e
000002b0: a57d 0fbe fddd 1abe 065b 563e 8f48 9dbb
000002c0: 7a58 f33d 78c0 45be 5871 04be c1ef 953e
000002d0: f178 603e 2c82 c33d 7a77 14be c5ea 063e
000002e0: 944b 73be 04a6 0abe 32ab 4c3e 14ca 7b3e
000002f0: 3830 82be 7a36 90be ce43 b03d 5402 b13e
00000300: b2a7 be3e e3e9 2f3e c761 cc3d a696 8e3e
00000310: a306 4b3c 9c4a d83d 26f4 033e 51df 99be
00000320: 4f9a ce3d 30d5 9d3e 4af7 81be 12bd 973e
00000330: b618 cdbd 5b7a b4be 676e fdbd 1b78 4f3e
00000340: 7122 f23c 5d75 b03d 701e 7abe 4ad1 7b3e
00000350: 843b 103d 2012 4ebe 7188 0d3c 54b7 df3c
00000360: 2a1f 9e3d 7bfb 7a3e 4f8e 6a3e 6155 953e
00000370: 7715 353e 1b80 bc3e 155c fabd e920 8a3e
00000380: 2177 5b3e 4dc5 793d d0ff d5bd 5437 80be
00000390: b368 0abe 55dd 173d 9be4 9a3d acfa 72be
000003a0: db7c 81be f903 9cbe aea0 073c 812c 33be
000003b0: 1947 86be 2b19 01bd 4f72 36be ce03 043e
000003c0: 339f 3b3d e1be 49be 572d 723d f217 4dbe
000003d0: 45e2 afbd 0f2d 833e 180e 91be f9b3 0d3d
000003e0: 51f3 103d dba0 033e b803 64be 96b7 cd3d
000003f0: 95e9 6bbe d424 ce3d 4dd0 c53d 6dcc b53d
-0.21900564 0.07426896 0.21285017 0.060493376 -0.03241065 0.14890452 0.17113407 0.3120817
0.2082453 -0.041327305 0.043262698 0.228339 0.10941391 -0.0006643547 0.022742404 -0.0001566817
-0.13569528 -0.10722727 -0.21025999 -0.34909785 -0.23009308 0.073178105 -0.3564745 0.23165217
-0.26172876 -0.3306897 -0.0037198577 0.12904823 -0.3377112 -0.26013544 -0.22643922 -0.07941362
0.24893327 -0.071046464 0.084507346 -0.03579239 0.019241061 -0.18899441 -0.2171201 -0.18213366
-0.11233807 -0.25272194 -0.06504135 -0.17673022 0.064109616 -0.039934438 0.26975402 -0.0026989074
-0.020089062 0.23460367 -0.3401926 0.37105715 0.09833062 0.0906869 0.18607305 0.029644402
0.06529411 0.2131377 -0.03704806 -0.17310488 0.02919369 0.29370743 0.051913388 -0.22544809
-0.17833947 0.31102613 0.11715393 0.34461161 0.1452395 0.22833061 0.21348709 0.058980353
-0.18931267 0.035521917 0.12534113 0.1679776 0.111936025 0.2794499 0.25838482 0.2681086
-0.28290102 -0.19041783 0.223901 -0.059037216 0.19887866 -0.038728364 -0.09814745 0.19191748
-0.30550107 -0.09541691 -0.202977 0.06494123 0.086999014 0.10705392 0.29542035 0.33117208
-0.03753721 0.24739875 -0.07095195 0.08209298 0.28381547 -0.076945566 0.008363769 -0.06010561
0.3395036 0.31199065 -0.3257033 -0.0062076184 -0.3571777 -0.123668954 0.3127752 -0.14981766
0.009650739 -0.22870848 0.2281942 -0.057727877 0.12494954 0.3163617 -0.077543765 0.30044731
0.24885637 0.18084617 0.34610385 -0.3214338 0.18655367 -0.19581045 0.01045521 0.13785833
0.2701808 -0.12288154 -0.018958688 0.146549 0.005032637 0.22670677 0.1688027 0.18447879
-0.103181414 0.20450944 -0.3108804 0.008505209 -0.14437386 -0.013177414 0.008205346 0.053769603
-0.33179787 0.23004818 0.014537199 0.12966777 0.107561365 -0.30722234 -0.046352983 0.17912246
0.13601565 0.3402747 0.3640466 -0.02032865 -0.29508644 -0.1613522 0.13855104 0.084027864
0.05835734 -0.049260143 -0.029255448 -0.11282502 -0.14828351 0.13190158 0.069458716 -0.13352351
-0.25962198 -0.042281225 -0.31451935 0.30408594 -0.14012773 -0.15123744 0.2093316 -0.0047999094
0.1188211 -0.19311702 -0.12933862 0.2928448 0.21921135 0.09546313 -0.14498702 0.13175495
-0.237593 -0.13539892 0.19987181 0.24588805 -0.25427413 -0.28166562 0.08606683 0.3457209
0.37237316 0.17179064 0.09979587 0.2784931 0.012391719 0.105611056 0.12886104 -0.3005319
0.10088026 0.30826712 -0.2538398 0.29636437 -0.10014479 -0.352496 -0.12374573 0.2026066
0.029557439 0.08616135 -0.24425673 0.24591556 0.03521301 -0.20124102 0.008638487 0.027309097
0.07720788 0.24509995 0.22905849 0.291667 0.1768397 0.36816487 -0.122245945 0.26978233
0.21432163 0.060979176 -0.10449183 -0.25042212 -0.13516502 0.037076313 0.07563134 -0.23728436
-0.2529057 -0.3047178 0.008278055 -0.17497446 -0.26226118 -0.031518143 -0.17817043 0.12892076
0.04580612 -0.19701721 0.05912527 -0.20028666 -0.08588079 0.25620314 -0.28331065 0.034595463
0.035388295 0.1285433 -0.22267044 0.10044782 -0.23038323 0.10065618 0.09658871 0.08876882

p2iLayer.W f4 [24, 176]
00000000: 4b1f 19be 602b 03bd 62de 9ebc aa5a 1ebe
00000010: 4b17 adbd ec6f f8bd 8e36 a83d 9ea6 5dbd
00000020: ddab efbd 9fa1 c0bd 03c3 edbd 68c0 193e
00000030: f3c1 6f3d 1ec9 f7bc 5176 14be ffa6 00be
00000040: 86c5 be3c 50cb 11be 5b45 973d 49a7 d6bd
00000050: 82ec 32bd 43a7 feba 0e7c 923d 6fa7 b9bd
00000060: 8d74 bf3d 71ca 473d 36dc 2fbe ae18 233c
00000070: 7519 843d be20 d0bb 93b0 67bd 1a48 273e
00000080: 2df3 063e cff2 0a3e 2c9e 56bd 102c 80bd
00000090: c36d 883d d2ef 89bd cba0 6fbd ab20 8dbd
000000a0: 3b9b 833d 38fc 393d 9d7e e7bd 4772 84bb
000000b0: bdb2 fabd 95b9 4d3d 49f1 223d 2186 2d3e
000000c0: 86fe 28be dd20 6ebd 63c9 c13d 8598 dabd
000000d0: 065f 8abd 66e6 c73d 46de e93d fed7 00bd
000000e0: eda9 213d f229 043e d264 fa3d 28aa 323d
000000f0: cdd5 d63c 6d3f 7ebd 0ae3 3fbd c088 eebd
00000100: 5271 b3bd 049b 7dbd 091c 193e e46f 55bb
00000110: 26d8 95bd f721 5ebc 3152 013e e0af 1fbd
00000120: a1c2 fdbc 4902 7dbd b467 8c3d 257f d5bd
00000130: 3c18 063e fc40 d73c 1a1b a3bd 64a6 463d
00000140: 30bf e63c 63af c03c e6d4 14be e860 833d
00000150: 3a2b 2ebe 9cdd 413d 2d01 3fbd 5091 c53d
00000160: 833a 0b3e 95ea 4abd b7d9 febd 76dd b43c
00000170: 54d9 f5bd d457 1b3e 78b3 053e 6c14 40bd
00000180: f3a9 1dbd d232 113e 4695 f5bb e7e8 02be
00000190: d175 ddbd 0bd4 aabd d195 1c3e 31d7 263c
000001a0: 5231 323e da3c 343e d3a3 073e f1ab 2d3d
000001b0: 2da5 1c3e 0f2a 78bd b227 1b3e 117f 1cbe
000001c0: 7758 353d 968f 14bd 5c27 7c3c 4be2 b0bc
000001d0: 2c9a 963d 014b 0f3e c3ef 27be e643 1bbd
000001e0: 3739 38be b8c0 1c3e b9fc dabc efe5 8fbd
000001f0: a84f 103b 8463 26be 5805 923d c858 45bd
00000200: 1c57 ef3d d71c fc3d 4ef2 1abe bb77 8dbd
00000210: 9310 93bd a61f 283e ba8d 19bb 7a37 0d3e
00000220: 4cfe f53d dd68 c53d 6a32 b53d 2eed 02bd
00000230: 85f4 9d3d 2a5e 6fbd d881 1ebe 05fe 213d
00000240: 1c93 8e3d 1ad8 cdbd beff 1d3e c18b d63d
00000250: 0e21 963c a003 ad3d ac86 43bd 8c69 043e
00000260: 8168 e73d c718 52bc 13a7 fc3d 601c d63d
00000270: 0443 9c3d 27f5 173e 3a38 c2bc 6594 e6bb
00000280: 04c5 9ebd fb11 80bd d822 033e 3114 31be
00000290: 08d2 4f3b 4ef6 023e 822c 2fbe 9689 b6bd
000002a0: e44f ea3d 8514 133e ed7b 1d3e 8617 723d
000002b0: 132c 35be 3d68 63bd 54d7 263e 003a f23d
000002c0: 372b e9bc 5c1a 44be c202 dfbd 7fb9 1f3e
000002d0: 2f0c 4a3c 192d 88bc 1a95 ed3d 1ab6 903c
000002e0: 9564 993d b112 403d fc5d 1d3e 0233 dcbc
000002f0: 593f 3bbe 6a6c 393e 3bb6 d53d e0cb 0cbd
00000300: 4383 f1bc 60ff ca3d c39c 7cbc 4431 033e
00000310: 5d57 17bd 54b5 433d f30f 9bbd fb26 9b3d
00000320: 8320 f5bd 2fd9 9fbd b74b 043d 0f61 033d
00000330: 49c1 8abd e6e5 59bc 91cd 73bd 2371 363d
00000340: f830 5f3e bfb7 21bc b290 62be 3a48 173e
00000350: 266c 173e 2708 89bd 84ff d3bd 43e1 033e
00000360: 546c 14be 83d4 67be 9d3d 9b3d 24df 0b3e
00000370: 96c4 02bb 95f7 ebbd 9c7e a4bd c1ec 2b3e
00000380: bfd9 e73d ca19 eabd 721b 5a3d 88b1 18be
00000390: d28b 37be 9692 523e dd80 e83d 5b1a 18bd
000003a0: b27f 35be ca51 7c3d 392b 3ebe 1e39 153e
000003b0: 7885 8d3c 1f29 f23d e8dc 233e 9683 1ebe
000003c0: 488d 1cbe 91a3 bbbd fce9 0dbe 1781 cc3d
000003d0: f5b9 c9bc 0587 b23d 1a4e 423e 4ea2 03be
000003e0: 3531 3ebe 7152 3dbc 5d5c 21be 8441 53bd
000003f0: e0b1 9c3d 2877 d53d df83 0ebe 5959 20bd
-0.14953344 -0.032023787 -0.01939315 -0.15464273 -0.084517084 -0.121307224 0.082135305 -0.054113977
-0.11702702 -0.09405827 -0.11609461 0.15014803 0.058534574 -0.030247267 -0.14498259 -0.12563704
0.023287546 -0.14237714 0.073862754 -0.10481126 -0.043682583 -0.001942851 0.07152568 -0.090651385
0.09348402 0.048777048 -0.17173848 0.009954615 0.06450168 -0.0063515594 -0.05656488 0.16336098
0.13178702 0.13569187 -0.05239694 -0.06258404 0.066615604 -0.06735195 -0.058502953 -0.068909965
0.06426092 0.04540655 -0.113034464 -0.0040419432 -0.12241123 0.050225813 0.03978089 0.16945697
-0.16503343 -0.05813681 0.094622396 -0.10673622 -0.067564055 0.09760742 0.114193484 -0.031455986
0.039468694 0.12906626 0.12226261 0.043619305 0.026224995 -0.062072206 -0.04684738 -0.11647177
-0.087618485 -0.061915413 0.14952101 -0.0032567913 -0.07316618 -0.013557903 0.1262901 -0.038986087
-0.030976595 -0.061769757 0.06855717 -0.104246415 0.13095182 0.026276104 -0.079641536 0.048498526
0.028167337 0.02352113 -0.1453434 0.06414968 -0.17008677 0.047330484 -0.04663198 0.09646857
0.13596539 -0.04954012 -0.124438696 0.022078257 -0.12004343 0.15170223 0.13056743 -0.046894476
-0.038492154 0.14179543 -0.0074946014 -0.12784158 -0.10813487 -0.08341225 0.15291525 0.010183142
0.17401627 0.17601338 0.13246088 0.042400304 0.15297385 -0.060586985 0.15151861 -0.15282847
0.04427382 -0.036269747 0.015390243 -0.02159228 0.07353625 0.13993455 -0.16400056 -0.03790655
-0.17990576 0.15307891 -0.026731836 -0.07026278 0.0022020135 -0.162489 0.071299255 -0.04818037
0.11686537 0.12310188 -0.15131494 -0.069076024 -0.07180896 0.16418323 -0.0023430423 0.13790694
0.12011394 0.09639142 0.08847506 -0.031964473 0.07712654 -0.05843941 -0.15479219 0.039548893
0.06961653 -0.10050984 0.15429589 0.10475875 0.018326309 0.08447957 -0.047735855 0.12930888
0.112992294 -0.01282329 0.123365544 0.10454631 0.0762997 0.14839612 -0.023708452 -0.007036733
-0.077524215 -0.062534295 0.1280626 -0.17292859 0.0031710882 0.1278927 -0.17106822 -0.08912961
0.11441019 0.14363296 0.15379305 0.059104465 -0.17692594 -0.05551933 0.16293079 0.11827469
-0.02846299 -0.1915068 -0.10889198 0.15598105 0.012332006 -0.016623067 0.116007045 0.017664958
0.074898876 0.046892826 0.15367883 -0.026879791 -0.18285884 0.18107763 0.10435148 -0.034374118
-0.029481536 0.0991199 -0.015418234 0.12811762 -0.03694855 0.04778035 -0.075714014 0.07575794
-0.11969092 -0.07805096 0.03229877 0.032074984 -0.067751475 -0.013299441 -0.059522215 0.04454149
0.21796024 -0.009870469 -0.2212551 0.14773646 0.14787349 -0.06691008 -0.1035147 0.128789
-0.14494449 -0.2263966 0.07580111 0.1365934 -0.00199536 -0.11521832 -0.08031961 0.16789533
0.11320829 -0.114307 0.05324883 -0.14911473 -0.17924431 0.2056373 0.11352704 -0.03713451
-0.17724493 0.061601438 -0.18571176 0.1457257 0.017275557 0.118242495 0.16002238 -0.15479884
-0.1528827 -0.09162057 -0.13858789 0.099855594 -0.024624804 0.08717159 0.18975106 -0.12854883
-0.18573458 -0.0115553 -0.1575789 -0.051576152 0.076511145 0.10423118 -0.13917492 -0.03914771

p2iLayer.a f4 [352, 1]
00000000: 3263 be3d d8d3 b33d 0290 613d edb2 aabd
00000010: a3b6 84bd 84ca df3c 68d6 2b3d 5a93 6a3d
00000020: 893d 313e 6033 b53c 436f 743b 383c 873d
00000030: 4f48 8bbc ecdc 83bc 8878 8d3d c9e1 62bd
00000040: a6b7 8ebd 73e7 173d 0892 6eba e2de 0ebd
00000050: 2e27 a53c 3393 0c3b 73a7 553d 880d 443c
00000060: 7f00 0ebd c836 a03d 324a b2bd 1504 ae3c
00000070: e855 c53c f99e 423c 49a5 aabd 99a2 0c3e
00000080: 2ce2 08be 85b9 87bd e76f dcbd 6963 443e
00000090: b84b 163e 1b01 e0bc 7d72 993d e6a4 7fbd
000000a0: 8918 78bd 283c bd3b 5d0d b13d 6bf5 0ebe
000000b0: 1018 793d d681 303e c05d d9bd c387 a33d
000000c0: 23d4 213e cbb9 dcbd de01 3f3d 9a9c 4fbe
000000d0: b2b8 adbd 0050 b63c f0e8 b6bd 6c17 7abd
000000e0: 915f 32be f63b 9ebd 90ba edbd 41a7 4a3d
000000f0: 5b61 483d b0d2 db3d 2e11 2c3e db18 a4bd
00000100: 3776 1c3e c59f 9f3d c355 84bc bd20 d73c
00000110: cc09 493d 896a 9f3d e853 f0bd 7d43 213e
00000120: 9878 87bc e385 003d ef9d da3b 3ff1 913b
00000130: 6bd7 c3bd e3a7 0cbe 79a0 8fbd a79d 843d
00000140: 0b35 3abd 10a8 623d 9e62 b43c 20a9 25bd
00000150: b813 f2bd 2701 47bc 8a05 fdbd d9ae 183e
00000160: 7915 8e3d ac93 b53c 8261 98bd f01e c63c
00000170: eb19 70bd be77 ad3d 173f 86bd c44c edbc
00000180: e0fd b33d c465 1fbb 2b67 c33c a72c a6bd
00000190: 1716 ae3d 851b 823c d27a 3a3d 2c89 b13d
000001a0: 18c9 d23d db0a 88bd 7e60 f73d c3e8 19bd
000001b0: 8258 4a3e f4f3 14bc 2227 4a3c 19d2 a73d
000001c0: f17f e2bd 80fe 0a3e fe77 1d3e 4822 0bbc
000001d0: d02a 733d 50ad 0a3e bdca 9f3d 537e 02be
000001e0: cf9a bd3d ad3f 833d 05c9 37be 8351 473d
000001f0: c269 cb3c 9bed a03d 775c f93d 4fc5 a23d
00000200: f2dc dabd 8d8f f43d 29f8 593d 000e 92bd
00000210: 5760 e43d b449 cabb d89e 073d 6aef b33c
00000220: 42ed 9cbc 6ff8 85bd af8e d0bd 7447 0fbd
00000230: 307e 1a3c cdee ccbc d929 82bd 69f4 20bd
00000240: 5386 d3bd d1de 4cbe c0a6 5bbc 9b75 07be
00000250: 4077 fc3d f9e5 a63b 4cbe 12bd a731 00be
00000260: 561c 243e 9501 ed3d 4b5a ac3d 6d8e fabd
00000270: 189c f33d 92cd 443d 8592 58bd 3857 f3bd
00000280: ebb5 b8bd d4c1 aebc b303 27bd 5442 453d
00000290: 95df 9b3d 9875 ae3d bf6e 52bd bbb3 d03d
000002a0: bd9c 263e 29f3 d13c 42ed 053e 185d 09bd
000002b0: 7499 af3d 9a53 21bd a89c 063e e8da 8b3d
000002c0: 8295 eebd ea72 84bd d51f 1abe cf62 93bd
000002d0: a6ec f63b da1e 703d 915e a5bd 5256 123d
000002e0: b826 2bbd bd70 c0bd e9f0 93bc 61cb 953d
000002f0: a072 45bc b5d3 40bd 90ba 563e 8c23 ad3d
00000300: 5edc 15be 1b6c 853d 7768 85bd 562c 32bd
00000310: 6522 b4bc 5920 203e 87b1 8e3d 5da1 163d
00000320: ecd6 e3bd 26b3 92bd 45d9 153e 37e8 a2bd
00000330: e044 cf3c 9745 803d 855f 81bd 6918 aa3d
00000340: 1d4d acbb 6054 2fbd 9d19 f03c 41eb 9a3d
00000350: 46ca 65bd b674 8ebc 4830 87bd c4c1 0cbe
00000360: ff67 953d b1b5 603d 5ee1 d53c 25d4 f7bd
00000370: dafe 42bd 2073 ed3a 737a 983d d63d 47be
00000380: ef6a 92bd f8a7 323b a05f b6bb 592e 773d
00000390: f563 25ba 8dc2 d63d ba0f f2bc 9396 e53d
000003a0: 3692 8b3d f376 f9bd 3480 893d 3b9c dbbd
000003b0: 84c7 2bbe b6da 11be 46ba 4a3b aa07 553c
000003c0: c036 543c a51f 25bd c285 cc3d 9c15 58bd
000003d0: a48a f63d 29d5 6bbc 6f0b e43c f4f9 25be
000003e0: aac2 6bbd b1bf 18be 502c 40bd c48e 33bd
000003f0: b28a 5fbd 5897 313d ef53 933d c04d cdb8
0.09296264 0.0878064 0.055068977 -0.08334909 -0.06480148 0.027318247 0.04195252 0.05726943
0.1730863 0.022119224 0.0037297762 0.06603283 -0.017002253 -0.016096555 0.06907755 -0.055391107
-0.06968622 0.03708596 -0.000910074 -0.034880526 0.020160284 0.0021450042 0.052161645 0.011966117
-0.03466844 0.07822949 -0.08705558 0.02124218 0.024088815 0.011878722 -0.08332307 0.13733901
-0.13367528 -0.06627182 -0.10763531 0.19178547 0.14677322 -0.027344277 0.0749254 -0.06241312
-0.060570274 0.0057749934 0.08645127 -0.13960807 0.060813963 0.17237028 -0.106135845 0.07984879
0.1580358 -0.10777625 0.04663264 -0.20274583 -0.084824935 0.022254944 -0.08931148 -0.061057493
-0.17419268 -0.077262804 -0.116078496 0.049475912 0.04892097 0.10733545 0.16803429 -0.08012553
0.1527947 0.077941455 -0.016154176 0.026260728 0.04908161 0.07783992 -0.11734754 0.15748401
-0.016536996 0.031377684 0.006671659 0.0044538076 -0.09562572 -0.13735919 -0.070130296 0.06475382
-0.045460742 0.05533606 0.02201968 -0.040444493 -0.11820167 -0.012146271 -0.12354572 0.14910449
0.06937689 0.022165142 -0.07440473 0.024184674 -0.058618467 0.08470105 -0.06555002 -0.028967269
0.08788657 -0.0024322132 0.023852905 -0.081139855 0.08500307 0.015882263 0.045527287 0.086687416
0.10292262 -0.066426955 0.12078951 -0.037575494 0.19760326 -0.009091366 0.012338432 0.0819437
-0.11059559 0.13573647 0.15377805 -0.00849206 0.059367 0.13542676 0.07802341 -0.12743501
0.09258043 0.064086296 -0.17947777 0.04866172 0.024830703 0.0785782 0.121758394 0.0794779
-0.10686673 0.11941443 0.05321518 -0.071315765 0.11151188 -0.006173337 0.03311047 0.021964747
-0.019156102 -0.065415256 -0.10183465 -0.034980252 0.0094294995 -0.025016213 -0.06355638 -0.039295588
-0.10328355 -0.20006873 -0.0134064555 -0.13228457 0.12327433 0.005093333 -0.035826012 -0.12518941
0.16026434 0.115725674 0.084156595 -0.12234197 0.11895007 0.04804761 -0.052874107 -0.1188187
-0.09019073 -0.021332659 -0.040775012 0.04815896 0.07611004 0.08518523 -0.051375147 0.10190531
0.16270728 0.025628643 0.13078788 -0.033536047 0.08574191 -0.03938637 0.13145697 0.068288624
-0.1164961 -0.064672306 -0.15051205 -0.071965806 0.007535535 0.058623172 -0.08074678 0.035726853
-0.041784972 -0.09396503 -0.01805921 0.07314182 -0.0120512545 -0.0470769 0.20969605 0.08454046
-0.14634845 0.0651476 -0.06514066 -0.043499313 -0.021989057 0.1563734 0.069674544 0.03677498
-0.111249775 -0.07163076 0.14633663 -0.07954448 0.025301397 0.06263273 -0.06317047 0.08305437
-0.005258216 -0.042805076 0.029309088 0.07564402 -0.056101106 -0.017389636 -0.06601006 -0.1374579
0.07295226 0.054860774 0.02610844 -0.1210101 -0.047606327 0.0018115975 0.0744523 -0.19457182
-0.07149302 0.0027260762 -0.0055655986 0.060346935 -0.0006309145 0.10486326 -0.029548515 0.112103604
0.06814997 -0.12180891 0.06713906 -0.10723158 -0.16775328 -0.14243588 0.0030933782 0.013002316
0.012952507 -0.04031338 0.0998645 -0.052754983 0.12038162 -0.014394083 0.027837483 -0.16208631
-0.057558693 -0.14916874 -0.04691726 -0.043837324 -0.05457563 0.043357223 0.071937434 -9.789644e-05

intersectionLayer.W f4 [48, 46]
00000000: c82c 8abc 0db9 133e f14c 83bd abba 0cbe
00000010: 0cb1 89bd 1503 303e 2a73 213e eae3 b73d
00000020: 5624 7a3e b063 18be c0f7 133d c739 883e
00000030: c69b 623e 10ba 403e 214e 8ebd 2611 d23d
00000040: a88c 4d3e 0d29 4abe 264f 713e e0a3 05be
00000050: 2155 ae3d a8e0 1dbe 32f5 cc3c 34ce ce3d
00000060: 8602 0b3e 807f 7d3e 2775 83be d55e eebd
00000070: 5ea2 f43d 3cc2 013e ce72 9f3d 67d0 ec3d
00000080: 3a34 dd3d 5ab2 c9bd d16b 243d c6a3 28bd
00000090: 75b1 3b3e 14ca 04be 2f4b a03d 7360 3f3e
000000a0: c73a 833e cc5c da3d e82e 673d 09b5 86be
000000b0: d3be 61bc 0b0c abbd e419 443e 6867 1abe
000000c0: 47b0 6ebe b0b3 f13c f06d e13c bc8c 49bd
000000d0: ac84 0abe 24d5 b73d 085d 22be 1e1b 54be
000000e0: 80de 1dbb c082 bd3c 444f 8abd 801c 54bc
000000f0: 0063 4c3b 9822 79be afa0 5ebe 2657 263e
00000100: ac75 01bd 5a53 a2bd 7473 07bd 2890 6dbe
00000110: bcf7 333e b0af 003e 0e15 4c3e 86e6 383e
00000120: eef0 9fbd 28ff cfbd 5485 723e 0449 0c3e
00000130: 4027 d2bd 001d aa3c 5ce1 523e 0c9d 053e
00000140: 0458 783e e693 0e3e de78 623e 00ab c1ba
00000150: d46e 4cbe a356 05be 532c 49be bc73 4d3e
00000160: 6abf c5bd f42f adbd 7cc4 5d3e 4eb6 6e3e
00000170: 74c1 08bd a5e7 a73d c226 833e 7d1d 683e
00000180: 4a5c 60bd 2770 4f3e 6be9 353d 4d8a 243e
00000190: 7311 193e 54b0 afbd d17a 503e ea9a 6c3c
000001a0: 28ad 0d3e c767 2bbe 425f dc3d c72d 093e
000001b0: 8db2 093e 38c2 dabd bde4 3c3e 4e31 5d3e
000001c0: ac14 7e3d bd62 c43d 4a7a 0d3d b167 4b3e
000001d0: bde2 683e c9e4 5a3d 61a2 50be 0e8f f0bd
000001e0: e26f af3c d207 043e 29b1 993c 8b9f 77bd
000001f0: 453a 51be 574e c2bd f2ad 54be 60fe ffbc
00000200: e767 29bd 2fcc 113c e89f 2abe 88fa 2fbe
00000210: 38be 47be e50a d33d 9f4d 703c cf01 ebbc
00000220: 6896 683e e0c3 10be b642 2f3e 40ca 16be
00000230: ba8b fbbd 9d61 763e 2140 32be 3c5b 843e
00000240: 97ec 02be 3cd1 6c3e ebdc e5bd 0808 67be
00000250: d56d 563e b4a1 14be 689e 3c3d 2fe7 3e3d
00000260: e5c8 093e 9004 683e 9c38 35be 5c9e 1e3e
00000270: dc12 69be 7c29 5a3e 6d45 693d c290 74be
00000280: 8102 6d3e ee61 ef3b b0c0 733e 23f1 a7bd
00000290: c688 543e dacb 1c3e 899a 143d 9af9 6cbe
000002a0: 88ae 733e fd9b 053e 3673 633e 37a4 f13d
000002b0: 07d0 063e 4b9e dbbc b1f7 683d 7411 ac3d
000002c0: bfda 89bd 66bb b6bd 4f3f 093d 364b 493e
000002d0: 9b33 7d3e c691 c73d 9dab d03d 276e f63d
000002e0: ac9e a2bd 6070 1f3c 0441 9cbd 9862 d93d
000002f0: 2512 e93d 797d 4bbe ed1e 4a3e 1694 ce3d
00000300: 87a0 4e3e 391a 453e 2171 a03d 809e 253e
00000310: a93c 9d3d 0e31 92bc 4688 813e 9657 3e3e
00000320: 5ee8 9a3d d099 f43c 7343 61bd e8be 4abe
00000330: 1f23 0b3d cf29 d0bc fdc8 3cbe 8fa1 b7bc
00000340: ed4b 05be 6cd0 813e 97b1 62be 17c7 6ebd
00000350: 4563 42bd 47c9 4c3e 4444 cebd ad51 ee3d
00000360: bc33 0a3e cff8 cbbd 25a7 7cbd 82dd dd3d
00000370: df43 01be 2ee0 35be 1a03 363e 8438 09bd
00000380: e44e 6a3e 59de 8dbd 5b1b b8bd eda7 9fbd
00000390: e880 2cbc 9040 d1bd a89c 9fbd 22bd 90bb
000003a0: e4da 493d 5cd3 e43d 044c 5cbe 60ac 2a3c
000003b0: 3735 23bd 476c 863e 2a36 6fbe cf11 733c
000003c0: 1d5f 82bd 7691 1bbe 01db 10be 225a 3d3e
000003d0: 7996 df3d f4ee 75be 0f6b 1f3e 76b3 c2bd
000003e0: ac48 413e 2822 7b3d a613 aabc 146d 3b3e
000003f0: 2c81 3c3c 4af8 893d 018b 203e 169e 473e
-0.016867056 0.1442606 -0.0641116 -0.13743083 -0.06723222 0.17188676 0.15766588 0.08979018
0.24427924 -0.14881778 0.036124945 0.2660658 0.22129735 0.18820977 -0.06948496 0.10257177
0.20073187 -0.19742222 0.23565349 -0.13050795 0.08512331 -0.15417731 0.025019262 0.10097924
0.13575181 0.24755669 -0.25675318 -0.116391815 0.119450316 0.12671751 0.07785569 0.11563187
0.10800977 -0.09848471 0.040141884 -0.04117181 0.18329413 -0.12967712 0.0782684 0.18689136
0.2563078 0.10662231 0.056441218 -0.26309994 -0.013778406 -0.083519064 0.19150501 -0.15078509
-0.23309432 0.029504627 0.027518243 -0.04920648 -0.13527173 0.089762 -0.15855801 -0.2071347
-0.002408892 0.023133636 -0.067534 -0.012946248 0.0031186938 -0.24329603 -0.21740983 0.16244182
-0.03160636 -0.07926054 -0.03306909 -0.23199522 0.17574972 0.1256702 0.19929907 0.18056688
-0.078096256 -0.10156089 0.23683673 0.13699728 -0.102613926 0.020765781 0.2059378 0.1304819
0.24252325 0.13923606 0.2211642 -0.0014775693 -0.19964153 -0.1302133 -0.19645815 0.2006368
-0.0965565 -0.08456412 0.21656984 0.23311731 -0.033387616 0.081984796 0.25615507 0.22667499
-0.054775514 0.20257626 0.044412058 0.16068383 0.14948063 -0.08578554 0.2035935 0.014441231
0.13835585 -0.16738807 0.107603565 0.13396369 0.13447018 -0.106815755 0.18446632 0.2160084
0.062031433 0.09589145 0.034540452 0.19863774 0.22742744 0.053440843 -0.20374443 -0.117460355
0.021415655 0.12893608 0.018761234 -0.060454886 -0.20432384 -0.094875984 -0.2076948 -0.031249225
-0.041358855 0.008898779 -0.16662562 -0.17185414 -0.19506156 0.10304812 0.014666944 -0.028687386
0.22713625 -0.1413722 0.17115292 -0.1472559 -0.1228251 0.24060674 -0.17407276 0.25850856
-0.12785564 0.23126692 -0.112237774 -0.22561657 0.20940335 -0.1451481 0.046049505 0.046607193
0.13455541 0.2265799 -0.17697376 0.15490097 -0.227611 0.21304888 0.056950975 -0.23883346
0.23145486 0.0073053753 0.23803973 -0.0820029 0.207553 0.15312138 0.03628019 -0.2314209
0.23797047 0.13047786 0.22211918 0.117988996 0.13165294 -0.026808878 0.056876842 0.084017664
-0.06731176 -0.08922462 0.03350764 0.19657597 0.24726717 0.09744601 0.10188983 0.12032729
-0.079404205 0.009731382 -0.07629588 0.106145084 0.11380414 -0.19872083 0.1973836 0.10086839
0.20178424 0.19248284 0.078340776 0.16173744 0.07677586 -0.017845657 0.2529928 0.18588099
0.07563852 0.0298585 -0.054995965 -0.19799387 0.03396904 -0.02541056 -0.18436046 -0.022415904
-0.13017245 0.25354326 -0.22138058 -0.058295336 -0.047457952 0.19998656 -0.100716144 0.11636672
0.13496298 -0.09959566 -0.06168284 0.10833265 -0.12623547 -0.17761299 0.1777462 -0.033501163
0.22881657 -0.06927175 -0.08989593 -0.07795701 -0.0105287805 -0.102173924 -0.07793552 -0.0044170776
0.049281016 0.11173126 -0.21513373 0.010417074 -0.03984567 0.26254484 -0.23360506 0.014835789
-0.06365798 -0.15192208 -0.14146043 0.18491414 0.10917372 -0.24016935 0.15568183 -0.09506886
0.18875378 0.06131187 -0.020761322 0.18303329 0.011505406 0.067368105 0.15678026 0.19493899

neighborLayer.W f4 [6, 32]
00000000: 4f00 df3d b99f 6dba 834e 37be 028c 51bd
00000010: 95db b73d 08dd 143e 715c cfbc 5ccf 3e3e
00000020: 73bc 85be 24fd 7ebe 1bb6 88be 0560 4dbe
00000030: 3f39 d7be b2bf 11be 0061 0ebe b75e 52be
00000040: a247 52bd 4e67 4e3e 8517 9c3d 1690 843d
00000050: a0eb 13be 8bd7 9f3e 6df0 8c3e de51 adbd
00000060: 017a b8bd 874a ca3c 8e75 e5bd cebc b0be
00000070: 5231 c8bd b19f 05bd 9ef1 5ebe 37ee 6a3c
00000080: a7e4 c8bd 0f6e cdbc 02ef 163d 585d b23e
00000090: a3bd 543e cee0 a7be dd1e 7f3d 4761 a3be
000000a0: df45 ab3d 4eee 583e 90ff afbe 70f5 1f3e
000000b0: 8d20 5c3e f7f6 cabe 5ffd 2d3e 9495 1ebe
000000c0: bb49 0fbe b12e 913e abec cc3d 0b7e 1bbe
000000d0: b40b a93e e9f7 adbc 84c6 9b3e 0f03 c5bd
000000e0: ac89 bebe 10ef 863e d723 88be 681e 4ebd
000000f0: 83e5 7d3e 6b4a cfbe 02ec a73e 78ae 9cbe
00000100: 4167 6fbe 73f5 f5bc a50c ad3e 2412 9cbe
00000110: 6326 8b3d 471f a93e 07dc babe 3d03 af3e
00000120: 001c acbd de6e d6be 27eb 1b3e a30d fb39
00000130: 7fcf 79be 4f0a ff3d f1e1 d9bc 7c61 b4bd
00000140: 1cda 76bd 9c97 1d3e 4c3d 0ebd ba94 b13e
00000150: 3809 1d3e 7ad9 7cbe 20e4 50be 459b b83e
00000160: bed7 9d3e 9a7b 0abc 5cc3 a23c 9599 783e
00000170: 87cf 673e 6a75 1abd 7447 05be 9ef1 8bbe
00000180: 192c 9e3e f10d 823c c155 863e 9c1c 68be
00000190: c907 603e df25 493e 96b0 773e 3691 543d
000001a0: 65d4 f3bd 3afb 933e d82c 4bbe db2b 3e3c
000001b0: f127 cfbd b5e1 883e 505f 71be a0ec 85be
000001c0: 234c 2a3e f29b 863e b6a9 cdbe e02c 893e
000001d0: a61a 0ebe cddf babd a20c 6c3e 0498 373d
000001e0: 6b43 f83d c697 513e 2369 6f3e 393d e5bd
000001f0: 3f60 01be 7656 7b3e 9ee3 4f3e 19f5 c4be
00000200: c311 a53e b62b 66be bfe4 943e 84d7 883e
00000210: 2600 96ba 3182 abbc 897a 6fbe 0cff 943d
00000220: 27fb 14be ebe4 843e d0af 703e b533 abbc
00000230: 4d64 993e fd48 34be 7115 3c3e 7375 57be
00000240: 7ea4 b23d d398 9bbe 0624 a7be 874e a53e
00000250: b368 9bbe 39ea 73be f806 8fbe 9d31 f23d
00000260: bd4b 86bc 86be c83e 337a f53d 8603 7b3e
00000270: fbd2 6bbe fc67 ccbe a403 9ebd 465b 2a3e
00000280: 015b 01be cf36 993e 1c47 d6be 0169 843d
00000290: 26bb 2a3e 8ba7 563e d9a3 9c3c 6691 523e
000002a0: 4834 fe3d 223d 553e 496d 43bd 8662 bf3d
000002b0: bc1d 093e ac4b a43e 3c5c 86bd be3b 24be
000002c0: 93c4 81be 35b8 13be 9762 853e 069f c4be
000002d0: 7579 fb3d 2c22 d7be a966 a83c ced1 77be
000002e0: 0b99 50be 2607 b53e cdff c53e eb3c 86be
000002f0: 1674 04be c02e c6be ddf4 8cbe 2a7e cf3b
0.10888731 -0.0009064633 -0.17901044 -0.051158912 0.08977429 0.14537442 -0.025312634 0.18633789
-0.26120338 -0.24901253 -0.26701435 -0.2005616 -0.42035863 -0.14233282 -0.1390419 -0.20543943
-0.051337846 0.20156595 0.076216735 0.06472795 -0.14445353 0.31219134 0.2752718 -0.084628806
-0.090076454 0.02469374 -0.112040624 -0.34519047 -0.09775032 -0.032622997 -0.21771857 0.014339021
-0.09809237 -0.025076894 0.03684903 0.3483684 0.20775466 -0.327887 0.062285293 -0.31910154
0.08362936 0.21184656 -0.34374666 0.1562097 0.21496792 -0.39641544 0.16991185 -0.15486747
-0.1399297 0.28355935 0.10006078 -0.151848 0.3301674 -0.021236377 0.30424893 -0.09619724
-0.3721441 0.26354265 -0.26589844 -0.050321966 0.24794583 -0.40486464 0.32797247 -0.3060186
-0.23379232 -0.030024266 0.3379871 -0.3048259 0.06794431 0.33031675 -0.36495993 0.34182158
-0.08403778 -0.4188146 0.15226422 0.0004788461 -0.2439556 0.12453138 -0.026596995 -0.08807656
-0.0602666 0.15389866 -0.034726426 0.34683782 0.15335548 -0.24692336 -0.20399523 0.3605596
0.3082866 -0.0084523205 0.019868545 0.24277337 0.22637759 -0.03770963 -0.13015538 -0.27332777
0.3089302 0.015875788 0.262373 -0.22667164 0.2187797 0.19643353 0.24188456 0.051896296
-0.119057454 0.28902608 -0.19841325 0.011607136 -0.1011504 0.267347 -0.23571515 -0.26157093
0.16630606 0.26290852 -0.40168542 0.2679205 -0.13877353 -0.09124718 0.23051694 0.044822708
0.12122234 0.20468053 0.2337995 -0.11193318 -0.12634371 0.24544701 0.20301673 -0.38468245
0.32240114 -0.22477612 0.2908077 0.26726925 -0.0011444136 -0.020936104 -0.23386587 0.07275209
-0.14548932 0.259559 0.23504567 -0.02089868 0.29959336 -0.17605968 0.18367554 -0.21040897
0.08722781 -0.30390033 -0.3264467 0.32286474 -0.30353317 -0.23819818 -0.27935004 0.11825869
-0.016393537 0.39207858 0.11986198 0.24513063 -0.23029701 -0.39923084 -0.07715538 0.1663638
-0.12632371 0.29924628 -0.41851127 0.064653404 0.16672954 0.2096235 0.019121097 0.20563278
0.124123156 0.20824102 -0.047711644 0.09344964 0.13390249 0.32088983 -0.06560561 -0.16038415
-0.25345287 -0.14425738 0.2605178 -0.38402575 0.122790255 -0.4201826 0.020556765 -0.24201128
-0.20370881 0.35357016 0.38671723 -0.26218352 -0.12934908 -0.38707542 -0.27530566 0.0063321786

neighborLayer.a f4 [64, 1]
00000000: 1bbc 063d 93b8 4ebe 1a9a dfbd 3b7e 83be
00000010: 1e2c 01bc e752 13be 5af7 703e 00f3 403e
00000020: 6dae a0bd 6bd9 c93d 109f 463b 3aef e03d
00000030: 6bef 123e 6885 7f3e 1916 31be 65a6 0a3c
00000040: 67c6 89bd addc 973d 8146 483d 73ce 783e
00000050: 21a6 53be 0816 473e c5e8 fdbd 2b69 9abe
00000060: e730 253d d7a1 833e 78c5 68be d8b4 7bbe
00000070: b8b5 5d3e 3a87 b0bd cabd 403e a015 023e
00000080: ab71 12be 1bbc 19be 24f1 313e f465 02bd
00000090: b6dd 323b 49a2 93bd ea49 3b3e bda7 78bd
000000a0: 912d 913d 5adc af3c 83d0 25bd fdd6 7fbe
000000b0: 128e 91bd 2e87 af3d 194d 493d a0ba 22be
000000c0: dffa 55be 9079 163e 4b45 5b3e b57e 233e
000000d0: 1138 733d 863a 4e3e 37d5 b6be 17a4 5ebc
000000e0: bc46 f73d 1ffb 8fbe 6d4e 8bbe 8267 16be
000000f0: 3b3d a5bc 21d1 ba3c 2fa6 62be 3330 593b
0.032894235 -0.20187597 -0.109180644 -0.25682244 -0.0078840535 -0.14387093 0.23531857 0.18842697
-0.07845769 0.09855922 0.003030721 0.10983129 0.14349143 0.24953234 -0.17293586 0.008462523
-0.06727295 0.074151374 0.048895363 0.24297504 -0.20668842 0.19441998 -0.12397913 -0.30158362
0.04032984 0.25709412 -0.22731578 -0.24580705 0.21651351 -0.086195424 0.18822399 0.12703562
-0.14301173 -0.15013163 0.17377144 -0.03183551 0.0027292795 -0.07208688 0.18289915 -0.060706843
0.07088769 0.021467377 -0.040482055 -0.24984355 -0.07107176 0.08570705 0.04914579 -0.15891504
-0.20896481 0.1469481 0.21413152 0.15966304 0.05937964 0.20139512 -0.35709545 -0.013588927
0.120740384 -0.28121278 -0.27208272 -0.14687923 -0.020170799 0.022804799 -0.22133707 0.0033140301
