test/model/actor_3_3_2_2_35_best_rou2.pth (torch, 689330 bytes, 17 tensors)

v2lLayer.W f4 [3, 40]
-0.27269095 0.29665458 -0.28833693 -0.19552103 0.2859289 -0.12485949 0.123464525 -0.14047655
0.3653552 0.25962713 0.08551929 -0.0024573975 0.09215531 0.26896423 -0.03683124 0.09201086
-0.01661938 -0.43286717 -0.24636705 -0.0656251 -0.07620397 -0.01678456 -0.2948579 0.15218382
-0.22229925 0.3520333 0.31383944 -0.1607889 0.21725306 -0.29725996 -0.040029284 0.37505183
-0.2754621 0.13591966 -0.27192473 -0.32208377 -0.13026217 -0.34429297 0.12376792 -0.10762958
0.14562154 0.21896687 0.35202494 0.016277695 0.40776396 0.21912657 -0.20981586 0.26096502
-0.054181587 0.3376914 -0.29278213 -0.034713697 0.19642201 0.04282989 0.4024302 -0.07992041
0.009050633 0.05351067 -0.34347874 -0.32100832 -0.32258448 -0.17091466 0.12181136 -0.23169473
-0.01702185 0.20447719 -0.23077354 0.07466778 0.29465172 0.32081455 0.17798923 -0.10962239
-0.24283966 -0.009278158 0.35653642 0.089811765 -0.31869724 0.24463376 -0.13308908 -0.253726
-0.27146575 0.19874856 0.17045021 -0.15637918 -0.098147996 -0.3767898 -0.3487768 0.27670306
0.16216704 -0.3446662 0.102497384 0.10653608 -0.19827412 -0.090575606 0.17182149 -0.05501722
-0.2642298 0.27203485 -0.33528998 -0.045220226 0.23558399 -0.15399359 -0.19613095 -0.04144396
-0.0014461444 0.11092087 -0.24988323 -0.31232396 0.2103317 0.20063995 -0.27061138 -0.04355746
-0.2737296 -0.36775854 0.3206155 -0.39537096 -0.0994465 -0.13441536 -0.07002323 0.25733432
00000000: 269e 8bbe 1ce3 973e e6a0 93be aa36 48be
00000010: 4665 923e 55b6 ffbd f8da fc3d 16d9 0fbe
00000020: d60f bb3e d9ed 843e bd24 af3d 4a0c 21bb
00000030: ecbb bc3d aeb5 893e 5bdc 16bd 3170 bc3d
00000040: 5e25 88bc c4a0 ddbe a547 7cbe 7466 86bd
00000050: d410 9cbd c67f 89bc 9df7 96be 13d6 1b3e
00000060: 6aa2 63be b53d b43e 90af a03e d8a5 24be
00000070: 9677 5e3e 7532 98be bff5 23bd cb06 c03e
00000080: 5e09 8dbe 862e 0b3e b839 8bbe 2ae8 a4be
00000090: 7263 05be 2b47 b0be 097a fd3d e66c dcbd
000000a0: d01d 153e da38 603e 9d3c b43e cd58 853c
000000b0: 70c6 d03e b762 603e f8d9 56be 359d 853e
000000c0: 83ed 5dbd e3e5 ac3e 8ae7 95be f32f 0ebd
000000d0: da22 493e 656e 2f3d 550b ce3e 50ad a3bd
000000e0: 1b49 143c 012e 5b3d 72dc afbe 345b a4be
000000f0: cb29 a5be 4104 2fbe 3c78 f93d 6241 6dbe
00000100: 6871 8bbc 7862 513e e64f 6cbe 6ceb 983d
00000110: 97dc 963e ce41 a43e cf42 363e b481 e0bd
00000120: f6aa 78be 6a03 18bc f18b b63e 3bef b73d
00000130: 492c a3be 4681 7a3e 8148 08be 60e8 81be
00000140: 8ffd 8abe be84 4b3e 808a 2e3e dd21 20be
00000150: d101 c9bd 98ea c0be df92 b2be 06ac 8d3e
00000160: 1e0f 263e 1778 b0be 26ea d13d 972f da3d
00000170: 5f08 4bbe b47f b9bd f9f1 2f3e bd59 61bd
00000180: 2149 87be 2748 8b3e 21ab abbe d838 39bd
00000190: ee3c 713e 7fb0 1dbe 8dd6 48be 24c1 29bd
000001a0: 8e8c bdba 7b2a e33d 64e1 7fbe ede8 9fbe
000001b0: 3161 573e 8f74 4d3e 938d 8abe 4f69 32bd
000001c0: 4926 8cbe d94a bcbe b727 a43e 106e cabe
000001d0: 9baa cbbd 2ea4 09be 5768 8fbd 53c1 833e

v2lLayer.a f4 [80, 1]
0.15944907 -0.065753825 -0.12025913 -0.23527637 0.14316423 -0.05981374 0.23431693 0.00815216
-0.06468113 -0.22140998 0.092897914 0.21898367 0.12147761 0.0013414553 0.21742412 -0.120734714
-0.016208617 0.2777421 0.13578549 0.17143178 0.13186568 0.27952862 -0.17785008 -0.034553323
-0.1518991 -0.11143347 -0.18735005 0.17765404 0.17809205 -0.20430793 -0.18598437 -0.2668013
-0.18118323 -0.059366554 0.03561804 0.015260205 0.2646721 0.23054014 0.23637973 0.23938721
-0.110391736 -0.028754754 0.05727387 0.11520352 0.13639152 0.049071196 0.18278742 0.050346546
-0.038235303 -0.019748071 -0.09458722 -0.02263135 -0.20970856 0.0031211495 -0.011109427 0.013200424
-0.090770386 -0.18320523 -0.18981458 0.04008124 0.052066218 0.20367576 0.25986633 -0.18791205
-0.13406596 0.18120846 -0.009825538 -0.21720326 -0.012462283 0.0312885 -0.21347466 -0.1519549
0.17938651 0.15510085 0.31577286 -0.14376052 -0.10014536 -0.059836384 -0.16975032 -0.27762374
00000000: 9e46 233e f1a9 86bd 6b4a f6bd 4aec 70be
00000010: a599 123e 41ff 74bd c7f0 6f3e a390 053c
00000020: 8a77 84bd 4cb9 62be 4341 be3d 413d 603e
00000030: 41c9 f83d c5d3 af3a 6ea4 5e3e c343 f7bd
00000040: efc7 84bc 3634 8e3e 5a0b 0b3e d08b 2f3e
00000050: cc07 073e 601e 8f3e 551e 36be c987 0dbd
00000060: 708b 1bbe 3b37 e4bd b1d8 3fbe f1ea 353e
00000070: c35d 363e 1936 51be b072 3ebe 2e9a 88be
00000080: 1988 39be 582a 73bd 39e4 113d f005 7a3c
00000090: 1a83 873e b712 6c3e 870d 723e ec21 753e
000000a0: 1015 e2bd 178f ebbc 0198 6a3d d3ef eb3d
000000b0: 38aa 0b3e e1fe 483d a02c 3b3e 2e38 4e3d
000000c0: 9f9c 1cbd b5c6 a1bc f2b6 c1bd 6265 b9bc
000000d0: d7bd 56be 338c 4c3b 5004 36bc 9746 583c
000000e0: d3e5 b9bd 279a 3bbe c15e 42be 3a2c 243d
000000f0: 6343 553d 6190 503e 330d 853e 046c 40be
00000100: 9648 09be b68e 393e 4bfb 20bc 886a 5ebe
00000110: 9a2e 4cbc 5f28 003d 1a99 5abe 119a 1bbe
00000120: 19b1 373e c2d2 1e3e fbac a13e f535 13be
00000130: 0319 cdbd ff16 75bd 07d3 2dbe b324 8ebe

laneLayer.W f4 [12, 12]
0.4750954 0.012512034 -0.32331255 -0.39493877 -0.16246071 -0.1296703 0.07474915 -0.50822
-0.31822973 -0.14131276 -0.05720076 0.33024344 0.32109022 -0.32587832 -0.24220286 0.093493186
-0.27351278 -0.51112634 0.42867503 -0.33889893 -0.12267422 0.3816225 0.097926565 -0.08472504
0.29156658 0.23731793 0.29862365 0.12591013 -0.4238309 -0.42088124 -0.16643903 -0.24138774
-0.076114535 0.4736316 -0.28392726 -0.26537222 -0.107944645 0.31155473 -0.1971451 -0.35392347
0.39037824 -0.11798495 -0.09039958 -0.07383699 -0.4850095 0.14511107 0.1553155 0.033007935
-0.38425717 0.31188968 -0.48051512 -0.11612177 0.1389279 -0.009828483 0.35012046 -0.012992837
-0.17862545 -0.06720355 0.2909339 -0.24877296 0.01089142 0.30696037 0.14213917 0.1181224
-0.040992543 0.32468927 -0.20681815 0.20846196 0.11094894 -0.03904308 0.08466566 0.07683224
-0.2517041 -0.2382766 0.444316 0.019215655 0.17121977 0.21386003 0.2502478 0.32382625
0.49891207 -0.5113766 0.25651112 0.047591407 0.0789632 0.4034619 0.29571453 0.08607508
-0.1790533 -0.015842438 -0.2703432 -0.16006725 -0.046204578 -0.5282425 0.13958073 -0.46643505
0.20450449 -0.3517723 -0.05169928 -0.4146332 0.49359745 0.11011183 -0.46093583 -0.17053938
0.27766 0.48685205 -0.19928694 -0.49033892 0.42205942 0.21143411 -0.1814819 0.3027727
-0.18824075 0.4157774 0.3851048 0.43663773 -0.22113325 -0.20773824 0.10349537 -0.23160957
-0.056632463 0.38177234 0.4285689 -0.40352306 0.38294977 -0.34056702 -0.31391403 -0.3478689
-0.06992403 -0.33900622 0.43877202 -0.20644346 0.0032149148 0.09009887 0.15932089 -0.29785854
-0.009380407 -0.30605194 -0.32303932 -0.023034928 0.31646714 0.33493096 0.29332456 0.04471946
00000000: b43f f33e 46ff 4c3c 3989 a5be 6a35 cabe
00000010: 1a5c 26be 4bc8 04be 1516 993d b51a 02bf
00000020: 02ef a2be 4bb4 10be 584b 6abd ab15 a93e
00000030: f065 a43e 86d9 a6be 0704 78be 5b79 bf3d
00000040: de09 8cbe 2dd9 02bf 4b7b db3e 2984 adbe
00000050: 9f3c fbbd 0664 c33e b98d c83d 5284 adbd
00000060: 3748 953e 7903 733e 33e5 983e 96ee 003e
00000070: 5d00 d9be bf7d d7be fe6e 2abe 592e 77be
00000080: f0e1 9bbd d77f f23e ea5e 91be dede 87be
00000090: 1512 ddbd 1a84 9f3e 68e0 49be 7535 b5be
000000a0: a8df c73e 18a2 f1bd 6a23 b9bd d937 97bd
000000b0: 2a53 f8be ff97 143e 070b 1f3e 5433 073d
000000c0: 5bbd c4be 01b0 9f3e 1406 f6be 40d1 edbd
000000d0: 1e43 0e3e a507 21bc fd42 b33e e8df 54bc
000000e0: 97e9 36be 04a2 89bd 4af5 943e 57be 7ebe
000000f0: ed71 323c e929 9d3e ee8c 113e 28ea f13d
00000100: cce7 27bd ac3d a63e 23c8 53be 0d77 553e
00000110: 3339 e33d a3eb 1fbd 3165 ad3d 395a 9d3d
00000120: 5cdf 80be c8fe 73be 637d e33e 266a 9d3c
00000130: 3c54 2f3e 20fe 5a3e 7b20 803e 8ecc a53e
00000140: 6771 ff3e 94e9 02bf 6d55 833e 35ef 423d
00000150: 75b7 a13d 8f92 ce3e e567 973e 2248 b03d
00000160: c059 37be 00c8 81bc 6d6a 8abe abe8 23be
00000170: 0341 3dbd e73a 07bf 40ee 0e3e 93d0 eebe
00000180: a069 513e 801b b4be a0c2 53bd ce4a d4be
00000190: ceb8 fc3e 5082 e13d c8ff ebbe e0a1 2ebe
000001a0: 7429 8e3e ac44 f93e e011 4cbe b40d fbbe
000001b0: 2c18 d83e 2f82 583e 64d6 39be 0605 9b3e
000001c0: 2fc2 40be c6e0 d43e 752c c53e fb8e df3e
000001d0: c170 62be 55b9 54be 61f5 d33d 0f2b 6dbe
000001e0: 71f7 67bd aa77 c33e 626d db3e 939a cebe
000001f0: fe11 c43e cd5e aebe 57b9 a0be df1b b2be
00000200: 5434 8fbd 3992 adbe baa6 e03e ea65 53be
00000210: 52b1 523b c285 b83d 0425 233e ea80 98be
00000220: 47b0 19bc d7b2 9cbe 6965 a5be bfb3 bcbc
00000230: fb07 a23e 127c ab3e a32e 963e c12b 373d

l2pLayer.W f4 [12, 88]
0.0075953538 0.019915074 0.14588363 0.18546972 -0.027667398 -0.06434247 -0.2473641 -0.26397625
0.038685214 -0.14765343 0.24747555 0.27352956 -0.14420728 -0.15993738 0.02331384 -0.091464154
-0.104909465 0.095301576 0.005931751 -0.14590378 -0.11566576 0.13941796 -0.10350423 -0.09341209
-0.0104908915 0.042013798 -0.10781194 0.082800016 0.23042777 0.1252801 -0.030235834 0.13974915
0.067648984 -0.0052954443 -0.090137 -0.19828342 -0.1868955 0.08934708 -0.088603675 0.15828212
-0.1544288 0.21544386 -0.1921482 0.015315926 0.15442702 -0.15495878 -0.20261185 0.006531326
-0.014913298 0.012997146 -0.23520356 0.032152746 -0.022019323 -0.024593098 -0.052480157 0.19283682
0.021811076 -0.22864807 0.22361638 -0.10969905 0.2536974 -0.10224624 -0.20510694 -0.024873622
-0.09653555 -0.18929218 -0.06292403 0.2066249 0.061973654 0.22807522 -0.06862421 0.10875028
0.20901564 -0.023594752 0.20782065 -0.18308981 0.19854495 0.2040492 -0.22590774 -0.19544192
0.19411619 0.03890411 0.114495374 -0.18783489 -0.2815226 -0.085911304 0.032970045 0.161197
-0.06445219 -0.0542455 -0.25141832 0.23397835 0.25480607 0.024238182 -0.0053053712 -0.24610832
0.0262045 0.16468944 -0.26136827 -0.11011011 0.016063463 -0.20850259 0.1448042 0.07524127
-0.23065282 -0.24651377 -0.21683893 -0.0706018 -0.16827804 0.08948472 -0.064975314 -0.10428421
-0.24963725 -0.20030463 -0.063168675 -0.29549757 0.14671555 -0.051194075 0.21849035 -0.18680261
-0.03481274 0.26414743 0.050971135 0.09329726 0.07172724 -0.061481345 -0.09927817 0.14478515
-0.12552966 -0.119440675 -0.18632874 0.1387241 -0.16807157 0.124560505 0.07515923 0.078563824
0.092605494 -0.1406426 0.21090089 0.06927993 -0.0005539198 -0.14857085 0.178976 -0.09973074
0.010323104 0.055105582 0.2601394 -0.038184345 -0.18087353 -0.031386532 -0.22960517 -0.15414841
-0.25708923 -0.2605611 -0.022791287 0.16006461 -0.18933193 0.039612453 0.067582 0.004744204
0.027418701 -0.17556423 -0.038120404 -0.18469402 -0.033376724 -0.13862926 -0.1281166 0.12776737
0.20174411 -0.20424117 -0.07352929 0.11063443 -0.33245173 0.2792436 0.08186354 -0.2268408
-0.108883895 0.11149757 -0.21587613 -0.032011807 -0.15912205 -0.027173897 0.055902485 -0.15283643
0.1168824 0.25199068 0.17146331 -0.03307606 0.15880802 0.14005679 -0.025857856 -0.13667655
0.2212806 -0.02963607 -0.28082442 -0.0434535 -0.012970143 -0.07636763 0.063020274 0.19980623
0.15763901 0.15340106 -0.12640207 -0.108202584 -0.056932524 0.090934984 0.20469372 -0.14609866
-0.040577173 -0.13703032 0.09390248 0.05594311 0.059397027 0.038262963 -0.050578795 0.11988969
0.078832865 0.08182067 -0.062453985 -0.21815677 -0.14490092 -0.0123696625 -0.17656536 0.27039462
0.0037056238 0.17332225 -0.07697489 -0.11724561 0.14726809 0.23525554 -0.24120776 0.053005498
-0.1295156 -0.23582964 -0.14198673 -0.13720682 0.21776192 -0.035509136 0.089392215 0.28348958
-0.22047706 -0.072016254 0.09044739 -0.008240104 0.06509029 0.28711906 0.00018494664 0.154531
0.04810426 0.12544888 -0.16182695 -0.23722275 -0.1569214 0.2629795 0.116391316 0.03832695
00000000: 72e2 f83b f024 a33c 8562 153e c6eb 3d3e
00000010: bda6 e2bc fcc5 83bd 044d 7dbe e527 87be
00000020: 6374 1e3d 7632 17be 3b6a 7d3e 110c 8c3e
00000030: 13ab 13be a0c6 23be abfc be3c 8f51 bbbd
00000040: c6da d6bd 792d c33d 225f c23b cd67 15be
00000050: 2ce2 ecbd 95c3 0e3e 07fa d3bd d64e bfbd
00000060: fde1 2bbc a916 2c3d 82cc dcbd 0e93 a93d
00000070: 42f5 6b3e 6d49 003e 24b1 f7bc 671a 0f3e
00000080: 8d8b 8a3d 6885 adbb bf99 b8bd cf0a 4bbe
00000090: 8961 3fbe 9afb b63d d875 b5bd b514 223e
000000a0: 9522 1ebe 519d 5c3e 7fc2 44be a6ef 7a3c
000000b0: 1e22 1e3e 84ad 1ebe 7b79 4fbe bc04 d63b
000000c0: e856 74bc fbf1 543c 34d9 70be 99b2 033d
000000d0: de61 b4bc 7777 c9bc 6ff5 56bd 0477 453e
000000e0: 24ad b23c b822 6abe b1fb 643e e5a9 e0bd
000000f0: a0e4 813e 7a66 d1bd 8e07 52be c4c3 cbbc
00000100: 6eb4 c5bd cfd5 41be 50de 80bd 7a95 533e
00000110: 16d8 7d3d 8d8c 693e da8a 8cbd 78b8 de3d
00000120: 3208 563e c849 c1bc f0ce 543e e57b 3bbe
00000130: 5e4f 4b3e 46f2 503e 5c54 67be ed21 48be
00000140: 65c6 463e eb59 1f3d 8d7c ea3d ca57 40be
00000150: bb23 90be 44f2 afbd 990b 073d d410 253e
00000160: 83ff 83bd 8830 5ebd e7b9 80be 0598 6f3e
00000170: f175 823e 278f c63c aed8 adbb d203 7cbe
00000180: d2aa d63c 59a4 283e 10d2 85be 6981 e1bd
00000190: 8697 833c b481 55be 8d47 143e 1818 9a3d
000001a0: 4130 6cbe 1b6e 7cbe 060b 5ebe ad97 90bd
000001b0: 1451 2cbe c443 b73d c711 85bd f692 d5bd
000001c0: e8a0 7fbe a81c 4dbe 945e 81bd 754b 97be
000001d0: 9a3c 163e e1b0 51bd efbb 5f3e 2f49 3fbe
000001e0: ce97 0ebd 553e 873e 1cc7 503d a212 bf3d
000001f0: bbe5 923d ddd3 7bbd 5a52 cbbd 8f42 143e
00000200: d98a 00be 509d f4bd f6cc 3ebe b10d 0e3e
00000210: f41a 2cbe 9419 ff3d 15ed 993d 12e6 a03d
00000220: f3a7 bd3d 9d04 10be 67f6 573e a3e2 8d3d
00000230: ee34 11ba f522 18be 7c45 373e a13f ccbd
00000240: 3d22 293c 64b6 613d fe30 853e 3067 1cbd
00000250: e936 39be 2a8f 00bd 9e1d 6bbe 15d9 1dbe
00000260: 33a1 83be 4468 85be cbb4 babc fae7 233e
00000270: 3be0 41be ab40 223d 6e68 8a3d 4575 9b3b
00000280: 2f9d e03c 1cc7 33be 2424 1cbd 6e20 3dbe
00000290: 08b6 08bd d4f4 0dbe ff30 03be 73d5 023e
000002a0: 0296 4e3e 9924 51be 8696 96bd 4e94 e23d
000002b0: 1d37 aabe 04f9 8e3e 12a8 a73d f448 68be
000002c0: 85fe debd d758 e43d a20e 5dbe d01e 03bd
000002d0: e4f0 22be cb9b debc 01fa 643d 2781 1cbe
000002e0: 0a60 ef3d ec04 813e 1494 2f3e c37a 07bd
000002f0: 929e 223e 0c6b 0f3e dbd3 d3bc f0f4 0bbe
00000300: 6297 623e 58c7 f2bc 38c8 8fbe 4cfc 31bd
00000310: b980 54bc a266 9cbd c610 813d 019a 4c3e
00000320: 1f6c 213e 2b15 1d3e 8b6f 01be 5199 ddbd
00000330: 1432 69bd 1f3c ba3d 3b9b 513e e39a 15be
00000340: 4034 26bd ad51 0cbe f24f c03d 9a24 653d
00000350: 4c4a 733d a0b9 1c3d b62b 4fbd ba88 f53d
00000360: 2073 a13d 9891 a73d c0cf 7fbd 7d64 5fbe
00000370: e860 14be 20aa 4abc 8dcd 34be 2a71 8a3e
00000380: 0dda 723b 637b 313e 03a5 9dbd 771e f0bd
00000390: 72cd 163e d4e6 703e 2bff 76be 4b1c 593d
000003a0: bd9f 04be 537d 71be f864 11be f27f 0cbe
000003b0: fbfc 5e3e 0772 11bd 4413 b73d 8c25 913e
000003c0: bdc4 61be 427d 93bd 7b3c b93d 8001 07bc
000003d0: 0f4e 853d 4501 933e 3cee 4139 603d 1e3e
000003e0: f908 453d ac75 003e f7b5 25be 85ea 72be
000003f0: 01b0 20be 40a5 863e 925e ee3d b8fc 1c3d

l2pLayer.a f4 [176, 1]
-0.09254222 -0.15468715 -0.028087586 0.022444703 0.022304552 -0.15217017 0.15789086 -0.09252101
0.076412395 0.11138155 0.03236027 0.12415866 0.10046571 -0.07056586 -0.054868836 0.08556823
-0.0025391183 0.0026986185 -0.07111407 -0.14721857 -0.063328475 0.041575402 -0.05212466 0.025063312
0.012056643 -0.003483141 0.016391115 0.17949037 0.014918136 0.018887257 -0.1411163 -0.1433241
0.06654513 0.16810499 -0.035564736 0.031189524 -0.09431036 -0.1641651 -0.10994412 0.09057791
0.0020936984 0.10632611 -0.08840424 -0.046122983 -0.16381043 0.022473214 -0.03176946 0.030438447
-0.11146493 0.05988722 0.00048565408 0.0694295 -0.03196246 -0.17228107 -0.09805882 -0.005255161
0.07631774 0.07117875 0.08362299 0.041396506 -0.1403474 -0.06533662 -0.10713659 -0.007944879
-0.1099426 0.076137066 0.05047767 0.042395722 -0.05460846 -0.019318549 -0.0562237 0.023490887
-0.08171389 -0.15557021 -0.10841547 0.012526641 0.083403796 -0.061759282 -0.13856421 -0.05113701
-0.08108709 -0.15070824 0.09086884 0.1293121 -0.17323393 0.04905371 -0.15830596 -0.04986991
0.029191503 -0.19994888 0.010897437 -0.086679935 0.047624756 0.107245475 0.02307191 -0.024345098
-0.034092125 0.04261225 0.1039203 0.14971207 0.09812773 0.06182549 0.19416384 0.08977507
-0.07117555 -0.17843875 -0.120565295 -0.15884149 0.05479567 0.1522877 0.0035421343 -0.17154485
0.07140169 -0.04236596 0.14994635 -0.04981385 0.11634129 0.12748326 0.031156123 -0.19863386
0.09517187 0.113175884 0.07313083 -0.046334907 -0.03940567 -0.07629468 -0.05043859 0.096312396
-0.17685445 -0.15936078 0.040369127 -0.12749934 -0.042747684 0.08092756 -0.083001144 0.008669968
0.1969129 -0.14455336 -0.10415119 0.13197772 0.035975292 -0.0140856365 -0.20157436 -0.06657856
-0.015115542 -0.20113252 0.11528158 0.119951285 0.17385152 -0.011541758 -0.01004449 -0.095870525
-0.10557509 -0.0907061 0.15389846 0.17641607 0.058981173 0.11261424 0.10375828 0.18068422
0.08855115 0.023903167 -0.115398854 -0.19510925 -0.10425028 0.07475496 -0.0008284587 0.15241389
-0.048208773 -0.15443471 0.12286757 0.071957394 -0.060415633 0.12154821 0.13775714 0.07631199
00000000: c786 bdbd 4f66 1ebe f017 e6bc f4dd b73c
00000010: 09b8 b63c 7fd2 1bbe 24ae 213e a87b bdbd
00000020: 1a7e 9c3d 031c e43d 348c 043d e546 fe3d
00000030: f7c0 cd3d d584 90bd 25be 60bd 653e af3d
00000040: 5667 26bb 4edb 303b 41a4 91bd 77c0 16be
00000050: 5cb2 81bd f84a 2a3d ab80 55bd 9351 cd3c
00000060: 3a89 453c 6945 64bb a946 863c 53cc 373e
00000070: 336b 743c 73b9 9a3c cb80 10be 8ec3 12be
00000080: d048 883d b723 2c3e 54ac 11bd 2c81 ff3c
00000090: ca25 c1bd e51a 28be 622a e1bd e980 b93d
000000a0: 6e36 093b 81c1 d93d 480d b5bd 74eb 3cbd
000000b0: ecbd 27be bf19 b83c b120 02bd 0d5a f93c
000000c0: ba47 e4bd 4d4c 753d 639f fe39 0e31 8e3d
000000d0: 12eb 02bd 736a 30be 10d3 c8bd 7c33 acbb
000000e0: 7a4c 9c3d 2ac6 913d 8842 ab3d 628f 293d
000000f0: 3bb7 0fbe 35cf 85bd 6e6a dbbd 3d2b 02bc
00000100: 9629 e1bd c0ed 9b3d acc1 4e3d 23a7 2d3d
00000110: 1fad 5fbd ef41 9ebc d34a 66bd f66f c03c
00000120: 9d59 a7bd cc4d 1fbe ee08 debd 8a3c 4d3c
00000130: 9ccf aa3d 4df7 7cbd c7e3 0dbe 0b75 51bd
00000140: fd10 a6bd 4353 1abe 7119 ba3d 646a 043e
00000150: 3c64 31be 8bec 483d f51a 22be 6444 4cbd
00000160: 0523 ef3c 66bf 4cbe 2a8b 323c 4085 b1bd
00000170: 2d12 433d 84a3 db3d 4d01 bd3c 5f6f c7bc
00000180: 2fa4 0bbd 2f8a 2e3d 2bd4 d43d 1f4e 193e
00000190: 31f7 c83d ba3c 7d3d e3d2 463e fedb b73d
000001a0: 7dc4 91bd a6b8 36be f0ea f6bd 58a7 22be
000001b0: 6d71 603d 4ff1 1b3e 2723 683b 74a9 2fbe
000001c0: 0d3b 923d ee87 2dbd 898b 193e 9c09 4cbd
000001d0: 5844 ee3d f98a 023e 203b ff3c ad66 4bbe
000001e0: 78e9 c23d c2c8 e73d 9ec5 953d acc9 3dbd
000001f0: d767 21bd 6340 9cbd b298 4ebd 6f3f c53d
00000200: 5519 35be 792f 23be 195a 253d 308f 02be
00000210: 3218 2fbd 59bd a53d 81fc a9bd 7b0c 0e3c
00000220: 89a3 493e cc05 14be 384d d5bd 2b25 073e
00000230: d45a 133d 71c7 66bc 8269 4ebe 575a 88bd
00000240: 2ea7 77bc aff5 4dbe c018 ec3d 05a9 f53d
00000250: 2206 323e a419 3dbc a591 24bc c457 c4bd
00000260: c137 d8bd 1fc4 b9bd 8f97 1d3e 6aa6 343e
00000270: 3e96 713d 4ba2 e63d 397f d43d 4905 393e
00000280: 4e5a b53d 93d0 c33c 3c56 ecbd b8ca 47be
00000290: 2c81 d5bd 2119 993d ec2c 59ba 6312 1c3e
000002a0: 9076 45bd 2224 1ebe fea1 fb3d 665e 933d
000002b0: 6276 77bd 45ee f83d 3510 0d3e 7649 9c3d

phaseLayer.W f4 [24, 26]
-0.27408028 -0.24103987 0.22810793 -0.31542745 -0.2143403 -0.13263328 -0.296959 -0.21931645
-0.046168357 -0.2738326 0.2782533 0.08348696 -0.21223944 0.20920812 -0.27539954 0.34673846
0.071660906 -0.30646485 0.0838731 0.020388292 0.021882432 0.025214454 -0.3986019 0.1276205
-0.16974996 -0.06372742 -0.36784703 0.27839753 0.065691866 -0.044431567 -0.31321377 0.010856333
0.0025459256 -0.10459171 0.18035305 0.24089557 0.18821798 0.15355419 0.14339642 -0.07200632
0.17197005 -0.14351757 0.12371254 0.07836437 -0.17885262 0.07294632 -0.13048337 0.25064883
0.1247298 0.18187125 0.10810128 -0.32840064 0.18696265 -0.028524509 0.23456599 0.29710102
0.22184382 -0.007376422 0.20638114 -0.036878422 0.085476555 0.13835737 0.13425589 -0.019159766
-0.18419133 -0.3038845 0.006668441 0.24981393 -0.2220033 -0.3451914 0.22478059 -0.22704922
0.25661215 0.115280926 -0.32796207 0.30207542 -0.16243155 -0.13784009 -0.25008136 0.01651805
0.24667712 0.069654286 0.29766962 -0.17902264 -0.16878775 0.31912553 0.16060236 -0.04293513
0.29988873 0.30471686 -0.023967592 -0.104310565 -0.33662605 -0.058127023 0.08406386 -0.043582514
0.044424757 -0.29895428 0.22076924 0.32492936 0.017433723 -0.002515174 -0.09644288 0.06506656
0.101957455 0.22053973 -0.06766893 0.24068534 0.021587368 -0.36141914 -0.21309389 -0.061164305
-0.013595322 0.12494613 -0.23536956 -0.008933982 0.20219892 -0.13606185 0.1337365 -0.012262804
0.15755777 -0.3108751 0.21019445 0.10833278 -0.23594208 -0.23916179 0.08910254 -0.04653754
0.22010483 -0.13855956 -0.23789479 -0.17703581 0.08633938 -0.34419444 0.11610972 0.040939108
-0.0017292623 0.46065328 0.3049815 0.21037985 -0.22973059 -0.2186004 0.36919078 -0.027743885
0.115076646 0.45082268 -0.12576202 -0.36824864 -0.14668937 0.19888799 0.10157982 -0.057307582
0.07891997 0.23589882 -0.47159967 -0.3813709 -0.36535832 -0.35200804 0.0072201486 0.13942939
-0.07968787 -0.21052961 0.31005746 0.029021064 0.07101932 -0.2768965 0.25213298 -0.20037518
0.2292929 -0.2656607 0.3005872 0.37788293 0.054198455 -0.022205021 0.31658164 -0.1017765
-0.09256043 -0.011661679 -0.31913525 0.23827046 0.27973625 0.17433846 0.019761253 0.30565175
-0.15760662 0.14928934 0.173136 0.22977123 0.0021958575 -0.1039807 0.19659272 -0.020220138
-0.10373431 -0.24498822 0.10109556 0.04977406 -0.36919138 -0.2598691 -0.21406388 -0.13140343
0.33491853 -0.21168317 0.26734874 0.061038386 -0.094472334 0.19986112 -0.36497146 0.17622493
-0.28764135 -0.06664341 -0.096108906 0.17021191 0.3580558 -0.12283 0.077629335 0.15100776
-0.10517665 0.22768334 -0.1651445 0.27750793 -0.0016281652 0.3143579 0.03526416 0.11648556
0.1763578 0.33231905 -0.2410257 -0.22242652 -0.27683648 -0.31178996 0.11315292 -0.008080684
-0.33099177 0.33579051 -0.02130413 0.17661864 -0.116117746 0.34632152 0.040821403 0.27721673
0.20847502 -0.0029145018 -0.05890939 0.12385647 0.07258691 0.30998307 -0.34193942 -0.1865375
-0.059008542 0.14424077 -0.18011226 -0.02687153 -0.24348749 0.22849418 -0.26707485 -0.12308597
00000000: 4054 8cbe 28d3 76be 2095 693e b57f a1be
00000010: 067c 5bbe 05d1 07be 030b 98be 7e94 60be
00000020: 081b 3dbd c933 8cbe 3777 8e3e 36fb aa3d
00000030: 4c55 59be a73a 563e 2b01 8dbe b487 b13e
00000040: f4c2 923d f6e8 9cbe a9c5 ab3d 5905 a73c
00000050: c942 b33c 8b8e ce3c 8c15 ccbe f3ae 023e
00000060: efd2 2dbe 8683 82bd 7256 bcbe 1f8a 8e3e
00000070: 7589 863d e0fd 35bd 8e5d a0be c3de 313c
00000080: 8bd9 263b 2e34 d6bd 78ae 383e 54ad 763e
00000090: 37bc 403e 4f3d 1d3e 83d6 123e 0d78 93bd
000000a0: eb18 303e 45f6 12be 005d fd3d 807d a03d
000000b0: 2425 37be e164 953d 6f9d 05be 0b55 803e
000000c0: 5672 ff3d 753c 3a3e 3464 dd3d 2124 a8be
000000d0: 2373 3f3e 3bac e9bc 1132 703e a01d 983e
000000e0: 072b 633e eab5 f1bb 9455 533e d40d 17bd
000000f0: 550e af3d 8ead 0d3e 607a 093e f1f4 9cbc
00000100: a79c 3cbe c096 9bbe f082 da3b 39cf 7f3e
00000110: d554 63be edbc b0be e22c 663e 977f 68be
00000120: ab62 833e 6818 ec3d a5ea a7be a1a9 9a3e
00000130: 7554 26be f425 0dbe aa0a 80be dd50 873c
00000140: ed98 7c3e e8a6 8e3d 2768 983e b651 37be
00000150: b2d6 2cbe 6c64 a33e f274 243e bfdc 2fbd
00000160: 048b 993e d903 9c3e af57 c4bc c7a0 d5bd
00000170: 405a acbe 9a16 6ebd ac29 ac3d 9483 32bd
00000180: bcf6 353d 8910 99be 5511 623e 245d a63e
00000190: 2bd1 8e3c 9ed5 24bb d883 c5bd 9e41 853d
000001a0: 12cf d03d 2bd5 613e 0296 8abd 3876 763e
000001b0: fed7 b03c ee0b b9be 4935 5abe 6c87 7abd
000001c0: eabe 5ebc c2e3 ff3d b804 71be d65f 12bc
000001d0: 3c0d 4f3e cc53 0bbe 39f2 083e eee9 48bc
000001e0: d356 213e 052b 9fbe 373d 573e 94dd dd3d
000001f0: cd9a 71be d4e6 74be 647b b63d 269e 3ebd
00000200: 2963 613e 8fe2 0dbe b19a 73be e048 35be
00000210: b3d2 b03d 413a b0be efca ed3d c4af 273d
00000220: 6aa8 e2ba bfda eb3e 8926 9c3e d16d 573e
00000230: 7f3e 6bbe c9d8 5fbe 9306 bd3e 2547 e3bc
00000240: 4ead eb3d 3bd2 e63e c2c7 00be 168b bcbe
00000250: bd35 16be 4ba9 4b3e 1509 d03d 5bbb 6abd
00000260: cba0 a13d 768f 713e 8375 f1be 0c43 c3be
00000270: 3f10 bbbe 663a b4be ff96 ec3b 94c6 0e3e
00000280: 6533 a3bd 1395 57be dabf 9e3e 95bd ed3c
00000290: 9472 913d 61c5 8dbe 9317 813e 272f 4dbe
000002a0: c2cb 6a3e ae04 88be 91e6 993e df79 c13e
000002b0: 33ff 5d3d 4ee7 b5bc fd16 a23e 3370 d0bd
000002c0: 5390 bdbd a010 3fbc b265 a3be 2cfd 733e
000002d0: 9739 8f3e c885 323e 5ae2 a13c 637e 9c3e
000002e0: a163 21be 4edf 183e 904a 313e 2649 6b3e
000002f0: 60e8 0f3b d5f3 d4bd 9a4f 493e b4a4 a5bc
00000300: a772 d4bd 31de 7abe 300b cf3d e2df 4b3d
00000310: a706 bdbe 900d 85be 9033 5bbe 9f8e 06be
00000320: 717a ab3e 79c3 58be efe1 883e 6303 7a3d
00000330: b67a c1bd 65a8 4c3e 8add babe 4f74 343e
00000340: ba45 93be 577c 88bd bfd4 c4bd 084c 2e3e
00000350: 1753 b73e 4c8e fbbd 21fc 9e3d c7a1 1a3e
00000360: db66 d7bd d225 693e a41b 29be 8515 8e3e
00000370: 2968 d5ba 85f3 a03e 2771 103d fb8f ee3d
00000380: 2497 343e b925 aa3e 71cf 76be c7c3 63be
00000390: 83bd 8dbe efa2 9fbe b8bc e73d d864 04bc
000003a0: c177 a9be bcec ab3e 0086 aebc 84db 343e
000003b0: 24cf edbd 0e51 b13e 5834 273d 5aef 8d3e
000003c0: 7a7a 553e 3a01 3fbb f94a 71bd 76a8 fd3d
000003d0: 72a8 943d 1ab6 9e3e af12 afbe b003 3fbe
000003e0: f1b2 71bd dab3 133e 596f 38be af21 dcbc
000003f0: c954 79be 61fa 693e 09be 88be 7f14 fcbd

p2iLayer.W f4 [24, 176]
0.1488756 -0.056399 -0.03770328 0.010798685 0.063623495 0.11928141 0.0718354 -0.24842104
-0.24978821 -0.1417419 0.12166545 0.13954897 -0.24509613 0.17745732 0.20333154 0.25584555
-0.00060117245 -0.17204796 0.048212867 -0.16598232 0.060269352 -0.24263674 0.2017496 -0.0671462
-0.06523632 0.0088058375 -0.24917454 0.016966494 0.0645902 -0.09073844 -0.22003934 -0.060746502
-0.054336656 0.205559 0.11222263 -0.1018362 0.16309348 0.15977615 0.090979554 -0.06771655
0.2350857 -0.08299426 -0.11632687 -0.093357205 -0.13141978 0.08320543 0.04836817 0.14710309
-0.17725025 -0.092866406 0.046558607 -0.24485104 -0.22690736 0.015595358 -0.047761396 0.07457137
-0.2052798 0.09382068 0.20703213 0.18649752 -0.09573387 0.028850405 -0.20499219 0.06614114
-0.11164522 0.11077275 -0.10151252 -0.052335583 0.14049475 0.12728217 -0.2272828 -0.022972258
0.14835119 0.1623977 -0.17360203 0.081404835 0.042598892 0.035735723 0.03714388 0.14704031
0.20766698 0.22128363 -0.106710106 0.0029898286 -0.024302067 0.014565307 -0.03679793 0.06910963
-0.15276252 -0.16267285 0.0052935043 -0.012841699 -0.10102798 -0.00043268016 0.0911704 -0.1382713
0.011265198 0.03954942 -0.0047043487 0.030583214 -0.27516013 0.0532307 0.02580285 -0.03827081
-0.13275959 -0.11362719 -0.18440345 -0.046991583 0.03549844 0.11377858 0.06356703 -0.14660327
0.004191133 0.20909937 -0.088571526 -0.05205762 -0.07267844 0.08813546 -0.08306137 -0.2145275
0.07184137 0.22560866 0.18065986 0.026552863 0.2628837 0.2715112 0.17986722 -0.12457345
0.20174865 -0.017144613 -0.21296138 -0.07175129 0.15817368 0.02332673 0.056707196 -0.093835525
-0.14648668 -0.13759124 -0.1302588 -0.072005264 -0.16871467 -0.062703975 0.054185122 -0.015575458
-0.27051905 0.12639944 0.13361193 0.28475785 0.012975576 -0.21499518 0.107803695 0.0664481
-0.19952874 -0.018308252 0.016467348 0.1104329 0.19830577 -0.107394844 -0.15116164 -0.086132534
-0.11715389 0.14024812 -0.0780566 -0.18430029 -0.02639463 0.0898788 0.24146758 0.14602573
0.25723848 0.21430385 -0.01672653 0.124848954 0.26283768 -0.09814582 0.040990412 -0.15911357
-0.028430797 -0.12713811 0.03929429 0.0038657214 -0.21310623 -0.090632714 0.005999429 -0.12916946
-0.09951644 -0.03209447 0.03935283 -0.15764083 0.12671149 0.16995566 -0.13341387 -0.042273656
0.007583843 0.15257066 -0.11322851 -0.07313989 -0.11155274 -0.12726699 0.0321295 0.13185218
0.08202549 -0.015047361 0.11047706 -0.08544008 0.08514834 0.19276178 -0.08889465 -0.006614144
0.17211744 0.14252144 -0.03745904 -0.094015285 -0.05483974 -0.04495173 0.01988932 0.07141579
0.14066245 0.16694555 0.09874277 0.19348924 0.010767744 -0.12713917 0.04873658 -0.20451172
-0.047730874 0.09844243 -0.06338525 -0.0026412017 -0.010885932 -0.06545387 -0.08270148 0.03879746
-0.058381945 -0.0025056398 0.18273146 0.038723312 0.093261614 0.13231671 0.07177494 -0.1314181
-0.01218947 -0.09250846 -0.118793935 -0.09964734 0.065105334 -0.011983293 -0.11050716 -0.041641217
-0.08457845 0.19634342 -0.043112434 -0.085355505 0.17735012 -0.0959117 -0.04723904 0.2323089
00000000: d872 183e a302 67bd c16e 1abd f8ec 303c
00000010: 094d 823d d049 f43d 701e 933d 1662 7ebe
00000020: 7bc8 7fbe ca24 11be bc2b f93d ede5 0e3e
00000030: 7bfa 7abe 5fb7 353e 2536 503e 30fe 823e
00000040: 0098 1dba 572d 30be db7a 453d 45f7 29be
00000050: ffdc 763d c475 78be 7297 4e3e f283 89bd
00000060: 9f9a 85bd 5c46 103c 9c27 7fbe 51fd 8a3c
00000070: de47 843d 13d5 b9bd fe51 61be 53d1 78bd
00000080: 1d90 5ebd 0f7e 523e fad4 e53d 7f8f d0bd
00000090: fa01 273e 5c9c 233e 7d53 ba3d f9ae 8abd
000000a0: 4eba 703e e5f8 a9bd c83c eebd 1032 bfbd
000000b0: e892 06be 9c67 aa3d b41d 463d 31a2 163e
000000c0: 1781 35be be30 bebd 3db4 3e3d 3bba 7abe
000000d0: 675a 68be ac83 7f3c 74a1 43bd e0b8 983d
000000e0: de34 52be 0f25 c03d 3b00 543e 35f9 3e3e
000000f0: 1f10 c4bd af57 ec3c 79e9 51be 0275 873d
00000100: 40a6 e4bd d3dc e23d cce5 cfbd d65d 56bd
00000110: dbdd 0f3e 4256 023e d3bc 68be 5130 bcbc
00000120: 60e9 173e 954b 263e bbc4 31be 94b7 a63d
00000130: 2d7c 2e3d 9f5f 123d 2e24 183d bc91 163e
00000140: a7a6 543e 2d98 623e d48a dabd 00f1 433b
00000150: 2115 c7bc 53a3 6e3c 6db9 16bd 5a89 8d3d
00000160: c76d 1cbe b693 26be 2275 ad3b fd65 52bc
00000170: c2e7 cebd 59d9 e2b9 8cb7 ba3d fe96 0dbe
00000180: aa91 383c 93fe 213d f026 9abb a689 fa3c
00000190: cae1 8cbe 6f08 5a3d 8060 d33c dac1 1cbd
000001a0: 21f2 07be 5fb5 e8bd 42d4 3cbe 3f7a 40bd
000001b0: d066 113d bf04 e93d 6e2f 823d 2b1f 16be
000001c0: c655 893b 251e 563e fd64 b5bd 5f3a 55bd
000001d0: 6fd8 94bd 5d80 b43d 141c aabd 19ad 5bbe
000001e0: 9121 933d f505 673e e6fe 383e 6485 d93c
000001f0: b198 863e 8403 8b3e 1d2f 383e 5d20 ffbd
00000200: 3397 4e3e dc72 8cbc 8c12 5abe 57f2 92bd
00000210: 48f8 213e b317 bf3c ce45 683d d72c c0bd
00000220: 9b00 16be b8e4 0cbe 9062 05be 7f77 93bd
00000230: 8ac3 2cbe f16a 80bd 38f1 5d3d 3530 7fbc
00000240: 7981 8abe db6e 013e 91d1 083e c8cb 913e
00000250: 8397 543c b227 5cbe 2fc8 dc3d f115 883d
00000260: 4351 4cbe 30fb 95bc 88e6 863c a52a e23d
00000270: ab10 4b3e d4f1 dbbd 1eca 1abe 4166 b0bd
00000280: 61ee efbd 349d 0f3e 24dc 9fbd 37b9 3cbe
00000290: 8d39 d8bc 6012 b83d 4743 773e c587 153e
000002a0: c3b4 833e 7872 5b3e 1306 89bc cfb0 ff3d
000002b0: a992 863e ad00 c9bd 90e5 273d abee 22be
000002c0: b4e7 e8bc 7e30 02be 0df3 203d 0b58 7d3b
000002d0: 8538 5abe a59d b9bd dc96 c43b 0045 04be
000002e0: 46cf cbbd 7e75 03bd 6f30 213d 996c 21be
000002f0: a8c0 013e db08 2e3e a59d 08be 2427 2dbd
00000300: e381 f83b 7c3b 1c3e 59e4 e7bd 5eca 95bd
00000310: c375 e4bd 4752 02be 399a 033d 4204 073e
00000320: fbfc a73d 3589 76bc cc41 e23d 35fb aebd
00000330: 4162 ae3d 5863 453e 660e b6bd 76bb d8bb
00000340: 8e3f 303e 24f1 113e a66e 19bd 168b c0bd
00000350: a39f 60bd 4e1f 38bd edee a23c 7142 923d
00000360: d109 103e c6f3 2a3e a639 ca3d 0b22 463e
00000370: 316b 303c c530 02be 02a0 473d 856b 51be
00000380: 7381 43bd 2f9c c93d 20d0 81bd 0318 2dbb
00000390: e85a 32bc ae0c 86bd 655f a9bd 16ea 1e3d
000003a0: e821 6fbd a935 24bb f51d 3b3e 569c 1e3d
000003b0: f2ff be3d 087e 073e bdfe 923d 7792 06be
000003c0: 58b6 47bc 1375 bdbd 3c4a f3bd e813 ccbd
000003d0: f255 853d 9355 44bc 9451 e2bd fb8f 2abd
000003e0: 7737 adbd 400e 493e aa96 30bd dece aebd
000003f0: 459b 353e 5a6d c4bd b97d 41bd 62e2 6d3e

p2iLayer.a f4 [352, 1]
-0.06970836 -0.12821929 0.07586153 -0.030978724 -0.10862171 -0.0673505 -0.028955787 -0.008107396
-0.06657661 -0.13397126 0.054255757 0.031884883 -0.037782475 -0.10880837 -0.058038075 0.07547325
0.035940155 -0.10386715 0.066497505 -0.09613878 0.09385658 -0.12129032 -0.10366594 -0.08436594
0.043500535 -0.105061255 -0.042838246 0.1311959 0.017542278 -0.059525494 0.049151085 0.08258
-0.06918059 -0.05760769 -0.110010654 -0.12936214 0.11667984 0.098676786 -0.10406127 -0.116414644
0.042299323 0.013127948 0.053033944 0.020014443 -0.10310585 0.07484787 0.0044115377 -0.09623197
0.12146591 0.107703716 -0.015085914 -0.066695854 0.124834634 0.053803384 0.009941661 0.043178108
0.02205696 0.024821501 0.08129155 0.12901378 0.002416553 0.08247588 0.0051465016 0.10230071
-0.02600483 -0.12262173 0.007367701 -0.10541679 0.0540044 0.06755051 0.11265881 0.12224282
0.101114474 -0.075381026 0.010511257 -0.010227492 -0.062790625 0.010720484 -0.121157326 0.08798796
0.06071261 0.08264798 -0.11575559 0.00961234 0.1384077 0.043455277 0.0070741912 -0.011484405
-0.085400924 -0.013219118 -0.08187256 -0.115987174 -0.06322541 0.114623845 0.09090801 -0.13455392
0.091860324 -0.108275265 0.10954002 0.09013833 0.037667047 0.027228937 -0.07232926 0.12847263
-0.08059022 0.075367875 -0.07079698 0.112296104 -0.06304106 -0.12293487 -0.11258901 -0.0029037471
-0.004398754 -0.07971449 -0.079016685 -0.12380816 -0.008475173 0.06217074 0.079153396 0.047654178
-0.019528922 0.0428303 -0.06079205 0.09247429 0.088021666 0.0787282 0.10384121 0.04688215
0.13395046 0.016864082 -0.05774931 -0.07564312 -0.09094174 -0.086233854 -0.008218287 -0.06106625
-0.037224125 0.05497527 -0.1218431 -0.033795457 0.09712846 -0.11869227 -0.107889995 0.028154997
0.01141903 -0.046403755 0.035656165 -0.109292716 -0.09911739 0.06099006 -0.0040235505 0.02616023
0.11452382 0.11079683 0.11982522 -0.13280733 -0.07874903 0.0061083394 -0.08036023 0.07451302
-0.08459156 0.096539676 -0.07098764 0.112097144 -0.008765764 0.017382752 0.12635945 0.039706472
0.08690637 0.013982629 0.08446525 0.104969524 0.13077354 -0.088746004 0.076794386 -0.12393335
-0.005132815 0.051759817 -0.13504575 0.016694538 -0.063529395 0.1393915 -0.044432815 -0.09485804
-0.0133800255 -0.13921688 -0.16827938 -0.0047436566 0.07524918 -0.037777778 0.03771758 -0.033277616
0.16984054 0.08877522 0.20589514 -0.06961909 0.035015177 0.03500549 -0.061246984 -0.011367219
0.11717282 -0.06347765 -0.014032947 -0.12318499 -0.123533994 -0.058481716 -0.03757912 -0.20456575
-0.06323351 0.07948155 0.06575519 -0.032543592 0.023973035 0.07954669 0.059576448 0.07139426
0.021766093 0.027523872 -0.12162224 -0.09570413 -0.110991456 0.011002927 0.01830255 0.08497215
0.034675505 0.1717033 -0.024085471 -0.16497871 -0.058914293 -0.037377752 0.0142959645 0.14760189
-0.06478205 -0.13056937 0.0353756 0.16482344 -0.037975192 0.17077254 -0.123327956 -0.01378232
-0.08009346 -0.12014358 0.052627806 -0.0744128 -0.0638512 0.108514756 0.13222055 -0.10420369
0.050207827 0.048042424 -0.015671957 -0.12853432 -0.076845266 0.13190968 -0.17110807 0.08409863
00000000: 42c3 8ebd eb4b 03be 4a5d 9b3d 18c7 fdbc
00000010: 0f75 debd 0fef 89bd b034 edbc e2d4 04bc
00000020: 5159 88bd c32f 09be 493b 5e3d b999 023d
00000030: ccc1 1abd ecd6 debd 55b9 6dbd b891 9a3d
00000040: fc35 133d 4db8 d4bd d82f 883d 69e4 c4bd
00000050: e137 c03d 0f67 f8bd cf4e d4bd 0dc8 acbd
00000060: 9e2d 323d 5b2a d7bd 2877 2fbd 3858 063e
00000070: d3b4 8f3c 01d1 73bd a652 493d b41f a93d
00000080: 8eae 8dbd 0bf6 6bbd 444d e1bd 8277 04be
00000090: d7f5 ee3d 0e17 ca3d 131e d5bd cd6a eebd
000000a0: 0e42 2d3d 9b16 573c 1f3a 593d 54f5 a33c
000000b0: 2929 d3bd d749 993d a98e 903b 4415 c5bd
000000c0: 1ec3 f83d c493 dc3d e92a 77bc d697 88bd
000000d0: 4da9 ff3d f060 5c3d 59e2 223c 87db 303d
000000e0: ccb0 b43c 7656 cb3c 2f7c a63d 301c 043e
000000f0: 085f 1e3b 1de9 a83d fca3 a83b 0983 d13d
00000100: 1508 d5bc 1a21 fbbd c16c f13b c2e4 d7bd
00000110: b833 5d3d ec57 8a3d aab9 e63d 725a fa3d
00000120: 1b15 cf3d 5e61 9abd 6837 2c3c 3691 27bc
00000130: 5f98 80bd f8a4 2f3c 5521 f8bd 0833 b43d
00000140: c9ad 783d 5843 a93d 4411 edbd 137d 1d3c
00000150: c0ba 0d3e 29fe 313d 9ece e73b 1629 3cbc
00000160: aee6 aebd 0095 58bc cdac a7bd af8a edbd
00000170: 537c 81bd e8bf ea3d fb2d ba3d 81c8 09be
00000180: 4421 bc3d 6cbf ddbd 8556 e03d 729a b83d
00000190: c348 1a3d 380f df3c 5d21 94bd 548e 033e
000001a0: 7c0c a5bd 795a 9a3d 02fe 90bd 80fb e53d
000001b0: ac1b 81bd 47c5 fbbd 1195 e6bd cb4c 3ebb
000001c0: 6c23 90bb 5a41 a3bd 80d3 a1bd 228f fdbd
000001d0: 74db 0abc bfa6 7e3d 2d1b a23d 0731 433d
000001e0: 1efb 9fbc d36e 2f3d 1601 79bd 2963 bd3d
000001f0: b444 b43d 403c a13d b3aa d43d 7f07 403d
00000200: 4f2a 093e 8b26 8a3c 8a8a 6cbd c8ea 9abd
00000210: aa3f babd 609b b0bd fea5 06bc 9b20 7abd
00000220: 5378 18bd c02d 613d e088 f9bd 1b6d 0abd
00000230: 49eb c63d ef14 f3bd 6ef5 dcbd 4fa5 e63c
00000240: e216 3b3c dd11 3ebd 330c 123d dcd4 dfbd
00000250: 0ffe cabd b7d0 793d fdd7 83bb fb4d d63c
00000260: 778b ea3d 73e9 e23d ed66 f53d a5fe 07be
00000270: 2c47 a1bd 7728 c83b e793 a4bd 489a 983d
00000280: 573e adbd 98b6 c53d f861 91bd 3093 e53d
00000290: 479e 0fbc 4666 8e3c 5f64 013e 41a3 223d
000002a0: f8fb b13d 6617 653c 1efc ac3d 43fa d63d
000002b0: 80e9 053e 77c0 b5bd 6046 9d3d c5d0 fdbd
000002c0: 2c31 a8bb 1a02 543d 6f49 0abe fcc2 883c
000002d0: b31b 82bd a5bc 0e3e 2fff 35bd ef44 c2bd
000002e0: e537 5bbc df8e 0ebe 6e51 2cbe ad70 9bbb
000002f0: 3e1c 9a3d dfbc 1abd c07d 1a3d 1c4e 08bd
00000300: aeea 2d3e c8cf b53d 2dd6 523e 7494 8ebd
00000310: 136c 0f3d eb61 0f3d 1ede 7abd 923d 3abc
00000320: 4ef8 ef3d 9200 82bd 72ea 65bc 6948 fcbd
00000330: 64ff fcbd 868a 6fbd 90ec 19bd af79 51be
00000340: 9280 81bd 39c7 a23d a8aa 863d 6e4c 05bd
00000350: 1963 c43c 60e9 a23d 6f06 743d 2737 923d
00000360: ce4e b23c be79 e13c 1515 f9bd 8700 c4bd
00000370: 7d4f e3bd 9f45 343c 3bef 953c e105 ae3d
00000380: e707 0e3d fdd2 2f3e e54e c5bc 2ef0 28be
00000390: 1d50 71bd 6a19 19bd 9f39 6a3c f324 173e
000003a0: 74ac 84bd fab3 05be 01e6 103d 7ac7 283e
000003b0: e08b 1bbd ffde 2e3e 5e93 fcbd 3dcf 61bc
000003c0: 0a08 a4bd d60d f6bd 4190 573d bd65 98bd
000003d0: 6bc4 82bd fc3c de3d d364 073e bf68 d5bd
000003e0: b9a6 4d3d 22c8 443d 7a62 80bc 809e 03be
000003f0: 0d61 9dbd 5513 073e f436 2fbe e73b ac3d

intersectionLayer.W f4 [48, 46]
0.020583035 -0.037724137 0.14621292 -0.20268956 -0.02421885 -0.05161935 -0.086623155 0.03814451
-0.1899671 0.009013099 -0.050543055 -0.073037244 -0.022162132 -0.036947146 -0.22526862 0.0456782
0.19983283 0.018200397 -0.20625378 -0.19266576 -0.1834926 0.22844362 -0.041909758 0.009844915
-0.08114361 -0.04959094 0.11641924 -0.10842755 0.08884791 -0.23135293 0.25687915 0.09507808
-0.00092213706 0.1389616 -0.23679388 0.15673666 -0.020979641 0.041970383 0.17982662 0.2151765
-0.09942993 -0.030226102 0.21070072 -0.026270147 0.07184383 -0.2301178 -0.24147505 -0.14604971
-0.044951305 0.10958121 0.05298864 0.17077391 0.2390066 0.19243206 -0.1376035 -0.15223512
0.13435394 -0.21851426 0.012965843 0.18532208 -0.21920088 0.10821348 0.15528844 -0.17424592
-0.24144042 -0.07985106 -0.11619016 0.068842135 0.24891567 0.00963455 -0.22826341 -0.04750091
0.14910442 -0.2678451 0.13691737 -0.06336838 -0.2161646 0.19287863 0.24021962 0.13474853
-0.03148804 -0.2583775 -0.040018003 0.12848505 -0.23146981 0.044127703 0.041533 0.13538207
0.15985788 -0.2913942 0.066877775 0.14082895 -0.19163348 -0.0049768835 -0.07108545 -0.21542487
0.024029136 -0.2316471 0.20488778 -0.08259192 -0.18044081 0.24549654 0.073064 0.11903632
0.03024128 0.065951824 -0.23419334 0.22998133 -0.046168953 0.24489096 0.084079444 -0.09934272
0.017578125 0.232728 -0.06296189 0.12598711 -0.031476617 0.018202037 -0.10453844 -0.0033929944
0.012257248 -0.16000248 0.12324947 0.18684179 0.25024238 0.19967973 -0.16254938 -0.21455988
-0.09211236 0.16661313 -0.18645646 -0.09952234 -0.04952663 -0.20260186 0.020320386 0.024615318
0.052118093 0.1037471 -0.27762532 -0.15428713 -0.095901445 -0.15809418 -0.0857033 -0.198702
0.19776842 -0.14199474 0.00041797728 0.12545969 -0.06687896 0.10647716 -0.03818253 -0.10415116
-0.178196 0.009494219 0.14749713 -0.018949406 -0.023228325 -0.14294145 0.07145002 -0.08895936
-0.08848309 -0.100998655 0.19572358 0.09128885 -0.11786854 0.09900205 0.15481316 0.01054662
0.06776523 0.0357015 -0.22190706 0.27167964 -0.2359292 -0.024063889 0.13645113 -0.15813349
-0.023945617 -0.16502106 0.23347779 0.21478024 -0.14305946 0.15447259 0.21493998 -0.07020335
0.20167145 0.04870069 0.08786561 0.23067985 0.028862432 -0.23368217 -0.23918596 -0.20401858
-0.025878068 -0.104428776 0.18282855 -0.23097229 -0.15925427 -0.059781075 -0.005010282 -0.18695062
-0.11069525 -0.22297342 0.22668342 0.109026976 0.217755 0.105168395 0.195106 0.17055002
0.22401874 -0.09459139 -0.15230915 0.13281639 -0.15348667 0.0390727 -0.046670288 0.03646828
-0.1055613 0.028062826 0.0595078 -0.017325066 0.03647948 0.0055823848 0.17930338 -0.18232068
0.22074455 -0.00294037 -0.048878122 0.022255376 0.16087212 0.18910624 0.20540555 -0.21885204
-0.16393246 0.056540407 -0.13061316 0.20543186 0.25894603 -0.24988326 0.09332092 -0.18462922
-0.15566099 -0.14570597 0.19175418 -0.009445157 -0.13970989 -0.03128324 0.009241325 0.15404227
-0.17394207 0.11256395 0.08754914 0.14026244 0.08021396 -0.13770309 0.07105699 -0.037938677
00000000: c19d a83c a084 1abd d7b8 153e da8d 4fbe
00000010: 9c66 c6bc d06e 53bd 7b67 b1bd 6b3d 1c3d
00000020: bc86 42be adab 133c 3c06 4fbd 8d94 95bd
00000030: 5c8d b5bc e455 17bd d1ac 66be 1019 3b3d
00000040: faa0 4c3e 0019 953c 3134 53be 2c4a 45be
00000050: 7ce5 3bbe 20ed 693e 91a9 2bbd 914c 213c
00000060: 9f2e a6bd df1f 4bbd 366d ee3d 430f debd
00000070: e5f5 b53d c8e7 6cbe aa85 833e 4cb8 c23d
00000080: 92bb 71ba f34b 0e3e 187a 72be 937f 203e
00000090: 7fdd abbc 23e9 2b3d 7824 383e 3a57 5c3e
000000a0: eba1 cbbd bb9c f7bc eec1 573e 7e34 d7bc
000000b0: dc22 933d 00a4 6bbe 3c45 77be 0e8e 15be
000000c0: dc1e 38bd 1d6c e03d 9e0a 593d 5bdf 2e3e
000000d0: 25be 743e e90c 453e efe7 0cbe 86e3 1bbe
000000e0: 1494 093e 34c2 5fbe b06e 543c 12c5 3d3e
000000f0: 3276 60be 079f dd3d ef03 1f3e 866d 32be
00000100: 283c 77be f488 a3bd 1bf5 edbd 1bfd 8c3d
00000110: c0e3 7e3e 3bda 1d3c e2bd 69be 5090 42bd
00000120: d4ae 183e fe22 89be 1134 0c3e 48c7 81bd
00000130: 415a 5dbe fa81 453e 22fc 753e 85fb 093e
00000140: 9af9 00bd 0e4a 84be ebe9 23bd 9691 033e
00000150: 6c06 6dbe 40bf 343d 821e 2a3d 99a1 0a3e
00000160: c9b1 233e 9f31 95be 37f7 883d 7735 103e
00000170: 913b 44be 2015 a3bb 4095 91bd 5698 5cbe
00000180: c0d8 c43c e634 6dbe 1ace 513e f425 a9bd
00000190: 7ac5 38be 7263 7b3e 94a2 953d 50c9 f33d
000001a0: 90bc f73c c011 873d 61d0 6fbe 3a80 6b3e
000001b0: a81b 3dbd b2c4 7a3e d831 ac3d 3274 cbbd
000001c0: 0000 903c 4050 6e3e 2af2 80bd c402 013e
000001d0: a0ed 00bd 701c 953c 4018 d6bd 005d 5ebb
000001e0: a0d2 483c b1d7 23be 386a fc3d 7453 3f3e
000001f0: c51f 803e d878 4c3e 5873 26be 96b5 5bbe
00000200: 68a5 bcbd a29c 2a3e 71ee 3ebe 5ed2 cbbd
00000210: 70dc 4abd dd76 4fbe f076 a63c 10a6 c93c
00000220: c879 553d 5c79 d43d e824 8ebe 72fd 1dbe
00000230: fa67 c4bd 71e3 21be 3685 afbd 8978 4bbe
00000240: ce83 4a3e 1267 11be f623 db39 8178 003e
00000250: d6f7 88bd b210 da3d 4965 1cbd 344d d5bd
00000260: 0379 36be a48d 1b3c 7d09 173e c93b 9bbc
00000270: 5449 bebc 3e5f 12be 6354 923d 5330 b6bd
00000280: 9f36 b5bd 62d8 cebd c36b 483e a6f5 ba3d
00000290: 1065 f1bd 96c1 ca3d 5787 1e3e bbcb 2c3c
000002a0: 7fc8 8a3d bc3b 123d 9b3b 63be 9819 8b3e
000002b0: 6d97 71be a221 c5bc d8b9 0b3e bfed 21be
000002c0: 9929 c4bc 48fb 28be cd14 6f3e 5aef 5b3e
000002d0: 2e7e 12be 102e 1e3e 3a19 5c3e c6c6 8fbd
000002e0: f682 4e3e 607a 473d e3f2 b33d 5737 6c3e
000002f0: e870 ec3c 614a 6fbe 2aed 74be 3fea 50be
00000300: 3efe d3bc c1de d5bd 6837 3b3e 0084 6cbe
00000310: 8d13 23be 00dd 74bd 4b2d a4bb fc6f 3fbe
00000320: 31b4 e2bd 2553 64be b31f 683e 8949 df3d
00000330: 2bfb 5e3e 8762 d73d dec9 473e aaa4 2e3e
00000340: 2b65 653e 21b9 c1bd eef6 1bbe 0501 083e
00000350: 9c2b 1dbe b20a 203d 5829 3fbd c35f 153d
00000360: 8630 d8bd 03e4 e53c 73be 733d 4ced 8dbc
00000370: 826b 153d 70ec b63b 4e9b 373e 46b2 3abe
00000380: dc0a 623e 39b3 40bb 6d34 48bd e850 b63c
00000390: a9bb 243e 11a5 413e d555 523e c01a 60be
000003a0: e9dd 27be ea96 673d 75bf 05be bb5c 523e
000003b0: 9394 843e 66e1 7fbe 0a1f bf3d 710f 3dbe
000003c0: 9865 1fbe f233 15be 355b 443e dcbf 1abc
000003d0: 1c10 0fbe db22 00bd ed68 173c 42bd 1d3e
000003e0: df1d 32be ee87 e63d f74c b33d f5a0 0f3e
000003f0: 3747 a43d 0a02 0dbe 5486 913d 9665 1bbd

neighborLayer.W f4 [6, 32]
-0.037299424 0.17678991 0.35200903 -0.27534667 0.09333715 0.3390251 0.12769291 -0.14726385
-0.23023427 -0.23659468 0.3302808 -0.2858215 -0.09372917 0.2955263 0.32606313 0.20450422
-0.13115856 0.105817884 0.25242433 0.033291608 0.36780646 -0.3205071 0.30075327 -0.1816922
-0.1506417 0.11547783 0.14101687 -0.1303828 0.39501086 -0.12532645 -0.0445967 0.059882373
0.22993343 0.3294058 -0.04843903 0.32816648 0.3581109 0.07458429 -0.053479057 0.0744724
0.30481645 -0.2843212 0.0038338625 0.22174183 0.18178257 -0.117004424 0.004232737 -0.052001268
0.30151138 0.117547326 -0.0141804125 0.052424002 -0.010853882 0.093993105 0.13096216 -0.2104646
-0.26514933 0.298902 0.14191233 -0.33815387 -0.33608317 0.28941774 -0.19348419 0.0013312952
-0.070033655 0.11252257 0.19738042 0.17435303 -0.25465503 -0.37376 0.010907687 -0.13403146
-0.18140651 0.33450094 -0.40769055 0.27338764 0.039566968 0.20645843 -0.25095978 -0.07960909
-0.37056258 0.16330642 0.09565148 0.3119957 -0.28331697 -0.31864503 -0.232807 0.040509023
-0.3502482 -0.39230192 0.19774352 -0.048450083 0.03679682 0.15657796 0.1169016 -0.11994705
-0.14836311 0.34187937 -0.10193279 -0.3557482 -0.15632263 0.057337884 0.11142724 0.16351992
0.25982296 -0.24333608 -0.18789554 0.08675226 -0.057507742 -0.1175282 0.21500851 0.17677218
0.31487793 -0.29995432 -0.008223783 -0.056214888 0.3460316 0.32281885 -0.2092474 -0.24132967
0.01312519 0.26191542 0.3164365 0.36445054 0.32968214 0.3036231 0.1713767 0.2772065
0.3532933 -0.20011713 0.28530833 0.058458526 -0.22883314 0.18240969 0.022132892 0.26782954
-0.16210644 -0.16905282 -0.05482513 -0.26822332 0.13160333 0.0069128536 0.25259107 0.32449397
0.2540808 -0.40577808 0.11942614 -0.25380403 0.2519444 -0.029332502 0.09284064 0.42121443
0.15036358 0.11506947 0.40038037 -0.23377568 -0.3370391 0.27067268 0.07486895 0.008532819
-0.13468948 -0.4038791 0.46071935 -0.03359964 0.1829274 0.19085051 0.14066452 -0.3599525
-0.17819041 -0.47318882 -0.25033015 -0.45895848 -0.0037133354 0.4898793 -0.40396455 0.21254861
0.010470612 -0.48075807 0.115226515 -0.1318996 0.41884136 0.29886055 -0.2885548 -0.15930766
-0.186179 -0.48032966 -0.059225883 -0.21601035 0.17924458 0.21954502 0.08822012 -0.100049146
00000000: 48c7 18bd 6a08 353e 873a b43e 3dfa 8cbe
00000010: 8c27 bf3d b394 ad3e eec1 023e 56cc 16be
00000020: 88c2 6bbe e045 72be 911a a93e 3257 92be
00000030: 14f5 bfbd 394f 973e bff1 a63e 8e69 513e
00000040: 6e4e 06be 0cb7 d83d c33d 813e c85c 083d
00000050: 2151 bc3e 8219 a4be 55fc 993e 850d 3abe
00000060: d141 1abe a47f ec3d ba66 103e 1283 05be
00000070: dd3e ca3e 9455 00be 08ab 36bd 3847 753d
00000080: ab73 6b3e e1a7 a83e 0168 46bd 7005 a83e
00000090: 505a b73e a6bf 983d db0c 5bbd fc84 983d
000000a0: e710 9c3e 8c92 91be 8a41 7b3b 4a10 633e
000000b0: 3625 3a3e 04a0 efbd c5b2 8a3b 48ff 54bd
000000c0: b35f 9a3e a7bc f03d f654 68bc 8dba 563d
000000d0: 7bd4 31bc 757f c03d f21a 063e 0884 57be
000000e0: a7c1 87be af09 993e 7751 113e 8122 adbe
000000f0: 1813 acbe 902e 943e b820 46be db7e ae3a
00000100: ce6d 8fbd 3c72 e63d 181e 4a3e 9a89 323e
00000110: 2562 82be 795d bfbe 28b6 323c 8b3f 09be
00000120: a1c2 39be b543 ab3e d1bc d0be 77f9 8b3e
00000130: f910 223d d769 533e cd7d 80be 170a a3bd
00000140: 61ba bdbe cc39 273e ece4 c33d e6bd 9f3e
00000150: ec0e 91be 7125 a3be f564 6ebe caec 253d
00000160: bb53 b3be ccdb c8be 477d 4a3e 9873 46bd
00000170: 43b8 163d f955 203e 1b6a ef3d cda6 f5bd
00000180: 80ec 17be d00a af3e 23c2 d0bd a124 b6be
00000190: 0a13 20be 21db 6a3d f733 e43d c471 273e
000001a0: 8407 853e 182d 79be b067 40be 2bab b13d
000001b0: 3d8d 6bbd a0b2 f0bd 312b 5c3e c403 353e
000001c0: ae37 a13e 9d93 99be 0cbd 06bc 9541 66bd
000001d0: 0e2b b13e 8348 a53e f344 56be 201f 77be
000001e0: 090b 573c c719 863e f703 a23e 4399 ba3e
000001f0: 19cc a83e 7d74 9b3e 607d 2f3e 03ee 8d3e
00000200: dce2 b43e 81eb 4cbe ef13 923e 3572 6f3d
00000210: 3c53 6abe 9bc9 3a3e 0a50 b53c f420 893e
00000220: 3bff 25be 2f1c 2dbe 5190 60bd 9154 89be
00000230: 06c3 063e 3885 e23b 9e53 813e 1324 a63e
00000240: e116 823e 25c2 cfbe b195 f43d 9af2 81be
00000250: dbfe 803e b74a f0bc 3c23 be3d 6ba9 d73e
00000260: e9f8 193e 8ba9 eb3d a8fe cc3e e462 6fbe
00000270: 6490 acbe 9c95 8a3e e454 993d 3dcd 0b3c
00000280: 0aec 09be 3ec9 cebe 68e3 eb3e c79f 09bd
00000290: 5251 3b3e 516e 433e 5c0a 103e b24b b8be
000002a0: 8c77 36be ce45 f2be 462b 80be 9bfc eabe
000002b0: 6e5b 73bb 76d1 fa3e 71d4 cebe 58a6 593e
000002c0: ee8c 2b3c ec25 f6be e1fb eb3d b010 07be
000002d0: 6072 d63e 4004 993e 74bd 93be 8c21 23be
000002e0: b5a5 3ebe c5ed f5be d796 72bd d131 5dbe
000002f0: e48b 373e 69d0 603e c0ac b43d 91e6 ccbd

neighborLayer.a f4 [64, 1]
-0.07814055 -0.17396383 -0.11799337 0.29523706 -0.034317434 -0.059154343 -0.15272982 0.21864785
-0.21518666 0.29862338 0.21490844 -0.12113661 -0.1554015 -0.14511082 0.105438344 -0.019389158
0.016542403 0.34708667 -0.23047386 0.25483444 -0.13620901 0.040363953 -0.13991436 -0.06508388
0.021558782 0.17275919 0.061738268 -0.14293887 0.13246514 0.05630322 0.07530139 -0.24481563
-0.09854691 -0.058482114 -0.33303168 -0.28988028 -0.2520068 0.29184297 0.04338097 0.29449454
-0.09104678 0.09368927 -0.042049024 0.24598163 -0.30798692 -0.06430379 -0.13287157 0.026006894
-0.09147792 0.06975553 -0.19929068 0.10774719 -0.12816566 0.013611228 0.2000156 0.10572959
-0.22099182 -0.015462666 0.015894782 0.08976477 0.022298869 0.1710249 -0.26349348 -0.012865633
00000000: 2708 a0bd 9323 32be 82a6 f1bd 5029 973e
00000010: 7090 0cbd d34b 72bd 3565 1cbe 39e5 5f3e
00000020: e459 5cbe 2ae5 983e f510 5c3e 7916 f8bd
00000030: 9221 1fbe ee97 14be 0ff0 d73d 03d6 9ebc
00000040: ef83 873c 58b5 b13e 5701 6cbe a979 823e
00000050: 607a 0bbe ac54 253d b645 0fbe b34a 85bd
00000060: 0b9c b03c c9e7 303e 44e1 7c3d 915e 12be
00000070: f1a4 073e 359e 663d 9d37 9a3d f3b0 7abe
00000080: f6d2 c9bd f18a 6fbd 2183 aabe 306b 94be
00000090: 0907 81be 716c 953e 3eb0 313d fdc7 963e
000000a0: bc76 babd 29e0 bf3d 993b 2cbd 9ce2 7b3e
000000b0: 76b0 9dbe b5b1 83bd 7c0f 08be 690c d53c
000000c0: c758 bbbd fddb 8e3d db12 4cbe 8faa dc3d
000000d0: dc3d 03be a101 5f3c e4d0 4c3e c188 d83d
000000e0: ae4b 62be 1f57 7dbc c635 823c 97d6 b73d
000000f0: 1eac b63c 2721 2f3e 9ee8 86be 60ca 52bc
