test/model/actor_3_3_2_2_11_best_rou3.pth (torch, 689330 bytes, 17 tensors)

v2lLayer.W f4 [3, 40]
-0.3887833 -0.36078927 -0.03029333 0.19698791 -0.27236786 0.13775265 0.018465815 -0.01424777
-0.32050422 -0.38225392 0.1339238 -0.32425398 -0.14867574 -0.16835785 -0.29118574 -0.026339527
-0.29555807 0.32792288 0.31331608 0.2242684 -0.08628571 -0.19376 -0.26184446 -0.025293594
-0.22606061 -0.037522428 -0.21334669 0.040380444 -0.20989288 -0.17966132 0.11663892 0.08111183
-0.163675 -0.31688634 -0.20940068 0.08391966 -0.22864336 -0.007217057 -0.1340303 -0.2637664
-0.080491334 -0.24421881 0.17731778 0.3881084 0.24442665 0.19161394 0.10127686 -0.12588114
-0.07343567 0.056101967 0.1722008 0.044222165 -0.16128793 -0.28278887 -0.2410922 -0.3548275
-0.2543328 0.21135488 0.03362083 0.11467673 -0.12776582 -0.054519027 0.1280778 -0.14264333
-0.13778487 0.23301381 -0.31331304 -0.07682506 -0.03687114 -0.27607772 0.031870924 -0.3082615
0.15368275 0.020066213 -0.27906075 0.021108657 0.30989107 -0.24683967 -0.029095635 0.0067365365
0.20139025 0.052498117 0.3087391 0.15983379 -0.000988194 -0.16597612 -0.14490141 0.37406185
0.18001974 0.0052895606 -0.013698874 0.07381725 0.18737115 0.1336781 -0.40866405 0.29175413
-0.047860526 -0.052174784 0.22473638 0.2599724 -0.15139022 -0.18961585 -0.3037592 0.37352854
-0.13761641 0.19584124 -0.38954413 -0.14365274 0.09389118 0.09924139 -0.09870868 0.22352955
-0.05290083 0.28447756 0.10227779 -0.19337246 0.08204054 0.30824843 -0.1638896 0.09186964
00000000: 9b0e c7be 5fb9 b8be b829 f8bc 33b7 493e
00000010: cd73 8bbe 080f 0d3e 9f45 973c 7b6f 69bc
00000020: 2119 a4be c9b6 c3be 5223 093e 9e04 a6be
00000030: 743e 18be 0066 2cbe 4c16 95be fec5 d7bc
00000040: 6353 97be 82e5 a73e f76a a03e 9ea6 653e
00000050: 90b6 b0bd 0569 46be 7a10 86be 8334 cfbc
00000060: 6f7c 67be 1eb1 19bd 8e77 5abe f765 253d
00000070: 29ee 56be 23f9 37be 63e0 ee3d f61d a63d
00000080: 6b9a 27be ed3e a2be 226d 56be 12de ab3d
00000090: 7c21 6abe 107d ecbb 3d3f 09be 640c 87be
000000a0: a4d8 a4bd 7f14 7abe cb92 353e 25b6 c63e
000000b0: fb4a 7a3e 7236 443e 3e6a cf3d fce6 00be
000000c0: 7165 96bd 2dcb 653d 6855 303e 4d22 353d
000000d0: aa28 25be b4c9 90be e0e0 76be f3ab b5be
000000e0: e937 82be 6a6d 583e ffb5 093d a2db ea3d
000000f0: 0bd5 02be 584f 5fbd d426 033e 1811 12be
00000100: 7a17 0dbe 2c9b 6e3e 916a a0be 7556 9dbd
00000110: 3106 17bd 0f5a 8dbe 168b 023d 74d4 9dbe
00000120: 035f 1d3e e661 a43c 0de1 8ebe 10ec ac3c
00000130: 0baa 9e3e 8ac3 7cbe f859 eebc 2abe dc3b
00000140: 3f39 4e3e 4408 573d 0d13 9e3e 78ab 233e
00000150: 4a86 81ba a5f5 29be 0961 14be 0985 bf3e
00000160: 1857 383e 0d54 ad3b 3e71 60bc 802d 973d
00000170: 39de 3f3e e9e2 083e 6a3c d1be cc60 953e
00000180: 6609 44bd 3ab5 55bd 4b21 663e 1a1b 853e
00000190: 0a06 1bbe a82a 42be 5386 9bbe 223f bf3e
000001a0: 51eb 0cbe 9b8a 483e 5472 c7be b419 13be
000001b0: 054a c03d 123f cb3d c727 cabd eee4 643e
000001c0: 8aae 58bd 0ba7 913e 0577 d13d 6e03 46be
000001d0: df04 a83d bdd2 9d3e add2 27be 2626 bc3d

v2lLayer.a f4 [80, 1]
-0.15758003 0.23496075 0.18070805 -0.15584739 -0.043073896 0.124327905 -0.057270598 0.09222105
-0.02517919 0.073725946 -0.24701236 0.018610433 -0.15492548 0.19654275 0.053730935 0.25115982
-0.2382832 -0.23188815 -0.054849815 -0.087548085 0.14037667 -0.0729839 -0.04382701 0.21768096
-0.2386373 0.2027489 -0.0068591717 -0.13806392 -0.017526083 -0.061316375 -0.13129051 0.13783205
-0.12274806 -0.019601095 0.06175792 0.12327835 0.07882499 0.19923022 0.08715809 0.23035449
-0.2767453 0.2373703 0.19998254 0.14711714 0.05280968 0.053356316 -0.057889722 0.12599088
0.14465295 -0.10115952 0.23309049 0.0068659824 -0.053085443 -0.05137936 0.0064755385 0.24291411
0.07549605 -0.21911654 -0.075923674 -0.09727819 0.12385782 0.061431605 -0.024406929 -0.19509682
0.07611916 0.020991242 -0.29082012 -0.087926775 0.20472017 0.117760755 0.29405463 -0.034532353
-0.26576024 -0.22194633 -0.09309519 -0.042613108 -0.03889203 0.123132735 0.10764659 -0.1373407
00000000: a95c 21be 8d99 703e 880b 393e 7596 1fbe
00000010: 416e 30bd a19f fe3d 9394 6abd 64de bc3d
00000020: 9744 cebc a1fd 963d cff0 7cbe e874 983c
00000030: c9a4 1ebe 8142 493e f814 5c3d 0598 803e
00000040: 8300 74be 1674 6dbe 33aa 60bd 694c b3bd
00000050: e7be 0f3e 9578 95bd f383 33bd c2e7 5e3e
00000060: 565d 74be 689d 4f3e e7c2 e0bb a160 0dbe
00000070: dc92 8fbc e126 7bbd 0571 06be d823 0d3e
00000080: 5663 fbbd 7a92 a0bc dff5 7c3d 5c79 fc3d
00000090: ff6e a13d 0203 4c3e f17f b23d 0ce2 6b3e
000000a0: 8fb1 8dbe 3311 733e 39c8 4c3e e0a5 163e
000000b0: f74e 583d 278c 5a3d c61d 6dbd c103 013e
000000c0: e71f 143e b92c cfbd 46af 6e3e 09fc e03b
000000d0: 1f70 59bd 2a73 52bd c130 d43b 7abe 783e
000000e0: ac9d 9a3d 1660 60be df7d 9bbd ca39 c7bd
000000f0: 2ba9 fd3d b59f 7b3d 0af1 c7bc 76c7 47be
00000100: 5de4 9b3d d3f5 ab3c 60e6 94be f412 b4bd
00000110: 2aa2 513e 8d2c f13d 548e 963e cc71 0dbd
00000120: ba11 88be e645 63be b1a8 bebd 158b 2ebd
00000130: 404d 1fbd 042d fc3d d175 dc3d 0aa3 0cbe

laneLayer.W f4 [12, 12]
-0.35126325 0.15219946 -0.28424162 -0.32618973 0.18897612 0.04769695 -0.10779703 -0.43811354
-0.44897726 0.041936997 0.029605186 0.33982024 -0.26668265 0.3866537 -0.36847547 -0.131615
-0.51416856 -0.19161156 0.28233162 0.055445723 -0.3092164 -0.08732804 -0.249965 -0.21978104
0.42449418 -0.026075775 0.3096662 0.04176443 -0.1349419 -0.18607341 0.08466953 0.41072136
-0.29432306 -0.048318096 -0.066510394 -0.2437693 0.1665219 -0.46191883 0.13955522 -0.46425182
0.43573868 0.48800427 0.3991964 -0.14181376 0.32560182 -0.32559663 -0.45803088 -0.111436725
-0.055980757 -0.16887078 -0.50238085 -0.3047888 0.04138762 0.16040127 -0.060363904 -0.01279301
0.0028222196 0.16593981 -0.07465155 -0.4323005 0.30271825 0.0062867594 -0.017831987 -0.34739813
-0.23858447 0.38594082 -0.006199712 -0.23748721 0.3160146 0.5068672 -0.0141393505 -0.2649987
-0.19470888 -0.31609446 -0.4107818 0.46022397 0.4763522 -0.29890054 0.120583594 -0.13094825
0.057315826 -0.059383094 0.46298027 0.2881114 0.20526363 -0.12236865 0.16259395 0.2852115
0.53062934 0.2995358 0.010000546 -0.32591546 0.3232753 0.36816368 -0.40966135 0.16346695
-0.46795753 0.08923523 -0.4971627 0.0009692349 -0.22455132 -0.4674854 0.32359198 0.08697239
-0.20099217 0.4238605 0.121309705 -0.11200931 0.43920842 -0.29604653 -0.18509285 0.19731839
0.0018526359 0.14797848 -0.12557253 -0.15085687 -0.45314577 -0.12487241 -0.526264 -0.46143594
0.04485673 0.4059503 -0.29522505 -0.30095777 -0.062310178 -0.0025160261 -0.3608966 -0.12164109
-0.34168664 -0.04182228 0.39109376 0.096496314 0.36776274 -0.28227597 -0.3883241 0.09168391
-0.40432176 0.25297722 0.323601 0.40230832 0.32419482 0.043810345 0.2650913 -0.11689287
00000000: c7d8 b3be 2dda 1b3e 1e88 91be 5702 a7be
00000010: f582 413e e15d 433d b0c4 dcbd 6b50 e0be
00000020: 59e0 e5be 21c6 2b3d 9386 f23c ebfc ad3e
00000030: a18a 88be 79f7 c53e d1a8 bcbe 15c6 06be
00000040: 8da0 03bf d235 44be c58d 903e 0e1b 633d
00000050: 9d51 9ebe 0bd9 b2bd d3f6 7fbe 480e 61be
00000060: 4d57 d93e dd9c d5bc 918c 9e3e 2e11 2b3d
00000070: 362e 0abe 078a 3ebe 3867 ad3d 124a d23e
00000080: 83b1 96be 32e9 45bd 9a36 88bd a99e 79be
00000090: b884 2a3e a080 ecbe 90e7 0e3e 6ab2 edbe
000000a0: 2419 df3e b2db f93e 7863 cc3e a037 11be
000000b0: 48b5 a63e 9ab4 a6be 0683 eabe f038 e4bd
000000c0: 144c 65bd 76ec 2cbe 089c 00bf 470d 9cbe
000000d0: 1186 293d 3b40 243e 2440 77bd c699 51bc
000000e0: fdf4 383b 20ec 293e e9e2 98bd 7e56 ddbe
000000f0: e3fd 9a3e 2901 ce3b 6314 92bc 2bde b1be
00000100: 7d4f 74be 099a c53e f426 cbbb d92f 73be
00000110: aacc a13e 0cc2 013f bca8 67bc e9ad 87be
00000120: c461 47be 22d7 a1be fe51 d2be 7aa2 eb3e
00000130: 70e4 f33e 7e09 99be 88f4 f63d 4c17 06be
00000140: 00c4 6a3d b03b 73bd c00b ed3e 5683 933e
00000150: a130 523e 6a9c fabd 077f 263e 3e07 923e
00000160: 53d7 073f c25c 993e 55d9 233c 64de a6be
00000170: 5784 a53e f37f bc3e 22bf d1be e163 273e
00000180: 2198 efbe f6c0 b63d 1c8c febe 4114 7e3a
00000190: c8f0 65be 3f5a efbe d9ad a53e 951e b23d
000001a0: e4d0 4dbe 3e04 d93e 3971 f83d 2365 e5bd
000001b0: eddf e03e 6993 97be fb88 3dbe d50d 4a3e
000001c0: 25d4 f23a ac87 173e 1696 00be 397a 1abe
000001d0: b902 e8be 1bbd ffbd 3db9 06bf 5541 ecbe
000001e0: b1bb 373d b8d8 cf3e bd27 97be 2317 9abe
000001f0: f538 7fbd eae3 24bb 70c7 b8be f71e f9bd
00000200: 8df1 aebe d74d 2bbd 713d c83e dc9f c53d
00000210: 664b bc3e 7a86 90be 6bd2 c6be c6c4 bb3d
00000220: 4303 cfbe 3b86 813e 08af a53e 5bfb cd3e
00000230: ddfc a53e 7a72 333d 0cba 873e 8765 efbd

l2pLayer.W f4 [12, 88]
0.09318439 -0.11519459 -0.12672867 0.13054231 -0.18646246 0.15972815 -0.20376934 -0.18682706
-0.16666232 0.10573384 0.123060726 0.14304484 -0.2238194 -0.24221778 0.17587315 -0.1704749
0.15399435 0.009076323 -0.14531967 0.1500632 0.13731837 -0.025046922 -0.19776373 -0.18086302
0.034821935 -0.008749645 0.067113265 0.1543344 0.20338766 -0.026381196 0.22272617 -0.014310628
0.22229898 -0.07746369 -0.024459254 -0.1977192 -0.057228252 -0.017422898 -0.028730722 0.10606444
-0.22832239 0.15833956 -0.020612855 -0.09173893 -0.23243468 -0.05353875 -0.16640277 0.06165183
-0.13098624 0.123162806 -0.21998546 0.15567757 0.04362764 0.019119881 0.025543507 -0.005154448
-0.13550921 0.04981548 -0.22357634 -0.034257546 0.09976576 0.12215789 0.0469948 -0.0371438
0.09871311 0.19293489 0.12739103 -0.25784948 0.051148154 -0.090105325 0.0942316 0.037021264
0.02709861 -0.03648417 0.070181824 0.13266043 -0.066629186 0.050517365 -0.030088367 0.10125413
0.13768749 -0.08823702 0.06545383 0.07889302 -0.21682318 0.1547212 0.120993614 -0.049462404
0.09332019 0.18003173 -0.104483046 -0.0053316914 -0.0376043 -0.13819456 -0.22114748 0.039753135
-0.028202297 0.10150937 0.11180245 -0.20177555 0.077961154 -0.10586589 -0.010268353 0.24097112
0.25681466 0.11093086 -0.011976514 -0.16475183 0.10621316 -0.14439684 -0.18489845 0.19754906
0.09234635 -0.0022378126 0.051148646 -0.10708431 0.15201956 -0.22778307 -0.0213505 -0.10265451
-0.06687185 0.1510673 -0.11654477 0.11222163 -0.022712836 -0.15284108 0.14643143 -0.09669103
0.013063439 0.20390564 -0.18622221 -0.0835998 -0.0086279465 0.17417948 0.10480103 -0.1932898
0.10217698 -0.2185281 -0.13120951 0.11395538 -0.0124403 0.19591002 0.17509232 0.19531482
-0.033406164 -0.052055422 0.007081738 0.12853786 -0.020028828 -0.03164645 0.07909721 -0.028087245
0.1767849 -0.12887551 0.15628257 0.05957936 0.2658747 0.08460477 -0.094157815 -0.21361755
-0.11737827 -0.16711535 -0.15478586 -0.02654836 0.07181559 0.1916722 -0.25683457 -0.1435516
-0.04545678 0.17492701 0.006351196 -0.06024998 0.092213884 0.12463322 0.12076955 0.1722444
0.18662384 -0.12823886 0.03142818 0.1393642 -0.097492635 -0.058645476 -0.07684844 -0.24606803
0.13854077 0.075107455 0.08183954 0.26797962 0.08505479 -0.20711434 -0.11564004 -0.1955285
0.07300663 0.08081618 -0.18066305 0.17110425 0.096953526 0.02658179 -0.02986533 -0.11623257
-0.20365527 0.19705477 -0.05801376 0.04938951 0.00561843 -0.0097255595 0.06809693 0.026053505
-0.020461665 0.24527131 -0.24324773 0.077580556 0.15025808 0.1128312 -0.20368253 -0.045583013
0.12323669 -0.17186011 -0.110161945 -0.16064799 -0.28040156 0.07988845 0.24447279 -0.14671521
-0.08554981 -0.0806514 -0.090992704 -0.07501834 0.12345712 0.12975131 0.17185766 0.0359221
0.09037558 -0.26543155 0.0012247148 0.014847974 0.26040953 -0.26903975 -0.15425046 0.17475909
-0.22690462 -0.14554605 -0.06483613 0.14820144 -0.037622575 0.21052882 -0.20899944 -0.15517625
-0.14901106 0.039764453 0.18543129 0.06822829 0.16002446 -0.042804394 0.014424628 -0.27825466
00000000: 75d7 be3d 24eb ebbd 29c5 01be e2ac 053e
00000010: 04f0 3ebe c78f 233e e9a8 50be 984f 3fbe
00000020: 87a9 2abe fc8a d83d 4307 fc3d 597a 123e
00000030: ea30 65be f007 78be 1718 343e f990 2ebe
00000040: b2b0 1d3e dcb4 143c aece 14be 2baa 193e
00000050: 309d 0c3e 342f cdbc 9382 4abe 2834 39be
00000060: 72a1 0e3d ac5a 0fbc ae72 893d d609 1e3e
00000070: db44 503e 611d d8bc 5412 643e 2077 6abc
00000080: 58a2 633e 48a5 9ebd c65e c8bc e776 4abe
00000090: 2c68 6abd 77ba 8ebc b15c ebbc 5038 d93d
000000a0: 58cd 69be c423 223e 4adc a8bc 9fe1 bbbd
000000b0: 5b03 6ebe 734b 5bbd 7d65 2abe a186 7c3d
000000c0: 4221 06be c83c fc3d de43 61be f169 1f3e
000000d0: e5b2 323d 4ca1 9c3c 9e40 d13c a5e6 a8bb
000000e0: edc2 0abe 510b 4c3d 32f1 64be a451 0cbd
000000f0: fe51 cc3d ea2d fa3d 9f7d 403d 1924 18bd
00000100: 192a ca3d b990 453e cb72 023e d904 84be
00000110: ba80 513d 2489 b8bd 7ffc c03d 9ca3 173d
00000120: e7fd dd3c 6d70 15bd 7dbb 8f3d 23d8 073e
00000130: e274 88bd 4ceb 4e3d e17b f6bc 535e cf3d
00000140: f3fd 0c3e 9cb5 b4bd a80c 863d aa92 a13d
00000150: e506 5ebe 3c6f 1e3e 80cb f73d 1799 4abd
00000160: a81e bf3d 3d5a 383e 35fb d5bd 78b5 aebb
00000170: f706 1abd e082 0dbe 7c74 62be 2fd4 223d
00000180: 8108 e7bc 25e4 cf3d aff8 e43d 409e 4ebe
00000190: 19aa 9f3d 37d0 d8bd 983c 28bc 22c1 763e
000001a0: 367d 833e b82f e33d 2439 44bc b4b4 28be
000001b0: 4986 d93d c4dc 13be 0556 3dbe 4d4a 4a3e
000001c0: 1520 bd3d 44a8 12bb 3e81 513d 054f dbbd
000001d0: 04ab 1b3e f73f 69be 3ee7 aebc 873c d2bd
000001e0: 1cf4 88bd 63b1 1a3e 06af eebd 74d4 e53d
000001f0: 4510 babc 5f82 1cbe 1ff2 153e f205 c6bd
00000200: 0908 563c a4cc 503e 09b1 3ebe 5f36 abbd
00000210: 3b5c 0dbc 1b5c 323e eca1 d63d c3ed 45be
00000220: 2a42 d13d d5c5 5fbe c95b 06be 7061 e93d
00000230: 66d2 4bbc a39c 483e 674b 333e 9c00 483e
00000240: e7d4 08bd 1138 55bd ed0d e83b 6e9f 033e
00000250: 7f13 a4bc b59f 01bd b8fd a13d 3917 e6bc
00000260: 1a07 353e f1f7 03be 8a08 203e 7d09 743d
00000270: bb20 883e 4445 ad3d d0d5 c0bd 8fbe 5abe
00000280: 0564 f0bd 4920 2bbe 2f80 1ebe f27b d9bc
00000290: 0d14 933d b845 443e d27f 83be 31ff 12be
000002a0: e330 3abd 1120 333e b21d d03b afc8 76bd
000002b0: a2da bc3d b43f ff3d 0756 f73d d660 303e
000002c0: 521a 3f3e 0c51 03be d6ba 003d 7db5 0e3e
000002d0: 38aa c7bd 3d36 70bd b762 9dbd 42f9 7bbe
000002e0: a2dd 0d3e f0d1 993d 7d9b a73d a034 893e
000002f0: 3531 ae3d c815 54be afd4 ecbd a038 48be
00000300: 8084 953d f482 a53d bcff 38be f435 2f3e
00000310: 928f c63d 0ec2 d93c 23a8 f4bc 570b eebd
00000320: 028b 50be bac8 493e d69f 6dbd a84c 4a3d
00000330: cf1a b83b f457 1fbc 6776 8b3d 296e d53c
00000340: 399f a7bc 6728 7b3e ef15 79be 8ee2 9e3d
00000350: 41dd 193e 0b14 e73d 2792 50be 41b5 3abd
00000360: 8563 fc3d 19fc 2fbe 969c e1bd e880 24be
00000370: cb90 8fbe 8e9c a33d 1357 7a3e 833c 16be
00000380: bd34 afbd 902c a5bd 625a babd 37a3 99bd
00000390: 16d7 fc3d 87dd 043e 74fb 2f3e 0d23 133d
000003a0: d516 b93d a5e6 87be 9c86 a03a eb44 733c
000003b0: 6654 853e 94bf 89be d5f3 1dbe 0cf4 323e
000003c0: af59 68be 060a 15be cec8 84bd 1ec2 173e
000003d0: 211a 1abd de94 573e f303 56be 86e6 1ebe
000003e0: 5b96 18be 0de0 223d b3e1 3d3e 46bb 8b3d
000003f0: 74dd 233e a953 2fbd 4655 6c3c 6577 8ebe

l2pLayer.a f4 [176, 1]
-0.040057734 0.11148945 -0.051031522 0.060064726 0.072258696 -0.13770829 0.14834979 0.030831823
-0.15594606 -0.006580792 -0.029642357 0.05485487 0.06543893 0.02594196 -0.14987496 -0.02757771
-0.13994771 -0.09886047 0.023906823 -0.09242199 -0.06358495 -0.11774105 -0.13099687 0.08360063
0.16207935 -0.06431605 0.11070647 0.14634648 -0.14891967 -0.13812347 -0.08483758 0.17621812
0.110421665 -0.010125066 0.14026402 -0.086294584 0.0074486034 -0.048554596 0.17273954 0.15165132
-0.10376443 0.16948597 -0.09022321 0.19385105 0.051945437 0.1865774 -0.011198459 0.005984045
0.15057835 0.07049082 0.19798855 0.024125451 0.15688694 0.027506886 0.028785264 0.049121182
-0.013186496 -0.07426779 -0.16490935 0.028787231 0.13796946 -0.027955996 0.098384954 -0.078443475
-0.04007335 -0.061158933 0.14971709 0.07380932 0.048776638 0.11430871 -0.105743185 0.06542416
-0.14983405 0.18364008 0.10114641 -0.14551137 -0.17726123 -0.07834335 -0.15049416 0.1228317
-0.060861174 -0.043772187 0.07772168 0.17846188 -0.17584187 0.030285047 -0.049446996 0.046977554
0.036625788 -0.012797936 -0.064348295 0.15140796 0.09859011 0.0797756 -0.1388713 0.12387968
-0.028056147 -0.13731372 0.04549846 -0.08631831 -0.0049975533 0.04714392 -0.18967545 -0.20761687
-0.15938777 -0.004229605 -0.030142158 -0.103917316 0.043146245 -0.037608564 -0.1122567 -0.04491683
0.12961568 0.05010872 -0.10859317 -0.06195488 -0.12598993 0.20396128 0.11997024 -0.052455585
0.13345248 -0.11057628 -0.027247535 -0.020299207 -0.15163985 0.0035724796 0.103248 0.20213248
0.08386564 -0.1294311 0.044847906 0.09575506 -0.18616292 -0.1657031 0.07294476 0.12340579
0.08434433 -0.14792879 -0.13709094 -0.10120106 0.12686957 0.064277336 -0.08439918 -0.08567311
-0.03522595 0.20215975 0.11276818 0.029592486 -0.10063953 -0.057957545 0.1322 0.0142177185
-0.03811044 -0.051803436 0.18235806 0.18423027 -0.09858715 0.057626497 0.10680341 -0.122336105
0.11840804 0.11468854 -0.14882553 -0.07449339 -0.1834921 -0.12251624 -0.058288235 0.07895076
0.024696995 0.15536064 0.032321747 -0.075754784 -0.18125668 0.07290624 0.10573588 0.058203597
00000000: 9413 24bd 9554 e43d 6e06 51bd 6e06 763d
00000010: 5efc 933d 6703 0dbe 02e9 173e 0593 fc3c
00000020: 53b0 1fbe afa3 d7bb 87d4 f2bc 80af 603d
00000030: d904 863d 3c84 d43c d278 19be a6ea e1bc
00000040: 744e 0fbe 5c77 cabd 3ed8 c33c be47 bdbd
00000050: d438 82bd 3822 f1bd 0b24 06be cf36 ab3d
00000060: 21f8 253e 22b8 83bd 13ba e23d dadb 153e
00000070: 667e 18be 3d70 0dbe 53bf adbd 8672 343e
00000080: c124 e23d 9be3 25bc 5fa1 0f3e 37bb b0bd
00000090: 6a13 f43b 2fe1 46bd a2e2 303e 7c4a 1b3e
000000a0: 7282 d4bd bb8d 2d3e f2c6 b8bd e480 463e
000000b0: bdc4 543d 250e 3f3e be79 37bc cf15 c43b
000000c0: 3631 1a3e 7e5d 903d 83bd 4a3e bda2 c53c
000000d0: f8a6 203e 1f56 e13c 13cf eb3c 4b33 493d
000000e0: 2c0c 58bc b619 98bd ffdd 28be 33d3 eb3c
000000f0: de47 0d3e f903 e5bc 0d7e c93d f9a6 a0bd
00000100: f423 24bd ca81 7abd 704f 193e 5729 973d
00000110: 03ca 473d af1a ea3d e28f d8bd 1afd 853d
00000120: 196e 19be 250c 3c3e d925 cf3d ef00 15be
00000130: f883 35be 7a72 a0bd 241b 1abe 308f fb3d
00000140: 9149 79bd 774a 33bd 8b2c 9f3d b6be 363e
00000150: e40f 34be 5918 f83c ef88 4abd 896b 403d
00000160: ec04 163d 6fae 51bc 0ac9 83bd b00a 1b3e
00000170: 9de9 c93d 6461 a33d 4734 0ebe a1b4 fd3d
00000180: 01d6 e5bc f89b 0cbe 985c 3a3d a7c7 b0bd
00000190: 84c2 a3bb fc19 413d 483a 42be 8499 54be
000001a0: 8c36 23be 8098 8abb b0ec f6bc 9ad2 d4bd
000001b0: 1eba 303d 700b 1abd d7e6 e5bd b6fa 37bd
000001c0: f9b9 043e cd3e 4d3d 1966 debd 66c4 7dbd
000001d0: 8103 01be 3adb 503e f5b2 f53d abdb 56bd
000001e0: c4a7 083e d175 e2bd 3936 dfbc 864a a6bc
000001f0: 7a47 1bbe 4320 6a3b b073 d33d d1fb 4e3e
00000200: c0c1 ab3d 9689 04be 70b2 373d 3b1b c43d
00000210: 7ea1 3ebe 13ae 29be 1064 953d 2dbc fc3d
00000220: b8bc ac3d a57a 17be 9161 0cbe 8042 cfbd
00000230: 19ea 013e d6a3 833d 7ad9 acbd 6275 afbd
00000240: 1649 10bd f702 4f3e 01f3 e63d f16b f23c
00000250: 191c cebd e464 6dbd 705f 073e 6ff1 683c
00000260: b119 1cbd d72f 54bd 12bc 3a3e dca6 3c3e
00000270: 0fe8 c9bd c309 6c3d bfbb da3d 5a8b fabd
00000280: ea7f f23d d3e1 ea3d b865 18be fe8f 98bd
00000290: 5ae5 3bbe cbe9 fabd a5bf 6ebd f0b0 a13d
000002a0: 5a51 ca3c dc16 1f3e cf63 043d 5325 9bbd
000002b0: 5a9b 39be de4f 953d 0e8c d83d e566 6e3d

phaseLayer.W f4 [24, 26]
0.055192128 0.3137445 0.36413857 -0.027888775 0.14603028 -0.11914154 -0.01361355 0.029553762
0.28374958 -0.22896315 0.07565468 -0.2649103 -0.29897773 -0.15592918 0.08610165 -0.2670372
-0.11320254 -0.25823778 -0.23342645 0.070338055 0.12479983 -0.2031348 0.26092985 0.24925978
0.09961444 -0.049313266 0.30198464 -0.2758621 -0.098286904 0.03177944 -0.18445277 0.285263
0.12061577 0.2663958 0.099519394 0.27393368 0.30669075 -0.37601942 -0.19800198 0.058261774
0.021996157 0.11523659 0.15620147 -0.16592325 -0.09504215 -0.19647078 0.30694973 0.1975211
0.022012303 -0.09009501 0.16571635 0.07590686 -0.0963741 -0.13622707 0.23459387 -0.18358701
-0.15750875 -0.33770663 0.12874393 -0.010986666 0.14853375 -0.090125754 -0.27572432 0.20747446
0.14405881 -0.027679658 0.18775946 0.012100764 -0.12330579 -0.041937478 -0.2091856 0.27074498
0.2895827 -0.25568447 -0.33061558 0.18695371 -0.26621422 -0.38418528 0.09344219 0.049387295
-0.06249705 0.17159396 -0.18309318 0.14014478 -0.102479875 -0.17883983 0.27551845 -0.23566309
0.3412345 -0.30706158 0.2555345 -0.12750915 0.26452774 -0.079402484 0.31798697 -0.11427859
0.34858504 -0.25854254 0.3048411 -0.12690425 -0.26464304 0.27626038 0.26922327 0.34262633
0.3538977 0.021227207 0.07051506 -0.2689538 -0.30534065 -0.325214 -0.06259683 -0.23328811
0.16875425 -0.29194048 0.15769309 -0.1798735 -0.18960923 -0.24642344 -0.26606217 0.04327417
-0.071959384 -0.25028226 -0.3218762 -0.016557897 -0.25592643 0.24802321 -0.33685684 0.29131448
0.04912074 0.25667572 -0.0064136754 0.08292823 -0.27589223 -0.0069596767 0.09268662 0.0028124452
-0.10228613 -0.24014536 0.16321754 -0.09393191 0.080331445 -0.06404522 -0.085121244 -0.108367145
-0.08910772 -0.16074483 0.030518115 -0.0016756356 0.122847795 -0.16569598 -0.13732235 -0.006256938
-0.050257415 0.14546713 0.16441852 -0.18616205 0.29438558 -0.18145001 -0.31256253 0.14361942
0.05293887 0.0039340286 0.24342676 0.14138465 0.016528713 -0.15980105 0.13028559 0.09463327
-0.09986834 0.07484482 -0.15042758 0.20261754 0.09423255 -0.34848985 -0.33325228 -0.12587193
-0.034604244 0.2649382 -0.20339262 -0.31547752 0.046875667 0.1515463 0.2027797 -0.33784696
-0.30254987 0.060000956 -0.021019613 0.18709703 -0.019180221 0.2390424 0.016856981 0.3079903
-0.34149963 -0.094623365 -0.07302448 0.19266947 -0.07480868 -0.07263621 -0.008441307 -0.33890912
0.30959395 -0.14898866 0.29311666 0.31860426 0.21054158 -0.2965226 0.068404734 -0.33631763
-0.32321078 -0.18104202 0.10773219 0.25022537 0.06269127 0.00601826 0.14843886 0.22210762
-0.049168684 -0.12392878 -0.3214686 0.10573022 -0.04926449 0.16697125 0.3414966 -0.12814015
0.2535547 0.18566318 0.08332571 -0.17848794 -0.2605906 0.20089144 0.21834722 -0.07249712
-0.30548996 -0.08128906 -0.08522076 0.26543477 -0.21782008 -0.020373523 -0.017929474 -0.08813558
0.095250376 -0.21048747 0.040739212 0.23700364 0.24904445 -0.35023487 0.07887136 0.019700311
0.14700007 0.337571 -0.12829745 0.26349828 -0.28293407 0.032461446 0.020034626 -0.123423375
00000000: 2411 623d 1ea3 a03e 5f70 ba3e 0077 e4bc
00000010: f688 153e 7b00 f4bd 5e0b 5fbc bb1a f23c
00000020: a047 913e 5175 6abe d7f0 9a3d 53a2 87be
00000030: 9c13 99be e6ab 1fbe 1056 b03d 1ab9 88be
00000040: bcd6 e7bd be37 84be 5807 6fbe 660d 903d
00000050: 0e97 ff3d 9202 50be 9998 853e f53d 7f3e
00000060: a802 cc3d b5fc 49bd bb9d 9a3e cc3d 8dbe
00000070: a54a c9bd 282b 023d 30e1 3cbe fe0d 923e
00000080: 6705 f73d 0865 883e d3d0 cb3d 0941 8c3e
00000090: 9206 9d3e 9e85 c0be 08c1 4abe e6a3 6e3d
000000a0: 4931 b43c 2901 ec3d 47f3 1f3e c9e7 29be
000000b0: 75a5 c2bd a32f 49be 8428 9d3e f942 4a3e
000000c0: 2553 b43c bc83 b8bd 8cb1 293e 0e75 9b3d
000000d0: c95f c5bd 1c7f 0bbe 6039 703e 3cfe 3bbe
000000e0: f949 21be e2e7 acbe 73d5 033e 6b01 34bc
000000f0: 3b19 183e da93 b8bd bd2b 8dbe 2f74 543e
00000100: 2784 133e 73c0 e2bc 0444 403e 4842 463c
00000110: bf87 fcbd a2c6 2bbd c034 56be 169f 8a3e
00000120: 2f44 943e 13e9 82be 7246 a9be cb70 3f3e
00000130: 3b4d 88be efb3 c4be 9e5e bf3d 554a 4a3d
00000140: e8fc 7fbd 54b6 2f3e c77c 3bbe 1d82 0f3e
00000150: f8e0 d1bd ca21 37be c110 8d3e aa51 71be
00000160: 4ab6 ae3e 2d37 9dbe 6bd5 823e c291 02be
00000170: 2e70 873e c59d a2bd 30cf a23e e50a eabd
00000180: bd79 b23e b05f 84be 2214 9c3e 30f3 01be
00000190: 4b7f 87be 0072 8d3e a2d7 893e b86c af3e
000001a0: 1432 b53e aee4 ad3c 336a 903d 50b4 89be
000001b0: 9c55 9cbe 7382 a6be c432 80bd 14e3 6ebe
000001c0: eacd 2c3e 3979 95be 4c7a 213e c230 38be
000001d0: ec28 42be 6d56 7cbe 4d39 88be 4240 313d
000001e0: 715f 93bd ff24 80be f5cc a4be 6da4 87bc
000001f0: ca08 83be ccf9 7d3e 8078 acbe 2c27 953e
00000200: d432 493d 006b 833e cf29 d2bb 47d6 a93d
00000210: bf41 8dbe 000e e4bb 7cd2 bd3d 0051 383b
00000220: 647b d1bd aae8 75be 8022 273e 605f c0bd
00000230: d084 a43d 242a 83bd 0c54 aebd 98ef ddbd
00000240: 1c7e b6bd 4b9a 24be 2001 fa3c 00a1 dbba
00000250: a097 fb3d 35ac 29be 3b9e 0cbe 0007 cdbb
00000260: b8da 4dbd 56f5 143e 545d 283e 44a1 3ebe
00000270: b5b9 963e 08ce 39be 3208 a0be f810 133e
00000280: 6ed6 583d 06e9 803b dd44 793e 23c7 103e
00000290: 3967 873c e3a2 23be 9669 053e 16cf c13d
000002a0: c687 ccbd 3e48 993d b009 1abe f97a 4f3e
000002b0: fffc c03d 436d b2be 0ba0 aabe 92e4 00be
000002c0: 2ebd 0dbd fba5 873e 2846 50be 4586 a1be
000002d0: b300 403d f42e 1b3e 7ba5 4f3e 47fa acbe
000002e0: d1e7 9abe 90c3 753d 5331 acbc 5d96 3f3e
000002f0: d71f 9dbc 88c7 743e a717 8a3c e8b0 9d3e
00000300: 0ad9 aebe e5c9 c1bd dc8d 95bd 254b 453e
00000310: 4b35 99bd 4bc2 94bd 684d 0abc 7f85 adbe
00000320: 1983 9e3e 7c90 18be 6313 963e 1920 a33e
00000330: 3698 573e cfd1 97be c817 8c3d d331 acbe
00000340: e27b a5be 1463 39be b2a2 dc3d 8a1d 803e
00000350: 4864 803d d334 c53b 5b00 183e 2e70 633e
00000360: 1a65 49bd 5fce fdbd 8897 a4be 1689 d83d
00000370: 90c9 49bd 83fa 2a3e a4d8 ae3e 2c37 03be
00000380: ecd1 813e 7d1e 3e3e aba6 aa3d 8bc5 36be
00000390: 226c 85be 7cb6 4d3e 6a96 5f3e 5f79 94bd
000003a0: 2e69 9cbe e17a a6bd 3988 aebd 11e7 873e
000003b0: 3a0c 5fbe 60e6 a6bc d5e0 92bc 6d80 b4bd
000003c0: a112 c33d 078a 57be 29de 263d 15b1 723e
000003d0: 8205 7f3e fc51 b3be 4f87 a13d 8c62 a13c
000003e0: 3087 163e 1bd6 ac3e 6860 03be 3fe9 863e
000003f0: bcdc 90be 4bf6 043d a81f a43c 65c5 fcbd

p2iLayer.W f4 [24, 176]
-0.08019399 0.18586436 0.0014454311 -0.026380837 -0.11064813 0.0056181815 0.013638225 -0.11386465
0.049748443 -0.06423353 -0.0012267845 -0.123311356 0.19284964 0.13730578 -0.054809887 -0.033277504
0.12305805 0.08333194 0.13301201 -0.15935385 0.08070899 -0.056820076 0.02272559 0.13575737
0.15830058 -0.07860653 -0.065679915 0.058936484 0.06729182 0.069636814 -0.14808147 0.10156251
-0.057487287 0.12382489 -0.0632546 0.03517471 0.038897615 0.1508724 -0.007865035 -0.06793054
-0.053558026 0.12572852 0.023538196 -0.19827497 0.037700757 0.1312145 -0.0024759513 -0.014819463
-0.046735026 -0.0645919 -0.09211809 0.010529711 -0.08514381 -0.05978981 0.050012294 0.017680012
-0.04824675 -0.10486854 0.12613034 0.019381087 0.033392057 -0.111153945 0.069531456 -0.15592088
0.14058606 -0.1762166 -0.005072979 -0.02955181 -0.0020555025 0.0017173429 -0.11750724 -0.09010399
-0.16158473 -0.05633789 0.033022262 0.033434257 -0.10986429 0.05109804 -0.0011196769 0.1257958
0.06622038 -0.08157722 -0.20119832 0.08696368 -0.11527358 0.21155837 0.17070007 -0.2127593
0.14009412 0.2003873 0.12640755 -0.08518969 0.019067807 -0.045836583 -0.07279467 -0.029495973
0.08681171 -0.10846139 -0.09933231 0.013749762 -0.06651803 0.18600978 -0.036196195 0.09565157
-2.2797454e-05 0.04980952 -0.008220488 0.04977361 0.18337749 -0.043827366 -0.12337878 -0.075430416
-0.021272669 0.11027771 -0.09770419 0.079261295 -0.1143315 -0.070835434 0.019751826 -0.1257837
0.09193482 -0.1188817 0.059468456 0.18674348 0.12342881 0.015823592 -0.15434757 0.13278148
-0.1410316 -0.1159481 0.20061421 -0.041489825 0.0849696 0.025368225 0.051977433 -0.03449423
-0.07561904 0.018182807 0.09582058 0.08739873 0.10899705 0.08909329 0.021618208 0.12203766
0.1468558 -0.11199468 0.10402103 0.00052923604 0.019298503 -0.08477629 0.21106231 0.036818985
-0.006178566 0.14559929 0.11447973 0.13223557 -0.041242864 -0.12167148 0.14432122 -0.047500357
-0.03728449 0.1444625 0.13192259 -0.17495887 0.1904491 -0.06406174 -0.16865607 0.11208325
0.08803338 -0.0034618787 -0.00022080578 -0.11248396 0.16003169 0.034219116 -0.035885055 -0.037945785
0.19255254 0.09984296 0.18948048 0.08210855 0.08785669 -0.19195515 0.17858213 -0.04764083
-0.0116846245 0.12027238 -0.11782595 0.022144634 0.0013663947 0.18941474 0.14079353 -0.0023690276
0.19594751 -0.04241724 0.092597835 -0.07942488 0.09241874 0.12314394 -0.0062685814 0.015291823
0.17239866 -0.11981272 0.11072537 0.15737544 -0.072293386 -0.05047601 0.046353042 -0.108844355
0.010633375 0.16773887 0.14027105 0.0077910777 0.19594364 0.1644763 -0.08362537 0.20566703
0.0808829 -0.061618652 -0.06853224 -0.13885838 0.112068065 0.18810566 0.07549431 -0.06321011
-0.021835502 -0.013982731 0.113236204 0.122857325 -0.11258744 0.13703343 0.1090015 0.030841205
-0.021128125 0.005876478 -0.05618503 -0.078805365 -0.10741114 -0.04540556 -0.029047158 -0.0023864147
-0.071390875 0.036975607 0.056325056 -0.17093603 -0.051188204 0.06608697 -0.012499199 0.1486677
-0.15111573 0.014545797 0.11014306 -0.05976611 0.10429278 0.027031241 0.054127086 -0.099973306
00000000: bf3c a4bd 3a53 3e3e 9f74 bd3a a01c d8bc
00000010: 7d9b e2bd b918 b83b dd72 5f3c df31 e9bd
00000020: 06c5 4b3d de8c 83bd 0fcc a0ba aa8a fcbd
00000030: 607a 453e e399 0c3e 5580 60bd fe4d 08bd
00000040: dc05 fc3d f0a9 aa3d 4d34 083e a82d 23be
00000050: c14a a53d 2bbc 68bd 042b ba3c fb03 0b3e
00000060: 8c19 223e 76fc a0bd 3183 86bd 6267 713d
00000070: 4bd0 893d bf9d 8e3d aba2 17be 0100 d03d
00000080: ca77 6bbd e797 fd3d a18b 81bd 5b13 103d
00000090: 1b53 1f3d 4b7e 1a3e 59dc 00bc 2b1f 8bbd
000000a0: a95f 5bbd fabe 003e 2dd3 c03c 9808 4bbe
000000b0: 1c6c 1a3d 185d 063e 9243 22bb 55cd 72bc
000000c0: 3a6d 3fbd c248 84bd 69a8 bcbd cf84 2c3c
000000d0: e15f aebd 29e6 74bd b1d9 4c3d acd5 903c
000000e0: 629e 45bd 51c5 d6bd 5028 013e 16c5 9e3c
000000f0: 1cc6 083d aea4 e3bd 8266 8e3d b9a9 1fbe
00000100: cbf5 0f3e 2072 34be 3b3b a6bb a316 f2bc
00000110: 9cb5 06bb 7718 e13a a3a7 f0bd 7188 b8bd
00000120: 7876 25be 8fc2 66bd 5a42 073d 5cf2 083d
00000130: 8700 e1bd 2e4c 513d 1fc2 92ba 9dd0 003e
00000140: 8d9e 873d f511 a7bd ef06 4ebe 041a b23d
00000150: 8e14 ecbd c2a2 583e 00cc 2e3e 93dd 59be
00000160: d574 0f3e 5432 4d3e fb70 013e ef77 aebd
00000170: 1734 9c3c 24bf 3bbd 5f15 95bd 8aa1 f1bc
00000180: 56ca b13d 0121 debd bd6e cbbd af46 613c
00000190: 9b3a 88bd 5979 3e3e 7642 14bd f8e4 c33d
000001a0: 293d bfb7 1105 4c3d 3aaf 06bc 6adf 4b3d
000001b0: 4fc7 3b3e 5384 33bd 04ae fcbd 437b 9abd
000001c0: 0544 aebc 48d9 e13d 2219 c8bd bf53 a23d
000001d0: a226 eabd 2b12 91bd 95ce a13c 71cd 00be
000001e0: 5348 bc3d 4078 f3bd 3295 733d af39 3f3e
000001f0: 3ec8 fc3d 7aa0 813c 4a0d 1ebe def7 073e
00000200: 966a 10be 3376 edbd d06d 4d3e 3cf1 29bd
00000210: 8b04 ae3d 06d1 cf3c 4ae6 543d d249 0dbd
00000220: 28de 9abd 1cf4 943c 953d c43d 1bfe b23d
00000230: d839 df3d 8b76 b63d ab18 b13c e1ee f93d
00000240: 5e61 163e 775d e5bd fa08 d53d 6ebc 0a3a
00000250: e517 9e3c 319f adbd b820 583e 81cf 163d
00000260: 9175 cabb fb17 153e 5974 ea3d c368 073e
00000270: 47ee 28bd e62e f9bd f1c8 133e bc8f 42bd
00000280: 9fb7 18bd faed 133e b716 073e 6b28 33be
00000290: 1705 433e cd32 83bd 2db4 2cbe e78b e53d
000002a0: d84a b43d b0e0 62bb 1a88 67b9 fe5d e6bd
000002b0: 59df 233e 5829 0c3d 35fc 12bd 0a6d 1bbd
000002c0: 7e2c 453e 777a cc3d 2c07 423e 8728 a83d
000002d0: 35ee b33d e48f 44be 3cde 363e 0823 43bd
000002e0: de70 3fbc 5e51 f63d bb4e f1bd aa68 b53c
000002f0: 9918 b33a f0f5 413e 2e2c 103e b041 1bbb
00000300: 77a6 483e b3bd 2dbd efa3 bd3d 83a9 a2bd
00000310: 0946 bd3d e432 fc3d ac68 cdbb 8e8a 7a3c
00000320: 4689 303e 5f60 f5bd fcc3 e23d 0727 213e
00000330: 8e0e 94bd efbf 4ebd b0dc 3d3d cae9 debd
00000340: 9b37 2e3c bdc3 2b3e 37a3 0f3e 4c4c ff3b
00000350: 73a5 483e 7a6c 283e c743 abbd 619a 523e
00000360: efa5 a53d d763 7cbd a25a 8cbd e430 0ebe
00000370: f183 e53d c59e 403e c39c 9a3d 4d74 81bd
00000380: 5ee0 b2bc d317 65bc 62e8 e73d 9f9c fb3d
00000390: 3e94 e6bd 7e52 0c3e 2e3c df3d b2a6 fc3c
000003a0: e414 adbc 788f c03b 4622 66bd b564 a1bd
000003b0: 5ffa dbbd 2efb 39bd 4ef4 edbc 6565 1cbb
000003c0: 6135 92bd bc73 173d 1ab5 663d db09 2fbe
000003d0: b9aa 51bd 9b58 873d 71c9 4cbc 583c 183e
000003e0: 15be 1abe 7f51 6e3c af92 e13d 4fcd 74bd
000003f0: 7497 d53d 9f70 dd3c 5db4 5d3d cebe ccbd

p2iLayer.a f4 [352, 1]
-0.0032806266 -0.110467896 -0.014024141 -0.00709635 0.090688534 0.07566427 -0.04567363 0.009357011
-0.03881761 -0.10813421 -0.036455624 -0.066777855 -0.098961964 -0.11268229 -0.077927925 -0.118302286
-0.04993998 -0.07858276 0.053425875 -0.10158122 0.1302424 -0.0690981 0.056659587 0.048013512
0.08078893 -0.116587676 0.1130541 -0.034217153 -0.11504142 -0.069135495 -0.0874836 -0.030890405
0.04989311 -0.027243165 0.11636302 -0.05063482 0.09712452 0.0831373 0.12886108 -0.051149357
-0.09009345 0.10594034 -0.038891956 0.032711264 -0.12135885 -0.07223514 0.0456942 0.03422544
0.055083267 0.005186619 0.06254385 -0.12001712 -0.011918602 -0.10274742 0.12161691 0.061871562
-0.101116545 -0.033707343 -0.12047928 -0.030432595 0.121309616 0.094187915 0.07926772 -0.00916255
-0.08400883 -0.008583724 -0.096667506 0.015589761 0.10888853 -0.104285106 -0.09793839 -0.10166108
-0.0039293137 -0.12787521 -0.08628928 -0.010941319 0.027010225 -0.0645257 -0.04949213 0.02142132
0.014482792 0.069151595 -0.12830788 -0.1099791 0.074595146 -0.09309582 0.10885706 -0.124100685
-0.038387626 -0.038491275 -0.043943744 -0.023219828 -0.12005764 -0.0466022 0.116989106 0.016430387
0.04122085 0.11374738 -0.046342596 0.067772344 0.07619781 0.13205159 0.06107382 0.04098037
0.04057888 0.0519104 -0.09608051 -0.05614564 0.010276665 0.12895596 0.05352037 -0.11847758
-0.06058728 0.076149754 -0.072524205 0.030130059 0.031939797 0.015828226 0.03429959 0.09119301
-0.032627843 0.11680914 0.12309121 0.118478 0.10365676 0.05787187 -0.031242512 -0.08531851
0.052788462 0.09502503 0.06316211 -0.075563006 -0.08200128 0.04056601 -0.09088857 -0.030583633
-0.030889515 0.08736417 -0.060026612 -0.0417041 0.037597645 -0.07469577 -0.07554427 0.077815175
-0.012528847 0.028342277 -0.0010405593 -0.11410953 0.11953946 -0.12890266 0.10123679 -0.07688576
0.07153951 0.12807076 0.011523684 -0.077599585 -0.08999432 0.038637497 -0.072526745 -0.12859854
0.10545398 -0.0062920027 0.025736907 0.12164414 0.06155671 0.030245079 -0.022290627 -0.06598709
-0.06668385 -0.038136303 0.06426786 -0.09948803 -0.101186536 0.11526965 0.13068613 0.060005207
-0.07321206 -0.07971844 -0.07706855 0.05930509 -0.010649609 0.099084556 0.03844064 0.076240994
-0.03734313 -0.17012922 0.072411716 -0.033657677 0.12709597 0.10008955 0.06103544 0.12618214
0.086152725 0.0031460465 -0.06825204 0.03831255 0.016988238 -0.012505916 0.053814262 0.15436211
0.06554745 -0.13396043 0.057601467 0.016187554 -0.09526922 0.11648147 0.04302786 -0.04984347
0.0065522827 0.13485703 -0.103663124 0.068379 -0.16326219 -0.06252419 0.14447005 -0.079282455
0.0853218 0.119568415 0.09270919 0.087898664 0.07084213 -0.012295307 0.018858997 0.06003711
-0.052077953 0.0013220619 -0.110826656 0.067547865 0.122978754 0.048085187 0.039560582 -0.13115504
-0.0547037 0.0823293 0.16070318 -0.05204114 0.067868285 -0.10162043 0.12224827 -0.14245352
-0.015641432 0.0867131 0.005332624 0.06503199 -0.012415675 -0.0030480847 -0.06668209 0.047959737
-0.12160327 0.039820395 -0.059612133 0.019493196 0.007115967 -0.014935138 -0.061846804 0.09549828
00000000: c8ff 56bb fe3c e2bd 83c5 65bc 8088 e8bb
00000010: e9ba b93d def5 9a3d 4614 3bbd 264e 193c
00000020: 37ff 1ebd 7875 ddbd 7e52 15bd d4c2 88bd
00000030: 92ac cabd f9c5 e6bd ad98 9fbd 7848 f2bd
00000040: dd8d 4cbd 00f0 a0bd 17d5 5a3d d109 d0bd
00000050: 445e 053e 4e83 8dbd e213 683d d1a9 443d
00000060: ab74 a53d 85c5 eebd e888 e73d 4927 0cbd
00000070: d69a ebbd e996 8dbd 9a2a b3bd e00d fdbc
00000080: b85c 4c3d 0f2d dfbc bc4f ee3d 7566 4fbd
00000090: 38e9 c63d e443 aa3d 29f4 033e fd81 51bd
000000a0: ea82 b8bd 40f7 d83d 2c4d 1fbd 3ffc 053d
000000b0: fd8a f8bd 04f0 93bd d729 3b3d fa2f 0c3d
000000c0: fe9e 613d 83f4 a93b fd16 803d 89cb f5bd
000000d0: 3d46 43bc 3d6d d2bd 4912 f93d 096d 7d3d
000000e0: 3116 cfbd b610 0abd d7bd f6bd c74d f9bc
000000f0: 2d71 f83d 98e5 c03d 1d57 a23d 851e 16bc
00000100: d20c acbd bfa2 0cbc 9df9 c5bd 326c 7f3c
00000110: f300 df3d 6e93 d5bd ec93 c8bd af33 d0bd
00000120: 79c1 80bb b8f1 02be 6fb8 b0bd 3843 33bc
00000130: 8c44 dd3c 0d26 84bd 42b8 4abd c47b af3c
00000140: 3b49 6d3c 5a9f 8d3d 2463 03be b93c e1bd
00000150: 57c5 983d 05a9 bebd 73f0 de3d 8028 febd
00000160: 583c 1dbd 07a9 1dbd 5bfe 33bd 8237 bebc
00000170: c8e0 f5bd f3e1 3ebd fc97 ef3d 0599 863c
00000180: 32d7 283d 63f4 e83d bcd1 3dbd 3acc 8a3d
00000190: 990d 9c3d 8838 073e 8b28 7a3d 08db 273d
000001a0: 0a36 263d 00a0 543d dcc5 c4bd f8f8 65bd
000001b0: 755f 283c 080d 043e 2d38 5b3d 60a4 f2bd
000001c0: 5e2a 78bd 67f4 9b3d 9287 94bd 50d3 f63c
000001d0: 4ed3 023d 32aa 813c ba7d 0c3d 67c3 ba3d
000001e0: c6a4 05bd a139 ef3d 3f17 fc3d 98a4 f23d
000001f0: ff49 d43d 0e0b 6d3d 4cf0 ffbc 79bb aebd
00000200: b738 583d 7c9c c23d 235b 813d c7c0 9abd
00000210: 49f0 a7bd 8b28 263d c923 babd 878a fabc
00000220: 020c fdbc fceb b23d 77de 75bd ebd1 2abd
00000230: fdff 193d 19fa 98bd f4b6 9abd 905d 9f3d
00000240: cb45 4dbc 102e e83c 6063 88ba 42b2 e9bd
00000250: 1bd1 f43d 0fff 03be 3c55 cf3d 4876 9dbd
00000260: 4e83 923d fb24 033e d5cd 3c3c 88ec 9ebd
00000270: f14e b8bd 5a42 1e3d e788 94bd 56af 03be
00000280: 42f8 d73d 252d cebb 35d6 d23c 9020 f93d
00000290: e422 7c3d 87c4 f73c d59a b6bc 3d24 87bd
000002a0: 8b91 88bd d034 1cbd de9e 833d 61c0 cbbd
000002b0: e33a cfbd 7f12 ec3d 96d2 053e 05c8 753d
000002c0: 34f0 95bd 6c43 a3bd 1ed6 9dbd e5e9 723d
000002d0: b37b 2ebc d8ec ca3d ef73 1d3d 3d24 9c3d
000002e0: 1cf5 18bd 5b36 2ebe 984c 943d a2dc 09bd
000002f0: 7225 023e c0fb cc3d 4c00 7a3d e435 013e
00000300: d770 b03d e72d 4e3b bac7 8bbd 9fed 1c3d
00000310: eb2a 8b3c 9de5 4cbc 586c 5c3d 1a11 1e3e
00000320: be3d 863d ec2c 09be 84ef 6b3d c39b 843c
00000330: 821c c3bd d68d ee3d fb3d 303d ab28 4cbd
00000340: 88b4 d63b f617 0a3e 554d d4bd 4a0a 8c3d
00000350: 342e 27be af0c 80bd f5ef 133e d75e a2bd
00000360: 32bd ae3d 49e0 f43d 51de bd3d 3704 b43d
00000370: ae15 913d 4172 49bc 2f7e 9a3c 79e9 753d
00000380: b14f 55bd 0949 ad3a 16f9 e2bd 8956 8a3d
00000390: 49dc fb3d f9f4 443d 470a 223d 824d 06be
000003a0: fd10 60bd 449c a83d 608f 243e 1729 55bd
000003b0: 87fe 8a3d 5f1e d0bd 4d5d fa3d 56df 11be
000003c0: 7622 80bc a396 b13d 4bbd ae3b 7e2f 853d
000003d0: 1e6b 4bbc 60c2 47bb 9f90 88bd 6e71 443d
000003e0: 230b f9bd b61a 233d da2b 74bd 32b0 9f3c
000003f0: 0f2d e93b 82b2 74bc 1353 7dbd 9a94 c33d

intersectionLayer.W f4 [48, 46]
0.20904697 -0.034083262 -0.11494405 -0.093417615 -0.053920347 0.118490584 0.17464891 -0.0633634
0.12909941 0.06982029 -0.14293653 0.14168572 0.060041096 0.13725847 -0.041866712 0.19320285
0.20207702 0.21979223 -0.11357595 0.22722025 0.039539106 0.0447291 -0.1257261 -0.1999189
0.20708922 -0.17951073 -0.081461884 0.116355084 0.00022994651 -0.116005376 -0.21159774 -0.087147444
-0.084214926 -0.23017712 0.060433965 -0.005725481 0.19435385 -0.13274471 -0.2545311 0.113035575
-0.03679717 -0.10505363 0.211083 -0.029132817 0.2529397 0.12507811 0.23184024 0.019077897
0.16580607 -0.1369478 0.14565763 0.13003185 0.1806242 0.17243147 -0.23974402 -0.23727012
0.061707065 -0.037325703 0.1796285 0.16053842 0.14428978 0.059957158 0.1824406 -0.012176957
0.108407624 -0.01244813 -0.011619432 -0.14974542 0.09352456 0.033887487 -0.21452722 -0.08320394
0.20777604 -0.14370885 -0.07429213 -0.116658375 0.097231545 -0.010307534 0.04793452 -0.056723386
-0.11240474 0.21143247 -0.12983 0.08604113 0.21853901 0.031300977 -0.087378964 0.2385939
-0.22125992 0.12367874 -0.03217106 0.010642325 -0.18566874 0.1953395 -0.118631154 0.042444676
-0.24039207 0.2098589 0.2453452 -0.08966735 -0.13183516 -0.22607774 0.11152804 -0.23408645
0.21891522 -0.12268928 -0.19039597 0.23832777 -0.24845621 -0.024100065 -0.23798555 -0.06126681
0.11506283 0.054569304 -0.07163721 -0.17718433 -0.08513142 -0.19825578 0.21668828 0.24899587
0.07278377 -0.11631383 0.10521394 0.014395565 -0.12930803 0.23915681 -0.20525433 0.11314905
-0.23712686 -0.042179003 0.16950178 -0.1526388 0.04820472 -0.20739096 0.0043263137 0.118857354
-0.1582559 0.08485168 -0.1381026 0.09367055 -0.15824923 0.101608574 -0.02574259 0.24412408
0.18624085 -0.025179535 -0.011046603 -0.14151976 -0.250842 0.09192976 -0.21203342 -0.22079425
-0.079432815 -0.20498818 0.16971713 0.030869842 -0.020816058 0.22716498 -0.05272682 0.0026736856
-0.013469934 -0.20377308 0.025214344 -0.078009814 0.10312685 0.21470645 0.13711515 0.026438713
0.02837953 0.037991524 -0.12553802 -0.08235966 0.10528305 -0.05888264 -0.119687825 -0.1827855
-0.09678377 0.03189659 0.111901194 -0.10442433 -0.15987271 -0.23423271 -0.099120036 0.15665668
-0.22545937 -0.2255221 0.1991665 -0.08795323 0.06303017 0.11722414 0.20264894 0.17508309
0.22768146 -0.1913205 0.034006797 -0.09352517 0.046762798 0.20348892 0.0030841352 -0.03597742
-0.1936576 -0.22526221 -0.17773812 0.090276755 0.21474268 -0.045397982 0.021899424 -0.26128206
-0.059022132 -0.2274062 -0.14190006 0.07361009 -0.19290446 -0.08101757 -0.07568936 0.054800697
0.09460748 -0.20855401 -0.15376072 0.23667695 -0.19637175 -0.22316758 -0.12441209 0.0028252983
-0.218766 0.04978448 -0.20277722 0.05408258 0.15728165 0.21702112 0.13245846 -0.18565448
0.16638416 0.002977815 0.15860748 -0.04320133 0.007938775 0.2410941 0.17435235 0.0768611
0.19912277 0.06062792 0.06856549 -0.21702878 0.27127254 0.04792072 0.10758395 0.20174824
0.0026725736 -0.1245585 0.21207678 0.2150325 -0.13456121 -0.23059317 -0.015581469 0.23276919
00000000: 6910 563e e49a 0bbd c967 ebbd bc51 bfbd
00000010: 95db 5cbd 31ab f23d 2ad7 323e acc4 81bd
00000020: a332 043e f1fd 8e3d f45d 12be 1016 113e
00000030: a7ed 753d 7c8d 0c3e 6e7c 2bbd f8d6 453e
00000040: 47ed 4e3e 3711 613e 829a e8bd 6dac 683e
00000050: c2f3 213d dc35 373d 58be 00be 8ab7 4cbe
00000060: 320f 543e a9d1 37be 7dd5 a6bd 934b ee3d
00000070: cc1d 7139 3a94 edbd 14ad 58be 5c7a b2bd
00000080: e078 acbd 8db3 6bbe 9b89 773d d19c bbbb
00000090: b204 473e 3bee 07be e651 82be 327f e73d
000000a0: a1b8 16bd 5c26 d7bd 2426 583e f2a7 eebc
000000b0: 5081 813e 7a14 003e 8767 6d3e 4049 9c3c
000000c0: 11c9 293e 0b3c 0cbe 4627 153e 1227 053e
000000d0: 8df5 383e e091 303e 757f 75be f0f6 72be
000000e0: 8cc0 7c3d d6e2 18bd 89f0 373e 2f64 243e
000000f0: b3c0 133e a395 753d b5d1 3a3e dc81 47bc
00000100: d104 de3d 3ef3 4bbc 6e5f 3ebc dd56 19be
00000110: ce89 bf3d 9bcd 0a3d 06ad 5bbe d466 aabd
00000120: 3ec3 543e 6a28 13be 7926 98bd 96ea eebd
00000130: 5521 c73d eee0 28bc fd56 443d c856 68bd
00000140: 7534 e6bd c181 583e 28f2 04be 5536 b03d
00000150: b1c8 5f3e 7435 003d bef3 b2bd f651 743e
00000160: f691 62be 474b fd3d cdc5 03bd 255d 2e3c
00000170: f21f 3ebe 1407 483e e4f4 f2bd 78da 2d3d
00000180: 5729 76be 40e5 563e c63b 7b3e 84a3 b7bd
00000190: ccff 06be ec80 67be d068 e43d 5cb4 6fbe
000001a0: 502b 603e 8444 fbbd 29f7 42be 320c 743e
000001b0: 4e6b 7ebe 806d c5bc 7cb2 73be e8f2 7abd
000001c0: 10a6 eb3d 1084 5f3d 88b6 92bd cf6f 35be
000001d0: 6259 aebd 9003 4bbe 88e3 5d3e c6f8 7e3e
000001e0: a80f 953d f235 eebd 687a d73d 60db 6b3c
000001f0: 5369 04be 86e5 743e 312e 52be b0ba e73d
00000200: 62d1 72be e4c3 2cbd e091 2d3e 584d 1cbe
00000210: 5072 453d 4c5e 54be c0c3 8d3b 7c6b f33d
00000220: d60d 22be b8c6 ad3d c56a 0dbe 58d6 bf3d
00000230: 160c 22be 2818 d03d 20e2 d2bc aafb 793e
00000240: ecb5 3e3e 5045 cebc d0fc 34bc 8eea 10be
00000250: 5d6e 80be ac45 bc3d 4a1f 59be e317 62be
00000260: acad a2bd 6ce8 51be 54ca 2d3e c0e2 fc3c
00000270: 7086 aabc f09d 683e 14f8 57bd 0039 2f3b
00000280: 00b1 5cbc e4a9 50be 508e ce3c 9cc3 9fbd
00000290: 2c34 d33d 02dc 5b3e ea67 0c3e 0096 d83c
000002a0: 307c e83c 009d 1b3d 0a8d 00be 2eac a8bd
000002b0: a49e d73d ec2e 71bd e41e f5bd 1f2c 3bbe
000002c0: 9236 c6bd 00a6 023d 742c e53d 6cdc d5bd
000002d0: acb5 23be b3da 6fbe 72ff cabd 9c6a 203e
000002e0: d2de 66be 44ef 66be 4ef2 4b3e d320 b4bd
000002f0: f615 813d 3613 f03d 3483 4f3e fb48 333e
00000300: 5425 693e 85e9 43be b64a 0b3d 208a bfbd
00000310: 598a 3f3d 665f 503e 341f 4a3b 0f5d 13bd
00000320: 2e4e 46be 23ab 66be fb00 36be 05e3 b83d
00000330: 81e5 5b3e 3cf3 39bd 6c66 b33c c3c6 85be
00000340: 31c1 71bd 2cdd 68be 404e 11be e3c0 963d
00000350: bf88 45be 8aec a5bd 0603 9bbd b276 603d
00000360: 91c1 c13d 2f8f 55be 7373 1dbe 715b 723e
00000370: ad15 49be 0b86 64be c4cb febd a428 393b
00000380: 3204 60be d0ea 4b3d d5a4 4fbe b285 5d3d
00000390: 710e 213e c93a 5e3e 31a3 073e 351c 3ebe
000003a0: 9c60 2a3e 7227 433b 006a 223e e1f3 30bd
000003b0: a311 023c 5fe1 763e 6c89 323e 5a69 9d3d
000003c0: d7e6 4b3e fb54 783d 106c 8c3d cb3c 5ebe
000003d0: 3ce4 8a3e 8448 443d f954 dc3d 1797 4e3e
000003e0: 5826 2f3b 8718 ffbd a82a 593e 7b31 5c3e
000003f0: 6aca 09be 9e20 6cbe 6b49 7fbc 0c5b 6e3e

neighborLayer.W f4 [6, 32]
0.29182452 0.28734812 -0.35959733 0.07279132 0.16840553 -0.2608429 0.28062084 -0.15124081
0.20252568 0.18116307 0.17291664 0.16046938 0.10152515 0.264332 -0.13789745 0.089451365
-0.049119085 0.088592894 -0.18272786 0.1474363 -0.040306896 0.31840694 -0.23427027 0.049289692
0.2527274 0.13595873 -0.12260521 -0.16090733 0.2234954 0.06377327 -0.39862123 -0.0630005
0.3732531 0.046614025 0.3893163 -0.20035133 -0.21898639 -0.36205855 0.14698398 0.170935
0.12008566 -0.045413014 -0.024410915 0.36891076 0.34357506 -0.23892552 -0.03396328 -0.036691837
0.04139966 -0.38783532 0.09398206 0.290482 0.0494262 -0.24060972 0.32569638 -0.35105014
-0.13401063 0.25146347 -0.16441192 0.15027755 -0.07444149 -0.3963914 -0.19544186 -0.27550077
-0.0033771112 0.13535737 0.35830146 0.3002888 0.29445127 0.26419818 0.0019006991 -0.1658102
0.19124691 -0.17996165 -0.3099885 -0.35068798 0.04983204 0.2782646 0.0895815 0.28468576
-0.051311553 0.3551177 0.19661736 0.16214132 -0.25101826 -0.26174286 0.22735155 0.32397392
-0.26664045 -0.22698006 0.15243948 -0.0036865168 0.009644318 0.26724982 0.20395853 0.30193627
0.14314242 0.11390853 0.006773924 0.025310323 -0.045615032 -0.22830199 -0.1487013 0.30193427
0.28315115 0.2479118 0.27998528 -0.058586407 0.07147649 0.12156468 -0.19299679 0.27381945
-0.16198938 -0.3400544 0.04340136 0.22505431 0.11091668 -0.2165821 0.24500036 0.06552645
0.25091535 0.1722589 0.19085981 0.18755145 0.010136281 -0.13671245 -0.23691308 0.2959798
0.20708588 -0.14055336 -0.16661873 0.16947679 0.07415897 -0.15792745 0.061462387 -0.2785054
0.0966969 0.38256317 0.11510783 0.3077491 -0.26996988 -0.25781432 -0.31061283 -0.3577672
-0.39036348 0.243233 -0.3640037 -0.12767182 0.37038907 0.2693236 -0.22373402 0.30761713
0.30522147 0.33627003 -0.17623241 -0.09472306 0.1816063 0.08705325 -0.24493766 -0.022581622
0.27229556 0.012387343 -0.31009164 0.11517142 0.039144095 0.2568847 0.030018244 0.3721333
0.06917234 -0.18734305 0.18796104 -0.10625477 -0.36494935 -0.23580801 0.27850902 -0.28054044
0.15949544 0.32779464 -0.19928494 0.094042845 -0.13115613 0.024962507 0.17092301 0.13143858
-0.23924498 0.3172412 -0.08629654 0.13797294 0.3678074 0.20530277 -0.14560302 -0.35987788
00000000: 066a 953e 4b1f 933e 241d b8be 9e13 953d
00000010: 8072 2c3e 338d 85be 89ad 8f3e dfde 1abe
00000020: e462 4f3e d082 393e 0f11 313e 1652 243e
00000030: 6bec cf3d 8656 873e fd34 0dbe 4732 b73d
00000040: 1831 49bd 3170 b53d 031d 3bbe 8bf9 163e
00000050: d818 25bd 3c06 a33e 8ce4 6fbe fde3 493d
00000060: 7c65 813e c438 0b3e 7118 fbbd e4c4 24be
00000070: fadb 643e 8f9b 823d 1518 ccbe 6806 81bd
00000080: 081b bf3e 59ee 3e3d 7754 c73e e628 4dbe
00000090: f83d 60be bd5f b9be f882 163e 9609 2f3e
000000a0: 78ef f53d ff02 3abd 66f9 c7bc dfe1 bc3e
000000b0: 12e9 af3e e4a8 74be 151d 0bbd 2e4a 16bd
000000c0: b192 293d 5a92 c6be ab79 c03d 0fba 943e
000000d0: 2173 4a3d 6562 76be adc1 a63e d8bc b3be
000000e0: 153a 09be d2bf 803e 995b 28be 5ce2 193e
000000f0: c874 98bd d0f3 cabe e921 48be 700e 8dbe
00000100: 8652 5dbb 1f9b 0a3e 4a73 b73e 74bf 993e
00000110: 51c2 963e fc44 873e e120 f93a 26ca 29be
00000120: 3bd6 433e de47 38be d0b6 9ebe 608d b3be
00000130: ae1c 4c3d b378 8e3e 8176 b73d 55c2 913e
00000140: 102c 52bd fdd1 b53e 1056 493e 6008 263e
00000150: 7785 80be 2903 86be d8ce 683e e9df a53e
00000160: 1985 88be 766d 68be 1819 1c3e 7d99 71bb
00000170: 3403 1e3c f8d4 883e 81da 503e 6497 9a3e
00000180: ed93 123e e048 e93d cbf7 dd3b 9857 cf3c
00000190: d4d6 3abd ffc7 69be 2745 18be 2197 9a3e
000001a0: 30f9 903e 97dc 7d3e 3b5a 8f3e 4df8 6fbd
000001b0: 4462 923d e7f6 f83d f3a0 45be 1032 8c3e
000001c0: 8be0 25be 9c1b aebe a0c5 313d a374 663e
000001d0: 4928 e33d b3c7 5dbe 60e1 7a3e bb32 863d
000001e0: fa77 803e a364 303e c170 433e 7d0d 403e
000001f0: a512 263c 59fe 0bbe 5899 72be aa8a 973e
00000200: 520e 543e 38ed 0fbe 1a9e 2abe 538b 2d3e
00000210: a8e0 973d bcb7 21be fcbf 7b3d 4398 8ebe
00000220: 0609 c63d 52df c33e a7bd eb3d 4a91 9d3e
00000230: 7e39 8abe 3d00 84be a508 9fbe 432d b7be
00000240: b9dd c7be 1212 793e b15e babe 67bc 02be
00000250: a3a3 bd3e c8e4 893e 881a 65be fe7f 9d3e
00000260: fd45 9c3e 962b ac3e 4576 34be 2afe c1bd
00000270: 00f7 393e f948 b23d f0d0 7abe 18fd b8bc
00000280: 536a 8b3e 48f4 4a3c 55c4 9ebe fede eb3d
00000290: 8f55 203d 6486 833e d2e8 f53c 4288 be3e
000002a0: 3aaa 8d3d dbd6 3fbe dc78 403e 1a9c d9bd
000002b0: a4da babe a877 71be bc98 8e3e ffa2 8fbe
000002c0: c652 233e b3d4 a73e 5a11 4cbe 8999 c03d
000002d0: cb4d 06be 2c7e cc3c 7106 2f3e d697 063e
000002e0: a3fc 74be 706d a23e 3ebc b0bd c748 0d3e
000002f0: 4051 bc3e e43a 523e f518 15be ea41 b8be

neighborLayer.a f4 [64, 1]
-0.02776103 -0.25816345 0.25859758 0.13481694 0.13158476 -0.13732061 -0.008463048 -0.07593815
-0.2831947 -0.040225863 -0.05473722 -0.2514036 -0.0385301 0.22992115 0.1789753 0.1597253
0.27360997 -0.09670935 -0.15755244 -0.30404028 -0.05271342 -0.0009866076 -0.32499012 0.10435483
0.07164876 0.01983006 -0.2897733 -0.1616707 -0.27965987 0.020676691 0.24906912 0.0991092
-0.1878239 0.3023606 -0.261675 0.070684366 -0.17860535 0.07190919 0.023240728 -0.17605051
-0.19463633 -0.1641509 0.06771655 -0.28990677 -0.20022193 -0.14917013 0.06834929 -0.14796266
0.2292645 0.07847386 0.28908145 -0.009806101 -0.2612373 -0.12334919 0.1754667 -0.040300123
-0.13490337 -0.13564338 0.18543525 -0.19351901 0.119462706 0.044510122 -0.11889827 -0.2575938
00000000: 196b e3bc 002e 84be e766 843e 740d 0a3e
00000010: 28be 063e c69d 0cbe 99a8 0abc 7685 9bbd
00000020: e5fe 90be e0c3 24bd 2334 60bd f9b7 80be
00000030: bdd1 1dbd 7370 6b3e 4d45 373e 078f 233e
00000040: 9b16 8c3e 8d0f c6bd 6d55 21be 2bab 9bbe
00000050: 07ea 57bd 0f51 81ba 1b65 a6be fcb7 d53d
00000060: 96bc 923d a672 a23c 2a5d 94be 018d 25be
00000070: 942f 8fbe 2a62 a93c fa0b 7f3e c4f9 ca3d
00000080: e954 40be 02cf 9a3e 44fa 85be f7c2 903d
00000090: 52e4 36be 2045 933d 5763 be3c 9646 34be
000000a0: bf4e 47be 2c17 28be f9ae 8a3d a96e 94be
000000b0: fa06 4dbe 0ec0 18be b6fa 8b3d 8683 17be
000000c0: 50c4 6a3e e7b6 a03d 7c02 943e c5a9 20bc
000000d0: e5c0 85be 809e fcbd 8bad 333e be11 25bd
000000e0: 1c24 0abe 19e6 0abe bde2 3d3e d929 46be
000000f0: dda8 f43d 3f50 363d f080 f3bd 56e3 83be
