test/model/actor_4_3_2_2_3_86_best_rou3.pth (torch, 689372 bytes, 17 tensors)

v2lLayer.W f4 [3, 40]
000000 a8 d3 95 be 4e 6f f3 3d 72 9a a4 be d2 29 de 3a
       -0.29263043 0.11886464 -0.32149082 0.0016949719
000010 1f 8a ea bd 60 78 1d be 31 3a ca 3e a4 2c 53 3e
       -0.11452126 -0.1537795 0.39497522 0.20622498
000020 37 36 8f 3c 93 6c 87 3d cd 45 ea bd 55 ed 80 bc
       0.017481906 0.06612506 -0.11439095 -0.015738169
000030 5b be 36 3e 36 01 ad be 7f 32 70 bc be b6 b1 be
       0.17846052 -0.33789986 -0.014660477 -0.34709734
000040 c7 3c 0c 3d 38 1f a4 3e a5 e7 22 3e d3 62 07 be
       0.03423765 0.32055068 0.15908678 -0.13221292
000050 2c 29 fd bd c6 e1 56 be 6c 18 fa bd 1c b0 65 3d
       -0.123613685 -0.20984563 -0.12211689 0.056076154
000060 b5 33 c9 bd 09 bc aa be b8 86 8d be fb a8 bb bd
       -0.098243155 -0.33346584 -0.27641845 -0.0916309
000070 98 9d 18 3e 57 15 78 3e 52 13 ba be ed e7 cf 3e
       0.14903867 0.2422689 -0.36342865 0.40606633
000080 95 28 ab be fc 28 11 be 07 9a 87 bd 16 36 f3 3d
       -0.334294 -0.1417579 -0.06621175 0.118755504
000090 23 68 33 3e dd 18 31 be c4 c8 ec 3d 90 91 08 be
       0.17520194 -0.17294641 0.115617305 -0.13336778
0000a0 3e ca c0 3d 0f ee 11 3c 16 db 92 be d6 e5 b3 3e
       0.09413575 0.008906855 -0.28682774 0.35136288
0000b0 c8 13 a5 3d 6f c5 f5 3c be ae 91 3e 65 5f 96 be
       0.080604136 0.03000137 0.2845363 -0.29369655
0000c0 cd 1b a5 3e df cf b6 3e 8e de af 3d 0a ec 24 3e
       0.32247773 0.35705468 0.08587371 0.16105667
0000d0 8d e0 6f be 2b c4 26 3e e7 69 8f be ea 39 b6 be
       -0.23425503 0.1628577 -0.28010485 -0.3559106
0000e0 0a 0b 19 be 84 a1 08 be cc d6 f5 3d f3 85 03 be
       -0.14945617 -0.13342863 0.1200386 -0.12844066
0000f0 3e f9 d1 bb 4d 6a b3 3e c3 7c 85 3d c9 a2 99 be
       -0.006407886 0.3504204 0.06517937 -0.30007008
000100 5b 07 36 be 17 8b fb bd b3 63 c6 3d 0d bf c0 3e
       -0.17776243 -0.12282389 0.09686985 0.3764576
000110 4a d2 b9 3e 2c 79 fd 3d 49 42 df 3d 09 43 d4 3d
       0.3629325 0.12376627 0.10901315 0.103643484
000120 17 52 b9 bd a2 c9 ea bd a0 3b 06 3e a3 18 95 3e
       -0.090488605 -0.1146424 0.13108683 0.2912036
000130 54 77 d1 be cd f5 eb bd f2 ca 46 3d 0b 65 6a be
       -0.40911353 -0.11521492 0.048533387 -0.22890107
000140 2e 94 97 bd 8b 37 1a 3c 00 23 af be 34 36 52 3e
       -0.0740131 0.009412657 -0.3420639 0.2052849
000150 7c b0 94 3e fd 31 80 3e d1 ba cd bd 86 b1 1f be
       0.29040897 0.25038138 -0.10045398 -0.15595064
000160 f7 6e a5 3e 60 c4 7a 3c 57 b9 94 3e 0f a0 51 3e
       0.32311222 0.0153056085 0.29047653 0.20471214
000170 ed c8 29 3e 7f 4f 96 3e d7 ed b5 3e 2b d7 13 3e
       0.16580553 0.29357526 0.3553302 0.14437549
000180 dc 74 a2 3e a0 3f d1 3d 68 a8 b7 bd f4 bd 35 be
       0.31729782 0.10217214 -0.08967668 -0.17748243
000190 e0 0c 93 3d 29 e5 c0 3e 3a db 37 3e cf d6 9b 3e
       0.0718019 0.37674835 0.17954722 0.30437323
0001a0 a0 21 b7 3e 78 d0 ca 3d f1 7f 2f be 67 13 98 3d
       0.3576784 0.099030435 -0.1713865 0.07425576
0001b0 40 6a 86 be b1 91 53 3d 9d c3 3d bd 73 a8 ae be
       -0.26252937 0.051652614 -0.04632913 -0.34112892
0001c0 d0 14 1c be a9 34 f6 bd 02 08 49 be 3b 7f ea bd
       -0.15242314 -0.12021763 -0.19631961 -0.114500485
0001d0 d5 81 6e be e2 ab bf be ce f4 9e 3e ee 46 4c 3e
       -0.23291714 -0.37435824 0.31046146 0.19948933

v2lLayer.a f4 [80, 1]
000000 1e 00 b3 3d db d1 1d 3d 57 dc 36 be fd a3 fb 3c
       0.08740257 0.038530212 -0.1785749 0.030717844
000010 f6 60 35 be ad ce 89 be 19 55 90 3d 31 b5 85 3e
       -0.17712769 -0.26915494 0.07047481 0.261148
000020 b4 e1 f4 3d 67 f4 7b bc ce 75 40 3e c8 96 06 bd
       0.11957112 -0.015378094 0.18794939 -0.03285864
000030 cb d0 f6 3d 10 75 b3 bd 2f c7 27 3e 97 f8 04 be
       0.12051543 -0.08762562 0.16384576 -0.12985454
000040 b4 6e 8d 3e ba 5f 97 3e 03 68 82 bc 9d 38 f2 ba
       0.27623522 0.2956522 -0.015918737 -0.0018480007
000050 4c 48 ff bd a6 55 5a 3d 99 0c 8a be 3f 2b 73 bc
       -0.124649614 0.053304337 -0.26962736 -0.014841854
000060 e2 e2 84 3e 4e cf 78 3e a4 8d a5 bd f8 cb 82 be
       0.25954348 0.2429783 -0.080836564 -0.2554624
000070 b7 01 6c 3e 08 cc 07 be 7c 2e 23 3e 5c b1 80 be
       0.23047529 -0.13261425 0.15935701 -0.25135314
000080 9f 9e 4c bd 6e c9 4f be c2 43 5a 3d eb 05 3a be
       -0.04995596 -0.20291683 0.053287275 -0.1816632
000090 59 e5 cc bb f8 47 7c 3e 97 fd 69 3e 59 3f 2e be
       -0.0062529263 0.24636829 0.22850643 -0.17016353
0000a0 a4 be 89 be e9 0f 83 be 2b 0d 26 3d 43 2c 97 bd
       -0.2690326 -0.25598076 0.0405399 -0.07381489
0000b0 89 ea 3f 3e ec 2c 5a 3e 94 c4 37 3e bf 21 6f 3d
       0.18741812 0.21306199 0.17946082 0.058381792
0000c0 ce be 1c be 0b 83 88 be 40 55 38 3c 71 3e 13 be
       -0.15307161 -0.26662478 0.011250794 -0.14379288
0000d0 ca 47 8f 3a 02 86 54 be f6 63 9b bd af d9 4d 3e
       0.0010931429 -0.20754245 -0.075874254 0.20102571
0000e0 a0 24 0a 3e 70 c9 78 3e 65 27 36 be 48 62 66 3e
       0.13490534 0.24295592 -0.17788465 0.22498429
0000f0 cb 7c 4b bd c8 b5 30 be 8b f2 13 be d5 c6 ea 3d
       -0.04967956 -0.17256844 -0.14447992 0.114637055
000100 79 70 0e bd 23 0d d4 bd c3 bf 16 bd 00 c9 90 be
       -0.03477523 -0.10354068 -0.036803972 -0.2827835
000110 2f a6 3f 3e 15 56 1e be 37 10 bf 3d a3 f8 6c 3c
       0.18715738 -0.15462525 0.093292646 0.0144635765
000120 e9 50 cc bd ee 08 bd 3d d2 69 9d 3d 44 11 1c 3c
       -0.0997637 0.09230219 0.07686199 0.009525601
000130 32 76 cd 3d be 93 c1 bd cf d4 19 be 84 37 ce 3d
       0.100323096 -0.09452008 -0.15022586 0.100691825

laneLayer.W f4 [12, 12]
000000 8e 32 78 be 29 3a d5 3e 01 6c 40 be df 32 06 bf
       -0.24238035 0.41645935 -0.187912 -0.52421373
000010 52 53 39 be 56 b3 9c 3e 2b 87 ba bc b2 92 f0 3e
       -0.1809819 0.30605572 -0.022769531 0.4698692
000020 05 a3 07 be f9 09 83 bb 67 7f 03 bf 61 94 1e 3e
       -0.13245781 -0.0039989916 -0.51366276 0.1548629
000030 5e aa af be d4 0c c9 be 78 9c b6 bd 10 68 ff bd
       -0.34309667 -0.392676 -0.08916563 -0.1247102
000040 30 84 0e 3e 44 db 19 be 00 db 28 3d 08 6b 49 3e
       0.13917613 -0.1502505 0.04122448 0.19669735
000050 00 a7 39 3c 30 d5 cf 3d 40 74 25 be 7a d9 c1 be
       0.01133132 0.10148084 -0.16157627 -0.37861234
000060 32 f6 ce 3e c0 44 0d be ac 75 dd be 5a dc 4f be
       0.40422207 -0.13795757 -0.4325384 -0.20298901
000070 d0 58 1c 3e 37 88 83 3c 39 0b 0e 3f a1 c6 c6 be
       0.15268254 0.016056163 0.55485874 -0.38823417
000080 0a 73 a6 3d 42 33 e8 bc 2a 78 94 3e 07 48 8e be
       0.08127411 -0.028344754 0.28997928 -0.27789328
000090 21 10 71 3e 22 16 71 be 9f c5 91 be 34 ca f4 3e
       0.23541309 -0.23543599 -0.28471085 0.4781052
0000a0 8d b3 92 bd e3 c4 70 be f6 68 8f 3e f9 e7 b3 bc
       -0.07163153 -0.23512606 0.28009766 -0.0219612
0000b0 84 31 cf 3e dd 2f c2 3e b7 f8 30 be ee b2 09 3f
       0.40467465 0.37927142 -0.17282377 0.5378865
0000c0 96 83 f9 be 54 4e 1f be f8 8f 8b bd f2 f6 d5 3e
       -0.48733205 -0.15557224 -0.06814569 0.41789967
0000d0 e0 69 c5 3c 28 e2 ce 3d e6 15 81 3e b8 a6 51 3e
       0.024098337 0.1010173 0.2521202 0.20473754
0000e0 ae b8 d3 be 48 bb 64 be 00 70 18 be 8c 7b e5 3e
       -0.41351837 -0.22337067 -0.14886475 0.4482082
0000f0 75 c0 cd be 15 ad 5e 3e a5 6c 0e 3f c6 51 18 3f
       -0.40185896 0.21745713 0.5563453 0.59499776
000100 8d 37 92 be a1 f2 b8 3d af 6b 86 be 35 c3 90 be
       -0.28558007 0.09030653 -0.2625403 -0.2827393
000110 3a e2 dc be d5 ac 30 be 90 2f 19 3e 40 c9 d4 3e
       -0.43141347 -0.1725343 0.1495955 0.41559792
000120 a9 f6 8a 3e ba 45 dd bd 74 3c e4 bc 63 00 be 3e
       0.27141312 -0.10804315 -0.027860858 0.3710967
000130 4c 26 30 be 94 6a d0 be 41 32 fc 3d ed 06 9a be
       -0.17202109 -0.40706313 0.12314273 -0.3008341
000140 61 b9 d9 be b7 2a 16 be 5e 09 07 be d8 65 f6 3e
       -0.42524245 -0.14664732 -0.13187167 0.48124576
000150 50 c7 63 3e 2e 18 a2 be 56 2d 1e 3f f7 e2 9f 3e
       0.22244 -0.31659073 0.6178793 0.31227848
000160 bd cb 42 be 49 61 4f 3e b3 b8 a0 3d 1b 98 b6 3e
       -0.19023032 0.20251955 0.078477286 0.35662922
000170 35 23 ce 3d 5a 77 81 3e dc b8 99 3e a5 61 e1 3d
       0.10065309 0.2528637 0.3002385 0.11004952
000180 35 47 45 3d ff db d1 3e 38 e1 ad be bd 8f fa be
       0.04816361 0.40988156 -0.3396089 -0.4893779
000190 b7 c8 f8 be ff 58 f1 3e 28 bd 92 be 47 a2 db 3d
       -0.48590633 0.4713821 -0.2865994 0.10724311
0001a0 6e 03 dc bd 02 09 d5 bd c6 5b 3d 3e 34 d7 b2 be
       -0.10742842 -0.10402109 0.1849204 -0.34929812
0001b0 e1 96 0c be 44 e1 9d 3e a0 cb c5 bd ef 89 0d be
       -0.1372943 0.30835927 -0.09657979 -0.13822149
0001c0 76 b7 c6 3e e3 e5 48 be c8 ef f2 3d a2 13 7d 3e
       0.38811845 -0.19618945 0.11862141 0.2471452
0001d0 90 6a 98 3e a3 50 f6 3e 08 6e 1f 3e bf d6 3b 3e
       0.297688 0.48108396 0.15569317 0.18343638
0001e0 56 21 bf be 98 db 97 be a8 fe e3 bd 00 9c 7f bc
       -0.3733012 -0.29659724 -0.11132556 -0.015601158
0001f0 50 0d 05 3d 18 f8 23 be d4 bf 6a be 72 96 97 be
       0.0324834 -0.16012609 -0.22924739 -0.29606968
000200 da 51 d3 be 90 81 41 be d8 80 ec bd 1a 43 a5 be
       -0.41273385 -0.1889708 -0.115480125 -0.32277757
000210 34 b7 88 be 10 bb 16 3d f0 59 f9 3e 04 55 04 be
       -0.26702273 0.03679949 0.4870143 -0.12923056
000220 92 7c aa 3e 80 b2 c4 3d 72 9f e0 be 6e 36 d1 3e
       0.33298165 0.09604359 -0.43871647 0.4086184
000230 36 95 cd be 80 ae bc bd 68 6f be 3d 20 5b 5c bd
       -0.401529 -0.09212971 0.09298593 -0.05379784

l2pLayer.W f4 [12, 88]
000000 0f 45 a4 bd 2f df 0e 3e e7 48 89 bd 58 51 8b be
       -0.080209844 0.13952325 -0.06703358 -0.27210498
000010 30 22 0b be 7d 23 8f 3c ad 72 09 be af 05 48 be
       -0.1358726 0.017472977 -0.13422652 -0.19533418
000020 8a fa 21 3e 7d a9 1f 3c 9d 9a 4a be 56 48 12 be
       0.1581823 0.009744999 -0.19785543 -0.14285406
000030 fa 8f 0c 3e 3e e2 84 3e 1d 98 a0 3e 71 a4 a0 bd
       0.13726798 0.2595386 0.31366053 -0.07843865
000040 84 19 1a 3d a7 dd 52 3e 07 2d 02 3a e0 ad 1f 3e
       0.03762199 0.20592366 0.0004965816 0.15593672
000050 52 3a 95 bc 0b a4 5f bd dd 2a fd bc af 70 4d be
       -0.018216286 -0.054599803 -0.030904228 -0.20062517
000060 13 26 1e 3e 07 0d 8f 3c a4 dc ac bc 7e 8a 52 3e
       0.15444212 0.017462267 -0.021101303 0.20560643
000070 83 d7 26 bd 77 e0 d3 3b 23 0b 3b be 3e 9f 66 be
       -0.04073287 0.0064659673 -0.18265967 -0.22521684
000080 ec ae 54 bd f7 58 71 3e 55 3f 4a 3e 1f 7f 59 be
       -0.05192463 0.23569094 0.19750722 -0.21239899
000090 05 4c 50 3e 4a c2 6c 3e b3 4b d3 3d 23 33 a8 3e
       0.20341499 0.2312099 0.10317173 0.32851514
0000a0 18 ae d0 3c 04 66 0c 3d 3f a1 44 bc 8a fb b4 ba
       0.02547364 0.034276977 -0.012001335 -0.0013807875
0000b0 f8 35 6f be 80 a4 00 bc fb 1a 3e 3d 42 76 91 be
       -0.23360431 -0.00785172 0.04641245 -0.28410536
0000c0 0a 14 ad 3d 50 68 3a 3e 65 61 b5 3d fa bf 3d be
       0.08451088 0.18203855 0.08856467 -0.18530264
0000d0 40 b8 91 be 17 c5 29 be dd 5d 52 3e f5 57 d0 3d
       -0.28460884 -0.1657909 0.20543619 0.101730265
0000e0 c6 2c 80 3e 40 48 90 3c 77 73 9e 3e 12 b1 07 be
       0.2503416 0.017612576 0.30947468 -0.1325114
0000f0 3d d1 73 3e b9 af 6f 3e 7f 63 6d be ab c0 5a bc
       0.23810287 0.23406877 -0.23182486 -0.0133516
000100 be ab 6b be ee ce e8 bc e9 4c 41 be 19 f1 a2 3d
       -0.23014733 -0.028418984 -0.18876995 0.07956142
000110 dc c8 0f be 4b b0 8a be 7e 73 11 3e 61 e9 e2 bd
       -0.14041466 -0.27087626 0.14204213 -0.1107967
000120 bf 47 5a 3e b4 e2 a6 bc 04 35 81 be a5 86 5b be
       0.21316431 -0.020371772 -0.2523576 -0.21438082
000130 e0 af 42 bb 89 94 3a be f4 b9 42 be 01 74 7e 3e
       -0.002970688 -0.18220724 -0.19016248 0.2484894
000140 25 be 98 3e 9b a5 86 3e 71 6b c3 bd 6f 91 c6 3d
       0.2983257 0.26298222 -0.09541977 0.09695708
000150 31 c0 cf bd e9 fd c0 3d 5b 87 d7 bd a9 59 7b 3e
       -0.101440795 0.094234295 -0.10523864 0.24545921
000160 58 00 2d be 3e bd 1f be c6 2e 10 be 6c 6f 61 be
       -0.16894662 -0.15599534 -0.14080343 -0.2201516
000170 aa 07 f4 3d 1f 81 72 be 52 fd 84 3d ac 13 86 bd
       0.11915524 -0.23682068 0.064936295 -0.06546721
000180 9c 81 1b be 1f 18 5a be d5 43 58 be 05 8f 6c 3e
       -0.15186161 -0.21298264 -0.21119626 0.23101433
000190 e6 01 b6 3d f7 1c 48 3e 14 39 4d be 8a 0d 18 be
       0.08887081 0.19542299 -0.20041305 -0.14848915
0001a0 e2 62 7a be 40 f8 72 be 8a 57 de bd 3c 6a a2 bd
       -0.24451783 -0.23727512 -0.108565405 -0.07930419
0001b0 00 4a f2 3a 12 d0 94 3d 7b 3d 0f 3e 6a ed b5 3d
       0.0018485188 0.07266249 0.13988297 0.08883174
0001c0 49 84 26 3e ba 51 7a be ff 35 73 3e 08 2e ee bc
       0.162614 -0.24445239 0.23751067 -0.029074684
0001d0 08 6a 96 3c 7c bf 13 3d d6 64 20 be 61 5a 74 be
       0.018361107 0.036071286 -0.15663466 -0.23862602
0001e0 24 eb ca bd 34 ab af bd 4c 64 72 3d f5 d8 63 3e
       -0.09908131 -0.08577576 0.05917768 0.22250731
0001f0 5a bf f9 3d ac 3a 6a be d9 10 51 3e da 92 91 3d
       0.121947005 -0.22873944 0.20416583 0.07108088
000200 6b 82 45 3e 5c da 36 bd 07 e5 68 3e 03 b2 47 3e
       0.19288032 -0.044641837 0.22743617 0.195015
000210 7c 98 43 3d fd 9f 1b 3e dc cf f3 bd 63 57 00 3e
       0.047752842 0.1519775 -0.119048804 0.12533335
000220 60 21 a0 bd bc 1f a6 bd 70 a8 65 bc 40 cc 36 bc
       -0.07818866 -0.081115216 -0.014017209 -0.011157095
000230 46 76 8a bd 34 82 4e 3d 52 9b cb 3d 51 5f 03 be
       -0.0676084 0.05041714 0.099417344 -0.12829329
000240 42 3b da bd 20 e3 ac bb f1 95 71 3e 3e 79 cc 3d
       -0.10655834 -0.005276099 0.23592354 0.099840626
000250 1d e4 30 be 22 70 1a be 9e dd d3 3d d8 60 a2 3c
       -0.17274518 -0.15081838 0.103450045 0.01982157
000260 9e 94 e0 bd 9c 50 60 bd 30 0f 73 3c 8c c3 24 3d
       -0.109658465 -0.054764375 0.014835164 0.04022555
000270 58 ca 5a bd 03 cc 63 3e 26 f9 d6 3d 3a 78 f3 bd
       -0.053415626 0.22245793 0.1049674 -0.11888166
000280 c7 d7 31 be 10 6d 27 be 33 71 72 3e 9a 29 9d bd
       -0.17367469 -0.16350198 0.23675995 -0.076739505
000290 00 06 a1 3b 3f b3 58 be 70 36 4a bc 9a 81 f0 3d
       0.0049140453 -0.21162127 -0.0123420805 0.117434695
0002a0 4e bc da 3d ce 47 a2 3d 6b 49 4f 3e 4a 26 a1 3d
       0.106804475 0.07923852 0.2024285 0.07868631
0002b0 d0 55 b7 bc 00 d0 2d 3a 3f 7d 0d 3e 9c fe 10 be
       -0.022379786 0.00066304207 0.13817309 -0.14159626
0002c0 bf 70 a7 bd c7 bb 97 3d 8b e2 1b bd 95 0e 26 3e
       -0.081758015 0.074088626 -0.038057845 0.162165
0002d0 ad ca 82 bc 84 a6 71 bc b1 17 c5 3d 28 73 49 3e
       -0.015965784 -0.014749173 0.096236594 0.19672835
0002e0 b7 e4 e4 bc f5 6b 1d 3e bb 15 0c 3e 58 a6 18 3e
       -0.027941091 0.15373214 0.13680165 0.14907205
0002f0 ae 48 12 be fb b6 cd bd 43 57 30 be 22 0a 43 be
       -0.14285538 -0.100446664 -0.17220788 -0.19046834
000300 24 7f 45 be fe 81 05 be 1a f5 ed bc e9 5b 06 bd
       -0.19286782 -0.1303787 -0.029047538 -0.032802496
000310 3b 28 6c bd 5b 7f 57 3e 36 6f a6 bd d6 c6 0b be
       -0.057655554 0.21044676 -0.081266806 -0.13650069
000320 07 c3 1c be ad 85 82 3d 9b 5f 90 3d 9d 17 38 be
       -0.15308772 0.06373153 0.07049485 -0.17977758
000330 67 d1 34 be e8 51 67 3d dc 6d 2b 3e f3 46 27 3b
       -0.17658006 0.056474596 0.16741127 0.0025524467
000340 7a 74 4c 3a 9e 0e a9 bd 74 cf 51 bd 83 67 4e be
       0.0007799339 -0.08254741 -0.051223233 -0.20156674
000350 46 77 66 be fd 35 51 be 7c f2 68 3d 8c 96 0f be
       -0.22506437 -0.20430751 0.056871876 -0.14022273
000360 50 31 9b bc 75 66 11 be 4f 0a 65 3e 2c ad 9e bd
       -0.018944412 -0.1419924 0.22367214 -0.07747874
000370 a6 36 50 3e 71 b8 d3 bd 84 75 61 be a4 22 77 be
       0.20333347 -0.10337914 -0.22017485 -0.24134308
000380 42 f1 91 3d e7 bf 69 be 0d 1e aa bd e8 fc 2c 3e
       0.071260944 -0.22827111 -0.08306513 0.16893351
000390 8b 3c 80 be d0 d7 8b bd 82 6e 4c 3b 3d 65 cf bd
       -0.2504619 -0.06828272 0.0031193797 -0.101267315
0003a0 0b 26 74 3c 47 47 83 3e 29 e5 8a 3d 86 28 6a 3e
       0.014901648 0.25640318 0.0678199 0.22867021
0003b0 5e ba c7 3d 9d 79 7f bd 93 92 77 be a7 da 3e 3e
       0.097523436 -0.06237184 -0.24177007 0.18638097
0003c0 4e db c0 3c 7d 51 13 bd 0d df ac bd d5 08 e7 bd
       0.023542073 -0.035966385 -0.08440981 -0.112809815
0003d0 bb 05 60 3e 5d 5c b4 bd c0 fc 76 3e 1e 7a 5f be
       0.21877186 -0.088066794 0.24119854 -0.21823928
0003e0 6f 00 69 bd 3b 7a 10 3d 0d e7 6d bd d7 da 3e 3d
       -0.05688518 0.035272818 -0.058081675 0.04659542
0003f0 fc 42 63 be ed fc 49 be 48 a5 fa bc 97 d5 a5 bb
       -0.22193521 -0.1972539 -0.03059639 -0.0050608623

l2pLayer.a f4 [176, 1]
000000 a8 bc 98 3d e3 b3 38 bd 42 b2 5f bd c7 57 24 be
       0.07457858 -0.04509343 -0.05461336 -0.1604911
000010 52 2f 39 3d e6 a2 b2 bd 9f ff 70 bd a0 88 d8 3d
       0.045211144 -0.08722477 -0.05883753 0.10572934
000020 c4 19 03 be 56 bc 03 3e e4 0b b2 3d 82 81 d8 ba
       -0.12802798 0.12864813 0.08693674 -0.0016518089
000030 5c 09 e0 bd 6e 48 1a bb 39 b3 85 bd f3 55 85 bd
       -0.10939285 -0.0023541707 -0.06528325 -0.06510534
000040 54 f7 87 3c 5c 3f 50 bd 63 15 16 3e 9e 43 de bd
       0.016597427 -0.050841674 0.14656596 -0.10852741
000050 31 5e cf bd 73 3c e0 bd ca 05 a4 bd 56 0c 02 3e
       -0.101253875 -0.1094903 -0.08008917 0.12700018
000060 8f 11 09 3d d8 8d cd 3d d8 63 60 3c eb ee 54 bd
       0.03346401 0.1003682 0.01369568 -0.051985662
000070 3f e3 15 3e ad 0e a6 bd 55 1b 02 3e 36 92 3f be
       0.14637469 -0.08108268 0.12705739 -0.18708119
000080 99 f1 f1 3d 74 2d 1e be fe 48 46 be 6e 79 cd 3c
       0.11813659 -0.15447026 -0.19363782 0.025082316
000090 5b 9c 0a 3e 3d ac 1b be fc 24 ca 3d 59 b8 17 3d
       0.13536207 -0.15202422 0.098703355 0.037041042
0000a0 37 4d 05 be 58 6b 42 be 32 60 fb bd be 33 a5 bc
       -0.13017736 -0.18986261 -0.12274207 -0.020166274
0000b0 59 d4 38 3e c5 f1 a5 3d 15 ff 3e 3c 6f 9d 00 be
       0.18049754 0.081027545 0.011657496 -0.12560056
0000c0 65 70 4d be 1f 50 f1 3d 82 1f 41 3e ec eb 2a 3e
       -0.20062406 0.1178286 0.18859676 0.1669156
0000d0 1f 0b da bc 2f 4b ed 3d e7 0e 23 bd 0a 41 15 be
       -0.026616631 0.11586606 -0.039809134 -0.14575592
0000e0 e7 bc 05 3e 3d 2d 8d bd fa 3b bc 3d 0a 3e c5 bc
       0.13060342 -0.06893394 0.09191127 -0.024077434
0000f0 1f 31 04 3d 2c 12 6f bd 95 ff 2a 3d 03 26 c0 bd
       0.032273408 -0.05836694 0.04174765 -0.0938225
000100 b7 bc 84 bd b5 20 0b be 26 0d e6 bd 90 5a d6 3d
       -0.06481307 -0.13586695 -0.112329766 0.10466492
000110 f7 74 65 3e 2e e8 2a be 13 23 e4 bc 73 56 57 3d
       0.224079 -0.16690132 -0.027848756 0.05257268
000120 34 cf 7b 3d 68 2b ea bd 6d 42 da 3c f5 77 63 3e
       0.0614769 -0.1143406 0.026643002 0.22213729
000130 44 25 a3 bc c6 23 5e be f1 a3 a2 3d 52 7c ce 3d
       -0.01991523 -0.21693334 0.079414256 0.10082306
000140 18 2d cd bc 56 65 b2 bd 28 4b bf bd 2b 75 22 3d
       -0.025045916 -0.087107345 -0.09340507 0.03966252
000150 6f b6 4a 3e da ee bc 3d b9 5b 3f 3d 80 f5 bc bc
       0.19796155 0.09225245 0.046718333 -0.023066282
000160 aa 02 c2 bd e5 75 61 3d ec 93 37 3e 10 f3 20 bd
       -0.094731644 0.055044074 0.17927521 -0.039294302
000170 c3 27 44 be 49 60 87 bc d7 c5 12 be 06 2d 1a 3e
       -0.19155793 -0.016525405 -0.14333282 0.15056238
000180 06 6f a5 bd e5 e3 9e 3d a8 8b 92 3d b3 46 02 be
       -0.08077817 0.07758311 0.071555436 -0.12722282
000190 ff f0 94 3d 76 74 92 3d 62 7e 6b bd fd f7 bc 3d
       0.07272529 0.071511194 -0.057493575 0.092269875
0001a0 36 21 0a 3e db 68 c5 3d b6 cd bc 3c b6 9a e0 3d
       0.13489231 0.0963914 0.02304731 0.10967009
0001b0 16 4f 38 be 4b c5 ea 3d e9 51 86 3d cf e4 17 be
       -0.17998919 0.11463412 0.06558592 -0.14833377
0001c0 8c ed 11 bc ce e9 ef bc 58 1f c7 bd 9d 27 2a 3e
       -0.008906733 -0.029286291 -0.09722775 0.16616674
0001d0 8f e4 08 3e 2b 53 91 3d 13 59 01 be e6 5d 73 3c
       0.13368438 0.07095941 -0.12631635 0.01485393
0001e0 27 2f ac bc a0 f5 2d ba 48 36 5c bd db 80 24 bd
       -0.021018578 -0.0006636027 -0.053762704 -0.04016195
0001f0 79 bc 1f 3d c7 4c a4 3a 04 a5 de bd 14 40 cb 3d
       0.0389981 0.0012535088 -0.10871318 0.09924331
000200 0d 20 10 bd 3c a2 40 3e 8d 56 1c 3c 14 a2 d6 3d
       -0.035186816 0.18811888 0.00954212 0.10480133
000210 2a 17 c2 3d 83 e9 cf 3c 05 80 3b 3d f1 82 21 3e
       0.094770744 0.025379902 0.045776386 0.15772606
000220 cd 72 cc 3d 88 8e ff bd 51 0c ea bd 22 57 3a 3d
       0.09982834 -0.124783576 -0.114281304 0.045493253
000230 69 f2 71 3e d8 aa 02 3e c1 c5 70 3d 15 4b 5a 3d
       0.23627628 0.12760484 0.058782343 0.05329426
000240 05 05 90 3c 62 73 0d be 81 11 9c bc f7 31 a5 3d
       0.017580518 -0.13813546 -0.019051315 0.08066171
000250 f0 92 c9 bd 49 5b f9 bd 7e de 7b 3d bb da 34 3b
       -0.09842479 -0.121756144 0.061491482 0.0027596194
000260 e4 0b 89 3d e0 88 92 3d 1e bf 9a 3d 6b 1e 0e 3e
       0.06691721 0.07155013 0.07555984 0.13878791
000270 37 ea 0d be fa 6d a2 3d 65 43 3a be 4f ff 35 3e
       -0.13858877 0.079311326 -0.18189771 0.17773174
000280 2e e5 f6 bc be 08 ae 3d e0 0b 5b be 31 ed f6 bd
       -0.030138578 0.08497761 -0.21391249 -0.120569594
000290 19 bd 97 bd 90 4f 12 be fe 2d e1 bc ae e0 1d bd
       -0.074091144 -0.14288163 -0.027487751 -0.03854435
0002a0 3a 7d f3 bd 7a af da bd 3e 10 16 be f6 b4 d4 bd
       -0.118891194 -0.10678001 -0.14654633 -0.10386078
0002b0 79 60 16 bd 4e 3f 37 be 63 3a d0 3d c2 03 34 be
       -0.036713097 -0.17895243 0.101673864 -0.17579558

phaseLayer.W f4 [24, 26]
000000 4a c5 98 be 53 0b 74 bd 3e 42 67 3e 80 8f f0 bd
       -0.2983802 -0.059581112 0.22583863 -0.117461205
000010 7b a2 b4 3d 9b 38 7a 3e 95 5a 1e 3e 33 55 61 3e
       0.08820053 0.24435656 0.15464242 0.22005157
000020 3d 13 d6 3d 58 34 ff bd a4 81 9d 3e 86 46 2a be
       0.10452888 -0.12461156 0.3076297 -0.16628465
000030 bc 17 1b 3e c1 d6 51 bd c0 4a 13 3e 11 66 96 3e
       0.15145773 -0.051230196 0.14383984 0.29374745
000040 77 88 d2 3a 1d 5a fd 3d a8 57 87 3e b1 2c ae 3d
       0.0016062398 0.12370703 0.26434064 0.08504618
000050 4c bf a1 3e 3e 3e 01 3d a7 f3 8c 3e 3c 14 97 3e
       0.3159126 0.0315535 0.27529642 0.29507625
000060 47 98 e2 3d a1 74 82 3e 90 22 a0 3e c9 8c ff 3d
       0.11064201 0.25479606 0.3127637 0.124780245
000070 8f 1f d0 3d 12 8f 3b be cf f9 6a 3e b0 c0 09 be
       0.10162269 -0.18316296 0.22946857 -0.1345241
000080 5c ea af bd ff 79 8c 3b 99 09 2f 3e 11 92 01 3d
       -0.085896224 0.004287004 0.17093505 0.03163344
000090 d4 6a 5c be 8a 54 5f 3e b3 97 13 3d 29 7e 93 3e
       -0.21525127 0.21809593 0.036033344 0.2880719
0000a0 70 1e 9b 3d 78 52 a2 be c9 64 e5 bd 68 02 55 bd
       0.07574165 -0.31703544 -0.11200864 -0.052004248
0000b0 b0 f5 51 be 12 0c c9 3d 76 de 6b be e4 95 95 be
       -0.20503879 0.09816755 -0.23034081 -0.2921592
0000c0 ad f6 8c 3e 3b a5 be 3a 79 f3 2c bd a9 c5 14 bd
       0.2753195 0.0014545092 -0.04222438 -0.036321316
0000d0 f6 65 3b bd de b5 34 be a0 94 1f be 87 66 86 3d
       -0.045751534 -0.17647502 -0.1558404 0.06562524
0000e0 e2 d9 17 3e a2 88 06 3e 77 b8 41 3e 59 f1 a1 3e
       0.1482921 0.13138059 0.18918024 0.31629446
0000f0 ea 14 95 3e 90 9e 1d 3d 9e 70 6c be 4e 1a 21 3e
       0.2911752 0.038481295 -0.23089835 0.1573269
000100 ad 5c a8 3d 50 4f 99 3e 1f 24 77 be 04 a3 93 be
       0.082208015 0.29943323 -0.24134873 -0.2883531
000110 78 5c 9e 3e 92 d8 05 bb 14 ba ab be 1c f8 aa be
       0.30929923 -0.0020423275 -0.33540404 -0.33392417
000120 a5 bb 83 3e 98 07 8b 3e a3 ab d9 3d d5 e3 63 3e
       0.257291 0.2715423 0.1062844 0.2225488
000130 29 ac 3c 3e 97 db a9 be 95 1e 87 be 1b 23 b3 3d
       0.18425049 -0.33175346 -0.2639052 0.0874693
000140 e1 9c 28 3e 43 d8 8e be c4 5c ba be b1 69 11 3e
       0.16466095 -0.2789937 -0.363989 0.14200474
000150 f2 7c 57 3c 5e b1 cd be 43 c0 8c 3e 92 cb 47 be
       0.013152348 -0.40174383 0.27490434 -0.1951125
000160 a3 06 54 3e 37 11 98 3c ed 94 2b be ee 58 c2 be
       0.20705657 0.018562896 -0.1675603 -0.37958473
000170 9a 8d ba 3d ca 67 9d 3d 88 6b 96 3e b6 f8 9b be
       0.091090396 0.07685812 0.29378915 -0.3046319
000180 a0 a3 7d 3e 01 de 7a be 03 1b 50 3e 5d 68 a1 3e
       0.24769449 -0.2449875 0.20322804 0.31524935
000190 99 89 e8 bc f1 35 d7 bd 66 db 8e be a8 c8 19 3e
       -0.028385924 -0.105083354 -0.27901763 0.1501795
0001a0 a5 fe b8 3d 59 f4 8d 3e 5a 9c 98 3d 60 a6 a6 3d
       0.090329446 0.27725485 0.07451697 0.08137202
0001b0 9a b0 cf bb 7c d7 f8 3c 5b d3 93 be 33 ca f2 3d
       -0.006338191 0.030376188 -0.2887219 0.11854973
0001c0 8b c5 89 be 3c 9b 9c be 45 e3 29 be f9 c5 fa bc
       -0.26908526 -0.30587184 -0.16590603 -0.030611979
0001d0 96 c7 6f 3d 8d cf 60 bd 9a c9 65 3c f7 21 c4 bd
       0.05853995 -0.054885436 0.014025116 -0.09576791
0001e0 bf d7 61 3e 87 ef 39 be fb ff e2 3c f8 bd a0 3e
       0.22054957 -0.18157779 0.027709952 0.31394935
0001f0 7b 21 a0 be 1a bd 30 3d d3 82 78 3e eb a1 43 be
       -0.31275544 0.04314909 0.24268655 -0.19104736
000200 6d b8 cd 3c a6 f9 8f bc 9c cd a4 be 94 1b b0 be
       0.025112355 -0.017575096 -0.32188118 -0.3439604
000210 e3 c9 69 be e0 38 a1 3e ff ab 69 3e b3 23 31 3d
       -0.2283092 0.31488705 0.22819518 0.043246936
000220 f1 c4 78 be 0c 3d a9 3e 2d 04 03 3e a6 35 d4 3d
       -0.24293877 0.33054388 0.12794562 0.10361795
000230 d9 11 ed 3d 15 90 02 3e b4 83 c2 bd 00 83 95 bd
       0.1157567 0.12750275 -0.09497777 -0.07300377
000240 27 1d c3 3d 98 c9 d2 bd c4 d9 d9 3d ec 58 89 3e
       0.09527045 -0.10292357 0.106372386 0.26825655
000250 2a 3c 9e be de a0 17 3d 6b 23 48 be 30 d5 0a 3d
       -0.30905277 0.03701865 -0.19544761 0.033894718
000260 e3 f2 88 be 63 41 dc bd 32 e7 8f be c2 9c 0a 3e
       -0.26747808 -0.10754659 -0.28106076 0.13536361
000270 de 98 63 be b9 04 24 3e 7e 2b 21 be 8e 32 96 3d
       -0.22226283 0.16017427 -0.15739247 0.07333861
000280 18 64 88 3e 59 6e 1a 3e 21 d1 56 3e a2 95 0a 3d
       0.26638865 0.15081157 0.20978214 0.033834107
000290 7d 03 98 bd 6e ae 2a be 5f 83 29 be e1 a2 a4 be
       -0.0742254 -0.16668102 -0.1655402 -0.32155517
0002a0 4e 25 67 be 39 b8 07 3e c2 a9 aa 3c 5f e6 f1 3d
       -0.22572824 0.13253869 0.0208329 0.11811518
0002b0 8e 6d b8 bd 9a 72 20 3e 15 b7 3a be 40 bb f2 bd
       -0.09005271 0.15668717 -0.18233903 -0.11852121
0002c0 80 b3 91 bd 18 01 0b be a1 9f 05 3e dd 4c a0 be
       -0.07114315 -0.13574636 0.13049175 -0.31308642
0002d0 f3 15 2e 3e 76 24 af be 8b a0 24 be d7 de 59 3e
       0.1700056 -0.34207505 -0.16076867 0.21276413
0002e0 37 25 a7 3d 45 eb 85 be 08 ea 52 3d 33 77 3d be
       0.08161395 -0.2615606 0.05149272 -0.18502502
0002f0 72 7b 7f bd f1 54 98 be cb 76 8a 3e 05 5f 85 3d
       -0.062373586 -0.29752305 0.27043757 0.06512264
000300 6a 19 8a be ef 2d 41 3e fa 1d 8e 3e 0d af 2f 3b
       -0.26972514 0.18865179 0.27757245 0.002680722
000310 85 71 46 3e db f7 87 3e 52 58 8d 3e ae 94 8c be
       0.19379242 0.26556286 0.27606446 -0.27457184
000320 62 b7 fc 3d 3f 69 cb bd 21 3d 0e 3e 60 e8 8d be
       0.12339665 -0.099321835 0.13890506 -0.2771635
000330 a7 07 b9 3e ce 82 7a 3e ca bf f5 3d 9c 33 a9 bd
       0.3613865 0.2446396 0.119994715 -0.08261797
000340 21 cc 40 be bb 5a da 3d 90 0a 8e be 7d 51 6c 3e
       -0.18827869 0.10661837 -0.27742434 0.2307796
000350 8c 6c f6 3d fe 80 a2 bc 37 3f 97 3e 5d 91 8b be
       0.120324224 -0.019836899 0.29540417 -0.2725934
000360 9a e2 5a 3e 46 b3 9b be bc 1c 89 3e 00 ee 8f be
       0.21375504 -0.30410212 0.26779735 -0.28111267
000370 6b 05 1b be c9 14 a4 bb ea 4f c3 3e 9e 53 93 3e
       -0.15138786 -0.0050073606 0.38146907 0.28774732
000380 91 f1 a4 3d 80 9a 8e be 7b d1 94 bd 32 7c a4 3d
       0.08053888 -0.2785225 -0.07266518 0.08031501
000390 bb 44 ec 3d 5b 05 43 3e e6 06 4d 3e 8b ae 53 3e
       0.11536547 0.19045012 0.20022163 0.20672052
0003a0 8a 70 b6 be 4a d0 03 3d 74 8b 94 3c 35 79 9c be
       -0.35632735 0.03218106 0.018132903 -0.30561224
0003b0 4a 4c d1 3d d1 aa 9e 3e 51 b7 a1 bc db 1b a6 be
       0.10219629 0.30989698 -0.019740732 -0.32443127
0003c0 4b 64 5a be 9b bd 21 be 35 d1 96 3c 1a 59 96 3e
       -0.21327321 -0.15794985 0.018410305 0.29364854
0003d0 51 85 b0 3e 25 6f c6 bb d4 c3 3d bd 2d 9a 2f be
       0.34476712 -0.00605573 -0.046329334 -0.17148657
0003e0 46 a1 a0 be f6 50 96 be c5 d0 75 be c2 d9 11 3e
       -0.31373042 -0.29358643 -0.2400542 0.14243224
0003f0 4f 1d 87 3e 60 7a 35 be 15 e8 de bd b7 a9 80 bd
       0.26389548 -0.17722464 -0.1088411 -0.062823705

p2iLayer.W f4 [24, 176]
000000 3b 24 10 be a3 78 d0 bd ba bd 48 be 9b 1f b9 bd
       -0.14076321 -0.1017926 -0.19603625 -0.090392314
000010 c6 8b 9f bc 79 f1 ea bd 18 c5 56 bc 67 7a 9b bd
       -0.019475829 -0.114718385 -0.013108514 -0.07591706
000020 d3 93 1f bd 34 86 6f 3b 1a 18 a0 bd 1d 73 0a 3e
       -0.038959336 0.0036548497 -0.07817097 0.13520475
000030 0a 78 08 be 15 47 10 3e fa 86 f1 bc 66 f8 d4 bc
       -0.13327041 0.14089616 -0.029483307 -0.025997352
000040 ff fb a1 bd ba 58 71 bd 8d 69 e3 3b 4c 3d bf bc
       -0.079093926 -0.058922507 0.006940073 -0.023344658
000050 d8 7c b8 3d d2 1c 04 bd 60 60 c9 bd c9 41 ca bd
       0.09008187 -0.032254048 -0.09832835 -0.09875829
000060 7c 34 63 bd f9 24 aa bd 77 eb 14 3e a4 25 a5 bc
       -0.055469975 -0.08307833 0.14542948 -0.02015955
000070 2a f7 73 bd 63 8a 08 3d 88 23 1d 3e c6 d8 cf 3c
       -0.059561886 0.0333351 0.15345585 0.02537192
000080 75 8b a2 3d 12 26 41 be 31 88 d7 3d 0a 2e b2 3c
       0.079367556 -0.18862179 0.10524023 0.021750469
000090 9a b8 b0 3d 83 dc dd 3d 97 55 d5 bd cd 3e 25 be
       0.0862896 0.10833075 -0.104167156 -0.16137238
0000a0 b7 46 46 3d 05 bc 1d 3d 77 36 25 be 33 79 16 3e
       0.048407283 0.038509388 -0.16134058 0.14694671
0000b0 3f fe a1 3d 6d 48 05 bc fc 84 5b bd a5 dd af 3d
       0.07909822 -0.008134943 -0.05359362 0.08587197
0000c0 64 a6 2e 3e 53 c4 1c be 06 62 c5 bd 33 43 f5 3d
       0.1705566 -0.15309267 -0.09637837 0.11975708
0000d0 2e 6d 2e be a7 e8 82 3d 05 d6 b5 bd ec 92 51 bd
       -0.17033836 0.06392031 -0.088787116 -0.051165506
0000e0 98 16 11 3e 50 cc b1 3d 32 d8 1a 3e ad fa 37 3d
       0.14168775 0.08681548 0.15121534 0.044916797
0000f0 0f 60 f0 bb 9d 38 b8 3d 4f 02 31 3c 57 39 5c bd
       -0.00733567 0.08995173 0.010803773 -0.05376562
000100 7a 43 81 3d f8 ff fe 3c 2f 9b 10 bd b8 aa 01 3e
       0.06311698 0.031127915 -0.035304245 0.1266278
000110 34 a0 62 3d a3 d2 16 bd 56 11 e0 3c d2 ae a3 bd
       0.055328563 -0.036821973 0.027352016 -0.07992329
000120 52 1a 11 3d b3 36 ca bd 91 4a e3 3c ed 2a 14 be
       0.03542549 -0.09873714 0.027745517 -0.144695
000130 46 74 08 3e 00 b8 d8 bd e2 27 14 3d 2b b8 b0 bd
       0.13325605 -0.1058197 0.036170848 -0.08628877
000140 b5 1b d7 bd bd 15 99 bd 15 a6 33 3e 51 24 14 3e
       -0.105033316 -0.074748494 0.17543824 0.14466979
000150 6b 04 c2 bd 86 4d a0 3d 28 1e 1d 3e 5e 38 35 bd
       -0.09473499 0.078272864 0.15343535 -0.04424321
000160 47 cc 8f bc 0f 28 56 be 3f 55 b3 3d f5 ec fd 3d
       -0.017553462 -0.20913719 0.08756494 0.123987116
000170 e9 71 a1 3c 58 ac eb bc 8a 0e 2b 3e 5e 68 10 bc
       0.019707637 -0.028768703 0.16704765 -0.008813946
000180 db 36 e7 bd 2b ad b7 3c 05 ea 53 3c 71 01 9f bc
       -0.1128976 0.02242144 0.012934213 -0.019409867
000190 5e 42 10 3e c1 bc 95 3d 59 b0 c5 3d ea 8f d3 bd
       0.14087817 0.073113926 0.09652776 -0.10330184
0001a0 9a e2 d5 3d d2 e2 51 3b 02 e0 93 3d 2e 3f 2b be
       0.104436114 0.0032026065 0.072204605 -0.1672332
0001b0 85 2d a5 bc c0 25 93 bd a0 4f 82 bd d1 e5 57 3d
       -0.020163307 -0.071849346 -0.063628435 0.052709404
0001c0 9e d3 d1 3d 74 a8 98 3c ba 64 33 3d c4 69 35 3c
       0.10245441 0.018635012 0.043797232 0.01107258
0001d0 03 fc 9f 3d d3 14 cf 3d d3 d3 c4 bd 7f f7 e9 3d
       0.07811739 0.10111394 -0.09610715 0.11424159
0001e0 d2 46 ce 3c d0 7b 5b 3c b8 98 dc bb 3b f9 8f 3d
       0.025180254 0.013396218 -0.0067320727 0.07029959
0001f0 cc ac 52 3d 79 ce 37 3e 0b cd 97 3d da aa e2 bd
       0.051434323 0.17949857 0.07412156 -0.110677436
000200 28 32 0b 3e b9 ec 09 be e6 7a c1 3d b8 8c db bd
       0.13593352 -0.13469209 0.09447269 -0.10720199
000210 cf 70 28 3d 15 e2 09 be 09 e0 98 bc 9e 15 b7 3d
       0.041123208 -0.1346515 -0.018661516 0.0893967
000220 c7 42 c6 3d 59 9f 63 3d c9 8f 18 be cd 97 a3 3d
       0.096807055 0.055571888 -0.148986 0.07987938
000230 b0 1c 05 bc 0b b2 b8 bd 67 65 b0 3d 2a 5f 47 bd
       -0.008124515 -0.09018334 0.08613091 -0.04867474
000240 24 86 fb bd 5b 02 f6 3c 78 6e a5 bd 92 25 81 3b
       -0.12281445 0.03003042 -0.08077711 0.0039412463
000250 90 bd de 3d 94 ef ee 3d 14 f7 32 3e 84 53 a1 3c
       0.10876 0.1166679 0.17477065 0.019693144
000260 c8 95 31 3e 1e 98 fb 3d 17 a6 f4 3d d1 40 af 3d
       0.17342293 0.122848734 0.119457416 0.085572846
000270 f8 c0 1a 3e f7 96 09 bd f8 be e9 3c e2 51 0c be
       0.15112674 -0.033591237 0.028533444 -0.13703111
000280 91 d4 99 3c 3f 31 28 be de 44 b9 3d 3a bd 10 3e
       0.018778117 -0.16425036 0.090463385 0.14134684
000290 da 35 87 3d 73 92 75 3d 7c cb 30 3e bf e7 8a bb
       0.06602068 0.059954118 0.17265123 -0.004239052
0002a0 dc e3 cf bd 02 c3 0b be e6 ce 84 3c ba de 16 be
       -0.101508826 -0.13648608 0.016211938 -0.14733401
0002b0 fb 25 08 bb 3e 0d 15 3e 6a f5 00 3d 32 4a 06 be
       -0.0020774591 0.14555833 0.031484045 -0.13114241
0002c0 70 b7 90 ba 32 49 ed bc 6f 32 10 3d e9 b0 74 bd
       -0.0011040997 -0.028965566 0.035204347 -0.059739027
0002d0 51 de 35 3e 43 86 30 be dd dc 71 3d a6 24 0c 3e
       0.17760588 -0.17238717 0.059048522 0.13685855
0002e0 b7 b5 16 3e 22 3e 0a 3d c4 b9 a9 bd 95 1b 6e 3d
       0.14717756 0.03375066 -0.08287385 0.058131773
0002f0 a0 79 74 bd ae 15 48 bd 42 16 dd 3d d6 e4 08 be
       -0.059686303 -0.0488488 0.10795261 -0.13368544
000300 28 13 e0 bc 3b eb 99 bd 70 f9 07 be a8 2d 11 3e
       -0.027352884 -0.0751557 -0.13278747 0.14177573
000310 28 a5 08 3e 33 9f d3 bc 0d 91 b3 bd 5c b6 39 be
       0.13344252 -0.025832748 -0.087679006 -0.18135971
000320 c5 05 52 bd 2e 0b 00 3c 53 9a 0b 3c fa d6 1a be
       -0.051275034 0.007815165 0.0085206805 -0.1512107
000330 2d f8 41 3c 43 ba ad 3d 6b 2e 13 3e 28 b9 e5 3d
       0.011838955 0.08482792 0.14373176 0.112169564
000340 8c d9 03 3e b5 02 14 3e a0 90 0a 3e 83 47 16 3e
       0.12875956 0.14454158 0.13531733 0.14675717
000350 01 d1 27 3d 66 33 f5 bd 8e ff 76 bd 5f ae 04 be
       0.040970806 -0.11972694 -0.06030231 -0.12957142
000360 8e 6c 9a 3d 67 cd 75 bd 0f 7c 04 3e 0c 47 bf 3c
       0.075402364 -0.06001034 0.1293795 0.023349307
000370 12 d4 09 3d 18 83 b7 3d 7f 8b 5e 3c 9d b1 a1 3d
       0.03364951 0.08960551 0.013583063 0.07895205
000380 19 ea 17 be 72 32 cc 3b 7a 5e 74 bd d4 f2 42 3e
       -0.14835395 0.0062315995 -0.059660412 0.19037944
000390 90 0d 9d 3d 37 fe 37 3e 90 f9 e3 bd 39 aa 21 3d
       0.076686025 0.17968069 -0.11131585 0.039468978
0003a0 1c 83 10 be 36 04 a6 3d 6b b1 78 bc 59 93 d3 bc
       -0.14112514 0.08106272 -0.0151790185 -0.025827097
0003b0 d9 54 53 3e 2f de 11 3e e7 85 70 3d 5e 4f 8b 3d
       0.20637836 0.14244913 0.05872145 0.068022475
0003c0 30 6f 4c 3d af 73 e3 3d 70 ee c0 3d f2 f3 c9 bd
       0.049910724 0.11106049 0.09420478 -0.09860982
0003d0 14 4e 31 3e 8b 2f 9c 3d 6d 94 23 3e 17 ca 44 be
       0.1731494 0.076262556 0.15974589 -0.19217716
0003e0 c5 f9 ea 3c af 6b ad bd c8 39 07 be 82 9f cc bd
       0.028683553 -0.08467805 -0.13205636 -0.09991361
0003f0 71 c4 b8 3c 08 f7 8f 3c 49 ae 01 3e 5a ca 21 3e
       0.022554608 0.017573848 0.12664141 0.15799847

p2iLayer.a f4 [352, 1]
000000 61 65 8f 3c 71 3c be 3d 78 80 c1 3d d5 df 92 3d
       0.017504396 0.09288872 0.094483316 0.07171599
000010 84 03 b9 3c d8 03 7f 3d 2d 1f 63 3c 49 0a e9 bd
       0.022584684 0.062259525 0.013862413 -0.11378915
000020 ec 6d e3 3d 4a f8 87 bc a2 e1 91 3d 50 7d ea 3d
       0.1110495 -0.016597886 0.07123114 0.11449683
000030 20 a6 6b bd 4e aa a1 3c 08 c0 b0 3d 82 43 4e 3d
       -0.057531476 0.019734528 0.08630377 0.05035735
000040 21 b9 0a 3e 01 1d e8 bd fa 56 08 bc eb 6a d3 3d
       0.13547184 -0.11333657 -0.008321518 0.10323127
000050 9b 41 a8 bd 39 b2 bd 3d 88 97 e8 bd 82 71 96 3c
       -0.08215638 0.09262509 -0.11357027 0.018364672
000060 28 d1 d7 bc 08 71 05 bd 1d 46 9c 3d d6 0c b7 bd
       -0.02634485 -0.032578498 0.076305605 -0.08937995
000070 19 42 0d 3e be fd 95 3d cf dc e2 bd b6 6a 01 bd
       0.13794746 0.07323788 -0.11077272 -0.031595908
000080 3a 16 1a bc 0f ba 98 3b 7d b3 3a 3d 73 7c b4 3d
       -0.009404713 0.004660852 0.04558133 0.08812799
000090 3e d1 97 3d 61 7c 3c 3d 64 0b 82 bd b8 7e d5 bd
       0.07412957 0.046017054 -0.06349829 -0.1042456
0000a0 31 89 b5 bd 18 85 bc 3d 22 2b 77 bd a2 f5 0b be
       -0.08864058 0.09205073 -0.06034387 -0.1366792
0000b0 3f c3 88 3d 65 ae 91 bd 7e 52 be bd 7f 8c 92 bd
       0.06677865 -0.07113341 -0.09293078 -0.07155704
0000c0 b1 55 13 be 2e 34 55 bd 00 6f c2 3d c9 d8 1d 3d
       -0.14388157 -0.052051716 0.09493828 0.03853682
0000d0 aa d5 e5 bd 30 79 92 3d 00 93 2b bd 55 27 8e bd
       -0.11222394 0.07152021 -0.041888237 -0.06941096
0000e0 24 4b 85 3d 70 af 81 3d 36 bf e4 3d 80 61 2f bd
       0.065084726 0.0633229 0.11169283 -0.042817593
0000f0 15 5d 24 3d cf f2 f4 bd ee 86 f1 bc 87 60 f5 3d
       0.040127832 -0.119603746 -0.029483285 0.11981302
000100 23 22 91 3d 17 88 ba 3d 5e da f7 3d 94 7d 4c 3c
       0.07086589 0.09107988 0.12102197 0.012481112
000110 0a 85 c7 3d 35 38 7f bd a1 50 fd bd c9 d2 4d 3d
       0.09742172 -0.062309463 -0.12368894 0.05024985
000120 4c 6e b2 bd 4a 8e 7e bd 2e 25 b8 bd b9 b0 f5 39
       -0.08712444 -0.062147416 -0.089914665 0.0004686171
000130 ff 9c bf bd 0a 65 e9 3c 7a 4f 14 3e 47 0c 79 bd
       -0.093561165 0.028490562 0.14483443 -0.060802724
000140 76 b6 b1 3d f4 e9 88 3d 1b 5c 0b 3e c0 f3 89 3d
       0.0867738 0.06685248 0.13609354 0.06735945
000150 78 20 0c bd 62 2a e5 3d a9 f2 04 be bc 68 76 3d
       -0.034210652 0.111897245 -0.12983193 0.060158476
000160 95 97 db bc 74 f1 50 3d 58 b1 b4 bd ec d3 f7 3c
       -0.026805678 0.051011518 -0.08822888 0.03025242
000170 b2 a2 74 bd c5 d3 0a bd 5f fb 7b bc ae 5d b8 3d
       -0.05972547 -0.033893365 -0.015379756 0.09002243
000180 83 22 d9 bd 53 c2 9f 3d 74 50 04 bd a7 9d f0 bd
       -0.10602286 0.07800736 -0.03230329 -0.1174882
000190 23 4f 04 bd 45 0d af bd 44 53 01 be 1d 64 ba 3d
       -0.032302033 -0.08547453 -0.1262942 0.09101126
0001a0 41 c2 c1 bd e0 7d c0 bc 33 b4 f3 bc 59 17 9b bd
       -0.09460879 -0.023497522 -0.029749012 -0.075728126
0001b0 6f 42 87 3d b1 cd b3 bd c6 e2 a1 3d 67 eb c2 3d
       0.06604468 -0.08779467 0.07904582 0.09517556
0001c0 c9 3a dc bd 83 59 01 be 89 92 1d be cb 49 f0 3d
       -0.107534 -0.12631802 -0.1538793 0.11732825
0001d0 4e 43 3a 3c 78 d2 b4 3c 58 80 0e bc 72 64 71 bd
       0.011368586 0.022073016 -0.008697592 -0.058933683
0001e0 b9 54 aa bd 96 4e 06 be a3 d0 fd 3d 02 8a f0 3d
       -0.08316941 -0.13115916 0.1239331 0.11745073
0001f0 c5 6b fe 3d 25 62 b5 3c 78 9b 60 3d 00 db 87 3d
       0.12422899 0.022141526 0.054835767 0.06633568
000200 af a3 1d be a2 0b c6 bc 6e 8d 44 3d 7f 12 f0 3d
       -0.15394472 -0.024175469 0.04798644 0.11722278
000210 6d 30 9c bd cc 5a 8c 3c a5 eb a0 3c 97 91 1d bd
       -0.07626424 0.01713314 0.019643614 -0.038468923
000220 dd de f2 3d ab 3b e0 3d 69 61 7c 3d a7 16 e9 3c
       0.11858914 0.10948881 0.061616335 0.028453184
000230 29 e5 89 bd 9c 76 3c bd 3f 9b 9e 3d a9 23 c4 bb
       -0.06733162 -0.046011552 0.077444546 -0.0059856963
000240 4b 56 0b 3e a0 95 52 bd 69 66 20 3d d3 84 b9 bd
       0.13607137 -0.051412225 0.039160166 -0.09058537
000250 ca 9a ca 3d f3 20 03 3e e4 c4 80 3d 68 8d bb 3d
       0.09892805 0.12805538 0.06287554 0.091578305
000260 9d 8b 03 3e c9 fb 69 bc 29 56 0b be c3 07 a7 bd
       0.12846227 -0.014281222 -0.13607086 -0.08155777
000270 2a 88 25 3d d2 e5 9c bd 8c b2 1a 3c e6 76 a3 bd
       0.04041306 -0.07661022 0.009441983 -0.079816625
000280 22 11 4b 3d 50 56 dc 3d 11 4a a0 3c 36 00 4f 3d
       0.049576886 0.1075865 0.019566568 0.05053731
000290 a3 13 22 3e 46 1a 40 3d bf 8e 9b bd da 4a d0 3d
       0.15827803 0.046900056 -0.07595586 0.10170527
0002a0 95 86 cf bb 99 07 00 3e cc 43 cc bd 4f 47 b4 3b
       -0.006333182 0.12502898 -0.09973869 0.0055016647
0002b0 ce 0e c6 bd cf 12 f4 3d e5 0f ca bd 45 d7 d9 bc
       -0.096707925 0.1191765 -0.09866313 -0.026591906
0002c0 f1 33 c8 bd 69 22 b3 3c 67 c1 14 bb 6a 53 ba 3d
       -0.09775532 0.021866994 -0.0022698285 0.09097941
0002d0 72 78 18 3d 03 66 96 ba ce f5 aa 3d 47 1f ae bc
       0.03722424 -0.0011474494 0.08347665 -0.021255149
0002e0 ca 76 33 bd 43 6b 32 bd 52 76 d6 bd 9b 9d 07 3e
       -0.043814458 -0.043559324 -0.104717866 0.13243715
0002f0 3a 31 21 3e b6 09 26 3b b1 4e 50 bd 63 ef da 3d
       0.15741435 0.0025335378 -0.050856296 0.10690191
000300 4e 38 d8 bd 0e e3 85 bd 93 69 ad 3d e3 59 19 3d
       -0.10557614 -0.06537448 0.08467402 0.03743924
000310 b7 53 ad 3a c6 6c a4 bb 1d 8c c9 bd d6 90 b1 bd
       0.0013223802 -0.0050178496 -0.098411776 -0.086702034
000320 33 60 18 3c 52 3f e0 3d df eb c1 3c 5c ff a0 bd
       0.009300279 0.109495774 0.023672042 -0.07861206
000330 22 60 8b 3d 76 4f 60 bd 90 de 24 3d 75 a1 bc 3d
       0.06805445 -0.05476328 0.040251315 0.09210483
000340 b5 9b 14 3c 05 79 19 3e 22 35 39 bd b8 a6 24 bd
       0.009070327 0.14987572 -0.045216687 -0.040198058
000350 e0 ca 29 bc 91 f6 3e 3d ca 41 ed bd 3b e7 69 3d
       -0.010363311 0.046621863 -0.11584814 0.057105284
000360 71 48 90 3b de 98 00 be 89 97 96 bd da ee 37 3b
       0.004403167 -0.12558314 -0.07353122 0.002806595
000370 4e 31 99 3d 50 9b 28 3d 62 06 da 3d 1b 28 d8 bc
       0.07480107 0.041163743 0.10645749 -0.026386311
000380 58 84 45 3d 59 56 10 3d b0 53 85 3c 56 ac 04 3d
       0.048221916 0.035238598 0.016275257 0.032390915
000390 8c 43 3e 3e 85 18 5d 3d 19 27 c2 3d f3 fd 8e 3d
       0.18580455 0.05397846 0.094801135 0.06982031
0003a0 a7 69 e2 bd 5f 45 b8 3b 77 e6 9f 3d 76 e8 9e bd
       -0.11055308 0.005623504 0.078076296 -0.07759182
0003b0 b0 48 a4 bc e4 45 50 3d 35 8d f8 bd 88 c3 88 3d
       -0.020054191 0.050847903 -0.12136308 0.066779196
0003c0 b0 2e b4 bd 20 52 af 3d f6 3a 37 3d f9 47 47 3d
       -0.087979674 0.08560586 0.044733964 0.048652623
0003d0 19 7f c9 3d 1a f2 2b bc 9a b2 d9 bd 2d 11 fc bd
       0.09838695 -0.010494733 -0.10629769 -0.123079635
0003e0 31 7b 9d 3d 2f 5c e4 3d 2f 9a e7 bd eb 07 c4 bb
       0.076895125 0.11150395 -0.11308705 -0.005982389
0003f0 f0 75 a4 bd 30 53 c2 bc 9e c5 92 bc 4b ed e9 bc
       -0.08030307 -0.023721308 -0.017916497 -0.028555533

intersectionLayer.W f4 [48, 46]
000000 a2 54 27 3e 4e d0 fb 3d 85 f3 52 bc 9a 54 58 be
       0.16340879 0.1229559 -0.012875442 -0.21126023
000010 0b 8f 44 3e d0 65 16 3d 1a a3 5c bc 33 35 62 3e
       0.19195192 0.03671819 -0.013466621 0.22090606
000020 23 0d 60 bd 4d 48 7a 3c ab 98 98 3d 91 4d 9b bc
       -0.05470003 0.015276027 0.07450994 -0.018957885
000030 be 1b 65 be 1f da 8e bc de c0 f5 3c ee 5f 7d 3d
       -0.22373864 -0.017437993 0.029999193 0.061859064
000040 9a 39 fe 3d 6f 8c 39 3e cb ca 2b 3e 73 9e e6 bd
       0.124133304 0.18119977 0.16776578 -0.112606905
000050 70 c0 54 be ff b4 7f 3d 32 cf 0b bd b2 70 de bc
       -0.20776534 0.06242847 -0.034133144 -0.027153347
000060 98 9d fe 3d 66 ed 55 be 68 8f c4 bd bc 9f fd ba
       0.12432402 -0.20891342 -0.09597665 -0.0019349973
000070 89 99 d3 bd f7 3f 5d bd df e1 33 bd d7 c4 a6 3c
       -0.10332019 -0.05401608 -0.04391658 0.020357532
000080 e9 4c 2d 3e cf 52 0f 3e da 4b be 3c 2b a5 11 be
       0.1692387 0.13996433 0.023229528 -0.14223163
000090 f0 30 c1 bd 1c ff 31 3d 90 10 02 3e 29 5c 3d bc
       -0.09433162 0.043456182 0.1270163 -0.011557617
0000a0 bb 91 38 bd a5 eb 41 3e 9a 0b f0 bd 11 e3 71 3e
       -0.045060854 0.18937548 -0.11720963 0.23621775
0000b0 1d db 57 3e 82 fd 5b bd e6 07 08 be d2 59 d2 3d
       0.21079679 -0.05370856 -0.13284263 0.10271038
0000c0 06 8e 83 3e 77 eb a5 3d d2 54 db bc 97 c4 0d be
       0.25694293 0.08101552 -0.026773844 -0.13844524
0000d0 4d 09 02 3e 2f 79 40 bc 26 05 93 3d c8 8a 30 3e
       0.1269886 -0.011747642 0.07178716 0.17240441
0000e0 cf 0b ae 3c 5b 0b 87 3d e4 96 c4 3d c6 04 bb bd
       0.021245865 0.06593963 0.095990926 -0.0913177
0000f0 e0 a7 c5 bd c5 c7 5e 3e b5 b2 4c 3e 03 61 87 be
       -0.0965116 0.21755894 0.19990046 -0.26441202
000100 a4 af 28 bd 5a 53 58 be 44 39 bd bd 7a d9 85 3d
       -0.04118313 -0.21125546 -0.09239438 0.06535621
000110 33 d0 43 3e b5 39 77 3e 61 5b 55 be 1d 2d 1a 3e
       0.1912239 0.24143107 -0.2083564 0.15056272
000120 48 2f a7 3d 12 af a4 3d c6 95 5e 3d 4d cd 0c be
       0.08163315 0.080412045 0.054342054 -0.13750191
000130 ad 62 fe 3d ac 9d 39 3d ea 47 4c 3e 54 d7 26 3d
       0.12421165 0.045316383 0.19949308 0.040732697
000140 f2 2e 7c be ab 83 67 be 2a 18 9c bd 68 48 1c 3e
       -0.24627283 -0.22608821 -0.076217964 0.15261996
000150 ec 59 4c 3e ca 1d 41 3e 1d 01 1a 3e 61 75 81 be
       0.19956177 0.1885902 0.15039487 -0.25284865
000160 50 f5 bf bd 83 5e a0 bd 37 00 9d bd 13 cd a8 bc
       -0.093729615 -0.07830527 -0.076660566 -0.0206056
000170 4e b7 ad bd 16 fc 81 be 31 11 ce 3d a9 a6 2a be
       -0.08482228 -0.2538764 0.10061873 -0.16665138
000180 96 ad b2 bd 97 33 2b be e4 1d 98 bd d2 db 9a 3d
       -0.08724515 -0.16718899 -0.07427576 0.07561459
000190 2f 3a 2d be 8a 41 39 3e 05 a4 01 be 04 4e 2f bd
       -0.16916727 0.18091407 -0.12660225 -0.04279901
0001a0 40 09 62 3e 10 70 72 be f4 de 1e be 61 71 e9 3b
       0.22073841 -0.23675561 -0.15514737 0.0071241115
0001b0 63 d0 7f bd 9d 89 2f be 9b 7f 37 be da 18 26 be
       -0.062454592 -0.17142339 -0.17919771 -0.16220418
0001c0 9d fc 46 be 86 00 6c bb 68 a8 3a be 8f 6e 53 bc
       -0.19432302 -0.0036011054 -0.18228304 -0.012904777
0001d0 b3 9f 52 be 67 b6 da 3d db 3a 49 3d 5e 03 08 3e
       -0.20568733 0.10679322 0.049128395 0.13282534
0001e0 60 53 45 3e d3 22 c6 bb ed f6 3a 3e 8f 5c f8 bd
       0.19270086 -0.006046632 0.18258257 -0.12127029
0001f0 1b 9d fa 3d e3 dd a0 3d 5b e4 14 3d 0a 03 de bd
       0.12236997 0.078548215 0.03635059 -0.108404234
000200 5a 26 eb 3d 2b 95 81 3d 08 d5 39 be 5a 47 3f 3d
       0.11481924 0.0632728 -0.18147671 0.046698906
000210 54 f8 62 be 0e 87 0c 3d 86 88 12 be e0 fc 70 3d
       -0.22165042 0.034308486 -0.14309892 0.05883491
000220 2b 0f 6a be fa f1 8b bd c4 74 eb bd da 1e 69 3e
       -0.22857349 -0.06833263 -0.11496881 0.22765675
000230 f2 67 4b be ec 20 e1 3d 8d 72 5e 3e c9 54 ab bc
       -0.1986387 0.109926075 0.21723385 -0.020914452
000240 92 3a 42 3e a3 a6 2f be f7 ff 66 3e 02 90 8b be
       0.18967655 -0.1715341 0.2255858 -0.27258307
000250 08 01 e2 3d 79 0b 9e bd b8 a2 99 bd 66 dc 16 be
       0.11035353 -0.07717032 -0.07501739 -0.14732513
000260 e3 f0 85 be 3f bc 75 bd 11 f2 0d bd 2a e0 84 be
       -0.26160344 -0.05999398 -0.03465468 -0.25952274
000270 6c f0 8a be 57 62 67 3e 47 ba df 3d cf e8 0b be
       -0.27136552 0.22596107 0.109242015 -0.13663028
000280 22 5d 04 3e 3b 4f 33 bd aa 9f 11 be e5 6f 96 3d
       0.12926152 -0.043776732 -0.14221063 0.07345561
000290 34 76 63 bd b3 e7 43 3e a5 8b 27 bd 2c a0 41 3d
       -0.05553265 0.19131355 -0.04090466 0.047271892
0002a0 6e d1 5b 3e ec 8b 01 bd 77 7d 49 be a3 91 2d bd
       0.2146661 -0.03162758 -0.19676767 -0.042375218
0002b0 bd 73 08 3d 7e 29 97 3d a0 a5 b9 bd dc a4 7a 3d
       0.0333135 0.07380961 -0.090647936 0.06119238
0002c0 37 1b 85 be 5d 10 14 3e 9a 01 f2 bd 9e 4c 11 be
       -0.25997326 0.14459367 -0.11816712 -0.14189383
0002d0 85 76 37 be aa 79 26 3e 41 49 87 bd a1 19 51 be
       -0.17916305 0.16257349 -0.06605769 -0.20419933
0002e0 0e 3a 52 be 89 fb 61 3d a2 f2 8f 3d f5 56 09 bd
       -0.20529959 0.055171523 0.070287004 -0.033530194
0002f0 5c b1 07 3c d6 43 83 be df 36 aa 3d 69 d8 ab bd
       0.008282032 -0.25637692 0.08311247 -0.08390886
000300 b6 0b 27 be 79 34 0d 3e df 96 4e 3d a8 1d 6d 3d
       -0.16313061 0.13789548 0.05043685 0.05788961
000310 ae b1 e8 bc 86 d3 b2 bd 38 d2 54 3e c5 70 36 3d
       -0.028405037 -0.08731751 0.20783317 0.04454114
000320 13 31 5c be d7 d7 10 bc 1d 50 55 bd a3 14 d1 bd
       -0.21503095 -0.008840523 -0.052078355 -0.10209014
000330 82 05 ee 3d 14 80 dc bd 06 90 82 3e 02 5c 08 3e
       0.11622144 -0.107666165 0.25500506 0.13316348
000340 4b 16 63 be f4 c6 fc bc d0 86 0b 3e b4 70 2e 3e
       -0.22176473 -0.030856587 0.13625646 0.1703518
000350 ef 35 b9 3d b9 37 47 bd e9 2b 0b bb 0d 57 6e bc
       0.0904349 -0.048637126 -0.002123589 -0.014547122
000360 d3 10 08 3e e9 86 2c bd cb 41 60 3e f1 38 8a 3d
       0.13287668 -0.042120848 0.21900098 0.06749142
000370 20 8d 50 be 9c e9 c4 3d 2f 28 3d 3e f0 70 59 3e
       -0.20366335 0.0961487 0.1847236 0.21234488
000380 07 ba a4 bd 51 fe 9b 3d 36 43 58 be cb cf 09 be
       -0.080432944 0.076168664 -0.21119389 -0.13458173
000390 32 65 89 3c 24 87 dc bd 21 36 12 be f2 a5 42 3e
       0.016771886 -0.107679635 -0.14278461 0.19008616
0003a0 8c 3b 41 3e a3 46 4e bd 03 e1 07 3e 83 bb 98 be
       0.18870372 -0.050360333 0.13269429 -0.2983056
0003b0 37 94 49 be b7 22 5c be ef 3e 67 3e 07 d6 6c 3e
       -0.19685446 -0.21497618 0.22582601 0.2312852
0003c0 4f 45 36 3d c3 dc b2 bd c7 75 9e bd 88 65 83 be
       0.04449969 -0.08733513 -0.07737308 -0.256634
0003d0 24 52 6b ba d6 bc 9b 3e 8b 62 1e bd 15 d1 0e be
       -0.00089767785 0.30417508 -0.038668197 -0.13946946
0003e0 7c 06 3f be e5 e6 29 3e f8 e7 30 be f6 fd 40 be
       -0.18654817 0.16591986 -0.17275989 -0.18846878
0003f0 7f d1 38 3e 96 f7 f2 3d a5 21 0c 3e 58 10 de bd
       0.18048666 0.118636295 0.1368471 -0.10842961
