test/model/actor_4_3_2_3_2_43_best_rou2.pth (torch, 689372 bytes, 17 tensors)

v2lLayer.W f4 [3, 40]
000000 c1 3d af bd e2 e1 04 3e c7 1d e8 3d 86 ea 9e be
       -0.085567005 0.12976792 0.113338046 -0.31038302
000010 5a 8c 6b 3e 77 c6 28 be 8f f2 8c 3d ee e6 b1 bc
       0.23002759 -0.16481958 0.06882202 -0.021716561
000020 18 52 31 3e c2 04 8b be 3e f9 ba 3e 17 76 f7 bd
       0.17316473 -0.27152067 0.36518282 -0.12083071
000030 aa b6 c4 3d 0f 22 24 3e 54 b7 ad 3d 0f 22 1a 3e
       0.09605153 0.16028617 0.08482233 0.15052055
000040 4d 02 8f 3e 8c 7e 5f be 2c d8 05 3e 20 d1 37 3e
       0.27931443 -0.21825618 0.13070744 0.17950869
000050 cb b4 48 3e 46 04 a8 3e ee 1e a5 be be ed a4 3e
       0.19600217 0.3281576 -0.3225016 0.32212633
000060 cd 3a 05 bd 27 e1 29 bc 06 4f ac bd 4e c0 c1 3e
       -0.03252678 -0.010368622 -0.0841351 0.3784203
000070 b7 e0 a2 be 8e 03 00 be b8 be 60 be 8a cb 32 3e
       -0.3181207 -0.12501356 -0.21947753 0.17460456
000080 57 ff c0 be bf 11 05 3e f9 64 ba 3d 8f 9b 4f be
       -0.3769481 0.12995051 0.0910129 -0.20274185
000090 b6 f8 bd 3d 72 94 e7 bd 3c f4 13 bd 68 80 a8 3e
       0.092759535 -0.113076106 -0.036121592 0.32910466
0000a0 11 34 76 be bf 40 c1 bc 92 be 50 bd fd 48 40 3e
       -0.240433 -0.023590444 -0.050962992 0.18777843
0000b0 f5 d6 40 3e 56 f1 68 3e 7d 76 1e be e7 28 fa 3d
       0.18832 0.22748312 -0.15474887 0.12214833
0000c0 6e 75 c2 3e 98 37 61 be 92 45 91 3e 4f 69 c0 be
       0.37980217 -0.21993864 0.2837339 -0.37580344
0000d0 ef e3 bb be 89 66 76 bd 77 74 84 bc 15 c1 29 3e
       -0.36697337 -0.06015638 -0.016168816 0.16577561
0000e0 05 0d 4d 3e 4c eb 12 3f b4 b2 66 3e 54 47 6a bd
       0.20024498 0.57390285 0.22529107 -0.05719693
0000f0 49 c6 c1 be 85 47 9c ba a6 71 38 3e b6 1d 96 bd
       -0.37846592 -0.001192317 0.18012103 -0.07329886
000100 e7 c8 5d be b3 71 13 3e e6 f7 21 3e 91 c1 0f 3f
       -0.2165867 0.14398842 0.15817222 0.56154734
000110 6b 41 f3 bd 18 8f 0b bd 7f af 23 be 54 4b fb 3d
       -0.11877712 -0.03407201 -0.15984915 0.12270227
000120 72 cc a7 3e 33 82 9b be 21 53 38 be 01 46 5f 3e
       0.32773167 -0.30372772 -0.18000461 0.21804048
000130 53 72 b2 bc 74 f9 0c 3f 77 ba 15 be 91 86 bf bd
       -0.02178303 0.55068135 -0.14621912 -0.093518384
000140 28 e9 13 3e ae 6a 7d be d3 25 93 3d b7 3d 0c be
       0.14444411 -0.24747726 0.07184949 -0.13695417
000150 f3 df 78 be 94 28 57 3e ce 03 09 3e f4 3b 2e be
       -0.2430418 0.21011573 0.13380358 -0.17015058
000160 be bb dc 3e 6f 41 9e 3e 29 2e 9f 3e 17 07 a9 3e
       0.43111986 0.30909297 0.31089905 0.33013222
000170 25 c6 6b 3e cf d3 f6 3e 27 02 d7 be 3b 56 3a be
       0.23024805 0.48208472 -0.4199383 -0.18196957
000180 fb af 7a 3e 57 2f 39 bd 5f 0f 56 3d bd 53 a7 3e
       0.24481194 -0.045211162 0.052260753 0.32681075
000190 e4 21 b3 3e 64 61 f5 bd bd 17 92 3e c7 af d6 3e
       0.34986794 -0.119814664 0.28533736 0.41930982
0001a0 d4 e9 00 be a3 5e a9 3d 96 2a 25 be 01 01 ea 3c
       -0.12589198 0.08270004 -0.16129526 0.028564932
0001b0 57 27 bd 3e 9a 85 85 bc 48 f1 d5 3d fc 7f 6f 3e
       0.36944076 -0.016299058 0.10446411 0.23388666
0001c0 26 9c 09 3e f7 8b 31 3e ef 59 e7 be 9e e6 9e 3e
       0.13438472 0.17338549 -0.451858 0.31035322
0001d0 43 31 4d be 34 4e 66 3e 7c d2 55 be 84 90 72 be
       -0.20038323 0.2249077 -0.20881075 -0.23687941

v2lLayer.a f4 [80, 1]
000000 e5 b3 88 be 98 f4 80 be 94 f3 62 3d cc 46 1c be
       -0.2669975 -0.2518661 0.055408075 -0.15261382
000010 c8 5f ca bc 7f 96 4e bd e3 bf 2c be ca 8c 55 bc
       -0.024703875 -0.050436493 -0.16870074 -0.013034055
000020 d6 00 3d 3e 59 0c 7d be 60 42 86 be 5b 26 58 3e
       0.1845735 -0.24711742 -0.26222515 0.21108381
000030 92 35 5e be 6b c1 7c be 33 0e d8 bd 0f fc b6 bd
       -0.21700123 -0.24683158 -0.10549583 -0.08934795
000040 fc e8 a0 bd ff 1a c5 3d d5 29 aa bd 95 93 d8 bc
       -0.07856938 0.0962429 -0.0830876 -0.02643756
000050 69 25 82 3e 4e de 62 be cc f8 f6 bc 65 50 04 3e
       0.25419167 -0.22155115 -0.030147932 0.12921293
000060 27 db c2 3d 74 63 10 bc a9 03 1e bd a6 5d 57 be
       0.09514456 -0.008812774 -0.03857771 -0.21031818
000070 f5 84 01 3d b5 3a 25 3e 60 65 c0 3c 51 4e 5b 3e
       0.03162094 0.16135676 0.02348584 0.21416594
000080 5c 33 37 be 47 36 16 3e 77 61 5a 3e 48 6e c6 3d
       -0.17890686 0.14669143 0.21326242 0.09689003
000090 98 60 27 3e d5 fd 5f 3e 01 56 5c 3e 18 8b ba 3d
       0.16345441 0.21874173 0.21517183 0.09108561
0000a0 82 81 be bd ad a7 92 3c b8 a6 77 3e 7d 86 0c bd
       -0.093020454 0.01790222 0.24184692 -0.034307946
0000b0 eb c6 1e 3e 0d be 9f be b2 47 42 3e e5 cb 3c be
       0.15505569 -0.31199685 0.18972662 -0.18437155
0000c0 71 6f 95 be 07 97 d7 3d 82 4a 8e be 22 75 42 be
       -0.29186586 0.10526853 -0.2779122 -0.18989995
0000d0 30 9d 55 be e6 0a 73 3d a9 8b ee bd 4e 23 52 be
       -0.20860744 0.059336565 -0.11647732 -0.2052128
0000e0 ec 6f 6d be c3 ad 41 be 8b 4a ad bd 37 97 9d 3d
       -0.23187226 -0.18913941 -0.084614836 0.076948576
0000f0 80 4d 92 3d 90 15 77 be e5 79 bb 3c 31 3b 6b bc
       0.07143688 -0.24129319 0.022885272 -0.014357374
000100 a7 9c 33 bc fd d4 a7 be 6c a0 01 be 70 7a 52 be
       -0.010962642 -0.32779685 -0.12658852 -0.20554519
000110 5a e7 26 3d cb 45 b3 3b ed d0 14 bd 6a b7 17 3e
       0.040747978 0.0054709665 -0.03633206 0.1481606
000120 4b 58 72 3e 02 83 80 3e d6 84 97 3e 38 53 60 bb
       0.23666494 0.2509995 0.29593533 -0.003422929
000130 b4 8d eb bd 18 bc c0 3d 31 42 d6 bd 29 f1 7e be
       -0.11501637 0.09410876 -0.10461844 -0.24896683

laneLayer.W f4 [12, 12]
000000 54 20 c9 3e 0e f6 d3 3e 8e ec 9c 3d 29 44 36 3d
       0.39282477 0.41398662 0.07662307 0.044498596
000010 18 67 cd 3e db e7 0e be 6f b1 03 3f 0d 4b 1a 3e
       0.40117717 -0.13955633 0.5144262 0.15067692
000020 13 0b ec 3d ea 18 f6 be 8b 86 fc be f0 43 dd be
       0.1152555 -0.48065883 -0.49321398 -0.43215895
000030 4c 63 de 3e 81 e8 a5 3d db 53 f7 be ec 87 76 be
       0.43435133 0.08100987 -0.48306164 -0.24075288
000040 f6 d5 e6 3d 25 ed d6 bd 7a 73 a7 be 98 21 f2 3e
       0.112712786 -0.104944505 -0.3270529 0.47291255
000050 ef 1d 50 3e 49 32 2b bd 91 8b 43 3e 22 d3 84 3e
       0.20323919 -0.041796003 0.19096209 0.25942332
000060 0c cb 2f 3e e2 6e 3e 3d 3d f5 13 bf 0a 68 07 bf
       0.171673 0.046492465 -0.5779608 -0.52893126
000070 37 66 52 3e 03 01 95 be af 11 21 3e b2 2b a2 3e
       0.20546804 -0.29102334 0.15729402 0.31673962
000080 1e 9e 52 3e e3 ac e8 3e ff fe 76 be ef 08 8a bc
       0.2056813 0.45444402 -0.24120711 -0.016849963
000090 c2 d0 6b 3e 2c fe b0 be 1a 07 12 3e fb 4d 8a bd
       0.23028854 -0.34568918 0.14260522 -0.06753155
0000a0 ab 94 11 3d 2b 18 03 bf 1a a3 b0 be 6d 35 9b 3c
       0.03554217 -0.5120875 -0.34499437 0.018946374
0000b0 32 89 ae bd 33 76 f3 3e 89 23 16 be 12 3c 79 be
       -0.08522262 0.47551116 -0.14661993 -0.24339321
0000c0 a8 7c 79 3e 9c ac 60 3d 36 b6 9d 3e b1 41 b0 3e
       0.24363959 0.054852113 0.30803078 0.3442512
0000d0 df 91 eb bd ba 1c f9 be 9f 30 ee 3e 23 b3 c3 3d
       -0.11502432 -0.4865473 0.4652147 0.09555652
0000e0 d1 6e 2d 3e e9 d1 15 bf 67 08 10 bf d3 42 0e be
       0.16936804 -0.5852342 -0.5626282 -0.13892679
0000f0 64 0f a8 be bc b2 e3 3e 19 c1 df 3c 24 2b 1e 3e
       -0.32824242 0.444723 0.027313756 0.15446144
000100 82 31 a9 be e4 24 26 3e 5e ac a0 3e fc 7e 7d be
       -0.33045584 0.1622501 0.31381506 -0.24755472
000110 92 48 56 3e b9 ce 62 be f5 42 96 bd a3 90 b4 3e
       0.20926121 -0.22149171 -0.0733699 0.352666
000120 87 d2 e1 be 34 5a bc bd 43 3c a4 be 62 c1 d7 3e
       -0.44105932 -0.091968924 -0.32077226 0.42139727
000130 ff 1f e6 be ad 79 e8 bd aa ca dd 3e e7 d8 cf bd
       -0.44946286 -0.11351333 0.43318683 -0.10148793
000140 d8 ca 2c 3e da 8a c2 bc f1 0b dd 3e 63 87 84 3e
       0.16874254 -0.02374785 0.43173173 0.25884542
000150 00 82 92 3e 56 29 92 be 28 d3 c1 3e bb 79 19 3e
       0.28614807 -0.28547162 0.37856412 0.14987843
000160 30 a4 98 be 48 5c 8f 3e e4 96 53 be 78 23 02 3f
       -0.29812765 0.28000093 -0.20663029 0.5083537
000170 eb 6a d6 3e 32 a1 39 3d f3 01 b5 3e d2 0c d2 bd
       0.41878447 0.045319743 0.3535305 -0.102563515
000180 b2 b0 3d 3e 86 70 aa bd d6 79 b3 3e a0 46 d1 3c
       0.18524435 -0.083222434 0.3505389 0.025546372
000190 c0 f9 1e bf a4 a4 37 3e a4 03 b8 3d e9 86 1d bf
       -0.6209984 0.17933899 0.089850694 -0.6153398
0001a0 d6 f5 09 3e d5 14 02 be 18 43 6b bb 51 24 cf 3d
       0.13472685 -0.1270326 -0.0035898145 0.10114349
0001b0 6b 1a 05 bd 9a fe a3 be 38 30 68 3e a0 6d 84 3e
       -0.032495897 -0.32030183 0.22674644 0.25864887
0001c0 47 04 e7 3d 72 ef 8f bd cd 2f 73 be 1f bc 34 3d
       0.11280113 -0.070280924 -0.23748703 0.04412472
0001d0 33 be ad bd bd 15 d4 3d 56 9f 0b be 35 7c ec be
       -0.08483543 0.10355709 -0.13635 -0.46188512
0001e0 c5 be 97 3c 31 49 a3 3d 97 19 d9 be be b4 7c be
       0.018523583 0.079729445 -0.42402336 -0.24678323
0001f0 2c 90 18 bc 7d b9 bb 3e ca 32 87 3d 37 47 00 3e
       -0.009311717 0.36664954 0.06601484 0.12527166
000200 b8 2b 76 3e 0a d7 00 bf 9a e7 de be 96 09 2a be
       0.24040115 -0.50328124 -0.43536073 -0.16605219
000210 c9 89 79 3e 99 55 6b 3d 35 e1 00 bf a6 8c ca be
       0.24368967 0.05745468 -0.5034364 -0.3956043
000220 a6 ab b9 be f3 85 f1 3d 0f ac 29 3f 25 b8 49 3e
       -0.3626377 0.11793127 0.66278166 0.19699152
000230 ed c2 b9 be db 62 67 be e7 5f 21 3d 75 95 c6 3e
       -0.3628153 -0.22596304 0.0393981 0.38785902

l2pLayer.W f4 [12, 88]
000000 ec 31 bf 3c af bc 01 bd c9 58 97 bd 48 9e 4c 3e
       0.023339234 -0.031674083 -0.07389981 0.19982255
000010 cf ee 65 3e b4 23 52 3e bd 7a 89 bc 72 e2 8a be
       0.2245438 0.20521432 -0.016782159 -0.2712589
000020 e4 69 2b 3d 24 a9 00 be 64 ba fc bd dd 65 1c be
       0.041849032 -0.12564522 -0.12340239 -0.15273233
000030 43 fb 46 3e 1b 1c 5a be 55 f5 52 bd 6c e9 68 be
       0.19431786 -0.21299784 -0.051503498 -0.22745293
000040 15 4e 8a 3d 07 7f c4 bd 3d 26 04 bd 47 ab 38 3d
       0.06753174 -0.09594541 -0.03226303 0.045085218
000050 ed b5 25 be 68 62 17 bc 29 74 19 3e b1 a5 53 3e
       -0.1618268 -0.0092397705 0.14985718 0.20668675
000060 bb 60 33 be 11 e8 ef bd fe 18 73 3e 8f 9d 08 be
       -0.17517368 -0.11714185 0.23740003 -0.13341354
000070 e7 c0 45 be 55 98 f2 3d 1f 62 a1 bc 74 01 8c bd
       -0.19311868 0.11845461 -0.019700108 -0.06836215
000080 e8 b2 5a 3e 4f 6c 19 bc 9e cb d6 bd 6b 26 da 3c
       0.2135731 -0.009364202 -0.10488056 0.026629647
000090 2f e3 35 3c ec 87 91 3d 25 a7 96 bd 8c 75 ac bc
       0.011101528 0.07106003 -0.07356099 -0.021052144
0000a0 03 92 e5 3d c8 55 71 3e 7f 88 25 be 4c 5c 0d 3d
       0.1120949 0.23567879 -0.1616535 0.03451185
0000b0 71 1f 6a be fd 47 2b 3e d1 4d 14 be b1 6a 27 be
       -0.22863556 0.1672668 -0.1448281 -0.16349293
0000c0 0d d0 51 be 20 dc 3f 3d 5c 47 cc 3c 54 a3 56 3d
       -0.20489521 0.046840787 0.02493637 0.052401856
0000d0 c9 dd 3e 3e 7c f3 09 3e fd f4 8f 3d a4 0a 3d be
       0.18639292 0.13471788 0.0702915 -0.1846109
0000e0 9c f6 46 bc 8c ef 59 3e 01 a3 b5 bd 96 1c 5a 3e
       -0.012143757 0.21282786 -0.08868981 0.21299967
0000f0 87 3b 73 be d4 ed 27 3d 76 c8 44 3e 91 67 00 3e
       -0.23753177 0.040998295 0.19217095 0.12539507
000100 1c 69 6c be cd c0 b5 bd e9 21 4d be fa 83 32 3e
       -0.23086971 -0.088746645 -0.20032467 0.17433158
000110 39 71 0e be a7 57 34 be 81 53 8b 3c 25 cb de 3b
       -0.13910379 -0.17611562 0.017007591 0.006799119
000120 6c ee 2d be d8 48 b0 bd 0a b8 6f be fc cb 2b be
       -0.16985482 -0.08607644 -0.23410049 -0.16777033
000130 1e ad 5c 3e 29 af 84 3d c1 19 0d 3e af 7f dd 3d
       0.21550414 0.06478722 0.13779356 0.10815369
000140 d6 e4 06 bd d8 5c f5 bd 7e 96 c4 bd 39 62 1b bd
       -0.03293308 -0.11980599 -0.095990166 -0.03793547
000150 fd b8 29 3e b1 d9 13 3d 97 b6 d0 3d ce 0f c0 3d
       0.16574474 0.03609628 0.10191076 0.093780145
000160 20 68 df bc 73 ac 83 be 2e 3d 52 3c 5f 78 da bd
       -0.02727133 -0.25717506 0.012831969 -0.1066749
000170 4e a6 15 3c 46 a5 12 3e 4b fd 5b 3e fb 08 8f be
       0.009133888 0.1432086 0.21483342 -0.2793654
000180 88 83 71 be d9 25 17 be d8 0e 5d 3d 48 0b 84 3e
       -0.23585331 -0.14760531 0.053969234 0.25789857
000190 06 a7 6f be 2c e9 ae bd f3 bb 6c bc 38 9f 03 be
       -0.23403558 -0.08540568 -0.014449107 -0.12853706
0001a0 a4 c4 48 3c 26 dd 53 be 3d ea 39 bd 83 0f 79 be
       0.012253914 -0.2068983 -0.045389403 -0.24322324
0001b0 f9 93 0c 3e 5f b3 59 3e ad 2b 0c 3e af 39 60 bd
       0.13728322 0.21259831 0.13688536 -0.05474251
0001c0 81 b7 f6 3d 77 a7 b5 bd 83 3c 7a be f1 05 5d be
       0.12046719 -0.08869832 -0.24437146 -0.21584298
0001d0 9d 33 5d 3e 37 4a 3a 3e 42 7f e0 3c 21 ae c3 bc
       0.2160172 0.18192373 0.027404431 -0.023886742
0001e0 03 dd a4 bd 6a cf 58 be 17 44 44 be 06 69 76 bd
       -0.08049967 -0.21172872 -0.19166599 -0.060158752
0001f0 5a 4f 0b 3e 54 65 17 bd 66 7f b7 bc 7f 22 85 bd
       0.13604489 -0.03696187 -0.022399615 -0.0650072
000200 21 bd 9c 3c 53 aa 49 be 0b ee 41 bc 72 75 22 be
       0.019133152 -0.1969388 -0.011836539 -0.15865114
000210 4c a4 61 3e 3e a9 4c bd 7e 4e 6d bd a2 53 84 bd
       0.2203533 -0.04996609 -0.057936184 -0.06461264
000220 2f ce df bc 50 db 07 3d 60 4f 09 be e4 15 48 3e
       -0.027319996 0.033168137 -0.13409185 0.195396
000230 37 71 12 be 5a a8 59 be cd 22 2b 3e 39 a6 cb bd
       -0.14301 -0.21255627 0.16712494 -0.09943814
000240 5b b3 24 3e 56 34 b1 3d e4 52 f4 bd 0c 16 5a be
       0.16084044 0.086525604 -0.11929873 -0.21297473
000250 67 5b 8c be c4 c1 57 be 31 84 62 be 99 0c 92 3d
       -0.27413484 -0.2107001 -0.2212074 0.07131309
000260 0d bb 7d bc 72 e3 51 bd 14 c1 1d 3c 3c d5 50 3e
       -0.015486491 -0.0512423 0.009628553 0.20393842
000270 54 2f 20 3e 02 27 61 be 20 d3 99 bd 9c a7 f7 bc
       0.15643054 -0.21987537 -0.07510972 -0.03023129
000280 80 fd 62 3e 40 88 6b 3c b7 11 e4 3d 1a 0d 7d bd
       0.22167015 0.014375746 0.11136191 -0.061780073
000290 12 34 a3 bc ef 4e 50 bd ca e9 02 be de 07 5d bd
       -0.01992229 -0.050856527 -0.12784496 -0.05396258
0002a0 66 5a 0b 3e c1 07 33 3e d9 d3 b3 3d 08 d6 d2 bd
       0.13608703 0.17483427 0.08780641 -0.102947295
0002b0 95 f0 d3 3d 5e 61 c8 3d 0e c2 8b 3d bd 29 06 3e
       0.10348622 0.09784196 0.06824122 0.1310186
0002c0 d8 8c 2c bd a5 62 89 bd f2 0c 76 bd 1b 8d 4a be
       -0.042126507 -0.06708268 -0.06007094 -0.1978039
0002d0 65 c6 08 be b1 de 38 be 5c 3d 09 be b7 9c 0f 3e
       -0.13356932 -0.180537 -0.13402313 0.14024626
0002e0 34 8a 09 3e 16 20 d3 3d 2e f7 d1 bd 80 c6 34 3e
       0.13431627 0.10308854 -0.10252224 0.17653847
0002f0 f1 e3 2b 3e a4 26 59 3e a9 c3 a2 ba 74 02 84 3e
       0.16786171 0.21206146 -0.001241793 0.25783122
000300 8d ec 3c be f2 25 12 3e 15 e7 0d 3e d9 ac 1d 3e
       -0.18449612 0.14272287 0.13857682 0.15397967
000310 a9 81 76 be 0e 32 da 3b 93 78 23 be 50 8a 07 be
       -0.24072899 0.006658799 -0.15963964 -0.13236356
000320 8e c8 b9 3d a6 e3 45 3e 68 4d d5 3d bf a7 42 be
       0.09071456 0.19325122 0.10415155 -0.19009303
000330 4a 6d 21 bd 21 fa c4 3d 6f 5f 8d 3d dd 5b 63 3e
       -0.039410867 0.09618021 0.06902968 0.22203012
000340 53 24 d6 3c 49 a1 0f bd 77 65 21 b9 78 50 e0 bd
       0.026140368 -0.035065923 -0.00015391955 -0.10952848
000350 ca d2 96 3e b1 f8 6c 3e 38 ce 1d be ba 84 03 3e
       0.29457694 0.23141743 -0.15410697 0.128436
000360 fb fb db bd 69 8e af bd bb ab 50 be ee 62 31 be
       -0.10741421 -0.085720845 -0.2037801 -0.17322895
000370 a4 f7 44 be 97 6b 3d bb 32 1c 5a 3e 08 85 63 be
       -0.19235092 -0.002890324 0.21299818 -0.22218716
000380 3f 5e 31 be 3c 15 06 be 0a 5e 9f 3c 63 cb cd 3a
       -0.17321108 -0.13094038 0.019454021 0.0015700873
000390 e9 01 95 bd 8f bd 61 3e 76 b5 a4 3d 67 0d 5e 3e
       -0.07275755 0.22044967 0.080424234 0.216848
0003a0 3b c5 90 3d 47 8c 62 3e b9 ee 1d 3e e2 ed c9 3d
       0.07068869 0.22123824 0.15423097 0.09859826
0003b0 d1 83 2c be fb 61 df bd 1a b2 e5 bc a5 4c f0 3d
       -0.16847159 -0.1090736 -0.028039027 0.11733369
0003c0 a2 56 f1 3c ab 4e 25 3d f3 b2 38 3d 4d 4a 44 3e
       0.029460255 0.040358227 0.045092534 0.19168968
0003d0 16 15 a8 bc 71 85 09 3e 72 7d a6 bc 20 32 39 3d
       -0.020517867 0.1342981 -0.020323489 0.04521382
0003e0 ca 2c b4 bd 7b 77 4e 3e c7 3d 47 be f3 2e 26 bd
       -0.08797605 0.20162766 -0.1945716 -0.040572118
0003f0 31 8e da bc 45 9f dd bd cb 87 3c be 22 88 28 bc
       -0.02667913 -0.10821394 -0.18411176 -0.010286363

l2pLayer.a f4 [176, 1]
000000 89 e3 22 3e 9c 29 1e bd d6 78 4c bd ef 2c d3 bd
       0.1590711 -0.0386139 -0.049919926 -0.10311305
000010 19 2f 3f 3e 4a 0c eb 3d c1 8e 1b 3e 69 c4 93 3d
       0.1867031 0.11476953 0.15191175 0.07215197
000020 68 07 26 be 2b c2 b0 bd bf 95 b5 3d 4e 08 ab 3d
       -0.16213763 -0.086307846 0.088664524 0.08351193
000030 77 c6 c1 3c 3a 47 ff bd 83 25 be 3d 01 24 43 be
       0.023654206 -0.12464757 0.092844985 -0.19056703
000040 03 0e 40 be e6 1a 6c bc 37 61 1b bd 47 27 eb 3d
       -0.18755345 -0.01441071 -0.03793451 0.11482101
000050 51 df 9d 3d ae 1e 2e 3e 2b 83 8c bd ed 03 18 bd
       0.0770861 0.17003891 -0.06860956 -0.03711312
000060 6f 26 8c 3d 6e e3 e8 3d 4e 14 19 3e b5 8d db bd
       0.06843268 0.11371504 0.14949152 -0.10720388
000070 c9 a0 b2 bd 3a e9 2c be 77 18 63 3d 65 2e ac 3d
       -0.087220736 -0.16885844 0.055443253 0.084072866
000080 7b fb 9a bd d8 b7 e7 bd 7f 30 a7 bd ab 35 a1 3d
       -0.07567497 -0.11314362 -0.08163547 0.078715645
000090 de 40 ac 3d b6 45 e0 3a fd bd d1 bd 2d f2 41 3d
       0.0841081 0.0017110619 -0.102413155 0.047350097
0000a0 5b e7 e5 3d 86 56 d3 3c c3 29 e2 bc 41 b9 9d 3c
       0.11225768 0.025798094 -0.027607804 0.019253375
0000b0 16 e7 5c 3c c1 ef fc 3c 37 93 d3 bc b9 da 31 be
       0.01348283 0.030876042 -0.025827033 -0.17368592
0000c0 5a 9f 00 3e 1d ff c4 3d 39 84 54 3e 04 b1 bc 3d
       0.12560788 0.096189715 0.20753564 0.092134506
0000d0 9c 2b f9 bd 32 f2 dc 3b 99 64 3e 3e 08 50 c4 bd
       -0.12166521 0.006742739 0.18593062 -0.09585577
0000e0 d0 ae 17 be 43 a8 9b bd c6 ec 34 bd 71 35 39 be
       -0.1481278 -0.07600453 -0.044171117 -0.18086793
0000f0 dd 6f ed 3d 71 b6 dd b9 01 cb f2 3d c1 37 8b 3d
       0.11593602 -0.00042288334 0.11855126 0.067977436
000100 ba ca a1 bc 75 98 da 3d 8c e6 3d bd e0 18 7e bd
       -0.019749988 0.1067361 -0.046362445 -0.06203544
000110 f0 8d ca bd 1a bb 14 bd b6 9b 65 3d 7e 89 c8 bd
       -0.09890354 -0.036311246 0.0560567 -0.097918496
000120 be 9b 11 be 1a 0e c6 3d a6 c0 b9 bc 03 db 2c 3c
       -0.14219567 0.096706584 -0.02267487 0.010550263
000130 b0 11 16 3d b7 ff cf 3d b8 4f 4d bd ef 5d 74 3d
       0.036637962 0.101561956 -0.050124854 0.059659895
000140 20 5f 43 bc 4a eb d4 3d ea 94 df bd 93 df 9f 3d
       -0.011924535 0.1039644 -0.10917075 0.07806315
000150 04 45 77 bd eb c4 3e 3e d5 0d b7 3d ce 3e 4c 3e
       -0.060368553 0.18629806 0.08938185 0.19945833
000160 85 04 c1 ba ad 24 37 be 9f 84 e6 bb 21 85 b7 3d
       -0.0014726078 -0.17885084 -0.0070348526 0.08960939
000170 91 24 db bd 8a be 9b 3d 62 55 f3 bd 02 e0 ad 3d
       -0.10700334 0.07604702 -0.1188152 0.08489992
000180 6c 6d 46 bd f9 25 10 bd de 91 04 bc 95 0e ad 3d
       -0.048444197 -0.035192464 -0.008091418 0.08450047
000190 00 22 65 3d 3b 95 19 3e 66 07 8d 3d 20 43 ad 3d
       0.055940628 0.14998333 0.06886177 0.08460069
0001a0 b9 6a 02 be 97 a9 08 be 4c a4 96 3d 68 89 f1 bb
       -0.12736024 -0.13345943 0.07355556 -0.0073711164
0001b0 b5 0b 6a 3e 37 92 1c 3e 96 80 b2 3d 72 63 6d 3c
       0.22856028 0.15290152 0.08715932 0.014489042
0001c0 8d 11 3b 3e 59 d9 54 3c dc 1e 3e bd 74 04 c3 bd
       0.18268414 0.012991273 -0.04641615 -0.09522334
0001d0 a1 79 53 3e 25 dc a1 bc ff 0b 39 3e 1f 1d 2c 3e
       0.20651866 -0.019758293 0.18070982 0.16807984
0001e0 fe 2b a5 3d 20 4e 23 bd 0b 40 2e be 48 94 23 3e
       0.080650315 -0.039869428 -0.17016618 0.15974534
0001f0 26 27 28 be 08 a1 64 bd 62 da 03 be 12 a2 c8 bc
       -0.16421184 -0.055817634 -0.12876275 -0.024491344
000200 a3 c8 5e bd 00 9b 14 be ca eb d7 bd 14 28 13 be
       -0.05439056 -0.14512253 -0.1054302 -0.14370757
000210 49 bd bc bd 70 16 2a 3e d4 b3 e2 bc 3e 25 04 be
       -0.09215791 0.16610122 -0.02767364 -0.12904832
000220 49 8c ac bd d8 2a 8e 3d 19 00 5c be 93 ca 4a 3e
       -0.08425195 0.069417655 -0.21484412 0.19803838
000230 7c 82 1a bc 35 47 00 bd c1 4a 26 be ee be bf 3d
       -0.009430524 -0.03131791 -0.16239454 0.09362589
000240 01 62 d5 3d 96 25 1a 3e dc ed 22 3d b3 9f 0a 3e
       0.104190834 0.150534 0.03977762 0.13537483
000250 bd af 09 3e 9b 8c a9 bd 77 c0 8b 3d 01 86 45 3c
       0.13445945 -0.082787715 0.06823819 0.012055875
000260 bf 8d 71 3d 63 14 7c bd e4 6c dd bc a7 03 1e 3e
       0.05897307 -0.06154288 -0.027029462 0.15431081
000270 bd 05 1e be 0f 4f cb 3c 07 c6 0a be 48 68 f1 3c
       -0.15431876 0.024817972 -0.13552104 0.02946867
000280 16 10 69 bd 7f c4 70 bd 9b e2 2d 3d 86 c4 e8 3c
       -0.056900106 -0.058781143 0.042452436 0.028414022
000290 0f 46 1b 3d 97 02 4f be 3e 6a ab 3c e4 cf 02 3d
       0.03790861 -0.20215832 0.020924684 0.03193654
0002a0 7c 22 37 be 07 47 9b bd 68 0c 86 bd 2b 78 c0 bd
       -0.17884248 -0.07581907 -0.06545335 -0.0939792
0002b0 0a 2a df 3d a4 12 07 bd 33 fd 14 3e ad 3d e3 bd
       0.1089669 -0.03297676 0.14549713 -0.11095748

phaseLayer.W f4 [24, 26]
000000 ea 72 c7 3b 62 12 af be 84 ac 8b 3e 31 49 ba be
       0.006086697 -0.34193712 0.27280056 -0.36383966
000010 29 5e aa be 30 3a 42 bd 10 89 03 3e c5 7c 68 3e
       -0.33274963 -0.047418773 0.12845254 0.22703846
000020 5b 27 3d be 1f 21 98 bd 76 74 57 3e 83 e7 91 3e
       -0.18472044 -0.07428192 0.2104052 0.28496942
000030 3b b6 82 bc 95 e7 87 be e6 ed 15 3e e4 71 82 bd
       -0.015956035 -0.2654387 0.14641532 -0.06369379
000040 59 b5 0d be 35 1b cd be a6 da ff bd 49 66 89 be
       -0.1383871 -0.4005982 -0.12492876 -0.2683585
000050 8b 4d 43 be 40 6e e8 3d 18 40 94 3e 48 c8 df bd
       -0.19072549 0.113491535 0.2895515 -0.109268725
000060 52 ad f1 3d 82 e3 eb 3b 0e b4 a4 be 64 5c 0f 3e
       0.11800636 0.007198752 -0.3216862 0.14000088
000070 6a 28 41 be 34 e6 36 3e da f3 7d 3e 4b d1 97 be
       -0.18863073 0.17861253 0.24800053 -0.29651865
000080 41 1c 8d bd 50 20 55 bd 0d 36 ab 3e f9 d7 92 bc
       -0.06890155 -0.05203277 0.33439675 -0.01792525
000090 5e a1 6d be ae da 86 3e d9 b3 49 3e 34 e5 75 3d
       -0.23206088 0.26338714 0.19697513 0.06003304
0000a0 63 92 57 ba a9 36 18 3e a3 eb 8b 3e 48 81 bf be
       -0.00082234124 0.14864601 0.27328214 -0.3740332
0000b0 f8 e6 51 be 4b b3 79 be 37 73 10 bd c0 08 eb 3d
       -0.20498264 -0.24384801 -0.035266127 0.11476278
0000c0 bf 5b 98 be 84 5e 92 be 75 14 53 3e 05 f5 6b bd
       -0.29757497 -0.28587735 0.20613272 -0.057606716
0000d0 98 f2 a1 be b8 61 3a 3e 40 c8 81 bb a0 e6 a0 ba
       -0.31630397 0.18201339 -0.0039606392 -0.0012275763
0000e0 a7 af 67 be fb 97 df 37 8c 42 ca bd cd 6e 6a 3d
       -0.226256 2.6654443e-05 -0.09875974 0.057234574
0000f0 2a a0 93 3e 3e f8 5c be 26 cd 0a 3e c8 37 90 3e
       0.28833133 -0.21579072 0.1355482 0.28167558
000100 9d e4 be 3e d7 68 8a 3e 58 c8 53 3e 2b f7 a5 bc
       0.37283793 0.2703311 0.20681894 -0.02025946
000110 a6 b2 9c bd 84 92 99 3e 78 bc ca bc 33 99 8a be
       -0.07651262 0.29994595 -0.024748072 -0.27070007
000120 58 71 f3 3c 80 d9 46 3e b5 ee bd be 83 20 cf bd
       0.029717132 0.19418907 -0.37096182 -0.10113623
000130 fe d9 b8 3e eb db 8b be bd 4f 84 bd 26 20 56 3e
       0.36103815 -0.27316222 -0.06460521 0.20910701
000140 b8 57 ad be 89 58 73 be 87 b5 3d be cb 32 71 3e
       -0.33855987 -0.23764242 -0.18526278 0.23554532
000150 4b 3e a6 3e 85 20 af 3d 32 f8 e1 bd b2 79 99 3e
       0.324694 0.085511245 -0.110336676 0.2997566
000160 60 8c e8 bd 72 66 6a 3d 70 bf c3 3d 69 70 40 3d
       -0.113548994 0.057226606 0.09557998 0.046982203
000170 86 ce 4f bd ba 24 1c be ed 80 f3 3d 8c 35 8a be
       -0.050734065 -0.15248385 0.11889825 -0.26993978
000180 5f b0 62 be b7 07 8c be 0a fb 46 be 40 f5 db bd
       -0.22137593 -0.27349636 -0.19431701 -0.10740137
000190 6a 3d 8c 3e 37 49 ab be 37 73 c6 bd d8 93 a8 3e
       0.27390605 -0.33454296 -0.09689944 0.32925296
0001a0 64 28 90 be 6e 73 c7 be 70 fa 71 bd 99 81 7b be
       -0.28155816 -0.38955253 -0.059076726 -0.24561156
0001b0 ac 95 29 be ee e9 28 3e 13 45 63 3e c1 64 a1 3c
       -0.16561002 0.16495487 0.22194318 0.019701364
0001c0 3b df 41 be e8 f8 d4 3d a2 39 b2 bd 5e 68 dc bd
       -0.18932812 0.103990376 -0.08702399 -0.10762094
0001d0 3e 22 1a be 7b ee 8e 3e 79 4c c6 3d 27 f2 87 be
       -0.15052125 0.2791632 0.09682555 -0.26551935
0001e0 af 6c 59 3e 0e d8 ca bd d8 0e 90 be 41 da 87 be
       0.21232866 -0.099044904 -0.28136325 -0.26533702
0001f0 b9 66 9d 3e 95 97 97 3d 73 14 99 3e 80 0b a2 3e
       0.30742434 0.07401959 0.29898414 0.316494
000200 6f 11 3b be 92 21 6a 3e 96 70 42 be 10 d6 5d 3e
       -0.18268369 0.22864369 -0.1898826 0.2166369
000210 64 9b af be 92 68 69 3e 5c 4b 22 be 19 a1 66 3e
       -0.3429824 0.22793797 -0.1584906 0.22522391
000220 bc a1 90 3e 17 93 1c be a9 98 43 bc 7d 2c 72 bc
       0.28248394 -0.15290485 -0.0119382525 -0.014781115
000230 55 8a dd bc 79 4a df 3d 95 7b ed bd ac 90 96 be
       -0.0270435 0.109028764 -0.11595837 -0.2940725
000240 3d 75 43 3d 3f 65 62 3e 1f 0d 1b bd 06 b9 06 be
       0.04771923 0.22108935 -0.03785431 -0.13156518
000250 15 55 08 3e 46 32 75 be 12 56 2a 3e b4 a4 fd bd
       0.13313706 -0.23944959 0.16634396 -0.1238493
000260 f2 c3 eb bd d7 2e 2d be 27 0b 43 3d f2 71 8d be
       -0.11511983 -0.16912399 0.047618058 -0.27625996
000270 c4 bf 28 3e fd e6 3d 3e 9d 6d 0e 3e f3 5f d4 bd
       0.16479403 0.18545146 0.13909002 -0.10369863
000280 ca 14 62 be ec be d8 bb 40 b0 f7 3d 38 ee 55 be
       -0.22078243 -0.0066145565 0.12094164 -0.20891654
000290 c7 b7 4d 3e a7 13 9c 3e 69 a9 0b bd 95 95 c0 3d
       0.20089637 0.30483744 -0.03409711 0.094035305
0002a0 9c 6e 50 3e 3c df 84 3d 26 e3 82 3e b3 2e 9e be
       0.20354694 0.06487891 0.25563926 -0.30895004
0002b0 55 51 92 be 2d 05 ff bd 31 63 3b 3e db 15 b9 be
       -0.28577676 -0.12452159 0.18299557 -0.36149487
0002c0 29 d0 17 3c 71 4b af bd 0a 2a ac be d7 55 80 3e
       0.009265938 -0.08559311 -0.33625823 0.2506549
0002d0 c3 4e 97 bd c4 9d f7 bd a1 67 70 3d b1 f4 3d be
       -0.073880695 -0.12090638 0.05869258 -0.18550374
0002e0 48 e2 96 3e 02 0c b5 be d1 45 dd bd ed a7 3a 3c
       0.29469514 -0.35360724 -0.10804332 0.011392576
0002f0 07 d1 65 3e c6 79 f9 3d d6 e3 07 3e bd d5 58 3e
       0.22443019 0.121814296 0.13270506 0.21175285
000300 25 d5 a6 3e e1 d6 89 3d 0f 72 aa be 85 0e 9c 3e
       0.3258449 0.06730438 -0.33290145 0.30479828
000310 24 f0 c3 3d 29 d1 6f 3e 5d 89 a7 3d 86 cb 85 be
       0.095672876 0.23419632 0.08180497 -0.2613184
000320 97 b3 b9 bd eb 29 2b 3e e8 76 1a 3c de b9 00 be
       -0.09067457 0.16715209 0.0094277635 -0.12570903
000330 e8 14 50 bd d1 49 8a 3e e4 4e b3 3e c2 01 97 be
       -0.050801188 0.27009442 0.35021126 -0.2949353
000340 a3 9d 66 3d 97 f8 ff bb 41 4b 9c 3e ab df 9b 3e
       0.056302678 -0.0078116166 0.30526164 0.30444083
000350 82 87 91 be 0f 3b 81 3e 9c 31 9f be f0 34 9d bd
       -0.28423697 0.2524037 -0.31092536 -0.07676113
000360 97 68 f8 bd 03 8b 4e 3e 67 bf aa 3d 7a fa f1 3d
       -0.12129324 0.20170216 0.08337288 0.11815353
000370 1f 24 71 3e 1f a1 a0 3c 46 46 1d 3e bd 83 e1 bd
       0.23548935 0.019608079 0.15358838 -0.11011455
000380 7d 05 33 be f0 8c b2 bd 73 2c d0 3d 1a 5d 25 3c
       -0.17482562 -0.08718288 0.10164728 0.010092998
000390 8e 2e 8b 3e 55 ce 31 be cc 35 49 3d a1 91 54 bd
       0.27183956 -0.17363866 0.04912357 -0.051896695
0003a0 87 e0 0e 3e ce c8 98 be 33 bb 96 be 59 ec 1a 3e
       0.13952838 -0.29840702 -0.29439697 0.15129222
0003b0 85 ba 3b 3e 53 31 3e be 93 05 aa 3e 29 a2 96 3d
       0.1833287 -0.18573503 0.33207378 0.07355148
0003c0 2d cb 5b be b0 e0 74 3e 9f ef c8 3c 4f 7c 0d be
       -0.21464224 0.23913836 0.024528323 -0.13816951
0003d0 8b 05 c6 bd a8 95 4a be 4c 45 a6 3e fb 3d 88 be
       -0.09669026 -0.19783652 0.32474744 -0.26609787
0003e0 04 3e 3f 3e 64 1c 2a be 70 12 91 3e 03 53 5f 3c
       0.18676001 -0.16612393 0.2833438 0.013630631
0003f0 b1 5e 1d be 53 22 1e be 3a 77 54 3e 25 7c 9f 3e
       -0.15368153 -0.15442781 0.20748606 0.31149402

p2iLayer.W f4 [24, 176]
000000 a6 7d 0d bc e4 71 08 be 5b f6 c0 3d 80 85 fb bd
       -0.008635914 -0.13324696 0.094219886 -0.122813225
000010 8c fc 22 3c 05 23 5d 3e d5 6a c0 bd 65 dd a2 bd
       0.009947907 0.2159539 -0.093953766 -0.07952384
000020 0c b7 9f 3d db 5f b1 3c db 03 19 3e ee ed 06 be
       0.07798585 0.021652153 0.14942877 -0.131767
000030 47 ae ed bd 8c 28 1d 3e 01 6a 31 bd d8 e1 76 3c
       -0.116055064 0.15347499 -0.043313984 0.015068494
000040 0a a8 d4 3d 56 28 38 3d f2 eb cc 3d f0 a4 a0 3d
       0.103836134 0.044960342 0.100059405 0.07843959
000050 10 69 3f 3e 3f b0 a8 3d f6 8a 07 be ad 0e 54 be
       0.18692422 0.08236741 -0.13236603 -0.20708723
000060 e2 32 18 bd c6 73 17 3e ad 67 bc 3d 72 39 b2 3d
       -0.0371579 0.14790258 0.09199462 0.08702363
000070 12 be 13 3e 9e 1c 0b 3e c2 82 11 be 65 bf 14 be
       0.14427975 0.13585135 -0.14210036 -0.14526136
000080 1d 66 bf 3d 32 ee 15 bd 7b 80 4b bd 59 e5 7d 3d
       0.093456484 -0.036604114 -0.049683075 0.0619863
000090 87 55 92 3d 8f c4 fe bd 60 b8 05 be e8 8b 4a 3c
       0.07145219 -0.12439834 -0.13058615 0.012362458
0000a0 0e 65 03 3e 9c b9 56 3d 2c 3a 75 bd 41 d7 ae bc
       0.12831518 0.052423105 -0.05986993 -0.021342875
0000b0 ba 39 06 3e 09 6d 38 be 2c 35 1c 3b 7c d0 fc bc
       0.13107958 -0.18010344 0.0023835404 -0.030861132
0000c0 d7 9b ff bc 44 2e da bd ea 2d 82 bd ae 2c a0 bd
       -0.03120224 -0.10653356 -0.06356414 -0.07821022
0000d0 f5 36 cd bc 15 b0 b5 3d 38 ff bf 3d ff de d4 bc
       -0.02505062 0.088714756 0.09374851 -0.02598524
0000e0 79 90 54 3a 45 26 66 3d 87 e7 0e bd ec 18 ed bd
       0.00081086863 0.05618884 -0.03488877 -0.11577019
0000f0 ff b2 8e bd 5f 6c 6b bb e0 61 2d 3e f5 9d 31 3e
       -0.069677345 -0.0035922749 0.16931868 0.17345412
000100 4b 6f 08 3e 7e e4 eb bd 29 11 04 be 85 65 05 be
       0.13323705 -0.11518191 -0.12897171 -0.13027008
000110 5e 15 28 be 39 41 f6 3d ec a9 e4 bd 1a 54 67 3d
       -0.16414401 0.12024159 -0.111652225 0.05647669
000120 37 ef 29 3d 22 0a 02 3c 1b 0f a0 bd 38 9f 28 be
       0.0414879 0.007936986 -0.07815381 -0.16466987
000130 77 07 85 3d e2 d9 f7 bd 19 ea 8c 3d f5 5d 1b 3d
       0.064955644 -0.12102105 0.06880588 0.0379314
000140 40 bc 0a 3e 58 7a 85 bc b0 08 99 3d 35 01 08 3e
       0.13548374 -0.01629369 0.0747236 0.1328171
000150 01 15 23 be 7c 6c c7 bc 3c 3f e2 3d 0e ab 8b 3d
       -0.15925981 -0.024343722 0.11047217 0.068197355
000160 28 af 9e bc bc 54 bc 3d 68 0c 97 bd e4 8a d6 bd
       -0.01937063 0.09195849 -0.07375413 -0.1047571
000170 52 21 28 3e 06 86 29 3e 66 6b 8f bd d7 dc 28 be
       0.1641896 0.16555032 -0.070029065 -0.16490494
000180 ba 0e 6b 3d 57 29 91 bd 0b 74 ad 3d 86 64 08 be
       0.05738709 -0.07087963 0.08469399 -0.13319597
000190 ca 2e 9e 3d b0 fb cd 3d b2 ab f8 3d 35 55 ed bd
       0.07723768 0.10057771 0.12142123 -0.115885176
0001a0 57 f1 8a bd c3 b7 3a 3e 25 fe 08 3e 16 34 96 bd
       -0.06784313 0.18234162 0.13378198 -0.07334153
0001b0 ba b3 a3 3d 99 cc e6 bb c2 c4 3d 3c 5f 7f d3 bd
       0.079932645 -0.007043433 0.011582555 -0.103270285
0001c0 a5 cb 6a bd 2e 9d 1e be c5 3e 13 3e 0f 0c 94 bd
       -0.057323117 -0.15489647 0.14379413 -0.072288625
0001d0 ac 96 ca bd 1b bb 53 3d 42 8d 58 bd b7 08 d3 bd
       -0.0989202 0.05169211 -0.05286909 -0.103043966
0001e0 cd 3d 05 3d ae 71 15 3e 52 42 26 3c 4f 30 97 3d
       0.03252964 0.14594147 0.010147648 0.07382261
0001f0 a0 d6 92 bc 08 f7 95 bc 38 17 04 3e cb 50 b3 3c
       -0.017924607 -0.01830627 0.12899482 0.021889111
000200 49 f6 a9 3d 69 96 24 3e b2 21 da bc 27 e3 31 be
       0.08298928 0.16073002 -0.026627395 -0.17371808
000210 23 a7 28 3e a1 2c a2 bc 34 90 59 bc 67 6d 07 3e
       0.16470008 -0.019796671 -0.01327901 0.13225327
000220 30 92 4b 3e c9 8a 59 bd b8 e2 1c 3e 64 cb 6a bc
       0.19879985 -0.05311087 0.15320861 -0.014330719
000230 1d 0f 25 be 19 3b 1f be 85 ed e5 bc fb 89 1b be
       -0.16119047 -0.15549888 -0.02806736 -0.15189354
000240 4f 87 ab 3d 1c 43 ae bd 39 a0 16 3e cf 02 b0 bd
       0.083754174 -0.08508894 0.14709558 -0.08594286
000250 ab 4e 41 3d 44 bc 1b 3e 09 bc 1e be d4 37 2a 3e
       0.047194164 0.15208536 -0.15501417 0.16622859
000260 83 4f 1e be b1 d5 dd bd 1d 5e 8d bc 3e 90 3c 3d
       -0.15460019 -0.10831774 -0.01725679 0.046035998
000270 34 68 25 3e b2 50 e1 bd 2e 78 8b bd dd 37 82 bd
       0.16153032 -0.110017195 -0.06810032 -0.06358311
000280 8e a2 40 3e cf e2 c9 3c b9 10 80 3d 09 2f 44 be
       0.1881201 0.024644284 0.062531896 -0.19158567
000290 d0 aa 96 bd 68 1e 20 3e 84 73 bb bb ec b3 cd 3d
       -0.07356799 0.15636599 -0.0057205576 0.10044083
0002a0 77 ef d2 bd 78 26 80 3d ac ec 42 3e 2f 26 ae bd
       -0.102995805 0.06257337 0.19035596 -0.08503377
0002b0 14 3a 00 3e 8d a4 fc bd fc cb b1 3d 8c 81 16 be
       0.12522155 -0.12336073 0.08681485 -0.14697856
0002c0 d0 82 51 bd c6 e1 d9 3d 24 87 96 3d a4 6a a2 3d
       -0.051150143 0.10638766 0.07349995 0.07930496
0002d0 56 c1 a0 3d f1 7c 00 be a2 11 df bd fa 1c ff 3c
       0.07849376 -0.12547661 -0.10892035 0.031141747
0002e0 88 ba 93 bd f8 cd 27 be 70 4c ac 3c d3 74 de bd
       -0.072133124 -0.16387165 0.021032542 -0.10862126
0002f0 4f bb 16 be 1f a7 87 3d a9 11 9b bd 15 14 5d 3d
       -0.1471989 0.06623673 -0.07571728 0.05397423
000300 c3 d2 34 3d be 50 92 bd 06 27 d7 3d 2a 9a 1e bd
       0.04414631 -0.071443066 0.1050549 -0.03872124
000310 b1 8f b4 bd 08 d4 55 3e 3b f2 23 be a8 df e2 bb
       -0.088164695 0.20881665 -0.16010372 -0.0069236346
000320 11 38 c5 3d ea e6 5f ba b2 a1 4e bd 10 98 54 3d
       0.096298344 -0.0008541184 -0.050447173 0.05190283
000330 d9 86 cf bd 72 e8 33 be 18 a2 05 3c b5 08 14 3e
       -0.10133142 -0.1756914 0.008156322 0.14456446
000340 5e 94 43 be 98 9d df 3d 65 8f 87 bd e0 1f 2e 3b
       -0.19099566 0.109187305 -0.06619147 0.0026569292
000350 18 ac f7 bd 74 03 3d 3b b4 9c 83 bd 80 8b e8 3d
       -0.12093371 0.002884117 -0.06426373 0.113547325
000360 5f b6 44 be 81 18 a5 bd aa d7 88 bd 3f fd 17 bd
       -0.19210194 -0.080613144 -0.0668176 -0.03710675
000370 63 c8 03 3e d0 53 5e be 6e 08 55 3e 77 de 68 3c
       0.1286941 -0.2171166 0.20803997 0.014213196
000380 24 44 2c 3e ca cd e2 bd 53 4b 3e 3c db 43 4d be
       0.16822869 -0.110744074 0.011614638 -0.20045416
000390 1d 23 f4 bd 87 de 15 be 15 17 f8 bd 7b 4f 6d bd
       -0.1192076 -0.14635669 -0.121137775 -0.057937127
0003a0 90 7e 89 3c 75 16 a7 3d 85 29 21 3d 97 c6 17 be
       0.016783983 0.0815858 0.039346237 -0.1482185
0003b0 21 72 cb bc 89 87 02 be 5d 7c b7 3d ee e6 f9 bd
       -0.024834694 -0.12747015 0.08959267 -0.122022495
0003c0 88 3b f7 3d 95 6e c4 3d 03 f2 0b 3d 37 29 bd 3d
       0.120719016 0.09591404 0.034166347 0.09236377
0003d0 51 d0 4e bd 37 e7 10 be 76 1b 00 bd 29 12 d4 bd
       -0.050491635 -0.14150701 -0.03127619 -0.10355026
0003e0 fa e0 ca bc 6e b5 f3 3c 9d b8 37 3d 57 ae 17 3d
       -0.02476548 0.029749598 0.044853795 0.037031498
0003f0 dd 3f bc 3d 95 b2 98 3d 5c 45 fc bd 16 48 3d bc
       0.091918685 0.07455937 -0.12317917 -0.011552831

p2iLayer.a f4 [352, 1]
000000 da d2 20 be fa cd 4c bc 1a f3 22 3d 5c 21 58 bd
       -0.15705433 -0.0125002805 0.03978262 -0.05276619
000010 2c ca 0f 3c 38 a4 08 3e eb 95 20 3e 5d 01 06 3d
       0.008776229 0.13343894 0.15682189 0.032716144
000020 a5 39 21 3d 9f 2f 13 3e 92 21 27 be 43 92 6c 3e
       0.039361615 0.14373635 -0.163214 0.2310267
000030 2a c8 0c 3e cd 54 e8 3d 4f 27 40 bc b2 d5 f0 3d
       0.13748232 0.113442995 -0.011728122 0.11759509
000040 ac 7b c5 bd 18 63 58 3d 7e b5 3d be 89 02 9f 3d
       -0.09642729 0.05282888 -0.18526265 0.077641554
000050 8f 94 12 3d f1 37 f1 3d 72 7a 87 3d 92 c7 8b bd
       0.035786208 0.11778248 0.066151515 -0.068251744
000060 95 b8 61 3d b0 08 29 3d 40 a1 e9 3d d9 1f bd 3d
       0.05510767 0.04126805 0.11407709 0.0923459
000070 25 1c d9 bc 50 31 bf 3c b3 ea 51 3d 1e 7a 13 3d
       -0.026502678 0.023338944 0.051249217 0.036005132
000080 ab 40 9d bc 51 23 7f 3c 3e e0 4e 3e 1d d8 27 3d
       -0.019195875 0.015572385 0.20202729 0.040977586
000090 01 6a 68 3d 52 e2 c3 3d 76 dc e2 bd aa 8b e4 3d
       0.05674172 0.095646515 -0.11077206 0.11159451
0000a0 e9 ea ae bd 9e 6d 9c 3d 41 a5 c3 3c 04 a6 04 3e
       -0.08540899 0.07638095 0.02388251 0.12953955
0000b0 85 0d 2d 3d 07 c0 d2 3c 9a 1e 53 3d 5a 96 8c 3d
       0.04224922 0.025726331 0.051542856 0.06864615
0000c0 bb ff 4c 3d 83 ba 25 3e 80 7e 9c bd 7b 51 b6 3c
       0.05004857 0.1618443 -0.076413155 0.02225565
0000d0 e3 ac fa 3d ac a0 c5 3d 3d c9 0a be ee ef 8a 3d
       0.12240007 0.09649786 -0.13553329 0.06784044
0000e0 3e fe b8 bd 13 89 99 3d 53 bf 27 3e 2d 10 0b bd
       -0.09032868 0.07496848 0.16381578 -0.033950973
0000f0 53 4a cf bd 45 5b b6 bd af 0e fd bd b8 39 ed bd
       -0.10121598 -0.08904127 -0.12356316 -0.115832746
000100 05 9a 83 3d 3c 39 37 3d f8 a9 b0 3d 2a 53 aa 3d
       0.06425861 0.044732317 0.08626169 0.083166435
000110 80 21 37 3e 52 46 1b bc b2 57 09 be 39 64 4b 3d
       0.17883873 -0.009477215 -0.1341236 0.049656127
000120 5d 02 73 3d f2 35 bf bc 83 5e 60 bc 2b a5 02 bc
       0.059328426 -0.023341153 -0.013694408 -0.007973949
000130 ad 31 5f 3d ce a2 58 3e 05 d3 72 bd 73 d3 fb bd
       0.054490734 0.21155855 -0.059283275 -0.1229619
000140 29 57 16 3e a5 bb 46 be 38 04 5d 3d dd 94 19 be
       0.14681686 -0.19407518 0.0539591 -0.14998193
000150 64 e3 85 3d 8a c1 e9 3c 2e 36 76 3d 1a 55 a0 3d
       0.06537512 0.02853467 0.060110264 0.07828732
000160 db d0 2e bc 8d 7a 77 3d 12 9e 69 3d 35 33 ea 3c
       -0.010669912 0.060419608 0.057035513 0.02858887
000170 5d d8 84 3d 2d f3 6f 3d 71 18 5a be d5 94 d2 3d
       0.064865805 0.05858152 -0.21298386 0.10282294
000180 fd e3 00 be bc 0a e5 bd 59 65 33 be d6 7e 40 3e
       -0.1258697 -0.11183688 -0.1751913 0.18798384
000190 4d f9 ad bb 19 f5 ad 3d bd 8b cc 3d 61 97 2e 3e
       -0.00530926 0.08494014 0.099875905 0.17049934
0001a0 24 bb db 3d 41 15 34 3c ce 25 7f bd 52 18 47 3e
       0.107290536 0.010991395 -0.062291913 0.19442871
0001b0 f3 1c 59 3d 3c ab 87 3d a2 a0 bc 3a d9 24 59 3e
       0.053006124 0.06624457 0.0014391134 0.21205463
0001c0 e9 69 db 3d 4c 33 8c bd dd 27 d8 bb 94 18 ab bd
       0.1071356 -0.068457216 -0.006596549 -0.08354297
0001d0 2d 3c 17 3d 40 62 35 bd 18 84 bc 3d 04 c0 e8 3d
       0.036922622 -0.04428315 0.092048824 0.11364749
0001e0 7b 46 c6 3c 0f 45 e4 3d e5 b4 be bd 4e 49 f6 bc
       0.02420353 0.111459844 -0.09311847 -0.030064251
0001f0 33 c6 79 bd 34 81 4e 3d 34 df 01 3e ff 87 99 3d
       -0.060980033 0.050416186 0.12682801 0.07496642
000200 81 f5 05 bd 94 83 d4 bc 5d 91 da 3d 45 f1 96 3d
       -0.032704834 -0.025941648 0.10672257 0.07370237
000210 26 cd 4a bc 31 ee c3 3d b5 13 54 be 07 86 2f be
       -0.012378013 0.09566916 -0.20710643 -0.17140971
000220 2f ee e7 3d 31 8f 07 bc b3 3f 0a bd ed c6 21 be
       0.11324727 -0.008273886 -0.033752155 -0.1579854
000230 70 e1 cf 3b fd f4 20 3e fe 17 fc 3d 1a 1b 08 3d
       0.006344013 0.15718456 0.12309264 0.03322897
000240 90 ce d2 3c 51 ae b7 bd 25 1c 02 3e 0f a4 ca bc
       0.025733262 -0.08968795 0.12706049 -0.024736432
000250 ba c1 b0 3d 3e a8 06 bd f9 97 84 3c ad b1 83 bd
       0.086307004 -0.032875292 0.016185747 -0.06430373
000260 51 95 b9 bd 41 d9 33 bd de e8 ab bd 3b de 9e 3c
       -0.09061683 -0.04390836 -0.08394025 0.019393077
000270 ca 58 32 3d a1 6a 1a 3d 4f cc ca 3d 2e e1 e3 3d
       0.043541707 0.037699345 0.0990225 0.11126934
000280 59 f9 65 bd 2b 26 95 bc 0e be 84 3a 8c 5c ac 3d
       -0.056146 -0.018206676 0.0010127441 0.084160894
000290 b8 0b d1 bd 04 1e 8a 3c e0 83 aa 3c 79 b1 d9 bb
       -0.10207313 0.016860016 0.020814836 -0.006643471
0002a0 20 cd 27 3e d5 07 93 bc 30 8a b2 3d 5d cb 69 bd
       0.16386843 -0.01794807 0.087177634 -0.057078708
0002b0 e1 ad a8 3d a0 65 59 3d b7 f2 38 3d 18 85 35 3e
       0.0823629 0.053075433 0.045153346 0.17726552
0002c0 64 0c f5 bb 3f 8d ad 3b 16 31 82 bd 3a a8 87 3c
       -0.0074782837 0.005296379 -0.06357019 0.016559709
0002d0 7b 30 d8 3c 2a c6 89 3c 88 c7 91 3d 34 f2 84 bd
       0.026390305 0.016818125 0.07118136 -0.06491509
0002e0 5a 00 79 bd a1 84 9d 3d df 2a 33 be 9d cf 5a bd
       -0.06079135 0.076913126 -0.17496823 -0.05342065
0002f0 b3 f2 15 3e ac 11 0d 3e ff c9 02 bd fc 01 66 be
       0.14643364 0.13776273 -0.03193092 -0.22461694
000300 32 15 0c 3d 14 43 11 be 93 8b 9c bd 01 75 86 bd
       0.0341999 -0.14185745 -0.07643809 -0.065652855
000310 99 b3 d6 3a 7a a6 72 3c 82 ba f4 3d 88 4e 50 be
       0.0016380429 0.014810199 0.11949636 -0.20342457
000320 c1 31 a8 3c f0 7c 17 bd 0f fa 18 be 8a 2d 2b be
       0.020531537 -0.036984384 -0.1493914 -0.1671659
000330 2a 2f 9d bd 59 92 f3 3d 61 ff a9 bd c1 9b 9b 3c
       -0.076750115 0.11893148 -0.08300663 0.018995168
000340 5e 8c 60 bc 16 d2 9c bc db 4b b2 bc 7f fb b4 3d
       -0.013705341 -0.019143146 -0.021764686 0.088370316
000350 70 88 94 bd 69 e7 53 3d d3 e5 26 3e 1a d1 c2 3d
       -0.07252586 0.05173436 0.16298608 0.09512539
000360 7d 9a 10 bd 76 aa df bd 93 db 66 3d 40 6f 56 bd
       -0.03530358 -0.10921185 0.056361746 -0.05235219
000370 31 41 f8 3b dd 25 8b bd f5 d1 85 3c a0 bd 39 be
       0.007576131 -0.06794331 0.016335467 -0.18138742
000380 5d 2a ac 3d f8 b7 d7 bc 5f fd d5 bd d7 87 8a 3d
       0.08406518 -0.02633284 -0.10448717 0.06764191
000390 33 d4 cb bc d5 64 06 bd eb 90 77 bd 71 e3 00 3e
       -0.024881458 -0.032811005 -0.06044094 0.12586762
0003a0 fd a2 3a 3a d4 99 1a 3d 29 1c 40 bc fe 4e 01 3e
       0.0007119624 0.03774436 -0.011725464 0.1262779
0003b0 1d 8f 06 3e 04 a2 39 be bf 6a 57 bd 7a e8 29 3e
       0.13140531 -0.1812821 -0.052592035 0.16592589
0003c0 3e a1 2c 3e 2e 27 a2 3d 6a f5 60 3d 96 5f 1a be
       0.16858384 0.07917629 0.054921545 -0.15075526
0003d0 20 fe 0b bb 12 9e b2 bd 3d 75 1f be c3 c5 89 3d
       -0.0021361187 -0.08721556 -0.15572067 0.06727173
0003e0 51 ef b9 3c 28 49 62 bd 6f b6 16 bc 92 4b c1 3d
       0.022697123 -0.05524555 -0.009198769 0.09438242
0003f0 04 dd ff 3d 0c 0d ac 3b 96 d2 cd 3d 6d fc 99 bd
       0.12493327 0.0052505787 0.10049932 -0.075188495

intersectionLayer.W f4 [48, 46]
000000 b6 a4 8c bd 0a b6 6d 3e 38 b3 28 3e ab 26 bb bd
       -0.068673536 0.23213974 0.16474617 -0.09138235
000010 b1 66 a9 3d 52 61 bb bd a6 e3 6f 3d ea dc 16 3d
       0.0827154 -0.09149422 0.05856671 0.036831774
000020 8a 93 8d 3e eb ac 63 3e ab f8 e2 bd bc c5 24 be
       0.27651626 0.22233932 -0.11082586 -0.16091055
000030 9a c1 89 be 5c 1d 4a be 5e c7 db 3d 28 3d e9 bc
       -0.2690552 -0.19737762 0.10731386 -0.028471544
000040 97 8b 6f 3e 17 45 42 3e e2 3d 61 be b5 06 13 bd
       0.23393093 0.18971668 -0.21996263 -0.03589507
000050 77 92 10 3e 67 3e 37 3e 10 70 09 be 3e 42 ce bd
       0.14118372 0.17894898 -0.13421655 -0.100712284
000060 87 3f bd bd 99 5e 33 be ab 72 23 be d1 61 45 3d
       -0.092406325 -0.17516555 -0.15961711 0.048188988
000070 72 3f fd bd b0 4b 30 be 65 be 6f 3e ad dd 0f 3e
       -0.12365617 -0.17216372 0.23412473 0.14049406
000080 d3 83 44 bd 60 c6 8c be 10 da 4f bd b3 aa 67 3d
       -0.04797728 -0.27495098 -0.05074507 0.056559276
000090 ba a2 70 be f4 ef 89 3c 0f 54 21 be 3f f1 d5 3d
       -0.23499575 0.016838051 -0.15754722 0.10446405
0000a0 ba 5d 1a be db ca ac 3c 0d e7 50 be 11 39 2f 3e
       -0.15074816 0.021092823 -0.20400639 0.17111613
0000b0 04 17 10 bd f5 0b ac 3d 60 38 79 bd 8d 8c da bd
       -0.0351782 0.08400718 -0.06084478 -0.10671339
0000c0 e6 f2 23 3d 97 c8 f7 bc 04 ef bd 3d d9 e4 a3 bb
       0.040026568 -0.030247016 0.09274104 -0.005001646
0000d0 25 f9 98 bd a3 f1 63 be 47 e9 70 3e c8 9e 41 bd
       -0.074693955 -0.22260146 0.23526488 -0.047270566
0000e0 7c 43 0d 3d 48 88 55 be d7 6a b7 3d c8 4d 8c bd
       0.034488186 -0.20852768 0.08955925 -0.06850773
0000f0 06 37 0a 3e 36 95 e5 bc 17 2e f8 bc 85 a4 6e 3d
       0.13497552 -0.02802525 -0.030295415 0.058262367
000100 51 65 25 3e 4b 17 70 3e 07 50 38 3e 1e 45 bf 3d
       0.1615193 0.23446386 0.17999278 0.09339355
000110 87 02 7c 3c 3d 5d 8c 3b 36 7e 9e 3d 40 f0 64 3d
       0.015381462 0.004283576 0.077389166 0.055893183
000120 5d d4 44 be d9 2c 58 3e 79 de f9 3d d9 98 21 3e
       -0.19221635 0.21110858 0.122006364 0.15780963
000130 5b 28 c6 3d e4 03 8d be 30 6d 24 3e a2 e6 23 be
       0.09675666 -0.2754203 0.16057277 -0.16005948
000140 1e c7 2e 3e ef 33 07 be fa af 91 be c5 80 98 3d
       0.17068145 -0.13203405 -0.28454572 0.07446436
000150 0e e1 b0 3d c5 87 b8 3c 8e a3 cb bd 5e d9 19 3d
       0.08636676 0.022525677 -0.09943305 0.037560813
000160 b2 ec 40 be 05 ee 70 bd 3d be 97 3e 92 6d 7e bc
       -0.18840292 -0.058820743 0.29637328 -0.015529053
000170 88 4a d8 3d 97 d3 43 3e 3a d6 1a be 12 03 84 3c
       0.10561091 0.19123684 -0.15120783 0.016114745
000180 4e 72 38 be 48 d3 34 bd bd 43 d8 3d aa 13 0c be
       -0.18012354 -0.044146806 0.10559795 -0.13679376
000190 ef db b6 bd d6 c8 95 bd 0c a2 95 bd 53 3c 36 3e
       -0.08928668 -0.07313697 -0.073062986 0.1779645
0001a0 7c 68 b8 3d 9c a9 14 3d 3e a5 51 be 57 d1 a9 bc
       0.09004304 0.036294565 -0.20473191 -0.020729704
0001b0 04 25 1b 3e 06 57 49 be 78 d0 41 be 94 7e 9b 3d
       0.15150839 -0.19662103 -0.18927181 0.07592502
0001c0 c6 e3 1f bd 4e 20 03 bc 38 56 00 3e 33 21 fc 3d
       -0.03903558 -0.0080033075 0.1253289 0.1231102
0001d0 12 e4 54 3e 8d 63 6b 3e d5 fd e5 bb 46 31 1a be
       0.20790127 0.22987194 -0.0070187845 -0.15057859
0001e0 3e e8 28 be ea 79 44 be 25 d7 87 be 69 a6 dc bc
       -0.16494843 -0.19187132 -0.2653133 -0.02693482
0001f0 e0 96 80 bc ee 83 2b be 97 9d 23 3d 3e b2 ce bd
       -0.015696943 -0.16749546 0.03994521 -0.10092591
000200 2f 5a 08 3e a5 93 58 3e 90 d9 06 3e 39 e4 27 be
       0.13315652 0.21150072 0.13168931 -0.16395654
000210 29 4c 07 be 6a a5 f1 3d 6b fe 65 be ee 7d 09 3e
       -0.13212647 0.11799128 -0.22460334 0.13426945
000220 9b c4 0c 3e 54 96 74 3e c0 a5 5b be 27 8a 25 3d
       0.13746874 0.2388547 -0.21449947 0.040414955
000230 28 0c 81 be 34 d5 87 bd e3 2c 80 3e 72 5e 04 3e
       -0.25204587 -0.06632462 0.25034246 0.12926653
000240 cc 73 e0 3d aa 88 e4 3c d7 d2 a3 3d 79 a4 09 bd
       0.109595865 0.027897198 0.07999199 -0.03360412
000250 20 50 d1 3d 21 4f dd bd a5 d4 30 3e d6 f3 75 be
       0.10220361 -0.10806108 0.17268617 -0.24018797
000260 fb 7a 27 3e 27 25 e7 3d 96 6e 33 bd 00 cd 36 3e
       0.16355507 0.11286383 -0.043806635 0.17851639
000270 a0 06 36 bd 25 6a 69 3e 28 2e c2 3d 2f a4 e1 bc
       -0.04443991 0.22794397 0.0948146 -0.02754411
000280 23 3a 19 be f7 c3 6d be 52 63 0b be 17 02 da bd
       -0.14963584 -0.23219286 -0.13612106 -0.1064493
000290 68 d4 13 be ff ae 44 bb f9 81 1d 3e b7 0a 53 3e
       -0.14436495 -0.0030011532 0.15381612 0.20609556
0002a0 ef 12 6c 3e da b4 22 be 5e 0a a8 3c 2a 55 e8 bd
       0.23054098 -0.15889302 0.020512756 -0.11344369
0002b0 36 74 be bd e8 43 5a 3d 28 73 24 3e c9 ad 55 bd
       -0.09299509 0.053287417 0.16059554 -0.052167688
0002c0 8e a7 44 3d 55 5a 64 3e 2e 4b 2d be 0c 24 06 3e
       0.048011355 0.22300084 -0.1692321 0.13099688
0002d0 e5 23 48 3e 50 ff 46 bd a5 9f 1f 3e 5e a8 8a be
       0.19544943 -0.04858333 0.15588243 -0.2708158
0002e0 2c e4 fd bd 53 c5 8d bd 49 05 51 3d 94 19 49 3e
       -0.12397036 -0.06922402 0.05103043 0.19638664
0002f0 f8 ad 09 3e 83 64 9f 3d d5 d5 ac bb 22 e5 23 3e
       0.1344527 0.07782843 -0.005274514 0.16005376
000300 b7 3f f5 3d 30 94 17 be 1a 83 ba 3d 28 3a 6d be
       0.11975043 -0.14802623 0.09107037 -0.23166716
000310 bd 1d 4f 3e bd ce 3c 3d ac 01 90 bd 69 14 b2 bd
       0.20226188 0.0460956 -0.07031569 -0.08695299
000320 52 4a 46 be 24 f7 34 bd 49 23 38 be 83 3b 6c be
       -0.19364288 -0.044181004 -0.1798221 -0.23069577
000330 e6 08 db bd ae 64 95 3d b5 ba db bd d3 b7 81 be
       -0.106950566 0.07294594 -0.10728971 -0.2533556
000340 c7 23 2c be 15 54 3f be 56 7c 20 bd dd 16 32 3e
       -0.16810523 -0.18684418 -0.039181076 0.17391534
000350 40 33 2e be 79 a4 96 bd 99 ae 01 3e a7 bd 35 3e
       -0.17011738 -0.073555894 0.1266426 0.17748128
000360 b5 37 07 3e 6c 57 78 bd a4 9f 5e be 28 05 7a be
       0.13204844 -0.060630247 -0.21740586 -0.2441603
000370 10 e2 1c 3d 13 37 ff bd dc d3 52 3e 5e d8 19 be
       0.038301528 -0.124616764 0.2058863 -0.15023944
000380 69 26 74 be 1a d0 0a 3e 47 c6 2a 3e a6 5b 2c 3d
       -0.23842777 0.13555947 0.166772 0.04207959
000390 5e 09 2e be 2f 13 a1 bc 88 1b 0e 3e 42 88 0b 3e
       -0.16995761 -0.019662468 0.1387769 0.13626197
0003a0 30 94 40 be 13 f7 9d be c8 1d 01 3e 6c 09 e4 bd
       -0.18806529 -0.30852565 0.12609017 -0.111346096
0003b0 45 68 0b be d8 dc f3 3a c7 f7 b8 3d cc b4 13 be
       -0.13613994 0.0018605245 0.09031635 -0.14424437
0003c0 01 4a f8 bd 66 e0 be 3d f8 a9 34 be 61 1c e1 3d
       -0.1212349 0.09320144 -0.17642963 0.10991741
0003d0 54 91 65 be 7a 3c 40 3e fa f1 1a bd f2 55 2e 3c
       -0.2241872 0.1877307 -0.037828423 0.010640608
0003e0 7e e9 6c bd e6 31 08 3e ff ec 3b 3d 9e a3 74 3e
       -0.057839863 0.13300285 0.045880314 0.2389054
0003f0 71 26 82 3e 6d a3 9d 3c f1 23 36 be 5c 6d 3a be
       0.25419953 0.019242967 -0.17787148 -0.1820578
