test/model/actor_3_2_2_2_46_best_rou4.pth (torch, 689330 bytes, 17 tensors)

v2lLayer.W f4 [3, 40]
-0.15499987 0.23346554 0.17464237 -0.1760981 0.35435936 0.21662316 -0.31501207 -0.21789667
-0.39862594 -0.04175466 -0.20657597 0.2104773 -0.19870271 -0.20152251 -0.1330204 0.13998553
0.2247667 0.15594262 0.244277 -0.31476656 -0.08826702 0.072626635 0.29879177 0.3612154
0.26571706 0.19396555 -0.36834484 -0.19417322 0.09523529 -0.04211735 -0.19561692 0.12597032
-0.3123538 -0.12924032 0.24520893 0.24448782 -0.28806835 -0.24930096 -0.30806854 -0.23324032
0.039528187 -0.066229954 -0.34552842 -0.25040054 0.051798593 -0.05529908 -0.2915174 -0.19831409
0.19964828 0.19814555 0.27162358 -0.019004283 -0.040743142 -0.19285727 0.047141522 0.39341593
-0.34061256 -0.19941315 -0.30928734 0.15755665 0.038889814 -0.092406884 -0.37796566 -0.16614822
0.04532914 0.025729064 -0.2542761 -0.3513919 -0.15216568 -0.088175006 -0.11585951 -0.33005294
-0.33145282 -0.12544738 0.21905035 0.2008588 -0.35670123 -0.42220527 -0.18155245 0.12857227
-0.22546372 0.17403512 -0.18488926 0.16879457 0.20232323 -0.028887214 0.23358107 -0.32973862
0.16187331 -0.27639386 0.19903801 -0.2718174 -0.256572 0.14388609 0.34416223 -0.123193435
-0.21357056 0.22771046 -0.17972767 0.017440028 0.28256312 0.19136745 -0.30289388 -0.28471425
0.22154704 0.4004896 -0.3379148 -0.29345357 -0.4206361 -0.24321784 0.067065105 -0.31832212
0.07071009 -0.13199529 0.11975633 0.43745658 -0.16591105 0.27117023 0.038427077 -0.25718686
00000000: 49b8 1ebe 9711 6f3e 73d5 323e 0f53 34be
00000010: 976e b53e 76d2 5d3e 4349 a1be 4e20 5fbe
00000020: b318 ccbe ef06 2bbd a788 53be 5d87 573e
00000030: b978 4bbe eb5b 4ebe 8036 08be 5e58 0f3e
00000040: 3e29 663e 6caf 1f3e c023 7a3e 1529 a1be
00000050: 57c5 b4bd 46bd 943d 3cfb 983e 3af1 b83e
00000060: 110c 883e e89e 463e b297 bcbe 58d5 46be
00000070: b80a c33d 3e83 2cbd cd4f 48be 5dfe 003e
00000080: d6ec 9fbe 9357 04be 0d18 7b3e 045b 7a3e
00000090: b27d 93be c048 7fbe 29bb 9dbe 8dd6 6ebe
000000a0: 4fe8 213d 92a3 87bd 1ae9 b0be 8034 80be
000000b0: c32a 543d 4a81 62bd c541 95be d912 4bbe
000000c0: 9970 4c3e abe6 4a3e 3f12 8b3e dfae 9bbc
000000d0: 48e2 26bd 607c 45be 7817 413d d06d c93e
000000e0: c564 aebe f632 4cbe e95a 9ebe 8856 213e
000000f0: ed4a 1f3d d23f bdbd b784 c1be c222 2abe
00000100: 0cab 393d c2c5 d23c 7a30 82be a4e9 b3be
00000110: 52d1 1bbe 1995 b4bd c047 edbd b3fc a8be
00000120: 2fb4 a9be 4775 00be bc4e 603e eead 4d3e
00000130: 8ba1 b6be 4a2b d8be e3e8 39be 73a8 033e
00000140: f6df 66be 4336 323e 9c53 3dbe 7cd8 2c3e
00000150: d22d 4f3e e1a4 ecbc e02f 6f3e 80d3 a8be
00000160: 1ec2 253e 7f83 8dbe 9fd0 4b3e a62b 8bbe
00000170: 685d 83be e056 133e 0836 b03e d74c fcbd
00000180: 3eb2 5abe ee2c 693e 880a 38be 64de 8e3c
00000190: 1dac 903e d4f5 433e e814 9bbe 11c6 91be
000001a0: 3add 623e f90c cd3e 2b03 adbe 8c3f 96be
000001b0: 9d5d d7be 190e 79be 6e59 893d 1efb a2be
000001c0: 74d0 903d c629 07be cf42 f53d 4ffa df3e
000001d0: 96e4 29be d3d6 8a3e b665 1d3d ffad 83be

v2lLayer.a f4 [80, 1]
0.21244554 0.088848196 -0.28017506 -0.04526623 -0.08454204 0.21769954 0.21745116 -0.15487765
-0.023273876 -0.016251693 -0.18137611 0.16407172 -0.09824746 0.23797195 -0.08243842 -0.0032793076
0.017571485 -0.2190076 0.05590655 0.0841703 -0.14413738 0.00026032169 0.06668319 -0.10504664
-0.11850655 -0.2178688 0.1372746 -0.2645029 0.17281808 0.11607178 0.23869099 -0.1795418
-0.053403873 -0.08713834 -0.1681472 0.27257007 0.16797274 0.06534316 0.020460134 0.10654198
0.1582934 -0.069488645 -0.16760187 0.00872148 0.114700876 0.2205187 0.12909038 -0.20050675
0.24276505 -0.266954 0.10724187 -0.0075787045 0.22633773 -0.037604723 -0.1231342 -0.15357289
-0.12522933 0.16669093 0.23894888 -0.24764454 0.27446637 0.10129551 -0.07761027 -0.17315973
0.28849682 -0.19668193 0.044992924 -0.16122563 -0.18413353 -0.13038401 0.0654553 -0.14204314
0.1134033 -0.21153192 -0.230031 0.11019954 -0.29289523 0.16849342 -0.11303726 -0.27667502
00000000: 538b 593e 0bf6 b53d 1b73 8fbe 1569 39bd
00000010: 6124 adbd a1ec 5e3e 84ab 5e3e 3f98 1ebe
00000020: dba8 bebc 4522 85bc a9ba 39be 6b02 283e
00000030: f735 c9bd ebae 733e 79d5 a8bd a7e9 56bb
00000040: 13f2 8f3c 8743 60be 44fe 643d 7a61 ac3d
00000050: c098 13be c97b 8839 3291 883d b122 d7bd
00000060: 90b3 f2bd 0019 5fbe b691 0c3e ed6c 87be
00000070: 39f7 303e 0bb7 ed3d 696b 743e ced9 37be
00000080: 05be 5abd 9675 b2bd c82e 2cbe 4e8e 8b3e
00000090: 0c01 2c3e a2d2 853d 039c a73c ae32 da3d
000000a0: aa17 223e 1050 8ebd d39f 2bbe 8ae4 0e3c
000000b0: 4be8 ea3d a7cf 613e 4530 043e a451 4dbe
000000c0: 6797 783e 32ae 88be a0a1 db3d c856 f8bb
000000d0: 14c5 673e 6907 1abd c92d fcbd 3642 1dbe
000000e0: 1e3c 00be 07b1 2a3e 04af 743e 8896 7dbe
000000f0: db86 8c3e 0574 cf3d 22f2 9ebd c950 31be
00000100: dbb5 933e fd66 49be 804a 383d 5518 25be
00000110: 808d 3cbe 6383 05be 6e0d 863d c273 11be
00000120: fd3f e83d d39b 58be 3f8d 6bbe 4cb0 e13d
00000130: 5df6 95be 8a89 2c3e 1480 e7bd 59a8 8dbe

laneLayer.W f4 [12, 12]
0.086744964 -0.2849335 -0.28067327 -0.13412893 -0.06596911 0.39462394 0.39835888 -0.37398577
0.15932238 0.2843246 -0.28757304 0.40792066 -0.23896061 0.36159527 -0.07930024 0.006727243
-0.52819127 -0.12764272 0.0972754 -0.16505802 -0.47250575 0.14762104 -0.37816873 0.08002505
0.39671353 -0.3569471 0.059687797 -0.32120946 -0.042166203 0.16302006 0.14613922 -0.34367558
-0.18496877 -0.10465988 -0.08486213 -0.1828557 0.32040226 0.2771515 0.42554104 -0.43856162
-0.4725219 0.41685545 0.5771288 0.31654 0.24913171 -0.013164635 0.09479665 -0.28633636
0.3406045 0.031096272 -0.031596407 0.220096 -0.12304648 -0.4537428 0.44576907 0.048995152
-0.41907528 -0.25049573 -0.20449841 -0.16886847 -0.33598915 0.333724 0.50268805 -0.35070783
-0.50970364 0.45336118 -0.12920636 0.3604533 -0.15652831 0.40755194 -0.34321174 0.24948484
-0.039704736 0.3600326 -0.4527166 0.11001638 -0.06310445 0.1374079 -0.15218389 0.28492936
-0.25283575 -0.5010278 0.11878032 -0.20341977 0.14097619 0.39923003 -0.008701023 0.421907
-0.43599036 -0.3124298 -0.052712653 -0.27587447 -0.07647546 -0.07367752 0.21844073 -0.21648009
-0.17798282 0.1687279 -0.27321097 -0.27327645 -0.4184137 0.28327116 0.10816447 0.40932226
0.12673077 -0.14126483 -0.5072516 -0.083222695 0.49656332 0.08894175 0.33858135 0.17639954
0.40813032 0.21935205 0.38756165 0.31779942 -0.430087 -0.5245805 -0.26638138 -0.21418388
0.06189672 0.20860563 -0.2887764 0.46368667 0.37907737 -0.37389448 0.08072809 0.5136791
-0.52061135 -0.3051551 -0.47186592 -0.08089818 0.26068807 -0.31062204 -0.2542897 0.20376825
-0.21647924 -0.005410254 -0.38764727 -0.25090295 0.06304234 0.0018332005 0.43878502 -0.38238823
00000000: 58a7 b13d cee2 91be 68b4 8fbe 1859 09be
00000010: d01a 87bd 260c ca3e b2f5 cb3e 107b bfbe
00000020: 6825 233e fe92 913e c63c 93be fada d03e
00000030: 17b2 74be 0423 b93e 2a68 a2bd 3470 dc3b
00000040: 8b37 07bf c6b4 02be 5338 c73d f804 29be
00000050: 46ec f1be f829 173e 559f c1be 2ce4 a33d
00000060: 091e cb3e c5c1 b6be 317b 743d 9175 a4be
00000070: 78b6 2cbd bbee 263e 85a5 153e 3ff6 afbe
00000080: 7468 3dbe eb57 d6bd 32cc adbd 863e 3bbe
00000090: c40b a43e cde6 8d3e 84e0 d93e 268b e0be
000000a0: 64ee f1be 146e d53e b7be 133f 8811 a23e
000000b0: 621c 7f3e 7bb0 57bc bf24 c23d ae9a 92be
000000c0: b763 ae3e 9cbd fe3c 3c6b 01bd d960 613e
000000d0: cbff fbbd fa50 e8be d83b e43e 24af 483d
000000e0: 0991 d6be fa40 80be 0868 51be dbeb 2cbe
000000f0: c506 acbe dfdd aa3e 2ab0 003f fa8f b3be
00000100: f07b 02bf f51e e83e ac4e 04be 568d b83e
00000110: f548 20be a6aa d03e 73b9 afbe f478 7f3e
00000120: 6fa1 22bd 3156 b83e 78ca e7be 4550 e13d
00000130: e83c 81bd a8b4 0c3e 18d6 1bbe 43e2 913e
00000140: b073 81be 5c43 00bf 1943 f33d 464d 50be
00000150: 105c 103e e167 cc3e bc8e 0ebc 3204 d83e
00000160: 213a dfbe ccf6 9fbe 39e9 57bd 6b3f 8dbe
00000170: 2a9f 9cbd 3de4 96bd edae 5f3e f5ac 5dbe
00000180: 2141 36be 02c7 2c3e 4fe2 8bbe e4ea 8bbe
00000190: 523a d6be eb08 913e 5585 dd3d b092 d13e
000001a0: b6c5 013e baa7 10be 3edb 01bf a970 aabd
000001b0: 8c3d fe3e 1827 b63d 895a ad3e 15a2 343e
000001c0: 75f6 d03e d39d 603e 7b6e c63e 9bb6 a23e
000001d0: 5d34 dcbe e84a 06bf 2463 88be 0553 5bbe
000001e0: 6a87 7d3d b79c 553e 80da 93be 5768 ed3e
000001f0: 6e16 c23e 196f bfbe c554 a53d 7980 033f
00000200: c946 05bf 4a3d 9cbe 6998 f1be f2ad a5bd
00000210: e878 853e da09 9fbe 4232 82be a0a8 503e
00000220: bcac 5dbe 8048 b1bb b479 c6be 5a76 80be
00000230: 581c 813d 0048 f03a 6ea8 e03e 64c8 c3be

l2pLayer.W f4 [12, 88]
0.15923591 0.15009455 -0.03399907 0.13804676 0.1606827 -0.07530479 0.11277209 0.18619426
-0.008082762 0.24404506 0.09648977 -0.1715977 0.21384747 -0.20549355 -0.0036559254 0.007066503
0.111015216 -0.24261001 -0.20612346 -0.18944159 -0.057910115 -0.1674746 0.09890194 0.01797913
-0.10090722 0.04251142 0.033516124 0.07221331 -0.058692187 -0.035753652 0.013360605 0.061564997
0.034770593 -0.20122714 0.14921425 0.2254137 0.11243336 0.03725274 0.020884499 0.17603324
-0.14465642 -0.039351493 0.15739648 -0.057835355 0.09125815 -0.1306195 -0.17278385 0.14769916
0.13431235 -0.06413591 0.110342786 -0.18873039 0.24004053 0.027648285 -0.099692196 0.12779586
-0.015884638 -0.21175814 0.06125702 0.03707011 0.17712255 0.18904804 -0.0877969 -0.09968245
0.07651098 0.18515565 0.04743783 0.026015237 -0.20497954 0.03638132 -0.022242635 -0.13944444
0.21252124 -0.056313276 -0.072245926 0.07346316 -0.24462596 -0.14051795 -0.030249625 -0.06410283
-0.04307431 0.16019635 -0.21991047 -0.057068735 0.07254161 0.057031408 0.19830178 -0.11813846
-0.17248596 0.13388363 0.10962625 0.22711231 -0.22920944 0.043401953 0.07281808 -0.08077692
0.03749359 -0.014132443 0.06427163 -0.058938053 -0.11970348 0.06763884 0.02215331 -0.13641854
-0.2948005 -0.12631762 -0.09548892 -0.15020813 0.16541633 0.13688613 0.04442193 -0.13808678
0.071734175 -0.056154728 -0.31482336 -0.059330028 0.29912665 0.031991765 0.053674586 -0.15794995
-0.10588147 -0.115594275 0.07997728 -0.047613867 -0.18768127 0.07308556 -0.22563116 -0.12235308
0.23770781 0.20799884 -0.18906696 0.25474468 -0.11195825 0.24654709 -0.22800335 0.071353994
0.025348723 0.14344773 0.25634536 0.23722449 0.068342276 -0.026031455 0.0289751 -0.19516575
0.19524434 0.14001365 -0.20310941 -0.13919334 -0.22197883 -0.02561199 -0.11593717 -0.029921565
-0.033276506 0.17737454 0.20269638 0.30912825 -0.16759598 0.03706153 -0.048065014 0.2980274
0.25610042 0.017454963 -0.21212402 -0.2767911 0.07149803 0.14949374 -0.017189994 0.0916161
0.042047027 0.25899184 -0.3160754 0.26946676 0.01287622 0.31262413 0.08831132 0.032510005
0.013663096 0.22468361 -0.23460786 0.07322584 -0.19994727 0.08519383 0.23464644 -0.038073875
-0.23876049 0.06356318 -0.18532923 -0.043316305 0.02708511 0.16537042 0.03090516 0.24943925
0.16473517 -0.005510929 -0.1449367 0.13914907 -0.23114684 0.11704268 -0.092710815 -0.08042041
-0.24768779 -0.04735302 -0.07256497 0.087121986 -0.09144165 -0.06580654 0.15070687 -0.1329583
-0.09800623 -0.014158723 -0.08561149 0.108229555 -0.10539759 0.1738689 -0.056906007 -0.058946785
0.10289053 0.28370112 0.14781855 0.21812785 0.07608904 0.25335696 0.12871557 0.187575
0.0072299023 0.054658454 0.119021274 -0.1966152 -0.27997822 -0.0010010658 -0.09186778 0.18884742
0.051441755 0.12426711 -0.041408446 -0.13460481 -0.19753692 -0.02108547 -0.01658327 -0.06480361
0.16029985 0.018851353 0.13440034 0.06989057 -0.05564324 -0.055806983 0.12849961 0.032423314
-0.12984613 -0.058899365 -0.03259064 -0.21291381 0.13586353 -0.23732442 0.010687743 0.13244036
00000000: bd0e 233e 63b2 193e 9c42 0bbd 215c 0d3e
00000010: 018a 243e 6639 9abd 0ef5 e63d b5a9 3e3e
00000020: 906d 04bc f3e6 793e 6e9c c53d 4fb7 2fbe
00000030: d5fa 5a3e e76c 52be 4098 6fbb 208e e73b
00000040: f25b e33d c26e 78be 0712 53be fafc 41be
00000050: 2833 6dbd 767e 2bbe 1a8d ca3d f848 933c
00000060: 72a8 cebd 7420 2e3d 3448 093d 92e4 933d
00000070: 3867 70bd 6c72 12bd 70e6 5a3c 942b 7c3d
00000080: 9c6b 0e3d 7d0e 4ebe 9fcb 183e d9d2 663e
00000090: 7643 e63d 5496 183d f815 ab3c 0f42 343e
000000a0: d020 14be 082f 21bd 8b2c 213e c4e4 6cbd
000000b0: 8ee5 ba3d 1ec1 05be 40ee 30be 733e 173e
000000c0: 2d89 093e b059 83bd 66fb e13d 8a42 41be
000000d0: 2fcd 753e a87e e23c 6c2b ccbd ebdc 023e
000000e0: 8020 82bc 20d7 58be a4e8 7a3d d4d6 173d
000000f0: 9d5f 353e cf95 413e dcce b3bd 5026 ccbd
00000100: cab1 9c3d 7199 3d3e 2c4e 423d e81d d53c
00000110: 28e6 51be 9404 153d 3036 b6bc 86ca 0ebe
00000120: 2b9f 593e c0a8 66bd acf5 93bd da73 963d
00000130: 3a7f 7abe f0e3 0fbe 10ce f7bc 5848 83bd
00000140: b06e 30bd 830a 243e 3630 61be e8c0 69bd
00000150: b290 943d c499 693d 9f0f 4b3e 94f2 f1bd
00000160: 29a0 30be ca18 093e ba83 e03d 2190 683e
00000170: e1b5 6abe 3fc6 313d a521 953d 5f6e a5bd
00000180: e192 193d c38b 67bc d8a0 833d 0769 71bd
00000190: 1927 f5bd 3b86 8a3d dc7a b53c 4db1 0bbe
000001a0: 17f0 96be 6859 01be b28f c3bd 29d0 19be
000001b0: e662 293e e12b 0c3e c5f3 353d 9f66 0dbe
000001c0: 5ee9 923d 8002 66bd 8730 a1be 0b04 73bd
000001d0: 2127 993e cc09 033d e2d9 5b3d a2bd 21be
000001e0: 62d8 d8bd b1bc ecbd 21cb a33d c206 43bd
000001f0: 852f 40be e2ad 953d db0b 67be 4094 fabd
00000200: ad69 733e a6fd 543e c59a 41be e56d 823e
00000210: 5e4a e5bd d776 7c3e b679 69be 0b22 923d
00000220: 20a8 cf3c f6e3 123e b33f 833e faea 723e
00000230: 09f7 8b3d eb3f d5bc 305d ed3c 88d9 47be
00000240: 22ee 473e bd5f 0f3e eafb 4fbe b388 0ebe
00000250: 6b4e 63be 3cd0 d1bc 7870 edbd 121e f5bc
00000260: f24c 08bd aca1 353e a48f 4f3e 0f46 9e3e
00000270: 489e 2bbe d5cd 173d d2df 44bd 0c97 983e
00000280: 981f 833e b6fd 8e3c 0a37 59be 90b7 8dbe
00000290: 8f6d 923d e314 193e 08d2 8cbc 39a1 bb3d
000002a0: 8139 2c3d 949a 843e a3d4 a1be 8cf7 893e
000002b0: c8f6 523c 4510 a03e 91dc b43d 3629 053d
000002c0: 2edb 5f3c 7613 663e 0b3d 70be 6ef7 953d
000002d0: fabe 4cbe 1a7a ae3d 2847 703e 5af3 1bbd
000002e0: a17d 74be 6a2d 823d f2c6 3dbe 706c 31bd
000002f0: 98e1 dd3c dd56 293e d12c fd3c 016d 7f3e
00000300: 56b0 283e 0695 b4bb 496a 14be 187d 0e3e
00000310: c2b1 6cbe 13b4 ef3d 2bdf bdbd 75b3 a4bd
00000320: dea1 7dbe 3ef5 41bd f19c 94bd 036d b23d
00000330: c345 bbbd 94c5 86bd e752 1a3e 3826 08be
00000340: 7eb7 c8bd fdf9 67bc 1455 afbd 75a7 dd3d
00000350: b1da d7bd b00a 323e 4616 69bd 2f72 71bd
00000360: 45b8 d23d 4641 913e bf5d 173e e85c 5f3e
00000370: 92d4 9b3d 01b8 813e 04ce 033e a913 403e
00000380: d1e8 ec3b 8be1 5f3d 6dc1 f33d 7f55 49be
00000390: 4e59 8fbe 3236 83ba 2d25 bcbd 3861 413e
000003a0: 97b4 523d c17f fe3d e79b 29bd d8d5 09be
000003b0: 1e47 4abe 70bb acbc a3d9 87bc c1b7 84bd
000003c0: a525 243e 276e 9a3c 3ea0 093e ca22 8f3d
000003d0: 2bea 63bd dd95 64bd 6795 033e 4fce 043d
000003e0: 62f6 04be 7640 71bd c37d 05bd 1406 5abe
000003f0: cf1f 0b3e 2c05 73be a51b 2f3c 729e 073e

l2pLayer.a f4 [176, 1]
0.023810498 -0.043686975 0.04658104 0.025151538 -0.17846379 0.17944677 -0.03996324 -0.17881003
-0.019496 -0.024537668 -0.051300615 0.067699924 -0.11485321 -0.02252052 -0.17478247 -0.15834099
0.07630108 0.05431202 0.084499784 -0.062368654 0.07626081 0.0029206828 -0.15296002 -0.06666625
0.11810138 0.1133444 -0.14669092 -0.03913758 -0.12263057 0.07879988 -0.117672235 -0.11255341
0.16010071 -0.023320831 -0.1283202 0.16693056 0.0905742 -0.17772159 -0.17382039 0.022744942
0.12704742 -0.15743665 -0.06280617 0.13053054 -0.06555232 0.032570466 0.093686454 -0.07654937
0.07358717 0.16426651 0.042440273 -0.05017308 -0.003925237 0.11110198 -0.063999236 -0.1171716
-0.06766449 -0.045736995 0.10564653 -0.006338946 -0.04801847 0.0153080225 -0.18119235 0.124347724
-0.18477337 0.1562465 0.017688425 0.09761417 -0.15324523 0.049635075 -0.028785946 0.11457739
0.001025233 -0.062844574 0.05750077 -0.035067536 -0.009177845 0.04438769 0.18772742 -0.042195905
-0.030745957 0.013250335 0.022287032 -0.13365236 0.1572496 -0.032406442 0.020413067 0.06811771
0.061861128 -0.06706514 -0.23303364 0.111766614 -0.18717559 0.15422599 0.15503198 0.032227196
-0.09288975 -0.20703617 -0.011041091 -0.15359874 -0.24137504 -0.2301706 -0.051801693 -0.21333031
-0.13273636 0.058319196 0.059600405 -0.2395867 -0.16943513 0.1793928 -0.083778284 0.15499224
-0.066224 0.22211736 -0.19641732 0.12666094 0.113666676 -0.10501915 -0.07592016 -0.1213303
0.10605555 -0.11826318 0.052233636 -0.06240379 -0.18314977 0.11815737 -0.03260378 -0.12944968
-0.15717472 -0.07718163 -0.028478108 -0.17996418 0.20798357 0.13405246 0.010933366 0.12315384
-0.06729195 4.6934834e-05 0.04252205 -0.018614037 -0.09799336 0.113966085 0.1305345 0.0803889
0.10961597 -0.19607621 -0.20111953 -0.11224809 -0.14828789 -0.1674355 0.14757298 0.15269445
-0.07956585 -0.0023741212 -0.0063141915 -0.042734537 -0.037921883 0.03583379 0.019687612 -0.04261432
-0.11670599 0.044986833 0.0036930656 -0.061509874 0.029464044 -0.026817845 -0.06598393 0.10558785
-0.0060978793 0.08036226 -0.08112678 -0.06145574 -0.079622485 -0.017201105 0.1645151 -0.10686798
00000000: 3c0e c33c 1df1 32bd c3cb 3e3d 990a ce3c
00000010: 36bf 36be e5c0 373e 7fb0 23bd fa19 37be
00000020: 13b6 9fbc 3803 c9bc 9820 52bd 42a6 8a3d
00000030: 2938 ebbd f47c b8bc 2dfa 32be 2424 22be
00000040: be43 9c3d 4876 5e3d 390e ad3d 4676 7fbd
00000050: a12e 9c3d ed68 3f3b 8da1 1cbe 5188 88bd
00000060: 23df f13d 1c21 e83d 2536 16be ba4e 20bd
00000070: bc25 fbbd d561 a13d 24fe f0bd 6782 e6bd
00000080: 71f1 233e 540b bfbc 5f66 03be d8ef 2a3e
00000090: f77e b93d a6fc 35be f9fd 31be 9a53 ba3c
000000a0: b818 023e 1337 21be 85a0 80bd cca9 053e
000000b0: 4b40 86bd 9c68 053d afde bf3d ebc5 9cbd
000000c0: dfb4 963d 7b35 283e dad5 2d3d 4a82 4dbd
000000d0: 469f 80bb 6f89 e33d 0812 83bd aaf7 efbd
000000e0: ae93 8abd b756 3bbd 355d d83d efb6 cfbb
000000f0: 04af 44bd 80ce 7a3c 7d8a 39be 05aa fe3d
00000100: 3b35 3dbe 15ff 1f3e 51e7 903c f0e9 c73d
00000110: 51ec 1cbe 264e 4b3d 81d0 ebbc 8da7 ea3d
00000120: 1c61 863a a8b4 80bd ed85 6b3d faa2 0fbd
00000130: ac5e 16bc decf 353d 9e3b 403e 9dd5 2cbd
00000140: f2de fbbc ef17 593c 4b93 b63c 2adc 08be
00000150: 0a06 213e 9ebc 04bd 4e39 a73c 4c81 8b3d
00000160: 1862 7d3d 7359 89bd 5fa0 6ebe e5e5 e43d
00000170: f5aa 3fbe 6bed 1d3e b4c0 1e3e aa00 043d
00000180: fb3c bebd 4a01 54be b1e5 34bc fd48 1dbe
00000190: 052b 77be d7b1 6bbe 032e 54bd 4373 5abe
000001a0: 0aec 07be 1ce0 6e3d 8e1f 743d 3756 75be
000001b0: 6780 2dbe bfb2 373e f393 abbd 49b6 1e3e
000001c0: 73a0 87bd bc72 633e 9f21 49be 68b3 013e
000001d0: 13ca e83d 4814 d7bd 077c 9bbd 057c f8bd
000001e0: a733 d93d f733 f2bd f0f2 553d 1e9b 7fbd
000001f0: 9d8b 3bbe 7efc f13d 8b8b 05bd 758e 04be
00000200: 69f2 20be 6711 9ebd ec4a e9bc 8848 38be
00000210: a5f9 543e 0c45 093e dc21 333c 1538 fc3d
00000220: 5dd0 89bd e5db 4438 9a2b 2e3d 777c 98bc
00000230: beb0 c8bd 0d67 e93d d6aa 053e f0a2 a43d
00000240: 567e e03d 34c8 48be 47f2 4dbe 54e2 e5bd
00000250: c8d8 17be 3674 2bbe 5f1d 173e ef5b 1c3e
00000260: 6cf3 a2bd 2597 1bbb 47e7 cebb 690a 2fbd
00000270: fa53 1bbd 74c6 123d ea47 a13c 5a8c 2ebd
00000280: 8d03 efbd 1d44 383d 5c07 723b c7f1 7bbd
00000290: 945e f13c 19b1 dbbc 9522 87bd 713e d83d
000002a0: b8d0 c7bb f894 a43d cc25 a6bd 04b9 7bbd
000002b0: 1d11 a3bd 55e9 8cbc a576 283e 99dd dabd

phaseLayer.W f4 [24, 26]
0.13569814 -0.21137153 -2.3249575e-05 0.25456917 -0.014406238 -0.26450768 -0.25030515 -0.13280436
-0.19821404 -0.17194629 -0.27668133 -0.15503198 0.22461203 -0.01288002 -0.26000708 -0.07867911
-0.031057602 0.22239362 -0.14964727 0.119508386 -0.037258476 -0.12919205 0.25145742 -0.31735697
0.07160757 -0.2838016 -0.24885137 0.29336536 -0.09046087 -0.1816434 0.11216158 0.21856914
-0.067349054 -0.2018374 -0.3260988 0.25110796 -0.15757921 0.26225543 -0.29107624 -0.04793795
0.2152339 0.12071573 -0.31287304 -0.36541176 -0.3809852 0.2797834 -0.09069598 0.3069737
0.20401779 0.3269872 -0.15334448 0.15432592 0.1286726 -0.044958588 -0.19812949 -0.2778829
0.23907234 0.03489518 -0.042689 0.27101383 0.0064939936 -0.28570673 -0.12654965 0.3029895
-0.21374498 0.093561284 0.32457927 0.30573058 -0.1517829 -0.25329974 -0.2550029 -0.2555939
-0.2395009 0.27522388 -0.26948106 -0.27675247 0.06582261 0.19391447 -0.028727379 -0.024677303
-0.18227136 -0.18926358 -0.18501724 0.3112504 -0.3466798 0.322768 -0.30748826 0.3350276
0.12899168 -0.0024438023 -0.17558782 0.1063706 0.11968514 -0.34210384 -0.21818532 0.07596631
-0.3263253 -0.22217676 -0.33545333 0.35623536 0.23483953 0.36311796 -0.2311207 0.031656068
-0.21636373 0.3011188 0.046990417 -0.3117094 0.17289107 0.20882371 -0.38510895 -0.14239709
-0.1126454 0.29537374 0.31107876 0.26265627 -0.31703272 0.15427817 -0.057687987 -0.11943855
0.05793881 0.1415283 -0.15008084 -0.1345138 -0.32929173 -0.0049855183 0.3742625 0.35949802
-0.26625124 0.023349121 0.18429548 -0.2910003 -0.02842513 -0.21290152 0.32589582 0.0061873468
0.21080118 0.37170026 -0.10288673 0.10477404 0.28690958 -0.04592327 0.1465732 0.19104064
-0.01793017 -0.047783773 -0.056477215 -0.06907532 0.022874491 -0.32199213 0.15119876 -0.052659202
-0.04927462 0.045563843 -0.15675549 0.34504145 0.0837985 -0.016909005 -0.0027306215 -0.2669755
0.15326877 -0.048844866 -0.21060921 0.21422265 -0.29748327 0.088129506 0.3493793 -0.13516627
-0.20394829 -0.11154544 0.23590569 -0.23074616 -0.2847886 -0.1097045 -0.025836023 0.23106036
0.08823318 0.017596116 -0.278285 -0.010774383 -0.23784542 -0.104782104 0.080107085 0.2282629
-0.111704305 -0.056101203 -0.16390541 -0.0446864 0.09299283 -0.053394374 0.02553237 0.18500574
-0.10594361 0.01033278 0.07537296 -0.2544823 -0.15264736 -0.2433403 0.337262 -0.1257899
-0.03613449 0.3089482 0.28496203 0.19378741 0.14406797 -0.057329163 -0.16138558 -0.2300294
-0.2519626 0.059997704 -0.13998109 -0.23575732 0.14962655 0.38275605 0.16465624 0.08376076
0.13080873 -0.21982294 0.076884046 0.13695037 -0.13812745 0.14908305 0.30227795 -0.41350532
-0.35346246 -0.32828248 -0.23592757 0.005624099 -0.21435666 0.30606338 -0.2660874 -0.12384389
-0.09849631 0.2744687 -0.14707883 0.1193475 0.12881334 -0.20231786 -0.23579262 -0.24165565
0.14859727 0.23413405 -0.21840866 -0.28929704 0.09498522 0.023899892 0.23393491 -0.21379371
-0.07636269 -0.17872152 -0.059066724 0.007615155 -0.2932939 -0.10766213 -0.18363477 -0.38026756
00000000: 74f4 0a3e c771 58be 1508 c3b7 e456 823e
00000010: 2408 6cbc 8d6d 87be ff27 80be defd 07be
00000020: 9ff8 4abe b012 30be 2da9 8dbe b4c0 1ebe
00000030: b200 663e b806 53bc a61f 85be 8322 a1bd
00000040: 836c febc 27bb 633e 223d 19be d0c0 f43d
00000050: 589c 18bd ec4a 04be 07bf 803e 9d7c a2be
00000060: fda6 923d 714e 91be e5d2 7ebe fc33 963e
00000070: 8c43 b9bd ba00 3abe f8b4 e53d 97d0 5f3e
00000080: 4dee 89bd 77ae 4ebe 6cf6 a6be 3991 803e
00000090: 725c 21be 5846 863e f207 95be 955a 44bd
000000a0: 4766 5c3e cf39 f73d e530 a0be 4017 bbbe
000000b0: 7e10 c3be c53f 8f3e d0be b9bd a82b 9d3e
000000c0: 0aea 503e de6a a73e 5606 1dbe 9d07 1e3e
000000d0: c0c2 033e 7f26 38bd 75e2 4abe ab46 8ebe
000000e0: 61cf 743e 40ee 0e3d a9da 2ebd 53c2 8a3e
000000f0: 91cb d43b 2748 92be 3b96 01be 7121 9b3e
00000100: f7df 5abe 0f9d bf3d 412f a63e b888 9c3e
00000110: fa6c 1bbe 81b0 81be bd8f 82be 34dd 82be
00000120: b93f 75be 25ea 8c3e 6cf9 89be 80b2 8dbe
00000130: 01ce 863d 8491 463e ae55 ebbc 0e28 cabc
00000140: 58a5 3abe 50ce 41be 2975 3dbe 365c 9f3e
00000150: 0480 b1be d941 a53e 1a6f 9dbe bd88 ab3e
00000160: 6516 043e 3328 20bb 4bcd 33be d4d8 d93d
00000170: 7c1d f53d 3c28 afbe f96b 5fbe 3a94 9b3d
00000180: 1c14 a7be 4e82 63be 8ac0 abbe 7b64 b63e
00000190: c679 703e 99ea b93e e8aa 6cbe cba9 013d
000001a0: 748e 5dbe 3e2c 9a3e 0679 403d 6098 9fbe
000001b0: 5b0a 313e e2d5 553e 002d c5be 8bd0 11be
000001c0: a2b2 e6bd 3a3b 973e b745 9f3e e27a 863e
000001d0: 1d52 a2be 19fb 1d3e 3d4a 6cbd 339c f4bd
000001e0: 3f51 6d3d cbec 103e cbae 19be fcbd 09be
000001f0: ed98 a8be 8f5d a3bb 569f bf3e 2010 b83e
00000200: 1552 88be a846 bf3c f4b7 3c3e fefd 94be
00000210: d1db e8bc db02 5abe d1db a63e 3abf ca3b
00000220: 44dc 573e 7f4f be3e 47b6 d2bd c693 d63d
00000230: d0e5 923e 0a1a 3cbd 4917 163e 28a0 433e
00000240: 4be2 92bc ebb8 43bd a754 67bd 5d77 8dbd
00000250: 4963 bb3c 27dc a4be d9d3 1a3e 2db1 57bd
00000260: 2fd4 49bd 27a1 3a3d 8384 20be 46a9 b03e
00000270: 8c9e ab3d c184 8abc 3af4 32bb 03b1 88be
00000280: 7df2 1c3e 8e11 48bd f1a9 57be 2f5d 5b3e
00000290: ba4f 98be 3e7d b43d d8e1 b23e 0769 0abe
000002a0: d2d7 50be f071 e4bd 4391 713e b948 6cbe
000002b0: d0cf 91be c1ac e0bd 11a6 d3bc 169b 6c3e
000002c0: 99b3 b43d bb25 903c 5f7b 8ebe 0a87 30bc
000002d0: c08d 73be 0098 d6bd 2f0f a43d c0bd 693e
000002e0: 3ac5 e4bd 60ca 65bd d2d6 27be 1609 37bd
000002f0: 0673 be3d 0fb4 5abd 4329 d13c 2572 3d3e
00000300: f7f8 d8bd d24a 293c 235d 9a3d 814b 82be
00000310: 974f 1cbe 332e 79be 9bad ac3e 11cf 00be
00000320: c201 14bd 752e 9e3e 8be6 913e 3570 463e
00000330: 8e86 133e fcd1 6abd 4342 25be d48c 6bbe
00000340: 3e01 81be 27c0 753d 3457 0fbe 5e6a 71be
00000350: b437 193e 9af8 c33e a59b 283e c38a ab3d
00000360: b9f2 053e 4419 61be 6275 9d3d b83c 0c3e
00000370: 4871 0dbe 3aa9 183e 2dc4 9a3e f8b6 d3be
00000380: 08f9 b4be a414 a8be ff96 71be 5d4a b83b
00000390: 5080 5bbe 57b4 9c3e 9c3c 88be dea1 fdbd
000003a0: 6fb8 c9bd 2987 8c3e d59b 16be 766c f43d
000003b0: a5e7 033e 6a2c 4fbe 9f73 71be 9474 77be
000003c0: e229 183e d6c0 6f3e 85a6 5fbe be1e 94be
000003d0: 9c87 c23d b5c9 c33c a28c 6f3e bdec 5abe
000003e0: 0b64 9cbd c602 37be f3ef 71bd 8d88 f93b
000003f0: 9e2a 96be f67d dcbd c10a 3cbe 6eb2 c2be

p2iLayer.W f4 [24, 176]
0.13448031 0.12276974 -0.15254276 -0.02935138 -0.122762196 -0.13665815 0.065182984 0.018393736
-0.16329959 -0.0963078 0.012039464 -0.12702586 -0.13795365 0.07283372 -0.17197205 -0.060330886
-0.11526013 0.19141729 0.04693581 0.15550725 0.0053287027 -0.0136016775 -0.010231541 0.04353207
-0.15085565 -0.062873304 -0.11793846 -0.047449052 0.126188 0.105125375 -0.13264148 -0.082916036
0.07389235 -0.0046084058 0.016226208 0.04533278 0.11201726 -0.1487015 -0.18330583 0.15684722
-0.12075094 -0.05732705 0.04252721 0.1369592 0.16832235 -0.12044544 -0.04742612 -0.06503639
-0.025430217 -0.14157641 -0.071200326 0.12528095 0.10688096 0.0053197946 0.08964307 -0.011942028
-0.054943927 0.124145426 -0.07810456 -0.082701005 0.12107007 -0.119984016 0.14656171 -0.012150236
-0.090115994 0.12909748 0.014043448 -0.1123953 -0.010444235 0.043622978 0.07754885 -0.060104813
-0.13284664 -0.09274565 -0.10981864 -0.11912776 0.012543624 -0.14243954 -0.02912145 -0.12220533
0.029811502 0.1665047 0.055411387 -0.14604141 0.19227454 0.028882278 0.14139012 0.0656874
-0.10684056 -0.17569873 -0.051562008 0.0488538 -0.056840837 -0.03624546 0.13956335 0.003394573
-0.1097347 -0.058534846 0.002277812 0.087262556 0.07118389 -0.11900396 0.05776867 -0.1187772
-0.099352255 0.024194371 -0.15235643 0.060935684 -0.10430458 -0.19229783 0.026024565 -0.000753093
-0.027179005 -0.15159984 -0.16435143 -0.0845707 0.09655814 -0.08288315 -0.09924078 -0.02343979
-0.08892652 -0.0074912403 -0.056436032 -0.023489589 0.0356087 -0.12161292 0.089255795 0.09732583
0.13900664 -0.10424976 -0.008558807 -0.1120029 -0.008477236 -0.102426015 0.074051104 0.050249018
0.120215386 -0.07820328 -0.12722382 0.13336281 0.03512146 0.049592767 0.14023934 -0.05202955
-0.02495219 -0.12769167 -0.13826042 -0.08682318 0.097035706 0.15845253 0.10841173 -0.095979236
-0.06565456 -0.014412224 -0.050774463 0.03201644 0.17518486 -0.091255166 -0.051718086 0.03507799
0.13568437 0.10095949 -0.018576289 -0.06674406 -0.1145384 0.048357673 -0.056913402 0.15170282
0.1390678 -0.016255366 -0.1207213 -0.008202509 -0.11087579 0.019953614 0.01734417 0.13649622
0.11761923 -0.06805757 -0.1826744 -0.0049852584 0.16564094 0.036157973 0.123659715 -0.08958679
-0.20106971 -0.0783158 0.11391057 0.15587947 0.1371833 -0.019603126 -0.08622135 0.043932755
-0.069188625 -0.12909211 0.015304861 -0.04310972 -0.17619756 -0.18533352 -0.10662969 0.035759006
-0.13446678 0.14239776 -0.18507583 0.0712062 0.018258281 0.05668349 0.033079974 0.06238485
0.059555814 -0.21280648 0.013256242 0.19269818 -0.0079186065 0.0026115912 -0.07330292 0.19214077
0.14056052 0.09451527 0.03745054 -0.16910219 0.1529497 0.14890204 -0.026167374 0.063238904
-0.051218748 0.15968952 0.08109128 0.048976883 -0.005088492 -0.08482234 -0.060350228 0.2094591
0.16299763 -0.13647416 -0.029204028 -0.09118996 0.010062264 0.081589945 0.13470626 -0.13465238
-0.17254595 0.022225272 0.021132492 -0.028497482 0.10046397 0.040673956 -0.2352258 0.17399146
-0.031028185 0.022816999 0.012332064 0.20172037 -0.17394891 0.040655527 -0.16095524 0.08691553
00000000: 35b5 093e b46e fb3d 2b34 1cbe 4e72 f0bc
00000010: bf6a fbbd 1df0 0bbe a87e 853d 76ae 963c
00000020: 0238 27be 063d c5bd 2c41 453c 1113 02be
00000030: b943 0dbe d829 953d 7119 30be 851d 77bd
00000040: 810d ecbd e502 443e c43f 403d 4b3d 1f3e
00000050: 669c ae3b 92d9 5ebc 31a2 27bc af4e 323d
00000060: e779 1abe b8c3 80bd b889 f1bd f059 42bd
00000070: 6d37 013e f94b d73d 2bd3 07be e2cf a9bd
00000080: df54 973d 1c02 97bb d3ec 843c ddae 393d
00000090: 4e69 e53d 3545 18be 86b4 3bbe 8f9c 203e
000000a0: 454c f7bd c5cf 6abd 0331 2e3d 083f 0c3e
000000b0: b25c 2c3e 19ac f6bd e441 42bd cd31 85bd
000000c0: 0853 d0bc 68f9 10be 7ad1 91bd a649 003e
000000d0: 68e4 da3d ac51 ae3b c996 b73d 7fa8 43bc
000000e0: e20c 61bd f53f fe3d 49f5 9fbd 255f a9bd
000000f0: 96f3 f73d 2eba f5bd 4614 163e c911 47bc
00000100: bc8e b8bd 2132 043e 7d16 663c 822f e6bd
00000110: 4c1e 2bbc 02ae 323d eed1 9e3d 7730 76bd
00000120: f308 08be 6ef1 bdbd 98e8 e0bd 41f9 f3bd
00000130: c683 4d3c acdb 11be 1b90 eebc ca46 fabd
00000140: 4037 f43c 3580 2a3e 0df7 623d e18b 15be
00000150: 9ee3 443e 879a ec3c 92c8 103e 1e87 863d
00000160: 39cf dabd 5eea 33be af32 53bd ec1a 483d
00000170: f0d1 68bd 1f76 14bd b2e9 0e3e 7c77 5e3b
00000180: 96bc e0bd 3cc2 6fbd 5847 153b b6b6 b23d
00000190: dcc8 913d 59b8 f3bd d79e 6c3d 7641 f3bd
000001a0: 3279 cbbd 4633 c63c 5303 1cbe b297 793d
000001b0: a49d d5bd b9e9 44be 7831 d53c 376b 45ba
000001c0: 81a6 debc fd3c 1bbe be4b 28be 6733 adbd
000001d0: 46c0 c53d a4be a9bd c03e cbbd cd04 c0bc
000001e0: 1b1f b6bd 1479 f5bb 7829 67bd 3d6d c0bc
000001f0: 6eda 113d 3210 f9bd becb b63d c452 c73d
00000200: c257 0e3e e680 d5bd 3d3a 0cbc c761 e5bd
00000210: 1be4 0abc bbc4 d1bd 1ba8 973d ead1 4d3d
00000220: 7c33 f63d 0b29 a0bd f646 02be 4390 083e
00000230: 85db 0f3d c921 4b3d e79a 0f3e f01c 55bd
00000240: 8968 ccbc 9bc1 02be 2494 0dbe 5ad0 b1bd
00000250: a8ba c63d 6141 223e f806 de3d c390 c4bd
00000260: e675 86bd 4021 6cbc e2f8 4fbd ac23 033d
00000270: a963 333e fde3 babd 58d6 53bd f0ad 0f3d
00000280: d8f0 0a3e d9c3 ce3d 4d2d 98bc 1cb1 88bd
00000290: 1c93 eabd b212 463d 071e 69bd fc57 1b3e
000002a0: ca67 0e3e f929 85bc bb3c f7bd d163 06bc
000002b0: d912 e3bd c375 a33c 5c15 8e3c aac5 0b3e
000002c0: 5ae2 f03d c461 8bbd ff0e 3bbe 615b a3bb
000002d0: c79d 293e 621a 143d 4e41 fd3d 4779 b7bd
000002e0: 38e5 4dbe 0964 a0bd f249 e93d de9e 1f3e
000002f0: c779 0c3e bc96 a0bc d294 b0bd d5f2 333d
00000300: c4b2 8dbd b930 04be 3dc1 7a3c d193 30bd
00000310: 226d 34be 12c8 3dbe ab60 dabd 0978 123d
00000320: a9b1 09be b8d0 113e 8584 3dbe 8ed4 913d
00000330: 6492 953c f22c 683d de7e 073d 4287 7f3d
00000340: ccf0 733d f1e9 59be b530 593c ac52 453e
00000350: 0bbd 01bc 3b27 2b3b d71f 96bd 8dc0 443e
00000360: 19ef 0f3e 3991 c13d bd65 193d 2029 2dbe
00000370: d99e 1c3e c779 183e f65c d6bc 6683 813d
00000380: c0ca 51bd a685 233e 2f13 a63d fc9b 483d
00000390: 5dbd a6bb 56b7 adbd cd31 77bd 727c 563e
000003a0: dae8 263e e2bf 0bbe 493d efbc cdc1 babd
000003b0: 32dc 243c a118 a73d 70f0 093e 50e2 09be
000003c0: e3af 30be c611 b63c 0c1e ad3c 8d73 e9bc
000003d0: 0ec0 cd3d bc99 263d 08df 70be d12a 323e
000003e0: d22e febc b7ea ba3c 6d0c 4a3c c98f 4e3e
000003f0: aa1f 32be 6986 263d 73d1 24be c500 b23d

p2iLayer.a f4 [352, 1]
-0.11076638 0.09512874 0.06276084 -0.10901092 -0.056654006 -0.0092228 0.08954023 0.11787199
-0.03503906 0.12967448 0.1202179 -0.10929214 0.09689238 0.10332772 -0.063063875 0.032274056
0.038759235 -0.10929972 -0.12127743 0.09433664 0.029649507 0.11369172 0.023458764 -0.066832244
-0.013341844 0.10630654 0.028894888 0.11871548 0.005557414 0.07782951 -0.058283318 0.11713385
-0.015523114 0.054355565 0.033200014 -0.09740099 -0.06991307 -0.119720034 -0.056069404 0.12861864
0.026861552 0.024920758 0.093987584 0.034714375 0.06042198 -0.1069363 0.12389234 0.12036853
-0.05803597 -0.022330344 0.09943893 -0.035593078 -0.010594973 -0.12453132 -0.084667675 0.03952783
-0.06788271 0.039688036 -0.045389142 0.123521104 -0.069475375 0.024635926 -0.112569846 -0.09625504
-0.03624933 0.0226416 -0.0040652067 0.12824503 0.028732115 0.12241702 -0.026572227 0.0045689894
0.11565486 -0.028795442 0.12581548 0.065753125 0.11748881 0.084588416 0.08534507 -0.069062956
-0.04352825 0.05187665 0.10666324 0.07224819 -0.11062353 -0.12302739 0.019171653 -0.025277039
0.035222057 0.07622045 -0.045749508 -0.07111336 0.011183342 -0.09306074 -0.06468201 -0.017384883
0.000662649 0.10012842 0.11312952 -0.035797257 0.050960377 -0.054122888 -0.10667942 -0.018218765
0.07400982 -0.11531662 0.011598718 0.116045184 -0.04931858 0.033538107 -0.12348885 0.02632595
-0.059430245 0.12437547 -0.058000732 -0.12099608 -0.11906628 -0.08462416 -0.042922508 0.047929756
0.106521085 -0.029618477 0.027815012 -0.05768658 0.11408555 0.0338796 0.06469137 -0.023965843
-0.014649407 -0.07859357 0.07243126 -0.011489449 0.038485486 0.012830254 0.098145194 -0.103889845
-0.110136166 -0.0026403195 0.01260897 -0.090608686 0.012829743 0.0050373087 0.026791401 0.040824227
0.014015061 0.09837618 -0.07189606 -0.054677907 -0.026996678 -0.005483584 0.08259921 0.066307396
-0.12241494 0.0072392793 -0.12656465 0.11591932 -0.11477609 0.12299041 -0.047416355 -0.07050165
-0.039298333 0.1291792 -0.08790326 -0.03333168 -0.054502014 0.09589674 -0.0297537 0.11790383
0.12063358 0.023428215 -0.07124664 0.018929165 0.0325465 -0.061770275 0.03505796 0.12542179
0.0016172319 0.06324375 -0.09907035 -0.17763586 0.17845179 -0.010721007 0.10251526 0.020954568
-0.0645079 -0.066294245 0.050442997 -0.034955245 0.081256546 -0.024245605 -0.22630349 0.02890216
0.11302402 -0.025343759 0.08130324 0.06655462 -0.041282207 -0.08463551 -0.09963855 -0.076273985
-0.14771727 0.175784 -0.13077812 -0.1044864 -0.1634986 0.17488986 -0.17656602 0.113015756
0.041906185 -0.12854697 -0.03868767 0.22400738 0.037261587 0.023065887 -0.030866923 0.11753897
0.0999912 0.14501032 0.049255893 -0.025732905 0.026702585 -0.006712388 -0.14205171 -0.08391517
0.10415497 0.111930914 0.10891144 0.04470531 -0.15835704 -0.10315778 0.10546442 0.102141485
0.046362218 0.058328155 0.028832497 -0.07342482 0.14439031 0.115974315 0.16167207 -0.079645656
0.047052335 0.22210214 -0.09523496 -0.14056529 0.025895886 -0.10736308 -0.18396594 0.17140585
0.040606733 -0.0027828687 -0.06837524 -0.024942303 -0.12551628 0.04754301 -0.117639124 0.15875451
00000000: 7cd9 e2bd dbd2 c23d c188 803d 1e41 dfbd
00000010: 080e 68bd 3a1b 17bc de60 b73d df66 f13d
00000020: 1e85 0fbd 63c9 043e cd34 f63d 8fd4 dfbd
00000030: 836f c63d 7c9d d33d a227 81bd cd31 043d
00000040: 01c2 1e3d 88d8 dfbd 4d60 f8bd 9133 c13d
00000050: 86e3 f23c 34d7 e83d 982c c03c 58df 88bd
00000060: c097 5abc 3eb7 d93d f9b4 ec3c 1a21 f33d
00000070: f81a b63b 1465 9f3d 7dba 6ebd dfe3 ef3d
00000080: a954 7ebc f1a3 5e3d bdfc 073d 2c7a c7bd
00000090: 952e 8fbd c72f f5bd 08a9 65bd 9bb4 033e
000000a0: c20c dc3c 9e26 cc3c 907c c03d a930 0e3d
000000b0: 0a7d 773d 6b01 dbbd 44bb fd3d c783 f63d
000000c0: 20b7 6dbd 20ee b6bc a3a6 cb3d 0cca 11bd
000000d0: 8a96 2dbc 470a ffbd 3f66 adbd efe7 213d
000000e0: 1706 8bbd ec8f 223d f7e9 39bd a2f8 fc3d
000000f0: 1b49 8ebd 48d1 c93c 058b e6bd 5d21 c5bd
00000100: 2d7a 14bd e07a b93c 6d35 85bb aa52 033e
00000110: 9d5f eb3c c6b5 fa3d 00ae d9bc 76b7 953b
00000120: 75dc ec3d 6be4 ebbc c6d5 003e 93a9 863d
00000130: f99d f03d b13c ad3d 65c9 ae3d e170 8dbd
00000140: ae4a 32bd 9c7c 543d 4272 da3d dcf6 933d
00000150: 978e e2bd c9f5 fbbd df0d 9d3c cb11 cfbc
00000160: 0145 103d 7819 9c3d d663 3bbd e2a3 91bd
00000170: 563a 373c a196 bebd 0078 84bd be6a 8ebc
00000180: 9fb5 2d3a 2110 cd3d 73b0 e73d 25a0 12bd
00000190: d4bb 503d f6af 5dbd bd7a dabd 853f 95bc
000001a0: 7692 973d 1f2b ecbd 8d08 3e3c 19a9 ed3d
000001b0: 4802 4abd 415f 093d b9e7 fcbd 85a9 d73c
000001c0: 216d 73bd 91b8 fe3d 2d92 6dbd cbcc f7bd
000001d0: 06d9 f3bd 6e4f adbd 83cf 2fbd fe51 443d
000001e0: ba27 da3d 73a2 f2bc 4fdc e33c c348 6cbd
000001f0: afa5 e93d 56c5 0a3d e97c 843d 0454 c4bc
00000200: 1104 70bc aaf5 a0bd d756 943d 3e3e 3cbc
00000210: f5a2 1d3d fc35 523c 5900 c93d 33c4 d4bd
00000220: 128f e1bd 3609 2dbb da95 4e3c 0c91 b9bd
00000230: d833 523c 0210 a53b a479 db3c 4e37 273d
00000240: 6d9f 653c 7379 c93d 3e3e 93bd f1f5 5fbd
00000250: 2328 ddbc a3af b3bb c629 a93d 2ccc 873d
00000260: afb4 fabd 7a37 ed3b 2a9a 01be 1c67 ed3d
00000270: ba0f ebbd 65e2 fb3d a737 42bd 2b63 90bd
00000280: 4af7 20bd 8d47 043e a006 b4bd cd86 08bd
00000290: 813d 5fbd 8365 c43d 08be f3bc 9077 f13d
000002a0: bd0e f73d 87ec bf3c c2e9 91bd 5611 9b3c
000002b0: 7b4f 053d d402 7dbd ef98 0f3d 926e 003e
000002c0: 4cf9 d33a f085 813d 65e5 cabd 2de6 35be
000002d0: 11bc 363e 2aa7 2fbc 85f3 d13d eaa8 ab3c
000002e0: b81c 84bd 47c5 87bd 519d 4e3d 3b2d 0fbd
000002f0: d569 a63d b89e c6bc 1abc 67be 39c4 ec3c
00000300: 2379 e73d b79d cfbc 5082 a63d ca4d 883d
00000310: 8817 29bd 6255 adbd 4c0f ccbd 8935 9cbd
00000320: 3243 17be b900 343e b3ea 05be f7fc d5bd
00000330: 2d6c 27be 5416 333e b9cd 34be ce74 e73d
00000340: d2a5 2b3d d1a1 03be f676 1ebd 3162 653e
00000350: 9b9f 183d acf4 bc3c a1dc fcbc 46b8 f03d
00000360: 30c8 cc3d 967d 143e 8cc0 493d d0cd d2bc
00000370: 61bf da3c 97f3 dbbb 0176 11be b7db abbd
00000380: 334f d53d 093c e53d f60c df3d ea1c 373d
00000390: 5928 22be 6344 d3bd bbfd d73d 8e2f d13d
000003a0: 4fe6 3d3d 81e9 6e3d 2132 ec3c c15f 96bd
000003b0: 0edb 133e f183 ed3d 5d8d 253e 431d a3bd
000003c0: f3b9 403d be6e 633e 8c0a c3bd 59f0 0fbe
000003d0: 9c23 d43c 2de1 dbbd 9161 3cbe 0485 2f3e
000003e0: 3f53 263d ca60 36bb 5108 8cbd cd53 ccbc
000003f0: 5787 00be 76bc 423d c8ec f0bd 8b90 223e

intersectionLayer.W f4 [48, 46]
0.14886393 -0.085206255 0.10109346 -0.119256325 0.0025831505 -0.22400403 0.21249239 -0.10323553
-0.12761755 -0.20224828 0.036452632 -0.12522216 0.29860973 -0.26278234 0.031666912 0.1728476
-0.037232883 0.20527999 0.17435992 0.1588054 0.059187677 0.11524532 -0.05110784 -0.1874487
-0.28617913 -0.17588136 -0.16841254 0.10825928 -0.051733527 0.07574242 0.092293836 -0.08407494
-0.020538505 -0.10441136 0.06308234 -0.23175868 -0.046903245 -0.027838942 -0.17216314 0.23601273
0.07613047 -0.12771966 0.18925078 0.019739693 -0.082467265 0.19820498 -0.10680562 -0.056741327
-0.017314568 -0.178156 -0.10735189 0.08964385 0.124349274 0.07751914 0.1514246 -0.079765044
-0.0020354087 -0.021102093 0.20813037 -0.19554362 0.10085603 -0.15021579 -0.19671905 -0.08970604
-0.18462554 0.16217901 -0.17291555 -0.027479842 -0.19723265 -0.02370168 -0.2199349 -0.16683081
-0.008976796 -0.098808095 -0.11635765 0.21392408 -0.19504547 -0.049772076 0.1121616 -0.12554382
-0.08789908 0.08809145 -0.23423675 -0.03911079 -0.10882881 0.20912015 0.044360057 0.20574863
0.27847195 -0.1093965 -0.14598753 0.07555128 0.20500422 0.11824107 0.25941843 0.18166588
-0.21677172 -0.038626324 -0.10412812 -0.19675383 0.118664816 0.052914117 0.104481645 0.1736124
0.03905525 -0.23804432 -0.14674845 -0.1809532 -0.21986991 -0.09407947 -0.02403676 0.12369111
-0.15575208 -0.045483295 -0.21164362 0.21804652 -0.01410145 -0.11348856 0.1980893 -0.13704813
-0.16183847 0.17121883 0.060110684 -0.06561814 0.053210095 0.06065066 -0.10326454 -0.1477571
-0.054311074 -0.07517872 -0.21051364 0.14547853 -0.17131042 0.100153424 0.26671624 0.25371423
0.051670197 -0.27925694 0.18070376 0.1574809 0.17189805 0.0025630693 -0.14668514 0.046255328
0.23906876 -0.014266855 0.1477108 -0.16974622 0.0036253529 0.2647877 0.033819385 0.103952825
-0.04349123 0.11073864 0.07475821 0.052894052 0.17907016 -0.06989169 -0.21989673 0.10237489
-0.23937751 -0.26344275 -0.21156801 -0.22680368 -0.18819666 0.22682717 -0.054330483 -0.2618996
-0.21190137 -0.058484785 -0.116233535 0.16447218 -0.259313 -0.13282436 -0.27414867 -0.12226432
-0.16967624 0.034100983 0.09806173 0.10110683 0.10172957 -0.0358915 0.14397025 -0.25519168
-0.16034478 0.14584592 0.08878931 0.20732826 -0.1875419 0.01760852 0.05810352 0.010367831
-0.24183841 0.08123093 0.0019783052 -0.18452005 0.18644506 -0.19355248 -0.16051003 -0.13284777
0.08813041 0.08881611 0.17888562 0.1538655 0.034316577 0.09268971 0.19985028 0.17939688
-0.04854483 0.15186934 -0.21888144 -0.19129835 0.117361635 0.22105898 -0.07621037 -0.14175078
0.122343674 0.046955742 0.11803281 0.028306613 0.231607 0.10356881 0.2301077 -0.024156442
-0.11701265 -0.053964514 -0.12198658 -0.14727801 0.12379437 -0.062464636 -0.14841408 -0.23921995
0.31477022 0.18291053 -0.17916301 0.0569289 -0.08188797 -0.16016345 0.2361424 -0.12930265
-0.16765898 -0.073444046 -0.13886109 0.21005765 -0.14911255 0.08417478 -0.02665186 0.13136299
0.22923677 0.111168064 0.17377535 0.050625756 0.16299242 0.11919394 -0.06416304 0.117553905
00000000: c96f 183e 9e80 aebd 170a cf3d a93c f4bd
00000010: 134a 293b 5061 65be 9b97 593e 266d d3bd
00000020: 2dae 02be 2c1a 4fbe 5b4f 153d 3d3a 00be
00000030: 60e3 983e 688b 86be 2ab5 013d f6fe 303e
00000040: 8281 18bd eb34 523e 688b 323e e29d 223e
00000050: c76e 723d bd05 ec3d 7456 51bd 8df2 3fbe
00000060: 1286 92be 3e1a 34be 5674 2cbe 0bb7 dd3d
00000070: 89e6 53bd d81e 9b3d 8d04 bd3d 7b2f acbd
00000080: 5e40 a8bc a0d5 d5bd 5031 813d 2652 6dbe
00000090: 9e1d 40bd 7e0e e4bc 894b 30be 52ad 713e
000000a0: 4bea 9b3d f1c8 02be f5ca 413e 23b5 a13c
000000b0: 99e4 a8bd 3ff6 4a3e e8bc dabd 9869 68bd
000000c0: 48d7 8dbc 876e 36be 4fdb dbbd 3297 b73d
000000d0: d5aa fe3d 5bc2 9e3d 0d0f 1b3e db5b a3bd
000000e0: 7e64 05bb 4cde acbc 2120 553e 963c 48be
000000f0: 9b8d ce3d 2bd2 19be b870 49be cdb7 b7bd
00000100: 7a0e 3dbe 4112 263e c610 31be 681d e1bc
00000110: 5bf7 49be 072a c2bc 9d36 61be b2d5 2abe
00000120: 6913 13bc e65b cabd eb4c eebd ea0e 5b3e
00000130: 00ba 47be cedd 4bbd fbb4 e53d 8f8e 00be
00000140: 6f04 b4bd 4a69 b43d c2db 6fbe a332 20bd
00000150: a4e1 debd 9823 563e e4b2 353d c5af 523e
00000160: e093 8e3e 460b e0bd c17d 15be a1ba 9a3d
00000170: a0ec 513e 6028 f23d 7ed2 843e 9f06 3a3e
00000180: 68f9 5dbe a336 1ebd 2041 d5bd d679 49be
00000190: 8a06 f33d 79bc 583d 79fa d53d 73c7 313e
000001a0: 66f8 1f3d e4c1 73be 3a45 16be cc4b 39be
000001b0: 9425 61be bdac c0bd bde8 c4bc c451 fd3d
000001c0: 797d 1fbe b14c 3abd 1bb9 58be 9647 5f3e
000001d0: c509 67bc b16c e8bd ecd7 4a3e 5856 0cbe
000001e0: fcb8 25be fd53 2f3e 9f36 763d ce62 86bd
000001f0: d4f2 593d d46c 783d 5c7c d3bd a34d 17be
00000200: 4a75 5ebd 4df7 99bd e390 57be 53f8 143e
00000210: 006c 2fbe 3d1d cd3d 088f 883e d5e6 813e
00000220: 21a4 533d c4fa 8ebe 680a 393e ac42 213e
00000230: 0b06 303e 2bf9 273b a134 16be 3a76 3d3d
00000240: 71ce 743e 87bf 69bc 8041 173e f4d1 2dbe
00000250: 5497 6d3b 4192 873e 3286 0a3d 38e5 d43d
00000260: dc23 32bd f1ca e23d d51a 993d 6fa7 583d
00000270: 2b5e 373e 6023 8fbd 9c2c 61be eda9 d13d
00000280: 611f 75be f8e1 86be 49a5 58be 393f 68be
00000290: a0b6 40be 6245 683e a489 5ebd b417 86be
000002a0: acfc 58be be8d 6fbd d90b eebd 656b 283e
000002b0: acc4 84be 1c03 08be 375d 8cbe b765 fabd
000002c0: 9cbf 2dbe 79ad 0b3d 97d4 c83d 1911 cf3d
000002d0: 9857 d03d f702 13bd f06c 133e 7ca8 82be
000002e0: 6c31 24be a258 153e 2bd7 b53d dc4d 543e
000002f0: fc0a 40be be3f 903c f5fd 6d3d d6dd 293c
00000300: 7da4 77be 675c a63d 74a6 013b d3f2 3cbe
00000310: 74eb 3e3e 9f32 46be be5c 24be 3f09 08be
00000320: b77d b43d 38e5 b53d cb2d 373e eb8e 1d3e
00000330: 8a8f 0c3d 1ad4 bd3d 8da5 4c3e d1b3 373e
00000340: f2d6 46bd a383 1b3e 7522 60be b7e3 43be
00000350: 4c5b f03d 495d 623e 2f14 9cbd 1e27 11be
00000360: 528f fa3d aa54 403d 30bb f13d 45e3 e73c
00000370: 632a 6d3e e21b d43d 5aa1 6b3e bbe3 c5bc
00000380: 54a4 efbd e509 5dbd 1ad4 f9bd 0cd0 16be
00000390: e787 fd3d ebda 7fbd dcf9 17be 13f6 74be
000003a0: 9029 a13e e64c 3b3e 8276 37be 472e 693d
000003b0: e1b4 a7bd e301 24be 50cf 713e ea67 04be
000003c0: ccae 2bbe d569 96bd 9a31 0ebe 5a19 573e
000003d0: f6b0 18be d463 ac3d 0055 dabc 0584 063e
000003e0: 0bbd 6a3e 15ac e33d 2af2 313e f45c 4f3d
000003f0: 7ce7 263e f41b f43d e967 83bd 1ac0 f03d

neighborLayer.W f4 [6, 32]
0.3218791 0.009891191 -0.2962746 0.36047897 -0.09557457 -0.38770705 0.1617766 -0.36882842
-0.000593223 -0.29677275 0.304689 -0.16793531 0.17737454 -0.150551 0.08819282 -0.23242426
0.029426226 -0.24083397 -0.01841708 -0.15671882 -0.1616564 -0.16208842 0.29170033 -0.334444
-0.30854735 0.32706746 0.04602619 0.24469809 -0.08788604 0.18101178 0.011259095 -0.22414722
0.23055279 0.21907955 -0.21234675 0.19751994 -0.15961403 0.34211943 -0.21002759 -0.31232357
0.28219083 -0.34775805 0.27077493 0.044377223 -0.3754725 0.36128297 0.007907399 -0.016801767
-0.106321886 0.18217967 -0.25836027 -0.27057055 0.07039535 0.080427796 0.07039221 0.14595315
-0.33071727 0.041112598 -0.23190841 0.3511705 0.3421851 0.20170355 -0.25965798 -0.09171403
-0.28581473 0.37354484 -0.3329513 -0.21170084 0.23700567 -0.059727278 0.2223242 0.23426132
0.13435374 -0.28581375 -0.3839408 -0.3097585 0.36545673 0.015561443 -0.23757617 0.0988658
-0.3373689 0.15464596 0.102302276 0.12599742 0.3800626 -0.23936248 0.19529986 0.14914988
0.1959083 0.3267001 -0.2894208 0.16012666 -0.366958 0.16416831 -0.0031659666 0.36591846
-0.33591583 0.27898115 -0.16866972 0.0042828545 0.13629195 0.09259746 0.19200067 -0.19176689
0.20448758 0.08446754 -0.14068186 0.19858752 0.25429788 0.41166714 0.3002159 -0.30435976
0.29053122 0.3017941 0.38974515 -0.35127458 0.036037136 -0.012679334 -0.057610355 -0.339487
0.18586497 -0.094309494 -0.116025716 -0.07443892 -0.051430073 0.07651776 0.100900546 -0.30247855
0.17443594 -0.12995479 0.29326415 0.13092458 -0.36815703 -0.29447418 0.08041605 -0.24322236
-0.22403239 -0.2880287 0.14992043 -0.17797573 -0.10462618 0.18670888 -0.13776508 -0.037319735
-0.10499623 -0.3196961 -0.36988762 -0.07791187 0.24783753 0.20821649 0.061004445 -0.162596
-0.20849517 0.16361913 0.23264535 0.30169153 -0.4008588 0.27539033 0.33038116 0.3966197
0.37385973 -0.17459692 0.028652584 -0.40342504 -0.20862137 -0.30417246 -0.36557385 0.08652007
-0.34449095 -0.0003816096 -0.051459894 0.2835848 0.27733624 -0.0499596 -0.09755468 0.27625299
0.15052667 -0.35998434 -0.27981454 0.16625075 -0.34300938 -0.35711223 0.3012748 -0.31581545
-0.16228682 -0.31098005 -0.28147683 0.29595274 0.26575384 0.3059416 -0.06618688 0.36437717
00000000: 56cd a43e a90e 223c 4eb1 97be b390 b83e
00000010: 9abc c3bd 8a81 c6be c4a8 253e 14d7 bcbe
00000020: 8682 1bba 99f2 97be 3200 9c3e 3cf7 2bbe
00000030: aca1 353e 0b2a 1abe 709e b43d a000 6ebe
00000040: 450f f13c 2e9d 76be 6bdf 96bc e67a 20be
00000050: 4189 25be 82fa 25be bf59 953e 3e3c abbe
00000060: ebf9 9dbe 6375 a73e f585 3c3d 2392 7a3e
00000070: 99fd b3bd 275b 393e 1178 383c d986 65be
00000080: 0816 6c3e 6456 603e 6d71 59be ab42 4a3e
00000090: dc71 23be 472a af3e 7911 57be e0e8 9fbe
000000a0: 517b 903e 580d b2be 03a3 8a3e e4c4 353d
000000b0: ee3d c0be 15fa b83e 098e 013c dca3 89bc
000000c0: 4abf d9bd 4f8d 3a3e cc47 84be 3988 8abe
000000d0: 702b 903d 54b7 a43d ca29 903d be74 153e
000000e0: c653 a9be af65 283d 6679 6dbe 9fcc b33e
000000f0: e332 af3e 608b 4e3e e4f1 84be 91d4 bbbd
00000100: 4f56 92be 4541 bf3e 9878 aabe 1bc8 58be
00000110: 9db1 723e 97a4 74bd f5a8 633e 33e2 6f3e
00000120: 0794 093e 2e56 92be e393 c4be ab98 9ebe
00000130: 251d bb3e 6cf5 7e3c 2b47 73be 277a ca3d
00000140: 9ebb acbe 835b 1e3e db83 d13d 7805 013e
00000150: 9197 c23e 701b 75be b0fc 473e bfba 183e
00000160: 2f9c 483e 3c45 a73e f72e 94be 3ef8 233e
00000170: ebe1 bbbe bd1b 283e 1b7c 4fbb aa59 bb3e
00000180: 29fd abbe 9ed6 8e3e c1b7 2cbe 3057 8c3b
00000190: 1e90 0b3e bda3 bd3d d39b 443e 8a5e 44be
000001a0: 3165 513e 51fd ac3d e80e 10be 875a 4b3e
000001b0: 5533 823e 09c6 d23e e6b5 993e 0bd5 9bbe
000001c0: 82c0 943e c284 9a3e ad8c c73e 43da b3be
000001d0: ad9b 133d fbbc 4fbc d6f8 6bbd 3dd1 adbe
000001e0: 6353 3e3e 5625 c1bd e49e edbd 6f73 98bd
000001f0: 57a8 52bd 58b5 9c3d f2a4 ce3d 78de 9abe
00000200: 569f 323e de12 05be b826 963e 1811 063e
00000210: 147f bcbe 52c5 96be 2cb1 a43d 480f 79be
00000220: bf68 65be 7f78 93be be84 193e 453f 36be
00000230: 4046 d6bd 9d30 3f3e 4a12 0dbe 94dc 18bd
00000240: 4308 d7bd 35af a3be e961 bdbe 4290 9fbd
00000250: 1fc9 7d3e b436 553e ccdf 793d 917f 26be
00000260: c27f 55be c68b 273e 953a 6e3e 5077 9a3e
00000270: 5d3d cdbe f6ff 8c3e b827 a93e bd11 cb3e
00000280: 8b6a bf3e 89c9 32be d3b8 ea3c ba8d cebe
00000290: d7a0 55be 7ebc 9bbe 7f2c bbbe 6f31 b13d
000002a0: 1e61 b0be c612 c8b9 9cc7 52bd 0732 913e
000002b0: 04ff 8d3e 70a2 4cbd c0ca c7bd 0871 8d3e
000002c0: aa23 1a3e de4f b8be da43 8fbe a33d 2a3e
000002d0: ed9e afbe 6ad7 b6be b140 9a3e 90b2 a1be
000002e0: 842e 26be c738 9fbe bb1d 90be 1e87 973e
000002f0: e310 883e 61a4 9c3e fd8c 87bd a58f ba3e

neighborLayer.a f4 [64, 1]
0.095437 -0.0116666 -0.0750937 -0.30318293 0.1994799 -0.2250517 -0.07589103 0.009927565
0.06388929 0.2018182 -0.20432523 -0.021336343 0.026362544 0.2423606 0.18979041 -0.018325448
0.040711634 0.3307336 0.07032213 -0.10174434 -0.034307882 -0.26428616 0.28823695 -0.2439712
-0.20309159 0.29763386 0.21707481 -0.22331546 0.17124769 0.274398 -0.08324565 -0.3279555
-0.17962833 -0.2842618 -0.026913324 0.30703712 -0.096400015 -0.0011581426 0.09900824 -0.14155874
-0.15952194 0.1376463 -0.023499172 0.13859847 -0.07743652 -0.34175515 0.16497506 0.09603932
-0.3090604 0.13281122 -0.26007676 -0.15294679 -0.26799914 -0.20197599 -0.04615421 0.020864516
-0.16608001 0.27078784 0.13499583 -0.09209701 0.10594109 -0.25968146 -0.3027387 -0.11492397
00000000: 7974 c33d 4425 3fbc baca 99bd cb3a 9bbe
00000010: 7544 4c3e f473 66be c26c 9bbd 3aa7 223c
00000020: 63d8 823d 6ea9 4e3e a23a 51be 8ec9 aebc
00000030: 43f6 d73c 612d 783e 6b58 423e 401f 96bc
00000040: 3ec1 263d ea55 a93e 0d05 903d 565f d0bd
00000050: 6c86 0cbd 8450 87be cb93 933e 96d3 79be
00000060: 3ef7 4fbe 7763 983e dc48 5e3e cfac 64be
00000070: 8e5b 2f3e e57d 8c3e b27c aabd c9e9 a7be
00000080: 7df0 37be c38a 91be 5579 dcbc f833 9d3e
00000090: 5f6d c5bd d1cc 97ba d5c4 ca3d c6f4 10be
000000a0: b859 23be 27f3 0c3e 5681 c0bc c2ec 0d3e
000000b0: 0a97 9ebd 88fa aebe 39ef 283e 43b0 c43d
000000c0: 2a3d 9ebe aaff 073e c828 85be 159e 1cbe
000000d0: 2f37 89be cbd2 4ebe 320c 3dbd 10ec aa3c
000000e0: e110 2abe b4a4 8a3e 593c 0a3e 5b9d bcbd
000000f0: a4f7 d83d f8f4 84be 9100 9bbe 425d ebbd
