test/model/actor_4_3_2_2_3_22_best_rou4.pth (torch, 689372 bytes, 17 tensors)

v2lLayer.W f4 [3, 40]
000000 2c 18 36 be 17 8d dc bd d0 c9 f6 3c 02 77 b9 be
       -0.17782658 -0.10769098 0.030125529 -0.36223608
000010 2c 49 64 3e 65 34 71 3e 66 70 88 3e 66 cf 98 be
       0.22293538 0.23555143 0.26648253 -0.29845732
000020 41 50 2b 3e 57 8b 6b 3e cf 1a 7b be 45 df d1 be
       0.16729833 0.23002373 -0.24521945 -0.40990654
000030 c2 58 91 3e a4 6d 44 be 38 2e 97 be 8c d7 90 be
       0.2838803 -0.1918245 -0.2952745 -0.2828945
000040 c9 13 de bd 7b 97 70 3e 49 30 ae 3e fd 30 83 3c
       -0.108436175 0.23495285 0.34021214 0.01601457
000050 64 a9 27 bc 06 27 a8 3e 73 a7 f1 bd 6b 80 8e 3e
       -0.010233257 0.32842273 -0.117995165 0.2783235
000060 ac 8c b9 3e 34 0c 20 be ab ba c4 3d 23 88 a6 3d
       0.36240137 -0.15629655 0.096059166 0.08131435
000070 fd d9 1f 3e 2d 8d 9f 3e 47 df a4 3e 9d 14 83 be
       0.156105 0.31162396 0.32201597 -0.25601664
000080 b0 1f b5 3e 3f f7 cd bc 32 60 47 3e 6a 8e 0b 3e
       0.35375738 -0.02514231 0.1947029 0.13628545
000090 dc f8 4a be 68 8b 44 3e 4e 25 9c be 57 89 d3 3d
       -0.19821495 0.19193804 -0.3049721 0.1032893
0000a0 3b e8 95 3e 4b 15 b4 3e e8 ba 90 3d 2f 4d d6 3d
       0.2927874 0.35172495 0.070668995 0.1046394
0000b0 fb 15 f5 3d c1 e6 95 be 04 20 28 3e ec 2d ab 3e
       0.11967083 -0.29277614 0.16418463 0.33433473
0000c0 94 bc 14 be c6 53 72 bb 3c 4c a6 3d 62 7f 81 3e
       -0.14525062 -0.0036976202 0.08120009 0.25292498
0000d0 2a 61 2a 3b f3 d5 92 bc dd 5f 22 be 74 99 9c 3d
       0.0025997856 -0.017924285 -0.15856881 0.07646456
0000e0 06 a3 53 3d d4 87 a1 bd b1 58 98 be d0 00 a2 3d
       0.051669143 -0.07887235 -0.29755166 0.07910311
0000f0 80 92 02 3e 9b 7d 70 3e 69 31 aa be 2c 2c 56 3e
       0.12751198 0.23485415 -0.33240822 0.20915288
000100 1f 32 84 be 15 97 62 be 67 04 69 3e 3e 45 50 3d
       -0.2581949 -0.22127946 0.22755586 0.050847284
000110 a7 3e c8 3e ce 0d be be ec c5 91 be 4c 1e 42 bd
       0.391103 -0.37119907 -0.28471315 -0.047392175
000120 b8 ea 1b 3e ba d6 10 3e c7 47 54 be b4 f0 80 3d
       0.15226257 0.14144412 -0.20730506 0.062959105
000130 7b c7 95 3e 4a 2c 9c 3e 51 66 e2 bb 8e f2 e2 3d
       0.29253754 0.3050254 -0.0069091697 0.1108142
000140 33 02 58 bd 1c 3d a0 be ca af dc 3e 3a 3f d7 bd
       -0.052736472 -0.31296623 0.43102866 -0.105101064
000150 0b 0c 20 3e 61 ff c8 bd 9b 1d a7 3e c8 0b 1d 3e
       0.15629594 -0.09814335 0.32639775 0.15336525
000160 43 7c 4f 3e 7d d7 1a be f4 53 e1 3c bd 15 35 be
       0.20262246 -0.15121265 0.027505852 -0.17684074
000170 bc 0c 68 be 12 e5 1d be 9a d9 a6 3d f3 b1 b1 3d
       -0.22661108 -0.15419415 0.08146973 0.08676519
000180 89 d7 61 3a 2c dd d6 3e 3f d1 3e be d6 17 dd 3d
       0.0008615186 0.41965616 -0.18634509 0.10795562
000190 dd 79 97 3b 26 8f d1 be d4 6e 8d 3d ac 71 76 be
       0.0046226815 -0.40929526 0.069059044 -0.240668
0001a0 fe 2e 10 be 9a 32 a5 3e c5 a0 07 3e d6 32 be 3d
       -0.14080426 0.32265168 0.13244922 0.0928704
0001b0 1f d3 92 3e e3 58 ab 3e 20 6a 60 be 31 4d e7 bd
       0.28676698 0.33466253 -0.21915483 -0.1129402
0001c0 62 87 38 3e 93 13 90 be c2 38 62 3e b7 e5 8e 3d
       0.18020394 -0.28139934 0.22091964 0.069774084
0001d0 f8 c2 01 be 1c a3 86 be b4 f7 93 be c1 07 9a 3e
       -0.12672031 -0.26296318 -0.2889992 0.3008404

v2lLayer.a f4 [80, 1]
000000 ab d6 2c 3d af 33 88 be 8d 82 fc bd c3 0e 31 bd
       0.04219691 -0.2660193 -0.12329588 -0.04322697
000010 7a 8d de bd 23 61 72 bd c0 6f 5c 3b 36 3d d0 3d
       -0.10866828 -0.059174668 0.0033635944 0.10167925
000020 a9 7c 3c be 17 92 07 3e 9f 2a 3b bd d2 e1 24 3e
       -0.18406929 0.13239323 -0.045694944 0.16101769
000030 0b a5 bf bd b6 54 15 3e 45 8f 48 3e b5 7f 62 be
       -0.09357651 0.14583096 0.19585903 -0.22119029
000040 38 b9 91 3e 8f 3c df bd 59 d9 75 be 50 81 91 3d
       0.28461623 -0.109002225 -0.24008693 0.071047425
000050 da c6 d2 bd 52 c6 00 be 1b 50 d3 3c 51 7b e6 3d
       -0.10291834 -0.12575653 0.025795033 0.112539895
000060 58 f1 e8 3d e0 0f 24 be e6 2e 99 bd 40 62 56 be
       0.11374158 -0.16021681 -0.07479648 -0.20935917
000070 59 d9 81 3e f4 9f 48 3e 25 e6 3b 3e 1f c4 4f bc
       0.25361136 0.19592267 0.18349512 -0.012681036
000080 a4 7c 3c 3e 66 bc 4c bd e8 f9 bb bd 2c 3a 61 3e
       0.18406922 -0.04998436 -0.09178525 0.21994847
000090 e6 2b e5 3d 1e f5 4e bc cf 82 0d bd 32 96 03 bc
       0.111900136 -0.012631683 -0.034548577 -0.008031415
0000a0 94 de 33 be a6 a5 e3 3d 97 f6 ce bd 92 c1 0d be
       -0.17565376 0.11115579 -0.10105627 -0.13843372
0000b0 7a 86 82 be 8e f6 69 be 34 97 4d 3e 44 9b 7e be
       -0.25493222 -0.2284796 0.2007721 -0.24863917
0000c0 1f 41 17 3e fc 27 31 3e 04 2b 4e 3e ec a8 6a be
       0.14770935 0.17300409 0.20133597 -0.22916001
0000d0 8c 43 0f be 4a 21 9f bd 92 cb f4 3c 22 0f 02 3d
       -0.13990611 -0.07770021 0.029882226 0.031752713
0000e0 5b ee c4 3d ab 00 f0 3d a0 26 7a be 11 a6 06 be
       0.09615775 0.117188774 -0.24428797 -0.13149287
0000f0 23 54 21 3c c9 96 ec bd 3a f2 0c be ec be 1f 3e
       0.00984672 -0.115521975 -0.13764277 0.15600175
000100 ae 38 6d 3e bf ae 36 be 82 e4 36 3e 1a 1e 00 be
       0.23166153 -0.17840098 0.17860606 -0.12511483
000110 cd 81 b0 bd 3b fc d1 bd 61 7b 71 bd 7f 2e 11 be
       -0.086185075 -0.10253187 -0.058955554 -0.14177893
000120 68 66 49 3e eb 2e 69 be af 86 61 be 0a d6 34 be
       0.19667971 -0.22771804 -0.22024034 -0.17659774
000130 a6 0f 56 3e 1d 7c 0a be f0 6d ab 3c 0d b2 1b 3e
       0.20904407 -0.13523908 0.020926446 0.1520464

laneLayer.W f4 [12, 12]
000000 30 96 ab be 29 30 10 be ca 31 83 be 33 e9 a2 be
       -0.3351302 -0.14080872 -0.25623924 -0.31818542
000010 b2 9e ea 3e da 82 3f 3e e2 65 7e be 33 d7 90 be
       0.458242 0.1870226 -0.24843553 -0.28289184
000020 88 8d de 3e 41 36 12 be 5b b6 4c 3e c6 48 cf 3e
       0.43467355 -0.14278509 0.19991438 0.4048521
000030 85 f0 fd 3e fe ef 9e bd f3 92 35 3c 0a 02 99 3e
       0.49597564 -0.077606186 0.011082399 0.29884368
000040 c1 46 17 be 03 46 09 be 5e 24 8a 3e b1 44 fc be
       -0.14773084 -0.13405614 0.2698087 -0.49271157
000050 3e 9f 41 be 3d 69 e1 be 31 5e eb 3e 2c f5 ba be
       -0.18908402 -0.44025603 0.459703 -0.36515176
000060 6c 38 fd 3e 39 d7 b5 bd c4 c6 4e 3e 1f 33 09 3d
       0.4945711 -0.08878941 0.2019301 0.03349602
000070 d9 d7 cd be ac 8c 82 3e 2c f1 a2 3e 30 33 b0 bd
       -0.4020374 0.2549795 0.31824625 -0.08603513
000080 e9 71 d0 3c ac 2b e1 be c0 04 01 bf a5 e5 af be
       0.025444942 -0.43978631 -0.5039787 -0.34354892
000090 d9 42 b8 be 41 fe 9e be 71 55 f3 be f1 24 72 be
       -0.359885 -0.31053355 -0.47526124 -0.23646905
0000a0 7a f8 cb 3e f1 66 c6 be fd 70 ec be 59 a6 e3 3d
       0.3983801 -0.38750413 -0.46179953 0.11115713
0000b0 1a 7b cf be 47 ef 96 bc 1f 52 40 3e 60 c9 d6 bd
       -0.40523607 -0.018424643 0.18781327 -0.10487628
0000c0 54 f5 f5 3e 81 45 20 be f5 a5 ba bc e8 df c2 bd
       0.48038733 -0.15651514 -0.022784213 -0.09515363
0000d0 63 86 ed be 17 aa b1 3e bc fd a8 3e 19 9f a6 bc
       -0.4639159 0.3470008 0.33006084 -0.020339536
0000e0 33 84 b5 bb ca 1d 5d be 78 89 ed be c4 cf e9 3d
       -0.005539441 -0.21593395 -0.46393943 0.11416581
0000f0 d9 2e 9d 3e 77 bb f6 be a8 ca 13 be 80 ab 61 bd
       0.30699804 -0.481899 -0.14432776 -0.055095196
000100 fd d3 21 3e 08 38 2a bd 34 d6 d0 be 31 ec fc 3d
       0.15803523 -0.04155734 -0.40788424 0.123497374
000110 78 44 fd 3d c4 94 94 3e 37 ff c6 be 40 a1 8d be
       0.12366575 0.2901975 -0.38866588 -0.27662086
000120 9a b1 9b 3e 92 2f 7d be 3f 66 43 be c4 e7 c7 bd
       0.30408937 -0.24725178 -0.19081973 -0.09761003
000130 bb b7 7a 3b c8 6d 5c be 35 4e c0 3e 78 dc ea be
       0.0038256485 -0.21526253 0.37559667 -0.4587133
000140 a1 03 ba be 39 42 85 be b8 af f7 bd 1e 3b 83 be
       -0.36330894 -0.26027086 -0.120940626 -0.2563104
000150 0b 78 59 be 36 5a a8 3d 27 fe 13 3c 04 ce 72 3e
       -0.21237199 0.08220331 0.009032763 0.23711401
000160 10 13 d4 be 61 2c 26 bc a9 a1 b4 be 01 4e cb be
       -0.41420794 -0.010142417 -0.35279587 -0.3970795
000170 f9 2b 53 be 55 dd c1 bd 05 dd f2 be 86 ac 8a be
       -0.20622243 -0.09466044 -0.4743425 -0.2708475
000180 38 12 6b be 30 20 01 3d 28 fc 85 be 70 c8 33 be
       -0.22956169 0.031524837 -0.26168942 -0.1755693
000190 80 49 aa bb e0 c2 3b 3d 0c c2 22 be bc 99 b1 be
       -0.00519675 0.045840144 -0.15894336 -0.34687603
0001a0 d6 b9 97 be c0 e5 ba 3e c8 dc 85 bd d0 2b 27 3d
       -0.2963397 0.3650341 -0.06536251 0.040813267
0001b0 94 7a 42 be bb 3e c9 3e b2 8a 6f be 49 86 f7 ba
       -0.18992072 0.39305672 -0.23392752 -0.0018884625
0001c0 69 59 81 3e 52 a8 01 3d e1 4b dc 3d 89 7b d5 3d
       0.25263527 0.031654663 0.1075666 0.10423953
0001d0 f6 c3 ab 3e fc 94 02 3f 2a 0b ca 3e de da 47 be
       0.33547944 0.5100858 0.39461643 -0.19517085
0001e0 59 4f c0 3e 22 a0 93 bd 05 57 7d 3e ef b5 d1 3e
       0.37560537 -0.07208277 0.24740227 0.40959117
0001f0 f9 ef 72 be 3a e5 8c 3e e3 c8 01 bf bf 54 97 3d
       -0.23724355 0.27518636 -0.50697154 0.07389211
000200 42 e7 d2 be 7f 11 ab bd 6f 84 63 bd 70 ba b1 3e
       -0.4119206 -0.083529465 -0.05554622 0.34712553
000210 e3 0d 68 be 84 c4 e3 3e c2 16 3e be 8f 86 68 3e
       -0.22661547 0.44485867 -0.18563369 0.2270758
000220 3a 05 4e be 93 6e 8d be b7 5c fb be 2e 97 79 3e
       -0.20119181 -0.27623424 -0.49094173 0.24374077
000230 12 6b 97 3d 90 54 ae bd 42 4d 73 bd eb 38 8d be
       0.07393469 -0.08512223 -0.05939985 -0.27582487

l2pLayer.W f4 [12, 88]
000000 3d 37 da 3d a8 9e 0a be 8c 62 67 be f4 51 1a be
       0.10655067 -0.13537085 -0.22596186 -0.15070325
000010 12 df 2a be 49 60 0e be 13 09 22 be 41 4f c1 3d
       -0.16686657 -0.13903917 -0.15823774 0.094389446
000020 18 9e 88 bd b7 4b a6 bd 52 77 f4 3b f2 b9 5b be
       -0.06670779 -0.0811991 0.007460513 -0.21457651
000030 75 01 bb bd ef cd 38 3e 85 81 8b be bf 79 16 be
       -0.09131137 0.18047307 -0.27247253 -0.1469488
000040 4e 8d 56 be 22 d3 ee 3c d8 6f 3b be 53 3e b1 3d
       -0.20952341 0.02915341 -0.18304384 0.086544655
000050 78 12 e8 bc 91 ab 8d 3d 07 46 5c 3e 3e 17 b4 3d
       -0.02832912 0.06917489 0.21511088 0.087934956
000060 aa 25 81 3e e5 c4 c5 bd 91 aa 08 3e 61 36 69 bd
       0.25224048 -0.09656695 0.13346316 -0.056936625
000070 7f 5e 71 bd 17 6a 1a 3e 67 ac ad bd b7 08 a3 bc
       -0.05892801 0.15079533 -0.08480149 -0.019901616
000080 22 60 34 3e 7f 4d d5 3d ff 86 40 3e 3a f4 1d be
       0.17614797 0.10415172 0.18801497 -0.15425196
000090 ca 2b e2 3d 7b dc 48 3e 0e b3 25 3e 32 d3 c1 3d
       0.11043508 0.19615357 0.16181585 0.094641104
0000a0 d2 9a be 3c e2 4e 01 3e e6 84 66 bd 18 56 48 be
       0.023267183 0.12627748 -0.056279086 -0.19564092
0000b0 36 0d 82 bd cb 7f 58 be fc 29 c2 3d e0 43 8d be
       -0.06350176 -0.21142499 0.09480664 -0.27590847
0000c0 b8 df 3a be fa 8b 55 bd 8d a1 07 be ea c6 d7 bd
       -0.18249404 -0.052135445 -0.1324522 -0.10535987
0000d0 e3 ed 9d 3c 2b f8 30 be d1 31 53 3d 22 8c c8 bd
       0.019278472 -0.17282169 0.05156118 -0.09792353
0000e0 88 91 c7 bd c9 3f 30 bd 5d da 8d be 8d 91 0d 3e
       -0.09744555 -0.04302958 -0.2770566 0.13825054
0000f0 7a a6 4d be b7 24 b1 bd 33 4e 1f be 78 15 32 3e
       -0.20083037 -0.08649581 -0.15557174 0.17391002
000100 0f db 5c be c3 60 e5 bd 03 e7 e1 3c 32 86 47 be
       -0.21567939 -0.112000965 0.027575975 -0.19484785
000110 e1 ef c8 3d 61 cf 60 3d c9 71 89 3d 3b a6 34 3e
       0.09811378 0.054885272 0.06711156 0.17641537
000120 ab 03 75 be 89 fc 22 3e a5 26 43 3e 61 50 51 bd
       -0.2392718 0.15916647 0.1905771 -0.051102046
000130 c0 f3 5f be 06 f6 cf 3d 99 4f 56 3e 0d ae a3 bd
       -0.21870327 0.10154347 0.20928802 -0.07992182
000140 f5 17 09 be 66 c6 11 bd 56 c7 01 be 3f 82 4c 3e
       -0.13388045 -0.035589598 -0.12673697 0.1997156
000150 f1 90 1e 3e 7c 6a 14 be 08 17 3d be 10 8a 1e 3e
       0.15484978 -0.14493746 -0.18465817 0.15482354
000160 60 ea b9 bd 56 24 65 be 71 44 23 3e fa 00 93 be
       -0.090779066 -0.22377142 0.15944077 -0.28711683
000170 86 7a 48 3e 96 9a 0a 3e f9 19 34 be be 2a fc 3d
       0.19577989 0.13535532 -0.17588033 0.1231284
000180 1a 4c fd 3d 7e cc 8e bd b9 9a bc bb b3 b1 48 3e
       0.12368031 -0.069725975 -0.005755749 0.19599037
000190 62 6d a0 3d b2 5a 67 be 17 0c 83 be 20 16 5b be
       0.07833363 -0.22593191 -0.2559516 -0.21395159
0001a0 c4 b4 b3 bc a7 d1 6c be bc 23 03 3e b0 f3 1c be
       -0.021936782 -0.23126851 0.128066 -0.15327334
0001b0 dd 50 9a bd 46 77 28 3e ad 26 15 bd 7b b1 ee 3d
       -0.07534955 0.16451749 -0.036413837 0.116549455
0001c0 6a d7 d1 3d ce bc c0 bd aa 2b 3b be 9c 27 23 3e
       0.10246165 -0.09411012 -0.18278375 0.15933079
0001d0 9b d6 2c be c5 f3 b9 bc d2 61 4c bd fe 3e 89 3d
       -0.1687874 -0.022699246 -0.049897976 0.06701468
0001e0 84 cd 21 be 85 5c dc 3c 62 63 3d be d5 19 23 be
       -0.15801054 0.026899586 -0.18494943 -0.15927823
0001f0 9e 23 5e 3d 57 89 26 3e 84 28 15 be 82 15 60 3e
       0.054233186 0.16263328 -0.14566237 0.21883205
000200 8d 3f a4 3d 37 1e 7c 3e 07 e8 40 bb fa 99 b0 bd
       0.08019934 0.24620901 -0.0029435174 -0.08623119
000210 13 2d 49 3e dd ac 82 3d 77 ed f0 3d 54 c7 da bd
       0.196461 0.06380627 0.11764043 -0.1068255
000220 fc 18 db bc 8b d5 06 3e c8 23 e4 bc 1c 48 2d 3a
       -0.026745312 0.13167398 -0.027849093 0.00066101714
000230 dc ef 25 be 4d 52 10 be f0 a0 2d be 42 15 d1 3c
       -0.1620478 -0.14093895 -0.16955924 0.025522832
000240 07 e3 68 be 0b c6 f0 3c 1c 6c 17 be b7 c8 0c 3e
       -0.22742854 0.02939131 -0.14787334 0.13748442
000250 ae e2 e2 bd 18 60 21 be 8b 70 18 3c 05 38 0a be
       -0.11078392 -0.15759313 0.009304176 -0.13497932
000260 0d 0e 0a be d0 30 f3 bd fd ca 48 3e dd ab b4 3d
       -0.13481922 -0.118745446 0.19608684 0.08821843
000270 21 82 49 3e 17 7d c3 bd a4 c0 f5 3d c0 56 07 be
       0.19678546 -0.09545343 0.11999634 -0.13216686
000280 69 f3 78 3e 07 ba 21 3e f5 8f 6a 3e d2 21 ac 3d
       0.24311604 0.1579362 0.22906478 0.08404888
000290 d2 74 34 be 55 41 13 3e be 3a 93 3d 25 23 8e 3d
       -0.17622688 0.14380391 0.071889386 0.06940297
0002a0 4f 92 ba 3d 3e 20 10 be 5d 56 cf 3d 47 cd 47 3e
       0.091099374 -0.140748 0.10123894 0.19511901
0002b0 a3 6a 2a 3e 02 f2 13 bd b5 dc 9d bd 63 e5 27 3e
       0.16642241 -0.03611947 -0.07708112 0.16396098
0002c0 cf 4c 65 3e 0e e3 84 3c e8 98 18 3c 8b 02 9f 3c
       0.22392581 0.01622155 0.009313799 0.019410392
0002d0 67 d5 3e 3d 4e dc 91 3d fb 35 1d 3e fa 0a 64 be
       0.046590235 0.07122098 0.15352623 -0.22269812
0002e0 77 7f 7a 3e 51 aa 30 3e 90 8a 5b 3e 38 b8 f7 bd
       0.24462686 0.1725247 0.21439576 -0.12095684
0002f0 bf 39 08 bb 92 9b c7 3c 11 4c 08 3e e5 0a 5e 3e
       -0.0020786372 0.024366174 0.13310267 0.21683843
000300 38 df ad bd 21 fe 47 be 52 3c 16 3e 38 b5 a4 bd
       -0.08489841 -0.19530536 0.14671448 -0.08042377
000310 5b ba 7b 3e 6c f4 be bd 2f 70 d8 3d c2 14 1a be
       0.24582808 -0.093239635 0.10568272 -0.15046981
000320 a2 15 dd 3d 5d e8 1d 3e 8b 50 09 bd 72 e7 3b 3e
       0.10795142 0.15420671 -0.033524077 0.18350008
000330 08 8f 02 3e 1f ee 8a 3d 9f 29 0e be 2a ff e3 3a
       0.12749875 0.06783699 -0.13883065 0.001739477
000340 cf 38 88 3d 17 9f 04 3e 91 89 16 be 42 e4 aa 3d
       0.066514604 0.12951313 -0.14700915 0.08344318
000350 3a 17 42 3e 11 fc 2f be 49 42 d5 3d 29 cd d8 bd
       0.18954173 -0.17186 0.104130335 -0.10586006
000360 49 94 da bd 7d 5e 62 3e 1d 25 24 bd bc 06 22 be
       -0.106728144 0.22106357 -0.040074456 -0.15822881
000370 ca d6 da 3d f8 43 29 be 68 48 00 be 2c cb 3b 3e
       0.10685499 -0.16529834 -0.12527621 0.18339223
000380 a2 73 00 3e 49 fb 73 be 7e b3 11 3e 0a b2 08 3e
       0.1254411 -0.23826326 0.14228627 0.13349167
000390 19 9a a0 3d 0e 6b 84 be e7 71 db 3d 4c c2 0b be
       0.07841892 -0.25862926 0.107150845 -0.13648337
0003a0 4e 22 58 3e c3 bf 52 be e3 ca f8 3d 39 39 80 3e
       0.21106836 -0.20580964 0.121480726 0.25043657
0003b0 cf e0 65 3e 7c 21 d0 bd 43 b2 00 be f0 5b a0 bc
       0.22449039 -0.10162637 -0.12568001 -0.01957509
0003c0 95 72 5f be 29 9d 57 be cc d2 83 3e c1 7b 54 3c
       -0.21821053 -0.21056046 0.25746763 0.012968958
0003d0 4c 78 5d 3e 02 1a 68 3c e6 89 27 bd a5 c3 23 3e
       0.21627921 0.014166357 -0.040902995 0.15992601
0003e0 55 74 30 3e 77 8f ec bd c3 26 6a 3e 99 27 58 3e
       0.17231877 -0.11550801 0.22866349 0.21108855
0003f0 5c 02 82 bc 2f 7a 2d 3e be a4 80 be 0f c9 24 3e
       -0.015870266 0.1694114 -0.25125688 0.16092323

l2pLayer.a f4 [176, 1]
000000 5d f1 a7 bc 55 bd ac bd bb 62 d9 bd 4b 41 ff bd
       -0.020500833 -0.0843455 -0.106145345 -0.124636255
000010 d1 bf bb bd cb cf 38 bd 7f 39 69 3d 99 ea af 3c
       -0.091674455 -0.04512004 0.0569396 0.02147417
000020 b4 18 f5 3d 68 64 1a 3e 59 7f cf 3c 4c ab c1 bd
       0.11967602 0.15077364 0.025329279 -0.094565004
000030 74 7c 09 3e aa b8 03 3d 37 26 cd 3d 44 40 b6 3d
       0.13426381 0.03215853 0.100170545 0.088989764
000040 5d 7f 0f bd d1 64 e4 3d 55 e9 bc 3d ee 0b fc bc
       -0.035033572 0.11152042 0.09224192 -0.030767407
000050 7b e3 36 3c 95 24 24 3e b6 44 56 bc 9f 35 48 3b
       0.011162634 0.1602958 -0.013077905 0.0030549539
000060 d7 48 c0 3d 04 31 75 3c d6 65 ce bc b2 1d ed bc
       0.09388893 0.0149652995 -0.025195044 -0.028944824
000070 a6 32 93 bd 51 1f 32 3e 80 73 bb bc 9b 20 ea bd
       -0.07187395 0.17394759 -0.022882223 -0.11432
000080 61 7e 14 3e 2d dd 82 3c c5 80 e9 3d 57 d6 bd 3d
       0.14501335 0.015974605 0.11401514 0.09269398
000090 65 83 c5 bd df 7e 31 3e 32 c5 87 3d 2b 19 05 3e
       -0.09644202 0.17333554 0.06629409 0.12997882
0000a0 d6 44 2f be b3 8a e0 bd 38 1e 0e be c1 9e ec 3c
       -0.17116103 -0.10963955 -0.13878715 0.028884294
0000b0 fa d1 8c 3d 26 f6 24 be df d6 a9 3d 64 df 55 3c
       0.06875987 -0.16109523 0.082929365 0.013053749
0000c0 14 f5 08 3e b1 94 79 3d 24 3f ff bd d7 c6 c7 bd
       0.1337474 0.06093282 -0.12463215 -0.097547226
0000d0 86 24 43 bd a8 2b 2d 3e 50 8a 18 be c9 93 96 bd
       -0.047642253 0.16911185 -0.14896512 -0.073524065
0000e0 b6 4f a0 bd 9e f8 91 bc a7 78 37 3e a6 b9 aa 3d
       -0.07827704 -0.017818745 0.17917119 0.08336191
0000f0 4d 33 ac bd 25 6c 56 3d 34 ef b7 3d 7c 0c 26 be
       -0.08408222 0.05234923 0.08981171 -0.162157
000100 6b 45 08 bd df f6 3c 3d 4c 1e 83 3d 55 33 4a bd
       -0.033269327 0.046133872 0.06402263 -0.04936536
000110 ed ed f5 3d 68 c0 24 be c0 6e 28 be 71 b7 95 3d
       0.12008271 -0.16089022 -0.16448498 0.07310379
000120 a1 e0 02 be ea 78 31 3d af c5 56 bd 60 2a e7 3d
       -0.12781002 0.043328203 -0.05243462 0.11287379
000130 41 dc ec ba 19 59 8d 3c 9c 30 76 bd 47 05 24 3e
       -0.0018071012 0.0172544 -0.06010495 0.16017638
000140 9d 65 b3 3d 20 19 9e bd 15 1d 30 3c 05 c2 d1 3d
       0.087596156 -0.07719636 0.010749121 0.102420844
000150 b2 c7 df 3d 93 fa e5 bd 6a 84 80 bc ec df 12 3e
       0.10926761 -0.11229434 -0.01568814 0.14343232
000160 f9 58 91 3c e4 aa 9b 3d 09 4a 06 be f2 de f2 bd
       0.01774262 0.07600954 -0.1311418 -0.1185893
000170 9e 83 7e 3d c4 03 be 3d 7f 88 eb 3b 91 83 73 3d
       0.06213724 0.09278062 0.0071879025 0.059451643
000180 1c d3 28 be d6 ea 7e 3c 26 17 64 3e 14 bd e7 3d
       -0.16486782 0.015558919 0.22274455 0.11315361
000190 87 17 a7 3c 54 b8 87 bd 8f 2f a8 3c a9 05 ff bc
       0.02039696 -0.06626955 0.02053049 -0.031130629
0001a0 cf 46 35 bc 96 1b 65 3d dc 24 85 bd 78 67 47 bd
       -0.011064245 0.05593451 -0.06501171 -0.04868266
0001b0 69 14 86 bc a9 20 19 bd 0e ac 20 3e 16 5e f1 bc
       -0.016367154 -0.037384663 0.15690634 -0.029463809
0001c0 b5 b3 23 3e ad 89 26 3e f4 27 aa 3d 44 37 31 be
       0.15986522 0.16263457 0.08308402 -0.17306238
0001d0 af c6 98 3d 5b 79 a5 3d 17 b8 17 3e f8 58 10 3e
       0.07459771 0.08079787 0.14816318 0.14096439
0001e0 b5 a1 af 3c 5c 44 f8 3c f6 dd b1 3d ce e5 bf 3d
       0.021439413 0.030306034 0.08684914 0.09370004
0001f0 91 b7 14 be 7b 1b 2f be c9 70 d3 3d 99 d1 d4 bb
       -0.1452315 -0.17100327 0.103242464 -0.0064947126
000200 fa 9c 82 3b 73 39 b3 3d 42 ff 29 bd cb 15 e0 3d
       0.003985998 0.08751192 -0.0415032 0.10941657
000210 38 59 11 3e 92 f5 24 3d be fe 37 3d 1e 07 e5 3d
       0.1419419 0.040273257 0.044920675 0.11182998
000220 38 d0 f9 3d 8f f6 54 bd fc 85 30 be 28 1d 67 39
       0.12197918 -0.05199295 -0.17238611 0.00022040738
000230 0c 3e ab 3d a0 db d5 3d 5f 22 fc 3d 47 07 f3 3b
       0.08361444 0.10442281 0.12311243 0.007416639
000240 fe d0 35 bd 48 8b 12 3c cc 2b 5d 3d 83 67 16 3e
       -0.044388764 0.00894434 0.053996846 0.14687924
000250 62 f4 26 3e 2b 07 5f 3d a5 cb 25 3e 39 86 f1 3d
       0.16304162 0.054450195 0.16190965 0.11793179
000260 c8 16 1a be bd 16 66 3c 1c 07 07 be 82 9a 0f be
       -0.15047753 0.014043507 -0.13186306 -0.14023784
000270 9d 65 27 3e c7 e5 c4 3d 3c 7f d3 3d 68 f8 14 3e
       0.16347356 0.09614139 0.103270024 0.14547884
000280 49 aa b0 bd 29 f7 9d 3d e5 a4 99 3d f8 10 d0 3d
       -0.08626229 0.07713158 0.07502154 0.101594865
000290 2b 55 d3 3d b8 c8 47 be 83 fb 86 bc 43 af 1a 3d
       0.10318979 -0.19510162 -0.016477352 0.0377648
0002a0 ab 7b 4a bd f6 48 cd bc c0 9a 2f be 6c a0 b3 bd
       -0.049434345 -0.025059205 -0.17148876 -0.087708324
0002b0 44 9b 4d be 54 ac 83 3d 16 ff 51 3d e3 41 a3 3d
       -0.2007876 0.06429353 0.05126866 0.07971551

phaseLayer.W f4 [24, 26]
000000 50 97 8a be 51 18 a6 3e 59 f2 97 be 5d 68 9e 3e
       -0.27068567 0.32440427 -0.29677084 0.30938998
000010 b9 cf 2e 3e 35 18 98 3e 5e f4 85 be cd 3a 55 be
       0.17071427 0.29705968 -0.26163 -0.20823212
000020 09 f4 9a be 30 20 a5 3d bf 53 81 3d 8e 97 9d 3e
       -0.3026431 0.0806278 0.063148014 0.3077969
000030 5e 2e bb 3c 8e 51 7b 3e f5 af 65 3e d8 de 8f 3d
       0.022849258 0.2454283 0.22430404 0.07024926
000040 65 1b c1 be e0 4c ab bd df ef 2c 3e 15 ec 37 bc
       -0.37716213 -0.08364272 0.16888379 -0.01122572
000050 ed 4c 93 3e 15 7a f7 3c 4d ad 49 3e 41 50 b4 3e
       0.28769627 0.03020958 0.19695015 0.3521748
000060 f7 98 2a be 8e 42 5a be 55 6e 84 be cf 93 54 be
       -0.16659914 -0.21314451 -0.25865427 -0.2075951
000070 89 fb 71 3d 07 45 ce bd a7 62 9d 3e bc a2 76 3e
       0.059077773 -0.1007176 0.30739328 0.24085516
000080 f0 a6 6a bd ea bc 3d be 6d 36 56 3e a7 9b 36 3e
       -0.05728811 -0.18529096 0.209192 0.17832814
000090 29 0c b0 3e 09 cf 38 3e f4 cc 8e be 9b e2 40 3e
       0.34384277 0.18047728 -0.27890742 0.18836443
0000a0 b8 4a 85 be a3 23 4b 3e 64 a9 29 be c8 e8 7c bd
       -0.26033568 0.19837813 -0.16568524 -0.061745435
0000b0 f2 ed e5 bd b7 e8 67 bc af a8 92 bd b3 a1 95 be
       -0.11227025 -0.014154605 -0.0716108 -0.2922493
0000c0 49 e7 b7 3d 16 68 43 3e 73 bd b1 ba 85 b1 47 be
       0.08979661 0.19082674 -0.0013560489 -0.19501312
0000d0 41 55 2a be 5b a1 41 be ee a2 9d 3d fc 0a 3c be
       -0.16634084 -0.18909208 0.07697092 -0.18363565
0000e0 99 f7 5f 3d 78 d2 01 3e d5 26 72 be eb 8e 82 be
       0.054679487 0.12677944 -0.23647626 -0.25499663
0000f0 07 d1 30 3e 95 8f b9 bd f6 41 34 be 86 12 4e be
       0.17267238 -0.09060589 -0.17603287 -0.20124254
000100 94 0f 5a bd 0e 4c f8 bb 3a ae aa be 1a e8 41 3e
       -0.053237513 -0.007577426 -0.3333605 0.18936196
000110 47 20 bb 3e 57 c4 06 3e 7f b4 ea 3d 15 58 3f 3d
       0.36548063 0.13160835 0.11460208 0.04671486
000120 87 85 46 be d5 38 bc bd 80 a3 9d 3e 53 58 8f 3d
       -0.19386874 -0.09190527 0.30788803 0.069992684
000130 b2 c6 a5 3e 1c a9 8a be 00 24 bb 3d da f4 5c 3e
       0.32378155 -0.27082145 0.09137726 0.21577778
000140 82 07 1c be 97 26 e5 3d 56 62 70 be 4f f2 6d 3c
       -0.15237239 0.11189001 -0.23475012 0.014523103
000150 1d 14 b9 be a0 f3 1c be 7e 2a f4 bd 6b 2c 20 3e
       -0.36148158 -0.1532731 -0.11922167 0.15641944
000160 80 7d c7 bd 82 9a 65 be 7d 8e b2 bd 9d 03 05 be
       -0.09740734 -0.22422221 -0.08718584 -0.1298966
000170 ea 75 e6 3c ad 80 99 3e c4 05 8d be 2b 30 88 3e
       0.028132398 0.29980984 -0.2754346 0.2659925
000180 39 e1 cd 3d 56 cc 8b be 5d 33 69 be 6d 6b 9e 3e
       0.100527234 -0.27304333 -0.227735 0.30941334
000190 64 b0 11 3e 51 ce ec bd 3a 5b 4a be 1f 82 e2 bd
       0.14227444 -0.11562789 -0.19761363 -0.11059975
0001a0 0f ee 9d bd 34 57 53 3e 26 4c d4 bd 5b 7e e3 3d
       -0.07711422 0.20638734 -0.10366087 0.11108085
0001b0 9b 98 63 3e 70 40 6f be a5 3b 8d 3e 5d 6e 2e 3e
       0.22226183 -0.23364425 0.27584568 0.17034288
0001c0 e5 73 da bc 05 6f 4f 3d 7b fc 95 3e 3c 57 84 bd
       -0.026666591 0.050642986 0.2929419 -0.06461951
0001d0 45 97 c0 bd 79 11 1b 3e 66 9e c9 3d fc e0 6e bc
       -0.094038524 0.15143384 0.09844665 -0.014580008
0001e0 ec 72 51 3e 3e 22 30 3e 59 b8 1b 3e a1 c5 55 3e
       0.20453995 0.17200562 0.15207042 0.2087617
0001f0 75 02 6a be b4 2d 31 be f9 d9 56 3e 2a 9c 9d 3e
       -0.228525 -0.1730259 0.20981587 0.30783206
000200 e1 0d 99 be 70 40 70 be 4d f2 8f 3e 9f 05 82 be
       -0.298934 -0.23462081 0.28114548 -0.25394914
000210 45 9e 32 bd 60 e8 13 bc 53 38 15 bc 21 e8 52 3e
       -0.04360797 -0.0090275705 -0.009107667 0.20596363
000220 27 65 a5 be 99 48 26 be e0 da fa 3d 2b 1a a0 be
       -0.32303736 -0.16238631 0.12248778 -0.31269965
000230 a2 09 75 3c d9 93 f5 3b 26 66 ed ba 94 24 b7 3e
       0.01495591 0.0074944315 -0.0018112108 0.35770094
000240 17 94 2e be 10 1d 76 3e 1d 00 6a be 10 58 a1 bc
       -0.1704868 0.24034524 -0.22851606 -0.019695312
000250 f5 23 67 3d 5d 3b a2 3e d5 b2 7e be 17 29 a2 3c
       0.056430776 0.31685916 -0.24872907 0.019794984
000260 b1 9d 54 3e a5 a6 06 3e c8 96 a5 3d 1f 57 d5 bd
       0.2076328 0.13149507 0.080854 -0.10417008
000270 6f d2 20 bd 2a f8 b7 3d 32 4e 94 bd e4 0e ab 3e
       -0.039263185 0.089828804 -0.07241477 0.33409798
000280 9b 12 84 be b8 7a 4e 3e b2 c1 19 be 5e 40 f9 bd
       -0.25795445 0.20164001 -0.15015295 -0.1217048
000290 5b 43 82 3c 33 ff 33 be 29 59 96 bb 58 51 9f be
       0.015901258 -0.1757782 -0.0045882654 -0.31116748
0002a0 82 28 9f 3e c5 3d 8f bd 25 70 dd bd 24 2f 9a 3e
       0.31085593 -0.069942035 -0.108124055 0.3011409
0002b0 f3 4e ac be 53 37 12 3e ab 9f 6a be f8 55 93 be
       -0.33653983 0.14278917 -0.22912471 -0.28776526
0002c0 fd 1f b3 3d 83 a2 69 3e 56 a2 9d be 7b 98 47 3e
       0.08746336 0.228159 -0.30787915 0.1949176
0002d0 1f 67 9a be a0 0a 95 be e3 a6 90 3d 52 1e d0 bc
       -0.301568 -0.2910967 0.07063081 -0.025405083
0002e0 90 e8 58 3e 33 e3 92 3e d6 7a bd bc 06 7a e9 3c
       0.21182466 0.28688964 -0.023129862 0.028500568
0002f0 c1 eb 88 3e 9a 9e d3 3d e7 ee 60 3e 93 25 b4 3e
       0.26742366 0.10332985 0.21966134 0.35184917
000300 0a d6 a6 be b3 d6 71 3e ab 82 4b 3e 62 7a 51 3e
       -0.32585174 0.23617058 0.19874065 0.20456842
000310 dc bf 54 3e 5a 2b 9b be fe 9d 4d be 8e be 73 be
       0.20776314 -0.30306512 -0.200798 -0.2380316
000320 d2 38 64 3d 3c 69 67 be 14 cd 02 be 6a 27 a0 3e
       0.05571825 -0.22598737 -0.12773544 0.3128007
000330 74 63 3e 3d 7d 16 5e 3e a6 8a 15 3e 1b e1 32 be
       0.046481565 0.21688266 0.14603671 -0.17468683
000340 ce 93 62 3e 3b dc 3b bd 58 ef 2a 3e 5a a8 84 be
       0.22126696 -0.045864325 0.16692865 -0.25909692
000350 89 08 36 be 88 e4 23 3e b8 23 1e be 91 3d bb bc
       -0.17776693 0.16005147 -0.15443313 -0.022856506
000360 1c 90 50 3e 39 1e 3f be e9 a6 28 3e 99 df 56 3c
       0.20367473 -0.18663873 0.16469921 0.013114833
000370 bf 88 a6 bc 7c 95 58 be d4 18 a6 be d6 a5 20 3e
       -0.020328877 -0.21150774 -0.32440817 0.15688261
000380 fd 7a 81 bd 15 d6 06 be 35 f6 69 bb 2d 10 8f 3e
       -0.06322286 -0.13167603 -0.003569973 0.2794203
000390 28 33 60 3d 13 76 33 3e 1c 7b 39 be e1 13 a6 be
       0.054736286 0.1752551 -0.18113369 -0.3243704
0003a0 4a 6e 95 3d b3 80 95 be 02 2d 91 be 1d 2f 6f 3e
       0.072964266 -0.29199752 -0.2835465 0.23357816
0003b0 6f c4 af 3e e9 46 89 bc ac ac 81 3e f2 35 2b be
       0.34329554 -0.016757445 0.2532705 -0.16719797
0003c0 c0 8a 76 bc 88 30 02 bd 9b fa 91 3d c6 56 3a 3e
       -0.015047729 -0.031784564 0.07127877 0.18197164
0003d0 52 b8 b5 3d 4e 1c ce bd f8 b0 3e 3e 67 25 ba bd
       0.08873047 -0.100639924 0.18622196 -0.09089165
0003e0 81 32 af bd 20 86 3f 3e 7c 3e 59 3e 80 c4 6b be
       -0.08554555 0.18703508 0.21215242 -0.23024178
0003f0 5e 7e 55 bd f9 c3 7f 3e a9 0a 8b bd 57 cb b3 3e
       -0.052122466 0.24977101 -0.06789143 0.35116073

p2iLayer.W f4 [24, 176]
000000 b4 11 b6 3d 88 c7 52 be 6a 3f 29 3e 71 a0 72 bd
       0.08890095 -0.20583928 0.16528097 -0.05923504
000010 c6 ae 5e 3e a0 67 68 bd e5 68 7c 3d 7c fd 40 bd
       0.21746358 -0.05673945 0.061623473 -0.04711674
000020 0b 2f 06 3d 26 4f 32 3d 01 d7 cf 3d 32 63 b3 3d
       0.032759707 0.043532513 0.101484306 0.087591544
000030 66 84 d1 bc 0a 76 03 be 3a 25 f6 bd 8e 9a 08 be
       -0.025575828 -0.12837997 -0.12018819 -0.13340208
000040 44 63 b2 3d 77 cd 12 bc e6 cd 13 3d 62 0d 48 bd
       0.0871034 -0.008960119 0.036085032 -0.048840888
000050 41 be 6e 3d ab b8 d2 bc c8 cb c6 bc cf 1e 9b bd
       0.05828691 -0.025722822 -0.024267092 -0.07574236
000060 b1 50 bb bd c2 b5 5d 3e 81 c5 4e 3d a9 98 cc 3d
       -0.0914625 0.21651366 0.050481323 0.09990055
000070 7e ca 2f 3e ae 74 7b bd c5 db 20 be 74 1e d4 bc
       0.17167088 -0.06139057 -0.15708835 -0.025893427
000080 40 1d e4 3c 00 a9 f5 bd 04 0f 94 bc fa ba 35 be
       0.027845979 -0.11995125 -0.018073566 -0.17747107
000090 15 96 32 3d 22 47 0f 3c db 59 5f bc 57 bc 0b 3e
       0.04360016 0.008744987 -0.013632263 0.13646065
0000a0 73 29 cb bc 23 08 e5 bc 88 91 88 ba 8f 3b b8 bd
       -0.024800038 -0.027957981 -0.0010419348 -0.08995735
0000b0 fa 34 b9 bd 4b 56 97 3d 71 10 64 bb a0 c9 0a 3d
       -0.090433076 0.07389506 -0.003479984 0.03388369
0000c0 ad ef 8f bc 19 ca e5 bd 36 9a fe 3d 12 2a 71 be
       -0.017570341 -0.11220188 0.12431757 -0.23551205
0000d0 61 8f cd 3d e1 17 d3 bd 57 7d f3 3d fb e4 c3 3d
       0.10037113 -0.10307289 0.11889141 0.09565159
0000e0 04 28 26 be 44 f0 d2 bd 71 67 f1 bd 17 48 63 3d
       -0.16226202 -0.10299733 -0.11787308 0.055488672
0000f0 27 75 1c 3e 16 69 3f 3d 0e 99 6b bd 07 5a 42 ba
       0.15279065 0.046731077 -0.05751901 -0.0007413928
000100 43 7e 1c be fd 2c 95 3d a1 de 2f 3d 34 06 69 be
       -0.1528254 0.072839715 0.042936925 -0.22756273
000110 5e 88 fa bc d4 24 2b 3e 61 7f 01 be d1 2d 77 be
       -0.030582603 0.16713268 -0.12646247 -0.24138571
000120 0c 3d 8e bd d1 3d 0a be 9d 2f 45 be 3f dd 74 bd
       -0.069452375 -0.13500144 -0.19256444 -0.05978131
000130 02 d2 29 bd 72 a5 82 bc d3 25 e9 3c fa d5 38 3d
       -0.041460045 -0.015948031 0.028460419 0.04512594
000140 fa f9 3c be b6 6a 8c bd 65 d0 48 3d 5e 55 0a 3e
       -0.18454733 -0.06856291 0.049026866 0.13509127
000150 21 ed f7 bd 5c 08 1a bd 4b 38 80 bd 87 30 76 3e
       -0.121057756 -0.03760563 -0.06260737 0.24041949
000160 8e 60 02 3d 61 96 21 be 45 98 9b bd 51 19 5c 3d
       0.031830363 -0.15780021 -0.075974025 0.05373508
000170 e9 81 c8 3d 02 83 5e be 84 33 e6 bd 83 96 70 3d
       0.097904034 -0.21729663 -0.112402946 0.05873729
000180 16 26 a3 3d 3e 09 b5 bd 6c 83 7d 3d bc 5b 91 bd
       0.07966249 -0.088396534 0.06189291 -0.07097575
000190 05 e6 ab bd e5 13 df 3d bb 43 cd bd 52 fa 8f bd
       -0.08393482 0.108924665 -0.10022684 -0.07030167
0001a0 95 99 6c 3d 6c 17 df bc da 3a 05 3e 0a 5c 0d 3e
       0.057763655 -0.027232848 0.13010731 0.13804641
0001b0 ac 91 0c bd 8e 48 17 be e9 be 53 3e e1 b4 5d be
       -0.03431861 -0.14773771 0.20678295 -0.21651031
0001c0 7e 3d c5 bd d8 ec d7 bd 5f 10 76 bb 53 7c 01 3d
       -0.09630869 -0.10543221 -0.003754638 0.031612705
0001d0 f5 bf 68 bd 87 24 9b bd f9 f3 13 be 83 64 88 bc
       -0.05682369 -0.075753264 -0.14448537 -0.01664949
0001e0 5a 0e 03 3e 6d 25 f9 3d 1c b2 83 3c fe 49 47 be
       0.12798443 0.121653415 0.01607614 -0.1946182
0001f0 0b 3a 4c be 1b 77 6e bd 01 74 42 3e 22 f6 82 3d
       -0.19944017 -0.058219057 0.18989564 0.06394602
000200 44 0f d2 bc 93 7d 35 3e 6c 91 50 bd 11 c6 14 3d
       -0.025642045 0.17723684 -0.050919935 0.036321703
000210 a0 c9 c1 bd c9 7e c3 3d 17 90 da bd ef 1f e9 bc
       -0.09462285 0.09545667 -0.10672014 -0.02845761
000220 90 64 14 bd 1d f9 b2 3d 1d dd 37 3d ae 7d 7b bd
       -0.036228716 0.08738921 0.044888604 -0.061399154
000230 57 b3 9d 3d 8f 7d 8e bd b7 9d 98 bd f7 d8 39 3e
       0.07700222 -0.06957542 -0.07451957 0.18149172
000240 f8 fb 17 be b6 48 af 3d 41 2d 19 be be 36 80 bd
       -0.14842212 0.085587904 -0.14958669 -0.06260441
000250 df 8f 79 3e 8d e0 31 bd 3c c7 e8 3d 5e 9c e9 bd
       0.24371289 -0.04342704 0.11366126 -0.11406778
000260 2c 56 d8 bd 59 16 96 bb ba d3 8a 3d 65 65 06 be
       -0.10563311 -0.0045803008 0.06778665 -0.13124616
000270 34 83 d7 bd 38 a3 f2 3d c8 44 46 3d 5c 2e 69 be
       -0.10523072 0.11847538 0.04840544 -0.22771591
000280 68 c8 30 3e d3 6b d7 bd 96 30 b7 bd 5d ef 5e be
       0.17263949 -0.10518613 -0.08944814 -0.21770997
000290 4d a9 0e 3e 4d b5 15 be 67 7d 24 be 77 b3 53 be
       0.1393177 -0.14619942 -0.16063462 -0.20673929
0002a0 f2 b5 f1 bd fd 94 0a 3e 2f 2f 88 3d 80 b2 13 be
       -0.118022814 0.13533397 0.066496246 -0.14423561
0002b0 e9 e4 23 be 52 28 a1 bd 4b af 21 bd db 18 9a bd
       -0.16005291 -0.078690186 -0.039473813 -0.07524272
0002c0 aa 46 3a 3e 80 44 e7 38 9a dd 12 be 1d df 96 bd
       0.18191019 0.000110276975 -0.14342347 -0.07366774
0002d0 9c 12 da 3d e7 be 01 bd 24 7c fa bb 21 2b d4 bd
       0.10648081 -0.0316762 -0.0076441932 -0.10359789
0002e0 6e 26 2f bd 4a bf 5d bd d3 af cb bd 28 89 14 be
       -0.04276126 -0.054137506 -0.09945645 -0.14505446
0002f0 a0 14 ae 3d b1 bf 07 3d d1 62 85 bd 17 8d 52 3d
       0.08500028 0.033141796 -0.06512988 0.051404085
000300 5d 1c 83 3d f9 13 f2 bd d3 73 9e bc 64 c1 3a bd
       0.06401894 -0.11820216 -0.019342339 -0.045594588
000310 43 36 3e bd 08 76 a2 bb 36 51 c1 3d d6 b3 52 3d
       -0.046438467 -0.004957918 0.09439318 0.051441036
000320 4b d3 86 3d 71 5b 20 3e 79 24 8e bd 1a 14 4b 3d
       0.0658327 0.15659882 -0.0694055 0.049579717
000330 6f 30 19 3e ef ac b0 3c 15 e2 0b 3e 2b fe 81 3d
       0.14959882 0.021566836 0.13660462 0.06347307
000340 ac d6 48 3d 07 7a 0c 3c e0 bb f7 3d 70 d4 32 be
       0.049032852 0.008574015 0.12096381 -0.17463851
000350 8c 55 14 3e 05 41 99 bd 34 e4 27 3e 8e 1c 32 3d
       0.14485759 -0.074831046 0.16395646 0.043484263
000360 82 f9 10 be b4 a6 1f 3e 14 99 29 3d 69 b2 08 bb
       -0.1415768 0.15590936 0.041405752 -0.0020858294
000370 e0 ef fd 3d 67 f4 28 be 36 71 9d bd f7 4e d0 bd
       0.12399268 -0.16499482 -0.07687609 -0.10171311
000380 10 3a 52 bd 7c 28 cb 3d cd 80 a9 bd e4 32 2d be
       -0.051324904 0.09919831 -0.0827652 -0.16913944
000390 9a 6e 8d 3d 2b 6b ec 3c 50 f1 6e 3d 1b 5e 16 be
       0.06905861 0.028859695 0.058335602 -0.14684336
0003a0 bf 62 42 be 01 39 e0 bd 02 61 24 be a4 83 08 3c
       -0.18982981 -0.10948373 -0.1605263 0.008332167
0003b0 b6 68 f0 bd 59 4a 7e bd 27 3c 54 3e 22 97 fb 3d
       -0.11738722 -0.062082622 0.20726071 0.12284686
0003c0 24 e2 3e 3e dc bf f4 bc 4e 3d 93 bd 2e 98 6b be
       0.18640953 -0.029876642 -0.07189427 -0.2300727
0003d0 0d 57 52 be d2 c4 8e bd 08 54 27 be bc 63 41 be
       -0.2054102 -0.06971134 -0.16340649 -0.18885702
0003e0 59 59 3f bd 2a 68 4d bd b8 35 0e be 7f ae f0 bd
       -0.046716068 -0.050148167 -0.1388768 -0.117520325
0003f0 a1 63 38 3c c8 95 09 3e d3 5b 6b bd c3 23 92 bd
       0.011254222 0.13436043 -0.057460617 -0.07135727

p2iLayer.a f4 [352, 1]
000000 58 63 c5 bd 3d 01 61 bd 11 ed 3b 3d 26 0c 28 bd
       -0.09638089 -0.05493282 0.04588038 -0.04102721
000010 1f 18 bf 3b b0 39 11 bc 61 b8 79 bc 92 97 da bd
       0.005831733 -0.008863851 -0.015241713 -0.10673441
000020 4c 91 ca bd 8e cd 9c 3d 0e 8b a9 bc 94 f0 7b bd
       -0.098909944 0.07656394 -0.02069619 -0.06150873
000030 c1 14 3c bd ca 33 a3 3d f7 7f 23 bd d0 32 a8 bd
       -0.04591823 0.07968862 -0.03991696 -0.08212817
000040 54 47 06 bd c9 15 01 be 44 e9 3b 3d 9c e8 0b 3d
       -0.032782868 -0.12605967 0.045876756 0.03415738
000050 e5 3d f8 3c 64 f9 7d bd 65 79 d7 bb 7a 1a e2 39
       0.030302951 -0.062005416 -0.0065757507 0.00043125806
000060 d4 fa 61 3b fe 39 e1 3d 80 57 b1 3d e9 59 62 bd
       0.003448178 0.10997389 0.086592674 -0.055261526
000070 2e d4 83 3d 23 15 56 3c 5a 1a 69 bd 37 3e 40 bd
       0.064369544 0.013066563 -0.056909896 -0.046934333
000080 04 44 1b be b8 46 92 b9 95 ea 61 bd 84 79 d7 3d
       -0.15162665 -0.0002789998 -0.055155355 0.10521224
000090 f2 53 c7 bd a9 53 9e 3d b7 26 c8 bd 05 7b 5b 3d
       -0.09732808 0.07730801 -0.09773009 0.053584117
0000a0 c3 e8 39 bd 69 83 d8 3c 92 08 c3 3c f7 02 d1 bd
       -0.045387994 0.026429849 0.023807798 -0.102056436
0000b0 94 fa c7 3d a3 5f 14 be c3 de a8 3d 6d b5 d8 bd
       0.09764591 -0.14489608 0.082456134 -0.10581479
0000c0 ce bc de 3d 6e 78 a5 bd 90 c1 54 3c c9 04 80 3d
       0.108758554 -0.08079611 0.012985602 0.06250913
0000d0 f5 9e be bb 8b 6a a5 3d 22 89 6b 3c 59 c3 0b 3e
       -0.005817289 0.08076962 0.014375957 0.13648738
0000e0 2a ff e2 bb ab 68 e6 bd d6 aa 36 3d b5 0f 1f 3d
       -0.0069273906 -0.112504326 0.044596516 0.03883334
0000f0 6d 6b 87 3d da b1 96 3d c5 6c 04 3e f5 9a 08 3e
       0.06612287 0.07358141 0.12932117 0.13340361
000100 c9 9b 5d 3d c2 3a ec bd 2e a6 e6 bd 33 ad 10 bd
       0.054103646 -0.11534645 -0.11262165 -0.035321426
000110 e5 df f9 bd f4 7f 60 3b 1a e2 29 3d 69 fd ca bd
       -0.122009076 0.0034255954 0.041475393 -0.099116154
000120 38 b6 84 3d 2a 19 16 3d 8b ef 21 bd 9a bf cd bd
       0.06480068 0.036645092 -0.039535087 -0.10046311
000130 fa 55 9e 3d 48 e0 b0 bc 77 bf 03 be 12 2e 96 3d
       0.077312425 -0.02159132 -0.12866007 0.07333006
000140 75 55 b0 3d ac 0a 4c 3c b8 31 de bc 3a c3 a6 bc
       0.0861005 0.012453716 -0.027123317 -0.020356763
000150 ec 09 d2 bd fc 2d 89 3d ac 8b bd bd 42 7c fc bc
       -0.10255799 0.06698224 -0.09255156 -0.03082097
000160 d0 fe 5c bc d1 aa 2f bd d2 7d 50 3d 38 27 e3 3a
       -0.013488486 -0.042887513 0.05090124 0.0017330414
000170 6c 93 df bc 58 8e 1b 3e 35 09 d6 bd 67 ba 2b 3d
       -0.027291976 0.15191019 -0.10450975 0.041925814
000180 5d bb c4 bd 51 6f 0c 3e e1 c5 ae 3d 42 bc fd bc
       -0.09606049 0.13714339 0.08533836 -0.030973557
000190 64 6f 94 bd 98 36 c9 3d a4 02 f6 3d bc cd 61 bc
       -0.072478086 0.09824866 0.120122224 -0.013781961
0001a0 08 fb 04 bb 43 00 4a 3d c8 e3 6c 3d 3b 6f 71 3d
       -0.0020291228 0.049316656 0.057834417 0.05894397
0001b0 2a 0f a9 bd a3 f3 dc bd f8 9a f8 bc bc 96 1e bd
       -0.082548454 -0.107886575 -0.030347332 -0.03871797
0001c0 d4 06 1c bd cf ec 8a bd 97 ce a2 bd db 1a 6b bd
       -0.03809245 -0.06783449 -0.0794956 -0.05739866
0001d0 76 06 1c bd 40 f4 e0 3c 0c 8e f9 bc da d4 1d be
       -0.0380921 0.027460217 -0.030463241 -0.15413228
0001e0 16 a1 9f bd 47 de 14 be b2 b9 29 bd 59 48 82 3d
       -0.077943966 -0.14537917 -0.04143686 0.063614555
0001f0 92 6b c9 3d a4 65 2e 3e 98 96 26 3c c2 2d 94 3d
       0.098349705 0.1703096 0.01016774 0.0723529
000200 ee d0 c2 3c 82 16 1b be 53 06 07 3c ea 62 3b bd
       0.023781266 -0.15145305 0.008241254 -0.04574863
000210 bf 89 c2 bc 77 d2 a2 bd b6 48 f8 bd 7d f7 96 3d
       -0.023747323 -0.07950299 -0.121232435 0.073714234
000220 76 8f 49 bd 97 89 32 3d 84 2b 31 bd fc 96 05 be
       -0.04920908 0.043588247 -0.04325439 -0.13045877
000230 2c 01 e2 3d 4b 37 01 bd 14 ad 9b 3a 50 26 c5 bd
       0.1103538 -0.031546872 0.0011877143 -0.09626448
000240 e5 6b 89 bd 2e f1 da 3d 11 28 90 3d 70 34 6a bd
       -0.067100324 0.106905326 0.07038892 -0.057178915
000250 74 0c 13 3e 63 a8 81 3d 99 04 5f 3d dd 4a ae bc
       0.14360219 0.06330945 0.054447744 -0.021275932
000260 1b cf 52 3d 12 6c f8 3c f5 e9 9a 3d 67 c1 09 be
       0.051467042 0.03032497 0.07564155 -0.13452683
000270 10 4c dd 3c 81 71 96 3d 09 41 43 3d 0a 5c 73 3d
       0.027013808 0.07345868 0.047669444 0.059413947
000280 8b 82 75 bd eb 53 44 bd 0b 2e c9 bd 6a 72 cf bd
       -0.05993895 -0.047931593 -0.09823235 -0.101292446
000290 c2 84 7a bd 84 64 cd 3d 9f 2f 89 bd cd 34 40 3d
       -0.061161764 0.100289375 -0.06698536 0.046925355
0002a0 07 77 78 3d 4e c8 d6 3c 02 b2 ad bd 13 b7 40 3d
       0.06066039 0.02621856 -0.08481218 0.047049593
0002b0 f1 bf e9 3b 3b d2 2a 3d c1 ca af bd f4 e9 19 3e
       0.007133477 0.041704398 -0.08583594 0.15030652
0002c0 d4 36 a5 bd 19 7e a2 bd 28 bb aa bd 0c e0 f7 3d
       -0.08067098 -0.079342075 -0.083364785 0.121032804
0002d0 32 46 ea bd 8d 9f 96 3b 2e 57 12 3e ca e7 b5 3c
       -0.1143917 0.0045966567 0.14291069 0.022205252
0002e0 2e 08 8f 3c 89 3e 6c 3d 7f 7a 90 3c dc f0 1c 3d
       0.017459955 0.057676826 0.017636536 0.03831564
0002f0 66 fb 86 bc 94 d7 ca bd 1e 00 fa 3d 90 7f 10 3e
       -0.016477298 -0.099043995 0.122070536 0.14111161
000300 27 0d e5 bd cf 36 c9 bd 4d 19 bd 3c 57 e9 8f 3d
       -0.11184149 -0.09824907 0.023083353 0.07026928
000310 a7 41 06 bd 65 16 c2 bd ab 9d b0 3d 6d 98 78 3d
       -0.032777455 -0.09476928 0.08623823 0.06069224
000320 bd 4b 23 3d 64 5e 33 be 0a b3 6a 3c 06 1b bd bc
       0.03986715 -0.17516476 0.014324913 -0.023084175
000330 a7 1b de 3d 2e 94 ea 3d b3 3c db bc 28 3d a4 bc
       0.10845118 0.11454044 -0.026762342 -0.020048693
000340 cd f2 93 bd 10 64 09 bd 7e df e2 bc 95 6f 94 3d
       -0.07224045 -0.033542693 -0.02769446 0.07247845
000350 d4 fd fa bd ec d5 de 3d f0 0f 49 3d 82 73 7c 3c
       -0.12255445 0.10880646 0.049087465 0.015408399
000360 b1 72 93 3d 9f 1d 9e bd a9 9e fd bd 4a 6e 98 bd
       0.0719961 -0.077204935 -0.12383778 -0.07442911
000370 ef 6e 2e be f1 af b8 3d c3 af b3 bc 35 c2 53 bd
       -0.17034505 0.09017933 -0.021934396 -0.051698882
000380 f2 0f eb bd f6 73 0f bd 73 20 cb 3d 36 54 94 ba
       -0.11477651 -0.0350227 0.099182986 -0.0011316601
000390 d7 01 d6 3d ae 57 86 bc 7c 78 e1 bd 2b 52 de bd
       0.1044957 -0.01639923 -0.11009309 -0.10855516
0003a0 85 7e 82 3c 7a 77 80 3d 58 0b ce 3d 3d 04 14 bd
       0.01592947 0.06272788 0.100607574 -0.036136854
0003b0 98 09 29 3d 05 8a 39 3d 74 a6 d7 3b 13 c2 77 3b
       0.041268915 0.04529764 0.006581122 0.0037804886
0003c0 ff d4 b9 3d 5b 99 62 bc 43 8c 80 3d cd be 31 bd
       0.09073829 -0.013830508 0.06276753 -0.043394852
0003d0 85 5e 89 3d 29 94 d6 3d 14 fe 89 bc e1 5f e9 3d
       0.06707481 0.10477478 -0.016844787 0.113952406
0003e0 9b ff 18 bd 37 33 72 3d 35 d3 83 bd 0b ce cc 39
       -0.03735314 0.059130874 -0.06436769 0.00039063426
0003f0 77 c1 65 3c 09 80 3c 3d cf bf 43 3d a7 37 71 3d
       0.014023176 0.04602054 0.047790345 0.058890965

intersectionLayer.W f4 [48, 46]
000000 d0 b1 cd bd 9a a0 e6 bb 58 7c 67 bd 7f fb 2f be
       -0.10043681 -0.007038188 -0.056515068 -0.17185782
000010 fe ed 68 3e 42 75 f6 3d de 29 87 3d 86 dd 0e 3e
       0.22747037 0.12034084 0.065997824 0.13951692
000020 d6 7b 56 be 3e c5 f6 bd ba 32 10 be 48 ef 03 be
       -0.20945677 -0.1204934 -0.1408185 -0.12884247
000030 e0 41 a7 3d 1b ec 32 3e 4e 6e a7 3b e8 e4 47 be
       0.081668615 0.1747288 0.005109585 -0.19520915
000040 ab 0d 3e 3e 9f 5e 0a 3e 29 9b 24 3d 10 2d d4 3d
       0.18559901 0.13512658 0.040187035 0.103601575
000050 77 8c 14 be db bb a8 3d 24 b3 3f 3d b0 56 a1 bc
       -0.14506708 0.082389556 0.0468017 -0.019694656
000060 74 2a 0e bd c0 b9 b0 bb c2 4a 64 3e f0 f6 02 3e
       -0.034708455 -0.005393237 0.22294143 0.12789512
000070 97 16 82 bd 8c 1e 4b 3c cf 7d d2 3d e2 dd 73 bb
       -0.06351965 0.01239742 0.10277902 -0.003721111
000080 eb f0 78 3e df 0c fa bc 71 19 61 be 45 07 38 be
       0.24310653 -0.030523716 -0.21982361 -0.17971523
000090 a3 79 67 be 5c 7f d9 bd d8 00 54 3d d7 aa 96 bd
       -0.22604994 -0.10619995 0.051758617 -0.07356804
0000a0 6e 62 48 be 43 9e 9d 3d f5 e5 73 be 7b 55 f8 3d
       -0.19568798 0.07696202 -0.2381819 0.12125679
0000b0 4c 62 81 be 6d 7f 1b 3e b0 d0 60 bc e9 18 bc bd
       -0.25270307 0.15185328 -0.01372163 -0.09184439
0000c0 c5 e3 e1 3b 67 68 36 3d 4b ca 8f 3c fd d1 90 3d
       0.0068936073 0.04453316 0.017552515 0.07071302
0000d0 06 6b 40 3e 22 bf a3 bd 1d c9 3e be f8 72 15 be
       0.18790826 -0.0799544 -0.18631406 -0.14594638
0000e0 63 40 29 3e f7 1d c7 3c d5 12 58 3e 60 2a a8 3d
       0.16528468 0.02430628 0.21100934 0.082112074
0000f0 27 33 08 3e 21 ae 5f be 51 3f 77 be 68 18 c4 3b
       0.13300763 -0.21843769 -0.24145247 0.0059843548
000100 94 d2 62 3e f6 62 2f bc 0b 27 44 be 58 16 2d be
       0.22150642 -0.0107047465 -0.19155519 -0.16903055
000110 d6 45 29 be 1c c7 21 bd ac 76 77 3e 9a c2 9b bd
       -0.16530547 -0.039496526 0.24166363 -0.07605477
000120 f5 41 d5 bd 18 5f 4a be b5 9d 5f 3e 5d 7d c6 3d
       -0.10412971 -0.19762838 0.21837504 0.0969188
000130 c3 62 6c bd e0 49 8a be df 24 a3 3d 7f e8 5d be
       -0.057711374 -0.27009487 0.07966017 -0.21670721
000140 2e 2e d6 3d 1c 53 35 3e 22 41 68 3e b9 dd 77 be
       0.10458027 0.17707485 0.22681096 -0.24205674
000150 8e cc 38 be 69 40 15 be 47 f9 91 3e cd ca 31 be
       -0.18046781 -0.14575352 0.28510496 -0.17362519
000160 fc 5e 87 3e d5 a2 12 bd 6c 68 fe bc b6 17 fe 3d
       0.26439655 -0.03579982 -0.031055652 0.12406866
000170 c0 0f 89 3c ed 4f 73 3b 75 76 82 bc e6 ea 3e 3e
       0.016731143 0.0037126497 -0.015925625 0.18644294
000180 56 52 83 be 35 f5 8d 3e c4 19 31 bd 93 a1 e8 bd
       -0.25648755 0.2772614 -0.043237463 -0.11358943
000190 36 6c db bd b0 0e 63 3e 38 1d b6 3d bd 71 64 be
       -0.10713999 0.22173572 0.08892292 -0.22309013
0001a0 d8 1f 3f bc 59 a4 a3 bd ac ee 61 be c2 54 6c 3e
       -0.011665307 -0.07990331 -0.22063702 0.23079208
0001b0 76 4f 8a bd aa a0 6d be c3 9f 1e be 25 7a aa 3d
       -0.06753437 -0.2320582 -0.15490632 0.083240785
0001c0 33 ab 38 3d 2f e8 33 be ab 07 32 be 86 1c 45 3d
       0.045085143 -0.1756904 -0.17385738 0.048122905
0001d0 65 53 37 3e 4e 48 1c 3e 00 74 77 3e 41 00 72 3e
       0.17902906 0.15261957 0.24165344 0.2363291
0001e0 56 a5 78 bb 5c bf bf bd 7f 0e 34 be 2a 6f cb 3c
       -0.0037940345 -0.09362671 -0.17583655 0.02483328
0001f0 86 ac 23 3e 8a 2f 03 be 40 dd 6c 3d 98 f4 4e 3e
       0.15983781 -0.12811103 0.057828188 0.20210493
000200 61 01 06 bd cc af 53 3e 67 41 e0 3d 04 0d 77 bb
       -0.03271616 0.2067253 0.109499745 -0.0037696967
000210 c1 b0 4a bd 5b cd 12 3e c4 3f c9 3d a7 79 60 be
       -0.049484972 0.1433615 0.098266155 -0.21921407
000220 d0 60 ee bd 56 be 30 3e 54 24 3c bd b1 0e a8 3c
       -0.11639559 0.17260107 -0.045933083 0.020514818
000230 56 86 bf bc 03 fe 89 bc 5a 3b 6c bd 66 6d b6 bd
       -0.023379486 -0.016844755 -0.05767379 -0.08907585
000240 6d 59 05 bd fa 6b 3b be fe 8a e4 bd 8c 06 02 bd
       -0.032555986 -0.18302909 -0.11159323 -0.031744525
000250 39 41 1b 3e b2 21 a6 3d 79 eb 67 3e 15 8e 2f 3e
       0.15161599 0.081118956 0.2264842 0.17144044
000260 e1 6f 37 3e e6 80 26 bd 24 c9 34 3e 21 28 91 3e
       0.17913772 -0.04065027 0.17654854 0.28350928
000270 b8 08 00 3e 46 d1 ea bd f1 c8 31 3e 1a f4 11 3e
       0.12503326 -0.11465697 0.1736181 0.14253274
000280 2c cc bb bd 77 ca d5 3d 6f dd 09 3e ed e0 f4 bd
       -0.09169802 0.10439008 0.13463376 -0.11956964
000290 7b 5b 62 be 25 2f 4b be f6 9c 82 3c d3 e0 cc bd
       -0.2210521 -0.19842203 0.015943985 -0.10003819
0002a0 63 9e 92 bd c4 bb d6 bd 78 34 39 3e f2 5f 4f be
       -0.07159116 -0.10485032 0.18086421 -0.20251444
0002b0 ec 4d 01 3e b2 45 72 3e 48 43 80 3d f1 99 07 3e
       0.12627381 0.23659399 0.06262833 0.13242318
0002c0 bb cf 63 3e f2 1a e6 3d 45 57 5e 3e 5f 60 c3 3d
       0.22247212 0.11235608 0.21712978 0.09539866
0002d0 c7 28 ea bd 4a 2e 7c 3e 9c a6 ba 3c 98 6f 17 be
       -0.11433559 0.24627033 0.022784524 -0.14788663
0002e0 b0 b6 dc 3c 47 eb 50 be 7d 7f 9a 3d 24 d9 3f 3d
       0.026942581 -0.20402251 0.07543848 0.04683794
0002f0 1e 00 ee bd 4e ae da bc af f5 65 3d fa 8c 15 bd
       -0.11621116 -0.026694443 0.056142505 -0.0365114
000300 df d0 9e bd d0 e8 00 be a7 10 9f bc 65 06 d6 bd
       -0.07754683 -0.12588811 -0.01941712 -0.104504384
000310 a9 3b 14 be 15 73 77 be a3 dc 67 3e 8f 46 df bc
       -0.14475884 -0.24164994 0.2264276 -0.027255325
000320 8a dc 52 3e 3f 75 45 be 39 c3 5f be 90 99 e2 3d
       0.20591941 -0.19283007 -0.21851815 0.11064446
000330 0a 98 2e be 7a 6c 5e 3e fb da 44 be 56 36 06 3e
       -0.17050186 0.21721068 -0.1922416 0.13106665
000340 d4 7c e6 3d 50 8b ac bd 2f 0f 6b be e4 34 75 bd
       0.11254278 -0.08425009 -0.22955011 -0.059864894
000350 81 40 cc bd 5f 07 0c be 2c 35 6e 3e f3 cb c9 bc
       -0.09973241 -0.13674687 0.23262471 -0.024633383
000360 6b a0 29 be f3 ba e5 ba 1d 05 5c 3e 6f 53 64 bd
       -0.16565101 -0.0017527029 0.21486326 -0.05574363
000370 83 26 ab bd 1e c9 f3 3d 3b 9b 5c 3d 7f ae e4 bc
       -0.08356955 0.119035944 0.053858977 -0.027915237
000380 8c d8 2d 3e fc 59 6c be dc 2f d2 bd b4 00 2d bd
       0.16977137 -0.23081201 -0.10263035 -0.042237
000390 62 03 2c 3e 8d dc 11 bd 28 7c df 3d 23 fc aa bd
       0.16798165 -0.035610724 0.10912353 -0.083488725
0003a0 79 2c ce 3d 44 36 53 bd 99 fd 33 be c5 72 09 3e
       0.10067076 -0.051565424 -0.17577209 0.13422687
0003b0 3e c5 b0 bd 41 43 db 3c 9b c0 1b be 77 41 39 be
       -0.08631371 0.026765468 -0.15210192 -0.18091379
0003c0 64 42 59 3e f0 96 75 3e 0a 6c 00 be 21 d5 5d be
       0.21216732 0.2398336 -0.12541214 -0.21663333
0003d0 f5 c2 3e be 81 e6 c0 bd 75 6f 72 3e 4c bc 7c 3e
       -0.18629058 -0.09418965 0.2367533 0.24681205
0003e0 fc d4 63 3e 6e df af 3d 6e 34 07 bd 06 9b 32 3d
       0.22249216 0.08587538 -0.033008985 0.043604873
0003f0 79 ab 67 be 02 c6 4a bd 45 d1 86 be d3 b4 6c 3e
       -0.22624005 -0.04950524 -0.26331535 0.23115854
