test/model/actor_3_3_3_2_64_best_rou2.pth (torch, 689330 bytes, 17 tensors)

v2lLayer.W f4 [3, 40]
0.32144177 0.14947 0.28141314 -0.041274995 0.2846608 -0.24112861 0.24846154 -0.2412688
0.3384321 0.14732337 -0.032368798 -0.1686045 -0.06945721 -0.055371687 0.12212501 0.20310467
-0.120633684 -0.114391826 -0.26654917 0.256494 -0.023251023 0.2802425 0.23864524 0.28366655
0.23835243 -0.12487899 -0.10052284 -0.21545647 -0.0023224668 -0.26543307 0.13549171 0.21568935
-0.28454039 0.19641222 -0.14359768 0.18338215 0.09807865 0.00696351 -0.18034355 -0.119989395
-0.06406655 -0.18163764 -0.27065954 -0.31832772 0.38632423 0.07933855 0.27665535 0.23822764
0.09439926 0.104975924 -0.32389212 0.26150894 0.059668 0.25117227 0.2863289 0.25236732
-0.26859838 0.121897176 -0.2760051 -0.26103422 0.35372096 -0.09400495 -0.23471577 0.04825285
-0.17129318 -0.309947 -0.29674742 0.07610827 -0.15130964 0.20491143 0.2546155 -0.32033902
-0.34877345 -0.05471571 -0.061831865 -0.32105413 0.0889557 -0.3735894 0.07258761 0.18139976
0.0156143755 0.1560757 0.11437546 -0.27250627 0.09066984 -0.31506333 0.18838076 -0.009885822
-0.18988165 -0.26332483 0.2631548 -0.34302855 0.06753402 -0.000584846 0.3074114 -0.25350252
0.08099654 -0.254504 0.20439334 0.16884147 0.09447919 -0.20395821 0.07224679 0.028317831
-0.08931887 0.35436898 0.19323573 -0.10256625 -0.30581808 -0.36123264 -0.14714478 0.12691945
0.21719684 -0.21671434 0.019291278 -0.20263599 0.023776453 -0.15111877 -0.3259121 0.3141084
00000000: 0494 a43e aa0e 193e 6215 903e f80f 29bd
00000010: 0fbf 913e 6bea 76be b46c 7e3e 2b0f 77be
00000020: f946 ad3e f0db 163e 2595 04bd a8a6 2cbe
00000030: 953f 8ebd 6ccd 62bd ad1c fa3d acfa 4f3e
00000040: cb0e f7bd 4346 eabd 2279 88be 2e53 833e
00000050: ee78 bebc f27b 8f3e 6b5f 743e be3c 913e
00000060: a912 743e 8ec0 ffbd ebde cdbd 9fa0 5cbe
00000070: 8734 18bb d8e6 87be 57be 0a3e abdd 5c3e
00000080: 47af 91be 4920 493e 450b 13be 88c8 3b3e
00000090: 76dd c83d 282e e43b fbab 38be 00bd f5bd
000000a0: 5335 83bd 38ff 39be e393 8abe dafb a2be
000000b0: 4acc c53e 407c a23d c5a5 8d3e f2f1 733e
000000c0: 6654 c13d 9efd d63d 30d5 a5be 80e4 853e
000000d0: 6f66 743d a799 803e b499 923e 4a36 813e
000000e0: ba85 89be 3aa5 f93d 8a50 8dbe 47a6 85be
000000f0: ea1a b53e ab85 c0bd 5559 70be c8a4 453d
00000100: 7b67 2fbe 60b1 9ebe 47ef 97be a7de 9b3d
00000110: eaf0 1abe 4dd4 513e f65c 823e 7a03 a4be
00000120: 6f92 b2be 951d 60bd 6943 7dbd 3561 a4be
00000130: 682e b63d 1c47 bfbe d0a8 943d dcc0 393e
00000140: 70d3 7f3c 4fd2 1f3e ae3d ea3d f185 8bbe
00000150: 1cb1 b93d fb4f a1be e3e6 403e 25f8 21bc
00000160: 5670 42be 83d2 86be 3abc 863e 70a1 afbe
00000170: 474f 8a3d 5a50 19ba 0765 9d3e 15cb 81be
00000180: 84e1 a53d 594e 82be 7d4c 513e c7e4 2c3e
00000190: 4e7e c13d 6cda 50be 20f6 933d ccfa e73c
000001a0: d0ec b6bd da6f b53e 96df 453e 410e d2bd
000001b0: 3094 9cbe 7cf3 b8be 1fad 16be 2cf7 013e
000001c0: d968 5e3e 5dea 5dbe be08 9e3c cf7f 4fbe
000001d0: d6c6 c23c e1be 1abe f3dd a6be d1d2 a03e

v2lLayer.a f4 [80, 1]
0.15293138 0.059907883 -0.20484541 -0.17527585 0.03127332 0.11624038 -0.1831498 -0.0024981184
0.23852772 -0.02142122 -0.08932137 0.18091354 -0.21098633 0.2580851 0.24236901 -0.24940267
0.021723492 -0.09864414 0.06816374 -0.0027525665 -0.2197847 -0.12663242 -0.26974118 0.0748636
-0.0876683 -0.14228041 -0.17564669 0.006444052 -0.037713073 0.23505507 0.18871221 0.11764242
-0.14138447 -0.039809763 -0.2599873 -0.059981734 -0.15339646 -0.06437761 -0.07909381 -0.024127519
0.21649808 -0.013951377 -0.17953423 0.016514277 0.026357373 0.018844878 -0.24915706 0.25252452
-0.21383634 -0.064676814 0.17236467 0.26212198 -0.2358648 0.13559963 0.014378743 -0.20558783
0.14294337 -0.17025617 -0.039017167 -0.001424126 -0.13638167 0.018790526 -0.0036527144 -0.21618329
0.078976244 0.13363232 0.0067077647 0.03385648 0.14931734 -0.05000367 0.05630852 -0.11007091
0.165421 -0.10882865 0.08521505 -0.06135899 0.1800806 0.15047063 -0.18687004 0.17716958
00000000: 0b9a 1c3e f861 753d ffc2 51be 837b 33be
00000010: 7418 003d 700f ee3d 9f8b 3bbe 79b7 23bb
00000020: 9c40 743e 8e7b afbc 1fee b6bd 6641 393e
00000030: cd0c 58be bb23 843e 952f 783e 6a63 7fbe
00000040: 77f5 b13c f005 cabd 6e99 8b3d 6764 34bb
00000050: 3e0f 61be eeab 01be 841b 8abe 1652 993d
00000060: 708b b3bd f5b1 11be badc 33be a028 d33b
00000070: 0679 1abd 47b2 703e c63d 413e 82ee f03d
00000080: 17c7 10be 900f 23bd 0e1d 85be 68af 75bd
00000090: f613 1dbe 69d8 83bd effb a1bd 13a7 c5bc
000000a0: acb1 5d3e 5194 64bc d2d7 37be f348 873c
000000b0: 6beb d73c 9360 9a3c 0723 7fbe e54a 813e
000000c0: eaf7 5abe 4775 84bd 5d80 303e da34 863e
000000d0: 8b86 71be a1da 0a3e d294 6b3c 9e85 52be
000000e0: bf5f 123e a257 2ebe 77d0 1fbd bda9 baba
000000f0: a3a7 0bbe 97ee 993c 6162 6fbb 275f 5dbe
00000100: 4cbe a13d e9d6 083e cfcc db3b 18ad 0a3d
00000110: a5e6 183e a6d0 4cbd c3a3 663d db6c e1bd
00000120: 1f64 293e 8ee1 debd 3a85 ae3d 9053 7bbd
00000130: 0c67 383e f914 1a3e dc5a 3fbe f16b 353e

laneLayer.W f4 [12, 12]
-0.22298288 0.26891613 -0.12325523 -0.3478043 0.05329281 -0.41271698 -0.27167484 0.31345013
0.3154991 0.04793553 -0.32464898 -0.09688075 -0.14539093 -0.4906354 0.3286957 0.1075204
0.20629084 -0.026616096 -0.27678007 -0.3347721 0.08140296 0.12674981 -0.26450306 -0.06107962
0.4207643 0.29093876 0.2602028 0.17862046 0.44776407 -0.2521367 -0.3380745 -0.29546985
0.29336458 -0.17293116 -0.16491061 -0.2483904 0.32736707 -0.30837715 -0.10290091 0.26406813
-0.083621494 -0.39508212 0.44840032 0.42115933 0.082455866 -0.36506882 -0.30646202 -0.3818711
0.23068218 -0.054290127 -0.47292966 0.38845047 -0.010147808 0.011723367 -0.31579432 0.4758689
-0.5064296 0.14503078 -0.32787827 -0.29380822 0.31274068 -0.36472887 -0.37556183 0.32380155
-0.08168571 -0.44409996 0.34337395 -0.4799872 -0.16469212 -0.0052210484 0.33663967 0.10943012
-0.012138285 -0.50908107 -0.34310037 0.25517473 0.37359416 -0.53820574 0.4668588 0.25302264
-0.06373437 -0.44241 -0.062253192 0.08296031 0.107994564 0.05756374 -0.1326934 -0.15974252
0.18676057 -0.528435 0.107556604 0.10434707 -0.3656433 -0.20960765 -0.3118488 -0.11760895
-0.34569716 -0.49897933 -0.3277828 0.32835633 -0.22855818 -0.4250813 -0.073289275 0.2927314
-0.255399 -0.33298445 -0.040780902 -0.28084463 0.33637655 0.40694493 0.0881287 -0.4530751
0.23987803 0.49545276 -0.4469089 0.24848798 -0.14461862 0.18030584 0.30258787 -0.1560628
-0.3388749 0.12048027 -0.23903657 0.10565034 0.5065034 0.2885968 0.44150698 0.24028355
-0.23797357 -0.18049648 0.30130333 0.108959906 0.020831877 0.018697029 0.22961546 -0.2170218
-0.0155305285 -0.059821498 0.43263245 0.017068194 0.38719314 -0.32715294 0.122876085 -0.25912604
00000000: a055 64be 60af 893e 3d6d fcbd 6813 b2be
00000010: 9049 5a3d a44f d3be f718 8bbe 897c a03e
00000020: 1989 a13e 0c58 443d 6438 a6be 6a69 c6bd
00000030: 5ce1 14be 9034 fbbe ce4a a83e a833 dc3d
00000040: e83d 533e 000a dabc 1eb6 8dbe 4067 abbe
00000050: 98b6 a63d b4ca 013e f26c 87be a02e 7abd
00000060: 6b6e d73e edf5 943e 4d39 853e 48e8 363e
00000070: 5541 e53e 1018 81be 1a18 adbe d347 97be
00000080: e233 963e de14 31be 54de 28be 0e5a 7ebe
00000090: a89c a73e 9ce3 9dbe b6bd d2bd f033 873e
000000a0: bf41 abbd 3448 cabe ba94 e53e 32a2 d73e
000000b0: 9fde a83d 4dea babe 97e8 9cbe 9c84 c3be
000000c0: f337 6c3e 535f 5ebd d623 f2be fbe2 c63e
000000d0: fe42 26bc 5d13 403c cbaf a1be 17a5 f33e
000000e0: 5fa5 01bf f382 143e a9df a7be 086e 96be
000000f0: 8c1f a03e bebd babe a449 c0be 51c9 a53e
00000100: d64a a7bd 1261 e3be b6ce af3e e2c0 f5be
00000110: 0da5 28be 5415 abbb 095c ac3e e61c e03d
00000120: a8df 46bc 2353 02bf daaa afbe 43a6 823e
00000130: bc47 bf3e dac7 09bf 1e08 ef3e 2f8c 813e
00000140: 2a87 82bd 9083 e2be 34fd 7ebd 18e7 a93d
00000150: 412c dd3d f5c7 6b3d c7e0 07be 8b93 23be
00000160: 2a3e 3f3e 8447 07bf a346 dc3d ebb3 d53d
00000170: 9935 bbbe 63a3 56be a5aa 9fbe f6dc f0bd
00000180: 38ff b0be 387a ffbe 26d3 a7be 521e a83e
00000190: 280b 6abe 42a4 d9be b018 96bd e4e0 953e
000001a0: a8c3 82be f07c aabe e009 27bd deca 8fbe
000001b0: 8c39 ac3e 165b d03e d27c b43d 76f9 e7be
000001c0: 96a2 753e fcab fd3e 3ed1 e4be a273 7e3e
000001d0: e716 14be 18a2 383e ccec 9a3e edce 1fbe
000001e0: 0381 adbe 5cbe f63d 01c6 74be 355f d83d
000001f0: 35aa 013f f6c2 933e 340d e23e e40c 763e
00000200: 58af 73be 12d4 38be 6e44 9a3e 5f26 df3d
00000210: 9da7 aa3c 832a 993c 5120 6b3e f63a 5ebe
00000220: c273 7ebc 6307 75bd 0082 dd3e 99d2 8b3c
00000230: 2e3e c63e 9780 a7be 75a6 fb3d 2bac 84be

l2pLayer.W f4 [12, 88]
0.05711278 0.05994458 0.23088218 -0.15502918 0.037021756 -0.117658734 -0.14683323 0.15083607
0.15973637 -0.21089959 0.13086991 0.120946184 -0.16012211 0.19304077 -0.084944814 0.13100056
-0.1832745 0.1640034 0.17650186 0.15003912 -0.048082236 -0.2124434 -0.15203646 -0.013660338
-0.09514563 0.002388853 -0.1369891 -0.007691268 0.10663105 -0.21450274 -0.048403576 0.21989304
-0.20701995 -0.18156426 0.05282983 -0.1980108 0.0035033324 0.10559674 0.20930469 0.19515786
-0.10348766 0.14914444 -0.067060634 -0.220253 0.052879933 0.20194043 -0.060176034 0.12916683
-0.020299265 -0.023422388 -0.03544397 -0.19414155 0.17829949 -0.07929423 -0.028761778 -0.25859025
0.054859873 -0.08940462 0.061513413 0.12702361 -0.03493268 -0.15179609 -0.18416724 0.11079422
0.20947738 0.028725108 0.011047399 0.17742293 0.21451744 -0.08392438 0.026244259 -0.121835075
-0.12913212 -0.0017323367 -0.0927893 -0.13636817 -0.14506193 0.12902126 0.00094320835 -0.15754329
-0.17996103 -0.005386594 0.09692792 -0.17185736 0.21049878 -0.06577372 0.056692135 0.006491356
-0.16921027 -0.10580623 -0.21521455 -0.15192592 -0.0005570799 -0.17826581 -0.03470464 -0.010007367
-0.033397928 0.008415505 -0.15120187 0.12456636 -0.025836647 -0.11663614 -0.2309758 0.22563656
-0.068256944 0.18149166 -0.15918657 0.066656664 0.11596258 0.098426655 -0.046586126 0.11793347
-0.1227897 -0.18228379 -0.13057232 -0.23514752 -0.14025778 0.13009857 0.16173314 -0.2274068
0.17647915 -0.110324755 0.15281658 0.21365027 -0.11242068 -0.025977686 -0.11453062 -0.09312782
0.082540676 -0.1825658 0.028128758 -0.07111479 -0.07198198 0.20683794 -0.19997478 0.18168877
-0.22613733 0.07375918 -0.13095829 0.12711175 0.13411449 0.20485906 -0.0036723912 -0.020115808
-0.07007179 -0.12779874 -0.09911984 0.21718149 -0.09422709 -0.23026559 -0.011592537 -0.054567486
0.103240445 -0.06201251 -0.0600574 -0.08912638 0.12191017 -0.030072078 -0.058609873 0.19156463
0.09414704 0.13294606 0.023776725 0.19294716 -0.036743566 0.029947981 0.10311182 0.0064600557
-0.068910524 0.09242444 0.12882014 -0.14929843 -0.18827862 0.10176472 0.18279137 0.019971922
0.012288527 -0.1360312 0.031034566 -0.1037911 -0.19620225 0.21491912 -0.21576604 0.19648337
0.052100334 -0.03800597 -0.15301776 0.062764786 0.014684639 -0.09044077 0.13260637 -0.055372454
0.006826031 -0.21237798 0.2398988 -0.0030157468 -0.032982178 -0.21240674 -0.023774985 -0.04577392
0.0011531853 0.06282807 0.20559993 -0.11785079 -0.17384312 0.14680985 -0.20331506 -0.25068274
-0.06902114 0.011043949 0.10607788 -0.21108061 0.19688596 -0.059950933 0.22572245 -0.0010488611
0.14725347 0.07219661 -0.021874154 0.13018322 -0.06255214 0.19560352 0.09808952 0.12882975
0.094495125 0.12353796 -0.008468684 -0.22091733 -0.2154108 0.1752893 -0.25099084 -0.027006954
0.2151769 0.2007023 0.16733474 -0.23740864 0.031078214 -0.21778813 0.17731443 -0.12206072
-0.045474675 -0.1761739 0.0999246 -0.07579345 0.0788723 0.25831175 0.21179643 0.1447883
-0.019395687 -0.12632295 0.18372582 -0.01981841 -0.063717894 0.17058727 0.15469767 -0.19928655
00000000: 17ef 693d 7388 753d 616c 6c3e f8bf 1ebe
00000010: 20a4 173d 10f7 f0bd 735b 16be c574 1a3e
00000020: ee91 233e 10f6 57be c302 063e a2b2 f73d
00000030: 0df7 23be 7bac 453e 8cf7 adbd 0325 063e
00000040: 4fac 3bbe 82f0 273e e7bc 343e dba3 193e
00000050: e1f1 44bd c38a 59be 72af 1bbe 9ccf 5fbc
00000060: b6db c2bd 4e8e 1c3b df46 0cbe 0807 fcbb
00000070: 6161 da3d 9ba6 5bbe d442 46bd a42b 613e
00000080: 0afd 53be fbeb 39be 1864 583d 58c3 4abe
00000090: 2a98 653b 1b43 d83d f853 563e 76d7 473e
000000a0: 57f1 d3bd 52b9 183e 1657 89bd 018a 61be
000000b0: a198 583d 79c9 4e3e 257b 76bd 4f44 043e
000000c0: a54a a6bc 4fe0 bfbc b22d 11bd 0bcd 46be
000000d0: 2494 363e 0365 a2bd d29d ebbc f165 84be
000000e0: bfb4 603d c519 b7bd 7df5 7b3d 7a12 023e
000000f0: 9215 0fbd 6f70 1bbe 5696 3cbe 14e8 e23d
00000100: 3d81 563e eb50 eb3c 2600 353c 5bae 353e
00000110: 76aa 5b3e 8ce0 abbd 33fe d63c ab84 f9bd
00000120: 363b 04be 930f e3ba 5108 bebd 19a4 0bbe
00000130: 1d8b 14be 261e 043e a441 773a 0753 21be
00000140: b447 38be 0782 b0bb 2582 c63d 60fb 2fbe
00000150: fe8c 573e 5fb4 86bd 0336 683d 71b5 d43b
00000160: 7545 2dbe f0b0 d8bd 3461 5cbe 7892 1bbe
00000170: 0009 12ba 508b 36be 7426 0ebd f0f5 23bc
00000180: 44cc 08bd 30e1 093c aad4 1abe a61c ff3d
00000190: 60a7 d3bc eede eebd ec84 6cbe 450d 673e
000001a0: 4cca 8bbd f3d8 393e ce01 23be 4a83 883d
000001b0: ca7d ed3d ea93 c93d 18d1 3ebd 1a87 f13d
000001c0: 2b79 fbbd 9aa8 3abe c0b4 05be 83ca 70be
000001d0: bc9f 0fbe 8f38 053e 5f9d 253e 54dd 68be
000001e0: f3b6 343e f2f1 e1bd f37b 1c3e 23c7 5a3e
000001f0: d03c e6bd 28cf d4bc 088f eabd ccb9 bebd
00000200: 160b a93d 87f2 3abe 486e e63c a2a4 91bd
00000210: 4a6b 93bd 53cd 533e 30c6 4cbe 9f0c 3a3e
00000220: 8b90 67be 0e0f 973d ee19 06be 9529 023e
00000230: 4f55 093e 93c6 513e 80ac 70bb e8c9 a4bc
00000240: cc81 8fbd acdd 02be 58ff cabd d364 5e3e
00000250: 22fa c0bd beca 6bbe a0ee 3dbc 2882 5fbd
00000260: ba6f d33d d400 7ebd c0fe 75bd e487 b6bd
00000270: 0aac f93d b859 f6bc e810 70bd 8529 443e
00000280: 2ad0 c03d 0323 083e 68c7 c23c f193 453e
00000290: 6c80 16bd 7855 f53c 4a2c d33d e0ae d33b
000002a0: f620 8dbd 0649 bd3d 6de9 033e b0e1 18be
000002b0: 1ccc 40be 066a d03d a92d 3b3e 289c a33c
000002c0: d155 493c c34b 0bbe 343c fe3c 6e90 d4bd
000002d0: 3ee9 48be c213 5c3e c6f1 5cbe f032 493e
000002e0: 2967 553d 26ac 1bbd b0b0 1cbe d38a 803d
000002f0: d797 703c 0339 b9bd f7c9 073e 3ace 62bd
00000300: e6ac df3b 9d79 59be 08a8 753e d6a3 45bb
00000310: 5218 07bd 2781 59be c2c3 c2bc 6f7d 3bbd
00000320: 7a26 973a 01ac 803d ca88 523e c15b f1bd
00000330: ee03 32be 5255 163e d331 50be 7d59 80be
00000340: f55a 8dbd aef1 343c 5c3f d93d 8425 58be
00000350: 799c 493e 1c8f 75bd c923 673e f079 89ba
00000360: 9dc9 163e d1db 933d 6d31 b3bc c04e 053e
00000370: 561b 80bd 4a4c 483e 29e3 c83d f2eb 033e
00000380: a986 c13d 7801 fd3d 3cc0 0abc 2738 62be
00000390: a694 5cbe 0a7f 333e df81 80be b03d ddbc
000003a0: 5557 5c3e e784 4d3e cc59 2b3e 401b 73be
000003b0: bd97 fe3c da03 5fbe ea91 353e f9fa f9bd
000003c0: a743 3abd ee66 34be 45a5 cc3d 9939 9bbd
000003d0: cd87 a13d 7041 843e 2ae1 583e 6243 143e
000003e0: b4e3 9ebc ce5a 01be 9f22 3c3e 385a a2bc
000003f0: 877e 82bd 6eae 2e3e 1169 1e3e c611 4cbe

l2pLayer.a f4 [176, 1]
0.054358203 -0.092612974 -0.038163606 0.1550508 0.10941472 0.051408004 0.088157766 0.11485058
-0.0954298 0.13451658 0.10843174 -0.058998685 -0.015094266 0.17124368 -0.0766923 -0.013959797
0.1400758 0.07574835 -0.13151492 -0.039296456 0.0823973 0.14032272 -0.0276677 -0.030819839
-0.014112874 0.15639715 -0.09274775 0.18998995 0.03890226 0.14428848 -0.11948091 0.04089895
0.10181125 0.0036042603 0.12502283 -0.051063333 0.06117406 0.039420564 0.1291614 -0.19711506
-0.102460854 -0.17774867 0.088125266 -0.160783 0.007483351 0.011542443 -0.088410005 -0.14999847
0.093365565 0.060207423 0.0069181053 -0.12719876 -0.00082996325 0.08675759 0.14757073 0.13514106
-0.19279031 -0.11395677 -0.16483782 -0.13612968 0.09305147 -0.15263894 -0.1696293 0.13048798
-0.018634586 -0.02955691 -0.059870955 -0.13502502 0.15509467 0.061756138 -0.022929754 -0.13494506
-0.023414072 0.0048024915 -0.20034756 -0.030690297 0.1480885 -0.098254465 -0.015730835 -0.15173234
-0.10682045 -0.06835484 -0.025713172 0.0449168 -0.015316105 -0.058564063 -0.10701922 -0.15581118
0.15919371 -0.18835582 0.14585912 0.02238323 -0.053596813 0.0044012642 -0.061916348 0.13623014
-0.08818975 -0.058592573 0.016150458 -0.026868828 0.14664471 -0.09332705 0.10247539 -0.07082936
0.13822839 0.026986154 0.025040396 -0.15594171 0.14176844 -0.07333085 -0.1467228 -0.011166575
-0.14602633 -0.19620158 -0.10198983 0.033762567 0.025059735 -0.13291866 0.20399939 -0.19648133
-0.12925431 -0.017460814 0.22039789 -0.14187457 0.13972534 0.16352117 0.19810387 -0.123581104
-0.121377036 -0.032831836 0.09977387 0.04241683 -0.1331865 -0.17580645 -0.012095476 -0.043858413
0.119276874 0.20848776 -0.028397722 0.089125834 -0.11210496 0.09015632 -0.0012687464 0.00329711
0.1166614 0.13488661 -0.101593524 -0.03588598 -0.066129826 -0.07320567 0.031522095 0.044626962
0.018125694 0.107672915 0.1344765 -0.15722473 -0.10945186 0.21346542 -0.014691229 -0.26738018
0.20981096 0.11271511 0.053220455 -0.12360499 0.047145903 -0.01864841 -0.17159814 0.11118107
-0.10173826 -0.13631989 0.13168536 -0.018750738 -0.052940663 -0.17765275 0.06351068 0.044260114
00000000: b5a6 5e3d dfab bdbd 7151 1cbd a3c5 1e3e
00000010: d314 e03d 3391 523d 0f8c b43d c836 eb3d
00000020: b370 c3bd b7be 093e 7611 de3d 9ba8 71bd
00000030: f14d 77bc 815a 2f3e da10 9dbd a2b7 64bc
00000040: 0870 0f3e f321 9b3d d9ab 06be 52f5 20bd
00000050: eabf a83d c2b0 0f3e 5fa7 e2bc e379 fcbc
00000060: af39 67bc 9326 203e 88f2 bdbd ba8c 423e
00000070: fa57 1f3d 5cc0 133e 68b2 f4bd a885 273d
00000080: 6b82 d03d 7435 6c3b fc05 003e c927 51bd
00000090: a791 7a3d 7577 213d e342 043e 88d8 49be
000000a0: ffd6 d1bd bf03 36be 057b b43d 4ca4 24be
000000b0: e636 f53b 841c 3d3c 4e10 b5bd 3399 19be
000000c0: 7236 bf3d 0f9c 763d 46b1 e23b 6440 02be
000000d0: e491 59ba f7ad b13d c81c 173e 6b62 0a3e
000000e0: d36a 45be 2b62 e9bd 3fcb 28be 9465 0bbe
000000f0: c591 be3d 624d 1cbe 4eb3 2dbe a49e 053e
00000100: 8fa7 98bc 5521 f2bc 3f3b 75bd 0044 0abe
00000110: 23d1 1e3e 01f4 7c3d 2ed7 bbbc 0a2f 0abe
00000120: dece bfbc 385e 9d3b e927 4dbe 386a fbbc
00000130: 83a4 173e a339 c9bd f4dd 80bc b95f 1bbe
00000140: aec4 dabd 9ffd 8bbd 6ea4 d2bc aefa 373d
00000150: 67f0 7abc dfe0 6fbd e52c dbbd f78c 1fbe
00000160: ad03 233e 59e0 40be 185c 153e 095d b73c
00000170: 5588 5bbd 7b38 903b ff9b 7dbd ea7f 0b3e
00000180: d49c b4bd c4fe 6fbd f74d 843c 041c dcbc
00000190: 082a 163e 4122 bfbd 9ede d13d fc0e 91bd
000001a0: be8b 0d3e 1112 dd3c 8421 cd3c 2faf 1fbe
000001b0: bf2b 113e 7c2e 96bd 803e 16be 03f4 36bc
000001c0: ed87 15be 11e9 48be 0be0 d0bd 9e4a 0a3d
000001d0: 134a cd3c d41b 08be 37e5 503e 6732 49be
000001e0: 3e5b 04be fb09 8fbc fcaf 613e 9147 11be
000001f0: 2914 0f3e 1872 273e bedb 4a3e 1718 fdbd
00000200: 8694 f8bd ad7a 06bd 3e56 cc3d 45bd 2d3d
00000210: 0b62 08be 9b06 34be 1a2c 46bc e1a4 33bd
00000220: 6f47 f43d d17d 553e 57a2 e8bc 9b87 b63d
00000230: 4997 e5bd e0a3 b83d 114c a6ba 5414 583b
00000240: 2cec ee3d b71f 0a3e 4410 d0bd 2dfd 12bd
00000250: 136f 87bd dbec 95bd 501d 013d c3ca 363d
00000260: 567c 943c 9e83 dc3d 35b4 093e 85ff 20be
00000270: 4c28 e0bd ae96 5a3e 7bb3 70bc 0ee6 88be
00000280: afd8 563e 2ed7 e63d b1fd 593d 9d24 fdbd
00000290: 101c 413d 8dc4 98bc 6cb7 2fbe e7b2 e33d
000002a0: 265c d0bd 7197 0bbe 87d8 063e 269b 99bc
000002b0: 4fd8 58bd 9aea 35be e311 823d 184a 353d

phaseLayer.W f4 [24, 26]
-0.32223916 -0.16677512 -0.23440279 -0.17839342 -0.24946159 0.28037605 -0.15281741 0.06503767
0.26227087 0.016474603 -0.20888524 -0.32689807 0.06300216 -0.08806568 -0.19256346 0.23570171
-0.08306944 -0.08478169 -0.2853654 -0.03127893 -0.24727829 -0.030876758 -0.08217399 0.041840766
-0.27666757 0.31695616 -0.24484241 0.065938585 0.27162302 -0.23458618 0.23267415 -0.30344287
-0.066273056 0.31351784 -0.21666671 -0.17412706 0.19704448 -0.115700796 0.17049874 -0.13146362
-0.15935971 -0.08916686 -0.18080619 0.157479 -0.27313763 -0.3278506 0.28357843 0.02107016
-0.11892008 -0.17368017 -0.21960707 0.018676043 -0.15087369 -0.20462133 0.27440667 0.04254651
0.025181038 -0.03254949 -0.057840858 -0.18188883 -0.32848686 -0.082006 0.19931579 0.28909662
0.17567421 0.07574055 -0.19341807 0.22485413 0.038046382 0.24226679 0.26533908 -0.10668563
0.28027475 0.18199764 -0.012610514 -0.123482645 0.0004957172 -0.070368774 0.08940478 0.11006291
0.2040444 -0.07565755 -0.15836722 0.2984792 0.23064965 -0.121815644 0.33401302 0.13537455
0.2604062 0.33235338 0.280691 0.28278008 0.17447394 0.25067985 -0.23350617 0.06941485
-0.05524903 0.07880118 0.25105757 -0.09904495 -0.17370042 0.22390285 0.04273384 0.15678722
-0.3356614 0.03921011 0.24479662 0.28513116 0.1629774 0.3245377 0.3424847 0.083324865
0.21410109 0.1039222 0.05558681 0.07285662 0.27950668 0.12895082 0.09044278 0.3341729
0.31985697 -0.045246474 -0.13354085 -0.26248154 0.11089893 0.053781852 -0.30836362 -0.009215601
0.046153616 0.25758168 -0.29818746 -0.19657083 0.00886797 -0.12339513 0.23397401 0.0023106567
0.14688459 0.16611323 0.011947177 0.14590436 -0.048740182 0.06376642 0.2753136 -0.057864543
-0.23308152 -0.05069243 0.23731549 -0.0012818368 0.14573695 0.08022918 -0.22459446 0.19069545
-0.20965955 -0.1953814 0.31738394 -0.11946699 -0.391892 0.32927856 0.0860578 -0.17328192
-0.0360975 -0.21271455 0.19823197 0.3588134 -0.19100094 -0.2069095 0.27887577 0.019512985
0.2894106 0.23796263 0.02301712 -0.095974974 0.17584346 -0.35561016 0.25098002 0.16492347
0.25262538 0.013398279 -0.2929674 -0.1537629 0.24322087 -0.01867682 0.12117757 0.03846799
-0.28760788 -0.05625391 0.34420866 0.14578947 0.038670007 0.27985856 0.0060825655 0.2753205
0.2371842 -0.026158202 0.022282824 -0.018072564 -0.08932189 0.017326713 -0.24123576 -0.26817584
-0.03690436 -0.05750799 -0.05929356 0.28226238 0.09688464 -0.13811922 -0.0152931735 0.27994382
-0.40600556 -0.008244988 0.07091781 -0.07547337 0.3434006 0.32742518 0.27989405 -0.031358216
-0.08237795 0.2134525 0.24138014 0.008821464 0.25388548 -0.06766791 -0.32598907 -0.15331706
0.16415633 -0.014033008 0.22748534 -0.16199146 0.2648054 0.33474636 -0.28460595 0.028895427
0.00281487 -0.22164358 0.15234104 -0.22919203 0.32471818 -0.18366402 -0.19169042 0.06726885
-0.10272204 -0.023123512 -0.11816253 -0.05147023 0.11562696 0.22855785 -0.271094 -0.040275175
0.15880302 -0.09068115 0.1196852 0.054154575 -0.30340198 -0.02967281 0.23953153 -0.016415805
00000000: 88fc a4be 19c7 2abe 4907 70be c4ac 36be
00000010: dc72 7fbe 738d 8f3e 2b7c 1cbe 7832 853d
00000020: 5e48 863e bff5 863c 03e6 55be 2f5f a7be
00000030: 4707 813d c75b b4bd 5b2f 45be ca5b 713e
00000040: 5020 aabd 06a2 adbd 6a1b 92be 561e 00bd
00000050: 8536 7dbe 41f1 fcbc d64a a8bd 3961 2b3d
00000060: 5fa7 8dbe 1448 a23e f8b7 7abe cf0a 873d
00000070: 2c12 8b3e 5c37 70be 2242 6e3e dd5c 9bbe
00000080: 2bba 87bd 6985 a03e e1dd 5dbe 5d4e 32be
00000090: 07c6 493e 8af4 ecbd 3997 2e3e 669e 06be
000000a0: 312f 23be 1d9d b6bd 4225 39be 2d42 213e
000000b0: b2d8 8bbe 09dc a7be 3131 913e 549b ac3c
000000c0: 5f8c f3bd 37d9 31be ade0 60be 80fe 983c
000000d0: a27e 1abe 4188 51be 087f 8c3e 4045 2e3d
000000e0: 7748 ce3c 9d52 05bd 89ea 6cbd 1141 3abe
000000f0: 6e2f a8be c3f2 a7bd 7019 4c3e 7904 943e
00000100: f1e3 333e dd1d 9b3d 630f 46be 2940 663e
00000110: 86d6 1b3d c914 783e 86da 873e ff7d dabd
00000120: 2c80 8f3e 975d 3a3e 549c 4ebc 78e4 fcbd
00000130: 05f3 013a 811d 90bd da19 b73d aa68 e13d
00000140: 04f1 503e 58f2 9abd 042b 22be 44d2 983e
00000150: 6c2f 6c3e 7b7a f9bd c103 ab3e a09f 0a3e
00000160: f653 853e 392a aa3e bbb6 8f3e 8dc8 903e
00000170: 4ca9 323e 1c59 803e 3e1c 6fbe 5f29 8e3d
00000180: cf4c 62bd 8362 a13d 9e8a 803e 14d8 cabd
00000190: 86de 31be ca46 653e ae09 2f3d d48c 203e
000001a0: d0db abbe c89a 203d f7ab 7a3e b6fc 913e
000001b0: 8ce3 263e ce29 a63e 285a af3e 3aa6 aa3d
000001c0: 513d 5b3e 2ad5 d43d ffae 633d da35 953d
000001d0: 801b 8f3e af0b 043e 103a b93d b618 ab3e
000001e0: 4bc4 a33e 5e54 39bd efbe 08be fb63 86be
000001f0: fa1e e33d 5c4a 5c3d d6e1 9dbe 08fd 16bc
00000200: 930b 3d3d bfe1 833e 07ac 98be dd49 49be
00000210: f64a 113c 96b6 fcbd e296 6f3e 636e 173b
00000220: ea68 163e 9619 2a3e 18be 433c f467 153e
00000230: c9a3 47bd f897 823d e7f5 8c3e 5f03 6dbd
00000240: ecac 6ebe dea2 4fbd d502 733e 4e03 a8ba
00000250: 113c 153e 324f a43d 17fc 65be ab45 433e
00000260: feb0 56be 1012 48be 2680 a23e 1cab f4bd
00000270: 11a6 c8be 3397 a83e 123f b03d d170 31be
00000280: f9da 13bd d8d1 59be 52fd 4a3e 64b6 b73e
00000290: c095 43be 15e0 53be cec8 8e3e b2d9 9f3c
000002a0: a02d 943e 7aac 733e 668e bc3c 878e c4bd
000002b0: 4f10 343e 8912 b6be 7480 803e b3e1 283e
000002c0: 1d58 813e 7584 5b3c d3ff 95be 0674 1dbe
000002d0: e40e 793e 2100 99bc f22b f83d 9c90 1d3d
000002e0: 5741 93be 806a 66bd 1e3c b03e d649 153e
000002f0: 7164 1e3d 9f49 8f3e 4250 c73b cff6 8c3e
00000300: 6ae0 723e ba49 d6bc 788a b63c ea0c 94bc
00000310: 65ee b6bd c0f0 8d3c 8206 77be 584e 89be
00000320: 0729 17bd 808d 6bbd cedd 72bd b284 903e
00000330: 746b c63d 206f 0dbe 3890 7abc cc54 8f3e
00000340: f6df cfbe fc15 07bc 5b3d 913d c891 9abd
00000350: 34d2 af3e 46a4 a73e 464e 8f3e 7971 00bd
00000360: c5b5 a8bd 4b93 5a3e 5b2c 773e e787 103c
00000370: 47fd 813e 7995 8abd 0ae8 a6be 26ff 1cbe
00000380: 9918 283e b4ea 65bc ebf1 683e 17e1 25be
00000390: 9394 873e e063 ab3e dfb7 91be 1ab6 ec3c
000003a0: af79 383b 89f6 62be 4aff 1b3e 51b1 6abe
000003b0: 7641 a63e 6c12 3cbe 7e4a 44be 40c4 893d
000003c0: ef5f d2bd 856d bdbc 32ff f1bd 73d2 52bd
000003d0: d4cd ec3d 120b 6a3e d5cc 8abe 95f7 24bd
000003e0: 429d 223e 0ab7 b9bd 841d f53d 30d1 5d3d
000003f0: 8157 9bbe 6514 f3bc c147 753e 707a 86bc

p2iLayer.W f4 [24, 176]
-0.021829605 -0.056727488 -0.034541875 -0.13440448 -0.10442828 0.09438744 0.14699146 -0.07374162
0.10017912 0.0142926015 -0.05410012 -0.110766426 0.12919371 -0.11025854 -0.06393564 -0.13446023
0.11501731 0.04181685 0.17855127 0.1311643 0.083748646 -0.09528827 0.06458673 -0.11439265
-0.028670704 0.1312729 -0.011148791 0.112829424 -0.12003231 -0.0032277994 0.14709151 -0.078137025
-0.047083095 0.11330612 0.023785153 0.06251353 0.0689051 -0.022381725 0.13328178 -0.012824261
0.14029679 -0.0080482075 -0.0494618 0.13131008 -0.15401112 -0.15551057 -0.09133367 0.060469873
0.06267302 0.057393532 -0.01455149 0.16238992 0.016183214 -0.08196456 -0.08589522 -0.05583377
-0.006676381 0.14930178 -0.11696395 -0.06421526 0.13826858 -0.041634552 0.0010392444 0.17586797
-0.09527767 -0.051482126 0.11073493 0.08421426 0.059538167 -0.02439026 0.09370571 -0.03492267
0.114790894 -0.11661013 -0.030635552 -0.05711557 -0.02873099 0.0055815694 -0.01931526 0.098809965
0.09612407 0.00349085 0.059401453 -0.13579169 -0.04513913 0.04583265 0.18067358 0.13128372
0.08157982 0.07831636 0.090740986 -0.058709826 0.06718755 0.05390158 -0.051294744 -0.1776167
0.12970388 0.047109984 -0.07000457 -0.081351794 0.039642118 0.17305063 -0.11426112 -0.11932394
-0.08633019 -0.015823606 -0.14921139 0.117967695 -0.09708845 -0.0049491944 0.1322529 -0.15238063
-0.109421544 0.13592215 -0.06848776 -0.05503003 -0.17268929 0.119536 0.12593588 0.014235536
0.11639771 0.12258478 0.13478497 -0.116459444 -0.061719563 -0.15586609 0.14837725 -0.021176383
-0.036185518 0.12228898 0.06525576 0.007836696 0.015744222 -0.18987973 0.14587837 0.043086056
-0.100689486 -0.043255176 -0.013876422 -0.13036944 -0.062455058 -0.1487799 -0.0028885123 0.16271144
0.16789123 -0.07696467 0.01566043 0.058507364 0.0937979 0.15780836 0.1722142 0.03203195
-0.11034027 -0.13498294 0.08989384 0.14640373 -0.15128535 -0.16698521 -0.10457829 -0.012847204
-0.0905337 -0.038652197 0.0409074 -0.028222464 0.08405924 0.065665595 -0.16140307 -0.15203585
-0.03366028 -0.17324485 -0.14941363 0.10044865 -0.11290255 0.020624047 0.08462936 0.16363113
-0.014818933 -0.037626702 -0.18182927 -0.10223197 -0.044648685 -0.038533013 -0.019246357 -0.069537774
-0.03456174 0.15128255 -0.08786985 0.16789727 -0.056686196 0.015608439 0.023087397 0.053103957
-0.0073281983 0.07192002 -0.10184302 0.10956434 0.1263197 -0.18354055 -0.1366883 -0.01585017
-0.16469882 0.0077817673 0.065161645 0.0014552958 0.15735058 -0.10213494 0.15807045 0.20134383
0.15683159 0.13407815 -0.10211739 0.033736523 -0.052962307 0.09945641 0.107394926 -0.03925646
-0.009262646 0.08823641 0.1737072 0.18889605 -0.03926352 -0.14360474 0.07982863 0.016862812
0.065220654 -0.109962426 0.09267526 0.111302175 -0.12753946 0.075408936 -0.054214142 0.20531602
0.0748672 -0.09236195 0.06021015 -0.072639555 -0.07881436 -0.027834857 0.06536599 0.057443533
0.065054566 -0.014039016 0.14245114 -0.09728471 -0.022156583 -0.073415756 0.059383478 0.067931086
-0.025624938 -0.091425225 0.0865428 -0.10520435 -0.12868899 -0.07118903 -0.18361793 -0.08609625
00000000: 00d4 b2bc 155b 68bd c87b 0dbd 54a1 09be
00000010: 7ede d5bd 344e c13d ee84 163e d905 97bd
00000020: b62a cd3d 842b 6a3c 1698 5dbd 82d9 e2bd
00000030: 5b4b 043e 3bcf e1bd b0f0 82bd f1af 09be
00000040: 328e eb3d 2548 2b3d 25d6 363e ef4f 063e
00000050: 6984 ab3d 7f26 c3bd 0c46 843d b246 eabd
00000060: d3de eabc 676c 063e 6ba9 36bc 1d13 e73d
00000070: 80d3 f5bd 7d89 53bb 289f 163e 4e06 a0bd
00000080: 34da 40bd 0a0d e83d 15d9 c23c 1807 803d
00000090: 1e1e 8d3d e159 b7bc 057b 083e d91c 52bc
000000a0: f6a9 0f3e a1dc 03bc 7598 4abd 2676 063e
000000b0: 17b5 1dbe 2a3e 1fbe 260d bbbd 42af 773d
000000c0: b65a 803d 7b15 6b3d 5f69 6ebc 8b49 263e
000000d0: a992 843c 09dd a7bd d5e9 afbd f4b1 64bd
000000e0: 8bc5 dabb 91e2 183e cc8a efbd 4a83 83bd
000000f0: 4796 0d3e fe88 2abd 4137 883a bc16 343e
00000100: f020 c3bd ecde 52bd ffc8 e23d 8778 ac3d
00000110: 4bde 733d 15ce c7bc c7e8 bf3d 130b 0fbd
00000120: 7d17 eb3d 4bd1 eebd 69f7 fabc 04f2 69bd
00000130: 415d ebbc 99e5 b63b 093b 9ebc e15c ca3d
00000140: b2dc c43d bfc6 643b f04e 733d fa0c 0bbe
00000150: cfe3 38bd 04bb 3b3d 7f02 393e 3d6f 063e
00000160: 5213 a73d 5464 a03d 69d6 b93d b779 70bd
00000170: a099 893d e7c7 5c3d 701a 52bd 27e1 35be
00000180: 18d1 043e 66f6 403d 8e5e 8fbd c59b a6bd
00000190: c65f 223d 2f34 313e bc01 eabd 1c60 f4bd
000001a0: e2cd b0bd 82a0 81bc dfca 18be 0c99 f13d
000001b0: 4fd6 c6bd da2c a2bb 4e6d 073e ab09 1cbe
000001c0: 6718 e0bd 2d2f 0b3e 5043 8cbd 2b67 61bd
000001d0: 76d5 30be 4acf f43d 56f5 003e 2a3c 693c
000001e0: ec61 ee3d bb0d fb3d 1205 0a3e 4a82 eebd
000001f0: a7cd 7cbd 5c9b 1fbe 35f0 173e 187a adbc
00000200: 4437 14bd a572 fa3d d0a4 853d 7c65 003c
00000210: 07fa 803c d56f 42be 2461 153e 017b 303d
00000220: 4a36 cebd 572c 31bd ef59 63bc 917f 05be
00000230: e0d0 7fbd c259 18be 324d 3dbb d49d 263e
00000240: aeeb 2b3e a79f 9dbd 4d4a 803c 6ba5 6f3d
00000250: 1d19 c03d 8498 213e eb58 303e ef33 033d
00000260: 14fa e1bd f838 0abe 431a b83d dcea 153e
00000270: 8cea 1abe 2cfe 2abe 242d d6bd 147d 52bc
00000280: bc69 b9bd c451 1ebd 858e 273d cc32 e7bc
00000290: 4027 ac3d af7b 863d d946 25be 49af 1bbe
000002a0: 5ddf 09bd 1967 31be e3ff 18be 06b8 cd3d
000002b0: 7439 e7bd c3f3 a83c 2852 ad3d eb8e 273e
000002c0: 1ccb 72bc 751e 1abd 7431 3abe ff5e d1bd
000002d0: 8ae1 36bd cbd4 1dbd 89aa 9dbc d269 8ebd
000002e0: 9c90 0dbd d0e9 1a3e 1cf5 b3bd 43ed 2b3e
000002f0: c92f 68bd 8aba 7f3c c821 bd3c 8983 593d
00000300: 6221 f0bb ce4a 933d 1393 d0bd 4563 e03d
00000310: f459 013e 0ef2 3bbe 05f8 0bbe 37d8 81bc
00000320: cfa6 28be 32fe fe3b 7873 853d a0bf be3a
00000330: 8320 213e 202c d1bd 38dd 213e 142d 4e3e
00000340: 7698 203e c84b 093e ec22 d1bd 4f2f 0a3d
00000350: 01ef 58bd cdaf cb3d dff1 db3d 62cb 20bd
00000360: 5ac2 17bc 4ab5 b43d 4de0 313e f76d 413e
00000370: c9d2 20bd 1f0d 13be 317d a33d e123 8a3c
00000380: 6892 853d fb33 e1bd 87cc bd3d 65f2 e33d
00000390: b499 02be 0070 9a3d a60f 5ebd 5d3e 523e
000003a0: f953 993d 4328 bdbd eb9e 763d 0cc4 94bd
000003b0: 6c69 a1bd ed05 e4bc 9bde 853d e949 6b3d
000003c0: 543b 853d e703 66bc b6de 113e 353d c7bd
000003d0: b981 b5bc 005b 96bd 173c 733d 741f 8b3d
000003e0: 64eb d1bc 263d bbbd 5a3d b13d 6175 d7bd
000003f0: 0cc7 03be 8ecb 91bd 5706 3cbe 3b53 b0bd

p2iLayer.a f4 [352, 1]
-0.13401881 0.031273313 -0.07582834 0.02997444 -0.14430778 -0.062087815 0.1037601 -0.085554756
0.07731619 0.09193494 0.030753883 -0.039904375 0.12828536 -0.007265243 -0.06701116 -0.036054883
-0.08414889 0.021389717 0.14898463 -0.023890553 -0.08311878 -0.014293747 0.08676841 -0.0002783088
-0.026772646 0.008590212 0.08484453 -0.011894681 0.07983859 -0.06741929 0.043638356 -0.06918153
-0.06015037 -0.1464939 -0.10325832 -0.015404184 0.037892222 0.070575625 -0.12447227 -0.065885425
-0.017695874 -0.041999687 0.04691566 -0.12563014 0.010811644 0.044221863 -0.09772289 0.15949816
0.036649514 0.022189414 0.028711481 -0.04215566 -0.023363356 0.10938058 -0.1029666 -0.13308246
0.04201631 -0.059366878 -0.05429451 0.08558532 0.013882697 -0.08680386 -0.063297726 0.030748827
-0.0517954 -0.09656736 -0.09508811 0.083761364 -0.0213308 0.060334366 -0.05541568 0.03887932
0.00967633 -0.018876506 0.14842135 -0.059921574 0.020874484 0.07968871 0.043064058 -0.033579078
-0.07942387 0.10955679 0.0016208435 -0.0221711 0.15329657 0.024478849 -0.046164006 -0.009071749
0.11028271 0.12290658 0.031381473 -0.0075712577 -0.056651924 0.04248127 -0.12130162 0.14468005
0.049729545 -0.09885238 0.088915646 -0.07307786 -0.047288455 -0.019104626 -0.017511168 0.13687246
-0.031330444 -0.0861072 -0.0073580807 -0.11577282 0.0765042 0.11566929 -0.0116316425 -0.056991953
0.15098256 -0.026173787 -0.13003543 0.018296564 -0.047376227 0.01147545 0.06580945 0.11509322
-0.044115372 -0.066074654 0.06500305 -0.12576723 0.09099945 0.052751243 -0.023792688 -0.13161358
-0.05077564 0.053965315 -0.016457105 0.115591064 0.019995922 -0.15533663 0.05620408 0.01820151
-0.077669054 -0.049249195 -0.09182851 -0.0780447 -0.06822609 -0.011108327 -0.060217932 0.09060481
0.08993483 -0.008753824 -0.04298997 0.011569007 0.07931753 -0.028025253 0.017293006 -0.047890343
0.040695596 0.10643857 -0.04235317 0.1359395 -0.07641831 0.025824545 0.00060313527 0.023558406
-0.069237895 0.09837108 -0.14836493 -0.09848307 0.12352584 0.092230216 0.049350478 -0.062109575
0.014268009 0.02307298 -0.105348535 0.053381614 0.10684966 -0.004484133 0.022466889 -0.041400965
-0.0966088 0.05610918 0.08262965 -0.054710306 -0.057782847 -0.05837976 -0.046181682 -0.11634976
-0.072851256 0.05146641 0.07249233 0.04042625 0.026737554 0.054521658 -0.057461232 -0.093524516
-0.026816567 -0.13722403 -0.055385463 0.0401067 0.07694056 -0.1104693 -0.08475854 -0.0309354
-0.10781137 0.029614355 -0.07608516 0.03388549 0.07764098 0.037290476 -0.14811541 0.041586842
-0.018786063 0.035713412 0.10535012 -0.09830656 -0.053765487 -0.13400301 -0.008803043 -0.010715932
0.12785296 0.031374164 0.085081935 0.025031622 0.009611398 -0.10012747 -0.12195805 0.09825283
-0.01626334 0.020230923 -0.009958573 -0.10756722 0.0130227525 0.12682125 0.080245115 0.087496854
0.0789196 -0.050693583 0.056221254 0.014229169 0.020104524 -0.0066011725 -0.022218421 0.06758883
-0.026498994 0.11789351 0.0682876 0.058422215 -0.12202688 0.08651818 -0.06576626 -0.1161285
-0.14048712 0.07846379 0.14085542 -0.08212043 0.05525135 -0.09212682 0.05446921 0.10173477
00000000: 3a3c 09be 7218 003d e44b 9bbd f58c f53c
00000010: 6bc5 13be cb4f 7ebd 2d80 d43d 5537 afbd
00000020: f357 9e3d 6348 bc3d 91ef fb3c c572 23bd
00000030: 3d5d 033e 4711 eebb 263d 89bd 49ae 13bd
00000040: 4156 acbd 7d39 af3c 6d8f 183e 1fb6 c3bc
00000050: 2e3a aabd 5230 6abc a3b3 b13d fae9 91b9
00000060: 4f52 dbbc f6bd 0c3c f8c2 ad3d e8e1 42bc
00000070: 6a82 a33d 2013 8abd 22be 323d 0caf 8dbd
00000080: 3c60 76bd 7f02 16be 1979 d3bd d561 7cbc
00000090: e034 1b3d f489 903d 51eb febd f0ee 86bd
000000a0: f0f6 90bc dd07 2cbd a32a 403d 30a5 00be
000000b0: 5223 313c fc21 353d f022 c8bd 7c53 233e
000000c0: cd1d 163d 93c6 b53c 5734 eb3c 6aab 2cbd
000000d0: 8264 bfbc ed02 e03d 27e0 d2bd c546 08be
000000e0: 4b19 2c3d af2a 73bd ec63 5ebd 5b47 af3d
000000f0: 4074 633c 39c6 b1bd 3da2 81bd f7e4 fb3c
00000100: 6a27 54bd 1cc5 c5bd 8ebd c2bd 148b ab3d
00000110: eebd aebc 2b21 773d 8dfb 62bd ec3f 1f3d
00000120: 7889 1e3c e7a2 9abc c4fb 173e 5370 75bd
00000130: f700 ab3c d633 a33d f063 303d 378a 09bd
00000140: fba8 a2bd 4f5f e03d 7c72 d43a 2ba0 b5bc
00000150: c7f9 1c3e de87 c83c 7816 3dbd aca1 14bc
00000160: e7db e13d 72b6 fb3d dc89 003d 5018 f8bb
00000170: d90b 68bd d700 2e3d fc6c f8bd 0227 143e
00000180: 35b1 4b3d 1e73 cabd 6819 b63d d8a9 95bd
00000190: 8ab1 41bd 4e81 9cbc 9573 8fbc 4b28 0c3e
000001a0: 5a54 00bd f958 b0bd 0e1c f1bb 4d1a edbd
000001b0: 3cae 9c3d 05e4 ec3d a592 3ebc 6570 69bd
000001c0: 2c9b 1a3e 696a d6bc 0228 05be ade2 953c
000001d0: 930d 42bd 8703 3c3c 1bc7 863d feb5 eb3d
000001e0: 52b2 34bd 2652 87bd 5220 853d 20c9 00be
000001f0: eb5d ba3d b011 583d e2e8 c2bc b6c5 06be
00000200: 1efa 4fbd bc0a 5d3d 0dd1 86bc 02bb ec3d
00000210: 7dce a33c 9110 1fbe 4036 663d 551b 953c
00000220: f410 9fbd 86b9 49bd 9610 bcbd e6d5 9fbd
00000230: 1fba 8bbd b3ff 35bc 14a7 76bd 048f b93d
00000240: c12f b83d 336c 0fbc 4016 30bd ef8b 3d3c
00000250: 3b71 a23d 3795 e5bc 10aa 8d3c aa28 44bd
00000260: 6db0 263d 77fc d93d 857a 2dbd b933 0b3e
00000270: 3481 9cbd ff8d d33c b91b 1e3a 8ffd c03c
00000280: 99cc 8dbd c776 c93d faec 17be 7eb1 c9bd
00000290: 1efb fc3d 32e3 bc3d ba23 4a3d 9c66 7ebd
000002a0: 5ec4 693c 8c03 bd3c f9c0 d7bd aea6 5a3d
000002b0: ffd3 da3d a2ef 92bb 7b0c b83c 0f94 29bd
000002c0: d6da c5bd bdd2 653d bc39 a93d ea17 60bd
000002d0: b5ad 6cbd 9d1f 6fbd 0129 3dbd c848 eebd
000002e0: 0a33 95bd 71ce 523d dc76 943d ff95 253d
000002f0: b708 db3c 1a52 5f3d 785c 6bbd c889 bfbd
00000300: 6bae dbbc 7584 0cbe dedb 62bd ec46 243d
00000310: 0393 9d3d ba3d e2bd e395 adbd 3c6c fdbc
00000320: 35cc dcbd ce99 f23c 89d2 9bbd 83cb 0a3d
00000330: 3c02 9f3d e6bd 183d 91ab 17be f756 2a3d
00000340: 3be5 99bc 3a48 123d cec1 d73d f354 c9bd
00000350: 3339 5cbd 1638 09be a33a 10bc e091 2fbc
00000360: e3eb 023e 3282 003d 703f ae3d 1e0f cd3c
00000370: 2079 1d3c a20f cdbd 24c5 f9bd c838 c93d
00000380: b23a 85bc 52bb a53c 4829 23bc 344c dcbd
00000390: 625d 553c 6edd 013e 8d57 a43d 8d31 b33d
000003a0: 99a0 a13d 13a4 4fbd 4248 663d 7621 693c
000003b0: 3eb2 a43c a64e d8bb 6803 b6bc 036c 8a3d
000003c0: 6b14 d9bc 2772 f13d 5fda 8b3d 224c 6f3d
000003d0: 3be9 f9bd 7230 b13d 76b0 86bd c7d4 edbd
000003e0: dbdb 0fbe a0b1 a03d 673c 103e c22e a8bd
000003f0: 3d4f 623d fcac bcbd 1b1b 5f3d 525a d03d

intersectionLayer.W f4 [48, 46]
0.13137472 -0.021572068 -0.060967036 0.035314586 -0.16135484 -0.079340816 -0.14683619 -0.008694019
-0.042409 -0.032999963 -0.124661796 -0.21914507 -0.12784566 0.15629831 0.05205546 -0.21413612
-0.20070742 -0.16696121 -0.11808984 0.23858769 -0.18466784 -0.15248393 0.032670047 0.19124706
0.057268202 -0.2144612 0.2358524 -0.22603096 0.21437976 -0.19754583 -0.20789212 -0.18576178
0.06735396 -0.13135993 0.12967947 -0.19930284 -0.15705152 0.024221577 -0.22091314 -0.14576828
0.158493 0.12479052 -0.008761633 -0.24468486 -0.10532497 -0.052174337 0.119883634 0.15739942
-0.18643278 -0.027174484 0.21089171 0.06514224 0.11832335 -0.24469897 0.03555069 0.21715248
-0.056633167 0.013975504 -0.1922496 0.12921534 -0.029453738 -0.02823272 0.03940133 -0.10633055
0.026242513 -0.21014096 0.09469923 0.08806733 -0.1422911 0.2352694 0.025511747 -0.07763996
-0.22117501 0.04460925 0.17432502 -0.026331848 -0.1523572 -0.08399971 0.101180784 -0.10415658
-0.15779719 -0.055614907 -0.11356148 -0.22777662 -0.17491668 -0.20839123 0.19645716 -0.18664765
-0.037112646 -0.15319383 -0.18015648 -0.0120078735 -0.2442845 0.039881855 -0.21341796 0.12771073
0.12971681 0.087085 0.14031516 0.21539964 0.016797725 0.12873775 0.03754591 -0.14712906
-0.1625942 0.0362071 -0.09020155 -0.11521388 0.103883766 -0.010112493 0.07872351 0.23347914
0.13373135 0.05608449 -0.07936584 0.20601906 0.1835232 0.04219189 -0.06457838 -0.04624469
0.26401964 0.25381222 0.11729067 0.15974274 -0.2500929 -0.07156267 0.11252144 -0.05538489
0.10390497 0.06989156 0.032621156 0.14336714 0.0092564365 -0.15441035 0.16313148 -0.09963473
0.077737175 -0.101144664 0.09061716 -0.02374594 0.054850616 0.048183776 -0.18082964 0.029739333
-0.1725942 -0.042399146 0.07650685 0.11069678 0.22750643 -0.028066272 0.14290796 -0.19543259
-0.16884416 -0.10257669 -0.13636011 0.14152212 -0.09588267 -0.1909264 0.14205998 0.024975948
0.118386336 -0.17739055 0.03355947 -0.14281943 0.10565383 -0.0067196274 0.26285556 -0.1375866
0.24199513 0.17142868 0.17610234 0.0398864 -0.04452483 0.113378175 -0.22361636 0.03258045
0.02498952 -0.21378298 0.0647887 -0.20416948 0.08197077 0.14099702 0.26856208 -0.2208028
0.118377686 -0.04300575 -0.16343957 0.13481782 -0.04521857 -0.04439294 0.0130044455 0.03670696
-0.25951365 -0.04689548 -0.015640363 -0.24740058 0.27607962 0.1885932 0.14211561 0.120047994
0.03714771 -0.101630546 -0.15570539 0.2709316 0.006731836 0.2043618 0.22987114 -0.15502961
-0.031120475 -0.18259566 -0.1878169 0.034464195 0.20362425 -0.0049550654 0.023385163 0.10194209
0.054575488 -0.01840729 -0.006824515 0.18532532 -0.08423199 -0.07420839 -0.16911851 -0.21295907
0.18452673 0.1940195 -0.0482937 -0.03504057 -0.13185753 0.14687638 -0.10093555 -0.010900557
-0.08221522 -0.028568309 -0.035397343 0.14023744 0.12810779 -0.09455325 0.25509804 -0.020835672
0.16882125 0.25980815 -0.2105676 0.010410437 -0.11434588 -0.19633813 0.12019485 -0.23381792
0.022476697 -0.1380969 -0.19777976 0.22035213 0.009617568 0.10247907 -0.040859498 -0.24627846
00000000: 1887 063e e8b7 b0bc 92b8 79bd 07a6 103d
00000010: 343a 25be 707d a2bd 3a5c 16be 5c71 0ebc
00000020: 0fb5 2dbd f82a 07bd af4e ffbd 9167 60be
00000030: f9e9 02be aa0c 203e 1b38 553d 8046 5bbe
00000040: 3f86 4dbe e1f7 2abe 16d9 f1bd 5550 743e
00000050: 9119 3dbe bf24 1cbe 07d1 053d 45d6 433e
00000060: 1092 6a3d b89b 5bbe 4b83 713e a974 67be
00000070: 5e86 5b3e 7449 4abe ace1 54be 5638 3ebe
00000080: dff0 893d 3883 06be b2ca 043e 0b16 4cbe
00000090: 1dd2 20be 546c c63c 0e37 62be 4844 15be
000000a0: fd4b 223e 2c92 ff3d f48c 0fbc ab8e 7abe
000000b0: 9eb4 d7bd c2b4 55bd 8d85 f53d 502d 213e
000000c0: 3ce8 3ebe 069d debc fff3 573e 4b69 853d
000000d0: 8353 f23d 5e92 7abe 9a9d 113d 385d 5e3e
000000e0: 2ef8 67bd 83f9 643c 14dd 44be 0751 043e
000000f0: f748 f1bc 4e48 e7bc 4a63 213d d5c3 d9bd
00000100: 8afa d63c 312f 57be abf1 c13d a55c b43d
00000110: c2b4 11be 76ea 703e 03fe d03c b301 9fbd
00000120: b47b 62be 30b8 363d 4282 323e e3b5 d7bc
00000130: 8703 1cbe 0a08 acbd df37 cf3d 0c50 d5bd
00000140: 9695 21be 75cc 63bd ec92 e8bd 463e 69be
00000150: 5c1d 33be 8364 55be 112c 493e 9020 3fbe
00000160: 6e03 18bd d8de 1cbe f17a 38be acbc 44bc
00000170: b725 7abe 285b 233d 3d8a 5abe 9ac6 023e
00000180: 7cd4 043e 9f59 b23d c7ae 0f3e b991 5c3e
00000190: 629b 893c d4d3 033e bdc9 193d 00a9 16be
000001a0: 187f 26be e54d 143d 97bb b8bd 41f5 ebbd
000001b0: 03c1 d43d dfae 25bc cb39 a13d 2815 6f3e
000001c0: dff0 083e dab8 653d 8f8a a2bd a9f6 523e
000001d0: 81ed 3b3e 67d1 2c3d ab41 84bd 126b 3dbd
000001e0: 952d 873e adf3 813e 1736 f03d 9a93 233e
000001f0: 2d0c 80be 738f 92bd a471 e63d 44db 62bd
00000200: 21cc d43d 4e23 8f3d c39d 053d d6ce 123e
00000210: 4fa8 173c bf1d 1ebe f00b 273e 4b0d ccbd
00000220: ab34 9f3d ef24 cfbd 7d95 b93d d886 c2bc
00000230: 0aab 603d 5a5c 453d 682b 39be e79f f33c
00000240: 89bc 30be baaa 2dbd a0af 9c3d feb4 e23d
00000250: 72f7 683e 3deb e5bc 7756 123e 7b1f 48be
00000260: 7ce5 2cbe ba13 d2bd fca1 0bbe 2deb 103e
00000270: 225e c4bd 3682 43be 2c78 113e 5c9a cc3c
00000280: 8974 f23d dea5 35be a875 093d 423f 12be
00000290: 0961 d83d 5230 dcbb 0195 863e 80e3 0cbe
000002a0: 92cd 773e 008b 2f3e 2c54 343e ec5f 233d
000002b0: ab5f 36bd d132 e83d b0fb 64be 1473 053d
000002c0: d2b6 cc3c ede9 5abe f0af 843d ce11 51be
000002d0: 4be0 a73d 8661 103e f880 893e 211a 62be
000002e0: 0070 f23d cc26 30bd b45c 27be af0d 0a3e
000002f0: 1b37 39bd 5fd5 35bd 9910 553c 0a5a 163d
00000300: f9de 84be 7a15 40bd 3820 80bc 9456 7dbe
00000310: 4f5a 8d3e 931e 413e c186 113e b9db f53d
00000320: 3228 183d ad23 d0bd 3c71 1fbe 8cb7 8a3e
00000330: bc96 dc3b 3844 513e 5763 6b3e 15c0 1ebe
00000340: 5ef0 febc 5bfa 3abe 1353 40be 542a 0d3d
00000350: e082 503e 1a5e a2bb 3e92 bf3c 04c7 d03d
00000360: 8c8a 5f3d e3ca 96bc 2ea0 dfbb ecc5 3d3e
00000370: d281 acbd 92fa 97bd 672d 2dbe f111 5abe
00000380: 93f4 3c3e 0cad 463e 9dcf 45bd b386 0fbd
00000390: a905 07be c366 163e 4cb7 cebd 4098 32bc
000003a0: 7460 a8bd 1608 eabc cefc 10bd 679a 0f3e
000003b0: b02e 033e 22a5 c1bd 369c 823e 92af aabc
000003c0: 7adf 2c3e 9305 853e 089f 57be 8a90 2a3c
000003d0: 2c2e eabd dd0c 49be b828 f63d f76d 6fbe
000003e0: 0d21 b83c 4669 0dbe c786 4abe fda3 613e
000003f0: 0193 1d3c 8ce0 d13d 4a5c 27bd 6c30 7cbe

neighborLayer.W f4 [6, 32]
-0.0822722 0.2396428 0.16091616 -0.07644177 0.43569544 0.12495496 -0.16859852 0.3281512
0.083036155 -0.17393725 -0.39777383 0.3357107 0.038158726 0.36894608 -0.12652273 -0.34489843
-0.21868068 0.29520229 -0.26601246 0.1634671 0.4163126 -0.12767543 0.06875946 -0.050343394
-0.23064849 0.061177835 0.066544816 0.026857892 -0.15155882 -0.15106286 0.299941 -0.31249073
0.18898687 0.205585 0.25268 -0.07757011 0.1601487 -0.10129426 0.0088779 0.26521793
-0.32587492 0.3196546 -0.32677627 -0.024827348 0.13344353 -0.0985378 -0.10952571 -0.24447629
-0.28894702 -0.2588942 0.23901182 -0.20506933 0.28779724 -0.3866692 -0.45259833 -0.3678757
0.09278266 -0.00055467803 0.085425675 -0.08907091 -0.24733207 0.2764699 0.01665231 -0.4056677
0.33202815 -0.27744 -0.3836241 0.23375446 0.14399385 0.12235242 0.3138015 -0.20682733
0.058638033 -0.11222407 -0.289675 0.24514623 0.382157 0.19157314 0.29253724 -0.28952256
-0.24060285 0.022599185 -0.21300505 -0.24801277 -0.44026366 0.23650572 0.18189923 0.3243696
0.039366852 0.16535616 -0.32251412 0.16684522 -0.3659884 0.18282317 -0.10496096 -0.28506017
0.30753708 -0.15927553 0.20577301 -0.013791661 0.110170506 0.17487824 -0.12211865 -0.24903037
-0.0037066834 0.20627351 -0.4030465 -0.35382527 0.3477831 -0.36331794 -0.37335473 -0.31460565
0.20248239 -0.08808422 0.07777008 0.2496042 -0.28883058 -0.093020804 -0.07633236 0.16524762
0.1578452 0.025478743 0.17228743 -0.39581802 0.21506009 0.23056278 0.19136542 0.28766713
-0.16514362 0.11999451 0.25178942 -0.35588452 -0.24864754 0.1889773 -0.15764774 0.28722423
0.41264278 -0.28844845 0.28040066 0.30028373 -0.4379064 0.08665656 -0.021485182 0.12671354
0.28590548 0.15996237 -0.3388477 -0.3998915 -0.33199212 -0.41444987 0.06543542 0.2946141
-0.18237045 0.11599031 0.4613743 0.2335122 0.19841205 0.32113796 0.13836545 -0.14918095
0.30139995 0.34236002 0.34069476 -0.16859342 0.06455072 0.36298597 0.17466344 0.3583412
0.0093296245 0.2685495 0.046039246 0.17174628 -0.14029346 0.008958398 0.22057483 -0.24306534
0.056894556 -0.06806763 0.22754554 0.20615299 -0.20486414 0.014147916 0.13145465 -0.31618637
-0.07511763 0.31104627 -0.15939815 0.1951388 0.15588187 0.0007896774 -0.16756096 0.14816831
00000000: 547e a8bd ec64 753e 35c7 243e 818d 9cbd
00000010: 7913 df3e 63e8 ff3d 17a5 2cbe 6f03 a83e
00000020: dc0e aa3d 9b1c 32be 03a9 cbbe 46e2 ab3e
00000030: 534c 1c3d 80e6 bc3e 2d8f 01be 8796 b0be
00000040: d4ed 5fbe c124 973e c932 88be eb63 273e
00000050: ed26 d53e 59bd 02be c2d1 8c3d e034 4ebd
00000060: 1e2f 6cbe 9c95 7a3d a648 883d 1505 dc3c
00000070: 3c32 1bbe 39b0 1abe de91 993e c9fe 9fbe
00000080: c685 413e e084 523e 465f 813e 14dd 9ebd
00000090: 05fe 233e 5d73 cfbd 9d74 113c a5ca 873e
000000a0: 14d9 a6be c5a9 a33e 384f a7be b962 cbbc
000000b0: 6ca5 083e 30ce c9bd 044f e0bd fe57 7abe
000000c0: ddf0 93be c88d 84be 84bf 743e b2fd 51be
000000d0: 295a 933e 81f9 c5be f8ba e7be 345a bcbe
000000e0: d604 be3d d067 11ba a8f3 ae3d cf6a b6bd
000000f0: 9e44 7dbe 768d 8d3e 6d6a 883c adb3 cfbe
00000100: 98ff a93e 9e0c 8ebe 616a c4be 545d 6f3e
00000110: 2073 133e e893 fa3d 97aa a03e 8bca 53be
00000120: 6f2e 703d bcd5 e5bd 4850 94be 9d07 7b3e
00000130: 15aa c33e c02b 443e 71c7 953e 4d3c 94be
00000140: 9860 76be ed21 b93c ff1d 5abe 0ff7 7dbe
00000150: 3d6a e1be 8e2e 723e cb43 3a3e c613 a63e
00000160: 233f 213d 2053 293e 9220 a5be 79d9 2a3e
00000170: d562 bbbe ff35 3b3e c6f5 d6bd 68f3 91be
00000180: 8075 9d3e 2019 23be 29b6 523e 6bf6 61bc
00000190: 13a1 e13d 4813 333e 5819 fabd d101 7fbe
000001a0: d4eb 72bb 5d39 533e 1c5c cebe 9628 b5be
000001b0: a010 b23e cf04 babe 5a28 bfbe fe13 a1be
000001c0: 8b57 4f3e 8065 b4bd eb45 9f3d 3e98 7f3e
000001d0: 9ae1 93be b181 bebd 2454 9cbd ac36 293e
000001e0: 2ca2 213e ccb8 d03c 1e6c 303e a9a8 cabe
000001f0: b638 5c3e a618 6c3e 4cf5 433e 1b49 933e
00000200: 691b 29be afbf f53d 8bea 803e 7f36 b6be
00000210: 769d 7ebe 4483 413e 696e 21be 0e0f 933e
00000220: ea45 d33e 84af 93be ad90 8f3e cabe 993e
00000230: 4535 e0be ff78 b13d b101 b0bc 32c1 013e
00000240: 3462 923e 2dcd 233e 727d adbe 94be ccbe
00000250: dffa a9be c632 d4be 0103 863d a9d7 963e
00000260: 52bf 3abe 548c ed3d 4139 ec3e d21d 6f3e
00000270: 872c 4b3e 326c a43e acaf 0d3e e4c2 18be
00000280: 1851 9a3e d049 af3e 8b6f ae3e c1a3 2cbe
00000290: 2b33 843d 4cd9 b93e f9da 323e 7f78 b73e
000002a0: 48db 183c 527f 893e a693 3c3d 42de 2f3e
000002b0: 17a9 0fbe 3fc6 123c 5ede 613e 1fe6 78be
000002c0: 440a 693d 0b67 8bbd b301 693e c519 533e
000002d0: e8c7 51be a9cc 673c 0c9c 063e 2ee3 a1be
000002e0: 46d7 99bd 7541 9f3e 4539 23be 77d2 473e
000002f0: 7f9f 1f3e 5a02 4f3a 1a95 2bbe 6fb9 173e

neighborLayer.a f4 [64, 1]
0.18665607 0.3102312 -0.07908233 -0.07600601 -0.04824929 0.025908561 0.049000017 -0.28491
-0.26110286 -0.24079663 0.19422492 -0.041109543 -0.047447175 -0.14914174 0.1742873 0.17725603
0.28238228 0.07773603 0.1165159 0.14755777 0.21227193 -0.18928841 -0.2468917 -0.23287322
0.07846648 0.327365 -0.16742522 -0.14128284 -0.048169747 0.25991997 0.25002724 0.06994037
0.1009165 0.3266007 0.16689132 -0.13089192 -0.028980952 0.17209677 -0.22820422 -0.05295768
0.2233032 -0.2709488 0.36339903 -0.09289343 -0.24723949 -0.0811076 -0.0501968 0.16591565
-0.019189155 -0.23391035 0.32994577 0.113767445 0.30281305 0.11623443 0.22211255 -0.16037318
0.06584683 0.09587156 0.120911516 0.03485808 -0.19048725 0.18568496 -0.36255834 -0.10933718
00000000: c522 3f3e a0d6 9e3e ebf5 a1bd 0aa9 9bbd
00000010: 0ca1 45bd 313e d43c 3eb4 483d b9df 91be
00000020: 46af 85be 6493 76be e6e2 463e 7b62 28bd
00000030: f857 42bd 9db8 18be 5f78 323e 9b82 353e
00000040: 6994 903e 1134 9f3d e39f ee3d 6219 173e
00000050: d05d 593e d2d4 41be 2ed1 7cbe 5176 6ebe
00000060: 09b3 a03d 639c a73e 8471 2bbe 73ac 10be
00000070: a44d 45bd 3b14 853e 9203 803e e63c 8f3d
00000080: 4fad ce3d 3538 a73e 8fe5 2a3e 8808 06be
00000090: 7669 edbc 233a 303e 5eae 69be 27ea 58bd
000000a0: 98a9 643e cdb9 8abe 700f ba3e e93e bebd
000000b0: 592c 7dbe be1b a6bd 299b 4dbd cbe5 293e
000000c0: 9332 9dbc 3286 6fbe a7ee a83e e8fe e83d
000000d0: 500a 9b3e 510c ee3d 7971 633e de38 24be
000000e0: b4da 863d 4f58 c43d 75a0 f73d 59c7 0e3d
000000f0: 170f 43be 3324 3e3e 3fa1 b9be 2cec dfbd
