test/model/actor_3_3_2_2_0_best_rou1.pth (torch, 689309 bytes, 17 tensors)

v2lLayer.W f4 [3, 40]
-0.23992038 -0.082178324 0.13932121 -0.043041587 -0.3672344 -0.077739954 -0.24188781 0.10064539
0.03904167 0.16135728 -0.19003187 -0.15552773 0.29226106 -0.30352393 -0.017088741 0.1488133
0.3362953 0.2425561 0.2799061 -0.2614534 -0.13911517 -0.037461072 0.07900265 -0.30040264
-0.17398228 -0.10920125 0.1771881 -0.2996286 0.24487537 -0.029076993 0.022072703 0.23867577
-0.22426333 0.058813363 0.26140362 -0.30682445 0.13050115 0.29814327 -0.35434476 -0.11005399
0.13164294 0.3228994 0.13879734 -0.07220641 0.15207261 -0.2796302 0.031042397 -0.19034879
0.09728742 0.15722919 -0.2903847 -0.31605858 -0.12293288 0.04257515 -0.2125855 -0.05224064
0.36665863 0.3104862 -0.33540735 -0.021119177 0.070691586 0.29995948 -0.06432569 -0.15992104
-0.035322934 -0.14214805 -0.2183315 0.03042245 -0.25061053 -0.093126535 0.21219468 0.3006835
-0.2506908 0.3173399 -0.10533512 -0.37249655 -0.3323264 -0.06724301 -0.082455665 0.18248773
0.14679146 -0.123143494 -0.22722727 -0.3372734 -0.30822432 -0.36602914 0.34962094 0.25338966
0.3381515 0.2986185 0.2289545 -0.029563755 0.0030290484 -0.04232323 0.30815732 0.06675002
0.27183723 0.027484745 -0.32378897 0.29208595 -0.040028363 0.09028745 0.14005882 0.056682527
0.31238383 -0.254796 -0.1885252 -0.12351328 0.25468278 -0.3240545 0.33306444 0.1548202
0.25380188 0.04618612 -0.33550543 0.07559422 -0.30273107 0.20219487 -0.25031388 -0.21597788
00000000: b0ad 75be 1c4d a8bd 38aa 0e3e 604c 30bd
00000010: 2606 bcbe 2036 9fbd 70b1 77be 2c1f ce3d
00000020: 28ea 1f3d d83a 253e b797 42be a942 1fbe
00000030: 3ea3 953e 7d67 9bbe b0fd 8bbc 8462 183e
00000040: e62e ac3e a060 783e da4f 8f3e 38dd 85be
00000050: 3574 0ebe c870 19bd 24cc a13d 60ce 99be
00000060: 6928 32be e8a4 dfbd cc70 353e eb68 99be
00000070: 9cc0 7a3e e032 eebc d0d1 b43c 6c67 743e
00000080: 49a5 65be 48e6 703d b2d6 853e 1818 9dbe
00000090: 18a2 053e 3ca6 983e ad6c b5be fc63 e1bd
000000a0: 68cd 063e 1253 a53e e420 0e3e f4e0 93bd
000000b0: ecb8 1b3e b12b 8fbe a04c fe3c cbea 42be
000000c0: a03e c73d b000 213e 4ead 94be 6ed2 a1be
000000d0: 3cc4 fbbd 4863 2e3d 03b0 59be 48fa 55bd
000000e0: aeba bb3e 0cf8 9e3e 83ba abbe 2002 adbc
000000f0: c0c6 903d 4a94 993e 30bd 83bd 57c2 23be
00000100: c8ae 10bd 428f 11be 4b92 5fbe 8038 f93c
00000110: 0650 80be 20b9 bebd 9049 593e 30f3 993e
00000120: 8b5a 80be 607a a23e f0b9 d7bd deb7 bebe
00000130: b026 aabe b4b6 89bd 84de a8bd 10de 3a3e
00000140: 8050 163e a832 fcbd 44ae 68be 19af acbe
00000150: 94cf 9dbe 2c68 bbbe 8401 b33e 4abc 813e
00000160: 3222 ad3e 86e4 983e 0c73 6a3e b02f f2bc
00000170: 0083 463b 205b 2dbd ccc6 9d3e 3cb4 883d
00000180: 402e 8b3e b027 e13c abc7 a5be 4a8c 953e
00000190: c8f4 23bd a0e8 b83d 946b 0f3e f02b 683d
000001a0: c6f0 9f3e 9f74 82be c00c 41be 88f4 fcbd
000001b0: c865 823e 79ea a5be 6c87 aa3e 3089 1e3e
000001c0: 52f2 813e a82d 3d3d 5ec7 abbe 24d1 9a3d
000001d0: 91ff 9abe 2c0c 4f3e 2429 80be 4e29 5dbe

v2lLayer.a f4 [80, 1]
-0.21759433 -0.05031307 0.25005382 0.050004035 -0.013210446 -0.04419619 0.14985287 0.1489316
-0.028991535 0.15929583 -0.18900757 0.25919324 -0.04135202 0.105859905 0.22448608 0.0070108175
0.02639857 -0.25451705 -0.021496505 0.14376763 0.09533909 -0.055284604 0.13607839 0.021380067
0.10525042 0.03220293 -0.017723441 0.1995154 -0.012313694 -0.044769764 -0.08225912 0.18250462
0.09444636 -0.0061300695 0.14838925 -0.26984975 0.16816556 -0.12553903 -0.06418508 -0.032435313
-0.19234434 0.20114785 0.084344685 -0.0889494 0.052783728 0.17167148 -0.24093369 0.17662928
0.1763502 -0.19105339 -0.13324234 0.17844433 -0.25961605 0.108685404 0.20439869 -0.055394262
-0.24177864 0.072888136 -0.19673362 0.08452943 0.16708481 0.016284615 -0.10865356 -0.023106411
0.24477524 0.12249711 0.12214956 0.15889993 -0.1890856 0.038883477 -0.04082541 -0.12910853
0.041760683 0.111463994 -0.06263283 -0.2675933 -0.07811308 -0.14709115 -0.2671135 -0.123233184
00000000: 0cd1 5ebe 1415 4ebd 0e07 803e 08d1 4c3d
00000010: a070 58bc 1007 35bd 0873 193e 8681 183e
00000020: a87f edbc 721e 233e 338b 41be fab4 843e
00000030: bc60 29bd 14cd d83d aedf 653e 00bb e53b
00000040: d041 d83c 0f50 82be 7019 b0bc d237 133e
00000050: 2441 c33d 1c72 62bd 2258 0b3e 4025 af3c
00000060: 888d d73d 38e7 033d c030 91bc c44d 4c3e
00000070: 60bf 49bc 8060 37bd 7877 a8bd 7ee2 3a3e
00000080: 186d c13d c0de c8bb 5af3 173e bf29 8abe
00000090: 9833 2c3e 4e8d 00be 7873 83bd e4da 04bd
000000a0: eaf5 44be b4f9 4d3e e8bc ac3d 1a2b b6bd
000000b0: c033 583d a6ca 2f3e 52b7 76be 4ede 343e
000000c0: 2695 343e 80a3 43be ae70 08be 1cba 363e
000000d0: 65ec 84be 7496 de3d e44d 513e 18e5 62bd
000000e0: d294 77be 6046 953d 8a74 49be c41d ad3d
000000f0: 4818 2b3e 5067 853c c285 debd a849 bdbc
00000100: 5ca6 7a3e c4df fa3d 8c29 fa3d aab6 223e
00000110: a89f 41be 4844 1f3d 8c38 27bd 0735 04be
00000120: 400d 2b3d 3c47 e43d a445 80bd fd01 89be
00000130: c0f9 9fbd 109f 16be 1ac3 88be ae61 fcbd

laneLayer.W f4 [12, 12]
0.33470058 -0.057513 0.03738177 -0.4655983 0.23849863 -0.23350471 -0.16445857 0.3067978
-0.102428794 0.13992012 -0.13590097 0.32425684 -0.045836985 0.43010992 0.3432206 -0.2046501
-0.3665259 0.37340432 -0.48687232 -0.17641532 0.34250373 0.3248614 0.04083562 0.048416555
0.4196651 0.31442976 0.47794998 0.26024133 -0.32329512 -0.011080146 -0.14687473 -0.16051483
0.4577151 -0.47976094 -0.43283123 0.32642835 -0.114744365 -0.45998722 -0.23109514 -0.39578408
0.40285838 0.4872697 -0.32701325 0.11702371 0.4308796 -0.3670199 0.14371866 0.14639002
0.42282712 -0.23306018 -0.09859902 0.13633227 0.46838164 0.4311958 -0.07363939 -0.29013044
0.49731332 -0.27321017 0.14952797 0.31695217 0.48925388 -0.49132228 -0.38376743 -0.20693725
-0.109945655 -0.12811202 -0.09948671 -0.39371532 0.20500267 -0.22578287 0.23705679 -0.39913505
0.3502 0.2681964 -0.3542366 -0.25831527 0.24387085 0.48231333 -0.25561857 -0.499649
-0.42186236 0.38224405 0.3933763 0.15414387 0.18338257 -0.42693216 0.018182099 -0.18615735
0.034176767 -0.2371077 -0.17312539 0.16494465 -0.031882882 0.30437988 0.30874062 0.10413402
-0.25258106 0.34258538 0.25153637 -0.12191719 0.05774468 -0.42977178 0.2500183 0.2978832
0.046112776 -0.04475671 -0.40519118 -0.091899216 -0.3906957 -0.029848337 -0.18200028 -0.49898773
-0.011589527 -0.3564762 0.42470318 -0.4180125 -0.14699513 -0.41331184 -0.047546685 0.2499119
0.3521766 0.24691284 0.053575635 0.3968727 -0.46388727 -0.31001282 0.42363006 -0.0043762326
-0.3874032 0.11786312 -0.11289185 0.47480786 -0.05380261 -0.25189537 -0.35635442 -0.36496526
0.05148995 -0.4786895 0.11301154 -0.2412659 0.24905014 0.032693267 -0.27159113 -0.016363263
00000000: e05d ab3e c092 6bbd a01d 193d e662 eebe
00000010: fc38 743e dc1b 6fbe d467 28be 9a14 9d3e
00000020: 30c6 d1bd 3847 0f3e a029 0bbe fe04 a63e
00000030: 90bf 3bbd 5e37 dc3e 9cba af3e cc8f 51be
00000040: 48a9 bbbe da2e bf3e 5447 f9be 38a6 34be
00000050: a65c af3e 3c54 a63e 4043 273d 7050 463d
00000060: 58de d63e f0fc a03e dcb5 f43e 5a3e 853e
00000070: f086 a5be 8089 35bc 5466 16be 005e 24be
00000080: a259 ea3e 3aa3 f5be 0e9c ddbe 9e21 a73e
00000090: 18ff eabd 7283 ebbe 34a4 6cbe 36a4 cabe
000000a0: 7443 ce3e 6a7b f93e 486e a7be 20aa ef3d
000000b0: 409c dc3e 08ea bbbe fc2a 133e 44e7 153e
000000c0: cc7c d83e 54a7 6ebe 48ee c9bd b09a 0b3e
000000d0: b8cf ef3e b2c5 dc3e 40d0 96bd fa8b 94be
000000e0: da9f fe3e 34e2 8bbe dc1d 193e 8e47 a23e
000000f0: 7c7f fa3e 988e fbbe 2a7d c4be 5ce7 53be
00000100: 302b e1bd cc2f 03be b0bf cbbd 0e95 c9be
00000110: 38ec 513e a033 67be 04bf 723e 6e5b ccbe
00000120: 6a4d b33e 0a51 893e 805e b5be e641 84be
00000130: 48b9 793e c6f1 f63e 70e0 82be fed1 ffbe
00000140: 58fe d7be 7eb5 c33e 9e68 c93e e4d7 1d3e
00000150: a4c8 3b3e da96 dabe a0f2 943c 08a0 3ebe
00000160: f0fc 0b3d 5ccc 72be c847 31be 40e7 283e
00000170: a097 02bd aed7 9b3e 4013 9e3e 3844 d53d
00000180: 4e52 81be 5a67 af3e 60c9 803e b8af f9bd
00000190: b085 6c3d 0c0b dcbe 6602 803e 2684 983e
000001a0: c0e0 3c3d d052 37bd 3875 cfbe a835 bcbd
000001b0: 4409 c8be 8084 f4bc 485e 3abe 527b ffbe
000001c0: 00e2 3dbc 0c84 b6be b272 d93e bc05 d6be
000001d0: e485 16be 9c9d d3be 50c0 42bd e8e8 7f3e
000001e0: 7e50 b43e b8d6 7c3e 2072 5b3d e632 cb3e
000001f0: a282 edbe 00ba 9ebe 0ae6 d83e 8066 8fbb
00000200: b659 c6be 3862 f13d d833 e7bd 041a f33e
00000210: 2060 5cbd 6ef8 80be 1674 b6be badc babe
00000220: 20e7 523d ca16 f5be 9872 e73d 680e 77be
00000230: 0007 7f3e 60e9 053d fe0d 8bbe 400c 86bc

l2pLayer.W f4 [12, 88]
0.22671472 -0.20990485 -0.023734704 0.107567504 -0.040195122 0.09864314 -0.19679286 -0.14090511
0.056164876 0.1507604 -0.043894082 0.15149446 0.037914768 -0.21189252 -0.1703439 -0.0072886944
-0.05610712 0.057209983 -0.15007333 -0.22113822 0.15131141 0.17947103 -0.17882697 -0.19274034
-0.08222669 -0.1642237 0.12875412 0.05612375 0.1702355 0.17233653 0.047053084 -0.17763662
0.22591908 -0.068948016 0.025669858 -0.0050714314 -0.0018340647 0.086676314 0.1951117 0.23875906
-0.027399704 0.005839333 0.17805214 -0.18640524 0.14149074 -0.22167802 0.028028712 -0.19435216
0.22391926 -0.087546885 -0.058872968 -0.10781777 0.07334386 -0.1639179 -0.19940373 -0.05742933
-0.1598422 0.08505665 0.23568852 -0.044947594 0.014004543 -0.082388 -0.1509214 -0.22356683
0.035139963 -0.19577558 -0.22613482 -0.022593409 0.13729192 0.09425096 0.17152353 0.19300662
0.09739734 0.098576024 0.021172807 -0.19175188 -0.080651075 -0.19705954 -0.049945876 -0.07779801
0.18322055 0.22337477 0.10718025 -0.06873667 0.10327594 -0.14946057 -0.16891864 0.23313572
-0.073011875 -0.020629793 0.2095096 -0.122403845 -0.022890821 -0.02830781 0.078863546 0.0698524
0.1766283 0.08056395 0.1305003 0.11346175 0.008802906 0.17059748 -0.02641283 -0.15179747
0.06511517 -0.15995413 0.14727406 0.12891524 0.06105511 -0.18229482 0.09609304 0.030683026
0.17397071 0.07928078 0.2412007 -0.09360273 0.055676714 -0.13212784 -0.11833522 -0.025413245
0.02604054 0.11232592 -0.11311136 -0.17449528 0.12174107 -0.15400133 -0.11983374 -0.13957581
0.050566718 0.07378094 0.13637604 0.2031285 -0.20822677 -0.05572848 0.010023192 -0.03081137
0.07148178 0.12715735 -0.22771432 -0.075272396 0.17924418 0.14315222 -0.24119934 0.23324071
-0.19385964 -0.016363204 0.18128861 0.2402163 0.16974695 0.13277619 -0.24239628 -0.19373292
0.12372972 -0.06445858 -0.10419108 0.05324091 0.04386039 0.06746863 -0.019231483 -0.14881381
0.16904633 0.1790065 0.21586825 -0.06731512 -0.03222075 -0.058198035 -0.16898578 -0.042869598
0.23884927 -0.0040255636 -0.020210654 0.14678 0.13107754 -0.022813931 -0.2052534 -0.15557528
0.046139553 0.17859791 0.14607765 0.06814335 0.15918027 0.11617978 -0.22837979 -0.12516063
-0.23745337 -0.08967595 -0.05321382 -0.21828291 -0.006828487 0.1526619 -0.16358505 0.066588774
-0.16795367 -0.20680727 -0.14382389 -0.15673056 0.06944667 -0.09319195 -0.09719707 0.11798705
0.04330142 -0.0659256 -0.19447303 -0.04939662 0.09220992 -0.07012154 -0.19602215 0.17734186
-0.014554575 0.025206849 0.11476387 -0.20604005 -0.07320392 0.17472024 0.16310768 -0.053689018
-0.08634062 -0.16017604 -0.14032865 0.2192512 -0.012588054 0.0550725 0.21660636 0.045569405
-0.003044799 0.1918364 0.05752255 0.042509302 0.09685658 -0.08549303 -0.18478884 0.13123564
0.18402429 -0.077692285 -0.17992368 0.077363506 -0.026875794 0.11715697 0.17644767 -0.16241965
-0.029194668 0.025060281 -0.05251278 0.21958481 -0.07749416 0.0009160936 0.057109997 -0.13084966
-0.071560994 -0.105816245 -0.22887555 0.20769925 0.14372267 0.13871638 -0.06301308 -0.0019929707
00000000: e727 683e 4cf1 56be 486f c2bc 5a4c dc3d
00000010: a4a3 24bd 6a05 ca3d 1184 49be 6e49 10be
00000020: 240d 663d ef60 1a3e 48ca 33bd 5d21 1b3e
00000030: 844c 1b3d 5afa 58be a26e 2ebe 00d6 eebb
00000040: 94d0 65bd 0455 6a3d d3ac 19be 0f72 62be
00000050: 61f1 1a3e 41c7 373e 6b1e 37be b95d 45be
00000060: 7866 a8bd 422a 28be 1fd8 033e 04e2 653d
00000070: 3752 2e3e fd78 303e bcba 403d 60e6 35be
00000080: 5557 673e 9e34 8dbd 9849 d23c 402e a6bb
00000090: 0065 f0ba 5a83 b13d 5dcb 473e 417d 743e
000000a0: 5875 e0bc e057 bf3b 4d53 363e 04e1 3ebe
000000b0: f3e2 103e 90ff 62be 789c e53c 4104 47be
000000c0: 174b 653e c84b b3bd c824 71bd 90cf dcbd
000000d0: 4e35 963d 18da 27be 7e30 4cbe 043b 6bbd
000000e0: acad 23be 2e32 ae3d 5558 713e f81a 38bd
000000f0: 5073 653c 0abb a8bd 248b 1abe b4ee 64be
00000100: ecee 0f3d 6579 48be e38f 67be d015 b9bc
00000110: 4196 0c3e a606 c13d dda3 2f3e 87a3 453e
00000120: 4278 c73d 3ae2 c93d 9872 ad3c 9b5a 44be
00000130: 642c a5bd fac9 49be 0c94 4cbd 9054 9fbd
00000140: 2b9e 3b3e 5bbc 643e 5281 db3d d0c5 8cbd
00000150: 5682 d33d 310c 19be 02f9 2cbe 21bb 6e3e
00000160: 4087 95bd d0ff a8bc af89 563e deae fabd
00000170: 8885 bbbc c8e5 e7bc 3683 a13d c60e 8f3d
00000180: 0dde 343e b6fe a43d dfa1 053e a25e e83d
00000190: 103a 103c 1bb1 2e3e b85f d8bc cc70 1bbe
000001a0: 1a5b 853d 04cb 23be 03cf 163e 5b02 043e
000001b0: ec14 7a3d 7eab 3abe 6ecc c43d f85a fb3c
000001c0: 6125 323e f65d a23d 51fd 763e cab2 bfbd
000001d0: 440d 643d 854c 07be bc59 f2bd 702f d0bc
000001e0: f852 d53c 220b e63d eea6 e7bd e4ae 32be
000001f0: 6253 f93d 86b2 1dbe 646b f5bd f6ec 0ebe
00000200: 0c1f 4f3d 761a 973d 29a6 0b3e eb00 503e
00000210: 6639 55be 8c43 64bd 5038 243c 2068 fcbc
00000220: 0a65 923d 8935 023e f12d 69be 6a28 9abd
00000230: c98b 373e 7f96 123e f6fc 76be a7d6 6e3e
00000240: 2483 46be 200c 86bc b9a3 393e 43fb 753e
00000250: 25d2 2d3e 7bf6 073e bb36 78be ec61 46be
00000260: 0266 fd3d dc02 84bd 2262 d5bd 2413 5a3d
00000270: f4a6 333d fe2c 8a3d 588b 9dbc a662 18be
00000280: 7b1a 2d3e 7b4d 373e 910c 5d3e 82dc 89bd
00000290: e8f9 03bd 1061 6ebd 9c0a 2dbe 0898 2fbd
000002a0: e794 743e e0e8 83bb d090 a5bc 7f4d 163e
000002b0: 3139 063e 48e4 babc f32d 52be 204f 1fbe
000002c0: d4fc 3c3d 5fe2 363e 6195 153e be8e 8b3d
000002d0: 2700 233e aaef ed3d 64dc 69be 1c2a 00be
000002e0: fa26 73be 06a8 b7bd bcf6 59bd 8e85 5fbe
000002f0: 80c1 dfbb 6753 1c3e d782 27be b25f 883d
00000300: 0cfc 2bbe 49c5 53be 9246 13be fa7d 20be
00000310: 0e3a 8e3d 6cdb bebd 420f c7bd 32a3 f13d
00000320: d45c 313d 0004 87bd f023 47be 1c54 4abd
00000330: 8ed8 bc3d e29b 8fbd 08ba 48be 1b99 353e
00000340: 5076 6ebc 987e ce3c 5209 eb3d 2afc 52be
00000350: f0eb 95bd dde9 323e b305 273e 04e9 5bbd
00000360: 5ad3 b0bd 3005 24be 50b2 0fbe 6383 603e
00000370: 203e 4ebc b493 613d 0fce 5d3e fca6 3a3d
00000380: 408b 47bb c370 443e c49c 6b3d 3c1e 2e3d
00000390: be5c c63d f816 afbd 4939 3dbe a362 063e
000003a0: dd70 3c3e 221d 9fbd ea3d 38be c270 9e3d
000003b0: a02a dcbc feef ef3d b3ae 343e 5651 26be
000003c0: a829 efbc 384b cd3c a417 57bd d7da 603e
000003d0: 42b5 9ebd 0026 703a 2cec 693d 74fd 05be
000003e0: 928e 92bd 30b6 d8bd 5a5e 6abe 1daf 543e
000003f0: 092c 133e ab0b 0e3e 000d 81bd 809c 02bb

l2pLayer.a f4 [176, 1]
-0.03813693 0.12281136 -0.12697229 -0.16144376 0.17963909 -0.08444145 0.14800937 0.055849
-0.11128628 -0.1338794 0.096988544 0.026835307 -0.04091379 -0.18079998 -0.026481256 0.13480721
-0.14288743 0.008973807 -0.053485483 0.038263783 0.09325217 0.18177275 0.18377642 0.11035003
-0.08410417 0.08515377 -0.053199917 -0.032211587 0.05041668 0.09901716 -0.02967894 0.086220995
-0.1702545 -0.14636894 0.015922278 0.090945855 -0.01298742 0.06899421 -0.1817662 0.10265826
0.1536002 0.18301947 -0.06313604 -0.010476932 0.05182299 0.16266976 -0.015198544 -0.027249783
0.0501754 0.075542316 -0.12284208 0.06343962 -0.008040667 -0.17225544 -0.09732584 0.121344015
-0.077598155 -0.11339454 0.016262814 -0.10520918 -0.11646554 -0.14873807 0.034030825 -0.15652427
-0.042228818 0.04823698 0.058049932 -0.045942098 -0.009312555 -0.07097588 0.004458472 -0.14980513
0.11254586 -0.10067042 -0.06526861 0.1653579 -0.09732178 0.11544563 -0.04174508 0.111937776
-0.006045729 -0.056190535 0.105115965 0.14842232 0.15616645 -0.04797876 0.16720949 -0.12926194
-0.037650794 -0.07439712 0.13869824 -0.065511055 0.016582131 -0.029958487 0.019596174 -0.14393562
0.14856629 0.008487508 0.12280296 0.12306626 0.14988248 0.011571974 0.09175278 0.150344
-0.0759018 -0.17224462 0.036209345 0.035799086 -0.08164791 0.04939899 -0.1270388 -0.0754741
0.095031336 0.1194482 0.17972077 0.123046115 -0.07305536 -0.09019285 -0.13890679 -0.18072721
0.12182312 0.124154374 0.0012611598 0.0077064782 -0.10194741 -0.050364614 -0.005043596 -0.046654448
0.026006326 -0.07583304 -0.011126161 0.08636759 0.07396875 -0.037617058 -0.086889625 0.030033529
-0.008232355 0.17029895 0.09531294 0.08754803 0.06112109 -0.13454695 0.18356596 -0.15987597
-0.02249454 -0.08324969 0.18166448 -0.17684293 -0.15019402 -0.0013792217 0.05221057 0.10837601
0.0012868196 -0.12741405 0.0646102 -0.1006937 0.1692601 0.067547575 -0.011413112 0.056306675
-0.08062778 0.13999824 0.027467772 0.05223024 -0.094683126 -0.1043402 -0.07685696 0.026045889
0.0906816 0.18390141 0.11208527 -0.12417166 0.17757793 0.00045114756 0.12156959 -0.039143547
00000000: 7835 1cbd 8684 fb3d 0605 02be 8351 25be
00000010: 4ff3 373e a4ef acbd c58f 173e ecc1 643d
00000020: 10ea e3bd ae17 09be eea1 c63d b8d5 db3c
00000030: 3895 27bd a123 39be 38ef d8bc e70a 0a3e
00000040: 1551 12be e006 133c 9813 5bbd 7cba 1c3d
00000050: fefa be3d a322 3a3e e32f 3c3e 32ff e13d
00000060: cf3e acbd 1a65 ae3d 28e8 59bd 4cf0 03bd
00000070: b881 4e3d 82c9 ca3d 4021 f3bc a294 b03d
00000080: 3257 2ebe bde1 15be 706f 823c d241 ba3d
00000090: 30c9 54bc d64c 8d3d eb20 3abe 7e3e d23d
000000a0: 5f49 1d3e 7569 3b3e 784d 81bd 70a7 2bbc
000000b0: 5844 543d e792 263e 5003 79bc f03a dfbc
000000c0: b884 4d3d eeb5 9a3d a194 fbbd a2ec 813d
000000d0: 00bd 03bc bb63 30be c552 c7bd 3683 f83d
000000e0: c8eb 9ebd 663b e8bd 9839 853c e977 d7bd
000000f0: 7c85 eebd cb4e 18be e863 0b3d e647 20be
00000100: 20f8 2cbd 2494 453d c4c5 6d3d c82d 3cbd
00000110: b093 18bc cd5b 91bd 6018 923b 8466 19be
00000120: 727e e63d 4b2c cebd 8dab 85bd 9553 293e
00000130: a450 c7bd c26e ec3d e4fc 2abd a23f e53d
00000140: 401b c6bb 0c28 66bd 0a47 d73d 05fc 173e
00000150: 19ea 1f3e 6085 44bd f738 2b3e 3e5d 04be
00000160: b837 1abd 845d 98bd e906 0e3e a92a 86bd
00000170: 40d7 873c 806b f5bc 2888 a03c dc63 13be
00000180: c321 183e 300f 0b3c 1e80 fb3d 2a0a fc3d
00000190: cb7a 193e 6098 3d3c e2e8 bb3d c7f3 193e
000001a0: 6772 9bbd e560 30be 4050 143d 10a2 123d
000001b0: 0537 a7bd 9856 4a3d 7616 02be 2a92 9abd
000001c0: ca9f c23d 42a1 f43d b908 383e 9aff fb3d
000001d0: 0c9e 95bd 07b7 b8bd 953d 0ebe 8e10 39be
000001e0: 667e f93d a644 fe3d 804d a53a a086 fc3b
000001f0: cec9 d0bd 204b 4ebd c044 a5bb bc18 3fbd
00000200: 380b d53c 5a4e 9bbd 804a 36bc 7ee1 b03d
00000210: ee7c 973d 5814 1abd 30f3 b1bd e008 f63c
00000220: 00e1 06bc d962 2e3e 6e33 c33d 624c b33d
00000230: 1c5a 7a3d adc6 09be b7f8 3b3e 87b6 23be
00000240: 7846 b8bc d07e aabd 4106 3a3e 5016 35be
00000250: 76cc 19be 00c7 b4ba c0da 553d 3ef4 dd3d
00000260: 80aa a83a d478 02be 5a52 843d 8038 cebd
00000270: 8552 2d3e 6256 8a3d 10fe 3abc d4a1 663d
00000280: 2d20 a5bd b35b 0f3e 1804 e13c 60ef 553d
00000290: 3ae9 c1bd 51b0 d5bd 2f67 9dbd 305e d53c
000002a0: 46b7 b93d a750 3c3e f68c e53d b64d febd
000002b0: fdd6 353e 0088 ec39 7af9 f83d fc54 20bd

phaseLayer.W f4 [24, 26]
-0.20738566 0.2826143 0.26532465 0.100936234 0.0148215 -0.08052811 0.17941475 0.06424749
0.15235111 0.1626541 -0.31056774 0.31405365 -0.13177064 0.13273814 -0.2911731 -0.102429375
0.19177818 0.2384777 -0.32815593 0.04555136 -0.13292898 0.22135717 0.16402721 -0.0060475767
-0.053337276 -0.08425254 0.27101028 0.064293355 -0.1782474 -0.07190129 0.3380639 0.28981364
-0.16168654 -0.2038552 0.07303962 -0.2205117 -0.0452995 -0.3126211 0.19644177 0.32257766
-0.15388136 0.1521805 -0.14651543 -0.33498126 0.07942617 0.18326533 0.3293013 0.29686052
-0.25683433 0.040654898 -0.14838506 0.22294605 0.09729093 -0.24326652 -0.11276522 0.30088717
0.31040436 0.18000412 -0.067956716 0.11707035 0.1836254 0.24884975 0.14921334 -0.10720849
-0.13763796 -0.20159982 0.2008866 -0.09541798 -0.10595146 0.30838847 0.09931153 0.3195806
-0.14800201 -0.2948865 -0.00963977 0.10012412 -0.19277126 -0.14673293 -0.24306637 0.13584232
0.21006161 -0.047606975 0.16540098 -0.044326782 -0.28986496 0.2990793 0.10148209 0.23880541
-0.2493284 0.19686604 -0.34134057 -0.05191046 -0.013536066 -0.20426497 0.122205734 0.19921559
-0.24880213 0.24885577 -0.10171443 -0.02502793 -0.21602993 0.26301843 0.19258481 -0.14055477
-0.29797095 -0.18710479 -0.3333789 -0.18155457 0.17545849 0.23499018 -0.084676206 -0.021051347
-0.2846362 0.11598709 0.11799148 -0.27405825 0.25628585 -0.045128018 0.26134455 0.22779441
0.1755715 0.31103212 0.030962735 -0.3063618 0.23962659 0.05645138 -0.27661154 0.27215475
-0.06463343 -0.17474148 -0.329955 -0.11132902 -0.21602704 -0.10297613 0.32117903 0.3160119
0.14081538 0.33985668 -0.17474829 -0.042606473 0.123309076 -0.02732718 0.33719683 -0.22156593
-0.020859659 0.0010260642 -0.071523964 0.19102246 -0.00033947825 -0.011024356 -0.3108653 -0.019812047
0.24315637 0.22552997 0.19662666 0.33569825 0.080687225 0.102673054 -0.26205322 0.10310909
-0.18056783 0.2854129 -0.10821092 -0.008248657 0.058377206 -0.26156235 0.112086415 -0.34480393
-0.25013164 0.018983811 0.050398976 0.094750255 0.10791704 0.013985693 -0.15821859 0.011243463
0.097655684 -0.08872697 -0.31249404 0.07305586 -0.004249871 0.06077853 0.020636767 -0.077860475
-0.07209653 0.012729734 -0.28826368 -0.32217935 -0.06467751 -0.22059186 0.3257913 -0.028163224
0.118029535 -0.19495705 0.32402945 0.04415688 0.055576086 0.31092364 0.12087062 -0.040289193
-0.14951396 -0.07953009 -0.15241702 -0.0706898 0.13251945 -0.29625392 0.30480063 0.17627186
-0.00012657046 -0.14987187 -0.05738458 0.1264815 0.023040295 -0.3263453 -0.21618532 -0.292389
0.18180579 0.2985615 -0.17183656 -0.24700326 0.046762347 -0.30064672 0.051733196 -0.34148896
-0.15291764 -0.26033273 -0.25643146 0.2248013 -0.22367409 -0.16269638 0.06336555 -0.1827056
0.12623352 0.0017196238 0.23449951 0.34588784 -0.32687384 -0.032202482 -0.08146837 -0.3348183
-0.27643248 0.14633638 0.2052874 -0.04310593 -0.052747726 -0.097619504 0.3103832 0.22833931
0.05964464 -0.17398803 -0.3029774 -0.07257131 0.24486619 0.030504048 0.05901009 -0.16428281
00000000: e85c 54be d2b2 903e a2d8 873e a8b7 ce3d
00000010: e0d5 723c eceb a4bd 80b8 373e 3094 833d
00000020: ee01 1c3e cc8e 263e bc02 9fbe a4cb a03e
00000030: e2ee 06be 82ec 073e a414 95be 7ec6 d1bd
00000040: 8061 443e 8033 743e 0e04 a8be 1094 3a3d
00000050: 891e 08be 74ab 623e c0f6 273e c02a c6bb
00000060: 3078 5abd 988c acbd dcc1 8a3e 3cac 833d
00000070: 7d86 36be fc40 93bd b616 ad3e 7462 943e
00000080: 2891 25be 6bbf 50be cc95 953d d2cd 61be
00000090: f88b 39bd df0f a0be 0828 493e e628 a53e
000000a0: 1393 1dbe 34d5 1b3e 2408 16be aa82 abbe
000000b0: 30aa a23d e8a9 3b3e 2e9a a83e 1afe 973e
000000c0: ca7f 83be c085 263d 41f2 17be f84b 643e
000000d0: 7840 c73d dc1a 79be 74f1 e6bd e20d 9a3e
000000e0: 52ed 9e3e 0053 383e e42c 8bbd 94c2 ef3d
000000f0: 4c08 3c3e 78d2 7e3e 62cb 183e 2090 dbbd
00000100: f7f0 0cbe 2f70 4ebe 38b5 4d3e 806a c3bd
00000110: 14fd d8bd 18e5 9d3e d863 cb3d 12a0 a33e
00000120: d78d 17be 5dfb 96be 20f0 1dbc e00d cd3d
00000130: d465 45be 2841 16be 64e6 78be 401a 0b3e
00000140: 641a 573e 88ff 42bd e05e 293e 0090 35bd
00000150: 2e69 94be ec20 993e d8d5 cf3d 6889 743e
00000160: f24f 7fbe 4097 493e 31c4 aebe 10a0 54bd
00000170: 60c6 5dbc d62a 51be 0047 fa3d 2cff 4b3e
00000180: fcc5 7ebe 0cd4 7e3e a84f d0bd 6007 cdbc
00000190: f336 5dbe 5aaa 863e f434 453e 97ed 0fbe
000001a0: a68f 98be 6698 3fbe a4b0 aabe 71e9 39be
000001b0: 64ab 333e 44a1 703e b86a adbd e073 acbc
000001c0: d6bb 91be a48a ed3d 84a5 f13d 5d51 8cbe
000001d0: e637 833e 28d8 38bd f4ce 853e f042 693e
000001e0: 04c9 333e 9a3f 9f3e 90a5 fd3c 74db 9cbe
000001f0: ac60 753e 9039 673d 07a0 8dbe de57 8b3e
00000200: 885e 84bd 6eef 32be ddef a8be 7800 e4bd
00000210: 3136 5dbe 26e5 d2bd 9471 a43e 50cc a13e
00000220: e831 103e b201 ae3e 37f1 32be 2084 2ebd
00000230: 7889 fc3d 40dd dfbc 10a5 ac3e 2ee2 62be
00000240: e0e1 aabc 007d 863a 287b 92bd 649b 433e
00000250: 00fc b1b9 809f 34bc bd29 9fbe e04c a2bc
00000260: fcfd 783e 54f1 663e 8058 493e a4e0 ab3e
00000270: 583f a53d 4046 d23d d72b 86be dc2a d33d
00000280: c6e6 38be a421 923e b09d ddbd 6025 07bc
00000290: f01c 6f3d 80eb 85be 908d e53d 248a b0be
000002a0: 4111 80be f083 9b3c 286f 4e3d 6c0c c23d
000002b0: 9c03 dd3d 4024 653c 0e04 22be 8036 383c
000002c0: b4ff c73d 7cb6 b5bd 38ff 9fbe 509e 953d
000002d0: 8042 8bbb e8f2 783d 700e a93c 5075 9fbd
000002e0: 58a7 93bd 6090 503c 4c97 93be b1f4 a4be
000002f0: a475 84bd d5e2 61be 1ece a63e 90b6 e6bc
00000300: 78b9 f13d d2a2 47be 30e7 a53e d8dd 343d
00000310: c0a3 633d 6231 9f3e 048b f73d 4806 25bd
00000320: 301a 19be ace0 a2bd 3513 1cbe d0c5 90bd
00000330: 2eb3 073e 98ae 97be d40e 9c3e 9c80 343e
00000340: 00b8 04b9 0378 19be 180c 6bbd 5e84 013e
00000350: 00bf bc3c bb16 a7be af5f 5dbe 03b4 95be
00000360: 4c2b 3a3e 0edd 983e ecf5 2fbe 6cee 7cbe
00000370: e089 3f3d 5eee 99be 30e6 533d a4d7 aebe
00000380: 7196 1cbe 554a 85be fc4a 83be 5032 663e
00000390: d20a 65be e199 26be ccc5 813d 2d17 3bbe
000003a0: 5c43 013e 0065 e13a a420 703e 3618 b13e
000003b0: 025c a7be c0e6 03bd e4d8 a6bd 4e6d abbe
000003c0: 8f88 8dbe 34d9 153e dc36 523e d88f 30bd
000003d0: 000e 58bd bcec c7bd 8cea 9e3e c8d1 693e
000003e0: f04d 743d eb29 32be db1f 9bbe 44a0 94bd
000003f0: 34be 7a3e a0e3 f93c 90b4 713d c139 28be

p2iLayer.W f4 [24, 176]
-0.048231453 -0.028853074 -0.1713198 0.026107863 0.13748965 -0.13974524 -0.010102704 0.05033742
-0.031466037 -0.030593917 0.075813666 -0.1359517 0.09162831 0.16657811 -0.17031948 -0.1504155
-0.10441277 -0.11707391 0.030840352 -0.03997512 0.07553916 0.018140271 0.1535967 -0.07578722
0.05232881 -0.07620294 0.07658626 -0.06975816 -0.05516801 -0.14948724 -0.005741313 -0.022836015
-0.08586325 0.013262674 0.06950806 0.04376878 -0.038269058 0.0767276 0.067525744 0.058111608
0.08709264 0.038487256 0.023338228 0.10647997 0.027033433 0.083468854 -0.110007 0.066528305
-0.03603095 -0.023287475 -0.09537408 0.025358394 0.025640339 -0.1025014 0.053027168 0.10572788
-0.033423096 0.011538938 -0.051073894 0.008194357 0.024785236 0.035397485 -0.03686285 0.09985912
0.014400527 0.08655512 -0.1362164 -0.054996118 -0.12150845 -0.075619265 0.023213655 0.03294331
0.023700416 0.1001679 0.14319038 0.009492099 -0.000938192 0.027769819 -0.13880399 0.10369748
-0.109560706 0.024341494 0.09490836 0.05831878 0.041165516 0.031753734 0.16898942 -0.1259006
-0.057405725 -0.047794998 -0.0321742 0.067893535 -0.16672818 -0.14973632 -0.03263639 0.13160554
0.0029300451 0.04187146 -0.07131045 -0.16845952 0.108507514 0.061722964 0.01596962 0.06672682
-0.0067638606 -0.022189215 0.15714231 0.07477042 -0.034865588 0.077557355 -0.17080216 -0.05450087
-0.11737436 -0.1076871 0.046150997 -0.07455674 0.059868664 -0.010822549 0.005654365 -0.14929162
-0.053023525 -0.05016637 0.019792348 0.083026886 0.10561195 0.10231641 -0.08972539 0.123548776
-0.14656052 0.022187948 -0.1656561 0.16036531 -0.088923834 -0.14127311 -0.004537523 -0.13020125
0.15715843 0.048941016 0.11047009 -0.10387703 -0.035519168 0.059849367 0.0038987994 0.063163996
0.16792214 -0.100924164 -0.13313411 0.1585513 0.07071616 -0.041634902 0.008984044 -0.008877352
-0.11697318 -0.15274772 0.037784666 0.09798172 -0.08691539 -0.119686626 -0.12576461 0.0023055524
-0.065373816 -0.028332338 -0.0048127472 0.091475904 -0.024446115 -0.077177465 -0.14240818 -0.03344786
-0.06287023 -0.096155524 0.092090905 0.0435535 0.061301127 0.120883554 0.05982393 -0.1691676
0.11805746 -0.07572763 0.06113772 -0.086487345 0.091037065 0.031964153 -0.09185113 -0.1701965
-0.037498623 0.1372371 -0.15374264 -0.053978585 0.083985984 -0.042579696 -0.0032273084 0.032816306
0.10663912 0.0121869445 -0.0052532554 0.046211764 -0.02365984 -0.13634509 0.08195099 0.15231726
-0.12846221 -0.11171521 0.040261477 -0.11146246 0.011938944 0.12719074 0.105627954 0.101569414
0.08371043 0.00071926415 -0.0528984 -0.0693576 0.13267589 -0.16613929 -0.11799984 0.070101306
0.05670038 -0.10004284 0.12222609 -0.1330533 -0.009041771 -0.09937396 0.035961837 0.03405571
-0.14902686 -0.009517908 -0.1458715 -0.020119801 -0.04821167 -0.035623804 -0.07891608 -0.00896439
0.0425338 0.14132446 -0.050559685 0.12806475 -0.15811166 -0.1497038 -0.04071626 -0.00999096
0.0634916 0.017653808 0.17109719 -0.16794845 -0.1687169 -0.09903387 0.044818982 0.14569345
0.12980288 0.09576103 0.036557376 0.010327175 0.092632204 -0.14476122 -0.028224543 0.054360643
00000000: 588e 45bd 485d ecbc 756e 2fbe 28e0 d53c
00000010: 16ca 0c3e 6019 0fbe d085 25bc 9c2e 4e3d
00000020: 88e2 00bd 18a0 fabc 3244 9b3d ec36 0bbe
00000030: a0a7 bb3d 7493 2a3e 3b68 2ebe 8506 1abe
00000040: 5dd6 d5bd 72c4 efbd e8a4 fc3c f4bc 23bd
00000050: 46b4 9a3d e89a 943c 7448 1d3e 5436 9bbd
00000060: bc56 563d 4910 9cbd 42d9 9c3d 5edd 8ebd
00000070: daf7 61bd 2f13 19be a021 bcbb 9812 bbbc
00000080: 12d9 afbd b04b 593c 3e5a 8e3d e446 333d
00000090: 04c0 1cbd 5c23 9d3d f04a 8a3d 7006 6e3d
000000a0: a05d b23d d0a4 1d3d d02f bf3c 2c12 da3d
000000b0: 3875 dd3c b8f1 aa3d 5a4b e1bd fe3f 883d
000000c0: 3095 13bd 60c5 bebc 7c53 c3bd 68bc cf3c
000000d0: b00b d23c 41ec d1bd 0433 593d dc87 d83d
000000e0: a8e6 08bd d00d 3d3c dc32 51bd a041 063c
000000f0: 680a cb3c f4fc 103d 80fd 16bd f082 cc3d
00000100: 30f0 6b3c d043 b13d 507c 0bbe 9c43 61bd
00000110: 6cd9 f8bd 46de 9abd 902a be3c 90ef 063d
00000120: 6027 c23c d424 cd3d 80a0 123e c084 1b3c
00000130: 00f1 75ba 887d e33c a222 0ebe 585f d43d
00000140: 5d61 e0bd d067 c73c 505f c23d acdf 6e3d
00000150: 2c9d 283d 3410 023d 900b 2d3e 16ec 00be
00000160: 4422 6bbd b0c4 43bd 18c9 03bd c40b 8b3d
00000170: cbba 2abe 7a54 19be bcad 05bd 9ac3 063e
00000180: 0006 403b 6881 2b3d 370b 92bd a780 2cbe
00000190: 3039 de3d 38d1 7c3d b8d2 823c 12a8 883d
000001a0: 60a3 ddbb 28c6 b5bc eae9 203e 3c21 993d
000001b0: 38cf 0ebd 64d6 9e3d c3e6 2ebe 4e3c 5fbd
000001c0: f861 f0bd 0e8b dcbd d408 3d3d 34b1 98bd
000001d0: d838 753d 1051 31bc 4048 b93b e7df 18be
000001e0: 322f 59bd 407b 4dbd 9023 a23c 000a aa3d
000001f0: 144b d83d 448b d13d f2c1 b7bd 2407 fd3d
00000200: f613 16be 80c3 b53c c1a1 29be ce36 243e
00000210: b31d b6bd e6a9 10be 80af 94bb 7a53 05be
00000220: 24ee 203e 6076 483d 243e e23d 7bbd d4bd
00000230: 8c7c 11bd 9c24 753d 0083 7f3b 205c 813d
00000240: c8f3 2b3e 54b1 cebd 4f54 08be 465b 223e
00000250: a2d3 903d 5c89 2abd d031 133c 5072 11bc
00000260: a28f efbd e669 1cbe 18c4 1a3d a4aa c83d
00000270: b200 b2bd 431e f5bd 70c8 00be c018 173b
00000280: b5e2 85bd 3819 e8bc 40b4 9dbb b857 bb3d
00000290: 3843 c8bc 380f 9ebd 73d3 11be a000 09bd
000002a0: 1bc2 80bd 30ed c4bd 289a bc3d 2865 323d
000002b0: e416 7b3d cc91 f73d f009 753d 453a 2dbe
000002c0: 1cc8 f13d 1617 9bbd 8c6b 7a3d 4720 b1bd
000002d0: a471 ba3d d8ec 023d 721c bcbd fe47 2ebe
000002e0: 2898 19bd e287 0c3e b66e 1dbe a618 5dbd
000002f0: d800 ac3d 0c68 2ebd 4081 53bb 646a 063d
00000300: 9c65 da3d c0ab 473c 8023 acbb 8c48 3d3d
00000310: 48d2 c1bc 0c9e 0bbe ecd5 a73d 0ef9 1b3e
00000320: 998b 03be f2ca e4bd 38e9 243d 6e46 e4bd
00000330: 909b 433c 4a3e 023e 7853 d83d a003 d03d
00000340: 6070 ab3d 008d 3c3a feab 58bd 5b0b 8ebd
00000350: 30dc 073e 6b20 2abe e6a9 f1bd 4691 8f3d
00000360: a83e 683d 43e3 ccbd ac51 fa3d 203f 08be
00000370: f023 14bc 9384 cbbd b84c 133d 007e 0b3d
00000380: 7f9a 18be 00f1 1bbc 575f 15be 48d2 a4bc
00000390: 9a79 45bd 44ea 11bd c19e a1bd 60df 12bc
000003a0: ec37 2e3d 5cb7 103e ac17 4fbd 6823 033e
000003b0: 06e8 21be f44b 19be 18c6 26bd 20b1 23bc
000003c0: e207 823d b89e 903c 1a34 2f3e aefa 2bbe
000003d0: 1fc4 2cbe 45d2 cabd 1c94 373d aa30 153e
000003e0: 0ceb 043e 5c1e c43d 30bd 153d 5033 293c
000003f0: f4b5 bd3d 493c 14be 2837 e7bc 44a9 5e3d

p2iLayer.a f4 [352, 1]
-0.035786256 0.10025525 0.04427603 -0.11546602 0.113465935 -0.11053359 0.020212904 -0.105868794
-0.03822273 0.124901354 0.027130112 -0.06889683 -0.013385676 0.06951484 0.05994399 0.11623353
-0.10310548 -0.05525066 -0.09229225 0.027560338 0.04478331 0.042638436 0.02015376 0.100743696
-0.027476005 -0.106397346 0.019903049 0.12056652 -0.03216868 0.12416005 0.060034677 -0.0723356
0.059873 -0.04405444 -0.096216545 0.045114458 0.10092372 0.0648409 -0.07935331 -0.09937965
0.084321275 0.05650054 -0.1016567 0.032727808 -0.121252105 0.026562542 -0.12924093 0.12734509
0.020126283 0.110581666 0.057571173 -0.027971752 0.065541014 0.018738344 0.099251 0.09259176
0.09777239 -0.08864354 0.09285888 -0.08043256 0.049768582 -0.084793106 -0.027050912 -0.04245372
-0.0061625764 -0.10874005 -0.116622806 0.07346319 0.053717673 0.096337765 -0.106116965 0.07703076
-0.12880936 -0.072058365 -0.11387373 -0.003258124 -0.008411244 -0.04145612 0.025359616 -0.118662186
0.113917604 0.07754241 0.12961325 0.05535662 -0.08425595 -0.1273494 0.102737576 -0.074256085
0.024040341 0.086306915 -0.029038258 -0.020169169 0.10405615 0.012951195 -0.016902044 -0.036604494
0.034224644 -0.11245221 -0.07931753 -0.08912963 0.07123768 -0.05650814 0.11823796 -0.06851934
-0.059534058 0.080244735 -0.0878834 -0.031519257 -0.096979424 -0.08143681 -0.015035793 0.031024411
-0.0136526 -0.05911512 -0.036271222 0.08439219 -0.05533637 0.008607864 -0.10289204 -0.04471779
-0.094820686 0.08008827 0.11301638 0.058575496 -0.077979684 -0.07932167 0.10599616 -0.07778307
0.027852193 -0.016080476 0.08093645 -0.062289946 0.057897583 -0.094276585 0.12584046 0.10053587
-0.04554966 0.066498354 -0.070793524 0.029830307 -0.12285774 0.025202617 0.07037549 -0.070458695
0.079753846 -0.0040970147 -0.031759076 0.07085617 -0.0653034 -0.06656554 -0.12859556 -0.072843924
-0.06936292 -0.100903705 -0.124468036 0.026413813 -0.06161219 0.07332775 0.006039843 0.025097743
-0.094188154 0.011634424 -0.038828872 -0.10736028 0.08377363 0.017712682 0.12884092 -0.093856834
-0.0071865097 -0.109531865 -0.06495898 -0.08633022 -0.016676128 -0.031433262 -0.08150685 -0.04694128
0.0028939098 -0.054849826 0.12420568 -0.09538948 0.07115981 -0.042704552 0.009546414 -0.11459575
-0.044022143 0.09770948 -0.0676912 0.068848476 0.0026021004 -0.028151259 -0.028603956 0.09907256
0.09030275 0.09025855 -0.04875008 0.08188595 0.10992798 0.054903597 -0.1078846 0.100960955
0.0076654106 -0.034927815 0.054918632 0.097529575 -0.014640912 -0.1191886 0.11069441 0.029375315
-0.0405749 0.056582034 0.05143884 -0.10512043 -0.04233917 0.010469839 -0.07228586 -0.043398455
0.10530239 -0.03158702 0.06946848 -0.035534486 -0.12736496 0.041582063 -0.09128876 0.056475714
-0.12364944 -0.08334459 -0.011611871 -0.0820852 0.07519914 -0.046979308 -0.05542227 -6.482005e-06
-0.023625843 -0.022133514 0.1128979 0.109859526 0.04502058 -0.023973309 0.12744802 -0.08604579
0.071400344 -0.038365126 -0.04097022 -0.042960912 0.045213386 0.0033132136 -0.11345366 -0.12707955
-0.07791664 0.119682014 -0.08310444 0.12773669 0.057401046 -0.048262864 0.012308136 0.03537552
00000000: 9c94 12bd a052 cd3d c85a 353d 7379 ecbd
00000010: d460 e83d 6f5f e2bd 8895 a53c bdd1 d8bd
00000020: 708f 1cbd 48cc ff3d f83f de3c c819 8dbd
00000030: 984f 5bbc cc5d 8e3d d487 753d d80b ee3d
00000040: f728 d3bd 844e 62bd b803 bdbd 38c6 e13c
00000050: b46e 373d a4a5 2e3d 8019 a53c b652 ce3d
00000060: 5c15 e1bc dae6 d9bd b80b a33c 94eb f63d
00000070: 4ec3 03bd a047 fe3d ece6 753d b024 94bd
00000080: 643d 753d 6e72 34bd 2e0d c5bd f0c9 383d
00000090: 18b1 ce3d 4ecb 843d fd83 a2bd 8f87 cbbd
000000a0: a2b0 ac3d 1c6d 673d 6331 d0bd 980d 063d
000000b0: 0653 f8bd b099 d93c bc57 04be c066 023e
000000c0: e0df a43c a478 e23d c0cf 6b3d 0425 e5bc
000000d0: 5e3a 863d 2881 993c 1c44 cb3d c0a0 bd3d
000000e0: e43c c83d bf8a b5bd cc2c be3d d3b9 a4bd
000000f0: 24da 4b3d 02a8 adbd e099 ddbc f4e3 2dbd
00000100: 70ef c9bb 1ab3 debd f0d7 eebd de73 963d
00000110: 1007 5c3d bc4c c53d da53 d9bd 4ec2 9d3d
00000120: 9ae6 03be 5693 93bd a136 e9bd 4086 55bb
00000130: 50cf 09bc e4cd 29bd f8be cf3c 2905 f3bd
00000140: a24d e93d 8ece 9e3d 56b9 043e a0bd 623d
00000150: 628e acbd e267 02be 1468 d23d 9313 98bd
00000160: 40f0 c43c aec1 b03d a4e1 edbc d039 a5bc
00000170: 641b d53d 4031 543c 2876 8abc 98ee 15bd
00000180: 242f 0c3d 584d e6bd 3b71 a2bd 9889 b6bd
00000190: 10e5 913d 1475 67bd be26 f23d de53 8cbd
000001a0: fcd9 73bd 5a57 a43d 36fc b3bd 561a 01bd
000001b0: 269d c6bd 58c8 a6bd b058 76bc e826 fe3c
000001c0: 28af 5fbc b222 72bd 2291 14bd d0d5 ac3d
000001d0: 64a8 62bd 0008 0d3c 10b9 d2bd 002a 37bd
000001e0: 5931 c2bd 5205 a43d 2275 e73d dcec 6f3d
000001f0: d0b3 9fbd 6673 a2bd 8414 d93d bb4c 9fbd
00000200: 482a e43c 34bb 83bc 02c2 a53d be23 7fbd
00000210: 0426 6d3d 1514 c1bd 52dc 003e c0e5 cd3d
00000220: 4892 3abd 4a30 883d 32fc 90bd b05e f43c
00000230: d79c fbbd b875 ce3c 0621 903d a64c 90bd
00000240: fc55 a33d 4040 86bb ce15 02bd 0a1d 913d
00000250: cabd 85bd 8453 88bd 8eae 03be 322f 95bd
00000260: 260e 8ebd 9aa6 cebd 19e9 febd c861 d83c
00000270: 105d 7cbd dc2c 963d e0e9 c53b c899 cd3c
00000280: b8e5 c0bd 509e 3e3c 060b 1fbd b5df dbbd
00000290: 8291 ab3d 301a 913c e0ee 033e 0338 c0bd
000002a0: d07c ebbb 3e52 e0bd 3709 85bd e6cd b0bd
000002b0: 609c 88bc 2ac0 00bd 10ed a6bd 8045 40bd
000002c0: c0a7 3d3b 36aa 60bd 8c5f fe3d 8f5b c3bd
000002d0: 3cbc 913d f8ea 2ebd 9068 1c3c 2db1 eabd
000002e0: 9050 34bd e81b c83d afa1 8abd 6e00 8d3d
000002f0: 0088 2a3b 789d e6bc d852 eabc 8ee6 ca3d
00000300: a6f0 b83d 7ad9 b83d 2aae 47bd d2b3 a73d
00000310: ec21 e13d 98e2 603d 9af2 dcbd 9ec4 ce3d
00000320: 202e fb3b 7810 0fbd 5cf2 603d 96bd c73d
00000330: 70e0 6fbc 2719 f4bd c0b3 e23d 80a4 f03c
00000340: de31 26bd 90c2 673d 88b1 523d 6149 d7bd
00000350: d66b 2dbd b089 2b3c 9c0a 94bd 94c2 31bd
00000360: c8a8 d73d 6461 01bd 7e45 8e3d 9c8c 11bd
00000370: f66b 02be f451 2a3d 9af5 babd 1453 673d
00000380: eb3b fdbd 92b0 aabd b83f 3ebc 491c a8bd
00000390: 0202 9a3d 606d 40bd 7602 63bd 0080 d9b6
000003a0: fc8a c1bc 5851 b5bc 0437 e73d 08fe e03d
000003b0: 8067 383d ac63 c4bc bc81 023e c638 b0bd
000003c0: 583a 923d c024 1dbd 64d0 27bd c8f7 2fbd
000003d0: ac31 393d 8022 593b 645a e8bd 2421 02be
000003e0: c292 9fbd d81b f53d a932 aabd 68cd 023e
000003f0: 5c1d 6b3d 48af 45bd 10a8 493c ece5 103d

intersectionLayer.W f4 [48, 46]
-0.19913907 0.23425293 -0.18581471 -0.015707552 -0.13046536 -0.20124464 0.0597215 0.15612254
-0.094672665 0.12996233 -0.105249494 0.113399476 0.1608921 0.0130903125 0.106829464 0.077231765
-0.009902462 -0.1136311 0.008837819 -0.20952357 -0.22211431 0.20769888 -0.23955585 0.22440451
-0.21090597 -0.036365256 0.15084863 -0.09870233 -0.14857668 -0.19174945 0.09011814 0.115867704
-0.25054026 0.10537663 0.1752817 -0.106212094 0.14100087 0.18545958 0.14902157 -0.1866112
0.094747424 -0.106544286 0.2515928 0.16911462 -0.2275369 0.16156802 0.17833573 -0.031664997
0.09741002 0.009052694 0.024312913 0.21507913 -0.23609732 0.024192542 -0.017111912 -0.08503248
0.14615548 0.21428442 -0.0042380095 0.06489873 -0.13704851 -0.085587814 -0.0059565604 -0.15933393
-0.14204773 -0.14833578 -0.03740838 0.13646543 -0.24097566 -0.098600805 -0.10985212 -0.2269091
0.025714368 -0.0598502 -0.03983605 0.05182782 -0.04687266 0.2335887 -0.2199184 -0.04193291
-0.25087333 0.16753969 -0.18745652 -0.10827352 -0.16756254 0.043804824 -0.16289128 -0.090948984
-0.03762725 -0.1521666 0.08285332 0.18379298 -0.20262098 0.16089508 -0.027244955 0.17978972
0.15973684 -0.24698782 0.19058526 -0.17784506 0.16381988 0.16410404 0.110922426 0.07346973
-0.13502505 0.24529865 -0.11031671 -0.19043174 -0.098771185 -0.105076686 0.23695338 -0.08186859
0.123740524 -0.15211979 -0.01700379 0.24112642 0.15049374 -0.14884195 -0.24609461 -0.20454355
0.13360631 0.06701121 0.16764352 0.12875795 -0.12127389 0.09927556 -0.14972548 -0.07930452
0.14409521 -0.19888458 -0.0015979409 -0.105774924 0.22488067 -0.18098584 0.15902993 0.14971742
-0.092224315 -0.16332051 0.04608509 -0.18680057 0.22027609 0.16103074 -0.038993627 -0.22383851
0.18129832 0.22721443 0.16696936 -0.23153265 0.15722632 -0.050820604 0.2482948 0.07984421
0.18240285 0.17933258 0.10407823 -0.1955826 0.22547328 0.14237347 0.18122122 -0.21963818
-0.053884625 0.013553262 0.09477788 0.15728575 -0.16614752 0.02233094 0.13520852 0.22621325
0.02346307 0.07525504 -0.081048146 -0.14305708 -0.07571828 -0.07328513 -0.11272305 0.20855266
0.04335949 0.24956611 -0.07363142 -0.10237001 0.23383757 -0.16358462 0.15807638 -0.04581763
0.10245556 0.09700191 0.12346354 0.088395625 0.24940017 0.061007172 0.19802627 -0.07690172
0.23712829 -0.22550742 -0.18698303 -0.08960025 0.15454006 0.24728176 0.24448654 0.023453742
-0.23149973 0.11446136 -0.121750206 0.2230159 -0.24806368 -0.16703096 0.12148082 -0.21674173
-0.025632218 -0.09171827 0.14128602 0.12675706 -0.024502888 -0.15539667 0.024235874 0.21866381
0.05745259 -0.20102556 -0.16910695 -0.14581484 -0.18939416 -0.14978677 -0.088989645 0.08418712
-0.2511006 0.20205829 0.15451914 0.16122612 -0.089771464 -0.03705968 -0.019034773 -0.16397235
-0.0574041 -0.139555 -0.18202096 -0.10311316 -0.026403591 -0.12150188 -0.040228665 0.040451437
0.09177452 -0.19271244 -0.056396723 0.06555787 0.026244432 -0.19183218 0.19176745 -0.15200292
0.07209149 -0.23095419 0.030437678 -0.012256756 0.09103501 -0.1750085 -0.047355175 0.13638008
00000000: 1deb 4bbe 00e0 6f3e 3646 3ebe 20ad 80bc
00000010: b698 05be 1313 4ebe 889e 743d 96de 1f3e
00000020: bee3 c1bd d814 053e 0c8d d7bd fc3d e83d
00000030: e6c0 243e c078 563c 68c9 da3d b02b 9e3d
00000040: f03d 22bc 6cb7 e8bd 80cc 103c 598d 56be
00000050: ef71 63be 04af 543e 214e 75be 4cca 653e
00000060: bcf7 57be bcf3 14bd 1078 1a3e 7224 cabd
00000070: 7c24 18be f859 44be dc8f b83d 0c4c ed3d
00000080: d046 80be b4cf d73d 0c7d 333e ba85 d9bd
00000090: 8862 103e 1ee9 3d3e 1c99 183e 0217 3fbe
000000a0: f00a c23d e433 dabd c5d0 803e 622c 2d3e
000000b0: 6fff 68be 1672 253e a49d 363e 28b3 01bd
000000c0: e87e c73d c051 143c e02b c73c b43d 5c3e
000000d0: 7fc3 71be 702f c63c 482e 8cbc 8225 aebd
000000e0: c8a9 153e 606d 5b3e 00df 8abb a0e9 843d
000000f0: 7256 0cbe aa48 afbd 402f c3bb 6f28 23be
00000100: f674 11be 56e5 17be 8839 19bd 98bd 0b3e
00000110: 53c2 76be 38ef c9bd 26fa e0bd dc5a 68be
00000120: f0a6 d23c 7c25 75bd 202b 23bd 6849 543d
00000130: 8cfd 3fbd e031 6f3e 4a32 61be d8c1 2bbd
00000140: 7872 80be 868f 2b3e 9af4 3fbe 82be ddbd
00000150: 8495 2bbe b06c 333d f9cc 26be 7643 babd
00000160: 081f 1abd 90d1 1bbe 00af a93d 3a34 3c3e
00000170: e07b 4fbe aec1 243e d030 dfbc cc1a 383e
00000180: 0e92 233e 60ea 7cbe c828 433e 041d 36be
00000190: 66c0 273e e40a 283e 4c2b e33d 4c77 963d
000001a0: 0244 0abe 922f 7b3e baed e1bd 8a00 43be
000001b0: 8c48 cabd 7232 d7bd e8a3 723e b8aa a7bd
000001c0: ac6b fd3d 4ac5 1bbe 884b 8bbc d8e9 763e
000001d0: 081b 1a3e 066a 18be 3a00 7cbe dd73 51be
000001e0: 18d0 083e 2c3d 893d beaa 2b3e 20d9 033e
000001f0: 725e f8bd fc50 cb3d a351 19be 686a a2bd
00000200: b28d 133e 66a8 4bbe 0072 d1ba 86a0 d8bd
00000210: 1e47 663e 5a54 39be bed8 223e 864f 193e
00000220: 1ae0 bcbd 7e3d 27be b8c3 3c3d a648 3fbe
00000230: 0e90 613e 3ee5 243e c8b7 1fbd ec35 65be
00000240: 44a6 393e e6aa 683e 04fa 2a3e e516 6dbe
00000250: f0ff 203e 4429 50bd fe40 7e3e 5c85 a33d
00000260: d0c7 3a3e f6a2 373e f826 d53d ce46 48be
00000270: 78e2 663e 5aca 113e 0e92 393e d5e8 60be
00000280: 20b6 5cbd 800e 5e3c e81a c23d 840f 213e
00000290: 9322 2abe 60ef b63c 1a74 0a3e 72a4 673e
000002a0: a035 c03c 501f 9a3d 92fc a5bd 8e7d 12be
000002b0: 3012 9bbd 8416 96bd 58db e6bd d48e 553e
000002c0: b899 313d 428e 7f3e 12cc 96bd 5ea7 d1bd
000002d0: 1e73 6f3e ba82 27be c6de 213e 44ab 3bbd
000002e0: 38d4 d13d f0a8 c63d 74da fc3d c408 b53d
000002f0: c262 7f3e a8e2 793d 66c7 4a3e a67e 9dbd
00000300: c2d1 723e 6beb 66be 7b78 3fbe 5680 b7bd
00000310: c03f 1e3e 6e37 7d3e ae5a 7a3e 1022 c03c
00000320: 440e 6dbe b86a ea3d 2c58 f9bd 485e 643e
00000330: 6804 7ebe 2a0a 2bbe f0ca f83d 8bf1 5dbe
00000340: a8fa d1bc cad6 bbbd 48ad 103e 9acc 013e
00000350: 48ba c8bc 4e20 1fbe 508a c63c 68e9 5f3e
00000360: 6853 6b3d a5d9 4dbe 5f2a 2dbe 7c50 15be
00000370: 8bf0 41be b461 19be 3440 b6bd 4c6a ac3d
00000380: 4290 80be 5ee8 4e3e 443a 1e3e 7618 253e
00000390: 1ada b7bd e4cb 17bd d0ee 9bbc 5ee8 27be
000003a0: 9020 6bbd 82e7 0ebe b463 3abe fe2c d3bd
000003b0: 584c d8bc fad5 f8bd d0c6 24bd 68b0 253d
000003c0: 48f4 bb3d 6956 45be 4000 67bd 3443 863d
000003d0: 90fe d63c a86f 44be b05e 443e a7a6 1bbe
000003e0: b4a4 933d 417f 6cbe 7058 f93c 90d0 48bc
000003f0: 9070 ba3d 6e35 33be 80f7 41bd 38a7 0b3e

neighborLayer.W f4 [6, 32]
0.03482434 -0.23552519 -0.29478484 -0.26688558 -0.09004542 0.32302973 0.3065634 0.056425333
-0.020264775 -0.0128827095 0.022563726 0.34839478 0.17145321 -0.13050547 0.028623551 -0.02591443
0.06664628 -0.23346128 -0.03766638 -0.22631599 0.3748698 -0.008396953 0.26619664 -0.31476527
0.36657605 0.35971448 -0.13746384 -0.041094273 -0.37969932 -0.20696647 0.22041968 -0.2062702
0.089580745 0.1799545 0.19122598 0.34329733 -0.26958036 0.071998656 -0.2867613 0.3477455
-0.12834159 0.24164876 -0.1289092 -0.33065614 -0.10656273 0.21876273 0.19541726 -0.0371159
-0.19556345 -0.32666004 -0.020541638 -0.14894675 -0.22636399 0.16247293 -0.34787172 0.17082134
-0.30887967 0.04397255 0.25970897 -0.05209601 0.32812062 0.30502877 0.23583612 0.313633
-0.3639319 0.3644456 -0.37744766 -0.353775 -0.3103675 0.3167502 -0.28000787 -0.2996749
0.26982096 -0.3834903 0.008273661 0.37342837 0.39584056 -0.06076175 -0.14632705 -0.37977988
0.13197401 0.012386262 0.33613756 -0.055096656 0.0018390417 -0.3863898 0.14344713 -0.05323243
0.1729382 -0.34012073 -0.025384516 -0.24659257 0.26812312 -0.17252047 -0.3806575 0.32517317
-0.09424013 0.13844815 0.3212678 0.15578732 0.06502214 -0.28790897 0.2432172 0.35293195
-0.37291476 -0.17111011 -0.36412716 0.08800164 0.30066928 -0.21574594 -0.26296982 -0.1253004
-0.00016319752 0.38469598 -0.34551468 0.1426427 0.06353897 -0.31376892 -0.31663162 0.01966685
0.07146114 0.30461463 -0.09877023 -0.2237224 0.32176504 -0.12175658 0.15362474 0.29835805
0.18220744 -0.10801923 -0.15843172 -0.10473597 -0.35099357 0.15958413 0.1152738 0.3756458
-0.119558334 -0.38216785 0.3584185 -0.003984332 -0.014194638 -0.17030688 0.19930258 -0.15679327
0.056794822 0.20761815 -0.2685104 0.021090657 0.17337057 -0.02175954 -0.30193758 0.0034758449
-0.34875295 0.16720101 0.15191785 0.36688206 0.19007012 -0.043537825 -0.24037349 0.115073234
0.26963863 -0.057601362 0.32274798 0.10605392 -0.14660606 -0.30358624 -0.18952475 0.024079919
-0.05596453 -0.22717892 0.12282774 0.15663084 0.024670273 -0.1762847 0.24536285 -0.26798046
-0.05430323 0.19592735 -0.15748206 -0.17639792 0.13220903 0.23294011 -0.19285864 -0.38475326
-0.25051337 -0.058816165 -0.17389299 0.29780534 0.2839308 -0.20664735 -0.15246451 -0.09522459
00000000: f8a3 0e3d 842d 71be 0aee 96be 3aa5 88be
00000010: bc69 b8bd 2764 a53e e1f5 9c3e 401e 673d
00000020: 5002 a6bc 0012 53bc 90d7 b83c cd60 b23e
00000030: 6e91 2f3e 3aa3 05be f07b ea3c 804a d4bc
00000040: d87d 883d 7910 6fbe 1048 1abd 61bf 67be
00000050: efee bf3e 6093 09bc ed4a 883e ea28 a1be
00000060: dbaf bb3e 7f2c b83e 52c3 0cbe 7852 28bd
00000070: f367 c2be 05ef 53be b2b5 613e 7f38 53be
00000080: 1c76 b73d fe45 383e bed0 433e abc4 af3e
00000090: 7006 8abe 0874 933d 61d2 92be b30b b23e
000000a0: fa6b 03be c672 773e c600 04be c34b a9be
000000b0: 903d dabd 5603 603e 761b 483e d806 18bd
000000c0: c941 48be fc3f a7be f046 a8bc 7f85 18be
000000d0: f6cb 67be 4e5f 263e 3e1c b2be caeb 2e3e
000000e0: 7a25 9ebe 901c 343d 93f8 843e a062 55bd
000000f0: 6dff a73e bb2c 9c3e 067f 713e 8194 a03e
00000100: 4855 babe 9d98 ba3e d240 c1be ff21 b5be
00000110: 7de8 9ebe 152d a23e 315d 8fbe fd6e 99be
00000120: f925 8a3e d758 c4be 408e 073c 0132 bf3e
00000130: 9dab ca3e 50e1 78bd c2d6 15be 8272 c2be
00000140: 3224 073e c0ef 4a3c 391a ac3e 08ad 61bd
00000150: 000c f13a e2d4 c5be cee3 123e 400a 5abd
00000160: b616 313e 4e24 aebe 30f3 cfbc c382 7cbe
00000170: 6f47 893e 35a9 30be 8ae5 c2be 197d a63e
00000180: f800 c1bd 5ac5 0d3e 377d a43e b686 1f3e
00000190: 542a 853d ce68 93be ee0d 793e 7fb3 b43e
000001a0: afee bebe 7d37 2fbe e06e babe 343a b43d
000001b0: 53f1 993e 81ec 5cbe fba3 86be c04e 00be
000001c0: 0020 2bb9 dff6 c43e 4de7 b0be ee10 123e
000001d0: b820 823d 52a6 a0be 8a1d a2be 601c a13c
000001e0: 385a 923d 73f6 9b3e 0c48 cabd 7c17 65be
000001f0: 63be a43e 845b f9bd ce4f 1d3e 63c2 983e
00000200: 9694 3a3e 3039 ddbd ed3b 22be d07f d6bd
00000210: 6eb5 b3be 066a 233e ac14 ec3d a554 c03e
00000220: 00db f4bd 81ab c3be a182 b73e 008f 82bb
00000230: a090 68bc ed64 2ebe fa15 4c3e 6a8e 20be
00000240: b0a1 683d da99 543e 327a 89be 50c6 ac3c
00000250: 0e88 313e 1041 b2bc 9097 9abe 00cb 633b
00000260: bf8f b2be be36 2b3e 5a90 1b3e f7d7 bb3e
00000270: bea1 423e b854 32bd 7824 76be 84ab eb3d
00000280: 130e 8a3e 68ef 6bbd 393f a53e cc32 d93d
00000290: e61f 16be a86f 9bbe c712 42be 4043 c53c
000002a0: 103b 65bd 97a1 68be 1c8d fb3d d663 203e
000002b0: 5019 ca3c fa83 34be 6640 7b3e bc34 89be
000002c0: 106d 5ebd 2ea1 483e fa42 21be a8a1 34be
000002d0: ce61 073e da87 6e3e bc7c 45be 61fe c4be
000002e0: 4a43 80be 38e9 70bd 0111 32be f179 983e
000002f0: 615f 913e 5d9b 53be a81f 1cbe 1c05 c3bd

neighborLayer.a f4 [64, 1]
-0.03994304 0.30110866 -0.10392089 -0.055405185 0.2999609 -0.070451885 -0.053211212 -0.25341097
-0.013556242 0.20108753 -0.24022594 -0.06440149 -0.24907598 -0.14524853 -0.2514585 -0.280639
-0.18054536 0.12825754 0.06632382 -0.01558733 -0.083007246 -0.070429325 -0.26631752 0.008894175
0.24182928 -0.2094849 0.14522365 0.16420925 0.22454858 0.10393995 -0.21099924 0.0628804
-0.077928156 -0.15458414 0.015786469 0.09677842 -0.22428715 0.23156744 0.2442587 -0.24961683
0.16644534 -0.16197182 0.11398569 -0.23260984 -0.168446 0.0040363073 -0.054929808 0.19234127
0.18856815 -0.1688902 0.16597015 0.10023597 0.24624795 -0.026435822 0.25172687 -0.29654408
0.20184296 0.1864331 0.19743168 -0.23133445 0.24508536 -0.15854926 -0.2640459 0.06802359
00000000: 509b 23bd ea2a 9a3e 7ad4 d4bd 8cf0 62bd
00000010: 7a94 993e 1449 90bd 00f4 59bd 15bf 81be
00000020: 001b 5ebc e4e9 4d3e cafd 75be eee4 83bd
00000030: c60d 7fbe 08bc 14be 2bbf 80be eaaf 8fbe
00000040: e2e0 38be f255 033e c8d4 873d 0062 7fbc
00000050: b4ff a9bd 403d 90bd c55a 88be e0b8 113c
00000060: 18a2 773e 3683 56be 82b5 143e 7826 283e
00000070: 10f0 653e 78de d43d 2f10 58be 70c7 803d
00000080: cc98 9fbd 4e4b 1ebe a052 813c c433 c63d
00000090: 88ab 65be 0420 6d3e f41e 7a3e 8e9b 7fbe
000000a0: a670 2a3e f1db 25be 5471 e93d 4631 6ebe
000000b0: 1c7d 2cbe 0043 843b 14fe 60bd 1cf5 443e
000000c0: 0218 413e 8df1 2cbe 14f4 293e 8448 cd3d
000000d0: 6c28 7c3e f08f d8bc 58e2 803e a0d4 97be
000000e0: ecaf 4e3e 52e8 3e3e 882b 4a3e f0e2 6cbe
000000f0: a8f7 7a3e bd5a 22be 0631 87be f44f 8b3d
