test/model/actor_4_2_2_2_2_82_best_rou4.pth (torch, 689372 bytes, 17 tensors)

v2lLayer.W f4 [3, 40]
00000000: 4532 59be bc41 fb3d 750b bcbe dd07 89be
00000010: ad3d 4cbc 8db2 47be f1ef bdbe 5ff7 33bd
00000020: 57eb 8fbd 0149 18be 0907 6bbd 0ca3 a5be
00000030: 1855 5e3e 4c25 1b3e d0c1 a53e 48fc de3c
00000040: 5f66 f9bc 04e7 213d 7e44 fbbd 9073 bf3e
00000050: 3a96 ae3e d995 a8be f873 7e3b 3fd4 09be
00000060: 2962 98be 59f4 49bd 2330 5ebd b0e5 8bbe
00000070: caf8 813d 2026 94be f178 bc3e e5c9 cebd
00000080: e7f3 b9be dd5d 16be 6b35 4fbe db28 81bd
00000090: 3ab4 7dbe 359b 9bbe d9ff 9a3e e8b9 cf3e
000000a0: 27a5 07bd f9b2 b1bd 2235 53be fe71 80be
000000b0: 7dd7 2c3e b107 2c3e 0b61 933d 0dac 70bc
000000c0: 3418 10be b4a5 bbbe f024 803d 48db b93d
000000d0: eb82 bd3d b5a5 6a3e 34e1 cdbd 6144 1dbe
000000e0: bfa4 39be f0c4 6fbd eaa4 84be 00a1 5e3e
000000f0: 35ea bdbe c936 033e 3bd0 90be 1dcf f83d
00000100: 36b6 e1be c507 1dbe e1fb 0fbd c58b 833e
00000110: fabd 27bd 8b9a 35be c073 9a3e be69 a13e
00000120: e952 a93e 9bc4 883e f1c5 aabe 553e b93e
00000130: 31de b73e 250e d33e 4b58 b73e 9ad7 4f3d
00000140: 3204 cbbe 89ee a4bd d52e 89bc fcb4 c5be
00000150: bb6d a0be 47aa 2abe cf8f 71be b8b5 a5bd
00000160: 7d72 49be bb38 f33d f42a b23e 5b69 af3e
00000170: 433a 67be 51b5 b03d 4e01 e33d 713a 543e
00000180: cfe8 9bbe 3df2 b8bc 57b6 5abe 5644 9abe
00000190: ec46 9abe e2b8 4d3e 8330 6cbe e5db 2bbd
000001a0: e2b4 8dbc 7079 db3d 23c8 a6be cbae 2b3e
000001b0: 038f 973d c6de aebe b4e7 07be ba9e 833e
000001c0: 1685 c0be 99b6 48be cac5 8abc a1c3 90be
000001d0: 449c 9bbc 9c7f 2dbd 87d6 76be 1c1f 173d
-0.21210583 0.12268397 -0.3672749 -0.26763812 -0.0124658765 -0.19501705 -0.37097123 -0.043937083
-0.070273094 -0.14871599 -0.057379756 -0.32350957 0.21712148 0.15150946 0.3237443 0.027219906
-0.030444322 0.039526954 -0.12268923 0.37392855 0.3409899 -0.32926825 0.0038826447 -0.13459872
-0.2976239 -0.049305294 -0.054245126 -0.27323675 0.06346281 -0.28935337 0.3681102 -0.10097102
-0.36318895 -0.14684244 -0.20235221 -0.06306621 -0.24775782 -0.3039185 0.3027332 0.40571523
-0.033116486 -0.086767145 -0.20625737 -0.2508697 0.16879077 0.16799809 0.07196244 -0.014689458
-0.14071733 -0.3664986 0.06257045 0.09075028 0.09253486 0.22914775 -0.1005272 -0.15358116
-0.18129252 -0.058537424 -0.2590707 0.21741104 -0.37092748 0.12813868 -0.28283867 0.12148879
-0.44084328 -0.15334995 -0.03515232 0.25692573 -0.04095266 -0.17734735 0.30166435 0.31525987
0.33071068 0.26712498 -0.33354142 0.36180368 0.35911706 0.4122173 0.3580955 0.050742723
-0.39651638 -0.080533095 -0.016745964 -0.38614643 -0.31333718 -0.16666518 -0.23590015 -0.08091301
-0.1967258 0.11876055 0.34798396 0.34260067 -0.22580819 0.08628333 0.11084233 0.20725419
-0.30451056 -0.022576446 -0.2135862 -0.3013026 -0.30132234 0.20090058 -0.23065381 -0.041957755
-0.017298166 0.10716522 -0.32574567 0.16765897 0.07400324 -0.34154338 -0.13271981 0.25707036
-0.37601537 -0.19600905 -0.016940016 -0.28274253 -0.018995412 -0.042358026 -0.24105273 0.036894903

v2lLayer.a f4 [80, 1]
00000000: 4e17 2b3c 9baa 8dbe 32b6 3c3e 7e7c 9a3d
00000010: fa01 d8bd 3b4b de3d 5764 923c 62f4 66bd
00000020: 2f66 19be 8bbc 2e3e c6f3 0b3e ffda 30be
00000030: c6c8 49be 3897 adbd 5985 093e 2d1b 64be
00000040: dc7e 63be 68a7 5fbe f248 5ebe 67c9 253e
00000050: 5b3c 8fbe 7254 843e ab28 9abd c3f8 7ebd
00000060: 7a60 723e 427f 09bd e0fe 433d 9ec8 073e
00000070: ed28 30be 8f6c 9dbd 3b7f 82be 8d0b a5bd
00000080: 12b5 753e 255d 003e 8d4f 85bd 2531 6d3e
00000090: 729a 5abd 5251 10be 8d1e 3f3e ed58 85be
000000a0: 5af8 69be 239f 25be df0b 78be 134e bfbe
000000b0: 5393 303d bd1a 313d adcf 233e 014d dc3d
000000c0: cfc9 a0be c28a 84be 28f4 873e 5119 143e
000000d0: b3a1 c4be 666a 9f3e 54bc 0d3d b834 873d
000000e0: 0454 72bd b513 a3be 7330 593d a9d6 51be
000000f0: 848d 89be 78b8 673e e0d9 03bd 5149 dc3d
00000100: 3098 3abe 89a5 ad3d b3e0 70be 599b 25bd
00000110: 9f32 673e 510f a93d feac 553d 5de2 a5bd
00000120: c995 f43d 5263 493e 31aa 3fbe 6678 e03d
00000130: 46f9 923e 908b 8a3e 7881 7c3e 53eb 49be
0.010442568 -0.27669224 0.18428877 0.07543276 -0.10547252 0.10854193 0.017870111 -0.056385405
-0.14980386 0.17064111 0.13667211 -0.1727104 -0.19705495 -0.08476108 0.13429774 -0.22275992
-0.22216362 -0.21841204 -0.21707514 0.1619011 -0.27975735 0.25845677 -0.07527288 -0.062248956
0.23669615 -0.033568628 0.04785049 0.13260123 -0.17203112 -0.076867215 -0.25487694 -0.08058844
0.23994854 0.12535532 -0.06509314 0.23163278 -0.053369947 -0.14093521 0.18663998 -0.26044407
-0.22848645 -0.16173987 -0.24223278 -0.37364253 0.04310925 0.04323839 0.15997191 0.10756875
-0.31403968 -0.25887114 0.26553464 0.14462782 -0.38404617 0.31135863 0.03460343 0.06601852
-0.059162155 -0.31850973 0.05302472 -0.20492043 -0.2686578 0.22628963 -0.032190204 0.107561715
-0.18222117 0.08478839 -0.23523216 -0.040431354 0.22577904 0.082548745 0.05216693 -0.08099816
0.11942632 0.19666794 -0.18717267 0.10960464 0.28705806 0.27059603 0.24658763 -0.19718675

laneLayer.W f4 [12, 12]
00000000: ffba d3be 07d3 b8be 5141 e43e 3404 3e3e
00000010: 6dc2 46be c6c9 b0be f417 c6be 3bf0 abbe
00000020: a867 5fbc 335b febe 79f4 87be 6927 963e
00000030: 54d3 cfbe de60 ba3e 1480 90be 479a 74be
00000040: 508f b4bd c4aa 83bd 64a2 c7bd 7258 b53e
00000050: af93 9a3e ca3d 9ebe 69df 0a3e 9ef0 8f3e
00000060: 462f f5be d2f3 b9be 5a88 a13e a4fc 43be
00000070: 2692 a23e fead f3be 4018 7d3d d436 b9be
00000080: c0d2 a23d 16aa 953e c634 d73e 44a2 43be
00000090: 54d5 93bb ef97 c8be 0a98 dd3e c0c7 173e
000000a0: 530f b6be 1181 f2be 9b9d 893e 8e49 05bf
000000b0: 2745 c0be 6825 703e bf96 943e ebcd 1ebe
000000c0: 4604 c83e b834 1dbc b1b0 303d bec4 f2be
000000d0: ab2e d63e ce17 e53e 4084 0ebe 022f 9abe
000000e0: 8c9d ac3e 4b29 a73d 0469 823e 1f9c 2dbd
000000f0: 663f a23d 8b1d 3f3e b081 1fbe 55c4 88be
00000100: a660 f03e caf8 033c 99b6 11bd 8e4c a5bc
00000110: daec dc3e 4cc7 c23e 80ef df3e f5c3 5dbe
00000120: 65dc d53e 780d 52be 4c07 a83e 6104 c8be
00000130: e9e3 6c3c bdfa abbc a8ed b7be 6beb 913e
00000140: 64ed a93d 9f98 fdbe 7313 2cbc f930 d2bd
00000150: a81b d1bc 7bea d1bd 1f9d 4a3e 3f5b d83e
00000160: 3586 fbbd 017c e33e 5dea 66be 7f47 54bd
00000170: 1552 933e 2ccd d23d edea 5abe cad3 bb3e
00000180: 1033 143e dac1 86be 863f 9e3e 4a3e d93e
00000190: 4d8b 0d3e 011c 9dbe e574 f03e a68a 983e
000001a0: d5e5 99bd 8a30 023c 9076 39bd db27 cebc
000001b0: 7cdf 89be 70e4 cfbe 160c bd3e bffc f0be
000001c0: 2e73 9abe c10c ce3e b143 83bd 94db acbe
000001d0: a128 92be 42ab 923e d5d8 89be 35c0 b13e
000001e0: 90cb cbbe 24e7 efbe 42d7 9b3e 463e a3be
000001f0: 166f 803e b03a 7f3e cc77 96be f4b4 c63e
00000200: d06b e2be 781d 883d d8f1 4dbe 003f dc3b
00000210: 1a83 f43c e7d0 853e 2113 67be c57b 423e
00000220: 4c9e f93d 3342 51be d871 a0be 49f4 803e
00000230: a77f b83d aa8f d13e 25b7 d9be 8ff1 86be
-0.41353604 -0.360985 0.44581082 0.18556291 -0.19410105 -0.3452894 -0.3869015 -0.3358172
-0.013635553 -0.49678954 -0.26553705 0.29326943 -0.40590918 0.3640203 -0.28222716 -0.23886977
-0.08816397 -0.06429055 -0.097477704 0.3541904 0.301908 -0.30906516 0.13561787 0.28113264
-0.4788763 -0.36318833 0.3154934 -0.19139344 0.31752127 -0.47593683 0.061790705 -0.36174643
0.079503536 0.29231328 0.4203245 -0.19104868 -0.0045115147 -0.39178416 0.4328006 0.14822292
-0.35558566 -0.47364095 0.26878056 -0.5206536 -0.3755276 0.2345177 0.2902126 -0.15508239
0.3906576 -0.009595089 0.043137256 -0.47415727 0.4183248 0.44744724 -0.13917637 -0.3011399
0.3371395 0.08162173 0.25470746 -0.042385217 0.079222485 0.18663613 -0.15576816 -0.2671229
0.46948737 0.008054921 -0.03557453 -0.020178106 0.43149453 0.38042676 0.43737411 -0.21656783
0.4176971 -0.2051295 0.32818067 -0.3906584 0.014458635 -0.020993585 -0.35923505 0.28499922
0.08297232 -0.49530503 -0.010502684 -0.10263247 -0.025525883 -0.10249802 0.197865 0.42257115
-0.12281457 0.44430545 -0.2255034 -0.051825996 0.2877356 0.1029304 -0.2137868 0.3668502
0.14472604 -0.26319772 0.3090784 0.42430335 0.1382267 -0.30685428 0.46964183 0.2979328
-0.0751454 0.007946143 -0.045279086 -0.025165489 -0.26928318 -0.4060397 0.36923283 -0.4706783
-0.30166 0.40244105 -0.064093955 -0.33761275 -0.28546622 0.28646284 -0.26923242 0.34716955
-0.39803743 -0.46856034 0.30437666 -0.31883448 0.25084752 0.24924731 -0.29388273 0.3880993
-0.4422288 0.06646246 -0.20111787 0.0067213774 0.02984767 0.26135942 -0.22565891 0.18992527
0.12188396 -0.20435409 -0.31336856 0.25186375 0.09008723 0.4092992 -0.4252254 -0.2635617

l2pLayer.W f4 [12, 88]
00000000: bcd2 8d3d 077b 0f3e 061d c13d 073d 20be
00000010: 0156 6ebe fb17 a83d b753 68be a8cf 4c3e
00000020: d167 0a3d fa06 afbc bac6 e3bd ff56 25be
00000030: 5841 17be 70c1 543e cfc7 7cbe 1f5d 573d
00000040: 17ea 1f3d dbad 183e b605 473d c6a4 29be
00000050: b843 633e af8e 31be 83f4 0cbe bf2f 40be
00000060: 8707 6bbe 8b87 4dbe bd62 b6bd 572f 603e
00000070: e9e7 ee3d 3358 a6bd 4127 013e bff7 5fbe
00000080: f516 e3bd 8ed6 413e 2583 b33c 107c c4bd
00000090: 57e5 f1bd cbef 373d 1c37 b0bd 632a 8e3e
000000a0: b52f 343e ceae 1abe 2db4 bb3c 7396 6abe
000000b0: 574e 7abd b372 39be 1850 1fbe b123 15be
000000c0: 4484 bb3d 76c0 5ebd 004d 8ebd 3468 20be
000000d0: d972 573e 26ee c63c 6b57 22be 971a bebd
000000e0: e076 373e 3a31 2d3e be7d 353d 71c3 7d3d
000000f0: 2d78 213e bbdc a3bc abb7 68bb f2ca f3bc
00000100: 4e0b 813e d4dd c6bd 7320 683e 71c3 2dbc
00000110: 9c50 5ebe 9f0a e8bb 741f df3d 07c6 023e
00000120: 124c b13d 3cc9 16be b287 323e 66c9 7b3e
00000130: c4f6 93bd f349 293e 1617 7f3d 62cf a6bd
00000140: 5f2c d63d 0c25 22be 8045 c6bd 894b 903e
00000150: 7f39 d6bd 019e 083d e4d4 48bd 9910 c2bd
00000160: 4332 3f3e a207 bdbd d1dc 5cbe aa3e 51be
00000170: 0a98 4e3d 5572 96bd c974 67be 49cf 883d
00000180: 31a2 193e b6ee 30be de85 673e 6d84 203d
00000190: 4c2b 763e 1d15 2b3e 3743 ebbc 0f82 69be
000001a0: b935 253e d2a4 e93d 40e6 523d 5df1 8d3d
000001b0: faa5 b63d f8d8 5e3e bbec 703e 67bb 263e
000001c0: d3c5 babd 3ef2 c3bd 01c9 e93d 977a 6a3e
000001d0: 8936 21be 9086 90bc 73e0 0f3d e637 f0bd
000001e0: 2912 debd fd98 e43d a708 5a3e 3092 01be
000001f0: 1f35 803d 7e45 f43c 6c54 fdbc 1099 2abe
00000200: 7957 7dbe bdb4 533e 4811 553e c086 f03d
00000210: c673 c43d c8ca 70bc 9b1c d53c ab43 5ebe
00000220: 72d4 b13d fe82 973d b72c 93bd 60f7 26be
00000230: a181 8bbd 376f 3cbe 7b3b d5bd d514 5d3e
00000240: 151f 17be 7b54 c03d b2d4 3cbe 8393 ffbd
00000250: 7f8c 343d 7b8e 20bd c5ed 6ebe 6cf2 2e3c
00000260: 7f6e 35be 2fa3 12be c628 683e cbcf b1bd
00000270: 56c8 70bd 7a36 2bbe 7214 c13d ad5f f9bd
00000280: 2a4e 7fbe 7c96 0abe 74dd 43bd 537b 39be
00000290: 1d74 733e 3a36 60be fb17 6f3d 9e30 54be
000002a0: cc9b 0d3e c5c9 8d3d f9fc e3bc ccba b63d
000002b0: 5550 71be a7dc 443d 2fc5 0bbe d513 3a3e
000002c0: 4acc a7bd 82eb c43d 0662 5bbe c3dd 663e
000002d0: dc70 0cbe 8ca3 533d bd4e 563e d14e 503e
000002e0: 3121 043e 244b 70bd e623 d4bd 4890 b1bd
000002f0: 4ae6 63be 56c2 a13d e72c 203e d67c 47be
00000300: 6c5c 6a3d 6c55 a4bd 2e04 77be c140 78be
00000310: 6d95 0d3e 2a9b b0bd 2c6e 7a3d 573c 693e
00000320: 8467 313d 6011 92bd 5eac febd 4448 dfbd
00000330: c631 ca3d 2f75 713e 9196 09be 1d8e 7abe
00000340: a0e5 883b 4276 1dbe 89d5 6abe 8c6c 7d3d
00000350: 00c2 66bc b890 5cbe 94c3 11be 7ce1 71be
00000360: 7afc 79be 5a22 823d 5c4b 3e3d 6fbb 093e
00000370: b4d7 13be fbe2 533e e4ae 5a3d 8720 2a3e
00000380: 0eaf a73d 1473 34bd 3550 2f3e f73c 0abe
00000390: e070 15bc 2cd9 56be 2deb 693e 5acd e13d
000003a0: 97c4 073e 060d a83d 6871 97bc a1a0 483e
000003b0: 1086 1ebc 1c30 0dbe db98 73be 99c9 523e
000003c0: a22b 9c3d 8fed 563e 64a7 24be c696 873d
000003d0: cc58 ddbd 33f5 2a3e 0aec 56be 5890 53be
000003e0: 3030 763c 5917 003e 2b38 63be 8e7e 59be
000003f0: cf47 3f3e 94d2 2dbe 50d2 0abe 1033 5ebd
0.0692496 0.14011775 0.09429364 -0.1564828 -0.23274995 0.08207699 -0.22688185 0.2000109
0.033790413 -0.021365631 -0.111218885 -0.16146468 -0.1477102 0.20776916 -0.24685596 0.05257904
0.039041605 0.1491007 0.04858943 -0.16566762 0.22193801 -0.17339586 -0.13765149 -0.18768214
-0.2295209 -0.20071237 -0.089055516 0.21893059 0.11665327 -0.081222914 0.1261263 -0.21871851
-0.11088363 0.18929502 0.02191312 -0.095939755 -0.11811321 0.04490642 -0.08604261 0.27766714
0.17596324 -0.15105745 0.022913063 -0.22908954 -0.061109867 -0.1811016 -0.15557897 -0.14564396
0.09156087 -0.054382764 -0.0694828 -0.1566475 0.21039905 0.02428348 -0.1585366 -0.09282415
0.17916441 0.1691331 0.04430937 0.061953966 0.157685 -0.020002713 -0.0035509865 -0.029759858
0.25203937 -0.09710279 0.22668628 -0.010605679 -0.21710438 -0.0070813443 0.10894671 0.12770854
0.086570874 -0.14725202 0.17434576 0.24588546 -0.07224801 0.16532116 0.062277876 -0.08145024
0.10457682 -0.15834445 -0.09681225 0.2818263 -0.10460185 0.03335381 -0.049031153 -0.09475822
0.18671517 -0.092299715 -0.2156861 -0.2043406 0.050437964 -0.07346026 -0.22603144 0.066801615
0.15003277 -0.17278561 0.2260966 0.03918879 0.24039954 0.16707273 -0.028718574 -0.2280352
0.16133775 0.1140839 0.051489115 0.06930802 0.08918376 0.21762455 0.23527806 0.16282426
-0.09119763 -0.095676884 0.114152916 0.22898327 -0.1574346 -0.01764229 0.03512616 -0.11729412
-0.108433075 0.11161993 0.21292363 -0.12653422 0.06260132 0.029818293 -0.030924045 -0.16659951
-0.247404 0.20674415 0.20807374 0.117444515 0.095923945 -0.014696784 0.026014617 -0.21705501
0.08683099 0.07398032 -0.07186263 -0.16305304 -0.06811834 -0.184018 -0.104117356 0.21589978
-0.1475795 0.09391113 -0.18440512 -0.124793075 0.0440793 -0.03919838 -0.2333289 0.010677915
-0.17717932 -0.14320062 0.22671804 -0.086822115 -0.058784805 -0.1672 0.09427728 -0.12176452
-0.24932161 -0.13533968 -0.047818616 -0.1811345 0.23774762 -0.21895686 0.05837248 -0.20721671
0.13828963 0.0692325 -0.027830588 0.089223474 -0.235658 0.048061993 -0.13649438 0.18171628
-0.08193262 0.09615232 -0.21424112 0.22545533 -0.13714927 0.051669642 0.20928474 0.20342566
0.12903287 -0.05866541 -0.103584096 -0.086700976 -0.22255817 0.07898395 0.15642129 -0.19481215
0.057217047 -0.080241054 -0.24122688 -0.24243452 0.13826533 -0.08623345 0.061140224 0.22776924
0.04331161 -0.0713222 -0.1243522 -0.109024554 0.09872775 0.23579858 -0.13436343 -0.24468274
0.004177764 -0.15377143 -0.2293302 0.061871096 -0.014084339 -0.21539581 -0.14234763 -0.23621172
-0.24412718 0.06354208 0.046458587 0.13450406 -0.14437753 0.20692055 0.053389445 0.1661397
0.08187686 -0.04405506 0.1712044 -0.13499819 -0.00912115 -0.20981282 0.22843619 0.11025496
0.13258587 0.08205609 -0.018486694 0.19592525 -0.009675518 -0.13787884 -0.23788778 0.20584716
0.0762551 0.20989059 -0.1607948 0.066205546 -0.10807952 0.16695099 -0.2098848 -0.20660532
0.015026137 0.12508906 -0.22189395 -0.21239683 0.18679737 -0.1697486 -0.1355679 -0.054247916

l2pLayer.a f4 [176, 1]
00000000: 0b6b 25be 05aa 053e aeef afbd 4321 80bd
00000010: f2cc 5bbd ccde 59bc cbda 18bb 2fd8 413e
00000020: da26 04be 5ae5 1bbe e04a 8fbc c312 d5bd
00000030: 2ce1 8e3d 4825 aa3d 28cd 9b3d 3b20 2b3e
00000040: b164 abbd 5db1 9dbd 9664 f33d f31c d0bb
00000050: f3ab 3abe 0b3d 403e da45 f33d 5985 0b3d
00000060: 8063 c2bc 7b4a 8dbc 02c2 f13c 26c2 8abd
00000070: 52d1 8c3d a022 babb 296b ef3c 06df 203e
00000080: 1821 dc3d 0244 5ebe 89dd 3bbe d44f a1bc
00000090: 1bf1 383d f207 2bbe 010f eb3d dae1 1d3e
000000a0: d4d6 20be 63d1 85bc e9bb 7ebd 77b3 7cbd
000000b0: 47e7 3fbd dbe8 173e deb1 3abd b6cc 9bbd
000000c0: 90f5 9abd c8cd 433e f319 993d c404 7fbd
000000d0: 6a7d 13be d9f8 e13d f760 f23d d62e c13d
000000e0: 4400 713d 07ea 963d 200b fdbd 1387 0abe
000000f0: 0f6b 733d 56fe 0ebe 47ae 8ebd 6c10 c0bd
00000100: ca90 4bbd bc2e 23be 4ed5 53be f772 d23d
00000110: d4c3 433e ecb3 96bc f8da 40be a533 13be
00000120: e09f 863c 9f3c f03d 26ca 273e 99d1 a5bd
00000130: b193 0c3e a442 bdbc fc19 50bc 046a 43be
00000140: 6e81 9abb 782d 273e 0177 1dbd 8408 b53d
00000150: 48f5 503d 287a 09be 1b59 043d d33d ad3b
00000160: 7eda 99bd c9f4 a33b 14e3 1c3e dbcc f83d
00000170: 4a92 803c 533e 043e e182 90bd a893 6a3d
00000180: 1d2f ddbd cc01 cb3d 9b7a 883d 7b16 553d
00000190: 15ff 4b3d aec9 18be ac9b 303e 5d58 4d3d
000001a0: 773b 023e a910 d9bc 3897 83bd 20f6 b4bd
000001b0: 395f 23be 6372 cd3d a9bf 0a3d 2632 983b
000001c0: cf5d 5e3e 7694 babd 121b f53d 4d08 ce3d
000001d0: 16ed 11bd 10ad 10be 7fda cdbd f067 43be
000001e0: 64b4 123d ab0b b7bd ed0c f4bd 9a7b 90bd
000001f0: ebad b23d 63bb f73c 0439 363d 7a43 903c
00000200: 3530 a33c 8788 b3bd 6d7c 1ebd 0331 03be
00000210: a593 c6bd 1ab0 b8bd 1508 a23d 4d5c 52be
00000220: edc4 e3bd e578 50bd b45c 4f3e 6162 3fbc
00000230: fea6 5d3d 65f8 45be 7f56 8c3d 2a03 313d
00000240: e4b2 483d a17e 03be e745 97bc 5ea5 423e
00000250: fcac 903d 8f9c 793e 7045 e83c f55f b03c
00000260: 9fbe 063e a2ea 493d 6346 333e 2ba5 12bd
00000270: 1594 e13d ccb7 433c 2e2e 3abe bfa5 b43d
00000280: 5719 87bc 7b3e 50be 33a2 95bd 20e9 13bd
00000290: 5a19 453d 4aa0 0a3e 9f7e e63d 0268 093e
000002a0: 8fee 8f3d 0cf1 febd b2b9 773d bc1c 1c3e
000002b0: 9de2 7b3d 951e 08bd 6b2e fd3c 201c d0bd
-0.16154115 0.13053139 -0.08590637 -0.06256344 -0.053662248 -0.013297748 -0.002332377 0.18930124
-0.12905446 -0.1522421 -0.017491758 -0.10403969 0.06976542 0.08307892 0.0760749 0.16711514
-0.08368815 -0.07699845 0.118844196 -0.0063511073 -0.18229656 0.18773286 0.118785575 0.034062717
-0.023729086 -0.01724743 0.029511455 -0.06775312 0.06875862 -0.005680397 0.029225903 0.15710077
0.107485 -0.2170563 -0.18346228 -0.019691385 0.04515181 -0.1670225 0.11477471 0.15418187
-0.1570695 -0.016335195 -0.062190924 -0.06169459 -0.046851423 0.14834921 -0.045579784 -0.07607405
-0.075663686 0.19121468 0.074756525 -0.062260404 -0.1440331 0.11033792 0.11834901 0.09432761
0.058838144 0.07368856 -0.123556376 -0.13528089 0.05942827 -0.13964209 -0.069668345 -0.09378132
-0.04969863 -0.15935796 -0.20686838 0.10275834 0.19117671 -0.01839634 -0.1883353 -0.1437517
0.016433656 0.117303126 0.16385707 -0.08096618 0.13728215 -0.023103066 -0.012701508 -0.1908341
-0.0047151363 0.16325939 -0.03844357 0.08839515 0.05101517 -0.13425505 0.03231154 0.005286911
-0.07512377 0.005003546 0.15320998 0.12148448 0.015694756 0.129144 -0.07056213 0.057269722
-0.10800002 0.09912452 0.0666401 0.052023392 0.049803812 -0.14920685 0.17246884 0.050133098
0.12717997 -0.026497202 -0.06425327 -0.08836007 -0.15954293 0.10031583 0.033874188 0.00464465
0.21715473 -0.09110348 0.11968054 0.10060177 -0.035626493 -0.14128518 -0.100514404 -0.19082618
0.035816565 -0.08937772 -0.11916528 -0.07054825 0.087245785 0.03024072 0.044487968 0.0176103
0.019920448 -0.08766275 -0.03869288 -0.12811665 -0.0969613 -0.09017964 0.07911698 -0.20543022
-0.11121545 -0.050896544 0.20250207 -0.01168117 0.054114334 -0.19333036 0.06852435 0.043215908
0.04899873 -0.12841274 -0.01846595 0.19008395 0.07064244 0.24376129 0.028353423 0.02153013
0.13158654 0.04929603 0.17507319 -0.035802048 0.110145725 0.011945676 -0.18181679 0.08820676
-0.016491575 -0.20336334 -0.07306328 -0.036110997 0.04811988 0.13537708 0.1125462 0.13418582
0.07027923 -0.1244832 0.060479827 0.15245336 0.061495412 -0.03323229 0.030905923 -0.101616144

phaseLayer.W f4 [24, 26]
00000000: 7cea 443d cd9f a03e 7bb8 04be 46cb 66be
00000010: 1dff 123e 77c8 38be 5f90 98bd c4ac 393e
00000020: f095 8e3e 4dcf 06bd a66c 21be d661 96be
00000030: 9eec 023e 143d 30bb 871f 80bd baf2 77be
00000040: eadb f8bd a3c1 913e 5395 99be c101 53be
00000050: 7e1e 4a3e d90a 9fbd 2a0a 663d 05d2 0cbe
00000060: 8fbe 213e ecbd 6a3d c04f 4f3d 8174 233d
00000070: 5202 5ebe c035 373d 44d9 8f3b fab2 55be
00000080: 7add 593d d417 173e 6a23 883e 7763 7a3e
00000090: f12e 513e 96bf ffbc beb4 48be d970 8abd
000000a0: 3e9c ecbc 4fb0 38be cd47 8c3e ee56 0fbe
000000b0: db1c 56be 1702 6ebe 3adf 69be 0e1a a1be
000000c0: 41a2 27be 29ef df3d cfd5 0abd 582c 63be
000000d0: 2433 763c 7567 353e 98c8 2a3d 333c b83d
000000e0: 9daa 8b3e b957 9b3e 462f 6f3e 0aaf e9bd
000000f0: 1728 b0be cc8b 5ebe e5fc 483d 897a c83d
00000100: 0eb5 8abd 3aee 6dbe 28e4 b53d 60b3 113e
00000110: e861 803e f531 22be 7b32 523c a7c9 9c38
00000120: eefb 2bbe 4999 373e 252d 853e 7c40 193d
00000130: 0ba9 e43c 0fc1 433e 8273 26be 701e 39bd
00000140: 4e4e 653e 6eaf 233e 4922 d13d 53e3 1d3c
00000150: 0069 61bd c62e 93be c887 4bbc 38bd f83d
00000160: f212 90be 3d10 9dbe 3ee1 9fbe ad46 dcbd
00000170: 634a 393e fdc6 d23d 7ab7 a53e 23d1 c93d
00000180: 58a3 f73c a3d7 57be fb62 b83e 48d2 4d3e
00000190: fb7d 0dbe 5032 0d3e 9d3f e2bc 2711 e8bd
000001a0: d898 36be 6a1b 6fbe 338a 11bd fa98 643e
000001b0: 90cc f7bd bf67 56bb e897 37bd e9b0 5a3e
000001c0: 0376 82be 19ad 35be 04de 39be cb65 1d3e
000001d0: 6f85 59bb e712 a63e 25c7 ec3d 15ff c33e
000001e0: 14e6 3e3e 694b 9a3e 226d 26be 9401 9e3e
000001f0: d4f5 af3e 2334 9b3e e44a 853e 231f e83c
00000200: 2642 9a3e 43e6 d0bb 781e 1ebe c0a4 873d
00000210: df9d 5c3d fc86 333e 1c82 203e cbc4 233d
00000220: 48cd 063d 1b9b 74be 509e 78bd 865d bf3d
00000230: 8a53 793e 7c4e 2e3e c2f6 13bc 2b36 063d
00000240: 45bc 3e3c 6887 593e d344 9d3e eabd ce3e
00000250: 940a 94be b69f 563d becb 193d 5f5d 143d
00000260: f3a3 8f3d 66ff 923e 30e1 27be fc2e 41be
00000270: 08c9 9d3e ed47 d0bd 05d2 383d 315c edbd
00000280: e24f 743d 21fa 1bbe 0ef6 a53c b040 16be
00000290: 1a28 76be 0d26 a43e 4b39 e5bd ea25 c1bd
000002a0: 4f95 503e 3f38 86bd ba9a 253e b053 48be
000002b0: c55b 85be c2dd 5bbe 303b aebd 9eb7 bc3e
000002c0: 45ef bf3e a3f8 9abd 33bd 7b3e 7848 85be
000002d0: e9dd 9dbd b704 afbe a9c5 923e bdf1 b8bd
000002e0: b5f2 243e 7357 93bc 5c90 35ba 1df6 5a3e
000002f0: 4869 3fbe 9668 16be bf04 ecbd 1c88 c53e
00000300: f278 24be 9882 2abc 8669 d9bd 7388 30be
00000310: 0d9e 95be 19ef 043e d1c9 933e 207c 8c3e
00000320: c75a 97be 20b3 5cbc 3217 68be 7b3a 8b3d
00000330: 5bb0 82be 7951 a23e 9e37 943c c1ff 8b3e
00000340: 7bb0 943e d9db a33d 3ec7 60be 1ab9 e4bd
00000350: 2702 f33d e4c3 53bd 5d6d 57be c83b 48bd
00000360: a6b5 a8be 4f2f a93e c8d3 a03d 5990 be3d
00000370: 7b33 aebe 931c 2d3e 2cd4 e1bd 1b1d e5bd
00000380: cd58 083e 1b10 983e 0e29 06be b15a 1fbd
00000390: 84d3 91bd c56c 72be 6751 50be d4c0 67be
000003a0: 0863 92bd 098d 2a3d 1033 c7bd cd11 b73d
000003b0: 5675 76be b080 813d 8b83 9dbe 39b9 90be
000003c0: 6436 82be a970 ac3e 9264 a6be 9ee8 8bbe
000003d0: 9e3d 65be ec1c 92be 4504 98be e0ba 793e
000003e0: dd63 8c3e 5fe4 d9bd 868c 4a3e d7ee 35be
000003f0: ad20 8c3e 43c6 4ebe 7b05 9cbd 6ad7 c0be
0.048075184 0.31371918 -0.12960999 -0.2253848 0.1435513 -0.18045221 -0.074494116 0.18132311
0.27848768 -0.03291254 -0.15764102 -0.29371518 0.12785575 -0.0026891874 -0.06256013 -0.24213687
-0.1215132 0.28468046 -0.29996738 -0.20606138 0.19738194 -0.07765741 0.056162037 -0.13751991
0.15795349 0.05731003 0.050613165 0.03990603 -0.21680573 0.044728994 0.0043899138 -0.20869055
0.053189732 0.14755183 0.2658952 0.24452005 0.20428063 -0.031219285 -0.19600198 -0.06759805
-0.028883096 -0.18036006 0.2739853 -0.13998005 -0.20909445 -0.23242985 -0.2283906 -0.3146519
-0.16370489 0.10934288 -0.03389531 -0.22184885 0.015026841 0.17715247 0.041695207 0.08995857
0.27278605 0.30340365 0.23357877 -0.11410339 -0.34405586 -0.21733016 0.049069304 0.09788997
-0.06772815 -0.23235407 0.08881408 0.14228582 0.25074697 -0.1583937 0.012829418 7.47622e-05
-0.16795322 0.17929567 0.26011005 0.037415013 0.027912637 0.19116615 -0.16255 -0.045195043
0.22393152 0.1598489 0.102116175 0.009636718 -0.055031776 -0.28746623 -0.0124225095 0.121454656
-0.28139454 -0.3067645 -0.31226534 -0.10755668 0.18094783 0.1029186 0.32366544 0.09854343
0.030229256 -0.21078353 0.36013016 0.20099747 -0.13817589 0.13788724 -0.027618224 -0.113313965
-0.17831743 -0.23350301 -0.035532188 0.22323981 -0.12099564 -0.0032715646 -0.044822603 0.21356548
-0.2548066 -0.17741813 -0.18151098 0.15370862 -0.0033191105 0.32436296 0.11561421 0.3828055
0.18642455 0.30135658 -0.16252568 0.3086058 0.3436724 0.30313215 0.260337 0.02833516
0.30128592 -0.0063751056 -0.1544131 0.066232204 0.053861495 0.17531961 0.15674633 0.0399826
0.032910615 -0.23887293 -0.060697854 0.0934401 0.24348274 0.17022127 -0.009031 0.032766502
0.011641567 0.2124306 0.3071657 0.40379268 -0.2891432 0.052398406 0.03754782 0.036221858
0.07013693 0.2871048 -0.16394496 -0.1886558 0.30817437 -0.10169969 0.045122165 -0.1158985
0.059646495 -0.15232135 0.02025893 -0.14673114 -0.24038735 0.3206028 -0.111925684 -0.0943106
0.20369457 -0.06553697 0.16172305 -0.19563174 -0.26046577 -0.21471313 -0.08507383 0.3685884
0.37487236 -0.07566955 0.24583893 -0.26031852 -0.07708342 -0.34183285 0.28666428 -0.09030483
0.1610821 -0.017986035 -0.0006926113 0.21382947 -0.18692505 -0.14688334 -0.11524343 0.38580406
-0.16061762 -0.010407113 -0.1061583 -0.17239551 -0.29222146 0.12981834 0.2886491 0.2743845
-0.29561445 -0.013470441 -0.22665098 0.06798264 -0.25525174 0.31702784 0.018092927 0.27343562
0.29040894 0.08000917 -0.21951005 -0.11168118 0.11865645 -0.051700488 -0.21037813 -0.048885137
-0.32951087 0.33043906 0.07852894 0.09304876 -0.3402365 0.16905431 -0.11026797 -0.11187192
0.13315125 0.29699787 -0.13101599 -0.03890485 -0.071204215 -0.23674305 -0.20343553 -0.22632152
-0.07147795 0.041638408 -0.09726536 0.08938942 -0.24068198 0.06323373 -0.30764422 -0.28266314
-0.25432122 0.33679703 -0.32498604 -0.2732591 -0.22386786 -0.2853769 -0.29690757 0.24387693
0.2741994 -0.106392615 0.19780168 -0.17766891 0.2736868 -0.20192818 -0.07618233 -0.37664348

p2iLayer.W f4 [24, 176]
00000000: 1035 ed3d 84da bd3d cfca b63d 58ae f0bd
00000010: d09f e2bd 8fc4 053e 6dbb b3bd 9919 e0bd
00000020: d558 d9bc 1d69 1d3d c8ff 0b3d 3f1e 393e
00000030: 5ab2 f13d 667e 1d3e d75b f53d b972 eb3c
00000040: f456 d3bd f020 7e3d 3673 4c3e 819e 00bd
00000050: da30 933d 64be 89bc addc 653d 9b0d 00be
00000060: 4e5c cfbd 23ef c83d 66ed 133e 8f49 33bc
00000070: a492 f1bd 458d fb3d d2e0 e0bd 83a5 48be
00000080: a8b5 ac3d d5b8 e53d c585 713d ee90 aabd
00000090: 5d38 c83d 8c12 e33d c3cd 243e ce6c 213e
000000a0: 36ec 6cbd f556 bfbd 411b 013e 7492 edbd
000000b0: a5c1 4bbe 8105 0fbe e8c9 afba f9e2 4c3e
000000c0: d4fa bdbc 4063 d5bd d6c6 863d 658d ba3d
000000d0: 8750 e13d 66e7 8bbd b5d2 03be 2c08 f03d
000000e0: 0249 d4bd b971 0d3d e07c bfbd dd11 debd
000000f0: 0b5f b2bd 0f66 3e3d 0f40 d33d f98e 663d
00000100: 2d77 b43c 780a ecbd 9e3c d23d 17da adbc
00000110: 0488 9d3d 2191 c03b a9d9 2d3e 8790 11be
00000120: 94e2 22be 6896 8e3d 9763 d63d 567b debd
00000130: 2611 c6bd 61f6 4bb8 e4cf f93d bad8 5fbd
00000140: 9d7a 3d3d 22ae 5f3c 295b 9d3d 7f3f 053d
00000150: f17c bb3d 43c6 013e 8fbd cebd c7bd 873d
00000160: 4f7b cbbd cae1 07be 881f d63d db7f 63bd
00000170: 12d7 d4bd 0e3e bb3d d753 4f3d 1b10 01be
00000180: d267 32be f33e 4a3d d50d 18be 8e17 fabd
00000190: fd72 47bd cbd7 c03c 5b7b 74bd 7c36 7e3d
000001a0: b332 57bd 0595 68bd 62c2 343e 1d1a bebb
000001b0: 9e0f 23be a2b8 323e ca48 15bc e8ec b3bc
000001c0: 7fbe 083e ac1a a93d 2e5e 863d 102a 2bbc
000001d0: 7423 283d b6fe 8cbb e279 b4bd 8ddd 8a3d
000001e0: c2de 55be 1f0f 673d 80ca 43bd 3d7b 44be
000001f0: fbe3 833d 3107 273c cd0c 2f3e 4d5d dd3d
00000200: 4d4f 8f3d 45ce fbba 745d fd3d 258a b23c
00000210: 81d9 0fbe ba52 8c3d 0e24 153c e558 c23d
00000220: e1ff 38be cd67 ad3d e400 583d e83d 0c3e
00000230: 0983 0b3d eda2 343e d3ae 2b3d e1eb 20bd
00000240: 3657 05be e328 11be 9685 36bd 07eb a23b
00000250: acf6 f83c 6c2d d53d ed2b e43b e3f2 363e
00000260: 3f5a de3d 324e e5bd 1be9 3bbe 0926 033d
00000270: a3f2 c23d 56eb d3bd 6301 77bd 2a14 9ebd
00000280: c850 063d ca65 003e 7e78 4f3d a2e3 f4bc
00000290: 3ae1 42bc 5477 01be 187f edbd 9705 d7bd
000002a0: 3e4a b4bd 3186 16be aab4 96bc 4f9c 0fbe
000002b0: 1711 cebd 2883 183e e5c5 b83c cb98 ca3d
000002c0: 8d32 8bbe 364a 0abe 1879 33be c78c bebd
000002d0: e04d 60be 86a9 35be 1b1c 973d 8aaa 81bd
000002e0: 1830 b53c 7a2e f6bc 8c4a 06bd f53d 463e
000002f0: fd8e fd3d 9d11 5bbd 490d 32bd c829 073e
00000300: e929 c53d 86a5 4a3d ebe5 013e 7df2 2d3e
00000310: b28f 65bd 3fe1 20bd 926b e3bc c7a2 fbbd
00000320: af51 42ba fca7 733d f2e8 f13d df2d 15bd
00000330: 3b94 fcbd e8a3 eb3d b71d cf3d 9bae 8abe
00000340: d5a0 a2bd 2c74 24be c685 2fbd f4b4 0cbe
00000350: 3879 ff3b bffa 493e 4d9e adbd 3907 5bbd
00000360: 8092 a93a ac05 813d 82a7 643d fac8 e93d
00000370: 9241 21bd 7d56 51bb 4dfe 873d f3bf d73c
00000380: be1b 4d3d 9a02 16be 234b 54be 4bc4 d2bd
00000390: 5c77 13b9 929f dcbb bf9d 0c3e 9f47 823e
000003a0: e321 6dbd 80ae 4d3e 7f89 f33c 462d d5bc
000003b0: 4c48 15be ef79 7cbc 3923 56bd 8b39 70bd
000003c0: 208a 4dbd cd63 5a3c 47c0 0b3e 7b3c 28bd
000003d0: 533e 13be ba17 9bbd 9a61 b2bd ba4b e23d
000003e0: 9006 bd3a df20 043e 5979 d9bd 1ec8 47be
000003f0: e1ee 9d3b 4363 553b 15b4 f93c 3f5b 63be
0.115823865 0.09270194 0.089254014 -0.117520034 -0.11065638 0.13063262 -0.08775983 -0.10942382
-0.026531616 0.038430322 0.03417948 0.18077944 0.11801596 0.15380248 0.11980408 0.028741227
-0.10319319 0.06204313 0.19965824 -0.03140116 0.07187052 -0.016814418 0.056118656 -0.1250519
-0.101250276 0.09811237 0.14446029 -0.010942831 -0.117955476 0.122828044 -0.10980381 -0.19594388
0.08433086 0.112168945 0.058965463 -0.083284244 0.097763754 0.11087522 0.16094117 0.15764162
-0.057842456 -0.093427576 0.12608053 -0.11600199 -0.19898088 -0.13966943 -0.0013411613 0.20008458
-0.023190893 -0.10419321 0.06580894 0.09109 0.110016875 -0.06831245 -0.12873347 0.11720309
-0.10365488 0.034532283 -0.0934999 -0.10843251 -0.08709534 0.04648405 0.103149526 0.056288693
0.022029484 -0.11525434 0.10265468 -0.021222157 0.076919585 0.0058766757 0.16977562 -0.14215289
-0.15906745 0.069622815 0.10468214 -0.10863368 -0.096712396 -4.862843e-05 0.12197855 -0.054650046
0.04625951 0.013652356 0.07683403 0.032531258 0.0915469 0.12673287 -0.10094749 0.06627994
-0.099356286 -0.13269725 0.10455233 -0.055541854 -0.10392584 0.09142695 0.050617065 -0.126038
-0.17422417 0.04937644 -0.14849027 -0.12211524 -0.048693646 0.023540398 -0.059687953 0.06206368
-0.052538585 -0.05678274 0.17652276 -0.005801453 -0.15923926 0.17453244 -0.009111593 -0.021963552
0.13353918 0.082570404 0.06560932 -0.01044704 0.041049436 -0.004302825 -0.0881231 0.06780539
-0.20885757 0.056410905 -0.04780054 -0.19187637 0.06439968 0.010194586 0.17094727 0.10808811
0.06997547 -0.0019211253 0.123713404 0.021794388 -0.14047815 0.06851716 0.009102834 0.094896115
-0.1806636 0.08467064 0.052735224 0.1369549 0.03406051 0.17640276 0.041914772 -0.03928745
-0.1302155 -0.14175753 -0.04456099 0.004971865 0.03039106 0.10409054 0.006963244 0.17866091
0.10857057 -0.11196555 -0.18350641 0.032018695 0.095189355 -0.10347621 -0.060304057 -0.0771869
0.032791883 0.1253883 0.05065202 -0.0298937 -0.0118945185 -0.12643176 -0.11596507 -0.10499113
-0.08803223 -0.14699627 -0.018396694 -0.14024471 -0.100618534 0.14893782 0.022555301 0.09892424
-0.27187005 -0.13504872 -0.17526662 -0.09304195 -0.21904707 -0.1774045 0.073784076 -0.06331356
0.02211766 -0.030051459 -0.032785937 0.19359572 0.123807885 -0.053483594 -0.0434697 0.13199532
0.09627134 0.04947426 0.12685363 0.16987033 -0.05604524 -0.03927731 -0.027761254 -0.12286907
-0.00074126845 0.059486374 0.11812009 -0.0364207 -0.1233296 0.11505872 0.101130895 -0.27086338
-0.079408325 -0.16059941 -0.042852186 -0.13740903 0.007796433 0.19724558 -0.08477459 -0.053473685
0.0012937337 0.0629991 0.05582381 0.11415286 -0.039369173 -0.003194242 0.06640301 0.026336646
0.050075285 -0.1464943 -0.20731787 -0.10291346 -0.00014063477 -0.0067328895 0.1373205 0.25445268
-0.057893645 0.20086098 0.02972865 -0.026022565 -0.1457836 -0.015409931 -0.052279685 -0.058648627
-0.050180554 0.013329458 0.13647567 -0.041073304 -0.14379244 -0.07572885 -0.08710022 0.110496
0.0014421511 0.12903164 -0.10618848 -0.19509932 0.0048197364 0.0032560385 0.030481378 -0.22202776

p2iLayer.a f4 [352, 1]
00000000: 838f a23c 15a3 133b f340 a2bc 5a1b 8e3c
00000010: a1e5 23bc 6bbf f53a aa19 7ebe efb6 00be
00000020: 7f58 6f3c fcf1 60ba 506c aebc 488e cbbd
00000030: e4eb 32be c17f eb3c ceae 31bd dfc4 13bd
00000040: f733 0ebe 2154 8dbd 4fa0 b93d 39f3 a0bd
00000050: 3f8f a0bb e2d4 243d 132e b0bd a6b9 b43d
00000060: a593 493d dc84 41bd a794 8f3d 51fa c23d
00000070: a538 e3bd 80fe d93d 73bc 193d edb6 2dbd
00000080: ecdf 813e 2998 a1bc b6ef a53c fe54 343c
00000090: 6e3d 1b3e 94e7 c2bd 3a5c 3bbd 4afa c4bc
000000a0: efd5 97bc 8bae 29bd 8075 a43c 2bb5 babd
000000b0: 4690 cbbd 9f45 c5bd b4e8 0ebe 63b9 7dbd
000000c0: 581d acbd ac91 36bd 47f9 9f3d 1ec1 3b3e
000000d0: f26e 263d e00a d6bb cc2d 1fbd 755e efbd
000000e0: 1c33 9d3a dffb 2c3d e00a bebd 4741 49be
000000f0: 27ae 993d a9ba de3d 6059 20be d9b4 823d
00000100: 1269 393e 61bd e1bd f35f 39ba 9e98 353d
00000110: 0844 333e eced 1abe 65aa 103d 9537 e93d
00000120: 7249 703d f2bf febd 6abd 80bd e712 193e
00000130: 02b3 123e 62e6 9f3c 9b7d 803d b413 d6bd
00000140: d009 8b3d 116a c3bd e29e 0f3e 1830 29be
00000150: b506 423e 1732 733d 24e3 743c 7acb 31be
00000160: 80c4 d0bd 0a30 49bd d536 b9bd f73e 053e
00000170: 8a06 093d d8f6 fcbd 12a9 073b 137e b1bd
00000180: 1249 6bbd 7346 e1bb 2703 71be defc f9bd
00000190: 553c 92bd 4340 d63d 9ea4 3d3e 526f 2fbe
000001a0: f2e5 85bd c7b4 8e3d 2dfd 68bd 42e7 45bd
000001b0: 0f7d dabc bd37 923d e03d 7abc 4baa c2bc
000001c0: 60f6 b83d 3621 16be 4b36 b7bd d207 1c3e
000001d0: 532d 15be c43b 953c 5f67 0cbe 6bd6 ac3d
000001e0: 38c3 cbbd b2e8 1a3c b0e5 833d cec4 f43d
000001f0: 5a18 10be 92a6 a83d dc93 19bd 48e1 873d
00000200: 522c 733e 6148 ae3d 959b 2dbe 8313 c9bd
00000210: 3723 c3bd 02cd 7ebe 73bb 063e f13a 5fbd
00000220: caa0 84bc c0a8 69bd d4ed fe3d f643 ee3d
00000230: 3341 183e 7bae 103d c1a8 00be 81ea 29bd
00000240: 1eba cb3d 0ef9 093d c439 83bd 7f3d bfbc
00000250: 178c 2ebe 5a13 093e 8d1e 5a3d 1c64 aebb
00000260: dd93 893d 3bac 0ebd b32d febc 5ce0 ca3d
00000270: cc8e 3a3e 174f 03be 0b59 53be cabe 533e
00000280: a8dc 6a3d 4f6a d93d d71c f03d f7c8 b2bd
00000290: e3ca e43c b9f9 10be f384 093d c01d dabb
000002a0: cdc3 283d cd6b ceba 6fac 67be da1b c0bc
000002b0: 8372 f0bd 9c94 113c af40 973c 2d45 b03d
000002c0: 7442 2a3e 81a6 68be 812d ca3c 6037 5c3d
000002d0: 11ac 1d3e c808 21be 40fa 58be 8661 01be
000002e0: 738e cd3d fef1 20bd 0216 463e 61b1 c13c
000002f0: 7a5d 89be 766b cb3d e330 803c 0cbf 793e
00000300: d4a3 f9bd 89f3 3cbe 4b3f 7cbd ba01 c33d
00000310: 5676 f43d 6791 403d c5e7 6abe 65bf 353e
00000320: 4873 60bd a7b7 48be f656 9b3d 2b35 3b3e
00000330: f38d 70be 6810 223e da92 12bc bf74 693e
00000340: 83b3 2c3e c55e 843d ec34 703e eb7c 533e
00000350: cd9e 4b3e 1546 b73d 1a81 debd b0d7 01be
00000360: 084f 6abe 6a2d fd3d c009 18be 0294 1cbd
00000370: e5ab 48be 33a4 0db8 0247 9fbd ee20 12be
00000380: c292 3b3e b501 0ebe 995d 5c3d c7b4 383e
00000390: 546a 6dbe ae1a 2fbe 1717 3d3e 7ae1 20be
000003a0: 0cc4 77be 8cba 133e 58f1 9fbd d4f0 65bd
000003b0: 6ccc 353d 8a9e e43c bcdf 95bd 6c8c e23d
000003c0: fd52 493e 1aea 84bd fa39 f03d 0508 463e
000003d0: 862b 063e 2747 90bd ef73 8d3d 387b 5a3e
000003e0: f4b3 3cbe 9bcf e33c b712 a03c dbb1 50be
000003f0: 01ad 213e 2faf 0a3d fe63 833c 6436 ec3d
0.019843822 0.0022527624 -0.01980636 0.017347027 -0.010003478 0.0018749064 -0.24814478 -0.12569784
0.014608501 -0.00085809804 -0.021291882 -0.09939247 -0.17472798 0.028747441 -0.043379597 -0.036076423
-0.1388701 -0.06900812 0.090637796 -0.07858891 -0.0048998888 0.040242083 -0.08602538 0.08824472
0.04921307 -0.047245845 0.07010775 0.095204 -0.110947885 0.10644245 0.037533235 -0.04241078
0.2536615 -0.019725876 0.020255905 0.011006592 0.15160152 -0.09516826 -0.04574225 -0.024045128
-0.018534629 -0.041426223 0.02007556 -0.09116586 -0.09939627 -0.0963242 -0.13955957 -0.061944377
-0.084040344 -0.044572517 0.07811218 0.18335387 0.04063315 -0.006532058 -0.038862035 -0.11687938
0.0011993381 0.04223239 -0.09279418 -0.19653808 0.0750392 0.10875446 -0.15659094 0.0638215
0.18106487 -0.11022449 -0.00070714875 0.044335 0.1750642 -0.15129822 0.03531875 0.113875546
0.058663793 -0.124389544 -0.06286128 0.14948617 0.14326099 0.019519035 0.06273957 -0.10452977
0.06788981 -0.09541715 0.14025453 -0.16522253 0.18947871 0.05937394 0.014946733 -0.17362776
-0.101937294 -0.04911808 -0.090436615 0.130123 0.0334535 -0.12351769 0.002070014 -0.08666625
-0.057442732 -0.0068748533 -0.23536359 -0.12206434 -0.07140414 0.10461476 0.18519828 -0.17132309
-0.06537999 0.06968074 -0.056882072 -0.048316248 -0.02667096 0.071395375 -0.015273541 -0.023762843
0.09031367 -0.14661106 -0.089459024 0.15237358 -0.14568071 0.018216975 -0.13711308 0.084393345
-0.099493444 0.009454893 0.06440294 0.119516 -0.1407179 0.08234896 -0.037494525 0.06634766
0.23747376 0.08509899 -0.16953881 -0.09818175 -0.09528201 -0.24882892 0.13157444 -0.05449957
-0.016189951 -0.0570457 0.12447706 0.11634056 0.14868622 0.035322648 -0.12564375 -0.041483406
0.099476084 0.033684783 -0.06407502 -0.023344753 -0.17045628 0.13386288 0.05325179 -0.0053219926
0.06717656 -0.03483222 -0.03102765 0.099060744 0.18218535 -0.12823139 -0.20639436 0.20678249
0.05733934 0.1061598 0.11724251 -0.08729737 0.027928775 -0.14157762 0.033574056 -0.0066563785
0.041202355 -0.001574868 -0.22624372 -0.02345078 -0.117405914 0.008885529 0.01846346 0.08606944
0.16626912 -0.22719766 0.024679901 0.053763747 0.1539767 -0.15726006 -0.21189213 -0.12634858
0.10036936 -0.03929328 0.19344333 0.023644151 -0.2682913 0.09932606 0.015648311 0.24389285
-0.12189451 -0.18452276 -0.0615838 0.09521814 0.11936633 0.047013666 -0.22939976 0.17748792
-0.05479744 -0.19601308 0.07584946 0.18282 -0.2349165 0.15826571 -0.008946145 0.22798441
0.16865353 0.06463388 0.23457688 0.20653121 0.19884796 0.08948914 -0.10864468 -0.12679935
-0.2288171 0.12362178 -0.1484747 -0.03822709 -0.19596823 -3.3769942e-05 -0.077772155 -0.14270374
0.18317702 -0.13867839 0.0538002 0.18037711 -0.23185092 -0.17100021 0.1846584 -0.15711012
-0.2419588 0.1442663 -0.078097045 -0.056137875 0.044384405 0.027907629 -0.073180646 0.110619396
0.19660564 -0.06489964 0.11729808 0.19338997 0.1310254 -0.07044821 0.06906878 0.21336067
-0.18428022 0.027808955 0.019540174 -0.20380346 0.15788652 0.033858474 0.01603889 0.11533812

intersectionLayer.W f4 [48, 46]
00000000: 86eb c7bd 94bc 2c3e 216a 04be 3c2d f7bc
00000010: 4321 6f3e da58 45be 8947 a83d 1012 043d
00000020: 67c9 d63b 363f 183e b8d2 903d 864f 75be
00000030: b40e 14be 2b3b 023e 930c 3cbe 15e0 0a3d
00000040: 9a38 3abe ae0a 1bbd 5b0a 6ebd cd49 753e
00000050: be08 2cbe 73bb 7f3e e939 36bc 95bd eabd
00000060: f46f 88be 5298 81be 6e14 1abe c5c3 a9bc
00000070: 6ba5 653e 01e3 8cbd 7cda f1bd 72b5 52bd
00000080: b6ac 27bd 2791 36be 3b1d 74be 0bf4 74bd
00000090: a5a4 a63d 4597 5e3e 6658 6bbe 7de6 cfbb
000000a0: f4a0 87be c72a 7a3e 6691 383d 8d14 513e
000000b0: c282 23be 4b8b 9ebc e233 eebd 2dd2 373e
000000c0: 5cbd e4bc 6433 93bc 1c7a 9b3c a8cf ccbd
000000d0: 8629 973e 5dbb 3fbd 2ad0 a9bd f60c 47be
000000e0: 30fc 8b3c 080f e4bd f152 4e3e 4785 7bbe
000000f0: c49b 08be 7f8b 11bd f16f 8e3d d372 d4bd
00000100: b107 343d ca03 f3bc 05dd 11bd 1b6e 60be
00000110: ea96 ecbd 8541 f3bd 9966 e2bd a51d 7cbe
00000120: dfc2 2bbe 83b0 523d f7d1 fabd 0fe9 7d3e
00000130: b7d0 e4bd 6914 dfbd 9fe1 7dbd 4642 0a3e
00000140: 50d0 5d3d 8500 9b3e 3df6 fabc 03f5 fc3d
00000150: a4d2 90be aa0d e4bc e61d 0fbd ef2d ad3e
00000160: 437b 05be d8a7 0bbc e060 67bd b4b5 6fbe
00000170: 309f 3e3d 410b 29bd 0eb1 0dbe 2e0c d9bd
00000180: 5878 ea3b 8903 453e 7e1a 74bc b81c febd
00000190: 1220 07be 1084 9d3c e2f1 173b 5583 1a3e
000001a0: da3a 97bd 96e0 cf3d 9e17 d63b 075e b93d
000001b0: 54a1 03be b2d7 89bd 3095 11be 1feb c93d
000001c0: 10f2 84be cdf3 7c3e c7ed 65bc b437 d7bc
000001d0: a379 26bd 1255 bebd 439e 053e 7bd2 343e
000001e0: acf7 5bbe b8e0 6abd 230c 8cbd dbb7 f93d
000001f0: 2a19 843e 8b70 413e 16ff 483b d7b3 b63c
00000200: a862 473c c445 2dbe 692a 12be 5dc0 6abd
00000210: c430 a93c 13f7 00bd 59ef 383d 43ed 5e3d
00000220: 1430 d3bd 08d9 143e f0b6 03be 807d 5dbe
00000230: 141b 873d f05d 1abe 20ea 39be 6073 7fbd
00000240: 7e03 713e 0e13 333e f8fe eabd d0da b33c
00000250: 886d 433e 30fe 5ebd d8bf 5a3e 78a3 d93d
00000260: 88d2 163d 4833 c9bd 521e fdbd 8e5e 05be
00000270: 724b 483e f415 c03d 4619 7e3e 8c0c 373e
00000280: 92df 5fbe 674f 50be ac94 303e 8d7b 5dbe
00000290: f44c b7bd e82d 2d3d a012 9a3d a184 08be
000002a0: 627b e9bd 9ca1 d83d 6f92 2abe 5054 b9bd
000002b0: 88a2 223e dee5 3ebe 5b23 0abe b087 173d
000002c0: 4439 613e ec59 17be b089 763d 342d ea3d
000002d0: a0ec 273c 04f4 57be 2e7d 21be 9262 37be
000002e0: c6ff 3fbe 586e 68bd 115a 013e 34ff dcbc
000002f0: 748c 48be 043d 143c 8776 33be 589d 6ebd
00000300: d708 2bbe 7d3e 2d3d f710 4a3e d50f 393e
00000310: 212d 7b3d 4c74 103c 0a67 5f3e bef4 25be
00000320: b549 bebd 2ea3 aabd c2c5 89bd c97a 24be
00000330: 6fe3 0c3e df51 45be f435 7bbd 5e11 6d3d
00000340: a4b4 b63d ced8 453e 5e35 933c 5ca1 2b3d
00000350: 34d0 7bbe 0b5a 233e 415d cf3d f581 3bbe
00000360: 29ac 4ebe 6bb8 053e b877 063e 8e4a 973d
00000370: 963c e23d 6a28 3bbc fdff 82be 070d 343d
00000380: 07af 323c a3cf a0bd 4bf1 063d 1f2a bebd
00000390: ec3d 31be a5f7 bc3d d9d8 66be ac2a 023e
000003a0: a602 f2bd 014e 413e 7f41 e4bc 9c62 643b
000003b0: 2f65 833e b17f 42be 747e 3d3e 3fa0 8ebd
000003c0: d8e0 1d3d 1c58 a5bd 7a5a 783c fc4d 40be
000003d0: 6972 003d b9c9 a3bd e748 803d 6a1c 42bd
000003e0: da26 4dbe c59f 6c3e b320 acbe 6f79 18be
000003f0: 51bd c53d e218 ed3c d6b8 603d ad16 763e
-0.097617194 0.16868812 -0.1293111 -0.030172937 0.23352532 -0.19272175 0.08216769 0.03224379
0.0065547707 0.14867863 0.070714414 -0.23956117 -0.14458734 0.12717883 -0.18364172 0.033905108
-0.18185654 -0.03785198 -0.058115344 0.23953934 -0.1680021 0.2497385 -0.011122205 -0.11461941
-0.26647913 -0.25311524 -0.15046856 -0.020723233 0.22426383 -0.06879235 -0.11809251 -0.05144257
-0.040936194 -0.17828809 -0.23839276 -0.05980305 0.08136872 0.21737392 -0.2298294 -0.006344615
-0.26489985 0.24430381 0.045060538 0.20417996 -0.15967849 -0.01935353 -0.116309896 0.1795127
-0.027922325 -0.01796884 0.018979125 -0.10000545 0.29523867 -0.046809543 -0.08291657 -0.19438538
0.017088026 -0.111356795 0.20148827 -0.2456256 -0.1334067 -0.035533424 0.06954945 -0.103734635
0.043952648 -0.029664893 -0.03561117 -0.21917002 -0.11552222 -0.11877731 -0.11054725 -0.24620683
-0.16773556 0.051437866 -0.12247079 0.24795936 -0.11172622 -0.10892565 -0.061982747 0.13501844
0.05415374 0.30273834 -0.030634994 0.1235142 -0.28285706 -0.027838547 -0.034940623 0.33824107
-0.13035302 -0.008523904 -0.05648887 -0.23409158 0.04653853 -0.0412705 -0.13837072 -0.10598026
0.0071554594 0.1923963 -0.014898894 -0.124078214 -0.13195828 0.019228011 0.0023184945 0.15089162
-0.07384272 0.10150258 0.006533577 0.090511374 -0.1285451 -0.06730594 -0.14217067 0.09859299
-0.2596593 0.24702378 -0.014033741 -0.026271679 -0.040643346 -0.092935696 0.13048653 0.17658417
-0.21481198 -0.057343215 -0.068382524 0.12193271 0.2580045 0.18890588 0.0030669621 0.022302551
0.012169518 -0.16921145 -0.1427399 -0.05731236 0.020653136 -0.03148563 0.045150135 0.05442549
-0.103119045 0.14535916 -0.12862754 -0.21629906 0.065969616 -0.15074897 -0.18155718 -0.06236589
0.23536488 0.17487738 -0.11474413 0.021954924 0.19084752 -0.05444163 0.21362245 0.10626882
0.036821872 -0.09824234 -0.12359299 -0.13024351 0.1956003 0.09379187 0.24814329 0.1787588
-0.21862629 -0.2034279 0.17244214 -0.21629162 -0.089502245 0.042280108 0.07523084 -0.13331844
-0.114004865 0.105776995 -0.16657422 -0.090492845 0.15882313 -0.18642375 -0.1349005 0.036994636
0.21994501 -0.14780396 0.060189903 0.11434403 0.010249287 -0.21089178 -0.15770409 -0.17908695
-0.18749914 -0.056745857 0.12632014 -0.02697716 -0.19584829 0.00904775 -0.17525683 -0.058255523
-0.16702591 0.04229592 0.19733034 0.18072446 0.061322335 0.00881679 0.2181665 -0.16206643
-0.09291402 -0.08331905 -0.067271724 -0.16062464 0.13758634 -0.19269513 -0.06133075 0.05787789
0.08921173 0.19320986 0.017969783 0.04190193 -0.24591142 0.15952317 0.10125209 -0.18311293
-0.20182861 0.13058631 0.13131607 0.07387267 0.11046712 -0.01142321 -0.2558593 0.043957736
0.010905988 -0.078521036 0.03294496 -0.09285378 -0.17308778 0.09226922 -0.22543658 0.1271159
-0.118169114 0.18877412 -0.027863262 0.0034848815 0.25663134 -0.18994023 0.1850527 -0.06964158
0.038544506 -0.08073446 0.01515829 -0.18779749 0.03135911 -0.0799746 0.06263905 -0.04739038
-0.20034352 0.23107822 -0.33618698 -0.14890073 0.0965525 0.02894253 0.054863773 0.24032088

neighborLayer.W f4 [6, 32]
00000000: 97d0 783e 1f9c 81be 2d7c 5cbd 824f eb3d
00000010: 5b51 bc3e 6694 883e e174 573e ff1c 3bbc
00000020: 1ae8 65be 25ec 463e e209 6b3e 1630 843b
00000030: 97b0 88bd 5184 42bd 9062 97bd 6540 8cbd
00000040: f6e1 86be 0d62 e13d d9a8 84bd dbb9 6fbe
00000050: 5c0a 853e 01ec 33be b4a4 a8be d580 b23e
00000060: 9708 16be a385 10be 31c0 803e 3166 9a3e
00000070: 7b09 71be 459a c53e e65f d9bd 7f75 81bd
00000080: 8a47 003a d9c5 3e3e 1e7f c5bd e577 223e
00000090: 919f febd 40eb 80be ca8d a8be d2cd 77be
000000a0: a652 c83e 3c41 9b3e cb72 55be 60be 003e
000000b0: 3e85 74bd 8b6a 38be 8284 f23d af9d 8fbd
000000c0: ec44 a23b 676b 513e 3fec 4cbe fc83 87be
000000d0: 4c0c 573e 7c4d 90be d9d9 cabe 59a7 963e
000000e0: 7217 263e 06c1 4cbd 5933 983e b909 2d3d
000000f0: db59 11bd 7c8b 963e 6b17 8e3d e45a a4bc
00000100: ba58 c8be 1f26 2e3e 1567 c4be 292c 8cbe
00000110: 0a64 0fbe d8c0 3f3e 17e5 a73b 9114 57be
00000120: 2381 eebe f466 85be 245c 61be ae2a 83be
00000130: a92c a8be 53bb 8ebe 61ad 353c 6294 aabe
00000140: e9fe b53e db47 3e3e da1c 4abc 7f24 e3be
00000150: 4ad2 603e a689 913e 55d4 453e 2c6f bdbe
00000160: b9da 56bd 9f29 5f3e f92e de3d 98ba 2a3c
00000170: 572b 7f3e 804a 393e 368c 82be d59e b03e
00000180: 6211 d3bd 0089 ccbe 7ee8 46be 9bb9 b13e
00000190: ba32 c7be 81b3 d6bd 5537 8f3e 9d4d 313e
000001a0: 1162 9dbe f32b 703e fe82 82be df40 bd3e
000001b0: 926a 0ebe 18b9 bfbe 241e 783e 79fc af3e
000001c0: 09ee febd db2e 83be 3bbd be3e cd91 163e
000001d0: e540 6dbe cfc7 583d 0c57 203e 0ccc f5bc
000001e0: f326 b43c 504b 03be 42da 04be 21b3 bbbe
000001f0: b22f b73e c363 26be d758 d9bd 6c0e 89be
00000200: e97a a3be 5458 003e 4f75 96be 7e1f 8c3e
00000210: 2eb8 853e 3e24 0bbe d21c 2cbe cbd3 83be
00000220: e9b7 613e b099 613e 5dc5 c03e 1f6c 053d
00000230: 5a69 9b3c 20cd 243e 2999 aabe 5907 0e3c
00000240: cb38 303e 8f0b 2cbe 378c 92be 653f e13c
00000250: 15e6 00be 5b46 73be ee28 103e cdde fe3c
00000260: 9ac6 3b3d d11d e43d 329f ea3d b2df fcbd
00000270: 3068 ae3d 7fe8 a93e ce2d b0bd 930c 823e
00000280: 00db a33e 7817 bfbe 84f2 c43e f8c0 a6be
00000290: 74af 813e 6b0e 8abd cb5d 99be a93e 30be
000002a0: 18f8 c4be f7da 423e 6ed0 9dbe 6e56 1a3e
000002b0: c6e7 debe 2a06 cebe 4a9b a23e b435 903e
000002c0: 32aa 0d3e aaab 3abe bdcd e2bd 7e61 3abe
000002d0: 93cb 3b3e b79e 89bd b685 8fbe 6541 60be
000002e0: a751 743d bbdb a73d 0458 9439 1be4 a9be
000002f0: 8b3e 83be 9034 ddbd 653d 8d3e d2bf abbe
0.2429832 -0.25314423 -0.05382936 0.11489774 0.3678082 0.2667572 0.2104068 -0.011420487
-0.22451821 0.1942602 0.22952989 0.0040340526 -0.06674307 -0.047489468 -0.07391846 -0.0684822
-0.2634427 0.1100503 -0.06477518 -0.23410742 0.25984466 -0.17570497 -0.3293816 0.34863916
-0.14651714 -0.14113478 0.2514663 0.3015609 -0.23538773 0.3859426 -0.10613994 -0.06321239
0.00048934727 0.1863016 -0.09643386 0.15866049 -0.124327786 -0.25179482 -0.32920676 -0.24199608
0.39125556 0.30323207 -0.20844571 0.12572622 -0.059697382 -0.18009393 0.1184168 -0.07012498
0.004952064 0.20451127 -0.20011996 -0.26467884 0.21000785 -0.28184116 -0.3961933 0.2942455
0.16219881 -0.04998877 0.29726675 0.0422456 -0.035486083 0.29403293 0.069380604 -0.020062871
-0.39130193 0.1700673 -0.38359895 -0.27377442 -0.14003006 0.18725908 0.005123745 -0.21003939
-0.46582898 -0.2605511 -0.22007805 -0.256185 -0.32846573 -0.27877292 0.0110887 -0.33316332
0.35546044 0.18582098 -0.01233598 -0.44363782 0.21955219 0.2842533 0.1931928 -0.3699888
-0.052454684 0.21793221 0.10848803 0.010420464 0.24918877 0.18094826 -0.25497597 0.3449618
-0.1030605 -0.39948273 -0.19424626 0.34711918 -0.3890589 -0.104834564 0.27971902 0.17314763
-0.3073888 0.23454265 -0.25490564 0.36963555 -0.13907841 -0.37445903 0.24230248 0.3437231
-0.12447745 -0.25621685 0.37253746 0.14704056 -0.23169287 0.052924927 0.15658206 -0.030004524
0.021991229 -0.12821698 -0.12973884 -0.36660102 0.35778576 -0.16248994 -0.10612648 -0.26768816
-0.3192971 0.12533695 -0.29386374 0.27367777 0.2611708 -0.13588044 -0.16807869 -0.25747523
0.22042812 0.22031283 0.37650576 0.032573815 0.018971134 0.16093874 -0.33319977 0.008668744
0.17209165 -0.16801284 -0.286226 0.02749605 -0.1258777 -0.23757307 0.14078113 0.031112099
0.045843698 0.111384995 0.11456145 -0.12347354 0.08515966 0.33185193 -0.086024866 0.25400218
0.3200302 -0.37322593 0.38466275 -0.32569098 0.25329173 -0.06741031 -0.2995437 -0.17211403
-0.3847053 0.19028841 -0.30823082 0.15072033 -0.43536204 -0.40239078 0.317591 0.28165972
0.13834456 -0.18229547 -0.11074398 -0.18201253 0.18339376 -0.067197256 -0.280317 -0.21899946
0.059648182 0.08196207 0.00028294337 -0.33181843 -0.25633654 -0.10801041 0.27585903 -0.33544785

neighborLayer.a f4 [64, 1]
00000000: 5374 a9bd 01f7 913e 04ce 6e3d ef32 7cbd
00000010: 7b5a 07be be40 5d3e a6b2 98be a791 603e
00000020: e379 67be 5037 f1bd 765f 4d3e b75f 90bc
00000030: b216 8b3e bf3a 08be a786 fabd f344 423d
00000040: 53c0 aa3d ecdd 543e e57a 523e 4438 35be
00000050: c673 9b3d 4124 9d3c 36f8 13be 3011 87bd
00000060: e497 193e e4fb 4f3e 64ca 383e 8fb0 7abe
00000070: 4364 16be 779f 0f3d 161b 863e 3f5a ed3d
00000080: 2183 b13e cc5b c63e 1d74 793e c43b 42be
00000090: f189 153e e1e0 1b3e be43 723d 064e 693e
000000a0: 9033 3a3e add4 b53c 3e50 2f3e 0dcd b6be
000000b0: 0024 183e bf41 4e3e b6c6 5a3d 0508 a0be
000000c0: cece c4be 65db a83b e2e3 02be e8e3 503e
000000d0: 5ea9 c63d 16f8 7cbe 9da7 9e3d 96af c03e
000000e0: 7348 d5bc d703 d33d 39d4 a53d c9aa 383d
000000f0: ab8d 9fbe 0351 4d3e 3740 30be c33e 9cbd
-0.0827414 0.28508762 0.05830194 -0.06157201 -0.1321811 0.21606728 -0.29823798 0.21930562
-0.2260509 -0.11778128 0.20055947 -0.017623765 0.27165753 -0.1330366 -0.12232714 0.047429036
0.08337464 0.20787781 0.20554693 -0.17697245 0.075904414 0.019182326 -0.14450154 -0.06595075
0.14999348 0.20310932 0.18045956 -0.24481414 -0.14686684 0.035064187 0.2619254 0.11589479
0.34670356 0.3874191 0.243607 -0.18968111 0.14603402 0.15222503 0.059146635 0.2278367
0.18183732 0.022196138 0.17120454 -0.35703316 0.14857483 0.20142268 0.05341216 -0.31256118
-0.3843903 0.005153107 -0.12782243 0.2039944 0.09700273 -0.24704012 0.077468134 0.3763396
-0.026035523 0.10303467 0.08097119 0.04508475 -0.31162772 0.20050435 -0.17211996 -0.07629158
