test/model/actor_3_3_3_3_38_best_rou0.pth (torch, 689330 bytes, 17 tensors)

v2lLayer.W f4 [3, 40]
000000 28 e9 a2 be b4 d0 fa 3d d9 b8 bc 3d ee 0b bd be
       -0.3181851 0.12246838 0.092149444 -0.36923164
000010 50 08 cd bc 6e 5d 28 3d 48 45 ba 3e ca c2 a0 3e
       -0.025028378 0.041104726 0.36380982 0.31398612
000020 41 9d 03 be 5f 40 b0 be 8a a7 69 be 16 e6 36 bd
       -0.12852956 -0.3442411 -0.22817817 -0.04465302
000030 4f 14 b5 be 8b d7 8b bb b7 9f 53 be 55 c6 4a 3e
       -0.35367057 -0.004267638 -0.20666395 0.1980222
000040 39 8e 2a 3e a3 5c 60 3e 8b 02 38 be 3e b8 9e be
       0.16655816 0.21910338 -0.1796972 -0.3099994
000050 f3 73 c8 bc 15 49 25 be 64 6f 12 be 43 98 1a be
       -0.024469351 -0.1614116 -0.14300305 -0.15097146
000060 6e 61 94 be 6c 66 61 3e cb 24 74 3e 26 27 f7 3d
       -0.28980583 0.22011727 0.2384216 0.12068014
000070 72 55 e7 3b 43 a8 c0 3d 0e 94 3a bd d3 f0 e7 bd
       0.0070597464 0.094070934 -0.045551352 -0.113252304
000080 23 b1 6f 3e b9 2b f0 3d 41 cf 61 be e0 45 ab 3e
       0.23407416 0.117270894 -0.22051717 0.33451748
000090 3a de 22 3e 1b ed ef bd 14 df 43 be 16 08 02 be
       0.15905085 -0.11715146 -0.19128066 -0.12698397
0000a0 95 5d a6 be d1 3c 78 3e 88 73 91 3e fa de 3c bb
       -0.32493272 0.2424195 0.28408456 -0.0028819428
0000b0 0c 3b bc 3d f6 5a 13 3e 6c 10 3c 3e 98 61 df be
       0.0919095 0.14390168 0.1836564 -0.43629146
0000c0 fb 61 27 3a ba c8 d4 bd 60 88 9b be 68 da c4 3e
       0.00063851447 -0.10389848 -0.30377483 0.3844788
0000d0 13 96 c5 be 06 d1 5a 3d ae 96 63 3e f8 9d 3d be
       -0.3859106 0.053421997 0.22225448 -0.18517292
0000e0 aa e8 7b 3e 23 77 c9 be cd b4 c8 be 81 39 43 be
       0.24600473 -0.39348707 -0.3920044 -0.19064905
0000f0 c3 48 90 be 1a 37 bd 3d 88 a3 a4 be 03 fb a9 3e
       -0.28180513 0.092390254 -0.32156014 0.3319932
000100 59 60 83 be db 72 be 3c b3 39 16 3d e0 2b 23 be
       -0.25659445 0.023248127 0.03667612 -0.15934706
000110 fa 9e 84 bd 4a 5c c1 3d 13 44 ac 3e 4e f4 9a bd
       -0.06475635 0.09441431 0.33645687 -0.07566129
000120 63 74 21 be 02 ff 6a be 1b e0 f5 bd 4a 8a 98 be
       -0.15767054 -0.2294884 -0.12005635 -0.29793006
000130 c0 84 50 3e 88 ea b7 3d 8f 7c 93 3d 8b 00 c2 be
       0.2036314 0.0898028 0.07201492 -0.3789104
000140 32 75 7a be d4 05 33 be 8e 78 bd be 78 ef 44 be
       -0.24458769 -0.17482692 -0.37006038 -0.19231975
000150 3f 1e 31 bb 22 d0 b0 3e 2e a4 5f 3e 87 26 91 bd
       -0.0027026085 0.34533793 0.21839973 -0.07087427
000160 f8 21 06 3c 03 ce 2d 3d d6 e3 92 3e 7e de 80 3e
       0.00818681 0.042432796 0.2868945 0.25169748
000170 9f 2b 1d 3e a5 ba f9 3d 13 b6 bd be 65 20 7d 3e
       0.15348671 0.12193803 -0.37052974 0.24719389
000180 9b 1b da bd 23 8a 04 3d ec a6 c7 3c f5 de 5c 3e
       -0.106497966 0.0323583 0.024371587 0.21569426
000190 dd 26 15 be 36 3b 92 3d d6 63 77 3d 13 f8 9e be
       -0.14565606 0.071402 0.060397945 -0.3104864
0001a0 35 b9 13 3e 12 6f b0 3e 19 93 45 be bd 73 11 3e
       0.1442612 0.3445974 -0.19294395 0.14204307
0001b0 ca 5b 97 be 8e 02 56 be f3 99 99 3e 1b da 93 bd
       -0.29562217 -0.20899412 0.30000266 -0.07219335
0001c0 c1 eb 14 3e b3 12 91 be 15 77 ac bd 4e 6e ca 3e
       0.14543058 -0.2833458 -0.084211506 0.3953728
0001d0 e9 4f 12 be 82 63 10 be 20 8a a7 be 5d eb 00 3e
       -0.14288296 -0.14100459 -0.3272257 0.12589784

v2lLayer.a f4 [80, 1]
000000 c0 93 9d bd 09 31 3e be e6 48 93 bd 9a 53 18 be
       -0.07694197 -0.18573393 -0.07191639 -0.14875641
000010 69 3e 3a bd 77 88 8f 3c c7 7a 78 bd 33 4a a0 3d
       -0.045469675 0.017521126 -0.060663965 0.078266524
000020 eb ec 48 3d f8 fe 01 bd b5 ed 9e 3d fb 08 81 3e
       0.049054068 -0.031737298 0.07760183 0.25202164
000030 8b c0 33 be 28 24 85 be 7c 26 68 be a1 e7 e7 bc
       -0.17553918 -0.26004148 -0.2267093 -0.028308691
000040 67 a2 62 be a5 f5 53 3c c1 86 0d bd 52 1b ed 3d
       -0.22132264 0.012936984 -0.03455234 0.115774766
000050 04 05 21 3e 09 b9 bc 3d 86 de f6 bc 15 66 70 be
       0.1572457 0.0921498 -0.030135404 -0.23476441
000060 d0 e9 08 3e a0 1a b2 bc 79 1c 27 bd d8 22 1b 3c
       0.13370442 -0.021741211 -0.040798638 0.009468757
000070 32 88 60 3e 30 e7 40 be d1 3b d4 bd 1a a9 0c bb
       0.21926954 -0.18838191 -0.103629716 -0.0021463097
000080 eb 9c 54 be ae 39 12 3e 18 d5 39 3e 04 dc 28 bc
       -0.20762984 0.14279816 0.18147695 -0.010306362
000090 42 af 81 be 8a 2b 73 be ec 83 69 bd ee 66 33 be
       -0.25329024 -0.23747078 -0.057010576 -0.17519733
0000a0 77 73 65 be 19 86 1d bc d8 4f 8e bc 2f 40 6d be
       -0.22407328 -0.009614491 -0.017372057 -0.23169015
0000b0 eb 13 69 be 57 3d 62 3e 91 94 7f 3e 35 a9 80 be
       -0.22761504 0.22093712 0.24959017 -0.25129095
0000c0 db 65 6d 3e 8d 81 e3 3c ce 28 63 be c3 6a 77 3d
       0.23183386 0.027771736 -0.22183535 0.06040455
0000d0 a5 b7 b2 bd ed 5e a5 3e 26 80 11 3e 04 72 2e be
       -0.08726434 0.32298985 0.14209041 -0.17035681
0000e0 88 38 5b bc 95 44 25 bd 65 a1 c5 bd a9 24 fc bc
       -0.013380177 -0.040348608 -0.09649924 -0.0307792
0000f0 a7 c5 a8 3d c9 96 d0 3d 1e 71 a4 3d 95 c3 db bd
       0.08240824 0.1018501 0.08029388 -0.10730664
000100 bc b2 43 be b4 9c fb bd 9e 63 98 be 61 55 86 be
       -0.1911115 -0.12285748 -0.29763502 -0.26237014
000110 dc 95 73 3c 6f 84 21 bb 04 ff 91 3e d0 3d 6c bd
       0.014867272 -0.0024645587 0.28514874 -0.057676136
000120 c9 fd e6 bd ce 0f a4 bd 0e 70 00 3c 97 35 59 be
       -0.112788744 -0.08010827 0.007839216 -0.21211849
000130 56 ff 75 3e 69 d1 a5 3d 27 43 36 3e 8c b2 0c 3e
       0.24023184 0.080965824 0.17799054 0.13739985

laneLayer.W f4 [12, 12]
000000 3f 0c 1f be 25 fc e7 3e a2 24 86 3e 75 19 d6 3e
       -0.15532015 0.4530956 0.26199824 0.41816297
000010 33 e6 04 3f 5e ad 89 be 6f 95 b0 bd df da 61 be
       0.51913756 -0.2689008 -0.08622252 -0.22056149
000020 40 08 fa 3d ab 45 d9 be dd c7 d2 3e 2f 51 92 3e
       0.12208605 -0.42435965 0.4116811 0.28577563
000030 80 ab e1 bb 84 dd e9 be 9e 0c 9b 3e 24 ae 00 be
       -0.0068868995 -0.45676816 0.30283064 -0.1256643
000040 a0 df 6e bd 50 fe 7f be b0 2c 51 bd 50 3f fc be
       -0.058318734 -0.24999356 -0.051068008 -0.49267054
000050 ac 67 8c be 18 26 15 3e 28 2c 92 3e 64 b5 bc 3e
       -0.27422845 0.14565313 0.28549314 0.3685714
000060 2f 0e 3a 3e 70 29 d3 3e dc 16 d7 bd fc db 98 3b
       0.18169473 0.41242552 -0.10502407 0.004664896
000070 47 ef bd bd 9a 34 e1 be a5 1c bb 3e 28 e9 bb be
       -0.09274154 -0.43985444 0.36545292 -0.36701322
000080 33 33 40 3d 74 b8 48 3e d4 07 e1 be a9 d2 b0 3d
       0.046923827 0.19601613 -0.43951285 0.0863393
000090 c6 47 20 bd b0 3a 76 be cb df fe 3e 39 5f 36 be
       -0.03913095 -0.24045825 0.49780115 -0.17809762
0000a0 9b ad 8a be b1 b9 bf 3e 19 f1 0f be a8 7b fc 3e
       -0.27085575 0.3744636 -0.14056815 0.49313092
0000b0 c2 fa 0e b9 89 49 a1 3d cb 18 e4 be 6d ac c9 3e
       -0.0001363559 0.07875354 -0.44550166 0.39389363
0000c0 83 94 40 3e f7 15 ba be 57 1a 9c bd b4 95 07 3e
       0.18806653 -0.36344883 -0.076222114 0.13240701
0000d0 d5 ff c6 3e bb 08 0b 3d fb b0 b6 3e ca de 35 bd
       0.3886706 0.033943873 0.356819 -0.04440192
0000e0 98 6e 22 3e c3 35 f4 3e bf a5 e7 3e 01 ef e6 be
       0.158625 0.47697267 0.45243642 -0.4510422
0000f0 57 79 f1 3e fc c1 e7 be 27 09 e1 3e 5b aa 0b 3f
       0.47162887 -0.45265186 0.43952295 0.54556817
000100 5c 48 6f be 25 82 db bd ad 48 46 be 76 d1 a3 3e
       -0.23367447 -0.107181825 -0.19363661 0.31995744
000110 1d 8c 8b be d3 bd d6 be f9 f0 94 be 0d fa 2c 3d
       -0.27255335 -0.419417 -0.29090098 0.042230655
000120 12 a6 e0 3e 44 a2 c9 3e 45 d9 ae bc 60 6e 2d bd
       0.43876702 0.3938161 -0.021343837 -0.04234159
000130 fc fc 99 bd 91 37 01 3f 1b c3 fe bd 17 41 88 bd
       -0.07518956 0.5047541 -0.12439557 -0.0665304
000140 a2 27 fc be 98 bf 9f 3e a9 b0 31 3e b0 2f 3c 3e
       -0.49248987 0.31200862 0.17352547 0.18377566
000150 46 61 88 3e 62 8b 91 3e 26 3f c7 be a5 be 2c 3e
       0.26636714 0.28426653 -0.38915366 0.168696
000160 27 5b 03 bf 9d 3e e9 be 1a 87 81 3d a2 bb ae bd
       -0.5131096 -0.45555583 0.06324597 -0.08531882
000170 49 99 e9 3e e6 1d c8 3e 36 45 ee be 0b 19 5a 3e
       0.4562476 0.3908531 -0.4653718 0.21298616
000180 00 a0 ed ba b0 46 b3 be 6c a5 e7 3e ec df 0a be
       -0.0018129349 -0.35014868 0.45243394 -0.13561982
000190 7c 97 c8 3e 56 7e d5 3e 00 39 ed 3b 68 1b b9 bd
       0.39178073 0.4169795 0.007239461 -0.090384305
0001a0 b0 7b f5 3e 70 f3 19 bd 7e 15 82 3e 94 3b 44 be
       0.4794593 -0.037585676 0.25407022 -0.19163352
0001b0 62 27 71 bd 86 0f 59 3b e4 3b a2 3d 44 0b 45 be
       -0.05887545 0.0033120825 0.079215795 -0.19242579
0001c0 13 3c a5 3e 41 d6 d2 bd cb 8f 1a be 14 18 d1 3d
       0.32272395 -0.10294772 -0.15093915 0.10209671
0001d0 1a 9a d5 3e 38 5b 82 3e 88 e8 c1 bc da 75 2f be
       0.41719133 0.2546022 -0.02367045 -0.171348
0001e0 c6 98 17 be b6 d5 8b 3e 5d a5 c3 be 65 6e 00 bf
       -0.14804372 0.27311486 -0.382121 -0.5016845
0001f0 40 5e dc be 6e b5 f3 3e 53 45 72 3e f3 24 f5 3e
       -0.43040657 0.47599357 0.23659258 0.47879753
000200 a7 18 b2 3e d5 23 04 3e b4 47 27 3e 73 cd 9f be
       0.34784433 0.12904294 0.16335946 -0.31211433
000210 9b 81 9d bd ea 81 be 3c 38 04 f4 be c8 c0 bb 3d
       -0.07690736 0.023255307 -0.4765947 0.091676295
000220 cf 52 5b 3e 22 05 b0 3e 1f 1b 3c be e0 97 0f bf
       0.21418308 0.34378916 -0.18369721 -0.5609112
000230 4d 2a 18 be a9 f7 a3 be c6 df 2a 3e f9 f9 df be
       -0.14859886 -0.32024887 0.16686925 -0.43745402

l2pLayer.W f4 [12, 88]
000000 8f ac 83 3d bc d7 fa 3c 55 07 0a 3e d0 cd 30 3e
       0.06429397 0.030620448 0.1347936 0.17266011
000010 6e 47 56 be 50 b6 89 3e c6 5f 67 3e fb c2 9b bd
       -0.20925686 0.26896906 0.22595128 -0.07605549
000020 e6 17 41 be cc be 78 3e 27 fb 76 3e 66 18 87 3d
       -0.18856773 0.24291533 0.24119245 0.065964505
000030 3f 7b c5 bd db 5b 27 3d 6f 52 3c 3c 7b 81 2b bd
       -0.09642648 0.040859085 0.011494263 -0.04187153
000040 0e cf fa bd 64 d5 5c bd 5c 3b 76 3e 31 f1 cb bd
       -0.12246524 -0.053914443 0.24046081 -0.09958113
000050 88 f3 c3 3c 3c 3f e8 3c d6 fb 3e bd 95 1d 78 3e
       0.023919836 0.028350465 -0.04662689 0.24230035
000060 a6 bd 7c bb 1d 96 ed 3d 4f 0f 72 be 44 02 0f 3d
       -0.0038565188 0.116008975 -0.23638652 0.03491427
000070 0c 8d 63 3e 24 87 8f be f5 c3 8c be 69 8f 5b be
       0.22221774 -0.28032792 -0.27493253 -0.21441425
000080 91 cd c7 3d e9 1e 30 be eb 7a 22 bd e2 f5 34 be
       0.097560056 -0.17199291 -0.039668005 -0.17671922
000090 54 5e 74 3d 63 48 16 3e e4 05 60 3e b3 63 06 bd
       0.05966027 0.14676051 0.21877247 -0.032809924
0000a0 16 e8 94 bd 14 29 de 3b e9 a1 0e be ed a6 0e 3e
       -0.072708294 0.0067797992 -0.13928951 0.13930865
0000b0 3c f0 8c bc 56 62 23 be 24 c7 33 3e db 00 78 ba
       -0.017204396 -0.15955481 0.17556435 -0.00094605767
0000c0 4e 2a 9d 3d f3 8b 8a 3d 46 4c e5 bb ce 18 9f 3d
       0.076740846 0.067649744 -0.006997618 0.07768403
0000d0 f1 b0 ff 39 83 e8 1c be 05 34 e3 bd e2 50 3a be
       0.00048769222 -0.15323071 -0.11093906 -0.18194917
0000e0 03 99 18 3e e6 83 e7 bc 8b 61 92 3c 4a 49 f1 bd
       0.1490212 -0.028261136 0.017868778 -0.11781557
0000f0 03 13 48 3e d8 70 0d 3d 4e ce ea 3d 00 fb 7f 3d
       0.19538502 0.034531444 0.11465131 0.06249523
000100 ad e5 28 be 82 32 0f be f4 3d 3e 3e bb 56 52 be
       -0.16493864 -0.13984111 0.1857832 -0.20540898
000110 7a 65 74 be 60 01 17 be ed 84 b9 bc 71 c5 e0 3d
       -0.23866835 -0.14746618 -0.022646392 0.10975159
000120 8f 2e 87 3e e6 e1 a7 3d f2 92 3a 3e 5d bb 74 3c
       0.2640271 0.081973836 0.18220118 0.014937249
000130 be 93 38 be 2b d0 f8 bd f2 50 83 3d a4 db ea bd
       -0.18025109 -0.1214908 0.064119235 -0.114676744
000140 6a 1b fc 3d 6f c2 69 be 9c 87 9e 3d 74 41 ff bc
       0.12309916 -0.22828077 0.07740709 -0.03115914
000150 df 82 be 3d bd 47 1c be a4 ba 66 be 66 f9 37 be
       0.093023054 -0.15261741 -0.22532135 -0.17966232
000160 ec 0c 27 be fa 64 15 be 2b de 1b 3e 00 cd 46 bb
       -0.16313523 -0.14589301 0.15221469 -0.0030334592
000170 31 ed 52 3e 7e 14 1b be d1 24 73 3e 10 1e 2a 3c
       0.20598294 -0.15144536 0.23744513 0.010383144
000180 d1 59 33 3e 6f 7d 05 3e f4 ea 8e bd 4e f1 f2 bd
       0.17514731 0.1303613 -0.069784075 -0.118624315
000190 47 d3 3d 3e 62 c8 85 3d 65 24 02 3e e4 72 90 bd
       0.18537627 0.065323606 0.12709196 -0.07053164
0001a0 26 15 0d be e7 f6 13 3e b4 50 2e be db bf 19 3e
       -0.13777599 0.14449655 -0.17022973 0.15014593
0001b0 41 06 05 3e 00 b2 f2 3a 8d 95 6c 3e d5 c7 31 be
       0.12990667 0.0018516183 0.23103924 -0.17361386
0001c0 7f 8f 0a be f0 26 55 bd a5 bf 2e 3e e5 d8 70 be
       -0.13531302 -0.052039087 0.17065294 -0.23520239
0001d0 d0 dc 29 be b3 c0 01 3e 37 ce 74 3e 93 54 75 3e
       -0.1658814 0.12671165 0.2390679 0.23958044
0001e0 cc 3e 08 3d 8c 31 33 bd 56 01 29 be 66 cf 3f be
       0.033263013 -0.043748423 -0.16504416 -0.1873146
0001f0 98 91 e3 3c 12 1a fe 3d 88 eb b1 bc 58 e4 d8 bd
       0.027779385 0.12407316 -0.021718755 -0.10590428
000200 c7 e4 22 3e 97 72 7a 3e ff ca 56 3e dd c1 fe bd
       0.15907584 0.24457775 0.20975874 -0.1243932
000210 d0 c4 1b 3c 8d e8 4f 3e ac 1e f4 bd d8 a7 84 bc
       0.009507373 0.20303555 -0.11919913 -0.016193315
000220 8a 6d da 3d ab b0 56 3e 76 93 24 be 9b f1 12 3e
       0.10665424 0.20965831 -0.16071877 0.14349978
000230 70 e7 89 bd 06 b5 08 be 10 ad 3d bd 40 12 46 bd
       -0.06733596 -0.13350305 -0.046307623 -0.04835725
000240 27 86 3a 3e 44 22 00 be de 55 30 be da 09 4c be
       0.18215238 -0.12513071 -0.17220256 -0.19925633
000250 19 79 22 3e cd d6 18 be 7b 2e 1d 3e 30 a9 01 bc
       0.15866508 -0.1492569 0.15349762 -0.007913873
000260 fc ab db bd 32 dd de 3d 21 07 62 3e 68 82 46 bd
       -0.10726163 0.108820334 0.22073032 -0.04846421
000270 34 bc b2 bd 4c c0 44 be cb 18 1d 3e f8 8e c1 bc
       -0.08727303 -0.1921398 0.15341489 -0.023627743
000280 31 7f 72 be 9b ee 3e 3e bc d4 98 bd c8 2f 81 3c
       -0.23681332 0.18645708 -0.07462451 0.015769854
000290 62 a8 85 bd 34 3a 12 be b4 77 66 3d 57 3e 45 3e
       -0.06526257 -0.14280015 0.0562665 0.19262062
0002a0 f4 cb 55 3d ed 76 2c 3e 8c 05 34 be 96 aa a6 bd
       0.052196458 0.16842242 -0.17580241 -0.081380054
0002b0 94 32 46 bd 98 a2 4d bd 2c 00 5f bd b9 9c 28 be
       -0.04838808 -0.05020389 -0.054443523 -0.16466035
0002c0 c9 6a 54 be cb d6 2b 3e dd 81 cd 3c 00 f8 16 3e
       -0.2074386 0.16781156 0.025086338 0.14743042
0002d0 2d 2f 69 be 2c 80 65 bd 5a fb a2 bd ad 39 98 bc
       -0.22771902 -0.056030437 -0.07958098 -0.01858219
0002e0 0a b3 17 3d bc 99 80 bd 74 4e eb bd 4b 60 39 3e
       0.03703598 -0.062793225 -0.11489573 0.18103139
0002f0 a1 cb 64 be b8 2a 9c bd 1c 17 6d 3e 6c 22 ca bc
       -0.22343303 -0.076253355 0.23153347 -0.024674617
000300 34 78 5a 3e cb e0 e4 3d 4a 36 37 3d 17 ba ae 3d
       0.21334916 0.11175688 0.04472951 0.085315876
000310 74 85 6e 3d cc 1e 6c 3e f2 1c a7 bd 4a e4 3e 3e
       0.05823274 0.23058623 -0.08159818 0.18641773
000320 75 77 b2 3c b8 1d 39 be dd a6 b8 bd 50 ae 0a be
       0.021785477 -0.18077743 -0.09016202 -0.13543057
000330 f4 de 31 3e 89 60 ee bb 82 35 ba 3d f3 70 8c bd
       0.17370206 -0.0072746915 0.09092237 -0.06857481
000340 28 a1 8c 3c be aa 48 3e d1 d6 ba 3d 75 6c 96 bd
       0.017166689 0.19596383 0.09123004 -0.07344905
000350 58 7e a0 bd e5 ad 79 be 68 a5 d2 bd 25 27 63 3e
       -0.07836598 -0.24382742 -0.10285455 0.22182901
000360 c9 1c 10 bd 88 2a e4 3d df b1 1d 3e 52 b3 6d be
       -0.0351837 0.11140925 0.15399884 -0.23212937
000370 70 e3 db bd a7 fe 36 bd b7 59 7e be cc 4a b8 bd
       -0.1073674 -0.04467645 -0.24838911 -0.08998641
000380 7d 08 f6 bc 49 5e 5a 3e 44 72 56 3e bc 36 c0 bd
       -0.030033344 0.2132503 0.20942026 -0.0938544
000390 1e 26 be 3d 44 e5 1d b9 da fc 08 3c e4 09 25 bd
       0.09284614 -0.00015058095 0.008361066 -0.040292636
0003a0 9e bd c1 3d 56 67 63 be 63 bf 89 3e ef ea ea bd
       0.09459995 -0.22207388 0.2690383 -0.11470591
0003b0 b4 ec 7f be 55 7d 36 be 20 a9 0d 3e 73 59 d9 bd
       -0.24992639 -0.17821248 0.13834047 -0.10612764
0003c0 8e d9 a9 bd 9a 6a 56 3e a2 5b c8 3d 01 04 57 3e
       -0.082934484 0.20939103 0.097831026 0.20997621
0003d0 cf bd e8 3d 26 f0 12 3e b6 92 3b bd 0c 97 5a 3e
       0.11364328 0.14349422 -0.04579421 0.21346682
0003e0 a5 e9 57 be f0 b4 8d be de dd d3 3d b7 c5 85 3d
       -0.21085222 -0.27677107 0.10345052 0.06531852
0003f0 51 02 01 be 5b 3b 6e be f2 05 2a 3e 7d de 04 be
       -0.1259854 -0.2326483 0.1660383 -0.12975498

l2pLayer.a f4 [176, 1]
000000 39 da ad bd 9f 5a 01 3e c6 6f 12 be 78 02 e9 3d
       -0.08488888 0.12632225 -0.1430045 0.11377424
000010 e0 13 b0 bc 4d 1c 1f 3e 40 98 82 bd ad bb ec 3c
       -0.021493852 0.1553814 -0.06376696 0.028898085
000020 e9 72 22 3e 8c fa d8 3d 08 a4 3e 3e ea 7b 27 3e
       0.15864147 0.10594663 0.1861726 0.16355863
000030 9e 8d f3 bc 69 ad 0d be 26 95 d1 bc 12 3a 19 3e
       -0.029730614 -0.13835682 -0.025583815 0.14963558
000040 74 f8 0e 3d 6c 68 ab 3d 11 b5 5a bc b4 29 21 3e
       0.034904912 0.08369526 -0.013348834 0.15738565
000050 34 bf d3 3d 87 78 a1 bd 66 b5 f0 bd 32 05 79 bd
       0.103392035 -0.07884317 -0.11753349 -0.06079597
000060 00 5b 88 3c 18 60 1d be e1 d3 a8 bd fc 4b b4 bd
       0.016644955 -0.15368688 -0.08243538 -0.08803555
000070 0e 2d 26 be 93 d6 e0 3d 3c 2f 60 bc 83 9b 0a be
       -0.16228124 0.10978427 -0.013683137 -0.13535886
000080 6b 1e 25 3e 16 bc 00 be 27 53 16 3e 14 57 c5 bc
       0.16124885 -0.12571749 0.14680158 -0.024089374
000090 4d 75 d4 bd c3 8b fe 3a 36 a0 07 3c bd 9c d0 3c
       -0.10373936 0.0019420314 0.008277943 0.025465364
0000a0 b2 ab b2 bd 22 e5 1c be 77 3c 07 3e d0 13 60 bc
       -0.087241545 -0.15321782 0.1320666 -0.013676599
0000b0 d6 29 9d 3d 69 ef 27 3e 96 9e 24 3c 3d bb 17 be
       0.07673995 0.16399921 0.010047575 -0.1481752
0000c0 4c 9f be bd 30 0b 10 be 26 4b 45 3e 73 4e e9 3d
       -0.09307727 -0.14066768 0.19266948 0.11391916
0000d0 16 9d 81 bd b8 78 4d bd 60 f8 c3 bc ee 92 be 3d
       -0.0632879 -0.050163954 -0.023922145 0.09305368
0000e0 7a b6 e8 3c 53 86 f6 3d 39 c5 8d bd 2e 23 4d bd
       0.028407324 0.12037339 -0.06922383 -0.050082378
0000f0 5f 0c 23 3e fd 7b 8c 3d 58 23 2f be 85 a9 2b 3e
       0.15922688 0.068595864 -0.17103326 0.16763885
000100 bc b0 15 3e 72 9a 30 3e 66 32 71 39 62 21 12 be
       0.146182 0.17246416 0.00023002326 -0.14270547
000110 98 b9 bb 3c 21 1b fd bd c8 bd 37 be 9b f9 3f 3e
       0.022915646 -0.1235869 -0.1794349 0.1874756
000120 be 02 d0 3d 5c 2e c5 3a 8b 82 fb 3d 19 f9 f0 bc
       0.10156773 0.0015043723 0.122807585 -0.029415654
000130 89 30 04 3d cf 89 dd bc 3e 24 d9 bd 6e 22 b4 bd
       0.03227285 -0.027043251 -0.10602616 -0.087956294
000140 e1 3d ae bd ea 86 95 bd 37 9f 9a 3d f9 6b ee bc
       -0.08507896 -0.073011234 0.07549899 -0.02910422
000150 16 1f 2d 3a 40 80 0d 3e 0e 6b 2f 3e cb f2 38 be
       0.00066040584 0.13818455 0.17130682 -0.18061368
000160 62 df 58 3d 19 0d e0 3d 91 d2 d4 3d af 47 27 be
       0.05294741 0.10939998 0.10391725 -0.16335939
000170 5e c1 b4 bc 2b fb 6d bd f9 ba 29 be 46 ee 81 bd
       -0.02206486 -0.05810086 -0.1657523 -0.06344275
000180 02 42 d3 bd 52 21 41 be 31 ee 3a be 9d 4f 7d bd
       -0.10315324 -0.18860367 -0.18254925 -0.061843503
000190 6b 4c 28 3d 11 b1 48 3e cb 8e 26 3d 13 ea 40 3e
       0.041088503 0.19598795 0.04066352 0.18839292
0001a0 8c 08 a7 bd 41 14 fa 3d 38 58 4f 3d d3 ac 17 bd
       -0.08155927 0.122108944 0.05062124 -0.037030052
0001b0 fd 67 c8 3d 78 cc ab 3d 0e 46 10 bc bb c5 2c bc
       0.09785459 0.08388609 -0.008805765 -0.0105451895
0001c0 a1 8c fb 3c 95 e3 6c bd 58 95 c2 3d eb 80 5b 3d
       0.030706706 -0.057834227 0.09501141 0.053589743
0001d0 b4 0c 3a be 76 a0 2f bb 94 ce 18 be ea f9 9e 3d
       -0.18168908 -0.0026798523 -0.14922553 0.07762511
0001e0 bc 86 9e 3c dd ff 2b 3e 89 9f 2a be 78 e4 4c bc
       0.019351356 0.16796823 -0.1666242 -0.012505643
0001f0 06 65 1c be c1 67 9d 3d dc 10 34 bd 47 3c b0 3d
       -0.15272912 0.07685805 -0.04396139 0.08605247
000200 85 e1 c3 bd e9 09 71 bd 47 48 63 3d 99 86 80 3d
       -0.09564499 -0.05884734 0.05548885 0.062756725
000210 7b 3f fb 3d 7f e2 f5 3d b6 a0 fa 3d 9d 1a a1 bd
       0.12267967 0.12006091 0.122376844 -0.07866404
000220 49 1a 50 bd 98 05 8b bc fc bc 22 be 11 1a 89 bc
       -0.050806317 -0.01697044 -0.15892404 -0.016736062
000230 f3 b6 4d 3e 6d ba 9f bd e2 02 57 3d 1d a0 49 be
       0.20089321 -0.0779923 0.052492984 -0.19689985
000240 d6 dd b0 bd 2b 7f 22 be 72 6f 0e 3d 3a fe 9a 3d
       -0.08636062 -0.15868823 0.03477425 0.07568021
000250 25 02 f5 bc ff 17 b7 bd cc 58 47 3d 7e e6 4d be
       -0.02990825 -0.08940124 0.048668668 -0.20107457
000260 6f c9 a9 3d bf 25 30 3e b8 22 cf 3d 72 56 1c 3d
       0.082903735 0.17201899 0.10114044 0.03816838
000270 8b f1 b1 bc 3a b5 0d bc cd fe 36 bc d8 53 fd bc
       -0.021721622 -0.008649165 -0.011169148 -0.030923769
000280 d5 74 1b 3e d8 56 23 3e c5 47 21 3d 88 a6 24 3d
       0.15181287 0.15951097 0.039375085 0.04019788
000290 ba 51 93 3c 8a e0 af 3d 48 f4 0d 3e 2c a9 eb bd
       0.017983306 0.08587749 0.13862717 -0.11506876
0002a0 10 d4 35 bd f2 af 15 be 3d 92 23 3e 0e 71 e3 3d
       -0.04439169 -0.14617899 0.15973754 0.11105548
0002b0 df 65 c9 3d 67 9f 1b 3d 11 2e 72 bd 72 fe 73 3d
       0.098338835 0.037993815 -0.059125964 0.05956883

phaseLayer.W f4 [24, 26]
000000 10 4f 1d be 65 3c 99 be e6 1b 89 3e d2 f0 89 3e
       -0.15362191 -0.2992889 0.26779097 0.26941544
000010 3f 60 80 be df fb a8 3e 47 e4 85 bd 92 58 b5 3e
       -0.2507343 0.33004662 -0.06537681 0.35419136
000020 96 a5 8e 3d 2d 4b 85 3d 7e 06 a6 be 05 ab 92 be
       0.06965177 0.06508479 -0.32426828 -0.28646103
000030 d5 eb 88 be 54 04 b6 be 24 ea 44 be bc 60 19 3e
       -0.26742426 -0.35550177 -0.19229943 0.14978307
000040 51 22 bc 3e 2d 55 81 3e 66 47 81 3d e0 2e 89 3e
       0.3674493 0.25260296 0.06312446 0.26793575
000050 dd 17 99 bb 8d 81 8d be ea d8 9b 3d aa 9e 34 be
       -0.004672034 -0.27637902 0.076097324 -0.1763865
000060 f3 99 3b be 27 c1 98 be ce 49 63 3e 84 84 91 be
       -0.18320446 -0.29834864 0.22196123 -0.28421414
000070 a5 01 95 3e 30 78 48 3d 00 15 1d be f3 13 1d 3d
       0.29102817 0.048942745 -0.15340042 0.038349103
000080 23 8c 8c 3e 54 9c 65 be f1 90 8b 3e 98 e6 47 be
       0.27450666 -0.22422916 0.2725902 -0.19521558
000090 05 2f 46 3e 8f e9 e1 bd b8 75 26 be 10 46 e4 3d
       0.19353874 -0.11030876 -0.16255844 0.11146176
0000a0 7b 8b 29 be cc 41 3d be f5 2e bc be bd de a9 bd
       -0.16557114 -0.18482131 -0.36754575 -0.08294437
0000b0 0e 39 24 be 26 1a 88 3c 52 99 92 3e a8 45 85 3e
       -0.1603739 0.016614031 0.286326 0.26029706
0000c0 9c ad 52 3e 1e 00 69 bd 7a 04 5b 3e fb f7 83 3e
       0.20574039 -0.056884877 0.21388426 0.25775132
0000d0 4d 20 05 be 1d 3d 4b 3e fa ff f7 3c f0 25 9b 3c
       -0.13000603 0.19847532 0.030273426 0.018938988
0000e0 67 66 46 3e 3d e1 70 3e 51 bb a9 bd 69 33 77 be
       0.19375001 0.23523422 -0.08287681 -0.24140705
0000f0 c1 c4 2c bd 93 40 a4 3e cf ec 26 3e f0 8e 05 be
       -0.042179827 0.32080516 0.16301273 -0.13042808
000100 97 c0 5f 3e f8 f7 ff bd 49 52 74 be 72 e2 7d bb
       0.21850811 -0.12498468 -0.23859514 -0.0038739708
000110 87 da e9 bd dd d5 82 bc d2 3e e1 bc 85 8e 94 3e
       -0.11418634 -0.015971119 -0.027495775 0.29014984
000120 5e 1c 3d be e0 de 9f 3d b6 f3 54 3e 13 6d 8a 3e
       -0.18467852 0.07806182 0.20796093 0.27036342
000130 c7 e6 6d bd a3 7b be bb dc 4c f9 bb aa 2e 84 bd
       -0.058081415 -0.0058130785 -0.0076080393 -0.06454213
000140 c6 28 5d bd a0 ce 1d 3e 80 c0 88 3d 8c d8 82 3c
       -0.053993963 0.15410852 0.066773415 0.015972398
000150 f0 67 5c 3e 7a de 8a be ff 67 98 be 22 ee af be
       0.21524024 -0.2712286 -0.29766843 -0.34361368
000160 af 66 8b 3e 08 76 aa 3e 86 9b 60 3c 65 a2 a9 3e
       0.2722678 0.33293176 0.013708955 0.3313171
000170 d1 fc 39 be ef c9 2f be 4f 93 dd bc e4 ca 32 3e
       -0.18162848 -0.17166875 -0.027047781 0.17460209
000180 10 e9 a1 3d 16 6e 93 3e 22 38 24 3e 54 18 0a be
       0.07905781 0.28794926 0.16037038 -0.13485843
000190 12 c1 86 be c4 18 aa 3c dc 12 6b be c1 18 e3 bb
       -0.26319176 0.020763762 -0.22956413 -0.006930441
0001a0 a4 98 c7 3d 30 14 b3 3d 7b 73 a6 be 3c 1f 64 3e
       0.09745911 0.08744085 -0.3250998 0.2227754
0001b0 bb da af be d5 b6 91 3e 13 3e 33 bc 9c 95 8f be
       -0.34346566 0.28459802 -0.010940093 -0.2804383
0001c0 2d fb a1 bd 80 08 a4 be 34 ed 03 3c d2 69 8d be
       -0.07909236 -0.32037735 0.008052159 -0.27619797
0001d0 94 6d 90 be 83 3e 27 3e cd cf a6 3e b1 51 83 be
       -0.282086 0.1633244 0.32580414 -0.25648263
0001e0 b5 66 a8 bd 53 fe ac 3d de b2 42 be c1 0a 52 be
       -0.08222715 0.08446946 -0.19013545 -0.20511915
0001f0 de 77 a3 bd 87 4e 08 be 69 c0 38 3e f7 aa 44 be
       -0.07981847 -0.13311206 0.18042149 -0.19205843
000200 bc a1 a2 3d f5 14 4f be 40 50 03 3e cb da 2a 3e
       0.07941005 -0.20222838 0.12823582 0.16685025
000210 c7 46 ac 3c 64 9b 71 3e fe 9c 20 3c e7 86 65 bd
       0.021029843 0.23594433 0.009803055 -0.056036856
000220 09 28 99 bd 87 f7 74 3e 84 d5 2d be 03 47 23 bd
       -0.07478339 0.23922549 -0.16975981 -0.039862644
000230 92 ed 08 be 13 3a 22 3e 1e 6c 3c 3e f4 22 ca 3a
       -0.13371876 0.15842466 0.18400618 0.0015421794
000240 1a 35 9b 3e e8 f0 fc bd 18 8e 3c 3e 4b 34 8b 3e
       0.3031395 -0.12350637 0.1841358 0.27188334
000250 5c 00 23 3c 6a 15 3f 3e 68 75 04 bd 4a 3c 52 be
       0.009948816 0.18660513 -0.03233853 -0.20530811
000260 31 98 b0 bc 19 c1 4e 3c b2 70 29 3d 07 6f 87 be
       -0.021556946 0.01261928 0.04136724 -0.26451895
000270 ee e1 9a 3d 85 06 9a be ab 25 6e be c8 a5 d8 bd
       0.07562624 -0.300831 -0.23256557 -0.10578495
000280 67 33 a6 bd 70 d2 be 3d ef fc 61 3c f2 49 d6 3c
       -0.08115273 0.093174815 0.013793214 0.026158307
000290 2a a9 ad 3d a0 5c cb bd b7 90 5f be aa f8 96 bd
       0.08479531 -0.09929776 -0.21832548 -0.07371648
0002a0 b6 7f a1 be 9c 04 b5 bd af b5 b3 3e 59 c8 70 ba
       -0.31542748 -0.0883877 0.3509955 -0.00091851276
0002b0 16 91 f0 3d a8 a7 54 be 07 95 8c be 91 f3 40 3e
       0.11746423 -0.20767081 -0.2745745 0.18842913
0002c0 ab 00 97 3d a8 d0 4d bd c4 4a b3 3c e8 e1 19 be
       0.07373174 -0.05024782 0.021886237 -0.15027583
0002d0 bd db 81 be 96 a3 54 bd 0c e1 3e 3e d4 7f 2c be
       -0.2536296 -0.05191382 0.18640536 -0.16845638
0002e0 d1 65 b2 3e 38 d8 64 3e e6 cf d7 bd 49 84 1a bd
       0.34843305 0.22348106 -0.105377 -0.037723813
0002f0 d6 82 93 3e 87 a8 96 bd 29 f8 a1 be 6f 22 ee 3d
       0.28810757 -0.07356363 -0.31634644 0.116276614
000300 25 68 7e 3e 93 fe ff bd df 3b c2 3d ac 66 9c 3e
       0.24844415 -0.12499728 0.09484076 0.30547082
000310 96 20 57 be 40 cf cf bd 15 fc cf bc f3 9f 5d 3e
       -0.21008524 -0.10146952 -0.025388757 0.21643047
000320 bb 69 4d be eb bb ad be 6a 4c 9c 3d 7b e9 e9 3d
       -0.20059864 -0.33932433 0.07631762 0.11421486
000330 96 3c 17 bd d0 91 39 bc 7a d0 a6 be aa 65 f8 bc
       -0.036923014 -0.011326268 -0.3258093 -0.030321915
000340 36 17 60 3e 7e 09 ae be 9d c1 c2 bd 80 09 36 bc
       0.21883854 -0.33991617 -0.09509585 -0.011110663
000350 c5 2c 67 3d bb db ac be d4 b7 53 be 57 b3 a3 3e
       0.05643918 -0.3376139 -0.20675594 0.31972763
000360 bc 40 2d be 5f e1 c2 be 39 20 65 bd 20 a1 8c 3e
       -0.16919225 -0.3806257 -0.055938933 0.2746668
000370 92 56 6d 3b d7 42 8e 3d b9 05 8f be 1f b7 bb bd
       0.003621493 0.069463424 -0.27934054 -0.09165787
000380 cf 65 32 be d2 b8 a3 3d 3d 77 f3 3c 23 e1 32 3e
       -0.1742165 0.07994236 0.029719943 0.17468695
000390 fc 2b 04 be 4b b9 ed 3d 56 4a 87 be 7c d9 5a 3d
       -0.12907404 0.116076075 -0.264239 0.053430066
0003a0 c7 f7 0c be e4 24 b4 3b cb 95 b0 be 73 77 64 be
       -0.13766395 0.005497562 -0.34489283 -0.22311191
0003b0 72 5b a4 bc 98 6e 6a 3d cc 50 52 3e 3d 3d 5d 3e
       -0.020063136 0.057234377 0.20538634 0.21605392
0003c0 f5 6c a0 be 5b cc 4d 3e 74 8a 84 be 4d 73 35 3e
       -0.31333128 0.20097487 -0.2588688 0.17719765
0003d0 bf 74 6c be b8 8e c8 bd 8b b9 6f bc 1a 5a 9a 3c
       -0.2309141 -0.097928464 -0.014631639 0.018841792
0003e0 28 fa e7 bd cb a1 b1 3e 63 55 90 3d f5 ab f7 bd
       -0.113270104 0.3469375 0.07047536 -0.12093345
0003f0 2f 8b 9a be aa 4c 18 be cb c1 d5 3c 77 8a 6f 3d
       -0.30184314 -0.14872995 0.026093384 0.05848166

p2iLayer.W f4 [24, 176]
000000 51 fe b9 bd 0c 89 48 3e 72 63 34 bc 72 05 27 3e
       -0.0908171 0.19583529 -0.011010038 0.16310671
000010 d7 fc 01 3e 07 ee 70 3a b4 be 48 3d 69 47 08 3c
       0.12694107 0.0009190742 0.049009994 0.008317807
000020 01 40 74 bd 8e ee 90 bd ce a1 dc bc 38 e7 4c be
       -0.05963135 -0.07076751 -0.026932623 -0.20010078
000030 07 45 19 3e 36 91 f7 bd a1 de 6d bd e8 8e 69 bd
       0.14967738 -0.12088244 -0.058073644 -0.05702105
000040 e8 13 12 be 3a 54 19 be a0 7b 1a 3e 4d 28 a3 bd
       -0.14265406 -0.14973536 0.15086222 -0.07966671
000050 9a de 10 be b9 f5 0b be 38 52 92 3d cb 0e 07 3e
       -0.14147416 -0.13667955 0.07144588 0.13189237
000060 42 00 3d be 35 10 04 be a5 7a 14 be 52 07 bb 3d
       -0.1845713 -0.12896807 -0.1449991 0.091322556
000070 fa d4 91 bd 78 17 90 3d 5e 1d 01 bc 8f d7 30 3c
       -0.071207 0.07035726 -0.007880537 0.010793581
000080 2a 02 b8 bd e6 01 43 3d 19 a7 0f 3e 47 a3 72 bc
       -0.08984788 0.047609232 0.14028586 -0.014809436
000090 2a 2c 03 3e e8 ef dd bd c9 49 d5 bc a5 31 cf bd
       0.12809816 -0.10836774 -0.02603616 -0.10116891
0000a0 5b a0 06 be 42 0c b1 3d bf e9 1c 3e f7 9f 7f 3c
       -0.13147108 0.08644916 0.15323542 0.015602103
0000b0 cb a1 3a bd a0 63 94 bc 8d b9 c9 bd 5f 1c 36 3e
       -0.045564454 -0.018113911 -0.09849844 0.1778426
0000c0 cb 2d aa bc 58 54 41 bd 07 a5 45 3e 8b a8 ab 3d
       -0.020773789 -0.047199577 0.19301234 0.083817564
0000d0 14 ad 21 bd f7 70 04 be 50 22 85 bd b3 e2 49 be
       -0.0394717 -0.12933718 -0.06500685 -0.19715385
0000e0 58 9f 1c be 26 60 f2 bc 7e 79 38 3e 65 56 92 bd
       -0.1529516 -0.029586863 0.18015096 -0.07145385
0000f0 fb 88 6c bd 40 45 f6 bc 97 f2 60 3d 03 05 e6 bd
       -0.057747822 -0.030062318 0.05491885 -0.11231425
000100 1e aa 03 3e ab 48 33 be 10 af 33 bd 35 c6 16 3e
       0.12857863 -0.1750819 -0.043868124 0.14724047
000110 cc d4 ac 3d 40 e2 49 bc 67 b6 33 3e 5c c6 94 3d
       0.08439025 -0.012322009 0.1755005 0.072643965
000120 b6 a8 41 3e c6 e8 a3 bd 36 f4 60 3e b8 ea 2d 3e
       0.18912014 -0.080033824 0.21968159 0.1698407
000130 7d 2d 56 3d 7f 81 33 3e 2a 08 7f 3d bd 5c 25 3d
       0.052289475 0.17529868 0.062263645 0.040371645
000140 25 2e 6f 3d 59 b4 03 bd eb d5 56 3d 86 85 fd 3d
       0.058393616 -0.032154415 0.0524501 0.12378983
000150 d2 d5 15 3c 8e ed 33 be 4a 3a 15 bd 35 85 17 be
       0.009145217 -0.17571089 -0.036432542 -0.14796908
000160 33 6c fc 3d b2 e0 2d 3d e1 dc 04 3e 41 55 f3 3d
       0.12325325 0.042450614 0.12974884 0.11881495
000170 88 35 8d bd 90 dc b0 3d 13 5c 2d 3c bc 3e 51 3e
       -0.06894976 0.08635819 0.010581034 0.20434088
000180 37 53 c4 3d bb 69 b7 3d 95 7e 14 3e 19 34 97 bd
       0.095861845 0.08955713 0.14501412 -0.07382984
000190 2b 13 36 3d 57 9e 3e bd 65 a4 9e bd 6a af 2b 3e
       0.044451874 -0.046537723 -0.077461995 0.16766134
0001a0 31 a5 d1 bd 26 5f 23 3e 57 ee 56 bc 8e 11 57 bd
       -0.10236586 0.15954265 -0.013118348 -0.052506976
0001b0 50 34 f7 3d a2 ee 5f be 83 11 37 be d7 57 14 3e
       0.12070525 -0.21868375 -0.17877774 0.14486633
0001c0 54 ce 41 be ee 0b 0b 3c a4 62 8a 3d 0e 36 0c 3e
       -0.18926364 0.008486731 0.067570955 0.13692495
0001d0 c1 9e 43 3d 43 d4 74 3d b2 b2 c8 3d 59 1b 4b 3e
       0.04775882 0.05977274 0.097997084 0.19834651
0001e0 fe 6d f1 3b 24 48 ba 3d 9c de b9 3d b0 33 21 bb
       0.0073678484 0.09095791 0.090756625 -0.0024597459
0001f0 d8 4c 1d 3e 73 d6 55 bd 8b fc 39 bd 38 bf 3f be
       0.15361345 -0.052206468 -0.04540686 -0.18725288
000200 71 0a b0 bd a1 d5 f0 3d ff 20 7b 3d 05 06 08 bd
       -0.085957415 0.117594965 0.061310764 -0.033208866
000210 8e 1f c3 3d df 6f 11 be 82 44 fa 3d 06 ad 02 3e
       0.09527503 -0.14202832 0.12220098 0.12761316
000220 6a f0 9d 3d a5 ec de 3c f6 b4 2b 3e 7c 57 a1 bd
       0.07711871 0.02721245 0.1676825 -0.078780144
000230 59 45 2a 3e 79 2e fc bd ca 86 b4 bd ae 59 8c be
       0.16628017 -0.123135515 -0.088147715 -0.2741217
000240 0f e8 2b 3d 26 e3 a8 bd 1d a5 22 3d 87 fa 52 bd
       0.041969355 -0.0824645 0.039708246 -0.051508453
000250 83 92 19 3e 60 06 db bc af b5 09 3e 66 90 2a bd
       0.14997296 -0.026736438 0.13448213 -0.041641615
000260 d2 f8 e3 bc fd c3 d0 bc 84 42 ed 3d 63 c4 e3 bd
       -0.027828608 -0.02548408 0.115849525 -0.11121442
000270 33 7f 71 3c de cc 00 3e fc bb 22 3e c9 6c 92 3c
       0.014739799 0.1257815 0.15892023 0.017874138
000280 2e e1 60 3c 47 2e d3 3d 57 99 03 3e 29 6f 09 be
       0.013725562 0.10311561 0.12851463 -0.1342131
000290 1b 17 cf 3d 29 20 b2 bb 1a 16 1a be e8 0d dc 3d
       0.10111829 -0.0054359627 -0.15047494 0.1074484
0002a0 23 a5 0e be 77 33 cb 3d 92 a7 99 bd 52 74 cd bd
       -0.13930182 0.099219255 -0.075026646 -0.10031952
0002b0 38 9f 52 3d dc 11 81 3c 33 17 06 3d 30 04 94 bd
       0.051421374 0.015755586 0.03273697 -0.07227361
0002c0 4a 29 0b 3e 4b 36 7f 3d 1d 1f 93 3d 57 a8 3e be
       0.1358997 0.062307637 0.07183669 -0.18618904
0002d0 35 a5 75 3d f8 1f 8f bc 5e f7 94 bd ac 4c dd bd
       0.059972007 -0.017471299 -0.07273744 -0.108056396
0002e0 9c d9 ea 3d 63 80 10 be eb 0c 42 3d 86 87 fb bd
       0.11467287 -0.14111476 0.0473756 -0.122817084
0002f0 f2 dc 02 3e 5f 9c 5d bd 65 21 f4 bd a1 1f cb 3d
       0.12779596 -0.054104205 -0.11920432 0.09918142
000300 0e b1 0d 3d ff 3f 42 be 2c cc 4a 3d ff fd 61 bd
       0.03459268 -0.18969725 0.04951112 -0.05517387
000310 56 6a c0 bd 13 7e 36 be 7b 68 4d bc ea 37 ef bc
       -0.09395282 -0.17821531 -0.012537117 -0.029201467
000320 52 c3 f0 bd 1d 87 af 3d d8 ad 93 bd 27 37 5d 3d
       -0.117560044 0.08570693 -0.072108924 0.054007675
000330 df 0a e4 bd db 1e 5a 3c 66 99 f9 bc d6 a2 34 3e
       -0.11134886 0.013313021 -0.030468654 0.17640242
000340 d6 3b 38 be 64 4d 76 3c 94 60 78 3d 04 bb 8d 3d
       -0.17991576 0.0150331 0.06063898 0.06920436
000350 6b d2 c0 bd 20 e1 76 3d ed 71 a5 bd 19 4c fb 3c
       -0.09415134 0.06027329 -0.0807837 0.030675935
000360 c4 76 d6 3d 5b 36 2f 3d e4 a6 85 bd 1e 98 f5 bd
       0.104718715 0.042776447 -0.065259725 -0.11991905
000370 a6 85 0d be c1 19 38 bd d3 a1 59 be 4e 98 25 be
       -0.13820514 -0.044946436 -0.21253137 -0.16171381
000380 ce 7e 83 bd 23 d8 19 3a 46 31 48 bd bd b1 ae 3d
       -0.064206704 0.00058686937 -0.048875116 0.08529995
000390 e4 2b c2 bd bc 77 0a 3d ff 28 0b 3e 9c a6 5d be
       -0.09481028 0.033805594 0.13589858 -0.21645588
0003a0 a3 6d c3 3d fc 8b d8 bd c5 55 83 3d 3b 6d da 3d
       0.09542396 -0.10573575 0.064128436 0.10665365
0003b0 bd 07 44 3e 1d 12 c2 bd 83 83 4c 3c b1 69 16 be
       0.19143577 -0.09476111 0.012482527 -0.14688756
0003c0 a8 ab 13 bc 99 fe 05 3e 30 a7 8d 3c 3b a6 5b 3e
       -0.009013094 0.13085403 0.017291635 0.2145013
0003d0 d8 86 91 3d 34 3d 0b 3e 15 0c d7 3d 8e 73 23 3e
       0.071057975 0.13597566 0.10500351 0.1596205
0003e0 24 b1 cf 3c ef 90 27 be 22 4b 35 3d a9 80 c7 bd
       0.025353022 -0.16363882 0.044261105 -0.09741337
0003f0 ef ef ce 3d 2f e1 1f be 47 cc 9d bd cf b6 1a be
       0.101043575 -0.15613244 -0.077049784 -0.15108798

p2iLayer.a f4 [352, 1]
000000 53 a6 87 3d 92 93 d2 bd e4 a7 16 3c 1f e2 81 bd
       0.06623521 -0.10282053 0.009195302 -0.06341957
000010 78 41 db 3d 23 c7 26 bd 14 78 13 3d 15 d6 fc bb
       0.107058465 -0.040717255 0.036003187 -0.0077159503
000020 19 2c 81 bc 32 2f 80 3d ff 14 86 3d 97 bf 7b 3b
       -0.015768098 0.06259002 0.065469734 0.0038413757
000030 67 32 12 3d 0b 34 41 3d 61 32 da bd a6 63 aa bd
       0.0356926 0.047168773 -0.1065414 -0.08319788
000040 7f a3 15 3e 83 6a ff bc 42 4a 98 bd c5 3c b7 3b
       0.1461315 -0.031178718 -0.074360386 0.005591961
000050 ff 74 54 3c 26 a7 3d 3d d2 9c ca 3d 04 16 06 3e
       0.012967347 0.046301983 0.09893192 0.13094336
000060 de f1 b8 3d 19 f3 06 3e 69 2f 04 be 4c 74 df 3d
       0.090305075 0.13178672 -0.1290871 0.10910854
000070 87 fe 57 bd b4 00 ce bd 1c dd 5c 3d 20 bd b2 bd
       -0.05273297 -0.10058728 0.053921804 -0.08727479
000080 91 6b 02 be 13 7a d5 bd 9d a3 f0 3d f7 79 ff 3d
       -0.12736346 -0.104236744 0.11749957 0.12474435
000090 05 94 18 bd e5 ff db 3d ad 8f 83 bd 99 d4 c6 bd
       -0.037250537 0.107421674 -0.06423888 -0.097085185
0000a0 c8 bb b8 3d 30 7d a2 bd 1c e9 5f bd e5 5b 1c 3d
       0.090201914 -0.07934034 -0.05466567 0.038173575
0000b0 1c 7e 9d bd c4 df 0e 3e 2c 18 5c bd 8a 5e fc 3c
       -0.07690069 0.13952547 -0.05373399 0.030806798
0000c0 70 80 a1 3d a2 88 d2 3d 85 d1 ad 3d 01 52 91 bd
       0.07885826 0.10279967 0.08487228 -0.07095719
0000d0 8e 41 08 3c c6 04 45 3a 25 0f 11 be 41 7f c6 3d
       0.008316411 0.0007515665 -0.14165933 0.096922405
0000e0 81 20 24 3d 68 62 5a bd e2 bf 93 3d 98 d0 ae 3d
       0.04007006 -0.053316504 0.07214333 0.0853588
0000f0 9f ae cb bd 59 69 91 bd 67 ba 01 3e e1 20 9a 3d
       -0.09945416 -0.071001716 0.12668763 0.075258024
000100 0e 0a 11 bd 56 78 dd bc 77 ef a2 bd 09 21 b9 3d
       -0.03540998 -0.02703492 -0.079558305 0.09039504
000110 0d 69 17 3e f8 ef e7 3d 27 ae a4 bc d5 1c e7 3d
       0.14786167 0.11325067 -0.020102574 0.11284796
000120 0f 99 9a bd a4 d3 83 bd 3f 25 1b bd 9f 12 72 bc
       -0.07548725 -0.064368516 -0.037877318 -0.014774947
000130 2c 44 97 3d 65 db af 3c 79 6c f5 3c ef d5 d7 3d
       0.0738605 0.02146692 0.02995895 0.105388515
000140 42 6f 8a 3d c9 76 04 bc f5 5b 7d bc be 1e f8 3d
       0.06759502 -0.008084961 -0.015463819 0.121152386
000150 09 15 43 bd be 7c 90 bd 10 d8 86 3d 78 a5 73 3d
       -0.047627483 -0.07055043 0.065841794 0.059483975
000160 71 bf ad bd 35 80 d7 3b be bd ea 3c e6 53 0b 3d
       -0.0848378 0.0065765628 0.02865493 0.03401556
000170 20 c5 c6 bd a2 1e 84 3d 34 54 f0 bc 20 b4 87 3a
       -0.09705567 0.06451155 -0.029337026 0.0010353364
000180 ef ee a2 3c 5c 53 04 be bd 14 58 bd 3b 91 18 be
       0.019889323 -0.12922424 -0.052754153 -0.14899151
000190 5d 59 cb 3d 5a 64 a5 3d ab 67 8a 3c 4c b4 02 bd
       0.09929154 0.08075781 0.016895136 -0.031910226
0001a0 68 1d 7e bd 52 4d 3a 3d 3b 5e e0 3d 63 ae bb bd
       -0.062039763 0.045483895 0.10955473 -0.09164121
0001b0 c4 a0 a5 3d 8a 0c a6 bd 3f 97 29 bd 2e fb c2 3c
       0.08087304 -0.081078604 -0.041404005 0.023801412
0001c0 fa e9 8f 3d 09 a3 8e 3d c7 5f b7 3c 5c 99 59 bd
       0.07027049 0.0696469 0.022384537 -0.05312477
0001d0 5a 14 02 3d 69 b4 0b bd ac 73 5a 3d f8 b9 95 bc
       0.03175769 -0.0341076 0.05333297 -0.018277153
0001e0 b4 bb f9 3d 12 57 02 3d cc c1 a6 bd c0 3c ab 3d
       0.12194005 0.031821318 -0.081424326 0.083611965
0001f0 4e 4c ec 3d f3 0e 17 bd 90 68 c6 bd a1 a1 69 3d
       0.115379915 -0.03687949 -0.096879125 0.057038907
000200 72 cc a7 bc c9 c1 ba 3b 95 67 d6 bd cd c9 26 3d
       -0.02048323 0.0056993705 -0.104689755 0.040719796
000210 81 91 a5 3c 45 01 a7 bd be f6 5f bd 7a 08 9b 3d
       0.020210983 -0.08154539 -0.05467867 0.07569976
000220 24 24 96 3d ee 63 bd bc 92 a3 7c bd 3a c5 a8 bd
       0.07331112 -0.02311894 -0.06167943 -0.08240743
000230 e0 7b 12 3e f7 49 57 3d 4c c1 fc 3d a5 96 a2 bd
       0.14305067 0.052560773 0.12341556 -0.079388894
000240 30 10 66 bd b8 ce d1 3d 52 ec 8b ba 16 6a 76 3d
       -0.05616778 0.102445066 -0.0010675287 0.060159765
000250 9d db 06 3d a1 09 5c bd c2 c9 09 be eb 1a 8a 3d
       0.032924283 -0.05372012 -0.13455871 0.067434154
000260 3c 6b 3e bd 04 75 1d bc e0 51 ac 3d 8a b7 59 3c
       -0.046488985 -0.009610418 0.08414054 0.013288388
000270 1d 45 85 3d b4 8d 9f bd 2f a4 b8 3c 34 fd c3 bd
       0.06507323 -0.077906996 0.022539226 -0.09569779
000280 b4 20 52 3d 94 12 01 be 41 4e ce 3b dd ba 98 bd
       0.05130072 -0.12604743 0.0062959497 -0.07457516
000290 b4 a6 9f 3b f9 cb 08 be cb a5 69 bd 54 ed a5 3d
       0.0048721675 -0.1335906 -0.057042878 0.08101907
0002a0 a3 93 30 bd 42 35 35 3d ce 62 cd bc c3 e9 87 bd
       -0.043109547 0.044240244 -0.025071528 -0.066363834
0002b0 8c 70 9a 3c b1 b1 1a 3d 7b 2c 17 3c ce 1c 93 bd
       0.018852495 0.037767116 0.009226914 -0.071832284
0002c0 98 05 73 bc c6 11 10 3e b2 7b 80 bd fa fe 1d 3d
       -0.014832877 0.1406928 -0.06273593 0.038573243
0002d0 a8 e4 cc 3c 0c 0f ae bd fe c6 be b9 ab ec 1a bb
       0.025011376 -0.08498964 -0.00036387885 -0.00236396
0002e0 1b af c9 3c 97 2b 80 3d 9c f8 31 3a fb ff 0a 3e
       0.02461963 0.06258314 0.000678906 0.13574211
0002f0 5a 39 c6 3d f1 dc 5d 3c a3 62 c1 bb d0 31 93 bd
       0.09678908 0.013541446 -0.005901651 -0.07187235
000300 ae fc d4 bd 59 a5 db bc 42 92 96 bd c3 71 02 3e
       -0.10399757 -0.026812242 -0.07352115 0.12738709
000310 1e 88 df 3d 9f 46 89 bd 05 58 16 bc e3 0e 9f 3c
       0.10914634 -0.06702923 -0.009176259 0.019416278
000320 dd 36 4d bd b5 46 b0 3d 33 5f 18 be 5e f6 2d bd
       -0.05010115 0.08607236 -0.14880066 -0.042471282
000330 70 e2 f9 3c 71 18 15 bd 78 6e c4 bd 61 9b 4b be
       0.030503482 -0.036400262 -0.09591383 -0.19883491
000340 3a 2c c5 3d d6 bd e1 bd 5c 51 e4 3d c7 99 e2 bd
       0.09627576 -0.110225365 0.111483306 -0.11064487
000350 ed 94 98 bd 69 0d e1 bd cc 60 d2 ba 33 fc 7f bd
       -0.0745028 -0.10988886 -0.0016050576 -0.062496375
000360 35 83 fd bd 87 2e c6 3d f6 f7 e2 bb 27 a1 dd bc
       -0.123785414 0.09676843 -0.006926532 -0.027054382
000370 8b 95 9b bd 45 1e 06 3d 3a 8e 94 bb 94 27 7b 3c
       -0.075968824 0.03274371 -0.0045335563 0.01532926
000380 e0 ab a5 3d 5f c8 42 3d 12 3a 29 3d ed d0 df 3c
       0.08089423 0.04755437 0.041315146 0.027321303
000390 8e 35 73 3d 4d 16 0c 3e 04 a7 a9 3d 3e 8a 35 3d
       0.059377246 0.13680382 0.08283809 0.04432129
0003a0 81 f0 16 bd 0f ee 97 3c d9 51 89 bd 6e f3 80 bd
       -0.036850456 0.018546132 -0.06705064 -0.062964305
0003b0 00 19 ad bd bc b1 d2 bb 20 0a 60 ba ed 65 ff bd
       -0.08452034 -0.006429879 -0.00085464306 -0.12470613
0003c0 98 49 80 bd 68 e5 ae 3d 1a 9d e2 3d cd 96 e0 3d
       -0.06264037 0.085398495 0.11065121 0.10966263
0003d0 99 ca 05 3e 04 a9 1a be 92 14 03 3e f4 5c e9 3d
       0.13065566 -0.15103537 0.12800816 0.113946825
0003e0 ff 3a 9b bc ac a3 c9 bc fd 32 d4 bc 49 4f 02 bd
       -0.01894903 -0.024614178 -0.02590322 -0.031813893
0003f0 d3 e8 8f bd 98 ba c0 bd 5f 0f 15 3d f6 b2 9a bc
       -0.070268296 -0.0941059 0.036391612 -0.018884163

intersectionLayer.W f4 [48, 46]
000000 c9 c7 35 3e a6 f6 e8 bd b7 da 48 be a9 55 d4 bd
       0.17751993 -0.113751695 -0.19614683 -0.10367901
000010 ff 6a 47 3e 27 28 ad bd b0 7d 44 3e 2b 9a 04 be
       0.1947441 -0.08454924 0.19188571 -0.12949435
000020 f1 98 cc 3d 7e 9e 8b 3d 5f e7 d7 3d b4 fe ac bd
       0.09990109 0.06817339 0.105421774 -0.08447018
000030 07 d0 8a 3d cc e2 82 bc d7 53 13 3e 9f 4d 26 3e
       0.06777959 -0.015977286 0.14387451 0.16240548
000040 f5 23 b8 3d b4 39 29 3e 91 1d 6c 3b c8 f9 e2 bc
       0.08991233 0.16525918 0.0036028365 -0.027706996
000050 fc cd e4 3d 22 b9 40 3e 73 8b 4c 3e 40 03 30 bd
       0.11172101 0.18820623 0.1997507 -0.04297185
000060 fd 59 89 3e 24 c1 ec bb fa 09 5c 3e d7 01 52 3e
       0.26826468 -0.0072251726 0.21488181 0.20508514
000070 dd 83 a4 bc 6a 23 47 3e d1 ec f4 3c 42 18 8d 3d
       -0.020082409 0.19447103 0.02989808 0.068893924
000080 46 19 50 be e0 2b 4a be 87 bf 89 be da e6 4f be
       -0.20322141 -0.197433 -0.26903936 -0.20302907
000090 03 4b 99 3d 4e d3 9e 3d 9b f3 5a 3e 97 5e c6 bd
       0.074850105 0.07755147 0.2138199 -0.0968601
0000a0 47 c6 34 be 4f 1d 69 ba f8 ac 45 be 87 0d 09 3e
       -0.17653762 -0.0008892612 -0.19304264 0.13384067
0000b0 65 27 3a be 9e 81 91 3d 6a 49 3b 3d 14 4d 34 3e
       -0.1817909 0.07104801 0.04572431 0.17607528
0000c0 f8 82 ff bd 61 99 e6 bd a0 94 ac bc 89 18 91 3c
       -0.12476152 -0.112597235 -0.021066964 0.017711895
0000d0 6e 98 d4 bd f6 dc 5d 3e 44 d6 a6 bb df 09 e7 bd
       -0.10380636 0.21666321 -0.0050914604 -0.1128118
0000e0 00 16 67 bd d8 6a 5a 3e 07 96 fa bd 4b 43 b3 3d
       -0.056417465 0.2132982 -0.12235647 0.087530695
0000f0 4d 45 73 be c9 31 58 be e0 85 d7 bd a1 e7 14 be
       -0.23756905 -0.21112742 -0.105235815 -0.14541484
000100 11 df 30 3d 7f df 41 3e 78 7c c1 bd cc 25 93 3d
       0.043181483 0.18932913 -0.09447569 0.071849436
000110 34 98 a3 bd 67 66 61 be e0 93 2f be 84 97 26 3e
       -0.07988015 -0.2201172 -0.17146254 0.16268736
000120 b1 84 6a bd 3d 52 4a be 0f e6 18 bd 3e 0d e1 3d
       -0.05725545 -0.19757934 -0.037328776 0.10988854
000130 d2 27 3f 3e 31 11 1d 3e a0 aa 6b be 0b 8a d0 bc
       0.18667534 0.15338589 -0.23014307 -0.025456449
000140 28 87 68 3d a9 7f 2f 3e b0 2b d1 3d 45 ec ee bd
       0.05676952 0.17138542 0.10213411 -0.116661586
000150 28 53 af bc 93 26 88 be 02 09 71 be 2d 38 f0 3d
       -0.021401957 -0.2659193 -0.23538592 0.11729465
000160 fa 02 0d 3e 19 95 40 3e eb e3 40 3e 1a 1b 6f 3e
       0.13770667 0.18806876 0.18836944 0.23350182
000170 c3 b9 26 3e 00 a7 86 3b 06 cd 08 be d1 89 80 3e
       0.162818 0.0041092634 -0.1335946 0.25105146
000180 3a 1b 82 bd 8a 7f 66 be 39 fc 8a 3e b6 13 74 be
       -0.06352849 -0.2250959 0.27145556 -0.23835644
000190 0a 3f 9b 3e a1 dc 67 3e 1c fb 1f be 53 01 81 be
       0.30321532 0.22642757 -0.15623134 -0.25196323
0001a0 7a 28 4d 3e 52 d0 98 be e7 87 a6 bd 4c b8 0a be
       0.20034972 -0.29846436 -0.0813139 -0.13546866
0001b0 21 b7 d7 bd b4 52 87 bd 7c 82 34 bd 88 b3 1e 3d
       -0.10532976 -0.06607571 -0.044069752 0.038745433
0001c0 16 fd 6e bd 12 17 14 be 78 93 27 3e cb 6f 50 3e
       -0.05834683 -0.14461926 0.16364849 0.20355146
0001d0 32 a4 9b 3b 2d e1 73 3e e8 33 60 be 34 8c 0a 3e
       0.004749798 0.23816366 -0.218948 0.13530046
0001e0 de 4b 61 3d 1c 71 06 bd 33 2a a8 3d 67 3a 1e 3d
       0.055003993 -0.032822713 0.08211174 0.038629916
0001f0 02 bc a7 3d b9 1c 92 3e ad 7d 0f be 5e e3 37 be
       0.081901565 0.2853754 -0.14012785 -0.17957827
000200 ea db 87 3e ab ad 95 3a 3f 47 8b 3b ac af 1f 3e
       0.2653497 0.0011419555 0.0042504366 0.15594357
000210 89 3b 4a 3e a2 f4 75 3e f9 33 36 be 16 49 a5 bd
       0.19749273 0.24019101 -0.17793263 -0.08070581
000220 0b 33 01 3e 32 76 0f be 8b da 04 be 10 37 7d 3e
       0.12617128 -0.14009932 -0.12973993 0.24728036
000230 45 78 0f bc fc 3f 4b be d8 a2 7c be b1 fd d6 bd
       -0.008756702 -0.19848627 -0.24671495 -0.104976065
000240 dd bb e7 3d a8 54 3f 3e c5 ea cd 3d 42 b8 33 bd
       0.11315129 0.18684638 0.10054544 -0.043876894
000250 04 03 5d 3d 29 0c 17 bc 08 a5 54 be 6b 7a 04 3e
       0.053957954 -0.009219208 -0.2076608 0.12937324
000260 b2 59 1a be c8 7d 0f 3e 39 15 10 3e 87 dc 05 3e
       -0.15073279 0.14012825 0.14070596 0.13072406
000270 9c 27 2f 3e 73 02 7d 3e af 69 70 be c4 58 14 3d
       0.17104954 0.24707966 -0.23477815 0.036217466
000280 e8 bf d1 3c 0b 0c 8f 3d d7 94 63 3e 7e af 95 3e
       0.025604203 0.06984719 0.22224747 0.29235452
000290 19 59 bf 3d 25 28 21 bd 35 2c 85 bc af d6 47 be
       0.09343166 -0.039344925 -0.016256431 -0.19515489
0002a0 13 63 71 bc 8d 25 cc 3c 90 32 10 be 6d cf 6a 3d
       -0.014733094 0.02492025 -0.14081788 0.057326723
0002b0 53 1e 02 bd 68 b1 91 3d 7e c8 9c 3e e1 51 91 3e
       -0.0317672 0.07113916 0.30621713 0.2838278
0002c0 73 69 87 be 2d bd 8e 3e f4 e8 3b bc cd 7a e2 bb
       -0.2644764 0.27878705 -0.011469115 -0.0069116117
0002d0 bf 7d 3b be 7b 6b 1b 3d f7 bd 1b bd 04 38 20 3d
       -0.18309687 0.0379443 -0.03802296 0.03911592
0002e0 ff 4f 31 3e 08 70 07 bd 52 a6 83 be 4d 37 4f 3e
       0.17315672 -0.033065826 -0.2571283 0.2023594
0002f0 0e 02 d1 3d d5 01 f1 3d 57 30 17 3e cc 0f 9d 3d
       0.1020547 0.117679276 0.14764534 0.07669029
000300 8c 8c 42 3e 3c c7 6f be 66 77 df bd 12 25 92 3d
       0.18998927 -0.23415846 -0.10911445 0.07135977
000310 82 b9 ca 3d 7b 96 20 3e 32 92 64 be 51 d4 26 3d
       0.09898664 0.15682404 -0.22321394 0.040729824
000320 9c 09 90 bd 0e f8 47 be 14 ee 38 bc c4 a6 ee 3c
       -0.07033083 -0.19528219 -0.011287231 0.029132254
000330 0a f6 0f 3e 26 d6 df 3d 15 4e 07 3e c5 44 3a 3e
       0.140587 0.109295174 0.1321338 0.18190296
000340 76 13 6f bd f7 74 9f be 1e 6d c8 3b 35 6e 62 3d
       -0.05836817 -0.31143925 0.0061165234 0.055280883
000350 c4 7d 9d bd 87 01 16 3e b8 d5 96 3d 49 eb 2c be
       -0.076900035 0.1464902 0.07364982 -0.16886629
000360 97 4b e4 3d 43 3a 1c 3e 55 34 71 3e 41 78 23 3e
       0.1114723 0.152566 0.2355512 0.15963842
000370 2c fb 77 3d 55 d9 64 be b3 c3 91 bd ed 99 a4 3b
       0.06054227 -0.2234853 -0.07117405 0.005023232
000380 f4 28 37 be 11 15 ae 3c c1 77 70 3e 5b 80 fc bd
       -0.17886716 0.02125028 0.23483182 -0.12329169
000390 04 f8 46 3d 29 e3 53 bc 4b 48 f7 bd c8 01 43 3e
       0.04857637 -0.012932577 -0.12074336 0.19043648
0003a0 62 bb e6 3d 92 53 13 be 7e fa 62 bd 18 8c 5a 3e
       0.11266209 -0.14387348 -0.05541467 0.21342504
0003b0 a2 3d 8c 3e 76 be 82 be 55 6b 17 3e a9 79 86 bd
       0.27390772 -0.25535935 0.14787038 -0.065661736
0003c0 ee 04 4d 3e 00 0d f1 bd 75 5b 62 be c9 4c 6c 3e
       0.20021412 -0.11770058 -0.221052 0.23076166
0003d0 36 58 de 3c c9 2e 2d 3e d7 25 41 3d 58 be 59 be
       0.027141672 0.16912378 0.047155228 -0.21264017
0003e0 f9 e0 70 3e 60 f8 84 3c 83 e2 51 be ad 15 74 3e
       0.2352332 0.016231716 -0.20496564 0.23836394
0003f0 97 5d b3 3d 58 3c 35 3e 41 2b 13 be 27 45 6b be
       0.08758085 0.176988 -0.14371969 -0.22975598
