test/model/actor_4_2_2_2_2_61_best_rou2.pth (torch, 689372 bytes, 17 tensors)

v2lLayer.W f4 [3, 40]
000000 ec 9d 37 be 63 8d 8b 3e 20 58 aa 3e 50 87 dc be
       -0.17931336 0.27256307 0.3327036 -0.43071985
000010 de 81 c9 3d 5c f9 84 3e 62 be 0c 3e 3d c5 1a be
       0.09839223 0.25971496 0.137445 -0.15114303
000020 db 14 5c be 58 c1 3c be 34 ce 36 be a4 b9 7e bb
       -0.2149233 -0.1843313 -0.17852098 -0.0038867975
000030 d6 18 87 3e da 8c 63 be 82 37 b8 3e fe 75 f3 3b
       0.26386136 -0.222217 0.3597985 0.0074298372
000040 32 76 01 3e b9 ef b1 be c9 1b 20 3e b1 8a 3f be
       0.12642744 -0.34753206 0.15635599 -0.1870525
000050 1d 57 5a be c0 a4 cb be 51 44 59 bb b1 7b 94 be
       -0.21322294 -0.39774132 -0.0033152292 -0.2900062
000060 f2 7d 58 be fc e3 65 3e 2f fd 5f bb 41 11 24 be
       -0.21141794 0.2245025 -0.0034178009 -0.16022207
000070 60 18 42 3e 85 c8 6a be d4 15 47 3e 07 ac 82 be
       0.18954611 -0.22928055 0.1944192 -0.2552187
000080 87 96 81 3d f4 88 0d 3d d2 88 a8 3e b5 68 94 3e
       0.06327539 0.034554437 0.32916886 0.28986135
000090 ac 3c 32 3e 69 c5 c4 3e ca e7 c1 3d fd b7 96 3d
       0.17405957 0.38431862 0.094680384 0.07359312
0000a0 7f 24 6c 3d 37 02 c7 3e b8 dc 83 be 36 44 03 3d
       0.057651993 0.38868877 -0.25754333 0.032047473
0000b0 60 7b 5d 3d 72 ac c3 bd 2a 79 a1 be 00 ca fc 3d
       0.054072738 -0.09554376 -0.31537753 0.12343216
0000c0 dc 30 b6 3e 94 5d 8c bd b0 66 b3 be 22 05 7e 3e
       0.35584152 -0.06853786 -0.35039282 0.24806646
0000d0 b5 26 c3 3c 5a ed 83 be 96 5b a6 3e e4 62 8a be
       0.023822168 -0.25767022 0.3249175 -0.27028573
0000e0 6b f3 30 3e e9 b7 9b 3e 9f 0c a1 be 94 15 f8 bd
       0.17280357 0.3041375 -0.31454942 -0.12113491
0000f0 7b b3 c1 bd f7 fe 00 3e ad 86 5a 3e fc 9a 93 bd
       -0.09458061 0.12597261 0.21340437 -0.07207295
000100 3b 40 37 3e 91 67 85 3e 0e 12 91 be 1b e1 25 3d
       0.17895596 0.26055577 -0.28334087 0.04049788
000110 df bc 96 3e 34 38 d5 3e 5b f7 6b 3d b4 19 89 3e
       0.29440972 0.41644442 0.057608943 0.26777422
000120 2d 9c c8 3e 2c b0 1d be bd 85 bd bd 89 80 9f bc
       0.39181653 -0.15399235 -0.09254024 -0.01947047
000130 f1 19 96 be 0f a1 b9 3e 9b 53 84 3e a9 2b 7b 3d
       -0.29316667 0.3625569 0.25845036 0.061320934
000140 7d e5 9f be 39 11 66 be e9 a1 a1 bd 33 74 42 3c
       -0.31229773 -0.22467507 -0.0789221 0.011868524
000150 42 b2 40 3e 17 4b bd 3d 0b b5 f6 be bd 87 9f 3e
       0.18818 0.09242838 -0.48185 0.31158248
000160 b4 2b 66 bd 66 e2 dd 39 8c 37 78 be e4 58 94 bd
       -0.056194022 0.00042321085 -0.2423994 -0.07243517
000170 74 91 d7 3e f0 07 ec 3b 3b 7c 38 bd f0 38 4d be
       0.4210316 0.0072030947 -0.04504035 -0.20041251
000180 8d db 0b bd b1 77 bc 3e e9 e5 8b be 15 1b 73 bd
       -0.034144927 0.36810067 -0.27323845 -0.059352
000190 7e f5 af 3e 47 7a 48 3e 24 17 2b 3e 0c a8 01 3c
       0.34366983 0.19577895 0.16708046 0.007913601
0001a0 1b f9 93 3e 87 34 ab bd 97 90 88 b7 88 fc 5c 3e
       0.2890099 -0.08359628 -1.6279793e-05 0.21580708
0001b0 a7 9f 4f 3e 87 d3 47 3e 34 ef 89 be b5 3e 09 3e
       0.20275746 0.19514285 -0.2694031 0.13402827
0001c0 4f d7 e0 bc 68 bf 46 be a0 8d 18 be 47 b7 91 bd
       -0.027446417 -0.19408953 -0.14897776 -0.071150355
0001d0 27 a2 14 be 8a c0 37 be e7 78 78 3d 7f bd 95 bd
       -0.14514981 -0.17944542 0.060662176 -0.07311534

v2lLayer.a f4 [80, 1]
000000 f1 b3 3c bd f2 5a 1d 3d ff 4b 4f 3e 94 a1 fc bd
       -0.046070043 0.03841681 0.20243834 -0.12335506
000010 1c ee b8 bd 4a 9c 01 3e 95 bc e1 3d 73 a1 8c 3e
       -0.09029791 0.12657276 0.11022297 0.27466926
000020 e1 90 9e bd 45 74 08 3e a4 1b 05 be 07 a8 f3 bd
       -0.07742477 0.13325603 -0.12998825 -0.11897283
000030 bf d8 91 3d 7b 7a 42 be 28 1b a0 bd 9b 52 3f 3e
       0.07121419 -0.18992035 -0.0781768 0.18683855
000040 0e f1 8b 3e 76 54 14 3e 70 59 d4 3c 5e 04 2b 3e
       0.27332348 0.14485344 0.025921553 0.16700885
000050 f0 4c 80 3d 91 5f 04 be 78 fa 51 be fd a4 77 3e
       0.06264675 -0.1292708 -0.20505702 0.24184032
000060 29 4f 00 be d6 34 bd bd c2 85 72 be 5f bd 92 3e
       -0.12530197 -0.09238593 -0.23683837 0.28660104
000070 23 8a d4 bd e6 36 ce bd d8 f0 c9 bc 1e f8 98 3c
       -0.1037791 -0.10069065 -0.024650976 0.018672999
000080 18 96 81 3e 09 37 68 bd b1 d0 84 be bb 14 09 3e
       0.25309825 -0.05669311 -0.2594047 0.13386814
000090 b0 23 68 3d ff 58 ff 3c f9 ca b7 3d e0 dd ef 3d
       0.05667466 0.031170366 0.08974261 0.11712241
0000a0 d2 b4 3b 3e e2 5d 34 be 23 e0 9a 3d e6 ce df 3d
       0.18330696 -0.17613938 0.07562282 0.109281346
0000b0 e8 65 08 3e 25 11 0e 3e ef 7b 75 3d 09 2e 8b 3e
       0.13320124 0.13873728 0.059932645 0.2718356
0000c0 20 55 5d be ff d6 31 be 90 5c 61 be 50 27 26 3e
       -0.21614504 -0.17367171 -0.22007966 0.16225934
0000d0 4f 8f 07 3d 5c 7a 26 be 01 f2 cc bd 37 25 14 3d
       0.033095654 -0.16257614 -0.10007096 0.036168303
0000e0 9b 53 2f bd ce b5 10 be 53 36 95 be 63 9a 65 be
       -0.04280434 -0.14131853 -0.2914301 -0.22422175
0000f0 13 c7 58 be 1f 3f 1a bd f9 09 ee 3d a8 a0 05 be
       -0.21169691 -0.037657853 0.11622996 -0.13049567
000100 6e cd 15 bd 2d 68 b1 3d 9c 24 a7 be 6e bc 2f be
       -0.036572866 0.08662448 -0.32645118 -0.17161724
000110 22 7f b6 3e 8b 32 70 3e 39 b0 0e be 37 34 8f 3e
       0.3564387 0.2345678 -0.13934411 0.27969524
000120 41 7d 50 bc a3 b8 67 be 77 83 86 3e 2f a1 22 be
       -0.012725175 -0.22629027 0.26272175 -0.15881799
000130 53 30 6b be e9 60 8e ba f2 4e 9b bd ee 71 a6 3e
       -0.22967653 -0.0010862622 -0.07583417 0.32508796

laneLayer.W f4 [12, 12]
000000 80 26 de 3e b0 1a ca 3d 5c 3a 96 be 5c a4 c2 3d
       0.43388748 0.098683715 -0.293414 0.09504005
000010 51 f5 d9 3d 20 42 67 3e 17 47 ab be 62 36 fc 3d
       0.106424935 0.22583818 -0.33452675 0.1231506
000020 22 96 b4 3d 99 18 47 3c 40 10 17 be 58 3c b3 be
       0.08817698 0.012151861 -0.14752293 -0.35006976
000030 4e 47 ae 3e dc fb c9 3e cc ef 09 be 98 97 c9 3d
       0.34038776 0.39449966 -0.13470381 0.09843367
000040 63 99 8e be 5b ba fc 3e 33 5e 19 bd 06 07 b8 3e
       -0.278514 0.49360928 -0.03744335 0.35942858
000050 7a 3b c7 3e fe ed bd be fa d8 ca bd fa 50 bc be
       0.38912565 -0.37095636 -0.09904666 -0.3678053
000060 b8 4c f4 be 3c be 8f 3e ab 28 07 3f 4d 1f 0b bd
       -0.47714782 0.28074825 0.5279643 -0.033965398
000070 48 34 64 3d d0 12 35 be 7d 5c 17 3e 8e 35 0f bd
       0.05571392 -0.17682958 0.14781375 -0.034963183
000080 32 48 5d be 3f 15 a8 be 99 ec a0 bd 1c 6f 8d be
       -0.21609572 -0.3282871 -0.078576274 -0.27623832
000090 34 46 f6 be 98 b4 ee be 3e a5 f8 3e 9c 35 72 be
       -0.48100436 -0.46622157 0.4856357 -0.23653263
0000a0 34 cc ea 3e 00 5b 2e 3e 38 6c 85 be 08 87 cf 3e
       0.4585892 0.17026901 -0.26059127 0.40532708
0000b0 38 82 fb 3e c0 79 4c bd 80 89 27 3c 78 c4 91 bd
       0.49122787 -0.049920797 0.010225654 -0.071175516
0000c0 c8 21 a5 3e 95 1d 08 3e c5 ef 54 3e 62 7a e6 bd
       0.32252336 0.13292535 0.2079459 -0.112538114
0000d0 be ea cb bb 5a 30 0c 3d a2 dc 29 bf fb 37 a2 be
       -0.006223052 0.0342258 -0.66352284 -0.31683335
0000e0 6b c0 1a 3f b0 f2 f9 3d 0a 90 57 bd 92 40 49 bc
       0.60449857 0.12204492 -0.0526276 -0.012283461
0000f0 6e 7c d7 be 40 cd af bc 64 7b b5 be da 7d a8 be
       -0.4208712 -0.021460176 -0.35445702 -0.32908517
000100 f8 75 ee bd 5c d4 c7 3e 28 8f 93 be 54 e0 a0 be
       -0.116435945 0.39029205 -0.28820157 -0.3142115
000110 d8 4b cd be 90 11 fa be 64 0b d5 be 28 36 b3 3e
       -0.40096927 -0.48841524 -0.41610253 0.35002255
000120 52 70 b6 be 88 bf 02 3f 7a 96 82 bd 6a 42 20 3e
       -0.3563257 0.51073503 -0.063763574 0.15650335
000130 9b e0 89 be 83 d7 a4 3e 87 14 d1 3e 33 6b aa be
       -0.26929173 0.32195672 0.40835974 -0.33284912
000140 47 b0 89 3b 97 d2 9b be 72 41 db be c6 d5 a3 be
       0.004201922 -0.30434105 -0.42823368 -0.31999034
000150 68 32 0b be 5d e3 7b 3e 63 0c 7f 3e b2 62 30 3e
       -0.13593447 0.24598451 0.24907069 0.1722515
000160 e8 de b3 3d 03 6d 46 be 00 d1 41 bd 32 0b 54 be
       0.0878275 -0.19377522 -0.04731846 -0.20707396
000170 22 91 b5 bd 63 c6 d5 3e 92 5f a5 3d e7 a9 2c 3e
       -0.088655725 0.4175292 0.08074869 0.16861688
000180 11 d9 bc 3e ef 34 bd be 65 3d 7d be ed c1 d5 be
       0.3688436 -0.36954448 -0.24730451 -0.41749516
000190 2f 68 c5 3e 00 33 b8 be f1 bd 06 3f 0f 8b ca bd
       0.38556048 -0.3597641 0.5263358 -0.098898046
0001a0 3f d8 7c 3d aa bb a8 be 02 66 84 be d2 35 28 be
       0.061729666 -0.32955676 -0.25859076 -0.16426781
0001b0 ae f0 8a 3e ce dd bb 3e 4e 95 9c 3e d7 2e d1 be
       0.2713675 0.3669266 0.3058266 -0.40856048
0001c0 7a 74 05 bf 09 38 b2 3e 2c de a7 be 33 22 82 3e
       -0.52130854 0.34808376 -0.3278669 0.25416717
0001d0 f4 66 b0 be 1b a6 c6 bd 53 ee a1 be 3b a3 0a 3e
       -0.34453547 -0.09699651 -0.3162714 0.1353883
0001e0 8a a5 bb bc 29 24 cc 3e e0 51 9e be b7 44 5a be
       -0.022906084 0.39871338 -0.3092184 -0.21315275
0001f0 c7 6f 22 bd 6c 08 43 3e a3 08 89 be e5 aa d5 be
       -0.03965738 0.19046181 -0.26764402 -0.41731945
000200 d8 88 e1 be e3 b4 d2 be 26 69 0b be 3e 2c 50 3d
       -0.44049716 -0.4115363 -0.1361433 0.050823443
000210 80 00 8e be 10 9e 80 bd 00 9b 1e 3e e8 18 1b 3e
       -0.27734756 -0.06280148 0.15488815 0.1514622
000220 f8 d7 0d 3e 8c 0e c6 be 60 2b c9 3c 7c bd ce be
       0.13851917 -0.38682973 0.024556816 -0.4037894
000230 98 4b a9 3d d0 43 0b be 66 dd e2 be 20 30 9a be
       0.082663715 -0.13600087 -0.4430954 -0.3011484

l2pLayer.W f4 [12, 88]
000000 de 43 76 be a5 be 78 3e a5 68 ac bb a2 b8 72 be
       -0.24049327 0.24291475 -0.005261498 -0.23703244
000010 da 44 5c be 97 64 39 be 35 b5 0c be 01 f4 b7 bd
       -0.2151064 -0.18104778 -0.13741 -0.08982087
000020 2c 6b 7b 3e 08 66 61 3e 38 a6 17 3e 49 e0 3f be
       0.24552602 0.22011578 0.14809501 -0.18737902
000030 e8 7b 15 3e 67 7b 14 3e 75 eb 28 be 0e 32 2e 3e
       0.14598048 0.145002 -0.1649607 0.17011282
000040 33 e9 f0 3d 43 c1 ef bd 00 1c 5c be 2d ab 3e be
       0.11763229 -0.117067836 -0.21495056 -0.18619986
000050 ab 29 3a be 71 64 38 3e 1b b1 3b 3d 28 e4 ea 3d
       -0.18179958 0.18007065 0.045823198 0.114692986
000060 e2 e7 20 be 5b 22 51 be f0 c8 5a 3e 7b ed ba bd
       -0.15713456 -0.20423262 0.21365714 -0.09127327
000070 94 64 58 3d 9f 50 87 3d 47 f3 30 be 37 c8 5d 3d
       0.052830294 0.06607174 -0.17280303 0.054146018
000080 a7 3b 1e 3e cc b9 8d 3d 61 7d 9d bd 0a d7 9d bd
       0.15452443 0.069202036 -0.0768993 -0.07707031
000090 e7 20 34 3e c3 56 f0 bd b3 1b 17 be 80 fa 31 3e
       0.17590676 -0.117352985 -0.1475666 0.17380714
0000a0 69 b2 ed bd c2 6a 01 be 34 f1 62 be 1a 34 99 bd
       -0.11606295 -0.12638381 -0.22162324 -0.07480641
0000b0 d6 47 fe 39 6d 8f 03 be d3 86 3b be e9 54 51 3d
       0.00048500177 -0.12847681 -0.1831315 0.051106367
0000c0 5d 72 1e be 06 aa 4a be ae 69 b9 bd 30 d0 9a 3d
       -0.15473314 -0.19791421 -0.0905336 0.0755924
0000d0 b8 d7 df 3d 63 de 5d 3e 4f 27 1d be 79 b6 4d 3e
       0.10929817 0.21666865 -0.15347026 0.20089139
0000e0 1b 34 cc bc f9 00 eb bc a3 49 96 bd 1d 55 32 be
       -0.02492719 -0.028686987 -0.07338264 -0.1741528
0000f0 9c 3e 03 3e e1 52 46 3b a0 da 41 be f1 50 53 be
       0.12816852 0.0030261802 -0.18931055 -0.20636345
000100 af f1 6e 3e fa 70 8b bd b3 c7 80 3d 3a db 3f 3e
       0.23334382 -0.06808658 0.062880896 0.18735972
000110 40 9c f0 bd 11 09 04 3e 5e 6c d4 3d 64 99 1d 3e
       -0.11748552 0.12894084 0.10372232 0.15390545
000120 0b 4a 55 3e 74 02 d1 3c 8e e9 0a be 15 54 67 3e
       0.20829026 0.025513865 -0.13565657 0.22590668
000130 09 ef 1f be 09 db f5 3c 1d e3 f2 bc 1e 2a 3f bd
       -0.15618528 0.03001167 -0.029649312 -0.046671025
000140 26 17 c1 bd 8b b2 41 be 4f 5d 59 be e3 fb 5f be
       -0.09428243 -0.18915765 -0.21227 -0.21873431
000150 58 38 82 3d 5b be 84 bd f4 2e 44 be c2 8f 53 3e
       0.06358403 -0.0648162 -0.19158536 0.20660308
000160 21 58 b9 bd a8 a5 06 3c b7 f2 0f 3e f2 4e f8 bd
       -0.090500124 0.008218206 0.14057432 -0.121244326
000170 a3 c0 5b 3d 0e ce f8 bd 8a 29 44 be cc ff 9e bd
       0.05365051 -0.12148677 -0.19156471 -0.07763633
000180 b8 da 3c 3e 94 f2 58 be 0d 07 83 3e 0f d0 05 3e
       0.1844281 -0.21186286 0.25591317 0.1306765
000190 8e c5 4e bc 57 52 3e be 62 9a 86 3b b7 bc 5b 3d
       -0.012620343 -0.18586098 0.0041077593 0.05364677
0001a0 73 57 9c bd 72 81 64 be 18 6a 07 bd 2d 2c 4d be
       -0.07633867 -0.22315004 -0.033060163 -0.20036383
0001b0 38 92 77 3d 26 ad 0c 3e ec fe eb bd 79 af 50 3e
       0.06044218 0.13737926 -0.11523232 0.20379438
0001c0 35 a9 bd bd 95 bf 7a 3d d9 3e a7 3d 0f 49 77 3d
       -0.09260789 0.061217863 0.08166284 0.06037241
0001d0 32 28 d5 bd 6c 4e 74 3e b4 be eb 3d f0 e8 86 bd
       -0.10408057 0.2385804 0.11510983 -0.06587398
0001e0 1d f8 80 3e fc 86 09 be b0 e6 c0 3d 94 7c 38 bc
       0.25189295 -0.13430399 0.09419 -0.0112601705
0001f0 a3 2d 71 3e 44 f1 36 3b 79 ae 55 be ad cf a4 3d
       0.23552565 0.0027914802 -0.20867337 0.080474235
000200 a7 4e 0b 3e 0b 38 c8 3d 8e 6b 53 be dd 3b e8 bd
       0.13604222 0.09776314 -0.20646498 -0.11339543
000210 ee ab e4 bc f2 4f 16 3d 6f e7 2c 3e 98 e6 1e 3e
       -0.027914014 0.036697336 0.1688516 0.15517652
000220 a1 94 6c 3d 4d 6a 3f be 5e dd 4e be a4 a5 bb bd
       0.05775893 -0.18692894 -0.20201632 -0.09162453
000230 64 67 3c 3e 69 7f af 3d 0c c3 96 bd 92 20 ec 3d
       0.18398815 0.085692234 -0.07361421 0.1152965
000240 81 1f 1d be 30 32 f6 bd a4 91 6d be 67 4f 82 3e
       -0.15344049 -0.12021291 -0.23200089 0.25451204
000250 92 49 cb 3d 24 1b 2b be d9 ff c1 bd fc c2 1d 3e
       0.09926142 -0.16709572 -0.09472627 0.15406412
000260 94 51 34 bd 8b 4d 11 3e e0 8e d4 3d 92 08 74 bd
       -0.04402311 0.14189737 0.10378814 -0.059578486
000270 4e 55 30 be 66 f1 08 3e 72 46 e3 3c a4 47 5b bd
       -0.17220041 0.13373336 0.027743552 -0.05353512
000280 17 fe 68 be 8f 29 1f 3e 85 1d fc bd a7 84 e2 3d
       -0.22753178 0.15543197 -0.12310318 0.11060458
000290 23 8f 12 bc 0f 9c f7 3c 31 79 02 bd 13 61 79 3e
       -0.008945259 0.030225782 -0.03185386 0.24353437
0002a0 06 19 4c 3d 5d d3 54 3e f1 9d be 3d ea b8 5d 3e
       0.04982855 0.20783754 0.09307469 0.2165257
0002b0 e6 14 94 bd 8b 73 e8 bd 28 4f 82 3e 44 54 b1 bd
       -0.072305486 -0.11350163 0.25451016 -0.086586505
0002c0 98 93 8b 3d f1 dd e6 3d c2 8f af 3c 79 6c 87 be
       0.06815261 0.11272801 0.021430854 -0.26449946
0002d0 07 cb 40 3e 19 c6 87 bc 74 e3 d0 bc b2 54 4e 3c
       0.18827449 -0.016573953 -0.025499083 0.012593435
0002e0 8d 53 51 be a2 28 57 3d 3e bc 05 3e 7b 68 19 be
       -0.20442028 0.052528985 0.1306009 -0.14981262
0002f0 f0 45 1a be 71 ba ad bc c7 19 53 be b9 23 80 bd
       -0.15065742 -0.021207066 -0.20615302 -0.062568136
000300 63 5d 11 be 7b 0b 43 3b ef 4a 5c be ab ce e1 bd
       -0.1419578 0.0029761482 -0.2151296 -0.11025747
000310 6b 6e ad bc d3 92 a7 bd 2b 31 25 3e 32 92 d1 bd
       -0.021170815 -0.08182301 0.16132037 -0.10232963
000320 85 0d 8c 3d fd 07 7d be 36 f1 11 be 0c 40 83 3e
       0.06838516 -0.24710079 -0.14252171 0.256348
000330 eb 7d ee bc a0 3f 43 3e b2 f0 4b bd e8 aa ff 3c
       -0.029112777 0.1906724 -0.04979009 0.031209424
000340 0a f0 66 3e dd 8d d8 3d e4 36 94 3d b5 04 5d be
       0.22552505 0.10573933 0.07237032 -0.21583827
000350 b3 1b 81 be 5c 8a 1e 3e 0c c2 3d 3e 84 71 81 be
       -0.25216445 0.15482467 0.18531054 -0.25281918
000360 44 4f 3c 3d 19 3c e7 3d 3d ab dd 3d 4c df 82 3e
       0.04597403 0.112907596 0.10823677 0.25560987
000370 e5 1f bf bd 9b 04 e9 3d 8e 22 3f 3e b3 0a 85 be
       -0.09332255 0.113778315 0.18665525 -0.25984725
000380 c1 f2 a5 bc b3 6a 43 3e 40 dd ad bd 35 88 56 be
       -0.020257356 0.19083671 -0.08489466 -0.20950396
000390 f6 a2 12 bd f2 af b2 bd 27 80 a0 bd 29 b4 10 3e
       -0.035799943 -0.08724965 -0.07836943 0.14131226
0003a0 0f 27 85 bd b8 7f da 3d b8 38 61 3e 72 e2 39 be
       -0.065015905 0.10668892 0.21994293 -0.18152788
0003b0 6e 19 e6 3b 6b 02 54 3d bd ee 8f 3d 8a c7 36 be
       0.0070220744 0.05176012 0.070279576 -0.17849556
0003c0 36 7f 18 be bd 3d c5 bd 5a 00 8f be 83 3c 5f bc
       -0.14892277 -0.09630916 -0.27929956 -0.013625267
0003d0 a3 b5 2f be ed ee 12 3e a1 27 eb bd 2d 08 8b 3d
       -0.17159133 0.14348955 -0.11482168 0.06788669
0003e0 9d 85 1c 3e a5 e6 16 3e 93 03 70 be 5c 90 60 be
       0.15285344 0.14736421 -0.23438863 -0.21930069
0003f0 ad 29 09 be 07 3a 29 be 69 e3 2c bc ca 25 77 3e
       -0.13394804 -0.16526042 -0.010552266 0.24135509

l2pLayer.a f4 [176, 1]
000000 b2 36 ee 3d 6a 9d 19 be ae 75 e8 3c 83 75 89 3d
       0.11631526 -0.15001455 0.028376427 0.06711867
000010 e0 8c ab 3d 30 c5 3a be e4 2e 16 bd 53 5d 49 3d
       0.08376479 -0.18239284 -0.036665812 0.049161267
000020 b0 79 eb bc b7 58 f6 3d d2 df bb bd 02 d8 2c 3d
       -0.028744549 0.1202864 -0.0917355 0.04219819
000030 1e e3 f2 3d 4e 05 84 3a ca 9b d6 3d ac d4 cc 3d
       0.118597254 0.0010072382 0.10478933 0.100015014
000040 a5 56 6c 3d e0 3e 8c bd 47 87 cc 3d 1c 8c 05 3c
       0.05769982 -0.0684793 0.099867396 0.00815108
000050 01 b3 c3 bd c7 fd 26 bd 3b a9 21 3e cf ea 1a 3d
       -0.09555627 -0.040769365 0.15787213 0.037821587
000060 fb dc e7 bd 90 fa f3 3d 3d 3d 26 3e 37 29 03 3e
       -0.113214456 0.119130254 0.16234298 0.12808691
000070 2a 67 df bd 67 9b 25 be ba 33 2b 3e 0c 4e 8e bb
       -0.10908349 -0.16172563 0.16718951 -0.0043428
000080 05 7d b3 bb 63 9a 02 3d b3 12 66 bd 2d ed ac 3d
       -0.00547755 0.031885516 -0.056170177 0.08443675
000090 c4 09 1c 3e c8 07 b2 3d 24 9e a4 bd 85 b7 22 3d
       0.152381 0.086928904 -0.080379754 0.0397258
0000a0 11 2e 4a bb 3e 63 e7 bd f9 d4 1b be f9 67 04 3e
       -0.0030850212 -0.11298226 -0.15217961 0.12930287
0000b0 05 02 89 bd 3c f3 c5 3c 09 00 ec bb 19 80 cb 3d
       -0.06689838 0.024163835 -0.0072021526 0.09936542
0000c0 8c f6 2a 3e 16 c3 82 bd dd f3 dd bc 1c bd db bd
       0.16695613 -0.06384866 -0.027093822 -0.10729429
0000d0 c3 97 eb bd 8a e5 ef bd 9a 32 e1 bd d3 b2 b0 bd
       -0.115035556 -0.11713703 -0.109959796 -0.08627858
0000e0 c7 a5 bd 3d 77 12 0c be 3d 80 0c 3d a9 a3 d1 bc
       0.09260135 -0.13678919 0.034301985 -0.025590735
0000f0 d4 0b dd 3b 4d b0 7f bd b7 d0 cb 3c 15 d6 04 3e
       0.006745795 -0.062423993 0.024879796 0.12972291
000100 4d 32 54 b9 39 5f c8 3d 85 25 ab 3b 08 ac 25 3e
       -0.00020236634 0.09783787 0.0052229785 0.16178906
000110 f8 c6 96 bd 0b b9 10 be 3c 3b 24 be 56 78 53 3d
       -0.07362169 -0.14133088 -0.16038221 0.051628433
000120 60 2a 72 bd 66 1f 61 3d cb a9 33 3e 85 6b 30 be
       -0.059122443 0.054961585 0.1754524 -0.17228515
000130 75 b6 b4 bd a0 25 a9 bd 1e fb 02 3d 7b 9a 91 3d
       -0.088238634 -0.082591295 0.031977765 0.07109543
000140 70 35 85 bd 48 45 29 3c 4a fd 1b 3e e9 32 1e 3e
       -0.06504333 0.010331459 0.15233341 0.15449108
000150 79 6a c9 bd 82 99 dc 3c 66 13 12 bd b2 9a b8 bd
       -0.09834761 0.026928667 -0.03566303 -0.09013881
000160 81 a7 45 3e 2a df 51 bd aa 8f 41 be 9b 08 d1 3d
       0.19302179 -0.051238216 -0.1890246 0.102067195
000170 90 ec 63 bd f0 07 aa 3c 13 95 f8 3d 45 fd 1b 3e
       -0.055645525 0.020755738 0.12137809 0.15233333
000180 41 3d f4 3b 96 11 91 bd 1d a4 8f 3c 5a 04 e9 3d
       0.007453591 -0.070834324 0.01753431 0.11377783
000190 40 cf 2a be 0c cf 0a bc d9 f5 f2 bc 0d 10 1c be
       -0.16680622 -0.008472215 -0.029658245 -0.15240498
0001a0 6b a6 71 bd a2 4d b4 3d 5b 5a 8c bd b0 df 07 3e
       -0.0589966 0.0880387 -0.068531714 0.13268924
0001b0 dd c0 79 bd f9 7a 2f be 47 0a 17 3c 0e e5 f7 3d
       -0.060974944 -0.17136754 0.009218759 0.121042356
0001c0 a7 a9 9b 3c 47 79 0a be d0 02 94 bd 94 96 5f be
       0.019001795 -0.13522826 -0.07227099 -0.21834785
0001d0 dd 3b a7 3d 47 f9 00 3e 26 7d ad bd 34 40 0c be
       0.08165715 0.12595092 -0.08471136 -0.13696367
0001e0 dc 83 86 bd 5d d7 46 3e 1f 50 96 be 20 99 04 3e
       -0.06568119 0.19418092 -0.29358003 0.12949038
0001f0 4f d5 53 bc 2a 1c 1f be ef d5 2a 3e da 6c 73 3c
       -0.012929275 -0.15538087 0.16683172 0.014857495
000200 7c bf 2a 3d 3b 5e 66 bd 73 7c 14 3c 37 97 b1 3d
       0.04168652 -0.05624221 0.009062874 0.0867142
000210 71 4f e4 3a 5e 29 e4 bd 03 73 df 3c a5 34 3b bd
       0.0017418695 -0.11140703 0.027276522 -0.045704503
000220 dc 81 c3 bd bc 77 9d 3d 43 ac e4 3d b5 06 8d 3c
       -0.09546253 0.07688853 0.11165669 0.017215112
000230 68 75 5b 3d ef 22 19 3e 9e 6a c8 3d 04 b9 a6 3d
       0.053578764 0.14954732 0.097859606 0.08140758
000240 d4 48 87 3e 6d 09 09 3e f1 7d 73 bd cd c1 e0 bd
       0.2642275 0.13382502 -0.05944628 -0.109744646
000250 48 40 ff bc ea 88 11 be 55 cc 78 3c 05 93 1b 3e
       -0.031158581 -0.14212385 0.015185435 0.15192802
000260 09 d0 4a bd 8b 2d c6 3d f9 1e 4e 3e c4 d0 50 be
       -0.049514804 0.096766554 0.20129003 -0.20392138
000270 03 1d 61 3d 22 86 2d 3c ad fd c9 bd 41 4c 28 be
       0.05495931 0.010591062 -0.09862838 -0.16435339
000280 41 8e 5d 3e a6 98 6f bd 84 1b 32 3e 3b d1 59 bd
       0.21636297 -0.058495186 0.17393309 -0.053178053
000290 e5 b1 04 bd 4c f0 b5 3d 96 dd 26 3e f6 ef 32 be
       -0.032396216 0.088837236 0.16295466 -0.1747435
0002a0 c9 2b 5f bc 4c cb 11 be c6 4b 45 3e 66 7a 4a 3e
       -0.013621279 -0.14237708 0.19267187 0.19773254
0002b0 ac b0 a7 bd a5 fc 53 3e 7d dd ab bd 9e 15 95 3d
       -0.08187994 0.20701845 -0.08391855 0.07279514

phaseLayer.W f4 [24, 26]
000000 e8 80 76 be 19 81 39 bd 56 2b c3 3d 38 eb 84 be
       -0.24072611 -0.045289133 0.0952975 -0.25960708
000010 f4 f6 97 bd b3 5b 84 be fd bc ab be 5b 9a 58 bd
       -0.074201494 -0.2585121 -0.33542624 -0.05288158
000020 d9 92 db 3c 89 ef a0 3e e1 0a 6d 3e 66 58 82 3e
       0.02680342 0.3143275 0.23148681 0.25458068
000030 ff 8a bd bb e6 be e5 3d 6b 23 07 be 84 37 09 be
       -0.005784392 0.112180516 -0.13197105 -0.13400084
000040 5c c6 25 3e 34 49 cf bd 80 97 68 be 55 c4 af bd
       0.1618895 -0.10121384 -0.22714043 -0.08582369
000050 84 a9 1b be aa d3 8f be 9d 17 17 3e 6c 61 89 be
       -0.15201384 -0.28091174 0.14755102 -0.2683214
000060 a5 b5 18 be ff c9 3a be fc 6b 62 be 57 6d 64 3e
       -0.14913042 -0.18241118 -0.22111505 0.22307335
000070 37 17 08 3e c2 9b a2 bb 1d c7 39 3e ea 81 28 be
       0.13290106 -0.0049624154 0.18142362 -0.16455808
000080 19 00 8f be 87 80 8b be 2c 9b 04 be 87 54 b4 3e
       -0.27929762 -0.27246496 -0.12949818 0.3522074
000090 6f 47 b6 3e 29 76 81 3a 70 7f 2f be f7 25 c1 3d
       0.35601375 0.0009877133 -0.17138457 0.09431069
0000a0 fe 98 e5 bd 52 0a a4 3e 29 c3 3d 3e 86 b9 bf 3d
       -0.112108216 0.32039124 0.18531479 0.09361558
0000b0 b5 f9 a0 be 17 dc 0b 3e 4e ef a3 be 4a df 38 bd
       -0.3144051 0.13658176 -0.32018512 -0.04513482
0000c0 2b b5 7d be f8 7e 41 be e6 5a fd bb 80 d5 31 3d
       -0.24776141 -0.18896091 -0.007731783 0.0434165
0000d0 2f 24 67 3c 61 cc 9d bb 00 5f a5 3e 2e 62 0f be
       0.014107748 -0.0048156236 0.32299042 -0.14002296
0000e0 d1 ca a9 bd 0c 13 a4 bc 9c 95 23 3d 1a 75 fb bd
       -0.08290637 -0.020028614 0.0399376 -0.12278195
0000f0 d9 19 68 3b 97 ba a1 be be dd ab be 04 b4 aa be
       0.0035415797 -0.3158767 -0.33567613 -0.33340466
000100 40 b7 f6 3d eb 44 b1 be 82 ea 91 3e 54 91 bd bd
       0.12046671 -0.34622893 0.28499228 -0.09256235
000110 6f a6 d6 bd c9 08 a0 3e 33 b1 a7 bc 0a c2 5c be
       -0.104809634 0.31256703 -0.020470237 -0.21558395
000120 e2 2c ed bd ae 06 54 be 73 41 a7 3e 5b d2 87 3e
       -0.11580826 -0.20705673 0.3266712 0.26527676
000130 45 7e 3e 3d f0 4f 0b be d3 c1 9e be 4a 84 76 3e
       0.04650714 -0.13604712 -0.3100725 0.24073902
000140 b3 f3 a5 3c f5 20 df bd 08 b9 9e be ad 31 82 be
       0.020257806 -0.10894958 -0.31000543 -0.25428525
000150 53 af e2 3c 65 1e 5a 3e 07 39 8c 3e 8a 14 04 be
       0.027671492 0.21300657 0.27387258 -0.1289846
000160 ae cc af 3e 55 4f 97 be 34 78 a4 3e 60 39 dc 3d
       0.34335846 -0.29552713 0.32122958 0.10753131
000170 6f 0a 6c be 7f 69 46 be 1a 65 e6 bd 70 15 8c be
       -0.23050855 -0.19376181 -0.11249752 -0.27360106
000180 23 e1 e4 3c 74 c6 06 be db 1a 02 3d f8 0b 1c 3e
       0.027939385 -0.13161641 0.031763893 0.1523894
000190 be 55 b4 bc f0 39 a4 be ad fc 68 3c f6 80 53 3e
       -0.022013541 -0.32075453 0.014220399 0.20654663
0001a0 73 26 bb be ac 3b 5b be 6f 70 3b be 7c 96 76 3e
       -0.36552772 -0.21409482 -0.18304609 0.24080843
0001b0 a4 bb 1b be 45 48 49 be 03 fa be be 6a 04 6c be
       -0.15208298 -0.19656475 -0.3730012 -0.23048559
0001c0 a8 e7 91 3e 0f a8 a8 3e a9 13 ba be 63 a2 4b 3d
       0.28497052 0.3294072 -0.36343125 0.04971541
0001d0 3b c5 80 be 01 2d c1 3d ec 2d 80 be 94 33 c8 bc
       -0.25150475 0.09432412 -0.25035036 -0.024438657
0001e0 77 bb a4 be 37 5b 91 be 81 9a ff 3c d9 d8 27 3d
       -0.32174274 -0.28389904 0.031201603 0.040978286
0001f0 06 e2 b5 be 40 e5 5e be 64 a0 cc 3e 46 50 81 3e
       -0.35524005 -0.2176714 0.39966118 0.25256556
000200 a7 37 cd bd 0d ad 22 3e 2d c5 72 be 47 7f 32 be
       -0.100203805 0.15886326 -0.23708029 -0.17431365
000210 16 40 6b 3e 5b da 1a bd a4 2b 75 bd 07 90 35 bc
       0.22973666 -0.037805896 -0.059856072 -0.011081702
000220 d5 08 a2 be 52 e1 41 be 4e 4a b8 be 37 b4 ef bd
       -0.31647363 -0.18933609 -0.3599419 -0.11704295
000230 19 10 49 3e 98 98 81 be 9e d6 b0 be a8 19 99 3e
       0.19635047 -0.25311732 -0.3453874 0.29902387
000240 56 4c 27 bd 92 2b 90 bd cd 38 a4 3e 2b c6 1c 3e
       -0.040844284 -0.070395604 0.32074586 0.1530997
000250 c5 7e e2 3d 5d 09 17 be 99 ba 57 be e3 7b 3f bd
       0.110593356 -0.14749666 -0.21067275 -0.046749007
000260 2f f2 55 be f6 8e d9 bc 00 37 d2 3e d4 6d de bd
       -0.20893167 -0.026557427 0.41057587 -0.10860792
000270 ad eb ad 3d b1 e2 d6 bc f1 57 36 be 86 23 a6 3e
       0.08492217 -0.026231142 -0.17806984 0.32448977
000280 28 1c 85 3d 73 5d a4 bd a4 43 8a be 22 71 22 3e
       0.06499511 -0.080256365 -0.2700473 0.15863469
000290 f6 87 af be c1 ae 27 3e 7b aa 46 3d e1 eb e9 bd
       -0.34283417 0.16375257 0.048502427 -0.114219435
0002a0 2c 0f 4c be af 90 69 be 1f ee 5b 3e 21 76 83 3e
       -0.19927663 -0.22809099 0.21477555 0.25676063
0002b0 cc 6c 33 3e ca 53 90 bd 72 96 a4 3e c2 91 05 3e
       0.17521971 -0.070472315 0.3214603 0.13043883
0002c0 1b 89 52 bd 57 82 90 3e 5b c8 91 be e5 f3 bb 3d
       -0.051400285 0.2822444 -0.28473172 0.091773786
0002d0 fa 8b b9 3d 27 2c f4 3d 3e 5e 40 be a5 68 12 3e
       0.090599015 0.11922484 -0.1878595 0.14297731
0002e0 93 8f 37 3e d9 65 08 be 15 ae 2b be 70 24 19 be
       0.17925863 -0.13320102 -0.16765626 -0.14955306
0002f0 62 1b c2 3b 76 b1 0e 3e 50 f6 dc 3d 49 8d c0 3c
       0.0059236744 0.13934883 0.10789168 0.02350487
000300 63 84 d3 3d 4b 3d 69 3e 5c 96 ab 3e b3 8e d0 3d
       0.10327985 0.22777288 0.33513153 0.10183468
000310 37 da d6 3d 8e bb 32 bd b9 ef 5b be c1 3f 3a be
       0.1049084 -0.043635897 -0.21478166 -0.18188383
000320 f8 2d cf 3c 64 fa 36 3e de 05 0c 3d 44 f7 e6 bd
       0.025290474 0.17868954 0.034185283 -0.11277631
000330 92 54 b6 3e b3 37 65 3e 90 47 81 be be e6 6d be
       0.35611397 0.22384529 -0.2524991 -0.23232552
000340 e9 04 91 3e e1 5c 85 3e 36 b5 ce 3c f5 ce 1e 3e
       0.2832406 0.26047423 0.025232892 0.15508635
000350 6f a8 a1 3b 37 28 ab be 0d 8d 88 be c5 ab 80 3e
       0.004933409 -0.3342912 -0.26670113 0.2513105
000360 0f b9 f1 bd da 06 f4 bd ae c4 17 be ae 4e 8c bd
       -0.11802875 -0.11915369 -0.14821121 -0.068509445
000370 c9 9e e4 3c c4 53 87 3e 51 f5 15 3d 81 a7 e7 bd
       0.027907746 0.26431096 0.036610905 -0.11311246
000380 6b 45 8b bd 90 9e 05 be 87 e3 61 3e e8 73 51 3e
       -0.0680035 -0.13048768 0.22059451 0.20454371
000390 16 85 40 3e de f2 90 be 8e 23 1c 3e a0 20 7f 3d
       0.18800768 -0.28310293 0.15247938 0.062286973
0003a0 9c 4e 47 3e 38 94 2c be 20 8d 8c 3e 2f 42 07 3e
       0.19463581 -0.16853416 0.2745142 0.13208841
0003b0 3e 9a 2b be 06 78 fe bd 84 eb 9a be fa 37 48 3e
       -0.16758057 -0.124252364 -0.3025781 0.19552603
0003c0 e6 11 96 be 0a e8 ae 3e d1 a8 9a be 1d 8f 8f 3e
       -0.2931053 0.34161407 -0.30206922 0.28038874
0003d0 57 77 dd 3d b3 31 6e bc 98 5a 2f bb 43 45 90 3d
       0.10813778 -0.014538216 -0.002675688 0.070444606
0003e0 18 47 9f bd 3e dc 20 3d 6e 57 21 be 22 9f 35 3d
       -0.07777232 0.03927254 -0.15756008 0.044341214
0003f0 7e a7 a2 3e 0e c6 bc bd b0 bf 14 3e ae 77 15 3e
       0.3176841 -0.092174634 0.14526248 0.14596435

p2iLayer.W f4 [24, 176]
000000 3a 13 b9 bd 56 87 0e 3c 79 be c3 3d 51 1a ac bd
       -0.0903687 0.008699259 0.09557814 -0.08403457
000010 ef bd 9e bc 78 b1 6d 3d eb de 1f 3e 0c 0c da bb
       -0.019377677 0.058030576 0.1561238 -0.006654268
000020 1c 98 1c 3e db ca 31 be 03 a7 db bd ff 26 12 be
       0.152924 -0.1736254 -0.10725214 -0.14272688
000030 35 32 6a bb 67 f3 0f 3e 2e c3 11 3e 03 7c 6c 3d
       -0.0035735492 0.14057694 0.14234611 0.057735454
000040 8b 76 33 3e 20 8e 0c 3e 53 dc d5 3d 92 a0 46 be
       0.1752569 0.13726091 0.10442414 -0.1939719
000050 18 ff fd 3d 11 87 06 3e 89 99 05 be 7a a1 1c 3c
       0.12402171 0.13137461 -0.1304685 0.009559983
000060 a6 a6 8b bc 05 c1 46 be 12 29 28 3e 5b 91 15 3e
       -0.017047238 -0.19409569 0.16421917 0.1460623
000070 8b f5 61 3b 64 cf 4d 3e 1d 13 86 bd a5 7c 36 3e
       0.003447863 0.20098644 -0.06546614 0.17820986
000080 4b 14 d6 bc ed 10 eb 3c d1 18 02 be e0 85 2e be
       -0.026132723 0.028694594 -0.12704779 -0.17043257
000090 60 f1 17 be d3 7d 90 bd 93 4d 1a 3e 17 c4 fa bc
       -0.14838171 -0.07055249 0.15068655 -0.030611081
0000a0 90 dd 28 3d 22 82 e3 bc d1 e8 9a 3b d0 da 32 be
       0.041226923 -0.027772013 0.004727461 -0.17466283
0000b0 82 4a b0 bd 4c e7 0b be a7 c9 9c 3d 60 32 e7 bd
       -0.08607961 -0.13662452 0.0765565 -0.11288905
0000c0 bc 84 9b 3d d6 fa bd 3d 24 31 d1 bd e1 d8 34 bd
       0.075936764 0.09276359 -0.10214451 -0.044152144
0000d0 94 e3 0e be 45 87 04 3d 0f a5 8a 3d 86 b4 b1 3d
       -0.13954002 0.032355566 0.06769764 0.0867701
0000e0 13 94 8b 3d d9 5e fd 3d 29 ce 6e 3d 7c 93 43 3e
       0.06815352 0.123716064 0.05830208 0.1909923
0000f0 fe 62 33 3e c8 e6 80 bd 15 6e ae bd 53 c8 d3 bd
       0.17518231 -0.06294018 -0.0851709 -0.10340943
000100 cf b4 0b bd a2 d3 e7 bb 42 40 d9 bd 5d 44 07 3e
       -0.03410798 -0.007074789 -0.10607959 0.13209672
000110 ea f8 0b bd 3c ff 2d bd 7a 0b c1 39 af ea 1f bd
       -0.03417293 -0.04247974 0.0003682038 -0.03904217
000120 7f ab 32 ba 81 b3 f0 3d e2 59 d8 bd 57 30 3d 3c
       -0.0006815716 0.11752988 -0.10564019 0.01154717
000130 02 9c 08 3e 58 09 de 3c bb 60 da bd de d3 0b bd
       0.13340762 0.027104065 -0.10662981 -0.0341376
000140 90 fb 1b be 2f 2e c6 3d 92 49 b3 bd 0b 65 fa bd
       -0.15232682 0.096767776 -0.08754267 -0.12226304
000150 3e f1 cf bd 96 dc ca bd ea 68 22 3e 1f 64 e5 3c
       -0.10153435 -0.09905355 0.15860334 0.028001843
000160 5b 28 3f 3d 2b 7a a8 bd 47 07 02 be 8a 7d 19 3c
       0.046669345 -0.08226427 -0.12698089 0.00936831
000170 d0 ca fe 3d 14 a3 d1 3d 55 a4 8d 3c d2 7b 96 bd
       0.12441027 0.10236183 0.017290274 -0.073478356
000180 e4 07 45 3d 07 c1 fb bd a9 72 5e bd cc 3c db bd
       0.04810323 -0.122926764 -0.054308567 -0.107049555
000190 f1 bf d7 bd 0b 1d db 3d 90 f6 0a 3d 90 c9 d7 3d
       -0.10534657 0.10698899 0.033926547 0.10536492
0001a0 50 7b ed bd 3f 6d c8 3d 25 38 49 3e 6f da 8f bc
       -0.115957856 0.09786462 0.19650324 -0.017560212
0001b0 45 78 e1 bc d2 f3 14 3c ec fa cb 3d 9e 01 a9 3d
       -0.02752317 0.009091334 0.09959969 0.082522616
0001c0 5e 8c ca bc a6 72 94 3c f5 0c ee 3d b9 10 99 bd
       -0.024725135 0.018121075 0.11623565 -0.07473893
0001d0 40 db 10 3d a2 2d b9 bd 0a 5d a5 bd ce ce aa 3d
       0.035365343 -0.09041907 -0.080743864 0.08340226
0001e0 1b 29 16 3c 35 2d 99 3d 0f 42 f2 bd a3 42 3c be
       0.009165074 0.07479326 -0.11829006 -0.18384795
0001f0 31 19 f8 3d 7b 49 24 be e9 34 67 bd 09 e5 e1 bd
       0.1211418 -0.16043656 -0.056446943 -0.11030013
000200 20 72 6d 3d f9 72 ef 3c 32 ed 0d bd 63 93 99 3b
       0.057970166 0.029229628 -0.034650035 0.0046867593
000210 05 23 19 3e 47 c9 6f 3d e9 65 a1 bd 8e 32 95 3d
       0.14954765 0.058541562 -0.07880766 0.07285033
000220 fc ea 81 3b 08 8e 58 bd 79 55 0f 3e a5 f6 9c 3d
       0.00396478 -0.052869827 0.13997449 0.07664231
000230 9e 98 26 3e e1 f4 1e be 44 aa c9 3d 05 5d 30 be
       0.16269156 -0.15523101 0.09846929 -0.17222984
000240 78 e4 ee 3d 8f 79 e2 3c cb 44 df bd 91 22 dd bd
       0.11664671 0.027645854 -0.10901793 -0.10797609
000250 97 08 16 3e d2 94 b1 3d e8 88 0a be 78 da a5 bd
       0.14651714 0.08670963 -0.13528788 -0.0809831
000260 07 9c 96 bd ea b1 09 be 3f 72 15 3e 78 11 05 be
       -0.073539786 -0.13446775 0.14594363 -0.12994945
000270 3b 9c c8 bd d9 a2 ae 3c 55 79 77 3d c4 91 d7 bc
       -0.097954236 0.021317886 0.060418446 -0.026314624
000280 5c c8 ee bd 7c df d8 3d 50 dd 0f 3c f3 59 a6 3d
       -0.11659309 0.10589501 0.008780792 0.08122625
000290 f6 4c 33 bd ea 7b f8 bc 19 c0 e0 bd a5 32 49 be
       -0.043774568 -0.030332524 -0.1097414 -0.19648226
0002a0 3e 53 87 bd 61 ba 95 bd 26 69 e8 3d 69 63 c5 3d
       -0.06607674 -0.073109396 0.113481805 0.096381016
0002b0 ca 22 8d 3d 54 d0 ef bc 87 01 f4 bd c7 f8 96 3d
       0.06891401 -0.029274143 -0.11914354 0.07371669
0002c0 56 26 81 3c ad bb 64 3d ce 01 32 3a da 73 18 be
       0.01576535 0.055843044 0.000679043 -0.14887944
0002d0 36 f7 bf bd 2b bb e5 bd 19 d0 28 be f9 37 03 bd
       -0.093733236 -0.1121734 -0.16485633 -0.0320358
0002e0 b2 72 fe bc e4 fb 0a 3a 71 4e 74 3c 5c fc fa 3b
       -0.03106055 0.0005301817 0.01491128 0.007659478
0002f0 a1 af 1a be c4 00 1a 3e c7 1e 1c 3e 92 f6 19 3e
       -0.1510606 0.15039355 0.15246116 0.15035465
000300 0f e6 df bd 08 e2 b1 3d 51 43 ad 3d 8e 6e d1 3d
       -0.10932552 0.0868569 0.08460105 0.10226165
000310 bf 92 14 be 26 16 57 3e 00 7e 52 bd 88 3e cc 3c
       -0.14509104 0.21004543 -0.051389694 0.024932161
000320 98 dd 46 3d 23 dc 24 3e 20 a9 27 3e 1b d4 9f 3d
       0.048551172 0.160996 0.1637311 0.07804128
000330 e1 af 40 3d 54 44 28 bd 12 47 8a 3d a3 a5 ea bd
       0.04704273 -0.041080788 0.06751837 -0.11457374
000340 77 b4 a8 bc 56 7f 0a 3e 2c c9 52 3d 9c f0 9c 3d
       -0.020593865 0.13525137 0.051461384 0.0766308
000350 de 9c b2 3d d7 ef 0b be 78 be c2 3a 19 3a da bb
       0.08721326 -0.1366571 0.001485779 -0.006659758
000360 60 1f 46 3d 95 14 1d 3e 36 9e ec 3d 11 9b 15 bd
       0.048369765 0.15339883 0.11553614 -0.036524836
000370 95 96 db 3d 34 f5 31 3e f3 8d 66 3b 14 53 19 be
       0.107220806 0.17378694 0.0035179823 -0.14973098
000380 b3 57 ca bc e4 f3 27 bd 9c c2 ba 3c b5 27 86 3d
       -0.024700021 -0.041004077 0.022797875 0.06550542
000390 aa c2 06 be e7 23 da bd 22 87 29 be 50 26 53 be
       -0.13160196 -0.10651379 -0.16555455 -0.20620084
0003a0 14 43 90 3d 72 21 32 be 53 66 ce bc 92 c8 85 3d
       0.07044044 -0.17395571 -0.025195276 0.065323964
0003b0 95 3c db 3d 41 fb 62 bd d2 8d d6 bd 93 9a 34 bd
       0.107049145 -0.055415396 -0.10476269 -0.044092726
0003c0 d2 3e ea 3c 85 91 d4 3d 74 ef 4d bd 45 13 d3 bd
       0.028594408 0.10379318 -0.05027719 -0.1030641
0003d0 24 dd cc bd 44 59 bd bc 84 4a cc 3d a7 47 42 bd
       -0.10003117 -0.023113854 0.0997515 -0.047431614
0003e0 a2 c9 31 3e a6 9b 8e bc bd b2 4c 3c 50 dd ff 3d
       0.17362073 -0.017408203 0.012493786 0.12493384
0003f0 a3 30 58 3d 75 60 2c bd c3 68 71 3d b0 06 b8 bd
       0.05278076 -0.042084176 0.0589378 -0.089856505

p2iLayer.a f4 [352, 1]
000000 de 91 07 bb e9 6a 82 bc 0e 53 ae 3d 74 71 0d be
       -0.002068631 -0.01592012 0.08511935 -0.1381281
000010 f0 4c 96 bd 94 34 0b 3e 6e c5 e0 bd d0 44 d4 3d
       -0.073388934 0.13594276 -0.10975157 0.103646874
000020 a3 9d 1c be 05 ed bb 3d 8b 73 4c bd 7c 66 b8 3d
       -0.15294509 0.09176067 -0.049914878 0.09003922
000030 4c 12 f2 bd 64 db 7a 3d 35 29 e6 bc a2 d2 8c 3d
       -0.11819896 0.061244383 -0.02809582 0.068761125
000040 b1 8e a0 bd b6 5f 01 bd 78 d8 6f bc 98 7e 91 3c
       -0.07839716 -0.031585418 -0.0146390125 0.01776056
000050 39 de c6 3d 0e 24 91 3c 72 31 90 bd 6d 5a 13 be
       0.09710354 0.017717388 -0.07040681 -0.14389963
000060 da a9 9a bd 1c c6 1a 3e 4a 54 84 3d c8 3a 38 3d
       -0.07551928 0.15114635 0.06461389 0.044977933
000070 5a 04 c6 bc b4 03 6d 3c 82 05 a4 3c 6a 5d e2 3d
       -0.024171997 0.014466215 0.020022158 0.110529736
000080 59 17 b1 bd 2e 20 00 3e 6d a2 1a 3e 8c c9 a4 3d
       -0.08647031 0.12512276 0.15101023 0.080462545
000090 f4 f3 ad 3d a0 eb a1 bc 7d 5e b2 3d d7 93 9e bd
       0.08493796 -0.019765675 0.087094285 -0.07743042
0000a0 ff 7c 11 be ef b7 09 bd 8d 04 3f 3d a2 a2 9c bd
       -0.14207838 -0.03362268 0.0466352 -0.07648207
0000b0 ab 16 b2 3d b8 16 e9 3d 4a 34 19 3e ec d6 ac 3d
       0.0869573 0.113812864 0.14961353 0.084394306
0000c0 9f 01 32 bc 3e f8 13 bd a5 f5 8c 3c 53 d4 4e bd
       -0.010864644 -0.036125414 0.017206976 -0.050495457
0000d0 bf 33 16 3e ba e4 2c 3d c8 e2 d6 bc 1b e8 3a bd
       0.14668177 0.04221032 -0.026231185 -0.04563151
0000e0 5d c7 a3 3a 15 c2 88 bc da 85 0c 3e 21 9c 18 bd
       0.0012495328 -0.016694108 0.13722935 -0.03725827
0000f0 c4 a0 fc bd c6 88 1e 3d 3a cc c9 bd 23 63 0a 3e
       -0.12335351 0.038704656 -0.09853406 0.1351438
000100 49 46 28 3c e3 91 10 bd aa 43 c5 3d 1c 91 a2 3c
       0.010270664 -0.03529538 0.096320465 0.019844584
000110 53 64 b1 3d a5 74 a3 bc a7 2d f2 3a 13 96 29 bd
       0.086617135 -0.019953081 0.001847674 -0.041402888
000120 d9 ec 05 3e e6 d0 35 3d d3 d4 d5 3d 95 0e 85 3d
       0.13078631 0.044388674 0.104409836 0.06496922
000130 1a fd 3f bd 91 95 a3 bd 19 be a3 bd 92 ea 70 3d
       -0.046872236 -0.07987512 -0.079952426 0.058817454
000140 f4 d0 bd 3b 18 95 48 bd 1b 28 8e bc fa 0e 25 bd
       0.0057927314 -0.048970312 -0.017353108 -0.040297486
000150 e4 fc d3 3d 5b 1e e8 3d 53 b2 72 3d 63 89 59 3d
       0.103509694 0.11333915 0.059252094 0.053109538
000160 d4 94 0d 3d d7 a7 de 3d 5e f3 a4 bd 09 e0 b4 3d
       0.03456576 0.10871857 -0.08054231 0.08831794
000170 c7 19 58 3d 21 7c 2c bc cd 94 e3 3d 45 e3 9d bd
       0.05275896 -0.0105276415 0.11112366 -0.07709364
000180 ea dd 63 3c f6 07 b4 3d c7 8a b4 bd d8 ff be 3d
       0.013907889 0.08790581 -0.08815532 0.09326142
000190 ce 67 3c bc 2e 88 9e bd 94 87 98 bb 40 79 92 bd
       -0.011499358 -0.07740818 -0.004654834 -0.07152033
0001a0 e4 ea ad bd e9 1f 0e 3d 8d 7e 8a 3d c4 b5 ec bd
       -0.084920675 0.0346984 0.06762419 -0.115581065
0001b0 c4 ce 81 3d 1b d9 24 3d bd b5 5a b9 b7 ac 29 bd
       0.063382655 0.04024611 -0.00020857803 -0.04142448
0001c0 9e af 1b be 14 b7 15 3e 23 ae ff bd d2 1f 9f bd
       -0.15203711 0.1462062 -0.12484386 -0.07769741
0001d0 1c 3b e0 bd f1 0c e4 3b b8 c7 cb 3d 4f 7a fd 3d
       -0.10948774 0.0069595505 0.09950203 0.12376844
0001e0 9e a1 c2 3d 80 c2 bf 3d 31 45 67 3d 3b b4 a1 3c
       0.09503482 0.0936327 0.05646247 0.01973926
0001f0 d4 c0 0b 3d bf 43 9e 3c 7c e7 9b bd 84 a5 ed 3c
       0.034119442 0.019319413 -0.076125115 0.029009588
000200 c2 d9 2c 3b 6e 9f 90 bc d3 34 a4 bd 30 77 3e 3d
       0.002637491 -0.017654147 -0.08017888 0.046500385
000210 d2 d1 90 bd e0 3d d2 bc 55 71 14 bc 1b b4 8a 3d
       -0.0707127 -0.02566427 -0.009060224 0.06772634
000220 52 b3 74 3d 32 f0 f7 bd fd 97 a2 3d bb 8f f8 3d
       0.059741326 -0.121063605 0.07939146 0.121367894
000230 5b 39 16 bc 95 63 41 3d e3 84 e4 3c ac a1 15 be
       -0.009168948 0.04721411 0.027895397 -0.14612454
000240 ab ca 93 bd 14 0c 1e bc f8 8f 9a 3b 98 1f fa 3d
       -0.0721639 -0.009646434 0.0047168694 0.12213057
000250 10 cf b8 bd cd 7f 13 be d1 e2 3c bd 1f 3b 48 bd
       -0.09023869 -0.14404221 -0.046114746 -0.048884507
000260 8a f7 5f bd 0b 14 4b 3c ca fa 15 bd 26 4e c0 3d
       -0.05467943 0.012394915 -0.036616124 0.09389906
000270 54 ea 36 bd c7 7e bd 3d cf 0e 7e bd 6a 3b 86 bd
       -0.044657066 0.092526965 -0.06202584 -0.06554301
000280 a4 02 00 3e 8d e6 a4 bc bb b5 de bb 61 99 eb 3c
       0.12501007 -0.020129466 -0.0067965663 0.02875966
000290 95 5e c4 3d 79 e8 82 bd ae 44 b1 3d 06 49 47 ba
       0.095883526 -0.06391997 0.08655678 -0.0007602129
0002a0 7f 44 a7 bd fa 1e e5 bd 8f bc 22 3d df de cc bd
       -0.081673615 -0.11187549 0.039730605 -0.10003447
0002b0 fc a0 cc bc ad 91 e4 bc 48 02 07 bc 35 bd 96 bd
       -0.024979107 -0.027901495 -0.00824029 -0.07360307
0002c0 01 a3 97 bd e1 e0 28 3e f1 8f 25 3d 61 cf ad bd
       -0.074041374 0.16492034 0.040420476 -0.0848682
0002d0 91 89 81 3d ea 1b 4b bd 38 8f bc 3d ac 2f 9e 3c
       0.06325067 -0.049587168 0.09207004 0.019309841
0002e0 60 01 3e be 65 41 87 bb 3a bf 04 3c b6 f5 85 bd
       -0.18555212 -0.0041276687 0.008102233 -0.06541006
0002f0 d9 36 33 3d f2 f6 bb bd dc 62 94 bd b1 71 96 3d
       0.04375348 -0.091779605 -0.072454184 0.07345904
000300 34 9b 86 bc c7 75 e7 3d c4 3c e6 3d 8f c7 84 3d
       -0.016431428 0.11301761 0.11242059 0.06483375
000310 b9 d7 0e 3e 70 39 c0 3d d2 3a 93 bd a0 77 15 bd
       0.13949479 0.09385955 -0.071889535 -0.036491036
000320 4c 05 07 3d 6a a2 bf 3d 12 4d 46 bd 96 4c 0b 3e
       0.032964036 0.0935715 -0.048413344 0.13603434
000330 b7 bc b8 bc 08 da ae bd 71 1f 41 bd 89 d5 8d 3d
       -0.022550924 -0.0853768 -0.047149125 0.06925494
000340 f1 f8 07 bd 30 8e c0 3d 60 8a f3 3c 07 30 fc bd
       -0.033196393 0.0940212 0.029729068 -0.12313848
000350 c5 b7 65 bd b6 81 54 3d 6e 8e 8e bd 47 b4 88 bd
       -0.05608346 0.051881514 -0.0696076 -0.0667501
000360 b5 1b 4b be a9 15 1e 3e c9 e1 8f 3d 5b a4 d0 3d
       -0.19834788 0.1543795 0.07025487 0.10187598
000370 0d 9e 7a bd ec 0e 1f 3e 08 38 73 3c 56 5a 59 3d
       -0.061185885 0.15533036 0.014844902 0.053064667
000380 b8 24 7b 3d 85 02 c8 bd 39 a2 da bd 75 be 30 3d
       0.061314315 -0.097661056 -0.10675473 0.043150384
000390 4d 58 ec bc 53 8e 3c 3d dc 9c ad bd 51 91 4c bd
       -0.028850699 0.04603417 -0.08477184 -0.049943272
0003a0 ab 0a 9f 3d df ab 5a 3d 13 53 d6 bc 28 57 6b 3d
       0.07765707 0.053386565 -0.02616266 0.057456166
0003b0 34 55 d2 ba 47 84 f7 3d 01 db a6 bd fe c3 7e bb
       -0.0016047121 0.12085777 -0.081472404 -0.0038874145
0003c0 31 e1 ff 3d 8e 4d 88 bd cf 3f 80 3d 4f dc 2f be
       0.12494124 -0.066554174 0.062621705 -0.17173885
0003d0 d2 93 c5 3b 9f 8c 9d 3d fb aa 5d bc bb 11 67 3d
       0.0060295844 0.07692837 -0.013529534 0.056413393
0003e0 40 ca eb bc e7 59 03 be d9 df 27 bd 16 fe 23 bd
       -0.028782964 -0.12827264 -0.040984962 -0.040037237
0003f0 ac e7 a2 3d a9 0f 76 3d dd 61 a7 bd 1b fe 37 bd
       0.07954344 0.06007353 -0.08172963 -0.04492007

intersectionLayer.W f4 [48, 46]
000000 5c 35 41 3e db c4 12 be 0d f0 5c 3e d1 1b a3 3e
       0.18868011 -0.14332907 0.21575947 0.3185716
000010 4f a5 0d bc 41 7b b9 3d 42 43 95 bd 62 d8 fb bd
       -0.00864537 0.09056712 -0.07288219 -0.12297131
000020 54 60 1b bd f4 8a 45 3e da 9b 57 be a4 c2 20 be
       -0.037933663 0.19291288 -0.21055546 -0.1569925
000030 db 1d b0 bd 60 8d 11 3e 1d 14 08 3e 84 b2 bc 3b
       -0.085994445 0.14214087 0.13288923 0.0057585854
000040 50 2c 84 3e 21 25 e1 bd b1 99 bc 3c b3 a5 97 bd
       0.25815058 -0.1099341 0.023022505 -0.074046515
000050 9a 4b 18 be d4 d6 4b 3e 12 73 63 3e 80 68 a2 bc
       -0.1487259 0.19906169 0.22211865 -0.01982522
000060 c7 b3 0d be 65 d3 c4 bd b9 c0 30 be b4 1d 5a 3e
       -0.13838111 -0.09610633 -0.17261018 0.21300393
000070 bc a1 ac 3d 87 98 f9 bc 46 be 66 be 3a 44 3f 3c
       0.08429286 -0.030468239 -0.22533521 0.011673981
000080 84 6b 0a bd 95 a7 1d be 23 29 c3 bc ba ab 70 3e
       -0.03379394 -0.15395959 -0.023823326 0.23503008
000090 09 19 53 3e 2d 10 c6 bd 07 1d 41 3d e4 c7 3c be
       0.20615019 -0.09671054 0.047146823 -0.18435627
0000a0 0c 80 44 be 16 dc 8f bd 28 9d 11 3e 7c 11 65 be
       -0.19189471 -0.070244 0.14220107 -0.22369951
0000b0 5f bd f6 3c 45 08 1e be 3c 17 5e bd dc ab 2f 3e
       0.030119596 -0.15432842 -0.054221377 0.17155403
0000c0 c9 d3 0e bc 93 ae 9c bd 9b 12 08 3e 5b 6f 5e 3e
       -0.008717486 -0.07650485 0.13288347 0.21722166
0000d0 8d 42 11 3e ab 16 a5 bd 09 e7 be bd 3f e4 e8 3c
       0.14185543 -0.08060964 -0.0932141 0.028429149
0000e0 bb 10 d0 bd a3 37 51 be 32 7b 07 3d 7d ca 66 3e
       -0.10159441 -0.2043138 0.033076473 0.2253818
0000f0 da be ab bd b2 35 96 b8 53 5d 74 bd 11 57 17 be
       -0.083860114 -7.162559e-05 -0.059659313 -0.14779307
000100 2a 65 a6 3d 66 38 5c 3e 5b a1 22 be 20 7d 17 bd
       0.08124764 0.2150589 -0.15881865 -0.036984563
000110 35 b5 29 be d2 ed 09 be 62 48 32 be 34 51 6c be
       -0.16573031 -0.13469627 -0.17410424 -0.23077852
000120 b7 1a 27 be 4c 4d 04 be 6a 59 2e be ba 48 74 be
       -0.16318785 -0.12920111 -0.17026296 -0.23855868
000130 e2 41 5a be 2e e9 82 bd 67 0a 71 be 07 90 5f be
       -0.21314195 -0.06392132 -0.23539124 -0.21832286
000140 71 66 22 bd ca c6 65 3e 4e a1 7b 3c 8d 96 8c 3c
       -0.039648477 0.22439113 0.015358282 0.017161632
000150 ad 57 54 be 3f 36 64 3e 4a 93 09 bb 79 08 6d be
       -0.2073657 0.22286318 -0.0020992332 -0.23147763
000160 2c a9 55 be 67 f3 5d be 7b 34 3e 3e 39 8f 4b 3e
       -0.20865315 -0.21674882 0.18574707 0.19878854
000170 74 13 33 3e d3 c3 02 be ee 55 04 3e 51 3e a9 3d
       0.1748789 -0.12770014 0.12923405 0.08263839
000180 29 c4 7b be 37 e6 aa 3c d5 d1 e8 bd 74 ac 98 3d
       -0.24586548 0.020861728 -0.11368147 0.07454768
000190 52 85 89 3e 0f 26 59 be 66 36 e8 bd 05 21 e7 3d
       0.26859528 -0.21205924 -0.11338501 0.11285595
0001a0 6e f4 14 be 9f af 45 3e 91 8b 14 bd 0c 2d da bd
       -0.14546368 0.19305275 -0.036265913 -0.10653123
0001b0 99 98 82 3d 63 8c 65 bd f3 62 ad bd e2 2a 20 3e
       0.06376762 -0.056042086 -0.08466139 0.15641358
0001c0 b2 ce f9 3c 29 2f 50 3e 94 be a1 3d 82 68 59 be
       0.030494068 0.2033049 0.07897678 -0.21231273
0001d0 95 c4 d7 3d 51 da b6 3c 58 57 3c 3d af eb 7d bd
       0.10535542 0.022320898 0.045981735 -0.061992344
0001e0 cb 07 74 3d f7 b2 79 be ed 73 ec bc cf b9 ff 3b
       0.059577744 -0.24384676 -0.028863871 0.0078041325
0001f0 9e a0 27 3d bd 5c 75 3e a3 96 8a 3d 38 9b a4 bd
       0.04092466 0.23961158 0.06767013 -0.08037418
000200 60 91 e6 bd ca 06 51 bd 11 97 3d be ef 1d 32 bc
       -0.11258197 -0.051031865 -0.18514659 -0.010871395
000210 7d a0 12 be da 60 46 be 30 61 bb 3c 16 91 b7 bc
       -0.14319034 -0.19372883 0.022873491 -0.02240805
000220 22 df f0 3d 47 92 b1 bc 2e ef c1 bd 9e b3 6d be
       0.11761309 -0.021676196 -0.09469448 -0.2321305
000230 ff 7f 56 be 29 64 ef 3d 3c dc bc 3d eb c8 11 3e
       -0.20947264 0.11689026 0.09221694 0.142368
000240 d9 77 49 be 38 5c d5 3d 20 b0 43 3e d4 21 27 3e
       -0.19674625 0.1041798 0.19110155 0.16321498
000250 5d c4 43 3e 3b c7 b2 bc 82 07 84 3e f9 51 bb bd
       0.19117875 -0.021823516 0.25786978 -0.091464944
000260 11 11 ec bd 0d 48 67 be f1 20 f5 3c 20 b1 54 be
       -0.11526693 -0.22586079 0.029922934 -0.20770693
000270 c3 7b 50 be 50 59 58 3d 60 86 91 3c 75 c0 70 be
       -0.20359711 0.05281955 0.01776427 -0.23510917
000280 70 6f 3a 3e e2 a2 5a bb da b0 4d 3e b3 a9 4d 3d
       0.18206573 -0.0033361246 0.20086995 0.050210666
000290 e3 42 1c be ed 24 18 be 9d 43 b9 bb a0 4a 6a be
       -0.1525989 -0.14857836 -0.005653812 -0.2288003
0002a0 78 6d 66 3e bd 14 3b 3e 65 45 97 3c dd 7d 51 3e
       0.22502697 0.1826963 0.018465707 0.2045817
0002b0 de b8 32 3c 23 41 67 bd bd f3 5d 3e 01 eb 40 bd
       0.010908334 -0.056458604 0.2167501 -0.047099117
0002c0 3f 5c 26 3e 64 fc 8c bd 5e 6a c2 bd 7e cb f0 3c
       0.16246127 -0.06884077 -0.09492944 0.029393908
0002d0 4d cb 65 3d 4a 39 0f 3e dd 2b c4 bb e6 dc 82 3e
       0.056102086 0.13986698 -0.005986674 0.25559157
0002e0 b0 aa c5 3d 47 68 69 3e 85 e7 46 be c9 d1 34 3e
       0.09651697 0.22793685 -0.19424255 0.17658152
0002f0 c9 eb 26 be 28 97 f8 bd e3 e2 19 3e cc cb 57 3e
       -0.16300882 -0.12138206 0.15027957 0.21073836
000300 b3 2e 48 3d a2 ae 67 be 6b 59 37 3d 15 24 0a 3e
       0.04887266 -0.22625211 0.04476301 0.13490327
000310 d2 6b 08 3e 40 09 a9 ba da bb e9 3d 17 4a 95 3e
       0.1332238 -0.0012896433 0.11412783 0.2915809
000320 f6 c3 5c 3e 42 53 e8 bd c1 9c 13 3d 1f 7f 16 be
       0.21559128 -0.11344005 0.036038164 -0.1469693
000330 57 f2 76 3d c3 d1 9c 3c 92 0e bd 3d f3 17 5b bd
       0.060289707 0.019142991 0.09231295 -0.053489637
000340 a5 89 a4 3c cb 87 c8 3c 1b 86 54 be 7f dc c9 bd
       0.020085165 0.024478814 -0.20754282 -0.098565094
000350 fc 33 b8 bd 5d e2 37 3d a2 29 70 3e 18 48 46 be
       -0.0899429 0.04489361 0.23453382 -0.19363439
000360 1d 33 af 3c bd c7 06 be 7c 86 8e be ab 79 80 3c
       0.021386677 -0.13162132 -0.27836978 0.015683016
000370 b5 54 01 3e 56 20 4a 3e 48 1f 36 3d 53 5c 99 3d
       0.1262997 0.19738898 0.044463426 0.074883126
000380 76 be 5c 3e e7 5e 4b 3e 70 52 66 bd c0 46 00 be
       0.2155703 0.19860421 -0.056230962 -0.12526989
000390 b4 2b 5a bd c3 e0 b3 bd 5c 88 2f 3e a3 8d 7c bd
       -0.053264335 -0.08783104 0.1714186 -0.061658513
0003a0 f6 74 c3 3d 65 7d 82 3e d9 eb 4b 3e 04 0b 4c 3e
       0.09543793 0.25486293 0.19914187 0.19926077
0003b0 31 28 68 bd b8 0c 23 be a4 42 ce bd e5 72 3e be
       -0.056678955 -0.1592282 -0.100713044 -0.18598516
0003c0 77 4b 04 3d ce cd 1c 3e fd f0 57 be bc 3f 38 be
       0.03229853 0.15312883 -0.21088023 -0.17993063
0003d0 64 5c ba bd e3 5c ae 3d 57 52 1d be fb 14 80 3e
       -0.09099653 0.085138105 -0.15363441 0.25016007
0003e0 ad 6f 58 be 02 64 7b 3c ef 0b 81 3e 71 ca c9 bd
       -0.21136351 0.015343668 0.25204417 -0.09853066
0003f0 89 47 19 3e b0 2f cc 3d 30 62 45 bc 22 d9 0c 3e
       0.14968695 0.09970033 -0.0120473355 0.13754705
