test/model/actor_4_3_3_3_3_10_best_rou2.pth (torch, 689372 bytes, 17 tensors)

v2lLayer.W f4 [3, 40]
0	0x3e1c151a	0.15242425
1	0xbe26fa10	-0.16306329
2	0xbda56276	-0.080754206
3	0x3e185406	0.14875802
4	0xbebc46c8	-0.36772752
5	0x3e7bff80	0.24609184
6	0xbde2a1a2	-0.11065985
7	0x3e37b41f	0.17939804
8	0x3d75afd5	0.05998214
9	0xbd5f7d9a	-0.054563142
10	0x3d834859	0.064102836
11	0x3ca7d7e8	0.020488694
12	0x3e03645c	0.12831253
13	0xbe2f75a3	-0.17134719
14	0xbd36e7a6	-0.04465451
15	0xbc3f52c8	-0.011677451
16	0x3c9e4c43	0.019323474
17	0xbc46cec4	-0.012134258
18	0x3eab5585	0.33463684
19	0x3ddbedcb	0.10738715
20	0xbe359c9c	-0.17735523
21	0xbe6764e6	-0.22597083
22	0xbd8eca69	-0.069722004
23	0xbe3eedc3	-0.18645386
24	0xbe0bc331	-0.13648678
25	0x3d22ddfe	0.03976249
26	0x3e3fd6c4	0.1873427
27	0x3e450766	0.19241104
28	0xbeb7a591	-0.35868505
29	0x3e64213f	0.22278307
30	0x3d8566a1	0.065137155
31	0x3eb5078d	0.35357323
32	0x3e74cba5	0.23905809
33	0xbeba17d5	-0.36346307
34	0xbebe477a	-0.37163907
35	0xbe21a94d	-0.1578724
36	0x3e961648	0.29313874
37	0xbd950b3f	-0.07277536
38	0x3e2b52b6	0.1673077
39	0xbe3a27f1	-0.18179299
40	0x3eb767f4	0.35821497
41	0xbe3f0287	-0.18653308
42	0x3e90195d	0.2814435
43	0x3c117236	0.008877328
44	0xbe4daa82	-0.20084575
45	0x3e4b8b14	0.19877273
46	0xbe6366ea	-0.22207227
47	0x3de91158	0.11380261
48	0xbdde5681	-0.10856343
49	0xbd3de97e	-0.046365254
50	0xbebcce84	-0.3687631
51	0xbe53c0c0	-0.20678997
52	0x3e50e729	0.2040068
53	0xbdb0a5f7	-0.08625405
54	0x3ebc44d0	0.3677125
55	0x3e9cbcdd	0.3061284
56	0xbd30c492	-0.043156214
57	0xbe7b90c6	-0.24566945
58	0x3e68f204	0.22748572
59	0x3de23499	0.110451885
60	0xbe80992b	-0.25116858
61	0x3e5d3367	0.2160164
62	0x3e699c3b	0.22813503
63	0x3eabf3e6	0.33584517
64	0xbe5abad3	-0.2136033
65	0xbd601806	-0.05471041
66	0xbcffb4c7	-0.031214131
67	0x3d6fd57c	0.058553204
68	0xbe913cd1	-0.28366712
69	0xbe8a862c	-0.2705549
70	0x3e446c44	0.19181925
71	0xbde8416b	-0.113406025
72	0x3e3c3707	0.18380366
73	0x3cd365ff	0.025805471
74	0x3df25538	0.118326604
75	0x3db63b44	0.08898023
76	0x3de20d9a	0.110377505
77	0x3e417c5f	0.188951
78	0xbeb18ee8	-0.3467934
79	0x3e3b0658	0.18264139
80	0xbe940785	-0.28911987
81	0xbe9abb4f	-0.3022103
82	0x3c8cd7db	0.017192772
83	0xbda22f1c	-0.07919142
84	0x3e552c3e	0.20817658
85	0xbe492f59	-0.19646968
86	0xbeb92d8e	-0.36167568
87	0x3e86c7d0	0.2632432
88	0xbd4e0207	-0.050294902
89	0x3e4caa00	0.19986725
90	0x3dc04549	0.09388215
91	0xbe994eea	-0.2994302
92	0x3d8e56ea	0.06950171
93	0x3d9a1e35	0.07525293
94	0xbe862525	-0.26200214
95	0xbe21be8c	-0.15795344
96	0x3dc58af3	0.09645643
97	0x3d6e30cb	0.058152
98	0xbe1d6791	-0.15371539
99	0xbdfc9231	-0.12332571
100	0x3ea1f899	0.31634977
101	0xbdbaed67	-0.09127312
102	0x3e529fe6	0.20568809
103	0x3e17096f	0.14749692
104	0xbe8191b3	-0.25306472
105	0xbe98bc51	-0.29831174
106	0x3ea7896d	0.32722035
107	0x3c334f2d	0.01094417
108	0x3e84ce3d	0.25938597
109	0x3d892944	0.06697324
110	0x3dc0cd8b	0.09414204
111	0x3e840cee	0.25791115
112	0x3eb2b2f1	0.34902146
113	0xbe843377	-0.25820515
114	0x3d121b9c	0.03567086
115	0x3e98e921	0.29865363
116	0x3e7568e0	0.23965788
117	0x3e64c0a6	0.22339115
118	0xbe88254e	-0.2659096
119	0xbe8e5b17	-0.2780387

v2lLayer.a f4 [80, 1]
0	0xbe3e182c	-0.18563908
1	0x3d5f2a4b	0.054483693
2	0x3e7fbd00	0.24974442
3	0xbe41f6e2	-0.18941835
4	0x3e28a329	0.1646849
5	0xbe2e9e26	-0.17052516
6	0xbe70d0d5	-0.23517163
7	0xbd9f73fa	-0.07785793
8	0x3e345ae9	0.17612804
9	0x3e6faafb	0.23405068
10	0xbe1f422c	-0.15552586
11	0x3da40052	0.080078736
12	0x3e5b7e3d	0.21434875
13	0x3e4c68a1	0.19961788
14	0x3e1b0ee6	0.15142402
15	0x3e3c9cc5	0.18419178
16	0x3e1d4412	0.15357998
17	0x3dbb71d5	0.09152571
18	0xbe53094f	-0.2060902
19	0xbe7e0e3c	-0.24810117
20	0xbdd96271	-0.10614479
21	0xbcabe590	-0.020983487
22	0xbe40d903	-0.18832783
23	0x3d9e8a76	0.07741253
24	0x3dd6c50a	0.10486801
25	0xbd2913c5	-0.04127862
26	0x3dae6066	0.0851448
27	0x3d8cd881	0.06877232
28	0x3e3eb9c1	0.18625547
29	0x3e31b416	0.17353854
30	0xbde6f720	-0.11277604
31	0x3e7d0ad4	0.24711162
32	0xbd53b704	-0.05168821
33	0x3c20c91d	0.009813574
34	0xbe764603	-0.24050145
35	0xbe4924a1	-0.19642879
36	0xbe3730e3	-0.17889743
37	0xbe0d0c88	-0.13774312
38	0x3e5cea6c	0.215738
39	0xbd933ae4	-0.07188967
40	0xbe553585	-0.20821197
41	0x3e11d728	0.14242232
42	0x3db7ef5d	0.08981202
43	0x3e266793	0.16250448
44	0xbdb040a1	-0.08606077
45	0x3d0d8a5e	0.034555785
46	0xbd2bdcca	-0.041958608
47	0xbda9cdd4	-0.08291212
48	0xbe5fe2dd	-0.21863885
49	0xbe0863bb	-0.13319294
50	0xbdb49b68	-0.08818704
51	0x3e3034c4	0.17207628
52	0xbba331c4	-0.0049802978
53	0x3df115d3	0.11771741
54	0x3e8dc96e	0.2769274
55	0x3e8a6a7c	0.27034366
56	0x3e334cb9	0.17509736
57	0x3bd50ffe	0.0065021506
58	0xbe76150e	-0.24031469
59	0x3e344ea7	0.17608128
60	0xbd9357df	-0.071944945
61	0xbc5eb4df	-0.013592928
62	0xbe805d1f	-0.25071046
63	0xbd5570bd	-0.05210947
64	0xbdf33698	-0.11875647
65	0x3e8ce4bb	0.27518257
66	0xbe7da7db	-0.24771063
67	0xbe6b9c56	-0.23008856
68	0x3d27549c	0.040852174
69	0xbe1e0e06	-0.15435037
70	0x3d3ac7c1	0.045600656
71	0xbdec5a23	-0.1154063
72	0xbe203632	-0.15645674
73	0x3ce0e199	0.027451323
74	0x3e53bc57	0.20677315
75	0xbe469ae8	-0.1939503
76	0x3ddd49a5	0.10805062
77	0x3e086b8f	0.1332228
78	0x3e89e4f1	0.2693248
79	0xbe39654e	-0.18105051

laneLayer.W f4 [12, 12]
0	0x3dcca718	0.09992808
1	0xbec8217d	-0.3908805
2	0x3ecf34ef	0.40470073
3	0xbe278267	-0.16358338
4	0x3e8d727f	0.27626416
5	0x3d267c2f	0.040645774
6	0xbc06a56f	-0.008218153
7	0xba018e75	-0.0004942187
8	0x3d766458	0.06015429
9	0x3e59306b	0.21209876
10	0x3d8c94d6	0.06864326
11	0x3e0af2bd	0.1356916
12	0xbee73e60	-0.45164776
13	0x3eb98a4e	0.3623833
14	0x3ee44644	0.44584858
15	0x3ed20354	0.41018164
16	0x3ebe5035	0.37170568
17	0xbec79eb0	-0.38988256
18	0xbe587f36	-0.21142277
19	0x3edccb29	0.4312375
20	0xbebab526	-0.3646633
21	0x3eecf164	0.46277916
22	0xbebe129a	-0.37123567
23	0xbeafd659	-0.34343222
24	0x3e472b12	0.19450024
25	0xbed1807c	-0.40918338
26	0xbe28ea12	-0.1649554
27	0x3ed67f79	0.4189413
28	0x3eaf649d	0.3425645
29	0x3f05b9d0	0.5223665
30	0xbd401ba2	-0.046901353
31	0xbeae637b	-0.34060273
32	0x3ee13c25	0.439912
33	0xbe2301b7	-0.15918623
34	0xbe2f69f2	-0.17130259
35	0x3da43982	0.08018781
36	0xbeb306ee	-0.34966224
37	0x3ea84384	0.3286401
38	0x3ea0718e	0.31336635
39	0xbecb2196	-0.39674062
40	0xbed24576	-0.4106862
41	0xbd3365c0	-0.04379821
42	0x3e570d94	0.21001273
43	0xbc6d4200	-0.014481068
44	0xbe81cfd6	-0.2535388
45	0x3c3b4a00	0.011431217
46	0xbef09f66	-0.4699661
47	0xbeb4ee4a	-0.3533805
48	0xbeaf00a1	-0.34180167
49	0x3ece3cdf	0.40280816
50	0x3ed812c1	0.42201808
51	0xbe1a6e1a	-0.15081063
52	0x3bf50fc9	0.0074786884
53	0x3e7e4aa2	0.24833158
54	0x3dacb678	0.08433241
55	0xbe68bd8f	-0.22728561
56	0x3e891f44	0.26781666
57	0x3e9459d4	0.28974783
58	0xbcf9456b	-0.030428609
59	0xbda06d23	-0.07833316
60	0x3ee2277a	0.44170743
61	0x3ed94adc	0.42439926
62	0xbe901dd4	-0.28147757
63	0x3efbb820	0.49163914
64	0x3dfa1c7f	0.122124664
65	0xbeb16eb1	-0.34654763
66	0x3e86615e	0.2624616
67	0xbec296d8	-0.3800571
68	0x3eef39aa	0.46723682
69	0xbea32c83	-0.31869897
70	0x3e221440	0.15828037
71	0x3e1e3cf8	0.15452945
72	0x3ddd0b58	0.10793179
73	0x3eceb395	0.40371385
74	0xbe51e9dc	-0.20499367
75	0xbe56a94c	-0.20963019
76	0xbede71f7	-0.43446323
77	0xbd05a5fd	-0.032629002
78	0xbe7f99f0	-0.24961066
79	0x3c2d1d18	0.0105660185
80	0xbdc6c45d	-0.09705422
81	0x3e2c841c	0.1684727
82	0x3ee5c797	0.44878837
83	0x3e17e26c	0.14832467
84	0xbe24ef90	-0.16107011
85	0xbe7b3c88	-0.2453481
86	0xbedf456c	-0.43607652
87	0x3ed76910	0.42072344
88	0xbdc1fc98	-0.094720066
89	0x3dceb318	0.10092753
90	0x3c978400	0.01849556
91	0xbea323f0	-0.31863356
92	0x3e902ca8	0.2815907
93	0x3e8f779a	0.28020936
94	0x3cce4640	0.025179982
95	0xbe917b62	-0.28414446
96	0xbe598d5c	-0.2124533
97	0x3be1a000	0.0068855286
98	0xbe924328	-0.2856686
99	0xbe8ed65a	-0.27897912
100	0xbd98bf40	-0.07458353
101	0xbe136e3c	-0.1439752
102	0x3dfb5f50	0.12274039
103	0xbe0693b0	-0.13142276
104	0xbd87bea0	-0.06628156
105	0xbe436bc4	-0.19084078
106	0xbee9f2c4	-0.45693028
107	0x3edf43b6	0.43606347
108	0x3db15b51	0.08659995
109	0x3ee06b9f	0.43832108
110	0xbdb2d2d7	-0.08731621
111	0xbdf1c1e0	-0.11804557
112	0xbef33980	-0.47504807
113	0xbe35f545	-0.17769344
114	0x3eaccfc1	0.33752254
115	0xbef234eb	-0.47305998
116	0xbe3bb463	-0.18330531
117	0x3e982e77	0.2972295
118	0x3e92ca6b	0.28670058
119	0x3e38d773	0.18050937
120	0xbd956724	-0.07295063
121	0xbc41eb46	-0.011835879
122	0xbd8c9014	-0.06863418
123	0xbe5184b5	-0.2046078
124	0x3e6e9f3d	0.23302932
125	0xbe4e1ea1	-0.20128872
126	0xbe9f826f	-0.311542
127	0x3e05a4fd	0.1305122
128	0xbeaa56d0	-0.33269358
129	0xbda38353	-0.079840325
130	0x3e9564d9	0.29178503
131	0x3e601d8f	0.21886276
132	0x3ed4ee5b	0.415881
133	0xbeb39d93	-0.35081157
134	0x3b2e6c0f	0.00266147
135	0xbe0fc336	-0.14039311
136	0xbe92197f	-0.28535077
137	0xbe92e9ea	-0.28694087
138	0x3e024ebe	0.1272535
139	0x3d3caad2	0.046061344
140	0xbe8483a6	-0.2588169
141	0xbeb69963	-0.356639
142	0xbed15b66	-0.40890044
143	0x3ef75e55	0.48314157

l2pLayer.W f4 [12, 88]
0	0xbcfd9620	-0.030955374
1	0xbd5a23b2	-0.053256698
2	0xbdc5265d	-0.09626458
3	0xbdf83afa	-0.12120624
4	0xbe505b7e	-0.20347401
5	0xbe2b4e8e	-0.16729185
6	0x3e246300	0.1605339
7	0x3d0640db	0.032776695
8	0xbdbbc87b	-0.09169098
9	0xbdd8ead5	-0.10591666
10	0x3e1726f7	0.14760958
11	0x3e334c5a	0.17509595
12	0x3e7291cc	0.2368843
13	0x3d842ec6	0.06454234
14	0x3dde2280	0.10846424
15	0xbc19431c	-0.009354379
16	0xbe30a127	-0.17248975
17	0xbe5d65e2	-0.21620896
18	0x3e2d797b	0.16940872
19	0xbd7b63fb	-0.061374646
20	0x3de60b50	0.112326264
21	0x3c59511e	0.013263969
22	0xbe5f0b68	-0.21781695
23	0xbdee5c36	-0.116386816
24	0x3d87339a	0.06601639
25	0xbd4601d0	-0.048341572
26	0xbe5eb76f	-0.21749662
27	0x3d7b0a17	0.06128892
28	0x3ca61c34	0.02027712
29	0xbdcc249a	-0.09967919
30	0x3dbfc401	0.09363557
31	0x3d1b4c14	0.03791435
32	0xbdcb8377	-0.09937184
33	0x3e5f126d	0.21784373
34	0x3dff4b8e	0.12465583
35	0x3cc62eaf	0.024192182
36	0xbd605856	-0.054771744
37	0xbe5652af	-0.20929979
38	0x3e2493b0	0.16071963
39	0xbd1ea7a1	-0.038734082
40	0xbe1193f5	-0.14216597
41	0x3e005d59	0.1253561
42	0x3dcaa392	0.0989448
43	0x3d7edd21	0.062222604
44	0xbd19fd16	-0.037594877
45	0xbd931a64	-0.07182768
46	0x3d16d996	0.0368286
47	0x3e4430ae	0.19159195
48	0x3d61400d	0.054992724
49	0xbe0e3400	-0.13887024
50	0x3e8236a1	0.25432304
51	0xbc80e6aa	-0.01573499
52	0x3e40b1c0	0.18817806
53	0x3d396c23	0.045269143
54	0x3e592a75	0.21207602
55	0x3e0faab4	0.14029962
56	0xbdfcb9cd	-0.12340126
57	0x3e274e6a	0.16338506
58	0xbbe26a3c	-0.006909637
59	0xbe3f6d9c	-0.18694156
60	0xbda4178e	-0.08012305
61	0xbe48fbc1	-0.19627286
62	0xbdcead55	-0.10091654
63	0xbe4cc303	-0.19996266
64	0x3e37fdc3	0.17967896
65	0xbd4c8177	-0.049928155
66	0xbcfeb8d5	-0.031093994
67	0x3df89401	0.121376045
68	0x3dc1d7e1	0.09465004
69	0xbe24e683	-0.16103558
70	0x3de19b80	0.110159874
71	0x3da21d06	0.07915692
72	0xbe3ceb2f	-0.1844909
73	0x3e44730b	0.1918451
74	0xbe1e8616	-0.15480837
75	0xbde14c5d	-0.11000893
76	0xbe554550	-0.20827222
77	0x3e635f66	0.2220436
78	0x3d40a4bb	0.0470321
79	0x3e4d3d98	0.20043027
80	0x3be1be8c	0.00688917
81	0x3e0f7aee	0.14011738
82	0xbdd88a72	-0.10573281
83	0xbe31d184	-0.1736508
84	0x3d70456e	0.058659963
85	0xbd60a036	-0.05484029
86	0xbc4f5f16	-0.012656948
87	0xbdf613ae	-0.12015472
88	0x3c2e28fd	0.01062989
89	0x3da76b04	0.081747085
90	0x3dba3f3b	0.090940915
91	0xbe3f29ff	-0.18668364
92	0x3e0f56e0	0.13997984
93	0xbc7ee95f	-0.01555857
94	0x3e3ad218	0.18244207
95	0x3e159d4c	0.14610785
96	0xbe434e48	-0.1907283
97	0x3e64baaf	0.22336839
98	0xbe7d69a0	-0.24747324
99	0x3e197e56	0.149896
100	0x3cc9c1fc	0.024628632
101	0x3dd0aaec	0.10188851
102	0xbe18c505	-0.14918907
103	0x3e1723fa	0.14759818
104	0xbe2041af	-0.15650056
105	0xbe460afe	-0.1934013
106	0x3dd66188	0.10467821
107	0x3dbef5f7	0.09324258
108	0x3e8174db	0.25284466
109	0xbca584e6	-0.020204972
110	0x3e76deae	0.24108383
111	0x3e2d138a	0.16901985
112	0xbdf14885	-0.1178141
113	0xbe37c024	-0.1794439
114	0x3e22135c	0.15827698
115	0xbe33cf2b	-0.17559497
116	0x3e00a1cc	0.1256172
117	0xbe719dd0	-0.23595357
118	0x3e38d740	0.18050861
119	0x3d7b61d1	0.061372582
120	0xbd0e6a0d	-0.034769107
121	0x3df7fd02	0.12108804
122	0xbe2acef4	-0.16680509
123	0xbd88d65a	-0.06681509
124	0xbc4fa609	-0.012673863
125	0xbe132e62	-0.14373162
126	0xbdc84dd3	-0.09780469
127	0xbda645b0	-0.081187606
128	0x3e82be21	0.25535682
129	0x3e2aa2eb	0.16663711
130	0x3e62a577	0.22133432
131	0x3e52b99d	0.20578618
132	0xbe6acabe	-0.22928903
133	0x3dbfaca3	0.093591
134	0x3dbf1795	0.0933067
135	0xbe2dc61c	-0.16970104
136	0x3df6ab05	0.12044338
137	0xbe30c673	-0.17263202
138	0x3d54fbe9	0.051998053
139	0x3d5f6546	0.05453994
140	0x3e5a8ac4	0.21341997
141	0xbe0ffc8a	-0.1406118
142	0xbe4bd351	-0.1990483
143	0x3e7192ee	0.23591205
144	0x3de1ff52	0.110350266
145	0x3dd6921e	0.104770884
146	0x3d9268a2	0.071488634
147	0xbdb28380	-0.08716488
148	0x3de5fb31	0.112295516
149	0xbe41fbf8	-0.18943775
150	0x3d6aa41b	0.05728541
151	0x3d8ef9a2	0.069812074
152	0x3e35b819	0.17746009
153	0xbdef26e5	-0.116773404
154	0xbe23a7ce	-0.15981981
155	0x3dd3cf3b	0.103422605
156	0xbe42aa87	-0.19010364
157	0xbe45fd9d	-0.19335027
158	0xbe4b89a2	-0.19876722
159	0xbe242d4e	-0.16032907
160	0xbd0ab34a	-0.03386239
161	0xbe30320e	-0.17206594
162	0xbdcec5de	-0.10096334
163	0xbe6a8064	-0.2290054
164	0x3e141884	0.14462477
165	0xbd410f27	-0.04713359
166	0xbe171642	-0.14754584
167	0x3d516b33	0.051127624
168	0xbe4ad603	-0.19808201
169	0x3e2f31dd	0.17108865
170	0x3dd8d0ee	0.10586725
171	0xbe61f994	-0.22067863
172	0xbe2df64e	-0.16988489
173	0xbe501a89	-0.20322622
174	0xbdfafda2	-0.12255408
175	0x3d110912	0.03540904
176	0xbe6c0170	-0.23047423
177	0xbe3734c1	-0.17891218
178	0x3dd8efd0	0.105926156
179	0xbda72ecd	-0.081632234
180	0xbdbbb7c1	-0.09165908
181	0xbe4fca87	-0.20292102
182	0x3de74f81	0.11294461
183	0x3b714adb	0.00368183
184	0xbdb7abfb	-0.089683495
185	0xbe2148a7	-0.15750371
186	0x3d43a234	0.04776211
187	0x3d69de06	0.057096504
188	0x3de75ce6	0.11297016
189	0x3d84e64e	0.0648924
190	0xbd467a8a	-0.048456706
191	0xbe4027a9	-0.18765129
192	0x3e0eccf8	0.13945377
193	0x3ca2d71b	0.01987796
194	0xbe11bee3	-0.14232974
195	0x3e4bf23a	0.19916621
196	0x3e124e31	0.1428764
197	0xbe414a55	-0.18876012
198	0xbde3df3f	-0.11126565
199	0xbda2a013	-0.07940688
200	0xbe11e79d	-0.1424851
201	0x3de75ce6	0.11297016
202	0xbe2df81b	-0.16989176
203	0x3e6bb2ae	0.2301738
204	0xbdb6cf09	-0.089262076
205	0x3e055fc5	0.13024814
206	0x3c5644d4	0.013077933
207	0xbdedb814	-0.11607376
208	0x3e227fc1	0.15869047
209	0xbe49e1c7	-0.19715033
210	0xbdfe289c	-0.124100894
211	0x3cb1c68c	0.02170112
212	0x3e3d45a6	0.184836
213	0xbde0e320	-0.10980821
214	0xbe295a4c	-0.16538352
215	0xbe0f507c	-0.13995546
216	0xbdbeb6c3	-0.09312203
217	0xbdca1923	-0.09868076
218	0xbd4db416	-0.05022057
219	0xbe0a571d	-0.13509794
220	0x3db37fd3	0.08764615
221	0x3bef9638	0.0073116086
222	0xbe27f9a2	-0.16403821
223	0xbe0f439d	-0.13990636
224	0x3d6de5b8	0.058080405
225	0xbb0f6493	-0.0021880015
226	0x3e3e60d5	0.18591626
227	0xbd51ad57	-0.0511907
228	0xbe471d60	-0.194448
229	0xbe439035	-0.1909798
230	0xbd926850	-0.07148802
231	0xbd81c497	-0.06336325
232	0x3d075400	0.033039093
233	0xbd8496ee	-0.064741
234	0x3da82ec7	0.08212047
235	0xbda35169	-0.07974512
236	0x3e264cf6	0.16240296
237	0x3d96643d	0.07343338
238	0xbd4088b1	-0.04700536
239	0x3e5181a9	0.20459618
240	0x3d8e9cf5	0.06963531
241	0xbe263ae3	-0.16233401
242	0xbdfe752c	-0.124246925
243	0x3e21bed2	0.15795448
244	0x3ddab1e4	0.10678461
245	0x3e4146e2	0.18874696
246	0xbc6254ad	-0.013814134
247	0x3e32f304	0.17475516
248	0x3e0cf21c	0.13764232
249	0x3d7d2550	0.061803162
250	0xbd583ca1	-0.052792195
251	0x3e67c588	0.22633946
252	0x3d5b6180	0.05355978
253	0xbd95b929	-0.07310707
254	0x37b2fc81	2.1336835e-05
255	0x3e6f99bc	0.23398489

l2pLayer.a f4 [176, 1]
0	0xbcf4e608	-0.029894844
1	0xbdac59b9	-0.08415551
2	0xbda82472	-0.082100764
3	0xbde5508c	-0.11197004
4	0xbe03976f	-0.12850736
5	0xbdeaf451	-0.11472381
6	0x3e34cec0	0.17656994
7	0xbdb1a5b5	-0.08674184
8	0xbe1cc724	-0.15310341
9	0x3e019307	0.12653743
10	0x3d923fc8	0.071410716
11	0x3e01aaf0	0.12662864
12	0xbe3b8fec	-0.1831662
13	0xbe337031	-0.17523266
14	0xbe05ce9f	-0.13067101
15	0xbdc6a178	-0.096987665
16	0xb9d51d27	-0.00040648246
17	0x3da31223	0.07962444
18	0x3ddcb8ee	0.1077746
19	0xbe223167	-0.15839158
20	0x3d965e24	0.07342175
21	0xbdda10b0	-0.10647714
22	0x3d2d5af5	0.04232307
23	0x3d6cbaa9	0.0577952
24	0x3cf1a337	0.029496772
25	0x3d85684a	0.06514032
26	0xbc16bf9c	-0.009200957
27	0x3df8fb7f	0.12157344
28	0x3d1d47e8	0.038398653
29	0x3e252b84	0.16129881
30	0x3d2381f7	0.039918866
31	0xbdc7a019	-0.09747333
32	0x3df21fa4	0.11822441
33	0x3c2353a6	0.009968674
34	0x3e3631c7	0.17792426
35	0xbca6bee4	-0.020354696
36	0x3e3a86eb	0.1821553
37	0xbddc2251	-0.10748733
38	0x3dbd8722	0.0925429
39	0xbe0ca93e	-0.13736436
40	0x3e0168c0	0.12637615
41	0x3d08de7b	0.0334153
42	0x3dd61181	0.10452557
43	0xbe225cf6	-0.15855774
44	0xbe3b83c7	-0.18311988
45	0x3db5ac60	0.088707685
46	0xbd9b2860	-0.0757606
47	0x3d9550d4	0.07290807
48	0xbddfb63f	-0.109234326
49	0xbd6914c8	-0.056904584
50	0x3a55d2ad	0.00081566983
51	0x3de30be6	0.11086254
52	0x3dd4d924	0.10392979
53	0xbc867724	-0.016414233
54	0xbd5555cc	-0.052083775
55	0xbb534164	-0.003223502
56	0x3dc24dc6	0.0948749
57	0xbe1fc9f7	-0.15604387
58	0xbd6656d6	-0.056235157
59	0xbe35bd91	-0.17748095
60	0x3cd993cb	0.026559731
61	0xbcb251ff	-0.021767614
62	0x3dd5a6f5	0.10432235
63	0x3e169aa5	0.1470743
64	0xbe213424	-0.15742546
65	0xbda6e9fb	-0.08150097
66	0xbcf252fd	-0.029580588
67	0xbaf159e7	-0.0018413634
68	0xbd2c020f	-0.04199415
69	0xbded0ffc	-0.115753144
70	0xbd91aace	-0.071126565
71	0xbb9bbf33	-0.0047530173
72	0x3e17a25f	0.14808033
73	0xbd401a92	-0.04690034
74	0x3df90d73	0.12160768
75	0xbe186235	-0.14881213
76	0x3c06e612	0.008233564
77	0xbe132242	-0.14368537
78	0xbe30ec12	-0.17277554
79	0x3c9558b0	0.018230766
80	0xbdaca798	-0.084304035
81	0x3e0ac7eb	0.13552825
82	0x3e14ee87	0.14544116
83	0xbe3ba0dc	-0.18323082
84	0xbc526c11	-0.012843148
85	0xbd00e39c	-0.031467065
86	0xbdd6e346	-0.10492568
87	0xbe03a0a8	-0.12854254
88	0xbda4aac0	-0.080403805
89	0x3dbce5d4	0.09223524
90	0x3d40df08	0.0470877
91	0x3de2b534	0.11069718
92	0xbaf67883	-0.0018804226
93	0x3dd442c7	0.10364299
94	0x3ca06600	0.019579887
95	0xbd42a6b9	-0.04752228
96	0xbbb06f8f	-0.0053843926
97	0xbe1d0f35	-0.15337832
98	0xbc42a19c	-0.011879351
99	0xbd8c1e5b	-0.06841727
100	0xbd8e3f70	-0.069456935
101	0xbd9b3b23	-0.07579639
102	0xbd2a58e2	-0.04158867
103	0xbdf89547	-0.121378474
104	0xba5ba101	-0.00083781785
105	0x3a30f798	0.00067507615
106	0xbd2ca8e3	-0.04215325
107	0x3e1d8590	0.15382981
108	0x3dec343e	0.11533402
109	0x3d452275	0.048128564
110	0xbd683ba7	-0.056697514
111	0x3d282d43	0.04105879
112	0xbe0ee4f2	-0.13954523
113	0x3df9ff85	0.122069396
114	0x3e3de2b1	0.18543507
115	0xbcd48a59	-0.025944876
116	0x3e0d017e	0.137701
117	0x3e235a1a	0.1595234
118	0xbc846277	-0.016160233
119	0xbd9c7f79	-0.07641501
120	0x3c407e99	0.011748933
121	0x3cf5eda7	0.030020548
122	0xbe3524b6	-0.17689785
123	0xbcb874a7	-0.022516562
124	0xbd83170e	-0.06400882
125	0x3e09f189	0.13471045
126	0xbc961620	-0.018321097
127	0x3dea9802	0.114547744
128	0x3e2c34c5	0.16817005
129	0xbd62814a	-0.05529908
130	0x3d17bd7a	0.037045933
131	0xbc18689f	-0.009302287
132	0xbd961ee6	-0.07330112
133	0xbdbf40c0	-0.09338522
134	0xbb7c4816	-0.0038495115
135	0x3d3e29eb	0.046426695
136	0xbca658b0	-0.020305961
137	0x3caae6b8	0.020861968
138	0x3dd086a1	0.101819284
139	0x3d8f1c72	0.069878474
140	0x3d8f09de	0.06984304
141	0x3d6040bf	0.054749247
142	0xbe177a64	-0.14792782
143	0xbdf0776a	-0.117415264
144	0xbe0e406c	-0.13891762
145	0x3e070735	0.13186343
146	0xbe29c7dc	-0.16580147
147	0xbe0ac853	-0.1355298
148	0x3de97ff9	0.11401362
149	0x3dd6c118	0.104860485
150	0xbe28a6ab	-0.16469829
151	0x3dfccf99	0.123442836
152	0xbcac169b	-0.021006873
153	0x3d28d054	0.041214302
154	0xbdfeb3fe	-0.124366745
155	0xbcab05f0	-0.020876855
156	0x3d1dc820	0.038520932
157	0x3e125479	0.14290036
158	0x3df30118	0.11865443
159	0xbdde2688	-0.10847193
160	0xbdee14e8	-0.11625081
161	0xbcc1faad	-0.023679102
162	0x3d891d4e	0.066950426
163	0x3dc5e5ba	0.096629575
164	0xbe311d19	-0.17296256
165	0xbcbb32ba	-0.022851337
166	0x3a8a257e	0.0010539738
167	0xbdccf112	-0.10006918
168	0x3e06d75b	0.13168089
169	0xbd18d2d5	-0.03731044
170	0xbe33387c	-0.17502016
171	0xbdd6a4d9	-0.10480661
172	0x3b93ee64	0.0045145024
173	0xbe03f515	-0.1288646
174	0x3d2c9a51	0.042139355
175	0x3e26c362	0.1628547

phaseLayer.W f4 [24, 26]
0	0x3ad5a320	0.0016299225
1	0xbdc8ed3e	-0.09810875
2	0x3e9a668b	0.3015636
3	0x3e705a4c	0.23471946
4	0x3e7aa4b1	0.24476887
5	0x3c63a1e4	0.013893578
6	0x3d0833a7	0.033252385
7	0xbe897b49	-0.26851872
8	0x3d152375	0.036410768
9	0x3ea9ea56	0.33186597
10	0x3d095d13	0.033536028
11	0xbea032b6	-0.3128869
12	0x3e42969c	0.19002765
13	0x3eab0012	0.3339849
14	0x3e8c9873	0.2746006
15	0x3b0d5e21	0.0021570998
16	0x3d4bb411	0.04973227
17	0x3d8f0aa9	0.06984455
18	0xbe150a65	-0.14554746
19	0xbd967067	-0.07345658
20	0x3e95cfaa	0.29259998
21	0xba8c1b4d	-0.0010689289
22	0x3ea0495d	0.31305972
23	0xbe7b2e5d	-0.24529405
24	0xbd2f64c4	-0.042820707
25	0xbc12f73f	-0.008970081
26	0xbe48a1df	-0.19592999
27	0x3e960383	0.29299554
28	0x3e879f25	0.26488605
29	0xbe2d453f	-0.16920947
30	0x3e9336be	0.28752702
31	0x3ea8041d	0.32815638
32	0xbe62e453	-0.22157411
33	0xbb13a9d0	-0.0022531636
34	0x3eaa99e2	0.33320528
35	0xbe64d2dd	-0.22346063
36	0xbd834526	-0.064096734
37	0xbe98b258	-0.29823565
38	0x3e857261	0.26063827
39	0x3cfaa598	0.03059654
40	0x3e263993	0.162329
41	0x3e8a4a47	0.27009794
42	0xbd12cdba	-0.035840727
43	0xbeb57245	-0.35438743
44	0x3c33ee67	0.0109821325
45	0x3ab0cf21	0.0013489464
46	0x3dd3ede7	0.10348111
47	0x3e1df2cc	0.15424651
48	0xbe1f4fdb	-0.15557806
49	0xbdf2a958	-0.11848706
50	0x3e582d54	0.21111041
51	0x3de4861f	0.11158394
52	0x3d1e1c80	0.0386014
53	0x3de03202	0.10947038
54	0x3e04286f	0.12906049
55	0xbe8c35b1	-0.27384713
56	0x3d785125	0.06062426
57	0x3badda03	0.00530553
58	0xbe9a2458	-0.30105853
59	0x3db040a1	0.08606077
60	0x3cbd207a	0.023086775
61	0x3e7d0dd7	0.2471231
62	0xbe99702d	-0.29968396
63	0x3ea54700	0.3228073
64	0xbe424b16	-0.18973956
65	0x3e775f18	0.24157369
66	0x3e64fd89	0.22362341
67	0xbd9a9fe5	-0.07550029
68	0xbe56e642	-0.20986274
69	0xbcdc8fc6	-0.026924025
70	0xbe45a987	-0.19302951
71	0x3be1f729	0.006895919
72	0x3e0a60bc	0.13513464
73	0x3d884764	0.06654242
74	0xbe6c61e9	-0.23084225
75	0x3e1fef52	0.15618637
76	0x3eb2c47a	0.34915525
77	0xbe0b9548	-0.13631165
78	0x3e19a943	0.15005974
79	0xbd591fa8	-0.053008705
80	0x3dc3f3d2	0.095679894
81	0xbe9465fa	-0.28984052
82	0xbe82b7cf	-0.2553086
83	0xbd7f3e5e	-0.062315337
84	0xbe7fc859	-0.2497877
85	0x3e06bfde	0.13159129
86	0x3eb44d33	0.35215148
87	0xbdeb9681	-0.11503316
88	0x3d57e972	0.052712865
89	0x3d46e64e	0.04855948
90	0xbe4ab859	-0.19796886
91	0x3c610937	0.013735107
92	0x3d46d9aa	0.048547424
93	0x3e7a9db8	0.24474227
94	0xbea7017b	-0.32618317
95	0x3d2e5897	0.042564955
96	0xbe7f2a54	-0.2491849
97	0xbd726e66	-0.059187315
98	0xbd0512bf	-0.03248858
99	0xbe0256bc	-0.12728399
100	0x3e2e9f9e	0.17053077
101	0x3e496415	0.19667085
102	0xbdb46b44	-0.08809522
103	0xbdbed51f	-0.093179934
104	0xbdfadbb7	-0.122489385
105	0xbb37d47e	-0.002805024
106	0x3dc8a3f5	0.09796897
107	0x3e9dda0f	0.30830428
108	0xbe9b3ded	-0.30320683
109	0x3df3189a	0.11869927
110	0xbe441ac0	-0.1915083
111	0xbe946043	-0.28979692
112	0x3e85c42f	0.2612624
113	0xbdeabc9d	-0.114617564
114	0xbe322023	-0.17395072
115	0x3da4b355	0.08042017
116	0xbd93c2f0	-0.07214916
117	0xbe9b6650	-0.30351496
118	0xbe48657b	-0.19569962
119	0xbe201506	-0.1563302
120	0xbd262833	-0.04056568
121	0xbe558075	-0.20849784
122	0xbeb0b17b	-0.34510407
123	0x3e3748b7	0.17898832
124	0xbe95485d	-0.2915677
125	0xbdab2ca6	-0.083581254
126	0x3e9120e9	0.2834542
127	0xbe1181c7	-0.14209662
128	0xbe5bfccd	-0.21483155
129	0x3d9bcb6d	0.0760716
130	0x3e93f02f	0.28894183
131	0xbd5a472b	-0.053290527
132	0xbcd10cbb	-0.025518766
133	0x3e1a1094	0.15045387
134	0x3d6a0e39	0.05714247
135	0x3d397027	0.045272972
136	0x3e4c1b02	0.19932178
137	0x3e125299	0.14289321
138	0xbe7ba805	-0.24575813
139	0xbe1ebd79	-0.15501966
140	0x3e83659a	0.25663453
141	0x3d10453b	0.035222273
142	0x3d919b92	0.07109751
143	0x3eb0bdce	0.3451981
144	0x3e4cf766	0.2001625
145	0x3e03f0d0	0.12884831
146	0x3ea2fcb9	0.31833437
147	0xbe91cd42	-0.28476912
148	0x3d3e55f2	0.046468683
149	0x3d9fb314	0.07797828
150	0xbd57edf5	-0.052717168
151	0xbe490e9e	-0.19634482
152	0x3d4ee5f0	0.050512254
153	0xbe99ba12	-0.30024773
154	0xbe0614ce	-0.13093874
155	0x3e7cf5ff	0.24703215
156	0xbe1213f0	-0.14265418
157	0xbdeba159	-0.11505384
158	0x3e1b8954	0.15189105
159	0xbd928116	-0.071535274
160	0x3d751afe	0.059840195
161	0xbebe7820	-0.37201023
162	0x3e4f7ed4	0.20263225
163	0xbe9d9377	-0.3077657
164	0x3d8967d2	0.06709255
165	0xbec9c4e2	-0.39408022
166	0xbe8efa35	-0.27925268
167	0x3e7344ee	0.23756763
168	0xbe541e89	-0.20714773
169	0xbcbea112	-0.023270164
170	0x3c484f75	0.012225975
171	0x3ea4b282	0.3216744
172	0x3de00b47	0.10939651
173	0x3e435ad7	0.19077621
174	0xbe16bb80	-0.14719963
175	0xbdc1486d	-0.09437642
176	0x3e65a18f	0.22424911
177	0x3e048675	0.12941916
178	0x3dae1095	0.084992565
179	0xbe8897e6	-0.2667839
180	0xbe6cbb39	-0.23118295
181	0x3d68b97d	0.05681752
182	0xbe8a8c24	-0.27060044
183	0x3e660192	0.22461537
184	0x3e8a70e6	0.2703926
185	0xbe214047	-0.15747176
186	0xbe568a9d	-0.20951314
187	0x3ea4c941	0.32184795
188	0xbe2d6b48	-0.16935456
189	0xbe8a1728	-0.26970792
190	0xbe7f3e20	-0.24926043
191	0x3d65d644	0.056112543
192	0x3da52d23	0.0806525
193	0x3e5bfc77	0.21483026
194	0x3e8a15c8	0.26969743
195	0x3e272bbf	0.16325282
196	0x3d10030a	0.03515915
197	0x3e9981b3	0.29981765
198	0xbe20b073	-0.1569231
199	0xbd41fd71	-0.04736084
200	0x3e9174db	0.28409466
201	0xbe0414eb	-0.12898605
202	0x3e449174	0.19196111
203	0x3d029ea3	0.03188957
204	0x3ddf50ca	0.10904081
205	0xbdbe6c53	-0.09298005
206	0xbe929a4b	-0.2863334
207	0x3e70c7dd	0.23513742
208	0x3e8ab09d	0.2708787
209	0xbe9247f1	-0.28570512
210	0xbe3543a5	-0.17701586
211	0x3b16b51a	0.0022996129
212	0x3e3c14f8	0.18367374
213	0xbd85a539	-0.06525654
214	0xbe0cbab0	-0.1374309
215	0x3e87ab3d	0.26497832
216	0xbe3380e5	-0.17529638
217	0x3e9dca75	0.30818525
218	0x3cb2f7b0	0.021846622
219	0x3e2b408f	0.16723846
220	0x3d9f1f51	0.07769645
221	0x3d97e958	0.07417554
222	0x3e77efdb	0.24212591
223	0xbcea0da2	-0.028570954
224	0x3e6e2a48	0.23258317
225	0x3e04c509	0.12965788
226	0xbe552506	-0.20814905
227	0x3e5be311	0.21473338
228	0xbe718224	-0.23584801
229	0x3e0ca407	0.13734446
230	0xbdaeb457	-0.08530491
231	0x3dc398ca	0.095506266
232	0xbd055b7c	-0.03255795
233	0x3d64b01e	0.05583202
234	0xbdd64722	-0.10462786
235	0x3e159c68	0.14610445
236	0x3e223425	0.15840204
237	0xbea23aae	-0.31685394
238	0x3e9fd0d7	0.3121402
239	0xbe949ca9	-0.29025772
240	0xbe1864b5	-0.14882167
241	0x3e0a59bb	0.13510792
242	0x3ea97ab7	0.33101436
243	0x3dcf33ed	0.10117326
244	0xbe3d6659	-0.18496074
245	0x3d5dd828	0.05416122
246	0xbe514464	-0.20436245
247	0x3e28fabd	0.16501899
248	0x3c3dba7f	0.011580109
249	0x3ceadfc5	0.028671155
250	0xbe8b0546	-0.2715246
251	0x3e462b41	0.19352438
252	0x3eaebcb9	0.3412836
253	0xbe739d04	-0.23790365
254	0x3dcd0ac0	0.10011816
255	0xbe1c208f	-0.15246795

p2iLayer.W f4 [24, 176]
0	0xbd2c80d7	-0.04211506
1	0xbe018071	-0.12646653
2	0x3db4ade1	0.08822227
3	0xbdb15a72	-0.08659829
4	0x3e00a215	0.1256183
5	0xbc41708d	-0.011806619
6	0xbe0ce4ec	-0.13759202
7	0xbe093f1b	-0.13402979
8	0x3deebf49	0.116575785
9	0x3e01eb20	0.1268735
10	0x3d0931be	0.033494703
11	0x3cf8ece4	0.030386396
12	0x3e29d5d4	0.16585475
13	0x3e108344	0.14112574
14	0x3def52c3	0.116857074
15	0xbde52702	-0.11189081
16	0x3d5d232f	0.05398863
17	0x3e2e44ae	0.17018387
18	0xbdf4aa1f	-0.119465105
19	0x3e164d1c	0.14677852
20	0xbdc5a8f8	-0.09651369
21	0xbd511df9	-0.051053975
22	0xbcdf2adb	-0.027242115
23	0x3d449f14	0.04800327
24	0x3cf2244f	0.029558329
25	0xbd9ae6cd	-0.07563553
26	0x3d9bf8b5	0.076157965
27	0x3da27250	0.0793196
28	0x3c16b937	0.009199432
29	0xbe3c3d7d	-0.18382831
30	0x3e377f2c	0.17919606
31	0xbd3eeaa1	-0.04661048
32	0xbdead5a1	-0.11466528
33	0x3e28beb8	0.16479003
34	0xbddb548e	-0.10709487
35	0x3dcb727f	0.09933948
36	0x3e10f530	0.14156032
37	0xbdba2a80	-0.090901375
38	0xbdc5ff8d	-0.09667883
39	0xbdc50937	-0.09620898
40	0x3d71ee49	0.059065137
41	0x3e1c538e	0.15266249
42	0xbcd0e8f2	-0.025501702
43	0xbd8d42e8	-0.06897527
44	0xbcf3d62c	-0.029765211
45	0xbe122eaa	-0.14275613
46	0x3e3341ef	0.1750562
47	0x3c3fc8d2	0.011705594
48	0xbe289867	-0.16464387
49	0xbd641012	-0.05567939
50	0x3e07bf97	0.1325668
51	0x3d9f2a71	0.07771767
52	0x3dcb5e45	0.0993009
53	0xbca9907e	-0.020698782
54	0xbd36be8e	-0.04461532
55	0x3ddaa636	0.106762335
56	0x3c8c0fad	0.017097319
57	0xbc295e4e	-0.010337425
58	0x3d642188	0.05569604
59	0xbdad8e55	-0.08474413
60	0xbdcb0103	-0.09912302
61	0xbcb1aaa1	-0.021687808
62	0xbdf50926	-0.119646356
63	0xbc9d428d	-0.019196773
64	0x3d3de809	0.046363864
65	0x3e2d2703	0.16909413
66	0x3cfb75fc	0.030695908
67	0x3b31f45e	0.002715371
68	0xbe1bebb5	-0.15226634
69	0xbd2f0df2	-0.04273791
70	0xbcbe4d7d	-0.023230309
71	0xbded8012	-0.11596693
72	0x3d6eefe5	0.05833425
73	0x3dea0c54	0.11428133
74	0x3ddb0a66	0.10695343
75	0xbd55df2e	-0.052214794
76	0xbd4b834b	-0.049685758
77	0x3e2af31a	0.16694298
78	0xbd41e66f	-0.0473389
79	0xbe3579ce	-0.17722246
80	0x3cf55f00	0.029952526
81	0x3cd44b93	0.025914943
82	0xbd1ac5b8	-0.037786216
83	0xbc9d8705	-0.019229421
84	0xbe0feb99	-0.14054717
85	0x3d323fc9	0.04351786
86	0xbe0b89e3	-0.13626818
87	0x3d3a0e69	0.0454239
88	0x3e167c4b	0.14695852
89	0xbe065d91	-0.1312163
90	0xbd8ac475	-0.067757525
91	0x3cfd9412	0.030954394
92	0xbc5f999c	-0.013647463
93	0x3e3d8080	0.1850605
94	0x3c6fe287	0.014641411
95	0x3caa995a	0.020825077
96	0xbd855746	-0.06510787
97	0x3d7f68ac	0.062355682
98	0x3d3298c9	0.04360274
99	0xbde1c013	-0.110229634
100	0x3dd58914	0.10426536
101	0x3c024a16	0.007952234
102	0x3e2f965f	0.17147206
103	0xbe2fd5d6	-0.17171416
104	0x3be5abbd	0.007008998
105	0x3dbf1747	0.09330612
106	0x3dfc75a2	0.12327124
107	0xbc90dbfd	-0.017683024
108	0xbd99733d	-0.07492683
109	0xbe08ace5	-0.13347204
110	0xbe1b33c7	-0.1515647
111	0x3e1087af	0.14114259
112	0xbe3401c5	-0.175788
113	0xbd0d854f	-0.03455096
114	0x3dc06afd	0.093954064
115	0x3dd3e8d9	0.103471465
116	0xbe005fc0	-0.12536526
117	0x3cca525c	0.024697475
118	0x3cf41059	0.029792951
119	0x3e31a169	0.1734673
120	0xbcd20f8c	-0.025642179
121	0x3d7004f5	0.058598477
122	0xbd0a3b36	-0.033747874
123	0x3e08aedc	0.13347954
124	0x3c2afbf9	0.0104360515
125	0xbda91212	-0.082554
126	0x3d832840	0.064041615
127	0xbdbb7888	-0.09153849
128	0x3d3bd229	0.04585472
129	0x3de17f23	0.110105775
130	0xbe1fe02c	-0.15612859
131	0xbe102e91	-0.14080264
132	0x3c2baee3	0.010478708
133	0xbd025741	-0.031821493
134	0xbd591bba	-0.053004958
135	0x3e26d26e	0.1629121
136	0x3d476903	0.04868413
137	0x3cd23b7b	0.025663128
138	0x3d69e80e	0.05710607
139	0xbd0f3ec3	-0.034971964
140	0xbe02d685	-0.12777145
141	0x3d8b8eea	0.06814368
142	0xbdfc9fbb	-0.12335154
143	0x3d7e530e	0.062090926
144	0x3e08beb2	0.13353994
145	0xbde1481d	-0.11000083
146	0x3cc83943	0.024441367
147	0x3e1e1337	0.15437017
148	0x3dcbbfd9	0.099487014
149	0xbd5e60a1	-0.05429137
150	0x3cf84a93	0.030308997
151	0xbe3dea21	-0.18546344
152	0x3d216d69	0.039410982
153	0x3e1b665a	0.15175763
154	0x3e0752d0	0.13215184
155	0x3aab8b00	0.001308769
156	0x3d30b5bb	0.04314206
157	0x3b3f690a	0.0029206895
158	0xbd345aed	-0.044032026
159	0x3d095fba	0.033538558
160	0xbd953547	-0.072855525
161	0x3d74c278	0.059755772
162	0x3dbfe4bf	0.09369802
163	0xbd00fb6e	-0.031489782
164	0xbd83da6a	-0.064381436
165	0xbe034813	-0.12820463
166	0x3b8862dd	0.004162176
167	0x3d59ca54	0.05317147
168	0x3e463fa0	0.19360209
169	0xbe148495	-0.14503701
170	0xbde38036	-0.11108439
171	0x3b639e84	0.0034731934
172	0x3e23541d	0.15950055
173	0x39b0f325	0.00033750493
174	0x3c9e81ae	0.019348945
175	0x3c0014dc	0.007817473
176	0xbb7fe76b	-0.0039047848
177	0x3de1d875	0.11027614
178	0x3e08ff81	0.13378717
179	0xbd943419	-0.07236499
180	0xbde7a073	-0.113099
181	0xbd943b49	-0.0723787
182	0xbb3f1c00	-0.0029160976
183	0x3ac5d0e8	0.0015092166
184	0x3dfae6c2	0.12251045
185	0xbe27b420	-0.16377306
186	0x3dc82796	0.097731754
187	0xbd8cf0e7	-0.06881886
188	0x3d54a30d	0.05191331
189	0x3c8766ed	0.016528571
190	0x3decd709	0.11564452
191	0xbe0802cc	-0.13282317
192	0xbdb493e2	-0.08817269
193	0x3c38af15	0.011272212
194	0x3ddba461	0.10724712
195	0xbdee5d5e	-0.11638902
196	0x3da38d10	0.0798589
197	0xbd1ee89d	-0.038796056
198	0xbe433d57	-0.19066368
199	0x3c7cdbd5	0.015433271
200	0xbd8cb91d	-0.06871245
201	0x3e07f23e	0.13276002
202	0x3df63b2c	0.12023005
203	0x3e191ad1	0.14951636
204	0x3e0a9493	0.13533239
205	0xbe079ddf	-0.13243817
206	0xbe2b6d88	-0.16741002
207	0x3d223dd5	0.03960975
208	0x3cf7aaad	0.030232752
209	0xbe152513	-0.14564924
210	0x3dffb678	0.12485975
211	0xbd37f07e	-0.044907086
212	0xbd59c94f	-0.0531705
213	0x3e15c303	0.14625172
214	0x3e441946	0.19150266
215	0x3c9fa282	0.01948667
216	0xbd457cda	-0.04821477
217	0x3b34d458	0.0027592387
218	0xbe08742d	-0.13325568
219	0x3d9ea1bc	0.07745692
220	0x3defd6ba	0.11710878
221	0xbd3d7c8e	-0.046261363
222	0xbe065199	-0.13117065
223	0x3e1cee1c	0.15325207
224	0xbe338494	-0.17531043
225	0xbd190686	-0.037359737
226	0x3e12aaac	0.14322919
227	0xbda06e43	-0.07833531
228	0x3c5954e8	0.013264872
229	0x3e1b275f	0.15151738
230	0xbd3b6147	-0.045747068
231	0x3c34376a	0.01099954
232	0x3e4b6fb3	0.19866829
233	0x3d820421	0.06348444
234	0x3d9da8e2	0.076982275
235	0xbd1f23fb	-0.038852673
236	0xbded60da	-0.115907386
237	0x3d1bbc44	0.03802134
238	0xbda7fb63	-0.08202245
239	0xbdf95292	-0.12173952
240	0xbdede0e9	-0.11615164
241	0x3e206bb7	0.1566609
242	0xbe1520c5	-0.14563282
243	0x3d3f32a0	0.04667914
244	0x3b3a2b65	0.0028407213
245	0x3e1ae675	0.15126975
246	0x3ddffde7	0.109371
247	0xbde43c44	-0.11144307
248	0x3dd63153	0.104586266
249	0xbdba604c	-0.091003984
250	0x3b917404	0.004438879
251	0xbd2d1f1a	-0.04226599
252	0xbe1a260d	-0.15053578
253	0x3d27b3c6	0.04094293
254	0xbe07129b	-0.13190691
255	0x3e0e23ea	0.13880888

p2iLayer.a f4 [352, 1]
0	0xbdb76dcf	-0.08956491
1	0xbe14748c	-0.14497584
2	0xbd023150	-0.03178531
3	0x3db659dc	0.08903858
4	0xbc7d82e1	-0.0154730985
5	0xbd315796	-0.04329642
6	0xbb565dfa	-0.0032709823
7	0xbd598be5	-0.05311193
8	0xbd8e9279	-0.06961531
9	0x3e02bbf5	0.12767012
10	0xbdeea29c	-0.11652109
11	0x3d8d29ae	0.068927154
12	0xbdc901b7	-0.0981478
13	0xbc87411c	-0.016510539
14	0x3d736b7d	0.05942868
15	0xbcca5d6d	-0.024702752
16	0x3df9899b	0.12184449
17	0x3c7617ac	0.015020292
18	0xbc9bf71c	-0.01903873
19	0xbe04f8a9	-0.12985481
20	0xbd909ebb	-0.070615254
21	0x3d4470ea	0.047959246
22	0x3d8c326a	0.06845553
23	0x3d99324c	0.074802965
24	0xbd49d770	-0.049277723
25	0xbd981c08	-0.074272215
26	0x3e089a55	0.13340123
27	0xbe013649	-0.12618364
28	0x3cff89e2	0.031193677
29	0x3daf5997	0.0856201
30	0x3d8b3a34	0.06798211
31	0x3e017e72	0.12645891
32	0x3cc01085	0.023445377
33	0xbdb46b56	-0.08809535
34	0xbd0899b2	-0.0333497
35	0xbb3ed7bc	-0.0029120287
36	0xbd2fa03b	-0.042877417
37	0x3d8b252e	0.06794201
38	0x3da46fec	0.0802916
39	0xbd95a50d	-0.073068716
40	0xbd466240	-0.048433542
41	0xbcc43365	-0.023950288
42	0xbd133d22	-0.035946973
43	0xbe0289c4	-0.12747866
44	0xbd65f7b3	-0.056144428
45	0x3a1e76ca	0.00060449226
46	0xbdfb6eaf	-0.122769706
47	0xbdae4a81	-0.08510304
48	0x3e01a25a	0.12659588
49	0x3d8af140	0.06784296
50	0xbdb34555	-0.087534584
51	0xbdd01479	-0.10160155
52	0x3d1e09de	0.03858363
53	0x3c828354	0.015931763
54	0xbdd34df9	-0.103176065
55	0xbd0554eb	-0.032551687
56	0xbda32be6	-0.07967357
57	0x3c48f885	0.012266283
58	0xbd93d149	-0.07217652
59	0xbd12a4d3	-0.03580172
60	0x3c239242	0.009983601
61	0xbdbfe1ae	-0.09369217
62	0x3e00637c	0.1253795
63	0xbd297fe2	-0.041381724
64	0x3dac7d7c	0.08422372
65	0x3b1368fd	0.0022492998
66	0xbd9815b9	-0.07426018
67	0x3d5d3f11	0.054015223
68	0xbcecb296	-0.02889375
69	0xbd2fb256	-0.042894684
70	0xbd0aa535	-0.03384896
71	0xbdf5525f	-0.11978602
72	0xbbc39bbd	-0.005969493
73	0x3c7b34dd	0.015332428
74	0x3dd9bb7a	0.106314614
75	0xbd2c943f	-0.042133566
76	0xbe0f1706	-0.13973626
77	0xbd54044a	-0.051761903
78	0xbda4b718	-0.08042735
79	0x3ca8fc8c	0.020628236
80	0xbd00e736	-0.0314705
81	0x3e06c1ab	0.13159816
82	0xbcd6ae0c	-0.026206039
83	0xbd3d4f5f	-0.046218272
84	0xbdc42eb0	-0.095792174
85	0x3df32dcf	0.11873972
86	0x3d95d11d	0.07315276
87	0xbe09b633	-0.1344841
88	0xbcd67cf8	-0.026182637
89	0x3d9df6de	0.07713102
90	0x3da8ec12	0.08248152
91	0xbd5fc402	-0.054630287
92	0xbc6a5a69	-0.014303782
93	0x3b1ae397	0.002363419
94	0xbdaaa01d	-0.083313204
95	0xbdda21c2	-0.1065097
96	0x3d737375	0.05943628
97	0xbdf8f13c	-0.12155387
98	0x3c9f70e7	0.019463016
99	0xbc60c2b4	-0.013718296
100	0x3cadf426	0.021234583
101	0xbaa8bed0	-0.0012874249
102	0xbcff3572	-0.031153414
103	0xbd2391e7	-0.039934065
104	0xbad45070	-0.0016198289
105	0xbd457955	-0.048211414
106	0x3cfc06cc	0.03076496
107	0x3dd53c66	0.10411911
108	0x3dea7868	0.11448747
109	0xbd1bf096	-0.038071238
110	0x3d92050a	0.071298674
111	0x3d37ffea	0.044921793
112	0x3d5f13e3	0.054462325
113	0xbc372d5e	-0.01118025
114	0xbd5d555c	-0.054036483
115	0x3d6cac72	0.057781644
116	0x3d7b2f9c	0.0613247
117	0xbe095e4f	-0.13414882
118	0x3d2b1bb1	0.041774455
119	0xbd8c82ea	-0.068609074
120	0xbd0fc1b6	-0.035096847
121	0x3d2c1f9f	0.042022344
122	0x3d3cde30	0.046110332
123	0x3c8b84b0	0.017031044
124	0xbd6a1484	-0.05714847
125	0xbca2812d	-0.019836986
126	0x3b90439a	0.00440259
127	0x3daa2555	0.08307902
128	0x3d65d986	0.05611565
129	0x3e1179a6	0.14206561
130	0x3dd9b5f5	0.10630409
131	0xbd5184ef	-0.051152166
132	0xbca15088	-0.01969172
133	0xbd6a7d85	-0.05724861
134	0x3e03f6c5	0.12887104
135	0x3cbe4ef8	0.023231015
136	0x3e0dcadf	0.1384692
137	0x3d3c3c6e	0.045956068
138	0x3dc03bcb	0.093864046
139	0x3d9dbc7f	0.077019684
140	0xbda17456	-0.078835174
141	0x3cf90138	0.030396089
142	0xbd9a7dee	-0.075435504
143	0xbdb9d9b5	-0.090747274
144	0x3dfe687a	0.12422271
145	0xbdb23399	-0.08701248
146	0x3daf2ecb	0.08553847
147	0x3d537b79	0.051631425
148	0xbd06bfbe	-0.032897703
149	0xbc513ccb	-0.012770842
150	0x3d7e4cca	0.06208495
151	0xbd16498d	-0.036691237
152	0xbde3c8db	-0.111222945
153	0x3d889425	0.06668881
154	0x3c54057e	0.012940763
155	0x3d5d3dbd	0.054013956
156	0x3d62a343	0.05533148
157	0x3d9ed9eb	0.07756408
158	0x3d4e6e72	0.050398298
159	0xbddb789f	-0.10716366
160	0x3e144ff3	0.14483623
161	0xbdeaf3ff	-0.1147232
162	0x3aa31b81	0.001244411
163	0xbcbf1b6d	-0.023328507
164	0x3de2675b	0.1105487
165	0x3d6d6e92	0.057966776
166	0xbd953cbd	-0.072869755
167	0x3dbf773d	0.09348915
168	0x3dce74fa	0.10080905
169	0xbddb930b	-0.107214056
170	0x3dba7ecb	0.09106215
171	0xbd1fca5e	-0.03901135
172	0xbd850fd5	-0.0649716
173	0x3e14a419	0.14515723
174	0x3e14bf42	0.14526084
175	0xbc5b5bc9	-0.0133885825
176	0xbe0b80c6	-0.13623342
177	0x3c499173	0.012302744
178	0x3d894119	0.067018695
179	0x3cbdd006	0.023170482
180	0xbdebe136	-0.11517565
181	0x3dda0780	0.10645962
182	0x3be64f57	0.007028501
183	0xbd48ca73	-0.049021196
184	0xbe0d8017	-0.13818394
185	0x3d6e38fa	0.058159806
186	0x3d124a56	0.035715424
187	0x3d8e4cd1	0.06948245
188	0x3d95edbf	0.07320737
189	0x3d4478e6	0.04796686
190	0xbd9b2955	-0.07576243
191	0xbda31e08	-0.079647124
192	0x3de87ff4	0.1135253
193	0x3cc6c13a	0.02426206
194	0xbdd2565b	-0.10270377
195	0xbdb47365	-0.08811072
196	0x3e1067ad	0.14102049
197	0xbd4d544c	-0.05012922
198	0x3d2bf836	0.04198476
199	0xbcde1d46	-0.027113568
200	0x3d544960	0.05182779
201	0xbd1a24d0	-0.037632763
202	0x3cc554ab	0.024088224
203	0xbdca3d65	-0.09874991
204	0x3dc87309	0.09787566
205	0xbd8af0ec	-0.067842335
206	0xbe10ea32	-0.14151838
207	0x3d373c5b	0.044735294
208	0x3d4b53a5	0.049640317
209	0xbda96871	-0.08271874
210	0xbd352cbd	-0.04423212
211	0x3de5eab9	0.112264104
212	0xbc9e4f3b	-0.01932489
213	0x3d9ff035	0.07809488
214	0x3dda852a	0.1066993
215	0x3d442652	0.047888108
216	0x3db60c8e	0.08889113
217	0xbddf17af	-0.10893189
218	0xbdbe8607	-0.093029074
219	0xbcd83ebe	-0.026397105
220	0xbd53712b	-0.051621597
221	0x3cd1cf1e	0.025611456
222	0x3dd16b40	0.102255344
223	0xbe0a3820	-0.13497972
224	0x3dc6b430	0.09702337
225	0x3db3a92f	0.087725036
226	0x3d8e8142	0.06958248
227	0x3dbe30b0	0.0928663
228	0x3dbb5b61	0.091482885
229	0xbc37839a	-0.01120081
230	0xbd5c3ade	-0.053767078
231	0xbdd12bae	-0.10213409
232	0x3dc327d2	0.095290795
233	0x3c7dbac4	0.015486423
234	0xbc427545	-0.01186878
235	0xbde0597d	-0.109545685
236	0x3ca4c6ed	0.020114386
237	0xbd945143	-0.07242062
238	0xbe100896	-0.14065775
239	0xbd105041	-0.035232786
240	0x3ca820e3	0.020523494
241	0xbdd5731a	-0.104223445
242	0x3dd9004f	0.10595762
243	0x3d43ef96	0.04783591
244	0xbd4ccf03	-0.05000211
245	0xbc16afb8	-0.009197168
246	0xbd1acacf	-0.03779107
247	0x3d82b09d	0.063813426
248	0xbdd5bce7	-0.10436421
249	0x3de4d3e0	0.111732244
250	0xbd9e6dbb	-0.07735773
251	0x3dd24712	0.10267462
252	0xbd9aa4d8	-0.07550973
253	0xbded565d	-0.11588738
254	0xbd2afc43	-0.04174448
255	0xbcf5b589	-0.02999379

intersectionLayer.W f4 [48, 46]
0	0x3e1cfb00	0.15330124
1	0x3d9dff2f	0.07714688
2	0xbdd979e7	-0.10618954
3	0xbe79bff6	-0.24389634
4	0xbe35f9fa	-0.1777114
5	0x3d60e5f6	0.054906808
6	0x3d15f56e	0.036611013
7	0x3c7577e0	0.014982194
8	0xbe38de51	-0.18053557
9	0x3e0b6a8b	0.13614862
10	0xbe6c1a7e	-0.23056981
11	0x3d9a92f4	0.0754756
12	0xbdaf5611	-0.08561338
13	0xbe160854	-0.14651614
14	0xbd8983ea	-0.06714614
15	0xbda543e1	-0.080695875
16	0xbcade5e0	-0.021227777
17	0xbe29d8e6	-0.16586646
18	0xbe48054e	-0.19533274
19	0xbe3dcb3c	-0.18534559
20	0x3e01a22c	0.1265952
21	0x3df88481	0.12134648
22	0xbe1badd4	-0.15203029
23	0xbe4342cb	-0.19068448
24	0xbe009474	-0.1255663
25	0xbdd9cf3e	-0.106352314
26	0xbcd3aec8	-0.025840178
27	0x3df77a35	0.12083856
28	0x3e521f69	0.20519795
29	0xbd521b60	-0.051295638
30	0xbe1a0ef1	-0.15044762
31	0xbe186223	-0.14881186
32	0x3d56f15f	0.052476283
33	0x3d8ff002	0.070282
34	0xbdf18112	-0.11792196
35	0x3ca6eb2b	0.020375809
36	0x3e333d54	0.17503864
37	0x3e58e654	0.21181613
38	0x3b77476c	0.003773178
39	0x3e5823fd	0.21107478
40	0xbb5d4115	-0.0033760716
41	0xbe56d7e3	-0.20980792
42	0x3d9ac812	0.07557692
43	0x3ce57386	0.028009187
44	0x3d86c2f5	0.06580154
45	0xbe4435a8	-0.19161093
46	0x3bde76c0	0.0067890584
47	0xbe203626	-0.15645656
48	0x3e8343e8	0.25637746
49	0xbe1c4413	-0.15260343
50	0xbe7c951c	-0.24666256
51	0x3d978405	0.073982276
52	0xbc3446ff	-0.011003255
53	0xbcea71a3	-0.02861864
54	0x3ddf27c7	0.10896259
55	0x3e360d4d	0.17778511
56	0x3e76a01b	0.24084513
57	0xba8209a0	-0.0009921081
58	0x3b20a9f6	0.0024515367
59	0x3e35b889	0.17746176
60	0x3e626e2c	0.2211234
61	0xbcbef62a	-0.02331074
62	0xbd888c79	-0.06667418
63	0xb9bf90c6	-0.00036538224
64	0x3c7c599c	0.015402224
65	0xbe0bf038	-0.13665855
66	0x3e5e71b7	0.21723066
67	0x3b602d63	0.003420674
68	0x3da7dcd5	0.08196417
69	0x3e7cab98	0.24674833
70	0x3e0e40bf	0.13891886
71	0xbd782861	-0.060585383
72	0x3e6fc4f3	0.23414974
73	0x3d273aeb	0.040827673
74	0xbdeb1ef6	-0.11480515
75	0x3e75bce1	0.23997833
76	0xbe831e71	-0.25609162
77	0x3e2359a4	0.15952164
78	0xbe63e4c9	-0.22255243
79	0x3e2b5c76	0.1673449
80	0xbe40ba6d	-0.18821116
81	0xbdd38250	-0.103275895
82	0x3e57bf59	0.21069087
83	0x3dce45b2	0.10071887
84	0xbe8b976a	-0.27263957
85	0xbe7d0254	-0.2470792
86	0xbe5ba5ba	-0.21449938
87	0x3e1fddc6	0.15611944
88	0xbe6b4917	-0.229771
89	0xbd0b5eb5	-0.034025867
90	0xbe24979b	-0.16073458
91	0x3e669cf5	0.22520812
92	0x3e1cc444	0.15309244
93	0xbdc347aa	-0.09535153
94	0xbdc550b2	-0.09634532
95	0xbe0a9008	-0.13531506
96	0xbdf6e09a	-0.12054558
97	0xbde291aa	-0.110629395
98	0xbd10cf70	-0.035354078
99	0x3e2ee3c8	0.17079079
100	0xbe597674	-0.21236593
101	0x3db1375c	0.08653137
102	0xbe7fbbff	-0.24974059
103	0xbdbd5ca8	-0.092461884
104	0xbdfbafe0	-0.12289405
105	0x3e08fd42	0.1337786
106	0x3dabc218	0.0838663
107	0xbda409ac	-0.08009657
108	0xbe5b5975	-0.21420844
109	0xbe1ea096	-0.15490946
110	0xbe806e85	-0.2508432
111	0x3c0ed8c0	0.008718669
112	0x3e143ddc	0.14476722
113	0xbd102304	-0.035189644
114	0x3e0bdfb8	0.1365956
115	0xbdb0a8be	-0.08625935
116	0x3d864674	0.065564066
117	0xbe110108	-0.1416055
118	0xbd9f878e	-0.07789527
119	0x3e32d976	0.17465767
120	0x3e5b16a0	0.2139535
121	0x3d9bb378	0.0760259
122	0xbd21a8b4	-0.03946753
123	0xbd09fdd4	-0.033689335
124	0xbe5b7e50	-0.21434903
125	0xbd0371e4	-0.032091036
126	0xbdb82aa6	-0.089925095
127	0x3e072e6e	0.13201305
128	0xbe522b8a	-0.20524421
129	0x3dc67734	0.09690705
130	0x3d2687d8	0.040656894
131	0xbe7af6a2	-0.24508145
132	0xbdc95cd0	-0.09832156
133	0x3e278720	0.1636014
134	0xbd70ccec	-0.05878918
135	0x3e0f95d8	0.14022005
136	0x3e620330	0.22071528
137	0xbe2ebc20	-0.17063951
138	0x3daff170	0.085909724
139	0x3dfac948	0.122454226
140	0xbe406bf1	-0.18791176
141	0xbdfb80c3	-0.12280419
142	0x3e0a3682	0.13497356
143	0xbd5d078e	-0.053962283
144	0x3d2dbf1b	0.04241858
145	0xbe0da48b	-0.138323
146	0xbe51005b	-0.20410292
147	0x3db3bb6c	0.08775982
148	0x3d8d0c2e	0.06887089
149	0x3e489357	0.19587456
150	0xbdbfb364	-0.09360388
151	0x3e2c259a	0.16811219
152	0xbe4041b5	-0.18775065
153	0x3cb21580	0.021738768
154	0x3e8778f8	0.2645948
155	0x3d97b481	0.07407475
156	0x3d4e71ea	0.050401606
157	0xbdd0ecde	-0.10201429
158	0x3c8a2d23	0.016867226
159	0x3e69b5f3	0.22823314
160	0xbd1ac75e	-0.037787788
161	0x3e166ddb	0.14690344
162	0xbe46376c	-0.1935708
163	0x3d97df40	0.074156284
164	0xbe29f421	-0.16597034
165	0xbe37e92c	-0.17960042
166	0x3e84bc80	0.25925064
167	0xbdc4b37e	-0.09604548
168	0xbd6c942c	-0.057758495
169	0x3b141018	0.00225926
170	0x3e1b8bd3	0.15190057
171	0xbe374e0d	-0.17900868
172	0xbd630312	-0.05542285
173	0x3d3dc150	0.046326935
174	0xbba0259b	-0.0048872954
175	0xbe32d30c	-0.1746332
176	0x3e01e5c6	0.12685308
177	0xbe474e92	-0.19463566
178	0x3e5f1e96	0.21789011
179	0x3e1415da	0.1446146
180	0x3d253562	0.040334113
181	0x3e6a731c	0.22895473
182	0xbe4d707b	-0.20062439
183	0x3e18fd4d	0.14940377
184	0xbe61f1a2	-0.22064832
185	0x3e37321f	0.17890213
186	0xbe3a0f1c	-0.18169826
187	0x3e38b5ec	0.18038148
188	0x3d1a7dcc	0.037717625
189	0xbdf6e8d0	-0.12056124
190	0xbc4cb267	-0.012493706
191	0x3e19c202	0.15015414
192	0xbdc2f656	-0.09519641
193	0x3df483c3	0.11939194
194	0x3e5206c4	0.20510393
195	0xbce13a4f	-0.027493624
196	0xbd3d63d3	-0.046237778
197	0xbaa1e8ce	-0.0012352706
198	0x3e390295	0.18067391
199	0xbbf4bda8	-0.007468898
200	0x3d357b91	0.044307295
201	0xbe66697b	-0.22501175
202	0xbe3074c1	-0.17232038
203	0xbde56be1	-0.11202217
204	0xbe0c9a02	-0.13730624
205	0xbd97f9c1	-0.07420684
206	0x3e34c37a	0.17652693
207	0xbe190831	-0.14944531
208	0x3e1bd171	0.15216614
209	0xbe6fb46c	-0.23408669
210	0x3e092f3d	0.13396926
211	0xbdc1dfd3	-0.09466519
212	0x3e8b8f50	0.27257776
213	0xbe64608a	-0.22302452
214	0xbe4c723c	-0.19965452
215	0x3e6659a3	0.22495131
216	0x3dd1da8a	0.10246761
217	0xbe6c96da	-0.2310442
218	0xbe22d6f3	-0.15902309
219	0x3e86e0ca	0.26343375
220	0x3dc65f4d	0.09686146
221	0xbe82621c	-0.25465477
222	0xbd5c1a42	-0.05373598
223	0x3affae5a	0.0019506917
224	0xbe1f90e0	-0.15582609
225	0x3bbb468d	0.0057151974
226	0xbddb80da	-0.10717936
227	0xbc60070d	-0.013673556
228	0x3da46446	0.08026938
229	0x3e55bd8c	0.20873088
230	0xbe017d0d	-0.1264536
231	0x3b9d406f	0.004798941
232	0xbea1b484	-0.31583035
233	0xbc8141a0	-0.015778363
234	0x3d454bf8	0.048168153
235	0xbdbd36a4	-0.092389375
236	0x3dd88943	0.105730556
237	0x3dff0834	0.124527365
238	0x3e408e58	0.188043
239	0xbd60d6b5	-0.05489226
240	0xbe049b67	-0.12949906
241	0x3e565f52	0.209348
242	0xbcab2758	-0.020892784
243	0xbea2ee88	-0.3182261
244	0xbe040d55	-0.12895711
245	0xbb9d45d6	-0.004799585
246	0x3e20234f	0.15638469
247	0xbd2c9d28	-0.042142063
248	0x3e195641	0.1497431
249	0x3e3eaeea	0.18621412
250	0x3d3fb4dd	0.046803344
251	0x3e2dfdb6	0.16991314
252	0x3e8647da	0.26226693
253	0x3e46cbb8	0.1941365
254	0x3e7431c7	0.23847114
255	0xbe4ef146	-0.20209226
