test/model/actor_3_2_2_2_24_best_rou0.pth (torch, 689330 bytes, 17 tensors)

v2lLayer.W f4 [3, 40]
0.30909437 -0.25857213 0.3546129 -0.28440946 -0.04105586 -0.23625165 -0.121178396 0.07418328
-0.14080772 -0.056077477 0.041742127 0.20059025 -0.14237979 0.21767057 -0.21975602 -0.27656716
0.42821607 -0.42761263 -0.035408676 0.36130598 0.39722577 0.09234541 -0.07058805 0.05423859
0.42735332 0.17811419 0.18304873 -0.36846548 0.09006235 -0.12094833 0.35980234 -0.22305115
0.32136923 0.38121954 0.26716307 -0.15283068 0.35041758 0.21599086 -0.056376453 -0.108788095
0.23195271 -0.043390267 0.29629517 -0.0846475 0.1362637 0.088671595 0.32045975 0.21038578
0.0013409983 -0.07554998 -0.20488244 0.2968813 -0.28689927 -0.13674235 -0.15403207 -0.08542045
-0.08100199 -0.31207842 0.26814777 0.13523023 -0.014895894 -0.086161695 0.26010177 0.023579942
-0.100529626 -0.061559502 0.24000748 -0.08680463 0.26782614 -0.043300197 -0.19847554 -0.1135905
-0.11322719 -0.3247868 0.20823698 0.37397677 0.17227967 -0.06947637 -0.24944428 -0.17718612
0.10084889 0.20439361 0.0025845098 0.3580741 0.3365985 0.39627367 -0.30297515 -0.075432174
-0.13615236 0.13305336 -0.20177744 0.22621702 0.35303506 0.19306895 -0.28461394 -0.036095474
0.19818597 -0.1757186 -0.3847797 -0.31193167 0.19722012 -0.32968822 0.03771161 0.32755595
0.33289754 0.14645976 0.24738108 0.07192418 0.10477687 -0.23556623 -0.21018016 0.19452488
-0.18611646 -0.29346117 0.26867694 0.20864548 0.19383398 -0.09607626 -0.14255267 0.38086158
00000000: 9e41 9e3e 9163 84be d28f b53e 1e9e 91be
00000010: 312a 28bd f4eb 71be 612c f8bd 67ed 973d
00000020: e62f 10be 7fb1 65bd cbf9 2a3d 8867 4d3e
00000030: 02cc 11be 09e5 5e3e b907 61be 369a 8dbe
00000040: 233f db3e 0bf0 dabe b008 11bd 19fd b83e
00000050: 2d61 cb3e 971f bd3d 7890 90bd 4929 5e3d
00000060: 0ece da3e 9163 363e 2071 3b3e 82a7 bcbe
00000070: 9c72 b83d c2b3 f7bd 0338 b83e 8567 64be
00000080: 828a a43e 352f c33e 99c9 883e a57f 1cbe
00000090: ef69 b33e b52c 5d3e ffea 66bd 4bcc debd
000000a0: 0385 6d3e feb9 31bd 00b4 973e ab5b adbd
000000b0: b688 0b3e 7499 b53d 4d13 a43e 5f6f 573e
000000c0: 70c4 af3a f3b9 9abd b4cc 51be d300 983e
000000d0: 76e4 92be 3006 0cbe 95ba 1dbe ebf0 aebd
000000e0: 5fe4 a5bd bec8 9fbe aa4a 893e cb79 0a3e
000000f0: e80d 74bc 8b75 b0bd 0f2c 853e b92a c13c
00000100: 7ae2 cdbd d125 7cbd 85c4 753e a0c6 b1bd
00000110: 8220 893e 8c5b 31bd 2c3d 4bbe 23a2 e8bd
00000120: a8e3 e7bd 754a a6be 133c 553e e279 bf3e
00000130: 156a 303e a149 8ebd 526e 7fbe 4770 35be
00000140: dd89 ce3d 8f4c 513e e160 293b 7d55 b73e
00000150: a356 ac3e 62e4 ca3e 8f1f 9bbe 2f7c 9abd
00000160: 866b 0bbe 243f 083e bf9e 4ebe 6fa5 673e
00000170: 03c1 b43e deb3 453e ebb8 91be d9d8 13bd
00000180: 43f1 4a3e 94ef 33be d801 c5be 82b5 9fbe
00000190: 12f4 493e e5cc a8be 7d77 1a3d 6ab5 a73e
000001a0: 8c71 aa3e 8cf9 153e 7751 7d3e fc4c 933d
000001b0: 4195 d63d 4638 71be 7839 57be 8831 473e
000001c0: 5095 3ebe 8b40 96be 0690 893e 29a7 553e
000001d0: 6a7c 463e a1c3 c4bd 54f9 11be 4a00 c33e

v2lLayer.a f4 [80, 1]
-0.06267411 0.18423495 0.25051156 -0.10383243 -0.19558704 -0.2091225 -0.06571611 0.15143241
-0.10877415 -0.29889002 0.0049484884 0.26790607 -0.17682908 -0.15449831 0.06660993 0.22531009
0.1487854 -0.04883964 0.19777454 -0.18983959 0.15969165 -0.20709895 0.22661215 -0.04715208
-0.2097718 0.22513221 -0.22829251 0.16024807 -0.111588635 -0.21927434 -0.11383214 -0.0089073805
0.017690063 0.18518822 -0.014877015 0.014432795 0.053436927 0.26843348 0.2313174 -0.18953668
0.35477713 0.10604467 -0.11938162 0.11458709 0.017411366 0.0047037276 -0.27528092 -0.04574567
0.01069607 0.10734814 -0.2888595 0.24158207 0.024804218 -0.0750512 -0.19965416 0.1239085
0.24984628 -0.12755336 -0.043945953 0.062761456 0.1459572 -0.23775871 -0.17350824 -0.14294286
0.2472221 -0.072875105 0.33697692 -0.07362988 -0.0025994068 0.09371405 0.3169784 0.042749196
-0.056517623 -0.19219355 -0.09993571 0.05403815 -0.037285276 0.25191742 -0.1434287 -0.12789412
00000000: 495b 80bd 16a8 3c3e 0d43 803e 19a6 d4bd
00000010: f847 48be 3524 56be 2b96 86bd 1911 1b3e
00000020: fbc4 debd 1d08 99be ee26 a23b fc2a 893e
00000030: af12 35be ce34 1ebe c96a 883d b0b7 663e
00000040: 335b 183e 130c 48bd 6985 4a3e 4f65 42be
00000050: 3586 233e bf11 54be 040d 683e 8a22 41bd
00000060: 6bce 56be 0f89 663e 83c5 69be 1218 243e
00000070: 9588 e4bd 7489 60be d320 e9bd 43f0 11bc
00000080: c0ea 903c fba1 3d3e b9be 73bc 8877 6c3c
00000090: aee0 5a3d 1d70 893e 78de 6c3e e715 42be
000000a0: 59a5 b53e f32d d93d 5a7e f4bd a3ac ea3d
000000b0: 48a2 8e3c ba21 9a3b 9ff1 8cbe d05f 3bbd
000000c0: 923e 2f3c 57d9 db3d 64e5 93be 4a61 773e
000000d0: 3732 cb3c 72b4 99bd 2472 4cbe bdc3 fd3d
000000e0: b4d7 7f3e 599d 02be ac00 34bd 1489 803d
000000f0: ce75 153e 0577 73be 25ac 31be 9d5f 12be
00000100: ca27 7d3e 8b3f 95bd 3d88 ac3e 43cb 96bd
00000110: cf5a 2abb 27ed bf3d fe4a a23e c819 2f3d
00000120: 067f 67bd 63ce 44be 18ab ccbd 1b57 5d3d
00000130: 72b8 18bd 52fb 803e f9de 12be adf6 02be

laneLayer.W f4 [12, 12]
0.20178081 0.13100947 0.21705295 -0.24122159 0.12361399 0.4248759 0.033243977 0.43401474
0.49310234 0.0041703973 -0.25951448 0.32450834 -0.45162433 -0.49878782 0.01957488 -0.29678994
-0.042966187 0.2527209 -0.19460166 -0.46813685 0.10650915 0.0014579892 0.13457865 0.03938043
-0.29615483 -0.2565129 0.31239888 0.3943045 -0.14917032 0.41397315 -0.010700089 0.15098923
-0.060549486 -0.02625793 0.2864115 0.3295312 -0.4527261 0.43420538 0.074969925 0.47044316
0.12164376 -0.35691532 -0.4888535 0.054402497 -0.3278119 -0.25557804 0.048030917 0.48273498
-0.16235512 0.14347917 -0.281064 -0.52717096 -0.062144317 -0.3173 0.14220071 -0.05580745
-0.22224861 -0.11224685 0.19621994 0.41005805 0.0773623 -0.2566837 0.14070553 0.20955622
0.36132526 -0.42950904 -0.36316615 -0.12535405 -0.369197 0.3321709 0.23077768 0.052630246
0.2785963 -0.072741546 0.3017015 -0.48566163 0.21443617 0.3751088 -0.39870793 -0.3728896
-0.086280495 0.27181315 0.4587207 -0.45025754 0.42712867 0.22276972 0.37270635 -0.34613568
-0.50432837 -0.40236577 -0.44770572 0.16361947 -0.2834777 0.35121706 -0.36134908 -0.23925054
0.18309009 -0.45616066 -0.4843939 -0.1744622 -0.07342267 -0.28637373 0.21156943 -0.14701587
0.41775173 0.39498007 -0.3799107 0.114234984 -0.32742232 -0.45183766 -0.30905795 -0.22136772
0.15293807 0.45751148 0.4838807 -0.3591901 -0.41514975 -0.11802095 0.3472644 -0.26244587
0.30942464 0.09241811 -0.37633252 0.47520912 -0.351045 0.08639894 0.05679949 0.20742902
-0.09663402 -0.31209385 -0.1837326 -0.17191426 0.29015094 -0.38931543 0.2824027 -0.00457863
0.4087933 -0.016780866 0.3583465 0.14430083 0.39857197 -0.11313875 -0.55360746 -0.16574804
00000000: a19f 4e3e 5927 063e 2143 5e3e cb02 77be
00000010: 5529 fd3d 5589 d93e d62a 083d 2e37 de3e
00000020: e977 fc3e d4a7 883b 15df 84be f525 a63e
00000030: 4e3b e7be 1e61 ffbe 805b a03c daf4 97be
00000040: 50fd 2fbd a264 813e a845 47be a2af efbe
00000050: 7821 da3d 001a bf3a fcce 093e 604d 213d
00000060: 9ba1 97be a955 83be bff2 9f3e 48e2 c93e
00000070: 1bc0 18be 4af4 d33e 6d4f 2fbc ec9c 1a3e
00000080: bd02 78bd df1a d7bc 87a4 923e 50b8 a83e
00000090: b7cb e7be 2b50 de3e d589 993d eddd f03e
000000a0: 5d20 f93d 9bbd b6be 024b fabe 27d5 5e3d
000000b0: f6d6 a7be 20db 82be 11bc 443d 0a29 f73e
000000c0: 6c40 26be 34ec 123e 9fe7 8fbe adf4 06bf
000000d0: 0a8b 7ebd 2575 a2be 109d 113e 5a96 64bd
000000e0: 2495 63be ade1 e5bd e1ed 483e 21f3 d13e
000000f0: 2070 9e3d 0c6c 83be 1c15 103e e895 563e
00000100: a0ff b83e 9ce8 dbbe eaf0 b9be d05c 00be
00000110: 6407 bdbe 4e12 aa3e fc50 6c3e d092 573d
00000120: 2da4 8e3e 85f9 94bd 9e78 9a3e a4a8 f8be
00000130: 2895 5b3e 430e c03e 7223 ccbe 63eb bebe
00000140: d4b3 b0bd 182b 8b3e 71dd ea3e 2888 e6be
00000150: 9cb0 da3e bf1d 643e 5ed3 be3e b238 b1be
00000160: aa1b 01bf e302 cebe af39 e5be dd8b 273e
00000170: fd23 91be b9d2 b33e bf02 b9be 18fe 74be
00000180: f87b 3b3e e48d e9be 7a02 f8be 38a6 32be
00000190: a05e 96bd 949f 92be a8a5 583e 548b 16be
000001a0: 8ee3 d53e d43a ca3e a883 c2be 08f4 e93d
000001b0: e6a3 a7be 4457 e7be d83c 9ebe 38ae 62be
000001c0: cc9b 1c3e f23e ea3e 36bf f73e c4e7 b7be
000001d0: 828e d4be f8b4 f1bd a4cc b13e 4e5f 86be
000001e0: e86c 9e3e b545 bd3d a8ae c0be 9c4e f33e
000001f0: 2cbc b3be edf1 b03d 95a6 683d 4668 543e
00000200: 0fe8 c5bd c4ca 9fbe 6624 3cbe 4b0a 30be
00000210: aa8e 943e 5a54 c7be 1697 903e 5508 96bb
00000220: 5b4d d13e 0778 89bc 3179 b73e 99c3 133e
00000230: a011 cc3e 4ab5 e7bd 38b9 0dbf dbb9 29be

l2pLayer.W f4 [12, 88]
0.20410888 0.16816361 0.061606046 0.0067709186 -0.20600781 -0.06853087 -0.17281568 0.035904896
0.18257439 0.044215374 -0.1720617 -0.17640428 -0.052578595 0.008620191 -0.25396785 0.07431262
-0.17345326 0.11005082 -0.18074195 -0.08281538 0.029731082 0.2310205 0.23071611 0.1697381
-0.16324629 0.04386755 -0.08090182 0.17058913 -0.06831242 0.044833686 0.22436348 0.0075355554
-0.08745321 0.23828556 -0.14215994 -0.063724495 0.0900109 -0.03649874 -0.056763925 0.0814937
0.27562124 -0.21914028 0.16968133 -0.21418531 -0.07777639 0.11370948 -0.18020588 0.08707882
-0.20423669 -0.052612256 -0.047619347 0.019592509 0.0056892363 -0.2029753 -0.054906532 0.1470553
0.17938559 -0.17018852 -0.046168447 0.034227967 0.17141056 -0.21113312 0.08919291 0.15157932
-0.071387604 -0.061284028 0.009595263 -0.07635459 0.13021147 -0.07112787 0.22841272 0.0016053931
0.21030015 -0.06322436 -0.057008285 -0.06705045 0.09871718 0.021980604 -0.22507982 -0.074222445
-0.21396749 -0.1767477 0.020911135 0.18376307 0.09951126 0.19863486 -0.0066176634 0.031052385
0.008606002 -0.012551442 -0.1625647 -0.013166741 -0.15714942 0.015491739 0.061462477 0.15050168
0.09946309 0.12075879 0.01020579 -0.0235814 -0.22157322 0.23771782 0.039504543 0.22037794
0.07687442 0.028605983 -0.19889285 0.12605216 -0.14797708 0.03874488 0.078765914 0.22896563
0.10317297 -0.19842298 0.02509369 0.10776688 0.124315456 0.04188977 0.009939268 0.06103538
0.16970252 0.15425874 0.22247167 -0.18264101 0.243107 -0.12589283 -0.05044456 -0.10882968
0.06928949 -0.234488 -0.16985463 -0.16907826 0.17164184 -0.21074282 0.1967531 -0.053966537
0.049487337 -0.12904304 -0.06923844 -0.049997643 -0.113437206 0.08668797 0.076006874 -0.087571144
-0.09743041 -0.11153048 -0.03955318 0.0032893121 0.04943408 -0.038158894 0.03961028 -0.112448975
-0.15333924 0.06945224 -0.08001131 -0.19498408 0.21622781 -0.056555465 -0.06728883 -0.11914618
-0.17884709 -0.22655049 0.0048452765 -0.1389617 -0.15624112 -0.084462106 0.015129879 -0.07899529
0.07424246 0.09992583 -0.21619755 0.10229422 0.07579921 0.12907769 0.2344139 -0.05863881
-0.038346674 0.051393427 0.16304904 -0.011339016 0.10657826 -0.183907 -0.09136085 -0.12063921
-0.053364478 0.13776317 0.22827874 -0.052070323 0.2024641 0.0028485057 0.018590545 0.103840254
-0.13682123 -0.050843593 0.13938111 0.116593204 0.021928303 -0.09290259 0.11487176 0.04723256
0.10554284 -0.19047935 0.20447902 -0.059040688 -0.06586181 -0.10181024 -0.23486651 -0.20944324
-0.017346105 -0.025228443 0.11157274 -0.1608236 0.11334453 -0.17776369 0.17621179 0.02024377
0.06780765 0.07236032 0.009239112 0.040188026 0.10649042 0.04357467 -0.030522877 -0.055007286
-0.22017711 -0.122597225 -0.13545929 0.16654627 -0.23116972 -0.025032097 -0.13713785 0.007164278
-0.18808536 -0.22467186 -0.11248548 -0.13981454 0.06509942 0.18276003 -0.23524377 0.14361508
0.19531144 -0.16925421 -0.2279569 0.13716742 0.18338893 -0.065735556 0.16443907 0.030385697
-0.103053175 -0.007198682 0.11288879 0.016282266 -0.043932118 0.22259353 -0.1457501 -0.12868114
00000000: eb01 513e 1533 2c3e 9f56 7c3d 95de dd3b
00000010: b6f3 52be ea59 8cbd 98f6 30be 0311 133d
00000020: c8f4 3a3e 2e1b 353d f130 30be 53a3 34be
00000030: a75c 57bd b43b 0d3c 1308 82be 3731 983d
00000040: bb9d 31be 5362 e13d 6b14 39be 1c9b a9bd
00000050: 998e f33c a390 6c3e d840 6c3e d3cf 2d3e
00000060: 092a 27be 76ae 333d daaf a5bd ebae 2e3e
00000070: 62e7 8bbd 87a3 373d 8abf 653e d2ec f63b
00000080: ab1a b3bd 2101 743e 6092 11be fd81 82bd
00000090: a257 b83d b47f 15bd 4a81 68bd 2be6 a63d
000000a0: 3a1e 8d3e 4f66 60be f1c0 2d3e 6553 5bbe
000000b0: 3a49 9fbd 84e0 e83d e487 38be 6156 b23d
000000c0: 6c23 51be f37f 57bd 810c 43bd 7880 a03c
000000d0: c66c ba3b c2d8 4fbe ace5 60bd aa95 163e
000000e0: dbb0 373e e645 2ebe 201b 3dbd a032 0c3d
000000f0: 4086 2f3e 4833 58be c6aa b63d 9c37 1b3e
00000100: aa33 92bd f604 7bbd 7335 1d3c cc5f 9cbd
00000110: 2856 053e 7dab 91bd 06e5 693e 0e6c d23a
00000120: ec58 573e c67b 81bd 8581 69bd bf51 89bd
00000130: 3c2c ca3d ab10 b43c 537b 66be f001 98bd
00000140: 4b1a 5bbe 59fd 34be d44d ab3c 632c 3c3e
00000150: 8fcc cb3d f066 4b3e fcd8 d8bb 9261 fe3c
00000160: 3000 0d3c 90a4 4dbc 5c77 26be 50b9 57bc
00000170: c7eb 20be 10d1 7d3c 14c0 7b3d 1d1d 1a3e
00000180: 4eb3 cb3d 6250 f73d 3036 273c c82d c1bc
00000190: 17e4 62be 4d6c 733e 84cf 213d c1aa 613e
000001a0: 5670 9d3d 1857 ea3c 91aa 4bbe d113 013e
000001b0: 4e87 17be f4b2 1e3d 0650 a13d f775 6a3e
000001c0: 5a4c d33d 652f 4bbe 4891 cd3c e2b4 dc3d
000001d0: 1a99 fe3d 9c94 2b3d 50d8 223c 3c00 7a3d
000001e0: 7fc6 2d3e 01f6 1d3e 9dcf 633e 3f06 3bbe
000001f0: 0bf1 783e 0dea 00be f49e 4ebd 18e2 debd
00000200: a6e7 8d3d 9f1d 70be 5fee 2dbe da22 2dbe
00000210: e1c2 2f3e f7cc 57be a579 493e 040c 5dbd
00000220: 3cb3 4a3d dc23 04be e2cc 8dbd 54ca 4cbd
00000230: c451 e8bd 7689 b13d 7ea9 9b3d 8058 b3bd
00000240: 9889 c7bd 186a e4bd 8402 22bd 8091 573b
00000250: 647b 4a3d 804c 1cbd 643e 223d a64b e6bd
00000260: f604 1dbe fa3c 8e3d f8dc a3bd e8a9 47be
00000270: d36a 5d3e b4a6 67bd bace 89bd ea02 f4bd
00000280: b123 37be dafc 67be 20c5 9e3b fa4b 0ebe
00000290: acfd 1fbe 78fa acbd 50e3 773c 48c8 a1bd
000002a0: 6e0c 983d eaa5 cc3d e462 5dbe a27f d13d
000002b0: 9e3c 9b3d f12c 043e 330a 703e 402f 70bd
000002c0: 6711 1dbd ea81 523d 54f6 263e 48c7 39bc
000002d0: b445 da3d 1e52 3cbe 661b bbbd b111 f7bd
000002e0: b694 5abd ca11 0d3e e7c1 693e b147 55bd
000002f0: c052 4f3e ffad 3a3b 334b 983c 33aa d43d
00000300: dd1a 0cbe 5f41 50bd ecb9 0e3e 6bc8 ee3d
00000310: fca2 b33c b743 bebd e341 eb3d ee76 413d
00000320: d826 d83d 050d 43be f362 513e a6d4 71bd
00000330: 8fe2 86bd e381 d0bd d980 70be 4a78 56be
00000340: 6b19 8ebc e1ab cebc 4080 e43d f1ae 24be
00000350: 2d21 e83d af07 36be dd70 343e 43d6 a53c
00000360: bdde 8a3d a631 943d a55f 173c 339c 243d
00000370: a617 da3d 5a7b 323d 1d0b fabc 524f 61bd
00000380: 1c76 61be 4114 fbbd d7b5 0abe 1b8b 2a3e
00000390: c1b7 6cbe 1d10 cdbc dd6d 0cbe 52c2 ea3b
000003a0: 7399 40be 6110 66be ca5e e6bd 8b2b 0fbe
000003b0: d852 853d 7225 3b3e bee3 70be d50f 133e
000003c0: b9ff 473e fa50 2dbe 896d 69be 9e75 0c3e
000003d0: 4fca 3b3e 5da0 86bd b762 283e 6deb f83c
000003e0: 8b0d d3bd ece2 ebbb 3d32 e73d 6362 853c
000003f0: 2af2 33bd 8fef 633e 843f 15be fdc4 03be

l2pLayer.a f4 [176, 1]
-0.10373001 -0.14678487 0.16294065 -0.081401326 -0.018668007 -0.1689329 0.16142121 0.16818209
-0.004154248 0.11132379 0.009089303 0.039822873 0.17505339 -0.038781192 -0.011831551 0.13589182
-0.13506882 -0.17062011 -0.11485179 -0.14307383 0.04918329 -0.10182692 8.9164416e-05 -0.12555717
0.082188025 -0.09441843 -0.10014291 0.1506012 0.11342502 -0.005612018 0.19097632 0.09441859
0.017385866 0.12645994 0.012072659 0.063449465 -0.05089441 0.18656304 -0.18129338 -0.04485875
-0.18948874 -0.114810735 0.062608324 -0.10698413 -0.18234134 0.083034486 -0.05436181 -0.12943631
-0.099653624 0.03027868 -0.14934327 0.13421914 0.069348514 -0.0631673 -0.10779813 -0.18017387
-0.049188767 0.17090255 0.038601317 0.097436026 0.061798137 0.14252663 -0.064302005 0.034217913
0.03233978 -0.09778954 -0.17958596 -0.047804512 -0.084858455 0.124519646 -0.15111603 0.12496446
0.053420626 -0.13426544 -0.071076214 0.06762504 -0.023048362 -0.05355713 -0.12125954 0.15700783
0.18767902 0.15425912 0.19251905 -0.109492846 -0.11906251 -0.029803952 0.07435158 -0.12226118
0.047291987 -0.043602385 0.015466486 -0.00074315455 0.016500968 0.21387467 -0.11525158 -0.067836925
-0.14216147 0.09182492 -0.04010478 0.099078976 0.08314955 0.15734626 0.080765724 0.12669669
0.11146383 0.11976572 -0.10210893 -0.024149815 0.09282879 -0.12614422 0.025004545 -0.19752806
-0.012685443 -0.050513886 0.031746976 -0.0013524808 -0.016641073 0.22646433 0.19410026 -0.19337448
-0.06455303 -0.22423859 0.061265487 -0.13387384 -0.14905868 -0.18806863 0.09167851 0.044290755
-0.21381868 -0.068272464 -0.13297784 0.108930945 -0.059615206 0.1281192 0.033557918 -0.019027757
0.021805558 -0.14425007 0.15083474 0.04998886 0.11715471 0.03612801 -0.07167564 0.040887125
0.09433888 0.063016705 -0.09647941 -0.014351583 -0.0858275 -0.03527742 0.10087783 -0.026517823
0.021045988 -0.0034987412 -0.11253514 -0.16460149 -0.17738155 -0.09882344 0.08595065 -0.1835373
0.06482707 -0.044805933 0.21474022 -0.162097 0.019456014 -0.20702516 0.032174505 -0.02578183
0.13322486 0.020210935 0.07595058 -0.22816505 -0.18941833 0.052529372 -0.13773634 -0.2554433
00000000: 6670 d4bd c64e 16be ead9 263e bdb5 a6bd
00000010: a6ed 98bc bffc 2cbe 9a4b 253e ed37 2c3e
00000020: 5c20 88bb bafd e33d 4deb 143c 4f1d 233d
00000030: 3241 333e 07d9 1ebd 1fd9 41bc 3a27 0b3e
00000040: 7b4f 0abe 0ab7 2ebe 6a37 ebbd f281 12be
00000050: 6b74 493d a28a d0bd c8fd ba38 0f92 00be
00000060: 3252 a83d 735e c1bd ba17 cdbd 3337 1a3e
00000070: 604b e83d 05e5 b7bb 4c8f 433e 895e c13d
00000080: ce6c 8e3c b77e 013e 67cc 453c cbf1 813d
00000090: a876 50bd 620a 3f3e f9a4 39be cfbd 37bd
000000a0: 5609 42be e421 ebbd cb38 803d 7f1a dbbd
000000b0: b0b7 3abe fc0d aa3d 7daa 5ebd f48a 04be
000000c0: 3317 ccbd ff0a f83c 71ed 18be be70 093e
000000d0: 9806 8e3d db5d 81bd 44c5 dcbd 807f 38be
000000e0: 297a 49bd 1401 2f3e 6a1c 1e3d 8a8c c73d
000000f0: 0b20 7d3d 80f2 113e c5b0 83bd 1528 0c3d
00000100: b876 043d e245 c8bd 62e5 37be aace 43bd
00000110: 45ca adbd 2804 ff3d 29be 1abe 5eed ff3d
00000120: 96cf 5a3d e17c 09be 6890 91bd ff7e 8a3d
00000130: ebcf bcbc b95e 5bbd ec56 f8bd a9c6 203e
00000140: ee2e 403e 1af6 1d3e b723 453e c93d e0bd
00000150: 0cd7 f3bd 6b27 f4bc a445 983d 1264 fabd
00000160: 3eb5 413d 6a98 32bd 2567 7d3c 42d0 42ba
00000170: 0a2d 873c f601 5b3e 0509 ecbd 16ee 8abd
00000180: c792 11be b40e bc3d e944 24bd ebe9 ca3d
00000190: 504a aa3d 611f 213e 8068 a53d c7bc 013e
000001a0: 2647 e43d bb47 f53d 7d1e d1bd d5d5 c5bc
000001b0: 051d be3d f32b 01be 55d6 cc3c cc44 4abe
000001c0: 9bd6 4fbc a6e7 4ebd 1e09 023d ba45 b1ba
000001d0: dc52 88bc 44e6 673e 38c2 463e f603 46be
000001e0: 6134 84bd cd9e 65be 85f1 7a3d 3916 09be
000001f0: d7a2 18be 1095 40be f1c1 bb3d 396a 353d
00000200: 49f3 5abe 6fd2 8bbd 582b 08be 3017 df3d
00000210: 132f 74bd ae31 033e 0774 093d 19e0 9bbc
00000220: 92a1 b23c 4ab6 13be 6c74 1a3e 1ec1 4c3d
00000230: cfee ef3d f7fa 133d aeca 92bd 4279 273d
00000240: be34 c13d e70e 813d ff96 c5bd e722 6bbc
00000250: 54c6 afbd 0e7f 10bd 0999 ce3d e83b d9bc
00000260: a368 ac3c 234b 65bb d378 e6bd 4b8d 28be
00000270: 82a3 35be f263 cabd e506 b03d 34f1 3bbe
00000280: 0ec4 843d 6d86 37bd dce4 5b3e c2fc 25be
00000290: 3862 9f3c 67fe 53be 6ac9 033d 6b34 d3bc
000002a0: 196c 083e 6791 a53c fa8b 9b3d 19a4 69be
000002b0: e1f6 41be 0a29 573d c10a 0dbe 77c9 82be

phaseLayer.W f4 [24, 26]
0.18669671 0.23455389 -0.112888336 -0.13617755 0.18092136 0.09033011 0.23877291 -0.14167541
0.24218987 -0.11138129 0.222813 0.008761207 0.1193535 -0.19174393 -0.018002613 0.27822146
-0.08882408 0.09981566 -0.0015151231 0.09617177 0.32767215 0.29779267 -0.027900847 -0.09568567
-0.23550333 -0.1835152 0.07149219 -0.3209662 0.23788117 -0.33530468 0.08942736 -0.2948885
0.31291077 0.0108992625 0.2867741 -0.25166732 0.20822896 0.191811 0.07970319 -0.085843906
0.2913377 0.08168679 0.20830153 0.16389118 -0.24809104 0.20474398 0.13515867 -0.05799055
-0.29910117 0.25193167 0.07122525 -0.14114891 -0.10249768 -0.25329056 0.33088785 -0.047835708
-0.15024495 -0.16141027 -0.008131272 -0.37944058 0.14636946 -0.13096207 -0.25808054 0.043700065
0.20746906 0.25355834 0.16228974 0.22194484 0.26576042 -0.12747405 0.08702293 -0.078453414
0.0825183 0.28293592 -0.07174512 -0.25377622 -0.2347268 -0.17551713 0.03186981 -0.18762328
-0.14826122 -0.16617583 0.21143027 0.27594456 -0.3460679 0.29791507 0.1717111 0.08565781
-0.20394526 -0.07131036 -0.057991497 -0.007370295 0.3484978 0.373692 -0.36671755 -0.30613044
-0.28384584 0.27770102 -0.16882373 0.261218 0.30748034 0.11122263 0.23798706 0.08929135
-0.12597093 0.103421584 -0.23655212 0.13909593 -0.213543 0.060058415 -0.061868988 -0.28436065
-0.08024338 -0.14485548 0.3037196 0.15875514 0.21130982 0.26150522 0.069436915 -0.27166188
-0.16700007 -0.2853626 0.23380758 0.13024043 -0.052206185 -0.060995564 -0.06755423 0.021531496
-0.17134373 -0.103176005 0.06480422 0.25923014 0.09757351 0.07694149 -0.012287787 0.04841246
-0.2643992 0.016276387 -0.10381313 0.27291626 0.014789907 0.007458327 -0.12697448 0.07415302
-0.040056117 0.32884645 0.2302581 -0.07693156 -0.2408143 0.0635176 -0.2584218 0.020604935
-0.22136442 -0.23598933 0.3094707 -0.283129 0.16986485 -0.033307593 0.15645407 0.18101263
0.024149165 0.31442496 -0.34468624 0.14765668 0.31707883 0.0835467 -0.15547481 0.33405152
0.114900336 0.039990984 -0.27797616 0.3339886 0.31890708 -0.35582167 0.04356423 0.21237044
0.29231188 0.13536227 0.12146263 -0.15492624 -0.3166021 -0.11742871 0.24742548 -0.23680638
0.3131201 -0.13783115 -0.34795904 0.12977998 0.16854806 0.2981274 -0.083805524 -0.33711427
0.07489649 0.34171686 0.1796869 -0.02096819 -0.05191138 0.10269535 -0.32277334 0.12982176
0.09980553 0.17883994 0.29338348 0.23864338 0.30149734 -0.22775792 -0.053006474 0.3650594
0.12761171 -0.22513846 0.29344636 0.29536748 0.3061164 0.008274431 0.1522146 -0.1032036
-0.34011725 0.020899646 -0.0006045658 -0.2972907 0.25364915 0.025627272 0.29170555 -0.2787612
0.06810918 -0.2659028 -0.34239754 -0.13036723 -0.17289792 -0.19935215 -0.05633935 0.18464667
0.04144074 -0.2818437 -0.19863924 0.09511203 -0.2515154 -0.2776412 -0.26068598 0.057661153
0.1273149 -0.23764254 0.17247629 -0.085428 -0.0010601053 0.27037564 0.14926982 0.08496134
-0.0077703134 0.2526158 0.120907746 -0.15833484 0.20886785 0.2135133 0.0020416912 -0.16673037
00000000: 6c2d 3f3e e52e 703e 0032 e7bd 2172 0bbe
00000010: 7343 393e fefe b83d e380 743e 5c13 11be
00000020: 9f00 783e e01b e4bd 1729 643e 2a8b 0f3c
00000030: 9c6f f43d 8558 44be 377a 93bc 0b73 8e3e
00000040: 66e9 b5bd 276c cc3d 1897 c6ba b4f5 c43d
00000050: a5c4 a73e 4878 983e 5190 e4bc d9f6 c3bd
00000060: c927 71be 69eb 3bbe 7f6a 923d af55 a4be
00000070: 1f97 733e 0ead abbe b125 b73d a0fb 96be
00000080: d735 a03e d292 323c 0ed4 923e 8ada 80be
00000090: f939 553e 1a6a 443e 6d3b a33d eece afbd
000000a0: 372a 953e 674b a73d ff4c 553e 17d3 273e
000000b0: 940b 7ebe 68a8 513e 0967 0a3e 8087 6dbd
000000c0: ca23 99be 30fd 803e 8bde 913d 5789 10be
000000d0: 4eea d1bd 4daf 81be 226a a93e 60ef 43bd
000000e0: d0d9 19be bc48 25be 0739 05bc 0946 c2be
000000f0: e0e1 153e ec1a 06be 2223 84be d7fe 323d
00000100: c572 543e 66d2 813e 482f 263e 8245 633e
00000110: c011 883e 8f88 02be 1439 b23d 2fac a0bd
00000120: 5bff a83d fadc 903e 1bef 92bd f5ee 81be
00000130: 395c 70be c3ba 33be eb89 023d 5120 40be
00000140: cad1 17be ff29 2abe 2d81 583e 9b48 8d3e
00000150: d02f b1be 5388 983e 09d5 2f3e 5d6d af3d
00000160: 07d7 50be 2b0b 92bd 7e88 6dbd 8482 f1bb
00000170: 4e6e b23e 8f54 bf3e 67c2 bbbe 21bd 9cbe
00000180: 3e54 91be d42e 8e3e 21e0 2cbe 5ebe 853e
00000190: 106e 9d3e b1c8 e33d e1b2 733e 62de b63d
000001a0: 86fe 00be b2ce d33d b83a 72be 2a6f 0e3e
000001b0: 04ab 5abe d0ff 753d 566a 7dbd b897 91be
000001c0: a456 a4bd ff54 14be 2381 9b3e b590 223e
000001d0: 9a61 583e 03e4 853e f134 8e3d 4417 8bbe
000001e0: 1102 2bbe 0c1b 92be 416b 6f3e bf5d 053e
000001f0: 27d6 55bd 7cd6 79bd df59 8abd d262 b03c
00000200: bb74 2fbe f14d d3bd 13b8 843d d0b9 843e
00000210: 9fd4 c73d 8093 9d3d b752 49bc 254c 463d
00000220: 555f 87be 0f56 853c fa9b d4bd aebb 8b3e
00000230: 5e51 723c fb64 f43b 9905 02be 8add 973d
00000240: e211 24bd 905e a83e c8c8 6b3e 4b8e 9dbd
00000250: 0698 76be 8415 823d dd4f 84be aecb a83c
00000260: 5bad 62be 30a7 71be f272 9e3e 49f6 90be
00000270: 0df1 2d3e 8b6d 08bd 7f35 203e 605b 393e
00000280: 78d4 c53c 4ffc a03e b77a b0be 5033 173e
00000290: 2858 a23e 881a ab3d ca34 1fbe cd08 ab3e
000002a0: de50 eb3d 96cd 233d e452 8ebe 8e00 ab3e
000002b0: ca47 a33e 422e b6be 6870 323d a377 593e
000002c0: e7a9 953e 689c 0a3e 66c1 f83d fca4 1ebe
000002d0: ac19 a2be 777e f0bd 1b5d 7d3e 5f7d 72be
000002e0: 4751 a03e 9c23 0dbe b027 b2be 0be5 043e
000002f0: dd97 2c3e 28a4 983e 3ba2 abbd 3e9a acbe
00000300: 5563 993d 83f5 ae3e d8ff 373e 7bc5 abbc
00000310: 07a1 54bd f151 d23d 8c42 a5be ffef 043e
00000320: d766 cc3d d121 373e 5c36 963e ee5e 743e
00000330: dc5d 9a3e 5f39 69be 511d 59bd 11e9 ba3e
00000340: a5ac 023e b28a 66be 9a3e 963e 683a 973e
00000350: 4abb 9c3e 7b91 073c 25de 1b3e 695c d3bd
00000360: d923 aebe bc35 ab3c b97b 1eba 7d36 98be
00000370: 4dde 813e 49f0 d13c 6e5a 953e cab9 8ebe
00000380: d37c 8b3d 6924 88be bb4e afbe fd7e 05be
00000390: 270c 31be f822 4cbe 17c4 66bd 0414 3d3e
000003a0: c4bd 293d d14d 90be 1668 4bbe 19ca c23d
000003b0: a0c6 80be fd26 8ebe a278 85be 1a2e 6c3d
000003c0: d65e 023e 9158 73be a09d 303e e0f4 aebd
000003d0: 3bf3 8aba ad6e 8a3e 30da 183e 3600 ae3d
000003e0: 1d9e febb dc56 813e 7b9e f73d 8722 22be
000003f0: 74e1 553e 3ba3 5a3e e5cd 053b 5ebb 2abe

p2iLayer.W f4 [24, 176]
0.14320816 -0.012540541 -0.09942793 -0.14889303 -0.122993104 -0.1599169 -0.09883184 -0.013780349
-0.018779939 -0.062292 0.06260602 0.071117006 0.00234139 0.040061455 -0.19094913 0.084063455
-0.13522506 -0.08739693 -0.058659222 0.07252324 -0.114666566 0.13595636 -0.14450791 0.16507772
0.0055667753 -0.026279673 -0.15256397 -0.15892498 -0.028356321 -0.127523 -0.18941315 0.07014291
0.025981603 -0.17474517 0.023331119 0.10577651 0.011605772 0.15951762 -0.11852191 -0.07840598
0.07609414 0.18473743 -0.10832498 0.042972777 0.17330563 -0.045513265 -0.06008382 0.11331322
0.06510358 0.062593296 -0.15825683 -0.048376348 -0.111920595 -0.038044572 0.05113223 0.13882427
0.021282729 -0.11675354 -0.016344123 -0.09493684 0.07991145 0.14462933 -0.14045732 -0.034162525
0.06254419 0.058512174 0.116869956 0.062021796 -0.13196155 0.072967105 0.0046992176 -0.07514347
0.09121901 -0.08232625 0.063977845 0.10262398 -0.09714552 0.08627222 -0.048421953 -0.009484415
0.10938351 0.041405495 -0.14698339 0.15265939 0.11597123 -0.030876968 -0.017199993 0.1567643
-0.09753503 -0.03148601 0.098380014 -0.051088188 -0.11192601 0.076678574 -0.07687742 -0.03901027
-0.07123851 -0.02599398 0.05999022 0.04665859 -0.16860363 -0.056221362 -0.08409036 -0.18210983
0.021101616 0.036384333 -0.11858414 -0.0914692 0.11505873 -0.1484174 -0.02304943 0.08614538
-0.00417914 0.05714909 0.10029199 0.13291776 -0.03695816 0.14630242 0.0020693159 -0.16713816
0.023674525 -0.09110043 -0.007995099 0.20383035 0.052649744 0.1381847 -0.017198915 0.17545737
0.06146178 0.054065377 -0.01314921 -0.1079402 0.014613383 -0.1709888 0.15697077 -0.006114413
-0.0016536741 -0.004039175 -0.06501932 0.057335835 0.07822121 0.06673702 -0.16629162 0.09372813
0.12072359 0.0032406305 0.09506114 -0.13772118 0.13958605 -0.069609985 0.1644166 -0.023874633
-0.14718013 -0.08305728 -0.08623528 0.13307905 0.14680551 -0.09886522 -0.037771046 -0.08630577
0.18536362 0.08014687 0.093800336 -0.00974465 -0.1466006 0.123838425 0.102628015 -0.007984046
-0.18006496 0.06401949 -0.109785944 0.12120659 0.10180125 0.1404594 -0.069795124 -0.15926775
0.12378675 0.1593817 -0.06466583 0.07505727 -0.024825206 0.09841514 -0.06816639 0.08328868
0.0389349 -0.012392144 -0.109407514 0.092776895 -0.11247646 -0.10356542 -0.16731796 0.01615711
0.05019169 -0.16167712 -0.16565181 -0.106762715 -0.14798748 0.04956346 0.20765711 -0.058370173
0.049492303 -0.035360847 -0.061423954 0.04437524 -0.03922277 0.02257959 0.07008607 -0.14433856
-0.010219964 0.088621154 -0.04965172 -0.08792569 0.17137034 -0.15215513 -0.115285724 0.1309672
-0.051683895 0.1967922 0.041233167 -0.08106544 0.12261488 0.16620205 0.0840357 -0.12412082
-0.06430799 -0.06304507 -0.11213688 0.09384853 -0.11481293 0.047933545 -0.19666171 -0.17175388
-0.16920389 0.17574437 0.11213482 -0.060950637 -0.14986278 0.14350073 -0.016288029 -0.03129854
-0.15138821 0.07652905 0.002290561 0.18204808 -0.0102055445 -0.047447585 0.08924969 0.1005811
0.13862948 0.07431203 -0.12160665 -0.0113240015 -0.068504505 0.17297232 -0.21124195 0.1863994
00000000: 29a5 123e d776 4dbc dfa0 cbbd 6a77 18be
00000010: cfe3 fbbd 41c1 23be 5968 cabd f9c6 61bc
00000020: 63d8 99bc e525 7fbd 9637 803d cba5 913d
00000030: 0172 193b 7b17 243d 2b88 43be 7629 ac3d
00000040: 7078 0abe 29fd b2bd a744 70bd 1087 943d
00000050: 4ed6 eabd 2538 0b3e e2f9 13be 220a 293e
00000060: 7f69 b63b 7848 d7bc bb39 1cbe 3bbd 22be
00000070: 844b e8bc 6495 02be 85f5 41be 16a7 8f3d
00000080: 5fd7 d43c 66f0 32be e720 bf3c 5ba1 d83d
00000090: 2326 3e3c 9658 233e 9dbb f2bd 5093 a0bd
000000a0: 3fd7 9b3d cf2b 3d3e 7dd9 ddbd 3904 303d
000000b0: 0877 313e 1e6c 3abd 741a 76bd c310 e83d
000000c0: 0755 853d ea30 803d 140e 22be 4726 46bd
000000d0: a036 e5bd a0d4 1bbd 0770 513d f327 0e3e
000000e0: 1e59 ae3c 7b1c efbd 1ce4 85bc 3f6e c2bd
000000f0: 9da8 a33d b619 143e 0bd4 0fbe 01ee 0bbd
00000100: 2b17 803d 76aa 6f3d 8459 ef3d 910a 7e3d
00000110: ee20 07be c76f 953d e5fb 993b d2e4 99bd
00000120: 08d1 ba3d aa9a a8bd d106 833d 852c d23d
00000130: 3bf4 c6bd 7daf b03d 1956 46bd 8564 1bbc
00000140: 7604 e03d cf98 293d d082 16be be52 1c3e
00000150: 5382 ed3d b2f1 fcbc 00e7 8cbc d286 203e
00000160: 72c0 c7bd 79f7 00bd 767b c93d d941 51bd
00000170: 7739 e5bd a809 9d3d e971 9dbd 3cc9 1fbd
00000180: 7fe5 91bd 54f1 d4bc 4eb8 753d 141d 3f3d
00000190: 6ea6 2cbe 5f48 66bd 9137 acbd 007b 3abe
000001a0: 4cdd ac3c bd07 153d 3edc f2bd 3454 bbbd
000001b0: e9a3 eb3d bbfa 17be 29d2 bcbc fd6c b03d
000001c0: 2bf1 88bb 2a15 6a3d e365 cd3d 981b 083e
000001d0: 7161 17bd 4dd0 153e 5c9d 073b 4426 2bbe
000001e0: 14f1 c13c dd92 babd e0fd 02bc e7b8 503e
000001f0: 42a7 573d 4a80 0d3e bde4 8cbc 19ab 333e
00000200: 59bf 7b3d a873 5d3d c96f 57bc c00f ddbd
00000210: f96c 6f3c b017 2fbe f2bc 203e 6a5b c8bb
00000220: 18c0 d8ba 0e5b 84bb d928 85bd fbd8 6a3d
00000230: 7132 a03d 6bad 883d 5a48 2abe 89f4 bf3d
00000240: ee3d f73d c260 543b 6aaf c23d c806 0dbe
00000250: a5ef 0e3e ae8f 8ebd d35c 283e bc94 c3bc
00000260: 63b6 16be ef19 aabd 1f9c b0bd e045 083e
00000270: 2f54 163e d979 cabd d0b5 1abd 14c1 b0bd
00000280: f6cf 3d3e 0b24 a43d 641a c03d 06a8 1fbc
00000290: 781e 16be 009f fd3d a32e d23d 84cf 02bc
000002a0: f362 38be a61c 833d 74d7 e0bd 293b f83d
000002b0: 2c7d d03d 97d4 0f3e bff0 8ebd 1617 23be
000002c0: e883 fd3d f534 233e 856f 84bd a0b7 993d
000002d0: 3b5e cbbc e08d c93d d29a 8bbd 4193 aa3d
000002e0: 347a 1f3d 6b08 4bbc 0c11 e0bd d001 be3d
000002f0: 0f5a e6bd 1b1a d4bd 6655 2bbe ea5b 843c
00000300: cd95 4d3d b08e 25be a1a0 29be 69a6 dabd
00000310: 088a 17be 0e03 4b3d 11a4 543e 9015 6fbd
00000320: 71b8 4a3d 89d6 10bd af97 7bbd d0c2 353d
00000330: 0ea8 20bd d5f8 b83c 4989 8f3d 7dcd 13be
00000340: a371 27bc 027f b53d 9a5f 4bbd 6212 b4bd
00000350: b57b 2f3e 8ece 1bbe ec1a ecbd 441c 063e
00000360: 7eb2 53bd e583 493e 1ce4 283d a305 a6bd
00000370: 831d fb3d df30 2a3e e91a ac3d 0e33 febd
00000380: e8b3 83bd c61d 81bd 05a8 e5bd a833 c03d
00000390: 0b23 ebbd f755 443d b061 49be 40e0 2fbe
000003a0: c943 2dbe 55f6 333e f1a6 e53d 60a7 79bd
000003b0: a175 19be dbf1 123e 796e 85bc e632 00bd
000003c0: 8305 1bbe 43bb 9c3d 3d1d 163b d06a 3a3e
000003d0: 2835 27bc 6658 42bd 8bc8 b63d 77fd cd3d
000003e0: e3f4 0d3e e830 983d e80c f9bd 4e88 39bc
000003f0: 174c 8cbd a81f 313e cf4f 58be 7cdf 3e3e

p2iLayer.a f4 [352, 1]
0.10450284 -0.20478421 0.15222012 -0.17081839 -0.10619229 -0.11138158 -0.050760087 -0.02596461
0.19147 0.14486685 0.084465936 0.103867345 0.10382817 -0.08419304 -0.18832567 0.08464376
-0.0248507 0.07598664 0.031728093 -0.032796368 -0.059674233 0.17044663 -0.14769614 0.0967618
-0.19017279 -0.16618878 -0.12844041 -0.018682348 0.06347773 -0.15810691 -0.13676745 -0.06485268
0.11439864 0.00028673353 -0.20274699 -0.038003933 -0.13168699 0.006060566 -0.13836896 0.057815496
0.10087063 0.121029146 -0.086691916 0.031898182 0.16190258 -0.11290761 0.047531344 -0.08433382
0.17074072 0.091651686 -0.053841393 -0.061113127 0.091766655 -0.17111532 -0.0909734 -0.004699054
0.1979763 0.14376073 -0.08731613 -0.034267165 0.07848632 0.0584997 0.08825105 -0.063174814
0.011050668 -0.01698019 -0.016060254 -0.011782553 0.08573533 0.15018775 0.026481258 0.08405873
0.16207698 -0.084158406 0.0053399736 -0.05908886 -0.075022765 0.039522912 -0.1386159 0.16243975
-0.1322511 0.11625373 -0.04762682 0.15507291 -0.119569965 0.064712025 -0.12039332 -0.016631061
0.12214268 0.1772564 0.19787924 0.013786621 -0.05717753 0.026076483 -0.057462443 -0.05237735
-0.034343287 -0.16675521 0.16579624 0.11899628 -0.19548498 -0.0070665614 -0.17230047 -0.07987369
-0.13041258 0.14250737 -0.1267016 0.11315195 -0.035929803 -0.1279982 0.046704017 -0.047887933
-0.10559333 -0.08150304 -0.13955946 -0.12119506 -0.117288165 0.031682897 -0.0448091 -0.02147508
0.047102068 0.02847259 -0.1534377 -0.03324832 0.18560013 -0.09066598 0.011487941 0.08396629
0.13638291 0.1580761 0.008417693 -0.06836319 0.14478931 -0.09154319 -0.048461087 -0.07128392
-0.09929608 -0.083628245 -0.088822775 -0.19262967 -0.03618647 -0.08555979 0.041363463 0.053679753
0.10471812 -0.02042532 -0.19838667 0.12351106 0.10417696 0.107362226 0.05124371 -0.07453943
0.07940551 -0.1189953 0.0697599 0.13057461 0.006886711 -0.12553543 -0.06641881 0.011299669
0.09186997 0.16459852 -0.17481427 0.027747711 -0.0014115236 -0.067692995 0.18897979 0.079575524
0.017442139 -0.074791126 -0.04611939 -0.05034208 -0.049352683 0.17610767 -0.08619785 0.0677544
-0.14654964 -0.13118221 0.0945539 -0.09696136 -0.0757983 -0.17396379 0.18665813 -0.063405186
-0.17409573 0.065301426 0.082101375 -0.06184729 0.05834856 -0.042652845 -0.00984626 0.08637892
0.012993751 -0.10907101 -0.11263307 0.0011873551 0.059344854 -0.14308482 -0.0922805 0.09969833
0.0037694292 0.07041902 -0.010480288 -0.1361644 -0.10202082 0.09902476 -0.101180844 0.05617543
0.045619518 -0.05088527 0.083781116 0.058340874 0.12762181 0.016483268 -0.15058999 -0.008788029
0.09041661 -0.011762152 -0.043076593 0.09912624 -0.11165522 0.04254383 -0.07560265 -0.118374296
-0.014249881 -0.0069113635 -0.13125405 0.14326453 -0.016188314 -0.043457 0.023410518 0.12036872
-0.10599896 0.045106713 0.106869295 -0.025259113 0.08137028 0.044868175 -0.13387552 -0.09786135
0.050000954 -0.035350904 -0.108725645 0.076990604 -0.18440452 -0.042790744 0.05311376 -0.16159701
-0.12670949 -0.050354823 -0.05484616 -0.11106134 0.04173175 0.113026164 -0.10870075 0.1400494
00000000: 9605 d63d f4b2 51be 97df 1b3e 04eb 2ebe
00000010: 587b d9bd 071c e4bd cfe9 4fbd bcb3 d4bc
00000020: b610 443e fa57 143e 7afc ac3d 67b8 d43d
00000030: dda3 d43d 676d acbd 72d8 40be b559 ad3d
00000040: b293 cbbc e29e 9b3d 51f5 013d 7c55 06bd
00000050: f86c 74bd 9089 2e3e a83d 17be 0d2b c63d
00000060: a8bc 42be 642d 2abe e285 03be b90b 99bc
00000070: 9d00 823d c7e6 21be c40c 0cbe 7bd1 84bd
00000080: d649 ea3d b954 9639 e89c 4fbe 03aa 1bbd
00000090: f4d8 06be b697 c63b 98b0 0dbe f1cf 6c3d
000000a0: 4395 ce3d 21de f73d 888b b1bd aba7 023d
000000b0: cac9 253e 1b3c e7bd 3ab0 423d 36b7 acbd
000000c0: a8d6 2e3e e1b3 bb3d cb88 5cbd c251 7abd
000000d0: 28f0 bb3d db38 2fbe 4350 babd 86fa 99bb
000000e0: 4dba 4a3e 0336 133e cdd2 b2bd ba5b 0cbd
000000f0: 70bd a03d 629d 6f3d f7bc b43d cc61 81bd
00000100: dc0d 353c 0a1a 8bbc cb90 83bc 9c0b 41bc
00000110: 0196 af3d d1ca 193e 39ef d83c fc26 ac3d
00000120: 82f7 253e 3e5b acbd f2fa ae3b 2907 72bd
00000130: 89a5 99bd c7e2 213d 54f1 0dbe 9b56 263e
00000140: d56c 07be 7016 ee3d 5714 43bd 6fcb 1e3e
00000150: 19e1 f4bd bd87 843d c690 f6bd dd3d 88bc
00000160: f125 fa3d b482 353e dba0 4a3e 48e1 613c
00000170: fc32 6abd 599e d53c bd5d 6bbd a289 56bd
00000180: 8cab 0cbd e1c1 2abe 7dc6 293e 52b4 f33d
00000190: 372d 48be 9d8e e7bb 896f 30be d194 a3bd
000001a0: e08a 05be 74ed 113e 10be 01be 36bc e73d
000001b0: 212b 13bd f611 03be b64c 3f3d 2326 44bd
000001c0: 5141 d8bd 11eb a6bd ade8 0ebe 1e35 f8bd
000001d0: c734 f0bd edc5 013d bf89 37bd 82ec afbc
000001e0: 19ee 403d 593f e93c c61e 1dbe 642f 08bd
000001f0: f60d 3e3e 16af b9bd eb37 3c3c 85f6 ab3d
00000200: f6a7 0b3e b3de 213e 5dea 093c 0002 8cbd
00000210: a643 143e ff7a bbbd 227f 46bd 4efd 91bd
00000220: be5b cbbd 4945 abbd b7e8 b5bd b640 45be
00000230: 4438 14bd f939 afbd bc6c 293d 4ddf 5b3d
00000240: 7476 d63d 0053 a7bc e025 4bbe 5ef3 fc3d
00000250: bb5a d53d bae0 db3d ede4 513d 21a8 98bd
00000260: 5b9f a23d cfb3 f3bd 47de 8e3d 5ab5 053e
00000270: eba9 e13b 5c8c 00be 9606 88bd 3f22 393c
00000280: 5326 bc3d 848c 283e 8302 33be 2b4f e33c
00000290: df02 b9ba a0a2 8abd eb83 413e 7ef8 a23d
000002a0: d1e2 8e3c 172c 99bd afe7 3cbd 7f33 4ebd
000002b0: 0a26 4abd 9255 343e 8088 b0bd d2c2 8a3d
000002c0: 1c11 16be a154 06be 7aa5 c13d ad93 c6bd
000002d0: 243c 9bbd 9023 32be 4f23 3f3e 94da 81bd
000002e0: 2746 32be c1bc 853d c424 a83d 9553 7dbd
000002f0: e6fe 6e3d c0b4 2ebd 3552 21bc 6ee7 b03d
00000300: bee3 543c 9f60 dfbd 2bac e6bd 07a1 9b3a
00000310: 9713 733d d484 12be 8ffd bcbd a32e cc3d
00000320: 8708 773b d937 903d 84b5 2bbc ae6e 0bbe
00000330: 4bf0 d0bd 7ecd ca3d e737 cfbd 3518 663d
00000340: 88db 3a3d 136d 50bd 6f95 ab3d d7f6 6e3d
00000350: 4baf 023e eb07 873c 4334 1abe aafb 0fbc
00000360: 582c b93d 0bb6 40bc 1571 30bd b302 cb3d
00000370: 7eab e4bd 7042 2e3d 90d5 9abd 396e f2bd
00000380: 5578 69bc b878 e2bb 7667 06be f0b3 123e
00000390: 5b9d 84bc f8ff 31bd 6ac7 bf3c e083 f63d
000003a0: fc15 d9bd d1c1 383d 4ade da3d 33ec cebc
000003b0: 76a5 a63d b1c7 373d aa16 09be 886b c8bd
000003c0: cdcd 4c3d 1ccc 10bd 8dab debd 40ad 9d3d
000003d0: 8ad4 3cbe 5945 2fbd d08d 593d b079 25be
000003e0: 22c0 01be dc40 4ebd 5ea6 60bd 2174 e3bd
000003f0: e9ee 2a3d 437a e73d 809e debd 1c69 0f3e

intersectionLayer.W f4 [48, 46]
0.021181565 -0.011742234 -0.035823386 0.17051634 0.007183548 0.06578929 -0.11764654 0.01826782
0.13666515 -0.1464278 0.023364825 -0.16264579 0.23157416 -0.166735 0.020657968 -0.2163848
0.063625336 -0.13668537 0.036090165 -0.16218895 -0.14511496 0.21607819 -0.19479418 0.21501946
0.034355324 -0.099058576 0.101929866 -0.15374449 0.2438927 -0.043514416 -0.1151795 0.18347582
0.08702234 0.19382061 -0.21236114 -0.117095426 -0.24736422 -0.26611105 0.019120753 0.023021083
0.21759725 0.2424225 0.1760156 -0.19899343 -0.098218694 0.13608672 0.019900959 -0.07965131
-0.2502847 0.31367218 0.09098479 -0.15553446 -0.043046072 -0.14768407 -0.06488267 -0.08692354
-0.21911922 -0.1271669 0.14731516 -0.10025926 0.06478821 0.13418515 -0.15211473 0.20726494
0.004665127 -0.03267593 0.00014369209 0.19602445 0.21179186 0.16988389 0.11878648 0.22697082
0.17338826 0.09391032 0.109534375 0.19208224 0.027055314 -0.15467839 -0.0828002 0.07535502
-0.06444034 0.114751 0.01269374 -0.1766607 0.2566842 -0.2292014 -0.09735528 0.18800038
-0.009218556 -0.07355565 0.16863638 -0.00060280866 -0.20049481 0.003884375 -0.16815072 -0.19409724
0.0067165345 -0.0030681377 -0.16335768 -0.14402463 -0.03103293 -0.11198122 -0.10905023 -0.077382974
0.10267873 0.044089396 -0.23044251 -0.07611569 0.18798798 -0.2332303 0.11333166 0.19294882
0.19352315 0.016220056 -0.18535386 -0.22882757 -0.078091264 -0.13574028 0.021858873 -0.07589145
0.15301229 0.2351249 0.013273634 -0.09969808 -0.009400699 -0.13356411 0.22771855 -0.17666015
0.111908846 -0.11675006 0.12654653 0.045015812 0.012967928 -0.2198824 -0.17920268 -0.10083011
0.24054855 -0.15089777 0.13417129 0.07451463 0.029026764 0.2429067 0.04897514 0.24869616
0.13139665 0.21180932 0.058583066 0.11346197 -0.08155543 0.084258676 0.11638048 -0.1822753
0.11467204 -0.11131897 0.24031763 -0.17088713 0.23857233 -0.26778 -0.18899073 0.08038703
-0.08303494 0.1190477 0.16711959 -0.12090884 0.028452748 -0.19874516 0.25147876 -0.14168543
0.19148773 -0.20542511 0.104675464 -0.05214856 -0.20982812 -0.22103186 -0.19375941 -0.10944639
0.25835508 0.23061396 -0.071753554 -0.006545643 0.24676688 -0.105439216 0.026475916 -0.14724526
0.09442115 -0.20055729 0.0070256093 0.058778476 0.23079811 0.12673348 0.08025054 -0.027135106
-0.12880863 0.035555698 0.15829813 -0.22532168 0.2583885 -0.030837338 -0.10847761 -0.016291602
-0.046507023 0.20294671 -0.20779036 0.22192636 0.17432515 0.14624241 -0.23146397 0.075439036
-0.026386919 0.07565084 0.028364433 -0.09110835 -0.104001515 -0.27397037 -0.020207595 0.007637634
0.004376424 0.0990208 0.16816399 0.22179754 0.034638688 -0.08773003 0.11775996 -0.028492298
0.043900423 0.08165883 -0.28805274 -0.24171916 -0.18262349 -0.035370596 0.13872094 -0.031062528
-0.14689021 -0.084753245 0.17272034 0.16557875 -0.24148473 0.2836126 -0.09745089 -0.2325633
-0.002378502 -0.19301508 -0.107986294 0.23390102 0.0859859 -0.15916307 -0.27838048 -0.0041330033
0.25030643 -0.054427125 0.18933456 0.023557376 0.14914234 0.0151996035 0.1740928 0.054985043
00000000: f684 ad3c 8062 40bc 8bbb 12bd d69b 2e3e
00000010: f863 eb3b 89bc 863d abf0 f0bd 65a6 953c
00000020: f3f1 0b3e 2bf1 15be 9767 bf3c 9e8c 26be
00000030: c721 6d3e 94bc 2abe e63a a93c fa93 5dbe
00000040: 004e 823d 40f7 0bbe 48d3 133d dc14 26be
00000050: 0499 14be 9a43 5d3e 2078 47be 102e 5c3e
00000060: 2bb8 0c3d 39df cabd 9bc0 d03d 326f 1dbe
00000070: 02bf 793e 2c3c 32bd 3be3 ebbd 16e1 3b3e
00000080: c538 b23d e978 463e 3375 59be bacf efbd
00000090: 0c4d 7dbe b53f 88be 20a3 9c3c b696 bc3c
000000a0: d0d1 5e3e 9b3d 783e 6f3d 343e efc4 4bbe
000000b0: e226 c9bd 515a 0b3e 5607 a33c 3a20 a3bd
000000c0: 5125 80be a499 a03e 3c56 ba3d 6d44 1fbe
000000d0: 1451 30bd 7e3a 17be 35e1 84bd f804 b2bd
000000e0: ca60 60be 0a38 02be c9d9 163e ba54 cdbd
000000f0: aeaf 843d d567 093e f7c3 1bbe 433d 543e
00000100: ecdd 983b 32d7 05bd 0dac 1639 a2ba 483e
00000110: f7df 583e 0bf6 2d3e 5346 f33d 0a6b 683e
00000120: b18c 313e 0e54 c03d 8f53 e03d 35b1 443e
00000130: 1ba3 dd3c 0364 1ebe 2793 a9bd bc53 9a3d
00000140: 4cf9 83bd 9302 eb3d 68f9 4f3c 8be6 34be
00000150: 1d6c 833e c6b3 6abe 3462 c7bd 2c83 403e
00000160: 6d09 17bc 58a4 96bd 04af 2c3e ce05 1eba
00000170: 834e 4dbe 0091 7e3b b42f 2cbe 6dc1 46be
00000180: 6016 dc3b cf12 49bb 3c47 27be 317b 13be
00000190: c538 febc 6956 e5bd ba55 dfbd f77a 9ebd
000001a0: 3a49 d23d 1597 343d 1ff9 6bbe 8be2 9bbd
000001b0: ec7f 403e ecd3 6ebe 6e1a e83d 6094 453e
000001c0: ef2a 463e ecdf 843c 67cd 3dbe c651 6abe
000001d0: 50ee 9fbd 80ff 0abe 6111 b33c fa6c 9bbd
000001e0: 41af 1c3e 95c4 703e a879 593c 822e ccbd
000001f0: 6405 1abc 08c5 08be 0d2f 693e 66e6 34be
00000200: 7730 e53d a81a efbd 6a95 013e 8062 383d
00000210: 6f77 543c da28 61be e880 37be 0480 cebd
00000220: 5c52 763e f284 1abe 3364 093e 209b 983d
00000230: 89c9 ed3c 89bc 783e 289a 483d 35aa 7e3e
00000240: d88c 063e 8be4 583e ccf4 6f3d c05e e83d
00000250: 8906 a7bd d08f ac3d e458 ee3d 60a6 3abe
00000260: 2dd9 ea3d 33fb e3bd d315 763e 09fd 2ebe
00000270: 4e4c 743e 761a 89be c986 41be f5a1 a43d
00000280: 390e aabd 48cf f33d 6621 2b3e 0e9f f7bd
00000290: bd15 e93c da83 4bbe d3c1 803e fc15 11be
000002a0: 5c15 443e f65a 52be 1760 d63d ba99 55bd
000002b0: 2fdd 56be 2d56 62be de68 46be 6e25 e0bd
000002c0: 1e47 843e 1126 6c3e 87f3 92bd d57c d6bb
000002d0: 75b0 7c3e 84f0 d7bd 05e4 d83c 76c7 16be
000002e0: e05f c13d e45e 4dbe 1537 e63b b3c1 703d
000002f0: 5756 6c3e 6cc6 013e 655a a43d 714a debc
00000300: 69e6 03be daa2 113d e818 223e baba 66be
00000310: 7f4b 843e 969e fcbc 8229 debd f775 85bc
00000320: 267e 3ebd 43d1 4f3e ffc6 54be aa40 633e
00000330: 4b82 323e 92c0 153e e404 6dbe c87f 9a3d
00000340: 6129 d8bc d4ee 9a3d 875c e83c 0497 babd
00000350: bffe d4bd d845 8cbe 668a a5bc 1e45 fa3b
00000360: 1b68 8f3b 6bcb ca3d 2e33 2c3e e51e 633e
00000370: 4ce1 0d3d cdab b3bd 222c f13d ae68 e9bc
00000380: eed0 333d bf3c a73d a67b 93be 3a85 77be
00000390: a701 3bbe c2e0 10bd dd0c 0e3e d876 febc
000003a0: 636a 16be 1c93 adbd 9add 303e 7a8d 293e
000003b0: c647 77be ac35 913e 5594 c7bd 1325 6ebe
000003c0: a4e0 1bbb bfa5 45be eb27 ddbd c083 6f3e
000003d0: 6019 b03d a5fb 22be e387 8ebe 256e 87bb
000003e0: 2a28 803e faee 5ebd ebe0 413e 66fb c03c
000003f0: c5b8 183e c207 793c 6245 323e ff37 613d

neighborLayer.W f4 [6, 32]
-0.22513798 0.15949877 0.3311754 -0.16222805 -0.4214576 -0.07173553 0.06511778 0.24752921
-0.24144247 -0.04611561 -0.052489907 0.09467537 -0.09074326 -0.027129347 0.34312445 0.323749
0.0287078 -0.13407893 -0.23700254 -0.110115156 -0.41057554 0.33609822 -0.14543211 -0.42717814
0.34784716 -0.32402378 -0.1573984 -0.33072126 0.26834258 0.40661845 0.236854 -0.19483915
0.11163101 -0.21057619 -0.05525104 -0.087194405 0.45276734 -0.16754921 0.25642917 -0.07994043
-0.13484086 0.11155717 -0.04438584 -0.40899116 0.38833466 -0.068514705 0.14301963 0.22827682
-0.03377775 0.026848864 0.21066839 -0.19961745 0.26502207 -0.24934627 -0.17381045 0.26818755
-0.18885265 -0.40474325 0.23340139 0.30780798 0.035645645 -0.2487496 -0.09153011 -0.20274691
0.03213047 0.12908463 0.1909635 0.25745374 -0.1792463 0.18307291 -0.2836523 -0.2975968
-0.21067373 0.24970852 0.34360853 0.02372609 0.098643795 0.36778766 0.17652021 -0.25830826
0.10200613 0.30696392 0.1884005 0.32960287 0.0044112736 -0.08188922 0.012374824 -0.27693203
0.0541333 -0.32228294 0.14343522 0.06444522 0.37287256 -0.21997651 -0.02208075 0.06843506
-0.12350245 0.15052317 -0.08304492 -0.22988632 0.11800964 0.18782993 -0.07208053 0.24143398
0.07048783 -0.14293896 -0.07178645 0.1695148 -0.33078352 0.12646492 0.27926272 -0.3198899
0.30809212 0.351491 -0.35846186 -0.24763446 0.12129841 0.032015875 0.27295893 0.30030444
0.3063154 -0.029320894 0.020103866 -0.14690284 -0.22793609 0.20312433 0.33342466 -0.23396215
0.1030264 0.066086106 -0.03925135 0.08337232 -0.16020249 0.011523235 -0.32044464 -0.113128945
-0.114253156 -0.30287558 -0.26329285 0.18201384 0.2745326 -0.057658687 -0.04967913 0.24945928
-0.070128165 0.23829752 -0.098884955 -0.12708585 0.29498976 0.09692472 0.07766025 0.05449367
0.16705903 0.3150318 -0.28015926 -0.45635238 0.38377798 0.09027606 -0.15592758 -0.10348271
-0.28860626 -0.21525563 -0.34356225 0.35299087 0.07299912 0.1805489 0.31383443 0.16227345
0.23611642 0.27187735 -0.29023916 0.28359935 0.10567107 -0.24641427 0.22663228 -0.26064855
-0.03997165 -0.32185346 -0.30146095 -0.107698515 0.11497149 -0.26570338 0.26734594 0.4103115
0.2736017 -0.24232347 -0.058244426 -0.23113465 0.37614244 -0.36451495 -0.13412617 -0.10236552
00000000: 928a 66be a553 233e d28f a93e 1c1f 26be
00000010: 4ac9 d7be 14ea 92bd 785c 853d 4c78 7d3e
00000020: b23c 77be b9e3 3cbd a8ff 56bd 29e5 c13d
00000030: 9ad7 b9bd 5d3e debc 02ae af3e 6ec2 a53e
00000040: 9f2c eb3c fd4b 09be cbb0 72be 0e84 e1bd
00000050: f536 d2be 1115 ac3e 28ec 14be 18b7 dabe
00000060: 0619 b23e 72e6 a5be 0c2d 21be 4c54 a9be
00000070: 3364 893e 4b30 d03e db89 723e ea83 47be
00000080: cd9e e43d 49a1 57be ea4e 62bd fb92 b2bd
00000090: 1fd1 e73e 0592 2bbe af4a 833e cfb7 a3bd
000000a0: b913 0abe 1678 e43d edcd 35bd 4a67 d1be
000000b0: cdd3 c63e 7051 8cbd bd73 123e 66c1 693e
000000c0: 8a5a 0abd 26f2 db3c 74b9 573e 8468 4cbe
000000d0: f9b0 873e a154 7fbe 5efb 31be e14f 893e
000000e0: 9762 41be 823a cfbe c600 6f3e 0299 9d3e
000000f0: 2b01 123d 37b8 7ebe 2374 bbbd e39c 4fbe
00000100: 3d9b 033d c32e 043e f08b 433e fad0 833e
00000110: 588c 37be 7777 3b3e e03a 91be 9c5e 98be
00000120: dbba 57be 97b3 7f3e 75ed af3e 385d c23c
00000130: c205 ca3d aa4e bc3e b7c1 343e fb40 84be
00000140: 97e8 d03d 602a 9d3e 10ec 403e b5c1 a83e
00000150: 728c 903b 89b5 a7bd c6bf 4a3c 09ca 8dbe
00000160: e1ba 5d3d 4502 a5be afe0 123e dbfb 833d
00000170: 27e9 be3e 8641 61be b0e2 b4bc ae27 8c3d
00000180: daee fcbd bf22 1a3e 7413 aabd 5267 6bbe
00000190: 0aaf f13d 7d56 403e f59e 93bd 783a 773e
000001a0: ec5b 903d 975e 12be c604 93bd 4a95 2d3e
000001b0: 755c a9be 0580 013e 86fb 8e3e 9cc8 a3be
000001c0: 40be 9d3e a1f6 b33e 5088 b7be e393 7dbe
000001d0: 4d6b f83d 1423 033d 46c1 8b3e 81c1 993e
000001e0: 5fd5 9c3e 5f32 f0bc ddb0 a43c b36d 16be
000001f0: 1468 69be d3ff 4f3e a3b6 aa3e c693 6fbe
00000200: 81ff d23d 2758 873d 06c6 20bd 1bbf aa3d
00000210: 1f0c 24be f3cb 3c3c 5211 a4be 26b0 e7bd
00000220: 8ffd e9bd 8212 9bbe 52ce 86be d661 3a3e
00000230: 898f 8c3e 842b 6cbd 587c 4bbd 4172 7f3e
00000240: 5b9f 8fbd 4404 743e 3284 cabd cb22 02be
00000250: e608 973e 7880 c63d 560c 9f3d c134 5f3d
00000260: 8611 2b3e d94b a13e 0971 8fbe 05a7 e9be
00000270: 8c7e c43e a8e2 b83d 7bab 1fbe beee d3bd
00000280: 33c4 93be f96b 5cbe 64e7 afbe 38bb b43e
00000290: 9080 953d d0e1 383e e8ae a03e 032b 263e
000002a0: 81c8 713e 8233 8b3e 3a9a 94be ef33 913e
000002b0: 136a d83d 0654 7cbe 4b12 683e ba73 85be
000002c0: 50b9 23bd fac9 a4be 1759 9abe 0a91 dcbd
000002d0: 2c76 eb3d 460a 88be 91e1 883e 5914 d23e
000002e0: 8615 8c3e a523 78be b591 6ebd 90ae 6cbe
000002f0: be95 c03e b4a1 babe 5f58 09be 04a5 d1bd

neighborLayer.a f4 [64, 1]
0.15759853 0.12933783 0.27616715 0.31704846 -0.20343468 -0.23093532 -0.027156333 -0.051542297
-0.32285497 0.29623395 0.25814041 -0.28654167 -0.105041765 0.051878218 -0.21613562 0.013645638
-0.2582781 -0.024908032 0.18570463 -0.014885192 0.048192956 -0.29167435 0.20965637 -0.19939156
0.26410148 -0.23487528 0.2157681 0.21519993 0.15817939 0.022123698 -0.15300922 0.06581059
-0.0068204016 0.26437974 -0.09938232 0.009209385 0.06461113 0.18405478 0.27968293 0.01413142
0.023743175 -0.15841904 0.1901648 -0.15768524 -0.18070494 0.2695505 0.19528852 0.18782642
-0.21231405 -0.29176554 -0.071362086 0.1322461 0.06268708 0.16941859 0.250722 -0.011669142
0.20448008 -0.31840935 0.23834664 -0.12318391 0.23632677 -0.31943324 -0.051989578 0.06895104
00000000: 8261 213e 2371 043e c865 8d3e 2d54 a23e
00000010: 2e51 50be 4f7a 6cbe f576 debc 041e 53bd
00000020: 3f4d a5be faab 973e fb2a 843e 97b5 92be
00000030: 2320 d7bd 417e 543d a852 5dbe f491 5f3c
00000040: 073d 84be ee0b ccbc 5b29 3e3e 05e1 73bc
00000050: fa65 453d 5756 95be 29b0 563e 4d2d 4cbe
00000060: 4f38 873e 2583 70be 50f2 5c3e 5f5d 5c3e
00000070: c7f9 213e c23c b53c 73ae 1cbe b4c7 863d
00000080: ad7d dfbb c85c 873e f588 cbbd f6e2 163c
00000090: d752 843d db78 3c3e 9a32 8f3e 7987 673c
000000a0: 0c81 c23c 9a38 22be 90ba 423e 3d78 21be
000000b0: b70a 39be 8602 8a3e b7f9 473e 9255 403e
000000c0: db68 59be 4b62 95be 4926 92bd 866b 073e
000000d0: 1562 803d 117c 2d3e a25e 803e ee2f 3fbc
000000e0: 3a63 513e 8d06 a3be 2411 743e d947 fcbd
000000f0: a5ff 713e c18c a3be 06f3 54bd 3436 8d3d
