test/model/actor_4_3_2_3_2_84_best_rou0.pth (torch, 689372 bytes, 17 tensors)

v2lLayer.W f4 [3, 40]
0	0xbe239e9c	-0.15978473
1	0x3e56ca68	0.2097565
2	0x3df76a6d	0.12080846
3	0xbe9c6336	-0.30544442
4	0x3d889815	0.06669632
5	0x3e9b55c7	0.3033888
6	0xbe8391b0	-0.25697088
7	0xbd5cb9fc	-0.053888306
8	0x3e7e33ca	0.24824443
9	0xbe00b888	-0.12570393
10	0x3e121664	0.14266354
11	0xbe9d033d	-0.30666533
12	0x3ebd719d	0.37000743
13	0xbe810c8a	-0.2520488
14	0x3e30beb5	0.17260249
15	0x3e9677ba	0.2938822
16	0x3e4df7f2	0.20114115
17	0xbe7c63c6	-0.24647436
18	0xbe52c12d	-0.20581503
19	0xbdd1f63a	-0.10252042
20	0x3df84d56	0.12124126
21	0xbd0cb82a	-0.03435532
22	0x3e9679a2	0.29389673
23	0x3e288324	0.16456276
24	0x3ea324bf	0.31863973
25	0xbcc85bd1	-0.024457844
26	0xbe5bd9a3	-0.2146974
27	0x3dca2aee	0.098714694
28	0xbda12349	-0.07868058
29	0x3dadae08	0.084804595
30	0xbe777918	-0.24167287
31	0xbd7078f3	-0.058709096
32	0x3e0db35a	0.13837948
33	0xbda41fb1	-0.08013857
34	0x3d7b5c52	0.06136734
35	0x3d3e0f02	0.04640103
36	0xbe443462	-0.19160607
37	0x3e46e09a	0.19421616
38	0xbd9139d3	-0.07091107
39	0x3d4100e7	0.04712
40	0x3e05e854	0.13076907
41	0xbe597cd2	-0.21239021
42	0x3ed75a6c	0.42061174
43	0xbd50423c	-0.050844416
44	0xbe6325e2	-0.2218242
45	0x3e4a6405	0.19764717
46	0x3de9f87c	0.11424348
47	0x3de0939c	0.10965654
48	0xbe9b27ba	-0.30303746
49	0xbd1aec5e	-0.037823074
50	0xbe039694	-0.1285041
51	0xbeded3b4	-0.43520892
52	0x3e06f7ad	0.13180418
53	0x3d2b2a08	0.04178813
54	0x3d14775e	0.03624665
55	0x3ea3db4a	0.32003242
56	0xbe0866d5	-0.13320477
57	0xbed6bef5	-0.41942564
58	0xbec7453b	-0.38920006
59	0x3ddce9d1	0.107867844
60	0x3da3cc68	0.07997972
61	0x3d9016d4	0.07035604
62	0xbd9978f8	-0.07493776
63	0xbe783ba7	-0.24241506
64	0xbecfc16d	-0.4057726
65	0x3df13eeb	0.11779579
66	0xbe8d5ec3	-0.2761136
67	0xbeeaf37a	-0.45888883
68	0x3e6e7153	0.23285417
69	0x3e1d1c31	0.15342785
70	0xbea000e5	-0.31250682
71	0xbe8b08b2	-0.27155071
72	0xbe9c7d5a	-0.30564386
73	0xbdf71ae1	-0.120656736
74	0xbe4847f2	-0.19558695
75	0xbeac1d30	-0.33616018
76	0xbe8e7c43	-0.2782918
77	0x3e0af2f6	0.13569245
78	0x3e708f0a	0.23492065
79	0xbea63b20	-0.32466984
80	0xbdfbcc35	-0.12294809
81	0xbd955afd	-0.07292745
82	0x3e8febcc	0.28109586
83	0x3ea1f390	0.31631136
84	0x3e948b4b	0.29012522
85	0xbe914a61	-0.2837706
86	0x3ea8254c	0.32840955
87	0xbe71af6f	-0.23602079
88	0xbe6d0b6b	-0.23148887
89	0xbcbcf171	-0.023064347
90	0x3e983551	0.29728177
91	0xbe88905e	-0.26672643
92	0x3eb13c2c	0.3461622
93	0x3e9f4e78	0.31114554
94	0xbe8ebeca	-0.27879936
95	0xbd0d0ebf	-0.03443789
96	0xbc995129	-0.018715458
97	0xbea841cb	-0.32862696
98	0xbe8bb463	-0.27286062
99	0xbc18246b	-0.0092860265
100	0xbe79ae05	-0.2438279
101	0x3e176282	0.14783671
102	0x3eafb040	0.34314156
103	0xbe94c43b	-0.29055962
104	0x3c1e8bc7	0.00967688
105	0x3e621614	0.22078735
106	0x3d12aa09	0.03580669
107	0x3d32c381	0.04364348
108	0xbd916608	-0.07099539
109	0x3e214537	0.1574906
110	0xbdef966c	-0.116986126
111	0xbd005485	-0.031330604
112	0xbe91b629	-0.2845929
113	0x3e59423e	0.21216676
114	0x3db2d11f	0.08731293
115	0x3ed29fa5	0.41137424
116	0x3e848809	0.25885037
117	0x3e31d7f0	0.1736753
118	0xbda8a405	-0.08234409
119	0xbd5f4d99	-0.054517362

v2lLayer.a f4 [80, 1]
0	0xbe2e5137	-0.17023169
1	0x3e8641f9	0.26222208
2	0x3e27fd3a	0.16405192
3	0x3e8e3940	0.27778053
4	0x3d9ff254	0.07809892
5	0x3e82cc75	0.25546613
6	0x3e62f316	0.22163042
7	0xbdd2e5b2	-0.10297717
8	0x3d9300f2	0.07177915
9	0xbd5027c7	-0.050819185
10	0x3d2bf8f0	0.041985452
11	0xbe2212c7	-0.15827475
12	0x3e3e765b	0.18599837
13	0x3e7a28d2	0.24429634
14	0xbe71dc9a	-0.23619309
15	0x3e8b0d60	0.27158642
16	0x3dca22ca	0.09869917
17	0x3e5b7096	0.21429667
18	0x3df303de	0.11865972
19	0xbc151fa0	-0.009101778
20	0xbe92e7d9	-0.2869251
21	0xbe7693ea	-0.24079862
22	0x3e4ea8f0	0.20181632
23	0x3c9cf62b	0.01916035
24	0xbe42db21	-0.19028904
25	0x3e40d32e	0.18830559
26	0x3dff102c	0.124542564
27	0xbe09c3a9	-0.13453545
28	0xbe26cf8b	-0.16290109
29	0x3e0200ba	0.1269559
30	0xbdb74255	-0.08948199
31	0xbe20f033	-0.15716629
32	0x3ccbdc5e	0.024885353
33	0x3e8e0150	0.27735376
34	0x3bc63f6f	0.0060500423
35	0x3e077b0f	0.13230537
36	0x3d2649fc	0.0405979
37	0x3d885c2f	0.066582076
38	0x3dd93d32	0.10607375
39	0x3d0466b7	0.03232452
40	0xbd8712fb	-0.06595417
41	0x3e050fde	0.12994334
42	0x3b0a5c81	0.0021112266
43	0x3ed78128	0.42090726
44	0xbdf72d19	-0.120691486
45	0xbd92fcfa	-0.07177158
46	0x3e932066	0.28735656
47	0xbd24498c	-0.040109202
48	0xbebb47a6	-0.365781
49	0x3e6d4f40	0.23174763
50	0xbd315803	-0.043296825
51	0x3e161b3c	0.14658827
52	0x3e475bec	0.19468659
53	0x3e9e26bf	0.30888936
54	0xbd51843d	-0.051151503
55	0x3e00a20b	0.12561814
56	0x3e0253f3	0.12727337
57	0xbd903289	-0.07040889
58	0xbd0ecb56	-0.034861885
59	0x3e9dc567	0.3081467
60	0xbe9d3c3e	-0.30710024
61	0x3ddad0a7	0.106843285
62	0xbe52525f	-0.20539235
63	0xbd5ca10b	-0.05386452
64	0xbe1dc3d2	-0.15406731
65	0x3e2c28d7	0.16812454
66	0xbe9159f7	-0.2838895
67	0xbddc9db2	-0.107722655
68	0x3d138a46	0.03602054
69	0x3e587d03	0.21141438
70	0xbe33c369	-0.17555012
71	0xbd918db8	-0.07107109
72	0xbe87a555	-0.26493326
73	0x3ea46964	0.32111657
74	0x3c9514e8	0.018198445
75	0x3d77dbcf	0.06051236
76	0xbd2dcb7a	-0.04243038
77	0x3e224cc9	0.15849604
78	0xbd1b2a3e	-0.037882082
79	0xbea7cf1f	-0.32775208

laneLayer.W f4 [12, 12]
0	0x3ed03ba3	0.406705
1	0x3d5aa599	0.053380582
2	0x3e9a77d4	0.30169547
3	0xbdf61d90	-0.12017357
4	0xbe305acf	-0.1722214
5	0xbe484f6c	-0.19561547
6	0x3e25f0c5	0.16205128
7	0xbd13e499	-0.03610668
8	0x3ec0701c	0.37585533
9	0xbe5f6ef2	-0.21819666
10	0x3eedf166	0.46473235
11	0x3e9805b6	0.29691857
12	0x3ed32e5b	0.41246304
13	0xbeeceeb5	-0.4627587
14	0x3ec3963b	0.38200554
15	0xbea91276	-0.33021897
16	0xbec6e8f9	-0.3884962
17	0xbe7db538	-0.2477616
18	0xbe3f2a79	-0.18668546
19	0x3e5433e5	0.20722921
20	0x3e31c420	0.17359972
21	0xbd213ef6	-0.039366685
22	0xbc498c08	-0.012301452
23	0x3d15fbae	0.036616974
24	0xbe67e18c	-0.22644633
25	0x3c24ec80	0.010066152
26	0xbe7a1744	-0.24422938
27	0x3cdd6d00	0.027029514
28	0xbe85e10a	-0.26148254
29	0xbe17ad70	-0.14812255
30	0x3e588a4c	0.21146506
31	0x3d4a3660	0.049368262
32	0x3ebcc73a	0.36870748
33	0x3e017e28	0.12645781
34	0x3e5f8938	0.21829689
35	0x3c74f080	0.014949918
36	0x3ef2a784	0.4739343
37	0xbe6c74a6	-0.23091373
38	0xbe8fd906	-0.28095263
39	0x3eb6feed	0.35741368
40	0x3e934f5f	0.28771493
41	0x3e2cf671	0.16890885
42	0xbf07efa8	-0.5310006
43	0xbe7ca3b3	-0.24671821
44	0xbe5dfba4	-0.21678025
45	0xbd9ee2d7	-0.0775811
46	0x3c4eaeb8	0.012614898
47	0xbedfee1a	-0.43736345
48	0x3e924c4c	0.28573835
49	0x3d612841	0.05497003
50	0x3d7eeebc	0.062239394
51	0x3efbb4e0	0.49161434
52	0xbe53f278	-0.20697963
53	0x3a955da4	0.0011395705
54	0x3dc1fecd	0.094724275
55	0x3ef86f51	0.48522428
56	0x3ee5be0e	0.44871563
57	0x3ef45902	0.47724158
58	0xbd4b873e	-0.049689524
59	0x3e53cd83	0.20683865
60	0xbed329b9	-0.4124277
61	0x3ed3db1d	0.41378108
62	0x3dc4d509	0.09610946
63	0xbebe4760	-0.3716383
64	0x3bfa4a6f	0.0076382677
65	0x3d5887da	0.052863933
66	0xbe8fdb84	-0.28097165
67	0x3e10a3cd	0.14124985
68	0x3eb632b8	0.3558557
69	0xbf0c7c2b	-0.54876965
70	0xbf073678	-0.5281749
71	0x3e3d6835	0.18496783
72	0x3d91c747	0.07118087
73	0x3e0e5743	0.13900475
74	0xbe3146ff	-0.17312239
75	0x3da385c0	0.07984495
76	0xbdea3534	-0.11435929
77	0xbed42c28	-0.4143994
78	0x3ea384f1	0.31937364
79	0xbd153856	-0.03643068
80	0x3e7b48b0	0.24539447
81	0x3eb36694	0.35039198
82	0x3e517bf5	0.20457442
83	0xbec9d75d	-0.39422122
84	0x3e854f82	0.26037222
85	0x3e6f1485	0.23347671
86	0xbec9805d	-0.39355746
87	0xbe96bd04	-0.29441082
88	0x3e743b3a	0.23850718
89	0xbef4a00b	-0.47778353
90	0xbd0401cc	-0.032228276
91	0xbdd9ffdf	-0.10644507
92	0x3e70a5dd	0.23500772
93	0xbe09c64b	-0.13454549
94	0xbdf510a3	-0.11966064
95	0xbe8abfb3	-0.2709938
96	0xbe9f92b7	-0.31166622
97	0xbd04d586	-0.032430194
98	0xbeb1eedb	-0.34752545
99	0x3c0cb390	0.008587733
100	0x3ea0c574	0.31400645
101	0xbdaef7d2	-0.08543362
102	0x3e8e4f0f	0.27794692
103	0xbe8d5680	-0.27605057
104	0xbecc4a40	-0.39900398
105	0x3e1a7f18	0.15087545
106	0x3bcfeb3b	0.0063451803
107	0x3e4b2fc8	0.19842446
108	0x3e2b2e79	0.16716947
109	0x3e8f021d	0.279313
110	0xbe93900d	-0.2882084
111	0x3c34ab0f	0.011027112
112	0xbe23d68c	-0.15999812
113	0xbe9d70f8	-0.3075025
114	0xbef2a4fd	-0.473915
115	0xbed10c3b	-0.40829644
116	0xbeaf8f85	-0.34289184
117	0xbe7b17f9	-0.24520864
118	0xbdb30cd0	-0.08742678
119	0x3edd6933	0.43244323
120	0x3e4ad0f0	0.19806266
121	0xbeb3a70d	-0.35088387
122	0xbe995b90	-0.2995267
123	0x3e956798	0.29180598
124	0x3b96bd67	0.0046002152
125	0xbed50a2c	-0.41609323
126	0x3e7db6b1	0.24776722
127	0xbc80a1e9	-0.015702205
128	0x3ed533fb	0.4164122
129	0x3e1cc368	0.15308917
130	0x3e8b11d2	0.27162033
131	0x3e8fbdaa	0.2807439
132	0x3e9183b6	0.284208
133	0x3ea2de80	0.3181038
134	0xbed99c86	-0.4250223
135	0xbd11e5b9	-0.03561947
136	0x3ed536d2	0.41643387
137	0xbe81f9e9	-0.2538598
138	0xbe51495a	-0.20438138
139	0x3e314220	0.17310381
140	0x3ea1eb62	0.31624895
141	0xbe39351b	-0.18086664
142	0xbf06d305	-0.5266574
143	0x3da3b7f5	0.079940714

l2pLayer.W f4 [12, 88]
0	0x3dc68eeb	0.09695228
1	0x3d8e73b5	0.06955663
2	0xbdcf4b68	-0.101218045
3	0xbde313e8	-0.11087781
4	0x3d2724db	0.040806632
5	0xbd70ecec	-0.058819696
6	0xbde4dd0e	-0.11174975
7	0x3e579b6c	0.21055382
8	0xbe766f65	-0.24065931
9	0x3d9efcac	0.07763037
10	0xbd2c54d9	-0.042073105
11	0x3e5277ff	0.20553587
12	0x3d124561	0.035710696
13	0xbdc1d463	-0.09464338
14	0xbe2e4cd2	-0.17021492
15	0x3d534964	0.051583663
16	0x3e180718	0.14846456
17	0xbdfd5386	-0.123694465
18	0xbe03fff5	-0.12890609
19	0x3e0651ed	0.1311719
20	0x3e8b9ea6	0.27269477
21	0xbe29fd52	-0.1660054
22	0x3dfae267	0.12250214
23	0xbe420b9a	-0.18949738
24	0xbe147806	-0.1449891
25	0x3dd6682c	0.10469088
26	0xbe719eed	-0.23595782
27	0x3e399310	0.18122506
28	0xbe90ecd6	-0.2830569
29	0x3e616593	0.22011404
30	0xbe2731ae	-0.16327545
31	0x3e4f9236	0.20270619
32	0xbe65ec1a	-0.22453347
33	0xbe4c2919	-0.19937553
34	0x3d9ca40d	0.07648478
35	0x3e8c2458	0.27371478
36	0x3e69b64c	0.22823447
37	0xbcea0aed	-0.028569663
38	0xbe0123a4	-0.12611252
39	0xbe471e7a	-0.1944522
40	0xbd669b20	-0.056300282
41	0x3e595bd6	0.21226439
42	0xbe203101	-0.15643694
43	0x3c2215b8	0.0098928735
44	0x3b485a18	0.0030571278
45	0x3e4f84ce	0.20265505
46	0x3e486c2b	0.19572513
47	0x3af0877c	0.0018350924
48	0x3e459d21	0.19298221
49	0x3df863e3	0.12128427
50	0x3dc37bc7	0.09545093
51	0xbe1024b5	-0.14076503
52	0x3d904355	0.070440926
53	0x3e291a8e	0.16514036
54	0xbe5cf7cd	-0.21578903
55	0xba9fb7c0	-0.0012185499
56	0x3e376571	0.1790979
57	0x3e4705c2	0.1943579
58	0x3e220ad3	0.15824442
59	0xbe385f57	-0.1800512
60	0xbe3acc2f	-0.18241952
61	0x3e3240fd	0.17407604
62	0x3d5a7e5e	0.05334317
63	0xbd6dc461	-0.05804861
64	0xbe2a94f9	-0.16658391
65	0x3d3aa7c9	0.04557017
66	0x3e035eca	0.12829128
67	0x3e5195b7	0.20467268
68	0x3d59abff	0.053142544
69	0xbda7719c	-0.08175966
70	0xbdb7c6b1	-0.08973444
71	0xbdc11918	-0.094286144
72	0xbc801394	-0.015634336
73	0xbddb4186	-0.10705857
74	0x3c83c8ca	0.016086955
75	0xbdd588b1	-0.104264624
76	0xbb9a1d11	-0.004703172
77	0x3e3267ed	0.17422457
78	0xbcb2751d	-0.02178436
79	0x3e5f93dd	0.21833749
80	0x3d4b4ce2	0.049633868
81	0x3e656471	0.22401597
82	0x3cb184ce	0.021669772
83	0x3dcd2ab0	0.100179076
84	0xbde6aafe	-0.11263083
85	0x3e15c629	0.14626373
86	0xbac24843	-0.0014822561
87	0x3daaf0da	0.0834672
88	0xbe7d686b	-0.24746864
89	0xbd74a0b7	-0.059723582
90	0xbd8bdb46	-0.068289325
91	0xbd75d00e	-0.06001287
92	0xbe2064c0	-0.15663433
93	0x3d4e86f5	0.050421674
94	0xbd7c096e	-0.06153243
95	0xbe405033	-0.18780594
96	0xbd901c41	-0.07036639
97	0x3e06d774	0.13168126
98	0x3d7aafda	0.06120286
99	0xbe428eda	-0.18999806
100	0x3e264d22	0.16240361
101	0xbc88abe7	-0.016683532
102	0x3e17dabd	0.14829536
103	0x3d5692e0	0.052386165
104	0x3df8b29e	0.121434435
105	0x3be954d5	0.0071207085
106	0x3cc6c328	0.02426298
107	0x3e5b9575	0.21443732
108	0x3dbe7406	0.092994735
109	0x3c8be01e	0.01707464
110	0xbc847b44	-0.016172059
111	0xbde97bfa	-0.114006
112	0x3dceb198	0.10092467
113	0xbdd686d5	-0.10474936
114	0x3e091439	0.1338662
115	0xbe70f742	-0.23531821
116	0xbe60a718	-0.21938741
117	0xbddaebbe	-0.106894955
118	0x3e16bac4	0.14719683
119	0x3e967a48	0.29390168
120	0xbe84d256	-0.25941724
121	0xbe8374c6	-0.2567503
122	0xbdf6d18b	-0.12051686
123	0xbdf59d66	-0.11992912
124	0xbd1c00ce	-0.038086705
125	0xbd2f8f8f	-0.042861518
126	0xbe16fb74	-0.14744359
127	0x3d15cd1c	0.03657256
128	0x3bde95f9	0.0067927805
129	0xbe66dc6a	-0.22545019
130	0xbcfc0133	-0.03076229
131	0xbdaa5e8a	-0.08318813
132	0xbd713719	-0.058890436
133	0xba18f157	-0.0005834302
134	0xbdb7c89b	-0.08973809
135	0xbd47e37d	-0.048800934
136	0xbd3dbafe	-0.046320908
137	0x3e86ce98	0.26329494
138	0x3ce40e9a	0.027838994
139	0xbe702057	-0.23449837
140	0x3e02911f	0.12750672
141	0xbcc6a948	-0.024250641
142	0x3c6a1d87	0.014289266
143	0xbe728dd7	-0.2368692
144	0x3e823264	0.2542907
145	0x3e60e0ee	0.21960804
146	0x3d82d8d4	0.06389013
147	0x3dea409e	0.11438106
148	0x3dcda221	0.10040689
149	0xbdfd5524	-0.12369755
150	0x3dfb4dcc	0.12270698
151	0x3d7354af	0.059406932
152	0x3e05fba7	0.13084279
153	0x3e813b25	0.25240436
154	0xbc106a25	-0.008814369
155	0xbe6cc229	-0.23120941
156	0xbe3387b0	-0.1753223
157	0xbd9dd714	-0.077070385
158	0xbdc7c6f5	-0.09754745
159	0xbe3d2148	-0.18469727
160	0x3d4e322c	0.050340816
161	0x3e7311e4	0.23737293
162	0x3d2c6c7e	0.042095654
163	0x3e91e181	0.28492358
164	0x3c0e867a	0.008699054
165	0xbe0593ed	-0.1304471
166	0x3e1f2eb3	0.15545158
167	0xbe36d14a	-0.17853275
168	0x3e47976d	0.19491358
169	0xbde550e7	-0.111970715
170	0xbda82cd1	-0.08211673
171	0x3c8af149	0.016960757
172	0x3e7c0849	0.24612536
173	0x3de1689d	0.110062815
174	0xbe490b93	-0.19633321
175	0xbe0852a0	-0.13312769
176	0xbe29779c	-0.16549534
177	0xbdeb976e	-0.11503492
178	0xbe4ab027	-0.1979376
179	0xbb81da80	-0.003962815
180	0xbe6a9d9e	-0.22911689
181	0x3e6fedc1	0.2343054
182	0x3e13611b	0.14392512
183	0xbd1727d0	-0.036903203
184	0xbc4d9540	-0.012547791
185	0x3e19fe23	0.15038352
186	0x3c8390d8	0.016060278
187	0xbe5c113b	-0.21490948
188	0x3ca73528	0.020411089
189	0xbdf9e39b	-0.122016154
190	0xbd8d4b6e	-0.06899153
191	0x3c508b90	0.012728587
192	0xbdda6eba	-0.10665651
193	0x3d89146e	0.0669335
194	0xbdb8de3a	-0.09026761
195	0x3e3eb147	0.18622313
196	0x3e627ff5	0.22119124
197	0xbdaea62a	-0.08527787
198	0x3da2549a	0.07926293
199	0xbe0937cc	-0.13400191
200	0x3e64b217	0.22333561
201	0x3e1640b3	0.14673118
202	0x3e58031f	0.2109494
203	0xbe5b51db	-0.21417944
204	0x3bb2dc20	0.00545837
205	0xbd943946	-0.072374865
206	0x3e6b9bcd	0.23008652
207	0x3e6a41a7	0.22876607
208	0xbe6c5caa	-0.23082224
209	0xbd97a4b4	-0.074044615
210	0x3d987eae	0.07446037
211	0x3e579307	0.2105218
212	0x3e0d4fdf	0.138
213	0x3e4bc315	0.19898637
214	0x3e23fa25	0.16013391
215	0x3e558583	0.20851712
216	0xbe5ec58e	-0.21755049
217	0x3dfccb9e	0.123435244
218	0xbd29f1c0	-0.041490316
219	0xbe1fbe2d	-0.1559989
220	0xbc725dd0	-0.014792874
221	0xbe00ec32	-0.12590101
222	0xbe2b4eea	-0.16729322
223	0x3e5e1415	0.21687348
224	0xbe582af4	-0.21110135
225	0x3d2340ac	0.039856598
226	0x3d0e7184	0.034776226
227	0x3d826182	0.063662544
228	0xbe3d1ec5	-0.18468769
229	0xbe187f96	-0.1489242
230	0x3de15d7a	0.11004157
231	0x3c8a3fd8	0.016876146
232	0x3e00cff3	0.12579326
233	0xbd931aee	-0.07182871
234	0xbcbe4708	-0.02322723
235	0x3c178ef0	0.009250388
236	0x3dc3e4ea	0.09565146
237	0x3ce5e698	0.028064057
238	0x3e1fc533	0.1560257
239	0x3c236f50	0.009975269
240	0xbd328fa4	-0.043594018
241	0xbe17f19d	-0.14838262
242	0xbe128368	-0.1430794
243	0x3d7e1114	0.062028006
244	0xbb8ddc60	-0.0043292493
245	0xbdce42de	-0.10071348
246	0xbded0c60	-0.11574626
247	0xbe1c2e6e	-0.15252087
248	0x3e174e1d	0.14775892
249	0xbe3b77d9	-0.18307437
250	0xbe642be9	-0.22282375
251	0xbde230d6	-0.11044471
252	0xbdacf858	-0.08445805
253	0x3c2c62d0	0.010521606
254	0x3e28ea4d	0.16495629
255	0xbc33b860	-0.010969251

l2pLayer.a f4 [176, 1]
0	0x3ccf4bbc	0.025304668
1	0x3d99063e	0.07471894
2	0xbb6426df	-0.0034813208
3	0xbd121ccf	-0.035672005
4	0xbdfcb1ab	-0.12338575
5	0xbceac39a	-0.028657723
6	0xbd4cac8e	-0.04996925
7	0x3dbe0466	0.09278183
8	0x3de0d75d	0.10978577
9	0xbd867185	-0.06564621
10	0x3cd75441	0.026285293
11	0xbc878339	-0.016542064
12	0xbe24c783	-0.16091733
13	0xbdf842b0	-0.12122095
14	0xbd473304	-0.048632637
15	0x3c49af28	0.012309827
16	0xbe044199	-0.12915649
17	0xbdbfed7e	-0.0937147
18	0x3dafbceb	0.08580955
19	0x3c4e71d0	0.012600377
20	0xbced749e	-0.028986271
21	0x3e2f1e2e	0.17101356
22	0x3e09c7ed	0.13455172
23	0x3d8c24f5	0.068429865
24	0xbd86a2fb	-0.06574055
25	0x3d955ced	0.07293115
26	0xbd03046d	-0.031986643
27	0xbd6d0a51	-0.057871167
28	0x3e064dba	0.13115588
29	0x3db61e95	0.08892552
30	0x3cdccbe9	0.0269527
31	0xbd83ca49	-0.06435067
32	0xbcf99105	-0.030464659
33	0x3c2ea84f	0.010660245
34	0xbd6b181f	-0.05739605
35	0x3e2f8b07	0.17142878
36	0x3d6d5588	0.057942897
37	0x3bd7ce14	0.0065858457
38	0xbdd8e62f	-0.10590779
39	0xbc4c4df4	-0.012469757
40	0x3dcd2d7f	0.10018443
41	0x3e0dc4c6	0.13844594
42	0x3dd5dace	0.10442124
43	0x3e15bf52	0.14623764
44	0x3e14d387	0.14533816
45	0x3db2ed76	0.08736698
46	0x3c204546	0.009782141
47	0xbd5d0c2a	-0.05396668
48	0x3e351d4f	0.17686962
49	0x3e2a5a5a	0.16636029
50	0xbda85619	-0.08219547
51	0xbd775c1c	-0.060390577
52	0x3c852dfc	0.016257279
53	0xbdd6ea91	-0.10493959
54	0xbe0ac851	-0.13552977
55	0xbda3d510	-0.07999623
56	0x3ca76ceb	0.020437678
57	0x3e14a23e	0.14515015
58	0xbdfb5c8f	-0.122735135
59	0x3ddb29ab	0.10701307
60	0x3c96b3ef	0.018396346
61	0x3e117956	0.14206442
62	0x3dfd75c8	0.123759806
63	0x3dd8bf89	0.105834074
64	0x3d988748	0.07447678
65	0x3cf38364	0.029725738
66	0x3c9d7892	0.019222531
67	0x3dce6a7a	0.100789025
68	0x3bcbe15d	0.0062219338
69	0x3c19d46c	0.009389024
70	0xbb9abfb3	-0.0047225594
71	0xbe228512	-0.15871075
72	0x3e0892cc	0.13337249
73	0x3e38fa6b	0.18064277
74	0xbd9e419a	-0.07727356
75	0x3dfc66a8	0.123242676
76	0xbe1ea156	-0.15491232
77	0x3d99471c	0.07484266
78	0x3e0d7169	0.13812794
79	0x3e39c26b	0.18140571
80	0xbe2690cb	-0.16266172
81	0xbdfd0fa2	-0.12356497
82	0xbe079364	-0.13239819
83	0xbdf7b402	-0.12094881
84	0xbc04d4d1	-0.00810738
85	0xbd1b2a98	-0.037882417
86	0xbe1aa350	-0.15101361
87	0xbe01e926	-0.12686595
88	0xbd0ca6d6	-0.034338795
89	0x3cbb4152	0.022858296
90	0x3df63caa	0.120232895
91	0x3d75b82e	0.0599901
92	0x3ca61597	0.020273967
93	0xbd599d1c	-0.053128347
94	0x3d2d22a6	0.04226937
95	0xbdb00e5d	-0.085964896
96	0xbd41a706	-0.047278427
97	0xbe26b9a4	-0.16281754
98	0xbe0081ef	-0.12549566
99	0xbddc1fd0	-0.10748255
100	0xbd90b9ad	-0.07066665
101	0xbe2f302b	-0.17108218
102	0xbe53f5f8	-0.20699298
103	0x3e4f92eb	0.20270889
104	0x3d494514	0.049138144
105	0xbd6d0849	-0.05786923
106	0xbd9bbc38	-0.07604259
107	0xbe28a844	-0.16470438
108	0x3e59ab77	0.21256815
109	0xbda80bea	-0.082053974
110	0x3e56db6c	0.2098214
111	0xbd799d55	-0.06094106
112	0xbe6f0c65	-0.23344572
113	0x3dfe39a9	0.124133416
114	0x3e8e07fb	0.27740464
115	0xbe0b6077	-0.13611017
116	0x3e6273f0	0.22114539
117	0x3c5c16aa	0.013433138
118	0xbe84d019	-0.25940016
119	0xbdccd0a3	-0.10000732
120	0x3db9d1f2	0.09073247
121	0x3c44d13b	0.012012775
122	0xbdf84342	-0.121222034
123	0xbe01bdb8	-0.12670028
124	0xbda964dc	-0.082711905
125	0xbe0a244f	-0.13490413
126	0xbde3f74d	-0.11131153
127	0x3cee6c94	0.029104508
128	0x3deab6c3	0.1146064
129	0xbc27fcc8	-0.010253139
130	0x3e3439c4	0.17600161
131	0xbe62ef55	-0.2216161
132	0xbd6fe210	-0.0585652
133	0x3d218f6a	0.03944341
134	0xb9eaaae0	-0.0004475927
135	0xbdf803f9	-0.12110133
136	0x3e47cb56	0.1951116
137	0x3dc94219	0.0982706
138	0x3e012876	0.12613091
139	0x3e776334	0.24158937
140	0x3e243ee3	0.16039614
141	0xbd9ed7c4	-0.07755998
142	0xbcf9130d	-0.030404592
143	0xbd8d1adb	-0.06889888
144	0x3d59c4f8	0.05316636
145	0x3d4a320d	0.04936414
146	0xbe04ea64	-0.12980038
147	0xbe1dcddd	-0.15410562
148	0xbddc9a7a	-0.107716516
149	0xbcfe2147	-0.031021727
150	0xbdc3b180	-0.0955534
151	0x3e76453d	0.2404985
152	0xbdeaa17f	-0.11456584
153	0x3cffb533	0.031214332
154	0x3e6fd243	0.23420052
155	0xbd209ab6	-0.039210044
156	0xbd95005e	-0.07275461
157	0xbaf7512c	-0.0018868796
158	0xbde0e06a	-0.109803036
159	0xbdb2eb3c	-0.08736274
160	0xbddb8cc9	-0.10720212
161	0x3d1444c4	0.036198393
162	0x3e82194f	0.25409934
163	0xbe4d6eec	-0.20061845
164	0xbd1bbaaf	-0.038019832
165	0x3d822c67	0.06356125
166	0xbe2f1c00	-0.17100525
167	0x3e2f9b84	0.17149168
168	0xbe8ef44b	-0.27920756
169	0x3df6b115	0.120454945
170	0xbc1a8ff6	-0.009433737
171	0x3c6b0d03	0.014346364
172	0xbd210913	-0.039315294
173	0xbd717123	-0.058945786
174	0x3d8a8f83	0.06765654
175	0xbe830c49	-0.2559531

phaseLayer.W f4 [24, 26]
0	0xbe4227fd	-0.18960567
1	0x3d4bb364	0.049731627
2	0x3e8d5121	0.2760096
3	0x3e4a9c6b	0.19786231
4	0xbd4c4f13	-0.0498801
5	0xbd611121	-0.054947976
6	0x3b59cb64	0.0033232803
7	0x3d9eecb3	0.077599905
8	0xbdb4bfb7	-0.08825629
9	0xbea407ee	-0.320373
10	0x3dd233ac	0.10263762
11	0xbdec1d3c	-0.115290135
12	0xbdb07b12	-0.08617224
13	0xbd514444	-0.051090494
14	0x3e969361	0.29409316
15	0xbc64959d	-0.013951686
16	0x3c139b12	0.00900914
17	0xbd06b8be	-0.032891028
18	0xbe3cb3f9	-0.18428029
19	0xbda0a8ce	-0.07844697
20	0x3e7aa4ae	0.24476883
21	0xbe4a72da	-0.19770375
22	0x3e9ad05f	0.302371
23	0x3e815b50	0.25264978
24	0x3d19ebb0	0.037578285
25	0x3d5f4f26	0.05451884
26	0xbe8afd96	-0.27146596
27	0xbd74c5fa	-0.059759118
28	0x3db4eb87	0.08833986
29	0x3e3e4b19	0.18583335
30	0xbeaf8a89	-0.3428538
31	0xbcf892e5	-0.030343482
32	0xbe92932b	-0.28627905
33	0xbe8f58fc	-0.27997577
34	0x3dfc12fa	0.12308307
35	0xbe6e0a46	-0.23246107
36	0xbe46532c	-0.19367665
37	0xbd867d00	-0.065668106
38	0x3d8d1591	0.06888879
39	0x3e8027b9	0.25030306
40	0x3e8bf523	0.27335462
41	0xbed32f88	-0.412472
42	0xbe819cb6	-0.25314873
43	0xbe381f0d	-0.17980595
44	0x3ea7db4c	0.32784498
45	0xbebb9437	-0.36636516
46	0xbcf394a4	-0.029733963
47	0xbe427dbe	-0.1899328
48	0xbd279a15	-0.04091843
49	0xbe88f558	-0.26749682
50	0x3e83ebd4	0.2576586
51	0x3ea35715	0.31902376
52	0x3ea67157	0.32508346
53	0x3d4f1ec4	0.05056645
54	0x3e90482c	0.28180063
55	0x3df7b41d	0.12094901
56	0xbdbdd0f0	-0.09268367
57	0x3ed869f8	0.42268348
58	0x3e72e759	0.23721065
59	0xbe798d25	-0.24370249
60	0xbe00c57a	-0.12575331
61	0xbcb81f41	-0.02247584
62	0x3df880fb	0.12133976
63	0xbe75e78a	-0.24014106
64	0xbd1f5126	-0.03889575
65	0xbe046c4a	-0.12931934
66	0xbd8feb33	-0.070272826
67	0xbc7f76f6	-0.015592327
68	0x3e9eb118	0.30994487
69	0x3e6a9bf2	0.22911051
70	0x3e7ab4a0	0.24482965
71	0x3d42e4eb	0.047581594
72	0x3e693721	0.22774936
73	0xbced07d5	-0.028934399
74	0x3e991d2e	0.29905075
75	0x3e9c1a6d	0.3048891
76	0x3e9490d1	0.29016736
77	0xbe917db8	-0.28416228
78	0x3d9bb5d2	0.07603039
79	0x3d071d21	0.032986764
80	0x3e6d85b8	0.23195541
81	0x3af3759c	0.0018574479
82	0x3dee9244	0.11648992
83	0xbe87b7ff	-0.26507565
84	0x3d58b11b	0.052903276
85	0xbe8baece	-0.27281803
86	0xbe02ce88	-0.12774098
87	0xbdc3432e	-0.09534298
88	0xbe9c5f5d	-0.30541506
89	0x3d9925e0	0.07477927
90	0xbe8c64ae	-0.27420563
91	0xbe934aa7	-0.28767893
92	0xbde70349	-0.112799235
93	0xbe7f38dd	-0.24924035
94	0xbe38a6a2	-0.18032315
95	0xbeb15c06	-0.3464052
96	0x3cbb3f27	0.022857262
97	0x3dd76941	0.105181225
98	0x3dea81c8	0.11450535
99	0xbe30c57a	-0.17262831
100	0x3eb4be72	0.35301548
101	0x3eac879f	0.3369722
102	0xbe8561e5	-0.2605125
103	0x3d78c06d	0.060730387
104	0x3e3e9f23	0.18615393
105	0x3e2e51fa	0.17023459
106	0xbc9d0e6e	-0.01917192
107	0xbe2dd530	-0.16975856
108	0x3e4e065a	0.2011961
109	0x3eaae0a0	0.333745
110	0x3e1030a2	0.14081052
111	0x3e268c6d	0.16264506
112	0xbe683629	-0.2267691
113	0x3e9188ad	0.28424588
114	0xbe43ed03	-0.19133382
115	0x3e8e6daa	0.27818042
116	0xbebcbeb1	-0.36864236
117	0x3e8a0968	0.269603
118	0xbeb74ff4	-0.35803187
119	0xbe5a5b25	-0.21323831
120	0x3dcc9753	0.099898
121	0x3e82fe56	0.25584668
122	0x3eb181c6	0.34669322
123	0xbe65e896	-0.22452006
124	0x3c28a544	0.010293309
125	0x3c577995	0.013151546
126	0xbe1dfbfb	-0.15428154
127	0x3e4581aa	0.19287744
128	0x3e8454d7	0.25845978
129	0x3e38dd49	0.18053164
130	0x3eaba7bc	0.3352641
131	0xbad1b3bd	-0.0015999001
132	0x3dcbafc5	0.09945635
133	0xbdfd3940	-0.12364435
134	0x3e7d2b1c	0.24723476
135	0xbe9ba6a8	-0.30400586
136	0xbdd76344	-0.1051698
137	0x3d158bc8	0.03651026
138	0x3e0cf8bf	0.13766764
139	0xbe3195df	-0.17342328
140	0xbe087c14	-0.13328582
141	0x3e8cced9	0.27501562
142	0xbc228679	-0.009919756
143	0xbe2315a6	-0.15926227
144	0x3e98b2c6	0.29823893
145	0xbea18c28	-0.31552243
146	0x3d8ad938	0.067797124
147	0x3e44f211	0.19232966
148	0xbeb0501a	-0.34436113
149	0xbe9e00dc	-0.3086003
150	0xbdeef78a	-0.11668308
151	0x3e35152a	0.17683855
152	0xbdb00045	-0.085938014
153	0x3e472673	0.19448261
154	0xbdf29053	-0.11843934
155	0xbe347570	-0.17622924
156	0x3c511a5c	0.012762632
157	0x3d5532cd	0.0520504
158	0xbe2551c5	-0.16144474
159	0x3db8eaa2	0.09029128
160	0xbe28d011	-0.16485621
161	0x3e9eae13	0.30992183
162	0x3d7e7f9e	0.062133424
163	0x3dd64958	0.10463208
164	0x3dade0fe	0.084901795
165	0xbe85f46b	-0.2616304
166	0xbe0859bf	-0.13315485
167	0xbeb755cb	-0.35807642
168	0x3e0d90c1	0.1382475
169	0xbdd4d415	-0.10392014
170	0xbdde1cba	-0.10845323
171	0x3db32b2d	0.087484695
172	0xbea47322	-0.3211909
173	0x3d907513	0.0705358
174	0xbea9332b	-0.3304685
175	0x3bad3bd4	0.005286673
176	0x3eb17b04	0.34664166
177	0xbd9e971e	-0.07743667
178	0xbe2e284c	-0.1700756
179	0x3cdd265f	0.026995836
180	0x3d3449bc	0.04401563
181	0x3e279635	0.16365893
182	0x3ead90ba	0.3389948
183	0x3df15a48	0.11784798
184	0x3de8822b	0.113529526
185	0xbe285be4	-0.16441303
186	0x3e8a4c16	0.27011174
187	0x3b973d93	0.0046154945
188	0x3e9baa28	0.30403256
189	0xbdf984df	-0.12183546
190	0xbd442d58	-0.047894806
191	0xbd8172d9	-0.063207336
192	0x3e61128a	0.21979728
193	0xbd807904	-0.06273082
194	0x3e89ab45	0.2688848
195	0xbe1eab92	-0.15495136
196	0x3ea8f134	0.32996523
197	0xbd989b37	-0.0745148
198	0xbe837a57	-0.25679275
199	0x3e98ec26	0.29867667
200	0x3e2aeb49	0.16691317
201	0xbe0903a1	-0.1338029
202	0x3e823bab	0.25436148
203	0x3d77d613	0.06050689
204	0xbe4979af	-0.19675325
205	0xbd380367	-0.04492512
206	0x3e90285c	0.28155792
207	0xbdf0d824	-0.117599756
208	0xbe9c6a55	-0.30549875
209	0x3e21b4ab	0.15791576
210	0x3e065a47	0.13120376
211	0x3e37110e	0.178776
212	0x3deeabef	0.116538875
213	0x3ea10ec9	0.31456593
214	0xbe5786ff	-0.2104759
215	0xbe463a65	-0.19358213
216	0xbab929d8	-0.001412685
217	0xbe135b31	-0.14390256
218	0x3e84d653	0.25944766
219	0xbe892ba6	-0.26791114
220	0xbd94af18	-0.07259959
221	0x3d644a14	0.05573471
222	0xbeac7efd	-0.33690634
223	0x3db2b1da	0.08725329
224	0xbe0047b9	-0.1252736
225	0xbdd98cdb	-0.10622569
226	0xbe4ae119	-0.1981243
227	0xbd40f8d6	-0.04711231
228	0x3e6cf422	0.23140004
229	0x3db6c709	0.08924682
230	0x3e85a22c	0.2610029
231	0x3e887e90	0.2665906
232	0xbe233321	-0.15937473
233	0xbc926b6e	-0.017873492
234	0xbda3bbe3	-0.07994821
235	0x3ea9f2c7	0.33193037
236	0x3da02c3b	0.07820936
237	0x3e830b82	0.25594717
238	0xbe1af808	-0.15133679
239	0xbe5b8d55	-0.21440633
240	0xbdb2e567	-0.08735161
241	0xbea1cfdd	-0.316039
242	0x3b17f4ec	0.0023186756
243	0xbdd3edee	-0.10348116
244	0x3e09b003	0.1344605
245	0x3e34721d	0.17621656
246	0xbd6b4e1c	-0.057447538
247	0x3ea02cb7	0.31284115
248	0xbeb34883	-0.3501626
249	0xbdb77330	-0.08957517
250	0xbde3bba8	-0.11119777
251	0x3d832eb2	0.06405391
252	0xbd6ff6fe	-0.05858516
253	0x3dde963f	0.10868501
254	0xbdb11a9e	-0.08647655
255	0x3e122966	0.14273605

p2iLayer.W f4 [24, 176]
0	0x3b541ea3	0.0032366894
1	0x3d9b648d	0.07587538
2	0xbd8260e9	-0.063661404
3	0x3d9d8294	0.076909214
4	0x3d4fb222	0.05070699
5	0x3de97dde	0.114009604
6	0xbe0a7b74	-0.13523656
7	0x3ceba309	0.028764265
8	0xbcf7e2d5	-0.03025953
9	0xbe2ffd88	-0.17186558
10	0xbe25661e	-0.16152236
11	0x3d13e132	0.036103435
12	0x3e3cbb5e	0.1843085
13	0xbc3732c9	-0.011181542
14	0x3d75118f	0.0598312
15	0x3dd2a132	0.10284652
16	0x3c4f880c	0.012666713
17	0x3dbe5f93	0.09295573
18	0xbd3b8df7	-0.045789685
19	0xbdf8c9f9	-0.12147898
20	0x3e265c03	0.16246037
21	0xbdd3c1cd	-0.10339699
22	0x3dfcd4cf	0.123452775
23	0xbd864066	-0.06555252
24	0xbcb0403f	-0.02151501
25	0x3ce354ff	0.02775049
26	0x3e51af75	0.20477088
27	0x3e10b7c1	0.14132597
28	0x3d50039f	0.050784703
29	0x3ce81e20	0.028334677
30	0xbbebb005	-0.007192614
31	0x3e25cfda	0.1619257
32	0x3b346d9a	0.0027531148
33	0x3da235a6	0.07920389
34	0x3e077ff3	0.13232403
35	0x3d0c0242	0.03418184
36	0x3dbc2eee	0.09188639
37	0x3d5c5151	0.053788487
38	0xbe2dfc0d	-0.16990681
39	0x3c0be7d5	0.00853916
40	0xbd75ae4a	-0.059980668
41	0x3d956a56	0.072956726
42	0xbdf37563	-0.11887624
43	0x3dd51227	0.10403853
44	0xbd5ad1f7	-0.053422894
45	0xbe731f57	-0.23742424
46	0xbd871e73	-0.065976046
47	0xbcdbd3c1	-0.02683437
48	0x3e043774	0.12911779
49	0xbe023740	-0.12716389
50	0x3d128a69	0.03577653
51	0x3d50bc76	0.05096098
52	0xbd802da6	-0.06258707
53	0x3dad2a38	0.08455318
54	0x3dccdb6f	0.10002791
55	0x3dcbf1f7	0.099582605
56	0x3d47d298	0.048784822
57	0xbcbffd84	-0.023436315
58	0x3de56ece	0.11202775
59	0x3e089d4f	0.13341258
60	0x3d7306b5	0.05933257
61	0x3cdd8210	0.027039558
62	0xbdfba3ae	-0.12287079
63	0x3cbadf79	0.022811638
64	0xbe001e5b	-0.1251158
65	0x3c99e569	0.01878615
66	0x3e1cdaf3	0.15317897
67	0x3df0a2e2	0.117498174
68	0x3e4db7ae	0.200896
69	0xbca35e80	-0.019942522
70	0xbca2ddce	-0.019881155
71	0x3e346e8f	0.176203
72	0x3e30de0d	0.17272206
73	0xbe2c3611	-0.168175
74	0xbd4a8918	-0.04944715
75	0xbcd3362a	-0.025782663
76	0xbe424801	-0.1897278
77	0xbd319623	-0.043356072
78	0xbe01edd1	-0.12688376
79	0x3c0bb3f8	0.008526795
80	0x3e46c9b5	0.19412883
81	0x3dcc477d	0.09974573
82	0xbd2017d6	-0.03908523
83	0xbd74a110	-0.059723914
84	0xbc956bc3	-0.018239861
85	0x3dae644f	0.08515226
86	0xbe42ae70	-0.19011855
87	0x3e005eff	0.12536238
88	0x3d404b53	0.046946835
89	0x3b6c1ff0	0.0036029778
90	0xbd182eec	-0.037154123
91	0x3dc5d986	0.0966063
92	0x3e0d92c9	0.13825525
93	0xbc44f49c	-0.01202121
94	0xbcdb7776	-0.026790362
95	0xbe6449fa	-0.22293845
96	0xbdb7f4ff	-0.08982276
97	0x3d247ddf	0.040159103
98	0xbd9ce264	-0.07660368
99	0x3b96d53d	0.0046030567
100	0x3e07d1a8	0.13263571
101	0x3deef9c3	0.11668732
102	0x3e08bef0	0.13354087
103	0xba41ca53	-0.00073925144
104	0x3dadaa90	0.08479798
105	0xbe2e7c5b	-0.17039625
106	0x3db5435a	0.08850737
107	0xbdd90054	-0.10595766
108	0xbdab24c9	-0.083566256
109	0xbd605978	-0.054772824
110	0x3e02751a	0.12739983
111	0xbe2621a5	-0.16223772
112	0xbdbccaa0	-0.09218335
113	0x3e5f9f7d	0.21838184
114	0x3bcd1fc6	0.006259891
115	0xbd36157a	-0.044454075
116	0xbddc3d64	-0.10753897
117	0xbdb8ef78	-0.0903005
118	0x3e38ae51	0.18035246
119	0xbda1e424	-0.079048425
120	0xbd7af4be	-0.06126856
121	0xbb843c9c	-0.0040355455
122	0xbd6f5fc2	-0.05844093
123	0x3d0924f5	0.03348251
124	0xbd54e284	-0.051973835
125	0xbbca435a	-0.0061725797
126	0xbca0c36d	-0.019624436
127	0xbe40d730	-0.18832088
128	0xbe49962c	-0.19686192
129	0x3dd509b4	0.10402241
130	0x3df214f2	0.11820401
131	0xbd6ba58b	-0.05753092
132	0x3e22e44a	0.15907398
133	0xbe12c347	-0.14332305
134	0xbad0a52c	-0.0015918366
135	0x3d6a9c8a	0.057278194
136	0xbd2eb250	-0.04265052
137	0x3df83135	0.121187605
138	0xbcce23dc	-0.025163583
139	0xbe483b28	-0.19553816
140	0xbd249b74	-0.040187314
141	0x3daf0d90	0.08547509
142	0xbdddce41	-0.108303554
143	0x3dc3b251	0.095554955
144	0x3d74c5ba	0.05975888
145	0xbe3d387e	-0.18478581
146	0x3d710b35	0.05884858
147	0xbd0fe2e4	-0.03512849
148	0x3c2ad762	0.010427328
149	0x3e0119df	0.12607525
150	0xbdaefaee	-0.08543955
151	0x3dec6e8d	0.115445234
152	0x3d6491f1	0.055803243
153	0x3da4c79d	0.08045886
154	0x3db01de9	0.08599455
155	0x3dc9d075	0.09854213
156	0x3e0997e1	0.13436843
157	0x3e0d8a75	0.13822348
158	0xbba32e8b	-0.0049799136
159	0x3d73b8ed	0.05950253
160	0xbd169c52	-0.036770172
161	0xb981d61e	-0.00024764327
162	0x3d270d84	0.040784374
163	0x3d4d47f7	0.05011746
164	0xbe05756a	-0.13033071
165	0xbda1871c	-0.07887098
166	0xbe30a6d4	-0.1725114
167	0x3c9fbfb5	0.019500593
168	0x3e476e7c	0.1947574
169	0x3dd1191a	0.10209866
170	0xbd3c45fc	-0.04596518
171	0x3d82da84	0.06389335
172	0x3dad81d2	0.08472027
173	0x3d9aeb39	0.075643964
174	0xbd9a23b8	-0.07526344
175	0xbdd6863c	-0.10474822
176	0x3e3fb51e	0.18721434
177	0xbe6cb0c5	-0.23114307
178	0xbc70c726	-0.014695918
179	0x3e52779b	0.20553438
180	0x3dbc8b14	0.092062145
181	0x3e23fcd1	0.1601441
182	0x3df2a2c0	0.11847448
183	0x3db3f5ba	0.08787103
184	0x3e5b06a2	0.21389249
185	0xbe0a45fd	-0.13503261
186	0xbe03923b	-0.12848751
187	0x3e553d80	0.20824242
188	0xbddd096a	-0.10792811
189	0xbe365513	-0.1780589
190	0xbd9a2eea	-0.075284794
191	0x3ddb78a3	0.10716369
192	0xbe1c6c41	-0.1527567
193	0x3dd8830b	0.105718695
194	0xbe1d1f5c	-0.15343994
195	0xbe3f5907	-0.18686305
196	0xbd4f446b	-0.050602358
197	0x3dde62e0	0.10858703
198	0xbe049cd6	-0.12950453
199	0xbce7fbbc	-0.028318278
200	0x3d84f6da	0.06492396
201	0x3e4e0b9a	0.20121613
202	0x3d9845d6	0.07435195
203	0x3e4ce40f	0.20008872
204	0x3e1f328a	0.15546623
205	0x3d3ad007	0.045608547
206	0xbd412382	-0.047153004
207	0x3d7ed5aa	0.062215485
208	0xbc8f4962	-0.017491046
209	0x3de4e243	0.111759685
210	0xbe039313	-0.12849073
211	0xbe167e25	-0.14696558
212	0xbcd3f873	-0.025875306
213	0x3d8d885a	0.069107726
214	0x3dc30269	0.09521944
215	0xbd77f153	-0.06053288
216	0xbc0c540c	-0.00856496
217	0x3d67e6b8	0.056616515
218	0xbd826fc5	-0.063689746
219	0xbbf7ec28	-0.007565994
220	0x3e2cc866	0.16873321
221	0xbe4960d4	-0.19665843
222	0xba8790a1	-0.0010342785
223	0xbd9a8977	-0.075457506
224	0xbd2ad894	-0.04171045
225	0x3dc5b7b2	0.09654178
226	0xbbb8a22a	-0.005634566
227	0xbe41a719	-0.18911399
228	0xbd013692	-0.031546183
229	0xbe33c4d3	-0.17555551
230	0xbdc46c5a	-0.09590979
231	0xbd06e71b	-0.032935243
232	0x3e3a4565	0.18190534
233	0xbe1d2722	-0.15346959
234	0x3c693ae4	0.014235232
235	0xbe187b99	-0.14890899
236	0x3e1b4c66	0.15165862
237	0xbe04dd3c	-0.12975019
238	0xbe1166b4	-0.14199334
239	0xbdefa834	-0.11702004
240	0xbcdb6d5c	-0.026785545
241	0xbcd53ef8	-0.026031002
242	0x3d1a52c0	0.037676573
243	0xbd748c75	-0.059704263
244	0x3d11fe2d	0.03564279
245	0xbd644da7	-0.055738118
246	0x3d8e8fee	0.06961046
247	0x3cf90cf2	0.03040168
248	0x3dad14ef	0.084512584
249	0xbe2c22db	-0.16810171
250	0x3d3cac5e	0.04606282
251	0xbdb7e924	-0.08980015
252	0xbe153857	-0.14572273
253	0xbe0a1418	-0.13484228
254	0x3e005b70	0.1253488
255	0x3ded52ca	0.115880564

p2iLayer.a f4 [352, 1]
0	0xbdaff314	-0.08591285
1	0x3c8549df	0.016270576
2	0xbdd42448	-0.103584826
3	0xbddb66b2	-0.10712947
4	0xbd839525	-0.064249314
5	0x3deb774c	0.114973634
6	0x3d12f359	0.035876606
7	0x3af99e6f	0.0019044409
8	0xbd8dc817	-0.0692293
9	0x3dca8763	0.09889104
10	0xbd2ede1f	-0.0426923
11	0xbd38f313	-0.04515369
12	0xbd900ed6	-0.0703408
13	0xbdb9a32b	-0.09064325
14	0x3b737406	0.0037148013
15	0xbc233b9a	-0.009962941
16	0x3bf69486	0.0075250296
17	0x3cb86602	0.022509579
18	0x3d40d5ef	0.047079023
19	0xbd6dd326	-0.058062695
20	0xbdc7f3bb	-0.09763285
21	0x3db94b2e	0.090475425
22	0xbd96b172	-0.07358064
23	0x3d0cc65f	0.03436887
24	0x3d820629	0.06348831
25	0xbde31b9f	-0.11089253
26	0x3dbbad5d	0.09163926
27	0x3dc88704	0.09791377
28	0x3d3379c8	0.04381731
29	0x3c2d36ad	0.010572118
30	0xbcae1ca3	-0.02125389
31	0xbd7c296f	-0.06156295
32	0x3d874159	0.06604261
33	0xbe10f1fc	-0.1415481
34	0xbdf1e097	-0.11810415
35	0xbcc431d5	-0.023949543
36	0xbdea569c	-0.11442301
37	0x3d1f1697	0.038839903
38	0xbd53f04b	-0.051742833
39	0x3db2da2b	0.087330185
40	0xbda4441e	-0.08020805
41	0xbd406136	-0.046967708
42	0x3daaa1e8	0.083316624
43	0x3d2036b8	0.039114684
44	0xbdfc2d26	-0.12313299
45	0xbd951351	-0.07279075
46	0x3db08767	0.08619576
47	0x3dc8bd47	0.09801727
48	0x3dd37572	0.10325135
49	0xbd0a5530	-0.033772647
50	0x3dec2830	0.11531103
51	0x3d385ef8	0.045012444
52	0x3bbfa091	0.0058479984
53	0xbe05861a	-0.13039437
54	0xbbcd18e0	-0.006259069
55	0x3da1da33	0.07902946
56	0x3b8d1d21	0.004306451
57	0xbd9f864a	-0.077892855
58	0xbdb03061	-0.086029775
59	0xbd1125ee	-0.035436563
60	0xbd438845	-0.04773738
61	0xbdd0102a	-0.10159333
62	0xbd734091	-0.059387747
63	0x3df1160b	0.117717825
64	0xbda014cd	-0.078164674
65	0x3e0cc7b2	0.13748053
66	0x3d98a26d	0.07452855
67	0xbded6ff7	-0.11593621
68	0xbdc858ae	-0.09782539
69	0xbc6fb41a	-0.014630342
70	0x3d53772e	0.05162733
71	0xbc50e891	-0.012750761
72	0xbd2afb1f	-0.041743394
73	0xbd9e10bf	-0.07718038
74	0xbd8f5255	-0.069981255
75	0xbc07e0b0	-0.008293316
76	0x3d6a32be	0.057177298
77	0xbe03f2a5	-0.1288553
78	0xbdfa8a0d	-0.12233362
79	0x3e21a253	0.15784578
80	0xbe24bc0e	-0.16087362
81	0x3d912a3b	0.07088133
82	0xbd756cd1	-0.05991823
83	0xbc491966	-0.012274122
84	0xbc31f9b1	-0.010862754
85	0xbd186664	-0.037207022
86	0xbe1afe97	-0.15136181
87	0x3d92abe9	0.071616955
88	0xbc741d96	-0.014899632
89	0xbad48fc5	-0.0016217163
90	0xbdea2e66	-0.11434631
91	0x3dcb62d0	0.09930956
92	0x3db3ea7d	0.087849595
93	0x3c91ee78	0.017813906
94	0x3c269c22	0.010169061
95	0xbd99bd9f	-0.075068705
96	0xbd0c736b	-0.03428976
97	0xbdda6bff	-0.1066513
98	0xbde92a4c	-0.113850206
99	0x3dc209e4	0.09474543
100	0x3dae8e31	0.085232146
101	0x3d4ed66d	0.05049746
102	0x3c0b3779	0.008497112
103	0x3dbde970	0.0927304
104	0xbdf7a199	-0.12091369
105	0x3cbfa64e	0.02339473
106	0x3dcbcd02	0.099512115
107	0xbdf5d1d8	-0.12002915
108	0xbd9629bb	-0.07332178
109	0xbdd4cbfa	-0.10390468
110	0x3e1969b5	0.1498173
111	0x3dd25415	0.102699436
112	0x3d083a33	0.033258628
113	0x3ca20938	0.019779786
114	0x3dd46e61	0.103726156
115	0x3e08ce48	0.1335994
116	0x3dd02a4d	0.10164318
117	0xbc5e5a6a	-0.013571361
118	0xbddb6d2e	-0.10714184
119	0x3d986c18	0.07442492
120	0x3d63c0ef	0.055603918
121	0x3db2d54c	0.087320894
122	0x3d174d45	0.036938924
123	0x3def2759	0.11677427
124	0x3cab48f8	0.020908818
125	0x3e0b9e8a	0.13634697
126	0x3d5724d1	0.052525345
127	0x3d93c5e7	0.07215481
128	0x3db8dd54	0.0902659
129	0xbd624d11	-0.055249278
130	0xbdd1f42c	-0.1025165
131	0xbdd1961c	-0.10233709
132	0x3d411c29	0.047145996
133	0xbb1b6a9f	-0.0023714674
134	0x3bd6caa9	0.0065549207
135	0xbdbf14f0	-0.093301654
136	0xbc198386	-0.009369737
137	0xbd1f0c42	-0.03883005
138	0xbd6574bd	-0.056019533
139	0xbc806cc0	-0.015676856
140	0x3dbe4fc0	0.09292555
141	0xbdc947b2	-0.09828128
142	0x3e01f98f	0.12692855
143	0x3da94599	0.08265228
144	0x3d15e4fe	0.036595337
145	0xbc355964	-0.011068676
146	0xbc192989	-0.009348282
147	0x3d2216be	0.03957247
148	0xbc900553	-0.017580664
149	0xbcc5327c	-0.024071924
150	0x3dd4fa76	0.10399334
151	0x3e0630de	0.13104579
152	0x3d200fc5	0.03907754
153	0x3dd24e00	0.102687836
154	0xbdc463fc	-0.09589383
155	0x3de196f2	0.11015119
156	0x3e08ca9c	0.1335854
157	0x3c84ebe6	0.016225766
158	0xbde9f55d	-0.114237525
159	0x3ca6f863	0.020382112
160	0xbdb40f56	-0.087919876
161	0xbc8b92f3	-0.017037844
162	0xbd1305bc	-0.03589414
163	0x3dac3112	0.08407797
164	0x3de4d09b	0.11172601
165	0xbd8d439c	-0.06897661
166	0x3d73564f	0.059408482
167	0xbe164ecb	-0.14678495
168	0x3d80df85	0.06292633
169	0xbe085c59	-0.13316478
170	0x3ccec15f	0.02523869
171	0xbdbe840b	-0.09302529
172	0xbd69ccf2	-0.057080217
173	0xbadf2292	-0.0017023853
174	0x3da3906c	0.07986531
175	0xbb9fd5f5	-0.0048778006
176	0xbccc0ab2	-0.024907444
177	0xbd225166	-0.03962841
178	0x3d585dd4	0.052823856
179	0xbe4553af	-0.19270204
180	0x3cf59769	0.029979425
181	0x3de5dbf7	0.112235956
182	0xbcc01789	-0.023448722
183	0x3e3c4f1a	0.1838955
184	0xbc4582f8	-0.012055151
185	0x3cced15b	0.025246313
186	0x3cc4fe2c	0.02404698
187	0x3c704fa9	0.01466743
188	0x3cfb6191	0.030686172
189	0xbcb27036	-0.021782022
190	0xbdf7c528	-0.120981514
191	0xbe069d7b	-0.13146012
192	0xbd96c0c5	-0.073609866
193	0xbdc482fb	-0.09595295
194	0xbd5cb1ec	-0.053880617
195	0xbd06c776	-0.032905065
196	0x3d9b6df8	0.07589334
197	0x3d22a7a8	0.03971067
198	0xbcec377d	-0.028835053
199	0xbd429881	-0.04750872
200	0xbc8544f5	-0.016268233
201	0x3d378e56	0.044813477
202	0xbd5052cb	-0.050860208
203	0x3d3d17cc	0.046165273
204	0xbd1cbdba	-0.038266875
205	0xbdc62005	-0.09674076
206	0x3cbcafa5	0.023032973
207	0x3978508d	0.0002368113
208	0x3d38c583	0.045110237
209	0x3df4b69d	0.11948893
210	0xbdb6026b	-0.0888718
211	0xbd52a75f	-0.05142915
212	0xbc875727	-0.01652105
213	0xbbcad4b1	-0.0061899056
214	0x3e0282ee	0.12745258
215	0xbd79ef9c	-0.061019525
216	0x3d9a68a4	0.0753949
217	0x3dbea12f	0.09308087
218	0x3b752697	0.0037407035
219	0xbd6eed3b	-0.05833171
220	0x3d3befe0	0.04588306
221	0xbd563b5e	-0.05230271
222	0x3e103ae7	0.1408497
223	0xbde22408	-0.11042029
224	0x3c8b4061	0.016998472
225	0xbd069d5d	-0.032864917
226	0xbd9416ad	-0.072308876
227	0xbd8fab8f	-0.07015144
228	0xbd106381	-0.035251144
229	0xbe2bd8ad	-0.16781874
230	0x3dc3bcc1	0.09557486
231	0xbcb9ac34	-0.02266512
232	0xbc8faf6d	-0.017539704
233	0x3e089de9	0.13341488
234	0x3cb63d3f	0.022246001
235	0x3d7fe05d	0.06246983
236	0xbd2b4dee	-0.041822366
237	0x3d65f519	0.056141946
238	0x3b3bfa96	0.0028683296
239	0xbd7d29ae	-0.061807327
240	0x3e13f1f0	0.1444776
241	0x3d1b51fc	0.037919983
242	0xbd2da05f	-0.04238927
243	0xbcd71e32	-0.026259515
244	0x3d37010f	0.044678744
245	0xbd4b79d2	-0.049676724
246	0xbd4c0b16	-0.04981526
247	0xbd428b9c	-0.047496423
248	0xbd0ea15d	-0.034821857
249	0xbd689831	-0.056785766
250	0xbdb9a243	-0.09064152
251	0x3df09b38	0.117483556
252	0xbdcd3203	-0.100193046
253	0xbe059cce	-0.13048097
254	0xbe2bec9d	-0.1678948
255	0xbc85ee4b	-0.016348979

intersectionLayer.W f4 [48, 46]
0	0x3e346372	0.1761606
1	0x3e1446db	0.14480154
2	0x3e2ec316	0.17066607
3	0xbdf5665b	-0.119824134
4	0xbe54f303	-0.20795827
5	0xbe6542ed	-0.22388811
6	0xbe4231f9	-0.18964376
7	0x3e85c946	0.26130122
8	0x3e61e3cf	0.22059558
9	0xbe525f9f	-0.20544289
10	0x3d5aae18	0.053388685
11	0xbe399138	-0.18121803
12	0xbe55778f	-0.20846389
13	0x3e4c6ca7	0.19963323
14	0xbe1883d7	-0.14894043
15	0x3d192455	0.037388165
16	0xbc2930dd	-0.010326591
17	0xbe62a40e	-0.22132894
18	0x3dd15ecd	0.1022316
19	0xbe381855	-0.17978032
20	0xbe1e3465	-0.15449674
21	0xbe0a89cf	-0.13529132
22	0x3e0602b0	0.13086963
23	0xbda75205	-0.08169941
24	0x3e6b638a	0.2298719
25	0xbe6db508	-0.23213589
26	0xbd2a8caf	-0.041638073
27	0x3d9b7288	0.075902045
28	0xbe5c218c	-0.21497172
29	0x3dc653eb	0.09683975
30	0x3e47c5a5	0.19508989
31	0x3dea7a0d	0.114490606
32	0xbd527057	-0.051376667
33	0x3e279f0f	0.1636927
34	0x3dbf3e28	0.09338027
35	0x3e4dec09	0.20109572
36	0x3e4e57a9	0.20150627
37	0x3e223516	0.15840563
38	0x3e7869d0	0.24259114
39	0xbdef4f10	-0.11685002
40	0xbe6022f6	-0.21888337
41	0xbcb6aa27	-0.022297932
42	0x3d9ce7e9	0.07661421
43	0x3d887de2	0.06664635
44	0x3e68c7db	0.22732489
45	0xbe829644	-0.2550527
46	0xbe7a74cc	-0.24458617
47	0x3dbb6e80	0.091519356
48	0x3d598975	0.053109605
49	0xbe8430ac	-0.25818384
50	0xbe4667fa	-0.19375601
51	0xbe1fb0c6	-0.15594777
52	0xbd8d3f7d	-0.06896875
53	0xbd410033	-0.04711933
54	0x3e6606e2	0.22463563
55	0xbe092385	-0.13392456
56	0x3e314d43	0.1731463
57	0xbe3d977b	-0.18514816
58	0x3df6136c	0.12015423
59	0x3d0bc093	0.0341192
60	0xbcacdd9d	-0.021101767
61	0xbe492fdf	-0.19647168
62	0xbe30b1c4	-0.17255312
63	0xbe6ee177	-0.23328196
64	0xbd0ee7f7	-0.034889188
65	0xbda212ac	-0.07913718
66	0xbe3cbb53	-0.18430834
67	0x3e43b2ce	0.19111177
68	0x3d4a5ee4	0.0494069
69	0xbc90d4d2	-0.017679606
70	0x3e04caff	0.12968062
71	0x3e0d34ca	0.13789669
72	0xbc8e7e93	-0.01739434
73	0x3e66ea60	0.22550344
74	0x3e3ba102	0.18323138
75	0x3d66e450	0.05637008
76	0xbdb24565	-0.08704642
77	0xbe7e8fd5	-0.24859555
78	0xbded10e0	-0.11575484
79	0xbe217356	-0.15766653
80	0x3e2fe70a	0.17177978
81	0x3b82361f	0.003973737
82	0xbe759922	-0.23984197
83	0x3c8ccd22	0.017187659
84	0x3e24a930	0.16080165
85	0x3e202194	0.15637809
86	0x3d59a68e	0.053137355
87	0xbc949d7f	-0.018141506
88	0xbe79614f	-0.24353527
89	0x3e2238eb	0.15842025
90	0xbdbcb2b0	-0.092137694
91	0x3dd91f69	0.10601694
92	0x3da1cbd8	0.07900208
93	0x3e79903b	0.24371426
94	0xbd96a6a7	-0.07356005
95	0xbe7fb0b7	-0.24969755
96	0xbe2a343d	-0.1662149
97	0xbcbf5859	-0.023357557
98	0x3dd10dc5	0.102077045
99	0xbd5d9270	-0.05409473
100	0xbe121cdb	-0.1426882
101	0xbdf0d801	-0.117599495
102	0x3e817bff	0.25289914
103	0xbe1ef7a0	-0.15524149
104	0x3cc83498	0.024439141
105	0x3e710c83	0.23539929
106	0xbd9b7189	-0.075900145
107	0xbe31137c	-0.17292589
108	0x3cd82412	0.026384387
109	0xbde26cd8	-0.110559165
110	0xbe7916bc	-0.24325079
111	0x3e33d9a2	0.17563489
112	0x3e6e373d	0.23263259
113	0x3dc4b0e1	0.096040495
114	0xbb8cea3d	-0.0043003843
115	0xbe06753c	-0.13130659
116	0xbde34a21	-0.11098123
117	0xbe072a99	-0.13199843
118	0x3d8bde10	0.068294644
119	0xbdb51d95	-0.08843533
120	0x3d33bc5a	0.043880798
121	0x3e0d3c59	0.13792552
122	0x3e57742a	0.21040407
123	0xbe684c6a	-0.226854
124	0x3dfcf8f7	0.12352174
125	0xbe2e2007	-0.17004405
126	0xbdc55b75	-0.09636585
127	0xbe553b7c	-0.20823473
128	0xbe585853	-0.21127443
129	0x3d8e8912	0.06959738
130	0x3daadcae	0.083428726
131	0xbe07e1ad	-0.13269682
132	0xbe629896	-0.2212852
133	0xbe8a18d1	-0.26972058
134	0xbe022de1	-0.12712814
135	0x3e3b26d3	0.18276529
136	0x3de5203b	0.11187788
137	0xbe2fdf44	-0.17175013
138	0x3e04d216	0.12970766
139	0xbe7a8880	-0.24466133
140	0x3e6c6c85	0.23088272
141	0xbe12cd22	-0.14336064
142	0xbc2eac8f	-0.010661258
143	0xbc84303c	-0.016136281
144	0x3d8ef975	0.06981174
145	0x3d9bd315	0.0760862
146	0x3dcbef10	0.09957707
147	0x3e7e205b	0.2481703
148	0x3e57f000	0.21087646
149	0xbe2742d3	-0.16334085
150	0x3d4a5293	0.049395155
151	0x3d2db661	0.04241026
152	0xbe420140	-0.1894579
153	0x3da0a0e1	0.07843185
154	0x3de3c2b4	0.11121121
155	0xbc78f577	-0.015195242
156	0x3db2c113	0.08728232
157	0x3da9f418	0.0829851
158	0x3e198bb1	0.14994694
159	0x3dba2555	0.09089152
160	0xbe20ded1	-0.15709998
161	0xbde01aef	-0.10942637
162	0x3d9b9e0a	0.07598503
163	0x3e6ed0ef	0.2332189
164	0xbe15db44	-0.14634424
165	0xbd8eefb6	-0.06979315
166	0x3e5974f0	0.21236014
167	0x3e5684ac	0.20949048
168	0xbe3b781c	-0.18307537
169	0xbd4e0457	-0.050297108
170	0x3a715b4a	0.00092070235
171	0x3e1f7ef1	0.15575768
172	0x3e821def	0.25413463
173	0xbe5b28cc	-0.21402282
174	0xbda20a8d	-0.07912169
175	0x3e25d8ad	0.16195937
176	0xbd8f9047	-0.070099406
177	0xbe541ca3	-0.20714049
178	0xbe46aae2	-0.19401124
179	0xbbd11c58	-0.0063815527
180	0x3e6f2e6c	0.23357552
181	0xbdde5d1c	-0.10857603
182	0x3d5b9e5c	0.05361782
183	0xbe2362f3	-0.15955715
184	0x3cb79e60	0.022414386
185	0x3e373900	0.17892838
186	0x3e2039d6	0.15647063
187	0xbe891859	-0.26776388
188	0x3e5e1d5a	0.21690884
189	0x3e6db457	0.23213325
190	0xbdf264a9	-0.11835606
191	0xbe9068a8	-0.28204846
192	0x3dc554ea	0.09635337
193	0xbe1f2e39	-0.15544976
194	0x3cc252ee	0.023721185
195	0xbe6d62b2	-0.2318218
196	0x3d9f7435	0.077858366
197	0xbd1dfc26	-0.038570546
198	0xbd840d48	-0.06447846
199	0x3dfcd230	0.123447776
200	0x3c50db90	0.01274766
201	0xbe03bce9	-0.12865032
202	0x3e03a15c	0.12854522
203	0xbe30e29a	-0.17273942
204	0x3df909ac	0.12160048
205	0x3cb3273d	0.021869296
206	0xbe02b21a	-0.12763253
207	0x3e8b0bd5	0.27157465
208	0xbe122334	-0.14271241
209	0x3e202b71	0.15641572
210	0x3b7597dd	0.003747455
211	0x3e95e536	0.29276437
212	0x3e64f8ba	0.22360507
213	0x3e391ac8	0.18076622
214	0x3e261e0a	0.16222396
215	0xbe8467c6	-0.25860423
216	0x3d7b4791	0.061347548
217	0x3cdb8970	0.026798934
218	0xbcc1adb5	-0.0236424
219	0xbd7abb0f	-0.06121355
220	0xbe1b6baa	-0.1517779
221	0x3e0ff784	0.14059263
222	0xbd1aa464	-0.03775443
223	0xbd53fb1e	-0.051753156
224	0x3d196c2a	0.03745667
225	0xbc8b3b2f	-0.016995994
226	0xbe6485bd	-0.22316642
227	0x3da738c1	0.08165122
228	0xbe72022d	-0.23633642
229	0xbdb330b0	-0.08749521
230	0xbe666578	-0.22499645
231	0xbde0f8c4	-0.10984948
232	0xbdc421f3	-0.09576788
233	0xbc0cecc9	-0.008601376
234	0xbe008751	-0.12551619
235	0x3da068e4	0.07832506
236	0xbe4adcf3	-0.19810848
237	0x3e82e514	0.25565398
238	0x3d2421f7	0.040071454
239	0xbe3f8375	-0.1870249
240	0xbd0f1c9a	-0.034939386
241	0x3e70955e	0.23494479
242	0xbd30803c	-0.043091044
243	0xbd9ddb76	-0.077078745
244	0x3e29e583	0.16591458
245	0xbe81ca9c	-0.2534989
246	0xbd9bf9c3	-0.07615998
247	0xbdc1ffae	-0.09472595
248	0xbe518b76	-0.20463356
249	0xbd6189ad	-0.05506294
250	0x3e7151f3	0.23566417
251	0xbdc8b11a	-0.097994044
252	0xbc5f17eb	-0.013616542
253	0x3e3848aa	0.17996469
254	0xbe45c394	-0.19312888
255	0x3e8179b9	0.2528818
