test/model/actor_3_2_2_2_0_best_rou3.pth (torch, 689309 bytes, 17 tensors)

v2lLayer.W f4 [3, 40]
000000 2a 62 87 3e ac ee a0 3e 9a 78 9f 3e e4 ad b3 3e
       0.2644208 0.31432092 0.311467 0.35093606
000010 c8 ea 87 3e 81 00 41 be 60 86 b9 bc fc c6 47 3e
       0.2654631 -0.18847848 -0.022647083 0.195095
000020 c4 0c aa 3e 8d 6a 5a be a1 51 b7 be 44 9a af 3e
       0.33212864 -0.21329708 -0.35804465 0.34297383
000030 ed 00 b2 be b2 2e a3 3e ab ee b3 be d4 2f 53 3e
       -0.3476633 0.31871563 -0.35143027 0.20623714
000040 36 34 7e be 2c 25 e8 3d 34 4b a0 be 58 38 04 be
       -0.24824604 0.11335215 -0.31307375 -0.12912118
000050 dd 3c 28 be c8 82 e9 3d a0 09 7c 3c 70 24 87 3e
       -0.16429467 0.11401898 0.015383154 0.26394987
000060 c8 4d 61 3e 20 98 b8 3e dd 1d 45 be 34 0f c2 3d
       0.22002327 0.36053562 -0.19249673 0.09475556
000070 98 d7 09 3d ef f5 4d be cb 2c 09 be 5a af b1 3e
       0.03365287 -0.20113347 -0.13395993 0.34704095
000080 04 97 1b 3e 70 f7 8d 3d f4 d3 ac be 40 42 d6 bd
       0.15194327 0.069319606 -0.33755457 -0.10461855
000090 78 b2 a5 bd f0 13 46 3e b8 86 47 3e da 3d 97 3e
       -0.08090681 0.19343543 0.19484985 0.29539376
0000a0 08 72 18 3e 44 e8 fc bd b5 40 53 be 04 9d 5f 3e
       0.1488725 -0.12348989 -0.20630153 0.2183724
0000b0 bc 33 98 3e fc ea e8 3d dc fe be 3d b8 0b 69 3e
       0.2972697 0.11372945 0.09325954 0.22758377
0000c0 5a a4 9c be d5 f7 56 be d0 f4 7a 3d 60 d0 b5 bc
       -0.3059414 -0.20992978 0.061268628 -0.022194088
0000d0 c8 54 65 bd 79 66 98 be 10 ca 9d be a8 ee 2e bd
       -0.055989057 -0.2976568 -0.30818224 -0.04270807
0000e0 e0 95 9b be c0 96 29 3d e0 b4 96 bc ba 6f 84 3e
       -0.30387783 0.041403532 -0.018396795 0.2586649
0000f0 60 60 9c be a8 94 5d 3d a2 12 6f be 81 94 be be
       -0.30542278 0.054096848 -0.23346952 -0.37222674
000100 c0 a5 3b bd 23 a7 04 be ef 5a 8c be be d3 98 3e
       -0.04581237 -0.12954383 -0.27413127 0.29849046
000110 cc 19 7a be 68 13 0b 3e 49 97 b3 be 74 43 8e 3e
       -0.24423903 0.13581622 -0.3507636 0.27785838
000120 14 3b 50 3e b0 7e 16 be e8 56 14 be 7c fb a9 bd
       0.20335037 -0.14696765 -0.14486277 -0.0829992
000130 f0 03 24 3d dc 2f 29 3e fd 24 74 be 08 72 b5 3e
       0.040042818 0.16522163 -0.23842235 0.3543856
000140 28 09 18 3e 50 b2 d9 bd a8 dd b2 be 88 c9 7b 3e
       0.14847243 -0.106297135 -0.34934735 0.24588597
000150 36 cc a7 be 90 a6 27 3e b3 d9 5f be 60 7a 38 3d
       -0.32772988 0.16372132 -0.2186039 0.04503858
000160 90 95 2f be 28 9b b9 3e 75 40 ad be 28 6e 58 3d
       -0.17146897 0.36251187 -0.3383824 0.05283943
000170 50 1f e2 bd 64 ec 60 be 8c 84 3b 3e e8 93 43 3e
       -0.11041129 -0.21965176 0.18312281 0.1909939
000180 48 54 10 3d 94 0b 94 bd 1a b7 a0 3e aa 4e 8b 3e
       0.035236627 -0.07228771 0.31389695 0.27208453
000190 9a 62 83 3e fd 17 40 be 98 87 91 3d 44 92 84 bd
       0.25661165 -0.18759151 0.071059406 -0.064732105
0001a0 a0 d5 60 bc a0 db 0c bc c0 f4 88 be bc 42 24 be
       -0.013722807 -0.008597285 -0.2674923 -0.16041082
0001b0 65 5b ab be 2a b9 bc 3e ab 9d bd be ac ad 73 3e
       -0.33468166 0.3686002 -0.37034354 0.2379672
0001c0 56 c0 9b be b4 b5 a9 3d 85 8c b0 be 76 56 8f 3e
       -0.30420178 0.0828661 -0.34482208 0.27995652
0001d0 e4 96 bb 3e a6 8a 88 3e 78 75 bc 3e a2 15 31 be
       0.36638558 0.2666828 0.36808372 -0.17293409

v2lLayer.a f4 [80, 1]
000000 c0 7c 30 3e fc cc 38 3e b0 d1 29 3e b0 bc 03 be
       0.17235088 0.18046945 0.16583896 -0.12864947
000010 e0 83 23 3d 00 48 f5 bc 22 79 68 3e 80 3b 51 3c
       0.039920688 -0.029941559 0.22702459 0.012770534
000020 c0 4e f6 3d 28 4f 7f bd cc 9c 1e 3e 60 c6 ea 3c
       0.12026739 -0.06233135 0.15489501 0.028659046
000030 24 59 ab bd c8 fc 88 3e 7a 32 6b be 68 da 50 3d
       -0.083666116 0.26755357 -0.22968474 0.05098954
000040 6c 71 78 3e 70 a5 29 3e 40 05 cc bc 6c bd 04 be
       0.24262017 0.16567016 -0.024904847 -0.12962884
000050 38 98 07 3e 6e 4c 24 3e 96 dd 3d be b4 2c 89 3d
       0.1324166 0.1604478 -0.1854156 0.066979796
000060 50 16 1a 3d d8 b6 f2 3d 60 3e 8d 3d 58 3a 61 be
       0.037618935 0.11851281 0.06896663 -0.21994913
000070 14 f7 95 3d f0 f9 3f 3d 60 95 1c 3e 87 04 51 be
       0.07322517 0.04686922 0.15291357 -0.20411883
000080 04 f9 6f 3e 6e e2 80 be e4 44 74 3e 00 46 34 ba
       0.23434836 -0.25172752 0.23854405 -0.0006876886
000090 3a 0e 78 be ec f6 80 3d 2e 46 89 be d0 64 08 3d
       -0.24224177 0.062970966 -0.26811355 0.033299267
0000a0 18 27 35 3d 90 8b 93 bc e0 ea d8 3d d0 0f 21 3d
       0.044226736 -0.018010885 0.10591674 0.03932172
0000b0 9c 8c 4f 3e 51 3f 47 be f0 ea 65 be 1c 58 f7 bd
       0.20268482 -0.19457747 -0.22452903 -0.120773524
0000c0 b8 b5 c1 3d 86 50 31 be ec 19 dc 3d 80 f4 3e bd
       0.09458488 -0.17315874 0.10747132 -0.046619892
0000d0 0a 92 83 3e df da 5e be 48 2e 98 3d c1 45 02 be
       0.25697356 -0.2176318 0.074307024 -0.12721922
0000e0 9a 15 12 be 74 1d 8b 3d bc 23 4c 3e c3 b2 0f be
       -0.14266053 0.06792727 0.19935507 -0.14033036
0000f0 fc f9 6f 3e bb 2c 08 be d4 c3 76 3e 3c cf c1 bd
       0.23435205 -0.13298313 0.2409814 -0.09463355
000100 50 e1 9f 3c 9a e2 46 be 18 25 be 3d 33 d4 17 be
       0.019516617 -0.19422379 0.09284419 -0.14827041
000110 f6 8d 79 be f0 c6 fb 3c 80 eb 4e bb bc 1e 8c bd
       -0.2437056 0.03073451 -0.0031573474 -0.068417996
000120 01 33 46 be 7e a2 67 be e0 a5 19 bc 64 9e 61 be
       -0.19355394 -0.2262058 -0.009377927 -0.22033077
000130 08 bf 6e bd 2e 55 8b bd 7a 18 5f be 16 b3 66 3e
       -0.05828765 -0.06803356 -0.21786681 0.22529253

laneLayer.W f4 [12, 12]
000000 c0 73 b1 3e 62 8d 87 be d4 03 19 be ea c7 d1 3e
       0.34658623 -0.26475054 -0.14942867 0.40972835
000010 18 e5 a2 be 2a 9e d4 be c8 ce c9 be 40 ae f1 bc
       -0.3181541 -0.4152692 -0.39415574 -0.029502034
000020 f4 d3 c7 3e 3c 14 e4 3e 88 aa 7e be 20 74 f0 bd
       0.39028895 0.44546688 -0.2486974 -0.11740899
000030 10 49 cb be 6c 37 0a 3e c8 46 e6 bd 04 ff 9a be
       -0.3970418 0.13497704 -0.11243969 -0.30272686
000040 0c 1a db be 90 db 2f 3e 0c 3e 68 3e 2c 51 4b be
       -0.4279331 0.171736 0.22679919 -0.19855183
000050 f8 b9 02 be 3c 3b 10 be 20 26 b5 3c 48 cc f5 3e
       -0.12766254 -0.14085096 0.022112906 0.48007417
000060 7c 85 4f 3e e8 9a c6 3d b0 3e 66 be 2a d8 a3 3e
       0.20265764 0.09697515 -0.22484851 0.32000858
000070 a0 74 af 3e 24 52 1d 3e a0 da 22 3e 6a 11 bf 3e
       0.34268665 0.15363365 0.15903711 0.37317973
000080 9c d1 bc be cc 90 a6 be 80 ff f5 3e 90 ec a4 3d
       -0.3687867 -0.32532346 0.48046494 0.08052933
000090 80 5b c6 3d bc be 97 3e 56 65 b9 be 82 ee 97 3e
       0.09685421 0.29637706 -0.36210126 0.29674155
0000a0 88 a4 ee 3d 80 ec b0 3e c0 ba b4 be e8 aa da 3e
       0.116524756 0.34555435 -0.3529873 0.42708516
0000b0 44 c4 01 be f6 39 94 3e a8 d5 20 be 60 8e 64 be
       -0.12672526 0.2895047 -0.15706503 -0.22319937
0000c0 c0 0b 90 3c 64 49 a6 be 8c 91 b7 be 78 2b 8e bd
       0.017583728 -0.32477868 -0.3585323 -0.06941885
0000d0 84 ff 77 be 2c e0 a6 be 8a ed b7 be 78 86 96 3d
       -0.24218565 -0.32592905 -0.35923415 0.07349867
0000e0 aa 86 a6 3e 00 18 70 3d e0 76 6c 3e 1c e1 45 be
       0.32524616 0.05861664 0.23092222 -0.19324154
0000f0 f0 78 6c be a8 f9 c1 3e 34 d3 68 be 00 b8 9e bc
       -0.23093009 0.37885785 -0.22736818 -0.019374847
000100 ca be a2 be 34 41 cf be cc 04 ad be b4 dd f6 be
       -0.31786186 -0.40479434 -0.33792722 -0.4821602
000110 7a 67 f8 3e 00 6f 31 be 42 35 c5 3e 88 28 48 be
       0.48516446 -0.173275 0.38517195 -0.19546711
000120 00 19 c9 bb 70 e0 2d 3e 10 48 a5 3e d4 5c 57 3e
       -0.0061370134 0.16980147 0.32281542 0.21031505
000130 7e 76 f8 be ac 6a a5 be 68 82 54 be 38 0a 2f 3e
       -0.48527902 -0.32307947 -0.20752871 0.17093742
000140 64 31 9e 3e 18 9a d3 3d e6 c4 ca be 8a 33 ee 3e
       0.30897057 0.103321254 -0.39603347 0.46523696
000150 18 c7 bc 3d 88 a6 85 bd 18 b8 94 3e 96 0f 87 3e
       0.092176616 -0.06525904 0.29046702 0.2637908
000160 d4 8a b6 3e a4 9c 4b 3e 48 26 49 3e 64 8a 32 be
       0.35652792 0.19883972 0.1964351 -0.17435604
000170 90 7e 28 3d 20 23 c2 3d 00 86 3a bc d0 b3 4d bd
       0.041136324 0.09479356 -0.011384487 -0.05022031
000180 3c 74 da 3e 00 3d 53 3e fe 2f 94 3e a6 ad d9 3e
       0.42666805 0.20628738 0.28942865 0.42515296
000190 8a 5c a0 3e 54 9c 0e 3e a8 eb b9 bd 70 ee 0e 3e
       0.31320602 0.13926822 -0.09078151 0.13958144
0001a0 08 6f af be dc df 92 be e0 44 73 3e 20 b2 2b bd
       -0.34264398 -0.28686416 0.23756742 -0.04191792
0001b0 48 09 9d be e0 6c 6a bd c2 c0 a7 be 1c 05 e9 3e
       -0.30671144 -0.057232738 -0.3276425 0.4551171
0001c0 4c 90 d2 be c8 d8 1c be e4 29 8e 3e 08 a7 e1 be
       -0.41125715 -0.1531707 0.27766335 -0.44072747
0001d0 80 70 19 be 62 d2 d6 be 28 a6 a0 3d 14 42 4c 3e
       -0.14984322 -0.41957384 0.07844192 0.19947082
0001e0 28 57 ea bd 52 10 c5 3e d0 98 81 bd 58 17 c4 3d
       -0.11442405 0.38489014 -0.06327975 0.09574765
0001f0 e0 be cf 3d f0 fa 9e bd f8 9a e6 be 08 e0 f2 bd
       0.101438284 -0.07762706 -0.45040107 -0.11859137
000200 e0 75 18 3d 28 04 88 3d 18 a5 a4 bd 76 49 dc be
       0.03722179 0.06641418 -0.08039302 -0.43024796
000210 68 2f ca be 08 8d 10 be 48 48 4c 3e f6 51 94 be
       -0.39489293 -0.14116299 0.19949448 -0.2896878
000220 6a ba 9b 3e aa 57 ca be c0 71 54 3c de 22 aa be
       0.3041566 -0.39520007 0.012966573 -0.33229727
000230 9c c1 58 3e 90 53 39 3d 00 cd bb be 10 c6 90 bd
       0.21167606 0.045245707 -0.3667984 -0.070690274

l2pLayer.W f4 [12, 88]
000000 af 92 fa bd 58 05 79 bd 70 85 1a 3c dc 49 50 3d
       -0.12235009 -0.06079611 0.009431228 0.050851688
000010 74 72 e3 bd b9 16 51 be c8 ed 84 bd 06 57 df 3d
       -0.111058146 -0.20418824 -0.06490666 0.1090527
000020 a0 c2 f2 3b e0 08 af 3b 10 33 d8 bc 06 84 f5 3d
       0.007408455 0.005341634 -0.026391536 0.11988072
000030 24 3d 60 3d a9 37 30 3e 0c 07 1e be e6 19 bf bd
       0.05474581 0.17208733 -0.15432376 -0.093311116
000040 80 8d fe bb 10 17 6c 3c 7f f2 45 3e 51 c6 48 be
       -0.007768333 0.014409795 0.19330786 -0.19606902
000050 b8 7b aa bc f1 8e 2d 3e 3f b0 65 be 90 38 3e 3c
       -0.020810947 0.16949059 -0.22430514 0.011610165
000060 1b 1a 69 3e 10 5a 75 bd c2 e1 f5 3d 2b b8 75 3e
       0.22763865 -0.059900343 0.120059505 0.23996036
000070 57 be 5d 3e 82 ac 8b 3d 00 77 69 bb 3b 77 4c 3e
       0.2165464 0.06820013 -0.0035623908 0.19967358
000080 30 8e 80 bc 8c 64 19 3d 75 7b 53 3e de bc 55 be
       -0.0156928 0.037449405 0.20652564 -0.20872828
000090 ca 50 20 be b9 5c 6f 3e 3d c3 2f 3e 72 35 09 be
       -0.15655819 0.23375215 0.17164321 -0.13399294
0000a0 a3 67 3f 3e dc c4 45 3d 2c 86 58 bd ba a2 db 3d
       0.18691878 0.048283443 -0.05286233 0.10724397
0000b0 dc 7f 7a 3d c8 7e 89 bd 58 b0 f2 3c d2 ba c3 bd
       0.061157092 -0.06713635 0.029625103 -0.095571175
0000c0 ae 95 ac 3d ff b4 5e 3e 2c 49 0c 3d 7e 83 64 be
       0.08426987 0.21748732 0.03424947 -0.22315785
0000d0 00 b2 5b ba fb cd 71 be 72 99 d6 bd 25 51 21 3e
       -0.0008380711 -0.23613732 -0.10478486 0.1575361
0000e0 d4 27 57 be 4a 7f b7 bd 20 c2 f7 3b a8 07 de 3c
       -0.21011287 -0.08959825 0.0075609833 0.02710326
0000f0 c6 15 bb 3d a3 c6 0b 3e 00 5b 34 be f4 02 28 3d
       0.09135012 0.13649993 -0.17612839 0.04101844
000100 d7 20 68 3e c9 97 65 3e 06 16 9e bd e7 ef 69 3e
       0.22668777 0.22421183 -0.077190444 0.22845422
000110 80 41 3b be 4c da 60 bd 3c 0d 2f 3d 04 82 4f 3d
       -0.18286705 -0.054895684 0.04273723 0.050661102
000120 19 0e 2e 3e 8d 25 78 3e df a1 4e 3e 7f 7a 5f be
       0.16997565 0.24233074 0.20178936 -0.21824072
000130 ba 78 9e 3d 86 87 cc bd 4c 28 07 bd 68 5a c8 3c
       0.077378705 -0.099867865 -0.032997414 0.024457172
000140 05 59 1f 3e 0c 9c 51 bd fa 5f ec bd e4 cb 48 3d
       0.15561302 -0.05117421 -0.115417436 0.04902257
000150 de e1 b4 3d 6a 27 e7 3d b8 d7 57 be ba 4b 27 be
       0.08832143 0.112868145 -0.21078384 -0.16337481
000160 16 45 ab bd 5a d0 c8 3d 5c 0c 00 3d 9d ad 2e 3e
       -0.083627865 0.09805365 0.031261787 0.17058416
000170 fc 8b 03 bd 97 42 5e be 25 e4 1c 3e d4 d8 46 3d
       -0.03211592 -0.2170509 0.15321405 0.048546627
000180 b3 e4 6e be 50 af 2f bc 94 30 4d bd ed ac 45 be
       -0.2332943 -0.01072295 -0.050095156 -0.19304247
000190 6b 4c 35 be 4f b1 36 be 4c dc 69 be 31 11 14 3e
       -0.17704932 -0.17841075 -0.22837943 0.14459683
0001a0 66 f5 be bd 38 48 ae bc e8 ad ae 3c 36 76 08 be
       -0.0932415 -0.021274671 0.02132316 -0.13326344
0001b0 38 9a c4 3c 19 df 31 3e f8 10 bf 3c ee b0 3f be
       0.023999318 0.17370261 0.023323521 -0.18719837
0001c0 fe ad 50 be 2c a2 57 be 90 49 0d 3c ed 06 08 be
       -0.20378873 -0.21057957 0.008623496 -0.13283892
0001d0 50 83 be bd c6 c7 a8 3d b6 49 29 be f9 a2 19 3e
       -0.093023896 0.08241229 -0.16532025 0.15003575
0001e0 47 0f 73 3e 2e 62 5d be 19 4c 4a 3e 6d 83 7a 3e
       0.23736297 -0.21619484 0.19755591 0.24464197
0001f0 29 a0 61 3e 9c 50 5b be 13 8a 74 be 80 cf a3 3b
       0.22033753 -0.21417469 -0.23880796 0.004999101
000200 59 f6 3d 3e 3e 9d 98 3d b2 ea 36 be 48 7a 81 3c
       0.18551005 0.074518666 -0.17862967 0.015805379
000210 78 90 97 bd b2 3b 82 bd 0a 66 ec 3d a0 80 d0 bb
       -0.07400602 -0.06359042 0.115429 -0.0063629895
000220 96 b7 76 be a4 0f 6b be 3a 77 98 bd ac 4b e8 bd
       -0.2409347 -0.22955185 -0.07444616 -0.11342558
000230 26 ea c6 bd 59 66 76 be e8 9d 31 bd d8 80 95 bd
       -0.09712629 -0.2406248 -0.04336348 -0.072999656
000240 ed 70 05 3e 30 60 8f bc f0 68 d7 bc 32 e2 9f bd
       0.13031359 -0.01750192 -0.026295155 -0.07806815
000250 90 6c 5f be 60 b2 af 3b 9f 90 1a 3e a7 41 55 be
       -0.21818757 0.00536184 0.15094231 -0.20825826
000260 aa 93 89 bd 39 ff 0b 3e 68 eb 25 be 60 c5 b8 bb
       -0.06717618 0.13671578 -0.16203082 -0.0056387633
000270 20 61 53 be cc 1d 44 be a5 7f 6a 3e c7 c6 56 3e
       -0.20642519 -0.19151992 0.22900255 0.20974265
000280 2f 93 6e 3e 58 7a be bc 0b 82 6d 3e 6c 00 47 bd
       0.23298334 -0.023251697 0.23194139 -0.048584387
000290 92 9f a8 3d bb 32 40 3e 64 84 04 bd fd c5 74 be
       0.082335606 0.18769352 -0.03235282 -0.23903652
0002a0 02 c1 dd 3d 5b 14 57 be 72 85 1f be 48 81 b2 3c
       0.10827829 -0.21003859 -0.15578249 0.021790162
0002b0 86 44 16 be 54 42 1d 3d bf 5c 25 be 63 8f 0a 3e
       -0.14674577 0.038393334 -0.16148661 0.1353126
0002c0 b4 54 b3 bd 5b 85 4e be 2c 9e f5 bd 72 fa 6a be
       -0.0875639 -0.20168059 -0.119930595 -0.229471
0002d0 8f 68 7a 3e a3 b2 06 be 5e c7 09 be 88 ed c6 3c
       0.24453948 -0.13154082 -0.13454959 0.024283186
0002e0 e3 dc 46 3e c0 4d 46 be 72 1a 82 bd 93 a8 13 3e
       0.19420199 -0.19365597 -0.063527 0.14419775
0002f0 9c d7 0a be 18 37 e8 bc c6 98 d5 3d 5e 7e 00 be
       -0.13558811 -0.028346583 0.1042953 -0.12548205
000300 06 7b f9 3d 9c 17 2f be 9a f1 aa 3d 04 ec 34 be
       0.12181668 -0.1709885 0.08346863 -0.17668158
000310 08 a0 dd 3c e8 7c fb bc 04 5c 74 bd 6a 0f b9 3d
       0.027053848 -0.030699208 -0.059658065 0.09036143
000320 10 08 24 be e2 12 49 be fc 8e 7a bd 92 46 0b be
       -0.160187 -0.1963611 -0.061171517 -0.13601139
000330 34 3d 7b 3d dc 2a 00 3d 22 72 6a be 2e 9a 42 be
       0.061337665 0.031290874 -0.228951 -0.19004127
000340 0a ed e1 3d 6d 08 62 3e 5d 58 70 3e 74 84 5e 3d
       0.1103154 0.22073527 0.23471208 0.054325536
000350 ce df e9 bd da 17 94 bd 2e 51 6b be 59 97 12 3e
       -0.114196405 -0.07231112 -0.22980186 0.14315547
000360 b3 44 4d 3e 2e 49 b6 3d d8 1a 34 be 68 10 ac bd
       0.20045738 0.08900677 -0.17588365 -0.08401567
000370 e8 18 33 bd 4c b8 61 3d a9 8c 4b 3e 8c 94 4b 3d
       -0.043724924 0.0551074 0.19877876 0.049702212
000380 50 80 59 bc 57 40 72 3e 75 9b 55 be 51 49 77 be
       -0.013275221 0.23657356 -0.20860083 -0.24149062
000390 b2 33 e0 3d 65 8e 5a 3e 48 d5 b1 bc c0 5e f5 bb
       0.1094736 0.21343382 -0.021708146 -0.0074881017
0003a0 ae f9 bc 3d a0 c3 35 be 68 a0 9f bc fd a0 4a 3e
       0.0922731 -0.17750406 -0.019485667 0.19787975
0003b0 23 0b 76 3e 58 4a 38 be 9e 84 9d 3d 6c 02 68 3d
       0.24027686 -0.1799711 0.0769131 0.056642935
0003c0 b2 d3 90 3d 09 11 1f be d6 46 f4 3d 15 99 58 be
       0.07071628 -0.15533842 0.119275734 -0.21152146
0003d0 00 dc 6f ba 5a 24 02 be 29 d8 5d 3e c0 de 46 3b
       -0.0009149909 -0.1270918 0.2166449 0.0030345172
0003e0 8c 5d 17 bd 00 9f 96 ba 7c d6 0a 3d bf 4b 5f 3e
       -0.036954448 -0.0011491477 0.033895954 0.21806239
0003f0 2a 0e c4 3d 8b ed 16 3e 4e dc bd bd 30 6f fb bc
       0.09573014 0.14739053 -0.092705354 -0.030692667

l2pLayer.a f4 [176, 1]
000000 1b b3 c2 bd 0a e6 1a be be ed 86 bd 80 60 07 3c
       -0.09506818 -0.15126815 -0.065883145 0.0082627535
000010 84 42 33 be ff a3 00 3e 1f 2d 3a be f8 13 c2 3c
       -0.17505842 0.1256256 -0.18181275 0.023691162
000020 03 24 17 3e eb e5 22 be 37 ff 02 3e 10 c6 2a bc
       0.14759831 -0.15908019 0.12792669 -0.010423198
000030 aa d1 ab bd 6f f5 01 3e 5b 2e 3b 3e 2c 28 14 bd
       -0.083895996 0.12691282 0.18279402 -0.036171123
000040 d7 4d 36 3e 6a 7e 1a be ce 92 93 bd 1e 41 a9 3d
       0.17803131 -0.15087286 -0.07205735 0.08264373
000050 f7 bd d1 bd b1 de 11 3e 14 2a 63 bd 22 c9 b5 3d
       -0.10241311 0.14245106 -0.05546005 0.08876254
000060 bc d9 22 be ca d7 fb 3d de 84 8b bd 68 79 bb bc
       -0.15903372 0.12297018 -0.06812452 -0.02288504
000070 10 d4 3c 3d 7f ed ea bd 93 14 c9 bd 2b d1 f2 bd
       0.046100676 -0.1147108 -0.09818377 -0.11856302
000080 00 f0 57 bd 8a 14 96 3d a8 39 6b bd 5e c7 2c be
       -0.052719116 0.07328136 -0.057428032 -0.16872928
000090 40 b8 44 bb e0 d5 0b 3d 39 d6 16 3e 34 f8 2a be
       -0.0030017048 0.034139514 0.14730157 -0.16696244
0000a0 aa 61 ac bd 6d 55 90 bd 3c 9d 3f bd 0c 67 ed bd
       -0.084170654 -0.07047544 -0.04678081 -0.1159192
0000b0 61 e5 2b 3e 80 42 dc 3a 88 d6 a8 bd 50 ce ee 3c
       0.1678672 0.0016804487 -0.082440436 0.029151112
0000c0 08 69 87 3c c6 c2 9c 3d a0 3f 33 bd 56 45 db 3d
       0.016529575 0.076543376 -0.04376185 0.10706584
0000d0 f5 02 1f 3e aa 26 a3 3d f8 53 11 3d d4 1f 66 bd
       0.15528472 0.07966359 0.03548047 -0.056182697
0000e0 3d 03 36 be 3a f9 99 3d 00 5f 5a bd 7c 2e 58 3d
       -0.17774673 0.07518239 -0.053313255 0.052778706
0000f0 84 2a 3b be e8 74 b8 bd 5e 7b cf 3d 46 d1 c9 3d
       -0.18277937 -0.09006673 0.10130952 0.09854369
000100 98 6c a2 3c 02 35 fe bd b7 dd 14 3e 7c ac 3b be
       0.019827172 -0.12412454 0.14537703 -0.18327516
000110 b9 0e 14 3e 30 58 48 bc 9f b5 88 bd 57 7b 1d be
       0.14458741 -0.012228057 -0.066752665 -0.15379082
000120 62 e1 07 be 28 06 d9 3c 58 98 4a bd fa ba c4 3d
       -0.1326957 0.026492193 -0.049461693 0.096059754
000130 b2 38 91 3d 72 a3 d2 3d 70 33 47 3d b0 6f 39 bd
       0.07090892 0.10285081 0.04863304 -0.04527253
000140 23 70 06 be 40 ae fb bb d1 83 24 3e ae 15 fe 3d
       -0.13128714 -0.0076806843 0.16065909 0.12406479
000150 e8 d0 e4 3c f2 fe 30 be 51 97 97 bd 02 84 9e bd
       0.027931646 -0.17284754 -0.07401908 -0.07740022
000160 ca c9 e8 bd 61 1f 0d 3e 4b 5d 0b be fe 5e a2 bd
       -0.11366613 0.13781501 -0.13609807 -0.079282746
000170 ee 03 b9 3d ca 37 f7 3d 68 07 7b 3d 39 30 32 3e
       0.09033953 0.12071188 0.06128636 0.17401208
000180 0c 5f 4b bd 8f 11 33 be c0 d8 35 bc ca 5c 9a 3d
       -0.04965119 -0.17487167 -0.0110990405 0.07537229
000190 fd 01 1a be c5 8e 06 3e f2 ae fe bd 8c 61 0f be
       -0.15039821 0.131404 -0.12435712 -0.14002055
0001a0 7a e5 9f bd be aa 0c be 3a a6 b1 3d 70 80 7a 3c
       -0.07807441 -0.13737008 0.08674283 0.015289411
0001b0 20 2d 20 3d 0f ff 3a 3e 7a 01 ce 3d 33 3c 14 3e
       0.039105535 0.1826136 0.100588754 0.14476089
0001c0 85 3b 07 be 01 9e 0c be 38 6f 9e 3c a1 00 1d 3e
       -0.13206299 -0.13732149 0.019340143 0.15332271
0001d0 e0 b3 52 bc b6 bc 96 3d 80 5e 2f bc d5 30 b4 bd
       -0.012860268 0.073602125 -0.010703683 -0.087983765
0001e0 80 40 e0 ba ea 76 ff 3d 86 46 28 be 00 60 83 38
       -0.0017109066 0.12473853 -0.16433153 6.264448e-05
0001f0 71 46 31 be 10 3d 91 bd a6 c1 aa 3d 00 26 09 be
       -0.17312028 -0.07091725 0.08337717 -0.13393402
000200 d0 1e 17 be de 9f 97 bd 70 20 5f bd f2 3a af 3d
       -0.14757848 -0.07403539 -0.054474294 0.08556165
000210 85 35 c7 bd 30 47 78 3d ff 72 14 3e b0 81 7a bc
       -0.09727005 0.060614765 0.14496993 -0.015289709
000220 7b be 03 3e f4 b8 9c bd 2c d7 67 bd 56 02 d7 3d
       0.12865631 -0.076524645 -0.05660169 0.104984924
000230 a0 49 f9 3c 11 4a 3a 3e 56 73 24 be 95 e6 2f 3e
       0.030430615 0.18192317 -0.16059622 0.17177804
000240 4a eb e7 3d d8 bc bd bc 60 b9 d1 3c ab 43 2c 3e
       0.11324175 -0.023161337 0.025601089 0.16822688
000250 b5 0e a3 bd 86 b9 a2 3d bc c7 27 bd 76 20 77 bd
       -0.079617895 0.07945542 -0.040961966 -0.06033369
000260 28 21 83 bd 00 5a b8 3b 58 58 96 3c 1a 4d fe bd
       -0.064028084 0.005625963 0.018352672 -0.1241705
000270 10 8f 98 3c f2 0d bf 3d 92 7e 94 3d 98 fd 51 bd
       0.018622905 0.09328832 0.07250704 -0.051267236
000280 67 ea cd bd 68 ae 0b be 6b 8c 0a 3e 0c 68 18 3d
       -0.10054474 -0.1364075 0.13530128 0.0372086
000290 bc c2 19 be 30 12 bc bc 86 4b ee 3d e2 58 97 3d
       -0.15015692 -0.022957891 0.11635499 0.0739
0002a0 6c 86 28 bd 52 74 ff bd 28 ba 23 be 56 78 d4 3d
       -0.04114382 -0.12473358 -0.15988982 0.10374515
0002b0 00 11 a6 3c 2c 33 0d be 70 3f 42 bd c6 fc e3 bd
       0.020271778 -0.13789052 -0.04742378 -0.11132197

phaseLayer.W f4 [24, 26]
000000 16 c0 02 be 9d 7d 93 be 88 22 b6 bd bc 3f b4 3d
       -0.12768587 -0.28806773 -0.08893305 0.08801219
000010 d0 89 1e 3e 52 7e 9b be cc b4 ac 3e c8 05 87 3e
       0.15482259 -0.30369812 0.33731687 0.26371598
000020 68 f3 88 3d 0c 39 82 be 60 af 3d bc 7c 8f fd bd
       0.06687051 -0.25434148 -0.011577457 -0.12380883
000030 30 49 aa 3e bc 55 7e be e4 bd d2 3d 82 85 87 3e
       0.33258963 -0.24837393 0.10290125 0.26469046
000040 12 3b 89 3e 1e 3b 70 be 14 9c 9d be cc 93 90 3e
       0.2680288 -0.23460051 -0.3078314 0.2823776
000050 18 e8 44 3e 5c 7e 87 bd e1 9e a4 be 08 29 f5 3d
       0.19229162 -0.06615898 -0.32152465 0.11970717
000060 22 65 99 3e fe 61 a0 3e 3c 9a 1c 3e c5 94 7f be
       0.2995997 0.31324762 0.1529321 -0.24959095
000070 86 2d 5f be d4 d3 6b 3e aa e0 07 3e df 67 27 be
       -0.2179471 0.23030025 0.13269296 -0.16348217
000080 a0 23 b2 bc 00 97 f7 3c 10 f0 80 3e b0 f5 7f bd
       -0.021745503 0.03022337 0.25183153 -0.062490165
000090 91 73 26 be a0 66 f9 3d 8e 0a fa bd cc cc 19 3e
       -0.16255023 0.12177777 -0.122090444 0.1501953
0000a0 4c 70 8b 3d ac 90 42 3e f0 f2 8d 3e 5c eb 23 be
       0.06808528 0.190005 0.2772441 -0.16007751
0000b0 58 40 31 3d 30 11 c8 3c a4 1e 99 3e ca 51 80 3e
       0.043274254 0.024422258 0.2990619 0.250624
0000c0 04 d9 a7 3e 60 4d 46 3c 24 34 ad 3e 18 6e 12 bd
       0.32782757 0.012103409 0.33828843 -0.035749525
0000d0 90 38 ec bc 60 7a 7c bc f2 fc 11 be bd 0d 49 be
       -0.028835565 -0.015410036 -0.14256647 -0.19634147
0000e0 de a8 8c 3e 44 6e 90 3e 3c c7 24 3e 68 97 71 3e
       0.27472585 0.28209126 0.16091627 0.23592913
0000f0 40 16 a0 bd 10 bb b4 3c 20 a3 95 3e 70 76 8b 3d
       -0.07816744 0.022061855 0.29226017 0.068096995
000100 14 ef 2a 3e 80 50 6d bd 6e b8 a2 3e 40 72 3b 3d
       0.16692764 -0.0579381 0.31781334 0.045763254
000110 ef 3b 50 be 6e f5 69 be d8 d0 16 3d 10 e1 ed 3c
       -0.20335363 -0.2284753 0.036820263 0.029037982
000120 28 de 9e 3e c5 2f b0 be 40 a1 27 3e 38 fa 5d bd
       0.31028867 -0.34411445 0.16370106 -0.054193705
000130 4a b2 e8 bd 44 9c 81 be 6c b4 71 be 80 15 72 bc
       -0.11362131 -0.25314534 -0.23603982 -0.014775634
000140 d0 71 23 3e 88 ad 0d 3e 30 7d 10 bd 8a 78 8c 3e
       0.15961385 0.13835728 -0.035275638 0.27435714
000150 2c bc 8d bd df 17 0a be e8 c1 05 be 19 e8 32 be
       -0.069206566 -0.13485669 -0.1306225 -0.1747135
000160 50 8f a4 be d6 6e a2 be 5c 25 11 3e 69 d9 aa be
       -0.3214059 -0.31725186 0.14174408 -0.33368996
000170 2e fa f5 bd f8 20 79 bd a2 f7 05 be 74 ad 12 3e
       -0.120106086 -0.060822457 -0.13082746 0.1432398
000180 d0 d3 fc 3c 20 cd 0e bd 7b dc 5c be b0 2b a2 3e
       0.030862719 -0.03486359 -0.21568482 0.31673956
000190 90 d3 09 be 1c 8d 3a 3e bf b0 8a be f6 78 d1 bd
       -0.13459611 0.18217891 -0.27087972 -0.102281496
0001a0 08 a4 4c 3e a0 52 5c 3e 80 3a 31 3b e0 19 3f 3e
       0.19984448 0.21515894 0.0027042925 0.18662214
0001b0 ac 88 11 be 38 4a 71 3e 18 eb 62 3e c0 cf 1a 3e
       -0.14212292 0.23563468 0.22159994 0.15118313
0001c0 48 1e 0e 3d a8 3d 6a be 38 ad 15 be 86 c9 aa 3e
       0.034696847 -0.22875082 -0.14616859 0.33356875
0001d0 b4 61 f8 bd 18 f3 f7 bd e4 eb d4 3d 7e 85 02 3e
       -0.121280104 -0.12106913 0.10396555 0.12746236
0001e0 d0 3d 39 3e d2 8f 09 3e 8c a0 28 3e 20 be 44 bd
       0.18089986 0.1343377 0.16467494 -0.04803288
0001f0 a0 b8 a2 3e 38 cc fb 3d 50 3c 3a 3e 38 ed 0e bd
       0.31781483 0.12294811 0.1818707 -0.0348942
000200 8c 54 0e 3e 80 52 7a 3e b6 80 ab 3e 04 a9 88 3d
       0.1389944 0.24445534 0.33496636 0.06672862
000210 7a 38 a1 be e0 15 fa bc 48 3e 77 3d a2 7f a8 be
       -0.314884 -0.030528009 0.06036213 -0.32909876
000220 8c f8 5c 3e 08 4d 44 3e 5e bd 8c be b8 80 a3 3d
       0.21579188 0.1917001 -0.27488226 0.079835355
000230 00 ca 6c be 93 f0 49 be 5c 7f b2 bd 88 36 91 be
       -0.23123932 -0.19720678 -0.08715698 -0.28361917
000240 e5 c1 15 be 09 36 93 be 94 39 a2 bd b7 8e 87 be
       -0.14624746 -0.28752163 -0.079211384 -0.2647607
000250 f4 3d a2 bd 42 f4 8f 3e e8 71 77 be f6 36 9a 3e
       -0.07921973 0.2811604 -0.24164546 0.30120057
000260 68 01 86 3d b0 f2 a3 bd 06 e5 e7 bd f4 6c 59 3e
       0.06543237 -0.08005273 -0.1132298 0.21232969
000270 fc 4b c5 3d e0 6c 38 3c 1a ab 14 3e f8 af 4e 3e
       0.096336335 0.011256427 0.14518395 0.20184314
000280 17 17 85 be 4c 63 54 3e 04 f7 ad bd 8e f2 9d 3e
       -0.2599418 0.20741004 -0.0849438 0.30849117
000290 60 42 5c 3c e0 ff 33 3e 9f 2c 34 be 68 eb 6f 3e
       0.013443559 0.17578077 -0.17595147 0.23429644
0002a0 f4 03 8a bd c0 19 9f bc b0 e8 74 3d c0 76 71 be
       -0.06739035 -0.019421458 0.05979222 -0.23580456
0002b0 a8 e0 5b 3e 18 75 05 3e d0 93 1b 3e 27 0a 3f be
       0.21472418 0.13032949 0.15193105 -0.18656217
0002c0 0c 19 20 3e 84 33 54 3e 20 b4 7b bc 36 82 a6 3e
       0.15634555 0.20722777 -0.015362769 0.32521218
0002d0 fc 08 a3 be f4 76 59 3e cd 4e 4d be 00 9d 9b bc
       -0.31842792 0.21236783 -0.20049591 -0.018995762
0002e0 7f 05 b1 be bc 6c 8f 3d 10 82 6f bd 08 12 aa 3e
       -0.34574506 0.07003161 -0.058473647 0.33216882
0002f0 d8 45 12 3e 2c 5e 51 3e c0 e5 ab bc 60 50 7a 3e
       0.14284456 0.2044608 -0.020983577 0.24444723
000300 a0 2e 2e bc 81 68 3c be 36 14 a6 be 08 13 57 3e
       -0.010631233 -0.1839924 -0.32437295 0.21003354
000310 bc e7 a6 be fa 2e 53 be d7 c9 95 be c0 73 93 be
       -0.32598674 -0.20623389 -0.29255554 -0.28799248
000320 84 ae 06 3e cc ec de bd c3 ac 64 be 40 83 9e be
       0.1315251 -0.10885009 -0.22331528 -0.3095951
000330 c8 5d 16 3d 9c a8 a4 be 6a 3b 36 be 90 b6 b8 bc
       0.03671053 -0.3215989 -0.17796102 -0.02254799
000340 d8 37 44 be 48 a3 59 3d de d8 ae be b0 14 ae bc
       -0.19161928 0.053134233 -0.34149832 -0.021250099
000350 88 22 94 3e 14 78 e4 3d a8 28 58 bd 16 4e 6a be
       0.28932595 0.111557156 -0.052773148 -0.2288135
000360 a4 2e f4 3d 1d 94 60 be a0 fd 3a 3e aa 2b 98 be
       0.119229585 -0.219315 0.18260813 -0.29720813
000370 08 32 0f 3e f8 a4 0d 3e 2c 24 a6 be 78 a3 26 bd
       0.13983929 0.13832462 -0.32449472 -0.04068324
000380 10 a7 ae 3c 13 1f 39 be a4 9e 86 3d da d8 9a 3e
       0.021319896 -0.1807826 0.06573227 0.3024357
000390 00 25 17 bc 5c 10 91 3d 54 3f 40 3e 38 4f 13 bd
       -0.00922513 0.070831984 0.18774158 -0.03596422
0003a0 8c 68 4e 3e a4 34 32 3e ea 99 88 be 2e a9 19 3e
       0.20157069 0.17402893 -0.26679927 0.15005943
0003b0 b2 ed 81 3e 80 74 48 bb 80 d2 f6 3b 24 5d b2 bd
       0.2537666 -0.0030587018 0.007532418 -0.087091714
0003c0 80 29 56 bb 84 eb cb bd 60 13 94 3e a0 7f 77 3e
       -0.0032678545 -0.099570304 0.28921032 0.24169779
0003d0 b1 49 4d be 64 a1 00 be ca c4 85 be 3e ac 11 be
       -0.20047642 -0.12561566 -0.261267 -0.14225861
0003e0 2c 42 38 be 30 a2 2a 3e 82 9f df bd 58 08 b1 be
       -0.17993993 0.16663432 -0.109190956 -0.34576678
0003f0 90 39 8f be d5 ab 1d be 24 b5 25 3e c0 b2 29 bc
       -0.27973604 -0.1539758 0.16182381 -0.010357559

p2iLayer.W f4 [24, 176]
000000 95 65 0d be d6 c5 29 be 40 7a 64 bc d0 1f 04 3c
       -0.13808282 -0.16579375 -0.013945162 0.008064225
000010 1f 26 94 bd fc a7 eb 3d 20 1f 29 3c 3c 9a 79 bd
       -0.072338335 0.1150665 0.010322362 -0.060938105
000020 dc d2 2e 3e c6 6f 05 3e c0 91 65 bb 14 3a 20 3d
       0.17072624 0.1303092 -0.00350295 0.039117888
000030 00 ec a7 3c 50 d4 8c 3d 28 b1 8e 3c c0 ed 8d bb
       0.020498276 0.06876433 0.017418459 -0.0043313205
000040 4a d3 95 3d 60 73 77 bd 0a b0 f7 bd 08 4a 1f 3e
       0.07315691 -0.060412765 -0.12094124 0.15555584
000050 c0 03 94 3d 50 30 18 be 48 2f 5a bd 80 fc ef ba
       0.07227278 -0.1486218 -0.053267747 -0.0018309504
000060 dc 81 77 bd d0 72 78 bc 00 e8 44 39 00 78 5f 3c
       -0.060426578 -0.015164092 0.00018778443 0.01363945
000070 b0 5e d3 3d 12 0b 20 3e 20 4e b0 bd bf 0b b7 bd
       0.103207946 0.15629223 -0.08608651 -0.08937787
000080 38 c2 94 3c a2 01 1d be 9c 69 cf 3d 58 49 11 bd
       0.018159017 -0.15332654 0.10127565 -0.035470337
000090 40 10 41 bc 5f 77 d9 bd e5 e7 cc bd 00 c5 ea 3a
       -0.011783659 -0.10618471 -0.10005168 0.0017911494
0000a0 3c 73 02 3d 9c e4 01 be 0f cc cd bd fa ae 0e 3e
       0.031848177 -0.12684864 -0.10048687 0.13933936
0000b0 48 99 b3 3d 8d 4a c4 bd 64 64 20 3d 22 58 6b bd
       0.087694705 -0.09584532 0.03915824 -0.057457097
0000c0 3c f5 71 bd be e4 24 3e 21 4f 2b be 32 41 f9 bd
       -0.059071764 0.16102883 -0.16729404 -0.12170638
0000d0 fa bf 6f bd 7a 85 a0 bd f8 34 bd 3d 98 e0 37 bd
       -0.058532692 -0.07837959 0.092386186 -0.044891924
0000e0 f8 08 e7 3d 89 e1 2f be ea db 0d be f2 43 88 3d
       0.112810075 -0.17175879 -0.13853422 0.066535845
0000f0 b0 2d 30 3e 74 73 37 3d 16 53 19 be 64 45 6d 3d
       0.17204928 0.04478784 -0.14973101 0.057927504
000100 7c e8 1b 3d 48 11 91 3d 3a e3 10 3e 98 d8 b8 3d
       0.03806351 0.07083374 0.1414918 0.09025687
000110 ea bc 2e 3e 59 42 b0 bd e8 41 a8 3c 1d 43 81 bd
       0.17064252 -0.08606405 0.020539239 -0.06311629
000120 23 cd 20 be c4 a7 cc 3d 50 1b 40 3d e4 3d ab 3d
       -0.15703253 0.09992936 0.046901047 0.08361414
000130 40 c6 95 3b 20 c2 68 3c 68 8b 0d 3e d5 3f c1 bd
       0.0045707524 0.014206439 0.1382271 -0.09436003
000140 58 54 ed 3c d0 f4 23 3e c0 29 67 bc 2c 41 e6 bd
       0.028970882 0.16011357 -0.014109075 -0.11242899
000150 bc 67 4d 3d a2 5c 2d be b1 0a 2d be e8 fa ed bc
       0.050147757 -0.16929868 -0.1689861 -0.029050305
000160 e4 f0 e2 3d 04 ff 31 bd 90 05 07 bc e0 d5 c5 bb
       0.110811025 -0.043456092 -0.008241072 -0.006037459
000170 79 1b 29 be 34 43 d9 bd c4 5a b2 bd 7c 0e f6 3d
       -0.16514386 -0.10608521 -0.087087184 0.120144814
000180 b4 8b 9e 3d 5a 40 04 3e 06 ea 2e 3e ea 24 21 be
       0.0774149 0.12915173 0.1708146 -0.15736738
000190 90 14 27 3e d4 0e 23 3e 80 c3 e2 bc c6 95 86 3d
       0.16316438 0.15923625 -0.027681112 0.06571536
0001a0 9f 0b c8 bd 1c 89 71 3d c4 4a e1 3d cc 24 29 bd
       -0.097678415 0.05896865 0.110005885 -0.041294858
0001b0 6c 00 a4 3d f8 6e 57 bd 60 f0 8d 3c e8 91 b3 3d
       0.08007893 -0.052596062 0.017326534 0.08768064
0001c0 18 6b ac bd da 05 c8 bd 6d 64 b7 bd fd 03 16 be
       -0.08418864 -0.09766741 -0.089547016 -0.14649959
0001d0 90 47 19 be 44 fb 87 3d f4 3c 7c bd 5e 51 0f be
       -0.14968705 0.06639722 -0.061581567 -0.13995883
0001e0 80 42 55 3b a0 41 37 3c 44 7c 13 bd d0 63 21 bd
       0.0032540858 0.01118508 -0.03600718 -0.03940183
0001f0 81 35 f1 bd 6c 0e 1c 3e cc 7a 8c bd c4 62 1d 3e
       -0.11777783 0.15239877 -0.06859359 0.15369707
000200 d0 eb ac 3d 9d b3 9a bd 64 64 b3 3d 80 75 9f bc
       0.08443415 -0.0755379 0.08759382 -0.019465208
000210 60 36 17 3c 64 f5 0b 3e 58 00 22 be 80 fb 5a 3b
       0.009229273 0.13667828 -0.15820444 0.0033414066
000220 28 d7 a7 3c 20 0c bc bb 20 39 45 3c fe 91 e4 bd
       0.020488337 -0.00573875 0.012037545 -0.11160658
000230 01 49 c0 bd 28 88 a3 bc 32 1e 2c 3e 3c 19 73 3d
       -0.093889244 -0.019962385 0.16808394 0.059350237
000240 d4 ca 1d be b4 e1 c5 3d 60 84 d5 3b c0 c2 c2 3d
       -0.15409404 0.0966219 0.0065160245 0.09509802
000250 28 d8 0f bd 28 1f 83 bd 56 fe 22 3e 8f 14 11 be
       -0.035118252 -0.06402427 0.15917334 -0.14167999
000260 ae 5c 14 be ef 22 a4 bd a0 bc fb bc 28 63 ab 3d
       -0.1448848 -0.080144756 -0.030729592 0.08368522
000270 37 6b 28 be 50 17 ab bc 48 a9 ca 3d 24 ab 23 be
       -0.16447149 -0.02088514 0.09895569 -0.15983254
000280 e0 97 ac bc d8 32 f0 3d c9 21 2c be 30 95 00 3c
       -0.021068513 0.11728448 -0.16809763 0.007848069
000290 02 93 25 3e ce a6 f8 bd 7d 74 13 be ac 1c 40 bd
       0.1616936 -0.121411905 -0.14399906 -0.046902344
0002a0 30 b5 36 bd 28 97 4e bd 1e d4 66 bd ce 49 13 3e
       -0.044606388 -0.050437123 -0.056354634 0.14383623
0002b0 ee f2 8c 3d 70 47 a4 bc 40 fd 2c 3c f4 d1 7b 3d
       0.06882273 -0.020053595 0.010558426 0.061479524
0002c0 e0 f1 13 3e 20 56 b4 bd 44 18 46 3d b6 20 06 3e
       0.14447737 -0.088054895 0.048362985 0.13098416
0002d0 d0 ac 2e 3c 3c 00 e8 3d 46 37 13 3e 60 65 59 bc
       0.010661319 0.1132817 0.14376554 -0.013268799
0002e0 cd c7 cf bd af 25 eb bd 58 6d d2 bd 0c 9e 1e 3e
       -0.10145531 -0.11481797 -0.10274762 0.15489978
0002f0 a4 a1 0c 3e 5a 28 52 bd fc 4b 03 bd 00 6e ab ba
       0.13733536 -0.051308013 -0.032054886 -0.0013079047
000300 06 27 2a 3e f4 d6 08 be 65 d2 d0 bd 90 72 f0 3c
       0.16616449 -0.13363248 -0.101963796 0.029351503
000310 38 36 a3 bd 58 28 f9 bc b4 eb a6 3d 00 00 cd bc
       -0.07969326 -0.030414745 0.081504256 -0.025024414
000320 f8 c7 c0 3c 4a a8 0a 3e a8 f0 40 bd 38 25 69 3d
       0.023532853 0.1354076 -0.047104508 0.05692026
000330 d0 68 8d 3d b0 27 34 bd 80 3b f3 bc 28 5a 2a 3e
       0.06904757 -0.04398316 -0.029691458 0.16635954
000340 70 0c a3 3c 5e ab 77 bd 56 7e 89 bd 67 2a bf bd
       0.019903392 -0.060466163 -0.0671355 -0.093342595
000350 64 80 e1 3d 04 7b ee 3d 2c a3 39 3d 74 74 2c 3e
       0.11010817 0.11644557 0.04532163 0.16841298
000360 3a a7 21 3e 51 1a 86 bd d8 b9 07 bd f0 44 b1 3d
       0.15786448 -0.06547988 -0.03313622 0.08655727
000370 a9 46 ab bd e0 26 1b 3e 45 1f 81 bd a0 b2 a6 3b
       -0.08363087 0.15151548 -0.06304792 0.0050872117
000380 38 d0 e5 bc 9c 3a 95 bd a0 44 8d 3c b8 1c 50 3d
       -0.028053388 -0.072865695 0.017244637 0.05080864
000390 34 6c 3c bd 63 00 13 be 3d df 23 be cc 66 fa 3d
       -0.046001628 -0.14355616 -0.16003127 0.12226638
0003a0 5e 6d a1 bd c0 73 b1 bd 60 c4 21 3d 2c e6 66 bd
       -0.07882188 -0.08664656 0.03949392 -0.056371853
0003b0 c0 a0 67 bc 1c f2 eb bd 0b 60 04 be 2c 54 8c 3d
       -0.014137447 -0.11520788 -0.12927262 0.06851992
0003c0 c6 ab 93 3d f0 b8 3d bd 6c f6 27 3e 92 ce 02 3e
       0.072104976 -0.04631895 0.16402596 0.12774113
0003d0 40 8d 79 bc 44 2f 40 bd 26 75 a2 bd 80 f1 ff bd
       -0.0152314305 -0.046920076 -0.079325005 -0.12497234
0003e0 c0 13 76 bd 80 8d 1b 3b ee 0d 19 3e a0 69 26 3d
       -0.06007743 0.0023735464 0.1494672 0.040628076
0003f0 2e 19 19 3e a3 b3 1f be 58 d9 86 3c 05 91 d7 bd
       0.14951012 -0.1559587 0.01646106 -0.10525707

p2iLayer.a f4 [352, 1]
000000 c0 2b a3 bb e4 ef cd 3d 7a 43 fc bd c0 18 94 bb
       -0.0049795806 0.10055521 -0.12317558 -0.004519552
000010 ce 00 a2 3d f0 07 86 bc 20 ee ad 3b 80 24 8c bb
       0.0791031 -0.016361207 0.0053079277 -0.004276812
000020 2a fe b8 bd 4c be c8 3d c0 81 21 3c 90 c0 e3 bd
       -0.09032853 0.09801921 0.009857595 -0.11120713
000030 4c 34 b5 3d 30 71 26 3d 26 00 5b bd f8 a1 12 bc
       0.088478655 0.040635288 -0.05346694 -0.008949749
000040 80 bc 7b 3b e0 b7 cc 3d d0 b8 db 3c 80 ca ee 3b
       0.0038411915 0.09996009 0.026821524 0.0072873235
000050 c4 47 f6 3d 2a fc fa bd 96 b6 6a bd f8 58 0b 3d
       0.12025407 -0.12255128 -0.057303034 0.034020394
000060 de 7e 99 bd 18 04 4f 3d c6 7f bc 3d 74 6b 2c bd
       -0.07494901 0.050541013 0.09204058 -0.042094663
000070 60 cb fd bb 58 bf f8 3d 66 2e 06 bd d8 d3 47 bd
       -0.0077451915 0.12145871 -0.032759093 -0.048786014
000080 aa e9 3a bd 72 48 e6 3d 30 42 ee bb 7c 75 56 bd
       -0.045632996 0.112442866 -0.0072710738 -0.052358136
000090 13 c2 ec bd fa f0 2d bd be ad 03 be ec a4 1d 3d
       -0.11560454 -0.04246614 -0.12859246 0.03848736
0000a0 a3 f2 f3 bd c3 25 ef bd 9e 7c c1 bd cd 40 a7 bd
       -0.11911514 -0.11677124 -0.09447597 -0.08166657
0000b0 98 5c f8 3c 98 c6 82 3d fc e9 3f 3d d8 e4 88 3c
       0.03031759 0.06385535 0.046854004 0.016710684
0000c0 fc bf e4 bd 04 2a 83 3d 7c 6f fb 3d 6c ec cc bd
       -0.111694306 0.06404498 0.12277123 -0.100060314
0000d0 6c 15 64 bd 2c 9d 67 3d ee 2a 67 bd d0 b9 90 3c
       -0.055684492 0.056546375 -0.056437425 0.017666727
0000e0 e2 32 d5 3d 60 59 d7 bd ac d7 4d 3d fa 5a b6 3d
       0.10410096 -0.10515094 0.05025451 0.08904071
0000f0 c4 af 5d 3d 74 a3 d0 bc 71 b6 c4 bd f2 a4 9f bd
       0.0541227 -0.025468566 -0.096051104 -0.07795133
000100 00 c8 f5 3a e5 fc cf bd 60 16 15 3d 30 bb f1 3d
       0.0018751621 -0.10155658 0.03639829 0.11803281
000110 ee 64 50 bd 17 98 02 be ae d1 5f bd c8 78 a9 bd
       -0.050877504 -0.1275333 -0.054643326 -0.0827499
000120 46 f4 e3 bd 4c 5a 30 3d 40 eb f0 bc a4 1b 8a 3d
       -0.11130576 0.043054864 -0.029409051 0.06743553
000130 c2 06 bc 3d 22 54 92 3d 34 f4 63 3d 30 45 79 bd
       0.091809765 0.07144953 0.055652812 -0.060856998
000140 24 3a ca 3d e2 c8 02 be dc 88 87 bd 6c 0b e6 bc
       0.09874371 -0.12771943 -0.06617901 -0.028081618
000150 e4 f1 c1 3d 0c 1e 2c bd 0e 49 ec bd e4 74 e3 3d
       0.09469965 -0.042020842 -0.115373716 0.111062795
000160 96 b1 ea 3d 48 05 00 3d e0 cb 80 3d 80 15 71 3b
       0.11459653 0.031255037 0.06288886 0.0036786497
000170 48 ff d4 bc 40 ee 8d 3b fe c0 bd 3d f8 4f ce 3c
       -0.026000634 0.00433138 0.09265326 0.025184616
000180 34 36 9d 3d cd 9e ad bd b8 23 00 bd 0a 68 bf 3d
       0.07676354 -0.084775545 -0.031284064 0.09346016
000190 aa 59 86 3d cd bb 83 bd 50 88 a9 bc e8 96 ae 3d
       0.06560071 -0.064323045 -0.020694882 0.08524877
0001a0 c0 1c af bc 70 5d 87 3d 48 cf fc 3c a4 db eb bd
       -0.021376014 0.06609619 0.030860558 -0.115165025
0001b0 76 b1 9d 3d 80 2e 00 3c 88 8b 7b 3d b8 be 59 3d
       0.076998636 0.007823586 0.061412364 0.0531604
0001c0 00 92 88 bb d8 ce fe bd 70 1a b5 3d d0 59 39 3c
       -0.004167795 -0.12441796 0.08842933 0.011312917
0001d0 04 d8 56 bd 56 5d f3 3d 00 34 97 39 98 1d ef bc
       -0.052452102 0.11883037 0.00028839707 -0.029188916
0001e0 da 7e b1 bd 9e ff dc 3d 40 1a e1 3c d8 bf 24 3d
       -0.08666773 0.107909426 0.027478337 0.04022202
0001f0 c0 07 22 3b e8 84 c5 bc b6 46 e7 3d a6 2a 11 bd
       0.0024723858 -0.024111226 0.11292784 -0.035441063
000200 40 58 49 3b 54 f5 ad bd b8 af 75 3d 10 96 be 3c
       0.0030722767 -0.08494058 0.05998203 0.023264915
000210 5e a4 c1 bd 1e 7f 3b bd 08 77 97 3d fe 14 94 3d
       -0.09455179 -0.045775525 0.0739575 0.072305664
000220 4c e0 06 3d 6f b5 80 bd 57 c8 bf bd 70 4c f7 bb
       0.03292875 -0.06284606 -0.09364384 -0.007546954
000230 88 73 38 bc 39 e7 00 be f0 99 cb 3d 00 1a d2 ba
       -0.011258014 -0.12588204 0.099414706 -0.0016029477
000240 7c 6f 03 3e 6e 5f a5 bd aa d9 d0 bd d8 c2 f9 3c
       0.12835497 -0.080748424 -0.10197766 0.030488417
000250 60 e0 55 bc 9c 19 1e 3d 3a bb eb bd 4e 63 f1 bd
       -0.013053983 0.03859864 -0.1151032 -0.11786519
000260 86 7d 28 bd 98 7c df 3c a0 3e 2e 3c de 27 e4 bd
       -0.041135333 0.02728109 0.010635048 -0.111404166
000270 c4 93 8a 3d de df f4 bd 3b df 85 bd 34 55 99 3d
       0.06766465 -0.11956762 -0.065367185 0.07486954
000280 c0 aa b2 3b e2 93 ad 3d 00 f5 76 bd 08 87 c2 3d
       0.005452484 0.08475472 -0.060292244 0.094984114
000290 ac 3e c2 bc 98 52 41 3d d4 08 34 3d cc c2 0e 3d
       -0.023711525 0.04719791 0.04395373 0.03485374
0002a0 66 2d fd bd 0a aa 01 3e b0 43 44 3c 44 ee 0a 3d
       -0.12362175 0.12662521 0.011979029 0.033918634
0002b0 38 5a 47 3d ac 21 e9 3d 20 2f 28 3d dd 27 a6 bd
       0.048670024 0.113833755 0.041060567 -0.08113072
0002c0 f0 5d c4 bb 84 c9 c6 bd e2 88 20 bd c8 73 d9 3d
       -0.0059926435 -0.09706405 -0.03919304 0.10617787
0002d0 24 02 d0 3d a3 49 d6 bd 40 ba 63 3d 8a e7 b2 3d
       0.10156658 -0.10463264 0.055597544 0.08735569
0002e0 00 bf 1a bc 90 78 10 3d c6 e4 e3 3d 6b 4e d4 bd
       -0.009444952 0.035271227 0.111276194 -0.103665195
0002f0 e6 3d 8d 3d 00 ec 3f 39 f6 9a bb bd 8a 51 99 bd
       0.06896572 0.00018303096 -0.09160416 -0.074862555
000300 9c 2b 1a bd 6c 68 ac 3d 8c 98 32 3d 93 0a a7 bd
       -0.037639245 0.084183544 0.04360251 -0.08156314
000310 34 49 16 3d 7c a7 e5 bd 44 62 e5 3d f3 57 b5 bd
       0.036690906 -0.11213586 0.11200383 -0.088546656
000320 00 9f 0b 3a c6 ad 8d 3d b0 94 b4 3d bc e6 d7 3d
       0.0005326122 0.0691791 0.088174224 0.10542056
000330 22 c6 cf bd 5d c0 bd bd 20 a3 44 3c 00 48 5e 3b
       -0.10145213 -0.09265206 0.012001783 0.0033917427
000340 3e dd 83 bd d0 22 65 3c ec 8e ba bc 38 47 b8 3d
       -0.06438683 0.013985351 -0.022773229 0.08997959
000350 48 a8 7b bd 7e f8 2a bd a6 f2 01 3e d2 f5 c0 bd
       -0.061439782 -0.041740887 0.1269022 -0.094218865
000360 ac bc dc bd d4 2b 28 bd 74 08 eb bd 70 59 6a 3d
       -0.10778174 -0.041057423 -0.11476222 0.0572142
000370 fc db 7a bd 00 24 e4 3d 00 92 ce 3d 10 2f 24 3c
       -0.06124495 0.11139679 0.10086441 0.010020986
000380 00 30 6f bb ee db c3 3d 40 d9 1b 3d 90 28 d0 3c
       -0.0036497116 0.09563433 0.038048983 0.025409967
000390 fc 82 97 3d a8 d6 ba bc 50 50 a4 3d ac 71 f1 3d
       0.0739803 -0.022807434 0.08023131 0.11789259
0003a0 3d 30 e8 bd 01 80 f9 bd 1e e8 9d bd 40 45 5c bb
       -0.11337326 -0.12182618 -0.077102885 -0.0033610612
0003b0 80 57 9a 3b 02 e2 b9 bd cc 1e 9c bd 74 a9 49 3d
       0.004710138 -0.09076311 -0.076230615 0.04923387
0003c0 50 27 c9 bd 7e b9 02 be e0 40 4f 3d aa af ae 3d
       -0.098219514 -0.12766072 0.05059898 0.08529599
0003d0 44 30 ca bc 94 35 e0 bc 84 76 b1 bd f8 b0 ce 3c
       -0.024681218 -0.027369298 -0.08665183 0.02523087
0003e0 e4 a9 93 bd 80 81 78 bb 00 89 63 3a 2c 92 1b bd
       -0.072101384 -0.0037918985 0.00086797774 -0.037981197
0003f0 78 b2 a3 bc 02 82 a8 3d 3f 80 c6 bd f0 6d 33 3c
       -0.019982561 0.08227922 -0.0969243 0.010951504

intersectionLayer.W f4 [48, 46]
000000 d4 46 fd 3d ac 12 1b 3e d0 3e d8 bd 2a 78 1b 3e
       0.12367025 0.15143842 -0.105588555 0.15182558
000010 60 ce 95 bb cc 38 a5 3d 98 84 ca bd 10 39 05 3e
       -0.004571721 0.08067474 -0.098885715 0.13010049
000020 d0 37 4b 3e 0a 74 e4 bd 26 c0 f0 bd 30 bb 13 3e
       0.1984551 -0.11154945 -0.117553994 0.14426875
000030 60 03 35 bd 30 94 1a 3e f0 13 a8 bc c4 31 d5 3d
       -0.04419267 0.15095592 -0.02051732 0.10409883
000040 c0 81 ac bb 9a 94 cd bd 98 aa f1 3d 90 06 7d bc
       -0.005264491 -0.10038109 0.11800116 -0.015443459
000050 8d 64 00 be ea 76 7d 3e 6f 9a 2c be 90 a2 eb 3d
       -0.12538357 0.24752393 -0.16855787 0.11505616
000060 c0 80 6a 3d ac 08 b3 3d b8 f0 36 3d 1c d2 88 3d
       0.05725169 0.087418884 0.04466316 0.066807
000070 f6 16 56 be e0 18 83 bb b4 b6 ef 3d 80 ff eb 3b
       -0.20907196 -0.004000768 0.1170477 0.007202089
000080 f4 28 75 bd 28 ee aa bc 00 d5 de bd d0 32 f2 3c
       -0.05985351 -0.020865515 -0.1088047 0.029565245
000090 db 7f 40 be 40 91 ab 3d 7c 07 32 3e e4 ea 3b be
       -0.18798773 0.083773136 0.17385668 -0.18351322
0000a0 ac f9 c0 3d e0 ae f3 3d 13 2f 68 be 2b 2d 09 be
       0.09422621 0.11898589 -0.22674207 -0.13396136
0000b0 46 27 93 bd 93 55 72 be 3c 03 4e bd d4 bd c8 3d
       -0.07185225 -0.23665456 -0.050296053 0.09801832
0000c0 f3 c4 5b be ac 15 38 be e6 be 11 be d0 c9 90 3d
       -0.21461849 -0.17977017 -0.14232978 0.07069743
0000d0 d6 9a 4b 3e 68 ba 77 3d ac 9f 79 3e a6 01 4f be
       0.19883284 0.060480505 0.24377316 -0.20215473
0000e0 58 ce 2b 3d 92 37 be bd 8c b0 6e bd 68 9a 28 bd
       0.04194483 -0.09287943 -0.058273837 -0.04116288
0000f0 f4 95 6c be c0 0e 99 3b 90 79 72 bd 82 9c 08 3e
       -0.23104078 0.004670948 -0.059197962 0.13340953
000100 c0 7c 5a 3e 0a 47 37 3e e2 17 11 3e 60 b7 90 bc
       0.21336651 0.17898193 0.14169267 -0.017665565
000110 1f c0 3f be 68 d9 8b 3d 82 d1 d8 bd d4 03 18 3e
       -0.18725632 0.06828576 -0.105868354 0.1484521
000120 78 4d 3e be d8 cf c7 3d 40 24 28 3e 11 50 0b be
       -0.1858424 0.0975644 0.16420078 -0.13604762
000130 7c a9 1e be 8e a7 36 be c6 7b 41 be f4 95 ed 3d
       -0.1549434 -0.17837355 -0.18894872 0.11600867
000140 9a ef 41 be 20 c9 83 3d d4 4e 5f be c0 a0 60 3d
       -0.18939057 0.06434846 -0.21807414 0.054840803
000150 9c e8 e9 3d 68 f1 d8 bd c0 48 04 3c 98 15 1d 3e
       0.1142132 -0.105929196 0.008073986 0.15340269
000160 b8 4a db bd b0 f7 65 3d ee 86 c6 bd 50 74 f4 3d
       -0.10707611 0.056144416 -0.096937045 0.11936247
000170 f0 5c 32 3d 48 e2 1b 3e 1a 55 3d 3e c8 ad 1b be
       0.043545663 0.15223038 0.18489495 -0.15203011
000180 5c c6 0a bd e0 0f 21 bc 80 2b 00 bd c8 6e 6e 3d
       -0.033880576 -0.009830445 -0.031291485 0.058211118
000190 68 af 44 bd 40 b1 e8 bb ac 58 46 bd 86 30 66 3e
       -0.048018843 -0.007101208 -0.048424408 0.22479448
0001a0 5d a5 47 be f0 49 97 bc 48 24 4f 3d 28 88 3a 3e
       -0.19496675 -0.018467873 0.05057171 0.18216002
0001b0 b5 b7 67 be da f7 30 be da cd 20 3e 48 64 0f 3d
       -0.22628672 -0.17282048 0.15703526 0.035007745
0001c0 08 1b 45 bd b8 7d 8d bc 3c cf 42 3e 6a fd 4c 3e
       -0.048121482 -0.017271861 0.19024366 0.20018545
0001d0 e0 20 16 3c f4 d8 ec 3d 9c 2c f9 3d 20 d2 75 bd
       0.009163111 0.11564818 0.12166712 -0.060014844
0001e0 8e 85 42 be d8 df 27 3e 7c e6 a4 3d 1e 5a 02 3e
       -0.1899626 0.16393983 0.08051774 0.1272969
0001f0 9a 40 46 3e 30 99 3b 3e b0 36 c3 3c 48 61 dd bc
       0.19360581 0.18320155 0.023829788 -0.027023926
000200 f8 c7 26 3e 17 0e 34 be a0 6f 34 3e b0 73 aa 3d
       0.1628722 -0.175835 0.17620707 0.08322847
000210 82 6d 32 3e e5 b8 4d be e0 66 19 bd 44 3e 97 3d
       0.17424586 -0.20090063 -0.037451625 0.07384923
000220 80 ee ee bb e0 85 f3 3d 00 25 a5 bb 2c 9f 20 3e
       -0.007291615 0.11890769 -0.005039811 0.15685719
000230 64 19 00 bd 21 c1 43 be 98 ea 45 3d 50 ad a7 bc
       -0.031274214 -0.19116642 0.04831943 -0.020468384
000240 30 fa 71 be 54 8c 9e 3d 2c d9 db 3d 04 a0 dd 3d
       -0.23630595 0.07741609 0.107347816 0.10821536
000250 78 ee 15 3d 76 68 7f 3e 76 f1 1d be b8 fc 28 3e
       0.036604375 0.24942192 -0.15424141 0.16502655
000260 9c 7b b8 3d e8 95 a9 3d 60 c0 d4 bc 90 8e 2d bd
       0.090079516 0.082805455 -0.025970638 -0.042372286
000270 9a bf 00 3e 78 98 30 3e 0d 7e 73 be 86 1f 99 bd
       0.1257309 0.17245662 -0.23778553 -0.07476716
000280 de 2d 4b be 72 fe 75 be 64 7f 86 3d 20 32 4f be
       -0.19841716 -0.24022844 0.065672666 -0.20233965
000290 62 a5 0a be cc 7f 76 bd d1 bf 70 be 00 e7 90 ba
       -0.13539651 -0.06018047 -0.23510672 -0.0011055171
0002a0 14 06 eb 3d e0 31 c9 3c 8c 0c 2a be 30 7e 30 be
       0.11475769 0.024559915 -0.16606349 -0.17235637
0002b0 70 87 63 3e 4a 4b 7a 3e 00 07 ac 3a 9c 45 4d 3e
       0.22219634 0.24442783 0.0013124645 0.20046085
0002c0 e4 35 29 3e 87 b6 65 be 00 18 2b 3b 68 16 9c 3d
       0.16524464 -0.2243291 0.0026106834 0.07621461
0002d0 c2 e3 08 be dc d8 5d bd 01 e8 69 be 48 c7 5b 3d
       -0.13368133 -0.05416189 -0.22842409 0.053656846
0002e0 b0 3b da 3c 0e a3 15 be 10 fd d3 3d 30 ec 59 3e
       0.02663979 -0.14612982 0.10351002 0.21281505
0002f0 20 0f 48 3e 68 b7 52 3d 00 d6 6a bb 40 2a 4b be
       0.1953702 0.05144444 -0.003583312 -0.19840336
000300 be 3d 29 3e 22 b0 7c 3e d0 3d 48 bd 0e 3b 20 3e
       0.16527459 0.24676564 -0.048887074 0.15647528
000310 d8 09 60 3e b0 28 7c 3d 1c 11 c5 3d 8a cb 2c 3e
       0.21878755 0.06156224 0.09622404 0.16874519
000320 42 fc 4e be 7c 66 ed 3d 30 8f c4 3d b0 5c 24 be
       -0.20213416 0.11591813 0.09597623 -0.16050982
000330 21 75 4c be a2 f3 8a bd 8c 8d 37 bd 04 b0 b1 3d
       -0.19966556 -0.067847505 -0.044812724 0.086761504
000340 00 c3 01 bc f2 f3 27 3e 57 12 4f be 0c 08 d7 3d
       -0.007920027 0.16401652 -0.2022184 0.10499582
000350 ea c4 06 3e e2 f1 20 be 2a 0b 5d 3e c0 95 ff 3c
       0.13161054 -0.15717271 0.2158629 0.031199336
000360 18 fd bf bc 00 ae 51 3b bc 1f e7 bd e2 90 3a 3e
       -0.023436114 0.0031994581 -0.1128535 0.18219331
000370 26 05 5d 3e 9c 1b c9 3d b6 24 55 be 65 dc 22 be
       0.21583995 0.09819719 -0.20814785 -0.15904386
000380 4c 77 0c bd d0 06 6c bd 4c 7a 61 3e b6 32 0c 3e
       -0.034293458 -0.057623684 0.22019309 0.1369122
000390 38 b9 a9 3d b8 70 7c 3d 5c d7 68 3e d0 11 85 bd
       0.08287281 0.061630934 0.22738403 -0.06497538
0003a0 66 38 9f bd 57 a0 54 be 80 c0 f7 3d 56 f8 d4 bd
       -0.07774429 -0.2076429 0.12097263 -0.10398929
0003b0 e7 5b 49 be 7e 26 42 3e bc d8 58 bd 62 47 c0 bd
       -0.19663964 0.18959996 -0.05294107 -0.09388615
0003c0 18 56 1f be 3a 6a 70 be 50 f1 d1 bd 10 a5 54 3d
       -0.15560186 -0.23478022 -0.10251105 0.05191523
0003d0 08 0d ec 3d c0 55 8f 3b 9a bc 1b be 58 a5 2a 3e
       0.11525923 0.004374236 -0.15208665 0.16664636
0003e0 04 33 13 3e f6 5c 3f 3e 44 8f 92 3d 9c fc b2 bd
       0.1437493 0.18687806 0.07156232 -0.08739588
0003f0 98 a0 81 3d 08 f1 1a 3d 78 aa ad bd 94 f6 24 be
       0.06329459 0.03782752 -0.0847978 -0.16109687
