test/model/actor_4_3_2_2_2_59_best_rou0.pth (torch, 689372 bytes, 17 tensors)

v2lLayer.W f4 [3, 40]
000000 f7 b5 aa 3d 02 ae 88 3e 68 9d a0 3d ec 04 84 3d
       0.08335488 0.26695257 0.07842523 0.06446251
000010 bd 35 d6 bd 4d 60 c2 be a5 4c 4c 3e cf 36 ae be
       -0.104594685 -0.37964097 0.19951113 -0.3402619
000020 be 37 b5 3e bc 79 bd 3e 33 7d ad 3e 98 69 11 be
       0.3539409 0.37006938 0.33884582 -0.14200437
000030 5b 31 a2 be 0e e8 94 3d d9 fd 04 3e 12 c1 8b 3e
       -0.3167828 0.072708234 0.1298746 0.27295738
000040 b2 e6 b1 be f1 1e bc 3c b5 6d a2 be 3d b4 b8 3e
       -0.3474632 0.022963973 -0.31724325 0.3607501
000050 0b 84 b9 3e 2b ae 8a 3e 74 1d 76 be 8d a5 6c 3e
       0.36233553 0.27086005 -0.24034673 0.23110028
000060 27 bd 9c 3e 95 28 b7 be 99 bd d0 3c dd 87 21 bd
       0.30613062 -0.3577315 0.025481032 -0.03943621
000070 44 a5 ac 3d 8a d0 a7 be c2 8f 2a 3e 79 47 40 3e
       0.084299594 -0.3277629 0.16656402 0.18777265
000080 5b 3d c7 be 32 b7 93 be 72 53 8d be 1c a2 8a 3d
       -0.38913998 -0.28850704 -0.27602726 0.06769201
000090 2b ff 8c 3d a6 4a 5e 3d c7 95 02 3e 81 04 1e 3e
       0.06884607 0.05427041 0.12752448 0.15431406
0000a0 52 3a af 3d f6 1f 51 be 1a 1b 1b 3e 14 e5 6a 3c
       0.085560456 -0.20422348 0.15147057 0.014336843
0000b0 c8 c1 c3 3d a8 5c 54 bd ad bc 7b 3e 13 e3 58 be
       0.09558445 -0.051846176 0.24583693 -0.21180372
0000c0 e7 57 e6 bc 74 6a 20 3e 5d be 82 3e 2e 33 cb 3e
       -0.028118087 0.15665609 0.2553586 0.39687485
0000d0 2e 25 a9 be 4f 52 15 be e6 b6 93 3e df 86 a0 3e
       -0.33036178 -0.1458218 0.28850478 0.31352898
0000e0 37 85 cf bd 3f 9a ad 3e e0 8c 3f 3e ab 44 7c 3e
       -0.101328306 0.33906743 0.18706083 0.2463557
0000f0 66 d9 7f 3e ca 53 22 be 34 2c 7c bd b5 93 3d be
       0.24985275 -0.15852275 -0.061565593 -0.18513377
000100 56 73 9b bd 76 48 74 bc f9 97 df 3b 36 cb 23 be
       -0.07590358 -0.014909854 0.0068235365 -0.15995488
000110 a0 8e 81 be c1 2c d7 3d ec cb 8f be 1c 83 a8 3d
       -0.25304127 0.10506583 -0.28085268 0.08228132
000120 90 48 4a 3d 06 5c 94 be 79 42 a2 3e 8f cc 93 be
       0.049385607 -0.28976458 0.3169134 -0.28867003
000130 fd 2c 97 3d a8 5c a3 be 84 87 1e 3e a6 de fa 3d
       0.07381628 -0.3190663 0.15481383 0.12249498
000140 81 ca f0 bd b7 34 6e 3e fa ac 3b be 85 59 16 3e
       -0.117573746 0.23262297 -0.18327704 0.14682586
000150 20 83 74 3e c4 94 25 be 18 ac 8f bd ee 68 86 3e
       0.23878145 -0.16170031 -0.07015246 0.2625193
000160 8b b3 ac be c8 30 b9 3d c9 ee 25 be c3 58 1d 3e
       -0.3373073 0.090425074 -0.1620437 0.15365891
000170 bd 29 8e be 06 1a 9b 3e 26 de 06 bd ff d1 fd bc
       -0.2776622 0.30293292 -0.0329267 -0.030983923
000180 83 a2 a8 be 26 9c a2 3e 5d bf f8 bb f7 81 3b be
       -0.32936487 0.31759757 -0.0075911717 -0.18311296
000190 52 98 f0 3e 39 8e e6 3c a1 04 15 bd d7 70 b8 3b
       0.4699121 0.028143989 -0.036381368 0.005628686
0001a0 41 19 ee 3c ed e1 bf be c2 9b 65 be 69 ab 5e bc
       0.029064776 -0.37477055 -0.22422698 -0.013590672
0001b0 60 2b ab 3d 67 9b 8b be 8c e1 a2 bd 4a 39 a0 be
       0.083578825 -0.27267 -0.07953176 -0.31293708
0001c0 89 7e 8f be 19 44 6f 3e a0 42 d3 3c 31 6f 9a bd
       -0.28026226 0.23365821 0.025788605 -0.07540739
0001d0 6b 80 a4 be d6 76 a6 3e 0b 2b 84 3e cf e6 de bd
       -0.32129225 0.3251254 0.2581409 -0.10883867

v2lLayer.a f4 [80, 1]
000000 de 3d 39 be 1c 19 10 be 21 98 05 be 67 64 4d 3e
       -0.18090007 -0.14072078 -0.13046314 0.20057832
000010 9b 19 4a 3e 5f 5c 2b 3d 4b 4e 82 3d 72 0b 13 be
       0.1973633 0.04183614 0.063625894 -0.14359835
000020 bc 97 f4 3d e9 78 9d 3e fd ed 21 be e9 6c 77 bd
       0.119430035 0.3075631 -0.15813442 -0.0604066
000030 c2 e8 f5 3d c0 94 84 3e b8 ba 8b 3c 1c 6b 99 3e
       0.12007286 0.25894737 0.017056808 0.2996453
000040 43 72 a3 be b2 2d c4 3d fb 88 a8 3e 0d 04 03 be
       -0.31923112 0.09579028 0.32917008 -0.12794514
000050 4f a2 c0 bd 05 07 4b 3d 42 cd 97 3d 3a de 98 be
       -0.09405958 0.04956724 0.07412197 -0.29857045
000060 45 ca 39 be 2e 83 8e 3d e2 b9 14 be 36 f0 9b 3b
       -0.18143566 0.06958614 -0.14524034 0.00475886
000070 9c 83 77 be 80 bb 8b be b4 cb 4a bd 7b e1 56 3d
       -0.24171299 -0.2729149 -0.049510673 0.05246113
000080 07 2a 4c be 48 29 60 be f5 c8 2c bd 82 8b 61 bd
       -0.19937907 -0.21890748 -0.042183835 -0.055064686
000090 7c d8 c9 be 4a ad d7 3d eb e1 88 3e 3d 3c 47 be
       -0.39422977 0.10531099 0.26734862 -0.19456573
0000a0 13 1d 92 be 01 a2 70 bd 30 ca 09 be 76 7e c2 bd
       -0.28537807 -0.05874825 -0.13456035 -0.09496777
0000b0 e2 c6 65 3e b5 d2 71 be 22 1c 39 be a4 84 39 be
       0.22439149 -0.23615535 -0.18077138 -0.18117005
0000c0 d9 70 54 3d f2 8c 6c 3e 00 c2 51 bc 9f d5 c1 bd
       0.051865432 0.23100641 -0.012802601 -0.09464573
0000d0 8a 3b 27 be c3 66 ba bd a5 df eb 3a c1 4e a4 3d
       -0.16331306 -0.091016315 0.0017995728 0.080228336
0000e0 19 8c 56 3d 8e 94 01 be 59 31 8e be be f2 5a bd
       0.0523797 -0.12654325 -0.27772024 -0.053454153
0000f0 a8 a7 c3 bd de d2 60 bd e7 5c b0 3d e1 8d 73 3e
       -0.09553462 -0.0548886 0.0861147 0.23784591
000100 e0 f8 04 be 63 c5 a8 be e1 81 81 be 10 fe dd 3d
       -0.12985563 -0.32963094 -0.25294402 0.10839474
000110 bf cd 3c 3c 68 9c bc bd f0 cd f4 bd d9 e4 4d be
       0.011523663 -0.092095196 -0.11953342 -0.2010683
000120 af 36 f0 bd d3 45 10 3e 62 36 3f be 7b 61 8e 3d
       -0.1172918 0.14089136 -0.18673089 0.06952187
000130 7b 3c 13 3e f8 6e 7a 3e d6 19 74 3d 1f 2a da 3d
       0.1437854 0.24456394 0.05959495 0.10652565

laneLayer.W f4 [12, 12]
000000 5b 4b 5e 3e ef 0b 7b be f3 fa d0 3e 52 8b 74 3e
       0.21708433 -0.24516271 0.4081646 0.23881271
000010 06 53 da be 22 00 ce bc 65 1e 5e bc d3 36 0e bf
       -0.42641467 -0.025146548 -0.013557051 -0.55552405
000020 fe c9 b7 be 89 d2 3e be 31 f6 d8 3e 5e 02 cd be
       -0.35896295 -0.18635 0.4237533 -0.4004087
000030 06 08 85 bd ed 8c df 3d b3 a1 98 3e a1 7b 6f 3e
       -0.06495671 0.10915551 0.29810867 0.23387004
000040 6e 55 2a be 55 f5 a1 bd da 1c 8e be 6c 52 e3 bd
       -0.16634151 -0.079081215 -0.27756387 -0.11099705
000050 0c 57 05 bd 28 c4 61 3c c4 cd de 3e 5d 62 4a be
       -0.032553717 0.013779677 0.43516362 -0.19764085
000060 f8 68 0f 3e 1c 86 ae be 50 5f c3 bd d8 cb 3c 3e
       0.14004886 -0.34086692 -0.09539664 0.18437135
000070 40 01 70 bc c8 a1 33 3e 0c 73 c9 be e4 a4 0c be
       -0.0146487355 0.17542183 -0.39345586 -0.13734776
000080 30 fe c8 3d 78 f2 21 be cc 40 45 be 28 5f f5 be
       0.098141074 -0.1581515 -0.19263 -0.4792416
000090 8c 4a 00 be 34 be 71 be 02 8a 86 be 9c 20 91 be
       -0.12528437 -0.23607713 -0.26277167 -0.2834519
0000a0 72 d1 9c 3e b0 d9 17 3e 50 e1 4b be 50 38 fb be
       0.30628544 0.14829135 -0.19910169 -0.490664
0000b0 be ed d2 3e 58 83 3e 3e 98 3d 5b 3e 1e 77 be 3e
       0.41197008 0.18604791 0.21410215 0.37200254
0000c0 a2 9e a8 be 81 dc b8 bd a4 ec 22 3c 93 f5 9e be
       -0.32933527 -0.09026433 0.009944115 -0.31046733
0000d0 3a 91 eb be 67 5b e9 3e 89 6d c5 be f4 a7 df 3e
       -0.46009237 0.45577547 -0.3856013 0.43682826
0000e0 63 08 5a be 42 9b 07 bc 9c 0f 94 be ae 7c e8 be
       -0.21292262 -0.008276762 -0.2891816 -0.45407623
0000f0 c6 c1 47 3d 33 0d 9e be 49 f1 4a 3c 86 2b 8a 3e
       0.04876878 -0.30869445 0.012386628 0.2698633
000100 19 71 b2 bc 1f 59 d2 3e 4a e9 ca be cc dd c8 3e
       -0.021782445 0.4108362 -0.3963111 0.39231718
000110 8b 99 d8 be c0 f8 e9 3e a2 4c 0b be 6b ce da be
       -0.42304644 0.45697594 -0.13603452 -0.4273561
000120 a7 e8 e0 be d9 fd 2a be 6a 95 8a 3e 05 69 82 3e
       -0.439275 -0.16698398 0.2706712 0.2547075
000130 40 c7 51 3c 78 69 ab 3d 2f 02 f9 be 74 3a f2 be
       0.012803853 0.08369726 -0.48634478 -0.4731022
000140 b6 fb df be 45 2d e4 3e a2 a6 a1 bd 37 b2 88 3e
       -0.43746728 0.44565788 -0.07893111 0.26698467
000150 9b d1 21 bd be 7d ff bd 68 d5 b3 be c6 01 b3 3e
       -0.039506536 -0.12475155 -0.35123754 0.3496229
000160 c7 db 83 be c9 b9 8d bd a2 93 cf bd 5c f4 89 be
       -0.25753614 -0.06920201 -0.101355806 -0.26944244
000170 50 b7 b9 3e aa 16 d5 3e e6 de 0f 3e a2 d2 1c be
       0.3627267 0.41618854 0.14049873 -0.15314725
000180 06 c5 be be 22 a4 b8 be f4 a1 5a 3e 70 86 61 3e
       -0.37259692 -0.36062723 0.21350843 0.2202394
000190 1c a3 79 3e 78 f1 59 be 42 76 e0 be f4 9f 35 3e
       0.24378628 -0.2128352 -0.43840224 0.17736799
0001a0 16 6b bd 3e 60 d4 8c bd ca 3c fd 3e 1c 33 87 3e
       0.36995763 -0.06876445 0.4946044 0.2640618
0001b0 6e 53 9a 3e 45 3d 9a bb dd bd 73 be 4b a7 08 3e
       0.30141777 -0.004707011 -0.23802896 0.13345067
0001c0 1a 5a e1 3e f6 aa f0 be 88 dc 18 3e 3e ec d8 3e
       0.44014055 -0.47005433 0.14927876 0.42367738
0001d0 9c 45 cb 3e 5c 61 d7 be dc d0 69 3e a1 59 c9 3d
       0.39701545 -0.42066467 0.2283358 0.098315485
0001e0 5f 20 65 be 4d f3 c9 3d 59 da a4 be 6f 7e eb 3e
       -0.2237563 0.09860859 -0.32197836 0.459949
0001f0 c1 04 99 3e db 5b eb 3e f6 81 c9 be 7e f3 98 be
       0.2988644 0.45968518 -0.39356965 -0.2987327
000200 71 7c b8 bd b6 c3 bd 3c d2 ba 11 3d 42 8c 96 be
       -0.0900811 0.023164611 0.035578556 -0.29403883
000210 e5 1a 20 3e 43 5c 50 be 85 70 84 be 09 84 ef be
       0.1563526 -0.20347695 -0.25867096 -0.46780422
000220 2b a3 83 3e b0 2c dc 3e 33 58 26 3e 89 4d d5 3d
       0.25710425 0.43002844 0.16244583 0.10415179
000230 dd 08 ad be 84 e9 af be 53 96 c3 bd 81 bb 9f 3e
       -0.33795825 -0.34357846 -0.095501564 0.31197742

l2pLayer.W f4 [12, 88]
000000 37 00 1e 3e d8 a3 70 3e af 97 95 3d 25 cd 17 3e
       0.1542977 0.23500001 0.07304322 0.1482435
000010 f6 0b 69 3e b8 26 85 3d 0c d0 84 bd 88 27 00 be
       0.22758469 0.06501526 -0.06484994 -0.1251508
000020 e5 d7 16 be ba d0 cd 3d 5f 3f 08 be 65 39 65 be
       -0.14730795 0.10049577 -0.13305424 -0.22385176
000030 5a 29 d4 bc 49 e3 d8 3d f9 1a 1c bd f8 07 ad 3e
       -0.025898624 0.10590226 -0.03811166 0.33795142
000040 c9 b6 7a be f8 b3 df 3d 46 b3 0f be 51 52 87 3e
       -0.2448379 0.10922998 -0.14033231 0.2642999
000050 d5 f2 03 3c b1 c0 63 3e 3b 26 34 3e fc 8f 6d 3d
       0.008053501 0.22241475 0.17592709 0.057998642
000060 0d bc c5 3d 4f 49 99 bd dd 1c 45 be 9b b8 af bd
       0.096550085 -0.07484686 -0.19249292 -0.085801326
000070 6a 01 db bd ee a0 91 be c2 2e e1 3d 6a 4b 06 be
       -0.10693629 -0.28443092 0.109952465 -0.13114706
000080 aa 1b 88 be eb cf 2f bc f7 1e 16 3e 6c 6c ed 3d
       -0.26583606 -0.010730724 0.1466025 0.115929455
000090 81 a8 87 bd 88 5f 7d 3e 61 1d 96 3d c7 44 2e 3e
       -0.066239364 0.24743474 0.07329822 0.17018424
0000a0 70 14 00 3e 6a 87 65 3e ac 0c 5e 3e e9 46 22 3d
       0.12507796 0.22414938 0.21684521 0.039618406
0000b0 14 47 ff bd 0c 67 ea bd e7 23 38 be af c8 8e 3e
       -0.12464729 -0.11445436 -0.17982446 0.27887484
0000c0 4b 30 0f 3e 29 62 53 be e3 ad 09 3e ba 53 45 be
       0.13983266 -0.20642914 0.13445239 -0.1927022
0000d0 6a a7 47 3d d9 03 7b 3e 26 3e 37 bd c3 3c c0 3d
       0.048743643 0.24513187 -0.044737004 0.093865894
0000e0 34 4a 79 3d 80 61 60 3e bc 4b 65 be 62 b3 b2 bb
       0.06086178 0.21912193 -0.22392172 -0.005453513
0000f0 18 3d 04 bd 55 65 28 3d 9f aa 8f be 5a 21 79 3d
       -0.032284826 0.041112263 -0.2805986 0.060822822
000100 24 73 40 be ec c3 6f 3e b1 0e f0 bd 85 07 15 3d
       -0.18793923 0.23414582 -0.11721552 0.036384124
000110 65 96 2c 3e 49 71 fc bd 34 0a 0d 3d 59 1a 1e 3e
       0.16854246 -0.12326295 0.03443356 0.15439738
000120 a2 58 1f 3d a2 a1 0b 3e 88 af c9 3d ae 6f 98 bc
       0.038902886 0.13635877 0.09847933 -0.01860794
000130 77 ec fd bd b1 7e 28 be 2e 5e 48 be 49 04 95 bd
       -0.12398618 -0.16454579 -0.19567177 -0.07276208
000140 3b 2d f2 3d 57 1f 5c 3e 50 7a 6a be a0 7a 8c 3e
       0.11825033 0.2149633 -0.22898221 0.27437305
000150 0e 54 20 3e 19 b5 3c 3e 75 2c 47 be 92 86 21 3e
       0.15657064 0.18428458 -0.19450553 0.15773991
000160 46 27 fb 3d a7 2a f3 3b 56 aa d0 3c 71 6f 0d be
       0.1226335 0.007420856 0.025471848 -0.13812043
000170 da 71 29 be e5 3f 10 be 99 cb 79 be 65 b6 91 3d
       -0.16547337 -0.14086874 -0.24394073 0.07114867
000180 28 30 35 bd fa 60 8a 3c 7a 71 59 3d c8 2f a9 bd
       -0.04423538 0.016891945 0.053086735 -0.08261067
000190 4e 8d f0 bd 2e 77 08 3e 1d d3 25 be 2a c4 4d 3e
       -0.11745702 0.13326713 -0.16193815 0.20094362
0001a0 2c 0e 00 3e b5 62 87 bd c0 d8 39 be d0 99 4a be
       0.12505406 -0.06610624 -0.1814909 -0.19785237
0001b0 26 24 00 be 12 78 c3 3d dc 99 77 bd bd 70 d9 bc
       -0.1251379 0.09544386 -0.060449466 -0.026543016
0001c0 39 17 a8 bd d3 df 03 3d e0 c0 39 3e 3f 7c 6a be
       -0.08207554 0.032195877 0.18139982 -0.22898959
0001d0 e3 b3 8f be 05 bd bb 3c 23 86 5f 3e 43 79 f3 bd
       -0.2806693 0.02291728 0.21828513 -0.11888363
0001e0 92 0b e9 3c 0c fc e7 bd 42 9d 3f 3e 95 8d 5a be
       0.0284479 -0.11327371 0.18712333 -0.21343072
0001f0 a0 a4 84 be 68 c7 45 be 2c b5 06 be c7 1c e7 bd
       -0.2590685 -0.19314349 -0.13155049 -0.11284786
000200 af 79 73 3d 8a f3 57 be 6c 1f 0f be ca 6f 3e be
       0.05944222 -0.21088997 -0.1397683 -0.18597332
000210 29 7e c2 3d b9 28 97 3d 26 0d 36 bd 66 f9 53 3d
       0.094967194 0.07380814 -0.044446133 0.051751517
000220 93 49 95 bd f9 e9 56 3e d1 10 f0 bc aa e4 37 be
       -0.07289424 0.20987691 -0.029304894 -0.17958322
000230 cf 5e 44 be 9b 52 8a bd 03 07 4e 3e 15 49 50 be
       -0.19176792 -0.06754037 0.20119862 -0.20340379
000240 f6 2f 0c 3e 1c 5e 13 be c8 5d ed bd 88 2c 4d 3d
       0.1369017 -0.14391369 -0.11590153 0.050091296
000250 f5 96 00 bc f3 89 49 3e 5f 51 47 be 01 cf 21 be
       -0.007848491 0.1968153 -0.19464634 -0.15801622
000260 ac 4d 6a bd 5a af 46 3e da de d3 3c 7a 8c f1 3d
       -0.05720298 0.19402829 0.0258631 0.11794372
000270 33 98 23 3e 3b 67 13 bd 64 eb 32 be 46 b9 b9 3d
       0.15976028 -0.03598712 -0.17472607 0.09068541
000280 05 e8 2f 3e 38 62 77 be 34 34 b6 bd e3 58 48 3e
       0.17178352 -0.24158561 -0.08896676 0.19565158
000290 50 ae dd bc a1 31 f5 bd e9 53 b4 bd bc b2 03 be
       -0.027060658 -0.119723566 -0.08805067 -0.1286115
0002a0 fc d5 90 bd 5e 67 54 bd 00 65 03 be 93 11 25 bd
       -0.07072064 -0.05185639 -0.12831497 -0.040299963
0002b0 4c be ab bd 28 81 e9 bd 59 56 8c 3d df b2 0b 3e
       -0.083859056 -0.11401588 0.06852407 0.13642453
0002c0 e8 a4 97 3c 3a f3 8e 3d 32 c8 b9 bd 0e 01 b9 bd
       0.01851125 0.069799855 -0.09071387 -0.09033404
0002d0 26 59 c9 3d 46 09 18 be 8b 78 78 3e ec 8d 3d be
       0.09831457 -0.14847288 0.24264733 -0.1851117
0002e0 f2 df 60 be 49 49 10 3e 04 95 01 be 2a 1c a5 3d
       -0.21960428 0.14090456 -0.12654501 0.080620125
0002f0 e5 29 2e be b9 28 5d be 18 0b 0c bd 5d bd 13 3e
       -0.17008169 -0.21597566 -0.034190267 0.14427705
000300 ca 74 d6 3d 97 fb 18 be 96 b3 3f be 02 3a a1 bd
       0.104714945 -0.14939724 -0.1872085 -0.07872392
000310 26 14 82 3d e4 99 38 be d4 29 24 be d2 73 68 be
       0.06351499 -0.18027455 -0.16031581 -0.22700432
000320 a8 88 f4 3c 58 d2 d0 3c 78 72 8a bc 00 7e 9b bd
       0.029850319 0.025490925 -0.016900286 -0.07592392
000330 7a 3e a6 bd c0 8f 36 3b 82 b2 09 be 2f a7 66 be
       -0.08117385 0.0027856678 -0.13447002 -0.22524713
000340 92 0e 80 3d d8 37 8b 3c 5b 79 27 3e bc 9e ab bd
       0.06252779 0.016994402 0.16354887 -0.083798856
000350 08 fd e0 3c 22 92 8f bd 90 4b e8 bd ba 96 cc bd
       0.027464405 -0.070102945 -0.113425374 -0.09989686
000360 e8 2d 09 bd 78 32 a5 3c d7 a2 6f be 03 dc 76 3e
       -0.033491045 0.020165667 -0.23401962 0.24107365
000370 70 c5 3f 3c 53 05 4b 3e b2 5c d1 3d 53 40 1d 3e
       0.011704788 0.1982625 0.10222758 0.15356569
000380 d1 90 17 3e 52 aa d6 3d 34 6c 6d bd 91 a0 71 be
       0.14801337 0.10481705 -0.05796452 -0.23596407
000390 e0 7e d2 3b 84 50 76 3d 48 20 88 bc 6c 6a ab bd
       0.006423816 0.06013538 -0.016616955 -0.08369908
0003a0 82 e1 b8 3d 5d 9b 73 be e8 af 84 3c 1e 7a 10 be
       0.09027387 -0.23789735 0.01619716 -0.14109084
0003b0 0e 23 f9 3d d6 50 4e be 49 27 50 3e c4 4e 42 bd
       0.12164889 -0.20148024 0.20327486 -0.047438398
0003c0 e0 bf 68 be 36 af d3 bd f4 df 62 3d 44 94 ed bd
       -0.22729445 -0.10336153 0.05538936 -0.11600545
0003d0 88 a9 3f be ed 71 62 3e 86 f1 83 3d 5d e9 3e 3e
       -0.18717015 0.22113772 0.06442551 0.18643709
0003e0 f6 79 e3 3d 3f d5 09 3e 46 1c 89 3d 3b 0c 3a 3e
       0.111072466 0.13460253 0.06694846 0.18168728
0003f0 93 92 1d 3e cc 45 2a bd 09 2a 34 3e 91 6b 0f 3e
       0.15387945 -0.04157047 0.1759416 0.14005877

l2pLayer.a f4 [176, 1]
000000 f8 1e 06 be 19 76 40 bc 97 37 7f 3d 48 9f 31 be
       -0.13097751 -0.011746907 0.062308874 -0.17345917
000010 88 62 a9 3d c7 a5 cc 3b 32 55 9b 3d 93 bd 80 3a
       0.082707465 0.006245348 0.07584609 0.0009822123
000020 a3 62 d0 bd f2 89 35 3e 81 75 73 bb 01 44 ee 3d
       -0.101750635 0.17728403 -0.0037148895 0.116340645
000030 e1 6a 0a 3e a8 9d bb bc 66 8a b9 bb 45 49 9e bd
       0.13517334 -0.022902325 -0.0056622503 -0.07728819
000040 28 2e fc 3d e2 17 d8 3c 96 93 6f bd 56 0c 9a 3d
       0.12313491 0.026378576 -0.05849036 0.07521884
000050 1d b4 16 be 04 ae 72 bd 4c a4 bc 3d 8f 4b d6 bd
       -0.14717145 -0.059247985 0.09211025 -0.104636304
000060 0a 17 52 be bd c8 e0 3d e8 d4 86 3d 7d f8 fc bc
       -0.20516601 0.10975788 0.065835774 -0.030880207
000070 f7 39 e7 3d be a9 1b 3d 5f 35 5f 3d 20 99 20 3e
       0.11290353 0.038003676 0.054494258 0.15683413
000080 55 77 e8 3b 09 49 99 bc 5b 0d c6 bc d4 52 c0 bd
       0.0070943036 -0.018711584 -0.02417629 -0.09390798
000090 1a 68 fa bc 24 00 8f bd e4 a8 6a 3c 46 39 92 bd
       -0.030567218 -0.06982449 0.014322493 -0.0713983
0000a0 10 46 80 bd e1 e4 1d 3e ac d6 f2 bd 15 80 53 3e
       -0.06263363 0.15419342 -0.11857352 0.20654328
0000b0 71 56 91 bd 2a e5 b9 bd 0b 48 d4 3c 21 31 f5 bc
       -0.070965655 -0.09076913 0.025913259 -0.029930653
0000c0 32 6b 03 be e6 1e fa 3d 73 f1 b9 bd 2d c6 51 3c
       -0.1283386 0.12212925 -0.09079256 0.012803596
0000d0 5f a1 51 ba af 01 ea bd a3 d1 89 bd d4 49 88 3d
       -0.00079967635 -0.11426102 -0.06729438 0.066547066
0000e0 1d 0d 83 3d 4b 9a 00 3e 4f b7 95 bd eb 32 d9 3c
       0.063989855 0.12558858 -0.07310354 0.026513537
0000f0 84 6d 2d 3e 63 0f 94 3d 25 a0 01 be 91 26 8a 3c
       0.16936308 0.07229497 -0.12658747 0.016864093
000100 0a c0 34 3e aa 36 3a be cc d1 d4 3d cc 57 5f bd
       0.17651382 -0.18184915 0.10391578 -0.05452709
000110 38 31 87 3d 83 b1 b7 3d 6e 2c 8e 3d c4 0e 37 3d
       0.066011846 0.089694045 0.06942068 0.044691816
000120 c9 c4 e4 3c 26 6d 59 bd 8a 86 06 bd b7 ed 18 3e
       0.027925866 -0.053082608 -0.03284315 0.14934431
000130 50 ac e9 3d c1 32 28 3e 1a 84 9f 3d 28 ee 15 be
       0.11409819 0.16425611 0.07788868 -0.1464163
000140 e6 b3 0b bb ae 09 16 3d 99 0a 1e 3e 76 73 9a 3d
       -0.0021316945 0.036630325 0.1543373 0.07541554
000150 f3 74 77 3c b2 84 e1 bc f7 79 e3 bd 41 48 39 3d
       0.015103566 -0.027529094 -0.11107247 0.045234922
000160 df 28 f4 bd 4a a2 49 3e 1d 47 11 bd f3 40 e7 bd
       -0.11921858 0.19690815 -0.03546821 -0.11291685
000170 3d 52 b1 3d be d2 45 3e 83 70 24 3e e2 0d 5f 3e
       0.08658264 0.19318673 0.16058545 0.2178264
000180 d4 a6 b5 3d 21 c7 73 bd 39 3d 7b 3d ea a3 81 3e
       0.088697106 -0.059516076 0.061337683 0.2532037
000190 d0 3f 05 3e 8f a6 14 bd 26 28 06 be d7 5c 41 3c
       0.13012624 -0.036291655 -0.13101253 0.01180192
0001a0 7c e6 c0 bd 75 d0 93 bb ac 75 cd 3d 58 3b 1b be
       -0.094189614 -0.004510934 0.1003221 -0.15159357
0001b0 cb 46 07 3e 2f ae 5d be 9f e4 3b bd 98 f2 10 3c
       0.13210599 -0.21648477 -0.045872327 0.008846901
0001c0 c6 97 b4 3c 6e e8 5a 3e e5 62 63 3d 44 f1 5e bd
       0.022045027 0.21377727 0.055514235 -0.054429308
0001d0 90 cf bd 3d b9 46 8d 3d ec 46 10 3c bc d0 e5 3d
       0.09268105 0.06898255 0.008805972 0.112214535
0001e0 b0 12 2b 3e 8d a9 ed 3d ed f6 2c be 61 91 d8 3d
       0.16706347 0.11604605 -0.1689107 0.10574604
0001f0 5d 26 72 3c ce f8 06 3e 0e a2 37 3e c5 ad 15 be
       0.014779654 0.13180849 0.17932913 -0.14617069
000200 08 e7 33 be 6e d6 84 bc 33 5b 82 be be de 2b 3e
       -0.175686 -0.01621553 -0.25460204 0.16784188
000210 80 fb ea bd 96 70 74 bd 6e d7 bc 3d 7a a4 80 bd
       -0.11473751 -0.059677683 0.092207775 -0.062813714
000220 7b 2b ab ba 7f fc 32 3e 3e 50 29 bd e2 ad 16 bd
       -0.0013059223 0.17479132 -0.04133629 -0.03678692
000230 d4 22 15 3e ab 4c 30 be 90 6f 62 be 75 66 fa bd
       0.14564067 -0.17216747 -0.2211287 -0.122265734
000240 75 3d 3b be be 90 1d be 92 25 81 3e 89 0e d6 3d
       -0.18285163 -0.15387246 0.25223976 0.10451991
000250 89 12 05 3d 59 26 f8 bd fd 2b 2d 3e 34 a2 dd 3d
       0.03248838 -0.12116689 0.16911311 0.108219534
000260 f8 a9 b9 bd d0 2b 28 be 25 c9 ca 3d 2f 29 88 bd
       -0.09065622 -0.16422963 0.099016465 -0.0664848
000270 c3 af 8a bd e4 f8 2e 3d 6f ec bc 3d 2a 38 14 be
       -0.06771805 0.04271783 0.09224784 -0.1447455
000280 ee bd 85 be d6 5e f2 bd 25 99 31 3e 29 76 f8 bd
       -0.26121467 -0.11834495 0.17343576 -0.12131912
000290 74 8f 83 3e 5f 9a 98 bd 57 6d 14 bb 64 dc ef 3d
       0.25695384 -0.07451319 -0.002264818 0.11711958
0002a0 46 b8 31 3d 19 44 97 bc 45 10 56 3e 4c a9 ec 3b
       0.043388627 -0.018465089 0.20904644 0.00722233
0002b0 cc b2 38 bd 67 84 12 be ca 3b 07 3e 05 c1 82 be
       -0.04509239 -0.1430832 0.13206401 -0.25537887

phaseLayer.W f4 [24, 26]
000000 08 9c b1 bc 73 fb 6f 3e 91 e4 28 be ac 41 24 3e
       -0.021680847 0.23435764 -0.16493441 0.16040677
000010 f5 91 30 bd 67 76 8d 3b 38 d1 25 bc b9 bb 3e be
       -0.043107945 0.004317093 -0.010120682 -0.18626298
000020 96 23 bc bc 94 98 60 be 02 e6 4b be 7c f0 7f 3e
       -0.022966187 -0.21933204 -0.1991196 0.24994081
000030 63 12 1b be 9a c6 43 bd 1c e8 7c 3e 79 a3 09 be
       -0.15143733 -0.047796823 0.24697918 -0.13441266
000040 8d 83 8f be 9c 61 f0 3d 2a 24 90 3d b2 84 99 be
       -0.28030053 0.117373675 0.07038148 -0.2998405
000050 1f 13 6f 3e 3a 7a b8 3d 80 88 a2 bd 94 54 04 be
       0.23347138 0.09007688 -0.079361916 -0.12922889
000060 0e 2b e0 3d 76 1c ee bd 2e e2 57 3e 9e 31 b4 bd
       0.10945712 -0.11626522 0.21082374 -0.08798526
000070 5d 14 cd 3d 8e c4 a5 be e3 2c 4a 3e a9 ab fd bd
       0.100136496 -0.32376522 0.19743685 -0.12386257
000080 f5 de ad bd e0 0a 41 3e 9c 47 5c 3e 93 c2 9a 3d
       -0.08489791 0.18851805 0.21511692 0.07556643
000090 ce 4f 20 be 6e 65 74 bd c1 5b ce 3d 9d 13 49 be
       -0.15655443 -0.059667043 0.100760944 -0.19636388
0000a0 2a ea 74 3e 12 a8 c2 be 52 04 b6 bd 8c 8a 1b 3e
       0.23917452 -0.38018852 -0.08887543 0.1518957
0000b0 c1 8e 84 bc 4c f4 6a 3d 84 6c f3 3d 6b 2c 19 bd
       -0.016181352 0.057361886 0.11885932 -0.037395876
0000c0 39 5b 6b be 8d 19 f1 3c 56 de 92 3d fa 1c 24 be
       -0.22984017 0.029431129 0.071713135 -0.16026679
0000d0 13 67 12 be be 3b 4a 3d 3c 3d 3e 3e c3 8b 53 3e
       -0.14297132 0.04937338 0.18578047 0.20658784
0000e0 56 cf c0 bd e2 7d 6d be 25 23 80 3e 05 5f 15 3e
       -0.09414546 -0.23192552 0.25026813 0.14587028
0000f0 cc 02 9d 3e d3 f4 55 3e 35 a2 50 3d 91 4a 64 be
       0.30666196 0.20894174 0.050935943 -0.2229407
000100 ee 51 0f be bc b1 89 be 4b 1b 6b 3e 79 37 80 3e
       -0.13996097 -0.26893413 0.2295963 0.25042322
000110 03 bd 02 be d3 b0 b0 be f2 b7 0b 3e 1e 8c 4d 3e
       -0.12767415 -0.34509906 0.13644388 0.20072982
000120 c4 33 6b 3d 8e a0 61 be bc 01 30 bd 5e 52 83 3e
       0.057422414 -0.22033903 -0.042970404 0.2564878
000130 8f 04 2a be 1a 31 b7 3d 7e f7 81 bc f7 51 4c be
       -0.16603301 0.08944912 -0.015865084 -0.19953142
000140 50 a1 37 3e ac e2 23 bc 6f 84 03 3e f1 29 c8 3d
       0.1793263 -0.010002773 0.12843488 0.09773625
000150 e2 3d 5f 3e b1 ff 67 be 33 56 17 be b1 09 25 3e
       0.2180095 -0.22656132 -0.14778976 0.16116978
000160 53 1b d0 3c 06 52 54 3d a1 e4 77 bd ed 6a 81 be
       0.025403654 0.051836036 -0.060520772 -0.2527689
000170 78 5c 0d be b4 0e b7 3e 26 8a 93 be 4b cf 89 3e
       -0.13804805 0.35753405 -0.28816336 0.26915964
000180 36 f8 54 be de 6f 46 be c5 f9 8b 3e 56 13 65 3e
       -0.2079781 -0.19378611 0.27338997 0.22370657
000190 03 6d ad 3d 89 d3 47 3e ee 4d 8a be cf 98 92 be
       0.08468058 0.19514288 -0.2701258 -0.2863221
0001a0 47 ff 87 bd 5b 58 01 be 72 1d 05 3e 8b e2 ae bd
       -0.06640487 -0.12631361 0.12999514 -0.085393034
0001b0 e1 9a 14 3e 64 2c 39 be d1 ee 5b 3d 57 fb 8f 3e
       0.14512207 -0.1808334 0.05369455 0.28121445
0001c0 89 cf d3 bd 12 a6 b1 bd 15 aa aa be 64 1c 3d be
       -0.103423186 -0.086742535 -0.33332887 -0.18467861
0001d0 c9 8f a8 bd a7 d8 10 be 12 ba ac 3e 4a 70 bb be
       -0.0823055 -0.14145146 0.3373571 -0.36609107
0001e0 f1 03 26 be 2e 10 b3 3c e0 be 8e be 81 f6 19 3e
       -0.16212441 0.021858301 -0.2788 0.1503544
0001f0 87 13 ed bd 53 24 7b 3e ad 1f 0a be a2 4a 3b 3e
       -0.1157599 0.24525575 -0.13488646 0.18290189
000200 f0 f6 80 be 78 da 80 3e 27 f6 72 3e 23 5c 4b be
       -0.25188398 0.25166678 0.23726712 -0.19859366
000210 ba 10 13 be 71 78 93 3e 0e f3 19 bd 8c 0c 3d 3e
       -0.1436185 0.28802827 -0.03758531 0.18461818
000220 dc 35 10 be 8c cb 92 3e 7a 20 1e bd 29 ce a3 3d
       -0.14083046 0.2867092 -0.03860519 0.07998306
000230 c0 a7 d1 3d 00 78 e5 3d 3c 1a f3 bc 28 c3 1b be
       0.10237074 0.11204529 -0.029675595 -0.15211165
000240 8d ae c8 bd ea 43 90 3d 57 83 1c bd 1b 6e 49 be
       -0.09798918 0.070442036 -0.038211193 -0.19670908
000250 89 9c 76 3e f2 e9 77 be 61 03 07 be 44 53 0f 3d
       0.24083151 -0.24210337 -0.13184883 0.034991518
000260 6c 62 52 bd e9 47 a0 be 3a 8e 3d 3e 09 8f 28 be
       -0.051363394 -0.31304863 0.18511286 -0.16460814
000270 6d 0a 89 3e af 42 88 3d f0 c3 04 be 43 45 ae bd
       0.26765767 0.06653344 -0.12965369 -0.085093044
000280 41 43 0b be a0 50 a9 be 87 f2 44 bd 92 24 58 3e
       -0.13599874 -0.33069324 -0.048082855 0.211077
000290 06 6c 93 3e e7 b7 8c 3e 1a dc 8a 3d ce b2 bf 3e
       0.28793353 0.27484056 0.06780262 0.37441105
0002a0 3c a8 ea 3d 92 e9 91 be 36 71 12 be 25 f0 8b 3e
       0.114578694 -0.28498513 -0.14300999 0.27331653
0002b0 ab cf a8 3e ec 2d 3c 3e 19 6a f8 3d a7 6a ea be
       0.32970938 0.18376893 0.121296115 -0.45784494
0002c0 33 74 a7 bd 1b a2 21 be 28 0d 68 bd 59 bd 7e be
       -0.0817646 -0.15784495 -0.05665317 -0.24876918
0002d0 13 39 64 be 6e f5 01 be 9a 10 0b 3e e7 a7 94 3e
       -0.22287397 -0.1269128 0.13580552 0.2903435
0002e0 ba c9 7f be 55 db da be 13 58 20 be 05 09 48 3c
       -0.24979296 -0.42745462 -0.15658598 0.012209182
0002f0 ba bd 75 be 0c 96 39 be 68 bf f7 3d c5 c9 a6 be
       -0.23998156 -0.18123645 0.12097055 -0.32575813
000300 17 30 bd 3d 1d 23 5c 3e 5e c6 d4 3d 82 ad 8d 3e
       0.09237688 0.2149777 0.10389398 0.27671438
000310 c3 43 95 3e b5 b6 34 be 15 28 bf 3d 66 72 1e be
       0.2915326 -0.17647822 0.09333817 -0.15473327
000320 8d 01 75 be 2c f5 a9 3d ac d4 8c 3e 94 83 9a 3e
       -0.23926373 0.08298716 0.27506006 0.3017851
000330 7b 57 a5 be b8 df 82 3e c6 76 3b be eb 9f a6 3e
       -0.32293305 0.2556131 -0.18307027 0.32543883
000340 63 16 8f bd 8a 79 c1 3c 1d 16 1a be 8f f7 81 3d
       -0.06986692 0.023617525 -0.15047498 0.06346046
000350 d6 15 4c be 71 51 56 be 06 e2 4c 3e 45 86 88 be
       -0.19930205 -0.20929505 0.20008096 -0.2666494
000360 49 a7 bd bd 5a b0 a5 be 07 e0 88 3e e2 fd a5 be
       -0.09260423 -0.32361108 0.2673342 -0.3242026
000370 49 32 b6 bd a2 8b 8c be a2 5f 89 3b 9c c8 da bc
       -0.0889631 -0.2745028 0.0041923085 -0.026706986
000380 b4 3f 6b 3e fb 2e 23 ba 7e 00 84 3e d5 54 1a 3e
       0.2297352 -0.0006224957 0.25781626 0.15071423
000390 f3 47 8f 3e 04 9a 88 3e 6c dc 31 3e b9 62 9d be
       0.2798458 0.26680005 0.1736924 -0.30739382
0003a0 da 5a 9b 3d 65 c4 80 3e 84 4b 3c be 61 50 05 3e
       0.07585688 0.25149837 -0.18388182 0.13018943
0003b0 70 83 c2 bd 7c 6f 84 3e 22 b5 b9 3e 16 d6 c6 bd
       -0.09497726 0.25866306 0.36271006 -0.097088024
0003c0 d2 99 50 be 38 35 95 3e 35 86 5b be a7 53 ed bd
       -0.20371178 0.29142165 -0.21437915 -0.11588221
0003d0 b7 93 64 3e 2c 1d c1 3d 95 1e 78 be a4 d7 97 be
       0.22321974 0.09429392 -0.24230416 -0.29656708
0003e0 60 d8 b7 bd 4c 88 2f be 82 4a 0f bd 38 49 40 3e
       -0.08976817 -0.17141837 -0.034983166 0.1877793
0003f0 67 1b c7 3d 81 e0 b4 be 70 dc 4e be 8e c9 7b be
       0.097220235 -0.35327533 -0.20201278 -0.24588606

p2iLayer.W f4 [24, 176]
000000 d0 6a d2 3d 79 09 14 be 0b 15 34 3d 10 c3 3d 3e
       0.10274279 -0.14456739 0.04396538 0.18531442
000010 8c ed 8a bc b9 cd 36 3e a8 1b 0a 3e a9 8e 20 3e
       -0.016958974 0.17851914 0.13487113 0.1567942
000020 de 75 03 bd a4 79 7f 3c 80 70 a0 3d 50 3e 07 bd
       -0.03209483 0.015592966 0.07833958 -0.03301841
000030 fb 4d c8 3c 57 f5 c6 3d 31 7d 5c be f3 ac c9 bd
       0.024451246 0.097147636 -0.21532132 -0.098474406
000040 df 1d 6b bd a8 ff e8 bd 6f 52 57 3e 8f 8b 07 3e
       -0.057401534 -0.113768876 0.2102754 0.13236831
000050 97 94 40 bd ad ea f7 ba 55 ad 21 be ca 76 64 3d
       -0.047016706 -0.0018914543 -0.15788777 0.05577735
000060 94 f7 81 bd a0 ae 14 3e b3 28 4f bc 18 b9 92 3c
       -0.0634605 0.14519739 -0.012643981 0.017910525
000070 37 20 ae 3d a5 26 20 be 08 f6 0f bd 3a dd 1a 3e
       0.08502238 -0.15639742 -0.035146743 0.15123454
000080 77 43 96 3d 50 6b 9a 3b f1 89 95 3d 34 55 b5 bd
       0.07337087 0.0047124997 0.07301701 -0.08854142
000090 2d 59 53 3d 6a 96 f3 3d c1 a9 cb bd 06 b4 93 3d
       0.051598717 0.118939236 -0.09944487 0.07212071
0000a0 c1 fc 4c bc 7a d9 9f bd e3 4d 30 be a6 6b a6 bd
       -0.012511433 -0.07805152 -0.17217211 -0.08126001
0000b0 f2 7f 9d bd 01 5a 8c 3d be 6f 0d 3e ad e3 06 be
       -0.07690419 0.068531044 0.13812158 -0.13172789
0000c0 3b bb 75 bd c6 cb 2a 3e 3f 7d 1e bd a7 3f d0 3d
       -0.05999301 0.16679296 -0.038693663 0.10168391
0000d0 db f2 7e bd eb c2 a2 3c 4a 97 2c 3e 24 da f9 3d
       -0.062243324 0.019868335 0.16854587 0.1219981
0000e0 68 80 10 3e 75 88 d4 3d 38 2f d8 bd 1d ea f2 bb
       0.14111483 0.103775896 -0.10555881 -0.0074131624
0000f0 65 41 63 3c 27 ea 9c 3d ca dc 6a bc 5b 99 a4 3d
       0.013870572 0.076618485 -0.014334867 0.08037063
000100 2c b4 86 bd 87 c3 c4 bd 69 f2 90 3d a6 23 89 3d
       -0.06577334 -0.096076064 0.07077486 0.066962525
000110 a3 89 53 3d 17 82 2a bc e0 f6 f1 3b 2e 5e 37 bc
       0.051644932 -0.010406992 0.007384166 -0.011191888
000120 7d da b3 3d ea 6c 0e be ad df 70 bd e2 84 ce bd
       0.08781908 -0.13908735 -0.058807064 -0.10083939
000130 29 fe e7 bd 88 ff 07 3c f4 98 29 be 1d ff 74 bd
       -0.11327774 0.0083006695 -0.16562253 -0.059813607
000140 66 7b 14 3d 29 b9 6d 3d 55 fd 03 be 2e 34 2d 3e
       0.036250494 0.05803791 -0.12889607 0.16914436
000150 1f e4 81 3d dd e1 23 3d 25 6e b4 3d 7c 97 c2 3d
       0.06342339 0.040010322 0.08810071 0.095015496
000160 f3 ec bd bc f7 98 c3 3d af 67 88 3d 9e 6f 48 3d
       -0.023184275 0.0955066 0.06660401 0.04893457
000170 6d 7b 88 3d a9 34 75 bd 7e fb 50 3d a9 cf 56 3e
       0.066641666 -0.059864674 0.05102109 0.20977654
000180 c7 e2 26 3e 79 5d 19 3d bd b2 0b bd d5 a9 25 3d
       0.16297446 0.037442658 -0.034106005 0.040445168
000190 96 f5 cc 3d a2 b3 6a 3d 66 ec 3a be 71 88 55 3d
       0.10007779 0.057300217 -0.18254241 0.052132074
0001a0 37 d8 1f be cb 3e ef bd 98 bf 19 bd e0 05 0e be
       -0.15609823 -0.11681899 -0.037536234 -0.13869429
0001b0 a0 d5 de bd 01 28 d2 3d 5d 3f bc bc 04 12 30 3c
       -0.108805895 0.102615364 -0.022979433 0.010746483
0001c0 77 29 b5 3c 9b f5 0b 3e 12 7e 17 be 03 ef 18 be
       0.022114499 0.1366791 -0.14794186 -0.14934926
0001d0 e5 5d 8c 3c 7e 92 18 3e a6 95 3e bd b5 06 13 3e
       0.017134616 0.14899632 -0.046529435 0.14358027
0001e0 1c db 8b 3d 95 0b 94 bd 1b 5b c4 bd 1d c3 99 3b
       0.06828901 -0.072287716 -0.095876895 0.004692449
0001f0 1d 20 4c bb 0d 77 de bd 4b 88 0e be b3 ed 82 3d
       -0.003114707 -0.10862551 -0.13919179 0.06392994
000200 61 bb 33 bd eb 0b ca 3d 08 be 13 3e 8b 9c e6 3d
       -0.04387987 0.098655544 0.1442796 0.11260327
000210 bd 08 fc bd 10 bd cc 3d 2c 39 1e bd e0 8b 91 3d
       -0.12306354 0.09996998 -0.038628742 0.07106757
000220 62 97 b3 3d fd 5b 2c 3e 58 81 29 3e 92 c9 4d 3e
       0.08769108 0.16831966 0.16553247 0.20096424
000230 6c 47 08 be 01 d8 4d bd 90 32 e2 3d 1c d2 27 bc
       -0.13308495 -0.050254826 0.110448 -0.010242965
000240 a2 a9 f6 bd 38 9c 12 3a 26 af 4a 3d e2 11 91 bd
       -0.12044074 0.00055927364 0.04948344 -0.07083489
000250 2b 00 24 be b8 dc 91 bd 51 d5 aa 3d 2d 3f 1b be
       -0.16015689 -0.07122177 0.08341468 -0.15160818
000260 54 ff e8 bd 48 6e ce bd 57 d6 0e bd 1f e8 5c 3d
       -0.11376825 -0.10079628 -0.03487238 0.053932305
000270 55 89 78 bd 68 22 08 be 95 73 86 3c 5a 84 f8 3b
       -0.060677845 -0.13294375 0.016412536 0.007584137
000280 c1 12 c9 bd 3b e1 1d 3d 95 d8 31 bd 77 c8 e8 bd
       -0.0981803 0.038544875 -0.04341944 -0.11366361
000290 03 0f 2f bc 68 4b c2 3d 2a da e0 bb 46 1b 3d be
       -0.010684731 0.09487039 -0.0068619447 -0.18467435
0002a0 b8 d3 33 bd 0b 90 cd 3a 49 0c 8d 3d 83 88 28 3e
       -0.043903083 0.0015683187 0.06887109 0.16458325
0002b0 b0 fc 85 3b ef a2 72 3d 61 2f c9 3d 9b 53 f0 3d
       0.0040889606 0.059237417 0.0982349 0.117346965
0002c0 02 bb 36 3e 8e c5 9a 3d ef a3 09 3e 9b df 20 bd
       0.17844775 0.07557212 0.13441442 -0.039275747
0002d0 be ae 31 bd 45 38 d7 3d 99 33 21 3e 5e b7 c8 bc
       -0.043379538 0.105087794 0.15742339 -0.024501499
0002e0 6e da 8b 3d cf 88 7e bd 71 2d 31 3d 31 fa 06 be
       0.068287715 -0.06214219 0.043256227 -0.13181378
0002f0 62 dc f4 bc 86 3d f2 3d 1a 56 1d be fc 81 8f 3d
       -0.029890243 0.11828141 -0.15364876 0.070072144
000300 f2 54 19 3e e0 f7 bd bd 09 32 6c bd a4 0d 10 3d
       0.1497381 -0.09275794 -0.057664905 0.03516926
000310 97 48 34 3e d8 9e f0 3d b0 cd 09 be 71 da 2b be
       0.17605816 0.11749047 -0.1345737 -0.16782548
000320 26 f5 be bb 8d 2e 96 bc 0f 8c 14 3e 02 38 23 bd
       -0.005827564 -0.018332744 0.14506553 -0.039848335
000330 cc 1b 0d be 0b cd b0 bc fd ac b1 bd b7 4d e8 bd
       -0.13780135 -0.021582147 -0.08675573 -0.11342948
000340 e9 81 e3 3d c4 4b 9c 3d 1e 78 6d 3d 05 73 b6 bd
       0.11108763 0.07631639 0.05797588 -0.08908657
000350 30 56 f4 bd d7 c8 10 be a9 9d ff 3d b9 b5 73 bb
       -0.119305015 -0.14139114 0.12481243 -0.0037187173
000360 39 b0 42 3d 45 28 dd bd 74 74 0c 3e 3c b1 a6 bd
       0.04753134 -0.107986964 0.13716298 -0.081392735
000370 42 03 67 bc f9 f7 38 bd 95 90 ca 3d 47 95 3d 3d
       -0.014099898 -0.04515836 0.09890858 0.04628494
000380 5b ed d9 bd c4 71 a0 3d 6c be ec bd ec 54 7e bd
       -0.10640975 0.07834199 -0.115597576 -0.062092707
000390 47 4e 0a 3e 0e 2d e5 bd 84 2f 0f bd 04 0a 1b bd
       0.13506423 -0.11190234 -0.034957424 -0.03785135
0003a0 31 9f df 3d 8d ba 20 3e 46 31 d8 3d 34 c5 91 3d
       0.10919035 0.15696163 0.10556273 0.07117692
0003b0 c8 fa 30 be d4 1c 98 bc 98 48 e0 3b 2a 74 92 bd
       -0.17283165 -0.018568434 0.0068445913 -0.07151063
0003c0 ae 5f d1 3c c5 33 0b be ac 51 42 bd ce d1 85 3d
       0.025558319 -0.13593967 -0.04744117 0.06534158
0003d0 a0 1f 99 bd 55 9e 0a bc c8 56 26 bc 5d a5 a5 3d
       -0.07476735 -0.008460601 -0.010152526 0.08088181
0003e0 77 3f e9 3d 2d 60 f1 3d db 79 09 be 4a 2f ef 3b
       0.11389058 0.11785922 -0.1342539 0.0072993385
0003f0 0b 99 7c 3d 84 be e1 bd ff 56 01 3e 3d 78 c8 3d
       0.06166939 -0.11022666 0.12630843 0.09788559

p2iLayer.a f4 [352, 1]
000000 41 4c 21 3e e1 dd a2 3d ce e6 ee bd 9d e6 fc ba
       0.15751745 0.07952476 -0.11665116 -0.0019294802
000010 f7 04 17 be 1f 57 92 3d c3 93 90 3d 2c 31 ab 3d
       -0.14747988 0.07145523 0.07059433 0.08358988
000020 60 24 bb bd b6 b4 31 3d 65 61 4b 3d a1 98 8b bc
       -0.09137797 0.04338523 0.04965343 -0.017040553
000030 4c 8c ad bc 88 2e 86 bd b6 76 9a 3d 65 1f 19 bd
       -0.021185063 -0.06551844 0.075421736 -0.037383456
000040 2e ad 2a bc 89 8e 9b bd 49 96 5d 3c ad 5c fd bd
       -0.010417266 -0.07595546 0.0135246 -0.12371192
000050 21 fa 0d be b3 c9 16 3c 64 43 c0 3d 58 31 03 bd
       -0.13864948 0.009203362 0.09387854 -0.03202948
000060 4f c9 02 be 61 f7 69 3d bb ba a0 bd f3 18 90 bd
       -0.12772106 0.057120685 -0.07848116 -0.07036009
000070 34 9d 5e bc 81 5f 99 3d 93 2c 50 bd b8 2a a6 ba
       -0.013587285 0.07488919 -0.05082376 -0.0012677526
000080 dd 05 c8 3b 87 c3 a4 3d d7 e6 d9 3d b7 99 0b bd
       0.0061042146 0.080451064 0.10639732 -0.03408214
000090 1e 00 8a bd e0 a7 45 3d cf 12 9f 3d 09 f7 dc bc
       -0.067383036 0.0482558 0.07767259 -0.026973264
0000a0 5e 48 14 be a8 17 cc 3d 25 61 aa bd 2e ce 00 be
       -0.14480731 0.099654496 -0.0831931 -0.12578651
0000b0 de 13 ee 3c 3b 65 0b be d6 fc 3d 3d 19 d1 13 bd
       0.029062208 -0.13612835 0.0463837 -0.036088083
0000c0 3e 21 bc bd 8e 0f aa bc d9 c6 13 3e 0e 71 a8 3d
       -0.09186028 -0.02075937 0.14431323 0.082246885
0000d0 8f 52 f2 bb 04 57 9c bc 92 65 5b 3d 19 96 72 bd
       -0.0073950957 -0.019084461 0.053563662 -0.059225176
0000e0 0f 25 ad 3c 04 8d 02 bd b8 c4 4a 3c 7d 79 3b 3c
       0.021135835 -0.031872764 0.012376003 0.011442539
0000f0 b1 96 09 be cf 6b e6 bc 1f 1a f3 3d ee 23 9c 3d
       -0.1343639 -0.028127579 0.118702166 0.076240405
000100 4f fb 40 3c 68 24 c2 bd 94 46 d0 bd 3c 72 b6 bd
       0.011778667 -0.094796 -0.10169712 -0.08908507
000110 a5 83 91 3d d7 e6 b1 bd 48 79 f4 3d a5 31 d9 3c
       0.07105187 -0.08686607 0.11937195 0.02651293
000120 42 e1 ca 3d 41 fa f4 bc 44 cf 8d bc b2 ad be bc
       0.09906246 -0.029904487 -0.017310746 -0.023276184
000130 13 47 94 3d 02 3c 24 bd f1 8a d2 3d f2 7b 08 3c
       0.07240119 -0.04009629 0.10280407 0.008330332
000140 7a c3 a7 3c 07 43 f1 3d 16 76 29 bd 17 8d cf bd
       0.020478953 0.117803626 -0.04137238 -0.101343326
000150 e2 27 8c bd 8c ad 9b bd 7e d6 82 bc 1a f0 0d be
       -0.068435445 -0.07601461 -0.015971418 -0.13861123
000160 76 bd 47 3d 14 ee 6d bc 65 eb b9 bd 84 85 8e bc
       0.04876467 -0.014522094 -0.09078101 -0.01739765
000170 4b da 41 bd d8 90 91 bc 31 2f da 3d 4c 59 94 bb
       -0.04732732 -0.017769262 0.10653532 -0.0045272466
000180 c6 b0 08 3e b4 82 20 3e 31 1e 80 bd 91 0a 9f 3d
       0.13348684 0.1567486 -0.062557586 0.07765687
000190 4c ce 5f bd ae 5a a1 3d 7c 0d e1 3d ec bc de 3d
       -0.0546401 0.07878624 0.109889 0.10875878
0001a0 5a 9d 26 3c d5 8a 11 3d 2e b1 bf bd c1 eb b1 3c
       0.0101693515 0.03553279 -0.09359966 0.021718862
0001b0 00 38 5a be 8d 40 6f 3d 7b fd 40 3d 03 0e 41 bd
       -0.21310425 0.05841117 0.047116738 -0.047132503
0001c0 e9 0d a6 3d 82 5b c4 bd 87 09 a9 3d 91 b4 e9 3b
       0.08108122 -0.09587766 0.0825377 0.007132121
0001d0 e5 e5 22 3d cd 42 2f be 0d fd 1a bc bc e2 a9 bd
       0.039770026 -0.17115326 -0.009459746 -0.08295199
0001e0 5d e9 66 3d 42 2d 4d bd ee 42 25 3d 58 43 05 3e
       0.056374896 -0.05009199 0.040347032 0.13013971
0001f0 17 0d 95 3b d1 9a db 3d 05 98 cb 3d 04 28 22 3e
       0.0045486796 0.10722888 0.09941105 0.15835577
000200 61 01 ef bc 01 37 e9 3d 71 2c 06 be e3 5f da 3d
       -0.029175462 0.11387444 -0.1310289 0.1066282
000210 4d b8 a6 bc 2e 70 77 bd d2 74 96 bd c6 22 37 3d
       -0.020351553 -0.060409717 -0.073465005 0.044710897
000220 c2 ef 0f 3e 7a 97 97 3c 24 44 f9 bd c0 dc 80 3d
       0.14056304 0.018504847 -0.121712 0.06292105
000230 dc 73 2e 3d e4 f4 ad 3d 48 aa ce 3d de b5 4e 3d
       0.04259096 0.08493975 0.10091072 0.05046641
000240 d9 3b 14 3d 2e 98 05 be f7 a5 06 3e 04 a2 8e 3c
       0.036189888 -0.13046333 0.13149248 0.01741124
000250 ef 4f 51 3d 87 8c ce bc 8c e4 c5 bd 73 ff 9d 3d
       0.05110162 -0.025213493 -0.096627325 0.07714739
000260 e1 d1 f3 bd de e5 36 3e 38 75 16 3d c2 21 09 be
       -0.119052656 0.17861125 0.036732882 -0.13391784
000270 1a 15 0a bd f1 be 26 be ac 3f de 3d c6 cf 14 be
       -0.03371153 -0.16283776 0.10851988 -0.14532384
000280 b4 ea aa 3b bd 23 d7 3c 67 dc fe 3d fd 28 d1 bd
       0.005215967 0.026262159 0.12444382 -0.10212896
000290 4a bf ce bb c2 b4 3f bd 91 aa 82 3c 23 db a9 3c
       -0.0063094245 -0.046803243 0.015950473 0.020734375
0002a0 ad 95 b5 3d 6c fc bb bd d8 b7 b5 3d 03 f3 ff bc
       0.08866439 -0.09179005 0.08872956 -0.031243807
0002b0 2a bd 10 3d f6 99 91 bd b3 93 af 3d f9 54 bd 3d
       0.03533665 -0.07109444 0.08573093 0.09244723
0002c0 35 0a 0b bd 8c c7 f6 3c 67 b1 21 be c8 28 0c 3e
       -0.03394528 0.030124448 -0.1579033 0.13687432
0002d0 df a8 b4 bd 51 7d c6 3d 0c f5 f3 3d 65 ee 4c 3d
       -0.08821272 0.09691871 0.11911973 0.05003204
0002e0 79 37 fd 3d fd 2d 8c 3d 5e e4 b2 3d 68 4c 24 3e
       0.12364096 0.06844709 0.08734964 0.16044772
0002f0 a5 2b ec bb 1c b6 cd 3d 44 5b 40 bd 2a db da 3d
       -0.0072073513 0.100445 -0.046962038 0.106863335
000300 4a 5f f6 bd 0d a4 f7 3c c8 79 59 3d a2 b2 dc bd
       -0.12029894 0.030229593 0.053094655 -0.10776259
000310 92 40 79 3d d4 5c 40 3d 42 d2 ea bd 46 bf 98 bb
       0.060852595 0.046963528 -0.11465885 -0.0046614734
000320 21 1f fd 3d 75 02 c3 bd b8 7d 38 bc 14 d4 90 bd
       0.12359453 -0.09521953 -0.011260442 -0.07071701
000330 78 92 e9 bd 02 06 98 3d e3 4e b2 3b 21 09 a5 3d
       -0.1140489 0.07423021 0.005441533 0.08058382
000340 ba c8 9d 3d ee ad 3d bd af 3a 7c 3d ae 13 70 3d
       0.07704301 -0.04630845 0.061579403 0.058612518
000350 7e cf ad bd 88 6f e0 3d 5b 97 dc 3d 18 45 0c bd
       -0.084868416 0.10958773 0.10771056 -0.03424558
000360 46 24 d3 bc df 6b d3 3d fb 17 36 bd e4 14 18 bc
       -0.025774132 0.10323309 -0.044456463 -0.009282324
000370 a7 13 68 3d 94 f9 e3 3d 17 a1 b7 3d 28 30 99 bd
       0.056659367 0.111315876 0.08966272 -0.07479888
000380 a5 34 fb bd 9a ef 73 bc f4 23 92 bd d2 4e c4 bc
       -0.122659005 -0.014888668 -0.07135764 -0.023963366
000390 57 e5 83 bd a7 5d 04 3d d1 e8 d4 3d 0b ec e8 3d
       -0.064402275 0.032315876 0.10395969 0.113731466
0003a0 d0 83 c0 bd 83 b1 d3 bd b3 65 a9 3d 74 f0 dc bd
       -0.09400141 -0.10336592 0.08271351 -0.1078805
0003b0 d0 d4 90 3b b4 a7 f4 bd 57 7a 95 3c 00 ee e6 3d
       0.0044199005 -0.11946049 0.018246813 0.11275864
0003c0 5e 05 c9 3d f9 e5 3d 3d 03 0e 37 bd 93 41 84 3d
       0.09815477 0.046361897 -0.044691097 0.0645782
0003d0 b2 8b 09 be f4 fa 57 3d 57 73 01 3e 72 2f f1 bd
       -0.13432196 0.052729562 0.12641655 -0.117766276
0003e0 53 19 ef 3c 6b 49 94 bd 55 6d 51 3d ae 51 be 3d
       0.02918688 -0.07240566 0.051129658 0.09292923
0003f0 c4 bc 43 3d f1 39 69 bc 0f 8c ed bd a4 44 f8 3d
       0.047787443 -0.014235006 -0.1159898 0.12122467

intersectionLayer.W f4 [48, 46]
000000 80 76 60 3b e4 ea 08 3d a6 a0 c7 bd 9a b4 5d 3e
       0.003425032 0.033427134 -0.09747438 0.21650925
000010 9c 42 e9 3d 00 76 01 3e 0e a8 d3 bd 22 92 85 3c
       0.11389658 0.1264267 -0.10334788 0.016305033
000020 e0 0b 86 3b 99 91 73 3c fc b2 48 be a1 d2 42 be
       0.004090771 0.014866256 -0.19599527 -0.19025661
000030 5c 82 ac ba c2 6e 37 3c 25 57 b6 bd 06 27 23 3c
       -0.0013161409 0.01119584 -0.0890334 0.009958034
000040 59 4e 01 3e 35 a9 e0 bc 97 2c d2 bc 51 33 4d bd
       0.12627544 -0.027424434 -0.025656028 -0.050097767
000050 67 09 98 be d8 93 1c 3e d6 71 2c 3e cd e7 74 3e
       -0.29694673 0.15290773 0.168403 0.2391655
000060 a5 33 7b be 3b 79 2d 3c 0a 4c 2d be 43 4b 40 be
       -0.2453142 0.010587986 -0.16923538 -0.1877871
000070 b0 d2 cd bd a7 f7 5b 3e 4b dd 6e 3c 04 8a bc bd
       -0.10049951 0.2148119 0.014579128 -0.09206012
000080 b9 41 f4 bd ce 5c 83 3e 36 7d f4 3c 1c 0e b5 bc
       -0.11926598 0.25656742 0.029844861 -0.022101454
000090 39 18 16 3e f4 a1 19 3d 79 3a 5d 3d ed 88 09 3d
       0.14657678 0.037507966 0.054010842 0.03357785
0000a0 59 29 38 3e 77 c0 40 be 9f 15 ae bc fc ac b5 bc
       0.17984523 -0.1882342 -0.021250544 -0.022177212
0000b0 81 3b 5e 3e 03 90 20 3e 50 bf 30 3d 34 a5 20 3e
       0.21702386 0.15679936 0.0431512 0.1568802
0000c0 3b ea 20 be d1 51 f7 bd 73 8e 98 be 2e c9 4b 3e
       -0.15714352 -0.12076152 -0.2979618 0.19900963
0000d0 d2 57 23 3d 39 08 59 3e db 08 70 3e 10 eb f1 3d
       0.039878674 0.21194543 0.23440878 0.11812413
0000e0 bb e6 3d 3e 78 71 70 3d 02 c6 82 3e 4d 08 1d 3e
       0.18545048 0.058701962 0.25541693 0.15335198
0000f0 d3 3d e1 3d 31 8c 3e be 36 fa 12 bd 4e c5 2a bd
       0.1099812 -0.18608166 -0.03588315 -0.04169207
000100 5c 3c 3d be bc 47 01 3e 5d 1b 71 bd ec 2f 39 be
       -0.18480057 0.1262502 -0.058863986 -0.18084687
000110 68 a3 9c be 5a 22 61 3e ec 1d 13 be fe 6a 63 3e
       -0.3059342 0.2198576 -0.14366883 0.22208783
000120 b2 6a 34 be f5 ab 34 bd c3 aa 36 be a9 de 58 3d
       -0.17618826 -0.044109304 -0.17838578 0.05294672
000130 ae 90 47 3e 6a 83 7c 3d f6 46 f4 bd 54 95 13 3e
       0.19488785 0.061648764 -0.11927597 0.14412433
000140 76 d9 06 be 24 7f 24 3e a7 15 6f 3d b2 76 8b bd
       -0.13168892 0.16064125 0.05837026 -0.06809749
000150 3a 13 d0 3d df 89 99 3e 50 9e 0a be cb c2 59 3e
       0.10159917 0.29988 -0.13536954 0.21265714
000160 87 ae 60 3e 3f 11 44 3e 1c bd 06 3d 10 51 6c bd
       0.21941577 0.19147204 0.032895193 -0.057694495
000170 fc c7 12 bd 0b 60 66 3e 74 e0 fa 3d 0d 87 63 3e
       -0.03583525 0.22497575 0.12249842 0.22219487
000180 44 bf 68 be 7e 0f 0e be 0c 52 40 bd 35 90 04 be
       -0.22729212 -0.13873097 -0.046953246 -0.12945636
000190 c7 61 87 be 46 44 8b bd 7b 10 57 be 8a b1 4e be
       -0.26441786 -0.068001315 -0.2100238 -0.20184913
0001a0 74 5b 17 3e c1 47 35 3e 51 bb 6f 3e 27 a9 e7 3d
       0.1478098 0.17703153 0.234113 0.1131156
0001b0 e4 32 e5 bd 65 97 f7 bd ae bf 47 be 5d 28 41 3e
       -0.11191347 -0.12089423 -0.19506714 0.18863054
0001c0 1f 59 05 be f5 b4 38 3e aa 52 fc 3d c9 40 b2 3d
       -0.13022278 0.1803778 0.123204544 0.08703763
0001d0 96 6e dd bd 69 cf 82 be a9 51 20 3e 05 07 48 3e
       -0.10812108 -0.25548866 0.15656151 0.19533928
0001e0 5c dd 45 be 07 06 af bd f5 0f 24 be e8 fd d5 bd
       -0.19322723 -0.085460715 -0.16021712 -0.104488194
0001f0 b4 dc 6c 3e ee 3c da 3d e4 90 d9 bd 0e 3f 67 bc
       0.23131067 0.10656153 -0.10623339 -0.0141141545
000200 9b 32 13 be 19 c0 1f be 6f 1b 77 3e 3d c1 cf 3d
       -0.14374773 -0.15600623 0.24131559 0.10144279
000210 58 8e c0 ba 60 fc 75 bd fc f8 d6 bc 14 d2 49 3e
       -0.0014690859 -0.060055137 -0.026241772 0.19709045
000220 1c 95 26 be ad 09 17 3e 16 a0 52 be f4 1a af 3d
       -0.16267818 0.14749785 -0.2056888 0.08550063
000230 27 91 fb bd 9c db 67 be e6 08 8e be 49 45 a7 bd
       -0.12283545 -0.22642368 -0.27741164 -0.08167512
000240 da 1e 2e 3d 61 76 01 3e e7 6f 66 be 1b 5d 7d 3e
       0.04250989 0.12642814 -0.22503625 0.24742548
000250 95 63 11 3c 17 ba 81 bd 4d cc b5 bd 57 6d 74 3e
       0.00887384 -0.06334322 -0.08876858 0.23869835
000260 01 7b c9 bd 99 20 72 3d 96 bd f1 3d 15 c3 b9 bd
       -0.09837914 0.05911312 0.11803739 -0.09070412
000270 59 57 0a 3d c1 0c 3b be ed ae 87 bc 39 68 be 3d
       0.033774707 -0.18266584 -0.016562903 0.09297223
000280 d0 2f c5 3d 00 62 1e be 20 cd 2b 3d 35 74 d5 bd
       0.0962826 -0.15467072 0.04194367 -0.10422555
000290 13 65 7b 3d a4 17 fd 3c 85 8e 40 be 0f 72 c8 3d
       0.06137569 0.030895062 -0.18804367 0.0978738
0002a0 47 f9 13 bd d3 ec 72 be 82 9e 16 be f6 87 04 be
       -0.0361264 -0.23723154 -0.14708903 -0.1294249
0002b0 31 f6 02 3e d6 c7 50 be 77 ed 3b be 9b ec 1f 3e
       0.12789227 -0.20388731 -0.18352304 0.15617602
0002c0 24 b0 2d 3e bb f5 63 3d 14 17 5c 3d bc b3 08 3d
       0.16961724 0.05565427 0.053732947 0.033374533
0002d0 7c 4e 6b 3e e8 c2 e1 3d e8 f9 22 3e e7 d8 f6 3d
       0.22979158 0.110235035 0.15915644 0.120530896
0002e0 53 d5 71 be bd 8f 49 3e 92 29 d0 bc cb 36 3f 3e
       -0.23616533 0.19683738 -0.025410447 0.18673246
0002f0 fc 7f b1 bd a4 4f ba bd 47 3c 3b 3e ba 32 0b 3e
       -0.08666989 -0.090972215 0.18284713 0.1359357
000300 e2 0d 27 be 8b 6f 0f be 94 0c cb bc 72 f9 5b 3d
       -0.1631389 -0.14007394 -0.024786271 0.053704686
000310 62 b3 1d bd 4a 38 03 be 05 e6 12 bd 15 36 0a be
       -0.03850115 -0.12814441 -0.035863895 -0.13497193
000320 a1 82 87 3d 77 2f 1d be c7 8c 8a 3e bd a5 5f 3e
       0.06616712 -0.15350138 0.2706053 0.21840568
000330 68 d4 65 be 71 77 3b 3e 45 80 1f 3d 48 5f 62 3d
       -0.22444308 0.18307282 0.038940687 0.05526665
000340 4c b1 7b be db 70 25 3e be 6e 26 3d 11 56 49 be
       -0.24579352 0.16156332 0.040632956 -0.19661738
000350 6f 2b d4 3d 77 b2 ac bd 31 d9 16 3e 1a 41 14 be
       0.10359847 -0.08432477 0.1473129 -0.1447796
000360 b3 40 3d be 91 f7 03 3e f4 a5 14 be 8a 72 62 3d
       -0.18481712 0.12887408 -0.14516431 0.055285014
000370 95 fa 09 be 2f dc 31 3e 1e 09 72 3e 03 cf ab bd
       -0.13474496 0.1736915 0.2363629 -0.08389094
000380 a1 eb 5e 3e cb 79 44 be 21 36 09 bd bb d8 3e be
       0.21769573 -0.19187085 -0.033498887 -0.18637364
000390 69 8c 31 3e 17 20 d9 bd 00 27 0e 3e 65 67 51 3c
       0.17338718 -0.10601824 0.13882065 0.012780999
0003a0 b0 2d 1c 3e 16 74 4a 3e 20 59 f1 bd 86 e4 dd 3d
       0.15251803 0.19770846 -0.11784577 0.10834603
0003b0 bb 8d 70 be d1 fc 33 3e 9e 7e 42 be 54 16 85 3e
       -0.23491566 0.1757691 -0.18993613 0.25993598
0003c0 d1 67 00 3e 4e 7b 5d be 6d 43 70 be 0a 7a ca bd
       0.12539603 -0.21629068 -0.23463221 -0.09886558
0003d0 11 b4 6e 3e 1e 1e ec bd a3 8e 83 be 02 ec 5c 3e
       0.23310877 -0.11529182 -0.2569476 0.21574405
0003e0 80 35 70 be 7c be 1c 3e 67 b5 33 3e 52 00 3e 3d
       -0.23457909 0.15307039 0.17549668 0.046387024
0003f0 24 ca 34 be ae ce 50 be 88 24 64 be 18 37 c9 bd
       -0.17655236 -0.20391342 -0.2227956 -0.098249614
