test/model/actor_3_3_3_2_94_best_rou4.pth (torch, 689330 bytes, 17 tensors)

v2lLayer.W f4 [3, 40]
00000000: 14e8 7bbe e88c 1fbe 97d6 f1bc 7547 09be
00000010: 84de bc3d d667 7f3e 5f59 323e 6bc3 96be
00000020: 524a 323e 485d 6dbe c1ac ae3e 9091 c93d
00000030: 4b1a 77be 9848 56bd 9585 7cbe 3cd9 423e
00000040: 6ed2 143e 0145 a8bd 8233 9b3d 01e3 4cbc
00000050: 7f92 93be a739 b8be 0944 ebbd 15e2 f03b
00000060: dab8 2d3e 8d9e 25be c788 94be dc1e ab3e
00000070: a3c3 043d 0849 73be 02cc 50bc eac6 873e
00000080: 6d0b 97be 3f5b a2be 7a86 3f3d 813c 843e
00000090: 02e7 40be fa48 b5b9 6ed4 c23e 7135 513e
000000a0: 3040 b43d c30e 593e 1e84 febd b6f6 99be
000000b0: 07cc 95be c239 ac3d 5c49 873e 1612 94be
000000c0: 321d 153b 78c4 a93c aec3 2fbe 29dc 653e
000000d0: 3e41 7d3e 01b1 c1bc 03dd 263c 1140 963d
000000e0: 396e 483d f7eb 7fbe d8cc 09be a80b f13d
000000f0: a0ca 723e 2c9f 3cbe eb4d 64be a2cb 9cbe
00000100: 2631 903e ef93 adbe c8e9 c0be e6fb 0bbe
00000110: 05f7 c4bc 0825 c63d 2b3f 7c3b 9067 bd3d
00000120: 000e 9f3d 4db2 9fbe fee8 fc3b 89c7 323e
00000130: c8a7 f7bd 2c9f 39be e81b 16be 641c 603e
00000140: 9907 9d3b b386 a5bd 542c 9ebe 1fd5 a6be
00000150: 1751 6f3e 927a 8f3e fc8e dd3d 8f48 593e
00000160: 80b3 a9be 1785 ad3e 6029 b73c 0bcc 853b
00000170: 8445 bdbe 748d 2ebe c47e 9d3e 006a af3e
00000180: 78b9 80bc 2344 823d 8a98 18bc fd01 3c3e
00000190: 2f1e 55be 39b7 f3bd b334 be3e c337 53be
000001a0: 2419 ee3d fae8 b03e ef98 96be 58db ca3d
000001b0: 9fb3 36be 96bf 9dbd a31b 9f3e 8ddd 8abd
000001c0: e92d 88be 57bc 033e a098 a93e 3ca4 5f3d
000001d0: 5264 363d 97cd 943e cab8 8b3d f901 19be
-0.2460025 -0.15581095 -0.02952127 -0.13406165 0.09222129 0.24941954 0.17416905 -0.29445967
0.17411163 -0.23180115 0.34116176 0.09842217 -0.24131124 -0.052315325 -0.24660333 0.19028181
0.14533398 -0.082162865 0.07578184 -0.012505294 -0.28822705 -0.35981485 -0.11487586 0.00735117
0.16965047 -0.16173764 -0.29010603 0.3342198 0.032413136 -0.23758328 -0.012743952 0.26518947
-0.29500905 -0.3171024 0.046759106 0.2582741 -0.18838122 -0.00034577382 0.38052696 0.20430543
0.08801305 0.21197037 -0.12427543 -0.30071038 -0.29257223 0.08409454 0.26423156 -0.28920048
0.0022752997 0.020723566 -0.1716449 0.22447266 0.24731919 -0.023643972 0.010184529 0.073364384
0.04893324 -0.24992357 -0.13457048 0.117698014 0.23710108 -0.18420094 -0.22295348 -0.3062411
0.28162497 -0.33901927 -0.3767836 -0.1367031 -0.02404357 0.09675032 0.00384898 0.092482686
0.07766342 -0.3119072 0.0077182045 0.17458929 -0.120925486 -0.18127126 -0.14659083 0.2188583
0.0047921655 -0.080823325 -0.30893195 -0.32584473 0.23370777 0.280232 0.10818288 0.21219085
-0.3314476 0.33890602 0.022358596 0.0040831617 -0.369671 -0.17046148 0.30760777 0.3426056
-0.015713438 0.06360652 -0.009313712 0.18360133 -0.20812295 -0.11900181 0.3714958 -0.2062674
0.11625889 0.34552747 -0.29413554 0.09905118 -0.17841958 -0.07702558 0.31075773 -0.06780539
-0.26597527 0.12864815 0.33124256 0.054599985 0.044529267 0.29063103 0.06822355 -0.14942159

v2lLayer.a f4 [80, 1]
00000000: 0882 92be e3e5 06be f1f3 2fbe ca21 ed3d
00000010: d896 3fbd 1152 d73d 91b1 a13e 9e24 70be
00000020: 321a adbe 75e5 b73e 0f18 543e 6eef 573e
00000030: dac8 febc f308 9ebd 8ec6 ee3d 5600 c93e
00000040: b27f 593e 0e82 b43d e1b9 863d dc1c 7d3e
00000050: 4ff3 4d3d ffd0 3ebe 7b10 003e 32da 9c3d
00000060: 37d2 e83d faa1 b63d 7760 cfbc 31da a13d
00000070: a076 cabc 619d a0be bb3a 24bb d4ab 0bbe
00000080: 2bad 1cbe e06b afbe 8c51 fe3d 3b1f aa3e
00000090: 70c4 08bd 8d1c 843e 3b56 a63e 4483 6f3e
000000a0: 42cf 0ebe d756 193e 7e03 15be 40b7 68bd
000000b0: 60f8 243e 539c 8abe e3b5 593e 42c2 943d
000000c0: e17a 8bbe 271f a83e 9ed5 a43c 5cc4 723d
000000d0: 7482 9dbc 33b1 6e3a 3852 463e 9522 b23d
000000e0: 8cac b6be 7f67 c43e bc9f f0bd 103f 613d
000000f0: db35 60be fb93 d83d 3a5c c2bd d23b 0e3e
00000100: 821a 92be ad65 683e 9ae3 8e3c 3990 a1bb
00000110: b673 a5bd b459 f13c a3f9 3b3b 412b 4bbe
00000120: fc6e f3bd a467 693d ca4a 88be 207b 3cbe
00000130: ac3c 4a3e ab83 723c 8ef3 6b3e ee31 113e
-0.2861483 -0.13173632 -0.171829 0.115787104 -0.046774715 0.105137 0.31580785 -0.23451468
-0.33809048 0.3591725 0.20712303 0.21087429 -0.031101633 -0.07716551 0.11658965 0.3925807
0.21240118 0.088138685 0.06578422 0.2471804 0.050280865 -0.18634413 0.12506287 0.07658805
0.1136822 0.08917613 -0.025314553 0.07902945 -0.024714768 -0.3137007 -0.002505942 -0.13639766
-0.15300433 -0.3426199 0.124178976 0.33226952 -0.033390462 0.25803033 0.32487664 0.23389918
-0.1394625 0.14974533 -0.14552113 -0.056815386 0.16110373 -0.2707239 0.2126079 0.07263614
-0.27242187 0.32836267 0.020121392 0.059269294 -0.019227244 0.0009105384 0.19367301 0.08698002
-0.35678518 0.3836021 -0.11749217 0.05499178 -0.21895544 0.105751 -0.09490247 0.13890007
-0.2853585 0.22695036 0.017442513 -0.0049305228 -0.08078711 0.02946172 0.002868273 -0.19840719
-0.11886403 0.056983605 -0.2661956 -0.18406343 0.19749707 0.0148019 0.23042127 0.14179203

laneLayer.W f4 [12, 12]
00000000: 1ff6 fa3e f792 a9be 91c7 b93c 7063 fabe
00000010: 8281 8fbd 79b1 c73e 2ee2 c1bc 9dbd 3a3e
00000020: f3be 853e db33 143e dcdb 0cbd 8434 b9be
00000030: 46b9 9b3e 7e48 d6be e05c 873e 7702 bf3e
00000040: fe36 afbe 1674 1bbc 2796 56be 3a29 583e
00000050: ec21 1dbd 2a1f cbbe 6c76 d83e f2bc 0ebf
00000060: 3118 c13e acfe ca3b 7a71 27be 14d7 a8be
00000070: d871 d7be 7dea a83e 8869 e43e ca6e 993e
00000080: 7e6a 8d3e 082d fdbd d46f 7b3e 87b5 723e
00000090: 6d6f e5be 2cf5 78be 1191 833e 0e5a 34be
000000a0: a18e 69be 3a6f 30be 090c adbc 2895 ea3e
000000b0: e981 f5be 08b9 123e 19d3 ccbe e2af 0dbe
000000c0: 9867 863d c48d 4ebe c8ba 13be d894 36be
000000d0: 00e0 553e 14f3 5a3e 88c8 00be 9027 5c3d
000000e0: 4ea8 803e 4ad8 94be e24d d03e 003b eabb
000000f0: 997b 4fbe 1ed4 71be 4ec3 573e 9dd2 783b
00000100: 7d93 81be eb84 ab3e ad59 0ebd e192 013f
00000110: 7e40 bfbe 2024 86bc f6e9 ff3e 9c87 c0be
00000120: 32a9 5dbd 4853 b53e 351a 07be 7ead b0bd
00000130: ce68 10be fcd3 9abe c994 e6be 60ba 083e
00000140: 4eac 923e b5ff f83d 4f79 71bd 67df cfbe
00000150: 8f81 8bbe b952 f2be d683 ab3d 34e6 bd3e
00000160: ba33 84be 9222 953e f617 663e 5fee ae3e
00000170: 3d7d 44ba 0bc7 d23d a5fe b03e b81c 93be
00000180: ccd0 7d3e 3ddc 683e c484 b23e d7fa b53d
00000190: e77f bb3d 5c56 c2bd 4673 c43e 9386 b2be
000001a0: 1178 58be 01f8 c7be 2119 eabd 0475 663e
000001b0: 9cce 703e e6db 86be 90c2 28be 2cf0 1cbe
000001c0: f06f bebd 006a 8dbb 38f8 03be d0c6 c4be
000001d0: 1479 c53e 68ed e63d 7c28 ddbe e8c9 393e
000001e0: cc95 063e 5615 dfbe d09c ff3e 90f9 17bd
000001f0: 8ce0 7e3e 9042 17bd 14fc c03e 84ca 56be
00000200: 800d dbbb 9cf1 eebe 1cda 7b3e a459 77be
00000210: 584a d63d f0b7 58be 40a9 05be 7ca1 e73e
00000220: 8437 683e 62fb f03e e068 713d e0f3 a03d
00000230: c4cc 3fbe 8064 b23c 5cce 77be 50a2 b6bd
0.490159 -0.33119938 0.022678168 -0.4890399 -0.070071235 0.39002588 -0.023667421 0.18236394
0.26122245 0.14472906 -0.03438936 -0.3617288 0.3041479 -0.41852182 0.26438046 0.37306568
-0.34221643 -0.009488126 -0.20955716 0.21109477 -0.03836243 -0.39672214 0.4227785 -0.5575706
0.3771377 0.00619491 -0.16351882 -0.32976592 -0.42079043 0.329914 0.44611764 0.29967338
0.2762031 -0.12362105 0.24554378 0.2370206 -0.44811574 -0.24312276 0.25696614 -0.17612478
-0.22808315 -0.1722993 -0.021123903 0.45816922 -0.47950676 0.14328396 -0.40004805 -0.13836625
0.06562728 -0.20171267 -0.1442672 -0.17830217 0.2088623 0.2138179 -0.12576497 0.053748667
0.25128406 -0.29071265 0.4068442 -0.0071481466 -0.20261993 -0.23616073 0.21070597 0.0037967332
-0.25307837 0.33499846 -0.03475349 0.50614744 -0.3735389 -0.016374648 0.49983186 -0.37603462
-0.054116435 0.354151 -0.13193591 -0.08626841 -0.1410248 -0.30239856 -0.4503539 0.13352346
0.28647083 0.12158147 -0.05895358 -0.4060013 -0.27247283 -0.47328737 0.08374755 0.37089694
-0.25820714 0.29127938 0.22470078 0.34166238 -0.00074954686 0.10291871 0.34569278 -0.28732848
0.24786681 0.22740264 0.34866917 0.088857345 0.09155255 -0.09489128 0.38369197 -0.34868297
-0.21139552 -0.390564 -0.11430574 0.22505575 0.23516315 -0.26339644 -0.1648047 -0.15325993
-0.09298694 -0.0043156147 -0.12887657 -0.38432932 0.38568938 0.112757504 -0.4319495 0.18143427
0.1314308 -0.43570966 0.49924326 -0.037103236 0.24890345 -0.036928713 0.3769232 -0.20975691
-0.006684959 -0.46668708 0.24594921 -0.24155289 0.10463399 -0.21163917 -0.13052845 0.4524039
0.22677428 0.4706679 0.058937907 0.078590155 -0.18730456 0.021776438 -0.24199814 -0.089176774

l2pLayer.W f4 [12, 88]
00000000: 5cda 64be 5072 9dbd 9a83 20be 8118 8cbc
00000010: a4fa 81be ee23 073e d631 31bd fa15 87be
00000020: 76e5 4a3e 177f 1cbe d52e 2c3e 6e6c 363e
00000030: 9c64 8bbe 9bb0 03be 6569 35be fac1 903c
00000040: 8e8c 3a3e d296 763e 1a90 593e 13cd 23be
00000050: 0b3f 923e 338a 913d 0021 9bbd b823 4f3e
00000060: d06e 903d 02ba fd3d 0eb6 eb3d ae0b 163d
00000070: d823 d4bd 7b47 3abd 4dfb ab3c 0258 80bd
00000080: 0dd0 c63d a22a 853c 0f8c eabc 51f7 edbd
00000090: 1929 933c a985 5ebe 949f ecbb 8840 9abd
000000a0: 88f8 67be dde6 083c 4763 91bc 2d97 7cbd
000000b0: 32f4 023e a842 78be f527 583e 40bc 823e
000000c0: 07f9 9fbd 33b0 a23d 7286 fdbd a9c6 d93d
000000d0: 5a60 2e3e 05d7 64be 179e d23d fce3 823b
000000e0: 9ee0 e6bd 76ef 5dba 6113 0dbe b596 e33d
000000f0: cb1b 71be 3092 d13d b887 bb3d 886d 4d3e
00000100: 25d4 813c e926 9fbc 85cd ddbd c5ab a8bd
00000110: 3739 7c3e 40d0 043b 8e67 3d3e d3d8 10be
00000120: a12d a7bd 7890 a33d f1ee b6bd f7be ca3d
00000130: b5be 35be 3ffb 153e f485 83be 03e9 75bb
00000140: 112f 203e 40c8 2dbd 8cee 273e 6ffb 123d
00000150: 1ae2 d1bd bade ffbd bf35 513e e3f8 1f3e
00000160: 2091 353e 7686 ebbd d3a5 443e 6a9e e6bc
00000170: a148 693e 01b4 c13d 331b 6c3e ae89 c43d
00000180: 4553 99be be01 953e c202 d73b e04c 253e
00000190: b4d8 93be 3c8b c7bd f31c a2be d5fc 05be
000001a0: 267f d6bc 3dc0 b7bd 8577 08be da20 9d3d
000001b0: 9759 a63e ec0b 54be e6a9 9b3d 750c 9ebd
000001c0: 7d11 c53d ff8c 223e c818 163e f29e d0bd
000001d0: a134 ad3e 3680 01be a891 6ebd 9b4f 0cb8
000001e0: 2b42 4d3e 6c43 193e e48f 00bd d955 f53d
000001f0: 3298 8fbd dd71 983e 37d1 d83d 9818 0abe
00000200: a5eb 493e ef87 2dbe fbcc 9c3e a22a cfbd
00000210: a837 0cbe b189 5c3e 4464 eabd 071b 4abe
00000220: 0c40 3e3d e37d fa3d b14d cd3d dd7b 453e
00000230: 9d5b b83d bde5 8e3d ae00 4dbd 9706 753e
00000240: 08b0 b63d 175c d23c 73a9 adbe 208a 95bc
00000250: 2068 443e c9ad 3abe b9fd 0cbe 61d1 98be
00000260: 59af 943e 0a0b 17bd f9b0 5e3d 1069 8ebd
00000270: 48dc 26be 78ac 01be 63aa c6bc 5234 9cbd
00000280: 0d82 55bc ee2d 3f3e 8ad5 fe3c baa0 06bc
00000290: 22a6 393e 6f29 0f3d 06ea 5cbd 7bf6 18be
000002a0: ee88 633d fcee abbc 8d0b 5cbb 39b5 243e
000002b0: 7517 c1bd 176a d8bd 7334 273a aa98 283d
000002c0: 7a45 893d ef29 3bbe 4354 e3bc 362f 48bd
000002d0: d951 71be e68b debd 7f5a e6bd 6b22 98bd
000002e0: 9c6e 12bd ba51 673d e8b0 21be cb13 24be
000002f0: 179c 80bc 6ee9 9f3d dee5 d03d 69f8 043e
00000300: 8962 6ebd 12b0 4c3e 8721 47be 5eee 883c
00000310: 40da 01be 9296 4fbe fe68 553e cfa9 28bd
00000320: 6fec 063e 31fc 98bd cb0e 6abd e032 40be
00000330: 7265 25be e586 903d 42a0 78bc 54d1 ca3d
00000340: eaaa 313e 364f 41be e071 5bbe 5342 af3d
00000350: afd8 d63b 00d9 103e 549f 97bb e7de e9bd
00000360: c022 4bbd 346e 223e 9f3b 19be d36c f2bc
00000370: 75fe 2bbd f991 1c3e 046f 4cbe 85f0 ef3c
00000380: 554f 28be 8697 4dbe 06d9 3c3d 887c acbd
00000390: cc0b 503e f80b 4d3e bc91 1e3e 55e3 d73d
000003a0: dd4f 4e3e 523c 87bd 9d32 1f3e 1401 a13d
000003b0: 1794 393e 637d 2abe 4f96 8fbd 615f 9f3a
000003c0: c1c4 4b3e 8002 663d ce06 03be 9bc3 2c3e
000003d0: c812 07be c373 26be 120a 903d 0eba 2f3d
000003e0: 7727 963d 9983 cc3d b12a e3bb 8d89 3e3e
000003f0: 4a08 aa3d 513d d13d 268b 4bbe 21fe 3e3e
-0.22348922 -0.07687819 -0.15675202 -0.017101528 -0.25386536 0.131973 -0.043260418 -0.26383954
0.19814095 -0.15282856 0.1681474 0.178148 -0.27225196 -0.12860338 -0.17715986 0.01767062
0.1821768 0.24080971 0.21246377 -0.15996198 0.28563723 0.071064375 -0.075746536 0.2022847
0.07052386 0.12388994 0.115093336 0.036632232 -0.10358399 -0.045478325 0.020993853 -0.06266786
0.09707651 0.01625568 -0.028631238 -0.116194375 0.017963933 -0.21730675 -0.0072211716 -0.075318396
-0.22653401 0.008355823 -0.017747534 -0.06166761 0.12788466 -0.24244177 0.21108992 0.25534248
-0.0781117 0.079437636 -0.12379159 0.106335945 0.17028943 -0.22347648 0.102840595 0.003994463
-0.11273311 -0.00084661634 -0.13776924 0.111127295 -0.23545758 0.10232961 0.09156746 0.20061314
0.015848229 -0.019427733 -0.10830215 -0.082358874 0.246312 0.0020265728 0.18496534 -0.14145212
-0.08163 0.079865396 -0.08932293 0.09899705 -0.1774853 0.14646624 -0.25688136 -0.003752292
0.15642954 -0.0424273 0.16399592 0.035884317 -0.102482036 -0.124936536 0.20430659 0.15622286
0.17731142 -0.11500256 0.19203882 -0.02815171 0.22781612 0.09458161 0.2305725 0.09596573
-0.29946342 0.29102892 0.006561608 0.16142607 -0.2887627 -0.09743354 -0.31662712 -0.13084729
-0.026183676 -0.089722134 -0.13326843 0.076722816 0.32490227 -0.20707673 0.07600765 -0.0771722
0.09622476 0.15874098 0.14657891 -0.101865664 0.33829215 -0.12646565 -0.058244377 -3.345274e-05
0.20044772 0.14967126 -0.031387225 0.11979265 -0.07011451 0.2977437 0.105867796 -0.13485944
0.19718798 -0.16946386 0.30625138 -0.101155534 -0.13693106 0.215369 -0.114449054 -0.19736873
0.0464478 0.12231042 0.10024584 0.19285531 0.09001849 0.06977413 -0.050049476 0.23928295
0.08920294 0.025678677 -0.33918342 -0.01825434 0.19180346 -0.18230356 -0.13768663 -0.29847243
0.2904003 -0.036875762 0.054367993 -0.06953633 -0.16294968 -0.12663448 -0.024251169 -0.07627167
-0.013031495 0.18669865 0.031107683 -0.008217031 0.18129781 0.034951624 -0.05393412 -0.14937775
0.05555051 -0.02098798 -0.003357622 0.16084756 -0.09428302 -0.1056711 0.000637836 0.041161217
0.06702705 -0.18277715 -0.02775014 -0.04887315 -0.23566379 -0.10866527 -0.112477295 -0.0742844
-0.035750017 0.056474425 -0.1579014 -0.16023175 -0.01569943 0.07808195 0.10200094 0.12985386
-0.05819944 0.1998904 -0.19446383 0.016715225 -0.12680912 -0.20272282 0.20840833 -0.041177567
0.1317613 -0.07469977 -0.057143014 -0.18769407 -0.1615198 0.07056979 -0.015174927 0.099032074
0.17350355 -0.18877873 -0.21430159 0.08557572 0.0065565924 0.14145279 -0.0046271477 -0.114194684
-0.049593687 0.15862352 -0.1496415 -0.029592907 -0.041990716 0.15290059 -0.19964224 0.029289493
-0.16436513 -0.20077333 0.046105407 -0.0842219 0.20317 0.20024097 0.15485281 0.10541407
0.20147653 -0.06603302 0.15546651 0.07861534 0.18122898 -0.16649394 -0.07011091 0.0012159162
0.19899274 0.056154728 -0.12795565 0.16871493 -0.13190758 -0.16255097 0.07033171 0.042902045
0.07331746 0.09986038 -0.0069325794 0.18607159 0.08302362 0.10216773 -0.198773 0.1865163

l2pLayer.a f4 [176, 1]
00000000: 4a18 303e 050b 403e 027f 033e 6860 0b3d
00000010: e09b 113e f51f 86ba 9b82 8ebd cca8 423e
00000020: fbe3 2d3c 0886 1dbd 94a6 fbbb dd3a 0c3e
00000030: 7049 113e 6fc9 e5bc c221 7f3d a269 943d
00000040: ccf1 a1bd cac3 3cbe 50f5 143e 1d37 1dbe
00000050: 423e 25be 89cd 833d f30d cabd 15e4 ee3d
00000060: 7dd6 0dbb 1d78 d53d d9a9 10be cdf0 e13d
00000070: 606b 023e ff27 e33c 12ed 383e 3be1 ae3d
00000080: a299 08be 866c ee3d c495 213e 9a96 2ebe
00000090: 0e92 153e c915 18be ffe1 2ebe 8669 bd3d
000000a0: 83d8 a13d 2ac3 00bd 6d24 3a3e 1236 0e3e
000000b0: c720 16be f2d3 1fbe 2294 313e b01e 423d
000000c0: 45ae 98bd 5994 adbd 63bd 6b3d aea9 2c3e
000000d0: 30b6 ffbd 1302 b0bd f775 263e 041a adbd
000000e0: 4912 f4bd 988a ba3c dc8e 2f3e b408 f73d
000000f0: 2fca fb3c c64e 403e 3a73 b2bd c7cf bf3d
00000100: 413e 01be 1fc7 b73d c99d 8fbb 0442 9c3d
00000110: 576b 6bbc 748e d43c a4d8 2bbe 5b64 153d
00000120: ff04 71bd 17e0 9f3b 5acb 5b3d e238 3fbe
00000130: 14e4 003e 95bf 35bd cbfd 0fbe 96a6 1dbc
00000140: a069 bfbd d10b 5dba cce8 fbbd 79d1 0dbe
00000150: 0682 f93d b482 1dbe c448 343d cde2 873d
00000160: 2048 4b3d 7785 8cbd 4aaa 5cbd 22c6 0dbe
00000170: 4ef7 9c3d 1a80 a33c 06d6 aebd 90dc 2b3e
00000180: 1193 af3c f6de 6d3b 448d 4cbd cd53 263e
00000190: aff6 4c39 9bc9 d53b 7b46 c0bd 278c 063d
000001a0: 72b9 ad3d 994b d0bd 6504 35be a403 453e
000001b0: 2a73 2a3e 4fcb 9b3c 4fa3 383e 9ea9 78bd
000001c0: c55a 3e3e d38d 79bd f3f8 413e 9c4e 36be
000001d0: 019d d1bd 988b 8c3c e1ca 0fbe 469e ae3d
000001e0: bcf7 0dbe 820d 37be ff63 c43d e0e5 02be
000001f0: 6d20 15bd 804f b03d 69d1 bf3d 03d4 16be
00000200: 7dcb 793e 5e0f ff3d 8400 063e 92f9 113e
00000210: c474 f7bd 3037 943c 3dd2 e7bd cfbd d0bd
00000220: d445 86bd 22fa 053e 4310 3a3e d7e9 053d
00000230: 8691 e63d 53ec e53c b88a 2dbe 3474 453e
00000240: 0a11 13bc 4451 9b3d cbd4 123d f078 f5bd
00000250: 125d 1b3e 1611 923d 9ade e2bd 54ca 64bd
00000260: b0e4 223e ce0f 2b3e 45a0 4d39 1cf4 bebd
00000270: b270 d0bd 7ef1 30bc f0e9 893d 65d3 833c
00000280: 9a1e c4bd 3057 10be e262 913c 1059 d0ba
00000290: 3342 1dbe e0b1 73bd 489e b53d 37cc bc3d
000002a0: 5cf4 bc3c 4724 a7bd 37d5 ea3c c48d 71bb
000002b0: af1c 1bbe 2f1b 77bd 4025 cdbd 078a 0ebd
0.17196766 0.18754204 0.12841418 0.034027487 0.14219618 -0.0010232913 -0.06958505 0.19009703
0.010613437 -0.0384579 -0.00767977 0.1369433 0.1418817 -0.028050153 0.062288053 0.0724671
-0.07907447 -0.18434063 0.14546704 -0.15353055 -0.1613703 0.06435687 -0.09865942 0.11664597
-0.0021642738 0.104233004 -0.14127292 0.11032257 0.12736273 0.027729033 0.18059185 0.08539053
-0.13339856 0.11641793 0.15779787 -0.17049637 0.14606497 -0.1485206 -0.17078398 0.092486426
0.079026245 -0.031436123 0.18177958 0.13887814 -0.14660941 -0.15608194 0.17341664 0.047392547
-0.07455114 -0.08475561 0.05755366 0.16861603 -0.124859214 -0.085941456 0.16255938 -0.08452228
-0.1191755 0.022771165 0.1714434 0.12062207 0.030736057 0.1878005 -0.08713384 0.09365802
-0.12621404 0.08973526 -0.004382823 0.07629779 -0.0143688535 0.025946833 -0.1678186 0.03647266
-0.058842655 0.0048790085 0.053660728 -0.18674043 0.12587005 -0.04437216 -0.14061658 -0.009622237
-0.09346318 -0.0008432242 -0.12300262 -0.13849439 0.12183003 -0.1538189 0.044014707 0.06635056
0.04962933 -0.06861394 -0.053873338 -0.13845113 0.07664357 0.019958545 -0.085369155 0.16783357
0.021432431 0.0036296225 -0.04993941 0.16242905 0.00019546853 0.0065242774 -0.09388443 0.032848503
0.084826365 -0.10170669 -0.17677458 0.1923967 0.16645494 0.019017844 0.18031047 -0.060708635
0.18589313 -0.06092627 0.18942623 -0.17803425 -0.10235024 0.017156407 -0.14042236 0.08526282
-0.13864034 -0.17876247 0.09589385 -0.12783003 -0.036407877 0.086089134 0.09366114 -0.14729314
0.24394031 0.12454103 0.13086134 0.1425536 -0.12082818 0.018092722 -0.11319397 -0.10192453
-0.065562874 0.130837 0.18170266 0.03269371 0.11258225 0.02806679 -0.16947448 0.19282609
-0.00897623 0.075838596 0.035847466 -0.119859576 0.15172222 0.07132165 -0.11077614 -0.055857018
0.1590755 0.16705248 0.00019610029 -0.09323904 -0.10177745 -0.010799764 0.06734073 0.016092012
-0.09576149 -0.1409576 0.017747346 -0.0015895683 -0.15357284 -0.059495807 0.088680804 0.092186384
0.023065738 -0.08161216 0.028666122 -0.003685818 -0.1514766 -0.06032866 -0.100168705 -0.034799602

phaseLayer.W f4 [24, 26]
00000000: b87b 623e d646 3ebe a615 643e 606f 2b3e
00000010: a7fa d63d d288 a03e b245 82be 2aa2 b83d
00000020: 3af7 7a3e 81f3 c03e 15d2 143c 4b77 d83d
00000030: 890c dd3b fdef 313e c94a 82be a6c1 a83e
00000040: bd13 703e 014a 9a3e ae49 2e3e c920 38be
00000050: d502 533e 4dbe b7be 5584 263e 60d3 95be
00000060: 2e80 9abe ba41 8ebd 56fa 1f3d 82b0 053e
00000070: 6aae b7be dc50 ffbd 1c0b 0d3d 7ab3 b43e
00000080: 7ed6 00be b70e 34be edf8 903e 5945 073e
00000090: 33ae bb3d f791 143e d905 75be 5be3 923d
000000a0: 1b36 9e3e dddb 8dbe 0a02 1f3d ef11 65be
000000b0: ac68 cb3b ca49 9d3e 924c e0bd 35fc f93d
000000c0: 04c2 6f3d 53ee 04be b00e f2bd 219f 583e
000000d0: 75b7 9d3e bf26 80bd c71c 773e 25b3 47be
000000e0: 0310 a53d 23da 9fbe 64ee 9fbe beab 10be
000000f0: 6212 783e f4f6 323e 51ff 6a3e 36da 4d3e
00000100: e3f6 fbbd 8bb5 11bd 80cb 8dbd 90a1 a13e
00000110: 9add 5e3e 8e8a 0ebe e1a2 3bbb 2aa4 7ebe
00000120: 7a74 863d 3cab 9cbe 6420 c53d 8f58 19be
00000130: 5aa4 953d 6ff6 e4bd fefb 8abd 18be 09be
00000140: 7675 90be 7aa9 53be 7ebd cfbc c211 6cbe
00000150: ab37 363e a608 993e e8c8 19be aef4 cebb
00000160: d9cd 8c3e 2079 afbe 87cf 79bc 8fc7 8bbe
00000170: 0354 15be eb34 a0bd 0542 4bbe 9e79 873e
00000180: 83dd 42be fb64 d13e ac47 433e 4e3f 82bd
00000190: 0bf0 b4be 32ac ae3e fa03 1a3d ee2f 0d3e
000001a0: e1a6 133e 14c3 4cbe 2400 74be cf34 a6be
000001b0: afdd 2dbe 1d80 bf3e 5c1c 8ebd 5c10 803e
000001c0: 357e b4be 6e3f 9a3e 3a0c 413e 04a8 1ebe
000001d0: fa6e a8be be09 c2be a248 70be 781b e83b
000001e0: 3071 46bd b781 563e d09c 48be d1f8 87be
000001f0: 562d 173e 894d bd3d 719c f8bd 87f2 1cbe
00000200: 0e34 2cbe 90f5 f33d 5955 edbc fd7d a03e
00000210: 95e1 edbd 70d2 6e3e 96cc 0ebe c03b 75be
00000220: bb2e 953e acde 883e 7777 babe f71a 62be
00000230: 1821 73be a36c b5bd 0f8c 18bd f452 7c3e
00000240: 5116 5a3e 9f5f d73c ff7c bebd f8b5 703e
00000250: a5cc a23e 4a81 393e 811d a2be f4e3 7c3e
00000260: 7d69 4abe 73f5 4d3e 2406 f0bd c4e9 b13c
00000270: f92f 23be 855a 443e 8dae 643e 5c76 cd3d
00000280: 625a aabd 2450 923e ea9e b43c 94a0 65be
00000290: ac39 36be c332 85be 4f0f 743e dd62 22be
000002a0: 867b 5f3e 0fca 413c ac83 c1bd 236a 4abd
000002b0: 9d6b 98be b450 78be 0ef7 25bd 5ce7 8a3e
000002c0: 0700 3cbe 632c 0bbe 155b 383e 4883 3fbe
000002d0: a1f9 c3bd 3cd9 313d 0190 4a3d bc67 a63e
000002e0: c94d cb3c f4ea b33d 0f98 7fbe 324e 273e
000002f0: edcc 523b ce7e 003d 7355 733e d698 853e
00000300: 4cee 963e 1c7c 803e 1a58 a63e 580a e13a
00000310: 1f74 963d 3f9b 303e 3f51 ad3e 490c 88be
00000320: f4e3 bd3d 341e b6be 1534 58bd b3a5 153e
00000330: eb64 54be b58f aa3e 728d 873e 5bf5 813e
00000340: a7d7 193e e15a 71be f8b1 79be bc27 08be
00000350: 1708 a23e 9077 12be a18a 73be dc5e 59bc
00000360: b8ec 053e 7b15 aabe bf76 37be a5fb 2b3e
00000370: 69fb df3b bd86 06bd f886 9bbc a707 45bd
00000380: 32a8 06be 2489 b33e c294 c93c e890 77bd
00000390: 06e6 12bd e252 0dbe ebaf 303e 7724 d73d
000003a0: 754f 40be eacb 103e cfda f2bc 2486 6c3e
000003b0: dac7 863e b073 95bc e747 803e dfb2 5e3d
000003c0: a6c5 d2bc ec38 94bd 023e 6cbe 8fac a63d
000003d0: 98a1 623e ebd6 a43d f63f 873e f45f 733e
000003e0: e67a 04bd 1804 da3d 04c9 1c3c ab14 eebd
000003f0: 991e 49bd e977 9e3e dbea 96be 58bc a23e
0.22117507 -0.1858171 0.22273883 0.16741705 0.10497027 0.31354386 -0.25443798 0.09015305
0.24508372 0.3768578 0.009083291 0.10569628 0.006745879 0.17376705 -0.25447682 0.32960242
0.2344503 0.30134585 0.17020294 -0.17981257 0.20606549 -0.35887375 0.16261418 -0.2926283
-0.30175918 -0.0694613 0.0390571 0.13055614 -0.35875255 -0.124665946 0.034434423 0.3529318
-0.12581822 -0.17583738 0.28314915 0.13210048 0.09164085 0.14508806 -0.23928012 0.07172271
0.30900654 -0.27706805 0.038820304 -0.22370122 0.006207546 0.3072036 -0.10952105 0.12206308
0.058534637 -0.12981538 -0.11819208 0.21154453 0.3080403 -0.0625739 0.24132071 -0.19501932
0.080596946 -0.31221113 -0.31236565 -0.14128014 0.24225762 0.17477018 0.22948958 0.20102772
-0.12302949 -0.035573523 -0.0692358 0.31568575 0.21764222 -0.13920042 -0.002863102 -0.24867311
0.06565185 -0.3059939 0.09625319 -0.14975189 0.07306738 -0.11179816 -0.06786345 -0.13451421
-0.28214616 -0.20670119 -0.025358912 -0.23053649 0.17794673 0.2988941 -0.15018046 -0.006315789
0.275008 -0.342721 -0.015247232 -0.2730069 -0.14582829 -0.07822593 -0.19849403 0.26459974
-0.19029813 0.40897354 0.1907031 -0.06359731 -0.35339388 0.3411575 0.03760145 0.13787815
0.14419128 -0.19996291 -0.23828179 -0.32462165 -0.16979097 0.3740243 -0.06939003 0.2501248
-0.35252538 0.30126518 0.1885232 -0.1549378 -0.32897168 -0.37898058 -0.23465207 0.0070833527
-0.048447788 0.2094792 -0.19591069 -0.2655702 0.14763388 0.09243304 -0.12139214 -0.15326892
-0.16816732 0.11912072 -0.028971361 0.3134612 -0.11615292 0.23322463 -0.13945231 -0.23948574
0.29137215 0.26732385 -0.3641927 -0.22080599 -0.23743093 -0.088586114 -0.037242945 0.24641019
0.21297576 0.026290713 -0.09301185 0.23506916 0.31796756 0.18115726 -0.31663135 0.24696332
-0.19766803 0.20113163 -0.11719921 0.021717913 -0.15936269 0.19175155 0.22332211 0.10032341
-0.083180204 0.28576767 0.022048432 -0.22424537 -0.17795438 -0.2601529 0.23833965 -0.15858026
0.21824464 0.01182796 -0.094489425 -0.049417626 -0.29769602 -0.24249536 -0.040518813 0.27129638
-0.18359385 -0.13591151 0.18003495 -0.18702424 -0.09569097 0.04342006 0.04945374 0.32501018
0.024817364 0.08785048 -0.2496035 0.16338423 0.0032165602 0.03137093 0.23763065 0.26093167
0.2947868 0.25094688 0.3248909 0.001716922 0.07346367 0.17246722 0.33851048 -0.26571873
0.09271994 -0.35569918 -0.052784044 0.1461399 -0.20741622 0.33312765 0.26475102 0.25382504
0.15023671 -0.23569824 -0.24384296 -0.13296407 0.31646797 -0.14303422 -0.23783351 -0.013267245
0.13078582 -0.33219513 -0.17916392 0.16795214 0.0068353903 -0.03284334 -0.018985257 -0.048103
-0.13150099 0.35065567 0.024607066 -0.060440928 -0.0358639 -0.13801149 0.17254607 0.10505002
-0.1878031 0.14140287 -0.029645352 0.23098046 0.2632435 -0.01824364 0.25054857 0.054369804
-0.025729012 -0.072374195 -0.23070529 0.08138382 0.22131956 0.08048805 0.26415986 0.23767072
-0.032343768 0.10645312 0.00956941 -0.11625036 -0.049101446 0.3095086 -0.29476056 0.3178432

p2iLayer.W f4 [24, 176]
00000000: ff0f 9dbd 1a26 2e3e 820b bf3d f798 f53d
00000010: d9d6 3fbc f499 183e 7ffd 1b3e ee30 c7bd
00000020: d23a 333e 8af0 2cbe 8255 be3d 30ba 253e
00000030: d507 333e a564 08bd f3a8 febd 8398 42bc
00000040: 138b c6bd b7c1 87bc 26aa ba3d e02a 4dbc
00000050: 0f65 4a3d e801 023e 3817 06be c5ab 27be
00000060: 37b2 d43d 681d b73d a4ff 07bd 2866 fa3c
00000070: 7ed2 abbd 772d 0b3e 8deb 403e daa8 f53d
00000080: 5f65 183d 3ec4 e43d af66 c63d b7ab 873c
00000090: 4075 983d dd4e c63d 102a 82bd a441 1cbe
000000a0: 4c7f fdbd cfde 913c 5346 813d dd1d f03d
000000b0: bfbc 99ba ee82 283d 7cb4 8f3c 585e c6bd
000000c0: 3be3 83bd 0a71 c4bd bbd7 373d 8792 f73c
000000d0: e078 7e3d 1402 c83c abc8 b83c a992 dd3d
000000e0: d8dc de3d 96e1 123e 8451 e33d dd32 7b3d
000000f0: 17b6 05be 2625 073e 489d 7ebb 9810 cb3c
00000100: 8002 febd cd05 2d3d 6152 d8bd 7f75 823d
00000110: cc54 2abe e4c9 82bd 656d 963d baa2 ee3d
00000120: 5a82 52be d816 aebd 630a 9bbd 0d4f 183e
00000130: 1b34 aabd 436c 163e 15fd b43c b327 fabd
00000140: 9c52 703d 2bcc 09be ab6b 9dbd 986a 76bd
00000150: c63b bd3a 6e2a b9bd fc33 fcbd 25b4 c43c
00000160: c32d bdbd 1890 c9bd 6bee 273e f6d5 a5bd
00000170: 6d32 9a3d 0bc4 aebd eea3 0e3e f245 9cbd
00000180: 891e 7a3d 8f7a 083e 4c8f 95bc dd91 11be
00000190: caf6 373d 1c32 a3bc 7368 063e 2701 263d
000001a0: 1150 783c b6c5 2e3d 140e ebbd 83c4 c43d
000001b0: 19b7 fcbd 9961 033e 2976 7fbd eecd dcbc
000001c0: 954c 34be 39a7 b339 14df 933d 6a02 003e
000001d0: 63ee d4bd 3298 30bc c363 d7bc 2cb4 113e
000001e0: 403b ed3c 2e46 323e 23e1 3e3d b587 c0bd
000001f0: eae7 df3d f15e d13c f959 2cbd 619f 023d
00000200: e374 d9bd 2307 cebb 86de 74bd 69b0 ec3d
00000210: 3693 20be 21b3 353e cac7 9f3d dc72 5e3d
00000220: 7fc8 1abd ca97 383d 0833 17bd 192e 2ebe
00000230: daee ccbc 62e3 893d f887 87bd ae66 f5bd
00000240: cf85 3dbd c9e5 b4bd 254b 713d fd99 f93d
00000250: 735f c4bd eb63 ab3c 1d8b 3fbe 58d2 ce3b
00000260: 407c fbbd 0904 a53c c33c 1f3e 4f42 b6bc
00000270: 20b4 56bd ef48 413e 3791 4b3c 0ed0 903d
00000280: 65ed d1bb d9da 9b3d e118 0a3d 7479 cd3d
00000290: b4b7 fd3c 5b88 193e 93d0 c63d 7d51 5bbd
000002a0: 769b d33d 9e72 7abd ffe6 d73d 22d6 0fbc
000002b0: 3a6b c4bd c3d7 b83d 5636 06bd 34ee acbd
000002c0: dc5b 6b3d 4b9f c0bd f7bb 6fbd cab2 d1bd
000002d0: da89 f43d 347d 1cbe ef74 af3c 100b fa3d
000002e0: 9c19 9f3c d95d 0f3d d52e d73d d185 283e
000002f0: b44e 1f3e aa03 343e 1a76 783c 576c f7bd
00000300: c5a7 203e 95a9 0e3e 768b 5bbe 1a3f 1dbe
00000310: de7e 243e 7b06 dfbd 3b2c 013d b8e4 1d3e
00000320: 4217 c2bd ab52 87bd c93c bc3c 841e 733c
00000330: 27b8 a23d 1431 84bd 9b34 223e e41a a93d
00000340: 34dc 86bd 6ee4 adbd af7d ca3d bc9d a23d
00000350: 7c92 aa3d 546b 09be eb72 8d3d cc55 a93c
00000360: ad5c 27be 0a89 b63d f7d5 283e 250b dabd
00000370: 5465 c73d bbb1 47b7 3fdf 10be c85c 903b
00000380: bb2d a53d 009b 9b3d 09df a1bd 418d 23be
00000390: fa69 57bc 9f14 3bbd 1a05 eb3d dee5 c03d
000003a0: 0097 1b3e 727e d63d 546f 38be 4c13 36be
000003b0: 63fa 9bbd 55ce 053e 63c4 a1bd a2ee 833c
000003c0: 77a2 dc3d e133 523d 70f7 523e fbf7 dfbd
000003d0: 65f0 123d 8b30 0a3d 09f6 29bd dd16 e1bc
000003e0: 5c46 0cbe faff 11bd 8b17 843d eb4f 193e
000003f0: 0988 f83d e543 07be ae9b 9cbc 17b1 41be
-0.07669067 0.17006722 0.09328367 0.11992066 -0.0117089385 0.14902478 0.1523342 -0.097261295
0.17502907 -0.16888633 0.09293653 0.16184306 0.17483456 -0.033299107 -0.12434568 -0.011877182
-0.09694495 -0.016571863 0.091144845 -0.012522429 0.049412783 0.1269604 -0.13094795 -0.16374119
0.10385554 0.08941156 -0.033202782 0.03056629 -0.083897576 0.13591562 0.18839855 0.119950965
0.03720605 0.11170243 0.09687554 0.016561372 0.07444239 0.09683011 -0.06355679 -0.15259415
-0.123777956 0.017806439 0.063122414 0.11724446 -0.0011729224 0.04114049 0.017542116 -0.096859634
-0.06439825 -0.09591873 0.04488347 0.030221237 0.062126994 0.024415053 0.022556623 0.10818989
0.10881966 0.14343867 0.11099532 0.061327804 -0.13057743 0.13197765 -0.003885107 0.024788186
-0.124028206 0.04224186 -0.105625875 0.06370067 -0.1663391 -0.06386164 0.07345084 0.116521314
-0.20557538 -0.08500451 -0.075703405 0.14873905 -0.083107196 0.14689736 0.022093335 -0.12214603
0.058672532 -0.1345679 -0.07686552 -0.06016025 0.001443737 -0.09041296 -0.12314603 0.02401168
-0.09237244 -0.09841937 0.16399543 -0.080974504 0.07529149 -0.08533486 0.13929722 -0.076305285
0.061064277 0.13328002 -0.018256806 -0.14215799 0.04491309 -0.019921355 0.13125782 0.040528443
0.015155808 0.04266902 -0.114772946 0.09607794 -0.123396106 0.128302 -0.062368546 -0.026953664
-0.17607339 0.0003426613 0.07220283 0.12500921 -0.10397031 -0.010778474 -0.026292687 0.14228886
0.028958917 0.17409584 0.046601426 -0.09400884 0.10932906 0.025557967 -0.042077992 0.031890277
-0.106179975 -0.006287472 -0.059782527 0.11557085 -0.15681157 0.17744114 0.078017786 0.054308757
-0.037788864 0.045066632 -0.0369139 -0.17009772 -0.025016237 0.06732823 -0.06617731 -0.11982475
-0.046270188 -0.088328905 0.058909554 0.12187574 -0.09588518 0.020921668 -0.18705411 0.006311696
-0.12279558 0.020143526 0.15550523 -0.022248415 -0.052417874 0.18875478 0.012424759 0.07070933
-0.0064064735 0.07610101 0.033715133 0.10032931 0.030971386 0.14993422 0.09707751 -0.05354451
0.10332386 -0.061144464 0.10542106 -0.008779081 -0.09590764 0.09025528 -0.032766663 -0.08443871
0.05746065 -0.09405383 -0.058528867 -0.102391794 0.119403556 -0.15282136 0.021418063 0.12209141
0.019421391 0.03500161 0.105069794 0.16457297 0.15557367 0.17579523 0.015164876 -0.12081211
0.15688999 0.13931878 -0.21439919 -0.15356103 0.16064021 -0.10889908 0.031536322 0.1541928
-0.09477092 -0.066075645 0.022978203 0.014838818 0.079452805 -0.064546734 0.1584038 0.08257082
-0.06584969 -0.08490835 0.098872535 0.07940242 0.08328721 -0.13419849 0.069066845 0.020670794
-0.16343947 0.08912857 0.16487871 -0.10646657 0.09736124 -1.1902705e-05 -0.14147662 0.0044055916
0.08065363 0.07597923 -0.07903869 -0.15971853 -0.013147825 -0.045673963 0.114755824 0.09418844
0.1519432 0.10473336 -0.18011218 -0.17780799 -0.07616117 0.1306699 -0.07898786 0.016105
0.10773175 0.051319007 0.20602202 -0.109359704 0.03587379 0.0337377 -0.041494403 -0.027476722
-0.13698715 -0.03564451 0.06449803 0.14971893 0.12135322 -0.13209493 -0.019117203 -0.1891521

p2iLayer.a f4 [352, 1]
00000000: 5ff2 eebd cd65 44bd 3b48 d43d a4e7 92bc
00000010: a32d 40bd d78a 36bc 73eb c2bd 3de2 da3d
00000020: 760c f2bd 1618 8ebd 4257 4d3d e799 5fbd
00000030: 84c9 2c3d e27d 05be a535 703d 2394 be3c
00000040: 1ce3 f2bd 4f6d c6bd 7827 353d 6260 a53b
00000050: 1c17 73bd 9ee3 973d 8af0 f23d b3fe e43d
00000060: 43b1 013e 0424 06bc 9cf5 823d ebf8 b9bd
00000070: 8a15 293c 4e0c 9cbb 9dd7 d2bc f8e9 7c3d
00000080: 4d2d 053e 17ad 063d 7a89 cb3d 5af8 c6bd
00000090: 5874 023d 5bdc 8c3d 4f13 ae3d ad3f b03d
000000a0: 3b72 d9bd aaf6 0cbd a787 b83b c5ba 573d
000000b0: 4c91 d33d 01dc c23d 8ae5 4ebd e218 f13d
000000c0: 11a1 dabb f5a4 d53b a73b 903d 6f96 a53d
000000d0: 4e08 bebd 1737 a5bd 01ca c13d c8be 31bd
000000e0: 34e8 e83d b24b b6bd c756 00bd 4a52 8abd
000000f0: 3180 a2bd e41e f63d def2 41bd 2de6 4fbb
00000100: 78f1 a0bd 93f3 3fbc feab bc3d dc96 283b
00000110: b9cb 8b3c 41fc ae3d 15da fb3d 9277 b1bd
00000120: 8a0d 4f3c ca2b 0ebe 04b0 b33c 4aa6 d0bd
00000130: b3bf 9c3b 37cd 863d 94fd b4bd 3a9d c33d
00000140: 7516 aa3d c86a ce3c aeae f33b 8202 dd3d
00000150: 0afc b03d 5b65 cabd 43ee 0dbe c2c3 fa3d
00000160: a499 f33d b487 16bc 8ece 07bd 6790 a6bd
00000170: 1ff7 40bd 92ea c33d 2451 38bd 3ec3 abbd
00000180: 3230 15be d7ed dcba 577b 5b3d 2b65 ff3b
00000190: 60d9 48bb 88e2 efbd 529c de3d 817b 573d
000001a0: b0ec 01bd 48d4 58bd 5d67 c1bc e860 573d
000001b0: 843f d4bd c230 583d 0ba8 043e 3005 573d
000001c0: 4d87 e03d f72a 9cbc e223 c5bd 9b47 1fbd
000001d0: 6f88 f2bd 73ff 493d bfe2 7f3d d01b 063e
000001e0: fefd fd3d 0038 cf3d b1b1 8d3b affd 453d
000001f0: 5013 f33c cf8c 84bc e81f bbbd 045e c23d
00000200: ce26 643d 4f51 98bd 82b4 fcbd d775 b73d
00000210: 671c c2bb 2432 b3bd a4f4 8bbd 1841 d0bd
00000220: 7130 aebb 1f64 50bd 48a9 58bd 027e e73c
00000230: a5df d7bd 7ba2 03be bb6f e43d cbe4 e5bd
00000240: 3547 8d3d d314 763c d1e0 243b 18ac 6d3c
00000250: a6d8 0bbe 5ecd 253d 3322 863d dad3 943c
00000260: 693a 0c3d fcde efbd 582c 03be 4d29 a5bd
00000270: 294a f73d 849d d5bc c307 fabd 9d7d b8bd
00000280: 1f49 95bd 5114 c63d d5a4 c43d 6340 a1bd
00000290: 2478 56bc e93f 873d 5e22 58bd 7b25 7dbd
000002a0: ed58 493d c165 a3bc a681 b8bd 6f84 cd3d
000002b0: 72b9 8e3d 3b88 f3bd 7d21 f5bd 5ed4 40bd
000002c0: c243 85bd cd70 9f3d b41f c3bd ade1 983d
000002d0: 33be 0e3e 120b a53d aeea 7d3b e541 db3d
000002e0: f284 10bd b19d abbd a949 0dbd c087 bf3d
000002f0: 4cd7 c0bd 333d 08be ffd1 9fbd f6aa f73c
00000300: 637a 973d 9360 7fbd 7ab4 0d3e dffc b43d
00000310: e83d bf3d 75f5 28bd 56d5 1cbd f88c ce3d
00000320: 03ce df3d 23c7 adbd 6dcc a9bd 9419 9fbd
00000330: a597 b13d 0f3f 6fbd 9179 dbbb eaea 3abd
00000340: 36ea 8f3c e9bb 65bc 856e 813d aec6 113e
00000350: aa34 b73d 89ba 6c3d 8690 06bd a6d0 9e3d
00000360: 0086 003e c279 20be a6d6 efbd 8145 fdbd
00000370: fdbb debd b548 08bd e9dc adbd 7aeb 2bba
00000380: 9647 c0bd a011 c23d e28b 9dbd aed7 ab3d
00000390: a2d7 40bd 04b2 e4bd 3682 60bc 64c4 87bd
000003a0: 08d2 583c 0bdf 8f3d 2630 b03d b1a1 ad3d
000003b0: 37a7 6cbd 27af ecbd 39ad a53d 98a1 92bd
000003c0: b158 f2bc 8d22 9abb fc1b 623d abcd 18bd
000003d0: 77a6 bebd 3a17 9cbd e2d2 64bd e2a9 c3bb
000003e0: 4d42 283e 934f 7d3d 299d d43d bfe0 653d
000003f0: ef13 82bd 21fa 743d d16a c33d 39a4 33bd
-0.11667322 -0.047948647 0.10365339 -0.01793272 -0.046918523 -0.0111415 -0.095175646 0.10687683
-0.11818783 -0.06938188 0.050132044 -0.054590132 0.042184368 -0.13036302 0.05864491 0.023263996
-0.11859724 -0.09688818 0.044227093 0.00504689 -0.05934821 0.074164614 0.118622854 0.111813925
0.12665276 -0.008187298 0.063945025 -0.090806805 0.010320077 -0.004762209 -0.025737578 0.061746567
0.13005562 0.032879915 0.09938331 -0.09715338 0.031849235 0.06877967 0.084997766 0.08605895
-0.10617491 -0.034414925 0.0056314054 0.05266835 0.103304476 0.09514619 -0.050511874 0.11772324
-0.0066720326 0.0065199086 0.07042628 0.080853336 -0.09278928 -0.08067148 0.09462357 -0.043394834
0.11372414 -0.089011565 -0.031332757 -0.06753977 -0.07934607 0.12017611 -0.047350757 -0.0031722889
-0.078585565 -0.011715787 0.092124924 0.0025724685 0.017064916 0.08544207 0.12297455 -0.08665384
0.012637505 -0.13883892 0.021934517 -0.10187967 0.0047835945 0.065821104 -0.08837429 0.09551473
0.083050646 0.025197402 0.007436595 0.10791494 0.08641823 -0.09882613 -0.13860421 0.12244369
0.11894539 -0.009187628 -0.03315597 -0.08133011 -0.047110673 0.09566225 -0.044999257 -0.08386849
-0.14569166 -0.001685555 0.053584423 0.0077940426 -0.0030647144 -0.11713129 0.108696595 0.052608017
-0.031719863 -0.052936822 -0.023608858 0.05258265 -0.10363677 0.052780874 0.12954728 0.05249518
0.109633066 -0.019063456 -0.09625985 -0.038886648 -0.11842429 0.04931588 0.0624721 0.13096547
0.12401961 0.10118103 0.004324161 0.048337635 0.029672295 -0.016180424 -0.09136945 0.09490588
0.05570107 -0.074373834 -0.12339117 0.08958023 -0.005923796 -0.08749798 -0.06833771 -0.10168666
-0.0053158333 -0.050876733 -0.052895814 0.028258327 -0.10540704 -0.1285495 0.111541234 -0.112252794
0.06898347 0.015019613 0.0025158415 0.014506362 -0.13656864 0.040479057 0.06549492 0.018167425
0.03423539 -0.11712453 -0.12809885 -0.08064518 0.12074692 -0.026076086 -0.12208512 -0.09008334
-0.07289337 0.09671844 0.09601752 -0.07873609 -0.013090167 0.06603987 -0.05276715 -0.061803322
0.04915707 -0.019945981 -0.090091035 0.10035025 0.06968965 -0.11891218 -0.11969278 -0.04707753
-0.065070644 0.07785187 -0.09527531 0.07464919 0.13939743 0.08058752 0.0038744616 0.10705928
-0.035283037 -0.083796866 -0.034494076 0.09352064 -0.094160646 -0.13304596 -0.078037255 0.030232888
0.0739639 -0.06234796 0.13838378 0.08837294 0.093379796 -0.04124971 -0.03828939 0.100854814
0.109279655 -0.08485248 -0.08290944 -0.077685505 0.08671502 -0.058409747 -0.0066978415 -0.045634188
0.017567735 -0.014021852 0.06319908 0.14235947 0.08945592 0.05779508 -0.032852672 0.0775464
0.12551117 -0.15671447 -0.11710863 -0.123667724 -0.108757 -0.033272464 -0.08489401 -0.0006558221
-0.09388654 0.09476018 -0.07692696 0.08390747 -0.047080643 -0.11166766 -0.01370292 -0.066292554
0.013233669 0.07024964 0.086029336 0.08478106 -0.057776656 -0.11556845 0.0808968 -0.07159728
-0.029583307 -0.004703826 0.05520247 -0.037305515 -0.093090944 -0.076216176 -0.055865176 -0.0059711793
0.16431542 0.061843466 0.103815384 0.056122538 -0.06351458 0.059808854 0.09541858 -0.043857787

intersectionLayer.W f4 [48, 46]
00000000: 4a6c 363e 60dc 4f3e face 3abc ccb9 0a3e
00000010: d270 03bd ddaa 813c 1d35 ccbd 5f1e 1f3d
00000020: ca0c 15be b0ea 17bd 7a33 18be b17d ba3d
00000030: d33b 073e f289 be3c 75b5 943d 1a21 2dbe
00000040: 5c74 273c f275 a8bc 80e7 2cbe 8580 4a3d
00000050: 1b88 06bd 1757 35bd c8e3 2a3e 9a5a 3abe
00000060: 9833 6dbe 5593 3ebe e25e 8d3d a442 6ebe
00000070: 2fdb 433d ddb4 3b3e 15f8 c5bd f76e f7bd
00000080: 4938 65be e13f 203e 95e7 e03c b3ba 9abb
00000090: 679e 59bd afff 0abe 0e7f 44be e4dc 8bbd
000000a0: 7763 633e fd95 64be 68ca 0fbe 2313 6c3e
000000b0: 962a 4a3c a6b4 013d ff71 f73d 9cf5 553e
000000c0: 5fae 75bd 349e 6ebe 6053 ad3d 715c 34be
000000d0: 2ff9 cb3d 9273 5c3d 22b4 12be 4a68 d2bd
000000e0: f025 ae3d 5c5b 1b3e 192b 83bd 9ea3 343d
000000f0: b1ae 2b3e 98b6 ce3d dd05 093d 570d 813e
00000100: de01 293d fdb4 0b3e f888 2a3e cf9d fcbd
00000110: c371 b73d 9eaf 503c 4a53 b23d 6c28 5f3e
00000120: b492 6bbe 5052 883e f5c6 953d 95c8 a6bd
00000130: 04ee 25be 563d bebd 5fcc bfbd 2e4e 383e
00000140: 1dd5 1cbe 915a 44be a010 3abe eeed df3d
00000150: a1fd 14be b042 e8bd 2cb2 063c a297 91bd
00000160: 4c39 113e 69b2 2bbe 9e74 3bbe bef2 34be
00000170: adfc 07be 4c9a 76be a9fa 1a3e d11c 80be
00000180: 4cb1 2d3d c18a 42be f436 4bbe e0bc e33d
00000190: e164 a53d d7a0 413d ee87 e0bd 22ec e73c
000001a0: dc76 68be d749 163e db2a 6abe 7983 ecbc
000001b0: bd2d 033e 0bc7 1f3e 0038 50be de3c 95bc
000001c0: 82bb 2c3d c4fc 663d 015b 523d 9756 653e
000001d0: adc7 563e 3e8c 71be e70d f0bd 05fa db3d
000001e0: 2028 41be 4403 f1bd aa62 6dbe d0c5 50be
000001f0: ec4a 7cbd 8a58 3c3e 0dd9 413c d88e 803e
00000200: 15a0 5fbd 39be 693e 1b33 f43d 6f73 26be
00000210: 2a3d c5bd 7117 c03d cd0a fa3b 7bfd 57be
00000220: b2d2 5b3e a70b 07bd 5149 36be a106 78be
00000230: ca44 0a3d d100 7fbe 548d 223e 4e83 ca3d
00000240: b3ce 31be b514 d13d b45a 39bd 8da7 4dbe
00000250: 833f 60bd 29a8 ea3d 5b97 98bd c900 49bd
00000260: 5f39 bc3d 2eb7 61bb 8b19 5a3b 9bcb f43d
00000270: 811e 4a3e bd0f 3e3e a06d 213e 5f4d 6b3e
00000280: c20b 333e 60d2 09be 6cec 2cbe a5ac 803e
00000290: e900 17be cd30 883e e8fb 01be 13c6 ab3d
000002a0: 6887 313e 1623 833e 36da 543e 69ec 5e3e
000002b0: 2866 fb3d 3cc5 09be c8d2 223d 86d1 3bbe
000002c0: a8a4 81be 333d 263e f807 653e 0de7 66be
000002d0: 315a 5a3d b7c4 423e 7229 103d b436 1dbe
000002e0: 1d00 ef3d 1aed 573e 9f91 503d ec95 533d
000002f0: fc81 d6bd 0d17 383e 759d 4c3e 4f12 613e
00000300: 14e1 11be b435 1fbe 7546 a93d 30d5 4bbd
00000310: a2c7 f13d cbe9 0d3c ef42 263e 5dcb 34be
00000320: d717 18bd 3537 9ebd 4f04 84bc 9a7e 5f3e
00000330: eebb 06be ff42 16be c914 f9bd 6cff 5dbd
00000340: abe5 723e cc0a 4f3e 1db7 97be 9982 253e
00000350: d749 4b3e 9518 ea3d 4253 783e ec89 133e
00000360: 8c61 303d 48fe d03d adf6 2cbd 5c88 123e
00000370: 4ca4 2b3e 6be1 44be 6821 41be fa15 9dbd
00000380: af34 50be 09e0 61be 9558 603e 8528 c0bd
00000390: a38a 933d 8ddc 54be eb88 4bbe 3ceb 80be
000003a0: d813 bbbd 9f30 933b 0acd c93d cd55 cf3d
000003b0: 5f52 413e e745 683e 9c6c 773e 9953 1e3c
000003c0: 63d3 66bd be13 573d 245c a1bb 24f2 d43d
000003d0: 6aa0 27be 3ebb b93d d563 023e b5c2 513e
000003e0: 66b9 3bbe f464 82bb 6e72 153c 070f 45be
000003f0: 8940 d33d ef22 df3d c794 2ebe a9ca ee3b
0.17814746 0.2029891 -0.011401886 0.13547438 -0.032090016 0.015828544 -0.09971068 0.038847324
-0.1455566 -0.03708905 -0.14863387 0.09106005 0.13206415 0.023259137 0.07261173 -0.16907158
0.010220613 -0.020564053 -0.16885185 0.049438972 -0.032844644 -0.04427251 0.16688454 -0.18198624
-0.23164213 -0.1861089 0.06902863 -0.23267609 0.04781645 0.18330713 -0.096664585 -0.12081712
-0.22384752 0.15649368 0.027454177 -0.0047219633 -0.05312958 -0.13574098 -0.19189093 -0.06829241
0.22205912 -0.22322841 -0.14042056 0.23054175 0.012339255 0.03166642 0.1208229 0.20894474
-0.059980746 -0.23302537 0.08463168 -0.17613389 0.099596374 0.053821154 -0.14326528 -0.10273798
0.0850333 0.1517157 -0.064047046 0.04410135 0.16765858 0.10093421 0.033452857 0.2520549
0.041261546 0.1364326 0.16653812 -0.12334787 0.08957245 0.012737183 0.087072924 0.21792763
-0.23005182 0.266253 0.07313339 -0.08143727 -0.16204077 -0.09289043 -0.093651526 0.17998573
-0.15315671 -0.19175173 -0.18170404 0.10934053 -0.14549877 -0.11340845 0.00822119 -0.07109
0.14182013 -0.16767277 -0.18306205 -0.17670724 -0.13279982 -0.24082297 0.15134682 -0.25021985
0.04240541 -0.18998243 -0.19845182 0.111200094 0.08075882 0.04727253 -0.109634265 0.02831084
-0.22701591 0.14676605 -0.2286791 -0.028871285 0.12810417 0.15603273 -0.20333862 -0.0182175
0.04217101 0.0563934 0.05135632 0.22396313 0.20974608 -0.23588654 -0.11721402 0.10741047
-0.18862963 -0.11768201 -0.23182169 -0.2038796 -0.06159489 0.1839315 0.011831534 0.2510898
-0.054596025 0.2282647 0.1192381 -0.16254972 -0.09630807 0.09379471 0.007630682 -0.21092789
0.21467093 -0.032970097 -0.17801405 -0.24221279 0.03375701 -0.24902655 0.15874225 0.09888326
-0.17364006 0.10209028 -0.045252517 -0.20083447 -0.05474807 0.11457855 -0.07450744 -0.049073014
0.0919063 -0.003444146 0.0033279385 0.11952897 0.19738199 0.18560691 0.15764475 0.22978733
0.17484954 -0.13459158 -0.16887063 0.25131717 -0.14746441 0.26599732 -0.12693751 0.08387389
0.1733681 0.25612706 0.20786366 0.21769871 0.12275344 -0.13454145 0.039751798 -0.18341646
-0.25320935 0.16234283 0.22366321 -0.22549076 0.05330867 0.19020353 0.035195775 -0.15352899
0.116699435 0.21086541 0.050920125 0.05165665 -0.10474011 0.17977543 0.1998194 0.2197964
-0.14246017 -0.1554783 0.08265392 -0.04976386 0.11805655 0.008661698 0.1623647 -0.17655702
-0.03713211 -0.07725374 -0.016115336 0.21825638 -0.13157627 -0.14673994 -0.121621676 -0.054198667
0.23720424 0.20218962 -0.29631892 0.161631 0.19852386 0.1143047 0.2425051 0.14408082
0.043061778 0.1020475 -0.042227436 0.1430983 0.16761893 -0.19226615 -0.188604 -0.07670207
-0.20332597 -0.22058119 0.21908791 -0.093827285 0.07204177 -0.20787258 -0.19876449 -0.2517947
-0.09134644 0.00449188 0.09853561 0.10123787 0.18879078 0.22682916 0.24162525 0.009663486
-0.056353938 0.052509062 -0.004924314 0.10397747 -0.16369787 0.09068917 0.12733395 0.20484431
-0.18332443 -0.0039793197 0.00912152 -0.19244014 0.103150435 0.10895335 -0.17048942 0.0072873426

neighborLayer.W f4 [6, 32]
00000000: 4a0f d7bd ea0c 46be 7d6d 00be 2a4b 80be
00000010: b897 1fbe 0b05 c6be f338 afbe fbf2 1dbe
00000020: 355f 86be 5dd5 a7be 811d 8e3d f506 03be
00000030: 28af 8dbd f5e2 7dbd d6ad 99be 2ce3 76be
00000040: 2987 a43e 93c2 f8bc 7cec af3d e3f3 d83d
00000050: 4ded 5e3e 4d3c babd d040 06be afe2 9a3d
00000060: 4afd 24bc 2ba7 8d3d 2a4d fb3d ce17 a1be
00000070: 130e bebd e003 6fbe 9965 a5be e8d4 053e
00000080: 4ceb 133c 7708 bfbd 2ff5 c03e 2f38 a73e
00000090: a3bd 853d edc7 ba3e 554d 5f3e ba35 d7be
000000a0: 34ab 98be 4e87 c33d 41fd 3f3e d9f8 393d
000000b0: e416 fdbc 8ff4 4f3e 13f2 1fbd 141c ed3e
000000c0: cbcb b4be d3a9 8fbe 5c44 dbbc 571b da3d
000000d0: a3b2 703e 5a20 5e3d 822b 18be b4e5 b2be
000000e0: fd8b 9abe c467 67be 77e0 e63c 3577 e23e
000000f0: d32d 753e e23d b93e 94c8 dd3c f882 633e
00000100: b701 013e 82d1 873e 44c7 013e 7cc8 89be
00000110: 9e0e 7cbe 6041 963d 6e65 76be 6dad 803e
00000120: d8f3 d23e 697d 97bc da26 abbc 7341 873e
00000130: 496b 4cbe 1b29 14bd 38c2 163e 4245 0e3e
00000140: bab0 703e cbc0 97be 32d3 8fbe b258 19be
00000150: 438f ce3e e6ac 3fbd 1736 29bd 0d22 01be
00000160: 16f2 c7be 5dcf 4abe 82c3 a0be 454e 90be
00000170: e244 86bc eea0 bf3d 4f6d 1b3e 2f0f 02bd
00000180: 7859 8f3d a848 643e da00 3b3e 8c60 a13e
00000190: cdfc debe b319 5abe 012c 1d3e e5c4 7dbd
000001a0: 56f0 3fbe 82b0 693d 1b6f d6bb 7f67 ddbd
000001b0: a029 2dbd bc12 cdbd 5884 bdbe 4a0b 83bd
000001c0: fa7d 8c3e 5492 d1be 8ba7 76be cb28 163e
000001d0: 6859 7e3e 08c5 083d 65b0 0f3e ff8e ae3e
000001e0: 17fe 12bd 4a89 8ebe 67d7 1e3e ecc9 91be
000001f0: bfdd 7abe 688f 89bd ab71 973e 5130 a13e
00000200: 2f65 3dbd 9d8f 91be a6d3 e03c 3124 28be
00000210: cb7d 5d3e 5b70 833e d7ce 05be 3579 e6bd
00000220: d0c2 123d 3635 a7bd e232 d83e 9d8b 95be
00000230: 02af ba3e dc0b cf3e 70b1 a13d a703 853d
00000240: edc6 34be 73a5 b63e 5160 5a3e 295e 24bd
00000250: 9ee0 b13e 2f16 5b3d 3d75 c6be a528 5abe
00000260: 15b2 483e 64f7 8e3d 0639 a63c ccd3 b4be
00000270: 5a2f c13e a0bc 763e ce53 afbe 5ab5 0b3e
00000280: 3c84 8cbe f389 95be daa6 e1bd c96f b43c
00000290: 40b0 b83e 611c bebd 01fe 883d 8fbd 7f3e
000002a0: a335 72bd 3278 9c3e e200 933d 368d f4bc
000002b0: b3bb 53bc 0554 b93e 258a 1cbd dad8 f3bd
000002c0: f756 cabe 4680 abbe 1072 4fbe 3864 16be
000002d0: 0968 14be 17e0 9abe 3094 283e e86e 2d3e
000002e0: b17e a9bb 8abb 6cbe ca18 2fbe 64e2 653d
000002f0: c220 8fbd c347 09be b3e7 8abe 123b 6abe
-0.10500963 -0.19340864 -0.12541766 -0.25057346 -0.1558522 -0.38675722 -0.34223136 -0.15424721
-0.26244512 -0.3277997 0.06939221 -0.12795623 -0.06918174 -0.06198402 -0.3001544 -0.24110097
0.3213437 -0.030366218 0.08590028 0.10593393 0.2177021 -0.09093533 -0.13110662 0.07562768
-0.010070154 0.069166504 0.12270577 -0.31463474 -0.09280028 -0.23341322 -0.32304075 0.13069499
0.009028267 -0.093277864 0.3768706 0.32660052 0.06530311 0.36480656 0.21806844 -0.42033178
-0.29818118 0.09547292 0.18748952 0.045403335 -0.030894704 0.20308135 -0.03904922 0.46310484
-0.35311732 -0.28059253 -0.026765995 0.10649746 0.23505645 0.05423007 -0.14860347 -0.34940875
-0.30184928 -0.22598177 0.028183205 0.44231573 0.23943262 0.36180025 0.027073182 0.2221793
0.1259831 0.2652703 0.1267367 -0.2691077 -0.24614951 0.07336688 -0.2406213 0.25132313
0.41201663 -0.018492417 -0.02089255 0.2641712 -0.19962801 -0.036172014 0.14722526 0.13893607
0.23504916 -0.29639277 -0.28090817 -0.14975241 0.40343675 -0.04679575 -0.04131135 -0.12610646
-0.39051884 -0.19805665 -0.3139916 -0.28184715 -0.016390268 0.09356867 0.15178417 -0.03175276
0.06999487 0.22293341 0.18262044 0.31518972 -0.43552247 -0.21298866 0.15348817 -0.06195535
-0.18744025 0.057053097 -0.0065440065 -0.10810756 -0.042276025 -0.10013339 -0.37015033 -0.063986376
0.27439862 -0.40931952 -0.2408735 0.14663999 0.24838793 0.03339103 0.14032133 0.34093472
-0.03588685 -0.27839118 0.15511857 -0.28474367 -0.24498652 -0.06716806 0.2957891 0.31482175
-0.046239074 -0.2842988 0.027444672 -0.16420056 0.21630017 0.25671658 -0.13067184 -0.11253587
0.03583032 -0.08164446 0.4222632 -0.2920808 0.36461645 0.40438735 0.07895172 0.06494837
-0.17654009 0.35673103 0.21325804 -0.04012886 0.34741682 0.053487953 -0.3876132 -0.21304567
0.19599183 0.0698078 0.020290863 -0.35317838 0.3773144 0.24095392 -0.34243625 0.13643399
-0.27444637 -0.2920681 -0.110181525 0.02202596 0.36071968 -0.092827566 0.066890724 0.24974655
-0.059133183 0.30560452 0.07177903 -0.02985249 -0.012923169 0.36196914 -0.038217682 -0.119065955
-0.39519474 -0.33496302 -0.20258355 -0.14686668 -0.14492811 -0.30249092 0.16462779 0.16936839
-0.0051725735 -0.23118415 -0.170993 0.056124106 -0.0698867 -0.13406281 -0.27129897 -0.22874096

neighborLayer.a f4 [64, 1]
00000000: 703b 953e f2f4 9abe 23cd c23d 927d 863d
00000010: 9f39 2ebe 1bb3 783e 838d 003b 6bc0 d439
00000020: 1d29 7abe 4379 163e df94 7f3e f2a0 80bd
00000030: fc2d 5abe c153 67be 537d 67be 9e44 c63c
00000040: 60c7 313e 0d57 7dbd 64e8 053e 05d2 ac3d
00000050: f7de 96be 10a7 103e a980 4dbe 7094 2f3e
00000060: b8de bf3d d4eb ab3c 04f8 873e 925a f4bc
00000070: 8929 893d 433b 5e3e 2bb1 b03c 28ae 043e
00000080: c9a1 473e f32a 963e cdc0 95bc 58e5 0d3e
00000090: 2d3e 84bd 49ad f63c f2d8 4abe e26d 2a3e
000000a0: 8d1d ecbd d125 b03d bdf3 fdbd 7478 f23b
000000b0: 6426 6f3d 9a8e 3cbe 728f aabe cd64 8dbe
000000c0: 35bb 263e 2e57 28be 6d8e 7b3e 6d62 563e
000000d0: e167 483e e7c0 2c3e 7267 8e3e 1473 5d3e
000000e0: 4559 17be 495d 5d3e 9aea f1bb 0757 a1bd
000000f0: f8be e83d ed86 0b3d 2a28 41be 15b3 c3bd
0.2914691 -0.30265003 0.09511783 0.065669194 -0.17014168 0.24287073 0.0019615598 0.00040579154
-0.24429746 0.14694695 0.24959134 -0.06280698 -0.21306604 -0.22590543 -0.22606401 0.024202641
0.17361212 -0.061850596 0.13076931 0.084384955 -0.29466984 0.1412623 -0.20068611 0.17146468
0.09368652 0.020986475 0.26556408 -0.029828344 0.06697375 0.21702294 0.021568855 0.1295706
0.1949531 0.29329643 -0.018280411 0.13857019 -0.064571716 0.030111926 -0.1980932 0.1664348
-0.11529074 0.08600963 -0.12400005 0.007399613 0.05838622 -0.18413773 -0.33312565 -0.27615967
0.16282351 -0.16439506 0.2456605 0.20935984 0.19570877 0.16870461 0.27813298 0.2162593
-0.14780147 0.21617617 -0.007382703 -0.07877927 0.113645494 0.034064222 -0.18862978 -0.095556416
