test/model/actor_4_3_2_2_3_22_best_rou0.pth (torch, 689372 bytes, 17 tensors)

v2lLayer.W f4 [3, 40]
00000000: 59ec 8b3e 474d cabe 5b81 6d3e e81c 4dbd
00000010: 1403 3bbe ad6f 97be 0b65 c6be dc4e 8a3e
00000020: 764f a13e 1cb0 debd 6efb a43e 2e14 d2bc
00000030: 7df8 913e e594 97be fd2b 88be e395 84be
00000040: 7534 a43e 0c49 3f3d 47b1 24be ec88 b9bd
00000050: 2fcc 9b3d a711 313e 74b4 bfbe a037 6e3d
00000060: 9d0d 323d 1fd4 61be 123b 89be 5a17 4fbd
00000070: 1714 79be 5ac1 33be 6a7f b03e 63a9 51be
00000080: a3f2 2a3e 4dd1 50be 343a a63c 12ab 9e3d
00000090: 2f4b 55be 7c61 af3e cdcf 83be 3f85 723e
000000a0: 82bc ccbe 29d8 29be 10e1 7a3e 44e5 bf3e
000000b0: 3316 c03e 60e3 8d3e 9337 a23c 4604 403e
000000c0: cb09 7c3e 63d0 edbc c16c 643e e09e b0bd
000000d0: f1c4 2c3e 6fcc 1d3e 0d97 8c3e ed67 533e
000000e0: e602 1dbe 66e3 a93e 741b b23d c640 773e
000000f0: 9ed4 903d 7391 433e c69d 93be 6382 773e
00000100: e043 d13d 3664 73be 512b ce3d f31e 523e
00000110: e175 b73d 0ccc c6bd f7e9 cbbe 2087 a2bd
00000120: db92 86bd 88fc 8a3d aeec 5b3e d902 b63e
00000130: b9cb c1bd 30c9 8ebe 2eac 003d 9b21 92be
00000140: 80e8 633e ce12 303e f2df 5cbe 7032 7e3e
00000150: 4c99 8c3d 9bfb c7be 914f 473e 6272 de3e
00000160: e47e 68bd 8670 883e fe97 5f3e 4ebb 2cbd
00000170: 0e1f 983d bb4f f3bd f122 00be f316 b0be
00000180: 5c12 8b3e 6f53 e2bd 679b 2e3e 2ec5 87be
00000190: a3b2 7a3e 45b9 0dbe 104c 8ebe d032 99be
000001a0: 12fd c23e 7d79 94be 0cc5 25bd c0d2 e73e
000001b0: 6449 90be d79c 363d 4756 3d3d 3995 f7bd
000001c0: 9911 d73d c637 0abe 7be7 7e3e ad67 213e
000001d0: dcdb fdbd 5baf 95bd 651b 2dbe 95cd 9e3d
0.27328756 -0.39512083 0.23193876 -0.050076395 -0.18262893 -0.2957739 -0.38748965 0.2701329
0.31505936 -0.10873434 0.32223076 -0.025644388 0.28509894 -0.29605785 -0.2659606 -0.25895604
0.32071272 0.046700522 -0.16083251 -0.09059319 0.07607304 0.1729189 -0.37442362 0.058158517
0.043470014 -0.22053574 -0.2680288 -0.05055938 -0.2432407 -0.17554227 0.3447221 -0.20474772
0.16694121 -0.20392342 0.020291425 0.07747473 -0.20829462 0.34254062 -0.25744477 0.23683642
-0.3998757 -0.16586365 0.24499917 0.37479603 0.37516937 0.27712536 0.01980189 0.1875163
0.2461311 -0.02903003 0.22307111 -0.08624053 0.16872002 0.15410016 0.27458993 0.20645113
-0.15333137 0.33181304 0.086966425 0.24145803 0.070718035 0.19098453 -0.2883131 0.24170832
0.10218024 -0.23768696 0.10066856 0.20519619 0.089580305 -0.097068876 -0.3982694 -0.07935929
-0.06570979 0.06786448 0.21477005 0.35549048 -0.09462685 -0.2788787 0.031414203 -0.28541264
0.2225666 0.17194673 -0.21569803 0.24823928 0.068651766 -0.39059147 0.19463946 0.43446642
-0.056761637 0.2664835 0.21835324 -0.042170815 0.07427798 -0.11880442 -0.12513329 -0.3439251
0.27162445 -0.1105107 0.17051469 -0.26517624 0.24482207 -0.13840206 -0.27792406 -0.2992158
0.38083702 -0.28998938 -0.04047112 0.45277977 -0.28180993 0.044583168 0.04622486 -0.12089009
0.10501403 -0.13497838 0.2489299 0.15762205 -0.123954505 -0.07308837 -0.16904981 0.077540554

v2lLayer.a f4 [80, 1]
00000000: 09d3 6f3e 0ff8 01be eba6 9c3d d490 98bd
00000010: 070f 64be 9e21 3f3e 650f 133e 6fc4 7b3e
00000020: 45e2 e03d 4d9f 74bc 582f 06be 10d4 d8bc
00000030: 2fe0 7c3e 5499 813e 71d3 b2bd 4180 1bbe
00000040: 4ee0 63be 60ae fb3d f228 0bbe 7df1 193e
00000050: 3c89 4abe b27c 8ebe c550 9c3d dfca 28be
00000060: 06d5 0b3e a1e7 633e bd11 03be 093e 143e
00000070: b1be d53c 162d 933e 42d8 c23d be11 023e
00000080: b275 423d bfbd 5bbe 2d32 803e 3f95 093c
00000090: 9c6e bcbc 9990 50bd adab f33d 28e7 153e
000000a0: 475a 57be e723 bbbd d592 00bc 96af 563e
000000b0: f6d9 17be 45dc 1a3d 50b2 423e dae9 903e
000000c0: 58bc 273e 42f1 40be 6efe 26be e6be 6bbe
000000d0: 8d49 0dbe 4dee d53d 1e0e 043e a6b1 6c3d
000000e0: e8cb 123c 5365 003e 500d 903e 908f 1ebd
000000f0: 1c6d 8b3e 32af 8abe 354b 2e3e ee43 0dbe
00000100: 723c 873e e73a cd3c 5709 0dbc 5d90 5a3e
00000110: da9c ac3d d5b4 003e b54a 373e 0c65 16be
00000120: 8c0e 093d 192c a3bd f8d2 69be 61cf 1bbe
00000130: a9a8 0a3e 0896 233e e060 87bd 59c3 913d
0.23420347 -0.12692283 0.076490246 -0.07449499 -0.22271357 0.18665168 0.14361341 0.24586652
0.109806575 -0.014930558 -0.13103998 -0.026468307 0.24694894 0.25312293 -0.087317355 -0.15185644
-0.22253534 0.12289119 -0.13589838 0.15033527 -0.19778913 -0.2782951 0.07632593 -0.16483639
0.1365548 0.22256328 -0.12799735 0.1447679 0.026091905 0.28745335 0.09513904 0.1270208
0.047475524 -0.21459101 0.2503828 0.008397399 -0.023001961 -0.05091915 0.11897979 0.1463896
-0.21030532 -0.09137707 -0.0078475075 0.20965418 -0.14829239 0.03780772 0.19013333 0.28303415
0.16380441 -0.18842033 -0.16307995 -0.2302204 -0.13797589 0.10445843 0.1289601 0.057786606
0.008959748 0.12538652 0.28135157 -0.03871113 0.2723168 -0.27086788 0.17020877 -0.13795444
0.26413304 0.0250525 -0.008608184 0.21344133 0.084283546 0.12568982 0.17899592 -0.14686984
0.03346114 -0.07967395 -0.22834384 -0.15215828 0.13540901 0.15975201 -0.06610274 0.07117338

laneLayer.W f4 [12, 12]
00000000: 131f 7f3e 62c4 253c 5685 de3e 85e0 89be
00000010: b24d 43be 5775 97be 3c33 d93d f0fc 9dbc
00000020: 8cf4 d0be 1255 f0be 24da 303d e3c2 933e
00000030: 5b64 9cbe fb32 ae3e e86e 0ebf 23ad e7be
00000040: c2a1 87be af88 0d3f 107e 913d 20d0 993e
00000050: 3d3b f9be 6812 babe 9c4a 013f bef6 5ebe
00000060: c4e5 8fbe 1cb3 77be 28a8 6abe 021d abbe
00000070: 0063 023b 0e5f be3e 4aca e5be a87c 623e
00000080: fc0e 053e 885e a63d 0acb b73e c800 9c3e
00000090: 4631 1dbe 6afc 643e 4d1b 673e d140 483e
000000a0: 1089 fa3c 51d9 f9be 136b 9ebe d26a c33e
000000b0: 9d84 91be 11a0 bb3e 8d8b fe3d 75ff 803e
000000c0: 844a d93d f894 a13d 2da2 a73e da31 bb3e
000000d0: 48ed e6be 681a 023f 60e0 e03e 9109 debe
000000e0: e23b f33d 38e8 1bbe 183f 133e 3b72 a93e
000000f0: 2f53 8fbe b17e 993e 8a1e 253e 8aa0 53be
00000100: 71ff c83e 0551 06bf b942 bb3e b032 d23e
00000110: dcfc acbe d32d ba3d e291 d8be 6aaa 423e
00000120: 2cdc 26be ac14 c2be d0ba 853d 909a e9bd
00000130: 00e4 0aba 7038 bb3e 407f 0abe f092 673d
00000140: 8cd3 233e bc5c 7b3e c8b9 cabd 1447 f3be
00000150: 15ff c33e c99b c73e 39af b6be 6ad3 933e
00000160: e2cf ee3e 846d c6be 662c f7be e38f 173e
00000170: e8ae 973e 2b61 e2be c7cc be3e 95e9 a03e
00000180: c015 8d3d 673b babc 74df fabe 1b5e 883e
00000190: 4b86 04be 0623 173d 8f97 d13e 0467 e03e
000001a0: 4b02 923e 2381 ae3e 715a 7d3e 06e5 593e
000001b0: a86b f5be 0053 6dbc 0be7 44be b80a 0d3e
000001c0: 56cf b2be 4bf6 c03e 3ec3 663e 7a85 39bc
000001d0: e16c 3fbe b963 89be 9a1f 9dbc 7b27 90be
000001e0: 94e0 c83e 2a81 d23e afdc d83e 9cf0 4bbe
000001f0: 6792 8dbe 6317 c7be b71b d1bd 0eeb 8ebe
00000200: b988 6e3e d48e 9abd 7621 00bf fdb5 1b3e
00000210: 90a3 babe 0298 8f3e 1f7b d73e b77d a8bd
00000220: 1608 e93e b9e4 9a3e 8487 ef3e ae28 86be
00000230: 4840 5d3c 5e08 8dbe 22a6 99be af6b 3c3e
0.24914198 0.010117622 0.43461102 -0.26929107 -0.19072607 -0.2958171 0.10605475 -0.019285649
-0.40811574 -0.46939903 0.043176785 0.28859624 -0.30545315 0.3402327 -0.5563798 -0.4524928
-0.264906 0.5528669 0.07104123 0.300416 -0.48678008 -0.36342168 0.5050447 -0.21773812
-0.28104985 -0.24189419 -0.22915709 -0.3342057 0.0019895434 0.37181896 -0.44880897 0.22117865
0.12993997 0.08123499 0.35897094 0.30469346 -0.15350828 0.22361913 0.22569008 0.19555975
0.030582935 -0.48798612 -0.30941066 0.38167435 -0.28421488 0.36645558 0.12428961 0.25194898
0.10609916 0.07889742 0.32740918 0.3656147 -0.45102906 0.5082154 0.43921185 -0.43366674
0.11876656 -0.15225303 0.14379537 0.33094963 -0.27993152 0.2997947 0.16124931 -0.2066671
0.39257386 -0.52467376 0.36574343 0.41054296 -0.33786666 0.090907715 -0.422988 0.1901032
-0.16294926 -0.37906396 0.06529772 -0.114064336 -0.0005298257 0.36566496 -0.13525105 0.056536615
0.15998667 0.24547094 -0.09898716 -0.47515166 0.3828055 0.38986042 -0.3568056 0.28872234
0.46642977 -0.3875543 -0.4827606 0.14800982 0.2962563 -0.44214758 0.37265608 0.3142821
0.06888914 -0.022733403 -0.48998606 0.26634297 -0.12941854 0.036898635 0.40935943 0.43828595
0.28517374 0.34082898 0.24741532 0.21278772 -0.47933698 -0.014485121 -0.19228761 0.1377362
-0.3492381 0.37687907 0.22535416 -0.011323327 -0.18693878 -0.26833895 -0.019180108 -0.2815512
0.3923384 0.4111417 0.42355868 -0.19916004 -0.2765076 -0.3888503 -0.10210364 -0.27913707
0.23294343 -0.075467736 -0.5005106 0.15206142 -0.36452913 0.2804566 0.4208612 -0.08227103
0.45513982 0.30252627 0.46783078 -0.2620291 0.013504095 -0.27545446 -0.30009562 0.18400453

l2pLayer.W f4 [12, 88]
00000000: e2fd 06bc fc7e 61bd 419b c93d 17fe 29bd
00000010: 9e2a 62be d5dd c33d e6ad d6bd e951 fa3d
00000020: 310b 2f3c 0708 743e aa27 973d 5884 e7bd
00000030: b231 2ebd 65d3 683e 5689 713e b91d 0fbe
00000040: 478a b33d 1a58 3dbe 6dee c5bd ea7f 693e
00000050: f909 11bd f5c0 dc3d 9904 81be b049 1e3e
00000060: 7362 0fbe 6079 63bd 371d 143d cb9c 9dbd
00000070: 3d9f 0b3e b448 c93c 27f3 473e c7ab a2bd
00000080: 2252 d1bb 6892 353d f6e1 5d3d 9ff5 cabd
00000090: c38b 37be dcc9 373e 54c5 29be c612 29be
000000a0: 57cc 36be bd3b 883d 84b3 a73d 710c 20bd
000000b0: 2ced 84be 21ed 33bd 1521 71bd a401 1abe
000000c0: a957 2bbe 60e0 02be 5477 533d 5ec7 623e
000000d0: 63cc 7e3e 0f70 683e 7804 c9bc f03e 6a3e
000000e0: f279 4bbd 6482 0a3d 109a be3d 483d 0d3e
000000f0: 1dce ce3d e851 35be db87 b7bd 6a3b 57be
00000100: 2a66 4d3e fc33 77be 8d9d 373d da0f 98bd
00000110: d6ff d6bd a03b 62bd 2d0f 13bd 522b 5f3e
00000120: 396f 683e daa4 e13b 25e8 683e 17d6 3d3e
00000130: 33ba c2bd cbb1 1a3e b9c5 153d 58af 49be
00000140: 6808 dd3d 86ac 673d 677b 8f3e d60d 2abe
00000150: 38dd 6b3e f741 06be 169d 8ebb 2b88 673d
00000160: a2f9 013e 86d6 fd3c ecf8 943d ccdb c63d
00000170: d361 74be cc08 5ebe 344a 1ebe d9dd b13b
00000180: 7171 ccbd d83b 213e 829d 45be 0991 25be
00000190: 4a67 2c3d 15d0 aa3e 3d6b 4bbe 8a87 9b3d
000001a0: 62c7 21be fbd1 d23d 9cc3 19be 6d74 8abe
000001b0: 5237 4b3e 2b7e b43d d97e 41be 9d69 adbd
000001c0: 8004 ba3d 2a41 b13e 1183 0bbe 6908 cebd
000001d0: a29e 173d 0f19 403e 9270 64be 35d2 3abe
000001e0: 8cc5 643d f429 9f3c f9ae 9dbe 29f9 cb3d
000001f0: 06bc 113d a4ab 45bd 63a6 7b3d f89e ecbd
00000200: ad02 903d c1d4 4fbd 5efe d13d 33fa f1bd
00000210: 3a9e 2abe e944 393e 8c94 473e 03df ec3d
00000220: a24d 06be 9219 6cbe 345c 753d 99af 913e
00000230: 3776 11be 0580 18be 0e2c 213e 56bc 37be
00000240: 4d0b 1e3d 5ce1 023e 91a3 04bc 977d 103e
00000250: 45cc aabe 4762 3f3e 9894 20be a729 4cbd
00000260: 9617 353d 5576 933d 7a14 683e e54c 423e
00000270: 1e8a b93d 8640 c33d 8912 21be c39d dfbd
00000280: f14d a1be 4642 2b3e cd2d 90be 3d11 ca3d
00000290: 63f1 7c3e f2c4 c5bd 6053 90be 0981 253e
000002a0: ce5d c0bd 735b ab3e 2e08 2ebe 7ecb 58be
000002b0: 2e6a db3d 5587 6cbe 3bd0 85bd e70a 73be
000002c0: 605e dabc d980 4ebe fed3 82bd 9429 7f3d
000002d0: 7e95 acbd 09e6 343e 2ab3 62be 268c d13d
000002e0: a8ca c43c c6e1 9e3d 196a 33be 201f f93b
000002f0: 8e23 a23d 48bb c2bc 593b 64be 3c35 c3bd
00000300: b454 00bd a2ec 08be f8b8 74be ba2e ee3d
00000310: 7729 31be 359f 473e 5a2d a63d 22d9 00be
00000320: c2d0 02be faef c63d 6712 24be c0f8 30be
00000330: 8997 04be b6b1 42be 01eb 3e3e 5584 223e
00000340: af57 5dbe 767c ab3d 18f0 6dbe 25b2 63be
00000350: 8a87 e53d f06e aabd cf65 0f3e 48ee ea3c
00000360: 9059 bdbd 0cf3 0d3d 08a7 ea3c 9af4 ad3d
00000370: e875 06bd 6714 11be 37ee 5f3e bea9 e1bd
00000380: 9489 67bd 5837 4fbd 5916 68be 0836 32be
00000390: 48cf 77be 7b41 643e 69d8 303e 3817 833c
000003a0: 5463 ffbd 20ce 9abd e63a a83d 5e5b c3bd
000003b0: 1323 403e 2f77 42be 51ee 0ebe d8e2 24be
000003c0: 2050 c73b e20f 37be 0bec 453e 4046 e0bd
000003d0: 1627 3bbe 605a aebb 000e 3dbb f9d8 673e
000003e0: 8d7f 233e f008 25be 360e a93d 1c5d 303d
000003f0: eda6 573e 405e 6c3b fc8c cabd 2f65 fabd
-0.008239241 -0.055052742 0.098440655 -0.041502085 -0.2208657 0.095637955 -0.10482387 0.12222654
0.010683821 0.23831187 0.07380612 -0.113045394 -0.042527862 0.2273689 0.23587546 -0.13976182
0.08766609 -0.1849064 -0.09664617 0.22802702 -0.0354099 0.10778991 -0.2519882 0.15457797
-0.14002399 -0.055535674 0.036160674 -0.076959215 0.13634963 0.0245708 0.19526349 -0.0794292
-0.006387965 0.044329077 0.05417057 -0.0991013 -0.17924409 0.17948097 -0.16579181 -0.16511068
-0.17851387 0.06652019 0.08188537 -0.039074365 -0.25962198 -0.043927316 -0.05886944 -0.15039688
-0.16732658 -0.12780905 0.051627472 0.22146365 0.24882655 0.22698997 -0.024538264 0.22875571
-0.049676843 0.033815756 0.09306729 0.13792908 0.10097907 -0.17707026 -0.08961459 -0.21018758
0.20058504 -0.24140924 0.044827987 -0.074248984 -0.104980156 -0.055232644 -0.035903145 0.21793869
0.22698678 0.006886107 0.22744806 0.185387 -0.09508171 0.15106885 0.036565516 -0.19695795
0.10792619 0.056561016 0.28023836 -0.1660684 0.23033607 -0.13111101 -0.004352222 0.056526344
0.12692884 0.030986082 0.072740406 0.09709892 -0.23865442 -0.21683043 -0.15457994 0.0054280576
-0.09982575 0.15745485 -0.19298366 -0.16168608 0.04209069 0.3336188 -0.19865127 0.075942114
-0.15798715 0.10293957 -0.15016025 -0.2704195 0.19845322 0.08813127 -0.18896045 -0.0846741
0.090828896 0.3462003 -0.13624217 -0.10060198 0.03701652 0.18759559 -0.22308567 -0.1824425
0.055852458 0.019429184 -0.30797556 0.09959633 0.035579704 -0.048259392 0.061437976 -0.115537584
0.0703176 -0.050740007 0.10253595 -0.118153 -0.16661921 0.18092693 0.1949026 0.115659736
-0.13115552 -0.2305663 0.059902385 0.28454283 -0.14205252 -0.14892586 0.15739462 -0.17942938
0.038584996 0.1278128 -0.008095638 0.14110409 -0.3335897 0.18689834 -0.15681684 -0.04984441
0.044211946 0.072003044 0.22664061 0.18974645 0.09059547 0.09533791 -0.15729727 -0.109187625
-0.31504777 0.167245 -0.28159943 0.09866569 0.24701457 -0.09656705 -0.2818861 0.16162504
-0.09392892 0.33468208 -0.16995308 -0.21171376 0.107136115 -0.230985 -0.065338574 -0.23734628
-0.02665633 -0.20166339 -0.063880906 0.06229551 -0.08426951 0.17665876 -0.22138658 0.10231809
0.024022415 0.077579066 -0.17520942 0.0076025873 0.07916938 -0.023770943 -0.22288264 -0.09531638
-0.03133078 -0.13371518 -0.23898685 0.11630006 -0.17300974 0.19494326 0.08114119 -0.1258283
-0.12774947 0.09713741 -0.16022645 -0.1728239 -0.12948431 -0.19013104 0.18644334 0.15870793
-0.2161548 0.083733484 -0.2323612 -0.22235925 0.11207493 -0.08321941 0.1400368 0.028678074
-0.09245598 0.034655616 0.0286441 0.0849392 -0.032827288 -0.14167939 0.21868216 -0.11018704
-0.05652769 -0.05058989 -0.22664775 -0.17403424 -0.24200165 0.22290604 0.17270054 0.016002283
-0.12470117 -0.075588465 0.08214359 -0.09538911 0.1876338 -0.18990777 -0.13958098 -0.16102159
0.0060825497 -0.17877153 0.19328324 -0.10950899 -0.18276629 -0.005320832 -0.0028847456 0.22641362
0.15966626 -0.1611669 0.08254664 0.043057546 0.21059771 0.003606692 -0.09890172 -0.122263305

l2pLayer.a f4 [176, 1]
00000000: 928a 493e 88b5 173e 3e4e 183e beaf 573e
00000010: de32 073e 1f9b 0d3e d4b1 82bd aedd 31bd
00000020: 4f3f 06be 5328 ab3d c8d4 2dbe ff40 fabd
00000030: 0769 cb3c 0b15 05bc c5e8 3abd 4b04 30bd
00000040: 18a8 e3bd a1b2 ab3d 6e51 073e a2d0 7439
00000050: 1bde 393e cee0 afbd cceb 27be 3b02 063e
00000060: f99b c93d 6e28 1b3d 7f69 3cbd c04d a63d
00000070: 2bec 86bc 6001 613e c142 3cbc 5cbc 1ebe
00000080: 5776 6dbd a306 36ba a8b6 60be 558b dc3c
00000090: 6960 29bd 2570 e4bd 8a66 32be 9ccb 1fbd
000000a0: ba23 513e f9c8 683c d56d 3b3e 3892 cc3d
000000b0: 226e 903d d036 ca3d 670f da3c 9683 75bd
000000c0: e3a8 023d 1dce 30bd 6bc7 91bd b57a 983d
000000d0: 5a75 9e3d 8ab6 15be cca8 c3bb f6ee 29be
000000e0: 6cde 0fbe c997 143e 243f 2b3e d85a eb3d
000000f0: 806a 1abc afc8 a2bd 5c30 a9bd 04cf 893d
00000100: aeb5 8a3d bfc5 debc 3935 193e a60e 9abc
00000110: 51c3 acbd 6cee 133e 4d07 f6bd 7443 8f3d
00000120: c268 4d3b a17c d63d d692 d7bd 0d2e 17be
00000130: 24a5 bb3d ea9f 19be 2b45 6ebe 366c 8a3d
00000140: 6014 c6bc 771f 1f3e 3624 113d e245 13be
00000150: 5f3a 523c ff41 b9bd d7f7 0c3e 8db3 12bd
00000160: e720 59be 9904 84bc 8ca8 dfbc b800 143e
00000170: 723d 32bd 8a47 37be 8028 1c3e decc 3dbe
00000180: 0c1f eb3d e984 123e fafe afb9 1cfc 13bd
00000190: 91ec 16be 932b 44bd bd81 0fbd 0688 a23d
000001a0: 57ad 173e 8a08 163e 34b9 01be c470 9b3d
000001b0: 9b78 4f3d 2664 c43c d307 d13d 09bb f43d
000001c0: c552 183d 5854 11be 1962 58bc 269e 1a3e
000001d0: 2db2 dcbd fa8d b4bc e732 97bd 0bd4 2c3d
000001e0: 7d10 44be 844a cb3d 3499 0c3e 510d c0bd
000001f0: 3b3e 99bd 58ef 393e 2ddf ca3d 74a5 1f3c
00000200: 6ae9 473d b928 51be 4285 1f3e 0a46 a0bd
00000210: 2676 073e 0838 243e 6aec 89bd 1ed7 d4bd
00000220: 9864 1b3a 3398 2e3e e140 5fbe 8829 35be
00000230: 5e66 0ebd 10fb 153c c417 a03d 56a3 0bbe
00000240: 3160 383e adc2 afb9 a2a7 0bbe 1379 ddbd
00000250: 5f4f 133e ef5a 033b f43e a93d c5df f23d
00000260: 04e4 15bc eb11 8d3d 5376 033d e2fb f83d
00000270: dc5b 2a3d 93e1 2a3e 33a3 b23d 00d4 003e
00000280: f0a8 973d 1029 3dbe 7269 25be 0407 1a3d
00000290: 5f85 3b3e ace4 c73d 76da 413e 0222 04be
000002a0: cf01 4d3d d238 103e ef7e 203c 5c28 8ebd
000002b0: 756e 99bc d5a0 253e 34ca 223e 4af1 af3d
0.19681767 0.14815342 0.14873597 0.21063134 0.13202998 0.13828705 -0.06381574 -0.0434243
-0.13110088 0.083573006 -0.16975701 -0.12219428 0.024830354 -0.008122693 -0.045632143 -0.042972844
-0.11116046 0.0838368 0.13214657 0.00023347375 0.18151133 -0.085878 -0.16398543 0.13086788
0.098442025 0.037880354 -0.045999046 0.081202984 -0.016470036 0.21973181 -0.011490525 -0.15501541
-0.057974186 -0.0006943738 -0.21944678 0.026921907 -0.04135171 -0.11154202 -0.17421928 -0.039012536
0.20423785 0.014208072 0.18303616 0.099888265 0.07052256 0.09873736 0.026618673 -0.059939943
0.031899344 -0.043165315 -0.07118114 0.074452795 0.07737227 -0.14620414 -0.00597105 -0.16595063
-0.14049691 0.14511026 0.16723305 0.114919364 -0.009424806 -0.079484336 -0.08261177 0.06728938
0.06772934 -0.027193902 0.14961709 -0.018805813 -0.08435691 0.1444642 -0.12013111 0.069952875
0.0031342958 0.1047299 -0.105260536 -0.1476366 0.091623574 -0.15002409 -0.23268573 0.06758921
-0.024179637 0.15539347 0.035434924 -0.14382127 0.0128313 -0.09045791 0.13766418 -0.035815764
-0.21203957 -0.016115474 -0.02730205 0.14453399 -0.04351563 -0.17898384 0.15249825 -0.18535182
0.11480531 0.14308514 -0.00033568573 -0.036129102 -0.1473868 -0.047893118 -0.035035837 0.07936101
0.14812218 0.14651695 -0.12668306 0.07589868 0.050652128 0.023973536 0.102065705 0.119497366
0.03718831 -0.14192331 -0.013206982 0.15099391 -0.10776172 -0.022040356 -0.07382756 0.042194407
-0.19146915 0.09926322 0.13730317 -0.0937754 -0.07482573 0.18157709 0.09905849 0.009744037
0.048806585 -0.2042569 0.15578178 -0.07825859 0.13228664 0.16036999 -0.067345455 -0.10392593
0.00059277704 0.17050247 -0.21802093 -0.17691624 -0.034765594 0.009154096 0.07817033 -0.13636526
0.18005444 -0.00033523646 -0.13638166 -0.10814109 0.14385746 0.0020043214 0.082639605 0.11859087
-0.009148601 0.06888183 0.032095265 0.12157418 0.04159151 0.16687612 0.08722534 0.12580872
0.07405269 -0.18472695 -0.16153505 0.037604347 0.18312596 0.097604126 0.18930992 -0.12903598
0.050050553 0.14084175 0.009795888 -0.06941292 -0.018729428 0.16174634 0.15897447 0.08590944

phaseLayer.W f4 [24, 26]
00000000: f3bc 23be 4c8c c4bb 773d 683e 2d3a ec3d
00000010: 09c4 95be fe31 f13d 90a6 953e 295a 893e
00000020: de64 65bd abe6 423e fdaf e23b e3e9 313d
00000030: c7f4 acbe 1fb8 6eba 8ccc b93e 314d 92be
00000040: 6875 043e 5860 34be 6387 2c3e 2c63 853e
00000050: 9e32 8dbe 54f8 6dbe 1d92 7fbe 12c3 a8be
00000060: 4d2d a63e f0b7 84be 4ffb 3cbd b73e b53d
00000070: d220 263e bc88 a6be b8c7 14be 0a18 aebe
00000080: 2954 9b3e 76c8 13bd bc1c a13e 461c ac3c
00000090: 94d9 8abe 02fe 193e 997e 3b3e 7ad8 30be
000000a0: 59dd 8d3e 0a6c cc3d 6daf 673e 785f 153e
000000b0: 46df 593d 8035 8cbe 2907 953e 8c63 0cbe
000000c0: fc49 f8bc 0a13 5d3e e509 8a3c b097 03be
000000d0: c06d b1be 2c19 463e b600 e1bd c28f 0fbd
000000e0: c225 89be cf23 413e a270 aa3d a2b2 64be
000000f0: baa5 eabc 9b15 243e 8ea2 e43d 31ad 95be
00000100: 485b 93be 586b 8e3e 3a05 9dbe 1fab f53d
00000110: 8295 aebe d469 11be d779 123e f226 8f3d
00000120: bc38 bdbd 5001 a63e a046 83be 1103 363e
00000130: 282a 9cbe f64b 7c3e 2964 7cbe 4cad 0bbe
00000140: 55e4 95be 6a63 8f3e aefe b83e 6e8e 563e
00000150: e02e f8bc 89e9 23be 031d c63d 04a7 fa3d
00000160: 84dc 4a3c 54ce 8abe 546f 2a3d 3bb0 4c3d
00000170: 81d1 50ba d730 98bd aac9 abbe 6ba5 a43e
00000180: 6d18 59be ce2f b83e c217 4dbe e8f3 c43e
00000190: 13c2 373e a86f b1bd 675c 423d 6726 f33d
000001a0: 95cf 803d ee95 0b3d bf38 b03e c857 523e
000001b0: e613 5b3b b086 8a3e f405 9b3e aa82 393e
000001c0: 4d20 6ebe 53af 543e 4350 0cbe da0b 44be
000001d0: 2eb6 9abe 60b2 0f3d e348 70be 697f a43e
000001e0: 5ace 923e bf41 76be 8603 58be fec6 e7bd
000001f0: 1858 063e 5fde a1bd e1d0 3c3e 0b7a 843e
00000200: 1df7 6fbe 2b95 113e 5557 87be e8a5 7ebe
00000210: 3a81 ff3d 2540 10be a820 de3d 407a 7abd
00000220: 0f36 1a3e bd66 a13e 2eb7 c6bd cf54 c0be
00000230: b123 e3bd df4e 563d 3737 3b3c 1925 9a3e
00000240: 022c 1f3e ffc9 4dbe 6dd4 69be 49ee 733e
00000250: 8de9 d93d 32ea af3e 4d9f 913d 32cb bbbd
00000260: 98d1 b73e a982 5b3e 4655 73bc 053b 573e
00000270: dada a1be 9c3c a2be 48b6 45be 561e 883e
00000280: 43d2 5cbd 2ace 8e3e 10d0 4d3d de76 d33d
00000290: 6cb2 2d3e ff2e 393e 670b f13c 325c 37bc
000002a0: e4eb e63c daa6 663d c75a 273e 5c58 863d
000002b0: 7a83 7c3d 16d2 713d 25d2 a3bc a425 4abe
000002c0: 80ad ae3d a021 81be 70ba a3bd 2383 8a3e
000002d0: 61d8 7dbe e0ce 82bd 4461 033e cee9 033e
000002e0: 9480 b43d f291 00bb 9e74 57be bd4a 903e
000002f0: 9a63 c13d 147f 5ebe 6625 a8bd 966e 7a3d
00000300: b501 863e d20a a6be baae a5be 28fd 5abe
00000310: 77fc a73e 40b0 86be d9ca 8dbe e304 77bd
00000320: f90b 41be 428f 1ebe 4751 7a3e ff82 18be
00000330: 2c7f 943d 1eaf 3e3d 136c a3bd a329 3e3e
00000340: a1ac 423e 0113 a33d bbd1 253c 08cb 293e
00000350: f289 68be c452 643e 1080 8cbc a2f9 8c3e
00000360: 030d 81be 51ef 7dbe 82bd d2bd 044b 733e
00000370: 7461 27be 85ce d2bd c15f cf3c 3126 cabd
00000380: 4b9f f4bd 67ca 773d f35c 89be 4ec1 943e
00000390: f433 8bbe 8a79 4dbe 689a 5dbe e57b 24be
000003a0: b477 0a3d 2427 053e cb52 9e3d b996 783e
000003b0: ada5 8f3e 2c8c 8bbe ea5a 8abe 53b6 d4bd
000003c0: cac5 8abe 7fa2 b7bd 6c73 253e 01eb a83d
000003d0: cfed 763c a8ef c23c a6a4 3dbd 563c 953e
000003e0: f0fc cdbd 0971 2ebe 7637 9cbe edff c63c
000003f0: c850 d23d 146e 80be c571 46be 7a81 3cbe
-0.15990047 -0.00599817 0.22679697 0.11534534 -0.29251125 0.117771134 0.2922864 0.268266
-0.056004398 0.19033305 0.006917952 0.043435942 -0.337805 -0.00091064157 0.3628887 -0.28574517
0.12935412 -0.17614877 0.16848521 0.26052225 -0.2757768 -0.23239261 -0.24958082 -0.32961327
0.32456437 -0.25921583 -0.046138104 0.088498525 0.16223457 -0.32526195 -0.14529312 -0.34002715
0.30337647 -0.036079846 0.31467235 0.021009576 -0.27119124 0.15038303 0.18310012 -0.1727008
0.27707937 0.09981544 0.22625513 0.145872 0.053191446 -0.27384567 0.29107025 -0.13709849
-0.030308716 0.21589294 0.016850421 -0.12850833 -0.34654045 0.1934554 -0.10986464 -0.035049208
-0.2678662 0.18861316 0.08322264 -0.22333768 -0.028643478 0.16023867 0.11163817 -0.29233697
-0.2878058 0.27816272 -0.3066805 0.119955294 -0.3409844 -0.14200526 0.1430429 0.0698985
-0.09239337 0.32422876 -0.2563982 0.17774607 -0.30500913 0.24638352 -0.24647583 -0.13640326
-0.29275766 0.28005534 0.36131805 0.2095277 -0.03029579 -0.16007055 0.09673502 0.12238887
0.012381677 -0.2711054 0.041610077 0.049972754 -0.0007965789 -0.074311905 -0.33552295 0.32157454
-0.21200724 0.35973972 -0.20028594 0.38467336 0.17945127 -0.08663875 0.047451403 0.11872559
0.06289593 0.03407853 0.34418294 0.20541298 0.0033428608 0.27055883 0.3027798 0.1811625
-0.2325451 0.20770006 -0.13702492 -0.19145146 -0.30217117 0.03508222 -0.23465304 0.32128456
0.2867306 -0.24048518 -0.21095094 -0.113172516 0.13119543 -0.07903742 0.18439056 0.2587436
-0.2343411 0.1421706 -0.26433817 -0.24867976 0.1247582 -0.14086969 0.108460724 -0.061151743
0.15059684 0.31523696 -0.097029075 -0.37564704 -0.11090792 0.05232131 0.011426738 0.30106428
0.15544131 -0.20096587 -0.2283494 0.23821367 0.106402494 0.34358364 0.07110462 -0.09169616
0.35902095 0.21436562 -0.014851874 0.21018608 -0.31612283 -0.31686866 -0.19307816 0.26585644
-0.05391146 0.27891666 0.050247252 0.103254065 0.16962594 0.18084334 0.029424382 -0.011191415
0.028188653 0.056311466 0.16343223 0.06559822 0.061648823 0.059038244 -0.019997666 -0.19740921
0.08529186 -0.25220966 -0.079945445 0.27053174 -0.24789573 -0.063871145 0.12830073 0.12882158
0.08813587 -0.001961824 -0.2104058 0.2818202 0.094428256 -0.21728164 -0.08210258 0.06114062
0.26173177 -0.3243013 -0.32359868 -0.21385634 0.32809803 -0.26306343 -0.27693823 -0.060307395
-0.18852223 -0.15484336 0.24445067 -0.14893721 0.072508186 0.046553724 -0.07979598 0.1857057
0.19011165 0.07962609 0.010120804 0.16581357 -0.22708872 0.22297198 -0.017150909 0.27534205
-0.2520524 -0.24798323 -0.10290052 0.23759085 -0.16345769 -0.10293297 0.025314214 -0.09870566
-0.11944445 0.06049576 -0.26828727 0.2905373 -0.27188075 -0.20065895 -0.21640933 -0.16062887
0.033805564 0.13003212 0.07730635 0.24276246 0.28056088 -0.2725538 -0.27022487 -0.10386338
-0.27104026 -0.089665405 0.16157311 0.082479484 0.015071346 0.023795918 -0.0462996 0.29147595
-0.100580096 -0.17035307 -0.30511063 0.024291957 0.10269314 -0.25083983 -0.19379337 -0.18408766

p2iLayer.W f4 [24, 176]
00000000: 3d25 d43d d5a1 513d 14eb c8bc 903f 033e
00000010: 864c 0d3e 8283 ef3d 3ce1 48bd 80ca e13d
00000020: aef3 823b e1ce f3bd 36a8 2b3e a32a 22be
00000030: 65b9 e6bd 46a2 713d 0526 c8bc c992 b93d
00000040: 665f 19be d5e6 013e 62a2 8b3d f4b7 c7bc
00000050: 8ec6 e63d 01bf 35be 5f6c d13d 79b9 7dbb
00000060: 4cc0 623d 39dd 093e 09a4 02be 19d7 e4bc
00000070: 7cff e9bd d428 573d 39d9 f03d 09d7 c13c
00000080: 9e73 28be c672 ef3d 5379 023e e461 d9bd
00000090: d2b5 d43c fa94 2c3e 9703 7fba 557e debb
000000a0: ad0a c23d 0eda a3bb 828d d23a 2598 2bbc
000000b0: 1446 4bbc ddf4 cc3c 40de 3abe 6469 b83d
000000c0: 92fc 2dbe e45f 8dbc 3b92 f0bd 9232 e8bc
000000d0: 5c46 96bd 3e7d 23be 73a0 7a3d 0102 d6bd
000000e0: 2dfb ce3d 58c3 60bd 4e07 1bbe 8eef ad3d
000000f0: cc07 0cbe c3c4 89bd 5840 a83d 60fa 44bd
00000100: 8281 a6bc ea63 38bc c77d bf3d 8e20 8c3d
00000110: 0617 293e a5fb 16be 08c3 373d 4959 e9bd
00000120: 9aa4 9dbd df88 f33c 46ea c23d 1d7e afbd
00000130: c3b7 08be e3d0 06be 1467 593c 3a9e 733d
00000140: 20d0 173e 2ea6 20be 9caf 183d 59d5 043e
00000150: 6511 9cbc c4ac 06bd c927 d53d fec7 10bd
00000160: 1806 393c 7c1f ff3d 990c ccbd 8d79 ed3d
00000170: a8de 13be b159 14bc 0676 513c 4021 39bd
00000180: 0408 98bd a726 ff3d 7051 cfbd d27c 8ebd
00000190: a42b a1bd 3d93 033e 1e7c e93c 4f33 96bd
000001a0: f96f 203e 0d55 273e e400 ffbd b167 883c
000001b0: a64c ad3c 8c3d 4fbb 965a 52bd f00d 7d3c
000001c0: 6262 90bd e94a d2bd 7435 02bc 2615 52bd
000001d0: 9610 5a3c 9738 3cbe 6378 fe3d 6507 c3bd
000001e0: 4f3d 90bd 2f5b 8bbd ed64 3d3e 24cf 203d
000001f0: 1019 0abe 96c3 6a3b 8b43 113e 075a 363d
00000200: d257 2e3d f74b 033e 338b 0e3e 6a43 653d
00000210: a372 6c3d a7f4 713c 0c45 b03b f937 afbd
00000220: f060 523c cf46 123e 1005 a23d 2a49 623d
00000230: a995 83bd 2031 1cbe c6d9 eabd c4c9 493d
00000240: 5e91 32bc 2257 29bb 9286 e83d f969 93bd
00000250: 5baa a6bd 2491 a8bc 4a0f 9fbd 9b61 f4bd
00000260: 7f9d 3bbd 4a23 86bc c9ec c53d 4dc6 bdbd
00000270: 4db9 fabd b6f3 e73d ad73 e03c f5b8 0cbe
00000280: c521 dd3b 7f1d f53d 57d4 dbbd 4578 9c3c
00000290: 56b5 ab3c 3262 e9bd dcbf 453d bae7 64bd
000002a0: 82b9 b7bd 17dd babd ca22 153e 8c74 0d3d
000002b0: fa75 933d bcd9 aebd d030 39bd 018e b2bc
000002c0: d81f d1bd be73 c5bd 0cd9 063d fca7 43ba
000002d0: 73eb c9bc a6c3 c8bd aaea 8b3d 81d1 c23d
000002e0: ea00 35bd c52f 153c c100 a13d a41c 273e
000002f0: 386a 5abd a326 d83b 1018 7b3d 9f1f ed3d
00000300: 4f2d bf3d d435 593c 9575 0d3d 7c82 a8bd
00000310: dc35 22be d25d 7a3c c9be 1dba 5bda 803b
00000320: 8e60 6a3d 5241 fcbd 5c75 c23d 9cc2 41bd
00000330: 8105 ea3d 7374 87bd 5e59 d7bd 0ee5 0c3e
00000340: 44b6 19bc 3afb bb3d b5e9 35be e353 bb3d
00000350: e391 883d e687 b93d 98b7 b6bc d6e7 18be
00000360: cecb 24be 57db 73bd 6a2a c1bd 1c16 a83d
00000370: 77fd 113c e027 4c3e 3272 e93d 5a54 cebd
00000380: c85b 9dbd 3121 20be 416c 873d 4f09 78bd
00000390: 3d1a 97bd d6ed 0bbe 10d1 bdbd 5f49 02be
000003a0: 7660 da3d cd40 233e 658e 713d 5165 fbbd
000003b0: e06c ef3d f844 f33c 13d6 423e 18d5 9a3d
000003c0: 2c7b d43d 3961 03be e980 b23d bbcd 70bb
000003d0: 1b23 06be 4638 c9bd e4d1 a3bc 4c4d c23d
000003e0: 6b5b 39be 6f9e ebbd 9085 043d 0483 12be
000003f0: 52e3 413e 129b 17be 7d24 0f3d cb66 8ebd
0.10358665 0.051179726 -0.024526156 0.12817216 0.13798723 0.11695005 -0.049042925 0.11024952
0.003996334 -0.119046934 0.16763386 -0.15836577 -0.1126583 0.058992647 -0.024432192 0.090612
-0.14977798 0.12685712 0.068180814 -0.024379708 0.1126834 -0.17748643 0.10225748 -0.0038715287
0.05535917 0.13463296 -0.12757887 -0.027934598 -0.11425683 0.05252917 0.11760182 0.023662107
-0.16450354 0.11691813 0.12741594 -0.10614374 0.025965605 0.16853705 -0.0009728013 -0.0067899623
0.094746925 -0.0050003594 0.0016063901 -0.010473286 -0.012406845 0.025019104 -0.18248844 0.09004477
-0.16990879 -0.017257638 -0.11746641 -0.028344426 -0.07337639 -0.15965745 0.061188173 -0.10449601
0.10106502 -0.054873794 -0.15139505 0.08492957 -0.1367485 -0.067269824 0.082153976 -0.04809034
-0.020325426 -0.01125429 0.09350162 0.06842147 0.16512689 -0.14744432 0.04486373 -0.11393983
-0.07697411 0.029728351 0.0951734 -0.08568976 -0.1335135 -0.13165621 0.013269205 0.05947707
0.14825487 -0.15688393 0.03727685 0.1297201 -0.019051263 -0.032879606 0.10407979 -0.035346977
0.011292957 0.12457177 -0.0996334 0.115954496 -0.14440405 -0.009054587 0.012784487 -0.045197725
-0.07423404 0.12458544 -0.10122955 -0.06957401 -0.07869652 0.12849136 0.028501566 -0.07334005
0.15667714 0.16341038 -0.12451342 0.016651006 0.021154713 -0.0031622378 -0.05135592 0.0154452175
-0.07050015 -0.10268194 -0.0079473145 -0.0512897 0.013309618 -0.18380962 0.12425306 -0.09522895
-0.07042944 -0.06804501 0.18495531 0.039260045 -0.13486123 0.0035822145 0.14185922 0.04451945
0.04256422 0.12821947 0.13920288 0.055972494 0.057726514 0.014767802 0.005379325 -0.08555598
0.0128404945 0.14284824 0.07911122 0.055245556 -0.0642503 -0.15253115 -0.11467318 0.049264684
-0.010898916 -0.0025839289 0.11353792 -0.07197947 -0.081379615 -0.020577021 -0.07766588 -0.11932679
-0.045804497 -0.016374249 0.09664304 -0.092663385 -0.122423746 0.11325781 0.027398909 -0.1374243
0.0067484104 0.119685166 -0.1073386 0.019100318 0.020960491 -0.113956824 0.048278674 -0.055885054
-0.0897093 -0.09124201 0.14564052 0.034534976 0.072002366 -0.08537623 -0.045212567 -0.021796228
-0.10211152 -0.09641217 0.032921836 -0.0007463691 -0.024648404 -0.09802942 0.06831868 0.09512616
-0.044190325 0.009105627 0.07861472 0.1631952 -0.053323954 0.0065964027 0.061302245 0.11578297
0.09334814 0.0132574625 0.034535963 -0.08228013 -0.15840858 0.015281158 -0.0006017504 0.00393228
0.057220988 -0.12317146 0.09495041 -0.047304735 0.11426831 -0.06614008 -0.10515092 0.13759252
-0.009381834 0.09178777 -0.17764933 0.091468595 0.06668451 0.09059124 -0.022304341 -0.14932188
-0.1609337 -0.05953535 -0.09431918 0.08207342 0.008910528 0.19937086 0.11398734 -0.100746825
-0.076835215 -0.15637662 0.06612445 -0.060555752 -0.073780514 -0.13664946 -0.09268391 -0.12723301
0.1066293 0.15942688 0.05897369 -0.12275184 0.11690688 0.029695973 0.19026975 0.07560176
0.10375056 -0.12830056 0.08715994 -0.0036743719 -0.13099329 -0.098251864 -0.019997545 0.094873995
-0.1810128 -0.11504828 0.032353938 -0.14307791 0.18934372 -0.14805248 0.034946907 -0.069532

p2iLayer.a f4 [352, 1]
00000000: 39a2 6c3d 8726 10be a1f2 ff3c 1b50 b0bc
00000010: 6a1c a8bd 0513 02bd be80 463e c628 9e3c
00000020: d7b3 3dbd fbad 3ebe e71f 01bc 1977 273d
00000030: 7026 2d3e 3a96 cebc 2016 17bd cca7 5c3d
00000040: 3eb3 6b3c 3b0e 0bbe 4b75 86bd 806e 593d
00000050: 7c79 f1bd 1d6f 283b e62d cf3d e03a 03bd
00000060: 0fc5 173e 4d0c 123d cc4e 65bd 5f14 bdbb
00000070: a3b5 0e3e f0bf 0c3e bdda e2bd b846 8cbc
00000080: 1ee5 853d fcac 0e3d 8100 2f3d 6fa6 8a3d
00000090: b4e4 c3bd 6756 1d3e f576 d83c 4086 193e
000000a0: 1303 59bd f5e6 553d e0ec d4bd 8f85 c53d
000000b0: 26ee 94bb f319 48ba f613 413d 3f2f 7bbd
000000c0: ff24 bdbd bc1e c63d 2c7d 1bbe ee9b 20be
000000d0: 4ae8 603d 15d3 5ebc 1196 05be 9729 553c
000000e0: 55c8 ca3b c8d7 4e3d 5cb5 81bd 44ed 033e
000000f0: 8ad2 03bd d237 ee3d f515 a4bd cc0b 29bd
00000100: 52ad 85bb 0849 6c3d 6fa2 b8bd 3274 7d3d
00000110: d558 333d c987 09be 94a3 263e a9de a33d
00000120: c0e9 313b 0fd2 b2bc 705a 8a3d 142c b1bc
00000130: 9034 7ebd efd3 bd3d c255 1e3d 36b5 733d
00000140: b2a7 03be 6e1c b8bd a82f 20bd 49b1 febd
00000150: 8292 bebd 44b7 f8bc 679e 3fbe d225 9e3d
00000160: 8c85 07bd 758a 20bc 5b15 183e 228e 2a3d
00000170: 15ea 1ebd 00c6 94bd 03e8 953d ab39 2dbe
00000180: 8282 9c3c 72fc d83b 612e 97bd ad9c 0f3e
00000190: 99da 913d 7db4 c43c b133 a0bd f6a7 0e3e
000001a0: 1e6d 45bc 7acf ed3c c6c3 8abd d2b7 8d3d
000001b0: dcab 963d 5ef7 9b3d c17e 00be a842 a2bc
000001c0: d536 343e e6e0 033d fd3e efbd 6c35 793d
000001d0: ca58 d4bc 2dac 19be 161a 00be 2b34 4bbd
000001e0: b282 5a3c ea8c 6e3c fc11 1bbe 8bf1 ddbd
000001f0: ba9a 67bc c0eb 9f3d e15e 45bd 29dc 07be
00000200: 1ae6 81bd a707 44bd 2417 863d f025 cebc
00000210: 7751 343d adc8 39bd 4f6d 69bd 7b96 22bd
00000220: c9d8 ad3b 6e56 d43d 9241 a43d 8c57 ec3d
00000230: 5608 7abd bdfc 9ebd d31c f53d 1f27 bc3d
00000240: 196d 203e 14bb 92bd 950d 07be ee93 e1bc
00000250: c95a 603d c275 29be 4cf7 55bd 0e0a acbd
00000260: 48fe f03c b702 a13d 0c50 c9bd 7720 c1bb
00000270: df19 133e 6bb1 0b3e 9b92 cabd fd85 88bd
00000280: 27c4 38bd 1873 773d 64c8 f23d bdba 78bb
00000290: b7d1 0b3d 0d33 97bd b5f2 093e 4dfc 0dbe
000002a0: 9459 8bbc 1151 22be c3ec 233e 2f04 313d
000002b0: 4561 583e f8b2 aa3c 5920 613b e1b7 0e3e
000002c0: ceac f2bd 284e 563d c9f4 b4bd e8c4 963b
000002d0: aa89 bc3c 78b0 53bd e854 d13d 54a6 a43d
000002e0: ccfe e6bd 1795 c2bd 6942 023d f2c1 98bd
000002f0: 38d8 01be 984c ef3d 2ead 7b3d 5802 b3bc
00000300: 2e4a 09be 7a59 983d 0e11 ad3c dcd5 633b
00000310: 6ba5 dcbd 8674 993d 8061 cb3c 2ba6 7cbd
00000320: b891 153d 620a debd 2e8b b53d eed2 0abe
00000330: 8bf7 b1bd a05e bbbd 9d4b ab3d ae47 833d
00000340: 906f 5a3d 1da5 b73d 4619 ab3d 8897 a0bd
00000350: 4454 f3bb a6ce 26bd 7ac9 95bd 6395 4abc
00000360: 6bd2 303d 67ff 2a3d 12d1 49bb 41e5 1cbd
00000370: 4fc2 fe3a 568e 853d 6dcb 82bd d46b afbd
00000380: f34f d8bc 8c18 033c 8299 6cbd bc30 b0bc
00000390: 070f 15bd e650 afbd b10e 8d3d 523a ae3d
000003a0: d6f1 9e3d 8c22 573c 78d8 f23c d763 a0bd
000003b0: e798 083e 3ca0 2cbd 1ddd c7bc a656 35bd
000003c0: e669 12bc 2404 103d 4e4a 11bd 57d5 2c3c
000003d0: 4f79 333c 10d4 cd3d 1dba b73d f914 f93c
000003e0: 7790 903b b3d5 933c 4682 b83d 4747 293d
000003f0: 9272 27be 3e0c adbd c92d 7dbd 5de1 123e
0.057771895 -0.14077197 0.031243624 -0.021522572 -0.082085446 -0.03175642 0.19385049 0.019306552
-0.046314087 -0.18621056 -0.007881141 0.040885065 0.16909194 -0.025218118 -0.036886334 0.05387096
0.014385996 -0.13579647 -0.065653406 0.053083897 -0.117907494 0.0025700994 0.10116176 -0.03203857
0.14821266 0.035656262 -0.05598335 -0.0057702507 0.13936476 0.13745093 -0.11076877 -0.017123565
0.06537841 0.03483294 0.04272509 0.06770026 -0.09565106 0.15364991 0.02642391 0.14992619
-0.052981447 0.05222221 -0.10396743 0.09644615 -0.004544991 -0.0007633261 0.047138177 -0.061324354
-0.09235572 0.09673831 -0.15184468 -0.15684482 0.054909028 -0.013600131 -0.13045527 0.013010404
0.006188432 0.050498754 -0.0633342 0.12883478 -0.032183208 0.11631741 -0.080120005 -0.041271016
-0.0040794993 0.057686836 -0.09015357 0.06187839 0.04378589 -0.13430704 0.16273338 0.080014534
0.0027147382 -0.02182868 0.06755531 -0.021627463 -0.062061846 0.09268939 0.038656004 0.059498988
-0.1285694 -0.089897975 -0.03910795 -0.12436158 -0.09305288 -0.030360825 -0.1871277 0.077220574
-0.033086345 -0.009798636 0.14851896 0.041639455 -0.038797457 -0.07264328 0.07319643 -0.1691653
0.0191052 0.0066218907 -0.07381893 0.14024611 0.07121772 0.024011845 -0.07822359 0.1393126
-0.012049941 0.029029597 -0.06775622 0.069198266 0.07356998 0.07615541 -0.12548353 -0.019807175
0.17599042 0.0321969 -0.11681936 0.060841963 -0.025921244 -0.15007086 -0.12509951 -0.049610298
0.013336824 0.014559964 -0.15143579 -0.10837086 -0.014136011 0.078086376 -0.048186187 -0.13267578
-0.063427165 -0.04785886 0.065473825 -0.025164574 0.044023003 -0.045357395 -0.05698901 -0.03969429
0.005305384 0.10368048 0.08020319 0.11540136 -0.061043106 -0.0776305 0.119683884 0.09187149
0.15666617 -0.071645886 -0.13188775 -0.027536359 0.05477408 -0.16548827 -0.052237794 -0.08400355
0.029418126 0.07861846 -0.09829721 -0.0058937627 0.14365338 0.13641898 -0.09891244 -0.06666181
-0.04510894 0.060412496 0.11854628 -0.0037953102 0.034135547 -0.07382784 0.13471492 -0.13865776
-0.017010488 -0.15851237 0.16008286 0.04321688 0.21130855 0.020837292 0.0034351556 0.13937332
-0.11849366 0.05232063 -0.088357516 0.00460111 0.023014862 -0.051681966 0.10221273 0.08039537
-0.112790674 -0.09501093 0.031801615 -0.07458867 -0.12680137 0.11684531 0.061444454 -0.021851704
-0.13407204 0.07438941 0.021126296 0.0034764921 -0.107737385 0.07492928 0.024826765 -0.061681908
0.03651592 -0.10841824 0.08864437 -0.13557026 -0.08689793 -0.09148908 0.083640315 0.06410156
0.05332905 0.0896704 0.0835443 -0.07841402 -0.0074258167 -0.04072442 -0.07313819 -0.012364718
0.04316942 0.041747477 -0.0030794782 -0.03830457 0.0019436571 0.06521289 -0.06386457 -0.085654885
-0.02640531 0.008001458 -0.057763584 -0.021507613 -0.036391284 -0.08560352 0.06887568 0.085072175
0.0776097 0.013130795 0.029644236 -0.07831543 0.13339578 -0.042145 -0.024397427 -0.044272088
-0.008936381 0.0351602 -0.035471253 0.010548911 0.010954215 0.10050213 0.08971045 0.030405508
0.004411753 0.018046236 0.09009223 0.04132774 -0.16352299 -0.08449601 -0.061811242 0.14343782

intersectionLayer.W f4 [48, 46]
00000000: 9298 79be 019c d4bc 0beb c3bd 82dc 853d
00000010: 9ecf 34bd 3344 a13d 2409 c43d 34b4 10be
00000020: 9027 a23d c541 ccbd c9d6 43be cb90 1fbc
00000030: 8652 923d 096f d7bd fa8a 123c 96e1 2e3d
00000040: 7b9e 7bbd d909 0cbe 6c10 32be 9ccc 2abb
00000050: 20f0 233e 52cd f13c c6d4 58be 7977 073e
00000060: e5bf 0fbe aa50 0a3e bd6b 6b3e 1d79 043e
00000070: 3c3f ccbd 2f92 4bbe ff0b debd 3810 13be
00000080: e1fd 78be 10bd d33d bfc1 9ebb 2f8e 5a3e
00000090: bf35 b43d 54b0 8b3e 3ad6 7dbd da51 4bbe
000000a0: 1b2b 313e 83a6 96bd f4d7 1cbe 22f9 463e
000000b0: ab00 00be 54a7 acbb 8e74 1abe 7d8e aa3d
000000c0: 3db1 1f3e 7f93 423e b391 2fbe 98cd fdbd
000000d0: cd35 c73c 902e 6a3d 4ca8 4b3e 26b7 223c
000000e0: ef9f 07be 7b1b 4bbe cb69 34be 5d8d 913e
000000f0: 671c 8fbe ab18 81bd 367d 823e 4b4f 25be
00000100: 8e8f e63d 7196 033e b699 11bd c9a8 7dbd
00000110: be1e 75bd abf3 a8bc 30a1 763e 8c74 a2bd
00000120: 8431 813d c93a 0bbe ebfe 92bd 29d1 9ebc
00000130: 42a6 5a3e 1eec 6ebe b94b a63d de68 0abd
00000140: 6832 a83c d4e3 153d 3bcf cb3d 113d 233d
00000150: 2612 a33d b6f0 58be 388a e93d f038 21be
00000160: 5568 9b3d 73f2 62be 102a fb3d edc6 79be
00000170: bcec 3bbd 21e1 003d 35be 053e 7793 493e
00000180: 87d9 203e 8c0e 443e da9e eabb fdb6 693e
00000190: 07ad 88be 5b1a 38be 21d9 723c 423e d3bc
000001a0: 616c 1bbd 95ae 18be 6492 a0bd 16a9 443e
000001b0: 3eb6 2ebe 1540 59be 84f9 efbd 8713 04be
000001c0: bec2 11bd ee04 4f3e b1ef 3e3c 5615 643e
000001d0: 3785 e33d 7b08 3ebe c88f 843e 9b8a a5bd
000001e0: a0dd 19be 28c9 17be e7b0 a8bc 1303 6fbd
000001f0: 0c31 50bc 548c c13d 52fc b3bd 9bf1 403e
00000200: e273 dbbd af8b 6dbc 466b 02be 2ee6 e93d
00000210: e03e 9c3c 177e 7dbe b45c 3cbd dba6 2cbe
00000220: b97a 803d 3ee1 1d3e 8770 2ebe e863 14be
00000230: a2ea 38bd db32 243e d0f7 5dbe f646 a53d
00000240: cec0 1b3e 7405 07bd c1db 143e 6d42 0b3e
00000250: 727f 383e 4b2e 1fbe ef21 483e a259 20be
00000260: 9603 46be 3662 2f3e 5527 2bbe ed08 843d
00000270: 7405 773e 4448 3cbb 2beb 7a3e 5b20 67bd
00000280: 2075 7a3d c4d9 4a3e f509 853d edc6 4cbe
00000290: 65b4 6ebe f7f9 47be d925 beba 1e7e 6f3d
000002a0: 9862 3d3e 2c7b 533e 001d 8cbd da8a c6bd
000002b0: 7ecb 133e 1fe0 f0bd 3c3e fb3d 5e4d b93c
000002c0: c655 56be 8335 2a3e 4120 7abe d13d 343e
000002d0: 0aec 1dbe 45f0 8a3d 4efb ecbb de5d 8b3d
000002e0: 4082 823b e477 173e 3f24 3cbe 1be1 9dbd
000002f0: 0c47 afbd 565d 823e e1ff 0a3e be87 213d
00000300: 1562 59be eec9 773c 864b 8bbd 1bb8 233d
00000310: 8d0d 8fbd f38e 03be 9769 173d 3b4b 05be
00000320: c173 48be 14d6 69be 4227 42be 88d6 583e
00000330: 2016 d63d 1bd7 423e 1334 5cbd bebd 713e
00000340: 6017 0a3e 2037 0a3e 6c68 cd3d 9a2b c8bd
00000350: 2809 053d 28a4 2a3d 184d 6c3e 1aee 5c3d
00000360: 71eb 673c 3720 a33d 0e78 18be 281d 96bd
00000370: 0222 713d be0f b4bd 3ea9 8b3d 8763 47be
00000380: 01dc 613e f44f 3c3e 06c0 583d 5c9d dabd
00000390: 52f8 db3d e7a4 243e 1c0b a13d e989 b6bd
000003a0: b05a a3bd 8c30 103e db91 a9bd 2171 6dbe
000003b0: 5f2d 1bbe d57f f3bd 8c0e d939 16e7 bc3c
000003c0: 178e f2bd da67 cb3d e03b 75bd 1899 153d
000003d0: fb26 333d b25e d93b 06b1 c1bc b17a 77be
000003e0: 56db 0ebe 983c aebd 2785 54be 8489 433e
000003f0: b507 bf3d 4cd8 c6bd e4cf 5cbc 16f8 3d3e
-0.24374607 -0.025953295 -0.09566315 0.06536199 -0.04414331 0.07874336 0.09572056 -0.14131242
0.07917702 -0.09973482 -0.19124903 -0.009739111 0.07144646 -0.10519225 0.008944267 0.042695604
-0.061430436 -0.13675632 -0.17389077 -0.0026061898 0.16009569 0.02951685 -0.21174917 0.13229169
-0.14038046 0.13507333 0.22990318 0.12936826 -0.099729985 -0.19879983 -0.10842132 -0.14361656
-0.24315597 0.10338795 -0.0048448737 0.21343301 0.08799314 0.27282965 -0.06197188 -0.19855443
0.173016 -0.07355978 -0.15316755 0.19430974 -0.12500255 -0.0052689705 -0.15083525 0.08327959
0.15594955 0.19001578 -0.17145424 -0.123927295 0.024317646 0.05717331 0.19888419 0.009931361
-0.13244604 -0.19834702 -0.17618482 0.28428164 -0.27951357 -0.06303533 0.25486153 -0.16143529
0.1125785 0.12850358 -0.03554698 -0.061928544 -0.05984377 -0.020624002 0.24084926 -0.07932386
0.063082725 -0.13596644 -0.07177528 -0.019386845 0.21352485 -0.23332259 0.08119912 -0.033791415
0.020531848 0.036594227 0.099516355 0.03985316 0.07962446 -0.21185574 0.11403316 -0.15744376
0.07588259 -0.221628 0.12263882 -0.2439229 -0.045880064 0.0314647 0.1306084 0.1968516
0.1570798 0.19146174 -0.00716005 0.2282371 -0.2669451 -0.17978804 0.014822275 -0.025786523
-0.037945155 -0.14910348 -0.07840422 0.19205126 -0.17061707 -0.21215852 -0.11717513 -0.12898074
-0.03558611 0.20216724 0.011653827 0.22273764 0.11109393 -0.18557923 0.25890946 -0.080830775
-0.1502595 -0.14822829 -0.020592166 -0.05835254 -0.012707006 0.094505936 -0.08788361 0.18842165
-0.10715462 -0.014498635 -0.12736234 0.114208564 0.01907295 -0.2475513 -0.045986846 -0.16860525
0.062734075 0.15417954 -0.17035113 -0.14491236 -0.04514564 0.16035025 -0.21676564 0.08070175
0.15210268 -0.032964185 0.14536954 0.13599558 0.18017367 -0.15545003 0.19544195 -0.15659192
-0.19337305 0.17127308 -0.16714223 0.06447015 0.24123174 -0.0028729597 0.24503772 -0.05642734
0.061146855 0.19809633 0.0649604 -0.19997759 -0.23311003 -0.19528948 -0.0014507129 0.058469884
0.18494642 0.20652455 -0.06841469 -0.096944526 0.14433095 -0.11761498 0.1226773 0.0226199
-0.20931157 0.16621976 -0.24426366 0.17601706 -0.15422073 0.06784109 -0.0072321063 0.06805013
0.003982812 0.14791828 -0.18373202 -0.07708951 -0.08558473 0.25461835 0.13574173 0.039436094
-0.21228822 0.015123827 -0.06801514 0.0399705 -0.069850065 -0.128475 0.036965933 -0.1301698
-0.19575407 -0.2283557 -0.18960288 0.21175587 0.10453439 0.19027369 -0.0537606 0.23607537
0.1348548 0.13497591 0.100296825 -0.09773941 0.032479435 0.041660458 0.23076284 0.05393801
0.014155255 0.07965129 -0.14889547 -0.0732978 0.058870323 -0.08792065 0.0681939 -0.1947156
0.22056581 0.18389875 0.052917503 -0.10674545 0.10740723 0.1607853 0.07863447 -0.08913023
-0.07976282 0.14081019 -0.08279773 -0.23187687 -0.15154026 -0.118896164 0.00041400304 0.02305941
-0.11843508 0.099319175 -0.059871554 0.036522955 0.043738347 0.006633603 -0.023643982 -0.24167897
-0.13950858 -0.08507651 -0.20753919 0.19095427 0.09327642 -0.09709224 -0.013477299 0.18551669

neighborLayer.W f4 [6, 32]
00000000: 3619 233d a828 bf3e 5944 e1bd be1d 4d3d
00000010: 5654 6a3d 92aa a5be f376 3fbb d528 d9bd
00000020: ad47 643e 492b ec3c cf8f 973e a349 023e
00000030: 21d3 be3e 9538 31bc dece 8bbe cc4b aebe
00000040: dc7e 87be 83cd ce3e 76b4 94be 67b2 a2bd
00000050: 61c5 163e 6585 8f3e 4957 413e 0064 953d
00000060: d8f8 7d3d e26b 9d3e dad6 863d 17b5 843e
00000070: a07d 4cbd e43e 983d 5be8 443e d1ae db3c
00000080: 317f fabc d3ea 9f3e 692f e13e 7dc1 9fbd
00000090: 1b21 e03e 4264 463e 20c4 9c3d def1 86bd
000000a0: 228e 503e 39dd 75be ee05 db3d 3bfb 1e3e
000000b0: 2329 28bd 9971 a6be 9c99 8d3e 8b9b 81be
000000c0: 1c1b 08bf 9930 c53e 9b6a 03be e25f fd3d
000000d0: f867 313e 4c25 743e a6c3 f1be b916 3a3e
000000e0: b6c1 723e 8bc1 b0be 2c49 bd3e 88b2 8fbe
000000f0: af8d e03e 835d f2be 1dcb a3be 2b74 b03e
00000100: a2d9 adbe ea59 1cbe cacd cf3d 0bc6 af3d
00000110: a6bf 35bc 9c6a d2be f429 13bd 17c2 a2be
00000120: 70a6 b0be cb49 633e 69d8 b03e f353 53be
00000130: 01cf 6cbd 66a2 a83e 962a b33e 28fb 8bbc
00000140: ab4c 90be 022b 81be 3ef1 25be b036 74be
00000150: 16dd f63d e3a6 913e 39e0 383e 08c5 82be
00000160: 7adf 75bd 102c 8c3e 3f2e 813e c988 dbbd
00000170: fd6b 38be f42c b1bd 51c9 1cbd f358 0abe
00000180: 2e09 833e b493 4a3e e8f5 c7be 2205 b23e
00000190: 3420 acbe 35ef 853e 601d c83d cbf1 4ebd
000001a0: 02de 67bd 43e4 9f3d 5119 6d3e ba86 78bd
000001b0: eee9 093e b52b 1abe 91aa 473e 88ba a5bc
000001c0: a0ca 94be 1801 97bc 2727 0939 29ca 3b3e
000001d0: a5b5 763e 3845 71bd b602 eabe 6c04 2e3e
000001e0: c1f5 b2bd 74c2 cabb 409d 9cbd e91b 793e
000001f0: bd3f 6cbe eab4 0a3e 2e85 b9be 4757 143e
00000200: d6f0 c9be 35f3 75be 3f62 e2bb b598 8e3e
00000210: 93fa 2ebe 0540 b03e 7ac2 88bd db87 813e
00000220: d11e 8cbe a4a6 94be 0ec3 703e 35ed 093d
00000230: 6161 3cbe ae9e cdbd 9074 993d 5acb 1a3e
00000240: 2697 1e3e 16d0 ea3d 9ec0 cbbd b74f b7be
00000250: 8d42 f93d 8472 6f3e 66f5 973d e132 433e
00000260: bb3a 55be 59d7 a9be cba6 b13e 2c07 9abe
00000270: 35fd ac3e 6a03 80bc 1c88 8dbe 49fe 603e
00000280: 4ced 943e 051d acbe ec40 d2bd 3355 c83e
00000290: 8c6f 743e b6a3 893e e119 c6be dfb0 d8bd
000002a0: 68b8 ec3d 80bc a33e c278 20be 9547 90bc
000002b0: c6dd e13e da61 213e 73cd 513d 3cc4 45be
000002c0: e580 fe3d d17d 8e3e b8f0 8e3d d3ef 8cbc
000002d0: cf30 0d3d 905a c53d 12c2 6e3e d137 13be
000002e0: c873 893e c5ae a6be 03ee c9bd 2563 3fbe
000002f0: 0f4e 503e 8d85 8ebd d856 b1be 2b7d 38bd
0.039818965 0.37335706 -0.109993644 0.050077192 0.057209335 -0.32356697 -0.0029215186 -0.10603491
0.22292967 0.028829234 0.29601905 0.12723403 0.37270454 -0.010816713 -0.27306265 -0.34042203
-0.26463974 0.40391168 -0.2904393 -0.07944184 0.14723732 0.2803146 0.18880953 0.07294464
0.062004894 0.3074637 0.065839484 0.2591941 -0.049924493 0.074338704 0.19229262 0.026816757
-0.030578228 0.31233844 0.43981484 -0.07800577 0.43775257 0.19374183 0.076545954 -0.06589101
0.2036672 -0.24010171 0.106944904 0.15525524 -0.041054856 -0.32508543 0.27656257 -0.25313982
-0.53166366 0.3851364 -0.12833636 0.12371804 0.17324817 0.23842353 -0.4721958 0.1817273
0.23706707 -0.34522662 0.36969888 -0.28065896 0.43858096 -0.4733697 -0.319909 0.3446363
-0.33955103 -0.15268674 0.10146673 0.085826956 -0.011093056 -0.41096961 -0.03592868 -0.31788704
-0.34501982 0.22196119 0.34540108 -0.20637493 -0.0578146 0.329364 0.34993428 -0.017087534
-0.28183493 -0.25228125 -0.16205308 -0.23848987 0.120538875 0.28447637 0.18054284 -0.25540948
-0.060027577 0.27377367 0.25230595 -0.10719449 -0.18009944 -0.08651152 -0.038277928 -0.13510494
0.2559294 0.19782907 -0.390548 0.3476954 -0.3361832 0.26159063 0.09771228 -0.05052356
-0.056608208 0.07807209 0.23154189 -0.06067536 0.13468143 -0.15055735 0.1949866 -0.020230547
-0.2906084 -0.018433139 0.00013079924 0.18338837 0.2409273 -0.058903903 -0.45705193 0.16993874
-0.0873828 -0.0061877314 -0.076471806 0.24327053 -0.23071189 0.13545576 -0.3623442 0.14486419
-0.39441556 -0.24018557 -0.0069086845 0.2785088 -0.17087774 0.34423843 -0.066777185 0.25298962
-0.2736726 -0.29033387 0.23511907 0.033673484 -0.18396522 -0.100400314 0.07492936 0.15116635
0.15487346 0.114654705 -0.09948848 -0.35803005 0.12170897 0.23383528 0.07419853 0.19062378
-0.20823185 -0.3317211 0.34697565 -0.30083597 0.33786932 -0.015626628 -0.27642906 0.21972002
0.29087293 -0.3361589 -0.10266289 0.39127502 0.23870677 0.26882714 -0.3869162 -0.105806105
0.1155861 0.31979752 -0.15671065 -0.017612258 0.44114512 0.15759984 0.051221322 -0.19313139
0.124269284 0.27830365 0.06979507 -0.0172042 0.034470376 0.09636414 0.2331622 -0.14376761
0.26846147 -0.32555214 -0.0985985 -0.18690164 0.20342277 -0.069590665 -0.3463657 -0.045041244

neighborLayer.a f4 [64, 1]
00000000: fa11 3f3e cedb 81be d1b6 c0b9 7241 2dbe
00000010: 82a6 bcbc 26df 613b d0bb b739 20ca 163c
00000020: f6d5 84be 6266 673e acd4 9c3d d3ab e0bd
00000030: 5c63 633e 220c 253e 2d41 aebb d1a6 8cbd
00000040: ae88 293e 70c9 ff3c cea5 db3d 48ed 17bd
00000050: e757 0f3e 8cb2 5abd 4d1d c23d b35b b63d
00000060: 4d24 e33d f0e6 48be fbeb 14be 8da7 aebe
00000070: e085 2f3e 0b16 7abe 5774 493e d2ed 3dbe
00000080: a507 2c3e 53d9 913e 0735 33bd a6c5 7dbd
00000090: 412d 0abe 796e 4abd 9f96 1ebe df7f 453e
000000a0: 83a9 3f3e 5157 293e 665a 113e 61aa 63be
000000b0: 9223 d3bd c851 75be 5fb5 003e bb54 ba3d
000000c0: ce1e 6d3e 1a49 0a3e 69a1 f2bd 2ae4 79bd
000000d0: 0a30 c83c ee21 39be 5935 f53c 9232 963e
000000e0: 6452 0ebe 27e4 253e e513 443e 17f9 36bd
000000f0: 7f51 abbd 8b68 febd ed1c 533c 7c90 09be
0.18659201 -0.2536301 -0.00036757303 -0.16919497 -0.023028616 0.0034465282 0.0003504441 0.009203464
-0.2594449 0.2259765 0.076577514 -0.10970273 0.22205871 0.1611791 -0.005317828 -0.06867755
0.16556045 0.031223983 0.10724984 -0.037091523 0.13998376 -0.05339293 0.09478245 0.08904209
0.11090908 -0.19619346 -0.14543144 -0.34112206 0.17140913 -0.24422471 0.19673286 -0.18547752
0.16799791 0.28486118 -0.043751743 -0.06195607 -0.13493825 -0.04942176 -0.15487145 0.1928706
0.18717007 0.16537215 0.1419464 -0.22232963 -0.10309519 -0.23956978 0.12569188 0.09098192
0.23156282 0.13504449 -0.11847193 -0.06100861 0.02443697 -0.1807935 0.029932665 0.29335457
-0.13898617 0.16200314 0.19148214 -0.044671144 -0.083651535 -0.12422284 0.012885314 -0.13434023
