test/model/actor_4_3_3_3_2_44_best_rou3.pth (torch, 689372 bytes, 17 tensors)

v2lLayer.W f4 [3, 40]
00000000: d2d3 42be a30d 8bbe 6361 fbbd 93ab 443e
00000010: 87af a93e d97b 73be bf70 bb3e 9c47 70bd
00000020: 38fa aabe f77e 773e efed 12be 2414 223e
00000030: 0f5b 93be 8ab7 d1be dfe2 c63e 1910 9a3e
00000040: 5de9 993e f448 9e3e fa5d 0cbe 0cda 92bd
00000050: 6cae 973e 5e00 d6be 2c71 2a3e aebb 4c3e
00000060: ed14 52bd 3e63 a13e f8fd 9e3e 9070 783d
00000070: 7931 b3be c3d3 a93c d35b 43be ff83 4ebe
00000080: e050 5dbe 16db 2d3d 39fa 88bd 1ef5 f63d
00000090: 8356 c23e 659a bcbd 0657 dd3d e6e4 023e
000000a0: e7aa 8a3e 8c2b 653e 9dc7 9dbc 881b 393d
000000b0: a7e1 453d b69c 613e 2e07 a63c ef7d 553e
000000c0: b9c6 88be 1429 63bd 19e0 98be 5beb 6e3d
000000d0: 0b8a cd3e 204d aa3e 0a85 3e3e f12c 9b3e
000000e0: 80d8 70be 6368 983e e118 e23c 16d9 963e
000000f0: b4ee 52be 9c0a eebe b9d3 b33e 063f 3dbe
00000100: 5782 cebe ae8a efbd 1657 3abd 04db bd3e
00000110: be3f c4bd 6673 9abe 7b65 4ebe ec4c e4be
00000120: 48be e43e 265c 33be fb35 bbbe c955 93be
00000130: b94c 0d3e 0140 bdbc 79ac 12bd dffe 0abe
00000140: 8ade 293d 9444 933e 4c6f 303e 573f cdbd
00000150: 5558 a3bd e51b 203e 50d1 3b3e 8c60 78be
00000160: aecd 55be e5d6 16be 668d e7bd 095f 9dbe
00000170: 44aa ba3e 6e60 24be bf2f c3bb 804d 3cbe
00000180: d608 a13e f7bc dfbd 202f 253d 1efe 6a3e
00000190: 4aa3 a3be 3476 e6bd 1c52 ad3e 08fc 3c3d
000001a0: ad21 a2be fea0 9c3e 9c26 b93e 8c91 0d3e
000001b0: 8e61 923d 23d9 56be 0457 8c3e 5e1e 43be
000001c0: a8b4 08be d088 303c ce92 60bd 2d72 fdbd
000001d0: 7703 1a3e cfd4 75be b285 7d3e 346f 8c3e
-0.19026116 -0.27158841 -0.122744344 0.19206075 0.3314173 -0.23777713 0.36609456 -0.058662042
-0.33394027 0.24169527 -0.14348577 0.15827996 -0.2878041 -0.40960342 0.38844964 0.30090407
0.30060855 0.30915034 -0.13707724 -0.071704954 0.2962526 -0.41797155 0.16644734 0.19993469
-0.051289488 0.31521028 0.31053138 0.060654223 -0.34998682 0.020730859 -0.19077997 -0.2016754
-0.21612883 0.042445265 -0.06688351 0.12058471 0.37956628 -0.09209136 0.10807614 0.1278263
0.27083513 0.22379893 -0.019260222 0.04519227 0.048310902 0.22032437 0.020267095 0.20848821
-0.26714113 -0.055459097 -0.29858473 0.05832992 0.4014438 0.33261967 0.18605438 0.30307725
-0.23520088 0.2976714 0.027599754 0.29462498 -0.2059887 -0.4649247 0.3512247 -0.18481073
-0.40333816 -0.11696373 -0.045493208 0.37081158 -0.0958247 -0.30166167 -0.20155899 -0.44589937
0.44676423 -0.1751562 -0.3656462 -0.28776386 0.13798799 -0.023101809 -0.035809014 -0.13573788
0.041471995 0.28763258 0.17229956 -0.10021847 -0.079758324 0.15635641 0.18341565 -0.2425558
-0.20879242 -0.14730413 -0.113062665 -0.3073657 0.36458027 -0.1605241 -0.0059566195 -0.18388939
0.31452054 -0.10924714 0.040328145 0.229485 -0.31960517 -0.11253014 0.33851707 0.046138793
-0.31666318 0.30591577 0.3616227 0.13825053 0.07147513 -0.20981269 0.27410138 -0.19054553
-0.13350165 0.010774806 -0.054827504 -0.12375293 0.15040384 -0.24006961 0.24758032 0.2742859

v2lLayer.a f4 [80, 1]
00000000: 4ac0 68be 8a6e 163d fb66 e83d b083 72be
00000010: 5d90 4ebe d25e b3bd 3ef9 553e 13d5 95be
00000020: 4502 74be ff42 78be 65b3 15be 17af 23be
00000030: e97a 6cbe e8fe 9ebc 20f7 41be dc59 74be
00000040: 1ce0 6e3d 718b 5fbe 2c00 c0bd c741 013e
00000050: c09c 513d 5ce0 4e3e 098f c2bd d043 8b3e
00000060: 07c2 933e b701 653e 33e1 f53d 6011 323e
00000070: 58fa 113e a856 763d 3bbd 88bb 81b6 ca3d
00000080: 7b6a 433d 3582 03be b5af a13e 49f7 ac3a
00000090: 4c64 e5bd 2ea8 aebd 960b 5c3e 5971 fcbd
000000a0: bd1b 67be 230e 0c3e b58b 91bd ca51 eb3d
000000b0: aa49 99bb 645d 77be 99e4 d1bd 7c5f 673e
000000c0: 2680 763c 1d6b 173d 6073 2a3d b2cc 28be
000000d0: b457 e1bd 98d5 113d 940f ec3d c65c 58be
000000e0: 5a35 35bd bc62 05bb 453b 7b3d db5c 36be
000000f0: f501 743e aa09 273e d991 81be b8f8 5fbe
00000100: 5dd3 f1bd 0c77 8a3d 253f 893e 4a87 ff3d
00000110: 8b45 8bbe 6d7d 42be 07eb 1dbe b42a 1dbe
00000120: 9479 5b3d 9268 07be 9126 5ebe b69c 3bbe
00000130: 47e9 b6bd e86c 083e eac6 c13d 7d20 3a3e
-0.22729602 0.036726512 0.11347767 -0.23683047 -0.20172258 -0.0875832 0.2089586 -0.29264125
-0.23828991 -0.24244307 -0.14619215 -0.1598476 -0.23093762 -0.019408658 -0.18941927 -0.23862404
0.058319196 -0.21830536 -0.09375033 0.12622748 0.05117488 0.20202774 -0.09499938 0.27200174
0.2885897 0.22363935 0.12005844 0.1738944 0.14255655 0.060141236 -0.0041729487 0.09898091
0.04770897 -0.12842639 0.31579366 0.0013196255 -0.11200771 -0.085281715 0.21488795 -0.12326307
-0.22569175 0.13677268 -0.07106725 0.114902094 -0.004677971 -0.2415672 -0.1024868 0.22595018
0.015045201 0.036967386 0.041613936 -0.16484335 -0.11003056 0.03560409 0.11526409 -0.2112914
-0.044240333 -0.002035304 0.06133582 -0.17808859 0.23828872 0.1631228 -0.25306585 -0.21872222
-0.118078925 0.06760988 0.26805988 0.12476976 -0.27201495 -0.18993159 -0.15421687 -0.15348321
0.053582743 -0.13223484 -0.216944 -0.18321499 -0.08931213 0.13322794 0.09461768 0.18176456

laneLayer.W f4 [12, 12]
00000000: 213b 913d 03fd a53d 7285 46be 6f1b c53e
00000010: 1077 4abe c518 49bc cf10 c5be 4790 52bd
00000020: 0a34 e4bd 253d 29be 8b6b aebd 0e2b 473e
00000030: 8baa eb3e 0f8e adbe dab3 8b3d 544f f33d
00000040: 2394 5abe c923 dabe 1243 793e 4a82 cd3e
00000050: 599c b03d 7737 9ebc 290e b7be b51e 8c3d
00000060: 21d1 77bd 0cd4 cc3e f3ae 923e d688 1dbe
00000070: ef06 4d3c e572 d8bd 6cf5 413d 38d8 573d
00000080: eb63 bd3e ee58 b0be 06d0 e93e 6d62 813e
00000090: b8f8 42be 1075 a7be 825e a73e 40f1 943c
000000a0: d087 4d3d 2074 adbd 3c73 713e 9ec5 c53e
000000b0: 5efe efbe 5058 9fbd d6c2 a33e 1067 95be
000000c0: 9699 073e 26d4 77be 563d 443d ffe6 07be
000000d0: 3950 e83e 2f8b da3e 25d3 0dbe 521a 92be
000000e0: 4b40 f0bd 810a 3dbd ab55 303e de0f e5be
000000f0: c968 05bd 6fb0 fcbd 72fe 6dbe 5acb aabe
00000100: 44c3 0d3f 6314 74bb b811 923d 2ce6 883d
00000110: cbdf b4be 93fd df3e 9635 12be 16b9 373e
00000120: 368c b43e c904 c6bd 85e0 3dbe 269a d33e
00000130: 3478 8dbe 56cf ed3d 27b5 87be e33a 3f3e
00000140: 3eb1 80bd 18fd a9be d52b ef3e 165c 613d
00000150: 407c 603e d9d3 a4be 362c 31be 30d8 713d
00000160: 399c b73e f055 4ebe 1cdb e9bd 855e ee3e
00000170: 5995 073f b4cf 8ebe 8b20 cfbe 3572 2cbe
00000180: 0e81 893e 6802 f7be 8642 c23e 28ab ed3d
00000190: ca7d d63e a469 413e f00e d6be 70be f8be
000001a0: dcc7 96be 76b5 d9be c08b 1ebc 5c4c 183e
000001b0: 38be 7cbe 3c71 35be 88b8 01be 1835 6dbe
000001c0: 001e a9be 06fb 8dbe 5c3f 3bbe 1873 96be
000001d0: b01e bb3d 46b9 8dbe eee6 dbbe 6429 63be
000001e0: 78fd d73d 642f b7be 901d 783e da58 bc3e
000001f0: 245c b1be 4aba e3be b0fb 55be 04c0 153e
00000200: 100c 10bd f0c3 f53d 9694 883e ae90 e2be
00000210: 099d 763e 529f 0c3e b025 fb3e b822 dd3d
00000220: a0b2 903e 7e2f b8be ed08 85be d921 073a
00000230: cefe 81be 089c 10be 82f5 b9ba ae16 cf3e
0.07091356 0.08104899 -0.19386843 0.38497493 -0.19771981 -0.012273972 -0.38489386 -0.051407125
-0.11142738 -0.16527231 -0.08516606 0.19450018 0.4602855 -0.33897445 0.06821413 0.11880365
-0.21345572 -0.42605427 0.24341992 0.40138465 0.08623571 -0.019313557 -0.3575299 0.068417944
-0.060502175 0.4000553 0.286491 -0.1538423 0.01251386 -0.105687894 0.047353193 0.052696437
0.36990294 -0.34442848 0.45666522 0.25270405 -0.19040191 -0.327065 0.3268929 0.018181443
0.05017835 -0.08469415 0.23579115 0.38627332 -0.46873754 -0.07780516 0.31984586 -0.29180193
0.13242182 -0.24202022 0.047910057 -0.13271712 0.45373705 0.42684314 -0.13850076 -0.28535706
-0.11731013 -0.046152595 0.1722018 -0.44738668 -0.032570634 -0.123383395 -0.23241594 -0.3335827
0.55376077 -0.0037243597 0.07132286 0.06684527 -0.3532699 0.4374815 -0.14278254 0.17941698
0.35263222 -0.096688814 -0.18542679 0.41328543 -0.2763077 0.11611812 -0.26505396 0.18674807
-0.06283806 -0.33200908 0.4671313 0.05501946 0.21922398 -0.32192877 -0.17302021 0.059044063
0.35861376 -0.2014997 -0.11418745 0.46556488 0.5296226 -0.2789284 -0.40454516 -0.16840442
0.26856273 -0.48244023 0.37941378 0.11604911 0.41892844 0.18887955 -0.4180827 -0.48582792
-0.29449356 -0.42521256 -0.009676874 0.14872879 -0.24681938 -0.17718977 -0.1266805 -0.23164785
-0.330307 -0.27730578 -0.18285888 -0.29384685 0.091367126 -0.27680415 -0.42949623 -0.22183758
0.10546392 -0.35778344 0.24230027 0.36786538 -0.3464061 -0.44478065 -0.20896792 0.1462403
-0.035167754 0.12000263 0.26675862 -0.44251007 0.24083342 0.13732651 0.4905219 0.10797638
0.2826128 -0.35973734 -0.25983372 0.0005154885 -0.25389713 -0.14122021 -0.0014187547 0.4044699

l2pLayer.W f4 [12, 88]
00000000: fd61 e2bd 7a52 64bc 1791 28be 2fa2 47be
00000010: c2f6 613c 81bc 973b efcb 7bbd 0292 86be
00000020: a165 653e 2301 70be 1dfc 0cbd 59fa 113e
00000030: d2cb 51be b07b 07be 0441 1ebb b53d 163e
00000040: 378c 43be b07b 553e 0ee2 503e 459f 58be
00000050: bf1c 4b3e 4687 85bd 2d51 dbbc 29b4 a3bd
00000060: b661 25be 2386 653d 7c8c 493e b165 253e
00000070: f5df 153e 74cf 51be c142 353e 780f 78be
00000080: 8b16 02be a974 843c 61fb bc3d 8d42 023e
00000090: a011 573e 73d7 edbc 6ecf 3a3e ba09 023e
000000a0: 9774 06be 36c5 2a3e 7d94 6bbe 22ba 4abe
000000b0: 1373 6cbe 9764 1abe f5b3 cd3d 84d9 01bc
000000c0: 95c2 38be 364d 0ebe 4972 aa3d 8a1f 543d
000000d0: e788 0a3d cb4c 193e 6d38 9e3c beb7 ccbd
000000e0: 9047 6cbe e5b4 4bbd 9891 e5bc 7c2c a13d
000000f0: d813 3dbe 8afb 1cbe 02b6 923d 47d0 1abe
00000100: 39fc 0c3e bfea 673e 063e d7bd 9e65 873c
00000110: e007 db3c f34e 18bc 8c57 10be 3cfa e8bc
00000120: c9fb aebd 3ca8 12be 2135 c0bd 72a0 13be
00000130: 6f5e 5abe 73dd 7ebd 3f7b b4bd b27d 2fbe
00000140: 18d0 83bd 89e6 11be 0d89 3f3e 44e6 aabd
00000150: 5988 133e 3dfe a5bd 71d6 463e 5141 f13d
00000160: a3b5 793d e3ea 533d c710 75bc 97f9 38bd
00000170: 7728 50be 7250 35be 7bc6 6d3d e4b5 2ebd
00000180: 4bfc 5d3e ec29 233e 3228 afbd 3e65 823e
00000190: 9519 3b3e 416c f63d cbb3 773d a033 69be
000001a0: 6d72 283e f770 153e 08d9 3ebd 1c4d 183e
000001b0: 3e8e 49be cc59 82be 24ce 093e 5725 71bd
000001c0: 27a6 843c 4e0c 363e 6516 47be 2dc7 4f3d
000001d0: 6a6c 12be 4a41 2b3d 402c 2ebd 06b9 4b3e
000001e0: 3c72 a6bd 34e9 e0bd e71b 583d 8080 fdbd
000001f0: dd93 99bc 3a94 433e c9cf f83b fff5 f8bb
00000200: b03f 323e 7eea 653e 5f8c 29be 0c1b 0a3e
00000210: 3738 7b3d 5394 3f3e f17c 0e3e d7ef e5bc
00000220: 56b7 ed3d e38d cebd 2678 1d3c 21a1 4e3e
00000230: e951 3abe 715c 4fbe fc93 403e 5257 623e
00000240: 357b 11bd d93f 80be 85e2 33be d702 403e
00000250: 0198 7e3d 4ac0 5a3e 07c4 a83c a664 ce3d
00000260: de8d 11be 6ef3 95bd f490 493e 4b7a eb3d
00000270: f5fc 193e efa3 1c3e ea67 f13a e808 19be
00000280: a5dc 29be 2aed 363d f682 6a3e ca89 7ebe
00000290: 3c67 c5bc d18d 813e 7a28 153e a4b3 62be
000002a0: 7fa4 0ebe a23f 213e 226e 2dbd 676d f9bd
000002b0: 79bc 1bbe 7d8e 7a3e 5f9a 9e3d 1c6a 0f3e
000002c0: b78c 073e d61a 723d 3b8b 133e 6aca 72bd
000002d0: 01db 20bd 8972 34bc d5a9 01be 45d8 1abe
000002e0: 9b9a c5bd 6b42 51bd b564 08be 6211 ef3d
000002f0: 0920 273d 0a7c cf3d 871f 653e 20a7 74be
00000300: e7f0 bbbd c408 55be 5270 61be f3a8 0d3e
00000310: 09e2 74be e0a5 debc 91be 1c3e c7d1 3abe
00000320: 71f6 013e aff1 c53d 07c1 bbbd f6be 49be
00000330: 2112 5a3d 5395 20be 7df1 a23d 5ee0 51be
00000340: 907f 4fbd d418 c13d 9b67 813d 88cc c13d
00000350: 8146 73bd e74e 233e 9b37 15be 904a ab3d
00000360: 5393 ecbd 3b9a 74bd 9855 353e d8df fabc
00000370: 374f d83d cceb a9bd a084 663e af9e 7ebe
00000380: 3deb 723c d70e 04be 809b e03d 8ab7 75bc
00000390: f7a6 45be 920d 163d a118 dcbd 168e 943c
000003a0: 1cc2 533e b93b 43be 34bd 89bd ac98 52be
000003b0: 6708 26be 45b1 a7bd 7024 f13c 7f10 a83c
000003c0: dfb8 243e b515 ba3d 7620 393e 38f0 02be
000003d0: 75dd 3f3e c603 56be 9be5 583d ba41 573e
000003e0: 6362 b43d 48e1 b73d 9193 a93d 8ff6 cfbd
000003f0: d67d 3c3e 23ce 563e 96ae 00bd fd09 283e
-0.11053846 -0.01393568 -0.16461597 -0.19495462 0.013791742 0.0046306257 -0.061473783 -0.2628327
0.2240205 -0.23437934 -0.03442012 0.14255656 -0.20487908 -0.13230777 -0.002414764 0.14671977
-0.19096456 0.20847964 0.20398733 -0.21154507 0.19835185 -0.06519942 -0.026772106 -0.07993347
-0.16150555 0.056036126 0.19682497 0.16152073 0.14636214 -0.20489293 0.17701246 -0.24224651
-0.12703912 0.01616891 0.09227634 0.127207 0.21002817 -0.029033398 0.1824319 0.12699023
-0.13130413 0.16676793 -0.23005863 -0.19797567 -0.23090772 -0.15077434 0.1004409 -0.007925395
-0.18042977 -0.13896641 0.083225794 0.05178789 0.033821966 0.149707 0.019314015 -0.099959835
-0.23074174 -0.04973306 -0.028023526 0.07869813 -0.18464601 -0.1533033 0.071636215 -0.15118514
0.1376809 0.22648142 -0.10509877 0.016527947 0.026737154 -0.009296167 -0.14095896 -0.028439634
-0.08544118 -0.14321989 -0.093851335 -0.14416674 -0.21325086 -0.06222291 -0.0881257 -0.17137793
-0.06436175 -0.14248098 0.18704624 -0.08344701 0.14407481 -0.08105133 0.1941774 0.11780036
0.060964238 0.051737677 -0.014957613 -0.045159902 -0.20327936 -0.17706469 0.058050614 -0.042653933
0.21678273 0.1593396 -0.085525885 0.25467867 0.18271478 0.120323665 0.0604742 -0.227736
0.164499 0.14593874 -0.046593696 0.14873165 -0.19683167 -0.25459135 0.13457543 -0.0588735
0.016192509 0.17778131 -0.19442137 0.05072706 -0.14299169 0.04181031 -0.04252267 0.198948
-0.08127257 -0.1098198 0.052760985 -0.12378025 -0.018747265 0.19099513 0.0075931293 -0.0075976844
0.17407107 0.22452733 -0.16557454 0.1348688 0.061332908 0.18708925 0.13914849 -0.028068466
0.11607234 -0.100856565 0.009611165 0.20178653 -0.18195309 -0.20250107 0.18806452 0.22103623
-0.03551789 -0.25048712 -0.17566879 0.18751083 0.06215668 0.21362415 0.020601286 0.10077791
-0.14214274 -0.07321821 0.19684201 0.11497935 0.15037902 0.1529691 0.001841781 -0.14944804
-0.16588075 0.04465977 0.2290152 -0.2485725 -0.024097078 0.2530351 0.14566222 -0.2213884
-0.13929938 0.1574693 -0.04234136 -0.1217907 -0.15208615 0.24468417 0.07744288 0.14005321
0.13237272 0.059107624 0.14408581 -0.05927507 -0.03927136 -0.011013635 -0.12662442 -0.15121563
-0.09648629 -0.05108873 -0.13319667 0.116732374 0.040802035 0.101310804 0.22375308 -0.23891878
-0.09176808 -0.20804125 -0.22015503 0.1383398 -0.2391435 -0.027178705 0.1530707 -0.18244086
0.12691666 0.09665238 -0.091676764 -0.19701752 0.053239945 -0.15681963 0.079562165 -0.20495746
-0.050658762 0.09428564 0.06318589 0.09462839 -0.05939341 0.15948068 -0.14571993 0.08363831
-0.11551537 -0.059717398 0.17708433 -0.030624315 0.10561984 -0.08296928 0.2251153 -0.2486522
0.014826593 -0.12896286 0.10967159 -0.014997372 -0.19301973 0.036634035 -0.10746885 0.018134158
0.20679516 -0.19065751 -0.06725541 -0.20566052 -0.16214143 -0.08188108 0.02943632 0.020515678
0.16086148 0.090861715 0.18078789 -0.12786949 0.18736823 -0.20899877 0.052953344 0.21021166
0.08807828 0.08978516 0.08280099 -0.10154449 0.18407378 0.20977072 -0.031416498 0.1641006

l2pLayer.a f4 [176, 1]
00000000: c883 793d cbb2 97bd c321 18be c07b 9dbd
00000010: cc24 433d a1c4 553d e5c0 9dbd 6133 44be
00000020: 4121 5e3c ebe9 493e 0daf 303e 70f1 d83d
00000030: f647 01be 23f4 163e 623f 913d dd36 513d
00000040: 548d a2bd 9096 52bd a86d c5bd 4860 10bd
00000050: 350f 0f3e d228 e7bd 2e5e be3c 0908 1bbb
00000060: eed5 5c3d 235f 153e 092c a0bd 6194 e8bd
00000070: d558 f23d 7fc9 233d 9b12 20be 57f9 013e
00000080: ffa3 253e f580 373e 3fc3 8b3d 30e2 fabd
00000090: 7201 513d 696a 68be 97d5 2d3e f2a0 bdbd
000000a0: cb99 3ebe 382f 1fbe e8f3 893d d445 4dbd
000000b0: 6a8a 1e3d b4e7 b9bd 55ad ac3c 7b12 d6bd
000000c0: 1d91 3a3e c94b cf3c 33ae 02be 7018 13be
000000d0: 93ff 66bd 00f9 22be 1015 1cbe 43f6 5d3d
000000e0: 73b2 303e 70a0 ec3c b1f6 17be b68c 32bd
000000f0: 2f25 483d cf3b 9e3d b7b8 393d dd83 393e
00000100: 0307 af3d 7352 cc3c cfaa 043e 190a 98bd
00000110: 492a 13bc fe15 a2bc 943a 0cbd 9b92 9c3d
00000120: 3fa6 c63c 0d3d b13d 699f 4abe c4c1 0ebe
00000130: 4ec7 f6bd 0885 fcbd badc 0f3e e6f7 b13d
00000140: 6b25 403e bd7d afbd e5c8 42bd 0efd 313d
00000150: 474c f43d b223 66bd 0fad 093e f482 833c
00000160: 48d7 00be 0529 113e 9876 5abd 704f 3a3e
00000170: 3f8d bb3d af11 023e edf8 e9bd 84ff 5c3e
00000180: 71a6 b0bd d9f4 34be 6738 4f3e 3221 c7bd
00000190: a73e da3c 9856 14be b64c d93d 7f8c 58be
000001a0: f581 18be 9c7e eabc 5ee2 1c3e 1299 533e
000001b0: 4a2c cebc ef25 373c 9879 77bd 2765 e83d
000001c0: dbf7 113d 598d c23d baff 0dbd 8c44 203e
000001d0: 5e06 7f3e b5b5 153e 84b0 c0bd 3ffb d4bd
000001e0: 0f16 493e a5c4 a13c 749e 0a3e fdb4 303e
000001f0: ea65 5cbb 6c2f eabb 3946 253e 2fa8 fb3d
00000200: d70c 17bd f5f8 dd3c 2a88 b53d abee 403d
00000210: 99bb 05bc 34bb 833d 0356 91bd bcc9 af3d
00000220: 639e e2bd bc49 8f3d 7dcd 07bd 1cb8 7b3d
00000230: eba6 473d 9b9a cb3c 3fb0 25bd b309 87be
00000240: 30be e2bd 46b8 f93c 1087 ad3d 34de 603e
00000250: 91ae dfbd 7b6b 27bd d922 973d 3244 bb3d
00000260: 494c 37be 1d08 c6bc 6e68 29be df2f 8e3d
00000270: 4f66 08be 27e2 d3bd c0ff 013d 8e20 0b3e
00000280: abd1 a5bd 4798 193c d610 ac3c 45bc a4bd
00000290: f203 2b3d 202b 30be 113f f93d cf4a b53c
000002a0: a324 043e fdba 1cbe 9f5a acbc 1f7a 83bd
000002b0: 8df3 c5bd 2b9a 02be 8f44 0fbe e809 40be
0.060916692 -0.07407149 -0.14856629 -0.07689619 0.047642514 0.052189473 -0.07702807 -0.19160224
0.013557733 0.19718139 0.17254277 0.105929255 -0.12625107 0.14741568 0.070921674 0.051077712
-0.079371125 -0.05141312 -0.09640056 -0.03524807 0.13970645 -0.11287083 0.023238268 -0.0023655912
0.053914957 0.14587073 -0.07820899 -0.11356426 0.118333496 0.039987084 -0.15632097 0.12692772
0.16175841 0.17920287 0.068243496 -0.12250173 0.05102677 -0.22696842 0.1697601 -0.092592135
-0.18613355 -0.15545356 0.067359746 -0.05011542 0.03870622 -0.09077397 0.021078745 -0.104527436
0.18219419 0.025304692 -0.12761764 -0.14364791 -0.05639608 -0.15915298 -0.1524241 0.05418993
0.17255573 0.028885096 -0.14840199 -0.043591224 0.048863586 0.07726251 0.045342173 0.18116708
0.08546259 0.024941659 0.12955783 -0.07423801 -0.00898225 -0.019785877 -0.034235552 0.0764515
0.024249194 0.08654223 -0.19787373 -0.13941103 -0.12049733 -0.12330061 0.14049044 0.08689861
0.18764274 -0.085689045 -0.04755487 0.043454222 0.11928611 -0.056186385 0.13444923 0.016053654
-0.12582123 0.14175804 -0.053335756 0.18194366 0.091578 0.12702058 -0.11424432 0.21581846
-0.08625496 -0.17671527 0.2023636 -0.097231284 0.026641203 -0.14486158 0.106103346 -0.21147345
-0.14893325 -0.028624825 0.15320727 0.2066386 -0.025167603 0.011178478 -0.060418695 0.11347418
0.035636764 0.09499616 -0.034667708 0.15651149 0.24904773 0.14620097 -0.09408668 -0.10399484
0.19637321 0.019747088 0.13537008 0.17256542 -0.0033630081 -0.0071467664 0.16140069 0.12287938
-0.03687748 0.027096251 0.08863862 0.04710261 -0.008162403 0.064321905 -0.070964836 0.085834
-0.11065366 0.069964856 -0.033154953 0.061454877 0.04874317 0.024853995 -0.040451284 -0.26374587
-0.11071432 0.030483376 0.08473027 0.21959764 -0.10921968 -0.040873986 0.073796935 0.091438666
-0.17900194 -0.02417379 -0.16543743 0.069427244 -0.13320278 -0.103458695 0.031738043 0.13586637
-0.080966316 0.009374685 0.021004122 -0.08043722 0.04175181 -0.17203951 0.12170232 0.022130398
0.12904601 -0.15305705 -0.021039305 -0.06419777 -0.09665594 -0.12754123 -0.13990997 -0.18753779

phaseLayer.W f4 [24, 26]
00000000: 9dda 8a3e cad1 5f3e e0de d7bd 5921 26be
00000010: 2326 a6be 9fbb a43c ca56 0abd 6c26 a63d
00000020: 2d7d 353e 0b9b 55be 3657 d3bd 11a7 8f3e
00000030: 4295 afbd 9ae9 d3bc e6f1 41be 3476 90bc
00000040: ddde b3bc 3b4b 583d 6322 2cbb 51fc 8b3e
00000050: 7717 25be d34a 753e edc7 93bd cfe3 e0bd
00000060: 020b aa3e 460e 403e 2160 7f3e fa60 a3be
00000070: 3c6b 4d3e e4ee 003e da07 61be e755 94be
00000080: c6c4 8fbc e777 17be 0fb9 133d 1466 63be
00000090: 2ef9 da3d 7809 92be 61c2 6cbe 2d61 a4be
000000a0: ad84 a7bd eca6 a0be 210c 07bd b9d0 5a3e
000000b0: 72a7 babd 8c7f 863e 9a05 14be 8a1d dd3d
000000c0: f863 603e bfff 8ebe 3a7b 86be e900 a33e
000000d0: a583 2dbe 90c0 0bbe c335 013e 8a2f a1be
000000e0: b22a a8be 3071 ac3e ae22 f2bd eed0 223d
000000f0: da06 8bbe 3fcb a93e ba38 283e 5442 c53e
00000100: 10f2 1abe ad54 753e 2d5f cf3e 8cc7 2ebe
00000110: 1713 a33e c9cf f43d d821 3a3e 7d80 86be
00000120: 837b 3a3d 6f90 e23d 543c 253e 36b0 b43d
00000130: 0f79 44bc 02cf e2bb 9d09 27be ff95 b03d
00000140: 748b 07be 649b e2bd 6823 9f3e 5943 94bd
00000150: 721d b13c 9e24 d0be f719 353d 0f9f 323d
00000160: c906 263e 8008 5b3c 0154 08be 0be5 25be
00000170: 8933 75bd a936 673e 540e 933d e096 3c3e
00000180: 1b6b 753e 39d7 cebc e4c5 91be ea81 6ebe
00000190: 4d30 273e 7559 953e 20ea 1d3c f487 4bbe
000001a0: a31c a73d bbc0 5b3d 2347 833e fc79 bdbd
000001b0: 0e1e 9c3e 22d8 303e c10c 62be 14df 463e
000001c0: c6e6 80be e34e f03d a285 dcbd 042c 783e
000001d0: 4bcd 55bd a6be 823e d305 a03e 0700 8f3e
000001e0: 28de 323d b744 9fbd 6879 9c3e 1764 58be
000001f0: f491 2f3e db23 ffbd bd4d 1a3e 9700 a83e
00000200: 2a62 973c 3df5 943e 551c 7a3e 6330 533e
00000210: f01e 0fbd e09f 5cbd ceba aebe 63fa 583d
00000220: 2daa b4be fafb f0bd 9ec0 86bd 231f 65be
00000230: 8248 103d eb5d 55be b400 1d3e 7761 b53e
00000240: fc37 34bd cec8 f2bd a65a 343d 6568 283e
00000250: 3566 c8be e29d 8f3e f859 1abd 4ebb ce3d
00000260: 82ab 8f3e 3ec3 aabd 339f 833d 989e 413e
00000270: 9571 79be f6a7 af3d a549 843e b903 4cbe
00000280: ef64 63be 99c8 87be e379 9d3e d266 3ebe
00000290: 36d7 a13e ca50 15bd 8983 80be 5280 a23d
000002a0: 11e0 073e 0b5d 943e b3ba 68bd 2b92 04bd
000002b0: a4e8 adbe 6302 aa3e 5c60 483e 23e3 ee3c
000002c0: fbdb 07be 9bef 25be f675 153e 6e00 d8bd
000002d0: 0e46 9abe f9a3 a73e 6965 4e3e 0198 85bd
000002e0: bf7e 99bc 1ef3 40be cdee c83d 0d48 143d
000002f0: 09c4 113e 7858 babd 970e 72be 7635 2d3e
00000300: 4726 ae3e 50ec 333d 0f40 913d 7915 aa3d
00000310: 7dca f9bd 9304 8abe e54c 9d3e d454 143d
00000320: 8051 f7bd 9fcd 32bd 9b5b 7e3e fa6b 04be
00000330: df4d 823c ebfc a3be 9559 64be 3076 5b3e
00000340: d014 29bc fbbf 26be a9e8 b3be 724b a9be
00000350: f51e 4a3a 384d 043e 3497 ea3d ae4d 97bb
00000360: c563 4c3e 6ec9 743e ff11 83be 0f53 843e
00000370: 0411 71bd 6671 793e 548e 913d 0c1c 8abe
00000380: 50f5 71bd 2b1a 393e 609d 6d3e 018d 98bd
00000390: ca49 5bbe 60c8 88be 0b0c adbd 76df 4dbe
000003a0: 4406 61be addc fdbd 3c6c da3c 4daf 2c3e
000003b0: dd28 bbbd 3173 40be ca86 ca3d 2a40 973e
000003c0: ee40 c13d f183 a73e 2762 a23e f939 c4bd
000003d0: 6f79 c03e 4788 2f3e 8e90 91be dfd0 b43e
000003e0: 73ea a3be dbdb a23e 09bf 18be d9b5 a33e
000003f0: 267b a8bd 1088 5c3e 5280 1b3e 68e1 953e
0.27119914 0.21857372 -0.10540557 -0.16223659 -0.3245097 0.020108996 -0.033774175 0.08112797
0.17723532 -0.20859925 -0.103193685 0.2805715 -0.085733905 -0.025868226 -0.18939933 -0.017634489
-0.021956855 0.05280612 -0.0026265613 0.2734094 -0.16122232 0.23954324 -0.07215867 -0.10980951
0.33211523 0.18755445 0.24939014 -0.31909925 0.20060438 0.1259113 -0.21975651 -0.28971788
-0.017549884 -0.14791833 0.036065158 -0.22206908 0.106920585 -0.2852285 -0.23121025 -0.3210539
-0.08179603 -0.3137735 -0.03297055 0.21368684 -0.09113969 0.26269186 -0.14455262 0.1079665
0.21913135 -0.27929494 -0.2626589 0.31836632 -0.1694475 -0.13647676 0.12618165 -0.31481582
-0.32845074 0.33680105 -0.11823021 0.039750032 -0.27153665 0.33162877 0.1642789 0.38527167
-0.15131402 0.23958082 0.405023 -0.17068309 0.31850502 0.119536944 0.18176973 -0.26269904
0.045527946 0.11062705 0.16136295 0.08822672 -0.011991753 -0.00692165 -0.16312261 0.086223595
-0.13236791 -0.11064795 0.310817 -0.07239408 0.021620486 -0.40652937 0.044214215 0.04360872
0.16213526 0.013368726 -0.13313295 -0.16200654 -0.0598636 0.22579445 0.07180467 0.18416929
0.23966639 -0.02524911 -0.2847129 -0.23291746 0.16327019 0.29169813 0.009638339 -0.19876081
0.08159759 0.0536506 0.2564021 -0.09251782 0.3049168 0.17269948 -0.22075178 0.19421035
-0.25176066 0.117337964 -0.10767676 0.2423554 -0.052197736 0.25536078 0.31254444 0.27929708
0.043668896 -0.07776778 0.30561376 -0.21131931 0.1714552 -0.12458011 0.15068717 0.3281295
0.018479425 0.29093352 0.2442487 0.20623927 -0.034941614 -0.053863406 -0.34126896 0.052973162
-0.35286084 -0.11766811 -0.065797076 -0.22375159 0.0352254 -0.20836608 0.153323 0.35425922
-0.043998703 -0.11854707 0.04403176 0.16446073 -0.39140478 0.28050143 -0.037683457 0.10094319
0.28060538 -0.08338021 0.06426849 0.18908155 -0.24359734 0.08576958 0.25837436 -0.19923295
-0.22206472 -0.2652023 0.30757055 -0.1859391 0.31609505 -0.036454 -0.25100353 0.079346314
0.13269068 0.28977236 -0.056818675 -0.03236596 -0.33966553 0.33204946 0.19568008 0.029161042
-0.1326751 -0.16204683 0.1459578 -0.10546957 -0.30131572 0.3274229 0.20155872 -0.06523133
-0.018737195 -0.18842742 0.09811173 0.036201525 0.14234938 -0.09098905 -0.23638378 0.16914925
0.34013578 0.043926537 0.07092296 0.08304877 -0.12196825 -0.26956615 0.30722728 0.03621371
-0.12076092 -0.043653127 0.24839632 -0.12931815 0.015906272 -0.320289 -0.22299798 0.21431804
-0.0103199035 -0.16284172 -0.35138443 -0.33065373 0.00077103014 0.12920082 0.11454621 -0.0046174144
0.19959934 0.23904964 -0.25599667 0.2584462 -0.058854118 0.24359664 0.07107225 -0.26974523
-0.05907184 0.18076389 0.23204565 -0.07448769 -0.21414867 -0.26715374 -0.08449563 -0.20104775
-0.21975046 -0.12395606 0.026662938 0.16863747 -0.091386534 -0.18793942 0.0988899 0.2954114
0.094362125 0.3271785 0.3171551 -0.0958137 0.37592646 0.1714183 -0.284306 0.35315606
-0.32014808 0.3180836 -0.14916624 0.31974676 -0.08226614 0.21536279 0.15185669 0.29273534

p2iLayer.W f4 [24, 176]
00000000: 443c 103e cfff c4bd f0e3 cb3d dac5 b2bb
00000010: 60af 7cbc a539 9d3c 5fe1 f73d 84af 12be
00000020: b108 85bd a318 283e 7d81 e03d 04a5 1d3e
00000030: c637 93bc 8372 e6bd 01b1 8c3d ae33 413e
00000040: 9e53 3cbd a109 fb3d 4722 27bd 4ea9 273d
00000050: e481 04bd 1efb 9e3d d601 d33d 3263 9ebd
00000060: 133e bfbb 6cf0 81bd 6e9a c1bc 2dcd acbd
00000070: 5bb0 e3bc 290f 983d 1797 943d e9dd 53bd
00000080: 9152 3dbd 8e94 eabc 17c6 043e 704b a33c
00000090: 182d d6bd 30a4 223e 2aa5 dabd c51f a3bd
000000a0: e97e 1f3c 1977 b23d c07a a8bd 67da e1bc
000000b0: 92c8 8ebc 3e10 183b 125e 2abe 7d84 9c3d
000000c0: 074f a3bd 5fd2 b33d 9af1 bd3d 1abc a33d
000000d0: 7097 93bd 8f3f 31be c2eb efbd 1293 e03c
000000e0: 19a2 123e 9f30 203d b97a c63d 0f3d b1bd
000000f0: 9818 b1bd 6a9f 44be c1e9 a33d 8c78 42bd
00000100: 0de7 1c3e 8592 103e d2ae 11bd 5e4e fdbd
00000110: 2dd7 233d 6b53 10be 0a21 053c b0e4 143e
00000120: 79a0 c53d 28c3 e73c 534d 383e fa76 9b3c
00000130: 867b 143d 3183 2c3e eeac 063d 17c5 bb3d
00000140: ba9d c7bd 78c1 c23d 154f e8bd 992c d0bd
00000150: 6309 0bbe 782d e83c c57d 83bb d3c9 973c
00000160: 900a be3d 237b 2bbe 90e1 41be a30d 133e
00000170: 4b1e c3bd 40ce 0f3e f603 9b3d 476a 7fbc
00000180: cc5a 4a3e f63a df3d 7612 903d c840 d33b
00000190: ebac 203e 0a6b c83d e005 2d3d 0cb4 ab3d
000001a0: 7b38 213c c8af 93bd fc48 843d 5996 693d
000001b0: ccd7 223d c395 21be f43a 063e b28b a2bc
000001c0: b2d0 d93c cf6c 18be e301 163e 530f 183e
000001d0: ac15 23be e180 313e 79bc 1dbd 4f54 0fbe
000001e0: cd61 f63d 90d4 32be 6563 08be bb26 06be
000001f0: f70a 5fbc 8f86 0f3e 6e74 023d 260a bd3d
00000200: a09d 553b 5c56 953c e4e7 d0bd 0f0b af3d
00000210: ecce 373d 1e66 3ebe 19d2 cebd 9b34 cebc
00000220: 7c64 fa3d 2f95 76bd 8b2f f6bd c0e2 a5bc
00000230: 7024 a23d 9e3f eebd a4d7 e4bd 389d 53bd
00000240: 7c30 62b7 80b6 bebd 7bbf 133e 9580 ab3d
00000250: 0846 b2bc c925 44be 9b44 e9bd c8ef 5dbd
00000260: 253d 7e3c d48e 053c 4775 eabd 89bc 1cbd
00000270: 1fda 243e 8d78 a6bd a1e2 13be 645d 8ebd
00000280: 223c 973d c820 1abe 496a 9e3d a96f c2bd
00000290: f2ea 563d 5d05 383d 5a60 1c3d f035 b43d
000002a0: 38b4 8dbd 9efe 153e 5b2b a53d 76c2 28be
000002b0: 0bff 3c3e 15de 873c 545b 94bd 8785 08be
000002c0: 47a0 233e 8bf5 0ebe 8f15 02be 3ce8 c63d
000002d0: 7caa cc3c 7170 a3bd 21b7 a93d b485 013e
000002e0: bed1 0fbe ec4e 3bbe 1891 dcbd 22c9 f9bd
000002f0: d038 c2bd 1753 a43d e450 e0ba 2bc5 f13d
00000300: 0115 2d3d b4f2 b4bb 924e 133b 2883 16bd
00000310: 930a d1bd fc9f 54bc 892b 56bd ac15 0f3e
00000320: 60e1 063d 7e71 81bb f142 19be 0295 ecbb
00000330: 1101 3f3e 3c3c 193d f4d6 f8bd 9109 29bd
00000340: c91d 8fbd 2366 093e d4f9 26be ff64 e33c
00000350: 5807 b3bd baa0 d0bd 180f 8dbc dd21 98bc
00000360: 6dcf 8abb 2d2e 423e f078 14be 38e5 11bd
00000370: c304 3c3d f7d0 aabd 04bb bbbd 55a7 923d
00000380: 8494 86bd b6c8 28be d12b b33b ddc8 10bc
00000390: 7298 05bd 2d8d 0ebd 626d c2bd 30b4 0c3e
000003a0: bedb 03be a965 e4bd b2f9 cc3d 3f56 3ebe
000003b0: 984b 9b3d ecbd cfbd 30a5 143e 33d9 4b3d
000003c0: d1a8 14be 5233 eabd 00be 113d 38f5 2bbd
000003d0: f9b6 06be c909 6e3c 899c 99bd e3d5 043e
000003e0: 45ff d9bc 1cc7 32bc a388 023e b224 cb3d
000003f0: 90f5 9bbc b33f 1fbb 4f33 d6bd 2131 113e
0.1408549 -0.09619104 0.09955585 -0.0054557147 -0.015422672 0.019192526 0.12103533 -0.14324766
-0.064957984 0.16415648 0.10962198 0.1539498 -0.01797093 -0.1125231 0.06869698 0.1886737
-0.04597818 0.12257696 -0.040804174 0.040932946 -0.032350436 0.077627406 0.103030846 -0.07733764
-0.0058362572 -0.06344685 -0.023633208 -0.08437572 -0.027794054 0.074247666 0.072553806 -0.051725302
-0.04622132 -0.02863529 0.1296619 0.019933432 -0.1045782 0.15882945 -0.10676034 -0.07965044
0.009734848 0.08714122 -0.08226538 -0.027569963 -0.017429624 0.002320304 -0.16637447 0.07642458
-0.07974058 0.087803595 0.092745975 0.07994862 -0.07206619 -0.17309402 -0.11714889 0.027413879
0.14319648 0.03910887 0.09691376 -0.08654224 -0.08647269 -0.19201437 0.080035694 -0.047478244
0.15322514 0.14118393 -0.035567112 -0.12368463 0.04000013 -0.14094321 0.008125553 0.14540362
0.09649748 0.0282913 0.17998247 0.01897763 0.036250614 0.1684692 0.032879762 0.09168451
-0.09746881 0.095095575 -0.11343209 -0.10164756 -0.135778 0.028341994 -0.0040127956 0.018528854
0.092793584 -0.16746192 -0.18933702 0.14360671 -0.09527262 0.14043522 0.07569115 -0.015589303
0.19761199 0.10899918 0.07034771 0.0064469315 0.15690963 0.09786041 0.04224193 0.083839506
0.009840126 -0.07211262 0.06459233 0.05702815 0.03975658 -0.15779786 0.13108426 -0.019842003
0.026588771 -0.14885257 0.14649157 0.14849596 -0.15926236 0.1733432 -0.03850982 -0.13997005
0.12030373 -0.17463899 -0.13319166 -0.13100712 -0.013613454 0.14016174 0.031849317 0.09230451
0.0032595173 0.018229656 -0.102004796 0.08547031 0.04487507 -0.18593642 -0.10098667 -0.025171569
0.12226197 -0.060200866 -0.12020787 -0.020249724 0.07917106 -0.11633228 -0.11173943 -0.051663607
-1.3481938e-05 -0.09312153 0.14428513 0.083741345 -0.02176191 -0.19155039 -0.113900386 -0.05418375
0.015517508 0.008151729 -0.1144815 -0.03826574 0.16098832 -0.08128462 -0.14441921 -0.069514066
0.07384516 -0.15051568 0.07735116 -0.09493954 0.052470155 0.04492699 0.038177826 0.0879935
-0.069191396 0.1464791 0.0806491 -0.16480431 0.18456666 0.01658539 -0.07243982 -0.13332187
0.1597911 -0.13960855 -0.12703536 0.09712264 0.024983637 -0.07980431 0.08286882 0.1264866
-0.14044854 -0.18291825 -0.10769862 -0.12196566 -0.094834924 0.08023661 -0.0017113951 0.11805185
0.04225636 -0.0055220965 0.0022477251 -0.036746174 -0.10207095 -0.012977596 -0.052287612 0.13973111
0.032929778 -0.003950297 -0.14966942 -0.0072199116 0.1865275 0.03741096 -0.12150374 -0.04126889
-0.06988103 0.13417868 -0.1630624 0.02775812 -0.08741635 -0.10186906 -0.017219111 -0.018570835
-0.004236153 0.18962927 -0.14499259 -0.03561899 0.04590298 -0.08340638 -0.0916653 0.07160822
-0.06571296 -0.16482815 0.00546787 -0.008836952 -0.032616086 -0.034802604 -0.09493519 0.13740611
-0.12876794 -0.11152203 0.10008563 -0.18587588 0.07582778 -0.101436466 0.14516139 0.049767684
-0.14517523 -0.1143557 0.03558159 -0.041981906 -0.13155736 0.0145287 -0.0750056 0.12972216
-0.02661098 -0.010911729 0.12747435 0.099191085 -0.019037992 -0.0024299442 -0.10459005 0.14178897

p2iLayer.a f4 [352, 1]
00000000: 607b 6fbd 1018 f43d c885 cabd 7160 0bbe
00000010: 5e24 0d3e b7d0 223e 0a78 ba3c c401 083d
00000020: 0db3 d73d beea d7bd be49 2ebe 1834 a73d
00000030: 20f5 20be cb64 3c3d d612 03be 9a3b 29be
00000040: 7694 bbbc f383 4d3d 5ca6 1bbe e4fe 1d3c
00000050: 6c52 713d 9d59 173d 961d b23d 83fe ba3d
00000060: 816a 59bd c100 3e3c e43e cebb 0103 1b3e
00000070: d50d a93d 4281 f9bc 0e65 62bb 2585 143d
00000080: 45a8 15bd 412a 103c 6503 c5bc fda4 a13d
00000090: b98f 38be 9449 09bd 7f81 aabc 0896 a23c
000000a0: d882 83bd 7e8a 5e3d 108c a2bd 6116 213e
000000b0: 790e aabc 951e 123e 0ba3 e13d f580 d73d
000000c0: 8119 4dbc 475a 9d3d 9f2e a83d 511f 053d
000000d0: 48a1 1d3e 228d c1ba d37a 7e3d 72c7 353d
000000e0: 8d72 263d c386 ab3d 2c85 cdbd d83d 5f3d
000000f0: 9a30 afbd 6ea9 9ebd 0889 c3bb 96df 33bd
00000100: 2be4 74bd 234c 253d c628 1abc 3f88 b43d
00000110: 0014 5ebc 75c7 f6bd f21e 9abb ee9c 753d
00000120: 2dcb 233e 7084 57bc 5023 803d 6d28 a5bd
00000130: 4efa b93c a95a 0b3e 7f6f bfbd 7e55 b8bc
00000140: 5a97 243e cfbc 11bd 580b 92bd 667d d53c
00000150: 7427 19be b834 0e3e ddab 57bd f4c1 00be
00000160: dbb2 0fbe 1b87 2c3b 2746 7f3c 4337 b2bc
00000170: 105b 6fbd 1413 493d db9e 08be 6c1d f2bc
00000180: 2ea7 89ba e7fa 9e3d dfb0 d33d ac9c b63d
00000190: b758 9dbd 6d1c 0f3e 27f9 9cbd 456b 033e
000001a0: 1798 ef3b f8ec 0e3d ca62 d5bd 4cde 853d
000001b0: 9928 80bc 1b97 cc3d 62ab 9a3b dd6f 203e
000001c0: 2dcc 8a3b c8a5 5d3d 93a2 02bb 687d 02be
000001d0: 3b63 cd3d 0c3a 04be e8c8 3cbd aa2b d23a
000001e0: cad3 343d 716e a7bc f443 ecbd dcef c1bc
000001f0: 59ba dd3c c1f9 68bd 8085 fbbd f6b6 4ebd
00000200: 2d3b e83b d558 553d 6c93 323d 9ce8 c2bc
00000210: 658c 1b3d ab4d ac3d 5c0b 2fbd 216c 9c3d
00000220: f37f 85bd 1fb3 2cbd 29ca df3c 277b 133d
00000230: fdf8 a83d 5b47 873d 09ba 44bd 18e9 313e
00000240: 3aeb 243d ae70 e13d 7f39 e9bc d99e d13c
00000250: 8a5e 943c 1d27 ef3c 639f 04be 0b36 573d
00000260: 1b81 e8bd 0c84 8c3c ca19 30be 7f26 e83c
00000270: e7af ecbc cd9b d1bc 36b3 ffbd 1714 003d
00000280: 3b10 cdbc 2c4f 1ebd d77f 363d 6427 563c
00000290: e8a6 fbbd ccf8 b53c 7681 fa3d f7bf 123d
000002a0: 88b0 b2bb e47b fe3c e2da f6bd eece bbbd
000002b0: ba31 ac3c 86b4 733d 783b eabb b710 b93c
000002c0: 12be 023e 5ea5 ad3c 48d0 dc3d 0d72 25bc
000002d0: da86 a3bd 7c3d 80bd 4468 483c fbfd bdbd
000002e0: 1095 76bd e43d b6bd 6a72 11bd 97bb f3bd
000002f0: 773e b53d b097 2fbd 5226 933c f5fd 033e
00000300: 8336 00bd 07af 013c 5bb8 f33d 946d 00be
00000310: 939b 523d dbe9 9f3d 6f1a 4dbd b708 f0bd
00000320: 8e31 3b3c 4f2c 1d3e 5de0 ba3d d3ae a13c
00000330: c21b 693d c2f6 d93d ca47 90bd 20ac a83c
00000340: c99e d73d e2be fd3c fc93 d8bd 2ad1 dbbd
00000350: 490a 8a3d a75c 223d 8111 673a 9e90 77bd
00000360: 1152 ffbb a7cb 833d ae8a c03c d9ee 973d
00000370: 4a2d e13d dcb2 c0bc b7a7 73bd cf75 80bc
00000380: 1aa9 083d 5de9 b43d 4cff 04be 783d c6bd
00000390: 7fa5 8f3d c7f3 263c fec7 a13d 479c 9abd
000003a0: 5b68 3d3a 6b48 00be 1586 f83d 3833 9dbd
000003b0: ed43 adbd d891 7dbd cb60 0fbe 190d f3bd
000003c0: 31d4 b2bd 98ea 06bd 3874 06be 51d1 f8bc
000003d0: 0fab 973d 9df5 273d 8ac8 8c3d 9f83 053e
000003e0: e2a1 14bd 35ce 08bd 693e 64bd f92f f8bc
000003f0: 41ab 44bc 64f7 11be f553 b0bd 73c2 123e
-0.05846727 0.11918652 -0.09888798 -0.13611008 0.13783404 0.15899931 0.022762317 0.03320481
0.10532198 -0.105428204 -0.17020318 0.08164233 -0.15718508 0.04599456 -0.12800154 -0.16526642
-0.02289794 0.050174665 -0.1520018 0.00964329 0.058916494 0.036950696 0.08697049 0.091305755
-0.053080086 0.011596859 -0.0062941182 0.15137865 0.082545914 -0.030457143 -0.0034545097 0.03625979
-0.036537427 0.008799137 -0.02404947 0.07892797 -0.18023576 -0.033517435 -0.020813702 0.019846931
-0.06421441 0.054331295 -0.07936871 0.15731193 -0.020758854 0.14269479 0.11017426 0.105226435
-0.012518288 0.07683235 0.08212017 0.03250057 0.15393555 -0.0014766792 0.062128853 0.04437966
0.040636588 0.08375313 -0.10035166 0.05450234 -0.08554192 -0.0774716 -0.005967263 -0.0439144
-0.05978791 0.040355813 -0.009409135 0.088150494 -0.013554573 -0.12049762 -0.004703396 0.059964113
0.15995474 -0.013154134 0.06256735 -0.08064351 0.022702362 0.13608803 -0.09347438 -0.022501703
0.16073361 -0.035580453 -0.0713107 0.026060771 -0.14956456 0.13887298 -0.052654136 -0.12573987
-0.14033072 0.0026325646 0.0155806905 -0.021754866 -0.058436453 0.04909046 -0.13341849 -0.029555045
-0.0010502094 0.077626996 0.1033647 0.089166015 -0.07682937 0.13975687 -0.076647095 0.12833889
0.0073118317 0.03489396 -0.10419233 0.065365404 -0.015644358 0.099897586 0.0047201375 0.15667672
0.0042357654 0.05411318 -0.0019933328 -0.12743151 0.10028692 -0.12912768 -0.046090037 0.0016034741
0.04414729 -0.020438405 -0.115363985 -0.023673944 0.027066397 -0.05687881 -0.122813225 -0.050467454
0.0070871324 0.05208667 0.043597624 -0.023792557 0.037975688 0.084132515 -0.042735443 0.076378115
-0.06518545 -0.04216301 0.027318077 0.03600612 0.08250616 0.06605407 -0.04802898 0.17374074
0.040263392 0.1100782 -0.0284698 0.02558844 0.018111486 0.029193455 -0.12951426 0.052541774
-0.1135275 0.017152809 -0.17197338 0.028338669 -0.02889247 -0.025586987 -0.12485354 0.03126916
-0.025032153 -0.038649723 0.04455551 0.013070915 -0.12287694 0.022213362 0.12231724 0.035827603
-0.005453173 0.031064935 -0.12053467 -0.09170328 0.021019805 0.059498332 -0.0071482025 0.022590978
0.12767819 0.021197017 0.10781914 -0.010097993 -0.07984705 -0.06261727 0.01223189 -0.092769586
-0.06020075 -0.088985234 -0.035509504 -0.11901014 0.08849805 -0.04286927 0.017962608 0.12889846
-0.031301986 0.007915265 0.119003974 -0.125418 0.0514179 0.07808276 -0.050074037 -0.11720412
0.011425389 0.15348934 0.09124825 0.019736683 0.056911238 0.106427684 -0.07044943 0.020589888
0.10528333 0.03097481 -0.10575101 -0.10733254 0.06740243 0.03963914 0.0008814559 -0.060440652
-0.0077917655 0.06435328 0.023503628 0.074186035 0.10994966 -0.023522787 -0.059486117 -0.015681176
0.033364393 0.08833573 -0.12988013 -0.09679693 0.07013988 0.010189957 0.078994736 -0.07549339
0.0007225328 -0.12527625 0.12134949 -0.07675785 -0.084602214 -0.061906666 -0.14001767 -0.118677326
-0.087318785 -0.03293857 -0.13130271 -0.030373247 0.07405674 0.04100572 0.06874187 0.1303849
-0.036287196 -0.03339978 -0.05572358 -0.030296313 -0.012003721 -0.14254528 -0.086097635 0.14331989

intersectionLayer.W f4 [48, 46]
00000000: f186 63be 9e50 8a3d 271a 6d3e 001b 45be
00000010: 3281 6ebe dbfb 8bbd e434 9a3c 763b 463d
00000020: c520 403e 1d9d 813e 9ae7 8c3d 1a7c de3c
00000030: 6e40 3b3d 0b95 46be 7214 79be d244 f3bc
00000040: dc7b 96bd 7b3a 083e 8d0d 99bd e62f ed3d
00000050: 5e77 d63d d558 9fbe cadd 17be 1185 e63d
00000060: 11f5 05be ec11 a2bd b829 13be 40fa c3bd
00000070: adc2 773e 642b 1abe 4048 b0bc e04c 133e
00000080: a6ac 94bc d072 d9bd 6d6b c13c 56b9 843d
00000090: ec63 1dbe 8221 d23d 12ab 443e 1767 133e
000000a0: ff95 323e b1ae 32be 73f3 35be 3009 6cbe
000000b0: 8973 a93d 4a85 8c3d d647 033e b205 cdbd
000000c0: 94f8 0f3e 36c8 43be 7303 7abe c477 9a3d
000000d0: 5fb9 c43c 430a 613e 6db6 21bd 182d 273e
000000e0: 4113 143e 508c a73d 529f 443e 0950 8abd
000000f0: 6d3b 593e 4949 4e3e 1add 0fbe fb65 1e3e
00000100: 13df c5bc d15d 5ebd 4295 0bbe 0cb4 7e3e
00000110: b291 a43d 6a01 51be a1be 47be 7d61 30bd
00000120: 2a7c d83d fa5f a2bc 0721 b33d def3 dbbd
00000130: 3a4b 5bbd 2e4f 38bd e214 803e 860a 813e
00000140: a870 f8bd 1a22 52be 3908 523e bf93 abbc
00000150: 0541 36be de35 0e3e cd36 1fbc 8d61 07be
00000160: 6784 4f3e a3b7 a13d 885b 75bd d0fa 86bd
00000170: 82b9 1abe c71a 36be c22a 7a3d 698e 593e
00000180: bcc3 043e 1ea2 8d3d f27e 2c3e b160 0abe
00000190: 8252 19bd dee1 f2bd c3a6 14be 16f1 9cbc
000001a0: 78df 1bbe 176f f9bd c584 2f3e aa8f 3a3e
000001b0: 3219 c0bd 83af 2cbe 9157 f1bc c2a8 18be
000001c0: 72ca 5f3e b47b a6bd bb65 ab3d 8720 bd3c
000001d0: 1341 80bd d279 80be 6008 83be 6d50 d4bd
000001e0: c11a 07be f620 f63d 181c 29be 6898 23be
000001f0: dabb 80bd 2010 f03d 96ae 3fbe a1c1 fc3d
00000200: ae81 11be 806e a3bd 039a 66bd a27a 8bbd
00000210: 074e fc3c 90fd 1fbe 4ae2 843e 479a db3d
00000220: 17fc 89bc 9a94 f33c 56ed 1b3e d47c 0cbe
00000230: 1f70 debd 5b9b 38be 8995 6a3e a852 ea3d
00000240: 9f94 72be 001b 93be e4d1 fbbd 000d 3abc
00000250: 09f1 e33c b871 6d3c 3642 35bd 23ab f03d
00000260: 7cf4 44be b56c f3bd 7a4a 58be 2b02 303e
00000270: 8178 19be 8a91 5ebe 533f e8bd 6a3e 95bd
00000280: 90c5 de3d 7c7c 883e 4fbf 56be 7604 6dbe
00000290: 9ed9 8f3d 6413 66be 2201 0f3e fcc9 323e
000002a0: d614 20be 6924 2d3e 4c05 0c3d ea23 3fbe
000002b0: a9b4 ae3d def0 723e de6b 79be a5cc b93c
000002c0: 3e60 55be 640c df3d 1b2e 00be 3e87 e53d
000002d0: 7004 46bc 0cd7 12bd edc7 29be 9913 783e
000002e0: fae5 a2bd 5db9 523e 01fc 8d3d bfdf 32be
000002f0: 9dab 323e b38a 943e bc28 133e a29e 203e
00000300: f43b 83be 111f 333e 3261 3cbe 2ab6 18be
00000310: 5281 cd3d d5b4 2ebe c449 613c 34ad 28bd
00000320: b3cb 023d f365 113e abb4 18be 8423 f3bb
00000330: e1c4 d8bd 9f87 4c3b 7a6c be3d fffe b13d
00000340: 5bf1 4bbe 03e4 0cbe dbc8 473e bac7 023c
00000350: 02e8 843e 3998 29be 8d05 cc3d 9aea 823e
00000360: abe7 2dbe bcdd 04bd 6f77 02be 121c bbbd
00000370: dcdc e5bd 670e 61bd a83a 443e df39 24bd
00000380: d81e 443e 5097 0abe 557d c03b 8a17 453c
00000390: 5e54 1dbd cefc eb3d 14e6 373e 2b43 59be
000003a0: 41df 43bd 95a4 423e 3b75 033e dddc 3abd
000003b0: cd57 0f3e 458c b7bc ebf9 383e d360 e63d
000003c0: a9a2 76be 5b5d b13d 26bf 803d 8e35 2b3e
000003d0: bd11 65bd 2385 49be 4009 453e 26a1 acbc
000003e0: 8c15 083e 0e67 a0bc 493c 4e3e 8e26 513e
000003f0: 4e4b 743e 484f 473e 0996 6e3e 0edb b03d
-0.22219445 0.06753658 0.23154508 -0.19248581 -0.23291472 -0.06835147 0.018824048 0.04839655
0.187625 0.2531518 0.06880112 0.027158786 0.04571574 -0.19392793 -0.24324206 -0.029695902
-0.07347843 0.13303559 -0.07473288 0.115814015 0.10471986 -0.3112246 -0.148307 0.11255849
-0.13081767 -0.079135746 -0.14371383 -0.09569216 0.24195357 -0.15055615 -0.021518826 0.14384794
-0.018148731 -0.10617602 0.023610795 0.064806625 -0.15370148 0.10260297 0.19205883 0.14394794
0.17440031 -0.17449452 -0.1776865 -0.2305038 0.0827399 0.0686136 0.12820372 -0.10010852
0.14059669 -0.19119343 -0.24415378 0.07542375 0.024014173 0.21976571 -0.039480615 0.16325796
0.1446047 0.08181059 0.19201401 -0.06753547 0.21214075 0.20145144 -0.14049187 0.1546859
-0.024154222 -0.05428869 -0.13631156 0.2487337 0.08035602 -0.20410696 -0.19506313 -0.043061722
0.105705574 -0.019821156 0.08746534 -0.10739873 -0.05353854 -0.044997387 0.25015932 0.2520334
-0.121308625 -0.20520821 0.20510949 -0.020944474 -0.1779824 0.13887736 -0.009717655 -0.13220806
0.20265351 0.07896354 -0.059901744 -0.065908074 -0.15109828 -0.17783652 0.061075933 0.21245731
0.12965292 0.06915687 0.16845301 -0.13513447 -0.0374322 -0.11859487 -0.1451674 -0.019157927
-0.15221965 -0.12179392 0.17140491 0.18218866 -0.093798056 -0.16863827 -0.0294607 -0.14908126
0.2185457 -0.08129063 0.08369013 0.0230868 -0.06262412 -0.25092942 -0.25592327 -0.103669025
-0.131938 0.120180055 -0.16514623 -0.15976107 -0.0628583 0.117218256 -0.18718943 0.12341619
-0.14209625 -0.079800606 -0.05629922 -0.068105 0.030798925 -0.1562407 0.25953895 0.107227854
-0.016843839 0.029733945 0.15227255 -0.13719493 -0.10861229 -0.18028013 0.22908606 0.11441547
-0.23689507 -0.28731537 -0.12295893 -0.0113556385 0.027824895 0.014492445 -0.044252597 0.11751392
-0.19233888 -0.118859686 -0.2112216 0.17188327 -0.14987375 -0.21735206 -0.11340203 -0.07287295
0.10877526 0.26657474 -0.20971416 -0.23146233 0.07023929 -0.22468334 0.13965276 0.17459863
-0.15632948 0.1690842 0.03418474 -0.18666044 0.08530552 0.23724696 -0.24357554 0.02268059
-0.20837495 0.10891035 -0.12517588 0.11207436 -0.012086019 -0.035849616 -0.16580172 0.24226226
-0.07954021 0.20578523 0.069328316 -0.17468165 0.17448278 0.2901207 0.14371008 0.15685514
-0.25631678 0.1749232 -0.18396452 -0.1491324 0.100344315 -0.1706117 0.013750497 -0.041180804
0.031932544 0.14199047 -0.1491267 -0.0074200053 -0.10584427 0.0031208766 0.09298034 0.08691215
-0.19916289 -0.13758855 0.19510214 0.007982189 0.25958258 -0.16561975 0.09961996 0.25569612
-0.16982906 -0.032438025 -0.12740873 -0.09136213 -0.11223766 -0.054945376 0.19163 -0.040094253
0.19152391 -0.13534284 0.0058743157 0.012029538 -0.038410537 0.11522828 0.17958862 -0.21217029
-0.047820333 0.19008096 0.12837689 -0.045620788 0.13998337 -0.022405753 0.18064086 0.112489365
-0.24085487 0.08660384 0.06286459 0.16719648 -0.05592512 -0.19679694 0.1924181 -0.021072935
0.1328947 -0.01958039 0.20140184 0.20424864 0.23856851 0.19463837 0.23299421 0.08635531

neighborLayer.W f4 [6, 32]
00000000: aba1 a6be 1720 733e 559c adbe 6799 a2be
00000010: cc9d f5bc 686d 023c cad0 5a3e 0097 5abe
00000020: e812 51be 7a52 d3bd 8999 cd3d 2376 99be
00000030: d038 733e c2f2 a73e a225 0ebe fa83 9f3e
00000040: 4b60 9d3d cfc8 533e 5cad c2be 0f48 0d3e
00000050: 42e0 71bd c1e2 633c 29bc cfbd 8c98 ae3d
00000060: ff7a 6b3e fd90 a6be c17a 6dbe 6ed5 f6bd
00000070: 0143 753e 1144 5c3d 0202 083e 7793 613e
00000080: 0c2d efbe ce21 f8bd 55b9 a03d b67a b8bd
00000090: 52f8 d8bd c9ea c0be e29f 6cbe ad35 73bd
000000a0: c0c9 843e 4571 bfbe 3388 99bd 22c7 8e3e
000000b0: 7cae f53d c9ab 313e 5fd3 483e 51d5 99be
000000c0: 671b d7be 99bd 56be 9ec4 f5bd 0872 d03e
000000d0: 8ec2 0b3e 41e3 92be 7566 7fbe a3aa 573d
000000e0: 380a e9be 39fc 3f3e 62a8 9b3e 1a0b 2c3e
000000f0: ae73 a6bd 6440 eebd 719a 613d 7275 c1be
00000100: c30a 5ebe 7b58 8dbe fe62 20be 0004 42be
00000110: 92d0 81be 7ef4 853e 0898 b5bd d2ec 4bbe
00000120: 097c c73e 8d48 97be 014e c13d a26d 9f3d
00000130: b68a cdbd 1019 973e 94f5 a43e fd73 1fbd
00000140: 145a 5abe 9292 40be 56b9 353b da76 2abe
00000150: f883 8d3e 69c4 f1be b021 f23d 8e26 a0bc
00000160: 66ab b13c d048 6c3e 184b f1bd 199f a4be
00000170: c972 c7be 6035 2dbe 8861 623c 7519 013d
00000180: e851 9b3e 38d6 83bc 45d4 253e 44c1 91be
00000190: 1ef7 ac3e d2e7 0fbe 9f65 6abe 92a5 483e
000001a0: a7dc 31bd 76c7 483e 8b1c 47bc 4906 ac3e
000001b0: f3e3 96be d986 ad3e b899 503e a7ab 503e
000001c0: 9525 6fbe 2291 89bd a900 093d 56ca 953d
000001d0: 3d05 3fbd 4a72 1b3e 035f 1abd a5ed b63d
000001e0: 1a9d 59be c633 4f3d 1407 5a3e 4352 6fbe
000001f0: 113e a33e 9e4d 20bd 902f 7abe be71 96bd
00000200: 3688 b6bd 7539 ab3e d3d2 7fbd fa03 eb3d
00000210: 2144 f1bd 7d6a 563e 8c09 e53d 99b7 53be
00000220: 2807 b43d 2b03 7dbd b4b4 94be bc25 583d
00000230: 9ef0 84be 7f11 de3d 9754 ab3e 9b1b 96be
00000240: 992d 743e e083 603e 2c7c 9f3e 9980 913e
00000250: 58fd 4bbe 21e0 c0be 93f8 b2be 4e8d 963d
00000260: 6911 8dbe 2b15 c83e 4890 8bbe 3bda 08be
00000270: d968 933e 7a72 553e 0f81 8ebe cd9c ccbe
00000280: 8aab 70be d5d8 5f3c 6ceb 623e c804 b43d
00000290: ebd5 2d3e 61b7 afbe 679b a6be cf93 aebe
000002a0: 15c8 61be 4155 c9bd 1a17 1c3d eb59 133c
000002b0: 276c 53be f498 9c3e 848e 27be 7394 41be
000002c0: b277 983d 158a ec3d e6f1 99be 9139 843e
000002d0: dee4 f1bb 0ac0 c03e cf69 a4be 990a b5bd
000002e0: 6b41 4ebe 138c 653e 2f1d 88be ade8 923e
000002f0: 5a1c 3f3e 429d 5fbe 79f8 abbd 1bb2 65bd
-0.32545218 0.2374271 -0.33908334 -0.31757662 -0.02998247 0.007960655 0.21368709 -0.21346664
-0.20417368 -0.103184655 0.1003905 -0.29972944 0.23752141 0.32802397 -0.13881543 0.31155378
0.07684382 0.20682071 -0.38022888 0.1379702 -0.05905176 0.013909043 -0.101433106 0.0852519
0.22996138 -0.32532492 -0.23191358 -0.12052427 0.23951341 0.05377585 0.13282016 0.2202891
-0.46714056 -0.12115823 0.07847849 -0.0900778 -0.10594238 -0.37679127 -0.23107865 -0.05937736
0.25935173 -0.37391105 -0.07496681 0.278863 0.11996171 0.17350687 0.19611882 -0.3004556
-0.42013094 -0.20970763 -0.120003924 0.40712 0.13648435 -0.28689006 -0.24941428 0.052652966
-0.4551561 0.18748559 0.30401903 0.1680111 -0.08127533 -0.11633375 0.055078927 -0.37784916
-0.21683793 -0.27606568 -0.15662763 -0.18946838 -0.2535444 0.26163095 -0.08866888 -0.19914559
0.3896182 -0.2954754 0.09438706 0.07784583 -0.10036223 0.2951131 0.3221861 -0.038928974
-0.21323425 -0.18805912 0.0027728877 -0.16646901 0.27639747 -0.47220162 0.11822832 -0.019549634
0.021688174 0.23074651 -0.11781901 -0.32152632 -0.38954762 -0.16914892 0.013817199 0.03151842
0.30335927 -0.016093358 0.16194256 -0.28467762 0.33782285 -0.14053276 -0.22890328 0.1959441
-0.04342332 0.19607338 -0.012152801 0.33598545 -0.29470786 0.33891943 0.20371139 0.2037798
-0.2335418 -0.06717135 0.033447895 0.07313983 -0.046635855 0.15180317 -0.037688266 0.08932046
-0.21251336 0.050586484 0.21291763 -0.23371224 0.3188329 -0.03913652 -0.24432206 -0.07345913
-0.08912699 0.33442274 -0.062456917 0.11475368 -0.11780573 0.2093906 0.111834615 -0.20675506
0.087904274 -0.0617706 -0.29044116 0.05277036 -0.25964826 0.10843181 0.33462974 -0.29317936
0.23845519 0.21925306 0.31149423 0.28418425 -0.19920862 -0.37670997 -0.34955272 0.073511705
-0.27552345 0.3907865 -0.27258515 -0.13364498 0.2879093 0.2084445 -0.2783284 -0.3996338
-0.23502937 0.013662537 0.22160119 0.087899745 0.16976134 -0.34319595 -0.32540438 -0.34097144
-0.22048981 -0.09830714 0.03810797 0.008993606 -0.20646726 0.30585444 -0.16362959 -0.18904285
0.07444705 0.115497746 -0.30067366 0.2582517 -0.0073820194 0.37646514 -0.32111976 -0.08839912
-0.20142142 0.22416715 -0.26584765 0.28693143 0.18663159 -0.21837333 -0.08397002 -0.056078058

neighborLayer.a f4 [64, 1]
00000000: 3396 7b3d c5dd 84be 7c0f 25be e969 3bbe
00000010: 0bd6 fb3d c0b4 66bd 7f0b 17be b5d2 9dbe
00000020: b4c8 823e 8a0c babd f1cb e4bd 33b8 89be
00000030: c9e6 9cbe 0e68 2a3e 0c71 e73d 3f0c 473e
00000040: c036 5d3e 3fb1 0c3e 1f4c 4f3e 9072 27be
00000050: 51b6 123c c9f2 623e 0dc1 233e e77a 3abe
00000060: a890 e0bd fe2f fe3d b9d3 7fbe 4425 643e
00000070: 5854 3e3e c8ab 843e e5a1 0cbe a42f c5bc
00000080: ecaa 0f3e 42f6 363c ae63 203d ca55 67be
00000090: bb54 7fbe 9e99 46be a08c 1b3e fc74 823c
000000a0: 236c 523d 53ff 473e 7a37 0cbe d7ca 69be
000000b0: 0b37 75be e0c6 9d3d 02ac 9cbd 2411 933e
000000c0: 5cc2 143e d39a 0e3e 03f5 05bc ff20 0a3e
000000d0: 4298 9c3e 60d7 aebe 6136 66be 1c21 8b3d
000000e0: 9637 153d 8eb0 193c b4ed d03d 1f7f 9fbe
000000f0: c2a4 19be 4323 89be 2c32 62be 941f 473e
0.061422538 -0.25950447 -0.16119188 -0.1830212 0.12296685 -0.05632472 -0.14750479 -0.3082482
0.2554375 -0.09084423 -0.11171711 -0.26898345 -0.30644825 0.16641256 0.11300859 0.19438265
0.21602917 0.13739489 0.20243882 -0.16352296 0.0089546 0.22162928 0.15991612 -0.18210946
-0.10965091 0.124114975 -0.2498311 0.2227984 0.18586862 0.2591231 -0.13733633 -0.024070568
0.14030045 0.011167111 0.039157562 -0.2259132 -0.24934666 -0.19394538 0.15190363 0.015924923
0.05137266 0.19530992 -0.13693038 -0.22831284 -0.23946778 0.07703948 -0.076499954 0.28724015
0.14527267 0.13926248 -0.008176091 0.1348915 0.30584913 -0.34148693 -0.22481681 0.067934245
0.036429964 0.009380473 0.10201588 -0.31151673 -0.15004256 -0.26784715 -0.22089452 0.1944564
