test/model/actor_3_3_3_3_0_best_rou4.pth (torch, 689309 bytes, 17 tensors)

v2lLayer.W f4 [3, 40]
0.19960493 0.2454499 0.3557797 -0.1469425 -0.14830942 0.035162807 0.33836323 -0.093381464
-0.050376207 -0.15261608 0.27787906 -0.17742555 0.12740684 -0.12533802 0.024067163 0.018179446
-0.16353339 0.104729146 0.25411493 -0.054926813 -0.0071949065 -0.31625995 0.34522337 -0.123300344
0.012050778 0.017363101 -0.064112425 0.228899 -0.2317264 0.3121478 -0.096612066 -0.031113684
-0.27122533 0.30599004 0.019960284 -0.114967406 -0.32411072 0.3285885 0.07818112 -0.24999665
0.31810457 0.33111113 -0.26228213 -0.09602636 0.11399305 0.23616803 -0.037791252 -0.08383289
0.2543823 -0.37115705 -0.31182572 0.05611044 -0.27859956 0.24273157 0.03045252 -0.2638524
-0.19877385 0.104111254 -0.08077514 -0.14725722 -0.0941318 -0.34662426 0.039933145 -0.3650752
0.019526392 0.06435907 -0.3365922 0.022075236 -0.08274186 -0.29491416 0.23454046 -0.12423764
0.37028056 -0.35558793 -0.22428319 0.021627367 0.13167286 -0.2863703 -0.2993618 -0.3735411
-0.11691627 0.05616799 -0.1760193 -0.051027715 0.064186215 0.16811615 0.13516569 0.083976984
0.073614836 -0.33937737 -0.36591882 -0.3630513 -0.20182365 -0.22877206 0.0069951415 0.30632758
-0.08625957 0.32138932 0.35882616 0.02923432 -0.2137324 0.25845814 -0.25549093 0.29035944
-0.35989848 -0.2016446 -0.34827864 0.29672444 -0.066177934 0.24179387 -0.35366037 -0.014815807
-0.022750437 0.24017036 0.3601277 0.34944916 0.36777043 0.1609897 -0.2740121 0.20549637
00000000: 3c65 4c3e 3857 7b3e c228 b63e 1878 16be
00000010: 6dde 17be e006 103d f23d ad3e c83e bfbd
00000020: 4857 4ebd 6447 1cbe 2a46 8e3e 0baf 35be
00000030: f076 023e 9c58 00be 8028 c53c 10ed 943c
00000040: 4c75 27be 3c7c d63d 5a1b 823e f0fa 60bd
00000050: 40c3 ebbb d3ec a1be 1ec1 b03e e484 fcbd
00000060: a070 453c 103d 8e3c 604d 83bd 8064 6a3e
00000070: af49 6dbe d6d1 9f3e 8cdc c5bd 20e2 febc
00000080: 0cde 8abe baaa 9c3e c083 a33c 0874 ebbd
00000090: d7f1 a5be c03c a83e 6c1d a03d 1fff 7fbe
000000a0: 9ade a23e 6687 a93e d849 86be 78a9 c4bd
000000b0: 3075 e93d 08d6 713e 00cb 1abd 94b0 abbd
000000c0: 663e 823e 4c08 bebe 9fa7 9fbe 10d4 653d
000000d0: 9aa4 8ebe a08e 783e 9077 f93c a917 87be
000000e0: 5f8b 4bbe 4838 d53d 706d a5bd 99ca 16be
000000f0: 2cc8 c0bd bc78 b1be f090 233d 23eb babe
00000100: d0f5 9f3c b0ce 833d d055 acbe 20d7 b43c
00000110: 9074 a9bd fdfe 96be 602b 703e 4e70 febd
00000120: 6a95 bd3e 9f0f b6be 7eaa 65be e02b b13c
00000130: 40d5 063e 219f 92be f345 99be c740 bfbe
00000140: cc71 efbd 6810 663d 673e 34be 7002 51bd
00000150: 1074 833d a426 2c3e e068 0a3e 20fc ab3d
00000160: 60c3 963d dfc2 adbe b659 bbbe dce1 b9be
00000170: dcaa 4ebe 3943 6abe 8037 e53b f8d6 9c3e
00000180: dca8 b0bd 248d a43e 10b8 b73e d07c ef3c
00000190: abdc 5abe a054 843e b5cf 82be fea9 943e
000001a0: 9d44 b8be ec7b 4ebe 9451 b2be 44ec 973e
000001b0: 4c88 87bd d098 773e f912 b5be 00be 72bc
000001c0: 205f babc 38ef 753e a862 b83e 00eb b23e
000001d0: 684c bc3e 7cda 243e 504b 8cbe a46d 523e

v2lLayer.a f4 [80, 1]
-0.20868045 -0.1843476 0.017233342 0.20526671 -0.12027213 -0.1452736 -0.08898525 0.013864249
-0.22419296 0.09755963 0.12831712 0.031932056 0.18109742 -0.01859489 0.048888385 0.20918512
0.037474424 0.17634842 -0.24168271 -0.038800985 0.13282639 -0.04236582 0.09375939 -0.26924312
-0.059670374 -0.083693266 0.15027353 0.1409716 -0.21782336 0.2493028 -0.23125827 -0.008222461
0.21228862 0.013585955 -0.068439156 -0.06425327 -0.0696933 -0.17354143 -0.0039101243 -0.11377272
-0.23468465 -0.115272045 0.165844 0.20699686 0.07989991 -0.24485326 -0.2540413 -0.13208008
-0.08009571 -0.2574333 -0.22659254 0.05786875 -0.21902822 -0.15808749 -0.10127753 -0.010720253
0.23718452 -0.2096239 0.025289148 -0.2646689 -0.02108416 -0.1133084 0.0860762 0.25815266
-0.08367686 0.10481399 0.25735718 0.016961843 0.2332936 -0.040930465 0.025543451 0.17101163
-0.13687214 0.055334628 0.038375735 -0.17961961 -0.24979177 0.049818218 -0.028726593 0.1157459
00000000: 54b0 55be 9ec5 3cbe f02c 8d3c 7031 523e
00000010: 3c51 f6bd 9ac2 14be e63d b6bd e026 633c
00000020: d792 65be 58cd c73d 9065 033e 30cb 023d
00000030: 9a71 393e 5054 98bc 303f 483d a034 563e
00000040: c87e 193d ae94 343e ac7b 77be c8ed 1ebd
00000050: a403 083e c887 2dbd ec04 c03d 3cda 89be
00000060: ec68 74bd 6067 abbd 4ee1 193e dc5a 103e
00000070: 160d 5fbe 3c49 7f3e f8ce 6cbe 80b7 06bc
00000080: 3062 593e a097 5e3c d429 8cbd 3897 83bd
00000090: 5cbb 8ebd d8b4 31be 8020 80bb ac01 e9bd
000000a0: 2c51 70be c013 ecbd 02d3 293e fcf6 533e
000000b0: 90a2 a33d d0ba 7abe b411 82be 0040 07be
000000c0: 3809 a4bd 4cce 83be e007 68be c807 6d3d
000000d0: ef48 60be b0e1 21be 986a cfbd 00a4 2fbc
000000e0: 80e0 723e a6a7 56be 302b cf3c af82 87be
000000f0: b0b8 acbc 3c0e e8bd b848 b03d 962c 843e
00000100: c65e abbd b8a8 d63d 52c4 833e 90f3 8a3c
00000110: 84e4 6e3e b4a6 27bd 8040 d13c ac1d 2f3e
00000120: 3628 0cbe 90a6 623d e02f 1d3d 34ee 37be
00000130: 6ac9 7fbe 300e 4c3d 0854 ebbc 300c ed3d

laneLayer.W f4 [12, 12]
-0.24857259 -0.36539578 -0.2212326 0.22962284 -0.4906997 -0.15197778 0.046417236 0.24070895
-0.39527452 -0.076737285 -0.29895598 -0.43054813 -0.4213547 -0.45971566 -0.034955144 -0.0032992363
-0.4665692 0.30788094 -0.08940184 -0.25750202 -0.26770484 -0.39720017 0.08474195 0.37093294
-0.11245161 0.38332617 -0.4528106 0.24148297 0.04353541 -0.038292825 0.05501324 0.086248994
-0.0037682056 -0.031145632 -0.22299325 -0.26503766 -0.08952981 -0.37748486 -0.4323936 -0.19704223
0.2637673 -0.32969153 -0.47907406 -0.075502336 0.12252587 0.14692724 -0.1811738 -0.27582073
0.33246118 0.13873392 0.118614435 0.22996867 -0.35075557 0.15978676 -0.10181302 -0.11895394
-0.39151353 -0.36976153 0.15483308 0.16738969 0.28506583 0.14107418 -0.46052283 -0.18349022
-0.09093189 0.49108267 -0.3376199 0.006000638 -0.08422464 0.1247493 0.2230922 0.46379519
0.120039344 0.045721352 0.035971522 0.026209652 0.09855169 -0.15579003 -0.22421908 -0.18381536
-0.20236862 -0.32470948 -0.13547641 0.47494113 -0.051371098 -0.30798066 -0.12341297 0.33477956
-0.43808866 0.35102433 0.2543381 -0.18332785 0.36125833 0.11797607 0.0984875 -0.15204537
0.38647115 0.31854922 -0.27005947 0.35467178 0.19198829 0.39420682 0.44384366 0.13669801
0.32042754 -0.14804411 0.002136469 -0.051279843 0.34609848 -0.32150638 0.3260445 0.24883056
-0.08237505 0.3488717 0.32639968 0.010311246 -0.4069262 0.054246962 0.28126943 -0.21237218
0.1793943 0.046459854 -0.4072823 -0.4397899 0.32726693 -0.17075533 0.4085791 -0.1040678
0.4784885 -0.07612163 0.2186892 0.22433144 0.30856156 -0.24464345 -0.31503636 -0.4800216
-0.35805714 0.18275374 -0.02182579 0.15733272 -0.17399919 -0.27096575 0.021200478 -0.16826886
00000000: d089 7ebe 2815 bbbe cc8a 62be 4022 6b3e
00000010: fe3c fbbe 10a0 1bbe 0020 3e3d 687c 763e
00000020: 6c61 cabe 7028 9dbd c210 99be ce70 dcbe
00000030: cebb d7be da5f ebbe 202d 0fbd 0038 58bb
00000040: 28e2 eebe 92a2 9d3e 5018 b7bd 4ed7 83be
00000050: 9c10 89be d25d cbbe 308d ad3d ecea bd3e
00000060: 084d e6bd 5443 c43e cad6 e7be 5047 773e
00000070: 3052 323d f0d8 1cbd 9055 613d 50a3 b03d
00000080: 00f4 76bb 2025 ffbc 5858 64be 04b3 87be
00000090: 685b b7bd b245 c1be b262 ddbe 70c5 49be
000000a0: 820c 873e 54cd a8be 3249 f5be f8a0 9abd
000000b0: d8ee fa3d 1874 163e a085 39be 6038 8dbe
000000c0: 5a38 aa3e 4410 0e3e 20ec f23d e87c 6b3e
000000d0: 3c96 b3be 249f 233e 5883 d0bd 209e f3bd
000000e0: 7674 c8be 6251 bdbe 908c 1e3e 3468 2b3e
000000f0: 26f4 913e c075 103e a6c9 ebbe dce4 3bbe
00000100: 803a babd 306f fb3e 84dc acbe 00a1 c43b
00000110: f87d acbd 907c ff3d 4872 643e 9076 ed3e
00000120: 30d7 f53d 5046 3b3d e056 133d a0b5 d63c
00000130: 78d5 c93d 6c87 1fbe b099 65be 183a 3cbe
00000140: b839 4fbe 5240 a6be 54ba 0abe 7c2b f33e
00000150: 806a 52bd a4af 9dbe f0bf fcbd 3a68 ab3e
00000160: 284d e0be 76b9 b33e 9a38 823e 4cba 3bbe
00000170: daf6 b83e 709d f13d d0b3 c93d c8b1 1bbe
00000180: 8cdf c53e e218 a33e 3c45 8abe 8a97 b53e
00000190: 9498 443e 7ad5 c93e 7a3f e33e 90fa 0b3e
000001a0: 140f a43e e098 17be 0004 0c3b d00a 52bd
000001b0: d233 b13e 7c9c a4be 4eef a63e 70cd 7e3e
000001c0: 40b4 a8bd 509f b23e dc1d a73e 80f0 283c
000001d0: a258 d0be 1032 5e3d 8c02 903e 1878 59be
000001e0: 24b3 373e b04c 3e3d 4e87 d0be 242c e1be
000001f0: 888f a73e 7cda 2ebe 4831 d13e 8021 d5bd
00000200: 72fc f43e a8e5 9bbd 10f0 5f3e 24b7 653e
00000210: c8fb 9d3e d083 7abe 724c a1be 64c5 f5be
00000220: 4453 b7be cc23 3b3e 00cc b2bc d41b 213e
00000230: d82c 32be 06bc 8abe a0ac ad3c ac4e 2cbe

l2pLayer.W f4 [12, 88]
0.12735243 -0.22956146 0.13983981 0.078589186 -0.15920249 0.016254261 0.14101355 -0.17004448
-0.1192987 0.2205462 -0.054611742 -0.10503207 0.09166901 -0.18147987 -0.17468122 -0.05949697
0.16860704 -0.23713967 0.106638595 0.037054732 0.10558875 0.105791256 0.12143056 -0.023911506
-0.023024678 -0.08215968 0.21084045 0.020691141 0.09121539 0.23928554 0.102756575 -0.09368029
-0.21040751 0.19118766 -0.095163286 0.235545 0.0011509508 -0.027823001 0.13301165 0.22002463
-0.08249861 0.21908478 -0.106933996 0.20202549 0.13638537 -0.04258564 0.048369363 -0.002785176
-0.24224643 -0.20493574 -0.001124233 0.008128092 -0.052764073 0.032589003 0.16935082 0.114713654
-0.0048593283 -0.08508329 -0.21948272 -0.15548483 0.23077531 -0.22835109 -0.12599438 -0.16065624
-0.1118775 -0.17480889 0.02815117 -0.14020407 -0.0399936 0.16150318 0.23521064 0.18869339
0.09716885 0.084806606 -0.06165813 0.08697064 0.047799602 0.03383313 -0.16563988 0.093529925
0.1750002 -0.24110547 -0.09743348 0.24275823 0.19501565 -0.07412419 0.1268261 -0.026992038
0.115090325 0.06580199 0.006054327 0.20077346 0.23514463 0.16536053 -0.14650273 0.1502947
-0.0688629 -0.056346998 -0.018844023 0.18652596 0.22370778 -0.0047603548 0.18445484 0.16264103
-0.23182578 0.09563063 0.15950643 0.14990886 0.09217189 -0.17908019 0.21744592 -0.0833281
-0.20351851 -0.20112467 0.054782435 0.08555348 -0.20829003 -0.04140252 0.2149979 -0.020420954
0.0033382475 -0.0043509156 -0.2243436 0.22158213 -0.1622123 -0.1933958 -0.014095634 -0.228059
-0.08640416 -0.04741074 0.21227123 0.015422419 -0.17864573 -0.13107383 0.028792098 -0.059310123
0.24392791 -0.012864023 -0.17573479 -0.09142849 -0.051889583 -0.10146068 0.093003646 -0.06955786
-0.114102036 0.10887258 -0.10618563 0.23627873 -0.030608028 -0.063041314 -0.1372499 0.16500653
-0.068503216 0.078079 -0.016715392 -0.22852871 0.15632527 0.21612535 -0.00041022897 -0.06444763
0.18636079 -0.1990967 0.101535276 0.23278712 0.21030538 0.13765709 0.10500161 -0.026237682
0.014105514 -0.04893829 0.2225946 -0.17766765 -0.20733912 0.15742056 0.07930355 0.024849728
0.24469532 -0.21490075 -0.15766396 -0.0928261 -0.05904676 -0.0973582 -0.19073382 -0.103744715
0.091066256 -0.14948083 0.11336322 0.23640446 -0.0520311 -0.14468533 0.16185166 0.031899765
-0.07012437 -0.0676 -0.055996865 0.24426411 0.0030926168 -0.12754264 -0.18717441 0.16017671
-0.015983835 0.18303256 -0.13535455 -0.21185838 0.16681881 -0.04881239 -0.24388748 -0.14237264
0.006786898 0.06852345 0.043684795 -0.17103542 -0.17044076 -0.09726322 0.23408954 0.007890537
0.09705041 -0.20594425 0.087814555 -0.015205264 -0.23721868 0.06843673 -0.12033612 0.23947738
-0.112032354 0.23899989 -0.1864182 -0.18766756 0.20984305 -0.19781157 0.16005598 0.1357327
-0.22573185 0.18549009 0.03780125 -0.124718696 -0.05028014 0.083030865 -0.24399143 0.09781121
-0.1346773 -0.109647974 -0.2130793 0.020093694 -0.09030855 -0.09361018 -0.15679377 0.19571017
0.104013935 0.017757162 0.17494516 -0.18238896 -0.032773778 -0.077900335 -0.1203382 -0.015448824
00000000: ad68 023e 2912 6bbe 2b32 0f3e 5ef3 a03d
00000010: fa05 23be a827 853c db65 103e 2420 2ebe
00000020: e052 f4bd ddd6 613e 90b0 5fbd 0e1b d7bd
00000030: f6bc bb3d dcd5 39be a2df 32be 18b3 73bd
00000040: 53a7 2c3e bed4 72be 5665 da3d b4c6 173d
00000050: ea3e d83d 16a9 d83d 96b0 f83d 10e2 c3bc
00000060: 409e bcbc 5643 a8bd 8fe6 573e 7880 a93c
00000070: 22cf ba3d 4507 753e 0a72 d23d 74db bfbd
00000080: 1175 57be b3c6 433e f8e4 c2bd b532 713e
00000090: 80db 963a 10ed e3bc 3534 083e 234e 613e
000000a0: 08f5 a8bd c357 603e 3600 dbbd c5df 4e3e
000000b0: 9ba8 0b3e 486e 2ebd f41e 463d 8087 36bb
000000c0: 730f 78be adda 51be 005b 93ba b02b 053c
000000d0: 241f 58bd 0c7c 053d 4d6a 2d3e feee ea3d
000000e0: 003b 9fbb 2640 aebd 14c0 60be 6a37 1fbe
000000f0: 5d50 6c3e ded4 69be ac04 01be 1283 24be
00000100: 0820 e5bd 1a01 33be 489d e63c a891 0fbe
00000110: 54d0 23bd 1761 253e 0fdb 703e d738 413e
00000120: 7600 c73d 16af ad3d 3c8d 7cbd aa1d b23d
00000130: 84c9 433d 9c94 0a3d 809d 29be 9e8c bf3d
00000140: 4133 333e 5ae4 76be 348b c7bd 9d95 783e
00000150: 2fb2 473e 6cce 97bd b3de 013e 681e ddbc
00000160: 7ab4 eb3d 32c3 863d 6063 c63b 8f97 4d3e
00000170: c1c9 703e 4554 293e d004 16be dbe6 193e
00000180: fe07 8dbd 1ccc 66bd c85e 9abc a900 3f3e
00000190: a713 653e c0fc 9bbb bbe1 3c3e 5f8b 263e
000001a0: bd63 6dbe fed9 c33d a755 233e b581 193e
000001b0: 9ec4 bc3d cc60 37be 25aa 5e3e eca7 aabd
000001c0: 2867 50be a0f3 4dbe 8c63 603d aa36 af3d
000001d0: fb49 55be b095 29bd 6928 5c3e d849 a7bc
000001e0: 80c6 5a3b 2092 8ebb 54ba 65be 6de6 623e
000001f0: fb1a 26be 8c09 46be 60f1 66bc 4c88 69be
00000200: aaf4 b0bd c431 42bd a15d 593e 50ae 7c3c
00000210: e8ee 36be 3838 06be 68dd eb3c 2cef 72bd
00000220: 3dc8 793e a0c3 52bc d2f3 33be dc3e bbbd
00000230: 2c8a 54bd 9eca cfbd b278 be3d 5a74 8ebd
00000240: 54ae e9bd 96f8 de3d da77 d9bd 0df3 713e
00000250: b0bd fabc ce1b 81bd 3d8b 0cbe 79f7 283e
00000260: 6a4b 8cbd e2e7 9f3d b8ee 88bc 6e03 6abe
00000270: bb13 203e f74f 5d3e 0014 d7b9 1efd 83bd
00000280: 5dd5 3e3e 01e0 4bbe baf1 cf3d bf5f 6e3e
00000290: 4b5a 573e fbf5 0c3e 160b d73d 68f0 d6bc
000002a0: d01a 673c 8473 48bd d7ef 633e 82ee 35be
000002b0: b550 54be db32 213e e669 a23d a891 cb3c
000002c0: 6991 7a3e f10e 5cbe a972 21be 9c1b bebd
000002d0: 04db 71bd bc63 c7bd ba4f 43be 1c78 d4bd
000002e0: f280 ba3d 8111 19be fa2a e83d 0314 723e
000002f0: 901e 55bd 6428 14be 71bc 253e 54a9 023d
00000300: 5e9d 8fbd de71 8abd f85c 65bd 5f20 7a3e
00000310: 80ad 4a3b 8a9a 02be a6aa 3fbe 5d05 243e
00000320: 88f0 82bc e36c 3b3e 629a 0abe 67f1 58be
00000330: 8dd2 2a3e 80ef 47bd a4bd 79be 22ca 11be
00000340: a064 de3b 0656 8c3d d4ee 323d e923 2fbe
00000350: 0688 2ebe f031 c7bd 2bb5 6f3e 5047 013c
00000360: 5ec2 c63d 0de3 52be 1ed8 b33d 801f 79bc
00000370: 74e9 72be 8e28 8c3d c972 f6bd 8f39 753e
00000380: 3871 e5bd 63bc 743e 6ae4 3ebe ed2b 40be
00000390: 19e1 563e 1e8f 4abe b7e5 233e 83fd 0a3e
000003a0: 4026 67be 1df1 3d3e 7cd5 1a3d 846c ffbd
000003b0: 8cf2 4dbd 160c aa3d e4d8 79be 3e51 c83d
000003c0: d9e8 09be 1e8f e0bd 7631 5abe 889b a43c
000003d0: b0f3 b8bd b2b6 bfbd 8c8e 20be 3f68 483e
000003e0: 4205 d53d 7877 913c d324 333e 2cc4 3abe
000003f0: cc3d 06bd 368a 9fbd e073 f6bd 101d 7dbc

l2pLayer.a f4 [176, 1]
-0.15378799 0.1669047 -0.15978004 -0.121721186 -0.073427685 -0.11718116 -0.107197225 -0.06243664
0.024638548 -0.15229504 0.14961798 0.035314113 0.11586027 -0.06264669 0.07750155 0.12985547
-0.0011012703 0.15333422 0.16459547 0.088155106 -0.015548661 0.055927277 0.015656114 0.06459275
-0.0048620403 0.014297456 -0.16411617 0.18230473 -0.08531183 -0.046208248 0.17089073 0.02969636
-0.054336682 -0.058651477 -0.050338894 0.050708532 0.07487105 0.16575591 -0.058539346 0.07700588
-0.18242048 0.105453864 -0.17328611 -0.10939655 0.14886467 0.11017682 -0.0626703 0.02018024
-0.03332247 0.033504978 0.009097442 0.12185888 0.023569062 -0.17587192 -0.053552374 0.08132218
-0.03544675 -0.1631442 0.02853553 -0.16066438 -0.017893568 0.028430656 0.060093537 -0.12539795
-0.13070558 -0.0073254853 0.11765768 0.12607749 -0.17415011 0.12918054 -0.09757267 -0.08896173
-0.08939292 0.015603051 0.13247283 0.15149234 -0.10039363 0.0075583905 0.06125796 0.0926155
0.15923257 -0.16062944 0.020806521 0.16604932 -0.025793552 -0.05543101 -0.09313529 0.012481317
0.05774221 -0.017389655 0.024446577 -0.113328345 0.048224032 0.025980264 -0.049756676 -0.119404666
-0.04597704 -0.110094845 -0.12746681 0.13616051 0.110557124 -0.09043963 0.03818901 -0.13792007
-0.018487334 0.16930468 0.008042663 -0.06278219 0.17236869 -0.0056016594 -0.021286428 0.12599365
-0.17759302 -0.14054771 0.11204596 0.15495314 -0.11927818 0.0780264 -0.083665185 -0.13560641
-0.013502061 -0.18137422 0.006097123 0.13772605 -0.13019179 -0.1285728 0.11884801 0.089928016
-0.17643066 -0.061949387 -0.018774822 -0.062056214 0.046510488 -0.050621346 0.15143408 -0.058311775
-0.11405556 -0.10739915 0.046475396 -0.1459662 0.12632538 -0.024396077 0.06540656 0.11691208
-0.12003267 -0.04740879 0.031176746 0.051018372 0.036901742 0.10863276 -0.07040336 -0.02196899
0.081379905 0.18071572 0.115410164 -0.0242849 -0.036527634 0.06480935 0.13291349 -0.12452562
0.1156749 0.103950664 0.025740296 0.026139855 -0.053629115 0.14210694 -0.01638475 -0.12539335
0.13405798 -0.07632362 -0.01135236 -0.16033041 0.07949607 0.045806617 -0.12578613 -0.15047066
00000000: 997a 1dbe 11e9 2a3e 619d 23be f548 f9bd
00000010: 4161 96bd adfc efbd 388a dbbd 90bd 7fbd
00000020: c8d6 c93c 3bf3 1bbe 7535 193e 88a5 103d
00000030: 2648 ed3d e84c 80bd 22b9 9e3d d5f8 043e
00000040: 8058 90ba a503 1d3e b78b 283e aa8a b43d
00000050: d0bf 7ebc 0014 653d 4041 803c 3449 843d
00000060: c051 9fbb e03f 6a3c 120e 28be 17ae 3a3e
00000070: f8b7 aebd dc44 3dbd fbfd 2e3e c845 f33c
00000080: 2490 5ebd 883c 70bd 2830 4ebd c0b3 4f3d
00000090: fe55 993d ebbb 293e f4c6 6fbd 42b5 9d3d
000000a0: 6fcc 3abe 32f8 d73d ea71 31be 4c0b e0bd
000000b0: fb6f 183e 62a4 e13d 4959 80bd 0851 a53c
000000c0: 247d 08bd 843c 093d 700d 153c 2691 f93d
000000d0: e813 c13c c517 34be bc59 5bbd 3e8c a63d
000000e0: 9c30 11bd 460f 27be 58c3 e93c 3485 24be
000000f0: 8895 92bc 68e7 e83c a424 763d 5268 00be
00000100: afd7 05be a00a f0bb 82f6 f03d 751a 013e
00000110: 6854 32be e747 043e 2ed4 c7bd 9131 b6bd
00000120: a313 b7bd f0a3 7f3c f5a6 073e cf20 1b3e
00000130: 2d9b cdbd 60ac f73b a0e9 7a3d 32ad bd3d
00000140: dd0d 233e 0b7c 24be 7072 aa3c d508 2a3e
00000150: 004d d3bc a00b 63bd b7bd bebd 707e 4c3c
00000160: 1883 6c3d c074 8ebc 3044 c83c b118 e8bd
00000170: 9086 453d 90d4 d43c a8cd 4bbd 6f8a f4bd
00000180: 6c52 3cbd 6879 e1bd a986 02be a96d 0b3e
00000190: c66b e23d 6a38 b9bd 146c 1c3d eb3a 0dbe
000001a0: c072 97bc 355e 2d3e 60c5 033c f393 80bd
000001b0: 6b81 303e 208e b7bb e060 aebc 7b04 013e
000001c0: f2da 35be bdeb 0fbe 5a78 e53d 09ac 1e3e
000001d0: 1e48 f4bd 4ecc 9f3d a758 abbd 68dc 0abe
000001e0: c037 5dbc 2aba 39be 60ca c73b 0f08 0d3e
000001f0: ff50 05be 97a8 03be 9666 f33d 2e2c b83d
00000200: 3daa 34be a4be 7dbd a8cd 99bc a82e 7ebd
00000210: c881 3e3d 5458 4fbd 8911 1b3e 54d8 6ebd
00000220: f695 e9bd 16f4 dbbd fc5c 3e3d 2a78 15be
00000230: 715b 013e 48da c7bc e0f3 853d 9a6f ef3d
00000240: b0d3 f5bd b82f 42bd 6066 ff3c a4f8 503d
00000250: 4826 173d da7a de3d a32f 90bd 50f8 b3bc
00000260: 82aa a63d 8b0d 393e 2a5c ec3d 20f1 c6bc
00000270: 009e 15bd c4ba 843d 791a 083e 4a07 ffbd
00000280: f6e6 ec3d 16e4 d43d 50dd d23c 4023 d63c
00000290: 34aa 5bbd 7b84 113e 5039 86bc 1d67 00be
000002a0: 7f46 093e 8f4f 9cbd 40ff 39bc a82d 24be
000002b0: d6ce a23d b89f 3b3d 14ce 00be fb14 1abe

phaseLayer.W f4 [24, 26]
-0.117327824 0.17190152 -0.22068502 -0.094801754 0.34630895 0.005464822 0.15692157 -0.20849486
-0.038315684 0.2961548 0.34107578 -0.27919805 -0.16092113 -0.20866829 0.26329213 0.08940175
0.32883245 -0.24293882 -0.26391432 0.12324023 0.28055543 0.008488625 -0.32986146 -0.17410965
-0.21953078 -0.060575306 0.07588509 -0.015957832 -0.084679484 -0.27805597 0.16475368 -0.13700491
0.20203674 -0.22082075 -0.0052984357 0.09329787 -0.2763129 0.2493754 0.0030384362 0.20577455
-0.17264363 0.017628968 0.039016843 0.08855066 0.095553875 0.050242066 -0.00066924095 -0.13216415
0.020481825 0.015250862 -0.27534622 -0.31166235 0.22094554 -0.33826208 -0.010576755 -0.020796657
0.2597481 -0.10119894 0.17880791 -0.33892807 -0.21617079 -0.17879254 0.06786561 0.26910073
-0.16709383 0.0747056 -0.21434268 -0.14392671 0.3283683 0.30792427 0.24784887 0.14441866
0.28197128 -0.25674427 -0.046596974 0.25271314 0.05306992 -0.32489514 0.11752507 -0.15145211
0.025659323 -0.3317011 0.27599132 0.33446777 -0.33101428 -0.2836715 0.2255168 -0.097014904
0.16935062 0.1330373 0.11231801 -0.1700099 -0.18169135 0.074391186 0.25857782 -0.28481293
-0.08390921 -0.081822455 -0.20139264 -0.0020635724 -0.15195815 -0.11986183 0.21965688 -0.15380529
-0.043121457 -0.06985593 -0.1267232 0.24234492 0.08041766 0.2279436 0.3044557 0.17535353
-0.32905748 0.25004405 -0.087388664 -0.2855064 -0.25128248 -0.06359097 -0.11898108 0.01778701
0.12581974 0.1772126 -0.11250511 0.2751922 -0.19092765 -0.320866 0.28107357 0.1697287
-0.32688627 0.034088135 0.0020264983 -0.18193561 0.0044731796 -0.2629603 -0.106762245 0.2251234
-0.25384676 0.05004087 0.30249125 -0.0020762384 0.31633526 -0.017913163 -0.13703158 0.33061206
-0.03633088 -0.15856557 0.22291821 0.18486798 0.21947539 0.17269462 0.06068936 -0.016110957
-0.33908114 0.33914608 0.30457568 0.021918058 -0.15467216 0.32180065 -0.123329714 0.29914278
0.23836386 0.10761362 0.19299406 -0.2108593 0.010002375 -0.20313513 0.30545694 -0.27833468
0.29845768 -0.16172613 0.30832136 -0.18566027 0.028667867 0.30223662 -0.23546886 0.14551693
0.33592194 0.03878665 0.20099503 -0.29077977 -0.09015006 0.23238993 -0.26621455 0.3236506
0.05494222 0.14975467 -0.18555039 -0.23087497 0.14995557 -0.024648845 0.3391508 0.03825453
-0.32116634 -0.34170517 0.0996165 0.32689613 0.22507423 0.19637519 -0.19021684 -0.22169602
0.16324914 0.1887719 -0.32658932 -0.3146247 0.3392936 0.28770798 -0.03542629 0.24241364
0.2619139 0.07543898 0.15994084 0.19783688 -0.0028740168 -0.31947014 -0.12910004 0.026176095
0.2464152 0.03188938 0.101034254 -0.0055841208 0.273291 -0.23276418 0.28122044 0.08344349
0.3139053 0.25699532 -0.14140409 0.04965955 0.08818507 -0.27280292 -0.2070259 0.18290597
0.15213856 -0.12783487 0.1941061 -0.067311406 -0.16947706 0.07407293 -0.031909168 -0.097923115
0.07155734 0.24903697 -0.2478368 0.003349632 0.25531602 0.16692734 -0.105929196 0.20609975
-0.016104966 -0.2158761 -0.045221537 -0.28379846 -0.25452065 -0.20626813 -0.04194075 -0.0894247
00000000: 9249 f0bd f406 303e 41fb 61be 6c27 c2bd
00000010: 684f b13e 4012 b33b 0cb0 203e ad7f 55be
00000020: e8f0 1cbd 9aa1 973e 7ca1 ae3e 0cf3 8ebe
00000030: 82c8 24be 24ad 55be 3ace 863e 4418 b73d
00000040: ba5c a83e f4c4 78be c71f 87be 6065 fc3d
00000050: f6a4 8f3e e013 0b3c 9ae3 a8be cd49 32be
00000060: adcc 60be d01d 78bd a469 9b3d 00ba 82bc
00000070: 706c adbd 5a5d 8ebe 30b5 283e 044b 0cbe
00000080: b8e2 4e3e d61e 62be 809e adbb f412 bf3d
00000090: e278 8dbe 445c 7f3e 8020 473b 90b6 523e
000000a0: 7ec9 30be a06a 903c 20d0 1f3d 0c5a b53d
000000b0: c0b1 c33d a0ca 4d3d 0070 2fba 0a56 07be
000000c0: 80c9 a73c c0de 793c 2efa 8cbe 3592 9fbe
000000d0: 8c3f 623e b030 adbe 204a 2dbc c05d aabc
000000e0: b4fd 843e 6441 cfbd 6c19 373e fb87 adbe
000000f0: e05b 5dbe 6415 37be 20fd 8a3d 92c7 893e
00000100: a51a 2bbe 40ff 983d a67c 5bbe 8661 13be
00000110: e41f a83e 40a8 9d3e 18cc 7d3e 7ce2 133e
00000120: 8a5e 903e fc73 83be 78dc 3ebd 9e63 813e
00000130: d85f 593d a858 a6be fcb0 f03d 4316 1bbe
00000140: 8033 d23c bad4 a9be bc4e 8d3e 5c3f ab3e
00000150: b47a a9be 643d 91be e0ed 663e c0af c6bd
00000160: 406a 2d3e ee3a 083e fc06 e63d 1317 2ebe
00000170: 4c0d 3abe 685a 983d 5064 843e 00d3 91be
00000180: 98d8 abbd 8892 a7bd df39 4ebe 003d 07bb
00000190: eb9a 1bbe 1e7a f5bd bced 603e 227f 1dbe
000001a0: 20a0 30bd a010 8fbd bac3 01be 4429 783e
000001b0: 04b2 a43d 0c6a 693e 9ee1 9b3e e08f 333e
000001c0: 397a a8be c605 803e d4f8 b2bd e52d 92be
000001d0: 19a8 80be fc3b 82bd 5aac f3bd 10b6 913c
000001e0: e4d6 003e 3877 353e 1469 e6bd fee5 8c3e
000001f0: 8a82 43be 8c48 a4be e0e8 8f3e 5ccd 2d3e
00000200: a35d a7be 00a0 0b3d 00cf 043b 544d 3abe
00000210: c093 923b bca2 86be 2aa6 dabd c086 663e
00000220: 34f8 81be a8f7 4c3d 22e0 9a3e 8011 08bb
00000230: b2f6 a13e a0be 92bc 0252 0cbe fc45 a93e
00000240: b0cf 14bd 035f 22be ac44 643e 084e 3d3e
00000250: 28be 603e dcd6 303e 6895 783d 20fb 83bc
00000260: 0b9c adbe 8ea4 ad3e 58f1 9b3e 808d b33c
00000270: 6162 1ebe 0ec3 a43e 4a94 fcbd 3e29 993e
00000280: a815 743e 8864 dc3d 3ca0 453e 80eb 57be
00000290: 00e1 233c a802 50be da64 9c3e e281 8ebe
000002a0: 72cf 983e 899b 25be 4cdc 9d3e ba1d 3ebe
000002b0: e0d8 ea3c c2be 9a3e c01e 71be 6402 153e
000002c0: f6fd ab3e c0de 1e3d a4d1 4d3e 16e1 94be
000002d0: 98a0 b8bd a0f7 6d3e 464d 88be 88b5 a53e
000002e0: 180b 613d 4a59 193e ec00 3ebe 7d6a 6cbe
000002f0: f48d 193e 60ec c9bc 2ca5 ad3e c8b0 1c3d
00000300: ea6f a4be fbf3 aebe bc03 cc3d ee5e a73e
00000310: dc79 663e 9416 493e 34c8 42be 4804 63be
00000320: c82a 273e 6c4d 413e b736 a7be 7d16 a1be
00000330: e4b7 ad3e 764e 933e 281b 11bd 483b 783e
00000340: 9419 863e c07f 9a3d 88c7 233e c095 4a3e
00000350: 005a 3cbb 9791 a3be cd32 04be 406f d63c
00000360: 4454 7c3e 709e 023d 0ceb ce3d 00fb b6bb
00000370: ccec 8b3e bc59 6ebe 20fc 8f3e 6ce4 aa3d
00000380: 32b8 a03e e494 833e 3ccc 10be d067 4b3d
00000390: 609a b43d d3ac 8bbe 99fe 53be b44b 3b3e
000003a0: 36ca 1b3e 25e7 02be c0c3 463e 90da 89bd
000003b0: 658b 2dbe 8cb3 973d 30b3 02bd ea8b c8bd
000003c0: a88c 923d 8c03 7f3e eec8 7dbe 8085 5b3b
000003d0: c8b8 823e 00ef 2a3e 68f1 d8bd d00b 533e
000003e0: 90ee 83bc a00e 5dbe 383a 39bd 084e 91be
000003f0: 8850 82be f437 53be 10ca 2bbd 4c24 b7bd

p2iLayer.W f4 [24, 176]
-0.0716947 0.16615424 -0.013399839 -0.10360954 -0.059647605 -0.101697646 -0.16514358 0.08760902
-0.17080146 0.0532922 0.03488283 -0.013227016 0.10849291 -0.16317661 0.047327086 0.0079123825
-0.026503861 -0.04937827 -0.13836688 0.0021679997 0.14469704 0.04904577 0.12773207 -0.08304133
-0.022838473 0.032717615 0.11398554 -0.076721214 -0.090142146 -0.10893799 0.015137538 0.102065146
0.007995233 0.05130157 -0.10036294 -0.033865765 0.13658631 -0.024694711 -0.06998264 0.050471768
0.10051471 -0.09782136 0.020976752 0.03782043 -0.12503092 0.07636993 0.053842768 -0.15240374
0.07698691 -0.015274763 -0.13704455 0.15563756 0.09232858 -0.15370421 0.027056292 0.004131332
-0.14781773 0.09833643 0.1567693 -0.08769614 0.17137823 -0.03159702 -0.0009726286 0.14868107
-0.12747222 0.04575023 0.13705298 0.12569866 0.011180997 0.05544965 -0.15298568 0.010306731
-0.042548537 0.021871299 0.15166259 -0.13169545 -0.0604911 -0.1521244 0.002420634 0.014962554
-0.008702308 0.14759493 -0.10287359 0.03912285 -0.1459473 0.14840314 0.063926846 0.02883245
0.11301723 -0.018195719 -0.09026562 0.009427577 0.024280831 0.0071043223 -0.0054248422 0.12190977
-0.02528359 0.05497265 0.07795453 -0.08526232 -0.04990732 -0.063007765 -0.13739073 0.10566595
0.09435263 0.16986728 -0.048155785 0.035444528 0.11895704 -0.105290174 -0.020257697 -0.13030058
0.13743538 -0.0743418 -0.07751842 -0.025327563 0.11174497 -0.095379815 0.10843071 -0.1275486
0.1573742 -0.050280154 0.11525819 -0.0029904842 0.15939191 0.020062432 -0.087891266 -0.14534059
-0.14763452 0.14504969 0.12913537 0.1296348 -0.059787616 0.09467766 -0.04679382 0.080719024
-0.06754118 0.033894733 0.14589563 -0.16214225 0.12897521 -0.14617538 -0.14183605 -0.042837918
0.08811256 0.07114375 -0.010250196 -0.10425081 0.090638906 0.09641966 0.09679493 0.1600593
0.048663646 -0.029675514 -0.05432588 -0.10004352 0.13581017 0.14895007 -0.06859049 -0.13324675
0.05290951 -0.14641193 0.029813081 0.04137598 -0.09299937 0.15634751 0.10184121 0.081855655
0.07929745 0.11080596 0.103535295 0.041696653 -0.17042597 -0.1144371 -0.06086546 0.054837286
-0.044648245 0.16248953 -0.1536827 -0.009804249 -0.06433735 -0.122997805 0.12903327 0.13519746
0.113137096 -0.057096235 0.15160981 0.11503732 -0.07562639 -0.021636799 0.15558985 -0.16542625
-0.04407899 -0.1297901 0.07949534 -0.06707308 -0.119879104 0.121264726 0.033812866 -0.123251714
-0.06586843 -0.0034763217 0.14082766 -0.07488128 -0.028568834 0.06060043 -0.110880524 0.015536323
-0.11402841 0.09160641 0.17158526 -0.1565296 0.070979446 0.13453391 0.16571963 -0.106224254
0.089267075 -0.082662866 0.14484334 -0.033785626 -0.056487337 0.08663583 0.1514852 -0.00821349
-0.044451326 0.16373909 0.10109526 0.094029516 -0.14481845 0.09878144 0.02782914 -0.07423988
0.07167624 -0.070933156 0.08156115 0.07845461 -0.13545924 0.056159407 0.13264164 -0.0063309073
-0.12866788 0.09105435 -0.109790266 0.124355555 -0.02902852 -0.022007018 -0.024443373 -0.118900426
0.13745838 0.16770872 -0.11845836 0.11818737 -0.03255272 0.044225603 -0.07230881 -0.1644641
00000000: acd4 92bd 5624 2a3e 008b 5bbc 3d31 d4bd
00000010: 0c51 74bd db46 d0bd 661b 29be 5c6c b33d
00000020: 94e6 2ebe ec48 5a3d 4ce1 0e3d 20b6 58bc
00000030: 8831 de3d c517 27be 0cda 413d f0a2 013c
00000040: a01e d9bc de40 4abd 0cb0 0dbe 0015 0e3b
00000050: 762b 143e 38e4 483d 32cc 023e 9311 aabd
00000060: c017 bbbc e802 063d 4071 e93d 0320 9dbd
00000070: 729c b8bd e21a dfbd 7003 783c 8807 d13d
00000080: 70fe 023c 9821 523d 168b cdbd d4b6 0abd
00000090: 48dd 0b3e 904c cabc 0f53 8fbd 7cbb 4e3d
000000a0: a8da cd3d 9156 c8bd 70d7 ab3c 98e9 1a3d
000000b0: 1b08 00be d667 9c3d 3c8a 5c3d ba0f 1cbe
000000c0: 50ab 9d3d 0043 7abc 6855 0cbe 745f 1f3e
000000d0: c416 bd3d a364 1dbe 28a5 dd3c 2060 873b
000000e0: 885d 17be 9c64 c93d 2288 203e 099a b3bd
000000f0: c67d 2f3e e06b 01bd 00f8 7eba da3f 183e
00000100: 1488 02be 9864 3b3d 9e57 0c3e 26b7 003e
00000110: 8030 373c 2c1f 633d 47a8 1cbe 90dd 283c
00000120: 6047 2ebd 702b b33c 704d 1b3e 2cdb 06be
00000130: 84c5 77bd 80c6 1bbe 80a3 1e3b 8025 753c
00000140: 2094 0ebc 2023 173e 64af d2bd 483f 203d
00000150: 3673 15be fef6 173e 14ec 823d 0832 ec3c
00000160: 9475 e73d 300f 95bc 2edd b8bd 2076 1a3c
00000170: 98e8 c63c 60cb e83b e0c2 b1bb d4ab f93d
00000180: 881f cfbc 002b 613d a0a6 9f3d 039e aebd
00000190: 9e6b 4cbd 370a 81bd 28b0 0cbe 6467 d83d
000001a0: f43b c13d b0f1 2d3e 003f 45bd 482e 113d
000001b0: c09f f33d 60a2 d7bd 78f3 a5bc 846d 05be
000001c0: dcbb 0c3e 8340 98bd fac1 9ebd c07b cfbc
000001d0: 8cda e43d 7e56 c3bd ec10 de3d 1a9c 02be
000001e0: b426 213e 90f2 4dbd 7c0c ec3d 00fc 43bb
000001f0: a237 233e f859 a43c 5600 b4bd 2ad4 14be
00000200: 812d 17be e887 143e 103c 043e fcbe 043e
00000210: dce3 74bd 5ce6 c13d e0aa 3fbd 0450 a53d
00000220: 0853 8abd 34d5 0a3d aa65 153e 9e08 26be
00000230: 1412 043e 00af 15be 783d 11be d076 2fbd
00000240: 5c74 b43d d0b3 913d 70f0 27bc 7381 d5bd
00000250: e4a0 b93d ac77 c53d 6c3c c63d 96e6 233e
00000260: 8853 473d 101a f3bc d084 5ebd 9ee3 ccbd
00000270: d211 0b3e 5e86 183e 2c79 8cbd d671 08be
00000280: a4b7 583d 02ed 15be 903a f43c dc79 293d
00000290: 7476 bebd 9019 203e 2092 d03d f0a3 a73d
000002a0: b466 a23d 3cee e23d 500a d43d 1cca 2a3d
000002b0: 2584 2ebe 005e eabd 104e 79bd 109d 603d
000002c0: 14e1 36bd a863 263e ff5e 1dbe 00a2 20bc
000002d0: 4dc3 83bd 46e6 fbbd 4c21 043e 3471 0a3e
000002e0: 6cb4 e73d bedd 69bd 9a3f 1b3e b098 eb3d
000002f0: 02e2 9abd a83f b1bc f252 1f3e 8065 29be
00000300: 2c8c 34bd b2e7 04be 74ce a23d 9c5d 89bd
00000310: 2d83 f5bd a459 f83d 5c7f 0a3d 656b fcbd
00000320: 07e6 86bd 00d3 63bb 2035 103e 5b5b 99bd
00000330: 3009 eabc 2838 783d 5415 e3bd 108c 7e3c
00000340: ba87 e9bd 249c bb3d 0cb4 2f3e 4c49 20be
00000350: ac5d 913d 42c3 093e 68b2 293e 1a8c d9bd
00000360: a8d1 b63d 264b a9bd d051 143e cc62 0abd
00000370: 445f 67bd 206e b13d f01e 1b3e e091 06bc
00000380: 9812 36bd 38ab 273e 080b cf3d 8c92 c03d
00000390: 4a4b 14be ec4d ca3d f0f9 e33c 140b 98bd
000003a0: feca 923d 6745 91bd 8809 a73d d0ac a03d
000003b0: d4b5 0abe 6807 663d 36d3 073e 8073 cfbb
000003c0: 83c1 03be b47a ba3d b8d9 e0bd 20ae fe3d
000003d0: 38cd edbc 1048 b4bc 783d c8bc 1182 f3bd
000003e0: e4c1 0c3e d6bb 2b3e 4c9a f2bd 380c f23d
000003f0: 0056 05bd e825 353d a416 94bd 4769 28be

p2iLayer.a f4 [352, 1]
-0.02338916 -0.055931605 0.08511789 0.07006477 -0.003724441 -0.043546505 0.09594683 -0.0862242
-0.009407803 0.12967235 0.018823788 0.036420688 0.0058175772 0.1129366 -0.120510995 -0.014211915
0.08291982 -0.07115057 -0.042592384 -0.0024817884 0.11050466 -0.10771858 -0.07273468 -0.038363308
0.016957879 -0.0442935 -0.0027124882 -0.07471219 0.1291706 0.005726218 -0.095701724 -0.016321905
-0.089625075 -0.029939704 0.121798456 0.10404545 0.050345585 -0.063002765 0.079530895 -0.04446028
-0.12170881 -0.12651777 -0.10446046 -0.02562067 0.025570393 0.1297597 0.061170608 -0.0021044016
-0.10244508 0.06750044 0.091413364 -0.078146845 -0.0016385764 -0.06295474 -0.008794829 0.06817265
-0.011352353 0.062016055 -0.05018924 0.06286621 -0.029762283 -0.120732 -0.024215251 0.07921769
0.102481544 0.099862576 0.015174031 -0.038834512 0.12712952 0.06821856 0.12396783 0.1033186
-0.006986834 0.11814053 -0.036707878 0.046432316 0.12812608 0.04579261 -0.108702384 -0.11199674
-0.118584774 -0.07003024 0.055309236 0.0028286874 -0.082901865 -0.1104042 -0.02903159 0.031265736
0.006235242 0.118817076 -0.070650116 0.029140666 -0.023898683 0.0016695112 0.065536454 -0.10359276
0.10216132 -0.08798622 0.02344945 0.10089196 0.0049711764 0.039676458 -0.05091557 -0.027016886
0.07702531 -0.04393006 0.03933789 0.0960616 -0.12393238 -0.03714864 0.0566781 -0.11531926
-0.10598861 0.094848216 0.09715378 -0.11730476 -0.117056824 -0.013807535 0.117773786 0.00020441413
-0.086901665 0.038584307 -0.12480368 -0.08788781 0.10660839 -0.078416795 0.061723158 0.034987465
0.11601181 -0.013849124 -0.07817848 0.025892496 -0.07937944 -0.01035703 0.006296709 0.045999616
-0.0045881867 0.004623607 -0.0075684786 -0.112707525 0.055970475 0.10366355 0.030385688 -0.069678485
-0.09799085 -0.119981475 0.10125551 0.006706372 -0.1210409 -0.12909544 -0.034716852 -0.1152381
0.06723626 -0.07631284 0.042721927 0.10608931 0.11957127 0.08835755 -0.047031045 0.10839553
0.058894157 -0.1112994 -0.10835047 -0.005934313 -0.12805764 0.07172337 0.05357994 0.06973456
0.01810576 0.045069903 -0.008424751 -0.097607 -0.034158453 -0.08272131 -0.12833637 -0.067566276
0.103657395 -0.04326769 -0.014973991 -0.069398075 0.09377436 -0.057229757 0.022614256 0.009576112
0.10856485 0.077792734 -0.05464682 0.11224486 -0.033964835 -0.07005289 -0.12865129 0.081777856
-0.07919112 -0.04925982 0.064164415 0.03930752 -0.03244546 -0.0043468624 -0.019856863 0.059955984
-0.04756736 -0.10990408 -0.040413097 -0.018456899 0.003589183 0.0044399947 -0.026085012 -0.12436973
-0.09024888 -0.09240083 -0.04713975 -0.032570697 -0.12409733 0.05547592 0.05878614 -0.09751131
0.049543798 0.001844734 0.007273093 -0.10970319 0.12185201 0.08616108 0.023680538 0.10822664
0.046401426 -0.09652135 -0.06753315 0.08115679 -0.04307267 0.09544204 -0.020140685 -0.008533947
-0.08440113 -0.0765108 -0.028342143 -0.12993324 0.023308843 0.091396496 -0.061361298 -0.042330496
0.11047286 0.08578274 0.10132852 0.08783957 -0.0633902 0.0064337105 0.068193674 0.0904022
-0.06807037 0.001012072 -0.057941176 -0.01992888 -0.08100724 -0.08899404 -0.09915649 0.09333615
00000000: a09a bfbc 8a18 65bd 4a52 ae3d 1e7e 8f3d
00000010: c015 74bb d25d 32bd c67f c43d 5096 b0bd
00000020: 3023 1abc d4c8 043e 5834 9a3c dc2d 153d
00000030: 60a1 be3b 4e4b e73d 78ce f6bd 18d9 68bc
00000040: ded1 a93d 64b7 91bd 5a75 2ebd 80a5 22bb
00000050: 4450 e23d 8f9b dcbd ebf5 94bd d822 1dbd
00000060: 40eb 8a3c 1a6d 35bd 00c4 31bb b402 99bd
00000070: 4c45 043e 00a3 bb3b 44ff c3bd 84b5 85bc
00000080: 5a8d b7bd 1c44 f5bc 7871 f93d c815 d53d
00000090: 2c37 4e3d 9807 81bd 18e1 a23d fc1b 36bd
000000a0: 7842 f9bd e08d 01be 5eef d5bd 70e2 d1bc
000000b0: 0079 d13c badf 043e 088e 7a3d 00ea 09bb
000000c0: bace d1bd ac3d 8a3d ee36 bb3d 740b a0bd
000000d0: 80c5 d6ba 6aee 80bd 3018 10bc 1a9e 8b3d
000000e0: 38ff 39bc 8c04 7e3d 3c93 4dbd 00c0 803d
000000f0: 08d0 f3bc 5742 f7bd 105f c6bc e23c a23d
00000100: d8e1 d13d c084 cc3d 809c 783c f010 1fbd
00000110: 3e2e 023e 2cb6 8b3d d8e2 fd3d b498 d33d
00000120: d0f1 e4bb aaf3 f13d 005b 16bd d02f 3e3d
00000130: 7c33 033e 0891 3b3d 5b9f debd 8c5e e5bd
00000140: 93dc f2bd 046c 8fbd f08b 623d 8061 393b
00000150: 74c8 a9bd 991b e2bd a8d3 edbc 8010 003d
00000160: 0051 cc3b 5e56 f33d 02b1 90bd 68b8 ee3c
00000170: 2cc7 c3bc 80d3 da3a fa37 863d 7128 d4bd
00000180: f439 d13d 1f32 b4bd 1019 c03c 72a0 ce3d
00000190: 40e5 a23b c883 223d d88c 50bd 8452 ddbc
000001a0: 72bf 9d3d 02f0 33bd c420 213d f2bb c43d
000001b0: 42d0 fdbd 2c29 18bd 4c27 683d 812c ecbd
000001c0: 8e10 d9bd c83f c23d 90f8 c63d 7a3d f0bd
000001d0: 7dbb efbd 0039 62bc 6233 f13d 0058 5639
000001e0: 80f9 b1bd 940a 1e3d 1299 ffbd 86fe b3bd
000001f0: 8055 da3d fc98 a0bd 6cd1 7c3d 044f 0f3d
00000200: 9a97 ed3d 70e7 62bc 0a1c a0bd 801c d43c
00000210: b091 a2bd 88b0 29bc a054 ce3b 186a 3c3d
00000220: 8058 96bb a081 973b 0001 f8bb 34d3 e6bd
00000230: 4c41 653d 8e4d d43d 68eb f83c 98b3 8ebd
00000240: 6daf c8bd d9b8 f5bd 0c5f cf3d 20c1 db3b
00000250: 4be4 f7bd 9831 04be 4233 0ebd f401 ecbd
00000260: 2ab3 893d e849 9cbd 30fd 2e3d 5a45 d93d
00000270: c8e1 f43d cef4 b43d a0a3 40bd 7afe dd3d
00000280: 003b 713d f1f0 e3bd dae6 ddbd a074 c2bb
00000290: 8b21 03be b4e3 923d a476 5b3d fed0 8e3d
000002a0: 8852 943c 389b 383d f807 0abc 2ee6 c7bd
000002b0: bce9 0bbd ca69 a9bd 9c6a 03be 3060 8abd
000002c0: 544a d43d 7639 31bd 7855 75bc 9420 8ebd
000002d0: c60c c03d c069 6abd 8841 b93c 20e5 1c3c
000002e0: 4057 de3d cc51 9f3d 58d5 5fbd a2e0 e53d
000002f0: b61e 0bbd e477 8fbd 2abd 03be 267b a73d
00000300: f42e a2bd aac4 49bd a268 833d ec00 213d
00000310: 88e5 04bd 2070 8ebb dcaa a2bc 6894 753d
00000320: fed5 42bd 6415 e1bd 3488 25bd ec32 97bc
00000330: 8038 6b3b 607d 913b 3cb0 d5bc 8fb5 febd
00000340: 68d4 b8bd a53c bdbd 9c15 41bd da68 05bd
00000350: be26 febd b83a 633d bcc9 703d 02b4 c7bd
00000360: 70ee 4a3d 00cb f13a 2053 ee3b 11ac e0bd
00000370: 8c8d f93d 3875 b03d b0fd c13c eea5 dd3d
00000380: 6c0f 3e3d fcac c5bd d24e 8abd 8835 a63d
00000390: f86c 30bd 1e77 c33d 14fe a4bc f8d1 0bbc
000003a0: 80da acbd b2b1 9cbd c82d e8bc 380d 05be
000003b0: 30f2 be3c 162e bb3d fc55 7bbd be62 2dbd
000003c0: 983f e23d dcae af3d 5485 cf3d 3ce5 b33d
000003d0: b9d2 81bd e0d1 d23b 20a9 8b3d ca24 b93d
000003e0: 7a68 8bbd 80a7 843a ba53 6dbd e441 a3bc
000003f0: 20e7 a5bd 8242 b6bd 8f12 cbbd 0627 bf3d

intersectionLayer.W f4 [48, 46]
0.14521623 -0.028079852 0.027042896 0.10323417 0.17115662 -0.18399087 -0.15932363 0.10884267
-0.12560758 -0.055813283 0.2111902 0.033835948 -0.25076517 -0.08251144 -0.2077828 -0.17458683
-0.040061504 -0.11891474 -0.15218285 0.09280649 -0.001095444 -0.11320825 0.08184767 0.1017746
0.009882718 -0.19812788 0.1809645 0.19837806 -0.17187524 -0.097647816 -0.17745304 0.0552032
-0.23838738 -0.07263908 -0.114049256 -0.13032544 0.2424222 -0.07118128 -0.09418528 -0.10851182
0.1798034 0.11178282 -0.09684512 -0.016726583 -0.13678983 -0.110474646 -0.004861295 -0.12717615
0.054097235 -0.17788598 -0.11053349 0.041488677 -0.12297478 -0.15143915 0.16322762 0.20660979
-0.007491663 -0.1760296 0.1807453 0.11323881 0.21228036 -0.09469038 0.22887877 -0.06485036
-0.19347084 0.10313085 0.17582056 -0.055388287 0.096497774 0.21109945 -0.1770317 -0.11372073
0.050135285 -0.019588068 -0.019598976 -0.19213177 -0.1301719 0.09195855 -0.23077732 0.11453438
0.060334504 0.06643677 0.03310868 -0.016895607 0.015772521 -0.23495707 -0.110631436 0.038994133
0.00048577785 0.16208139 0.030860871 -0.10346502 -0.028479904 -0.2029024 0.21617597 0.14242288
0.07638404 -0.0535475 0.11872649 -0.10890482 0.1292434 0.102247 -0.25144628 0.14346474
0.15514532 -0.0051738024 -0.19579524 -0.22951128 0.04641983 0.13533765 0.2312805 0.105950445
-0.07954259 0.036685586 -0.17396343 0.13742313 -0.0036242157 0.21485597 0.14643243 0.12500075
0.24128383 -0.1869809 0.04532841 0.13609412 -0.005582407 0.11062345 -0.12221962 -0.12416923
0.08216077 0.21490234 0.056436628 0.19435373 0.11242029 -0.24049725 -0.22693497 -0.16154441
0.09767574 -0.19668373 -0.23086949 0.22193378 0.23545629 0.2213532 0.069120556 0.13526082
0.035701424 -0.19319472 -0.022743478 0.14758778 0.13771084 0.21595028 -0.05044417 0.12836096
-0.003137365 0.24639767 0.07776201 -0.1697739 -0.09249486 -0.0024554431 0.21031839 0.08133781
-0.11905073 -0.13335687 -0.14931284 -0.016194776 -0.035086766 -0.062333092 -0.051770642 0.17811745
0.11952108 0.13400826 0.20146191 -0.13530293 0.11671755 -0.0784252 0.19437316 0.2146185
0.041083366 -0.1694668 0.21699756 -0.12754391 0.1009627 0.008199811 0.111398935 -0.07851079
0.066441685 -0.10326092 -0.04426664 0.013843209 0.03968641 0.14447773 -0.20770624 0.031184524
-0.15238237 -0.0008254945 -0.028975219 0.21687838 0.076795995 -0.2438634 -0.014693648 0.114171
0.21584085 -0.21765505 -0.23151368 -0.051606745 -0.11630675 0.24328905 -0.101537436 0.21475491
0.123046845 -0.020417929 -0.13022026 -0.06488663 -0.12932873 0.040116876 0.062375367 0.11650121
0.1795007 -0.20231864 0.11796284 -0.08313781 0.18233788 -0.24811094 0.17336866 -0.14622764
0.0039097965 0.2277371 -0.22884835 0.060810298 -0.01707843 -0.04765545 0.17750013 -0.056163043
0.18615815 0.1600776 -0.19708759 -0.17419484 -0.23662868 0.16099149 0.17185295 0.21900195
0.15977746 -0.24756238 0.11074135 -0.13341856 0.12858963 0.18932697 -0.17589809 0.21220106
-0.12017462 0.13757774 -0.21869278 -0.04273425 -0.05786769 0.047082633 0.16800839 0.06957048
00000000: 90b3 143e b807 e6bc 1089 dd3c 706c d33d
00000010: ae43 2f3e 1a68 3cbe bc25 23be e8e8 de3d
00000020: 469f 00be 789c 64bd 3e42 583e 9097 0a3d
00000030: 4b64 80be c2fb a8bd 04c5 54be e4c6 32be
00000040: 8817 24bd 9289 f3bd d2d5 1bbe 5411 be3d
00000050: 0095 8fba bad9 e7bd c09f a73d 346f d03d
00000060: 20eb 213c 09e2 4abe c24e 393e 9e23 4b3e
00000070: 1000 30be 94fb c7bd 40b6 35be c01c 623d
00000080: d21b 74be ccc3 94bd a892 e9bd 0874 05be
00000090: 863d 783e 7ec7 91bd 36e4 c0bd 723b debd
000000a0: 621e 383e 64ee e43d bc56 c6bd 3006 89bc
000000b0: a212 0cbe 8840 e2bd 804b 9fbb 773a 02be
000000c0: 1095 5d3d be27 36be 625f e2bd 08f0 293d
000000d0: 34da fbbd dd12 1bbe 2425 273e 8491 533e
000000e0: a07c f5bb 1a41 34be 4c15 393e c0e9 e73d
000000f0: 0660 593e 08ed c1bd 325f 6a3e 44d0 84bd
00000100: 381d 46be 4436 d33d 4e0a 343e d4de 62bd
00000110: a0a0 c53d 742a 583e cc47 35be 6ae6 e8bd
00000120: a85a 4d3d 2877 a0bc 088e a0bc 31be 44be
00000130: c84b 05be c454 bc3d e450 6cbe 0091 ea3d
00000140: 5021 773d 0010 883d f89c 073d a868 8abc
00000150: 6035 813c 9698 70be bc92 e2bd 50b8 1f3d
00000160: 00b0 fe39 aaf8 253e f0cf fc3c 78e5 d3bd
00000170: b04e e9bc a6c5 4fbe 3c5d 5d3e 4ed7 113e
00000180: 3c6f 9c3d a054 5bbd e026 f33d 7e09 dfbd
00000190: 6258 043e e066 d13d 91bd 80be 6ce8 123e
000001a0: 6ade 1e3e 0089 a9bb 8c7e 48be 0105 6bbe
000001b0: b822 3e3d f495 0a3e ccd4 6c3e 8cfc d83d
000001c0: 3ae7 a2bd a043 163d 7823 32be a6b8 0c3e
000001d0: 4084 6dbb 3403 5c3e 62f2 153e 3200 003e
000001e0: 1c13 773e ec77 3fbe 48aa 393d 425c 0b3e
000001f0: a0ec b6bb 8c8e e23d 484e fabd 704c febd
00000200: e843 a83d 5c0f 5c3e 182a 673d aa04 473e
00000210: 9c3c e63d e944 76be a461 68be e66b 25be
00000220: 380a c83d 7667 49be 0d69 6cbe 9c42 633e
00000230: 741b 713e 6aaa 623e 148f 8d3d d081 0a3e
00000240: a83b 123d d6d4 45be 8850 babc 4021 173e
00000250: 1204 0d3e 1222 5d3e 8c9e 4ebd 0e71 033e
00000260: 409c 4dbb ac4f 7c3e b041 9f3d 36d9 2dbe
00000270: f26d bdbd 80eb 20bb b45d 573e 7094 a63d
00000280: ded0 f3bd b48e 08be 77e5 18be e8aa 84bc
00000290: 24b7 0fbd fc50 7fbd 740d 54bd 6c64 363e
000002a0: 78c7 f43d 7639 093e 084c 4e3e da8c 0abe
000002b0: 9c09 ef3d 649d a0bd c209 473e f4c4 5b3e
000002c0: 0847 283d b488 2dbe 9c34 5e3e df9a 02be
000002d0: 88c5 ce3d 8058 063c 2025 e43d 44ca a0bd
000002e0: 9412 883d 767a d3bd f050 35bd a0ce 623c
000002f0: 388e 223d f8f1 133e f2b0 54be b076 ff3c
00000300: 200a 1cbe 0066 58ba 705d edbc 5e15 5e3e
00000310: 3847 9d3d 54b7 79be a0bd 70bc 7cd2 e93d
00000320: 6205 5d3e f7e0 5ebe ec11 6dbe 9861 53bd
00000330: 3c32 eebd c420 793e dcf2 cfbd b6e8 5b3e
00000340: fcff fb3d 8043 a7bc 7658 05be 48e3 84bd
00000350: c06e 04be 9851 243d 507d 7f3d 3098 ee3d
00000360: 08cf 373e 9e2c 4fbe 8096 f13d 2844 aabd
00000370: c8b6 3a3e cb10 7ebe 8e87 313e b3bc 15be
00000380: c01d 803b ea33 693e 3957 6abe 3814 793d
00000390: 10e8 8bbc 5c32 43bd 98c2 353e 380b 66bd
000003a0: 3ea0 3e3e 62eb 233e 54d1 49be 2260 32be
000003b0: ca4e 72be f4da 243e 38fa 2f3e 0c42 603e
000003c0: b49c 233e fe80 7dbe 5ccc e23d e09e 08be
000003d0: 00ad 033e eede 413e a11e 34be 3c4b 593e
000003e0: 1c1e f6bd 2ee1 0c3e 00f1 5fbe 1c0a 2fbd
000003f0: ac06 6dbd b8d9 403d 640a 2c3e f87a 8e3d

neighborLayer.W f4 [6, 32]
-0.13856447 -0.3410666 -0.17465639 -0.07641679 -0.33195168 0.3759593 0.22341761 -0.09524411
0.2613074 0.023864388 0.008782208 0.02141872 0.22601208 0.15930995 -0.012247384 -0.13836592
-0.16101034 0.017122746 0.102998585 0.26463655 0.37978223 -0.006506026 0.019100815 0.34082988
-0.2863431 -0.31826442 0.36227092 0.279577 0.3006648 0.23649088 0.31990686 0.20777443
0.22022954 -0.32821658 0.34592816 -0.19887412 0.07620302 -0.32042658 -0.2640522 0.19256082
-0.21794547 0.31204447 -0.105428785 0.089723974 -0.3103183 -0.37754127 0.3501142 0.36312446
-0.20516679 0.33130464 0.15897772 0.029456258 0.3628662 0.24146959 0.31346372 0.056797713
-0.1324254 0.07137555 0.1681501 0.38442823 0.17363742 0.34516373 -0.10945514 0.19506136
-0.36956817 0.109696 -0.2727062 0.028092891 0.32613006 -0.21974842 -0.11113608 0.2542242
0.026793987 0.31748697 0.39453492 -0.14267904 -0.36291867 0.3374202 -0.030027151 -0.35170767
-0.05664286 -0.027668744 -0.3509222 -0.19883905 0.17757091 -0.25555074 -0.18368691 -0.09136602
-0.1950558 -0.14456904 -0.21544121 -0.1474973 0.35247162 0.16586062 -0.30012712 -0.2996816
-0.3037211 -0.13072789 0.24958184 -0.012357384 0.17037967 0.27786222 -0.16444279 0.050602794
0.3076211 -0.3184951 -0.34664363 -0.075618446 -0.24971092 -0.27457726 -0.08430126 -0.22739965
0.18573764 0.39668557 -0.2871506 0.017964244 0.0900861 -0.06411162 0.021527201 0.037475675
0.17155239 0.31612417 -0.3050534 0.293411 -0.10407719 -0.06560451 -0.33383137 0.24425843
0.32729235 -0.34645015 0.36351392 0.021876782 0.17269155 0.3157716 0.34670553 -0.38581493
0.35762998 0.23199388 0.109730214 -0.36169517 -0.19949758 0.17257443 0.3752639 -0.04280004
0.10217312 0.3205845 -0.12193644 -0.25848365 -0.39577264 -0.017970502 -0.38399914 -0.34781379
-0.2804779 -0.075902045 0.07478219 -0.096036166 0.066767365 -0.31750542 -0.25766015 -0.074991554
0.26334992 -0.17215446 -0.26784632 0.22926536 -0.19938588 -0.18155847 -0.031203538 -0.1593466
0.1142793 -0.055907607 0.08800349 -0.18452889 0.34754315 0.338811 -0.3316577 -0.39631894
0.28723726 0.36876824 -0.3248679 0.36329684 0.19492844 -0.39539233 0.14999416 0.30564955
-0.30343798 -0.38354534 -0.23294017 0.34960136 -0.16470261 0.24551144 0.09498888 0.22423801
00000000: d8e3 0dbe 48a0 aebe 20d9 32be 6880 9cbd
00000010: 92f5 a9be bd7d c03e 96c7 643e 580f c3bd
00000020: 15ca 853e 407f c33c 40e3 0f3c 5076 af3c
00000030: b66f 673e 2622 233e 40a9 48bc ccaf 0dbe
00000040: e5df 24be 0045 8c3c ecf0 d23d 717e 873e
00000050: d172 c23e 8030 d5bb 5079 9c3c 4181 ae3e
00000060: 909b 92be 8ef3 a2be 937b b93e b724 8f3e
00000070: bdf0 993e aa2a 723e d5ca a33e d2c2 543e
00000080: da83 613e 010c a8be 7f1d b13e a8a5 4bbe
00000090: 5410 9c3d f40e a4be da31 87be aa2e 453e
000000a0: 192d 5fbe 4bc4 9f3e 0ceb d7bd 34c1 b73d
000000b0: 0ae2 9ebe 174d c1be 2b42 b33e 73eb b93e
000000c0: 3e17 52be c3a0 a93e 0ecb 223e 404e f13c
000000d0: 99c9 b93e ce43 773e 517e a03e b8a4 683d
000000e0: 869a 07be 582d 923d 8a2f 2c3e c7d3 c43e
000000f0: 02ce 313e 4db9 b03e 042a e0bd 2abe 473e
00000100: 0a38 bdbe 4ca8 e03d 26a0 8bbe 1023 e63c
00000110: 85fa a63e bb05 61be 509b e3bd ad29 823e
00000120: 107f db3c a78d a23e 7b00 ca3e 741a 12be
00000130: 7ad0 b9be 57c2 ac3e 80fb f5bc 0713 b4be
00000140: 5802 68bd 90a9 e2bc 13ac b3be 779c 4bbe
00000150: 26d5 353e 8cd7 82be 6c18 3cbe 1c1e bbbd
00000160: b5bc 47be e809 14be 9f9c 5cbe 8809 17be
00000170: 2977 b43e 5ed7 293e 43aa 99be de6f 99be
00000180: 5581 9bbe 88dd 05be 6292 7f3e a076 4abc
00000190: 0278 2e3e f543 8e3e b163 28be e044 4f3d
000001a0: 8380 9d3e ca11 a3be 467b b1be d8dd 9abd
000001b0: 38b4 7fbe 6495 8cbe 24a6 acbd 74db 68be
000001c0: 0232 3e3e 5f1a cb3e 6705 93be c029 933c
000001d0: 107f b83d f44c 83bd d059 b03c 1880 193d
000001e0: 6eab 2f3e 07db a13e f62f 9cbe f739 963e
000001f0: 6c26 d5bd a85b 86bd f2eb aabe e21e 7a3e
00000200: dd92 a73e ea61 b1be 7f1e ba3e f036 b33c
00000210: 0ed6 303e d1ac a13e 6383 b13e 8989 c5be
00000220: 471b b73e ce8f 6d3e 3cba e03d 1c30 b9be
00000230: 1849 4cbe 5ab7 303e 9722 c03e 184f 2fbd
00000240: 2440 d13d a723 a43e d0b9 f9bd f857 84be
00000250: b6a2 cabe e036 93bc 899b c4be a614 b2be
00000260: cd9a 8fbe 8872 9bbd 6827 993d 9cae c4bd
00000270: 54bd 883d 1290 a2be 08ec 83be 2c95 99bd
00000280: cdd5 863e 4249 30be 2723 89be 8ac4 6a3e
00000290: d02b 4cbe 77ea 39be 909e ffbc c12b 23be
000002a0: 440b ea3d 60ff 64bd 2c3b b43d 24f5 3cbe
000002b0: 2df1 b13e a378 ad3e 0acf a9be 51ea cabe
000002c0: c310 933e 31cf bc3e 1655 a6be 0b02 ba3e
000002d0: 529b 473e dd70 cabe 1298 193e 197e 9c3e
000002e0: 395c 9bbe 0e60 c4be de87 6ebe f3fe b23e
000002f0: cda7 28be 5a67 7b3e 8889 c23d a69e 653e

neighborLayer.a f4 [64, 1]
0.1137014 -0.1364947 -0.23957705 -0.30165145 -0.28266883 -0.10458192 -0.10021597 -0.26230597
-0.13594446 -0.063527256 0.0129804015 -0.27625686 -0.19047537 -0.020419061 0.10458866 0.22982818
0.16934901 -0.029851735 0.12394881 -0.25786597 -0.011317819 -0.10064921 -0.09604886 0.04166636
-0.15014246 0.24362701 0.029067338 0.15764245 -0.21818402 0.14887434 0.0045185983 0.06691849
-0.18929508 0.23379087 -0.17248777 0.17427477 -0.15993342 0.2139886 -0.18955752 0.006207794
0.15343279 -0.059278443 0.30145746 0.27211547 -0.042877346 0.22592449 0.09833217 -0.09083049
-0.27721125 0.012134254 0.06526691 -0.27373964 0.026057124 0.09537271 -0.0245246 -0.127425
0.09147844 0.19673365 0.11553815 -0.24407542 0.1376552 0.1742956 0.08822507 -0.1872038
00000000: 48dc e83d 44c5 0bbe b053 75be 0f72 9abe
00000010: f8b9 90be 0c2f d6bd 083e cdbd f84c 86be
00000020: 0635 0bbe 941a 82bd c0ab 543c 8a71 8dbe
00000030: fa0b 43be e045 a7bc 9432 d63d 1458 6b3e
00000040: d469 2d3e a08b f4bc e0d8 fd3d 0207 84be
00000050: 606e 39bc 2c21 cebd 44b5 c4bd 58aa 2a3d
00000060: f2be 19be 5c79 793e a01e ee3c 066d 213e
00000070: a26b 5fbe 8472 183e c010 943b 900c 893d
00000080: 92d6 41be e066 6f3e a2a0 30be 1675 323e
00000090: 96c5 23be d41f 5b3e 5e1b 42be c06a cb3b
000000a0: 7c1d 1d3e f4cd 72bd a258 9a3e b852 8b3e
000000b0: 28a0 2fbd c058 673e 6062 c93d 5605 babd
000000c0: a2ee 8dbe c0ce 463c a8aa 853d 9a27 8cbe
000000d0: c075 d53c c452 c33d d0e7 c8bc b37b 02be
000000e0: 0c59 bb3d 8c74 493e 449f ec3d e8ee 79be
000000f0: 7cf5 0c3e 8c7a 323e 58af b43d 5ab2 3fbe
