test/model/actor_3_3_3_3_26_best_rou1.pth (torch, 689330 bytes, 17 tensors)

v2lLayer.W f4 [3, 40]
00000000: c83a 9a3e 2987 3abd 6f07 06bd 1e00 973d
00000010: de76 c9be 6297 223e 171b bc3b c2c2 983e
00000020: 1534 ea3d 5266 ac3c 798b 593e c2a3 0b3e
00000030: 6d8a 333e fb36 7fbe 336e 72bd cd5a c1bd
00000040: 6e9c 0f3e 6e14 db3d 5b21 c73e 0d34 433e
00000050: 0132 eebc be35 e0bd 8180 d3bc c115 88be
00000060: aa50 26be 42b1 39bd f163 9b3e 3d30 9f3e
00000070: aca3 98be 11f9 973e 09f3 593e 125f f03e
00000080: 3e16 923e 6e10 e4be c3ee c9be 4101 80be
00000090: 9d98 d33e bd1b 3e3d 5968 6e3e e2bb e8bd
000000a0: d679 8d3e 9857 6abe 7fc6 743e a17b 053d
000000b0: fecb 17be 08cd 6e3e 4aae 7dbe fd97 673d
000000c0: 133c 14be 2946 9cbd 2b36 eabe 32bd 7dbe
000000d0: 94fa 253e e9eb 82bd 3f93 e03e e757 af3e
000000e0: b6ad 77bd ddd3 9bbe d640 433e eb23 b33d
000000f0: ff8b adbe f509 323e 5e94 373e c233 b63e
00000100: a487 2abe 8180 a6bc e989 6dbd 2ce1 ca39
00000110: 431d a4be 0644 9bbe ae38 e43d 01cf 1dbe
00000120: 5683 0d3e 05e2 353d 5eaf 3d3e 6de5 f43d
00000130: f914 ba3d 4635 083e 81c0 bfbe 132f 1a3e
00000140: cb63 6fbe 1ab2 74be 33b5 8a3b 7025 f6bd
00000150: b528 673e 07fa 72be deeb 9ebe 52ca 9e3e
00000160: 497e d1bc 30c5 693e 79a6 193e ff31 69be
00000170: df72 713d d1c6 2a3d 5fbe 76be 9861 40be
00000180: cf79 1b3e d7a0 d93d c874 05be 1227 bebd
00000190: e6c4 bd3e 2589 28bd 5609 423e d771 e63d
000001a0: 7cb4 79be 33fc aabe 284e c23e 65de 6a3d
000001b0: a653 903e dc59 c33d 21c3 183e e8e7 a23e
000001c0: 35dc ab3e 4aed 92be 9697 6f3d 0149 863e
000001d0: ee70 963e 7ec8 8a3e 9426 6ebe c8df 85be
0.30122972 -0.045539055 -0.032721933 0.07373069 -0.393485 0.1587806 0.005740534 0.29836088
0.11435715 0.021044884 0.21244611 0.13636687 0.17533274 -0.24923317 -0.059187125 -0.09441147
0.14024517 0.10697256 0.38892636 0.19062825 -0.029076578 -0.109477505 -0.025818111 -0.26579097
-0.16241708 -0.04533506 0.30349687 0.3109149 -0.29812372 0.2968221 0.21284117 0.46947533
0.28532594 -0.44543785 -0.39439973 -0.25000957 0.41327372 0.046413172 0.23281993 -0.11363961
0.27632016 -0.22884977 0.23903845 0.032588605 -0.1482391 0.233204 -0.24773517 0.05654143
-0.14476041 -0.076305695 -0.45744452 -0.24779204 0.16208869 -0.063926525 0.4386234 0.34246752
-0.060468398 -0.30435076 0.19067702 0.08747085 -0.3389587 0.17386611 0.17927691 0.35586363
-0.16653305 -0.020324947 -0.05799285 0.00038696209 -0.32053575 -0.30325335 0.11143623 -0.15410997
0.13819632 0.044405002 0.18523929 0.11957822 0.090860315 0.13301572 -0.37451556 0.1505702
-0.23377912 -0.23896065 0.0042330264 -0.120188594 0.22574122 -0.2372819 -0.31039327 0.31013733
-0.025572913 0.22829127 0.1500491 -0.22772978 0.05894744 0.041693512 -0.24096058 -0.18787229
0.15183185 0.10626381 -0.1303283 -0.09284796 0.37064284 -0.041146416 0.18948874 0.11252182
-0.24385256 -0.33395538 0.37950253 0.057341 0.2818882 0.09538624 0.14918186 0.31817555
0.33566442 -0.28696662 0.058494173 0.26227573 0.29383034 0.27106088 -0.23256904 -0.26147294

v2lLayer.a f4 [80, 1]
00000000: 9039 33be b78e 003d 440d 883e 9c20 4fbe
00000010: da9e 203e bec8 38be 4609 86be 2863 67bd
00000020: 46d2 323e 4b6b 873e b771 1bbe cea7 503d
00000030: 25f9 713e aec0 3e3e 6145 173e 40d9 313e
00000040: d7f6 323e 09d5 d53d 77bc 45be 2e86 71be
00000050: 372f 8ebd a950 ccbc adc8 10be 5a90 bc3d
00000060: 1242 a33d 7dbb 8dbd 72b6 d83d 1c61 ad3d
00000070: f04d 393e 31b5 363e 9b1f b9bd 354a 873e
00000080: 7983 efbc d43a 02bc 97ca 7cbe 762b 28be
00000090: 893c 23be 1df1 d8bd 398d 453e 7424 b9bd
000000a0: 4533 2abe 3014 4a3c 5110 8f3d 6fe7 7a3e
000000b0: d722 4bbe da88 d63d a39e 34be abe0 9c3c
000000c0: 9ea3 34be 7455 8bbd cce0 67bd f8e3 bd3d
000000d0: c798 e73d 5894 eb3b a563 843e 1692 723e
000000e0: 16cd 813e a6b9 ee3c a56a 05be b982 863e
000000f0: 21c0 6bbd 484e 80bd 39c2 69be c594 a8bd
00000100: 29ab 7dbe 1230 333e 47fd 28be 88aa 0bbe
00000110: f4a2 87bd 75ef cebd a73a 1e3e 947b 2cbd
00000120: 4b9c 2dbd 06d2 5dbd 3f73 123e 9352 78be
00000130: a0e8 543e d9b8 5e3e 6bda 923e c7a2 70be
-0.17502427 0.031386103 0.2657262 -0.20227283 0.15685597 -0.18045327 -0.2617895 -0.056491047
0.17463025 0.26449046 -0.15180098 0.05094128 0.23630197 0.18628189 0.1477256 0.1736803
0.17476974 0.10441024 -0.19310175 -0.23586342 -0.06942599 -0.024940806 -0.14139052 0.092072204
0.07971586 -0.06920526 0.10581674 0.08465788 0.18096137 0.17842557 -0.090392314 0.26423803
-0.029237496 -0.007948596 -0.24686657 -0.16422829 -0.15941061 -0.10592864 0.19292153 -0.09040156
-0.1662112 0.012333915 0.06985534 0.24502347 -0.19837509 0.10475321 -0.1763864 0.019150099
-0.1764054 -0.06803408 -0.056610867 0.09271997 0.11308437 0.007189315 0.25857273 0.2368854
0.2535178 0.029141258 -0.13028963 0.26271608 -0.057556275 -0.06264931 -0.22827996 -0.082315005
-0.24772324 0.17498806 -0.16502868 -0.13639271 -0.06622878 -0.101042666 0.15452062 -0.04211004
-0.04238538 -0.054155372 0.14301775 -0.2425025 0.20791864 0.21750201 0.28682265 -0.23499595

laneLayer.W f4 [12, 12]
00000000: a977 393e 628f 9ebe 8f51 063f b299 d4bd
00000010: 2c91 a83e 1de6 c3bd bf5d 19be 8b88 e1bd
00000020: a4ac 363e 3443 a33e f06a 503e 0643 853e
00000030: e9aa d0be c51d d03e 154c 0d3f cafb f73e
00000040: f7b7 cc3e 168a f9be 7ee6 9ebe de28 a03e
00000050: 0081 8abe f7c9 0d3f 8a77 7ebe 4ba5 6ebe
00000060: 113e 493e f776 d0be 7aa3 1abe 5ef8 d63e
00000070: 781c b13e 52e2 003f 4688 90bd 4c18 b4be
00000080: 2767 e93e 2fa7 15be 915b 63be dc91 b93d
00000090: a3a5 adbe cfa4 ad3e 2ce4 963e 6d3d d7be
000000a0: 14ef c5be f538 c2bc 9a5e 6c3e 9ac9 b03b
000000b0: 7319 89be 1a3b 203d ee7b fcbe 55f9 c1be
000000c0: 486b b6be 38d2 c63e 55dc 053f 1e23 cabd
000000d0: 4207 f33c 86ce fe3d 848f 0ebd 0d30 adbe
000000e0: 0054 ba3e e3b9 bd3e 093b b73d 455a 013d
000000f0: 2f7b ea3e 919e e13e b27d 4cbe 9182 063f
00000100: 8e3d 183e dea3 d9be c91a 3f3e acc5 f0be
00000110: 41f5 093f 1d89 81be 5159 6e3e 63f1 733e
00000120: e307 fe3d b1f2 d63e bc09 13be 37fd 42be
00000130: 52a1 d4be 7958 c0bd 9f4b 9cbe cfcd 5dbd
00000140: 038e 26bd 69c4 613e cc6a fe3e 45c9 5b3e
00000150: 90ef 24be 883c 7bbe 6c45 dfbe 1069 d73e
00000160: 98fc c1bd 18b3 ce3d 0084 973c f023 a3be
00000170: a82c 903e 9a77 8f3e 4046 ce3c 627b 91be
00000180: f98a 4fbe f27a 883c f6e4 99be dc0f 96be
00000190: 54b2 7cbd 6a40 04be 9e54 0d3e dad2 efbd
000001a0: 99fb a8bd 48e4 54be cb15 f1be b74b d63e
000001b0: 7814 d73d efd9 e93e a47c 20bd d742 f1bd
000001c0: 8277 efbe a3c0 79be 671c 8e3e 906f 0abf
000001d0: 8b92 09be 3831 ac3e eaf4 aa3e eea9 6c3e
000001e0: fbd3 d7bd 8d54 35bd 57fc cfbd 7b8f 35be
000001f0: 2597 4e3e 2dbd 27be b07d 8cbe 7dd2 fc3d
00000200: ec6d bcbe 99a3 e8bd bf0a 803e 11fb 383e
00000210: a75d db3e 472e adbe 6ece e53c 71e3 07be
00000220: 7f76 96be c00c 92be 9953 f03d 1b02 323d
00000230: 1d95 8bbe 44a4 bcbe 58d2 ccbe 5d53 fc3e
0.18112053 -0.30968767 0.524682 -0.103808776 0.32923257 -0.09565375 -0.14977168 -0.11012372
0.17839295 0.3188721 0.20353293 0.26027697 -0.40755394 0.40647712 0.55194217 0.48434287
0.39984104 -0.48738164 -0.31035227 0.3128118 -0.27051544 0.553863 -0.24850288 -0.23305242
0.19652583 -0.40715763 -0.15101424 0.41986364 0.34592032 0.5034534 -0.07057242 -0.35174787
0.45586511 -0.14614557 -0.22202899 0.090610236 -0.33915433 0.339148 0.29470956 -0.42039052
-0.38658965 -0.0237088 0.23082963 0.0053951265 -0.2677723 0.039118864 -0.493133 -0.37885538
-0.35628724 0.3883226 0.52289325 -0.09869979 0.029666547 0.12441735 -0.034804836 -0.33825722
0.36392212 0.37055883 0.08946807 0.03158023 0.45797107 0.4406629 -0.19969824 0.5254298
0.14867231 -0.42507833 0.18662561 -0.47025812 0.5388985 -0.25299922 0.23276259 0.2382255
0.12403848 0.41982034 -0.14359182 -0.19041906 -0.41529328 -0.09391875 -0.30526444 -0.054151352
-0.040662777 0.22047581 0.49690855 0.21463497 -0.16107011 -0.2453481 -0.43607652 0.42072344
-0.094720066 0.10092753 0.01849556 -0.31863356 0.2815907 0.28020936 0.025179982 -0.28414446
-0.20267858 0.016660187 -0.30057496 -0.29308975 -0.061693504 -0.12915197 0.1380181 -0.117101386
-0.082511134 -0.20790207 -0.4708694 0.4185464 0.10501951 0.45674083 -0.039181367 -0.11780327
-0.46770865 -0.24389891 0.27756044 -0.5407648 -0.13434808 0.336313 0.3338998 0.23111698
-0.10538479 -0.044270087 -0.10155552 -0.17730515 0.20174845 -0.16380759 -0.27439642 0.12344835
-0.36802614 -0.11359329 0.250082 0.18064524 0.4284489 -0.3382437 0.028052535 -0.13270356
-0.2938728 -0.28525352 0.11734695 0.04345904 -0.27262202 -0.36844075 -0.4000423 0.4928235

l2pLayer.W f4 [12, 88]
00000000: f5ef a0bd d356 b5bc 3ea3 44be 1f3e 83be
00000010: 4b93 92be 2bf9 37be 6f65 8b3d e2e1 163e
00000020: cd1e de3b eb7e 8f3c 6844 663e 864a 8f3e
00000030: 5b84 a63e 7043 b23c a126 7e3d 9430 14bd
00000040: 63ce 62bd 7884 77be 85cc 7d3e 1a3b 97bc
00000050: 179c 2fbc db40 973d bb93 82be 4962 10bd
00000060: b944 563d 3907 2dbe 56a1 b0be d936 023e
00000070: f404 b9bd 769d 15bd 6a57 4d3e 37c9 1a3e
00000080: 653d bebc bd11 963e 380d 7a3e 549b 69bd
00000090: 9917 c7bd 0630 87be 30c3 953e fdc2 e8bd
000000a0: b074 f7bd 3159 7f3e 8773 28bc 9750 0d3e
000000b0: 5622 a8bd 8f5b f73c 756c eabc c0f3 963d
000000c0: a4bd f8bc 6531 1fbe 0dc8 143e 3671 843d
000000d0: 6c4b 763e 90d7 d53d 9f92 9f3e 46dd 7a3e
000000e0: d060 26bc eb7d 4f3d e823 d7bc d422 5bbe
000000f0: bcc0 59bb c81c 8bbe 02e5 28bc 92a2 0cbe
00000100: 4fce a43d 9f0d b83c de66 8fbd 58ff 3f3e
00000110: a15d 053c 07b8 95be 7055 90bc 730b 0e3e
00000120: d6c5 59be ce0c 9b3e 3dc5 c7bd 7007 9abd
00000130: 416a e8bd 1484 993e dbbc f23d 2e88 103e
00000140: 15eb aabd 8cbd d03d 86d8 1c3d a58a 3abe
00000150: 15c3 f23d c116 a13d b109 0cbe 0ef9 a2bd
00000160: 2a6e 87bc f7b6 b63d 6c61 b4b9 e05d a5be
00000170: 60b5 933d d371 81bc 19da c83d 1a01 843e
00000180: 7446 e5bd 0bd6 ae3e c66b 3dbe 25bb 743e
00000190: 1482 c03d 44f9 a63d 7327 33be dee7 0e3e
000001a0: 73d7 33bd 8565 5abe d5bc 243e 3e05 0c3e
000001b0: a351 163e 67df c63c 439b 663e e92d 693e
000001c0: a3e1 fcbd a2ee 9bbe 99c3 2b3d ada5 b2bd
000001d0: 4e10 ac3c 8fb2 35be c0da 893e f6fd 263e
000001e0: 725b d53c 8a4f 373e ab8e 84bd 3d8a 02be
000001f0: fc93 14bd d69c 6bbe 891a ef3c edea 2abe
00000200: edf9 823e 24eb 933e c06e 073e 3c9f 873e
00000210: a6c5 80be dfd4 373e 9251 0a3d 2048 95be
00000220: 6c3c 463d 444c 2dbe 7846 4ebd 68bd 063e
00000230: 025e 7b3e 9075 c2bd 37f8 eabd d4ef a63e
00000240: 6b48 523e cf78 613c e1be 983d 476c c2bd
00000250: cb7c 3e3e aebb 8abe abda 0a3e 55b3 083e
00000260: 4733 c73d e00a 79bd 05e3 35be 61d4 163e
00000270: 6a7f 8abe 972f a7be f55a a0be 1807 91bd
00000280: 2141 4abd 6b49 82bd 35c3 8cbd d7a6 53be
00000290: 29fb 683e 6239 643c 6cff c0bd 3425 493c
000002a0: 990d 8bbe ffc7 0f3e 6d71 863e ae35 59be
000002b0: 9375 06be 65f8 8cbd 18d7 62be f6d5 723d
000002c0: ce17 8bbe da79 1cbe 32f6 583d 625e 1bbe
000002d0: 0eb1 02be 4a2f 60be fbab 843d 1f17 573d
000002e0: cca2 3fbd f6e4 cabd 41e7 9b3d 7c67 f83d
000002f0: 1c1f 183e 763f 1f3d 56e1 99bd bda3 51be
00000300: 4eb7 463e 3472 1c3d 1204 cebd 19ff 703e
00000310: a0f0 a53d 9a2c 22be b427 16be dc65 f8bc
00000320: 8732 28be 9a24 533d 58eb 67be 2f80 753e
00000330: f944 1bbe f9f2 2c3e a1e9 8a3d e248 93bd
00000340: 62b4 403e 86ee 1abe c608 84bd c457 6fbc
00000350: 0ec5 243e 0005 d5bd dd4a cdbd 39ad 12be
00000360: b985 95bd ff80 c6bc fccd cdbd 37da cdbd
00000370: 33ac 2f3d 3c3e 8a3d 71cb 53be ffae 4dbe
00000380: bbcb b73c b71f edbc 4488 fc3d 3f10 13bc
00000390: e0a5 25be 57ea 2fbe 4d96 e1bc 32a5 003b
000003a0: e68f b33d 7941 f2bd 239a 843d f55f cbbd
000003b0: 2b0b 593e 6155 8d3d 761f 3abc 8f9e 813e
000003c0: f8e7 8a3c 1078 03be 630e 27be f5f8 4b3e
000003d0: 8ddf 723d 2a3e 003e a760 92bd 6a05 323e
000003e0: e5c5 e63d e610 e73d 7347 92bc e991 763e
000003f0: 2fc6 a73d bf1d eabc d07b ee3c 3932 523e
-0.07858268 -0.022136128 -0.19202897 -0.25633332 -0.28628 -0.17966144 0.06806456 0.14734605
0.006778574 0.017516574 0.22487032 0.27986544 0.32522854 0.021760672 0.06204856 -0.03617914
-0.055372607 -0.24171627 0.2478505 -0.018460799 -0.010718367 0.07385417 -0.25503334 -0.035249982
0.052311633 -0.16897286 -0.3449809 0.12716235 -0.09034148 -0.03652712 0.20052877 0.1511582
-0.023222635 0.29310408 0.24419105 -0.057032898 -0.09721298 -0.26403826 0.2925048 -0.11365316
-0.12082803 0.24936368 -0.01028145 0.13800274 -0.08209674 0.030195026 -0.02861617 0.073707104
-0.030363865 -0.15546186 0.14529438 0.06466906 0.24052209 0.10441506 0.3116655 0.24498472
-0.010154918 0.050657194 -0.026262239 -0.21400005 -0.003322645 -0.27170396 -0.010308506 -0.1373389
0.08047163 0.022467433 -0.07002042 0.1874975 0.008139999 -0.29241964 -0.017618865 0.13871555
-0.21266875 0.30283207 -0.09754417 -0.0752095 -0.11348391 0.2998358 0.118524276 0.14114448
-0.083456196 0.10192403 0.03829243 -0.18216951 0.11853615 0.07865668 -0.13675572 -0.0795766
-0.016532023 0.089216165 -0.0003440486 -0.32298183 0.07212329 -0.015801346 0.09807224 0.2578209
-0.111950785 0.34147677 -0.18498144 0.23899515 0.093998104 0.081530124 -0.17495517 0.13955638
-0.04390664 -0.21327789 0.16087659 0.13673875 0.1467958 0.024276448 0.22520165 0.2277142
-0.12347724 -0.304555 0.041934583 -0.087230064 0.021003868 -0.17743896 0.26924706 0.16307816
0.026044581 0.17901435 -0.06472524 -0.12748046 -0.03627394 -0.23009047 0.029187458 -0.1669118
0.25581303 0.28890336 0.13225842 0.26488674 -0.25150794 0.17952298 0.033769198 -0.2915659
0.048397467 -0.16923624 -0.050360173 0.1315819 0.2454758 -0.094950795 -0.114731245 0.3260485
0.20535438 0.013761713 0.07458282 -0.094933085 0.18602292 -0.27096313 0.13559978 0.1334966
0.09726577 -0.060801387 -0.17762382 0.14729454 -0.27050334 -0.32653496 -0.31319395 -0.07081431
-0.049378518 -0.063616596 -0.0687317 -0.20669113 0.2275206 0.013929697 -0.09423718 0.012276936
-0.27158812 0.14041136 0.26258412 -0.21211883 -0.13130789 -0.06883315 -0.22152364 0.05928608
-0.271666 -0.15280858 0.052969165 -0.15172723 -0.12762854 -0.2189304 0.06478115 0.052512284
-0.046786115 -0.09906952 0.076124676 0.12129113 0.14855617 0.03887888 -0.075136825 -0.20472617
0.19405863 0.03819485 -0.1005937 0.23534812 0.08102536 -0.15837327 -0.14663583 -0.030322008
-0.16425525 0.051548578 -0.2264837 0.2397468 -0.1516303 0.16889562 0.067828424 -0.07191636
0.1881881 -0.15130052 -0.06446986 -0.014608327 0.16090795 -0.10401344 -0.10024045 -0.14323892
-0.07300896 -0.024231432 -0.10049054 -0.10051387 0.04288883 0.067501515 -0.20683075 -0.20086287
0.022436013 -0.028945787 0.12330678 -0.008976041 -0.16176558 -0.17179237 -0.02753749 0.0019629714
0.08767681 -0.11828894 0.06474712 -0.09930412 0.21195666 0.0690105 -0.01136004 0.25316283
0.016956314 -0.12838769 -0.16314082 0.19919188 0.059295226 0.12523714 -0.07147341 0.17384878
0.11268214 0.1128252 -0.017856335 0.24079098 0.081920974 -0.028578637 0.029111773 0.20526971

l2pLayer.a f4 [176, 1]
00000000: 65b7 25bd a83f dcbd be4a bfbd 4f27 f9bd
00000010: 59ec 0cbe d9c6 e6bd 1dca 2a3e 3e1d a2bd
00000020: aa77 18be a069 0c3e 8eca a73d 2e9e 0b3e
00000030: f8ad 31be 8a2c 3dbe b494 10be 8aad cfbd
00000040: ebb2 083c 7066 9f3d e896 f13d 0225 18be
00000050: 3c90 9b3d 5a4e c7bd 0b1f 043d d728 8f3d
00000060: e7bd a13c 6dcc 653d fa89 9fbc e2a8 e53d
00000070: 8b5e e83c c93f 2d3e fcc3 403d e29a b1bd
00000080: b1c2 023e 6174 9f3c d0b4 403e 7c58 febc
00000090: 35c8 493e 7a04 ebbd ecce cc3d ff36 07be
000000a0: a59d 0a3e 3a71 313d 65d8 dd3d 5bda 19be
000000b0: 6fef 45be 001f ce3d 4a7a 82bd e538 b03d
000000c0: 58d5 eebd 1589 8bbd 2495 463c 90e0 f53d
000000d0: 1f20 e93d bdf8 e1bc 4e17 2abd 6712 d33b
000000e0: 4c92 d73d e279 2cbe 30de 87bd bc90 3bbe
000000f0: 9e87 123d 46f9 04bd 6767 c33d 1b03 213e
00000100: 4add 23be 378c 91bd 7a8e 22bd c5a7 123c
00000110: d0f4 54bd 9b73 00be 78f8 a6bd 5227 d73b
00000120: e272 0d3e c35c 61bd fe5e e33d 9289 23be
00000130: aaf8 8d3b 7494 09be baaa 27be 7b88 ff3c
00000140: 4ab1 bfbd 0d4f 163e 5989 1a3e 694e 45be
00000150: 3c63 5dbb 6785 aabc 643a ecbd 1cad f3bd
00000160: ca7d 8fbd 14bf 823d 01e8 893d 044f ff3d
00000170: d0c7 ecbb 0f53 083e 263e b23d 6e82 94bd
00000180: 83cf b4bc a621 72be c55b 14bc 94dc 96bd
00000190: a07d 92bd fbaf 9bbd 2501 0cbd 2ce3 26be
000001a0: 763e 1ebc f4ad a33c 7218 51bd a4e6 1d3e
000001b0: f2bd ea3d 0607 1f3d f9a3 a3bd 1db4 28bd
000001c0: c309 0bbe 0872 2c3e fde0 353e 05a2 6bbc
000001d0: 34c9 043e 8739 403e aa5d 33bd 4254 dfbd
000001e0: 672e b73a f808 003b de22 3cbe 67ad 7d3b
000001f0: 22ef a9bb 6958 193e c4b7 c1bc 4c29 0c3e
00000200: 4e6b 1a3e d064 80bd c533 533c b266 24bd
00000210: cde8 8cbd cc74 05be 649d 40bc 2e17 e43d
00000220: e19a 10bc 8a82 7b3d be48 ce3d 5098 8f3d
00000230: bd3a 8c3d 1efa 4e3d a75b 14be 6713 f8bd
00000240: d3fa 12be 6a6e 0f3e 30c0 2abe 9c79 09be
00000250: 289e dd3d 73c6 013e 7c5f 32be c8b2 043e
00000260: a309 273c baeb 983c d95b dfbd f6fb c5bc
00000270: 7675 5d3d f4f1 1a3e 51b1 053e d576 c4bd
00000280: d99c dfbd 5553 44bd b2e4 903d 811f 063e
00000290: 5874 36be f257 f6bc 7068 653b 9e89 afbd
000002a0: a57c 383e 3297 1cbd 76b9 75be e83d c8bd
000002b0: ea8d ddbc cb10 2abe 73dd 4f3d 0ee9 343e
-0.0404581 -0.10754329 -0.09340428 -0.12165701 -0.13762034 -0.11268396 0.16678663 -0.07915734
-0.14889398 0.13712168 0.08192931 0.1363456 -0.1735152 -0.18474022 -0.14119226 -0.10140522
0.008343439 0.0778321 0.11796361 -0.14857867 0.0759587 -0.09731741 0.032256167 0.069902115
0.019743873 0.05610316 -0.019474972 0.112138525 0.028365394 0.16918863 0.047061905 -0.0867212
0.12769581 0.019464673 0.18818974 -0.031048052 0.19705279 -0.11475463 0.10000405 -0.13204573
0.13536699 0.043320872 0.108322896 -0.15024702 -0.19329618 0.100645065 -0.06370981 0.08604602
-0.11661786 -0.06813256 0.012120519 0.120057225 0.1138308 -0.027584428 -0.04152613 0.0064414027
0.10525951 -0.1684337 -0.06634176 -0.1831693 0.035773866 -0.03246429 0.09541207 0.15723841
-0.16002384 -0.07106822 -0.039686657 0.008951132 -0.051991284 -0.125441 -0.081528604 0.0065659666
0.13813356 -0.055020105 0.11102103 -0.15970448 0.0043326216 -0.13435537 -0.16373721 0.031193009
-0.09359987 0.14678593 0.15091456 -0.19268192 -0.0033781072 -0.020815564 -0.11534575 -0.11898252
-0.07006414 0.063841015 0.06733704 0.12466243 -0.007225968 0.13312934 0.0870326 -0.0725144
-0.022071606 -0.23645648 -0.009055083 -0.07366291 -0.07152867 -0.07601925 -0.03418078 -0.16297597
-0.009658447 0.019980408 -0.051048703 0.15420014 0.114620104 0.038825057 -0.0799026 -0.041187394
-0.13577943 0.16840374 0.17761607 -0.01438189 0.12967378 0.18771945 -0.043790497 -0.10904743
0.0013975621 0.0019536596 -0.18372676 0.0038708092 -0.0051859776 0.14975132 -0.023647197 0.13687629
0.15079996 -0.062692285 0.012890761 -0.040137 -0.06880341 -0.13032836 -0.011756275 0.11137234
-0.0088259885 0.06140379 0.10072468 0.07011473 0.06847141 0.0505315 -0.14488088 -0.12113076
-0.14353494 0.14006963 -0.16674876 -0.13425297 0.108211815 0.12673359 -0.17419237 0.12958825
0.010195169 0.01866709 -0.109061904 -0.024167996 0.054067098 0.1513136 0.13055922 -0.09592978
-0.10918588 -0.047931034 0.0707487 0.13097955 -0.17817819 -0.030071232 0.0035004877 -0.0857117
0.18016298 -0.03823013 -0.23996529 -0.09777433 -0.027045209 -0.16607969 0.0507483 0.17667028

phaseLayer.W f4 [24, 26]
00000000: bcf2 cabd 55f8 d2bd c641 a83e 7aef 823e
00000010: 4603 7b3e d4a4 073b 6e96 213d c89c 9dbe
00000020: 5649 693c 1737 963e b8d0 553d 9b1f 6cbe
00000030: 8a27 553e 99bd b13e 133d 903e 01c6 ff3c
00000040: 1d3d 8d3d cc10 a33d d52c 14be 2fc3 f8bd
00000050: 8135 a43e b20b 8cbb bb59 a43e 2e83 77be
00000060: 659a ccbc 8248 c4bb fbfa 7bbe a2b9 933e
00000070: 169c 873e d456 3fbe 17b3 9c3e adc9 a13e
00000080: c623 47be e249 6abd 7428 9a3e d22d 80be
00000090: 0366 1abd c14d 2dbe 1dee 983e 5978 9a3d
000000a0: 8fa7 1b3e 1234 8f3e 9ec7 10bd a69f acbe
000000b0: 89ce c7bb 6ccd 98bd 4074 413e 56ff c03d
000000c0: 867d 25be 1b57 08be 8269 6a3e f9b6 d53d
000000d0: f7bc 3c3d 05c0 303e d277 413e 6127 80be
000000e0: 7f79 883c ab99 0d3d 057e aebe 8810 5f3d
000000f0: 245c 0fbd 0534 883e cf9e a7be be49 b83e
00000100: 31f5 06be 088f 483e a16a 883e 9250 7dbc
00000110: e42b 20be bcb0 7abd 0957 6fbe c29e 8d3c
00000120: de4f 393e ffa9 4e3b 13e6 3cbe 262b 4e3e
00000130: 5b09 a23e 29b8 c0bd 6d52 2f3e 6eef 93bb
00000140: 8265 2c3e 7afb 7cbe 79c6 9ebe 728e aabb
00000150: fc5c 9bbe cdf8 0a3e d5dd 993e 2a2d 81bd
00000160: 194d e3b9 4d11 813d 2221 1abe 2553 13bd
00000170: 534d cd3d c039 9b3e a050 89be ae56 7bbc
00000180: 5149 98be e90e 20bd 2095 92bb 9d76 4ebe
00000190: 22d9 683e 270b 813e c2a9 0fbe f42f 14bd
000001a0: 5be8 d0bd 906e 0a3d 09f2 163e 72fa a33e
000001b0: 72fb adbe ea9c 1c3e 79d9 69be 5d9e 8abe
000001c0: 9be9 723e 461c b5bd f2f4 53be 20e1 ef3d
000001d0: ef26 3bbd bb4b afbe ff7d 25be 6e01 f1bd
000001e0: 9432 61ba 1f55 7cbe d5d9 b5be d215 473e
000001f0: b0da 90be 8b23 c2bd c689 a33e b160 d8bd
00000200: f989 7abe e434 e73d 92d4 913e f6b8 64bc
00000210: 2a5b 153c a4be 253e 8b44 d73c 4c7e 9d3d
00000220: 7010 2f3e 4c4d de3d c673 95be 5653 0cbe
00000230: 18a1 6c3e 8a05 ff3d 3d2c 0a3e a3a3 a53e
00000240: d822 6e3e e545 313e 14cb b73e 5935 a2be
00000250: c5e0 bb3c 69df 843d a30c 7abb 472d 79be
00000260: 4c40 b13d 435b 89be 6151 23be 56d1 903e
00000270: 297f 6ebe e473 5fbd 6f82 4c3e 5c7c b3bd
00000280: 0c20 0f3d e8a6 acbe 7937 413e f542 bcbe
00000290: cd22 15b8 2b8e b4be e993 93be 6fe4 b13e
000002a0: e213 0cbe 72ad 4bbc f2ec 0f3d ac5d b83e
000002b0: 6956 133e d523 293e de60 36be 19a3 19be
000002c0: 2799 9e3e 2b8e 763d ce5c e93d a028 76be
000002d0: 2169 8fbe 58b4 b73d d35b 92be 331c 8b3e
000002e0: 817e a33e 62e9 12be 812e 75be 7da7 af3e
000002f0: 68f4 49be a028 92be b7b9 92be 072c 813d
00000300: e4f4 7b3d e0e1 833e 890f 9e3e ee1f 083e
00000310: e098 863d 26fb af3e 7077 f2bd 1792 8fbd
00000320: 388a 8a3e 4116 04be d4fa 543e 9f73 00ba
00000330: 6ccb 103e 3056 7dbd 6b6e 9abe 0574 873e
00000340: 9ae6 9c3e 14d5 7fbe 358f 03be c0b1 703c
00000350: 5066 153e 853b 0abd d400 34be b0db 973e
00000360: ee8b 4ebe f3a1 ab3e 2fbd 31bc 788d 3d3e
00000370: 8b2b d93d 677c f43c d971 8d3e 6ce6 463c
00000380: c1a5 8b3e d07a bc3d adea 5cbe d5b5 723e
00000390: 86da 76be fd9b 0e3e e862 4abd 01ab 073e
000003a0: e200 7dbd a926 bc3d 2247 d6bd d440 2b3e
000003b0: e1de 4e3e ae3a a2be 6d92 933e 064d 89be
000003c0: b2e5 2ebe 0fd2 d13d 1393 933e d70e e53d
000003d0: 85ab 52be d109 813d 2f59 36be f673 163e
000003e0: 8224 0b3d 85b0 7c3d 3a69 7abe 89f0 2d3e
000003f0: e45e 9b3e 1f91 78be f641 0a3e a007 5dbe
-0.09909579 -0.10301272 0.3286268 0.2557333 0.24512967 0.002069761 0.0394501 -0.30783677
0.014238676 0.29338905 0.052201003 -0.23058932 0.20815864 0.34714964 0.28171596 0.031222345
0.06896422 0.07962188 -0.14470227 -0.12146603 0.3207207 -0.004273855 0.3209971 -0.24171135
-0.024975965 -0.005990089 -0.2460746 0.28852564 0.26486272 -0.18685466 0.30605385 0.3159918
-0.1944724 -0.057199366 0.30108988 -0.25034958 -0.037694942 -0.16924192 0.29869166 0.07542486
0.15200637 0.27969414 -0.03534662 -0.33715552 -0.006097619 -0.07461056 0.18892002 0.094237015
-0.16161165 -0.13314478 0.2289181 0.1043529 0.04607865 0.1726075 0.18893364 -0.25030044
0.016659496 0.034570377 -0.3408052 0.054459125 -0.03499998 0.26602188 -0.3273835 0.3599376
-0.1317947 0.19585812 0.2664385 -0.015461104 -0.15641743 -0.061203703 -0.23373045 0.017287616
0.18096873 0.003153443 -0.18447141 0.20133647 0.31647763 -0.09410126 0.17121287 -0.004514626
0.16835597 -0.24705306 -0.31010798 -0.005204969 -0.3034438 0.13571472 0.30052057 -0.063074425
-0.00043354256 0.06302128 -0.15051702 -0.035967965 0.10024514 0.30317497 -0.26819324 -0.01534049
-0.29743436 -0.03907672 -0.0044733435 -0.20162435 0.2273908 0.2520382 -0.14029601 -0.036178544
-0.10200568 0.033796847 0.14740767 0.32027012 -0.339809 0.15294233 -0.22836865 -0.27073947
0.23721926 -0.08843283 -0.20698908 0.11712861 -0.045691427 -0.34237465 -0.16161345 -0.11767851
-0.00085906056 -0.24641846 -0.35517755 0.19441918 -0.28291845 -0.094794355 0.3194105 -0.105653174
-0.24466695 0.11289385 0.2848249 -0.013960114 0.0091159735 0.16186005 0.026277801 0.07690105
0.17096114 0.10854587 -0.2918989 -0.13703665 0.23108327 0.12452228 0.13493438 0.32351407
0.2325548 0.17311819 0.35897124 -0.31681326 0.022934327 0.064879246 -0.0038154505 -0.24333678
0.08654842 -0.2682744 -0.15949012 0.2828471 -0.23290695 -0.05455388 0.19971631 -0.08763954
0.03494267 -0.3372109 0.18868817 -0.36769834 -3.555678e-05 -0.35264716 -0.28823784 0.34744594
-0.1367946 -0.012431489 0.035138078 0.36008966 0.14388432 0.16517575 -0.1781039 -0.15003623
0.3097622 0.060194176 0.11394654 -0.24038935 -0.28009894 0.08969945 -0.2858568 0.27169952
0.31932452 -0.14346841 -0.23943521 0.3430747 -0.1972214 -0.2854662 -0.28657314 0.06307226
0.061512843 0.25758266 0.30871227 0.1329343 0.06572127 0.343713 -0.11839187 -0.07010286
0.27058578 -0.12899114 0.20798808 -0.00049000414 0.141401 -0.061849773 -0.30162367 0.26455703
0.30644685 -0.24983627 -0.12847598 0.014690816 0.1458981 -0.03374817 -0.17578441 0.29659796
-0.20170566 0.33521995 -0.010848328 0.18510997 0.10604008 0.029844476 0.2762592 0.012139898
0.27274898 0.09203112 -0.21573897 0.23702176 -0.24106798 0.13926692 -0.04941073 0.13248827
-0.06176842 0.09187061 -0.10462786 0.16723949 0.20202209 -0.31685394 0.28822652 -0.26816577
-0.1707981 0.102451436 0.28823146 0.11184471 -0.20573242 0.063007005 -0.17807458 0.14692673
0.033970363 0.06169178 -0.24454203 0.16986288 0.30345833 -0.2427411 0.13501725 -0.2158494

p2iLayer.W f4 [24, 176]
00000000: 5aa8 fcbd 3034 13be 9949 8e3d bbc1 01be
00000010: 65b3 b93d 2b45 16bc b19c 4bbe 80ec 38be
00000020: 4521 453d 132a 1f3e 7435 bd3d f284 1fbc
00000030: d1d9 0c3e e0ad 083e 27fc 4e3d f6a8 05be
00000040: 661a 053d dc8a 033e fe54 33be be3a 563e
00000050: 6ae8 06be b256 d0bd 2151 133d cc84 373d
00000060: 8713 123d 1f77 a5bc 931c 6e3d 476b a73d
00000070: f4c6 fabc fd94 6dbe 8df1 0d3e c1b7 9abd
00000080: 97af 72bd cf83 e83d b7f0 39bd b97a 403e
00000090: 0fe9 c93d c790 dcbd 7633 f8bd 2afa afbd
000000a0: 0360 973d 7c78 2c3e 21ce 5fbd 978f 0abe
000000b0: e8cd c6bd 03c5 1fbe a3dc 163e 4b6a 8cbd
000000c0: 184a dfbd b0f5 03bd 1bd4 bc3d 4039 bb3d
000000d0: cef3 a93d 1f3b 493c e991 29bd e1a1 f9bb
000000e0: c4c5 77bb 7968 b0bd f6a3 dcbb a158 ecbd
000000f0: 703d 09be 2a45 d4bd 0135 3dbe 5222 523d
00000100: 8e01 7cbc 7b3e ce3d 30a6 c93d 5714 d13c
00000110: b4df 47be e6fa ec3c 493c 95bd 1f88 57bd
00000120: 73d8 06bd c2d9 e93d 31f8 823d 51fe 9bbd
00000130: b1d1 5fbd a309 ec3d 025c 8a3c 1c02 bcbd
00000140: d744 3bbd f14c c7bc 2d0d c4bd 042a 37bc
00000150: 8bc0 47be 8874 793d 264a 2bbe f096 153d
00000160: e486 883d 41a5 02be 6861 a8bd ace8 46bd
00000170: 2404 ddbc 51bc 003e 43ef bcbc cd91 97bc
00000180: a396 f8bd 0d04 723c 9591 ac3d 6e03 19be
00000190: a9a5 163d 98d9 83bc bb28 0a3e 783e 33be
000001a0: 1fde 02bd 4703 f03b bbf0 763d 508b 803d
000001b0: 3523 1abe af4d 1dbe fc66 d8bd d1e9 ed3d
000001c0: df2a 5cbe 04ea 1e3d 3fb5 bd3d 8a5d 2c3e
000001d0: 24e2 65be 88b0 c83c 59e5 ce3c 0033 213e
000001e0: eb1a d4bb 81db 943d 0ec3 c03c 3c14 4f3e
000001f0: 9f60 83bd a74c fcbd 5ef8 04bc b9b8 b8bd
00000200: ec0c 783d 2e61 013e e995 fcbd 272b 21be
00000210: 147f 57bc 8e0f 14bd d531 f1bd ef00 eb3d
00000220: 8bb5 ea3d e6a2 11bd 9220 b23c 25eb 9dbd
00000230: e890 13be ea73 203d 0637 87bd c6ed c6bb
00000240: ce21 823d 76cb 38be cf8d 0abc d676 503e
00000250: 80a6 713d 494b 0fbe e005 08bd 380b ddbd
00000260: a593 5bbc 5b16 0a3e bc64 4d3e 1afc ce3c
00000270: 5ff3 8d3d 9f04 a93d 2051 a1bd a94c 223d
00000280: a1e4 14be b52e 1f3d 8e83 873d 996b 3dbd
00000290: 38cf 44bc ee15 35be 6b54 a03d 02cd 0c3e
000002a0: bd6e 323e 3c10 33be fe5c 3bbe f649 ac3c
000002b0: 95ab db3d debc 9a3c 7a07 653d b56d 52bd
000002c0: 9cbe 96bd 1f2c a93d 63bb ec3d 1d26 e7bd
000002d0: 0247 12be 4911 50bd 3dd8 86bd e0a1 80bd
000002e0: 17b8 633d cc20 0fbe 181f 233e 4fc1 cebd
000002f0: 1d7b 863c 74b7 703c faa8 7f3d b17a 1fbe
00000300: c0c6 eabd 93cf c3bc 645b 533d 71df 7abd
00000310: 1cdc 2c3d 85cf a5bd 58a6 09be 2588 b53c
00000320: 8721 48bd 8c2e 233e ee3e c33d b737 0e3e
00000330: 6e2f cf3d 1331 38be 3acb 4fbe f81a 103c
00000340: 4b34 913d fba0 43be aea0 2b3e 29a5 023d
00000350: 958a debd e214 023e e29b 423e bacb 2f3d
00000360: 81ed c2bc 0387 023d 5013 3dbe 45eb 143d
00000370: 75e0 813d e987 92bd 6c14 1ebe 7330 9d3d
00000380: 2b8c 00be bb97 b4bb 05cc b83d 5093 87bd
00000390: 87e6 9bba 7b2e 2b3e 78a9 18bd d208 bdbd
000003a0: e0b3 2c3e 20aa f83a e05e d53c d8c7 93bd
000003b0: a625 1fbe c4d3 0ebd 4341 28be 291d 78bd
000003c0: 3edd 32be 6574 aa3d fb30 a9bd 69f0 9c3d
000003d0: 0b66 96bc 81c3 433e 7fb6 803d 3583 75bd
000003e0: 2872 bd3c 310e c9bd cdd2 03bd 5970 7ebd
000003f0: 14b7 36be 50ef 97bb bf07 b3bd 5c2b 4f3e
-0.12336798 -0.14375377 0.069476314 -0.12671559 0.0906742 -0.009171764 -0.19883992 -0.18058968
0.04812743 0.15543394 0.09238711 -0.0097362865 0.13754965 0.13347578 0.05053344 -0.13052735
0.03249588 0.1284594 -0.1751289 0.20920846 -0.13174596 -0.10172786 0.035966042 0.04480438
0.035663154 -0.020198403 0.05813272 0.081747584 -0.030612446 -0.23201366 0.13861676 -0.075545795
-0.059249487 0.113532655 -0.04539558 0.18796815 0.098589055 -0.107698016 -0.121191904 -0.08592637
0.0739136 0.16842836 -0.05463994 -0.13531338 -0.09707242 -0.15602498 0.14732604 -0.06856211
-0.10902804 -0.032216728 0.092201434 0.09141779 0.08298455 0.012282162 -0.041398916 -0.0076181744
-0.0037807086 -0.086136766 -0.006733413 -0.11540342 -0.13402343 -0.103647545 -0.1847725 0.05130226
-0.01538123 0.10070511 0.09846151 0.025522394 -0.1951893 0.028928231 -0.07286889 -0.05262005
-0.032921266 0.11418487 0.06394995 -0.076168664 -0.054643337 0.115252756 0.016889576 -0.0918009
-0.045719948 -0.02432868 -0.095728256 -0.011179451 -0.19507043 0.06090215 -0.16727504 0.0365209
0.06666353 -0.12758352 -0.08221704 -0.048561737 -0.026979513 0.12571837 -0.023063308 -0.01850214
-0.12138107 0.014771474 0.08426205 -0.14942715 0.03677908 -0.016094968 0.134921 -0.17504299
-0.031950112 0.0073246094 0.060288172 0.06276572 -0.15052493 -0.15361665 -0.10566518 0.116168626
-0.21500729 0.038797393 0.092630856 0.16832557 -0.22449547 0.02449824 0.025255846 0.15742111
-0.0064729354 0.072684295 0.02353051 0.20222563 -0.064149134 -0.12319308 -0.008115856 -0.09019608
0.0605592 0.12634727 -0.123332806 -0.15739118 -0.013152856 -0.036147647 -0.11777083 0.114747874
0.11460408 -0.035555743 0.021744046 -0.07710866 -0.14410746 0.039173044 -0.06602292 -0.0060708253
0.06354104 -0.18046364 -0.008456661 0.20357832 0.058996677 -0.13993563 -0.033208728 -0.107931554
-0.0134019 0.1348509 0.20057958 0.025266696 0.06931185 0.082528345 -0.078768015 0.03962389
-0.1454034 0.038862903 0.06616889 -0.04624519 -0.012012295 -0.17684147 0.078286014 0.1375008
0.17425056 -0.17486662 -0.18297192 0.021031361 0.10726086 0.018888887 0.055915333 -0.051374156
-0.073605746 0.082603686 0.11559179 -0.112865664 -0.142849 -0.050797734 -0.06584213 -0.06280875
0.055595484 -0.13977355 0.1592983 -0.100954644 0.016416127 0.014692176 0.062417008 -0.15574147
-0.1146369 -0.02390269 0.05160083 -0.061248247 0.0422021 -0.08096222 -0.13442361 0.022159645
-0.0488601 0.15935725 0.09533487 0.13888441 0.10116468 -0.1798747 -0.20292369 0.008795492
0.07090052 -0.19104378 0.16760513 0.03189579 -0.10866276 0.12703279 0.19004777 0.0429189
-0.023794891 0.03186704 -0.18464398 0.036357183 0.0634164 -0.07154829 -0.15437478 0.076752566
-0.1255347 -0.0055112517 0.09023289 -0.066198945 -0.0011894264 0.1671695 -0.037270993 -0.09230198
0.16865492 0.00189716 0.026046216 -0.072158515 -0.15541705 -0.034869924 -0.16431145 -0.060574684
-0.1746721 0.08322982 -0.082612954 0.07663042 -0.018359205 0.19117548 0.06284808 -0.059939582
0.023125723 -0.0981716 -0.032183457 -0.06211886 -0.17843276 -0.0046366826 -0.08741712 0.20231384

p2iLayer.a f4 [352, 1]
00000000: b352 babd b5f8 29be 42e2 57bd 8a5b 783d
00000010: 7a74 503c 03be debc 59ac fabc 300e a5bd
00000020: ec7d 81bd 1112 cd3d c7c4 b8bd 04fd 283d
00000030: 68a5 ffbd e20f 2e3c 122d 073d 22c3 1e3b
00000040: 3993 c23d eb19 a73c ccba 82bc f78e d1bd
00000050: 8cbc c4bd f1ea 973d e29c c13d 0541 ae3d
00000060: 97d0 8fbd 0549 a3bd e1b8 d93d 401c cbbd
00000070: 3e9d 7e3d b6ba 693d 0918 643c fbb0 ca3d
00000080: d5cd f8bc 8c94 ebbd 1e19 e9bb 130e 0d3a
00000090: 520b 96bc f1c0 273d 92ba cd3d 8147 8abd
000000a0: ca47 b1bc 60e8 f5bc 5be0 82bd 3c16 fabd
000000b0: eac9 6abd 98ef ffbc 5285 eebd 82d2 e5bd
000000c0: 9510 cc3d 5eed c53d 23d9 eabd 2d06 44bd
000000d0: cc56 1b3d 6f0d 303d d040 9cbd 1fda e7bc
000000e0: 5a25 dbbd c12b 81bc 5fcb cbbd fc8b 29bc
000000f0: 646d 92bc 8ff8 babd e773 c83d 3e36 69bc
00000100: 5e3f 683d 252c 0e3c ea1e 46bd c38a a53d
00000110: a504 36bb 0f04 b2bc ffbb d5bb 5c06 bcbd
00000120: e083 0abd b8ad a63c c556 9f3d 7ab1 8ebd
00000130: f421 e7bd 9b0e a0bd e096 58bd 0db4 9d3c
00000140: 9402 b3bd 8ad1 d73d 119b edbc 484d 22bd
00000150: 9a88 15be 2de5 0c3e 8b32 cd3d ea77 03be
00000160: f5c3 e53a ea02 493d 0e12 623d 60ee a7bd
00000170: a68c 583c 619a f83c 1166 e3bd 48a2 cfbd
00000180: 94c5 023d 8723 ecbd de86 3f3d 25d9 28bd
00000190: 563c f2bb 943b c93c db59 c4bc b4b6 f3bc
000001a0: e3ba edbc 4623 8ebd 4ed5 443b 7313 073e
000001b0: 2012 b23d d6e6 06bd 037a c73d deda 943d
000001c0: 0f74 a03d f9da 2f3c c21d a7bd 8ffe ad3d
000001d0: d7b5 093d 7659 03be d4e9 8b3d 90d7 2ebd
000001e0: 73f5 9abc 08cc 813c 4537 963d 7a4e 363d
000001f0: ed66 e5bd 846c 2dbd a418 49bc b246 6f3d
00000200: b80f fd39 9bad 0b3e 152c 513d ecf8 56bd
00000210: bcf3 3fbd 5832 0fbd 86ce cf3d bf9d 11bb
00000220: f3e9 e33d 2b2f 963d 3dc3 873d a84c 4b3d
00000230: f858 cfbd 630b ef3c cea5 4cbd f67b e6bd
00000240: 54fa c53d 9c52 edbd 2175 6d3d ab70 a03d
00000250: 9b54 a6bb 8a3d 61bc a180 0d3d e003 18bc
00000260: feeb 1cbe 14e3 953d d649 253d 465b 293d
00000270: 48b0 a83d 8333 cf3d 5a15 bc3c 0786 a3bd
00000280: a023 f03d be02 dfbd 2433 e63c a223 4cbd
00000290: 1f42 e63d 1426 c53d 1c03 42bd 6596 f83d
000002a0: bd5e 933d 8bdd 09be 6a36 e83d 4d31 0abd
000002b0: e6d0 bdbd dd1c 133e a8d9 ef3d 3e3d 553c
000002c0: 18da 06be cc54 6bbc 1f7b 023d 2ec4 113d
000002d0: a28a 8dbd a5cf fc3d a66d 59bd 9ada babd
000002e0: 1ad3 27be 1087 7a3c 5ba3 293d d4c6 e93c
000002f0: 1934 3f3d 2460 ba3d c0f2 02be eccd 34bd
00000300: 1070 393d bf76 8ebc 8a35 b0bd 76a9 1abd
00000310: 759b f33d 638b 43bd 23f5 583d 9244 e43b
00000320: 9dc3 733c a460 a0bc 320b dabc 73ba 1ebd
00000330: e45f 1f3e 0558 eabd 6155 1dbe 2059 bc3b
00000340: 54c3 453d 7709 15be dad5 2cbd 408d 023e
00000350: 2040 203c 36a9 613d 5f18 363d a7d0 873c
00000360: 4897 183e d106 94bd 5781 21be fe14 8ebd
00000370: 79c8 c9bd 4f22 84bc 401e 853c f183 38be
00000380: b5b7 1e3d 664c 043e c3af 5d3c b7b8 bf3d
00000390: 09f5 333d a01e 123d e61e f2bd 63dd e0bd
000003a0: 499e be3d 1ca5 25bd 7ae4 6cbd d1a8 bdbd
000003b0: cf0b 53bc e0ba 6fbd 0ca9 49be 298a 933c
000003c0: a1d4 ddbc cc6d 1ebe 0ac2 013e 896d 9b3d
000003d0: 3520 8ebd 26d3 943c f0a2 47bd 099c d33d
000003e0: 5e40 09be 72d2 a33d 878f fabd 71b8 5b3d
000003f0: bfa4 95bc a574 27be 369c 9e3b 7846 e33c
-0.09097805 -0.1659878 -0.05270601 0.060634173 0.012723083 -0.027190214 -0.03059976 -0.08059347
-0.06322846 0.100132115 -0.09021907 0.04125692 -0.124827206 0.010623904 0.033001967 0.0024225195
0.09500737 0.0203981 -0.015958212 -0.102323465 -0.09606275 0.074178584 0.09453751 0.08508495
-0.07022207 -0.07972912 0.10630966 -0.09917498 0.062161677 0.057062827 0.013921746 0.098970376
-0.030371586 -0.115029424 -0.00711359 0.00053808204 -0.018315945 0.040955488 0.10045351 -0.067519195
-0.021640677 -0.030018032 -0.06390449 -0.12211272 -0.057321467 -0.031242177 -0.116465226 -0.11221792
0.099641 0.09664415 -0.11467197 -0.047857452 0.037924573 0.04298156 -0.076295495 -0.02830225
-0.107004836 -0.015767934 -0.09950899 -0.010348316 -0.017874427 -0.0912944 0.097877316 -0.014234124
0.056701057 0.008677517 -0.048369326 0.08083107 -0.0027773764 -0.02173045 -0.006522655 -0.091809005
-0.033817172 0.020346507 0.07780222 -0.06967445 -0.11285773 -0.07815286 -0.05287826 0.019250894
-0.08740726 0.10538013 -0.029004605 -0.039624482 -0.1460289 0.13759299 0.10019406 -0.12838712
0.0017529713 0.049075045 0.055193 -0.08199763 0.013217127 0.030347051 -0.11103452 -0.101383746
0.031926706 -0.11530214 0.04675948 -0.04122271 -0.0073924465 0.024564542 -0.023968628 -0.029750206
-0.029019779 -0.069403216 0.0030034366 0.13191013 0.08694863 -0.032934986 0.09740069 0.07268308
0.078346364 0.0107333595 -0.08159973 0.08495819 0.03362068 -0.12827095 0.068317086 -0.042686045
-0.018915867 0.01584436 0.073347606 0.044508435 -0.11201272 -0.042339817 -0.012273941 0.05841703
0.00048267632 0.13640444 0.05106743 -0.052483484 -0.046863303 -0.03496012 0.10146813 -0.0022219268
0.11128607 0.07333215 0.066290356 0.049633652 -0.10124391 0.029180234 -0.04996281 -0.112541124
0.09666887 -0.11588022 0.05797303 0.0783399 -0.0050760037 -0.013747582 0.0345465 -0.009278268
-0.15324399 0.07318702 0.04035362 0.04134681 0.08236748 0.10117247 0.0229594 -0.07984548
0.11725545 -0.10889195 0.028100558 -0.04983867 0.1124308 0.096264035 -0.047366247 0.121380605
0.07195804 -0.13463418 0.11338504 -0.033738423 -0.0926836 0.14366479 0.117114365 0.01301509
-0.13169134 -0.014363479 0.0318557 0.035587482 -0.06911208 0.123442926 -0.053083085 -0.09123726
-0.16389123 0.0152909905 0.041415554 0.028537191 0.046680544 0.091003686 -0.12787914 -0.044141695
0.045272887 -0.017390607 -0.08603962 -0.037759267 0.118948855 -0.04774035 0.052968156 0.006966182
0.014878181 -0.019577332 -0.026616666 -0.03875203 0.15563923 -0.1144257 -0.153646 0.005747929
0.048281983 -0.14554392 -0.042196132 0.12749195 0.009780914 0.055093013 0.044456836 0.016578985
0.14901459 -0.072278626 -0.15771995 -0.06937598 -0.0985269 -0.01612964 0.016249776 -0.18019082
0.038749415 0.12919769 0.013530674 0.093614034 0.043934856 0.035673738 -0.118223 -0.10979726
0.09307534 -0.040440664 -0.05783508 -0.09260715 -0.012881233 -0.058527827 -0.19693393 0.018010216
-0.027078928 -0.15471572 0.12671676 0.075892515 -0.06939737 0.01816709 -0.048739374 0.10332496
-0.1340346 0.07999124 -0.12234407 0.053642694 -0.018267034 -0.1635309 0.004840399 0.027743563

intersectionLayer.W f4 [48, 46]
00000000: ec60 213e 409f e13d f174 f9bd 0e8f 67be
00000010: 3c5a 6ebe 4dc9 993a d8a1 a13c 956a f73c
00000020: 3060 74be afab a23d 6799 58be bf45 863d
00000030: 7f80 02bd dd8f 1dbe 2e53 03be 1d6f 23bd
00000040: 7db4 9bbd cbf1 e4bd 4ff3 83be a68b 1ebe
00000050: 2154 8d3d 53b1 403e a1af 58be 586a 2fbe
00000060: 2a75 86bd 4a71 01bd 2fe6 f53c f483 bd3d
00000070: 3a16 163e 0405 09bc b40c 29be 9a60 3ebe
00000080: 0f8c bf3d cb23 d63c 3282 babd f92d b5bc
00000090: a0d4 713e 851c 743e f367 e9bc 1adc 243e
000000a0: e0be e2bc 962b 61be 6a1e 853d 4e81 a9bc
000000b0: e2f3 ee3c 882a 35be a4ba d33d 62ce 2bbe
000000c0: fc25 843e def7 2bbe 9454 55be 9cb3 d83d
000000d0: 0b8a 53bc 8151 7cbd 8fc9 143e 4f6f 573e
000000e0: 5a61 633e a1ba a5bb ba62 cdbc b3b4 2d3e
000000f0: 15a9 823e 3316 01bd d8f0 12bd 9c06 08bd
00000100: 8bd7 6e3d 8b13 14be c8b9 7e3e bc35 2bbd
00000110: 56d3 ed3d a26e 703e ec55 c83d 80d8 c6bd
00000120: 3b66 503e 773f 5e3d 3090 b1bd b28a 533e
00000130: 7908 60be 735a 0a3e bfe9 5ebe e539 5b3e
00000140: 4b26 71be 535e 90bd e3f1 2e3e 7252 603d
00000150: 4cd3 6ebe 8c3f 5bbe 30e0 53be 6005 1f3e
00000160: ec8d 4abe a1fb b1bc 46bb 00be debb 503e
00000170: 4d92 173e aa47 c3bd 74df e2bd c8a6 1abe
00000180: 48f3 16be 10df 04be a0df 9ebd b43a 543e
00000190: 1300 73be 9cfa 813d 9f53 8fbe d52b f2bd
000001a0: c6a0 c6bd 19dc d43d cf1c 693d 4796 42bd
000001b0: 47bd 75be edc7 08be 1bd2 89be bf65 15bd
000001c0: cf7d ea3d b2b9 83bc 60fc fa3d f736 00be
000001d0: 966b ac3d 3b6d dbbd 553f 50bd cd34 563e
000001e0: 3c13 413e 1e82 cc3d b5a9 98bd 801b 5fbd
000001f0: 20cc 4fbe eb31 62bd 2e67 91bd c2dd ec3d
00000200: b817 3dbe fc98 003e 401d 793d 8ca6 89be
00000210: 6894 d3bd 4c32 ed3d f708 20bd 7d64 3b3e
00000220: 6d2b 833e 4571 57be dc28 4b3e b2f3 1f3e
00000230: a69b 06be 318a 53be 502f ba3d 1c6f cabd
00000240: 03b1 203b 68d0 22bc 66b4 81be 92a6 163d
00000250: 8c25 a6bb 2ed8 ea3d fb2d bcbc 39e1 4d3e
00000260: 7493 6bbe f994 923d 83b4 553e 0e29 1a3e
00000270: d0a5 f43c e507 d3bd 53e0 09bd 72f7 813e
00000280: aad4 a9bd 76fb 073e 5d5e 2bbe 244b bd3d
00000290: 0e03 b7bd 971d 24be cd63 533e 57da f8bc
000002a0: b9fd bcbd 43d9 56bd 47b5 fc3d 2f4a 37be
000002b0: 2c07 94bd d8ab 4bbc 7bb0 253d ea02 25be
000002c0: 563e a93d bd7e 7dbe e04a a93e c8bc 573e
000002d0: 286c 603c 8c48 8b3e 1930 69be 2ccc b53d
000002e0: a2f1 61be b85f 5f3e d6ed e3bd 38ae 1c3e
000002f0: 608a c73c 7403 0ebe ec5e b5bd 3a2e 653e
00000300: 8e8f fcbd d0ce b03d 1c60 4a3e 9409 33bd
00000310: 8022 4cbc 2c1d 923d fe99 273e 9ca1 913d
00000320: 2094 793c d252 42be ed12 41be eccf 96bd
00000330: a4a7 29be d464 5fbd 486a 183e 2617 fdbd
00000340: 4a0a 2d3e cca0 53be 9c7e 243e 74a8 f1bd
00000350: c885 743e 520a 3ebe b4ac 49be 88a0 5b3e
00000360: 44df f83d 54ab 61be be08 4bbe 0637 7c3e
00000370: e087 fd3d 53f9 80be b86b 9abd 38c0 edbc
00000380: f7f6 05be 708a f13c 0e12 fabd f018 2dbd
00000390: b8b6 2f3d d8eb 683e f4f7 15be 5847 213d
000003a0: c7ee 6ebe cc31 49bd 5616 1c3d 9295 b8bd
000003b0: 4551 e43a e330 313e addd 2e3e 25c1 8dbd
000003c0: 96d4 0abe cb4f 823e aff4 d93b c0e7 5fbe
000003d0: e379 08be b97d 0f3e d653 0f3e dbc2 96bc
000003e0: 9944 1e3e 1c63 723e 29a8 b73c 81ad 4d3e
000003f0: 99db 763e 0123 523e 80cc 833e 990e 21be
0.15759629 0.11016703 -0.12180508 -0.22613165 -0.23276609 0.0011732966 0.019730493 0.03020219
-0.23864818 0.07942902 -0.21152268 0.06556272 -0.031860825 -0.1538691 -0.128247 -0.039900888
-0.07602785 -0.11178931 -0.25771567 -0.15482959 0.06900812 0.18817644 -0.21160747 -0.1713041
-0.06565316 -0.03160218 0.030016987 0.09253684 0.14656916 -0.008363012 -0.16508752 -0.18591538
0.09352886 0.026140114 -0.09106864 -0.022116648 0.23616266 0.23839004 -0.02849195 0.16099587
-0.027678907 -0.21989283 0.06499942 -0.02069154 0.029169027 -0.17692006 0.10338333 -0.16777948
0.2581023 -0.16793773 -0.20833045 0.10581133 -0.01291133 -0.061601166 0.14530014 0.21038555
0.22205105 -0.0050576483 -0.02507149 0.16963463 0.25519624 -0.03151531 -0.035874218 -0.03320943
0.058311027 -0.1446058 0.24875557 -0.041799292 0.11612575 0.23479703 0.09782013 -0.09709263
0.20351498 0.054259744 -0.0867008 0.20658377 -0.21878232 0.13511066 -0.21768855 0.21408804
-0.23549764 -0.07049241 0.1708446 0.054766126 -0.23322791 -0.2141096 -0.2069099 0.15529394
-0.19780701 -0.021726431 -0.12571439 0.20384166 0.14801903 -0.09535153 -0.110777766 -0.15102684
-0.14741242 -0.12975717 -0.07757497 0.20725518 -0.23730497 0.06346628 -0.27993485 -0.118247665
-0.09698634 0.10393543 0.05691224 -0.047506597 -0.23997985 -0.13357516 -0.2691811 -0.036473986
0.11449777 -0.016079757 0.12255168 -0.12520967 0.08418958 -0.107141934 -0.050841648 0.2091858
0.18854994 0.099857554 -0.07454244 -0.054469585 -0.20292711 -0.055223387 -0.07099758 0.115657344
-0.18466079 0.12558359 0.06081891 -0.26884878 -0.103310406 0.11581859 -0.03907105 0.18300052
0.2561907 -0.21039303 0.19839805 0.15620306 -0.13145313 -0.20658185 0.090910554 -0.09884474
0.002451957 -0.009937383 -0.25332946 0.036779948 -0.005070394 0.11467014 -0.022971144 0.20105447
-0.23005468 0.071573205 0.20869641 0.15054724 0.029864222 -0.1030424 -0.033661198 0.25384098
-0.082925156 0.13279518 -0.16735215 0.092428476 -0.089361295 -0.16026913 0.2064354 -0.03037755
-0.09228081 -0.05245329 0.123392634 -0.17899393 -0.072279304 -0.012431107 0.040451508 -0.16114393
0.08263843 -0.24755378 0.33064938 0.21068108 0.013697661 0.27203786 -0.22772254 0.08876833
-0.22064832 0.21813858 -0.11129348 0.15300834 0.024357975 -0.13868505 -0.088559955 0.22380915
-0.123320684 0.08633196 0.19763225 -0.043710306 -0.012459397 0.0713447 0.16367337 0.07110903
0.01523307 -0.18976906 -0.18854876 -0.07363877 -0.16567856 -0.054539517 0.14884293 -0.12357931
0.16898456 -0.20666808 0.16063923 -0.11799708 0.23879158 -0.18558624 -0.19694787 0.21447957
0.121519595 -0.22038013 -0.19827554 0.24630365 0.12379432 -0.2519022 -0.07540077 -0.029022321
-0.13082491 0.029484957 -0.12210475 -0.04226011 0.042898864 0.22746217 -0.14645368 0.03937468
-0.23333274 -0.049119756 0.03810724 -0.09012903 0.001741924 0.17303805 0.1707675 -0.06921605
-0.13557658 0.25451502 0.006651483 -0.2186575 -0.13327746 0.14012803 0.13996825 -0.018403461
0.15455855 0.2367062 0.022419052 0.20085718 0.24107207 0.20521165 0.2574196 -0.15728225

neighborLayer.W f4 [6, 32]
00000000: ed71 b0bd a920 833e d3fc 9c3e bd5d 22be
00000010: d122 3c3e 45a7 05be bd19 493e 89b2 b23e
00000020: fbbe c5be 8f40 94be c228 b4be 4039 90be
00000030: 0acb 913e 4bb4 253e 25a9 7bbe 2f33 ef3d
00000040: 1d46 9f3e 983d 82be 29ef 1c3e 8f66 2ebe
00000050: 647a 943d 233e bcbe 707b 48be ff35 ba3d
00000060: c272 97be 5c5b 4abe 9817 3e3e 45e5 54be
00000070: 31a6 973e 66f8 cf3d 5b1b 293e 08d1 1d3e
00000080: a2b7 c9bd 6b27 75be 462f a4be 5c02 a7be
00000090: 7f70 2fbe bed0 8a3d 64db b2be 9086 70be
000000a0: 4b1b c43d a8a3 dfbd 2424 023e 721d 9e3d
000000b0: 3b65 06bd ac26 93be 3a8e e33d 5eae fd3d
000000c0: 41b6 7fbe 98df e93d a15f a83e 8298 6c3c
000000d0: 5e18 973d f478 3ebd 618e 903d 5bde 66be
000000e0: e14b 8b3d cf53 5dbe 2535 a4be b305 ae3e
000000f0: 03af a83e ea94 aa3e a954 75be e74a bc3e
00000100: 59ad 95be aec2 4ebe ce2c c63d 4119 5c3e
00000110: efc9 bcbe 5d4a 8a3e 4c41 38bc 2d1f 153e
00000120: 55c3 07bd 2927 bc3e db81 04bd b1c1 c83c
00000130: 23a0 40be d87b 32be a4eb 693e fd20 12be
00000140: efcf 21be e59d a53d e31b 94be d799 2e3e
00000150: c5ab 923e b621 9b3e 7761 9e3d 15af 96be
00000160: 838d 873e 6672 923e 9267 cb3e 7c4e bcbe
00000170: b22d 3dbe 1e05 e2be 6ea4 a9be 11ac a83e
00000180: 24f4 adbe 4944 423e de5c 7abd ea4b b23e
00000190: 4575 d03e 1d69 693d 9ce0 45be ea47 5e3e
000001a0: ac7e 303e 5088 23be 74cc c7be 05e2 393d
000001b0: b9bd 24be 7617 27be 30c1 013d b285 8f3e
000001c0: 3a55 d1be 9791 3b3e 4bab cabc 5c29 36bd
000001d0: bde7 c13e 5c6c 65bc 5469 14be bb84 0ebe
000001e0: 0973 ecbd 72cb 85be fd1b 90be 60a2 1c3e
000001f0: 2b69 a3be dc83 0bbe ddf8 823e b7a2 2ebd
00000200: 2b23 8ebd d8ce 29be eb3e 2dbd 8fbf a2be
00000210: ee3c b4be 81f3 42bd 63e0 5d3d 9381 893e
00000220: 2195 c9bd 45f4 88be 4606 223e 3697 dabe
00000230: 970b 3f3d f09b 5a3e 55bd 77bd 54ed 243e
00000240: 07ff c5be 245f 81be 9579 663e a27e b33e
00000250: 0ae8 a63e 1555 963d 124a 93be 2429 33be
00000260: dbad aebe c0ff 85be c91d a6bd 1ceb 18be
00000270: 6120 af3e 35bb c8be dbdd 533e 4990 1f3e
00000280: 4e79 72be db18 c6bd 50b9 5fbe d7d2 663d
00000290: 637d e43d fded 6abe 307b 953e d05d 74be
000002a0: b61d eebd 8f11 5fbd 0aec 97be 348c d5bd
000002b0: 559f 97be 806c df3c ecc9 1e3d 5b8f d7be
000002c0: ea30 923e 8e6a bebd c0a7 c83e ecff b53c
000002d0: 4bc4 f5bd 0f46 42be 1363 4b3c 3a01 2dbe
000002e0: 4b33 823d e9ae 37bd 614c 1ebe fb0f ec3d
000002f0: 14db d03e 514e cebd bd4a ce3d f14f 92be
-0.086154796 0.25610855 0.3066164 -0.15856071 0.18372656 -0.1305209 0.19638725 0.34901837
-0.3862227 -0.28955504 -0.35187346 -0.28168678 0.2847522 0.16182058 -0.24576242 0.11679684
0.3110818 -0.25437617 0.15325607 -0.1703131 0.07249907 -0.36766157 -0.19578338 0.0909233
-0.2957974 -0.19761413 0.18563688 -0.20790584 0.2961898 0.101548 0.16514342 0.1541177
-0.09849478 -0.23940818 -0.32067317 -0.32618988 -0.17132758 0.06778096 -0.34933007 -0.23488832
0.09575518 -0.10919887 0.12709099 0.0772046 -0.032811385 -0.28740442 0.11111112 0.123867735
-0.24971868 0.114196 0.3288546 0.014440658 0.073776945 -0.04650207 0.070584066 -0.2254576
0.06801582 -0.21614002 -0.32071796 0.33988723 0.32946023 0.33316737 -0.23958077 0.36775896
-0.29233816 -0.20191452 0.096765146 0.21494009 -0.36872813 0.2700986 -0.011246037 0.14562674
-0.033145268 0.36748627 -0.032350402 0.024506422 -0.18811087 -0.17430055 0.22843796 -0.14270397
-0.15801977 0.080867566 -0.28927526 0.17050873 0.28646675 0.30299157 0.07733434 -0.29430452
0.26475152 0.28602904 0.39727455 -0.3677863 -0.18474463 -0.4414453 -0.33133262 0.32943776
-0.33975327 0.18971361 -0.06112372 0.34823543 0.4071447 0.05698501 -0.19323963 0.2170712
0.17235821 -0.15969968 -0.39023173 0.045381565 -0.16087998 -0.16317543 0.03167838 0.2803169
-0.40885335 0.18317257 -0.024739882 -0.044473037 0.37872115 -0.014002886 -0.14493304 -0.1391782
-0.11545379 -0.2613178 -0.28146353 0.15296316 -0.31916174 -0.13624519 0.25580493 -0.042635646
-0.069403015 -0.16582811 -0.04229633 -0.31786773 -0.35202736 -0.047595505 0.05416907 0.2685667
-0.09842897 -0.26748863 0.15822706 -0.4269349 0.046641912 0.21348548 -0.060483295 0.16106158
-0.38671133 -0.252679 0.22507317 0.3505755 0.32598907 0.07340447 -0.2876745 -0.17496163
-0.34117016 -0.26171684 -0.0811115 -0.14933437 0.3420439 -0.39205328 0.206901 0.15582384
-0.23679087 -0.096727096 -0.21848035 0.056353416 0.11156728 -0.22942348 0.29195547 -0.23863912
-0.11626761 -0.054460105 -0.2967227 -0.10427132 -0.29613748 0.027273417 0.038766786 -0.4210156
0.28552943 -0.092976674 0.39190483 0.02221676 -0.120003305 -0.18972038 0.012413758 -0.16894999
0.063574396 -0.04484454 -0.15458824 0.115264855 0.40792143 -0.100735314 0.10072849 -0.28576615

neighborLayer.a f4 [64, 1]
00000000: c673 0abe eb6e f3be 3588 053d ca39 b53d
00000010: 777a ce3d cbcd 863e 11a4 063e 96e1 5fbe
00000020: f8d6 f5bd b92a 9e3e bf72 7b3e 3275 1abe
00000030: a8f3 2a3c a328 49be 1d5b 9d3d 1181 aebd
00000040: b110 09be 0b98 0abd 05b2 4d3d edd7 16be
00000050: 0f53 6a3e 9e88 30be b31c 813e a89b 3cbd
00000060: cb6b 85bc cbcd 9d3d bb18 483e 5df1 76be
00000070: e173 693e 429d 6ebe b6d3 b8be 4bb4 5ebd
00000080: 5d91 3fbe 391a 84bd 5571 50be 0e4f df3d
00000090: de0a e4bd 6ca2 0b3e d475 903e 45e3 73be
000000a0: 3885 583e 579c 9dbd e4ef ab3e 4104 e33d
000000b0: 5e35 5d3e 3404 a3bc 6d72 ac3c 5a13 12bd
000000c0: b84d 023e f8e2 3f3c f932 3cbe b12a 503e
000000d0: 8c10 8dbe 36a0 693e 177a 25be dcd1 f43d
000000e0: 49af 283e caaf 64be 386b 64be 7adf a13e
000000f0: cc1c 18be b4b5 763e da17 563e 6ab7 7fbe
-0.13520727 -0.4754556 0.0326006 0.08848913 0.10081952 0.26328883 0.13148524 -0.21863398
-0.12003893 0.3089197 0.24555491 -0.15083769 0.010434069 -0.19644408 0.07683394 -0.08520711
-0.13385274 -0.033836406 0.0502186 -0.14730807 0.22883247 -0.17239615 0.25217208 -0.046046883
-0.016286751 0.077052675 0.19540684 -0.2411551 0.2279811 -0.23302177 -0.36099023 -0.05437116
-0.18707795 -0.06450314 -0.20355733 0.1090375 -0.11134885 0.13636178 0.28214896 -0.23817165
0.21144569 -0.07695835 0.3358146 0.11084796 0.21602389 -0.019899465 0.021050656 -0.035662986
0.1272496 0.011711828 -0.1837882 0.20328785 -0.27551687 0.22815022 -0.16159855 0.1195409
0.16473116 -0.22332683 -0.22306526 0.31615812 -0.14854735 0.24092752 0.20907536 -0.2497231
