test/model/actor_3_3_3_2_61_best_rou1.pth (torch, 689330 bytes, 17 tensors)

v2lLayer.W f4 [3, 40]
0.22845456 -0.09160895 0.11789455 0.22835778 -0.087709315 0.37480038 0.10567114 0.24311545
0.0434478 -0.15664402 -0.23073539 -0.30058149 0.11375619 -0.056668956 -0.30860046 0.2544493
0.099558756 -0.22473261 0.00090837735 -0.07379371 0.28810415 0.07754758 0.23145296 0.020010881
-0.3246164 -0.2845169 -0.15285522 -0.012305776 -0.032068647 -0.21019597 0.27985445 -0.1415183
0.08111449 -0.264028 -0.08201205 0.03322655 -0.28459018 0.21058808 0.1360972 0.16302001
0.02063094 0.117304616 0.045140855 0.21644117 0.2346156 -0.42010817 0.11393141 -0.40822253
-0.09459949 0.16860862 -0.06506301 0.17139733 0.39730617 -0.30280173 0.3985029 -0.09888549
0.19412929 -0.3791381 0.18686359 -0.3308304 0.19951461 -0.16572928 0.24595721 -0.3299191
-0.114827745 0.25436664 -0.17265111 -0.35713473 -0.14839023 -0.11928324 -0.2713658 0.10808346
-0.11891952 0.12418166 0.19748789 0.2572105 -0.19845489 -0.3703752 -0.29791456 -0.25198576
-0.047966313 -0.35740584 -0.106361404 0.014259039 -0.11568148 -0.18194526 -0.14983718 -0.12797476
0.2913613 -0.22181877 0.24605025 -0.28592423 0.33238128 -0.31440383 0.3035973 -0.12816392
-0.1978658 -0.2330526 -0.21837021 -0.14945194 -0.38589153 0.08929098 -0.14599684 0.17904645
0.34995553 0.26661792 -0.16345161 -0.10078522 -0.30956566 0.01480033 -0.28458473 -0.1766749
0.034290697 0.32666323 0.22942258 -0.031668156 -0.33819103 0.0862479 0.3345673 -0.21617675
00000000: feef 693e 799d bbbd b372 f13d 9fd6 693e
00000010: f1a0 b3bd d6e5 bf3e 1c6a d83d 42f3 783e
00000020: 52f6 313d 4a67 20be e645 6cbe d1e5 99be
00000030: 01f9 e83d b51d 68bd e100 9ebe 2e47 823e
00000040: 76e5 cb3d 4e20 66be 2c20 6e3a 2821 97bd
00000050: 6382 933e 44d1 9e3d 0102 6d3e dced a33c
00000060: 1f34 a6be 33ac 91be 1486 1cbe 2a9e 49bc
00000070: 6a5a 03bd 9d3d 57be 1549 8f3e 2cea 10be
00000080: 5b1f a63d ae2e 87be eff5 a7bd 9018 083d
00000090: ceb5 91be 67a4 573e 105d 0b3e b8ee 263e
000000a0: 3802 a93c 673d f03d 9ee5 383d c1a2 5d3e
000000b0: 123f 703e 6b18 d7be df54 e93d 8b02 d1be
000000c0: 61bd c1bd bda7 2c3e c13f 85bd c882 2f3e
000000d0: b76b cb3e d408 9bbe 9208 cc3e 7a84 cabd
000000e0: d4c9 463e 641e c2be 2b59 3f3e 9a62 a9be
000000f0: 8f4d 4c3e f0b4 29be 35dc 7b3e 28eb a8be
00000100: cf2a ebbd 583c 823e 74cb 30be 5dda b6be
00000110: 9cf3 17be c54a f4bd 75f0 8abe dc5a dd3d
00000120: 148c f3bd f452 fe3d 443a 4a3e 18b1 833e
00000130: c237 4bbe d1a1 bdbe 4288 98be 4704 81be
00000140: 5378 44bd e6fd b6be 02d4 d9bd bf9e 693c
00000150: 69ea ecbd dc4f 3abe eb6e 19be d10b 03be
00000160: 4f2d 953e 7624 63be 99f4 7b3e a964 92be
00000170: e12d aa3e 8af9 a0be 1b71 9b3e 673d 03be
00000180: 559d 4abe 57a5 6ebe 719c 5fbe ee09 19be
00000190: 9393 c5be 30de b63d 3280 15be f457 373e
000001a0: 5f2d b33e 2582 883e dc5f 27be 7b68 cebd
000001b0: 647f 9ebe 157d 723c 17b5 91be 44ea 34be
000001c0: 6774 0c3d 6740 a73e c1ed 6a3e 78b6 01bd
000001d0: 6027 adbe bda2 b03d 684c ab3e 705d 5dbe

v2lLayer.a f4 [80, 1]
0.1286842 -0.11622482 -0.13540371 -0.058146257 -0.067642935 0.09738377 -0.122173354 0.27635348
-0.23128048 -0.19581065 -0.24233729 0.10775007 0.067068465 0.16615978 -0.24467285 -0.005363171
-0.02451604 0.16515993 0.026225083 -0.25177243 -0.10785714 0.027117716 0.17974724 0.0137011055
-0.07774294 -0.031528667 0.24792351 -0.10451423 0.21212229 -0.10321442 -0.028830083 -0.050019745
0.12948489 -0.28630072 -0.18351199 0.20149025 -0.019658731 0.21448629 -0.048414666 0.114485376
0.04554698 -0.097212 -0.107495904 -0.20125462 0.047423504 0.035962693 0.023635834 0.25223973
0.0026698767 0.18176451 0.0701869 -0.032269213 0.088238575 0.075788006 -0.15692888 0.048732106
-0.14511134 0.1438487 0.20158933 0.10715767 0.053823885 0.24225721 -0.111162566 -0.18778287
0.19420838 0.14441541 0.04167386 -0.04638608 0.118503265 -0.25540826 -0.10240044 0.19667472
0.20190589 0.09738653 0.10695302 0.15260603 0.20151193 -0.22118588 -0.09907133 0.056703426
00000000: cac5 033e 4707 eebd 45a7 0abe c52a 6ebd
00000010: 6188 8abd 2471 c73d 0636 fabd 347e 8d3e
00000020: cad4 6cbe 9682 48be 4427 78be 12ac dc3d
00000030: 315b 893d ca25 2a3e 858b 7abe 8abd afbb
00000040: ddd5 c8bc af1f 293e fcd5 d63c 51e8 80be
00000050: 34e4 dcbd f925 de3c a90f 383e 9a7a 603c
00000060: b137 9fbd 3424 01bd a9df 7d3e 8e0b d6bd
00000070: 9636 593e 1562 d3bd 112d ecbc 81e1 4cbd
00000080: b097 043e 0296 92be 91ea 3bbe 7653 4e3e
00000090: 590b a1bc 4ba2 5b3e 754e 46bd 4f77 ea3d
000000a0: 788f 3a3d 1617 c7bd d026 dcbd b115 4ebe
000000b0: 263f 423d 9e4d 133d f09f c13c 9125 813e
000000c0: 19f9 2e3b 7a20 3a3e 26be 8f3d b92c 04bd
000000d0: 6db6 b43d be36 9b3d f7b1 20be 519b 473d
000000e0: 1198 14be 134d 133e 6f6d 4e3e 7b75 db3d
000000f0: 6f76 5c3d 4612 783e 33a9 e3bd 274a 40be
00000100: 90de 463e a2e1 133e 36b2 2a3d 55ff 3dbd
00000110: d7b1 f23d dfc4 82be 52b7 d1bd 1965 493e
00000120: 6bc0 4e3e 9772 c73d 2f0a db3d c144 1c3e
00000130: 2559 4e3e 8d7e 62be e9e5 cabd da41 683d

laneLayer.W f4 [12, 12]
-0.059946198 0.30603084 0.1456611 0.17098545 0.3067571 -0.053848922 -0.011869481 -0.036841508
0.4072722 0.31541932 -0.1959413 0.12993382 0.37479845 -0.12867105 0.078798115 0.089174114
0.43018234 0.17008036 0.40312645 -0.5106887 -0.13744996 -0.16647437 0.030113483 0.06538655
0.2744138 -0.08555864 -0.15966538 -0.24726819 -0.32674113 0.32547688 -0.034107763 -0.31699884
0.24811164 0.0538757 0.19555955 0.4735766 -0.20100926 0.4734699 -0.4017043 0.35838288
0.3238358 0.2335895 0.11883025 -0.4025115 0.35257563 -0.17178553 -0.3460758 0.2407596
0.04517819 0.38583007 -0.42808512 -0.47211272 0.24546319 0.20936042 0.4359945 -0.0016169982
-0.4421325 -0.08639717 -0.27994645 -0.27815455 -0.051162638 0.38339105 0.3131429 0.21059266
-0.040349133 0.13246746 0.4835352 -0.14384782 0.40451115 -0.30340782 0.5130095 -0.453973
0.48478353 0.4113638 0.4740557 -0.5471941 0.52370155 0.2770687 -0.47358853 0.15365373
-0.41740727 -0.06144338 0.51217794 0.32914042 -3.604523e-05 0.14215258 -0.5106682 -0.31399086
0.200068 0.13837175 0.5360066 0.033716585 -0.31812757 -0.16649787 0.04070533 -0.17956309
0.043687582 -0.2022348 -0.1312213 0.39680284 0.15252769 0.33495092 0.065381825 0.4973405
0.34558326 0.4588923 -0.14059621 -0.37528127 -0.24495198 -0.20756496 0.004269143 -0.0005116347
0.38504 0.19467866 0.44357717 -0.19860236 -0.45493412 -0.23350567 -0.25610816 0.49144015
-0.4238746 0.17638536 0.3098034 -0.28943363 -0.2881866 0.13973093 0.5169999 -0.1793348
-0.5074255 -0.09604718 -0.031000307 0.27082482 -0.038336992 0.09105686 -0.14056121 0.5319767
-0.01072069 -0.15584943 0.32338676 -0.059126474 -0.06973986 -0.5220156 -0.019126326 -0.33533913
00000000: 258a 75bd 13b0 9c3e 2f28 153e cf16 2f3e
00000010: 440f 9d3e b090 5cbd 3678 42bc 1fe7 16bd
00000020: fb85 d03e a47e a13e d6a4 48be 5f0d 053e
00000030: 95e5 bf3e 58c2 03be e860 a13d eba0 b63d
00000040: dc40 dc3e 8c29 2e3e 9766 ce3e 7fbc 02bf
00000050: afbf 0cbe 4278 2abe 8db0 f63c 62e9 853d
00000060: f77f 8c3e 5e39 afbd 527f 23be df33 7dbe
00000070: 9d4a a7be e8a4 a63e 95b4 0bbd ac4d a2be
00000080: fa10 7e3e c4ac 5c3d c340 483e a278 f23e
00000090: 5fd5 4dbe a66a f23e 30ac cdbe f67d b73e
000000a0: cecd a53e 1632 6f3e 465d f33d fd15 cebe
000000b0: cb84 b43e 8ce8 2fbe d930 b1be af89 763e
000000c0: c40c 393d 858b c53e f92d dbbe c2b8 f1be
000000d0: b45a 7b3e 9462 563e ac3a df3e 75f1 d3ba
000000e0: 315f e2be 00f1 b0bd 2455 8fbe 466a 8ebe
000000f0: ea8f 51bd d54b c43e 4454 a03e 9aa5 573e
00000100: 2245 25bd 8da5 073e ed91 f73e d84c 13be
00000110: 161c cf3e 4558 9bbe 9754 033f 266f e8be
00000120: 8c35 f83e 479e d23e 6eb7 f23e ea14 0cbf
00000130: 4e11 063f f3db 8d3e 327a f2be 6757 1d3e
00000140: 68b6 d5be 0eac 7bbd 181e 033f 1885 a83e
00000150: 452f 17b8 7290 113e 27bb 02bf 69c3 a0be
00000160: a0de 4c3e 53b1 0d3e bb37 093f 671a 0a3d
00000170: 9ee1 a2be 6b7e 2abe a2ba 263d 63df 37be
00000180: c0f1 323d a416 4fbe e05e 06be be29 cb3e
00000190: 3830 1c3e b07e ab3e e8e6 853d 6aa3 fe3e
000001a0: 4af0 b03e eef3 ea3e 74f8 0fbe de24 c0be
000001b0: b1d4 7abe e98b 54be 2be4 8b3b 391f 06ba
000001c0: f623 c53e d859 473e 8c1c e33e 6b5e 4bbe
000001d0: 20ed e8be 1c1c 6fbe 9c20 83be 0b9e fb3e
000001e0: 1706 d9be 5d9e 343e 8d9e 9e3e a530 94be
000001f0: 328d 93be a015 0f3e 1b5a 043f 8ba3 37be
00000200: a3e6 01bf 62b4 c4bd 5bf4 fdbc 8da9 8a3e
00000210: 4007 1dbd 057c ba3d 47ef 0fbe a02f 083f
00000220: d5a5 2fbc fe96 1fbe f392 a53e 9a2e 72bd
00000230: c6d3 8ebd d0a2 05bf d0ae 9cbc 92b1 abbe

l2pLayer.W f4 [12, 88]
0.053216424 -0.0064752367 -0.2205197 0.13099931 0.19077878 -0.08068008 -0.14876169 -0.23564258
-0.05835144 0.013940731 -0.12977451 0.113416664 0.05415612 0.1797935 -0.1948161 0.11929963
0.24796647 -0.1821143 0.10831391 -0.17447083 0.15164642 0.24783082 -0.19092421 -0.08414886
-0.17685951 0.2208396 0.2357888 -0.0515464 0.09806956 0.22665219 -0.051084425 0.12210308
0.05791847 0.015995823 0.040699158 -0.19002263 0.060826264 0.11498243 0.07775442 -0.10154122
0.063649684 0.033373944 -0.03895382 0.121785015 -0.09114063 0.13399313 0.22920892 0.2556552
0.20410872 -0.056545544 -0.12854911 -0.035492625 -0.023288067 -0.063272454 0.087922126 -0.02170834
-0.08527937 0.13957538 0.12473328 -0.1340416 -0.11823346 -0.22236636 -0.04635646 -0.18215612
0.15574066 -0.040582042 0.017336056 -0.23974265 -0.05429652 0.19333193 0.13128448 -0.009371431
0.19112667 0.0173765 0.13631868 -0.04229972 0.13637841 0.08261378 -0.0015232435 -0.1809955
0.08514164 0.21349369 0.027796928 -0.09487834 -0.028229168 -0.10061115 -0.08192623 0.006307606
0.034151286 -0.1333246 0.07883557 0.001073032 0.06630628 0.22178899 0.057920136 0.115978815
-0.13943897 -0.007962503 -0.024440635 -0.08280635 0.20593154 0.03717994 0.21949232 0.25364512
0.21835381 0.03107943 0.06720785 0.0085174525 -0.032988314 0.11869742 -0.12172527 -0.20607942
-0.054789428 -0.15448381 -0.078061625 0.037786514 -0.025044667 0.0024924988 -0.12189854 0.11164039
-0.14259985 0.20133568 -0.1901544 0.23662904 0.19197771 0.07227252 -0.08188218 0.07607724
0.0704998 0.005778145 0.23744684 0.025611978 0.10286886 -0.07607296 -0.0034664103 0.04465184
0.22324696 0.08123299 0.16559441 -0.19165455 0.1582984 0.07004715 0.24787468 0.047969975
0.21205935 0.12067002 0.0028614586 -0.075810894 -0.010194243 -0.07318854 0.12681116 -0.1669551
0.029667903 -0.18577538 -0.11168675 0.19685772 0.1581883 -0.067275345 0.2232421 0.104650185
-0.03405784 0.22978204 -0.17816252 0.20260336 -0.096725784 0.08627479 -0.007316001 0.16607903
0.13059542 0.13898511 0.23760104 0.1540155 0.057204112 0.21624337 -0.18998988 0.046215612
0.07411892 -0.24498087 -0.21297522 0.10860802 -0.09613055 0.28781942 -0.009200456 0.1343388
0.2030629 -0.25651887 0.18706255 -0.12152567 -0.03685727 0.03292802 0.066926576 -0.11165404
0.18760957 0.17372298 -0.06362222 -0.069087 0.2145216 0.060200047 0.14819883 -0.035098817
0.111032054 0.12857318 0.085775666 0.2221719 -0.1615797 -0.09711593 0.10580187 0.040742666
-0.074297756 0.26227626 0.12312463 0.16931564 -0.23742421 -0.06391672 -0.08055892 -0.03290274
0.004344605 -0.09032799 -0.023405813 -0.05191718 -0.059280157 0.049356103 -0.08752797 0.1587412
-0.18387201 -0.055034388 -0.12998019 0.10574454 -0.017001329 0.042982135 0.18373813 0.040069003
0.0076703127 -0.10812699 -0.18835558 -0.08549035 0.18000728 0.049888514 -0.23179393 -0.19206841
0.13372986 0.068288974 0.10971824 -0.042677775 -0.042596217 -0.11422859 -0.10702333 0.05570004
-0.12305755 -0.13835426 -0.0577402 -0.15688705 0.05992401 -0.14295025 -0.017383972 -0.117927186
00000000: 77f9 593d 392e d4bb ebcf 61be af24 063e
00000010: 835b 433e 993b a5bd fc54 18be 4a4c 71be
00000020: eb01 6fbd aa67 643c 9ce3 04be ff46 e83d
00000030: cfd2 5d3d ca1b 383e df7d 47be 5d53 f43d
00000040: ecea 7d3e 2c7c 3abe afd3 dd3d 7ba8 32be
00000050: 3349 1b3e 5dc7 7d3e a381 43be 3d56 acbd
00000060: a91a 35be c723 623e 9f72 713e 5122 53bd
00000070: b2d8 c83d 8317 683e e73d 51bd 2e11 fa3d
00000080: eb3b 6d3d ac09 833c 29b4 263d 4b95 42be
00000090: f624 793d e97b eb3d b63d 9f3d d8f4 cfbd
000000a0: c45a 823d 1eb3 083d 0a8e 1fbd 6c6a f93d
000000b0: f0a7 babd 7f35 093e beb5 6a3e 3de5 823e
000000c0: e001 513e 4d9c 67bd 61a2 03be b760 11bd
000000d0: 9ec6 bebc fd94 81bd 8410 b43d b0d5 b1bc
000000e0: f3a6 aebd d9ec 0e3e 2974 ff3d 3442 09be
000000f0: 6224 f2bd 02b4 63be 45e0 3dbd 2287 3abe
00000100: 7b7a 1f3e 5b39 26bd 5804 8e3c 197f 75be
00000110: 0766 5ebd cef8 453e 706f 063e a18a 19bc
00000120: b6b6 433e 2959 8e3c 2097 0b3e 7942 2dbd
00000130: c8a6 0b3e 6a31 a93d 92a7 c7ba e256 39be
00000140: bd5e ae3d 179e 5a3e 62b6 e33c 934f c2bd
00000150: db40 e7bc 380d cebd f0c8 a7bd 09b0 ce3b
00000160: 38e2 0b3d 3e86 08be 8b74 a13d fba4 8c3a
00000170: 96cb 873d a71c 633e aa3d 6d3d 4d86 ed3d
00000180: 17c9 0ebe 2875 02bc ba37 c8bc 6096 a9bd
00000190: b8df 523e fe49 183d 98c2 603e c6dd 813e
000001a0: 2498 5f3e 4a9a fe3c 45a4 893d c98c 0b3c
000001b0: c11e 07bd a217 f33d 194b f9bd 7c06 53be
000001c0: e16a 60bd 0131 1ebe c6de 9fbd 08c6 1a3d
000001d0: 792a cdbc 3159 233b f1a5 f9bd b7a3 e43d
000001e0: b205 12be f12a 4e3e d6b7 42be e24e 723e
000001f0: ce95 443e 9d03 943d d8b1 a7bd 62ce 9b3d
00000200: 3362 903d 9856 bd3b 4425 733e 36d0 d13c
00000210: e9ac d23d 24cc 9bbd b72c 63bb d9e4 363d
00000220: da9a 643e 7b5d a63d 9591 293e 1741 44be
00000230: fa18 223e e174 8f3d dcd2 7d3e 2a7c 443d
00000240: 1626 593e d821 f73d 4f87 3b3b be42 9bbd
00000250: c105 27bc e0e3 95bd c9da 013e 47f6 2abe
00000260: 1a0a f33c e73b 3ebe 06bc e4bd 1295 493e
00000270: 1dfc 213e a8c7 89bd 9499 643e d652 d63d
00000280: 3c80 0bbd fc4b 6b3e 3c70 36be 4177 4f3e
00000290: 2b18 c6bd d6b0 b03d 11bb efbb 9f10 2a3e
000002a0: ceba 053e 1d52 0e3e b04d 733e 3db6 1d3e
000002b0: dc4e 6a3d e76e 5d3e b58c 42be 954c 3d3d
000002c0: a9cb 973d 44dc 7abe 2d16 5abe e26d de3d
000002d0: 18e0 c4bd 115d 933e 82bd 16bc 1c90 093e
000002e0: b9ef 4f3e 7156 83be 538d 3f3e 73e2 f8bd
000002f0: a6f7 16bd 88df 063d cd10 893d e0aa e4bd
00000300: b91c 403e 70e4 313e 5e4c 82bd 7c7d 8dbd
00000310: 8dab 5b3e 5394 763d 6fc1 173e c7c3 0fbd
00000320: c664 e33d b0a8 033e 27ab af3d 0881 633e
00000330: 2675 25be b7e4 c6bd a7ae d83d c8e1 263d
00000340: 6c29 98bd 1349 863e c428 fc3d 1461 2d3e
00000350: 551f 73be c5e6 82bd 13fc a4bd 06c5 06bd
00000360: 305d 8e3b e2fd b8bd 8cbd bfbc 1ca7 54bd
00000370: c0cf 72bd a029 4a3d dd41 b3bd 0e8d 223e
00000380: f248 3cbe bd6b 61bd 8719 05be 9890 d83d
00000390: 5f46 8bbc 090e 303d d925 3c3e 651f 243d
000003a0: 3f57 fb3b af71 ddbd 49e0 40be 9115 afbd
000003b0: d453 383e e657 4c3d 635b 6dbe 95ad 44be
000003c0: 7bf0 083e 17db 8b3d f5b3 e03d e4ce 2ebd
000003d0: 5f79 2ebd aef0 e9bd 0c2f dbbd ba25 643d
000003e0: 9905 fcbd bdac 0dbe fd80 6cbd 00a7 20be
000003f0: e172 753d 8d61 12be d568 8ebc cf83 f1bd

l2pLayer.a f4 [176, 1]
-0.16031025 0.14514042 0.085404046 0.049014993 -0.1230863 -0.17385899 -0.04389582 -0.1884714
0.01948198 -0.0070758183 0.13285287 -0.055207565 0.12816253 -0.15334688 -0.18385935 -0.058953065
-0.16251421 -0.11448437 -0.004373419 0.028461186 0.09898507 -0.10835957 0.10726538 0.17945753
0.18209693 0.14657475 0.09173911 -0.05252876 -0.025055757 -0.0664355 0.174219 0.010828204
-0.18686259 0.06932864 0.029800443 0.13249981 -0.107390895 -0.01888558 -0.09303764 -0.08173937
-0.052976944 0.03969693 -0.14992705 -0.12275655 -0.1537035 -0.16339608 0.0055067837 -0.1701615
0.12648666 0.061411783 -0.05348704 0.19478773 -0.09926945 -0.19593754 -0.09056035 -0.036275074
-0.02697818 -0.14737599 -0.043333203 0.14462563 -0.02659329 0.088005 -0.12739457 0.052810367
-0.024594534 0.1825764 0.13531666 -0.1260162 0.060584903 -0.1274652 -0.045472264 -0.012144798
0.057828784 -0.08272377 0.035459947 0.060196996 -0.011416452 0.015878983 -0.010196116 0.12995699
-0.07440024 -0.07175335 -0.036188938 -0.09199486 -0.033064585 -0.16214605 0.0722048 0.107114606
-0.08983366 -0.10494902 0.18313432 -0.12948681 -0.03583866 0.1019639 -0.154452 0.011588222
-0.04240559 0.12248071 -0.13353987 0.14490129 0.061332326 -0.052853666 -0.038695306 0.013984324
-0.14420098 -0.16278812 0.09507361 0.1056112 -0.13359642 0.14499451 0.02661793 -0.1557618
0.11136482 -0.17692788 -0.15971574 0.055999782 0.14567125 0.056247864 -0.065393224 -0.22197022
-0.017014597 0.111940585 -0.055775613 0.083633244 0.046571434 0.053428214 -0.19130506 0.028080745
-0.15636578 -0.15067324 -0.0050610625 -0.18129428 0.02054208 0.1011438 -0.07388108 -0.070434585
0.156273 -0.16513306 -0.030905133 -0.20216957 0.14779392 0.017411793 -0.13922717 -0.05414345
-0.0043916176 0.09547017 -0.012362956 -0.11233321 0.074241154 0.07853183 0.026778638 -0.1830394
-0.1895232 -0.020379849 0.13712105 0.14298879 -0.054510165 -0.035482846 0.17429103 -0.13084503
0.054699954 -0.094455086 -0.1402702 -0.0038038334 0.18633036 0.21628119 -0.110092744 -0.020506643
-0.061484613 -0.019985786 0.13851495 0.104809895 -0.1392703 -0.010675648 0.17001759 -0.12732218
00000000: 5f28 24be b19f 143e 51e8 ae3d f2c3 483d
00000010: ac14 fcbd 1708 32be 1acc 33bd a6fe 40be
00000020: ac98 9f3c 44dc e7bb 950a 083e 5421 62bd
00000030: 0a3d 033e f706 1dbe a045 3cbe c578 71bd
00000040: 206a 26be c876 eabd e64e 8fbb 6f27 e93c
00000050: afb8 ca3d 9feb ddbd f4ad db3d b7c3 373e
00000060: 9e77 3a3e b117 163e b7e1 bb3d 6628 57bd
00000070: bb41 cdbc 560f 88bd 7766 323e c868 313c
00000080: e858 3fbe 2dfc 8d3d 0f20 f43c 08ae 073e
00000090: c2ef dbbd efb5 9abc 858a bebd f966 a7bd
000000a0: 5afe 58bd 4099 223d 7a86 19be c967 fbbd
000000b0: 7364 1dbe 4d51 27be 4072 b43b d13e 2ebe
000000c0: b885 013e ec8a 7b3d 3a15 5bbd 6f76 473e
000000d0: c84d cbbd daa3 48be b477 b9bd 2c95 14bd
000000e0: 5801 ddbc bbe9 16be 287e 31bd be18 143e
000000f0: 2cda d9bc f73b b43d b973 02be af4f 583d
00000100: 7a7a c9bc 4ff5 3a3e 7390 0a3e 640a 01be
00000110: e027 783d 3d86 02be 2041 3abd fafa 46bc
00000120: e0dd 6c3d 146b a9bd 733e 113d 2091 763d
00000130: 120c 3bbc a414 823c 9c0d 27bc 7213 053e
00000140: 275f 98bd 6cf3 92bd da3a 14bd cd67 bcbd
00000150: bb6e 07bd 9d09 26be 1ce0 933d e75e db3d
00000160: b6fa b7bd 83ef d6bd 9087 3b3e 3198 04be
00000170: 8fcb 12bd 73d2 d03d aa28 1ebe 87dc 3d3c
00000180: 7cb1 2dbd 2bd7 fa3d adbe 08be 0161 143e
00000190: 9b37 7b3d 167d 58bd f87e 1ebd 821e 653c
000001a0: 6ca9 13be eeb1 26be f4b5 c23d af4a d83d
000001b0: 80cd 08be 7179 143e d80d da3c 0580 1fbe
000001c0: 3d13 e43d 952c 35be 868c 23be 0760 653d
000001d0: d82a 153e 2964 663d e2ec 85bd 294c 63be
000001e0: 3262 8bbc 1b41 e53d f874 64bd e847 ab3d
000001f0: b0c1 3e3d 8bd7 5a3d 79e5 43be 9709 e63c
00000200: 5a1e 20be 164a 1abe 45d7 a5bb 35a5 39be
00000210: dd47 a83c 7b24 cf3d f74e 97bd 0240 90bd
00000220: 0806 203e a418 29be c32c fdbc 8a05 4fbe
00000230: 4a57 173e 2da3 8e3c 9191 0ebe 86c5 5dbd
00000240: 8fe7 8fbb dd85 c33d ff8d 4abc f40e e6bd
00000250: bf0b 983d 4cd5 a03d e05e db3c ae6e 3bbe
00000260: 5f12 42be a4f3 a6bc 7669 0c3e a76b 123e
00000270: 0d46 5fbd 7656 11bd 5979 323e 3dfc 05be
00000280: 0f0d 603d ab71 c1bd fea2 0fbe bc49 79bb
00000290: 63cd 3e3e d178 5d3e 4e78 e1bd 8cfd a7bc
000002a0: 4ad7 7bbd 3bb9 a3bc ddd6 0d3e 92a6 d63d
000002b0: e09c 0ebe eae8 2ebc 1719 2e3e bf60 02be

phaseLayer.W f4 [24, 26]
0.18993889 -0.25570136 0.21648204 0.0036359131 0.036345188 -0.1744773 0.056434162 -0.055733792
-0.18531469 0.1823792 -0.30984104 0.25612012 0.30719864 0.05635192 0.16898918 0.14770286
0.3250547 -0.20262882 0.23993936 -0.1277465 0.05951985 -0.25592336 0.010050144 0.030290777
-0.077623546 -0.23936076 0.19085672 -0.2435318 -0.07703444 0.3037817 -0.24411592 -0.32524458
-0.17585638 -0.23337731 -0.18951063 -0.1135602 -0.24410433 0.10273917 0.171793 -0.027007908
0.32377666 0.17297412 0.163421 -0.02703535 -0.0019989843 -0.051153388 0.15808156 0.2890621
-0.19230337 0.093371995 0.28716627 -0.3056437 0.06554272 -0.11250597 -0.12891862 -0.039498925
-0.16218561 0.036619112 -0.23293371 0.12206643 0.019280056 -0.31076595 0.1930377 0.19538026
0.08170983 0.3075062 -0.33786353 -0.23247458 -0.12690921 0.13228145 0.2538682 0.123777576
0.3399867 0.3569368 -0.31528926 -0.3045792 0.08705821 -0.28404075 -0.04280796 0.12957183
-0.30043787 0.2737829 -0.17145859 0.14726149 0.029007098 0.08739944 -0.32660335 0.040984917
-0.32750884 -0.039397884 -0.072263956 -0.34647807 -0.14529663 0.1852826 0.18619914 0.00745302
0.08008125 -0.34206504 -0.042574607 -0.14383246 0.24844114 -0.16297808 -0.15581328 0.057664927
-0.27966192 0.25580513 0.36534172 0.15483767 0.14636776 -0.19425265 -0.00042561657 0.12508844
0.50423425 0.40904814 -0.2576499 0.2625583 0.051139534 -0.23783708 -0.14423944 0.16897888
0.15442304 0.32325888 -0.042515248 -0.03979001 0.3119119 0.14921184 0.097133234 -0.21391724
-0.039732143 0.33011258 0.30753672 -0.15473458 0.2843265 0.23709732 0.23024487 0.24726598
-0.06474217 0.16905464 0.237444 -0.14623024 0.214654 0.23727733 0.18285637 0.046214957
-0.03032033 0.11726462 0.1575572 0.20632179 0.35898852 -0.04554173 0.09824845 0.08975326
-0.15903659 0.037262686 -0.09824946 -0.34388077 -0.19414519 -0.1731938 -0.09569698 -0.022769481
0.33519945 -0.15444267 0.2549088 -0.27004358 0.10708906 -0.18856175 0.31472027 -0.06798688
0.040617555 0.1350135 0.029295878 -0.18876116 0.00022231082 -0.20330189 0.22146912 0.29782903
0.2618092 -0.20183465 -0.20458722 0.21238843 0.15292034 0.19165607 0.36311972 0.14626682
-0.023423368 0.32638133 -0.25977793 -0.20209157 0.27172807 0.32905835 -0.037124556 -0.14013031
0.21709056 0.056786764 -0.27753118 0.041875735 0.0296116 -0.024595512 0.3305524 0.2078768
-0.25678167 0.2746934 -0.15953028 -0.017658744 0.004221084 -0.3535301 -0.28161377 0.19797978
0.25244844 0.19334626 0.21775666 0.19032788 0.1753648 -0.24961776 -0.06347388 -0.32412466
0.086144835 0.1030574 0.22973251 0.084091894 -0.17305209 -0.15480183 0.15784357 0.108487144
0.037172128 0.1282753 0.3325357 -0.29832536 0.21417396 -0.18486667 0.088322975 -0.32219827
-0.026381383 -0.13469157 -0.07127101 0.31000972 0.20617437 -0.14185269 -0.07182824 -0.25769687
-0.19835645 0.1587404 0.21649346 0.119017236 0.02342176 -0.23375693 0.36410987 0.27024752
-0.14217426 0.17244875 -0.25746784 -0.2470316 0.18333174 0.18847357 0.048051756 -0.18744643
00000000: 577f 423e 4aeb 82be 78ad 5d3e 8048 6e3b
00000010: b1de 143d 2daa 32be 8227 673d 1e49 64bd
00000020: 22c3 3dbe 9dc1 3a3e 7ca3 9ebe 2d22 833e
00000030: 2449 9d3e 45d1 663d 800b 2d3e 6b3f 173e
00000040: 926d a63e ee7d 4fbe aab2 753e facf 02be
00000050: 16cb 733d 6308 83be 5ca9 243c 5d24 f83c
00000060: 18f9 9ebd fd1a 75be f26f 433e 6660 79be
00000070: 3cc4 9dbd 4689 9b3e 86f9 79be 7586 a6be
00000080: b213 34be 76fa 6ebe 130f 42be 4092 e8bd
00000090: 7cf6 79be ea68 d23d 81ea 2f3e b03f ddbc
000000a0: 0ec6 a53e 2120 313e d657 273e 3d79 ddbc
000000b0: 6401 03bb 3786 51bd 22e0 213e f3ff 933e
000000c0: 2deb 44be d139 bf3d 7507 933e 557d 9cbe
000000d0: 433b 863d 8869 e6bd 3e03 04be a0c9 21bd
000000e0: fc13 26be ecfd 153d 2d86 6ebe f7fd f93d
000000f0: 35f1 9d3c b71c 9fbe adab 453e c311 483e
00000100: 7c57 a73d 7471 9d3e 73fc acbe d10d 6ebe
00000110: 7df4 01be ca74 073e 03fb 813e 197f fd3d
00000120: bd12 ae3e 6cc0 b63e 986d a1be cef1 9bbe
00000130: 934b b23d ca6d 91be 6657 2fbd 7aae 043e
00000140: fed2 99be 462d 8c3e d792 2fbe b7cb 163e
00000150: 4ba0 ed3c 7afe b23d 8e38 a7be cddf 273d
00000160: 3daf a7be ad5f 21bd 20ff 93bd 9365 b1be
00000170: a4c8 14be b9ba 3d3e fdaa 3e3e 7738 f43b
00000180: a301 a43d 2623 afbe b662 2ebd d148 13be
00000190: 5b67 7e3e bae3 26be 848d 1fbe 0f32 6c3d
000001a0: d92f 8fbe e4f8 823e 120e bb3e c48d 1e3e
000001b0: 6ee1 153e 2bea 46be 4a25 dfb9 2f17 003e
000001c0: 7f15 013f c26e d13e b0ea 83be 0b6e 863e
000001d0: b077 513d 908b 73be 81b3 13be cd08 2d3e
000001e0: 1321 1e3e 3082 a53e 7824 2ebd d9fa 22bd
000001f0: ebb2 9f3e fdca 183e caed c63d 1f0d 5bbe
00000200: 2cbe 22bd 8404 a93e 7475 9d3e be72 1ebe
00000210: 3e93 913e a4c9 723e 50c5 6b3e 4b33 7d3e
00000220: 8b97 84bd a91c 2d3e 8524 733e 61bd 15be
00000230: 42ce 5b3e d4f8 723e b33e 3b3e e54b 3d3d
00000240: 5762 f8bc 6f28 f03d ad56 213e 0546 533e
00000250: 58cd b73e f789 3abd 7c36 c93d 8fd0 b73d
00000260: 7dda 22be c2a0 183d 0337 c9bd 2411 b0be
00000270: ffcd 46be b759 31be c7fc c3bd 1087 babc
00000280: 439f ab3e 3826 1ebe 6883 823e 2743 8abe
00000290: 8251 db3d 5516 41be 0423 a13e b53c 8bbd
000002a0: 985e 263d fb40 0a3e e9fd ef3c 9b4a 41be
000002b0: 1b1c 6939 5f2e 50be cdc8 623e 0c7d 983e
000002c0: db0b 863e bead 4ebe 507f 51be 5a7c 593e
000002d0: 2697 1c3e 7d41 443e d4ea b93e f8c6 153e
000002e0: 5de2 bfbc 741b a73e 9d01 85be 18f1 4ebe
000002f0: f11f 8b3e 567a a83e eb0f 18bd 527e 0fbe
00000300: fd4c 5e3e 3d99 683d 9118 8ebe e485 2b3d
00000310: 0794 f23c 877c c9bc 2a3e a93e a8dd 543e
00000320: e378 83be 9da4 8c3e e85b 23be 12a9 90bc
00000330: 0551 8a3b e601 b5be ae2f 90be 36bb 4a3e
00000340: ec40 813e 90fc 453e 9afb 5e3e 50e5 423e
00000350: d592 333e cc9b 7fbe 98fe 81bd abf3 a5be
00000360: b46c b03d c20f d33d 003f 6b3e 5f38 ac3d
00000370: 9134 31be 5f84 1ebe bfa1 213e 822e de3d
00000380: cd41 183d 9a5a 033e 1f42 aa3e 1abe 98be
00000390: 6b50 5b3e b04d 3dbe ade2 b43d 2cf7 a4be
000003a0: c51d d8bc 96ec 09be 89f6 91bd 98b9 9e3e
000003b0: 601f 533e d541 11be af1a 93bd d8f0 83be
000003c0: f41d 4bbe d88c 223e 76b0 5d3e 4fbf f33d
000003d0: fede bf3c fa5d 6fbe 9c6c ba3e e25d 8a3e
000003e0: 2196 11be 6896 303e d3d2 83be daf5 7cbe
000003f0: 51bb 3b3e 37ff 403e ebd1 443d f5f1 3fbe

p2iLayer.W f4 [24, 176]
-0.049360175 -0.10134562 -0.19925928 -0.107749894 -0.0817683 -0.18160994 -0.07189554 -0.12504865
0.09401111 -0.15610419 -0.053959977 0.010568082 -0.09504703 -0.019481568 0.123800434 0.012076202
-0.041434802 -0.018167688 -0.0138431145 -0.20394759 0.13401362 0.06421911 0.13616882 -0.036285255
0.19425917 0.032635823 0.07730903 0.0019248156 -0.1363137 -0.12258357 -0.21250182 -0.16158357
0.035252668 0.08826901 -0.04377729 -0.029284641 0.023143683 -0.0072230324 0.047835752 0.08634144
0.08271306 -0.026213994 0.117654234 0.0049142167 0.002421718 0.204974 -0.1625577 0.04934501
0.09837177 -0.085594594 0.17671418 -0.080254 -0.20739329 -0.16485523 -0.1634625 -0.00892734
0.17181993 0.04824466 0.010861504 0.0310606 0.12247784 -0.05926518 -0.04106533 0.018231489
-0.00817113 0.02621959 -0.17561159 -0.18567732 0.16567685 0.11603102 0.009573022 0.10945249
-0.055810146 -0.073549494 -0.11679257 -0.03830727 -0.013838167 0.077492684 0.032703493 0.115845844
-0.06269447 -0.14365597 0.006804323 -0.09057946 0.1164021 0.15424612 0.107181 0.0886875
0.12704383 0.049064 -0.11907181 0.060519584 -0.085129045 0.0687195 -0.073386826 0.18031077
-0.068475015 -0.09256695 0.053136285 0.081613205 0.0335971 -0.018080804 0.16552967 -0.06767221
-0.060090166 -0.19704907 0.048405677 -0.06323557 -0.105381176 0.001265687 -0.15400231 0.12119901
0.0077753016 -0.09147327 -0.11335274 0.14583085 -0.063988626 -0.060343273 0.017010238 -0.1580394
0.16541493 0.14034307 0.046914432 -0.10470958 0.0706446 0.029318895 -0.14496605 0.010479625
-0.06890807 -0.09348888 -0.030199302 -0.026638217 0.1647345 -0.023299504 0.07406561 -0.007480462
-0.06905989 -0.18395917 -0.118236005 0.0057040136 0.06939506 0.095856816 0.090309836 0.087740414
-0.0017514076 -0.022673262 -0.051371492 0.09748112 -0.09425449 -0.04784298 0.012568988 -0.16150163
-0.109943144 -0.09580223 0.06718736 -0.17297454 0.18228267 -0.056585096 -0.053646576 -0.06428603
0.078124344 -0.030921757 0.10766867 -0.15319504 -0.005365184 0.012484032 -0.05431048 0.011300759
0.045873526 -0.18640655 0.037602607 0.015771694 0.12145884 0.101807415 -0.006576165 0.021655373
-0.08147584 -0.083184086 -0.115978196 -0.10792951 0.04500084 0.07389335 -0.032749772 0.05397299
-0.01069962 -0.015792036 -0.20049857 0.100511596 0.14165059 0.0871694 0.058144778 0.0663116
-0.0035698835 -0.008004754 0.076988176 0.025038138 -0.11772222 0.041399356 0.012807413 0.03595967
-0.0698498 0.1362574 0.015468106 0.09431346 0.057723876 -0.029415471 0.091850445 0.021024572
-0.0006217037 -0.076316014 -0.12085056 0.05376712 -0.10491471 -0.024309093 0.121701784 0.030657595
0.08610753 0.15652369 -0.028277306 0.07990841 0.13431595 -0.073324256 -0.058691572 -0.08199333
-0.17168878 0.11207715 -0.101592585 -0.05585368 -0.12481671 -0.14825557 0.056858722 -0.19482647
-0.101834536 -0.022616794 0.12009147 -0.15431678 0.10735068 0.014141291 -0.01296843 -0.06517511
-0.08085288 -0.029469378 -0.022340272 0.012567307 -0.14305207 -0.077779934 0.20871174 0.09591528
-0.13216677 -0.19338132 0.009273201 -0.16237262 0.18937363 -0.10319676 -0.11632755 -0.039184302
00000000: e52d 4abd 4b8e cfbd a00a 4cbe faab dcbd
00000010: 2376 a7bd f5f7 39be f83d 93bd c10c 00be
00000020: e688 c03d c7d9 1fbe 2305 5dbd c025 2d3c
00000030: 04a8 c2bd cf97 9fbc 158b fd3d 43db 453c
00000040: 8ab7 29bd 67d4 94bc 3bce 62bc a3d7 50be
00000050: de3a 093e 4f85 833d d76f 0b3e d99f 14bd
00000060: e0eb 463e 24ad 053d 3254 9e3d 184a fc3a
00000070: d295 0bbe 180d fbbd 149a 59be 2a76 25be
00000080: 1a65 103d 62c6 b43d d14f 33bd 58e6 efbc
00000090: d297 bd3c 30af ecbb 6cef 433d c8d3 b03d
000000a0: 7765 a93d bbbe d6bc b4f4 f03d 7007 a13b
000000b0: b0b5 1e3b b4e4 513e 8775 26be fe1d 4a3d
000000c0: 2377 c93d 384c afbd 90f4 343e 365c a4bd
000000d0: e85e 54be cfcf 28be b762 27be fa43 12bc
000000e0: 90f1 2f3e 319c 453d 73f4 313c cd72 fe3c
000000f0: a9d5 fa3d 0cc0 72bd 1f34 28bd 345a 953c
00000100: 34e0 05bc 77ca d63c 86d3 33be 3222 3ebe
00000110: 31a7 293e aca1 ed3d 2ad8 1c3c a128 e03d
00000120: 2e99 64bd 1ea1 96bd f130 efbd 15e8 1cbd
00000130: 7bb9 62bc 7cb4 9e3d 19f4 053d 9640 ed3d
00000140: f565 80bd 8d1a 13be ccf6 de3b b981 b9bd
00000150: 3964 ee3d b2f2 1d3e b681 db3d cba1 b53d
00000160: c717 023e 55f7 483d ecdb f3bd 62e3 773d
00000170: 2358 aebd cfbc 8c3d d54b 96bd 63a3 383e
00000180: a13c 8cbd be93 bdbd 6fa5 593d d324 a73d
00000190: 1d9d 093d 321e 94bc 9c80 293e ba97 8abd
000001a0: 1b21 76bd 3bc7 49be 0845 463d a781 81bd
000001b0: 16d2 d7bd 69e5 a53a c8b2 1dbe 3037 f83d
000001c0: f5c7 fe3b 5656 bbbd 7b25 e8bd af54 153e
000001d0: 780c 83bd 822a 77bd 0e59 8b3c 15d5 21be
000001e0: 8862 293e 18b6 0f3e 5929 403d fa71 d6bd
000001f0: 1eae 903d 2e2e f03c fb71 14be bcb2 2b3c
00000200: ad1f 8dbd 1977 bfbd 8764 f7bc 6438 dabc
00000210: 29b0 283e 9ade bebc b6af 973d aa1e f5bb
00000220: 466f 8dbd cb5f 3cbe b825 f2bd bce8 ba3b
00000230: ff1e 8e3d 9450 c43d 5df4 b83d 3fb1 b33d
00000240: 7d8f e5ba 47bd b9bc ea6a 52bd 2ea4 c73d
00000250: 8008 c1bd 00f7 43bd 28ee 4d3c af60 25be
00000260: df29 e1bd f633 c4bd 8799 893d 3d20 31be
00000270: 4fa8 3a3e c6c5 67bd 83bc 5bbd 65a8 83bd
00000280: a8ff 9f3d a04f fdbc 6481 dc3d 29df 1cbe
00000290: 6dce afbb d389 4c3c aa74 5ebd d226 393c
000002a0: e1e5 3b3d 5ce1 3ebe 3105 1a3d a433 813c
000002b0: 6abf f83d 6880 d03d df7c d7bb 9c66 b13c
000002c0: cedc a6bd 6b5c aabd fa85 edbd 260a ddbd
000002d0: cd52 383d 6655 973d a024 06bd c812 5d3d
000002e0: 754d 2fbc 4d5e 81bc 7f4f 4dbe 06d9 cd3d
000002f0: da0c 113e df85 b23d 3829 6e3d 60ce 873d
00000300: b5f4 69bb 5f26 03bc faab 9d3d c81c cd3c
00000310: 5918 f1bd 5f92 293d 2fd6 513c 724a 133d
00000320: 690d 8fbd 0f87 0b3e f06d 7d3c 6a27 c13d
00000330: df6f 6c3d b7f8 f0bc 161c bc3d b93b ac3c
00000340: d4f9 22ba 924b 9cbd 8080 f7bd e93a 5c3d
00000350: 86dd d6bd dd23 c7bc c93e f93d a325 fb3c
00000360: 2559 b03d bf47 203e cfa5 e7bc 05a7 a33d
00000370: 1f8a 093e 072b 96bd 9366 70bd 1eec a7bd
00000380: 2fcf 2fbe b488 e53d c60f d0bd d4c6 64bd
00000390: e79f ffbd 4fd0 17be b1e4 683d 9780 47be
000003a0: a08e d0bd db46 b9bc 84f2 f53d 3805 1ebe
000003b0: acda db3d e0b0 673c 8a79 54bc 877a 85bd
000003c0: 3296 a5bd c469 f1bc f202 b7bc 1be7 4d3c
000003d0: 3e7c 12be 164b 9fbd 88b8 553e 3b6f c43d
000003e0: ba56 07be c105 46be a0ee 173c 0245 26be
000003f0: 29eb 413e d358 d3bd 233d eebd b87f 20bd

p2iLayer.a f4 [352, 1]
0.08187215 0.014515028 0.121939406 -0.12963256 0.061621174 -0.011098799 -0.06575079 -0.034427878
-0.113859825 -0.037353374 0.04022996 -0.08217651 -0.023351325 -0.12841433 0.08296689 0.087225944
-0.06138141 -0.036253963 0.086607 -0.11979651 -0.0317135 0.05983904 0.06441552 -0.10470506
0.11034522 0.09432034 -0.010749933 0.024940932 -0.07763001 0.018756134 -0.08556278 -0.009150028
-0.121690914 0.031100258 -0.09476244 0.027704146 -0.10051688 0.00136627 0.058841415 0.10627462
0.12952945 -0.08824057 -0.055592593 0.08257023 0.09740476 0.048957866 -0.097646646 0.03350844
0.001222806 -0.007503895 0.07261794 -0.068789676 -0.060205974 0.04773845 -0.13556597 -0.09860202
-0.12980533 -0.031142436 -0.03620778 0.06604528 -0.038134795 -0.024487976 -0.10249839 -0.0864568
0.046914317 0.12873678 0.021425577 0.09153493 0.0742902 -0.15170327 0.020900413 0.032013796
0.059077974 0.11176218 -0.035035774 -0.084312916 -0.036783487 0.07301759 -0.066255726 0.0029107805
0.07106997 -0.030407336 0.0860637 0.06775495 -0.018425457 0.1216423 -0.008679314 -0.055632927
-0.031198129 -0.10961115 -0.0009797408 0.031386394 0.10638048 -0.06818279 -0.033775598 -0.11720516
0.07452774 -0.12949842 0.037815895 -0.030984536 0.110944115 -0.08013042 0.05782763 -0.07907449
0.04790163 -0.025559524 -0.051350147 0.09938601 -0.09431766 -0.045173764 -0.029291503 0.028548535
-0.112359636 0.06873646 -0.060549896 -0.0073203584 0.027232973 -0.10676976 0.05592822 0.030806603
0.056755498 0.11387901 0.051475972 0.11968055 -0.058789283 -0.09844136 -0.066691 0.14689009
-0.118236944 0.10334608 0.038232673 -0.08940172 -0.11074928 -0.065598845 0.094437584 -0.1421695
0.117079355 -0.051842842 0.029049704 0.008247326 -0.11452037 0.08899831 0.019564845 0.034522504
-0.09800845 0.032477926 0.12520316 0.07604492 0.0009832351 -0.071945295 -0.08872285 -0.06597585
-0.08436495 0.0627884 0.07847999 -0.092877604 0.050922427 -0.066362254 0.018798959 0.04891906
0.0076126833 -0.12886937 0.007933762 0.09396329 0.11236788 0.003088925 0.12603442 0.08170584
-0.14499941 -0.060835823 -0.12701237 0.13107969 -0.0026428236 -0.023998335 -0.035995193 0.0115383165
-0.028504374 -0.14315124 0.059746668 -0.17082018 -0.076494515 0.12296389 -0.008242198 -0.030539937
0.034741517 -0.121230945 -0.10619296 0.029873809 -0.08087779 0.0057230634 -0.11080812 -0.10489777
0.15033993 -0.11680237 -0.029589443 0.015632771 -0.036924902 0.08669376 0.1536941 0.062010024
-0.12744765 -0.10897348 0.077270165 -0.10948139 -0.058544844 2.026606e-05 -0.073475376 -0.0010930145
0.094371095 0.09245447 -0.110331744 0.080033064 0.14403063 -0.004005001 0.08024755 0.009517485
0.060290903 -0.024961192 0.0039619487 -0.018035226 0.1340516 0.047938798 -0.08026055 0.059151087
-0.09102906 0.09517266 -0.065770864 -0.052939277 0.07767362 -0.06510507 0.0061247107 -0.016690899
0.0066185193 0.0718252 -0.093257 -0.019716294 0.022779368 0.082233086 0.12811959 0.010336924
0.08477422 -0.11633821 -0.024713956 0.026337374 -0.08154146 -0.053441912 -0.034766622 0.018202601
0.077685475 -0.066820666 -0.048704192 -0.0067651193 -0.08137042 0.08236507 0.06040598 0.19475581
00000000: 96ac a73d 71d0 6d3c 5ebb f93d 66be 04be
00000010: 7c66 7c3d bdd7 35bc 5aa8 86bd 3f04 0dbd
00000020: 572f e9bd daff 18bd 2cc8 243d 284c a8bd
00000030: 474b bfbc 0c7f 03be 8bea a93d 84a3 b23d
00000040: 136b 7bbd 097f 14bd 035f b13d df57 f5bd
00000050: 04e6 01bd c819 753d 49ec 833d 9b6f d6bd
00000060: adfc e13d 062b c13d 7d20 30bc ed50 cc3c
00000070: 7cfc 9ebd 77a6 993c 8a3b afbd 00ea 15bc
00000080: 1639 f9bd f8c5 fe3c cf12 c2bd cef3 e23c
00000090: cbdb cdbd 6a14 b33a b203 713d 82a6 d93d
000000a0: 5ea3 043e 79b7 b4bd 0fb5 63bd 951a a93d
000000b0: 267c c73d 0b88 483d f7fa c7bd 2540 093d
000000c0: 9046 a03a 3ce3 f5bb b7b8 943d 9ae1 8cbd
000000d0: 8a9a 76bd 6589 433d ced1 0abe dbef c9bd
000000e0: b0eb 04be 6c1e ffbc 9c4e 14bd bf42 873d
000000f0: 3b33 1cbd 029b c8bc adea d1bd 4310 b1bd
00000100: 3a29 403d 93d3 033e b184 af3c aa76 bb3d
00000110: 7625 983d 1a58 1bbe 5837 ab3c e620 033d
00000120: bffb 713d 92e3 e43d ac81 0fbd 40ac acbd
00000130: 48aa 16bd 3f8a 953d 15b1 87bd cbc2 3e3b
00000140: 228d 913d ce18 f9bc 2a42 b03d 1bc3 8a3d
00000150: fcf0 96bc 991f f93d ae33 0ebc 5adf 63bd
00000160: 3893 ffbc d07b e0bd a56a 80ba 058f 003d
00000170: 02de d93d 6ba3 8bbd 4858 0abd 4209 f0bd
00000180: 00a2 983d 3c9b 04be d7e4 1a3d 48d3 fdbc
00000190: ab36 e33d 6b1b a4bd aadc 6c3d cef1 a1bd
000001a0: 8034 443d 3562 d1bc 8854 52bd e48a cb3d
000001b0: 9e29 c1bd 2008 39bd bcf4 efbc 9ede e93c
000001c0: cf1c e6bd b3c5 8c3d 2b03 78bd 9edf efbb
000001d0: af17 df3c 1baa dabd fd14 653d 215e fc3c
000001e0: 7478 683d 6639 e93d 78d8 523d 141b f53d
000001f0: 08cd 70bd a09b c9bd 4a95 88bd 5b6a 163e
00000200: 3626 f2bd 1ca7 d33d dd99 1c3d 4018 b7bd
00000210: 85d0 e2bd b058 86bd 7e68 c13d e294 11be
00000220: 4dc7 ef3d 2959 54bd a5f9 ed3c cb1f 073c
00000230: a889 eabd bf44 b63d 7446 a03c 7867 0d3d
00000240: a7b8 c8bd 9307 053d 4235 003e 70bd 9b3d
00000250: e5df 803a 0e58 93bd 53b4 b5bd 591e 87bd
00000260: 88c7 acbd 3497 803d 1eba a03d 9d36 bebd
00000270: 0994 503d efe8 87bd 4600 9a3c 5a5f 483d
00000280: d173 f93b 55f6 03be 9cfc 013c d36f c03d
00000290: 2221 e63d 906f 4a3b 2b0f 013e 6455 a73d
000002a0: ba7a 14be fc2e 79bd 880f 02be c139 063e
000002b0: 3933 2dbb 2898 c4bc b26f 13bd 350b 3d3c
000002c0: 0182 e9bc 3d96 12be ecb8 743d 7ceb 2ebe
000002d0: 28a9 9cbd 7ed4 fb3d 490a 07bc e42e fabc
000002e0: 1f4d 0e3d ee47 f8bd b27b d9bd ebb9 f43c
000002f0: 41a3 a5bd 8988 bb3b 5eef e2bd a4d4 d6bd
00000300: b6f2 193e 1536 efbd 8f65 f2bc 4c10 803c
00000310: 913e 17bd 7f8c b13d fc61 1d3e 39fe 7d3d
00000320: a381 02be 7d2d dfbd d23f 9e3d c737 e0bd
00000330: b8cc 6fbd 0801 aa37 427a 96bd 7b43 8fba
00000340: a245 c13d c558 bd3d 9cf5 e1bd 60e8 a33d
00000350: c47c 133e 623c 83bb d458 a43d 3aef 1b3c
00000360: 98f3 763d 6a7b ccbc 3cd3 813b 9cbe 93bc
00000370: d344 093e 795b 443d a55f a4bd 6948 723d
00000380: 726d babd e2e9 c23d e0b2 86bd dbd6 58bd
00000390: 5913 9f3d cf55 85bd ccb1 c83b 5abb 88bc
000003a0: 2ae0 d83b 1719 933d 87fd bebd 1184 a1bc
000003b0: cc9b ba3c d269 a83d c831 033e 345c 293c
000003c0: 1b9e ad3d ba42 eebd ec74 cabc 7ac1 d73c
000003d0: 35ff a6bd e8e5 5abd 7267 0ebd 9f1d 953c
000003e0: 9019 9f3d 46d9 88bd 0c7e 47bd efad ddbb
000003f0: 89a5 a6bd 05af a83d 436c 773d 116e 473e

intersectionLayer.W f4 [48, 46]
0.053868443 0.1706678 -0.0634215 0.1071746 -0.09313588 0.23402737 0.14348905 0.17046647
0.12433207 -0.15221336 -0.17343032 0.031894233 0.009990145 -0.07330321 -0.041850403 -0.14231755
0.17438582 0.24238782 -0.00097287697 0.061863612 -0.20664427 -0.01850044 0.0670962 -0.16626436
-0.14514327 -0.022496691 0.08372017 0.14864747 -0.08451111 -0.17663121 -0.17460372 0.09780937
0.009458215 0.0671582 -0.0057027186 0.019174881 0.2288143 -0.09685148 -0.23175114 -0.057251357
-0.04530035 -0.21163017 0.21204026 -0.2598586 -0.09426476 0.20124634 -0.07949953 0.22682795
-0.21944454 -0.20500965 0.08095062 0.017713279 0.12904873 0.0824883 -0.04970634 0.22928327
0.21495888 0.061314523 0.10369572 -0.18851829 -0.0005540252 -0.13757299 0.06671396 0.01754412
-0.06724334 0.025423467 -0.16209504 -0.020716906 -0.2262039 -0.0028441697 -0.04326296 -0.20148103
-0.15720937 -0.2220947 0.21791708 -0.07774119 0.232398 0.18731606 -0.028501466 -0.046236306
-0.07568346 0.16921282 0.2315925 -0.028038949 0.003071189 -0.12600176 0.22951266 0.03487742
0.2470713 0.051293254 -0.15238592 -0.2397184 0.17974873 0.07452518 -0.08160553 -0.03202203
-0.008718419 0.0013334817 -0.19521672 -0.10470908 -0.19635351 0.109700374 0.03037946 0.21597733
-0.2202405 -0.19740386 0.21615142 -0.05632495 0.24120422 0.2011893 0.0027408798 -0.16317874
0.0641556 -0.053432014 -0.16446048 0.17177203 0.21924558 0.04757252 -0.098769404 0.038016636
0.08123653 0.26702976 0.11076412 0.13259718 0.013196969 -0.084082454 -0.11023418 -0.22306068
-0.0053458195 -0.22142619 0.17056811 0.21396607 0.22220884 0.13271192 0.22591278 -0.10294484
-0.004891912 0.21891277 0.014803974 -0.24416293 -0.08747863 -0.13692378 0.18090007 -0.006429413
-0.2706975 -0.08289466 0.035028804 -0.1765451 0.046117853 -0.07460961 -0.23155507 -0.07838453
-0.13799417 -0.07387024 -0.11560404 -0.1926609 0.0732387 -0.08829724 0.06968831 -0.1383949
0.23850636 -0.22369969 -0.23792872 0.0811872 0.044586267 -0.07517505 0.18353976 -0.21712472
-0.21516871 -0.008274664 0.08412738 -0.09383415 0.19758369 -0.2834587 0.13389611 -0.14843749
-0.20570613 -0.24725145 0.19580382 0.24940014 0.20915332 -0.15565427 0.11204153 -0.056817595
0.13249792 -0.171963 0.018463502 -0.07648646 -0.17276509 -0.026928045 -0.10113779 0.13138562
0.04502519 0.07520115 -0.09187131 -0.024441937 0.0189168 -0.08031442 0.104623385 -0.19932279
-0.04601225 0.12198801 -0.008193304 -0.14331493 -0.12509973 -0.13237719 -0.25302586 -0.11859188
-0.14937463 -0.13707733 -0.08652992 -0.13012972 0.12120658 0.21992075 0.078635626 -0.12926945
0.105058 -0.23593286 0.22775416 -0.26166475 0.27069652 -0.17134832 -0.16472362 -0.2724241
0.021117156 0.17242797 0.19199243 0.11657618 -0.034624025 -0.14759798 0.14522187 -0.14358559
0.18508634 0.08903071 0.10340171 0.032507204 0.2768492 0.063998856 0.14547876 -0.008950647
0.21795186 0.11384061 -0.17566472 0.19515352 -0.14364414 0.08689915 0.110263236 0.08917025
0.059651762 -0.2652832 0.099072084 0.0032423348 -0.10778627 0.15489882 -0.0288843 -0.019085063
00000000: 28a5 5c3d 8ac3 2e3e 22e3 81bd 5b7e db3d
00000010: 06be bebd dfa4 6f3e cbee 123e c38e 2e3e
00000020: d0a1 fe3d d2dd 1bbe b897 31be 87a3 023d
00000030: b5ad 233c fe1f 96bd 546b 2bbd b1bb 11be
00000040: 3292 323e 8334 783e ab08 7fba b364 7d3d
00000050: 8e9a 53be 3c8e 97bc bc69 893d 3441 2abe
00000060: 70a0 14be fb4a b8bc 7b75 ab3d 0b37 183e
00000070: 2914 adbd d0de 34be 51cb 32be 4750 c83d
00000080: a1f6 1a3c 3d8a 893d dfdd babb a414 9d3c
00000090: 4c4e 6a3e 125a c6bd 2c50 6dbe 6680 6abd
000000a0: dc8c 39bd 94b5 58be 1521 593e 300c 85be
000000b0: e20d c1bd 8513 4e3e a6d0 a2bd 9645 683e
000000c0: 12b6 60be 0dee 51be 70c9 a53d 701b 913c
000000d0: 5a25 043e a0ef a83d e098 4bbd 3cc9 6a3e
000000e0: 2e1e 5c3e f024 7b3d 6c5e d43d f00a 41be
000000f0: 003c 11ba efdf 0cbe 54a1 883d b0b8 8f3c
00000100: e0b6 89bd e044 d03c 3efc 25be 80b6 a9bc
00000110: ffa1 67be 4065 3abb 8034 31bd 0b51 4ebe
00000120: 7efb 20be cb6c 63be a825 5f3e c636 9fbd
00000130: bef9 6d3e c8cf 3f3e e87b e9bc 4862 3dbd
00000140: eeff 9abd 2046 2d3e 9626 6d3e f0b1 e5bc
00000150: 0046 493b 9b06 01be 5e05 6b3e a0db 0e3d
00000160: 4200 7d3e e018 523d 0e0b 1cbe be78 75be
00000170: 0d10 383e a8a0 983d cd20 a7bd 8829 03bd
00000180: b3d7 0ebc 39c8 ae3a e4e6 47be b771 d6bd
00000190: e510 49be 97aa e03d 58de f83c 2929 5d3e
000001a0: ba86 61be 3d24 4abe cc56 5d3e feb4 66bd
000001b0: 3dfe 763e 9104 4e3e 55a0 333b 5418 27be
000001c0: 0364 833d 87db 5abd 5468 28be 02e5 2f3e
000001d0: ea81 603e 67db 423d 9d47 cabd 55b7 1b3d
000001e0: 565f a63d 20b8 883e 4dd8 e23d 8ec7 073e
000001f0: 1a38 583c 6c33 acbd 75c2 e1bd 056a 64be
00000200: fc2b afbb 8cbd 62be 68a9 2e3e ec19 5b3e
00000210: b78a 633e a2e5 073e ae55 673e bfd4 d2bd
00000220: 554c a0bb ab2a 603e 5e8c 723c d905 7abe
00000230: ff27 b3bd bf35 0cbe de3d 393e d3ad d2bb
00000240: dd98 8abe adc4 a9bd 5d7a 0f3d 3dc8 34be
00000250: 13e6 3c3d eccc 98bd c61c 6dbe 1288 a0bd
00000260: 584e 0dbe 4849 97bd d0c1 ecbd e648 45be
00000270: 2cfe 953d 2fd5 b4bd bfb8 8e3d 65b7 0dbe
00000280: 033b 743e 8811 65be 96a3 73be 7a45 a63d
00000290: 17a0 363d 60f5 99bd d9f1 3b3e f155 5ebe
000002a0: 3055 5cbe 7592 07bc fa4a ac3d 1e2c c0bd
000002b0: 6153 4a3e 8021 91be 101c 093e ffff 17be
000002c0: a1a4 52be 7c2f 7dbe cc80 483e c062 7f3e
000002d0: 4a2c 563e d563 1fbe 0876 e53d 91b9 68bd
000002e0: 89ad 073e 1217 30be c540 973c efa4 9cbd
000002f0: 55e9 30be 3498 dcbc 5421 cfbd f489 063e
00000300: 556c 383d 0f03 9a3d 0627 bcbd 753a c8bc
00000310: 68f7 9a3c e37b a4bd c944 d63d 461b 4cbe
00000320: 5777 3cbd dad4 f93d 353d 06bc 26c1 12be
00000330: 251a 00be e38d 07be 9b8c 81be 4de0 f2bd
00000340: aaf5 18be 005e 0cbe 9936 b1bd ba40 05be
00000350: 283b f83d e832 613e b70b a13d 365f 04be
00000360: a628 d73d 6298 71be 6338 693e ecf8 85be
00000370: bc98 8a3e ef75 2fbe 4fad 28be 2c7b 8bbe
00000380: e3fd ac3c f590 303e aa99 443e 7ebf ee3d
00000390: ecd1 0dbd ed23 17be 0bb5 143e 1a08 13be
000003a0: 4687 3d3e bc55 b63d 47c4 d33d 4626 053d
000003b0: 2ebf 8d3e d511 833d 62f8 143e bca5 12bc
000003c0: c62e 5f3e 4425 e93d 74e1 33be 53d6 473e
000003d0: 7317 13be 2ef8 b13d b1d1 e13d e49e b63d
000003e0: 6855 743d 33d3 87be 4ee6 ca3d 5a7d 543b
000003f0: 0cbf dcbd cc9d 1e3e c49e ecbc 4758 9cbc

neighborLayer.W f4 [6, 32]
0.22907187 0.12839343 0.18729432 -0.102203846 -0.21904606 -0.11370765 0.36864647 0.18479906
-0.10951178 -0.04360765 -0.008558187 -0.17830746 -0.26183915 -0.067033455 -0.3750006 0.20171134
0.1818386 0.32985824 -0.24315163 0.14416571 0.1922675 -0.26750514 0.30188814 0.04964378
-0.11431794 0.32770124 0.23676008 -0.16315535 0.21891022 0.3246223 0.20703644 0.2785683
-0.24924615 0.30104148 -0.0013834613 0.2851974 -0.028865438 -0.26514247 -0.33719864 0.27598011
0.119860075 -0.20669799 -0.08678699 0.06473432 -0.14609519 -0.16787434 -0.4346393 -0.24517517
0.12615637 -0.45059055 0.0050068907 0.17047781 0.17271392 0.40422916 -0.38571563 -0.33670622
0.10734498 -0.33600506 0.31737927 -0.21176425 0.25410455 0.3372797 -0.085578874 -0.36583877
-0.2809748 -0.02234109 0.20503433 -0.10651969 0.15547064 0.20419395 0.09260969 -0.17659992
-0.28518835 -0.2347725 -0.34937483 -0.35958427 -0.30010805 -0.1334228 -0.06253424 0.30028632
0.13724299 -0.08861969 -0.213653 -0.054055043 -0.049348272 0.030443205 0.30095765 0.23859376
0.2670267 0.17600526 -0.32432523 0.0119692255 -0.33466026 0.24634917 -0.2157472 -0.07490615
-0.0069741555 0.26227626 -0.2172752 0.033477347 -0.40027082 0.4044006 0.06274857 0.36451048
-0.11362746 -0.34293118 0.35427043 -0.047954354 -0.25575885 0.105758555 0.16076274 0.26913694
-0.17878403 -0.025681783 0.20967077 -0.43520445 -0.14152907 -0.13076375 0.049269103 0.21747616
-0.36889297 0.02858116 0.021324893 0.061238647 0.108993806 -0.1303749 0.19356436 -0.17506433
-0.10915804 -0.11440218 0.3123592 -0.04750034 0.30999008 0.37956986 -0.051348634 -0.055202406
-0.3061611 0.32460463 0.29318425 -0.35585958 -0.2962526 0.13710009 -0.18130516 -0.36476052
0.41141713 0.11851063 0.22831255 -0.3969035 0.038163695 -0.0015513775 -0.358685 -0.31732804
-0.10608126 0.15495552 -0.17987727 0.17939737 0.43246302 0.32414246 -0.1923319 0.35912192
-0.3783149 -0.4349283 0.15416346 0.27087745 -0.026488239 0.11393003 -0.24884993 0.010305913
-0.37206605 -0.03454678 0.1581947 -0.18193987 -0.3300377 -0.19112664 -0.21770205 0.10399997
0.35129628 -0.4770105 -0.21371993 -0.07576883 0.2473922 -0.27675208 0.08364975 0.15443553
-0.1883095 -0.13292849 0.32605115 0.2939168 0.36207715 0.2207385 -0.39687997 0.013221691
00000000: d191 6a3e 9179 033e 15ca 3f3e 4050 d1bd
00000010: 9c4d 60be 8edf e8bd 3bbf bc3e f73b 3d3e
00000020: b647 e0bd ef9d 32bd a337 0cbc 3b96 36be
00000030: c80f 86be d648 89bd 1400 c0be 6b8d 4e3e
00000040: e633 3a3e 2ee3 a83e befc 78be 2da0 133e
00000050: c6e1 443e 6ff6 88be 1591 9a3e 4757 4b3d
00000060: 861f eabd 75c8 a73e 3c71 723e 3212 27be
00000070: 002a 603e e534 a63e 5c01 543e 81a0 8e3e
00000080: 623a 7fbe 1c22 9a3e 4255 b5ba 6505 923e
00000090: 3677 ecbc c1c0 87be 4da5 acbe 444d 8d3e
000000a0: 3379 f53d a3a8 53be 61bd b1bd 6d93 843d
000000b0: fa99 15be 40e7 2bbe 0b89 debe 330f 7bbe
000000c0: 232f 013e ceb3 e6be d810 a43b bc91 2e3e
000000d0: ebdb 303e 20f7 ce3e 857c c5be c264 acbe
000000e0: afd7 db3d db08 acbe 897f a23e bad8 58be
000000f0: fe19 823e edaf ac3e fa43 afbd 384f bbbe
00000100: eedb 8fbe a904 b7bc 85f4 513e ff26 dabd
00000110: b233 1f3e 3818 513e 26aa bd3d 9cd6 34be
00000120: 3504 92be 3468 70be 42e1 b2be 6e1b b8be
00000130: c3a7 99be fd9f 08be f411 80bd 21bf 993e
00000140: 6d89 0c3e 3d7e b5bd dac7 5abe d268 5dbd
00000150: 6a21 4abd 0764 f93c 1f17 9a3e ec51 743e
00000160: b9b7 883e b93a 343e f50d a6be 921a 443c
00000170: 9758 abbe f542 7c3e d6ec 5cbe 6568 99bd
00000180: 7587 e4bb 1349 863e 647d 5ebe 8b1f 093d
00000190: 4cf0 ccbe 980d cf3e 5382 803d 1ea1 ba3e
000001a0: 84b5 e8bd ad94 afbe ef62 b53e c96b 44bd
000001b0: d3f2 82be f197 d83d fd9e 243e 51cc 893e
000001c0: 2913 37be 9a62 d2bc efb3 563e 1ed3 debe
000001d0: ffec 10be efe6 05be 66ce 493d 12b2 5e3e
000001e0: 8adf bcbe 0923 ea3c 8bb1 ae3c 60d5 7a3d
000001f0: 2538 df3d ff80 05be bc35 463e 1044 33be
00000200: 408e dfbd b14b eabd 8ced 9f3e b78f 42bd
00000210: 05b7 9e3e fb56 c23e f252 52bd eb1b 62bd
00000220: 26c1 9cbe 9432 a63e 3f1c 963e 3a33 b6be
00000230: 6cae 97be f763 0c3e 0fa8 39be e4c1 babe
00000240: 44a5 d23e b4b5 f23d c4ca 693e f036 cbbe
00000250: 8951 1c3d 9757 cbba 8fa5 b7be d278 a2be
00000260: 2241 d9bd a9ac 1e3e bf31 38be f2b3 373e
00000270: cb6b dd3e 00f6 a53e a7f2 44be d4de b73e
00000280: 7eb2 c1be ecae debe 07dd 1d3e 73b0 8a3e
00000290: ddfd d8bc 2654 e93d 84d2 7ebe 22da 283c
000002a0: 717f bebe ed80 0dbd cbfd 213e 724e 3abe
000002b0: b4fa a8be b4b6 43be 49ed 5ebe f0fd d43d
000002c0: 1bdd b33e b83a f4be 66d9 5abe b02c 9bbd
000002d0: 6254 7d3e 73b2 8dbe 8f50 ab3d 5924 1e3e
000002e0: 35d4 40be 681e 08be 2df0 a63e 437c 963e
000002f0: 2d62 b93e 4609 623e da33 cbbe cb9f 583c

neighborLayer.a f4 [64, 1]
-0.2120447 0.06956564 -0.12784825 0.26418525 0.072726406 0.17124394 -0.13415651 -0.097515404
-0.027544938 -0.23727846 0.1314787 0.1901974 0.1831156 -0.25381798 0.15152998 0.22577085
-0.26236397 -0.24020253 0.2150705 -0.06084583 0.05988004 0.10909704 0.11785767 -0.07812135
-0.041750412 0.017661393 -0.12278767 -0.074069925 0.2302566 0.3090121 -0.034777362 -0.22953013
-0.19605437 -0.0017993788 0.024906697 0.13544619 0.06738254 -0.32675415 -0.18205361 -0.30035925
0.048944186 -0.19122827 -0.19322382 -0.1429043 -0.21464536 -0.28839836 0.12549308 -0.19311526
-0.018572386 -0.0065972893 -0.32385468 0.17470062 -0.23509243 0.0019880594 0.25397578 -0.16657087
-0.056527548 0.20856698 0.1485155 -0.30306792 0.12789202 0.011887615 0.10277935 -0.24108143
00000000: 3f22 59be 6e78 8e3d a7ea 02be 4a43 873e
00000010: 95f1 943d 925a 2f3e 5360 09be 28b6 c7bd
00000020: eca5 e1bc 20f9 72be 5aa2 063e 1bc3 423e
00000030: a882 3b3e 6ef4 81be ad2a 1b3e 7930 673e
00000040: 9254 86be a7f7 75be 713b 5c3e 7a39 79bd
00000050: c644 753d 456e df3d 5d5f f13d 16fe 9fbd
00000060: 7b02 2bbd a0ae 903c 1a78 fbbd f9b1 97bd
00000070: 63c8 6b3e d536 9e3e b572 0ebd f209 6bbe
00000080: 7ac2 48be 22d9 ebba 2109 cc3c 68b2 0a3e
00000090: dbff 893d 524c a7be 436c 3abe b0c8 99be
000000a0: b379 483d 58d1 43be 77dc 45be 8155 12be
000000b0: fecb 5bbe f3a8 93be 4281 003e 02c0 45be
000000c0: 1e25 98bc 132e d8bb 48d0 a5be b8e4 323e
000000d0: 12bc 70be 1a4a 023b 1d09 823e 8e91 2abe
000000e0: 6e89 67bd 9592 553e 7214 183e b82b 9bbe
000000f0: 20f6 023e 45c4 423c fb7d d23d 0dde 76be
