test/model/actor_3_2_2_2_0_best_rou2.pth (torch, 689309 bytes, 17 tensors)

v2lLayer.W f4 [3, 40]
00000000: d035 57bd 181f 573e 2841 723d a20b ad3e
00000010: 4c8a 193e 2489 99be a67f b43e 2490 833d
00000020: 7175 02be 5b90 0dbe f8c9 5d3e 99df 30be
00000030: 540d 7f3e 281d c13d cc2b a13e 1800 023e
00000040: 80fb 5ebc 987b 9f3e d027 65bd a441 e23d
00000050: d21d 9b3e d860 3dbd 0036 87be 9a2c b2be
00000060: 2067 b03c c8ef 153e 5beb 8ebe 9486 423e
00000070: c694 1abe 6dad 30be e21b a53e 80fb 893d
00000080: 0877 b53d 42b6 a7be c0cd ac3e 3c10 e1bd
00000090: 4c89 c73d f896 babe b054 82be aae5 b5be
000000a0: 5031 92bc 68f1 76bd 5c6a e8bd 047c b03e
000000b0: a85e b1bd 1cd2 96be 0be9 80be a0c3 983e
000000c0: 28f4 92be 1c7a 163e 5cfe 52be c038 6e3e
000000d0: 9724 09be 6729 a6be 08d3 bb3d cc6e d5bd
000000e0: 0cb9 763e 8cc3 653e 9074 f83d 4394 b9be
000000f0: e406 4c3e 609f 253e 885b 193d 88d1 473d
00000100: 64c7 89be 83d6 b2be d0bc 833c 4ad5 b73e
00000110: c08c 7b3c 20f1 75be ec0f 64be 2e97 16be
00000120: 750d 22be a4af bcbe fcd9 98bd 9027 e8bd
00000130: 9631 903e 80d9 333c 4098 99bb bcc9 823e
00000140: 4c96 2fbe bad8 8c3e d4b2 15be 8453 a53e
00000150: b82c 213e 6804 25be 9cdd f2bd 246c ccbd
00000160: 9cec ad3e 1854 0d3e a475 8fbd ef09 a9be
00000170: 5904 0fbe 0011 a7bd 4df2 9dbe 4c24 a2be
00000180: 0408 073e 6cbc 583e b543 31be 50fb e6bc
00000190: 9820 9c3e f46d c13d e57a 6ebe f07d 983e
000001a0: ce3d ba3e 3f01 a3be c051 ccbc d8d0 35bd
000001b0: 20ad 88be 9c00 3c3e 2037 95be 5844 7d3d
000001c0: c0ec 90be a442 e7bd c4c8 f1bd aac7 9abe
000001d0: 1f1b 69be 4353 52be 600e 2b3c c8ff 98bd
-0.052541554 0.21007955 0.05914417 0.33797938 0.14994162 -0.29987442 0.35253638 0.06423977
-0.12740113 -0.13824598 0.21659076 -0.17272796 0.24907428 0.09429389 0.31478727 0.12695348
-0.013609767 0.31148982 -0.05594617 0.11047676 0.3029619 -0.046234936 -0.26408386 -0.34799653
0.021533549 0.1464225 -0.27913937 0.1899665 -0.15095815 -0.17253657 0.32247835 0.06737423
0.08860594 -0.3275624 0.33750725 -0.109894246 0.09742984 -0.36443305 -0.25455236 -0.35526782
-0.01784578 -0.060288817 -0.113484114 0.34469616 -0.08660632 -0.29457176 -0.25177798 0.2983675
-0.287019 0.14695019 -0.20604843 0.23263836 -0.13392864 -0.32453462 0.091711104 -0.104215235
0.24094027 0.22437876 0.121316075 -0.36245927 0.19924504 0.16174078 0.037440807 0.04878381
-0.26909935 -0.34929284 0.016081244 0.35904914 0.015353382 -0.24017763 -0.22271699 -0.14706108
-0.15825446 -0.36852753 -0.07463452 -0.11335671 0.2816283 0.010977149 -0.004687339 0.25544536
-0.17147177 0.275091 -0.14618999 0.3229028 0.15739715 -0.16114962 -0.11858675 -0.09981564
0.3396958 0.1380161 -0.0700486 -0.3301539 -0.13966502 -0.08157539 -0.30848923 -0.31668317
0.13186651 0.21165627 -0.17310984 -0.028196007 0.30493617 0.094448 -0.23289068 0.29783583
0.36375278 -0.31836888 -0.024941325 -0.044388622 -0.26694584 0.18359607 -0.2914362 0.061832756
-0.28305626 -0.112920076 -0.11805871 -0.30230457 -0.22764252 -0.20539574 0.010440439 -0.074706614

v2lLayer.a f4 [80, 1]
00000000: 5b15 88be 1c93 563e a7bf 6bbe b22c bbbd
00000010: e035 54be 08f1 ae3d 2ce5 28bd 8622 09be
00000020: b0b0 703e 50cf 753e 5c8a 68bd 3eb1 53be
00000030: eec5 033e d544 76be 1e26 0f3e 02fe 8a3e
00000040: ccc3 8a3e 2833 66bd c0ab 463d 5e6c 2a3e
00000050: f439 ebbd 46e3 0a3e e0c5 0fbc ccff 883d
00000060: 74e5 24be 5835 6c3e 9a20 6cbe 205e 18bd
00000070: 5101 59be f0eb e83c a0cf 333c 9a4a 073e
00000080: d3b1 65be 1ea4 f5bd 983a 503d 2302 81be
00000090: e82a e03d 3508 03be a4ee 8c3d 0a51 1dbe
000000a0: ca8d 58be c8d2 233e 6032 793c 5aa3 72be
000000b0: 80e1 9c3d d23a 293e 869c 833e f405 d3bd
000000c0: 4886 703e f01f 923c 8c33 84bd 00de a9bd
000000d0: 90d2 d63d 682d 88be aa1b febd 401f 05be
000000e0: e68d 383e b8a4 4d3d 511b 5fbe f874 773e
000000f0: dd25 1fbe 849b b33d 607f 823c 1a0c 653e
00000100: 2049 73bc 74fd 95bd 1420 583e c6cb 12be
00000110: a856 d1bd 40e7 a63d 3a38 0b3e 66c7 fbbd
00000120: 8aad bbbd 2c1d 1dbd d0c1 bb3c d294 25be
00000130: acd5 fd3d 3051 6d3e c8f0 3a3d 88e4 283e
-0.26578793 0.20954555 -0.23022328 -0.09139384 -0.20723677 0.08542067 -0.04123418 -0.13392076
0.23504901 0.24004865 -0.056772575 -0.20673081 0.12868473 -0.24049695 0.13979384 0.27146918
0.27102506 -0.05620113 0.048503637 0.16642901 -0.11485663 0.1356326 -0.008775204 0.066894144
-0.16103154 0.23067224 -0.23059312 -0.03719914 -0.21191908 0.028432816 0.010974795 0.13212052
-0.22431116 -0.119941935 0.05083713 -0.25196943 0.10945684 -0.127961 0.068814546 -0.15362945
-0.21147838 0.15998375 0.015209764 -0.23695126 0.07660198 0.16526344 0.25705355 -0.1030387
0.23488724 0.017837495 -0.06455144 -0.08294296 0.1048938 -0.26597142 -0.1240762 -0.13000202
0.1802288 0.050205916 -0.21787764 0.24165714 -0.15541787 0.087698966 0.015929878 0.22367898
-0.014848977 -0.07323733 0.21105987 -0.14335546 -0.102216065 0.08149576 0.13595667 -0.122938916
-0.09163959 -0.0383579 0.022919565 -0.16170052 0.1239427 0.23175502 0.045639783 0.16493428

laneLayer.W f4 [12, 12]
00000000: 60f7 58be 1ed0 8e3e d6b5 8d3e 145b b6be
00000010: a23c b63e 308d 433d 107b db3d 4062 c0be
00000020: da14 a0be c2a1 913e d4ba cfbe 0413 c3be
00000030: 2a9b ca3e d81f 523e 620f 98be 781d bdbd
00000040: c60c debe 80dc a7bb 78a8 4fbe f815 a6bd
00000050: a0df 56bd 8232 9ebe 10c1 f3be a88c 543e
00000060: 2081 cebd d0d8 0cbd 1a81 e2be 4c1c efbe
00000070: 2889 443e 0065 223e f03c 8e3d c00e 28bc
00000080: d838 f73d 5ce5 34be 88be aabd 90a4 a6be
00000090: 84df 653e f862 aabd 8895 c53e ba3f b7be
000000a0: 2a34 c03e 78a3 1dbe a8b0 ee3d 285e d9bd
000000b0: e641 c9be d001 0cbd 60a0 d13c 202b f4bc
000000c0: b853 5abe 0eee 973e 88dc db3e be23 84be
000000d0: 303f bfbd b046 633e a888 72be f815 403e
000000e0: 1863 eebe acb9 593e 76c2 fbbe c078 493e
000000f0: d045 39bd 44f0 71be 882e b5be 8c41 c53e
00000100: c2f3 aebe 9422 e9be 9e30 d7be be8b 9b3e
00000110: 2caf f6be 22c8 9c3e de8b a6be ba4a a13e
00000120: 3877 cb3d 20a3 f2bd d0ee a4bd 2037 de3d
00000130: 20aa 6dbd a803 d7be 9c92 e63e aed2 963e
00000140: 20cb 9fbc 54bc 2b3e 34c2 793e 0834 7b3e
00000150: 50cc 0dbe 4e00 a03e 72c2 81be 4a9f a3be
00000160: 9023 0ebd 6a79 95be 8054 5e3d 5016 fdbd
00000170: e83a 953d 7850 cebd 3029 9e3e 6c26 55be
00000180: 881d 093e 8eaa dabe 6cf0 5b3e b6c2 d3be
00000190: 4cbf 66be c810 8dbe c824 a1bd f0a2 d73e
000001a0: 0057 633e 1612 a0be 701f 2abe f07f bfbe
000001b0: 181c aa3d fe18 903e a078 673e 20f2 babe
000001c0: a039 dabe 78a1 343e f0a5 25be e6ec e8be
000001d0: 9891 39be 808c d3bd 80cd bcbd ea2b ea3e
000001e0: 32dc e1be 60c9 963d fe7b b53e 2072 97be
000001f0: 2c52 72be 7c15 c4be 10bc 7c3e f89d e73d
00000200: e82a 6f3e 202a d93d a6be ea3e 6c15 823e
00000210: ac91 c93e 5cc2 0e3e 2c21 22be 0e3e e63e
00000220: 5e32 e5be 089e c43d 000d 263d 26ec f23e
00000230: 8ef1 a63e 247f 46be 5002 81be fefa 9abe
-0.21188116 0.27893156 0.27677792 -0.35616362 0.35593134 0.04774207 0.10716832 -0.3757496
-0.31265908 0.28443724 -0.40572226 -0.38100445 0.39571506 0.2051996 -0.29699236 -0.09234136
-0.4336912 -0.005122721 -0.2027911 -0.08109659 -0.05245936 -0.3089791 -0.47608232 0.20756781
-0.100832224 -0.034386456 -0.44239122 -0.46701276 0.19192946 0.15858841 0.06945217 -0.010257423
0.12071389 -0.17665619 -0.08337122 -0.32547426 0.22448546 -0.08319658 0.38590646 -0.35790807
0.37539798 -0.1539439 0.11654788 -0.10613662 -0.3930809 -0.034181416 0.025589168 -0.02980572
-0.21320999 0.2967381 0.4294169 -0.2580852 -0.09338224 0.22194934 -0.23684943 0.1875838
-0.46559978 0.21262234 -0.491718 0.19674969 -0.045232594 -0.2362681 -0.35387063 0.3852657
-0.34170347 -0.45534194 -0.4202928 0.30380052 -0.4818052 0.3062144 -0.32528585 0.31502324
0.099348485 -0.1184752 -0.08053362 0.10850358 -0.058023572 -0.41994977 0.4503373 0.2945761
-0.019506037 0.1677106 0.24390489 0.24531567 -0.1384747 0.31250232 -0.25343663 -0.31957465
-0.034701884 -0.29194194 0.054279804 -0.123577714 0.07286626 -0.10073942 0.308908 -0.20815438
0.13390172 -0.42708248 0.21478432 -0.4135949 -0.22533911 -0.27551866 -0.078683436 0.421165
0.22201157 -0.31263798 -0.16613555 -0.37402296 0.0830614 0.28144068 0.22604609 -0.36512852
-0.4262209 0.1763972 -0.16176581 -0.4549324 -0.18121946 -0.103295326 -0.092188835 0.4573663
-0.44113308 0.07362628 0.3544616 -0.29579258 -0.23664159 -0.3829764 0.24681115 0.11309427
0.23356211 0.10603738 0.45848578 0.2540697 0.3936895 0.1394133 -0.15832967 0.4496922
-0.4476499 0.096004546 0.04053974 0.47445792 0.32606167 -0.19384438 -0.25197077 -0.30269617

l2pLayer.W f4 [12, 88]
00000000: 2818 e33c 80b1 01be beff e33d f9de 52be
00000010: 6ed1 f13d e18b f7bd 57ff 44be 60c6 00be
00000020: 963a cc3d 08e2 8f3c 4707 733e 16e8 f43d
00000030: e56c 42be 4d50 6b3e deb2 d3bd f825 bcbd
00000040: 2943 593e 5e06 e9bd d8e1 983c b482 433d
00000050: afb6 6c3e f4d3 42bd 5973 593e 2525 243e
00000060: eecc a6bd 7259 a33d 2abd 1abe 23b8 36be
00000070: 801a 80bb e0dc d53b 3a88 a3bd 5029 61be
00000080: 619d 6b3e 9dd7 5a3e a3aa 493e 4fdc 603e
00000090: 9858 0ebd a98f 183e 1ab2 9ebd 80cc 3bbd
000000a0: 6b2c f9bd 3fad 273e d035 293c c835 0abe
000000b0: 9856 903c f528 643e c836 51be 2b5b 623e
000000c0: 051b f7bd 1e04 d53d 70e9 5a3c c030 8dbd
000000d0: 6ed6 77be f539 fcbd 2d8e 483e 8bb4 413e
000000e0: a030 f33b 3a1d c53d 6673 40be 7d9f 343e
000000f0: 849f 1cbe be48 d33d ef5b 5f3e e87e 50bd
00000100: 9c4f c9bd c2df 28be 76df f3bd a048 4fbc
00000110: ae96 e63d 3231 973d ae2a dd3d c6c4 08be
00000120: d754 403e 4166 04be ad6b 2dbe 3953 38be
00000130: 3ac4 903d eac3 f03d 2e4d 9d3d f1f2 333e
00000140: cd2c 08be 6388 01be 9bd7 4c3e b833 933c
00000150: 8e8c 9fbd d3eb 693e 92f8 fa3d 842d 92bd
00000160: da66 cabd 7000 c2bc 289c 25be d828 8d3c
00000170: 5027 463c 1a17 a7bd 32cf aa3d 24c9 153d
00000180: 0fa8 3a3e d9e8 6abe bef9 bc3d 5f8d 2f3e
00000190: d070 12bc 100c febd 6ce2 3c3d 7619 b93d
000001a0: 9778 2e3e 3451 72be d95d 6a3e 5c88 84bd
000001b0: 1cfa 443d 04ce 4bbe 5608 0abe 1124 313e
000001c0: 3f75 3fbe 705d b1bd 2b0d 4abe ee7b 80bd
000001d0: 2205 cb3d e6bb 63be 7b6b 023e 6552 42be
000001e0: 88ae c93c 27b7 653e d8ac 06bd fb65 5fbe
000001f0: 2d4f 313e 9239 fd3d 208e 88bd b494 b0bd
00000200: cb5b 0e3e bf97 1e3e f8f7 97bc c2a3 00be
00000210: 6994 56be 19c3 07be a65b 32be 091a fcbd
00000220: 3b6b 753e afd5 793e d535 5fbe 4777 0d3e
00000230: 28b3 67bd 92e3 aa3d b05e 97bc a224 ba3d
00000240: c0a9 dabc 1de6 233e fd51 09be 177e 5ebe
00000250: 28e9 eebd d9af 5bbe 7ade 46be 990c 70be
00000260: f3a2 273e 80cc adba 6906 2fbe 4e64 a73d
00000270: 80d2 5cbe 5467 5b3d 32a5 5abe 93ef 5f3e
00000280: b65e f83d 31e5 3a3e 78be 10be 84af 503d
00000290: 925c cd3d 8a8c 4cbe 931a 0f3e 85f9 663e
000002a0: 44a7 423d cedf bc3d 027c ecbd 44a2 f1bd
000002b0: b23a d33d 9585 3a3e 149f 93bd 056b 023e
000002c0: bbf3 203e 034a 573e 5b01 643e 32ab a5bd
000002d0: ba4a bcbd b8d8 adbc 7814 b9bc 04dd d4bd
000002e0: 54a3 b1bd b10b 6a3e 8263 6dbe ff3a 023e
000002f0: 914f 4e3e d411 77bd e661 983d bbfe 4fbe
00000300: 86fb ac3d 0b88 093e d80d 0abe 017a 333e
00000310: 8d70 54be f693 9f3d cd48 023e e2bf f6bd
00000320: 08e8 f9bc 0a2d 0dbe fc29 5cbd d024 1bbe
00000330: 1aeb 8c3d 876e 43be 6ccc 9fbd e00c b3bc
00000340: 92ce 843d ac00 55bd 9e07 2dbe a4f4 06be
00000350: 619a 263e 8b39 65be cab9 b23d 676b 27be
00000360: 5480 123d f2ce 2abe 90e8 7c3c c3c5 653e
00000370: 1a63 88bd adea 633e 72e2 66be d22f 53be
00000380: e2a4 42be 113a 413e b6b6 2bbe 34cb 0abe
00000390: 5628 25be 38d2 02bd 81e7 0bbe 5624 b53d
000003a0: 3ab3 64be 92e3 c03d 1e13 0dbe 74e3 1f3d
000003b0: 2292 823d 9002 63be ce7b 3dbe 2278 d33d
000003c0: e516 6d3e 0a31 b0bd 264a 82bd 70a4 c9bd
000003d0: 020a 78be b084 c7bc 3239 bf3d 4486 b0bd
000003e0: 0217 48be 638f 363e a645 4fbe 0818 5bbe
000003f0: 38c5 d03c a261 39be 888e 6abe 28ef f73c
0.02772148 -0.12665367 0.11132763 -0.2059287 0.11807524 -0.12087227 -0.1923803 -0.12575674
0.09972112 0.017563835 0.23733245 0.119583294 -0.18986852 0.22979851 -0.103368506 -0.091869295
0.21217026 -0.113781676 0.018662378 0.04773207 0.23116563 -0.047565416 0.21235408 0.16029795
-0.08144556 0.07976045 -0.15111223 -0.1784368 -0.003909409 0.0065265745 -0.079849675 -0.21988416
0.23009254 0.21371312 0.19693999 0.21959041 -0.03475246 0.14898552 -0.07748814 -0.045849323
-0.12166675 0.16374682 0.010327771 -0.13497078 0.017619416 0.22281249 -0.20431054 0.2210509
-0.120657004 0.10401176 0.01336132 -0.06894064 -0.24202892 -0.12315742 0.19585486 0.18916528
0.007421568 0.09624715 -0.18794021 0.17638965 -0.15295225 0.10316609 0.21812414 -0.050902277
-0.098296374 -0.16491607 -0.11907856 -0.0126515925 0.112592086 0.0738243 0.10799156 -0.13356313
0.18782364 -0.12929632 -0.16935606 -0.18000497 0.07068677 0.11756118 0.076807365 0.17573144
-0.1329834 -0.12649684 0.20004122 0.017968997 -0.077904806 0.22843866 0.12254442 -0.07137588
-0.09882899 -0.02368185 -0.1617285 0.01723139 0.012094334 -0.08158703 0.083403006 0.036568776
0.18228172 -0.22940387 0.09227322 0.17143773 -0.008938029 -0.124046445 0.04611437 0.090380594
0.17038189 -0.23663789 0.22887363 -0.06471321 0.048090085 -0.19902807 -0.13479742 0.17298914
-0.1869707 -0.086604 -0.19731586 -0.06273638 0.099130884 -0.22239646 0.12736313 -0.18976744
0.024619356 0.22433148 -0.03287968 -0.21816246 0.1731536 0.12364496 -0.06667733 -0.08622113
0.13902204 0.15487574 -0.018550858 -0.12562469 -0.20955051 -0.13258018 -0.17417774 -0.12309653
0.23966686 0.2439792 -0.21797879 0.13815032 -0.05656734 0.08344187 -0.018477768 0.090890184
-0.026692271 0.1600575 -0.13410182 -0.21727787 -0.11665565 -0.214538 -0.19420806 -0.23442306
0.16370754 -0.0013259798 -0.17092289 0.081734285 -0.21564674 0.05356534 -0.2135208 0.21868734
0.1212744 0.18251492 -0.14135158 0.050948635 0.10027422 -0.19975486 0.13974981 0.22556122
0.0475228 0.09222375 -0.1154709 -0.11798528 0.103139296 0.1821502 -0.07208076 0.12736137
0.15717976 0.21024327 0.22266142 -0.080892935 -0.091939405 -0.021221504 -0.022592768 -0.10393718
-0.086737305 0.22856022 -0.2318249 0.12717818 0.2014754 -0.060319737 0.07440548 -0.20312016
0.08446412 0.13430803 -0.13481843 0.1752701 -0.2074606 0.07791893 0.12723084 -0.120483175
-0.030506149 -0.13786712 -0.053750977 -0.15150762 0.068807796 -0.19085132 -0.07802662 -0.021856725
0.06484713 -0.052002594 -0.16897437 -0.1317926 0.16269828 -0.22385232 0.08726843 -0.16349564
0.035766914 -0.16680506 0.015436307 0.22438721 -0.06659527 0.2225749 -0.2254732 -0.20623711
-0.1900821 0.18869807 -0.16768917 -0.13554078 -0.16128668 -0.03193876 -0.1366253 0.08844821
-0.22333995 0.094184056 -0.13776824 0.039035276 0.06375529 -0.22168946 -0.18504259 0.10325648
0.23153265 -0.086031035 -0.06361799 -0.09845817 -0.24222568 -0.024355263 0.09337081 -0.08619359
-0.19540027 0.17828135 -0.20241413 -0.21395886 0.025484666 -0.1810365 -0.22905934 0.030265406

l2pLayer.a f4 [176, 1]
00000000: 021a d53d d498 21bd 7072 db3c 34ed b7bd
00000010: 0012 09bd c029 08bb 8143 223e c57f 0c3e
00000020: d661 a33d 210b a5bd 5320 033e 81f5 213e
00000030: cc33 42bd 6a09 bb3d 12c6 ae3d 19e3 113e
00000040: a5a9 083e d83b 6e3d c2f4 bd3d 5e33 ec3d
00000050: ce96 e43d e4cb 51bd a4e0 e2bd 46f9 c73d
00000060: e24c fc3d 083e d83c b3f3 263e 9847 14be
00000070: 94ca 59bd 60d8 ba3c 50f7 1ebd 224f 1abe
00000080: 76d2 873d e8e2 363d 714b 1d3e 8fa9 153e
00000090: 2564 18be 65d6 21be 947a 2bbe 4a77 c73d
000000a0: 6b57 033e 905d 03bd 30d3 893c 841b 01be
000000b0: 982e 8a3c c06f 39bd 5012 3a3c 7ff5 323e
000000c0: 8070 b8ba a5de 3b3e 2bc6 023e afc6 3a3e
000000d0: 1e2b f9bd 8049 123d 8b19 06be d003 ee3c
000000e0: 7c0c 55bd 44cd 66bd 107c 583c 8a7e ba3d
000000f0: 67b1 343e add7 17be 26c0 cebd aaf8 913d
00000100: c2e5 a33d 6293 72bd 0486 15bd d0cf 173c
00000110: 189e d2bc 3262 1ebe 006f fcbd fef3 ce3d
00000120: a881 77bd fe54 dd3d 2871 8ebd e2f5 fb3d
00000130: 6165 38be 6667 a43d 9850 c6bc c722 373e
00000140: ec24 28be b7bd 02be 4c31 35bd 5a74 ee3d
00000150: b68f 3bbe 952f 063e 700c 42bd 452e 133e
00000160: d287 cfbd b5ab 2a3e 890d 2bbe 76f8 e6bd
00000170: ba0a adbd 0005 0fbc af0c f8bd 4e68 ed3d
00000180: ccd6 2c3d 079f 9bbd c124 0bbe c4e5 84bd
00000190: 20e5 50bc 4a99 a43d 64d4 1bbe 483c 32be
000001a0: d8bc c63c 319f 043e e5b3 0d3e 2862 a13c
000001b0: 6455 713d fcde 593d a03f aabc 40e8 713c
000001c0: f0f8 5b3c 7208 dd3d f6d4 27be 9203 c03d
000001d0: 30f6 09bc 54fe 1abe e60a b73d e8c9 6a3d
000001e0: 3049 9cbc 4c5e 1e3d cad3 05be 2fed 2f3e
000001f0: 6c72 333d fe37 f0bd 4090 2e3b 8013 2bbc
00000200: 6975 2bbe 8223 f33d b09e 3cbc f547 233e
00000210: 0af1 e43d c8b5 3f3d 4a77 2ebe 2086 553d
00000220: 4054 0abe 87c7 03be 226d 31be 4849 ac3c
00000230: 25dc 28be 8ed5 9f3d 677f bbbd bc77 753d
00000240: f2a8 db3d e021 ccbc 0bd8 0a3e 553f 313e
00000250: aa39 813d ef10 e4bd 4f63 2e3e 0617 32be
00000260: c4a2 253d 56c8 fc3d c841 db3c 7ca5 1f3d
00000270: 7283 0ebe 4f1d 393e 7858 e33c 1838 b23c
00000280: 666e f63d 606a ad3b 6348 b5bd 009e 83ba
00000290: 81ef 23be 030c 103e aa99 d03d de47 c03d
000002a0: fbfc 0d3e 80b1 9e3c 042e 9ebd e157 35be
000002b0: 025e 30be 3ca8 78bd 4e21 febd 0a95 2dbe
0.10405351 -0.03945239 0.026787966 -0.0898079 -0.03346443 -0.0020776838 0.15846063 0.13720615
0.07977645 -0.08058763 0.128053 0.15816309 -0.04741268 0.09132655 0.08533873 0.14246787
0.13345964 0.05816254 0.092751995 0.11533235 0.11161576 -0.051219836 -0.11078003 0.09764342
0.12319352 0.026396766 0.16303901 -0.14480436 -0.05317171 0.022808254 -0.038810074 -0.1506925
0.06631939 0.04464999 0.1536081 0.14615463 -0.14881952 -0.15804441 -0.16745979 0.097395495
0.12826316 -0.03207165 0.016824335 -0.12608153 0.01686792 -0.04527259 0.011356905 0.17476462
-0.0014071614 0.18346651 0.12770908 0.18239854 -0.12166427 0.035714626 -0.13095681 0.029054552
-0.05201386 -0.0563481 0.013213173 0.09106167 0.17645799 -0.14828368 -0.10095243 0.07127507
0.08002807 -0.059222586 -0.03650476 0.009265855 -0.02571015 -0.15467146 -0.12325859 0.101051316
-0.060426384 0.108072266 -0.069551766 0.12302758 -0.18007423 0.08027534 -0.024208352 0.1788436
-0.16420335 -0.12767683 -0.044236466 0.11643286 -0.1831654 0.13104089 -0.047375143 0.14373119
-0.101333275 0.16667064 -0.16704382 -0.11277859 -0.084493116 -0.008729219 -0.12111794 0.1159216
0.042197034 -0.075986914 -0.13588239 -0.06489137 -0.01274994 0.0803705 -0.1521774 -0.17405808
0.02425997 0.12951352 0.13838156 0.019700125 0.058919325 0.05319117 -0.020782292 0.014764845
0.013426051 0.107926264 -0.16389832 0.09375681 -0.008420512 -0.15136081 0.089376256 0.05732146
-0.019077867 0.038664147 -0.13069072 0.17180322 0.043810293 -0.1172943 0.0026636273 -0.010441661
-0.16744007 0.11872007 -0.011512443 0.15945418 0.11178787 0.04680422 -0.17037693 0.052129865
-0.13508701 -0.12869082 -0.17326787 0.021031037 -0.16490228 0.07804404 -0.091551594 0.05992864
0.10725583 -0.024918497 0.13558976 0.17309316 0.06309827 -0.11136042 0.1703007 -0.17391595
0.04043843 0.123428985 0.026764765 0.038976178 -0.1391733 0.18077587 0.027752146 0.021755263
0.120327756 0.005292222 -0.08851697 -0.0010041595 -0.16009332 0.14067082 0.10185559 0.093887076
0.13866036 0.019371748 -0.077236205 -0.17709304 -0.17223361 -0.060707316 -0.12408696 -0.16951385

phaseLayer.W f4 [24, 26]
00000000: c8fc 713d 7e20 ad3e a88d 2e3e eef0 eebd
00000010: 7282 65be 585d e33d d082 43be d43f 6c3e
00000020: e848 a4be 58d1 523e f200 f2bd a4c5 91be
00000030: f0ce 243e e439 083e 92a3 0a3e d81d e5bd
00000040: 68ea c4bd 089b a9bd bbf3 16be 6214 aa3e
00000050: 184d 6b3e 989b 57bd b8de 3abd 46b1 8d3e
00000060: 737e 37be 3e71 9b3e 4417 653e 73ed 40be
00000070: a7b4 a1be f4c0 4e3e 5670 103e 1069 c63d
00000080: 96f7 893e 7743 3bbe 6060 563e 4005 a33c
00000090: 00d0 36b9 f465 2e3e 47ac 82be 6bd3 52be
000000a0: 1080 493e 329d 28be 4c67 9dbd 748a 3a3e
000000b0: 3829 483d 341c 833e f322 a8be 50ba 9bbd
000000c0: 5c7f f23d a688 24be 90f0 69bd 8317 aebe
000000d0: fc53 6d3e 5eb4 0b3e 6a6e 803e c8fb 80be
000000e0: 680e 433d c623 26be 30ca e13d 40c0 443e
000000f0: 3a95 003e 30e9 813d 422e 913e a4bf fb3d
00000100: a006 81be 98c8 6a3e 108b 80be 5a9f b03e
00000110: 7082 4e3d c824 66bd 2871 70be ec0f 93bd
00000120: 9449 a23e 81db 81be 26c7 0c3e 40f6 92bb
00000130: a3d0 46be 68da f03d acea a73e 3847 a83e
00000140: c049 103d 4240 85be 12bf 3dbe a502 80be
00000150: 2016 6cbd 1c94 a7bd 8c96 e73d e043 70bc
00000160: 7818 8c3e a8b7 9dbe 1814 9c3d 40be d1bb
00000170: e2f7 79be 7e58 57be c88c 07bd 1ee5 a9be
00000180: 538e 3dbe 7891 b2bd cef9 83be d995 48be
00000190: 8e5a 93be 30a6 69be 94c6 8c3d a4dc 07be
000001a0: 0f27 7ebe 888d 9a3d 60dc 763e 062a ad3e
000001b0: 204e ebbc 00a9 db3d 1217 853e 081d 05bd
000001c0: d206 e0bd d6e4 70be b013 0e3d 5e8e 183e
000001d0: e635 ad3e 65cb 5dbe 401f 47be 1ccb aabd
000001e0: c037 b13e 80f7 c53d f83c 7b3d f84a 263e
000001f0: b23d 033e b876 31be 3ea4 cabd 0008 733e
00000200: c0ae 0cbe b101 93be 4ef1 8c3e 00e3 2abb
00000210: 4639 08be 30f3 8f3e 68cf 253e f830 85be
00000220: 5e85 a43e f042 31bd b864 a03e 089e 64bd
00000230: a8d4 4a3e 2412 313e aa81 efbd 947f 4c3e
00000240: 1ffc 4abe 3ad1 a83e 8c4f 9abd 06ac 803e
00000250: 4ac4 8e3e 6c2f 873e 9266 9c3e 72f4 61be
00000260: 94b3 723e 7037 893d 64bf 8e3d 4021 9b3b
00000270: 4dfa 16be bcdb 763e e839 a5bd 1ef3 15be
00000280: 2e4f ac3e dca9 c53d 56e1 79be b406 a83e
00000290: 5c55 ddbd 70b0 ef3d c0e2 49be fe16 8d3e
000002a0: 3a13 a4be 3004 763d b420 9dbe e0af 54bd
000002b0: d076 213e 1e21 963e 660b 083e fe75 893e
000002c0: c479 f73d bf2d 34be 0663 af3e 3c98 5b3e
000002d0: 40ee 4f3e f4cd 2f3e 1a3a 67be 14c5 32be
000002e0: 446f a43e 68d9 1e3d f4ba e83d 538d a1be
000002f0: 3450 95bd f14c aebe 20da b9bc d897 0f3d
00000300: 606d ebbc 6ec5 89be 1882 35be f83b 0d3d
00000310: 7cf8 313e 0849 bbbd b413 06be 1283 ae3e
00000320: ae9c 41be 9cd2 92bd 8091 8c3e 8440 043e
00000330: c09c 863d 4b4b 8dbe 2ee3 8dbe e016 b13c
00000340: 3aa4 a83e 0628 d4bd 8cc8 7d3e d1e3 74be
00000350: a0d2 59bc d053 2cbd c03f ebbb 3a8e a3be
00000360: 44ec 86be 40ff 663d 60c8 383c 60b7 793e
00000370: 8072 1fbd e076 f3bc c087 263e 007c c33a
00000380: f0ab 51bd 88ff 3f3e c432 82be 8e1e 94be
00000390: 5c77 513e 4c13 5c3e c54e 49be e4c6 823d
000003a0: c093 5bbe d478 5d3e 82f2 f6bd 16fa a23e
000003b0: 60d9 e53d e060 f53c 24f1 533e 06e8 39be
000003c0: 6efd 0c3e d417 6cbe 64a0 a3bd 18d4 213e
000003d0: 18b7 2f3d 4053 6c3e 0aaf 0f3e a015 4fbd
000003e0: 16b7 a53e d4e3 b63d ce9e e1bd 92bd a7be
000003f0: 70be cc3d c828 18be 50b3 3fbd e8e2 213e
0.05907896 0.33813852 0.17046225 -0.116670474 -0.22413042 0.11101788 -0.1909287 0.23071223
-0.32086873 0.20587671 -0.118165866 -0.284711 0.16094565 0.13303334 0.1353896 -0.11187333
-0.09615022 -0.08281523 -0.14741413 0.33218676 0.22978628 -0.05263862 -0.045622557 0.2767431
-0.1791933 0.30359834 0.22372156 -0.1884058 -0.3158314 0.20190793 0.14105353 0.09688008
0.26946706 -0.18287455 0.20935202 0.019899964 -0.00017434359 0.1703108 -0.25522062 -0.20588462
0.19677758 -0.16466215 -0.07685718 0.18216878 0.048867434 0.25607455 -0.32839164 -0.07603896
0.11840698 -0.16067752 -0.057114184 -0.34002313 0.23176569 0.13643023 0.2508424 -0.25192094
0.04762116 -0.16224584 0.11024892 0.19213963 0.12556925 0.06343305 0.28355604 0.12292412
-0.25200367 0.22928083 -0.25106096 0.34496576 0.050417364 -0.05618742 -0.23480666 -0.07180771
0.3169676 -0.2536278 0.13747844 -0.0044849217 -0.19415526 0.11760408 0.32796228 0.32866836
0.035226583 -0.26025587 -0.18529919 -0.25002018 -0.057638288 -0.081825465 0.113080114 -0.01466462
0.27362418 -0.3080418 0.0762102 -0.0064008534 -0.24410966 -0.21029851 -0.033093244 -0.33182615
-0.18511324 -0.08719152 -0.25776523 -0.19588412 -0.28780025 -0.22817302 0.06873813 -0.13267761
-0.24819587 0.07546526 0.24107504 0.33821124 -0.028723776 0.107255936 0.25994164 -0.03249839
-0.10938801 -0.23524794 0.034686744 0.14898059 0.33830184 -0.2165962 -0.19445515 -0.08339521
0.34612846 0.096663475 0.06133744 0.16239536 0.12816504 -0.17330444 -0.09894608 0.2373352
-0.13738537 -0.28712228 0.2752785 -0.0026075244 -0.13303098 0.28115225 0.161924 -0.26013923
0.32133 -0.043276727 0.31326842 -0.055814773 0.19807684 0.17292076 -0.11694653 0.19970542
-0.19822739 0.32972127 -0.075347036 0.25131243 0.27884132 0.26403368 0.30547005 -0.22065905
0.23701316 0.06700027 0.069700986 0.0047341883 -0.1474392 0.2410726 -0.08067685 -0.14643523
0.3365416 0.09651539 -0.24402365 0.32817614 -0.10807297 0.11703575 -0.19715405 0.27556604
-0.3204592 0.060062587 -0.30689013 -0.05192554 0.1576798 0.2932214 0.13285598 0.26847833
0.12083772 -0.17595576 0.34255236 0.21444792 0.20305729 0.17168409 -0.22580758 -0.17457992
0.3211614 0.038781554 0.113637835 -0.31553134 -0.07290688 -0.34043077 -0.022687018 0.03505692
-0.028738678 -0.2690844 -0.17725408 0.03448102 0.17379946 -0.09144789 -0.13093454 0.34084374
-0.18907425 -0.07169077 0.27454758 0.12915236 0.065728664 -0.27596506 -0.27712387 0.021617353
0.32937795 -0.10359196 0.24783534 -0.2391503 -0.013294846 -0.042072117 -0.0071792305 -0.31944448
-0.2635213 0.05639577 0.011278242 0.24386358 -0.038927555 -0.02971977 0.16262722 0.0014914274
-0.051189363 0.18749821 -0.25429356 -0.2892956 0.20455688 0.21491736 -0.19658954 0.063855916
-0.21443081 0.21628124 -0.120579734 0.31831425 0.112231016 0.02995342 0.20697457 -0.18154916
0.13768551 -0.23055965 -0.079895765 0.15803564 0.04289922 0.23078632 0.14031616 -0.050557733
0.32366246 0.089301735 -0.11016618 -0.32761818 0.099972606 -0.14859307 -0.046801865 0.15809214

p2iLayer.W f4 [24, 176]
00000000: c0d0 213b cd47 c3bd 000b 823b e0e6 c53c
00000010: bd7f c3bd 9ac3 1fbe d8b9 803d 249d cdbd
00000020: d0e7 7cbc f076 f53d 84de db3d 049f 693d
00000030: 049e 1e3e d64f 003e 40de eb3b cdf1 8fbd
00000040: a44a 383d e6b8 c9bd 888b bb3c b6a4 82bd
00000050: 7069 bd3d beb2 5cbd a00c 8e3c dca2 d43d
00000060: 7ca8 1cbe b8ee f23d 2641 013e a615 2a3e
00000070: 7a3f e8bd 28c6 a03c 00d2 c73d d8d7 b0bd
00000080: 1269 59bd dba9 aebd 58ce 9f3d e171 a9bd
00000090: fd0e fcbd c248 09be c009 9ebb 6c6a 2c3e
000000a0: faae 8fbd 1c82 563d 9b77 97bd 809a 003d
000000b0: 4c89 12be 9cc4 c3bd 18d1 893c 25a0 05be
000000c0: 00dc 0fbe 10f4 ce3d 608d c93d 20e8 993b
000000d0: fec7 4fbd 4c00 1a3e f421 ef3d 0057 643b
000000e0: 4c69 d63d 5eda 0dbe 7e27 10be f65d 103e
000000f0: dc36 533d 14de 663d 006b 123e 7cda 233e
00000100: d03a d13d 1458 e83d 8b05 2abe cca1 e93d
00000110: c05e 4d3b 40e0 963c e8cd 7abd f961 dfbd
00000120: 2278 1ebe 1432 7e3d 063c 27be 204d 3f3d
00000130: 4012 17bb 60d5 ccbc 50b8 17be 592c 2bbe
00000140: dc4d e93d 849f 113e c824 6f3d e0f3 95bc
00000150: b45c 023d aaea 163e 3052 50bc 880d 243d
00000160: 885a 05bd 2028 1c3d d4b7 bb3d 78e5 0a3d
00000170: 6ece 033e 0c31 1bbd 40ea 61bb 602e 59bc
00000180: 20b8 e33d 760e 1d3e e430 1e3e 6c31 98bd
00000190: 95f1 90bd 5c52 043e 2818 05be c056 2fbe
000001a0: 204e a1bd e045 d53d b17a 96bd 10b8 963d
000001b0: f0e3 1abe 00e8 cab8 6033 cabb 586f 44bd
000001c0: b742 2fbe 3612 313e bc08 5d3d 6e53 1bbe
000001d0: 9a84 253e 3972 2ebe 7ac0 2a3e 0018 48bc
000001e0: 3802 9c3c 28e9 913c c834 153d ff0c 12be
000001f0: b034 03bc 0c76 c43d 9dc2 c4bd 24df 663d
00000200: 6ebd 16be 1cb3 a3bd 00d2 e3bb 7e24 893d
00000210: 5ea1 d3bd f40b c03d 6010 ae3d 5803 c4bc
00000220: f0c6 1c3c b627 10be c0a7 82bc 3860 f03d
00000230: d015 d1bd a165 0abe 28ff 053d a035 f93b
00000240: 3a06 d1bd 9c82 c93d 3c12 b63d bc2b 1cbd
00000250: 9447 22bd 309f f53d 60b8 273e e308 8fbd
00000260: a854 f13d ac8a 00be 3a76 10be 75b1 e5bd
00000270: 6413 17be 04da 383d 8404 c83d e0a0 e03d
00000280: 8aee 953d 6040 873b b8a8 b5bd 5441 40bd
00000290: b0ec a53c 29a7 edbd 12ae acbd cc78 7bbd
000002a0: a05a f03b 7652 863d 98c5 85bc 0a3f 8e3d
000002b0: 345d b23d 9c85 153e 9889 d0bd 5869 aa3c
000002c0: 94f6 2ebe e09b 5b3c 7035 fc3c 808f 99bd
000002d0: b72d 25be c848 093d 0079 71bc dcf6 523d
000002e0: e478 23be 8889 fa3c e4f7 0b3e 8012 0abc
000002f0: 6856 e93c e56a 89bd 1096 28be 80a2 783b
00000300: 1ed1 173e f2db 1d3e 3800 b7bd 588f 7fbd
00000310: a74a 1ebe d941 e5bd ba59 bdbd 9822 83bc
00000320: 1799 b0bd e0f9 27bc d84d 273e e858 ea3d
00000330: 60eb c6bb 1c47 05bd 988e 0c3e c8c1 56bd
00000340: b864 423d 4424 04be 00c8 48bc 6dd1 f3bd
00000350: 1eab e4bd fce0 1e3d 02b8 0ebe 8874 13bd
00000360: b017 47bc f0bd 59bd f095 f6bc e05d 58bc
00000370: b089 a33d 00f8 a4bd 0953 85bd d8b6 bf3d
00000380: a222 f5bd 9278 013e 00f8 d8bc f82f abbd
00000390: fb58 2bbe 30b8 21bc cc00 bc3d c1b5 b8bd
000003a0: 06b4 edbd 4eb1 013e a0b0 9c3b cb9f 19be
000003b0: 2c5a 1cbe 0e40 9cbd 0840 1e3e 562e 8a3d
000003c0: 7006 4a3d e9d5 8abd 6c94 083e 9ff3 24be
000003d0: 3708 ecbd aae3 75bd b8f8 00bd 2c1c 2d3e
000003e0: c0e6 b7bb bcac 043e e25c 823d 53cc 28be
000003f0: a41b 613d 18ad 4abd 786c 133e 3fff d6bd
0.0024691075 -0.09535179 0.0039685965 0.024157941 -0.095458485 -0.1560196 0.06285447 -0.10039738
-0.015436128 0.11985576 0.10735801 0.057036415 0.15489966 0.12530455 0.007198125 -0.07028542
0.044993058 -0.0984972 0.022893682 -0.06379072 0.09248626 -0.0538814 0.017340004 0.103826255
-0.15298647 0.11861938 0.12622508 0.1660982 -0.11340232 0.019625738 0.09756851 -0.08634919
-0.05307872 -0.08528491 0.07803029 -0.08273674 -0.12307546 -0.13406661 -0.0048229396 0.16837472
-0.07015796 0.052370176 -0.0739586 0.031397343 -0.14310187 -0.09558985 0.016823336 -0.13049372
-0.14048767 0.10105145 0.09841418 0.004696861 -0.050727837 0.15039176 0.11676398 0.0034841895
0.104693025 -0.13852832 -0.14077565 0.14098343 0.05156599 0.056364134 0.1429863 0.16001314
0.10216296 0.113449246 -0.16603677 0.114078134 0.0031336993 0.018417478 -0.061231524 -0.10907359
-0.15475515 0.062059477 -0.16331491 0.04670441 -0.002305165 -0.025004089 -0.14816403 -0.16716136
0.113918036 0.14221007 0.058384687 -0.018304765 0.03182669 0.14737955 -0.0127149075 0.040051967
-0.03255704 0.038124204 0.09165922 0.033910245 0.12871715 -0.03788857 -0.00344719 -0.013255686
0.111191034 0.15337548 0.15448338 -0.074313015 -0.07077328 0.12922043 -0.12997496 -0.17122936
-0.07876229 0.10413718 -0.0734762 0.07359326 -0.15126014 -9.675324e-05 -0.006170675 -0.04795775
-0.17115293 0.17292103 0.053963408 -0.15168545 0.16163865 -0.1703576 0.16674986 -0.012212753
0.019044027 0.017811373 0.03642729 -0.1426277 -0.008008167 0.09592828 -0.09607432 0.056365147
-0.14720699 -0.07993147 -0.006952524 0.066964135 -0.10333513 0.0937728 0.08499217 -0.023927376
0.009568915 -0.14077649 -0.01594913 0.11737102 -0.102092385 -0.13515331 0.03271404 0.0076052696
-0.10206266 0.09839365 0.08890197 -0.038127646 -0.039619043 0.11993253 0.16378927 -0.06984117
0.11783725 -0.12552899 -0.141076 -0.11215488 -0.1475349 0.04512979 0.09766486 0.109681845
0.07320888 0.004127547 -0.08870071 -0.0469373 0.020254463 -0.11604149 -0.08431639 -0.061394498
0.007335022 0.06558697 -0.016329572 0.069456175 0.08709183 0.14601749 -0.10182494 0.020802185
-0.1708625 0.013403863 0.0307872 -0.074980736 -0.1613072 0.033516675 -0.014738321 0.051504955
-0.15964085 0.030583158 0.13668782 -0.008427262 0.028483585 -0.06709842 -0.16463494 0.0037938654
0.14825866 0.15415934 -0.089355886 -0.062392563 -0.15458165 -0.111942 -0.092456296 -0.016007707
-0.086229496 -0.010252446 0.16338289 0.11442739 -0.0060705394 -0.03253852 0.1372627 -0.052430898
0.047459334 -0.12904459 -0.012254715 -0.11905179 -0.111654505 0.03878878 -0.13937381 -0.035999805
-0.012151644 -0.053159654 -0.030100793 -0.013205975 0.07985246 -0.08055115 -0.06509978 0.093610466
-0.11969496 0.1264365 -0.026485443 -0.08358759 -0.16733162 -0.009870574 0.091798395 -0.09019042
-0.11606602 0.12665293 0.0047817975 -0.15002362 -0.15268773 -0.07629405 0.15454113 0.06747119
0.049322546 -0.067790814 0.13337868 -0.16108559 -0.11525004 -0.06003157 -0.031487197 0.16905278
-0.0056122243 0.12956518 0.06365372 -0.16484194 0.054958 -0.04948148 0.14396846 -0.10497903

p2iLayer.a f4 [352, 1]
00000000: 10c2 27bd 604a d43d f820 d3bc 205b 2d3d
00000010: dca5 0a3d f02a 223d baa5 803d eafd a33d
00000020: 0c29 c3bd db9b a4bd daf6 99bd 3c2e 29bd
00000030: c01f 863d a081 3d3c 22a0 e43d 68d9 e1bc
00000040: ac9e d4bc 4009 2bbc d028 5b3d e77b 89bd
00000050: 4553 acbd 3026 d33d d0d1 c93c 10d9 563c
00000060: 4827 1bbd ca4d 4cbd d688 00bd 60fa 1c3c
00000070: 4473 c93d 70dd b43d c030 2cbc 4ef9 b8bd
00000080: 1c62 9cbc 9e1d 27bd 989f 703d 2a2f 86bd
00000090: bc1c 5abd 0870 583d a4cc 683d 800d 2a3b
000000a0: b80e 83bc 7466 80bd 1e2e b73d 028b a23d
000000b0: fe2a 4abd 6663 3cbd e627 5fbd 72d6 ae3d
000000c0: ac17 af3d fb37 acbd c010 96bb 84aa 94bd
000000d0: e89e 96bc 2021 1cbd 28d9 2a3d b8bc a2bd
000000e0: 0076 173b c00c 7bbb d802 66bc b4da 01be
000000f0: 642c debd c06f 39bc 5a6f 03be ba3c 913d
00000100: 041b 4c3d e393 e5bd 40d6 f83c 2248 acbd
00000110: d8d6 cebc 909d 863d 70ae ee3c 44e8 dfbd
00000120: c057 2bbb fc60 f3bc 84ae 053d 404f 0c3c
00000130: d02c fdbb 9816 babc eac2 d93d fef0 f0bd
00000140: fa1c 72bd 60dd a4bb 22a3 d73d 50a7 263d
00000150: 7143 a5bd 08ef df3d d043 153d 22be 5ebd
00000160: 4cb3 cabd c013 183c c89d 4ebc a8f8 043e
00000170: 66b0 a63d 12df a83d 00c8 243a cc44 173d
00000180: f272 6bbd 640e 7ebd acb5 813d 7ad8 44bd
00000190: a8d4 99bc dcfc 9b3d 9422 9bbd b29a 8f3d
000001a0: a22a c4bd 905c c43d 4cdd 2f3d 0c75 053e
000001b0: 1862 bfbd d419 5d3d 14cb 203d 1011 76bd
000001c0: d68c 7ebd 9020 2e3c 3351 c6bd 2424 efbd
000001d0: 0024 b73a 4d06 a8bd fc30 fb3d 14d5 36bd
000001e0: 8a0c 4bbd 8073 7e3d e4f3 d0bc 0070 b1bb
000001f0: 4b51 adbd 006d 95bb e0db 06bc 7046 f3bd
00000200: ae70 e03d 3e9c ab3d a4cc 823d 6095 b8bd
00000210: acae 903d 34ee 31bd 7c76 9b3d 9c31 d2bc
00000220: 80c9 023d 0e92 9dbd 3650 993d 6ab6 ae3d
00000230: b0cd 803c 405b 003b b2ee 15bd 9aa5 c63d
00000240: 9c17 a53d b0fa 1e3c 39a3 f9bd d84b b0bd
00000250: 7c75 2bbd cea8 843d 9459 e43d 336d e3bd
00000260: e807 d83c 602b 693d 4e03 76bd 7cde ed3d
00000270: ecdb 85bd a971 dcbd 9fb6 acbd 3891 4b3d
00000280: eec3 abbd 4891 043e 20f8 4dbd 8cec 233d
00000290: d3c6 c5bd ace2 5fbd 7864 733d c0a6 a43b
000002a0: fc6c 023e 669e f03d 2aa1 ce3d 709c c13d
000002b0: 00aa 52bb 8633 03bd 8c3b f63d a69c 93bd
000002c0: f08c 1a3c d821 e7bd 7492 af3d 2893 1dbc
000002d0: 96a0 043e bec9 013e f0b1 fb3d 788d df3c
000002e0: 58ff 6a3d d4ea 143d e88c 4b3d 86d1 3ebd
000002f0: 5858 5b3d 7eae 07bd a895 a33d f840 423d
00000300: f6ca ad3d f0e3 30bc 2c7d b7bd 3a6a a93d
00000310: 48db ca3c 1ca9 5dbd 9887 e7bc 9476 1bbd
00000320: b2d4 a3bd 1a58 dbbd d853 7d3d d8b3 0fbc
00000330: 9cd1 003d 98c6 6e3d 5af5 c83d 4ce5 093d
00000340: 52a3 eb3d 506f 03bc b413 4abd a6b0 943d
00000350: aac5 8cbd b642 d23d c01c 0abb 60e4 f03c
00000360: b4c5 523d 9ac2 ffbd 4a15 993d a66c e8bd
00000370: 020e 54bd 48fd 7a3d 65d1 f0bd 9089 a9bc
00000380: 86e9 f0bd aa4f d33d 0af3 b4bd 0efc b33d
00000390: e3f7 a7bd 7a99 bd3d 90d8 f2bb 5859 5cbc
000003a0: c0d3 a4bd faa4 e43d 2e8b e53d d6e4 f03d
000003b0: 4c5d 9bbd 4017 c3bb 6c91 f6bd 48db ab3d
000003c0: 9d5d cfbd b8ba 953d 10d7 e1bc 2882 94bc
000003d0: d6c5 fdbd cc4d 423d 654d acbd 8094 b53b
000003e0: b92b 8fbd b0ee 273d 367e c03d 001e ad3d
000003f0: 768c 9e3d fa98 893d 6c01 043d 6470 d2bd
-0.040956557 0.103657484 -0.025772557 0.04232323 0.033849582 0.03959173 0.0628161 0.08007415
-0.095293134 -0.080375396 -0.07517786 -0.04130386 0.065490246 0.01156655 0.111633554 -0.027569488
-0.025954567 -0.010439217 0.05350572 -0.067130856 -0.0841432 0.10310018 0.02463618 0.013113275
-0.03787926 -0.049878873 -0.031380497 0.009581178 0.09836438 0.08831298 -0.01050967 -0.09031926
-0.019089751 -0.04079973 0.05874595 -0.065519646 -0.05325006 0.052841216 0.056835786 0.0025947988
-0.01599823 -0.062695414 0.08944343 0.0793667 -0.049357407 -0.04599323 -0.05448141 0.08536996
0.08549437 -0.08409115 -0.0045796335 -0.07259086 -0.01838632 -0.038117528 0.041711003 -0.079461515
0.0023111105 -0.003830716 -0.014038764 -0.12681085 -0.108483106 -0.011318147 -0.12835446 0.07091661
0.04983045 -0.11209848 0.0303756 -0.08412196 -0.02524893 0.065730214 0.029135913 -0.10932973
-0.0026144832 -0.029709332 0.032637134 0.008563817 -0.0077262893 -0.022715852 0.1063288 -0.117647156
-0.059109665 -0.005031273 0.10529162 0.040686905 -0.08069504 0.109342635 0.036441624 -0.054380544
-0.098974794 0.0092820525 -0.01261086 0.1298548 0.08139114 0.08245672 0.0006285906 0.036930844
-0.057482667 -0.062025443 0.06333479 -0.04805801 -0.01877816 0.076165885 -0.07574955 0.07011928
-0.09578444 0.095879674 0.042935655 0.13032931 -0.09344882 0.05397971 0.03925617 -0.060074866
-0.06214603 0.010627881 -0.09683456 -0.11676815 0.0013972521 -0.08204327 0.122652024 -0.0446368
-0.049572505 0.062121868 -0.025506921 -0.005414963 -0.08462771 -0.004560113 -0.008231133 -0.11878669
0.10958992 0.0837941 0.06386688 -0.09012866 0.07064566 -0.04344006 0.075909585 -0.025658421
0.031930447 -0.07693873 0.07486002 0.085308865 0.01572308 0.001958564 -0.03660459 0.09699555
0.08061144 0.009703323 -0.121893354 -0.08608216 -0.04186009 0.064775094 0.11149898 -0.111048125
0.026370957 0.05692613 -0.060061745 0.11614701 -0.065360874 -0.107638665 -0.0843327 0.04969904
-0.0838698 0.12946045 -0.05028546 0.04002051 -0.09657063 -0.05465953 0.059421986 0.005024761
0.12736887 0.11748962 0.10089333 0.09453666 -0.0032144785 -0.03203156 0.120230764 -0.07207613
0.009433016 -0.11285752 0.085728556 -0.009617604 0.12951884 0.12674615 0.12289798 0.027289137
0.05737242 0.036356762 0.049694926 -0.046586536 0.053551048 -0.033125393 0.07987529 0.04742524
0.08485977 -0.010796532 -0.089594215 0.08272214 0.024762765 -0.054116353 -0.028262898 -0.03795488
-0.07999553 -0.107101634 0.061847538 -0.008770905 0.0314499 0.058294863 0.09812422 0.03366594
0.1150576 -0.008022144 -0.049335197 0.072602555 -0.06873639 0.1026663 -0.0021074265 0.029405773
0.051458076 -0.12488289 0.07474764 -0.11348848 -0.05177117 0.061276704 -0.11758689 -0.020695478
-0.11763291 0.10317929 -0.088354185 0.0878831 -0.082015775 0.09257789 -0.00741107 -0.013449036
-0.080482006 0.11164279 0.11208187 0.11762397 -0.07586154 -0.0059536994 -0.12039456 0.08391434
-0.10125277 0.073110044 -0.02756837 -0.01812847 -0.1239125 0.047437474 -0.08413199 0.005541384
-0.06990761 0.040999115 0.09399073 0.08452988 0.077416345 0.06718631 0.03222792 -0.10275343

intersectionLayer.W f4 [48, 46]
00000000: 584e a73d 4389 07be 5ede 633e f634 e1bd
00000010: 887d b13d 5b45 61be 6cd7 e83d d63d 15be
00000020: 7a14 cfbd 6860 7fbd faaf 7e3e ac54 d1bd
00000030: 7c0c 513e 84a4 593e 122d 85bd 6cc9 4abd
00000040: 4218 eabd fc75 54be 4076 aa3c 3e8a 72be
00000050: a950 60be 5017 1bbd 9839 1e3d cea9 72be
00000060: a487 503e 2dc0 65be 924f 163e 6614 723e
00000070: 7add 323e 9cde 8f3d 8c1f 9abd 627a cebd
00000080: 5032 923d 5c7f 96bd 8e9d a8bd aa18 1ebe
00000090: 4660 93bd aa01 6dbe 7eb7 373e 024c aebd
000000a0: 0e09 063e 68eb 1a3e 1e00 5f3e 6c1d 513e
000000b0: 2ef4 7e3e 422c 0dbe 2c1d 3b3e 5ed1 5fbe
000000c0: ac97 7fbd 60d8 b23c dcc9 bd3d 52ac 2e3e
000000d0: fa8c 75be da8c 52be 3dc2 76be acc8 ea3d
000000e0: 6ab0 73be 7caa 763e a857 573e ce93 56be
000000f0: 462d 1cbe f0a2 27be b095 8c3d b609 9dbd
00000100: 4ed6 88bd 2083 31bc 6fa5 35be 409a 24bc
00000110: 9805 c3bc 7754 48be bca0 ac3d 1895 f13d
00000120: 170b 4dbe da5c 533e 0191 6dbe 7ca0 143e
00000130: 034e 813e a082 eabd 7fae 5bbe 2029 4a3c
00000140: 3cf0 17be 127b d4bd 8208 313e ec40 7abd
00000150: d0de 8bbd 669a 053e cfed 45be 2454 033e
00000160: dc46 c73d e0ef 733d da53 8ebd d80b 263d
00000170: d8a3 5e3d 300d d43c 2ac5 73be 4c45 5fbe
00000180: 1ef6 093e 5625 c3bd 95dd 62be c492 343e
00000190: 7007 3c3e b0cb 13bc e21d 143e bee0 743e
000001a0: 00b4 e1bb 24a0 21be 0019 f9bc 7ce4 3ebe
000001b0: c421 c33d f088 fabd 10c5 31be ee54 2c3e
000001c0: 7ccb 6a3e c482 38be 88c3 ae3d d861 883d
000001d0: b0c9 d63c baea 80be 03da 32be 80ae 8f3d
000001e0: 1c1d 09be 80d1 8c3c d050 e83c f008 1dbc
000001f0: f481 e13d ea03 473e 826a 39be 0058 75b9
00000200: e06f 433d b40a cdbd 4409 0c3e f434 63bd
00000210: 986f 6a3e 0a97 79be 40b5 d2bd 0e07 9dbd
00000220: a049 d8bc 2497 313e 3c72 c9bd b64c 7f3e
00000230: c0ac e93d 0604 bfbd 80c6 b83c 4587 12be
00000240: 5cb6 a83d a9e3 2cbe 826c 4abe 2697 14be
00000250: 58d9 88bc f885 95bc aa4b 09be 1c08 c9bd
00000260: 2071 3bbe f289 743e e04d ed3d 7008 70bc
00000270: 4606 a9bd 802c d63d dd58 72be 302a f53c
00000280: a756 77be fb33 7bbe b095 1e3d 6060 fcbc
00000290: 8050 afbb 6c9f 9d3d 286c bebd d41f 2cbd
000002a0: 8eb7 66be 6466 13bd 1cd2 1c3e f2c8 193e
000002b0: 12f2 1c3e b0d3 99bc 50d1 10bd 40c0 2a3d
000002c0: 38c0 e93d 57a9 5bbe 2a8a 3dbe 31e0 47be
000002d0: e8ab f2bd 8237 d1bd 2cf2 bdbd 8014 0abd
000002e0: 623c c4bd 803c 423c 8c65 313e 10ab 11bd
000002f0: fc42 533e 1801 b73d 7c61 333e f82c 713e
00000300: 827f 423e 68b0 ac3d 6039 4a3c 5e86 603e
00000310: 38ed c63d c015 cc3c de43 3d3e 880d d73d
00000320: 7c1a 3abd 80de 1e3e a068 383e 1feb 77be
00000330: 5905 58be a04b 163d 86b2 d2bd 3e9f 34be
00000340: 4cea 64be a0a0 883d a2e3 3dbe 605d c23c
00000350: a4fd 633e f4cb cebd 3c9d 293e 80ff 793c
00000360: f8a2 f5bc 93cd 11be 40f4 ef3c 404c 8e3c
00000370: fdbd 803e 68ca dcbd a412 82bd 80ef 643c
00000380: 6054 5dbd fb19 36be c0bc a73d 2486 143e
00000390: a048 b93c e044 8f3d ea94 4a3e 18b9 a0bc
000003a0: 12a1 b5bd f9e4 7abe ce65 573e c7f9 0fbe
000003b0: b875 8cbd 00ca 14bb 26fd 5a3e 58fd 24be
000003c0: 2ac2 5c3e 2aa4 6ebe 8c1f f6bd 2050 983d
000003d0: 649f a73d c03c 52be d0b8 cbbc aa7c 2abe
000003e0: c020 563d e17f 5ebe 46fd 14be 9051 e53d
000003f0: b4ec dcbd f4fd f4bd 5869 35be d240 2b3e
0.0816924 -0.13235955 0.22252795 -0.109964296 0.08666521 -0.21999113 0.113692135 -0.1457437
-0.101113275 -0.0623478 0.24871817 -0.10221228 0.20414919 0.21254164 -0.06502737 -0.049508497
-0.11430408 -0.20748132 0.02080834 -0.23685548 -0.2190577 -0.03786403 0.038629144 -0.23697588
0.20364243 -0.2243659 0.14678791 0.23640594 0.17467299 0.07024881 -0.07525548 -0.100819364
0.071385026 -0.073485106 -0.08233176 -0.15439096 -0.07196097 -0.23145166 0.1794109 -0.08510591
0.13089392 0.15128863 0.21777388 0.2042138 0.24897835 -0.13786414 0.18272847 -0.21857211
-0.062400505 0.021831691 0.09267017 0.17057922 -0.2397956 -0.20561543 -0.24097534 0.114640564
-0.23797765 0.24088472 0.21029532 -0.2095482 -0.15251645 -0.1637075 0.06864488 -0.07667868
-0.066815004 -0.010834485 -0.17738889 -0.010046542 -0.023806378 -0.19563471 0.08429095 0.117960155
-0.20023762 0.20640889 -0.23199846 0.14514345 0.2525483 -0.11450696 -0.21453284 0.0123389065
-0.14837736 -0.10375036 0.17288402 -0.06109707 -0.068296075 0.1304718 -0.19328998 0.12825066
0.09730312 0.059554935 -0.06949587 0.04053864 0.054355472 0.025885195 -0.23805681 -0.21803778
0.13472793 -0.09528606 -0.2215484 0.17634112 0.18362212 -0.009020731 0.14464524 0.23913857
-0.0068879128 -0.15783745 -0.030407429 -0.18641847 0.09527925 -0.1223315 -0.1736033 0.16829273
0.22929186 -0.18018633 0.085333884 0.06659287 0.026219219 -0.25179082 -0.17465977 0.07015705
-0.1339001 0.017189741 0.028358847 -0.00958465 0.11011115 0.19435087 -0.18107036 -0.00023397803
0.047714114 -0.10011807 0.1367541 -0.055470422 0.22894132 -0.24374023 -0.10288477 -0.07667361
-0.026402295 0.17342812 -0.098362416 0.24931607 0.114099026 -0.09326939 0.02255559 -0.14309414
0.08237907 -0.1688372 -0.19767955 -0.14510784 -0.0167052 -0.018252358 -0.1340777 -0.09816
-0.18304873 0.23880747 0.11587119 -0.014650449 -0.0825315 0.104577065 -0.23666711 0.029927343
-0.24154149 -0.24531548 0.038716972 -0.030807674 -0.0053501725 0.07696423 -0.09297973 -0.04202254
-0.22530958 -0.03598632 0.15314525 0.15018061 0.15326717 -0.018777698 -0.035355866 0.04168725
0.11413616 -0.21451317 -0.18509737 -0.19519116 -0.11849195 -0.102156654 -0.09274706 -0.033710957
-0.095818296 0.011855245 0.17323893 -0.03556353 0.20631021 0.089357555 0.17517656 0.2355231
0.18993953 0.08432084 0.012342781 0.21926257 0.09713215 0.024912715 0.1848292 0.10500628
-0.045435414 0.15514565 0.18008661 -0.24210785 -0.2109579 0.036693215 -0.10287957 -0.17638871
-0.22355002 0.06671262 -0.18543866 0.023726165 0.22264725 -0.10097495 0.16563886 0.01525867
-0.029984936 -0.14238577 0.029291272 0.017370343 0.2514495 -0.107807934 -0.06351212 0.013973117
-0.054035544 -0.17783348 0.08190298 0.14504296 0.022617638 0.06995559 0.19783369 -0.01961951
-0.08868612 -0.24501409 0.21034929 -0.14060126 -0.068583906 -0.002270341 0.21385631 -0.16112268
0.21558443 -0.23304811 -0.12017736 0.07437158 0.08184698 -0.20530987 -0.024868399 -0.16649118
0.052277327 -0.2172847 -0.14549741 0.111971974 -0.10787335 -0.119625 -0.17715967 0.16723946

neighborLayer.W f4 [6, 32]
00000000: e917 853e ba9a 03be fbd3 c1be b847 0dbd
00000010: 5fec 95be 76b5 a0be f160 bf3e a784 913e
00000020: ee30 5d3e b4c3 91be 11f1 34be 878f bdbe
00000030: 3667 733e 5013 97bc 06ae 25be 5619 01be
00000040: 4045 b83c 5a26 453e ca77 043e e02e 44bc
00000050: 44ad 873d d0b2 a63d e8a8 9abe 14f0 9bbe
00000060: 8017 92be 77ef 6ebe dcd4 bebd b44b 32be
00000070: 7847 6d3d 3562 b23e ae11 c5be 3e5e 83be
00000080: 3a3c 003e 6609 443e 1e0d 27be f855 4dbe
00000090: b3aa bdbe c097 ee3b 5d31 9cbe 40a1 3ebd
000000a0: 8769 b53e b63c c3be 2686 613e 556d aa3e
000000b0: 631b ae3e 51a4 30be 4802 5fbe 80a4 b4bc
000000c0: 9678 6e3e ce46 68be 44dd e53d f2cd 393e
000000d0: c3bd 9c3e d0d5 4ebd f8ea 66bd 7659 453e
000000e0: b530 c33e 3c53 c2be bc69 f33d b8ff 253d
000000f0: c1b3 c43e 00b5 e2ba 7144 b5be 2803 353d
00000100: b0a4 e6bc 35c1 c33e 0699 173e 1ce0 69be
00000110: 133f 893e b0b2 82bc 58db 7bbd e01f b53c
00000120: 16fc 1fbe 7d47 a73e c198 9abe e8a9 9c3d
00000130: 1008 cd3d 13d0 bc3e 60f6 03bd f719 8cbe
00000140: 70a3 3abd 027c 563e c21b bbbe fc32 ea3d
00000150: 68ad 89bd 94ec f43d ea66 0c3e de84 2d3e
00000160: 792c a13e 802d b3bc 9008 373d 4022 a53b
00000170: a28b 583e 78b7 22bd b803 10bd 8550 32be
00000180: 6eca 4b3e d99b 23be 2e7c 9abe e276 52be
00000190: ae20 a9be 0abe 233e d622 cbbe 4fe2 20be
000001a0: 100b 943c 3c0d e63d c834 93bd 3036 8d3c
000001b0: ab73 a0be 7a47 1fbe b2f8 90be f862 5fbd
000001c0: 9e2a 13be 34d0 d1bd 5e4c 38be 4003 58bd
000001d0: efbd 22be c676 b0be 84d0 14be cb52 9abe
000001e0: 699a a73e 1125 8f3e f6b4 173e c035 4abd
000001f0: 8655 453e a2e4 013e 8aa1 67be 249b afbe
00000200: a0be ce3c 9e44 4d3e ceb8 103e 443f 8e3d
00000210: 604b f43c db18 833e 9652 5b3e 0054 4e3c
00000220: dc15 fb3d 39f3 42be 1e27 1c3e 6858 a5be
00000230: 49a4 893e b005 973d 020e 2bbe 7bbd a2be
00000240: 654a b13e 5380 b7be 24c9 e53d 572c 833e
00000250: 5fe1 ba3e 02ac a9be 4629 713e b415 c6be
00000260: 8c3e d13d 8f79 963e e43a ff3d 950a 97be
00000270: 04d3 1bbe 5892 333d 2bb2 91be d2fd 3dbe
00000280: 00b2 5c3d f6ce 1c3e a269 103e cf16 913e
00000290: eb98 79be 0d98 babe 6f33 c8be 6471 bdbe
000002a0: c03f 69be b12f af3e 00b7 2e3c 40b6 de3c
000002b0: 3fb7 b6be 0425 b2bd a570 8e3e f915 c23e
000002c0: a2bb 00be 07e9 5abe 483e cabe 48cf 14bd
000002d0: 78a8 533d 4015 e73b 785a 24be c4c6 8ebe
000002e0: 0d53 9f3e bc71 cbbd 3623 7a3e 3809 b8be
000002f0: 9102 2ebe f08a a2be 08ca 6b3d 801b 18bc
0.25994805 -0.12851992 -0.3785704 -0.034492224 -0.292819 -0.31388444 0.37378648 0.28421518
0.21600696 -0.28469622 -0.17670085 -0.37023565 0.2376984 -0.018441826 -0.16179666 -0.12607321
0.022493958 0.19252911 0.12936321 -0.0119740665 0.06624845 0.081395745 -0.3020699 -0.30456603
-0.28533554 -0.23333536 -0.093179435 -0.17411691 0.057929486 0.3484055 -0.3849005 -0.2565784
0.12522975 0.1914421 -0.16313598 -0.20052326 -0.37044296 0.0072812736 -0.3050641 -0.0465405
0.35432073 -0.38132256 0.2202383 0.3328654 0.3400527 -0.17250182 -0.21778214 -0.022051096
0.23288187 -0.2268326 0.11223844 0.18144968 0.30613527 -0.050496876 -0.056376427 0.19272408
0.38123098 -0.37954128 0.118854016 0.040527076 0.3841839 -0.0017296374 -0.3540378 0.044192463
-0.028154701 0.38233343 0.14804468 -0.22839397 0.26805934 -0.015954345 -0.06148848 0.022109926
-0.15623507 0.3267173 -0.30194667 0.076495945 0.100113034 0.36877498 -0.032217383 -0.2736356
-0.045566022 0.20945743 -0.36544615 0.11435506 -0.06722528 0.11959186 0.13711134 0.16945216
0.31479242 -0.021872282 0.0446859 0.0050394833 0.21147016 -0.03972575 -0.035159796 -0.17413528
0.1990144 -0.1597742 -0.30172867 -0.20553163 -0.33032745 0.15990463 -0.39675015 -0.1571133
0.018071681 0.11232993 -0.071878016 0.017237753 -0.31338248 -0.1555461 -0.2831474 -0.054537743
-0.14371726 -0.1024479 -0.17997882 -0.052737474 -0.15892766 -0.34465617 -0.14532667 -0.3014129
0.32734993 0.27957967 0.14815125 -0.049367666 0.19270906 0.12684873 -0.22620216 -0.3429805
0.025237381 0.20045707 0.14132997 0.06945661 0.029821098 0.256049 0.21418223 0.012593269
0.12260029 -0.19038095 0.15249297 -0.3229401 0.26883152 0.07374132 -0.16704562 -0.31785187
0.3462707 -0.3584009 0.11220005 0.25619766 0.3650007 -0.33139044 0.23550901 -0.38688433
0.10217008 0.29389617 0.12462404 -0.2950026 -0.15217215 0.043840736 -0.28456244 -0.18553856
0.05388069 0.15313324 0.14102796 0.28337714 -0.2437474 -0.3644413 -0.3910174 -0.37000573
-0.22778225 0.34216073 0.010663748 0.027186513 -0.3568668 -0.086984664 0.27820316 0.3790739
-0.12571576 -0.21377955 -0.39500642 -0.03633049 0.051674336 0.0070520937 -0.16050136 -0.2788602
0.3111805 -0.099338025 0.24427494 -0.35944533 -0.16993167 -0.31746626 0.05756572 -0.0092839

neighborLayer.a f4 [64, 1]
00000000: 88c4 013d 20ac 753e 4039 1b3e c01f 3c3d
00000010: b00d d13c a04d 773e 16c3 bebd 00df ae3c
00000020: 9242 48be 4ed9 3b3e c0f8 963e f6d6 cabd
00000030: 9b06 94be 8886 31bd 624f f1bd 60af 423c
00000040: fc85 903e ba08 3fbe 784d 77bd 2841 3e3d
00000050: 48fd 2dbe 1e35 5ebe cc94 8dbe dc44 773e
00000060: 4979 3cbe 56e1 54be e8dd 17bd 207f f23c
00000070: 50aa 183d 2862 d5bd 13ff 80be a818 753d
00000080: c0a0 33bd 163c ebbd 98bb ff3d ae5c 0e3e
00000090: 0baf 9abe 2001 843e 147a 66bd 7816 0bbd
000000a0: 6e3f b2bd 9cac 43be 7a2f 88bd d67a 053e
000000b0: 606b 443e 3464 60bd f8b7 25bd 900e 4a3e
000000c0: c448 5a3e b285 263e f0fc e9bd 587a 9b3d
000000d0: 4cf1 2e3e f6b3 b8bd 7433 383e c00b 61bc
000000e0: a047 4ebc 53a5 7fbe daff 87be fdc3 75be
000000f0: d89e dcbd ac8a ae3d 2c2b fdbd 5bf5 22be
0.031681567 0.23991442 0.15158558 0.045928717 0.025519222 0.24150705 -0.093145534 0.021346569
-0.19556645 0.18344614 0.29486656 -0.09904282 -0.2891129 -0.04334119 -0.11782719 0.011882633
0.28227222 -0.18655673 -0.060376614 0.046448857 -0.1699115 -0.2169995 -0.27652586 0.24147362
-0.18405642 -0.20789084 -0.03707686 0.029601634 0.037271798 -0.104191124 -0.25194606 0.059837967
-0.043854475 -0.1148607 0.124869525 0.13902542 -0.30211672 0.25782108 -0.056268767 -0.033956975
-0.087035045 -0.19108814 -0.066496804 0.1303514 0.19181585 -0.05478306 -0.04045865 0.19732118
0.2131682 0.16261938 -0.11425197 0.075916946 0.17084235 -0.090187 0.17988378 -0.013735712
-0.012590319 -0.2496541 -0.26562387 -0.24000545 -0.107724845 0.08522543 -0.1236175 -0.15913908
