test/model/actor_3_2_2_2_91_best_rou1.pth (torch, 689330 bytes, 17 tensors)

v2lLayer.W f4 [3, 40]
00000000: 3bdd 25be 62bd 14be 6ca4 ab3e a31d 9e3e
00000010: 0a7f dbbd be28 7dbe eecf 533e 4704 1f3e
00000020: d4f7 b2be eb4a 08bc 6c1c 933e ff21 9c3e
00000030: b9d0 9f3e d943 b1be 0143 4f3e cc10 16be
00000040: 5005 883e 4a9f acbc 4a22 20be 1101 e5bd
00000050: 8873 32bc 33de 453e 7be1 b23e de9e 2c3d
00000060: dea4 d03d d38c b1be 9c04 923e cb1b 9cbe
00000070: 7366 a13e 7c92 133e c87c 87bd 9ad4 ee3e
00000080: 324a 273d 3eda 9fbe a8be 333e e9bc 8cbe
00000090: 93e5 3e3d d935 23be 730f bd3e 2160 7cbd
000000a0: b7de e03d 3cbe 3b3d d11c c7be 6192 3cbd
000000b0: 8eaf 0fbe f88e bc3e ef61 34be e0d4 dcbd
000000c0: 2d3a 533d acba ad3e fb1c 963e 09ec 873b
000000d0: 857d 94be 28fd 803e 0579 54bd 7a1e ffbd
000000e0: d7a6 42be 4e58 c43e 4f60 e83e c5ed 09be
000000f0: 2336 0cbe 637d 42be a2e5 acbd d0c2 aabe
00000100: 49e7 a23e 6af7 313d 725b 72be 5933 983e
00000110: 2f41 1abe 074f 3d3e f935 9abe 0077 a4be
00000120: d1c2 f1bc 5a8f e8bd 0dc7 613e a8de 8d3e
00000130: 83af 0abe d1a9 843e 437a ed3e b44b 063e
00000140: ca4d 7d3e 48bb b8bd 1186 64be f61a 3abe
00000150: 85df 713e 9d1a c13e 69b5 8b3e 7605 51bd
00000160: 710c 99bd 818b 5cbe a1b4 df3d dc10 a03e
00000170: 2cb4 9b3d 12f9 4ebe 3adb 423e a6ba 863e
00000180: b7f3 423d d1c6 9f3e 2171 f13b f512 933e
00000190: 5beb 0b3c 1c6b 393d ada1 ea3d e9c3 bbbe
000001a0: 4307 dbbd c356 a73d 54e6 343d f3b3 aa3d
000001b0: 229f 40be 38b7 d43e c3a8 92be 44dc a5be
000001c0: 78bf 8bbe dcd9 5e3e a639 31be 805f 303e
000001d0: f0d7 c0be 420d b63e a0e1 653e c594 9c3e
-0.16197674 -0.14525369 0.3352388 0.30881986 -0.1071759 -0.24722573 0.20684788 0.15528975
-0.34954703 -0.008318643 0.28732622 0.30494687 0.3121393 -0.34622076 0.20240404 -0.14654845
0.26566553 -0.021072049 -0.1563808 -0.11181844 -0.010891803 0.19323044 0.34937653 0.042143695
0.10187696 -0.34677753 0.28519142 -0.30489954 0.31523475 0.14411348 -0.06615597 0.46646577
0.040842243 -0.31221193 0.17553198 -0.27487877 0.046605658 -0.1593851 0.3692585 -0.061615113
0.109799795 0.04583572 -0.38889173 -0.046038035 -0.14031813 0.36827826 -0.17615484 -0.1078279
0.051569153 0.33931482 0.29318985 0.0041480106 -0.29002014 0.25193143 -0.051873226 -0.12456985
-0.19008957 0.3834862 0.45385978 -0.13469608 -0.13692527 -0.18993144 -0.084422365 -0.33351755
0.31817082 0.043448843 -0.23667696 0.29726675 -0.15063928 0.18487178 -0.30119303 -0.3212204
-0.029511841 -0.11355467 0.22048588 0.27708936 -0.13543515 0.2591081 0.4638234 0.13114816
0.24736705 -0.09020096 -0.22316767 -0.18174347 0.23620422 0.37715617 0.27286842 -0.0510306
-0.07473076 -0.21537592 0.10923124 0.31262863 0.076027244 -0.202122 0.19028941 0.26314276
0.047595706 0.31206372 0.0073682223 0.287254 0.00854 0.045268163 0.114566185 -0.36672905
-0.106947444 0.08170845 0.04416497 0.08335104 -0.18810704 0.41546035 -0.2864438 -0.32394612
-0.27294517 0.21762794 -0.17307147 0.1722393 -0.37664747 0.3555699 0.2244935 0.30582252

v2lLayer.a f4 [80, 1]
00000000: 1c2c 76be 8e85 56be a5aa 6c3e a6dc d7bd
00000010: c6ab 153e cd02 85be 749a 803e b190 ba3e
00000020: 8d80 6c3e f68b bd3d 5153 283e 871c 673e
00000030: f43c a83d 405d 013e dcef 79be b9b4 52be
00000040: b00c fc3d 0a7f 69bd c66a c6bd 5fa5 16bd
00000050: 9481 a93c 81a8 d83c 0116 e8bd cdc9 42be
00000060: 88fa dcbd a5b9 eb3d b57d f0bd a5dd cd3c
00000070: 18cc debd 3ce4 e8bc 9a4f 58be 50f4 e2bd
00000080: 822d 803e d1df babe a49a 03be 45a4 89bd
00000090: 57ef 793e f4ab 2fbe ed1c 4a3e 565b 05be
000000a0: 6249 7b3d 6dbf 09bc 7632 c23d 2a2b 053e
000000b0: 3e35 0ebe a87f 593e 0960 64bd e43e 94bd
000000c0: cab0 023c e7b1 6ebe 5072 57be d6f2 423e
000000d0: cd8b efbd d788 0abe 3c16 383e 9ed6 91bd
000000e0: 356b 543d 1583 bd3c f925 243e 8f17 d9bb
000000f0: b747 003e 8e6b 1c3e 96ff 7bbb 4fea 043c
00000100: e68c 303e 753a 80be 2a4a a83d b02d 6dbe
00000110: 2205 3b3e 347f 88bc 8a79 3cbe 85c5 063e
00000120: 205d 233e cd6f b73d 1ada b63d 4806 f93d
00000130: f13e 4f3e 8f66 9ebc 0590 93bd 7147 d73c
-0.24040264 -0.20949385 0.2311197 -0.10540132 0.14616308 -0.259787 0.25117838 0.36438516
0.23095913 0.09255211 0.16438033 0.22569476 0.08214751 0.12633228 -0.24407905 -0.20576753
0.123071074 -0.05700592 -0.09688334 -0.036778804 0.02069167 0.026447536 -0.11332322 -0.19022293
-0.107899725 0.11510018 -0.11742727 0.025130102 -0.108787715 -0.028429143 -0.21124116 -0.11081755
0.2503472 -0.36498883 -0.1285196 -0.06720785 0.24407707 -0.17155439 0.19737597 -0.13023123
0.06134928 -0.008407456 0.09482281 0.13004747 -0.13887498 0.21240103 -0.05575565 -0.07238558
0.00797672 -0.23310052 -0.210397 0.19037947 -0.11696587 -0.13528763 0.17977232 -0.07121013
0.051860053 0.023133794 0.1603011 -0.006625123 0.12527357 0.15275404 -0.0038451902 0.008112504
0.17241248 -0.250446 0.08217271 -0.2316196 0.18263677 -0.016662218 -0.18405738 0.13161285
0.15953493 0.08956871 0.08928318 0.12159401 0.20238854 -0.019336013 -0.07205204 0.026279183

laneLayer.W f4 [12, 12]
00000000: 7dfa 9e3e df62 d2be 7d38 9abe d1f6 8c3e
00000010: c290 583e ae8b b1be 17af 423e 79e9 d8be
00000020: 3c55 80be 58bd d8be 3e9c afbe 2166 833d
00000030: 13a7 63bd ff93 253d 4701 bdbe 528a 01bf
00000040: c02a 11bf c210 b7be 263e 7ebe 9956 c83e
00000050: 8117 a63d 6223 083f 3e40 0f3e 5a5d 173f
00000060: 0caa f83e f2ae d33d bc68 3dbe 02da a2be
00000070: 58a5 8abe 2731 6e3e 11be 573e 1f93 b23e
00000080: 3659 993e f211 86be 98f3 8fbe 547d b9bd
00000090: be2a df3d 9eb6 863d e4d7 7bbc 1826 d9be
000000a0: 97ab 18bf ef04 453d 7399 af3e 1bbf b2be
000000b0: a8e4 06bf 2103 083f 33a2 c139 3a77 293c
000000c0: 0e43 313e d633 53be 9d23 aa3d b9c4 9d3e
000000d0: a875 d7be 5aa8 e0be 7227 923d 9cd9 e9be
000000e0: 7c6a 8cbe a674 21bd dc9f e8be 9ef4 83bd
000000f0: 8649 3a3e 2410 663d 4ac2 173e e8a2 353e
00000100: 6ad0 5e3e d25c cdbd 8745 bcbe 10f0 703e
00000110: d537 c2be 7be0 21be 53ff 383e f090 c53e
00000120: 729f 123c 9f98 83bc 6317 973c 25c0 ef3e
00000130: 6f6e 963e c430 ffbe 17a5 5d3e a03d dd3e
00000140: 9b80 963d 7419 753e 3453 c93d e140 f83e
00000150: 1ae3 b33e 20a8 c43e 2c3e d6bd 6ab2 8a3e
00000160: 3a52 773e b91b b33e 8e40 e6bd 86eb 02bf
00000170: 301d f03e 52b5 a9be 2e85 73be 421a c4bd
00000180: b954 623e 880a 6e3d 289e c33c ce67 f03e
00000190: 5804 70be 84e7 73be e499 b03e dcdd fa3e
000001a0: dd06 cc3e 47ca abbe 5d01 3dbd 3500 9b3e
000001b0: 5f45 433d 8764 b2be 9cfd e93d ab24 a3be
000001c0: 3a47 f2be 1f19 163e ad62 26be 0984 7f3e
000001d0: 1139 ef3e 6138 173d 4b15 eebd 046a 0b3e
000001e0: 556c ea3e 8be3 3a3e 5115 b7be b02a ffbe
000001f0: 487f c33e a6e8 8abd ad58 03be 44bb 433e
00000200: be99 aebd c302 c53d 1d03 073d 93e6 8b3d
00000210: a6a9 473d 2364 f63e e490 86be cea0 b6be
00000220: 753f c2be a65d b23e 8865 2b3e 9093 e6be
00000230: a56f a83d c0bc 24be 3c41 193e 545d 6cbe
0.31050482 -0.41091058 -0.30121222 0.27532056 0.2114897 -0.3467688 0.19012104 -0.42365626
-0.2506503 -0.42331958 -0.3429889 0.06415964 -0.055579256 0.040424343 -0.36915037 -0.50601685
-0.56705856 -0.35754973 -0.24828395 0.3912857 0.08109952 0.5317899 0.1398935 0.5912682
0.48567235 0.103361025 -0.18496984 -0.31806952 -0.27079272 0.23260938 0.21068598 0.3487787
0.29950875 -0.26185566 -0.28115535 -0.090571076 0.10896824 0.065778 -0.015371297 -0.42411876
-0.59636825 0.04810041 0.3429676 -0.34911427 -0.5269265 0.53129774 0.00036932676 0.010343367
0.17310736 -0.20625243 0.08307574 0.3081415 -0.42081952 -0.43878442 0.0713643 -0.45673835
-0.2742499 -0.039417885 -0.45434463 -0.064431414 0.1819211 0.056167737 0.14820209 0.17737925
0.21759191 -0.1002747 -0.36771795 0.23529077 -0.3793322 -0.15808289 0.18066148 0.3858714
0.008949148 -0.016063986 0.018443769 0.46826282 0.2938113 -0.49841893 0.21645008 0.4321108
0.07348748 0.23935491 0.09830323 0.48487 0.35134202 0.3840952 -0.10461077 0.27089244
0.2415246 0.34982088 -0.112427816 -0.5114063 0.46897268 -0.3314615 -0.23781273 -0.09575321
0.22102632 0.058115512 0.023879126 0.46954197 -0.23439157 -0.23818785 0.3449241 0.4899739
0.39848986 -0.33552763 -0.04614388 0.30273595 0.04767358 -0.3484232 0.11425325 -0.31863913
-0.47319967 0.1465802 -0.1624858 0.24952711 0.46723226 0.036919 -0.11625155 0.1361466
0.45785776 0.18250863 -0.3575845 -0.49837255 0.38183045 -0.067826554 -0.12826796 0.19114405
-0.08525418 0.096196674 0.032961953 0.06831088 0.048745774 0.48123273 -0.26282418 -0.3566956
-0.3793904 0.34837073 0.1673795 -0.45034456 0.082244195 -0.16087627 0.14966291 -0.23082477

l2pLayer.W f4 [12, 88]
00000000: 9d6d 2e3d 1ef6 efbd 21b0 52be 1aa7 cebd
00000010: 6a74 37bd a350 22be 31d6 75be 71be babd
00000020: 6d13 cabd cd65 103c 17b5 73be 7b21 81bc
00000030: d0b2 393e 20b5 7dbe 7052 003c 4879 d63c
00000040: f825 8f3d d065 38be bc91 3cbe 66bf bf3d
00000050: 0573 703d 0e4e ca3d 5203 b43c 6fad 8e3b
00000060: 1c4d 8cbd 3c5f 7d3e adb8 99bc c9f8 4fbe
00000070: 6b70 323e b6b9 57be 35a6 263c f909 2e3e
00000080: 42d8 013c 4cfb 053d 7705 883d 9d12 8ebe
00000090: 1525 62be 5708 273b dbee 843e a7ee 023e
000000a0: de0e 193e d5d6 4c3e 3037 1c3e a780 5f3e
000000b0: 859e 703e cc37 82bd 67d4 353e 4ea5 053e
000000c0: 711a ee3c f344 34be 4688 063d adae 18be
000000d0: 1138 eabc 3df9 8cbc aabc b2bd 74c6 0bbd
000000e0: 930a 453e 3f3c d8bd dfd6 66be 4e69 03be
000000f0: 11ec 3cbe cd83 93bd 8dd1 863e 7939 523a
00000100: a735 1c3e c045 653e 106e 943e 09d8 303c
00000110: 7b5d 86bc 3173 56be 7aa2 e73d 8215 6bbb
00000120: faa9 5bbd 1451 013e 0281 ecbc 1724 4e3d
00000130: 0033 2ebe 31b4 3a3e 6c08 1a3d 69b3 2b3e
00000140: 9992 afbd e6e8 1bbe d169 59bc 3cf6 8dbd
00000150: fd2e 283e e109 833e 2e76 2d3e 3457 ac3d
00000160: 392c abbe a479 91be 5a7f 4abe 6949 5fbe
00000170: 8170 adbd 4d46 7bbe 0d7b aebe 7839 aebd
00000180: 9d0d f4bd 7c60 f6bd 9cc8 aebe 1090 493e
00000190: 8f51 9f3d 438e 9fbc ec97 933d e7a2 933e
000001a0: 2619 e3bd f11e 54be 72b1 fbbc 1cd4 823e
000001b0: 67c2 7abd 692d 31bd 35b2 13bc d029 ca3d
000001c0: 8a85 c0bd bc1e 8a3b e909 943d 8a92 debb
000001d0: c728 4abe f67d b7be 3360 123e be4e 7cbe
000001e0: 32c4 c03d 5e5f 2d3e c356 84be 9b73 50be
000001f0: 1e54 c53e eed4 a33d e1f1 8ebe d175 223e
00000200: 27f4 ca3e ad72 d73e 0302 babd e5d2 953e
00000210: 2361 a9be f0f4 92be c4ad f9bd 7982 97be
00000220: 98c1 213e 292e ff3d 75e0 823d 71fe 0ebe
00000230: 746a 6cbe 7f36 9e3d 5263 96be 4858 21bc
00000240: ac0a 143e 4e55 65be e7c7 863e 6c3f 0e3d
00000250: d92c 533b 2d24 e43d d5fb 663e 570d 513e
00000260: 743c 80bd a848 0ebd 02f9 f3bd ce6c 88bd
00000270: e6c1 86be 3478 18be 220e c2bd 6aa9 a93d
00000280: d012 793e c1bf b9be f794 83be c69a 84be
00000290: 32c8 adbe 1820 19bc 0823 0fbe 4e33 12be
000002a0: c5fc 673d 3943 0fbe debd 933e fe28 033e
000002b0: c975 9f3d ea77 163e 4b06 533e b919 5e3d
000002c0: deb8 2b3e c552 80be b503 cbbd a126 1f3d
000002d0: 3759 c2bd a7fd 9e3d 1304 8a3e 0b4e 2b3e
000002e0: 1914 5cbe 30a8 8abe 66a8 623d 1639 343e
000002f0: 0496 9b3d 8d89 28be be46 9fbd 895f 15be
00000300: d05f 143e 82d3 54bd d2ea 2a3e fb22 483e
00000310: 4154 ab3a 7796 413d fb00 dfbd 3470 0b3e
00000320: f695 843d 76eb 2f3d 3dbb 56be 5910 e1bd
00000330: 297d 803e 915d 263e 3f74 1e3e 3c49 7abd
00000340: b873 34be 77ad 5fbe c179 1c3e ca48 123e
00000350: 969d 343e 4680 65be 056b 4cbe 03cb ca3d
00000360: 92af 8cbd 1522 363e 05c8 8ebd 541b 963e
00000370: a5e6 47be 4db8 213d 45f1 3c3e d38b ee3d
00000380: a69e ffbd 181e b13c d033 f53c b735 163e
00000390: 565b f3bd 6b18 31be ea41 073e 5895 58be
000003a0: cb85 ba3d 701e 843e 2f13 4f3e f822 3ebe
000003b0: 2111 a6bd 7ddb 993c 4927 01be 43b6 823e
000003c0: 9da5 353d a5ae 8a3e 3354 623d f88d a4bd
000003d0: 2cc2 bf3d 7fbd 9dba 602b a2bc 498b 64be
000003e0: 2fd3 1e3e 19f3 4dbd 1bdf 3f3e bacd 033e
000003f0: 88a1 10be 4e8a 8cbe eac0 3fbe 63e2 9f3d
0.042585004 -0.11716865 -0.20575 -0.10090466 -0.044788755 -0.15851073 -0.24007489 -0.09118355
-0.098669864 0.008813334 -0.23799549 -0.015763035 0.18134618 -0.24776125 0.007832155 0.026180878
0.06989664 -0.18007588 -0.18414968 0.09362678 0.05870344 0.09878169 0.02197424 0.004354171
-0.06850645 0.2474336 -0.018764818 -0.20309748 0.17425697 -0.21066937 0.010171463 0.16995992
0.007925095 0.03271036 0.06641667 -0.27748576 -0.22084458 0.0025487149 0.25963482 0.12786351
0.14947078 0.20003827 0.15255427 0.2182642 0.2349797 -0.06358299 0.17756806 0.1305134
0.029065343 -0.17604427 0.032844804 -0.14910384 -0.028591188 -0.01720869 -0.08727391 -0.034124807
0.19242315 -0.10558366 -0.22542904 -0.1283314 -0.18449427 -0.072028734 0.2633175 0.00080194284
0.15254842 0.22389889 0.2899022 0.010793694 -0.016401997 -0.2094238 0.11310287 -0.0035870974
-0.0536289 0.12628585 -0.02887011 0.050327387 -0.17011642 0.182328 0.037605688 0.16767658
-0.08572883 -0.15225562 -0.0132698575 -0.06931731 0.16424175 0.25593475 0.16939613 0.0841507
-0.33432177 -0.28413117 -0.19775143 -0.21805348 -0.08468724 -0.24538536 -0.34078255 -0.08507055
-0.11916659 -0.12030122 -0.34137428 0.19683862 0.07779228 -0.019477015 0.07206711 0.28835222
-0.11088781 -0.20714928 -0.030724261 0.25552452 -0.061220553 -0.043256197 -0.009014656 0.09871256
-0.094004706 0.0042150896 0.07228453 -0.006792371 -0.19742118 -0.35838288 0.1429451 -0.24639413
0.09412421 0.16930911 -0.25847444 -0.203566 0.3854074 0.079995975 -0.27918914 0.15865256
0.39639398 0.42079678 -0.09082415 0.29262462 -0.33081922 -0.28702497 -0.12191346 -0.2959173
0.15796506 0.12459976 0.06390468 -0.13964249 -0.23087484 0.07725238 -0.2937265 -0.009847708
0.14457196 -0.22395822 0.26324388 0.034728453 0.0032222776 0.111397125 0.22557004 0.20415245
-0.062615305 -0.03473726 -0.11912729 -0.06661378 -0.26319808 -0.14889604 -0.09475352 0.08284266
0.24323583 -0.3627911 -0.2569959 -0.25899333 -0.339418 -0.009346031 -0.13978207 -0.14277384
0.056637544 -0.13990487 0.28855795 0.12808606 0.077861376 0.14694181 0.2060787 0.05422375
0.1676974 -0.25063148 -0.099128164 0.0388552 -0.09489673 0.07763224 0.26956233 0.1672899
-0.21492042 -0.27081442 0.05533638 0.17599902 0.075969726 -0.16458721 -0.07777165 -0.14587225
0.14489675 -0.051959522 0.1669114 0.19544594 0.0013071374 0.047262635 -0.10888859 0.13617021
0.06473915 0.042949162 -0.20969863 -0.10989446 0.2509549 0.1624663 0.15474032 -0.061104998
-0.17622268 -0.21843515 0.1528082 0.1428558 0.1763824 -0.22412214 -0.199627 0.09902003
-0.06869425 0.17786439 -0.069717444 0.29317725 -0.19521578 0.039482404 0.18451412 0.11647763
-0.12481432 0.021620795 0.029931933 0.14668928 -0.11882655 -0.17294471 0.13208738 -0.2115072
0.0910755 0.25804472 0.20222162 -0.18568027 -0.08108736 0.018781418 -0.12612642 0.2552968
0.044347394 0.27086368 0.05525608 -0.08034891 0.09363207 -0.0012034624 -0.019796073 -0.22318758
0.15510248 -0.050280664 0.18737452 0.12871447 -0.1412412 -0.27449268 -0.18725935 0.07806852

l2pLayer.a f4 [176, 1]
00000000: ea1e b13c 71c3 d0bd 5750 5dbe 302b d33d
00000010: 9ec2 b93d 2f8f 5fbe 7b01 7cbd fc98 92bd
00000020: dcd9 a8bd f5fb 373d ea11 853b a01a e2bc
00000030: b125 bcbb 40cf 38be 28c1 4b3e c10d 043e
00000040: 339e 9f3d 3537 c5bd 3d95 c1bd 5ca1 abbd
00000050: 580f 75bd 1a29 1cbe 9baa eabd 5b04 9dbd
00000060: a401 29be 2b45 5a3d 6eca d53d eb48 8fbc
00000070: 479e 6d3d f192 073e e1a9 9a3d c048 d83c
00000080: ddff 60be 7928 5c3d dba8 153d 4b1e f7bd
00000090: 6d7e e13d 8d57 dfbd fe02 67bd 2009 83bd
000000a0: 1f2d 1f3d 5371 2f3d 065e 9ebd a273 543d
000000b0: 8478 a6bc cb21 243c 0966 53bd acfc 5bbe
000000c0: af62 77bd 2641 69bd d313 593e c714 15be
000000d0: af3b 383e 52d5 433e 22f8 083d 676f 0e3e
000000e0: 399d 6bbd 3916 1fbe f467 033e 6834 5a3e
000000f0: b404 47be 540d 303b e768 7b3c cfe3 4cbd
00000100: f93a 36be d67a a0bd d787 323e fe59 5ebe
00000110: 9a2c 2ebe 5bd1 c43d f0ef f1bc 821e 9a3c
00000120: 5765 42bd cd72 0f3d 2ee8 29bd 8a37 453d
00000130: 3820 c6bd fbbf a13d 46ea 743d ad67 d63c
00000140: 3de8 00be e073 003e 17ba e0bd a5a8 b93d
00000150: a95a 833a ea12 e4bc 01f5 d63d 7190 1cbe
00000160: 398b 9e3d 46ce b9bd f70a f7bd 2fdc 0ebd
00000170: 2a58 9ebd 5bef 34be d604 76be c16c acbb
00000180: 970a 4abe f3f7 303e d5c1 f9bd 0052 783d
00000190: bf81 29bd 9b02 44bd a319 2cbd 6490 673e
000001a0: 652d 183d d860 5abe 43f4 083e 4061 18bc
000001b0: ce6c dbbd 4232 06be 23bd 7abd 566c 0a3e
000001c0: e4af 4abd 8a69 64bd 82ad 98bd 8c04 e53a
000001d0: d48d b3bd 7080 acbc cb75 0f3e e4c1 88be
000001e0: 83a0 e63c 31a6 febd 7b79 18be c27a 98bd
000001f0: b5a7 923e 61d0 323e 397b 72be 3430 8b3e
00000200: 0e3f d23d 5a21 4c3e 026a 1fbe 5ac1 c13d
00000210: cac9 e2bc 3d3c 76bd fded 11be a573 c4bd
00000220: 8825 a43d 4873 083d 0c2a 49bd 1948 27be
00000230: 205d 15be ea3a a7bd cbb9 46bd ccce 713d
00000240: 1de8 3ebd b514 efbd eaf2 553e 4512 9e3c
00000250: dd5c d63d 07bd af3d 5164 2f3e 9328 8a3e
00000260: 07b1 803c 0b8c fb3c a2cf dbbd f973 04be
00000270: 2e4f 8ebe d738 6ebe ed14 db3d 7bc3 fabd
00000280: 22b6 103e 8597 44be 6cf7 00be f4ee 07be
00000290: b022 ffbd 8bd5 75be bd88 cfbd fd5d 233e
000002a0: e2cd 9d3d 30d1 dcbd 11c4 973d 768c 54bd
000002b0: 246e 833c 5bb0 dfbd 4a9f b53d 540a 723e
0.021621186 -0.101935275 -0.21612678 0.10310972 0.090703234 -0.21831964 -0.06152485 -0.07158086
-0.082446784 0.04491802 0.0040609734 -0.027600586 -0.005741798 -0.1804781 0.19897902 0.12895872
0.07793846 -0.096296705 -0.09452293 -0.08380386 -0.059829086 -0.15250054 -0.11458322 -0.07666846
-0.16504532 0.05328862 0.10439001 -0.017490825 0.058012273 0.13239647 0.07551933 0.026401877
-0.21972604 0.053749535 0.036537986 -0.12066325 0.11010442 -0.10905371 -0.056399338 -0.06398225
0.03886139 0.042832684 -0.07732777 0.05186809 -0.020321138 0.0100178225 -0.05161098 -0.21483105
-0.060396846 -0.056946896 0.21198969 -0.14558707 0.17991517 0.19124344 0.033439763 0.13909684
-0.057522986 -0.15535821 0.12832624 0.21309054 -0.19435388 0.0026863413 0.015344835 -0.050021943
-0.17795934 -0.07835929 0.17434631 -0.21714017 -0.17009202 0.09610244 -0.029533356 0.018813375
-0.047459926 0.035021592 -0.04148119 0.04814867 -0.09674114 0.078979455 0.059793733 0.026172483
-0.12588592 0.12544203 -0.10972994 0.090653695 0.0010021526 -0.02784105 0.104959495 -0.15289475
0.07741398 -0.09072547 -0.12062638 -0.034877952 -0.0773166 -0.17669432 -0.24025282 -0.005261988
-0.19730602 0.17282085 -0.12195174 0.060625076 -0.0413835 -0.047854047 -0.042016637 0.22613674
0.037152667 -0.21326005 0.13374428 -0.00930053 -0.10714112 -0.1310511 -0.06121553 0.1351789
-0.04948415 -0.055764712 -0.07454969 0.0017472669 -0.08767286 -0.021057338 0.14009778 -0.26710427
0.02815271 -0.12434042 -0.14890091 -0.07445289 0.28643575 0.17462303 -0.23679818 0.27185214
0.10265933 0.19934598 -0.15567783 0.09460707 -0.027684111 -0.06011604 -0.14250942 -0.0959237
0.08014971 0.033313066 -0.049112365 -0.16336097 -0.14586306 -0.08165534 -0.04851703 0.059035107
-0.04660808 -0.116738714 0.20893446 0.019295821 0.10466931 0.08580976 0.17128111 0.2698408
0.015709413 0.030706426 -0.10732962 -0.12934865 -0.27794784 -0.2326387 0.10697351 -0.12244316
0.14131978 -0.19198425 -0.12594384 -0.13274747 -0.12457788 -0.24007241 -0.10133503 0.15953822
0.07705285 -0.10782087 0.074104436 -0.051891766 0.01604373 -0.10922309 0.088682726 0.23636752

phaseLayer.W f4 [24, 26]
00000000: f6c4 85be 5814 423e 9afc 26be 80a6 1a3b
00000010: af36 41bd 4d8b 9b3d f673 233d 2994 0ebe
00000020: 1bb9 513e d508 c33d 5dd2 25bd 0134 f53d
00000030: a746 873e 4969 1c3d 36f4 4f3e 56b1 093e
00000040: fa00 8dbd 4b8f b23e 93a6 1a3e 29e5 9dbe
00000050: 2b36 aebe f2d7 fd3d 44e7 95be f2d4 923d
00000060: 5a19 0ebe ad26 813e 0296 d93e 0979 5e3c
00000070: 3c81 11be 7de0 7dbe 91bb e13d aaef 36be
00000080: fc21 aa3e 5318 8bbd dd53 c43e 5dd2 ffbd
00000090: 0e7e 1ebd 373f 693e e22c 35be fc23 673d
000000a0: 68a5 63bd 156f eebc f01f 26be b216 f83d
000000b0: f805 91be 6a00 87be d3ad b1be cd4d 56be
000000c0: cdde 61be 4397 103e 91cf 823e cda2 9fbe
000000d0: 4ae5 803d 1079 0a3e 5329 4f3e 5282 093e
000000e0: c99e 79be a2cd 9abc a8ae 303e ffe7 bc3e
000000f0: 4270 2ebe 0b7b 793d cb50 49be 6333 6c3e
00000100: 5997 0dbe 6871 92bd 1070 52be 29b6 afbe
00000110: dfe1 8bbe 7d15 acbd 8323 d53d b02b b03b
00000120: 9b10 47bd 1ef2 74be 1411 043e 28d4 b6be
00000130: 4765 adbd 31a9 a5bd 6427 97be 3abb 813e
00000140: 2765 56be b23e 093e bb7e bdbe 7ca6 74bd
00000150: 5fba 7abe 0d3c 87bd 67ea a93d a270 313d
00000160: 6553 743e 515a 4cbe 2708 b03e 8e40 c8bc
00000170: 7a5d b2be b309 9abe 7c9f b43e 5b17 a53e
00000180: d7b5 a1be 2504 84bd 0fdc 83be b654 f7bc
00000190: 3cfa 1c3e 47d5 28be 736a 0d3e 9b63 e23d
000001a0: adbe 1dbe ed89 003e a649 763d c0fe d13d
000001b0: 0486 c2be d83c 95be e82c 843e 20a2 96be
000001c0: 7007 47bd bf4c b4be c9d4 89be eb92 2c3e
000001d0: 6292 5b3e 5c19 b63e 326d 303e ca1a aabc
000001e0: 3788 1b3e 8b31 cf3c 9d22 833e ca5f 91be
000001f0: 6816 20be 0018 3fbd 0ddf 7dbd 2a86 afbe
00000200: 5979 4fbe 7fa1 5abe b5ef bc3d 40ab a6be
00000210: 90ef 8a3d 6c94 74be 34bb 8abe 2764 06be
00000220: 5fab 9abe 0789 2c3e fb9d a3bc 7b62 e3bc
00000230: 5db8 0d3e 54e3 68be 4cf3 bebc 918f 91be
00000240: ba3f 91bd cf49 a63d c677 a3be 1c66 dbbd
00000250: b988 fb3d 59c2 af3e 1dd6 3dbe 424e 363e
00000260: 1148 c23c 0910 8d3e c7d8 843d 72ea 953e
00000270: 1af6 763e 7fd4 4fbd bb43 4a3e 7a69 a03e
00000280: e1a5 e73c b641 993d eddd e6bd db3f adbe
00000290: 3245 4d3e fa31 3b3e 8759 753e 5061 88be
000002a0: ca1d cb3d e798 9cbe d852 9bbe 208c 22bd
000002b0: edaf d93c 508e ffbd 72f2 873d dea4 6e3e
000002c0: 6868 173d a172 a43e bd80 aabe 84ca 8bbd
000002d0: 7086 7abe 10e1 2b3e a738 86be 6ce7 9e3e
000002e0: 49a5 4a3e 9067 f33d 7873 dbbe d62d b0be
000002f0: ea1e f8bd 93b2 98be 55f1 96bd cb13 4fbe
00000300: 033e fdbd bbd2 953d 2ce8 793e c093 0abe
00000310: c864 8ebe 502b d6bc 8cc6 aabe c924 663e
00000320: 289f 9d3e 2376 da3d 6aae 9abe cb1b 123e
00000330: ddd5 243e 4f8f a13e a57c 3d3e 73af 03be
00000340: 5f3b 27be 68fe ae3e 8005 89be f402 893d
00000350: 2602 07bd 75fc bdbd 199e 743e 90c8 15bd
00000360: 0372 c1bd f08e 8abe e7f1 39be 0cd5 7f3e
00000370: b62a 4ebe b0b9 b93e 234d 5ebd e0fd 96be
00000380: 58c1 9c3d 008b 4c3e ffd2 873e ed01 5fbe
00000390: 0659 7cbe e95b 393e 1d5d 733e 60ec 903e
000003a0: f1f7 7dbe 13ca 50be 46fe bb3e f1e7 af3d
000003b0: 6b3d 7f3e 5020 ae3c 4770 acbd e241 b8be
000003c0: d6a3 553e 01ca 3abe 73c2 96bd 0c7b 5b3e
000003d0: 0941 1cbe 2a1d acbd 7a5e e8ba 9ba1 83be
000003e0: 5fd3 c7be 40f4 033e bbac 87be b917 a33d
000003f0: 68ef 81bd d3c3 573e 911b 00bd e928 d3bd
-0.26126832 0.18953073 -0.16307297 0.0023597777 -0.04717129 0.07594929 0.03990551 -0.13923706
0.20480768 0.09523169 -0.04048382 0.119728096 0.2642109 0.038186345 0.20308003 0.13446555
-0.06884952 0.3487495 0.15102606 -0.30838898 -0.34025702 0.12394704 -0.29278004 0.07169522
-0.13876858 0.2522482 0.4249726 0.013578662 -0.14209455 -0.24792667 0.110221036 -0.17864862
0.33229053 -0.06791749 0.38345233 -0.124912955 -0.038694434 0.22778021 -0.17692903 0.0564308
-0.055577666 -0.029105702 -0.1622312 0.12113704 -0.28324866 -0.26367503 -0.3470293 -0.20928116
-0.22057648 0.14120202 0.25548986 -0.31178895 0.062937334 0.13522744 0.20230608 0.1342862
-0.24376978 -0.018896881 0.17254126 0.3689575 -0.1703501 0.06090836 -0.19659726 0.23066477
-0.13827266 -0.07150537 -0.20550561 -0.34318665 -0.27320763 -0.08402536 0.10407164 0.0053763017
-0.04859982 -0.23920485 0.1289714 -0.35708737 -0.08466583 -0.08088911 -0.2952224 0.25338155
-0.20937024 0.13402823 -0.3701075 -0.059729084 -0.24485157 -0.06603251 0.08296662 0.043320306
0.23859937 -0.19956328 0.3438122 -0.024444845 -0.34836942 -0.30085525 0.35277927 0.3224438
-0.31584045 -0.06446103 -0.2575383 -0.03019176 0.15329832 -0.16487609 0.13810138 0.110541545
-0.15404768 0.12552615 0.06012883 0.10253668 -0.3799287 -0.29147983 0.2581551 -0.29420567
-0.048591077 -0.35214803 -0.26920155 0.1685292 0.2144256 0.35566223 0.17229155 -0.020764727
0.1518868 0.025292179 0.25612345 -0.28393394 -0.15633547 -0.046653748 -0.061980296 -0.34282047
-0.20261134 -0.21350668 0.09225408 -0.32552528 0.06783974 -0.23884743 -0.2709595 -0.13124143
-0.3020887 0.16849147 -0.019972792 -0.02775692 0.1383986 -0.22742969 -0.023309372 -0.28429845
-0.07092233 0.081195466 -0.31927317 -0.10712835 0.12281937 0.34327963 -0.18538709 0.1780329
0.023716005 0.27551296 0.064866595 0.2928043 0.24117318 -0.05073976 0.197524 0.31330472
0.02827734 0.074832365 -0.11272798 -0.3383778 0.20045927 0.18280783 0.23959933 -0.26636744
0.09917791 -0.30585405 -0.30336642 -0.039684415 0.026573146 -0.12478316 0.0663804 0.2330508
0.036964804 0.32118705 -0.33301345 -0.06825736 -0.24465346 0.16785073 -0.26215097 0.31035936
0.19789614 0.11884987 -0.42861533 -0.3440997 -0.121152714 -0.2982374 -0.07370249 -0.20222394
-0.123653434 0.07315584 0.24404973 -0.13532925 -0.27811265 -0.0261437 -0.33354604 0.2247497
0.3078549 0.10667064 -0.30211192 0.14268415 0.16097207 0.31554648 0.1850458 -0.12859897
-0.16331242 0.34178472 -0.2676201 0.066900164 -0.032961033 -0.09276668 0.23888434 -0.036568224
-0.09445574 -0.27062178 -0.18158685 0.24983615 -0.2013348 0.3627448 -0.054272782 -0.29490566
0.07654065 0.199749 0.26528165 -0.21778078 -0.24643335 0.18101467 0.23765989 0.2830534
-0.24801613 -0.20389585 0.36717433 0.08589161 0.24925773 0.021255642 -0.08419853 -0.35987765
0.2086328 -0.18241121 -0.07361307 0.21433657 -0.15259184 -0.08404 -0.0017728352 -0.25709233
-0.3902845 0.12886143 -0.2649897 0.07963509 -0.06344491 0.21070795 -0.03127629 -0.10310537

p2iLayer.W f4 [24, 176]
00000000: 78f0 bb3d 52df 45be 1c30 13bd 4c54 033e
00000010: 9c3e 14be ada2 f0bc 9865 513d 64d5 993d
00000020: 1890 eb3b c492 47bd 5ed7 b1bd 09f2 6dbc
00000030: a50a b6bd a05b cbbd 2128 6f3d afaa 2dbe
00000040: 14a7 edbd a98f 583e a172 fbbd e167 c93c
00000050: 11de 3a3e 3296 41be 8257 933d c526 4abe
00000060: b310 01ba 5b22 abbd 2ecb 6cbc 9e92 afbd
00000070: 2c7f edbd 2a3b 0cbe 99b1 fdbd ea87 a23c
00000080: 8c11 973c 869f 153e 1fcd 11be e825 b23c
00000090: 530b 7bbd 7084 9f3d 2827 c0bd 8701 bebd
000000a0: 69a9 7b3d 1dbe ef3c da22 8bbc f62c 11bd
000000b0: 51c6 713d f838 90bd 2e51 923d 9533 74bd
000000c0: a33b 063e 11c2 e33b 4323 173d 4a28 fd3d
000000d0: 561b 393d 8ef8 163d 90af 243c c105 3ebe
000000e0: f981 823d a070 8fbd 1d0b 42bc 41a2 01be
000000f0: 9528 2fbe 0aa3 503e 89d5 80bd 8332 f13b
00000100: 8486 8d3d b4a7 0a3e 0869 453d d2bd 5a3d
00000110: 11fa d3bc 8846 f1bd 6def 9f3d 790f 91bd
00000120: 84fe d4bd e145 043e 3eb8 acbd 6467 c53d
00000130: ffba 02be 9dcf 883d 4059 a23d cd7e 4abd
00000140: 1525 633b fb8c f2bd f3d7 1c3e f4a4 42bd
00000150: e9e2 773d d8e9 61bc b008 2b3e 7846 85bd
00000160: 0abb 77bd a9bb 143e 403c 2f3c 27bf 5cbe
00000170: f54c e23d a682 b4bc e0b8 bb3d 9983 9dbd
00000180: 824f e3bd c9be c1bd 0da9 ed3c afe6 bdbd
00000190: ef79 d0bd 7c34 e83d fc30 3fbe 48b1 d03d
000001a0: af6b e53d 7155 92bc 116b 433d 5a0c c33d
000001b0: d356 203e 611c 2abe 7701 573d 2901 e9bd
000001c0: 87e7 233e 4227 e73d 82d7 77bc 88bb ba3d
000001d0: b0d8 043e 7d4b 283e 542b 183e d9cb 2bbe
000001e0: fe77 17be 5940 c43d fd66 82bd 1c6b a13c
000001f0: 7456 c5bd 5a86 25be 92c8 8dbd 7489 403e
00000200: e6d0 7cbd 98c6 36be a6c5 e9bd d723 463c
00000210: 60ee b33d 65e2 183d c811 823d dbd4 8ebc
00000220: d39b 1fbd e1c4 273e b71d 81bd 5914 01be
00000230: 7c99 403e 76dd 073d 4814 c13d 7fb0 47bc
00000240: 4ec6 05be bf9f 7d3d 5638 afbc 0f27 6fbd
00000250: 7447 1cbe b529 013d 931d 3abe e0be 1f3e
00000260: ba12 193e 2ba3 3dbe 4455 1d3d 2dc9 ef3c
00000270: 8668 553e 02bb d63d fa66 89bd ca66 b83c
00000280: dc6b 3abe 69df 243e 65bd 1c3e f2a2 7f3d
00000290: ce5e 2fbe e24c 6fbd c07e 9bba ebde 86bd
000002a0: 9241 353e 2526 57bc fa41 033e c4bf dc3c
000002b0: 3c18 ccbd 84d9 02be 8b46 aebc e1f6 0a3d
000002c0: 4f3d 09bd c407 18be e49b 613d be86 f9bd
000002d0: 58de 9fbc b521 8a3d bd4a d6bd 4a8f 893d
000002e0: 5e37 bfbd 23bb 8fbc a972 00be 3047 80bd
000002f0: c1dd 9ebd f91d 013e 553b 1cbe bca5 4dbe
00000300: 7c59 05bd 9b42 513e 2783 4dbe 7b92 86bd
00000310: 375a ebbd 6dc6 013e b33a 90bb 6096 b53c
00000320: fe08 f63d f618 3ebe 8546 19bd bb93 683e
00000330: 9605 d43c 0179 2abe 27a6 233d 1706 f73c
00000340: 55e9 99bd dc41 343e 9fc7 41be fa55 db3d
00000350: f49f ebbd a832 d53c ebd0 013d 7b46 f93d
00000360: 545d 5e3e 5b17 afbd d577 cc3d b03d b8bd
00000370: b3b9 35be e804 28bd 8650 543d 42fb 873d
00000380: 58d4 bbbd 0dd3 a4bd 4965 053e 235e 53bd
00000390: 2451 c5bd ee3c 653e fab2 bfbd 2e49 4f3e
000003a0: 3836 7fbd ab6c 21be d687 16bd f8e4 34be
000003b0: bb82 eebd 321b 173e 088c 28be c9f5 f23d
000003c0: 7cf3 81bd 7d0a d9bd 9c7c 81be e11a 48be
000003d0: bd2b 133e 6eb4 5cbe a73e 1d3d e818 853e
000003e0: 43de e7bd d406 023e e89f bc3d 8974 57be
000003f0: 9e9f c2bd 953e 0bbe c5bd 5dbe f4b4 213e
0.09176725 -0.19323471 -0.035934553 0.12825125 -0.14477009 -0.029374445 0.051122278 0.07511404
0.007188808 -0.04872395 -0.08683656 -0.014523038 -0.08888749 -0.099295855 0.05838788 -0.16959642
-0.11604133 0.21148552 -0.12277723 0.024585666 0.18248774 -0.18904951 0.07194425 -0.19741352
-0.0004923448 -0.08356162 -0.014452739 -0.08572887 -0.11596522 -0.13694444 -0.1238739 0.0198402
0.018440984 0.14611635 -0.14238404 0.02174659 -0.061290096 0.07788932 -0.093824685 -0.09277635
0.06144086 0.029265458 -0.016984392 -0.03544327 0.05902702 -0.07042116 0.0714439 -0.059619505
0.13108687 0.0069506248 0.036898863 0.123612 0.045192085 0.036858134 0.010051623 -0.18556882
0.063724466 -0.070039034 -0.01184347 -0.12659551 -0.17105325 0.20374694 -0.062907286 0.007360758
0.069104224 0.13540536 0.04819587 0.053403683 -0.025876077 -0.11781031 0.07809339 -0.07083029
-0.104001075 0.12917282 -0.08433579 0.09638861 -0.12766646 0.06680224 0.07927179 -0.049437333
0.0034659554 -0.11843296 0.15316753 -0.047520593 0.060519133 -0.013788663 0.16702533 -0.065075815
-0.06048111 0.14524712 0.010695517 -0.21557294 0.11049835 -0.022034954 0.091661215 -0.07691116
-0.11099149 -0.094602175 0.029011274 -0.09272515 -0.10179507 0.113381356 -0.1867103 0.10190064
0.1120218 -0.017863007 0.04770953 0.0952384 0.15658121 -0.16612388 0.05249163 -0.113771744
0.1600629 0.11286785 -0.015127065 0.091178 0.12973285 0.16435046 0.14860278 -0.1677698
-0.14791867 0.09582586 -0.063673 0.019704394 -0.0963563 -0.16164532 -0.069230214 0.18802434
-0.06172266 -0.17849195 -0.114146516 0.012093506 0.08785701 0.03732528 0.06351048 -0.017435482
-0.038966965 0.16383697 -0.06304496 -0.12605418 0.1880855 0.033170186 0.094276965 -0.012188076
-0.13063928 0.061919924 -0.021389168 -0.05838686 -0.15261632 0.031533916 -0.18175344 0.15600157
0.1494855 -0.18519275 0.038411394 0.029270733 0.20840654 0.10484888 -0.06709094 0.022509951
-0.18205208 0.16100849 0.15306623 0.062411256 -0.17126009 -0.05842293 -0.0011863336 -0.06585487
0.17700794 -0.013131653 0.12818137 0.02694691 -0.0996556 -0.12778288 -0.021273872 0.03392685
-0.033505734 -0.14846712 0.05508031 -0.12183903 -0.019515201 0.0674471 -0.10463474 0.06716783
-0.09336732 -0.017545288 -0.1254374 -0.06263578 -0.0775714 0.1260909 -0.15257008 -0.20082754
-0.032556042 0.20435564 -0.20069562 -0.06570908 -0.114918165 0.1267335 -0.0044015287 0.022166431
0.12013434 -0.1856421 -0.03742077 0.22712605 0.02588157 -0.16647722 0.039953377 0.030154271
-0.07515208 0.17603248 -0.18923806 0.10709758 -0.11505118 0.026025131 0.03169338 0.12171646
0.2171529 -0.085493766 0.09983794 -0.08996141 -0.1774662 -0.041020304 0.051834606 0.066397205
-0.09171361 -0.08048067 0.13026918 -0.051603448 -0.09634617 0.22386524 -0.09360309 0.2024276
-0.062307566 -0.1576411 -0.036750637 -0.1766547 -0.116460286 0.14756468 -0.16459668 0.11863286
-0.06345269 -0.105977036 -0.25290382 -0.19541503 0.14372154 -0.21553203 0.038389828 0.25995564
-0.1132169 0.12697917 0.09210187 -0.21040548 -0.09503101 -0.13598092 -0.21654423 0.15791684

p2iLayer.a f4 [352, 1]
00000000: 1355 083c e75d 4fbc a5b0 d13b e943 29bc
00000010: ef34 debd 9e60 aebd 7340 5abd c661 9c3c
00000020: 592b 75bd c767 e43d ab0a c1bc 0527 b2bd
00000030: be1b 98bd 55ad 6ebb 26de 8fbd 9e92 d63d
00000040: d843 efba b44d 8e3d 14ec d33c de70 913d
00000050: 9b12 2b3e 9e3f e1bc bc4b 913d 76e0 913d
00000060: 35e1 10be 6bee 2fbc 78c7 00be 6c3f 8bbd
00000070: 3f08 a9bd 21f4 b53c b2f7 a33c f8dc d73d
00000080: 25e6 8e3d e34d ba3d bbf6 063e 3f20 9e3c
00000090: 8a4b d4bd c1b0 3ebc b2e1 3abc dec7 103d
000000a0: a71a 593d 2d0d 203d 93d1 e33d 0360 bbba
000000b0: 8fb1 61bd ec96 0a3e e436 0fbd 4d77 273d
000000c0: 6b3e 13bd 85d7 1e3c f5a9 9cbd 7d06 1a3c
000000d0: 1638 b2bd fc32 14bd e7c6 afbd 33d3 a13c
000000e0: 438a aebd a0bb 0fbd 293d 0bbe 0317 11be
000000f0: 05c6 83bc 497e a2bd 4d16 edbd 099b a9bd
00000100: 00f4 48bc 3b8b f13d 91c5 843d 2495 a53d
00000110: 2791 b13c eaff fb3b 3600 193c 6be2 0bbe
00000120: eb79 3f3a 49e3 aebb 635b 5ebc 010e 0ebe
00000130: 8460 dd3d 5286 0f3e 1242 82bc b6f8 a4bc
00000140: f90f a13d ccf1 43bd 4578 adbd 1b54 4b3d
00000150: 21db a4bd 1101 93bd befc f0bc 8f68 efbd
00000160: 1524 16be f8ff 04be 657b 5f3d 2ad0 dc3d
00000170: 33ba 25be 58a4 abbc 5202 143c 6eb5 84bd
00000180: dd03 5cbd e10e e8bd 6595 333c 6ebc 653d
00000190: 4a07 913d e564 f53d c1a6 ebbd 0ac5 b73d
000001a0: cd46 db3d edd8 0abe bacc d9bd 7d37 71bd
000001b0: 9019 233d b64c 933b 31f7 b13b 4cb9 5abd
000001c0: 3dd3 113e 5f42 06be e4a7 9bbd 6307 43bd
000001d0: cbc8 e2ba ffba edbd 7aed 0f3e a841 0f3d
000001e0: 7151 47bd 08e2 cd3d 6282 bf3c 2417 3dba
000001f0: ec9f 133e 24c2 0bbe 5b75 9cbc 492a 01bb
00000200: fa70 cb3d a93b 523d 8cea 043e 7ff6 403d
00000210: 2b6c 383d 0345 b93d ebcc 903d 964e 153d
00000220: 2382 af3d fe5b 94bd 4097 913d 9505 98bd
00000230: 2261 6fbd 52f5 bf3d daef 59bd dbbe 0d3e
00000240: c68e aebd 3ab1 ee3d fb50 f7bd 2ba3 a23d
00000250: 1049 cd3d 6d59 b63d bcff f9bd afa1 11bd
00000260: 5e02 47bd 6dfd c1bd cf22 30bd 828a c6bd
00000270: e283 3f3d 8307 a33d 1f64 503d caf9 963c
00000280: a688 acbd ff07 7d3c 5f4e c5bd fa95 0ebe
00000290: f0d9 cc3c a00f 7d3c 3a74 073e 856f 4e3d
000002a0: 59f2 e1bd a474 b3bd afcc 42bd 0534 92bd
000002b0: 8c48 37bd 29c9 813d f52a b83b 4d8f a53d
000002c0: 007d a7bd 76d8 593d 2f97 b93d 608e dfbc
000002d0: 3f49 dbbc 8e39 74bd 4923 363e 158e ecbc
000002e0: 6619 1e3e 16dc 553d 87a8 de3d 2890 b6bc
000002f0: 14d1 87bc 292b 8d3d 5a94 e13c e4af 0abe
00000300: e087 d4bc e190 e0bd 322f f63c 9cbb ee3d
00000310: 888d 25be 9c1b a73d cbd6 a73d 0fbb 383c
00000320: dc36 d73d 1b10 663c 5533 3a3d 858b 833d
00000330: 35b0 b23d d162 ecbc 17ac 06bd 700c e43c
00000340: 8160 d13d d219 813d 18bb 1e3d c798 a33d
00000350: 6d6f 363c 4255 f7bc 49a6 aebd 443d 1bbd
00000360: 0826 d23b c3e4 03be 2c08 953d 2a71 15be
00000370: 6f10 babd 94be dd3d 600e 293d 30ee 8b3c
00000380: d838 07bd 98e9 2c3d c9ff 223d 7bd2 0d3d
00000390: bc04 443c a751 f43d f561 583a 0a29 243e
000003a0: 6d96 7fbd d15f ecbc 3950 343d 6658 bbbd
000003b0: 82a9 efbd d69e f9bd 9313 f43d a830 88bd
000003c0: 24fc 193e 6c18 71bd f408 043d e478 0d3e
000003d0: 3493 853d b68f 203e 0a23 a9bc 883b a3bd
000003e0: 755e 15be 16f4 b7bd 055c 023e fb96 f9bd
000003f0: 98fe b7bc 3a7b bcbd 4f4d f8bd b5bd 25bc
0.0083210645 -0.012656665 0.0063992315 -0.010331132 -0.1084994 -0.08514522 -0.05328412 0.01908959
-0.059855793 0.111526065 -0.023564657 -0.08698849 -0.074271664 -0.0036419232 -0.07024793 0.10477184
-0.0018254472 0.069484144 0.025869407 0.07101606 0.16706316 -0.027496155 0.07094523 0.07122891
-0.1414841 -0.010737996 -0.12576091 -0.06799206 -0.08253526 0.022211136 0.020015571 0.10540193
0.0697749 0.09096887 0.13180058 0.019302486 -0.103659704 -0.011638821 -0.011406349 0.03534686
0.053003933 0.039075065 0.111239575 -0.0014295581 -0.055100974 0.13534135 -0.034964457 0.04088526
-0.0359482 0.009694939 -0.07649604 0.009400961 -0.08702104 -0.036181435 -0.085828595 0.019754028
-0.08522465 -0.035091043 -0.1359755 -0.14168935 -0.016085634 -0.07934243 -0.11576519 -0.08281524
-0.012265205 0.11794134 0.06482995 0.08085087 0.02167566 0.0076904194 0.009338429 -0.1366059
0.0007304239 -0.005337153 -0.013571593 -0.1387253 0.108094245 0.14016083 -0.015900645 -0.020138126
0.07864375 -0.047838017 -0.08470205 0.049640756 -0.08049608 -0.07177938 -0.029417392 -0.11689865
-0.14662202 -0.1298827 0.054561038 0.10781892 -0.1618431 -0.020952389 0.009033756 -0.064799175
-0.05371462 -0.11330963 0.010960911 0.056087904 0.070814684 0.11982135 -0.11506415 0.08973129
0.107068636 -0.13559313 -0.106347516 -0.05889081 0.0398193 0.0044952286 0.005431079 -0.05339937
0.14240737 -0.13111256 -0.07600382 -0.047614466 -0.0017302273 -0.11607932 0.14055434 0.034974724
-0.048661653 0.10052878 0.023377601 -0.0007213226 0.14416474 -0.13648278 -0.019098928 -0.0019709042
0.09933658 0.051326428 0.12980098 0.047110077 0.045025032 0.09046366 0.07070335 0.0364519
0.085697435 -0.072441086 0.07108927 -0.0742294 -0.058442242 0.09372963 -0.053207256 0.13842337
-0.085233256 0.11654897 -0.12075993 0.07941278 0.10023701 0.08903775 -0.122069806 -0.035554584
-0.048586242 -0.09472165 -0.043001946 -0.09694387 0.046756633 0.07960417 0.050876733 0.018429656
-0.08424501 0.015443801 -0.09634089 -0.13924399 0.025006264 0.01544562 0.1322793 0.050399322
-0.11032552 -0.08762482 -0.047558483 -0.07138828 -0.04474692 0.063371964 0.0056203553 0.08083973
-0.08178139 0.05318495 0.09062039 -0.02728957 -0.026768325 -0.0596252 0.17786898 -0.028876344
0.15439376 0.052211843 0.10871988 -0.022285536 -0.016579188 0.06892998 0.02753656 -0.1354366
-0.025943696 -0.109651335 0.030051801 0.116568774 -0.16167271 0.08159563 0.081952654 0.011275067
0.105085105 0.014041926 0.04545911 0.064230956 0.08725015 -0.028855713 -0.03287896 0.027837962
0.10223485 0.06303753 0.038752645 0.07988124 0.011134964 -0.030192021 -0.0852781 -0.037900224
0.006413225 -0.12880234 0.07276949 -0.1459395 -0.09085166 0.108273655 0.041273475 0.01708135
-0.033013195 0.04221496 0.039794717 0.034624558 0.011964019 0.119296364 0.0008254343 0.1603128
-0.062399317 -0.028854283 0.04402182 -0.0914772 -0.11702253 -0.12188499 0.11917796 -0.066499054
0.1503759 -0.05886118 0.0322351 0.13815647 0.065222174 0.15679821 -0.02064659 -0.07970339
-0.14586814 -0.089821026 0.12730415 -0.12187 -0.022460267 -0.09203191 -0.121241204 -0.01011603

intersectionLayer.W f4 [48, 46]
00000000: 5787 1bbe 92e2 743e b953 d23d 6c0d d2bd
00000010: e2ea 34be c69c 113e e1df 613d ccd8 033e
00000020: 879d 013e cb32 76bd 6853 5b3e 9309 bf3d
00000030: 0f56 773d b1cb c73d 4cc8 51be 0489 bfbc
00000040: c2fb 6ebe 3a34 1fbe df79 aabd 592b 6d3e
00000050: d042 84be 729f 873e 97b2 3abe 227a 3a3e
00000060: fb3b 65be 6a33 77bd cf51 59be a545 67be
00000070: a18b d3bd 78f8 7c3d 76fa 123e 0961 cabd
00000080: 919f 60bd 3153 67be 3361 923c d761 853e
00000090: 0c5b 11be 22f0 63be 4450 8dbe f4bb 2abe
000000a0: 0c5b dabc 9904 11be ba89 6b3c c040 84be
000000b0: 41f6 ecbd 8dab c23d b32d 913d fce4 e03d
000000c0: ca87 9b3d c29d bdbd f00a 673e b74e d33d
000000d0: 13a0 bd3d 4ab8 6bbe 5b20 6a3e 3e91 b83d
000000e0: 2522 8abe 78dd 2a3e ce17 85bd cea8 893d
000000f0: 4640 303e dc8f 53be 71ab 843e f238 6b3e
00000100: e979 683c 8b62 07be f6ae 263e ba58 04bd
00000110: b250 15bd d229 1a3e 0a2b 68be 5504 1a3e
00000120: 3304 0bbe 1a64 3b3d 6f65 4d3b 43f2 4abd
00000130: 0061 7e3e ca7c 653e 805e 103e 2fdf f6bc
00000140: fb8b c4bd a4bf 383e 5dff aebd dc2a 00be
00000150: 1994 b33d 9e76 453e cff1 f63d 22a1 88be
00000160: 129d aebc 2f22 113e 97c0 35be 9f7f 143e
00000170: 171b e73d 6a76 3f3e e0ae 043e 27b6 323e
00000180: b282 5bbe 39e7 133a b176 7bbd a91c 813d
00000190: 86d5 c4bd cb7a 1ebe 09fc 4bbe 6baa 233e
000001a0: 7062 8abd 665f 21be 7daf 1fbe 43bc 3f3e
000001b0: 675d 58be 285a 88bd f1a6 2a3e 10ba 4d3e
000001c0: fa18 aabd ac0a b73c 1f89 3e3e c0e8 6e3b
000001d0: f400 22be d7c1 04be e37f a73b 811b b23d
000001e0: 8db9 7a3e 3f5d 82bd 1c6f 853e d60a 8e3d
000001f0: 098c d1bd fe61 9c3d 99f9 863e 23e3 613d
00000200: abde 453d f11f 063e 3001 26be 7e1f 553e
00000210: aafa 423c ffaf 91ba 1b2d febd be43 cebd
00000220: abe6 233c b447 29be b031 a93d e046 7bbc
00000230: e8e4 86bd 7e6f 0bbd 1170 7ebd c50b b63d
00000240: 2379 6d3e 2151 5b3e 24d1 52be edcd 1fbd
00000250: 3953 263e edbc 273e 667d f73d 6669 503b
00000260: 6e9f 1a3e 82ab 763e cd75 1fbd 0421 1b3c
00000270: 50ab 2a3e 5bbb 66be 3c66 93bc e21a b13d
00000280: f524 6cbe d119 683e 1310 a63d 71ef 793e
00000290: 3488 423d f523 c2bd 2a20 af3d 61f8 b0bd
000002a0: 8013 5ebe 5956 603e 43e3 5f3e 4ca7 583e
000002b0: bf16 debd 1a9b 68be f8b4 853b 9d1e c83d
000002c0: c84a 33be 585b b73d c488 3d3e 73a7 60be
000002d0: 4766 67be ba30 40bd 2207 3bbd 6dc8 0f3e
000002e0: 1a65 043d 0077 cbba 8e8d a8bc d2ed 523e
000002f0: 132e e6bc eb33 85bd d464 a63d 9210 5ebe
00000300: d3dc 6d3e 0aaf 963d 06a1 093e 8965 8abc
00000310: 3b39 0a3d 6e92 cfbd 9290 f7bd 8c5c 483e
00000320: 215b 453c 9457 43be 782a 16be 38b7 753c
00000330: 4081 3cbe 3930 d2bc ef50 df3d da5e 3a3e
00000340: b3ba 813e 83f0 043e 6d6d a83c 2a5a 153c
00000350: f7f9 afbd d5c2 31be a396 22be 8d58 513e
00000360: 0c89 05be d491 3ebe f202 033e 2e2d 113e
00000370: 988b fbbd b750 c53d 7c68 35be 4c96 a73d
00000380: 0425 f63d 5bf3 34bd 387b 613e bdc4 c53b
00000390: efd1 73bd 1df8 d1bd b7f8 f1bc b09a 003e
000003a0: afa4 093d 4883 763e de38 05be 2ece f0bc
000003b0: 3484 17be 6c50 633e 2589 a93d 6c1f cfbd
000003c0: 94e2 6cbd 63ab 473c 4b39 ecbd 7b51 51bd
000003d0: d1d5 fd3d 62df 643d d7f4 d8bc d1b8 453e
000003e0: 8afb cd3b dc0a 05be 2b9e 3d3d daea 98bd
000003f0: 41d1 fd3c 5ef5 0dbe 4112 8f3e e4a8 01bd
-0.15188347 0.23914555 0.10269875 -0.10256466 -0.17667726 0.1421996 0.05514515 0.1287567
0.12657748 -0.060107034 0.21418536 0.09327998 0.060384806 0.09755648 -0.20486563 -0.023380764
-0.23338225 -0.15547267 -0.08324026 0.23161067 -0.25832224 0.26488835 -0.18232189 0.18210652
-0.22386162 -0.060351767 -0.21222614 -0.22585161 -0.103293665 0.061760396 0.14353356 -0.09881789
-0.054839674 -0.22590329 0.017868614 0.26051208 -0.14194888 -0.22259572 -0.276003 -0.16673261
-0.026654743 -0.1416191 0.014376098 -0.2583065 -0.11570407 0.09505377 0.070887946 0.10981175
0.07594259 -0.092586055 0.22562766 0.10317748 0.09259047 -0.2301952 0.22863905 0.09012078
-0.26979175 0.16686046 -0.06498681 0.0672165 0.17212018 -0.20660347 0.2591205 0.22970942
0.014189222 -0.13221185 0.1627768 -0.03231118 -0.03645391 0.15055016 -0.22672668 0.15040715
-0.1357582 0.04574976 0.0031340977 -0.049547445 0.2484169 0.22410884 0.14098549 -0.03013572
-0.09597012 0.18041855 -0.085448004 -0.1251635 0.08768482 0.1928353 0.1205784 -0.26685435
-0.021315131 0.14173196 -0.17749248 0.14501809 0.11284464 0.18697515 0.12957335 0.17452298
-0.21436575 0.000564206 -0.06139249 0.063042946 -0.09611039 -0.1547653 -0.19920363 0.15982978
-0.06757057 -0.15759048 -0.15594287 0.1872416 -0.2112938 -0.06657821 0.16665246 0.20090508
-0.08305545 0.022343956 0.18606995 0.0036454648 -0.15820676 -0.12964569 0.005111681 0.08696652
0.24484845 -0.063654415 0.26061332 0.069356605 -0.10231788 0.07635878 0.26362303 0.055148255
0.048308056 0.13098122 -0.1621139 0.20812795 0.011900583 -0.0011115073 -0.12410947 -0.100715145
0.010003726 -0.16531259 0.0826143 -0.015336722 -0.06586629 -0.034041874 -0.062118594 0.088889636
0.23190741 0.21417667 -0.20587593 -0.039014746 0.16242684 0.16380663 0.12084465 0.0031801104
0.1509988 0.24088863 -0.038930703 0.009468321 0.16666913 -0.22532408 -0.017993085 0.086477056
-0.23060973 0.22666098 0.08108535 0.24407746 0.047493175 -0.094795145 0.08551057 -0.086411245
-0.21687126 0.21907939 0.21864037 0.21157569 -0.10844182 -0.22715417 0.004080411 0.09771464
-0.17508996 0.08952969 0.18509203 -0.21938877 -0.2259761 -0.04692147 -0.0456611 0.140413
0.03232298 -0.0015523136 -0.020575311 0.20598534 -0.028098142 -0.06504043 0.081247 -0.21686009
0.23228769 0.07357605 0.13440332 -0.016894119 0.033745985 -0.10135351 -0.120881215 0.19566554
0.012045653 -0.19076377 -0.14664638 0.014997296 -0.1840868 -0.02565776 0.10904109 0.18200245
0.25337753 0.12982373 0.02055999 0.009115735 -0.08592599 -0.17359479 -0.15877776 0.20443936
-0.1304056 -0.18610317 0.12794092 0.14177391 -0.12282485 0.09634536 -0.17715639 0.08182964
0.12018779 -0.044177394 0.2201966 0.006035416 -0.05952638 -0.10252402 -0.029537542 0.12559009
0.03360432 0.24073517 -0.13009974 -0.02939519 -0.14796525 0.22198647 0.08278111 -0.10113415
-0.05783327 0.012186858 -0.11534365 -0.051103096 0.12394298 0.055877097 -0.026483936 0.19308783
0.0062860893 -0.12992424 0.04629342 -0.074666694 0.03098357 -0.13863131 0.27943614 -0.031655207

neighborLayer.W f4 [6, 32]
00000000: 8a60 573e b340 ab3e 5d32 77be 2537 963e
00000010: 6020 273d d557 bf3e 95f7 5abe 60a2 4dbc
00000020: 8eba 503e 0d12 853e 189b f0bd a712 983e
00000030: 10df 4abd baf2 afbe 4aa3 9bbe 70da c7be
00000040: b02f 8a3d 182b 89be 94ac c83d 59fa 8ebe
00000050: 507c 813d b0d7 39bd 40ba 573c a5ab 833e
00000060: 7fbb 96be 3e0f 193e d6d7 96be fe52 613e
00000070: cd2b 1bbe cc0e e7bd 45d3 39be f0a5 a73c
00000080: e138 38be 58b2 53be c415 b9be ae87 cf3d
00000090: 4cb8 b93e 8488 753e 1b27 003f e63a d93e
000000a0: 1da9 c3be 8ca7 1a3e 6f52 43be eb8b 97be
000000b0: 764e a7bd 0cf4 0dbe 7673 e73d 76ae 8a3d
000000c0: 7683 7f3e 05e6 2bbd de3b 833e 3141 c7be
000000d0: 7fb0 e6be 7937 5e3e be57 723c 9e31 1cbe
000000e0: ecbc cebe a900 6e3d c4f3 d03e 19c4 2cbe
000000f0: c9ce bf3e 49c1 2cbe a034 0f3e a049 c23c
00000100: e38f 82bd 5efe 953e 219c bdbd 7d3c 233e
00000110: 063d 85bd a6a8 b1be f78a 843e 9a75 8fbe
00000120: 5da3 923e f051 9dbe f9d5 8b3d b7b7 bebd
00000130: 9338 0b3e 1113 ec3d 2784 65be 0fd7 143b
00000140: 3978 a7be daa1 39be 2ccf 29be 102d d13d
00000150: 0004 ff3d 7326 27be 4b22 88be 245b 8abe
00000160: e354 803d 1275 a83e 2a82 4dbe 8b5b e6bc
00000170: 93fc 763e 4f71 6ebe b1b6 1fbe 6ab0 523d
00000180: 9406 20be c661 9cbe 2fa0 713e 3911 8f3d
00000190: eed4 f73d 4d93 ab3e af9c 6abe e2b4 b13e
000001a0: ef14 b73e 97bc 88be 426b a6be 4901 01be
000001b0: 7caa b8be 3fbd b7bd feb0 4f3e 8424 20be
000001c0: 488a b13e 7506 9f3e ec76 303e 57dc 93bc
000001d0: 93c9 9b3e 8672 543e 6f3b 353e 036e 873e
000001e0: 0e33 9c3d 8228 efbd 349a e93d c4e1 fbbd
000001f0: 9111 963d 1142 b6be 3c91 61be 60a5 9a3d
00000200: 06b8 783d 0ff2 b0be 87cf 943e 86ab 9e3d
00000210: db2f 783e d024 8a3e d40e 0e3e 0381 a4be
00000220: 2e90 3b3e 8c32 bebe 38da 9abe dd19 b8be
00000230: 63f5 69be a1e7 243d 6d0d d6bd 99ac f03e
00000240: 16ba 0b3e 53fb 04bf d8db 9b3d 999a 0e3e
00000250: bb53 a53d b376 9ebe b412 6a3e 1b56 c7bc
00000260: e3af 053e d9fc 333e 1fdd e03e 0ece 843e
00000270: 1f22 b63d 4544 25bd e388 1dbe 4436 643e
00000280: c1b2 afbe 8762 23bd fc36 cd3e 6e5c a7be
00000290: 2688 bdbd c1fa dfbe 8f15 0b3f 1a56 e4be
000002a0: 53a4 49be 296b dd3d 7f2f 5f3e 7afc 34be
000002b0: a63c a9be 9d26 5dbe ce99 dcbd c412 413c
000002c0: 7530 a83e 0030 b9be 2f43 e73e 645a 50be
000002d0: 5ab1 34bd 9d65 b4be 75eb 903e 4319 c93e
000002e0: 7d95 2bbe 9f66 d2bd 1ae3 3d3e 6071 b3be
000002f0: 89dc bcbd 1c50 c23e c8e4 b63e eb49 99be
0.2103292 0.334478 -0.24140306 0.29338947 0.04080236 0.37371698 -0.21383508 -0.01255092
0.20383665 0.25990334 -0.11748332 0.2970173 -0.049529135 -0.34364873 -0.30398017 -0.39033842
0.06747377 -0.2679069 0.09798542 -0.27925375 0.06322539 -0.04537171 0.013166964 0.25716892
-0.29439923 0.1494722 -0.29461545 0.22004315 -0.15153427 -0.11282119 -0.18146999 0.020464867
-0.17990448 -0.20673501 -0.36149418 0.10133301 0.3627342 0.23977858 0.5005967 0.42427748
-0.3821496 0.15102977 -0.19074415 -0.29598936 -0.08169262 -0.13862628 0.11301319 0.06771557
0.24952492 -0.04196741 0.25631613 -0.38916925 -0.4505653 0.21700849 0.014791427 -0.15253302
-0.4037851 0.0581061 0.40810978 -0.1687168 0.37462452 -0.16870607 0.13984919 0.023716748
-0.063751005 0.2929563 -0.09258295 0.15941043 -0.0650578 -0.3469898 0.25887272 -0.2801941
0.2864026 -0.30726576 0.068279214 -0.093123846 0.135958 0.11527074 -0.22413693 0.0022711193
-0.3270891 -0.18128148 -0.16582936 0.10213673 0.12451935 -0.16323261 -0.26588663 -0.2702266
0.06266191 0.32901818 -0.20069185 -0.028119823 0.24119787 -0.23285411 -0.15597035 0.051437773
-0.1562751 -0.30543345 0.23596261 0.06985707 0.1210116 0.3351082 -0.22911333 0.34708315
0.3575816 -0.26706383 -0.32503706 -0.12598146 -0.3606757 -0.08971643 0.20282361 -0.1563893
0.34675813 0.31059614 0.17232865 -0.018049402 0.30427226 0.20746812 0.17698453 0.2645112
0.076269254 -0.11677648 0.11406365 -0.12298921 0.07327569 -0.3559728 -0.22028059 0.07551074
0.060722373 -0.34559676 0.2906458 0.07747559 0.24237005 0.2698121 0.13872844 -0.32129678
0.18316719 -0.3714794 -0.30244613 -0.35957232 -0.22847514 0.04025996 -0.104517795 0.47006682
0.13645205 -0.5194599 0.07610291 0.13926162 0.08072611 -0.30949935 0.22858697 -0.02433305
0.13055377 0.17576922 0.43918702 0.25938457 0.08893227 -0.04034831 -0.1538425 0.22286326
-0.34316066 -0.039888885 0.40081012 -0.32687706 -0.09254484 -0.43745998 0.5432977 -0.4459694
-0.19691591 0.10811455 0.21795462 -0.17674437 -0.33054084 -0.21596761 -0.107715234 0.011784259
0.3284947 -0.36169434 0.45168445 -0.20346981 -0.044114448 -0.35233775 0.2830464 0.39277086
-0.16756244 -0.1027348 0.18543664 -0.35047436 -0.09221751 0.37951744 0.3572142 -0.29939207

neighborLayer.a f4 [64, 1]
00000000: 6b11 813e cbfd c03e 4d2b c23d 7728 8f3e
00000010: ef7e c53d ed14 9fbe a8e2 013e 9917 d93d
00000020: 8363 193e b9e8 803e a447 223e bc63 30be
00000030: 84b5 9abd 79a1 773d 6307 2abe f92a 6bbe
00000040: b685 d1bd f610 0c3d 6090 e03d 471c 08be
00000050: 96da b13d 9e54 443e 50f3 51be 104c 51be
00000060: 5c6e 46be 3507 133e cde9 9dbc e5c8 8c3d
00000070: c8f0 c6bd a010 eb3d 8ced b13d 876d d33d
00000080: 2b51 9c3e b250 013e d980 64bd d496 aabd
00000090: 1929 85be 6462 b9bb f857 d8bd bfb2 f6bd
000000a0: 1408 c63d 1c6c 81bd 49b4 87be 478b 953c
000000b0: 4ba2 843e d98f 08bd 0256 b23c 1b61 e4bd
000000c0: b31c 6b3e 1538 973e 7189 14be b1ec 54be
000000d0: 1b7c 1a3d 685f 3abe a9e6 a83e 00ff 30be
000000e0: 8000 28bd 49a2 013e 314f 7dbe 8751 59be
000000f0: 7739 44be f80b 36be 4e62 dcbd af11 573e
0.252086 0.3769363 0.09480915 0.2796056 0.09643351 -0.31070653 0.12684119 0.10600204
0.14979367 0.25177553 0.15847641 -0.17225546 -0.075541526 0.060456727 -0.1660438 -0.22965612
-0.102305815 0.034195863 0.10965037 -0.13292037 0.0868427 0.19172904 -0.20502973 -0.20439172
-0.19378036 0.14358218 -0.019276524 0.06874255 -0.09713894 0.1147778 0.086878866 0.10323625
0.30530676 0.12628439 -0.05578694 -0.083295494 -0.26007918 -0.005657481 -0.10563654 -0.12045812
0.096695095 -0.06319448 -0.26504734 0.01825489 0.2590507 -0.03334031 0.021769527 -0.11151334
0.22960167 0.29534975 -0.14505555 -0.20793416 0.037716012 -0.18200457 0.3298848 -0.17284775
-0.0410161 0.12659563 -0.2473724 -0.21222506 -0.19162546 -0.17778003 -0.10760938 0.2100284
