test/model/actor_4_2_2_2_2_58_best_rou0.pth (torch, 689372 bytes, 17 tensors)

v2lLayer.W f4 [3, 40]
-0.017455585 -0.25639525 -0.13356107 0.051115934 0.16555303 0.18598361 0.012845201 0.07089562
0.13284074 0.16911028 -0.070101134 0.057659566 -0.015438694 -0.09407824 0.25628042 -0.08102544
-0.37569425 0.085353486 0.004983172 -0.19973886 -0.039006207 -0.24110818 -0.16947584 -0.15929049
0.36533538 0.28707153 0.005970972 0.15099771 -0.2995988 -0.29208854 0.18754013 -0.0054606115
-0.23874131 -0.25720847 0.17023571 -0.34550026 -0.15880041 0.042683695 0.15757978 -0.0843202
-0.20273474 0.07400041 -0.08724636 0.14557774 -0.39583683 -0.13624959 0.326369 0.04944883
-0.1177491 -0.038972694 0.34004515 -0.13186584 0.3222533 0.100114 0.32868135 -0.04648028
0.15994613 -0.32416615 0.22861041 -0.25962064 -0.22971067 0.033991158 0.05954701 -0.22344285
-0.08918064 0.04997638 -0.015939655 0.05562287 -0.014565094 -0.10672268 0.32310405 -0.1785901
0.3559709 0.2985264 0.27034453 0.07351521 0.30159688 -0.22556843 -0.20851056 -0.029374108
-0.26374498 -0.21223168 -0.24488667 -0.2007437 0.1591903 0.16375151 0.21854822 -0.22258145
-0.03825963 0.18793777 0.31363386 0.36106965 -0.33806062 0.03199032 0.1539295 -0.21663943
0.1389924 -0.25892314 -0.39833283 -0.31308922 -0.04812045 -0.015887111 0.01485052 0.22635743
-0.102643654 0.35400784 -0.3025827 -0.053422507 -0.14215285 0.28672504 -0.18434817 0.04872216
0.12559515 0.31367436 0.18600373 0.42328918 0.027439548 -0.1936607 -0.06978543 -0.35086766
00000000: 04ff 8ebc 3d46 83be 3cc4 08be f15e 513d
00000010: bc86 293e 7d72 3e3e ae74 523c b931 913d
00000020: 6707 083e 3f2b 2d3e 2f91 8fbd 702c 6c3d
00000030: 93f2 7cbc 18ac c0bd 3037 833e aaf0 a5bd
00000040: ff5a c0be cfcd ae3d e049 a33b 5888 4cbe
00000050: f9c4 1fbd 10e5 76be 138b 2dbe 0c1d 23be
00000060: 3d0d bb3e 0afb 923e 25a8 c33b 259f 1a3e
00000070: 0465 99be a18c 95be 850a 403e eeee b2bb
00000080: 9a78 74be d4b0 83be 4552 2e3e 69e5 b0be
00000090: 939c 22be 19d5 2e3d 985c 213e 12b0 acbd
000000a0: b299 4fbe 878d 973d 38ae b2bd 5512 153e
000000b0: 20ab cabe 0385 0bbe d619 a73e db8a 4a3d
000000c0: 7126 f1bd d5a1 1fbd 661a ae3e d707 07be
000000d0: 62fe a43e 9208 cd3d ec48 a83e 1b62 3ebd
000000e0: ebc8 233e 1bf9 a5be d918 6a3e ffec 84be
000000f0: 4639 6bbe 503a 0b3d 91e7 733d 34ce 64be
00000100: 57a4 b6bd 08b4 4c3d e193 82bc ced4 633d
00000110: 6fa2 6ebc 6c91 dabd e56d a53e 53e0 36be
00000120: d141 b63e 74d8 983e 996a 8a3e 248f 963d
00000130: e86a 9a3e 69fb 66be cb83 55be f8a1 f0bc
00000140: 9509 87be 4353 59be 92c3 7abe c28f 4dbe
00000150: c802 233e 7aae 273e 1bcb 5f3e 64ec 63be
00000160: 21b6 1cbd c272 403e 9e94 a03e 1fde b83e
00000170: 4816 adbe 4808 033d b29f 1d3e bad6 5dbe
00000180: 0654 0e3e 9391 84be 48f2 cbbe 3b4d a0be
00000190: f319 45bd b025 82bc 984f 733c 3eca 673e
000001a0: d636 d2bd 8440 b53e 1fec 9abe 8fd1 5abd
000001b0: 8490 11be a0cd 923e c4c5 3cbe e390 473d
000001c0: 049c 003e ed99 a03e c377 3e3e 5cb9 d83e
000001d0: e7c8 e03c fe4e 46be aaeb 8ebd eda4 b3be

v2lLayer.a f4 [80, 1]
0.21806324 -0.2513652 -0.067410216 0.039706957 -0.08985879 0.12797368 0.17068648 -0.033077423
0.2600852 0.10964042 0.16015753 0.00018964507 -0.24074385 0.13712825 0.1936337 -0.11815302
0.17013909 -0.13826874 -0.11683843 0.19239904 0.22058299 0.16843657 0.0035287943 -0.09966793
-0.023028918 0.23688138 -0.10363619 0.12793632 -0.067031786 0.31270865 -0.24707381 0.10720038
0.05124663 -0.03226371 -0.095413834 -0.24163352 0.21518923 0.03865007 -0.13368082 0.10789445
-0.31024307 0.17530076 -0.009422158 -0.15515894 0.0017181674 0.09854287 -0.19049175 -0.10679095
-0.19228771 0.31161547 0.18742017 0.27346283 -0.3312667 -0.23725341 0.12965403 -0.17679879
-0.099263825 0.00816987 -0.33966696 0.15743707 -0.15192902 0.083363384 0.14684008 0.13987257
-0.0120740775 0.103167504 -0.22278018 0.035030242 0.24212922 -0.13683796 0.17052639 0.3150246
-0.09510491 0.16672471 -0.11287048 0.06450661 0.07278131 0.1563258 -0.03187703 -0.17388614
00000000: f84b 5f3e f1b2 80be 5e0e 8abd c3a3 223d
00000010: e307 b8bd 880b 033e 70c8 2e3e 317c 07bd
00000020: e329 853e 288b e03d 5600 243e 76db 4639
00000030: 8e85 76be 596b 0c3e ea47 463e 36fa f1bd
00000040: f138 2e3e 5296 0dbe fd48 efbd 4104 453e
00000050: 82e0 613e a37a 2c3e 5843 673b b31e ccbd
00000060: 24a7 bcbc 0891 723e 363f d4bd bd01 033e
00000070: f647 89bd 591b a03e eb00 7dbe df8b db3d
00000080: fce7 513d f426 04bd 5468 c3bd c76e 77be
00000090: 915a 5c3e 894f 1e3d a0e3 08be c4f7 dc3d
000000a0: 2ed8 9ebe 0b82 333e 655f 1abc fce1 1ebe
000000b0: 2234 e13a d8d0 c93d 4510 43be 37b5 dabd
000000c0: 12e7 44be 108c 9f3e 13eb 3f3e 5203 8c3e
000000d0: ca9b a9be 8ff2 72be 07c4 043e be0a 35be
000000e0: d54a cbbd ebda 053c d4e8 adbe 2f37 213e
000000f0: 4893 1bbe 6cba aa3d 3f5d 163e c13a 0f3e
00000100: 5ad2 45bc 7c49 d33d 7d20 64be df7b 0f3d
00000110: b9f0 773e 401f 0cbe 789e 2e3e e84a a13e
00000120: 5dc6 c2bd e2b9 2a3e a328 e7bd 0b1c 843d
00000130: 5e0e 953d df13 203e 7d91 02bd 350f 32be

laneLayer.W f4 [12, 12]
0.066654555 -0.09092297 -0.14764388 -0.04084736 -0.2926525 -0.47815236 0.17649122 -0.32178557
0.32965678 0.0029012505 0.2181676 0.39842513 0.16191661 0.43742484 -0.39974862 -0.24077961
0.122082084 -0.49126694 0.37567484 -0.25491405 -0.2932907 0.0035436917 0.2081321 -0.20160419
0.30523577 -0.27573207 0.43533865 -0.10310855 0.15766059 -0.079339676 -0.093824685 0.35368434
0.41203573 0.48950908 0.2492568 -0.3572404 -0.11350163 0.1719182 0.20762491 -0.4225022
-0.3427116 0.21065268 -0.03685147 0.46599445 0.46766457 -0.025631486 -0.36478132 -0.3436079
0.01011318 -0.3752593 -0.06711082 -0.0587512 0.11823386 0.3334146 0.37441102 -0.14660779
0.4418875 0.41815352 -0.20457502 0.29131156 0.5029244 -0.1662225 0.037324928 0.4448082
0.07243555 -0.12758361 -0.29196867 0.03737507 0.18578988 0.40934446 0.1420524 -0.17951223
-0.23390582 0.17315401 -0.4067619 0.36321545 0.19072297 0.099995255 0.1209106 -0.26821384
0.0558448 -0.49869013 -0.3489942 -0.2514006 0.2667498 0.08365413 0.25812745 0.00032440602
0.51947254 -0.11914216 -0.251213 -0.6016887 -0.30034322 0.046406448 0.3920689 -0.12940857
0.13318159 -0.22965813 0.0054894 -0.17595139 0.38870162 0.29581425 -0.23142938 -0.32217473
0.4730589 -0.40023732 0.08359658 0.20357957 -0.2966076 0.3181123 0.22098145 -0.52126783
-0.16848162 -0.35792884 -0.23463404 -0.42209965 -0.5547236 0.4883026 0.041402213 -0.012362659
0.06906265 -0.31659943 0.27923232 -0.06353229 -0.19245803 -0.12779748 -0.43476713 -0.24073827
0.03533888 -0.2508105 -0.1281119 -0.045770705 -0.14316721 -0.11870109 -0.17129558 0.07586152
0.01948806 -0.22153433 0.33677945 0.037372805 0.10235236 -0.025767898 -0.3271648 0.4351383
00000000: 2f82 883d d235 babd f52f 17be 904f 27bd
00000010: 8cd6 95be 63d0 f4be 1dba 343e 14c1 a4be
00000020: c6c8 a83e e822 3e3b 5467 5f3e 61fe cb3e
00000030: 78cd 253e 26f6 df3e daab ccbe ee8e 76be
00000040: 2c06 fa3d 5787 fbbe 7458 c03e 1884 82be
00000050: 332a 96be 483d 683b 9520 553e 5471 4ebe
00000060: dd47 9c3e c12c 8dbe b5e4 de3e 932a d3bd
00000070: c771 213e d77c a2bd 2827 c0bd 1d16 b53e
00000080: 59f6 d23e efa0 fa3e 2d3d 7f3e 37e8 b6be
00000090: 8b73 e8bd 530b 303e a09b 543e 3552 d8be
000000a0: e577 afbe 56b5 573e 91f1 16bd d396 ee3e
000000b0: bb71 ef3e 1ff9 d1bc 9ec4 babe 60ed afbe
000000c0: c0b1 253c fd21 c0be 6671 89bd 19a5 70bd
000000d0: 9824 f23d 52b5 aa3e cdb2 bf3e 5a20 16be
000000e0: 143f e23e 3818 d63e 1d7c 51be ca26 953e
000000f0: a7bf 003f 3b36 2abe 06e2 183d e6bd e33e
00000100: 1759 943d 47a5 02be eb7c 95be 9a16 193d
00000110: b43f 3e3e 9995 d13e 2f76 113e 0ed2 37be
00000120: 0285 6fbe 494f 313e 1943 d0be 60f7 b93e
00000130: e24c 433e 50ca cc3d fa9f f73d 5353 89be
00000140: 84bd 643d 5054 ffbe 5eaf b2be 94b7 80be
00000150: 6e93 883e db52 ab3d 4829 843e 0a15 aa39
00000160: 27fc 043f ce00 f4bd fe9e 80be 4508 1abf
00000170: 96c6 99be b014 3e3d 41bd c83e ae83 04be
00000180: c160 083e 802b 6bbe 6de0 b33b 9a2c 34be
00000190: e603 c73e f774 973e d3fb 6cbe 16f4 a4be
000001a0: c734 f23e e8eb ccbe af34 ab3d 2a77 503e
000001b0: f4dc 97be 9edf a23e f648 623e cf71 05bf
000001c0: 7286 2cbe 7342 b7be e843 70be 721d d8be
000001d0: 5e02 0ebf cc02 fa3e 5e95 293d c08c 4abc
000001e0: b870 8d3d 5219 a2be 8af7 8e3e 381d 82bd
000001f0: b813 45be 58dd 02be cc99 debe 1884 76be
00000200: 80bf 103d 3c6a 80be c42f 03be 107a 3bbd
00000210: 6d9a 12be 8f19 f3bd 1c68 2fbe 495d 9b3d
00000220: 6da5 9f3c e5d9 62be 5b6e ac3e 3a14 193d
00000230: 1d9e d13d 3317 d3bc 2582 a7be 72ca de3e

l2pLayer.W f4 [12, 88]
-0.2155442 0.030802552 -0.12738904 0.01296474 -0.07805101 0.25096053 0.09351669 -0.12613498
0.046213046 0.094800815 0.1846987 -0.068419814 0.25089929 0.025325587 0.11768088 -0.15259874
-0.009210467 -0.045990147 0.1057004 0.1469107 -0.20390178 0.028215416 -0.06483507 0.21869841
0.25646523 0.15765734 0.17958337 0.058890212 -0.13611282 0.06034157 0.105130754 0.24115016
-0.0828665 0.060303584 -0.049666826 0.17923006 0.06425924 0.07910775 -0.03769513 -0.11440485
-0.081354395 -0.025275774 -0.20085017 -0.16032489 -0.053969253 0.05761348 -0.01640918 -0.088356294
-0.056164812 -0.16574593 -0.016120717 -0.16573016 0.13099629 0.1981549 0.17499739 0.23687676
0.1838961 -0.22266966 -0.22853984 0.24765433 -0.12908895 -0.23376134 0.018571928 0.08706135
0.05171027 0.04357067 -0.058845345 0.21346295 0.03360382 -0.02203408 -0.080658704 0.04585982
0.13773401 0.22243324 0.16005225 -0.087556474 -0.131612 0.20373115 0.26052436 -0.24326548
-0.23497565 0.12943678 -0.19138478 -0.0065458016 0.14779995 -0.14192684 -0.12905884 -0.03626264
0.119658574 0.0061292383 0.16619775 -0.09871059 0.03128315 0.01901138 -0.16445054 0.16255778
-0.22055855 0.19397983 0.1899185 -0.23613301 -0.02583354 -0.21278287 -0.04148891 0.22293083
-0.1201004 -0.22802718 -0.2242838 0.19014789 -0.07491106 0.10548348 0.108817145 -0.061467893
0.013467266 0.04030149 -0.1767546 0.083413556 0.22836691 0.0579359 -0.16987397 -0.022676501
-0.15494774 0.24684684 0.045021545 0.25147325 -0.21814393 0.05884883 -0.016438406 -0.056952104
0.08707149 -0.06699174 -0.11022116 0.1600516 -0.043452345 -0.089207955 0.17099044 0.19291498
0.017675068 -0.2008889 0.169277 0.096178174 0.2371225 -0.06744353 0.21705289 -0.17758378
-0.14922144 -0.12205103 -0.1967525 0.035520773 0.028774656 -0.07524108 -0.012340949 0.21346186
-0.15477115 -0.08519064 -0.1910224 0.10751861 -0.114308886 0.095531695 -0.055782117 -0.008976311
0.020852149 -0.099904954 0.057936624 0.1783133 -0.08827432 0.05220522 -0.057609692 0.015407108
0.087361045 -0.09489862 -0.097401775 -0.09026175 -0.008425232 0.19338667 -0.01993636 -0.0287273
-0.011768573 0.036265742 -0.2578415 0.11942855 0.22568792 -0.25447416 0.14415689 0.042825628
-0.021353275 0.043248765 0.09373297 -0.12434093 0.065335356 -0.24299252 0.11730037 -0.07095598
-0.17558467 0.015697947 -0.13877782 -0.016778747 -0.08629821 0.19082242 -0.19571546 -0.2425344
-0.10290204 -0.16470313 -0.17943773 -0.11053387 -0.19322746 0.08501583 0.12662743 -0.12966976
0.18839285 0.11465808 0.0757576 0.20729102 0.18775783 -0.16799733 0.012869044 -0.013055621
-0.20889372 0.29110575 0.21514963 0.033849213 0.12530501 -0.14504062 -0.06947344 -0.17732589
-0.2527519 -0.20179318 0.19623266 -0.19664994 0.24195293 -0.12701853 0.08343246 0.10730348
-0.18525107 -0.17468758 -0.15777841 -0.12515455 -0.12928516 -0.157407 0.17586535 0.0141605055
0.11757365 -0.057754595 0.019092955 -0.17422552 0.15020384 0.21189435 -0.068985224 -0.24161983
-0.081542924 0.17246515 0.14388993 -0.030116916 -0.007872323 -0.12884781 0.18933517 -0.10082673
00000000: 9eb7 5cbe a255 fc3c 4672 02be 106a 543c
00000010: 35d9 9fbd e67d 803e ae85 bf3d 8729 01be
00000020: e449 3d3d ee26 c23d a821 3d3e b01f 8cbd
00000030: df75 803e 9b77 cf3c ac02 f13d d842 1cbe
00000040: 80e7 16bc 2a60 3cbd 7479 d83d c26f 163e
00000050: a1cb 50be 0424 e73c 40c8 84bd 7af2 5f3e
00000060: 694f 833e ed70 213e b4e4 373e dd36 713d
00000070: 2961 0bbe b928 773d cb4e d73d 11f0 763e
00000080: e9b5 a9bd e400 773d 716f 4bbd 1688 373e
00000090: 599a 833d 3e03 a23d 3566 1abd 174d eabd
000000a0: 229d a6bd 240f cfbc abab 4dbe 352c 24be
000000b0: dd0e 5dbd 1dfc 6b3d 8b6c 86bc 25f4 b4bd
000000c0: 130d 66bd 4db9 29be 980f 84bc 2bb5 29be
000000d0: e423 063e 1ee9 4a3e 8432 333e d28f 723e
000000e0: 424f 3c3e 8403 64be 5906 6abe 1999 7d3e
000000f0: e52f 04be 225f 6fbe 2824 983c 394d b23d
00000100: 26ce 533d 2977 323d d107 71bd 0896 5a3e
00000110: 29a4 093d d180 b4bc 6430 a5bd 82d7 3b3d
00000120: 250a 0d3e 8ac5 633e bde4 233e cf50 b3bd
00000130: 4cc5 06be e69e 503e 7363 853e 961a 79be
00000140: 759d 70be 138b 043e 5ffa 43be 2a7e d6bb
00000150: df58 173e 4555 11be 0028 04be 2288 14bd
00000160: 8e0f f53d c7d7 c83b be2f 2a3e c728 cabd
00000170: c322 003d c1bd 9b3c b965 28be 8c75 263e
00000180: 1ada 61be a6a2 463e ff79 423e dacc 71be
00000190: dca0 d3bc c1e3 59be 46f0 29bd fb47 643e
000001a0: 33f7 f5bd f57f 69be a7aa 65be 21b6 423e
000001b0: f86a 99bd b907 d83d 86db de3d c2c5 7bbd
000001c0: cfa5 5c3c 2d13 253d 28ff 34be bad4 aa3d
000001d0: 04d9 693e 324e 6d3d 71f3 2dbe 12c4 b9bc
000001e0: 9faa 1ebe 6bc5 7c3e 8368 383d 1ac1 803e
000001f0: 1f61 5fbe 790b 713d d6a9 86bc 9c46 69bd
00000200: 8a52 b23d f732 89bd a2bb e1bd 91e4 233e
00000210: 16fb 31bd a9b2 b6bd 1e18 2f3e 818b 453e
00000220: 4ecb 903c d2b5 4dbe f356 2d3e 10f9 c43d
00000230: 3ed0 723e d51f 8abd 1d43 5e3e 86d8 35be
00000240: 81cd 18be e4f5 f9bd 7d79 49be 3b7e 113d
00000250: d4b8 eb3c ff17 9abd b131 4abc bf95 5a3e
00000260: 547c 1ebe 6e78 aebd 609b 43be b832 dc3d
00000270: c71a eabd 1fa6 c33d ca7b 64bd 6111 13bc
00000280: 20d2 aa3c f89a ccbd f44e 6d3d c397 363e
00000290: 2bc9 b4bd 24d5 553d 24f8 6bbd 186e 7c3c
000002a0: 59ea b23d 355a c2bd 957a c7bd 27db b8bd
000002b0: fc09 0abc 2807 463e 9451 a3bc 8455 ebbc
000002c0: f9d0 40bc 638b 143d cd03 84be f596 f43d
000002d0: bc1a 673e 704a 82be dd9d 133e ed69 2f3d
000002e0: 10ed aebc 9e25 313d 12f7 bf3d 75a6 febd
000002f0: 8bce 853d 08d3 78be 2d3b f03d 5e51 91bd
00000300: 78cc 33be fb98 803c c61b 0ebe 9573 89bc
00000310: 1ebd b0bd f466 433e a269 48be f05a 78be
00000320: 4ebe d2bd f0a7 28be 86be 37be 955f e2bd
00000330: 6bdd 45be c81c ae3d 9faa 013e 26c8 04be
00000340: 0eea 403e dbd1 ea3d cd26 9b3d 1944 543e
00000350: 9743 403e 7e07 2cbe afd8 523c 3ee7 55bc
00000360: 3ce8 55be d00b 953e 2f50 5c3e 79a5 0a3d
00000370: f54f 003e 8785 14be 1748 8ebd eb94 35be
00000380: b268 81be dfa2 4ebe 37f1 483e 9a5e 49be
00000390: 82c2 773e 2511 02be a3de aa3d edc1 db3d
000003a0: 75b2 3dbe 4de1 32be aa90 21be 8428 00be
000003b0: 5463 04be 4d2f 21be 0c16 343e 7701 683c
000003c0: 74ca f03d 1590 6cbd d468 9c3c 2d68 32be
000003d0: 09cf 193e d5fa 583e 2048 8dbd 306b 77be
000003e0: faff a6bd b49a 303e e257 133e c0b7 f6bc
000003f0: eafa 00bc aef0 03be 14e1 413e 3f7e cebd

l2pLayer.a f4 [176, 1]
0.1292119 0.086583175 0.02947795 -0.071697414 -0.070174344 0.014608683 0.16303115 0.014367935
0.0871759 0.165104 -0.123970285 0.022414487 0.08446621 -0.042791396 0.1310224 0.13144027
0.17759684 0.12877104 0.07057473 0.17226565 0.18488483 0.046004683 -0.10569902 -0.024429342
-0.06223411 0.16964632 0.1389163 -0.136389 0.120906636 0.013361794 0.18800722 0.01422857
-0.16076876 0.034489833 0.16428837 0.03441922 -0.062624894 0.17920372 0.017027847 0.106326684
-0.12616612 0.039930426 -0.18732701 -0.02285793 -0.13555835 0.030889181 -0.1731298 -0.11672181
-0.1674283 0.121866316 0.16601539 0.1744682 -0.19306517 0.014973055 -0.057870824 0.049777344
0.13386558 -0.019653028 0.07157906 0.030301053 -0.13861158 0.16676973 -0.08479566 -0.13264084
-0.12830351 -0.13874531 -0.00838842 0.10345345 -0.15016627 0.11774844 0.009131861 0.15018336
0.026527515 0.026523443 -0.095672905 -0.02628106 -0.054864757 0.015928335 0.115480065 -0.047847487
-0.045419283 0.10825899 -0.025705462 0.018338868 0.14701495 -0.07591522 -0.16515097 0.024943177
0.14682311 0.15862632 0.10646313 -0.017157735 -0.06178368 -0.0477095 0.030800527 -0.20731437
-0.13598846 -0.19207877 -0.070743136 -0.15302841 0.10858539 0.12148276 0.15583305 0.11150647
-0.013834151 -0.1488303 0.16995776 -0.17343767 -0.02219676 -0.10256086 0.10014248 -0.136384
0.107971296 -0.10425412 0.14767033 -0.20217448 -0.109293334 0.06888788 0.17232083 0.07115381
0.013491446 -0.1377888 0.09115066 -0.018078122 0.13201356 0.19655466 -0.08581874 -0.13278916
0.063762404 -0.14751263 0.07005264 -0.1541 -0.13476828 0.16123152 -0.24325995 0.13201681
0.14934371 0.12126492 -0.043412868 -0.078715436 -0.14672968 -0.09262573 -0.12127404 0.19210532
0.24486795 0.09726853 0.07849482 -0.15695933 0.027861018 0.09767319 0.10077441 0.027989322
0.09448697 0.17045777 -0.09422134 0.15880972 -0.12856364 0.10469834 -0.11724053 0.14740211
-0.039247505 0.114686474 -0.026181348 -0.07399744 0.1767865 0.12690163 -0.14179018 -0.04406867
0.10504907 0.049800273 0.012496709 0.18360205 -0.007408596 -0.21497513 0.100649424 0.076670006
00000000: 2050 043e 8552 b13d be7b f13c 18d6 92bd
00000010: 91b7 8fbd 4259 6f3c a3f1 263e 7d67 6b3c
00000020: 4789 b23d 0611 293e 22e4 fdbd 969e b73c
00000030: 9ffc ac3d 0846 2fbd bc2a 063e 4798 063e
00000040: f2db 353e 8edc 033e 7c89 903d 6866 303e
00000050: 7352 3d3e 686f 3c3d ba78 d8bd 0b20 c8bc
00000060: 32e9 7ebd c4b7 2d3e 1340 0e3e 8fa9 0bbe
00000070: e69d f73d 6deb 5a3c f784 403e f31e 693c
00000080: 91a0 24be 3645 0d3d 363b 283e 2bfb 0c3d
00000090: 7b41 80bd 2e81 373e fc7d 8b3c cec1 d93d
000000a0: b131 01be 168e 233d a7d2 3fbe 8e40 bbbc
000000b0: cfcf 0abe 4f0b fd3c f048 31be d80b efbd
000000c0: 5372 2bbe 0c95 f93d f0ff 293e cba7 323e
000000d0: e0b2 45be 8b51 753c f509 6dbd 54e3 4b3d
000000e0: 0f14 093e 63ff a0bc 0b98 923d ea39 f83c
000000f0: 32f0 0dbe afc5 2a3e 59a9 adbd 00d3 07be
00000100: ff61 03be 4013 0ebe 956f 09bc 67df d33d
00000110: 30c5 19be 1826 f13d cd9d 153c abc9 193e
00000120: 3b50 d93c b147 d93c 28f0 c3bd 614b d7bc
00000130: deb9 60bd 247c 823c d080 ec3d bafb 43bd
00000140: 9209 3abd e4b6 dd3d 4394 d2bc 653b 963c
00000150: 168b 163e 7079 9bbd 561d 29be a255 cc3c
00000160: cc58 163e f06e 223e 5709 da3d 618e 8cbc
00000170: e210 7dbd 096b 43bd 6351 fc3c 384a 54be
00000180: 8f40 0bbe 4cb0 44be c7e1 90bd 7bb3 1cbe
00000190: 0462 de3d f4cb f83d b392 1f3e 815d e43d
000001a0: a3a8 62bc f866 18be 6809 2e3e a599 31be
000001b0: fbd5 b5bc 6e0b d2bd 8017 cd3d 3fa8 0bbe
000001c0: 0e20 dd3d 2f83 d5bd e436 173e d406 4fbe
000001d0: 2fd5 dfbd 1715 8d3d df74 303e 17b9 913d
000001e0: 3a0b 5d3c 8218 0dbe 32ad ba3d 9218 94bc
000001f0: 902e 073e a045 493e bcc1 afbd e2f9 07be
00000200: dd95 823d 8d0d 17be c277 8f3d 64cc 1dbe
00000210: b200 0abe e019 253e 2319 79be 6a2f 073e
00000220: 8fed 183e be59 f83d b1d1 31bd 8f35 a1bd
00000230: 4e40 16be 8fb2 bdbd 865e f8bd 42b7 443e
00000240: aabe 7a3e b934 c73d e4c1 a03d f2b9 20be
00000250: ca3c e43c e208 c83d d062 ce3d dd49 e53c
00000260: 6282 c13d 7b8c 2e3e 1ef7 c0bd 049f 223e
00000270: 30a6 03be 156c d63d ce1b f0bd 94f0 163e
00000280: fec1 20bd bee0 ea3d 447a d6bc f88b 97bd
00000290: 8507 353e 80f2 013e 7231 11be 5a81 34bd
000002a0: f823 d73d 5ffb 4b3d ffbe 4c3c 2d02 3c3e
000002b0: cfc3 f2bb 7122 5cbe 4921 ce3d 2a05 9d3d

phaseLayer.W f4 [24, 26]
-0.1038169 0.17435956 -0.20543236 0.1207705 0.09105394 -0.06177784 0.24050896 -0.29863736
-0.038372237 -0.22792318 -0.1897013 0.10297652 0.05429981 -0.32276067 -0.32815814 0.20356146
0.36767572 0.07110517 0.29236013 -0.16338816 -0.014498359 -0.2813735 -0.29606712 -0.105938494
-0.27059475 0.11247132 -0.1516474 -0.33693704 -0.07736399 0.03759205 0.2847081 -0.3109521
-0.22633533 -0.047120646 -0.28473458 0.003370589 -0.18692753 -0.20492557 -0.10076209 -0.29971015
-0.115179054 -0.16942751 -0.3198803 0.28375605 0.02825003 0.28239733 -0.330178 -0.27971786
0.16154762 -0.32367235 0.03240677 0.19606337 -0.3221574 -0.24364918 -0.33124128 -0.32377425
-0.2039389 0.18699211 0.248828 -0.08656186 -0.051717818 -0.31607783 -0.15031637 -0.30000848
0.33030105 0.030151516 -0.19914798 -0.15971291 0.15556216 0.1080924 -0.041112125 -0.22974066
0.10690254 -0.17238602 -0.3259691 -0.33565995 -0.17494088 -0.33620346 -0.26511315 0.06283807
-0.17789924 -0.22459784 -0.06731897 -0.02424344 0.23737404 -0.3123992 -0.03317535 -0.14974456
0.072124414 -0.32015058 -0.33576113 0.056037154 -0.057584148 -0.27433914 -0.34498763 0.33762866
0.15319528 0.32087076 -0.05593239 -0.13301602 -0.32618737 -0.24892983 -0.19967742 0.13168357
0.23902568 0.20312262 0.12290956 -0.06290875 -0.00096560735 -0.2960619 -0.0147607 0.26326895
0.23120694 -0.15741228 -0.22341937 0.22439478 -0.18340205 -0.26501843 0.026978815 -0.11633881
-0.035867196 -0.3166846 -0.046236876 -0.2231894 0.030813435 0.15071449 0.31234127 0.21853763
0.27042186 -0.28000322 -0.06096342 -0.20157327 0.15144357 0.01753412 0.015465158 0.2091477
-0.22851717 -0.29479665 -0.031484388 0.22204228 -0.1834389 0.109667554 -0.17392653 -0.20389928
0.2171985 0.36634073 -0.25002342 -0.2640468 0.039717335 0.057749595 0.33402777 -0.07417747
0.11308234 -0.16613881 0.037204295 0.18299422 0.21170896 -0.2622879 0.22290029 -0.017491175
-0.07857913 0.2981353 0.27370024 0.20807734 0.014914013 0.06301484 0.30957237 0.1956191
-0.124679886 0.028303996 -0.17091295 -0.24856997 0.07205198 -0.05696818 -0.24575572 0.04587758
-0.021395214 -0.30995324 -0.20629255 0.12478986 0.11134488 0.16036204 -0.24516153 0.18569665
0.14690407 0.20993145 0.017583607 -0.0293658 0.31477195 -0.2434405 0.0391068 0.1805957
0.21666326 0.12475754 -0.15137208 0.16630319 0.045683444 0.06981504 0.10446586 0.0027234994
-0.19949524 0.2469001 -0.32441032 -0.26258367 0.053931694 -0.0990138 -0.3033012 0.019399725
0.089256406 -0.20638247 -0.27072266 -0.2844236 0.26022714 -0.20594057 -0.24645546 0.15115424
-0.25594196 0.1836619 -0.33037946 -0.23323761 0.23019895 -0.4286235 0.009352589 -0.0029927283
0.05214906 0.09703153 -0.14334023 -0.18962096 -0.13755105 -0.2297435 -0.33475757 -0.3922887
-0.12035699 -0.18167788 -0.05406922 0.2777604 -0.16719012 -0.13321747 0.037315477 -0.15977906
-0.03199713 0.30660716 0.019595439 -0.22968255 -0.20073877 -0.10720925 -0.3536421 -0.31086946
-0.2603777 -0.29791316 0.24598658 0.21723463 0.30755833 0.29214075 0.22857104 0.11499516
00000000: f49d d4bd 508b 323e dc5c 52be 8656 f73d
00000010: 7d7a ba3d c30a 7dbd fb47 763e ffe6 98be
00000020: 352c 1dbd b264 69be 0f41 42be 5be5 d23d
00000030: 7a69 5e3d e340 a5be 5804 a8be 6a72 503e
00000040: fe3f bc3e 969f 913d 3ab0 953e 3a4f 27be
00000050: 868a 6dbc 3010 90be 1c96 97be 48f6 d8bd
00000060: 658b 8abe 5d57 e63d 7549 1bbe 0383 acbe
00000070: 0371 9ebd 1ffa 193d 43c5 913e 1d35 9fbe
00000080: 73c4 67be 9401 41bd bbc8 91be 1ae5 5c3b
00000090: ee69 3fbe 02d8 51be 5b5c cebd 9c73 99be
000000a0: ffe2 ebbd 687e 2dbe 5ac7 a3be 7948 913e
000000b0: 9b6c e73c 6296 903e 170d a9be 2e37 8fbe
000000c0: bd6c 253e 62b8 a5be f6bc 043d d6c4 483e
000000d0: d1f1 a4be 2c7f 79be 7598 a9be bdc5 a5be
000000e0: 5cd5 50be dc7a 3f3e c4cc 7e3e 5847 b1bd
000000f0: 10d6 53bd f4d4 a1be 89ec 19be b69a 99be
00000100: 381d a93e 5000 f73c 73ed 4bbe c88b 23be
00000110: b04b 1f3e 8c5f dd3d 3065 28bd 2341 6bbe
00000120: b8ef da3d f685 30be 6ce5 a6be 9fdb abbe
00000130: b423 33be dc22 acbe e9bc 87be 3fb1 803d
00000140: 382b 36be fafc 65be 87de 89bd 2e9a c6bc
00000150: 2e12 733e caf2 9fbe e0e2 07bd a356 19be
00000160: f7b5 933d c7ea a3be e2e8 abbe 3787 653d
00000170: 5bdd 6bbd 2e76 8cbe 38a2 b0be aadd ac3e
00000180: 39df 1c3e 2c49 a43e 5d19 65bd 5a35 08be
00000190: 0802 a7be 76e7 7ebe 3d78 4cbe 0fd8 063e
000001a0: 26c3 743e 60ff 4f3e 02b8 fb3d 4dd6 80bd
000001b0: d020 7dba 6d95 97be ddd6 71bc 30cb 863e
000001c0: 83c1 6c3e af30 21be 0cc8 64be bfc7 653e
000001d0: bfcd 3bbe 7fb0 87be ad02 dd3c 0b43 eebd
000001e0: 7be9 12bd 7c24 a2be e162 3dbd c38b 64be
000001f0: 756c fc3c e654 1a3e 32eb 9f3e 54c8 5f3e
00000200: bc74 8a3e 955c 8fbe c7b4 79bd 3969 4ebe
00000210: 0614 1b3e b7a3 8f3c 9361 7d3c d12a 563e
00000220: 6800 6abe 96ef 96be c6f5 00bd 0d5f 633e
00000230: 68d7 3bbe 6299 e03d cc19 32be f9ca 50be
00000240: 4969 5e3e 0391 bb3e 1203 80be 2431 87be
00000250: a5ae 223d d78a 6c3d b005 ab3e 5bea 97bd
00000260: b797 e73d 4b20 2abe 8863 183d d662 3b3e
00000270: 3cca 583e 9a4a 86be f93f 643e a749 8fbc
00000280: 18ee a0bd 31a5 983e 7022 8c3e 3a12 553e
00000290: e859 743c ed0d 813d 4580 9e3e 6050 483e
000002a0: 2b58 ffbd c8dd e73c ce03 2fbe 2089 7ebe
000002b0: fd8f 933d 7757 69bd 63a7 7bbe 21ea 3b3d
000002c0: 0445 afbc 31b2 9ebe 5b3e 53be d391 ff3d
000002d0: c908 e43d f235 243e a00b 7bbe 4327 3e3e
000002e0: 056e 163e 45f8 563e 7f0b 903c 8c90 f0bc
000002f0: ca29 a13e 7748 79be 742e 203d 14ee 383e
00000300: f9dc 5d3e e280 ff3d 4801 1bbe 624b 2a3e
00000310: 901e 3b3d 30fb 8e3d 32f2 d53d bd7c 323b
00000320: 7b48 4cbe 61d3 7c3e 1c19 a6be 5e71 86be
00000330: 7be7 5c3d bfc7 cabd 4b4a 9bbe 2cec 9e3c
00000340: 10cc b63d ed55 53be 299c 8abe f89f 91be
00000350: 7e3c 853e 16e2 52be d25e 7cbe 2dc8 1a3e
00000360: d30a 83be dd11 3c3e 7f27 a9be d7d5 6ebe
00000370: 46b9 6b3e 8a74 dbbe 9a3b 193c a621 44bb
00000380: 419a 553d 78b8 c63d c8c7 12be ff2b 42be
00000390: 2fda 0cbe e141 6bbe 5865 abbe 11da c8be
000003a0: ba7d f6bd c409 3abe b077 5dbd 9c36 8e3e
000003b0: e333 2bbe 296a 08be 1dd8 183d 1f9d 23be
000003c0: 6c0f 03bd 9dfb 9c3e 9d86 a03c e731 6bbe
000003d0: 778e 4dbe 8690 dbbd 9410 b5be 482a 9fbe
000003e0: 3a50 85be 1388 98be e8e3 7b3e c172 5e3e
000003f0: 4978 9d3e 7993 953e 870e 6a3e 9582 eb3d

p2iLayer.W f4 [24, 176]
-0.08740093 -0.013112016 0.13129285 -0.010139559 -0.15000296 -0.1663854 0.011337196 -0.033653542
0.051619846 -0.080539316 0.14116167 0.07177655 0.11302075 0.11171488 0.14901467 -0.08557982
-0.021330714 0.06712036 0.1652779 -0.047872227 -0.052596275 -0.01868159 -0.1409232 -0.03405967
-0.047242284 0.15138581 -0.0005451571 -0.023616834 0.0792272 0.15377617 -0.074849546 -0.05564144
-0.012980845 -0.103791624 -0.13183632 0.14496008 0.15448673 -0.07658259 -0.1132955 -0.076152615
-0.119078934 0.056732874 -0.009380195 -0.05164458 -0.077217475 -0.06670086 -0.12889041 -0.14379835
0.035123404 0.17064972 0.10058575 0.11162847 -0.14411782 -0.020393044 0.12602794 -0.013577754
-0.14364149 -0.05852416 -0.042219188 -0.15278305 -0.0030874508 0.13609174 -0.050544772 -0.10144109
0.030616542 -0.05168062 0.04933557 0.053496443 -0.19164073 -0.03687124 0.14075029 0.1741249
-0.120336674 -0.10504699 -0.0984984 0.07063431 -0.067016855 0.08886813 0.043544374 -0.00089112675
-0.011754053 -0.040359337 -0.016450223 0.10189976 -0.09231053 0.13544868 -0.028266734 -0.14928032
-0.15591985 0.16233642 0.12761423 0.13423376 0.038777534 0.09458092 -0.091709465 0.13284318
0.113446526 0.025278283 -0.07219449 -0.11562594 0.02030945 -0.05928235 -0.093555644 -0.0452418
0.11199544 -0.08618494 0.12961744 0.04196943 -0.11306583 -0.12931989 -0.11453928 0.1572747
0.08378573 0.12047368 0.075284936 -0.09254473 -0.019993518 -0.124616526 0.09035133 0.15371813
-0.043354914 0.12128181 0.14802115 -0.003829435 0.15363492 0.13049126 -0.06593705 -0.008250671
-0.0790055 -0.16291934 -0.07318232 0.09276035 0.06619406 -0.09380658 0.016435402 0.076963626
-0.07962936 -0.026080536 0.06518662 -0.09372197 0.07178932 -0.015922794 0.12622382 0.03726511
-0.11317129 -0.1359855 0.08819002 0.09153777 0.10666496 0.053363957 -0.14083576 0.01214575
-0.12521777 -0.12623793 0.062435 -0.053718686 0.10878878 0.18584181 0.10891941 -0.0457904
0.11738493 0.060507346 -0.15102918 -0.09777239 -0.12030784 0.035678983 0.063421346 0.039386187
-0.0017771447 -0.071143895 -0.064795755 -0.14908141 0.15615697 0.110896856 0.036328737 0.1367639
-0.14816466 -0.05888125 0.10989911 0.058340773 0.06799522 0.115937635 -0.08848741 0.11506972
0.17895535 -0.053896498 -0.06114467 -0.047836043 -0.14459786 -0.07427042 0.04312685 0.03084206
-0.0048050173 0.042213388 -0.03189191 -0.0863224 -0.13789867 0.1674236 0.10592702 0.2103685
0.09297895 -0.020520184 0.05191306 0.12797536 0.1664446 -0.12181814 -0.018928384 0.1416179
0.04868312 0.0052130045 -0.15517886 0.07627382 0.12959439 0.055961426 0.096890725 0.15769318
0.09049192 0.028014166 -0.07039526 0.07037669 -0.03769119 0.044315156 0.1187204 -0.021714967
0.009918382 -0.16695711 0.10009929 0.008946272 0.0760511 -0.056739375 0.002454374 -0.050053805
-0.1760887 0.0883474 0.13784647 -0.17727911 0.047407955 0.16326775 0.010901176 -0.12306133
-0.13628931 0.071629405 -0.09049728 -0.10931951 0.0554766 0.18952072 0.12722072 0.10527213
-0.13780665 -0.12937836 -0.026328608 -0.033081394 0.10977196 0.010971889 -0.09934111 -0.15463199
00000000: 42ff b2bd c8d3 56bc a271 063e 6520 26bc
00000010: 609a 19be ef60 2abe a6bf 393c 4cd8 09bd
00000020: 556f 533d ccf1 a4bd af8c 103e 95ff 923d
00000030: 6c77 e73d c5ca e43d 4d97 183e 7944 afbd
00000040: c0bd aebc 6676 893d 9c3e 293e ab15 44bd
00000050: 316f 57bd 220a 99bc 2c4e 10be 2782 0bbd
00000060: 2081 41bd e204 1b3e e0e8 0eba 1778 c1bc
00000070: df41 a23d 8077 1d3e b84a 99bd 47e8 63bd
00000080: 9cad 54bc b490 d4bd 1a00 07be 6a70 143e
00000090: c531 1e3e 55d7 9cbd 7907 e8bd e7f5 9bbd
000000a0: a8df f3bd bb60 683d 64af 19bc 4489 53bd
000000b0: 3224 9ebd 769a 88bd d9fb 03be e03f 13be
000000c0: 8fdd 0f3d cdbe 2e3e e7ff cd3d 789d e43d
000000d0: 9f93 13be 500f a7bc 780d 013e 3a75 5ebc
000000e0: c116 13be 08b7 6fbd 07ee 2cbd 2973 1cbe
000000f0: d456 4abb a25b 0b3e 0908 4fbd 59c0 cfbd
00000100: 8bcf fa3c 0faf 53bd 1814 4a3d 161f 5b3d
00000110: 783d 44be 4c06 17bd d820 103e cc4d 323e
00000120: 1373 f6bd e022 d7bd 87b9 c9bd b9a8 903d
00000130: 2240 89bd 7f00 b63d 965b 323d 819a 69ba
00000140: 1294 40bc d54f 25bd 9ec2 86bc d2b0 d03d
00000150: 4e0d bdbd 0fb3 0a3e a38f e7bc f1dc 18be
00000160: 74a9 1fbe 853b 263e 4ead 023e 9374 093e
00000170: 31d5 1e3d a4b3 c13d 2cd2 bbbd 0b08 083e
00000180: a756 e83d 6714 cf3c b4da 93bd 4bcd ecbd
00000190: 0160 a63c 0dd2 72bd 1a9a bfbd 774f 39bd
000001a0: de5d e53d bb81 b0bd 6fba 043e 23e8 2b3d
000001b0: 0f8f e7bd 6f6c 04be 9293 eabd 9e0c 213e
000001c0: da97 ab3d e8ba f63d fd2e 9a3d 1788 bdbd
000001d0: 72c9 a3bc f336 ffbd 1e0a b93d 4968 1d3e
000001e0: ec94 31bd 9962 f83d db92 173e 42f7 7abb
000001f0: 7952 1d3e 809f 053e 010a 87bd d32d 07bc
00000200: a3cd a1bd 54d4 26be 9de0 95bd 23f9 bd3d
00000210: c090 873d aa1d c0bd 89a3 863c 1b9f 9d3d
00000220: b814 a3bd d9a6 d5bc 9080 853d 4ef1 bfbd
00000230: 4706 933d 8570 82bc d140 013e 4da3 183d
00000240: 59c6 e7bd c83f 0bbe f89c b43d 2878 bb3d
00000250: 2973 da3d 2a94 5a3d 4037 10be f8fe 463c
00000260: 1639 00be 8444 01be d8bb 7f3d 2008 5cbd
00000270: a7cc de3d 514d 3e3e 2411 df3d b78e 3bbd
00000280: 8367 f03d 8dd6 773d 65a7 1abe e43c c8bd
00000290: f563 f6bd 2024 123d 0de3 813d 6953 213d
000002a0: 15ef e8ba e4b3 91bd a3b3 84bd cca8 18be
000002b0: 9de7 1f3e e41d e33d 71cd 143d d60b 0c3e
000002c0: 7ab8 17be 772d 71bd c912 e13d bcf6 6e3d
000002d0: 1441 8b3d b670 ed3d e338 b5bd aca9 eb3d
000002e0: 1240 373e 93c2 5cbd d572 7abd baef 43bd
000002f0: 7611 14be 171b 98bd c8a5 303d 7da8 fc3c
00000300: 6873 9dbb f2e7 2c3d 17a1 02bd ccc9 b0bd
00000310: 4f35 0dbe 1871 2b3e 44f0 d83d d76a 573e
00000320: bf6b be3d f219 a8bc caa2 543d f90b 033e
00000330: 7470 2a3e ca7b f9bd b30f 9bbc 4804 113e
00000340: f467 473d dad1 aa3b 35e7 1ebe 7335 9c3d
00000350: 64b4 043e cf37 653d a56e c63d 527a 213e
00000360: d453 b93d f77d e53c 642b 90bd a721 903d
00000370: 1462 1abd cf83 353d ae23 f33d 96e3 b1bc
00000380: b680 223c cef6 2abe db00 cd3d 6293 123c
00000390: aec0 9b3d 8c67 68bd 90d9 203b 3805 4dbd
000003a0: 9950 34be 7bef b43d a027 0d3e a888 35be
000003b0: d82e 423d a92f 273e d99a 323c 9407 fcbd
000003c0: 6d8f 0bbe 70b2 923d a356 b9bd e8e2 dfbd
000003d0: 6e3b 633d b811 423e 2646 023e ea98 d73d
000003e0: 301d 0dbe c37b 04be 18af d7bc 5b80 07bd
000003f0: 1fd0 e03d 70c3 333c 5a73 cbbd d957 1ebe

p2iLayer.a f4 [352, 1]
0.019857274 -0.07878906 -0.12785372 -0.023532772 -0.027115762 0.116246626 0.13715161 -0.13469478
-0.038126223 0.09033906 -0.08648704 0.014525865 0.075255565 0.0010354108 0.0051727467 0.13699175
-0.07592811 0.10389932 -0.06469745 -0.048351374 0.0723177 -0.1311213 -0.020987418 -0.06638251
-0.1340346 0.042742148 -0.11218053 0.02909002 -0.024517145 0.037294544 0.13406515 0.12172591
-0.05179259 -0.03626208 -0.1450251 0.021767396 0.0009615054 -0.06689132 -0.12340361 0.0774621
-0.11928199 0.06314304 -0.033726048 0.036886696 -0.026627906 0.12835416 -0.038114395 0.09484847
-0.018047726 -0.09003187 0.060072403 -0.06707404 0.10553268 -0.057146885 -0.04924225 -0.0017196959
0.043143105 0.036174417 0.025544608 -0.01852521 -0.051820755 -0.080327794 -0.05599171 0.064620204
0.093817554 0.018859856 -0.11331901 0.077969246 -0.078927524 -0.0007154326 -0.02138058 -0.023575937
-0.06600823 -0.015013064 0.11604556 -0.071756534 0.024481922 -0.096002266 -0.041165583 0.09418501
0.02602364 0.10101524 -0.090120606 -0.07003327 -0.020595688 0.0033971558 0.07084029 -0.027480276
-0.102593325 0.10579571 0.12023885 0.0905312 0.033686746 -0.07120111 -0.08162939 0.06281019
0.019234577 -0.04393312 -0.035298165 0.07571929 -0.091816396 0.051520787 -0.108397976 -0.013839804
0.04399458 0.017045006 0.08082648 0.08574467 -0.0821146 0.11691087 -0.11097294 -0.0049001584
-0.017471407 0.10748983 0.12626459 -0.07357519 0.09690907 0.04457826 -0.04854752 0.09371037
-0.004014768 -0.1224142 -0.03789091 0.10143484 0.06545797 -0.04911596 -0.04448011 -0.010477384
0.10462266 -0.029798968 -0.062003784 0.061872184 0.07268178 0.012410477 0.13382578 0.07563289
0.04588927 -0.114228636 -0.008895435 -0.0017578533 0.03147144 -0.0187796 -0.11610527 0.11510839
-0.10823422 0.044523746 -0.0426723 -0.0024374053 0.040587414 0.030343985 0.12012266 -0.04364963
-0.08334258 0.100550935 0.12239209 -0.052116174 -0.0805082 -0.13502973 0.021998046 -0.1404475
0.06870377 -0.1417453 -0.12487334 0.109401 -0.10052646 -0.02057205 -0.06793619 -0.009090968
-0.045520194 0.09103944 -0.09962521 0.09972623 0.031995006 -0.043589704 -0.10700221 -0.10561192
0.06116113 0.023168422 0.060267504 -0.024397545 0.0954066 -0.0037631781 0.010333051 0.13423781
0.044456683 -0.08730201 0.14446372 0.15683065 0.0474131 -0.11574437 -0.070438355 0.09187379
0.11223287 -0.097511254 0.033410415 0.033505626 -0.04187488 0.18778908 -0.04520534 0.035855047
-0.13878164 0.023093712 0.11561946 -0.038252696 -0.044486143 0.07269217 0.030195326 0.058794703
-0.06079768 0.11084574 -0.0027019451 -0.016135879 0.07870122 0.02633324 -0.20487194 -0.012460604
0.02944564 -0.03720235 0.14201131 0.07839984 -0.009082325 -0.049297765 0.109393135 0.089762665
-0.11364605 0.007183621 -0.008463422 -0.11713644 -0.062454857 -0.10235599 -0.052156806 -0.061011173
0.09038415 -0.11642202 -0.059424248 0.106504895 0.090455405 -0.08845386 -0.057279147 0.03256369
-0.15759002 -0.026200471 -0.07662282 -0.0031670653 -0.11917777 0.02996037 0.012560327 -0.03871923
0.07167462 -0.09969618 0.104885355 -0.102964655 -0.057318117 -0.08367167 -0.0011201577 -0.043005917
00000000: b9ab a23c 295c a1bd 16ec 02be cdc7 c0bc
00000010: e021 debc b612 ee3d 7971 0c3e 6eed 09be
00000020: 3e2a 1cbd af03 b93d 1e20 b1bd e5fd 6d3c
00000030: 971f 9a3d 9fb6 873a 2580 a93b 9147 0c3e
00000040: 3280 9bbd 2bc9 d43d 1980 84bd 170c 46bd
00000050: 4d1b 943d a944 06be ceed abbc 8ef3 87bd
00000060: 5e40 09be 6412 2f3d e8be e5bd 324e ee3c
00000070: 2ed8 c8bc 2ac2 183d 6048 093e 6f4b f93d
00000080: 7824 54bd 8c87 14bd 7681 14be 8a51 b23c
00000090: 890d 7c3a 51fe 88bd 08bb fcbd 73a4 9e3d
000000a0: 1e4a f4bd 2351 813d 5324 0abd 8116 173d
000000b0: c422 dabc 466f 033e d71d 1cbd ea3f c23d
000000c0: d3d8 93bc a162 b8bd 7b0e 763d 1d5e 89bd
000000d0: 8521 d83d da12 6abd 3eb2 49bd 6b67 e1ba
000000e0: d3b6 303d a02b 143d ed42 d13c 2ec2 97bc
000000f0: 0042 54bd e682 a4bd 9057 65bd 9957 843d
00000100: 6b23 c03d fc7f 9a3c cc13 e8bd 57ae 9f3d
00000110: c1a4 a1bd de8b 3bba 5326 afbc 5322 c1bc
00000120: 532f 87bd 5bf9 75bc 4ba9 ed3d 17f5 92bd
00000130: 508e c83c d69c c4bd 3e9d 28bd 12e4 c03d
00000140: 872f d53c 14e1 ce3d 2791 b8bd 9a6d 8fbd
00000150: 4ab8 a8bc d1a2 5e3b b714 913d 511e e1bc
00000160: 731c d2bd 6cab d83d c93f f63d 6c68 b93d
00000170: 1dfb 093d e3d1 91bd 4f2d a7bd a1a2 803d
00000180: d591 9d3c 37f3 33bd cf94 10bd b712 9b3d
00000190: 3c0a bcbd 7607 533d c2ff ddbd 58c0 62bc
000001a0: a933 343d f8a1 8b3c 5b88 a53d e79a af3d
000001b0: b32b a8bd f76e ef3d c845 e3bd 8291 a0bb
000001c0: 3220 8fbc a123 dc3d 814b 013e 97ae 96bd
000001d0: 4378 c63d b297 363d c4d9 46bd 39eb bf3d
000001e0: 518e 83bb 4cb4 fabd 8033 1bbd 12bd cf3d
000001f0: d40e 863d d12d 49bd c730 36bd 55a9 2bbc
00000200: 6844 d63d f71c f4bc aef7 7dbd b06d 7d3d
00000210: 2fda 943d 5055 4b3c a009 093e 6be5 9a3d
00000220: 63f6 3b3d b4f0 e9bd 29be 11bc c567 e6ba
00000230: 32e8 003d add7 99bc 9ac8 edbd f3bd eb3d
00000240: e7a9 ddbd 885e 363d 26c9 2ebd e0bc 1fbb
00000250: fd3e 263d f393 f83c df02 f63d f4c9 32bd
00000260: 84af aabd a6ed cd3d b4a8 fa3d c577 55bd
00000270: 7ce1 a4bd 3c45 0abe 3f35 b43c 78d1 0fbe
00000280: 90b4 8c3d ae25 11be 98bd ffbd a20d e03d
00000290: d1e0 cdbd b786 a8bc 2122 8bbd 49f2 14bc
000002a0: 6273 3abd e372 ba3d 4d08 ccbd 443d cc3d
000002b0: 320d 033d 1e8b 32bd fa23 dbbd 104b d8bd
000002c0: 1884 7a3d b4cb bd3c 0fdb 763d 5cdd c7bc
000002d0: 8964 c33d a79f 76bb f54b 293c a375 093e
000002e0: 3618 363d 65cb b2bd 4cee 133e 3798 203e
000002f0: 3d34 423d 620b edbd fc41 90bd 5328 bc3d
00000300: 59da e53d fbb3 c7bd 5cd9 083d 323d 093d
00000310: ff84 2bbd c84b 403e 3c29 39bd bedc 123d
00000320: c61c 0ebe 062f bd3c e5c9 ec3d dcae 1cbd
00000330: 1a37 36bd a2df 943d 305c f73c b7d2 703d
00000340: fd06 79bd 1703 e33d 1e13 31bb 642f 84bc
00000350: 1b2e a13d cfb8 d73c f3c9 51be 9027 4cbc
00000360: fc37 f13c 7e61 18bd 6a6b 113e 1890 a03d
00000370: 08ce 14bc 74ec 49bd 8209 e03d 7dd5 b73d
00000380: 43bf e8bd 9564 eb3b 2aaa 0abc 3be5 efbd
00000390: aad0 7fbd 04a0 d1bd 60a2 55bd dae6 79bd
000003a0: 531b b93d ab6e eebd d766 73bd 3d1f da3d
000003b0: af40 b93d 4c27 b5bd 8a9d 6abd 8161 053d
000003c0: 475f 21be 5fa2 d6bc 6dec 9cbd 8a8e 4fbb
000003d0: 7a13 f4bd 736f f53c d4c9 4d3c 0e98 1ebd
000003e0: 25ca 923d 832d ccbd 22ce d63d 22df d2bd
000003f0: 67c6 6abd 0d5c abbd 41d2 92ba f926 30bd

intersectionLayer.W f4 [48, 46]
-0.20782855 0.19911821 -0.2048945 0.07510255 -0.20291439 0.22467236 -0.101800315 -0.27140638
0.18936092 -0.0037921711 -0.19527625 0.060962144 -0.10686074 0.021301685 0.14426044 -0.099745855
0.059159674 -0.09922516 0.027279744 0.22086754 -0.07551976 -0.18046188 0.094862804 -0.087260894
0.021730006 0.069295324 -0.21054943 -0.1448477 0.029965755 -0.01746036 -0.12289408 -0.073186316
0.0062013976 -0.104167454 0.20972058 -0.023772242 0.1156708 -0.16820735 -0.002718233 0.019694371
-0.17003709 0.034582462 0.118703134 -0.06979325 0.21779107 0.0099247955 0.20652261 0.18878871
-0.20846821 0.2397834 -0.03212954 -0.23748137 0.13001885 0.033809703 -0.09467897 -0.12175648
-0.13134949 -0.012618741 0.0902171 -0.035891723 0.14712563 0.11986961 0.037053894 0.085088395
-0.05288674 0.21575435 0.119061224 -0.007958375 0.16881648 -0.088539526 0.23358423 0.108288035
0.17228907 0.0035607328 -0.18730314 -0.12346698 0.2206342 0.22341447 -0.11491156 0.2393348
-0.015332613 -0.038786553 0.10249028 0.09682588 0.18504156 -0.20374328 0.15499286 0.07870713
-0.10256076 0.102998115 0.17876269 0.028811306 -0.20904067 0.1830146 0.18113914 0.1817576
0.21313062 0.102803975 0.18008561 -0.037004244 -0.17656443 0.1949373 -0.11460539 -0.070386045
0.13860872 0.22874717 -0.24916731 -0.060204796 0.0593195 -0.04934491 0.09449524 0.025632031
0.07192051 -0.09842915 -0.16339916 0.09062239 0.17306922 0.14030506 0.106847696 0.1664294
-0.19237892 0.21881962 0.053511836 0.015564448 -0.18170115 -0.26247036 -0.23314613 -0.13004628
0.15775405 0.020855391 0.03795271 -0.12976736 0.21697691 -0.08122657 -0.040334202 -0.092321366
-0.030569606 0.1422668 -0.053177685 -0.191409 0.080233745 0.033972878 0.008272156 0.10320109
0.2078998 0.013843672 -0.16034217 -0.14723 -0.15316148 0.19630656 0.057390854 0.17477839
-0.1530983 -0.23247232 0.07853605 -0.096634634 -0.2092906 0.21710373 0.065778986 -0.063480355
-0.11020942 -0.05788975 0.05230125 0.116739586 0.2147942 -0.20379786 -0.16984178 -0.1268283
-0.04873476 0.10527257 0.05804931 -0.12567346 -0.12808158 -0.18788931 0.06457431 -0.2521173
0.045538858 -0.07473015 -0.032841574 -0.1643706 -0.05191288 -0.17596254 -0.052589424 -0.20690294
0.034300566 -0.09854014 0.060134053 -0.08139968 -0.05343744 0.002301693 0.046077758 -0.2091027
0.11165041 0.07112393 0.111870855 -0.11314702 -0.23363656 -0.15190682 -0.08598648 -0.123144954
-0.13907638 0.04949245 0.045945913 -0.038166597 -0.04513447 0.08905241 -0.23914948 0.0003090799
0.028294027 -0.00817126 0.10266739 0.06315979 -0.25094408 0.22579587 -0.15573841 -0.18640134
0.23540565 -0.093922734 0.032597482 0.22546592 -0.1370225 -0.08236803 0.17358592 0.23685282
-0.14501774 0.24945375 -0.16234766 -0.06577043 -0.13447273 0.06566018 -0.24039452 -0.02084106
0.20644654 0.14050457 -0.21823661 -0.19873731 -0.025531722 0.28017312 -0.26874772 0.15003927
0.0035807178 -0.06861911 -0.13951874 0.059673917 0.16348353 -0.057820268 0.14401822 0.095233954
0.0501862 -0.07258136 -0.056204055 0.09548585 0.02925412 -0.27160186 0.12068385 0.16781373
00000000: 02d1 54be a5e5 4b3e ddcf 51be 5ecf 993d
00000010: cac8 4fbe 8310 663e af7c d0bd c7f5 8abe
00000020: d4e7 413e 1386 78bb 7ff6 47be 71b3 793d
00000030: ced9 dabd df80 ae3c 02b9 133e 8e47 ccbd
00000040: 6a51 723d 9036 cbbd c579 df3c 1a2b 623e
00000050: 1baa 9abd 00cb 38be 6e47 c23d d7b5 b2bd
00000060: 2003 b23c b5ea 8d3d 459a 57be f552 14be
00000070: be7a f53c 0709 8fbc e4af fbbd b5e2 95bd
00000080: 1835 cb3b bf55 d5bd fec0 563e 01be c2bc
00000090: d0e4 ec3d 8c3e 2cbe 6224 32bb 1756 a13c
000000a0: 341e 2ebe 57a6 0d3d a11a f33d c3ef 8ebd
000000b0: 9f04 5f3e 9c9b 223c aa7a 533e d451 413e
000000c0: b178 55be c889 753e 449a 03bd 512e 73be
000000d0: a923 053e 0b7c 0a3d 0ce7 c1bd 765b f9bd
000000e0: 7b80 06be d6be 4ebc bec3 b83d 3303 13bd
000000f0: 1aa8 163e 337e f53d d3c5 173d d342 ae3d
00000100: c49f 58bd b5ee 5c3e 5fd6 f33d d863 02bc
00000110: 3ade 2c3e 3654 b5bd b430 6f3e 1ec6 dd3d
00000120: 8c6c 303e 2f5b 693b 65cc 3fbe 42dc fcbd
00000130: efed 613e c3c6 643e c156 ebbd 2f14 753e
00000140: a435 7bbc a6de 1ebd 6de6 d13d a64c c63d
00000150: 897b 3d3e 14a2 50be 73b6 1e3e 3431 a13d
00000160: 600b d2bd adf0 d23d 910d 373e b005 ec3c
00000170: c20e 56be 2e68 3b3e 8a7c 393e aa1e 3a3e
00000180: ea3e 5a3e e48a d23d 5d68 383e c391 17bd
00000190: 4ecd 34be a59d 473e 3bb6 eabd 8f26 90bd
000001a0: 72ef 0d3e b33c 6a3e b725 7fbe 4e99 76bd
000001b0: 01f9 723d e31d 4abd b886 c13d 44fa d13c
000001c0: 0f4b 933d 3995 c9bd 1c52 27be 3b98 b93d
000001d0: 0f39 313e 21ac 0f3e f7d2 da3d 786c 2a3e
000001e0: fbfe 44be 4012 603e 3a2f 5b3d 0702 7f3c
000001f0: de0f 3abe 8462 86be dcbd 6ebe da2a 05be
00000200: 478a 213e edd8 aa3c 4d74 1b3d bce1 04be
00000210: 322f 5e3e 1e5a a6bd 7a35 25bd fc12 bdbd
00000220: 1c6d fabc 63ae 113e d8d0 59bd b900 44be
00000230: 9751 a43d 2527 0b3d f087 073c 185b d33d
00000240: afe3 543e 92d0 623c bd30 24be 76c3 16be
00000250: 5dd6 1cbe 9604 493e ac12 6b3d 1bf9 323e
00000260: cdc5 1cbe 390d 6ebe 82d7 a03d 61e8 c5bd
00000270: 4650 56be 7150 5e3e 22b7 863d fd01 82bd
00000280: 7ab5 e1bd cd1d 6dbd d639 563d 2a15 ef3d
00000290: 03f3 5b3e 63b0 50be 01eb 2dbe 47df 01be
000002a0: 1a9e 47bd 2599 d73d 1dc5 6d3d 8bb0 00be
000002b0: d127 03be 0e66 40be 893f 843d 8515 81be
000002c0: f486 3a3d 1f0c 99bd e384 06bd c450 28be
000002d0: 9aa2 54bd 862f 34be 0268 57bd 5dde 53be
000002e0: c07e 0c3d 6acf c9bd 204f 763d e0b4 a6bd
000002f0: 38e1 5abd 00d8 163b 08bc 3c3d 051f 56be
00000300: f8a8 e43d 6ca9 913d 8c1c e53d a0b9 e7bd
00000310: 6c3e 6fbe 768d 1bbe ae19 b0bd 6c33 fcbd
00000320: 0a6a 0ebe 98b8 4a3d c831 3c3d 9454 1cbd
00000330: ecde 38bd 1c61 b63d 9ae3 74be 000c a239
00000340: e0c8 e73c c0e0 05bc 4843 d23d ec59 813d
00000350: be7b 80be 0837 673e e479 1fbe fedf 3ebe
00000360: 2e0e 713e 905a c0bd f084 053d 8ae0 663e
00000370: a04f 0cbe 92b0 a8bd 82c0 313e 8c89 723e
00000380: 887f 14be ce70 7f3e 773e 26be a6b2 86bd
00000390: 38b3 09be d878 863d fb29 76be dfba aabc
000003a0: b966 533e 6ee0 0f3e 6b79 5fbe cb81 4bbe
000003b0: e727 d1bc da72 8f3e 4d99 89be e5a3 193e
000003c0: 7aaa 6a3b 2d88 8cbd 00de 0ebe a36c 743d
000003d0: 3a68 273e f2d4 6cbd 8379 133e 050a c33d
000003e0: 0b90 4d3d 89a5 94bd 3936 66bd 168e c33d
000003f0: 56a6 ef3c 660f 8bbe 1829 f73d 5dd7 2b3e

neighborLayer.W f4 [6, 32]
-0.38675618 0.031266592 0.089731656 0.016938446 -0.32170343 -0.08330629 -0.20795844 -0.22958942
-0.39085248 -0.0033722043 -0.041582655 0.05166928 -0.2996742 -0.31557906 -0.057326246 0.47724134
-0.037367232 -0.12505235 0.30944413 -0.34901616 0.15368041 -0.07490315 0.17760137 -0.25943765
-0.24708109 -0.14506511 -0.007957036 0.05957469 -0.052421186 -0.05061506 -0.24063168 -0.1727543
-0.20852634 -0.028861033 0.1174967 -0.3415251 0.26757318 0.21034996 0.18521442 0.26083425
-0.12919651 -0.047478113 -0.2879802 0.12099573 -0.37071747 0.11688932 0.08442704 -0.020141903
-0.17966779 0.10341652 -0.05357886 -0.098020725 0.27958778 0.31224653 0.06537708 0.28966117
-0.142967 0.14650446 -0.37167525 0.20968324 0.12864749 -0.36010164 -0.025597902 0.17369068
-0.0054198555 -0.05696052 -0.056493107 -0.22535138 -0.37266213 -0.160007 -0.31662503 -0.13027442
-0.3833766 0.10550624 -0.22074914 0.17104223 0.17198348 -0.29036853 -0.032974705 -0.043070126
-0.30577934 -0.06502502 -0.14060482 0.08697001 0.31403512 0.06312737 -0.2671387 0.067245536
-0.119405136 0.15596715 0.24991855 0.03585514 -0.30170864 0.2920942 -0.15261863 -0.26256007
-0.34400734 -0.24427928 0.19271629 0.045431357 -0.23095572 0.35705703 0.08772425 -0.02752206
0.32508343 0.00050739903 0.13515009 -0.057155415 -0.31731752 0.11775723 -0.34286305 0.06589113
0.25482023 0.3279152 0.021275816 -0.2878529 -0.19751793 -0.13892874 0.14226513 0.03873294
0.008159514 0.32295388 0.17893331 -0.34688154 0.30605593 -0.12864378 0.2206472 0.25903538
-0.36747873 0.071548626 -0.41366833 -0.3884395 -0.19935292 0.22732665 -0.24315618 -0.33828926
-0.04530504 0.36555234 0.05002715 -0.15910035 -0.15693922 -0.3072689 0.20783514 -0.2234161
0.011372754 -0.12465505 0.13652274 0.052721374 -0.059762806 -0.003384124 -0.3044164 -0.20303625
0.3119313 -0.32412806 0.13357547 -0.18524797 0.3783192 -0.35657656 -0.12203654 -0.007835359
0.15596518 0.13953547 -0.107103206 -0.05870654 -0.014780809 0.3601244 0.008511688 -0.24509354
0.12871307 -0.14123484 -0.13085623 0.058516063 0.027465053 -0.03272295 -0.3393311 0.36355183
0.25130796 0.36347696 -0.15637584 -0.19681314 -0.19792794 -0.29157948 -0.27633423 -0.19418116
0.20830631 -0.3960743 -0.08354967 0.34328648 -0.33750263 0.15618391 -0.001444241 0.28472117
00000000: e804 c6be 6611 003d 3bc5 b73d 7fc2 8a3c
00000010: 50b6 a4be 7d9c aabd 0ff3 54be 7d19 6bbe
00000020: d11d c8be 3300 5dbb 9352 2abd 2ba3 533d
00000030: e66e 99be 9493 a1be edce 6abd fa58 f43e
00000040: 620e 19bd b90d 00be 766f 9e3e 3fb2 b2be
00000050: 665e 1d3e d366 99bd 22dd 353e 03d5 84be
00000060: d302 7dbe f38b 14be 3a5e 02bc 9704 743d
00000070: 99b7 56bd bd51 4fbd 2768 76be 81e6 30be
00000080: ee87 55be f96d ecbc 1ca2 f03d 61dc aebe
00000090: 5aff 883e fb65 573e d9a8 3d3e 118c 853e
000000a0: 174c 04be 6978 42bd 2472 93be 9ccc f73d
000000b0: aece bdbe ab63 ef3d 15e8 ac3d a200 a5bc
000000c0: d5fa 37be 0acc d33d 8275 5bbd 17bf c8bd
000000d0: 2126 8f3e c7de 9f3e 6be4 853d 784e 943e
000000e0: f165 12be 4405 163e 384c bebe 34b7 563e
000000f0: 2bbc 033e 3e5f b8be b1b2 d1bc f8db 313e
00000100: 0b99 b1bb 6f4f 69bd 5165 67bd 83c2 66be
00000110: 92cd bebe e0d8 23be ad1c a2be a866 05be
00000120: f049 c4be a813 d83d 100c 62be b225 2f3e
00000130: 701c 303e 2fab 94be 7c10 07bd 4d6a 30bd
00000140: 1c8f 9cbe d62b 85bd b6fa 0fbe 551d b23d
00000150: 36c9 a03e ec48 813d 67c6 88be 07b8 893d
00000160: ae8a f4bd dab5 1f3e a6ea 7f3e d7dc 123d
00000170: 8e79 9abe 5f8d 953e 0f48 1cbe 466e 86be
00000180: bb21 b0be 5924 7abe 6b57 453e 3b16 3a3d
00000190: a87f 6cbe 2ed0 b63e c6a8 b33d f175 e1bc
000001a0: 5671 a63e f902 053a c964 0a3e cc1b 6abd
000001b0: 7177 a2be b42a f13d bf8b afbe eef1 863d
000001c0: cc77 823e 80e4 a73e 9f4a ae3c 7561 93be
000001d0: 2442 4abe 5643 0ebe f3ad 113e 6ea6 1e3d
000001e0: 7baf 053c 365a a53e 4b3a 373e 759a b1be
000001f0: 5db3 9c3e 32bb 03be 57f1 613e 49a0 843e
00000200: 2c26 bcbe 1688 923d 56cc d3be 8be1 c6be
00000210: 2c23 4cbe 51c8 683e effd 78be 4034 adbe
00000220: c791 39bd ad29 bb3e 45e9 4c3d 34eb 22be
00000230: adb4 20be 5952 9dbe bcd2 543e 31c7 64be
00000240: ca54 3a3c 264b ffbd 9ecc 0b3e 5ef2 573d
00000250: d8c9 74bd 2ec8 5dbb 77dc 9bbe bce8 4fbe
00000260: 76b5 9f3e 1df4 a5be 02c8 083e a5b1 3dbe
00000270: 0eb3 c13e 3491 b6be 4bee f9bd e15f 00bc
00000280: 56b5 1f3e 63e2 0e3e ed58 dbbd 4576 70bd
00000290: 352b 72bc 3a62 b83e 9b74 0b3c cdf9 7abe
000002a0: 5ccd 033e de9f 10be 2dff 05be 8aae 6f3d
000002b0: 64fe e03c 8008 06bd cebc adbe 7723 ba3e
000002c0: 70ab 803e a719 ba3e fd20 20be 6289 49be
000002d0: 9fad 4abe e849 95be ae7b 8dbe 6dd7 46be
000002e0: 404e 553e 40ca cabe 171c abbd 3fc3 af3e
000002f0: 25cd acbe adee 1f3e b04c bdba f9c6 913e

neighborLayer.a f4 [64, 1]
0.1281029 0.08720401 -0.30349302 -0.13444912 0.12522767 0.12228221 0.26046792 0.03837959
0.243309 -0.294251 -0.22453463 0.23932652 0.049016193 -0.15329975 0.027254974 0.17987622
-0.15172094 0.08936306 0.24606688 -0.024640404 0.2753618 0.22342156 0.17792761 0.13834421
0.3304862 0.10759787 0.22290234 -0.08921839 0.0014062729 -0.11475728 0.14759918 0.010609283
-0.01776036 0.0005933048 0.26707935 -0.20834124 -0.023802185 0.14175257 0.019041644 0.13333578
-0.0036745605 0.0477073 0.04100162 -0.052591518 -0.0037026964 0.040481642 -0.20327376 0.1901662
0.08388445 -0.27980533 -0.09631074 0.15881959 -0.021902448 0.06410168 0.007291367 0.15448655
-0.15770823 -0.07619136 -0.031288274 -0.13646571 0.19652347 -0.035174713 0.276713 -0.116414204
00000000: 682d 033e 0498 b23d 7063 9bbe 08ad 09be
00000010: af3b 003e 186f fa3d 0d5c 853e eb33 1d3d
00000020: ff25 793e 11a8 96be 68ec 65be 0312 753e
00000030: 34c5 483d 9cfa 1cbe d345 df3c 7931 383e
00000040: bc5c 1bbe fb03 b73d f5f8 7b3e acda c9bc
00000050: 39fc 8c3e 9fc8 643e a832 363e 1baa 0d3e
00000060: 7d35 a93e 465c dc3d 8340 643e 22b8 b6bd
00000070: b052 b83a dd05 ebbd 3d24 173e 8fd2 2d3c
00000080: 2d7e 91bc 0388 1b3a a0be 883e 6857 55be
00000090: cdfc c2bc 9627 113e 39fd 9b3c 2d89 083e
000000a0: e5d0 70bb bb68 433d 51f1 273d 346a 57bd
000000b0: f0a8 72bb 14d0 253d ff26 50be eeba 423e
000000c0: 9ccb ab3d a542 8fbe 913e c5bd 9aa1 223e
000000d0: c36c b3bc be47 833d 6bec ee3b b931 1e3e
000000e0: 447e 21be 370a 9cbd 2228 00bd abbd 0bbe
000000f0: 733d 493e 5c13 10bd 54ad 8d3e 926a eebd
