test/model/actor_4_3_3_3_3_120_best_rou4.pth (torch, 689393 bytes, 17 tensors)

v2lLayer.W f4 [3, 40]
000000 30 77 3a 3e a1 b7 4c be 03 79 19 be 7f 12 3e 3e
       0.18209529 -0.19991924 -0.14987569 0.18561743
000010 2b b7 d4 be b2 74 7a 3e 39 f7 bf bd 83 4f 39 3e
       -0.41545996 0.24458578 -0.09373326 0.18096738
000020 2d c3 88 3d e2 a0 77 bd 83 97 be 3d b5 f1 79 bc
       0.06677852 -0.060456164 0.09306242 -0.015255381
000030 f8 6e 73 3d c4 ef 09 be a4 96 df bd 97 b6 62 bc
       0.059432 -0.1347037 -0.10917404 -0.013837478
000040 c3 fe 10 3d 27 e7 2a bc 8d f0 ad 3e be 7a cb 3d
       0.03539921 -0.010431088 0.33972588 0.099355206
000050 49 4f 1a be f8 39 85 be 55 73 0f be 01 34 1a be
       -0.15069307 -0.2602079 -0.1400884 -0.150589
000060 f2 89 30 be b3 43 16 3d bd cc 51 3e d1 0d 47 3e
       -0.17240122 0.036685657 0.20488258 0.19438864
000070 f5 9d b5 be 43 94 5e 3e 8f 71 bf 3d df 17 a5 3e
       -0.35472074 0.21736245 0.093478315 0.32244775
000080 d1 0d 2e 3e 46 00 a9 be 54 b4 e2 be 0b 36 21 be
       0.16997458 -0.3300802 -0.44278204 -0.15743272
000090 ca 3b 9e 3e 7a a3 93 bd 15 14 2d 3e 26 71 3e be
       0.3090499 -0.07208915 0.16902192 -0.1859785
0000a0 ae 81 c9 3e 8c 5e 50 be b3 a3 75 3e ed 56 d4 3b
       0.3935675 -0.20348567 0.23988228 0.006480089
0000b0 8b 98 63 be 86 00 38 3e 9d 55 4e be 87 22 09 3e
       -0.2222616 0.1796895 -0.20149846 0.13392077
0000c0 fe 5c 8e bd 2b a3 1f bb 7a d2 a8 be 49 6f 65 be
       -0.069513306 -0.002435873 -0.3297308 -0.22405733
0000d0 94 32 25 3e 52 d1 b6 bd 49 50 bd 3e fd b1 93 3e
       0.16132575 -0.089266434 0.36975315 0.28846732
0000e0 46 6b 83 bc 55 ca 65 be 28 08 89 3e 58 d0 22 3e
       -0.016042363 -0.22440465 0.26764035 0.1589979
0000f0 81 c8 58 be ae dd 41 3e 28 a9 39 3e 82 dd a9 3e
       -0.21170236 0.1893222 0.18130934 0.3317681
000100 73 24 77 be cb e9 8d bd d3 44 10 bc 13 e8 9e 3d
       -0.24134998 -0.06929358 -0.0088054715 0.077591084
000110 20 60 6e be 15 63 68 be 1f bf 6d 3e 9e a4 12 be
       -0.23278856 -0.22694047 0.23217438 -0.14320609
000120 da 7e 0d 3e fe 38 b2 3c 84 45 ed 3d 06 97 88 3d
       0.13817921 0.021755692 0.11585525 0.066694304
000130 57 39 0c 3e 44 cf 57 3e 2d f2 93 be 78 b7 66 3e
       0.13693748 0.2107516 -0.28895703 0.22530925
000140 39 f4 56 be 15 b8 d3 be 93 19 c7 bc 46 5b eb bc
       -0.20991601 -0.4135138 -0.024304187 -0.028730046
000150 ed 5b 25 3e d7 c9 78 be 28 e2 99 be 70 44 a2 3e
       0.16148348 -0.24295746 -0.30055356 0.3169284
000160 cf f7 b0 bc 8f b8 6f 3e 3b 40 2f 3e 9e 64 d0 be
       -0.02160254 0.23410247 0.17114346 -0.40701765
000170 06 cf ce 3c 00 f8 ff 3d e8 9b 9b be 63 ee 58 be
       0.0252452 0.12498474 -0.30392385 -0.21184687
000180 02 71 1f 3e 3e a4 e2 3d 92 da fd bd 40 0a b5 bd
       0.15570453 0.11066483 -0.123952046 -0.08839846
000190 b4 3f ca 3e fb bf 55 be 37 54 24 3e f5 78 47 3e
       0.39501727 -0.20874016 0.1604775 0.19479735
0001a0 4d a2 98 be ea 68 b2 be c7 02 c6 3e 2b 7c 84 3d
       -0.29811326 -0.34845668 0.38673994 0.06468996
0001b0 f5 d0 95 3e 18 8c cb 3d c1 a2 30 3e ab 5a 14 3e
       0.29260984 0.0993883 0.17249586 0.14487712
0001c0 95 a2 9b 3e 81 f3 5a be 1c 57 dc bb 69 03 80 3e
       0.30397478 -0.21381952 -0.0067242514 0.25002602
0001d0 88 13 99 3e 8f ce 8d 3e 5b 14 76 be eb 29 71 be
       0.29897714 0.27696654 -0.24031202 -0.23551147

v2lLayer.a f4 [80, 1]
000000 2e 2f cc bd 3d 03 c1 3c 48 0e 34 3e 11 b5 c4 bd
       -0.09969936 0.023561114 0.17583573 -0.09604848
000010 8f df 9d 3d 0c 87 31 bd d4 dc 83 be 3e e3 1e bd
       0.07708656 -0.04334168 -0.25754416 -0.038790934
000020 05 4d 90 3e 57 5a 64 3e 3a 81 cd bd b5 2f 99 3d
       0.2818376 0.22300087 -0.10034414 0.074798025
000030 5e 6d 84 3e 85 04 be 3d 25 9a 1f 3e 59 08 24 3e
       0.2586469 0.09278206 0.15586145 0.1601881
000040 86 83 3f 3e 74 88 ea 3d 3e 2a 02 be 20 49 20 be
       0.18702516 0.114518076 -0.12711427 -0.15652895
000050 6b b6 49 be 30 6e b6 bd ea e5 6d be ee 7c 85 3c
       -0.19698493 -0.08907735 -0.23232237 0.016294923
000060 9c 47 a3 3d 9e 51 43 bd a0 f4 00 3e 3b 6b 0a 3e
       0.07972643 -0.047685258 0.12593317 0.13517468
000070 ba 6b 88 3d d4 22 81 3e 06 f6 9f bd fe 64 a0 3e
       0.06661172 0.25221884 -0.07810597 0.3132705
000080 cd 9f 69 bc 71 d4 47 bd e1 a1 a7 be f0 3e 95 be
       -0.014259291 -0.048786584 -0.3274069 -0.2914958
000090 bb ed 04 be 7a 1b 0e be 12 47 84 3e 2e f8 fb bd
       -0.12981312 -0.13877669 0.25835472 -0.12303196
0000a0 a1 b3 35 be 61 b0 d4 3d 55 57 15 3e 49 0d de 3d
       -0.17744304 0.10385204 0.14584096 0.10842378
0000b0 37 ff c1 bd fb 27 d6 3c 34 de fc bd 74 11 7f bd
       -0.094725065 0.026142111 -0.123470694 -0.062272504
0000c0 10 c6 84 be d0 bf d7 bd e0 b4 f5 bd 35 66 4c 3d
       -0.2593236 -0.10534632 -0.1199739 0.04990216
0000d0 4a e4 8c 3d 63 5c d4 3d 54 cf 9d 3e 19 25 97 3e
       0.0687948 0.10369184 0.3082224 0.2952049
0000e0 74 0a 39 3e e3 6c d5 bc ef 7c 5f be 4b 1a 3e 3e
       0.18070394 -0.026052898 -0.21825002 0.18564717
0000f0 eb 4c 8a bd e2 37 b0 3c be 09 f6 bd 53 d6 66 3c
       -0.06752952 0.021511022 -0.12013577 0.014089185
000100 b2 91 4b be 1d 60 67 3e 3c 76 7a be 2b 14 6b be
       -0.19879797 0.22595258 -0.24459165 -0.22956912
000110 0a f9 3f 3d ea af 3b be f1 0e dc 3d 51 b1 03 be
       0.04686836 -0.18328825 0.10745037 -0.1286061
000120 5a c1 03 be 45 2a 0d 3d ac 6a 7a 3e c2 1c d7 bd
       -0.12866727 0.03446414 0.24454755 -0.10503532
000130 83 0d f1 3d 10 e9 63 3e d6 8d 39 3e ab ca 23 be
       0.11770155 0.22256875 0.18120512 -0.1599528

laneLayer.W f4 [12, 12]
000000 14 99 28 3e c2 fe a6 be 4b 62 e4 3e 19 e8 a5 be
       0.16464645 -0.3261624 0.44606242 -0.3240364
000010 7e a2 b5 3e 68 1e 2a 3d 7f a0 0d bd dc 45 d1 bc
       0.35475534 0.041532904 -0.03457689 -0.025546007
000020 9c 88 b9 3d 7b 0f 85 3e 2b 9a 39 3c cc 90 19 3e
       0.09059259 0.25988373 0.01132826 0.14996642
000030 90 5d ec be 1e 6b b4 3e b8 35 da 3e 1b 76 e0 3e
       -0.46165133 0.35237974 0.4261911 0.43840107
000040 94 46 bb 3e fb 8f b5 be 8d fd 2a be 31 bb f5 3e
       0.36577284 -0.3546141 -0.16698284 0.47994378
000050 c8 72 c8 be 22 4e e2 3e 0f 89 df be a2 35 b7 be
       -0.3915007 0.44200236 -0.43659255 -0.35783106
000060 fc d0 40 3e 83 ad d4 be 5a 9c 30 be 7e 24 c7 3e
       0.18829721 -0.4153863 -0.17247143 0.3889503
000070 47 0a ad 3e 84 a1 07 3f 8f 14 30 bd 2d d0 bf be
       0.33796903 0.5298083 -0.042988356 -0.37463513
000080 da 2b de 3e af 4e 29 be 0b c0 56 be 03 0e 86 3d
       0.4339283 -0.16533922 -0.20971696 0.06545641
000090 70 6e b5 be 02 dc a5 3e aa 2a 9e 3e 87 d0 c8 be
       -0.3543582 0.32394415 0.30891925 -0.39221594
0000a0 d6 95 d4 be 08 d8 42 bd 2c b6 5b 3e 6a 9d 25 bc
       -0.41520566 -0.047569305 0.21456212 -0.010108331
0000b0 48 18 84 be 67 a1 e1 3b b7 8a ee be 2d ec b3 be
       -0.25799775 0.0068856957 -0.46590206 -0.35141125
0000c0 4d f3 ad be 33 4a cf 3e 74 0c ee 3e b0 41 90 be
       -0.33974686 0.40486297 0.46493876 -0.28175116
0000d0 84 db 65 3d 6a 5d 70 3e 0e 4a 3c 3d 18 84 89 be
       0.05611755 0.23473135 0.04596906 -0.26858592
0000e0 43 ff 9b 3e 41 dd ab 3e 46 ed c7 bd 7e 08 87 bd
       0.30468187 0.3356724 -0.09762053 -0.06593417
0000f0 a7 ba e1 3e 09 de d8 3e cf e3 96 be 75 d4 08 3f
       0.44087717 0.423569 -0.2947068 0.53449184
000100 1f 08 fc 3d 3c cf a2 be 72 26 9c 3e a3 58 a4 be
       0.123062365 -0.31798732 0.3049808 -0.32098874
000110 a0 f2 e4 3e 78 6e ab be 09 f5 ac 3d 0e 42 16 3e
       0.44716358 -0.33482718 0.08445174 0.14673635
000120 b6 07 fc 3d 8d 72 d6 3e a5 7e 3f be 3b 3d 93 be
       0.12306158 0.4188427 -0.18700655 -0.28757653
000130 c9 7c c8 be f8 d6 89 bc c5 cf 80 be d5 3a 72 3d
       -0.39157704 -0.016826138 -0.25158516 0.059138138
000140 0f 2d b6 bd d2 60 41 3e aa 6d c0 3e b3 56 22 3e
       -0.08895313 0.1888459 0.37583667 0.15853386
000150 90 ef 24 be 88 3c 7b be 6c 45 df be 10 69 d7 3e
       -0.16107011 -0.2453481 -0.43607652 0.42072344
000160 98 fc c1 bd 18 b3 ce 3d 00 84 97 3c f0 23 a3 be
       -0.094720066 0.10092753 0.01849556 -0.31863356
000170 a8 2c 90 3e 9a 77 8f 3e 40 46 ce 3c 62 7b 91 be
       0.2815907 0.28020936 0.025179982 -0.28414446
000180 5c 8d 59 be 00 a0 e1 3b 28 43 92 be 5a d6 8e be
       -0.2124533 0.0068855286 -0.2856686 -0.27897912
000190 40 bf 98 bd 3c 6e 13 be 50 5f fb 3d b0 93 06 be
       -0.07458353 -0.1439752 0.12274039 -0.13142276
0001a0 a0 be 87 bd c4 6b 43 be c4 f2 e9 be b6 43 df 3e
       -0.06628156 -0.19084078 -0.45693028 0.43606347
0001b0 02 4b af 3d 86 e7 df 3e 17 be a7 bd 9d cf 05 be
       0.085592285 0.43731326 -0.08190554 -0.1306748
0001c0 93 d4 e4 be 9b 40 2f be 65 7c b6 3e 14 bf e3 be
       -0.4469343 -0.17114489 0.3564178 -0.4448172
0001d0 51 b7 3d be 34 8a 9b 3e f4 7c 52 3e 1d 50 3b 3e
       -0.18526961 0.30378878 0.20555478 0.1829228
0001e0 33 4e d8 bd ff 48 36 bd 8b 11 cd bd 03 2a 34 be
       -0.1056179 -0.04450321 -0.10013112 -0.17594151
0001f0 ab 11 56 3e 94 d7 29 be fa e1 8a be 06 2d 02 3e
       0.20905177 -0.16586143 -0.2712553 0.12712488
000200 f9 53 bc be f1 d0 e7 bd 55 c5 80 3e ef 97 3c 3e
       -0.36782816 -0.11319149 0.25150552 0.18417333
000210 80 e0 e1 3e 6e ab a6 be 2a ea 8b 3b 1e a3 2b be
       0.44116592 -0.32552665 0.004269858 -0.16761443
000220 67 89 86 be aa f1 69 be e9 3f f9 3d 1e b0 b9 3d
       -0.26276705 -0.22846094 0.12170393 0.09066795
000230 cf 70 8a be a6 b3 b2 be 18 e4 df be 04 36 f5 3e
       -0.2703919 -0.34902686 -0.4372871 0.47892773

l2pLayer.W f4 [12, 88]
000000 8f 5b db bc 6e 0d 9c bd 31 92 91 bd 53 3b a9 bd
       -0.026777057 -0.07619749 -0.07107962 -0.08263268
000010 f5 d7 69 be 1b 03 e4 bd f9 dd 1e 3e ab 58 a2 3d
       -0.22836287 -0.11133405 0.15514363 0.07927068
000020 b6 88 a8 bd 1d e7 01 be 98 a8 0f 3e 3d 84 40 3e
       -0.082292005 -0.12685819 0.14029157 0.18800445
000030 52 ea 61 3e da 68 d1 3d e5 67 1f 3e 49 60 91 bd
       0.22062042 0.10225077 0.15566976 -0.07098443
000040 86 c6 0e be 96 3f 65 be 42 9a db 3d 72 b2 c7 3a
       -0.13942918 -0.22387537 0.10722782 0.0015235676
000050 09 ec 01 3e 30 d6 b7 bc 47 a2 5d be 04 d0 0e be
       0.12687697 -0.022441 -0.21643935 -0.13946539
000060 82 c9 bf 3d 25 6e 9e bc 77 a8 70 be 26 d5 e1 3d
       0.093646064 -0.01933963 -0.23501764 0.11026983
000070 50 9e 46 3c 7b 58 60 bd 5c 34 d1 3d 69 2f a8 3c
       0.012122706 -0.05477188 0.10215065 0.02053042
000080 f6 a3 da bd f8 d3 6c 3e 05 e8 d7 3d c3 aa 7d 3d
       -0.10675804 0.23127735 0.10542301 0.06193043
000090 19 10 73 bc 90 bb 88 be 13 48 45 3e 6f e0 2d bd
       -0.014835381 -0.267056 0.19265775 -0.042450365
0000a0 1e 9b 42 be 19 33 2e 3e f8 73 e0 3d 7b a6 c8 3c
       -0.19004485 0.1701168 0.10959619 0.024493447
0000b0 96 2b ed bc 63 5e ce bd 7e 13 84 3d 9f 05 5d 3e
       -0.028951447 -0.100765966 0.0644903 0.21584176
0000c0 11 0c 0d 3d 24 f0 9c bd fa 6c 7e 3e d7 1a fd 3c
       0.034435336 -0.07662991 0.24846259 0.030896587
0000d0 8d 33 49 3e 9e 52 db 3c 60 f5 4d 3e c7 9e 1c 3e
       0.19648571 0.026772793 0.20113134 0.15294944
0000e0 b8 02 11 be 22 9e 57 3e 54 9b 16 3d 98 1f 7f be
       -0.14161193 0.21056417 0.036769226 -0.24914396
0000f0 eb 9d 3a bd 9e 37 44 be ed be 56 be 4a 26 06 be
       -0.04556076 -0.19161841 -0.2097127 -0.13100544
000100 68 09 40 3e e2 08 b6 bd dd d8 d8 bc 59 7d c0 3d
       0.18753588 -0.08888413 -0.026470596 0.09398908
000110 c1 0b 03 3e 55 78 f1 bd 55 9c bf 3d fb 22 06 3e
       0.12797453 -0.1179053 0.0935599 0.13099281
000120 60 04 35 be 13 d6 77 3e ce b8 0f be 0b d5 01 be
       -0.1767745 0.24202757 -0.14035341 -0.12678926
000130 dc 6e 65 be 45 74 70 3e 37 67 04 3d 37 3c 6d 3e
       -0.22405571 0.23481853 0.032324996 0.23167501
000140 8c 52 5e 3d f6 ea 99 3d 51 23 bc bd 3d 0c 37 be
       0.05427794 0.07515518 -0.091864236 -0.17875762
000150 47 d3 26 bb e9 b9 32 bc 28 93 77 3b 71 f9 1b be
       -0.002545552 -0.010908582 0.003777692 -0.15231873
000160 7c 60 5f 3c 4c c1 73 3d 3d b0 c3 3d ee cf 34 be
       0.0136338435 0.059510514 0.09555099 -0.17657444
000170 82 aa fa 3d c6 5a ba 3d fc 26 35 3e 2a 7e 33 3e
       0.12239553 0.09099345 0.17690653 0.17528597
000180 3c 5d 45 be 64 9d 4e 3e 8b 96 7f be db a0 0f 3e
       -0.19273847 0.20177227 -0.24959771 0.14026205
000190 da 0d 9d 3b 32 cd 14 3e 06 66 c3 bd 67 b7 e5 3d
       0.004792911 0.14531401 -0.09540944 0.11216622
0001a0 fe 3c f2 bd 59 ac 53 be 6e 7e 58 3d 8c af 18 3e
       -0.118280396 -0.20671214 0.052854948 0.14910716
0001b0 31 c4 8a 3e 9c 80 4a bd 57 25 7a 3e c4 d7 12 3e
       0.27102807 -0.049439058 0.24428307 0.1434012
0001c0 9b 52 e5 bd 77 c5 32 be 8d aa 11 3e d1 af a0 bd
       -0.11197396 -0.1745814 0.14225216 -0.07846034
0001d0 cc a8 f9 3d 3e cb 51 be c3 4f 38 3e 72 34 2c 3d
       0.121903986 -0.20487687 0.17999177 0.042042203
0001e0 5f 9a 16 bd 01 db e7 3d 8a 04 41 be b7 db d8 bc
       -0.036768313 0.113210686 -0.18849388 -0.026471956
0001f0 d6 df 0a 3d 3e a6 2a be 97 30 79 bd 35 d7 c0 bd
       0.033904873 -0.16664979 -0.060837355 -0.094160475
000200 7f a2 59 3e 8d 0d 4d 3e 0c 0d 73 3e 4f 70 33 3e
       0.21253394 0.200247 0.23735446 0.17523311
000210 12 c5 62 be 8b b3 88 3d ea 79 c8 3d 03 48 2c be
       -0.22145489 0.0667487 0.09788878 -0.16824345
000220 99 21 d3 3d d7 32 86 bd a1 03 47 3d 41 b8 ad 3d
       0.103091426 -0.06552666 0.048587445 0.08482409
000230 fa 1a 59 3e 54 08 23 be 8d 47 51 be 77 92 66 3e
       0.21201697 -0.15921146 -0.2043745 0.2251681
000240 67 cc b6 3d 35 e2 1b 3e 2f a4 f9 3d 98 8c f8 bd
       0.089257054 0.1522301 0.12189519 -0.12136191
000250 93 0a 1e 3e 88 69 4d be cd 94 c3 bb c9 9c fb 3d
       0.15433721 -0.20059788 -0.005968666 0.12285764
000260 36 9e 44 3e f2 c1 16 be ea ee 20 be a5 f7 9f 3d
       0.19200978 -0.14722422 -0.15716138 0.07810906
000270 cd d8 3a be 48 a4 3a be 33 af 59 be 34 b0 77 bd
       -0.18246765 -0.18226731 -0.2125824 -0.060470775
000280 92 f7 0b bd c1 75 10 be 8b 37 d0 bd e0 19 7a be
       -0.03417165 -0.1410742 -0.10166844 -0.24423933
000290 40 d4 0f 3e 5b da 64 bd 31 d4 29 be f8 d8 af 3d
       0.1404581 -0.055872303 -0.16584851 0.085863054
0002a0 10 32 14 be de 4c 0c 3e 02 a7 09 3e c7 a7 6a be
       -0.14472222 0.13701198 0.13442615 -0.22915564
0002b0 87 27 62 be f4 bb 2e be c5 d6 c7 bd a7 1e 1a 3c
       -0.22085391 -0.17063886 -0.09757761 0.009406722
0002c0 ee ff 87 be f7 ac 13 be cc 09 9d 3d 4b 81 ed bd
       -0.26562446 -0.1442145 0.07667884 -0.11596926
0002d0 cb 99 ef bd 43 43 11 be a0 45 cd 3d a7 a6 eb 3c
       -0.116992556 -0.14185815 0.100230455 0.02876599
0002e0 18 d5 7f bd c6 94 fa bd c3 03 9f 3d 9b 78 cf 3d
       -0.06245908 -0.122354075 0.07764389 0.101304255
0002f0 23 dd 0d 3e c9 bf 35 3d f3 51 44 bd 71 c4 5c be
       0.13853888 0.044372354 -0.047929715 -0.21559311
000300 1d 42 30 3e a4 a4 04 bd 7d 67 07 be d2 d8 61 3e
       0.1721272 -0.032383576 -0.13223071 0.22055367
000310 f5 a8 f9 3d 26 83 27 be e3 2b 15 be 8d ea 3c bd
       0.12190429 -0.16358623 -0.14567523 -0.046122123
000320 3a a2 2e be 7c 57 9f 3d 66 fc 43 be 80 ab 89 3e
       -0.17054072 0.07780358 -0.19139251 0.26888657
000330 5e ef c7 bd e7 35 26 3e eb 6f 23 3d fe ff a3 bd
       -0.097624525 0.162315 0.039901655 -0.08007811
000340 0f ac 41 3e 61 ea 1b be f8 51 cd bd 7e 56 21 3a
       0.18913291 -0.15226127 -0.100254 0.0006154551
000350 57 8d 3a 3e 56 ae e1 bd 50 06 09 be f3 60 3f be
       0.1821798 -0.1101958 -0.13381314 -0.18689327
000360 53 6b 9b bd 5c 68 f1 bd 2c f1 96 bd d4 ec e2 bd
       -0.0758883 -0.11787483 -0.07370219 -0.11080328
000370 da f0 55 3d 25 c4 22 3d e3 76 48 be 29 8b 36 be
       0.052231647 0.03973784 -0.19576602 -0.17826523
000380 b8 24 03 3d cc 19 63 3d 34 91 34 3e be ac af bc
       0.03201744 0.055444524 0.17633516 -0.021444675
000390 9a 52 2a be 0c ce 1b be 80 6d 58 bd f7 0b a3 bc
       -0.16633072 -0.1521532 -0.052838802 -0.019903166
0003a0 d1 6f 6b 3d 5c 7a a6 bd a6 15 a3 3d b4 3a dc bd
       0.057479683 -0.08128807 0.079631135 -0.10753384
0003b0 55 f0 4c 3e c7 6e d4 3c 2c 83 2a bd 62 a0 65 3e
       0.20013554 0.025931729 -0.041629 0.22424462
0003c0 62 d9 34 3d 42 aa 0c be b0 a9 24 be e1 ed 42 3e
       0.044152625 -0.13736823 -0.16080356 0.19036056
0003d0 b5 1b a4 3d 39 76 1f 3e de 85 11 bd a2 f3 5a 3e
       0.08013097 0.15572442 -0.035528056 0.21382001
0003e0 ff c3 00 3e 55 75 b6 3d 28 4b c4 bc 7f 0c 88 3e
       0.12574767 0.08909098 -0.023961619 0.26572034
0003f0 d1 ae 75 3d a6 55 e9 bc f8 71 d9 3c 10 ca 58 3e
       0.05998117 -0.028483223 0.026543602 0.2117083

l2pLayer.a f4 [176, 1]
000000 ed f6 ee bc 2e 14 ae bd 37 37 a4 bd c3 30 e2 bd
       -0.029170478 -0.08499943 -0.08018344 -0.11044457
000010 78 3b 04 be 42 8f f0 bd 36 77 36 3e f6 70 a9 bd
       -0.1291331 -0.11746074 0.17818913 -0.08273499
000020 38 a2 1d be 1c 06 01 3e 31 c6 92 3d ac 4e 02 3e
       -0.15393913 0.12599987 0.07166708 0.12725323
000030 8e 22 3b be 6c 30 33 be 7a 29 05 be ac e8 cf bd
       -0.182749 -0.1749894 -0.13004103 -0.101518005
000040 3d ca a1 3a 8b 46 9e 3d 8d 1a d8 3d a0 3d 22 be
       0.0012343597 0.07728299 0.10551939 -0.1584382
000050 87 43 97 3d 82 d4 d7 bd 76 e8 2a 3d 15 2e 69 3d
       0.07385927 -0.105385795 0.0417256 0.056928713
000060 ee 96 07 3d 0d 17 86 3d 09 e0 2e bc 54 da f7 3d
       0.033102922 0.06547365 -0.010673531 0.1210219
000070 31 01 27 3d e7 bf 25 3e 94 9e 31 3d fa ee c8 bd
       0.04077262 0.16186486 0.043364123 -0.09811206
000080 97 6c ef 3d a6 6a 30 3c cf 0b 37 3e 28 d0 9d bc
       0.11690634 0.0107676145 0.17875598 -0.019264296
000090 72 f5 39 3e a1 1e e0 bd 27 65 c1 3d 21 73 0c be
       0.18160036 -0.10943342 0.094431214 -0.13715793
0000a0 58 92 00 3e 97 79 0a 3d b6 f3 d7 3d 46 1a 24 be
       0.12555826 0.033807363 0.10544531 -0.16025648
0000b0 54 5a 3d be 1f ca b2 3d 90 c0 99 bd ec 7a 96 3d
       -0.18491489 0.08729958 -0.075074315 0.07347664
0000c0 9d 4e e3 bd cd 0d 67 bd 36 e4 13 3b bf ff e3 3d
       -0.11098979 -0.056409646 0.0022566444 0.11132764
0000d0 02 b7 d5 3d 8f 94 84 bc 78 3f 53 bd aa 75 4b bb
       0.104352966 -0.01618412 -0.0515742 -0.0031045475
0000e0 e1 ae c1 3d fb 25 1f be d2 93 60 bd a5 49 36 be
       0.09457184 -0.15541832 -0.054828472 -0.1780153
0000f0 8f 67 de 3c ae 63 ae bc 1a 0b d5 3d 38 fc 14 3e
       0.02714899 -0.021287765 0.10402508 0.14549339
000100 c1 b4 20 be e7 5e aa bd 84 b5 e8 bc de 81 70 bb
       -0.15693952 -0.083188824 -0.028406866 -0.00366985
000110 84 e5 27 bd 10 15 ed bd 2f 74 95 bd 64 4f 96 bb
       -0.040990368 -0.11576283 -0.07297551 -0.004587101
000120 69 82 11 3e f9 cc 37 bd 0e 16 f8 3d 5e bf 18 be
       0.14209904 -0.04487321 0.121135816 -0.14916751
000130 ac 77 f3 3b b8 58 12 be 19 75 30 be 24 68 9a 3c
       0.0074300375 -0.14291656 -0.17232169 0.018848486
000140 66 b4 ab bd 68 09 0a 3e 0d a9 14 3e cc 0c 3c be
       -0.08384018 0.1348015 0.14517613 -0.18364257
000150 04 34 8e bc c6 32 01 bd a9 f6 d5 bd 81 5e 04 be
       -0.017358787 -0.031542562 -0.10447437 -0.12926675
000160 87 ef f8 bd 7c 8b c6 3d c3 26 a9 3d 65 03 d7 3d
       -0.12155061 0.09694573 0.08259346 0.10498694
000170 43 88 7d 3b 73 76 95 3b 0a e0 31 3d 71 df 1a bd
       0.0038685955 0.0045612394 0.04342655 -0.037810747
000180 82 4e d7 3c 4b c3 0a be bf ed ae bc 80 09 9f bd
       0.026282553 -0.13551061 -0.0213536 -0.07765484
000190 c0 2b 9b bd d5 88 91 bd ac 21 56 bd 27 67 23 be
       -0.07576704 -0.07106177 -0.052278206 -0.15957318
0001a0 c5 33 ca 3c 45 8d 28 3b fa ac 26 bd 63 06 1a 3e
       0.024682889 0.0025718969 -0.040692307 0.15041499
0001b0 2f 30 c4 3d bb 8d 32 3d 0b f9 61 bd 0b a7 53 3d
       0.09579503 0.043592196 -0.055169147 0.051672976
0001c0 a9 f1 0d be 28 a5 d8 3d d6 ed 3a 3e 6c fd 1c bd
       -0.13861717 0.10578376 0.1825479 -0.03832762
0001d0 ad c3 13 3e 23 f6 31 3e cb f0 8a bc 02 5b 77 bd
       0.14430113 0.1737905 -0.016960522 -0.060389526
0001e0 6e 8f 37 bc a4 90 06 3d 89 26 36 be c3 2c 1f bd
       -0.01120363 0.032852784 -0.17788137 -0.038861047
0001f0 5d de b7 3c 28 62 04 3e 09 0e 5b bc 2f 4a e0 3d
       0.022444898 0.12928069 -0.013370045 0.109516494
000200 d4 4c 28 3e 08 c7 8e bd 98 67 c2 3b 25 75 00 bd
       0.16435558 -0.06971556 0.0059327595 -0.031361718
000210 48 4e ad bd fc e2 d9 bd ad 38 47 bc 7b 7a f6 3c
       -0.084621966 -0.10638997 -0.012159509 0.0300877
000220 35 b1 f1 bc 1c be c4 bd dd 15 db 3d 61 5d 81 3d
       -0.029503444 -0.09606573 0.106975295 0.06316639
000230 96 3d 8d 3d 57 d4 b5 3d aa 3b 21 be cd 16 fb bd
       0.06896512 0.08878391 -0.15745416 -0.12260208
000240 ef cd 0b be 66 be 82 3d 46 9a 34 be 2d 5f ee bd
       -0.13652776 0.06383972 -0.17636976 -0.11639247
000250 81 13 f4 3d e0 dd cb 3d c5 18 18 be 44 98 0c 3e
       0.119177826 0.09954429 -0.14853199 0.1372996
000260 b8 00 d0 bd a9 1d ff 3c 13 bc 0b be 90 de cf bc
       -0.10156387 0.031142073 -0.13645963 -0.02537468
000270 02 b4 2c 3d 56 7f 02 3e 90 8f cb 3d 28 13 00 be
       0.042163856 0.12743887 0.09939492 -0.12507308
000280 93 25 08 be 0a 8f 79 bc b2 80 b1 3d 12 b8 ff 3d
       -0.13295583 -0.015231857 0.08667125 0.124862805
000290 e3 3a 28 be 9e 8d fa bc c1 ec 0c bc 4b be b7 bd
       -0.16428714 -0.030585106 -0.008601368 -0.089718424
0002a0 04 4c 0d 3e e2 3d c3 bd c7 2a ef bd dd 3a d3 bd
       0.13798529 -0.095332876 -0.11678081 -0.10313962
0002b0 3c 37 74 bd 2d 95 11 be 5e a0 e4 3c 5d e1 6b 3e
       -0.059622988 -0.14217062 0.0279085 0.23035188

phaseLayer.W f4 [24, 26]
000000 3a d6 d3 3b f3 86 9f bd 0f f8 8f 3e f8 ea 7e 3e
       0.006464747 -0.077894114 0.2811894 0.24894321
000010 bb 84 6b 3e bc c6 29 3d 37 4b dd 3c 93 a0 ae be
       0.22999851 0.041449293 0.027013404 -0.34106883
000020 80 e9 d4 3c 69 4c 9e 3e 1f 4c 13 3c 46 4d a3 be
       0.025990248 0.3091767 0.008990317 -0.31894892
000030 be fa 59 3e a9 e0 b3 3e 83 2c 8e 3e 76 d5 3e 3b
       0.21287057 0.3513234 0.27768335 0.0029118932
000040 db a1 4d 3d 63 06 5b 3d 7c 97 31 be cc 64 86 bd
       0.050203186 0.053472888 -0.17342943 -0.06562194
000050 f9 bb a6 3e 3c fa 16 3d c6 16 aa 3e 50 11 70 be
       0.32565287 0.036859736 0.332205 -0.23444104
000060 78 c9 f9 bd 67 05 6f 3c a1 30 4a be a2 10 83 3e
       -0.1219663 0.01458869 -0.19745113 0.25598627
000070 d3 14 5c 3e f5 ff 21 be b2 3e 92 3e fe 3f bb 3e
       0.21492319 -0.15820296 0.28563458 0.3657226
000080 7f c1 58 be f0 0a bd bd a0 b5 aa 3e 75 2c 70 be
       -0.21167563 -0.09230602 0.33341694 -0.23454459
000090 60 fb a0 bd 97 5a 84 be 2c 8a 90 3e a0 12 91 3d
       -0.07860446 -0.25850365 0.28230417 0.070836306
0000a0 e8 08 1a 3e 9a 2e 80 3e 3e 09 5d bd 0b e6 bd be
       0.1504246 0.25035554 -0.053963892 -0.3708957
0000b0 fe f7 dd bc 8e 31 db bc 68 42 32 3e 48 7f 16 3e
       -0.027095791 -0.026757028 0.17408144 0.14696991
0000c0 33 68 12 be 0a 91 01 be 68 28 05 3e f7 74 09 3e
       -0.14297561 -0.12652984 0.13003695 0.13423525
0000d0 5b 10 b4 bc b4 48 a3 3d 77 bb 43 3d 5f d6 8d be
       -0.021980455 0.079728514 0.047786202 -0.27702615
0000e0 32 13 c3 3d 44 f4 86 3b 53 13 86 be a2 44 b8 3d
       0.095251456 0.004118474 -0.26186618 0.08997466
0000f0 e7 17 43 3d 27 30 4c 3e 86 6a 8b be d2 1a a3 3e
       0.047630217 0.19940244 -0.27229708 0.318564
000100 72 79 5c be 6f 77 9b 3e 15 d0 39 3e e1 69 fb bd
       -0.21530703 0.30364558 0.18145783 -0.12276054
000110 2d 8e 83 be 66 4d 3c 3b 7c 89 39 be f2 33 2c bd
       -0.2569441 0.0028732657 -0.18118852 -0.042041726
000120 4f 5a ca 3d c3 a0 14 3e a0 33 73 be 97 55 01 3e
       0.09880506 0.1451445 -0.23750162 0.12630306
000130 56 6b b6 3e 02 c6 1c be 8a f9 f1 3d 83 eb b1 bd
       0.35628766 -0.15309909 0.11815174 -0.086874984
000140 5c 96 dd 3d 61 b0 a4 be 1a e2 73 be cc f4 6e bd
       0.108196944 -0.32165816 -0.2381672 -0.058338925
000150 a2 37 6e be c7 98 22 3e 02 0a c9 3e c4 a7 0c be
       -0.2326341 0.15878592 0.39265448 -0.13735873
000160 ca 0a 1f 3d d4 5d b9 3c fb 6c 69 be 18 ae 3f 3d
       0.03882865 0.022627749 -0.22795479 0.046796888
000170 78 63 c2 3c f8 dd 56 3e 33 48 b5 be 4a c0 38 3d
       0.023729071 0.20983112 -0.35406646 0.045105256
000180 51 c6 5b be dc aa 13 bd 3c 86 8d bd 6d 14 9b bd
       -0.2146237 -0.036051616 -0.06910369 -0.07572255
000190 5b 84 1f 3e 20 a4 31 3e 2f b8 d8 bd ba 1b cf bd
       0.15577833 0.17347765 -0.10582005 -0.1011271
0001a0 f4 ae 1e be e3 45 88 3d 8c e8 73 3d ef 5d 8d 3e
       -0.15496427 0.06653955 0.059547946 0.27610728
0001b0 a7 10 9f be ee 57 23 3e e6 bb 46 be be a4 a4 be
       -0.31067392 0.15951511 -0.19407615 -0.32156938
0001c0 d0 91 8d 3e 19 97 06 be 45 54 58 be 09 9f 57 3d
       0.2765031 -0.13143577 -0.21125896 0.052641902
0001d0 ce a6 89 bd a3 46 90 be 73 10 4c be ae 93 2e be
       -0.067212686 -0.28178892 -0.1992815 -0.17048523
0001e0 84 01 57 bd 95 13 65 be d9 0b af be 98 fe 54 3e
       -0.05249168 -0.22370751 -0.34188727 0.20800245
0001f0 be ac 95 be be d3 f3 bc d7 13 96 3e ff 09 10 be
       -0.29233354 -0.029764052 0.29312012 -0.14066313
000200 12 db 87 be 6c ad c1 3d 7d ee 95 3e 9e 1e f2 bc
       -0.26534325 0.09456906 0.29283515 -0.029555615
000210 9a 0e a1 bc fe 6f e9 3d ac 81 41 3d 2e f2 d0 3d
       -0.019660283 0.11398314 0.047242805 0.10202442
000220 02 cd 3d 3e c9 5b c3 3d f0 32 61 be 22 95 29 be
       0.18535236 0.09538991 -0.21992087 -0.16560796
000230 8b 96 38 3e 16 78 75 3b bd 70 a3 3d 71 6a bf 3e
       0.18026178 0.003745561 0.079804875 0.37385896
000240 7d 8b 4d 3e 84 ce df 3d 2f 4d 9d 3e fc e9 a6 be
       0.20072742 0.109280616 0.3072295 -0.3260039
000250 29 fa c3 3c 51 66 da 3d 8e 2e 48 bd ec 36 07 be
       0.023922997 0.106640466 -0.048872523 -0.13204545
000260 56 36 9e 3d 84 fa 94 be 85 21 75 be 8d de 90 3e
       0.077252075 -0.29097378 -0.23938568 0.28294793
000270 2c d4 22 be 1e f3 87 bd 5c dd d9 3d 14 12 04 be
       -0.1590125 -0.06638168 0.10637924 -0.12897521
000280 29 8c 98 3d 14 7d c4 be f3 af 6e 3e 5b 41 8f be
       0.074486084 -0.38376677 0.23309307 -0.2797955
000290 97 fb 25 3d 73 08 b8 be d2 59 7d be f9 03 9d 3e
       0.040523138 -0.35943946 -0.24741295 0.30667093
0002a0 f7 72 53 be a7 c4 a7 3c 78 86 a1 3a b2 c9 9e 3e
       -0.20649324 0.020479513 0.00123234 0.31013256
0002b0 0d 13 d5 3d 28 6d 52 3e 52 5b 05 be d9 cf 13 be
       0.10404024 0.20549452 -0.13023117 -0.14434756
0002c0 93 63 82 3e ea 7e 14 3e 94 dd 83 3d 98 88 8c be
       0.25466594 0.14501539 0.06438747 -0.27447963
0002d0 28 c8 7a be 29 09 3f 3d f6 bb 8e be b3 e6 68 3e
       -0.24490416 0.046639595 -0.27877778 0.22744255
0002e0 3b b5 73 3e 14 f5 21 be 20 b5 51 be ff 91 aa 3e
       0.23799603 -0.15816146 -0.2047925 0.3331451
0002f0 19 6d 24 be b3 f3 96 be ea 09 74 be 7d 4f 65 3c
       -0.16057242 -0.29482803 -0.23831907 0.013996002
000300 fe d3 70 3d df 7d 35 3e 51 05 8a 3e 62 b1 4b 3e
       0.05879592 0.17723797 0.2695718 0.19891885
000310 91 a8 ad 3c e5 dd 90 3e 56 35 31 be 7c 67 42 bd
       0.021198543 0.28294292 -0.17305502 -0.04746197
000320 09 6c 95 3e cd 6e d3 bd aa 92 3f 3e 6e ee c7 3d
       0.29183987 -0.10323868 0.18708292 0.09762274
000330 7b ce de 3d 92 cd ca bd 1d 5c a5 be d5 3b 74 3e
       0.10879227 -0.09902491 -0.3229684 0.23850949
000340 ee ae 88 3e 00 16 84 be f9 fd 18 be b7 19 b1 3c
       0.2669596 -0.25798035 -0.14940633 0.021618707
000350 44 7b 33 3e 4d 04 6e bd 4a b6 15 be b2 5f 83 3e
       0.17527491 -0.05810957 -0.14620319 0.25658947
000360 f7 d8 2f be c6 2f 99 3e 06 d4 a9 bc 5a c5 19 3e
       -0.1717261 0.2991926 -0.020730983 0.1501669
000370 e9 ee 96 3d f8 df 9a 3d b4 a2 7b 3e 9c c3 e5 bc
       0.07369787 0.0756225 0.24573785 -0.028047375
000380 38 36 72 3e 7e 6b f2 3d 67 09 3f be ea 73 7f 3e
       0.23653495 0.11836909 -0.1865593 0.24946561
000390 03 2b 75 be 61 f5 44 3e b6 f1 b1 bd 00 02 d5 3d
       -0.23942189 0.1923423 -0.08688681 0.10400772
0003a0 5d dc 9d bd 80 29 82 3d b1 7b d4 bd 11 63 f9 3d
       -0.077080466 0.06355572 -0.10375155 0.121770985
0003b0 cb ff d6 3d 1c 48 a2 be e0 07 c6 3e 92 fa b3 be
       0.104980074 -0.3169564 0.38677883 -0.35152107
0003c0 11 65 91 bd 19 64 fb 3d f1 f2 85 3e 6a 9e aa 3d
       -0.07099355 0.122749515 0.26161912 0.08330996
0003d0 09 3d e7 bd f5 db 17 3e b3 7f 60 be 8c 49 50 3e
       -0.112909384 0.1483 -0.21923713 0.20340556
0003e0 8b c6 b5 bc a6 93 38 bb f8 41 99 be 9e a7 83 3e
       -0.0221894 -0.0028164177 -0.29933143 0.2571382
0003f0 47 04 b0 3e 1e d8 a8 be 33 6e 44 3e 9a d0 f0 bd
       0.34378263 -0.32977384 0.19182663 -0.117585376

p2iLayer.W f4 [24, 176]
000000 7d a4 b0 bd 50 8f ef bd 27 b8 64 3d 5e fd 80 bd
       -0.08625124 -0.116972566 0.055839684 -0.06298326
000010 5a 9f da 3d 01 68 a0 bc 9b 13 0c be e6 5b 31 be
       0.10674925 -0.019580843 -0.13679354 -0.17320213
000020 c2 67 de 3d c8 37 db 3d 3c 48 11 3d a4 d4 91 3d
       0.10859634 0.10703999 0.03546928 0.07120636
000030 31 ce 32 3e f7 be 16 3e c1 26 32 3d 8b b4 21 be
       0.17461468 0.14721285 0.04349399 -0.15791528
000040 03 2c 85 3d 08 34 54 3e 10 bf a4 bd ef 2b 10 3e
       0.06502535 0.20722973 -0.08044255 0.1407926
000050 cd 73 e1 bd e4 e8 b4 bd cf 77 be bc 19 40 a2 3d
       -0.11008415 -0.08833483 -0.023250489 0.07922382
000060 09 38 40 3d c4 78 10 be a7 93 09 3e 99 2f 5e 3c
       0.04692844 -0.14108568 0.13435231 0.013561153
000070 5f 5f ee 3b 78 d5 45 be dc 94 ff 3d b6 11 97 bd
       0.0072745527 -0.19319713 0.124795645 -0.07376425
000080 41 b5 9f bd 07 9e 2a 3e 24 44 01 be 86 86 fc 3d
       -0.07798243 0.16661845 -0.1262365 0.12330346
000090 93 6d 06 3e 96 a5 d1 bd 3c 96 d9 bd b6 b8 3f bd
       0.13127737 -0.10236661 -0.10624358 -0.046807013
0000a0 ed c1 94 3d 24 a1 0e 3e 99 95 c0 bc 69 3e aa bd
       0.07263551 0.13928658 -0.023508834 -0.08312685
0000b0 e4 a1 83 bd 30 9c 23 be 5c 34 1d 3e b3 3b f4 3c
       -0.064273626 -0.1597755 0.15352005 0.029813623
0000c0 f1 d3 1b be 34 2b 31 bd 53 28 0b 3e 3b a5 d8 3d
       -0.15217568 -0.043254092 0.13589601 0.1057839
0000d0 3f 36 e2 3d c0 91 dc bc 5c 98 66 bd 0d 5f c6 3d
       0.11045503 -0.026924968 -0.056297645 0.09686098
0000e0 5f 68 f4 3c 28 7e 05 bd 5f b4 a8 bc 8d 1d 1a be
       0.029834924 -0.032591015 -0.02059382 -0.15050335
0000f0 9f e4 b2 bd d0 c9 6d bc 0c 5f c1 bd b0 5f c1 bc
       -0.08735012 -0.014513448 -0.09441957 -0.023605198
000100 0d b0 17 3c bb 8e 02 3e 8e 5d 20 3d e8 bd 45 3d
       0.009258282 0.1274976 0.03915172 0.04827681
000110 61 ae 13 be bb 6f e3 bd fc 0a 78 3c a5 a7 ff bd
       -0.14421989 -0.11105295 0.015139338 -0.124831475
000120 af d8 4d 3d 19 18 11 3e 39 b3 5d 3d 86 bb 9a bd
       0.050255474 0.14169349 0.054126 -0.075552985
000130 6a 6c 1f bd 8b 45 2b 3e cd 96 84 bd 04 4d 2b be
       -0.03892175 0.16725747 -0.064740755 -0.16728598
000140 11 44 49 bc 37 59 81 bc d0 55 75 bd 4d 78 0f 3d
       -0.012284295 -0.015789611 -0.05989629 0.035026837
000150 a9 47 1a be 6d 12 5d 3d 25 3c fd bd ff e0 25 3d
       -0.15066399 0.05397265 -0.12364987 0.040497776
000160 fd ba 0a 3e 7f 4e f7 bd 10 d3 c0 bd 9a 8c 4d 3d
       0.13547893 -0.12075519 -0.09415257 0.050182916
000170 d2 03 82 bc c0 e5 1c 3e d2 c2 ae 3c b2 4f 5e 3a
       -0.015870962 0.15322018 0.021333132 0.00084805035
000180 63 e2 a2 bd c1 ef b8 3c 81 05 18 3d e9 af 97 bd
       -0.07953336 0.022575261 0.037114624 -0.07406599
000190 4b 19 bb 3d cf 1d 71 ba f9 29 fd 3d c9 53 5e be
       0.091356836 -0.0009197862 0.12361521 -0.21711649
0001a0 06 6d e4 3c 5c 9f e0 3d b2 2e 25 3e 4d c0 7d bc
       0.027884018 0.109678954 0.16131094 -0.015487743
0001b0 30 23 fd bd 4a af 1a be 6f c3 18 be 97 f4 14 3e
       -0.12360227 -0.1510593 -0.14918302 0.14546429
0001c0 27 6e 2d be c3 3c ab bd fe 70 2b 3e 5b d0 cc 3d
       -0.16936551 -0.08361199 0.16742322 0.10000678
0001d0 a7 cb 01 be c9 38 4a 3d 65 70 74 3c 27 87 1c 3e
       -0.12675343 0.04937056 0.014919375 0.15285932
0001e0 86 3c e5 3b 3c 46 fe 3d c2 fc 59 bd f6 10 14 3e
       0.0069957403 0.1241574 -0.053219564 0.14459595
0001f0 49 9b ef bc 94 07 dd bd 59 41 20 3d 63 f9 26 bd
       -0.02924885 -0.10792461 0.03912482 -0.040765177
000200 d6 31 65 3d 09 e9 d4 3d da 0e ee bd e6 5f 1a be
       0.05595573 0.103960104 -0.116239265 -0.15075645
000210 b8 a8 00 3b c9 1a d3 bc 2e ed f8 bd 14 9d 3c 3e
       0.0019631814 -0.025769608 -0.121546134 0.18419296
000220 b0 1a 68 3d 13 6d 31 bc 20 36 88 3d e8 81 8a bd
       0.056666076 -0.010829228 0.066509485 -0.06763059
000230 e2 00 f0 bd 18 2d 4f 3d 08 b5 08 be a0 6c b3 3d
       -0.117189184 0.050580114 -0.13350308 0.08760953
000240 26 a5 f8 3d 50 19 0e be 33 40 48 bd ee e9 23 3e
       0.121408746 -0.13876843 -0.04888935 0.16007206
000250 c0 0d e7 3d c0 c0 14 bd f4 dd 75 3d 11 29 40 be
       0.112819195 -0.036316633 0.060026124 -0.18765666
000260 de 46 9a 3c 05 34 0c 3e 16 e0 0f 3e 46 5e 41 3d
       0.01883262 0.13691719 0.14050326 0.047209047
000270 8c 46 84 3d fc 6f 29 bd 93 9f 4a bb 7c 4a e9 bc
       0.06458768 -0.041366562 -0.0030917868 -0.0284779
000280 98 ba 8b bd 6b f4 a3 3d 3f fe 65 3d f6 bc 68 bd
       -0.06822699 0.080056034 0.05615067 -0.056820832
000290 87 74 91 bc 95 ff ff bd cd d6 95 bb ef f5 9b 3d
       -0.01775576 -0.1249992 -0.0045727254 0.076152675
0002a0 0c 9c 4a 3e 49 b9 2b be 87 27 0a be 47 15 4f 3d
       0.1978609 -0.167699 -0.13491641 0.0505574
0002b0 d0 1b 14 3e 67 11 ca bb 44 b9 79 3d 8d fe 44 bc
       0.14463735 -0.0061666253 0.0609677 -0.01202358
0002c0 01 ae 61 bc 96 ca e8 3d d5 18 e1 3d 18 45 49 bd
       -0.013774396 0.11366765 0.109910645 -0.04913816
0002d0 05 a3 01 be 39 0c a2 bd 31 22 72 bc 1e be d1 bc
       -0.12659843 -0.079124875 -0.01477866 -0.02560335
0002e0 68 1f 00 3e 88 82 5b be 93 bf cb 3d 5d a0 51 bd
       0.1251198 -0.21436512 0.09948649 -0.051178325
0002f0 6e 78 32 3d 77 7e 68 3c 14 4c 67 3d 80 ba 29 be
       0.043571882 0.014190308 0.056469038 -0.1657505
000300 ca 2a c2 bd c6 18 1f 3d 45 60 0c 3e 47 3e d4 bd
       -0.094808176 0.038841985 0.13708599 -0.10363441
000310 16 c0 6b 3d a9 4a a4 bd b8 62 32 be 9f 8f 4b 3d
       0.057556234 -0.08022053 -0.1742047 0.049697515
000320 1d ce 3f bd e4 3b 8a 3d a9 5c 16 3e ca 81 c0 3d
       -0.046827424 0.067497045 0.14683785 0.09399755
000330 d9 f3 07 3e d9 38 1d be c0 a2 51 be 97 ff ae 3c
       0.13276614 -0.15353717 -0.2047224 0.02136211
000340 dc 5b 56 3d 7f 3c 12 be bd b0 da 3d c5 77 d6 bc
       0.052333698 -0.1428089 0.106782414 -0.026180157
000350 68 35 ad bd d1 53 f7 3d 1a de 3e 3e 83 82 64 3d
       -0.08457452 0.120765336 0.18639413 0.05578853
000360 1a 81 0b bd c5 d6 f6 3b e9 53 02 be 67 59 9e 3d
       -0.034058668 0.0075329267 -0.12727322 0.07731896
000370 7c 65 ef 3d 9b 2b 52 bd 65 71 14 be aa d5 30 3e
       0.116892785 -0.051311117 -0.14496382 0.17269006
000380 69 2a 2b be 43 b4 0c bd 5d 0e 05 3e af 67 4e bd
       -0.16715397 -0.0343516 0.1299376 -0.05039185
000390 04 c8 eb 3c 28 d6 d2 3d 51 3c 59 bd d5 38 c3 bb
       0.028781898 0.10294753 -0.053036038 -0.0059577026
0003a0 b6 83 45 3e 61 ac 25 3d b4 53 82 3c cf 6a af bd
       0.19288525 0.040447596 0.015909053 -0.08565294
0003b0 7a c1 fe bd 1c 5b 43 3d 99 cb 91 bd 54 a9 dc bd
       -0.124392465 0.04769431 -0.07118911 -0.10774484
0003c0 d9 68 20 be 28 a5 e2 3d dd 7c 02 be 33 00 b8 3d
       -0.15664996 0.11066657 -0.12742944 0.08984413
0003d0 d6 3d a8 3c 4f 4f ad 3d 2f 3b ec 3d 16 8e 00 be
       0.020537298 0.084623925 0.11534726 -0.12554201
0003e0 ee e6 c9 3d 70 ef a9 bd 03 8e f3 bc a9 ad 67 bd
       0.098584995 -0.08297622 -0.029730802 -0.0565621
0003f0 20 d6 19 be 64 8c 1d 3d af 59 19 be c7 0a 16 3e
       -0.15023088 0.038463965 -0.14975618 0.14652549

p2iLayer.a f4 [352, 1]
000000 6c 28 a3 bd fe ad 23 be aa 48 80 bc f8 fb d4 3d
       -0.07966694 -0.15984342 -0.015659649 0.10399622
000010 3e 43 0c 3c 48 03 b5 bd 5c fd 02 3d 51 62 a9 bd
       0.008560954 -0.088385165 0.031979904 -0.082707055
000020 31 e4 6a bd b2 26 d7 3d b5 d6 38 bd e2 bd 29 bc
       -0.057346527 0.105054274 -0.045126636 -0.010360213
000030 34 f1 32 be aa 4c 33 3b 97 5f 5a 3d af 00 3c 3d
       -0.17474824 0.0027358928 0.053313818 0.04589909
000040 2e 1b 6b 3d 20 42 2e 3d f5 fa 19 bd d9 c9 39 be
       0.057398967 0.04254353 -0.037592847 -0.18143405
000050 a3 4e df bd 2d 90 3b 3c b4 52 dd 3d 2b 7e 22 3e
       -0.10903671 0.011447948 0.1080679 0.15868442
000060 de e4 96 bc b0 f9 90 bd fa 74 c4 3d 22 e1 d6 bd
       -0.01841968 -0.07078874 0.09592624 -0.104921594
000070 8c cf 53 3d 47 6b 95 3d 4c 3a 52 3d ec 55 1b 3e
       0.051711604 0.07295852 0.051325127 0.15169495
000080 28 14 03 bd 9d 79 18 bd b7 23 7e bc 15 31 ad 3d
       -0.032001644 -0.037225354 -0.015511445 0.08456627
000090 30 b6 d6 bc d4 90 c5 bc 35 f0 2d 3d 28 01 0d bd
       -0.02620992 -0.024116911 0.042465407 -0.03442493
0000a0 2f 9a 0e bd 6d c1 35 bd fd 55 b9 bd 92 59 b9 bd
       -0.03481501 -0.04437392 -0.09049604 -0.09050287
0000b0 80 45 ac bd 5d 96 e9 bc 6f 71 da bd 53 53 1a be
       -0.084116936 -0.028514082 -0.10666167 -0.15070848
0000c0 f1 be e7 3d 94 ed b7 3d 5c 1b 07 be f1 a2 f4 bd
       0.11315716 0.08980861 -0.1319403 -0.11945141
0000d0 0f c3 88 3c 5c 63 2d 3d d9 39 39 bd 0e 05 25 bc
       0.016694574 0.042331085 -0.045221183 -0.010072006
0000e0 a8 dc ae bd 6a 40 ef bc d7 a4 cc bd a9 95 9d bc
       -0.085381806 -0.02920552 -0.09992378 -0.019236403
0000f0 12 e7 86 3d 39 f2 53 bd 4e 26 c2 3d 1a 25 e8 bc
       0.06587042 -0.051744673 0.09479962 -0.028338004
000100 e5 33 47 3d 32 37 01 3d 38 85 fb bc 93 08 a6 3d
       0.048633475 0.03154678 -0.030703172 0.08107104
000110 53 50 54 bd 56 5d aa bd c3 50 d2 bb f8 22 2f be
       -0.051834416 -0.08318584 -0.006418319 -0.17103183
000120 c3 92 17 3d b4 96 88 3b a5 3d b4 3d e3 21 2b bd
       0.037005197 0.004168356 0.0880082 -0.041780364
000130 48 c8 d1 bd e5 43 c4 bd 8e 2f 85 bd a1 80 12 bb
       -0.10243279 -0.09583262 -0.06503211 -0.00223545
000140 a5 3a 65 bd cd 33 01 3e a2 58 9a bd eb 5e 9f bc
       -0.05596413 0.12617417 -0.075364366 -0.01945444
000150 4e 4a da bd 7f 00 61 3d fb a3 b2 3d ba f5 ee bd
       -0.10658704 0.054932114 0.08722683 -0.11667962
000160 28 7a 3a bc 32 7f 85 3d 78 2f 38 3d 95 08 51 be
       -0.011381663 0.06518401 0.044967145 -0.2041343
000170 24 19 4b 3d d3 e4 b8 3c 62 65 e7 bd ff 50 fd bd
       0.049584523 0.02257005 -0.11298634 -0.123689644
000180 34 03 22 3d c4 96 ca bd 44 a2 71 3d 5b f4 46 bd
       0.039553836 -0.098920375 0.05899264 -0.04857288
000190 a5 4e e4 3c c2 fd e0 3d c3 80 1b bd da e6 bb 3a
       0.027869532 0.109859005 -0.037964594 0.0014335767
0001a0 c2 83 41 bd eb 3a f3 bc 63 0b 41 bb 43 05 29 3e
       -0.047244795 -0.02969118 -0.002945625 0.16505913
0001b0 34 19 be 3d 1b 23 bd bd e6 9b d5 3d e3 eb 8f 3d
       0.09282151 -0.092352115 0.10430126 0.07027414
0001c0 89 ad d3 3c 3a 88 28 bd 27 16 1b be 79 9f 99 3d
       0.025839584 -0.04114554 -0.15145169 0.0750112
0001d0 53 28 0d bd 33 2a 00 be 22 63 25 3e a9 87 76 bd
       -0.034462284 -0.12516098 0.16151097 -0.06018797
0001e0 09 06 d7 bc c0 a8 22 3d 77 80 9a 3d a1 55 5f 3d
       -0.026247995 0.039711714 0.07544034 0.05452502
0001f0 bc 82 96 bd 10 c4 07 bd fc b6 33 bd 31 03 ea 3d
       -0.07349154 -0.033145964 -0.04387568 0.1142639
000200 69 ea 1b 3e 6c 94 c3 3d e4 39 8a 3d eb 2a f0 bc
       0.15226139 0.095497936 0.06749323 -0.02931734
000210 51 86 3a bd 3c aa 34 bd 77 ff d4 3d 12 af 82 bc
       -0.04553825 -0.04410766 0.104002886 -0.01595262
000220 cc 3b d4 3d 4d b7 a1 3d 42 15 88 3c 1e 4e 4f 3d
       0.10362968 0.0789629 0.016611699 0.050611608
000230 3a d5 e8 bc 89 f0 83 3d e1 12 60 bd a2 6b 82 bd
       -0.028421987 0.06442363 -0.054705504 -0.063681856
000240 97 8d 74 3d 03 47 9f bd 45 81 77 3d 43 5f ae 3d
       0.059705343 -0.07777216 0.060426015 0.085142635
000250 65 27 64 bc d2 b6 bf 3d 34 0f eb 3d c0 60 eb bc
       -0.013925408 0.09361042 0.11477509 -0.028732657
000260 a0 2d 0c be 11 3f 03 3e 0c d1 25 3c eb 12 9a 3d
       -0.1368928 0.12817027 0.010120641 0.075231396
000270 95 c5 d6 3d b6 3f e8 3d 94 87 ce 3c 6d f1 96 bd
       0.104869045 0.11340277 0.025211133 -0.07370267
000280 1d 52 b9 3d 62 7b 84 bd fa 0c ad 3d 4c 0c b4 bb
       0.09048865 -0.06468846 0.08449741 -0.00549463
000290 d7 02 93 3d 98 3d ca 3d ab 2c d6 bc 02 6f a1 3d
       0.07178276 0.09875029 -0.026144346 0.07882501
0002a0 85 11 a4 3d 22 29 02 be 8a da a1 3d af 51 33 bc
       0.08011154 -0.12711003 0.07903011 -0.010944768
0002b0 ef a4 01 be 57 03 20 3e d1 b6 07 3e fb ec b3 bc
       -0.12660573 0.15626274 0.13253333 -0.021963587
0002c0 4a 38 4d bd a6 0d 5e 3d df 28 27 3d f5 8c 81 bd
       -0.05010251 0.054212235 0.040810462 -0.063257135
0002d0 76 7d c0 bd 0a 76 54 bc c8 68 81 bd ff e1 ab bd
       -0.0939893 -0.012967596 -0.063188136 -0.08392715
0002e0 a2 09 84 bc 20 4b 60 3d a7 fa 3f 3d 63 2e 1f 3d
       -0.016117875 0.054759145 0.0468699 0.038862597
0002f0 f3 59 81 bb 24 c5 ad 3d ab 7f e6 bd 75 e0 71 bc
       -0.0039474904 0.08484867 -0.112548195 -0.014762987
000300 e4 dd 4f 3d e6 27 bb bc 0e db 1a be 49 3a fc bc
       0.05074872 -0.022846173 -0.15122625 -0.030789511
000310 55 81 c4 3d 64 e6 61 3d 59 1c b3 3d fb 6f e7 3a
       0.095949806 0.05515136 0.08745641 0.0017657274
000320 8b f3 b9 3d 10 c0 92 bd 16 88 a9 bd 0c f8 e9 3c
       0.09079655 -0.07165539 -0.082779095 0.02856066
000330 9c ea f0 3d 4f 51 4c bd d2 b0 3b be f2 b9 7a 3d
       0.11763498 -0.04988223 -0.1832917 0.061212488
000340 52 22 0e bd 8a 6c 41 bc 98 9e 5e ba 2f bb d0 3d
       -0.0347007 -0.011805663 -0.000849226 0.101919524
000350 43 10 44 bd 03 0e da 3c 4a 03 03 bc 20 f4 1b bc
       -0.04786707 0.02661801 -0.00799639 -0.009518653
000360 93 2d 18 3d 9f 82 4d be b7 87 0f be a5 89 b3 3d
       0.037152838 -0.20069359 -0.14016615 0.08766488
000370 7c 09 17 bd d0 5b 61 3c 32 a1 d5 3d 2b 75 71 be
       -0.03687428 0.0137548 0.10431136 -0.23579852
000380 94 9f 49 3d 19 9c 0c 3d 0b ab 80 bd 84 5e c9 3d
       0.04922445 0.034328554 -0.06282624 0.098324805
000390 eb ed 1e 3e f1 52 41 3c 8b 42 b9 bb fb 38 d1 bd
       0.15520446 0.01179956 -0.0056536845 -0.10215946
0003a0 85 21 f5 3c 00 02 e5 bc c1 79 9b bc da d1 a5 bd
       0.02992321 -0.027955055 -0.018978955 -0.08096667
0003b0 46 b4 92 bd b3 e7 e4 bc ac 70 42 be a1 17 07 3d
       -0.07163291 -0.027942514 -0.18988293 0.03298152
0003c0 5b b4 b1 bc a2 a6 ae 3c f0 89 41 3e cb 23 a8 3d
       -0.021692446 0.021319691 0.18900275 0.08209952
0003d0 c5 59 27 3d 09 d6 a5 bc 49 e2 f9 bc a0 d9 11 3e
       0.040857095 -0.020243661 -0.030503409 0.14243174
0003e0 28 94 17 be 72 5e 0f 3e a5 24 e2 bd 3a 33 8e 3d
       -0.14802611 0.14000872 -0.11042146 0.069433644
0003f0 54 c5 59 bd db f3 93 bd 33 d9 31 3c 6d e8 2c bd
       -0.053166702 -0.07224246 0.010855007 -0.042213846

intersectionLayer.W f4 [48, 46]
000000 00 fb 1c 3e 97 bc 36 3e 24 0a d7 bd c8 07 83 be
       0.15330124 0.17845379 -0.10499981 -0.25591874
000010 a1 f9 60 be b8 be 0e bc 3b 9a 2d bc a2 d1 af 3d
       -0.21970226 -0.008712463 -0.010595853 0.08584906
000020 3a b9 63 be 9b 8a b0 3d ab 9b 73 be 1f 30 93 3d
       -0.22238627 0.08620187 -0.23789851 0.07186913
000030 4a e2 57 bc fe b5 cc bd a4 ee a8 bd d6 34 22 bc
       -0.01317651 -0.0999565 -0.08248642 -0.009900292
000040 17 d9 94 bd ac 16 e8 bd 69 b3 52 be f1 84 f6 bd
       -0.07267969 -0.11332449 -0.20576252 -0.12037075
000050 45 8b 95 3d 29 47 14 3d 98 ce 68 be 43 8d 39 be
       0.07301954 0.036200676 -0.2273506 -0.18120293
000060 39 3a 05 be c1 7b 51 bd 30 d2 56 bc 15 9d 85 3d
       -0.13010491 -0.05114341 -0.013111636 0.06524102
000070 24 0d 4d 3e 55 c5 98 bd 98 22 32 be 20 e9 3f be
       0.20024544 -0.07459513 -0.17396009 -0.18741274
000080 6d a8 9b 3d 5a cc 17 3d e5 02 10 be 23 7a 31 3d
       0.07600484 0.03706012 -0.14063604 0.04332937
000090 cd 22 32 3e 27 db 42 3e de cb 1a 3c c8 3d 32 3e
       0.17396088 0.19028912 0.00944802 0.1740638
0000a0 1c 62 5c bd 21 ec 12 be 66 5f 0b 3d ca a5 8a ba
       -0.053804502 -0.14347889 0.034026526 -0.0010577973
0000b0 a0 14 11 3c 2b 44 35 be c0 76 de 3b 17 af 59 be
       0.008855015 -0.17701785 0.0067890584 -0.21258198
0000c0 41 81 8f 3e b4 5e 5e be 37 f5 40 be 75 99 0f 3e
       0.280283 -0.21715814 -0.18843542 0.14023383
0000d0 4e e8 38 3d 9e f1 ab bd 1a d3 2f 3e 2c e9 73 3e
       0.045143418 -0.08395694 0.17170373 0.23819417
0000e0 de f6 31 3e 27 fe 5e bd 5d 77 57 bd e6 89 10 3e
       0.17379329 -0.054441597 -0.052604068 0.14115104
0000f0 0b 85 95 3e 71 a3 7f bd aa 77 fb bb 95 1c 6e bd
       0.29203066 -0.06241173 -0.007674177 -0.058132727
000100 f7 ec ae 3d 73 95 4a be 73 65 90 3e 8b 63 84 bd
       0.08541291 -0.19783573 0.282024 -0.06464299
000110 da 39 18 3e af 36 3f 3e 59 66 92 3d 6f 0a 04 be
       0.14865819 0.18673204 0.071484275 -0.12894605
000120 a1 9d 30 3e 7f 57 da 3d 11 79 6f bd 63 0d 30 3e
       0.1724763 0.1066122 -0.058465067 0.17192607
000130 be 5d 3b be 54 2e af 3d e8 9c 0a be b8 d5 28 3e
       -0.18297479 0.08553758 -0.13536417 0.16487777
000140 74 3d 75 be d9 0d 00 be f1 25 18 3e 64 0a a8 3c
       -0.23949224 -0.12505282 0.14858223 0.020512767
000150 1d b3 52 be 18 c0 42 be a9 5a 12 be d7 62 d0 3d
       -0.20576139 -0.1901859 -0.14292397 0.10175102
000160 bc e3 25 be df 3d f8 3c 81 7d cf bd 22 ff 1e 3e
       -0.16200155 0.03030294 -0.1013136 0.15527013
000170 44 c4 1c 3e ce 30 33 bd fb 2b 11 be 37 71 57 be
       0.15309244 -0.043747716 -0.14176933 -0.21039282
000180 11 b3 30 be 33 6b 00 be 1b 8f 8d bd 5a 1e 5a 3e
       -0.17255808 -0.12540893 -0.06912061 0.2130064
000190 82 1a 74 be 01 6f 10 3d 7b c4 9a be da 2a 72 bd
       -0.23838237 0.03526211 -0.30228028 -0.059122898
0001a0 83 d6 a9 bd 0c 90 32 3e a4 8f 22 3d e5 ee 11 bd
       -0.08292868 0.17437762 0.039687768 -0.03562822
0001b0 39 ed 82 be 4c fb 4d be d9 95 51 be 5b 25 4e 3d
       -0.25571612 -0.20115393 -0.20467319 0.050328594
0001c0 f5 ce d7 3d f2 53 7f ba 4a 11 b8 3d f5 8c 7c bd
       0.10537521 -0.0009739987 0.089876726 -0.061657865
0001d0 86 48 e1 3d 76 f2 ca bd 4f ee 20 bd 38 97 05 3e
       0.11000161 -0.09909527 -0.03928977 0.13045967
0001e0 f9 e5 84 3e ed 1a f4 3d b3 44 6c 3a 6b 22 43 39
       0.25956705 0.11919198 0.00090129225 0.00018609471
0001f0 1e ad 86 be 5e 1f 9b bd c8 97 42 bd 4e 1b 2f 3e
       -0.26303953 -0.07574342 -0.04750803 0.1710026
000200 64 8c 2d be b0 96 33 3e 8f c6 fb 3b 06 18 93 be
       -0.16948086 0.17537951 0.007683582 -0.28729266
000210 7d 65 eb bd bb 47 51 3e b7 51 d2 bd db 68 d5 3d
       -0.11493967 0.20437519 -0.10269492 0.1042039
000220 88 92 31 3e b1 4f 1d be 70 f1 af 3d 71 a0 34 3e
       0.17341053 -0.15362431 0.085909724 0.17639329
000230 22 ea 0c be 91 2d c2 bd 08 03 26 3e e7 b5 9e bd
       -0.1376119 -0.09481347 0.16212094 -0.07749539
000240 70 5f f2 bb 4f bb e1 bd c7 ca 7f be 05 a2 82 3d
       -0.007396631 -0.110220544 -0.24979697 0.06378559
000250 32 d5 c1 3d 6c 3f 25 3e a0 d8 80 bd 0f 87 48 3e
       0.09464492 0.16137475 -0.06291318 0.19582771
000260 c8 c3 3d be 24 ea 66 3d fe 9f 74 3e 69 01 27 3e
       -0.18531716 0.056375638 0.23889157 0.16309132
000270 da e5 ec bc fa 53 a8 bd 8d c8 77 bc 1c 90 84 3e
       -0.028918196 -0.08219142 -0.015123499 0.25891197
000280 99 b9 52 bd be 7f 4b 3e 79 a5 29 be 8e 5f ab 3d
       -0.05144653 0.19872949 -0.16567029 0.08367835
000290 1d ff fb bd 63 74 42 be b4 88 19 3e eb 87 17 bd
       -0.12304518 -0.1898971 0.14993554 -0.036994856
0002a0 1a cf 84 bd d2 98 af bc ec 88 34 3e 00 ea c8 bd
       -0.06484814 -0.021435175 0.17630357 -0.09810257
0002b0 28 fe e1 bd 41 d6 20 3c 13 0b 2e 3d 7b a3 3d be
       -0.110348046 0.009816707 0.04249103 -0.18519394
0002c0 21 53 b2 3d 79 e1 6b be 1a a1 79 3e 1b e5 30 3e
       0.08707262 -0.2303523 0.24377862 0.17274897
0002d0 5b 9d 3e 3d 53 18 41 3e d3 13 65 be 0a 65 2a 3e
       0.046536785 0.18856935 -0.22370844 0.16640106
0002e0 a2 f1 61 be c5 2e 2e 3e 87 a0 c6 bd 38 12 4d 3e
       -0.22064832 0.17010029 -0.09698587 0.20026481
0002f0 5c 14 88 3d a4 5b db bd c2 9d ef bc 7c 71 0b 3e
       0.06644508 -0.107108384 -0.02925003 0.1361751
000300 15 5a c4 bd f1 00 05 3e 66 2d 59 3e da e9 c2 bd
       -0.09587494 0.1298864 0.21208724 -0.0951726
000310 eb f8 60 bd 97 b1 c2 bc bf b7 57 3e 6c 76 de bc
       -0.054924887 -0.023766322 0.21066187 -0.027156077
000320 88 01 66 3d 33 a8 30 be 4b 7e 5c be fb bd 09 be
       0.056153804 -0.17251663 -0.21532552 -0.13451378
000330 54 65 fc bd 0a fc a0 bd 60 7c 47 3e 2b 35 19 be
       -0.12324014 -0.07860573 0.19481039 -0.14961688
000340 01 7b 14 3e 45 06 85 be b3 7b 09 3e 09 d4 9b bd
       0.14500047 -0.25981346 0.13426094 -0.07608802
000350 d8 88 4f 3e df 19 64 be 7a c1 22 be eb db 2c 3e
       0.20267045 -0.22275494 -0.15894118 0.16880767
000360 69 cf 31 3e 5a 95 53 be c5 16 5b be 61 80 4b 3e
       0.17364277 -0.20662442 -0.21395405 0.19873191
000370 c6 81 c8 3d 6f f3 95 be de 4b 95 bd 3f 5f 6b 3b
       0.09790377 -0.29287288 -0.07289861 0.0035914925
000380 9b f3 af bd 58 0d 76 bc 6f db 96 bd a4 db a1 bb
       -0.08591386 -0.01501783 -0.073660724 -0.0049395133
000390 d5 69 ba 3d 64 5b 48 3e 0d 7d 01 be c3 98 67 bc
       0.09102217 0.19566113 -0.1264536 -0.014135542
0003a0 0e ea 61 be 41 13 a7 bc df 00 8c 3d c8 0d 9b bd
       -0.22061941 -0.020394923 0.06836104 -0.07570988
0003b0 ee 56 91 3d fb c3 c3 3d eb 47 3c 3e 30 7f 60 bd
       0.07096659 0.09558865 0.1838681 -0.054808795
0003c0 85 08 0a be 6f 8e 0e 3e 22 18 b8 bc 0a ff a3 be
       -0.13479812 0.13921522 -0.022472445 -0.32030517
0003d0 e4 45 ce bd 28 ca 44 3b 43 21 2b 3e 8e 1c a3 bb
       -0.10071924 0.003002772 0.16711907 -0.004977769
0003e0 76 0d 0b 3e 9d ea 34 3e 13 b8 5d 3d 6d bb 2a 3e
       0.13579354 0.17667623 0.054130625 0.1667306
0003f0 d0 4b 93 3e 7b ac 49 3e 07 52 6c 3e b3 2a 6b be
       0.28768778 0.19694702 0.23078166 -0.22965507
