test/model/actor_4_3_2_2_2_67_best_rou4.pth (torch, 689372 bytes, 17 tensors)

v2lLayer.W f4 [3, 40]
0	0xbe670a25	-0.22562464
1	0x3ec28ecf	0.3799958
2	0x3e45e1e9	0.19324459
3	0x3e9d2470	0.30691862
4	0xbe1d33e7	-0.1535183
5	0x3e92e81a	0.28692704
6	0xbe21eb23	-0.15812354
7	0xbea72ef6	-0.32653016
8	0x3ed86bbc	0.42269695
9	0xbea798dd	-0.32733813
10	0x3e0feaa3	0.1405435
11	0xbe4c5901	-0.19955827
12	0xbe834ece	-0.2564606
13	0x3ebc8896	0.36822957
14	0x3e029b25	0.12754495
15	0x3e37122c	0.17878026
16	0xbeb06242	-0.34449965
17	0x3e9f0075	0.31055036
18	0x3dc765af	0.097361915
19	0xbe07da56	-0.13266882
20	0x3e8dd67f	0.2770271
21	0xbded003f	-0.115723126
22	0xbe46becd	-0.19408722
23	0xbd8901a2	-0.066897646
24	0xbe95e179	-0.29273584
25	0x3e814c2a	0.2525342
26	0xbe82e95c	-0.25568664
27	0xbeada9ab	-0.3391851
28	0xbe51fd25	-0.20506723
29	0x3c50b3ae	0.0127381515
30	0x3d531339	0.051532004
31	0xbc273334	-0.010205079
32	0x3e1fbd9f	0.15599678
33	0xbe5bdd2d	-0.2147109
34	0xbea5bc2f	-0.32370135
35	0x3e83b375	0.25722852
36	0x3e8aa96d	0.27082387
37	0x3cf4663e	0.02983391
38	0x3ea4dc4e	0.3219933
39	0xbe999638	-0.2999742
40	0x3eab93e4	0.3351127
41	0x3ed606fb	0.418022
42	0xbe2570f8	-0.16156375
43	0xbecb6276	-0.39723557
44	0xbead183f	-0.3380756
45	0xbbaf444d	-0.0053487183
46	0x3d0c03a0	0.034183145
47	0x3eaec857	0.34137222
48	0xbd1531a1	-0.036424283
49	0x3e89ddac	0.26926935
50	0x3db1eb37	0.08687442
51	0x3e92e1c6	0.28687876
52	0x3d9236a0	0.07139325
53	0xbe832667	-0.25615236
54	0x3d8a61f7	0.067569666
55	0x3eb992d4	0.36244833
56	0xbe39a500	-0.18129349
57	0xbe3bfd1c	-0.18358272
58	0x3e6dcaba	0.23221865
59	0x3e9c16bd	0.30486098
60	0xbe39850f	-0.18117164
61	0x3ededf78	0.43529868
62	0x3e6479e1	0.22312118
63	0x3e891867	0.2677643
64	0xbe9e6d9e	-0.30943006
65	0x3d9321c9	0.071841784
66	0xbe537711	-0.20650889
67	0x3ebcb730	0.3685851
68	0xbd8b4238	-0.067997396
69	0xbe7f38f0	-0.24924064
70	0xbe876b57	-0.2644908
71	0x3e991399	0.29897764
72	0x3ddf5cb4	0.109063536
73	0xbe1f3c5d	-0.1555037
74	0x3c03412e	0.0080111455
75	0x3ebda2cf	0.37038276
76	0x3e5ac7cb	0.21365277
77	0xbe009e94	-0.12560493
78	0xbd977e9f	-0.07397198
79	0x3c8ed4e8	0.017435506
80	0xbe93b5be	-0.28849596
81	0x3df176af	0.11790215
82	0x3daf21cb	0.08551367
83	0xbe4c7cc6	-0.19969472
84	0xbeaaeb65	-0.33382717
85	0x3dfdd50c	0.12394151
86	0xbd4648ae	-0.048409157
87	0xbeae9d7b	-0.34104523
88	0x3ea269f3	0.31721458
89	0x3e84063d	0.2578601
90	0x3e7145ab	0.23561732
91	0xbe8815c0	-0.26579094
92	0x3e875f36	0.26439828
93	0x3de4a87f	0.111649506
94	0xbd22fb58	-0.03979048
95	0xbe22ba05	-0.15891273
96	0x3e5fec90	0.21867585
97	0x3e4a8ecb	0.19781034
98	0x3ec189e1	0.37800506
99	0x3ead92c2	0.3390103
100	0x3e91d398	0.28481746
101	0x3ec47181	0.38367847
102	0xbe616f4e	-0.22015116
103	0xbe312405	-0.17298897
104	0x3e2cf185	0.16889007
105	0xbd1b85a4	-0.037969247
106	0xbd9678be	-0.073472485
107	0x3ea684ed	0.3252329
108	0xbe218a0a	-0.15775314
109	0x3dea7a90	0.11449158
110	0xbd7e3f7f	-0.062072273
111	0x3e0239fc	0.12717432
112	0xbe1f088d	-0.15530606
113	0xbd99b778	-0.07505697
114	0x3e90ce9d	0.28282633
115	0xbe85dbc1	-0.2614422
116	0x3e842382	0.2580834
117	0x3db33445	0.08750204
118	0x3e99f9e3	0.3007346
119	0x3e06d0e8	0.13165629

v2lLayer.a f4 [80, 1]
0	0xbe0b1773	-0.13583164
1	0xbd3ecb92	-0.04658086
2	0x3e6e9adc	0.23301262
3	0xbe45fbeb	-0.1933438
4	0xbc8fcd98	-0.01755409
5	0x3e945df3	0.28977928
6	0x3e4fefd3	0.2030633
7	0xbdec295d	-0.11531327
8	0xbd80e39d	-0.06293414
9	0x3cd99e5a	0.026564766
10	0x3ea9efd6	0.33190793
11	0xbe3464e9	-0.17616619
12	0x3e9efe1a	0.3105324
13	0x3d51dd35	0.05123635
14	0x3cd28df0	0.025702447
15	0xbdef6f1d	-0.11691115
16	0xbe358504	-0.17726523
17	0xbe6b3708	-0.22970212
18	0xbc0d4a62	-0.008623691
19	0x3d949688	0.07255274
20	0x3e8fb09d	0.28064433
21	0x3e0d9f3d	0.13830276
22	0xbe32b409	-0.1745149
23	0x3e9842f8	0.29738593
24	0x3e04cda4	0.1296907
25	0xbcfafad2	-0.030637179
26	0x3e35671b	0.17715113
27	0xbd96d242	-0.07364322
28	0xbe1fa63d	-0.15590759
29	0xbea8c6c9	-0.3296416
30	0x3e010bc0	0.12602139
31	0xbd5723eb	-0.05252449
32	0x3e954610	0.29155016
33	0x3d9961c6	0.07489352
34	0x3ea3a17d	0.31959143
35	0x3d54aae2	0.05192078
36	0x3deeebc0	0.116660595
37	0x3dc93e93	0.09826388
38	0xbd9b81d1	-0.0759312
39	0x3e1e4688	0.15456593
40	0xbd885f41	-0.06658793
41	0x3c9642f7	0.018342478
42	0xbc71823a	-0.014740521
43	0x3e416a5b	0.18888228
44	0xbdae5455	-0.08512179
45	0x3e43c153	0.19116716
46	0x3e21d7d6	0.15804991
47	0xbe89c4bc	-0.2690791
48	0x3e45760e	0.19283316
49	0xbe86b18b	-0.2630733
50	0xbe19a9f4	-0.15006238
51	0x3d004a5f	0.031320926
52	0x3dc08b78	0.094016016
53	0x3dbfdf43	0.09368756
54	0x3d42a5bb	0.047521334
55	0xbe8a158c	-0.26969564
56	0xbe410ccd	-0.1885254
57	0xbe24264e	-0.16030237
58	0x3e49b5e3	0.1969829
59	0x3ccddb46	0.025128972
60	0xbde25f88	-0.110533774
61	0x3c6cc785	0.014451866
62	0xbdc5e418	-0.09662646
63	0xbc8a855e	-0.016909298
64	0xbe09412f	-0.13403772
65	0x3e38cda2	0.18047193
66	0xbcd7a429	-0.026323395
67	0x3dc85df5	0.09783546
68	0x3e2429ad	0.16031523
69	0x3cef672e	0.029224005
70	0x3e20f0b9	0.15716828
71	0x3e8ea70f	0.2786183
72	0x3d03ae18	0.03214845
73	0x3dabd507	0.08390241
74	0xbe96abe5	-0.2942802
75	0xbe061bb7	-0.1309651
76	0x3df9f8e2	0.12205674
77	0x3c4832e1	0.012219162
78	0x3e86322c	0.26210153
79	0xbe1359f2	-0.1438978

laneLayer.W f4 [12, 12]
0	0xbe467164	-0.19379193
1	0xbee8fe68	-0.45506597
2	0x3e68bf90	0.22729325
3	0x3e7cacbc	0.24675268
4	0xbeb5b354	-0.3548838
5	0xbebfb42e	-0.37442154
6	0x3ed3182a	0.41229373
7	0x3e33d400	0.1756134
8	0xbd292610	-0.041296065
9	0x3ec619ba	0.38691503
10	0xbe84e1c6	-0.259535
11	0xbecbaa26	-0.3977825
12	0x3e944860	0.28961468
13	0xbe9f9570	-0.311687
14	0xbd030dde	-0.031995647
15	0xbe371326	-0.17878398
16	0x3efe4c59	0.49667624
17	0x3dab33a8	0.08359462
18	0xbe046a76	-0.12931237
19	0xbea0d14b	-0.31409678
20	0xbe3381b5	-0.17529948
21	0xbe70808d	-0.23486538
22	0xbee59580	-0.44840622
23	0xbe935086	-0.28772372
24	0x3caaf165	0.020867059
25	0x3e274936	0.16336522
26	0xbf09946c	-0.537421
27	0xbe6d2024	-0.23156792
28	0xbea2157c	-0.31657016
29	0x3eb54f1e	0.35411924
30	0x3e9450a6	0.2896778
31	0xbe5b271c	-0.21401638
32	0x3e3f7263	0.18695979
33	0xbdacf61e	-0.08445381
34	0xbd94c8b6	-0.07264845
35	0xbe80e7c6	-0.2517683
36	0x3e94bd98	0.290509
37	0x3c15d2e7	0.009144521
38	0x3e5a1afe	0.21299359
39	0xbed52e3c	-0.41636837
40	0x3e92a150	0.28638697
41	0xbe9bc928	-0.30426908
42	0xbd5b0a10	-0.053476393
43	0xbe604bc2	-0.219039
44	0x3ec3d2cc	0.38246763
45	0xbe03b433	-0.1286171
46	0x3e77b473	0.2418993
47	0x3ea21b8f	0.3166165
48	0x3e5020c8	0.20325005
49	0x3e0dd408	0.13850415
50	0xbcfe3387	-0.03103043
51	0x3ee304cb	0.44339594
52	0xbe82e963	-0.25568685
53	0x3d82e4f8	0.063913286
54	0xbea930d1	-0.33045056
55	0x3e17fe47	0.14843093
56	0xbeb23c20	-0.34811497
57	0xbeb9865f	-0.3623533
58	0x3e935a94	0.28780043
59	0x3de21a25	0.11040143
60	0x3daeb811	0.08531202
61	0xbecefc23	-0.4042674
62	0x3ecfc1c8	0.4057753
63	0x3eea5377	0.45766804
64	0x3dba693c	0.09102103
65	0x3ca718ad	0.020397509
66	0xbeeca734	-0.46221316
67	0x3ee75e8d	0.45189324
68	0x3e4a34ec	0.1974675
69	0x3ef8b542	0.4857579
70	0xbe9eb8ae	-0.31000274
71	0x3e9a3a15	0.30122438
72	0xbec742ac	-0.38918054
73	0xbba8b980	-0.0051490664
74	0x3ea7edae	0.32798523
75	0xbedf2ec8	-0.4359038
76	0xbd41c590	-0.04730755
77	0xbebea992	-0.37238747
78	0xbe6efa34	-0.23337632
79	0xbdc2f8a8	-0.09520084
80	0xbbd25580	-0.006418884
81	0x3ee1cae8	0.44100118
82	0xbed33b20	-0.41256046
83	0x3e9fbacc	0.31197202
84	0x3e9cb817	0.306092
85	0x3da276db	0.07932826
86	0xbeab5e7e	-0.3347053
87	0xbe26c8cf	-0.1628754
88	0xbe8b7e4c	-0.27244794
89	0x3d4bc5f1	0.04974932
90	0xbdb63373	-0.08896532
91	0xbed4b56e	-0.4154467
92	0x3dac4689	0.08411891
93	0xbe50db94	-0.20396262
94	0xbedd2e32	-0.43199307
95	0x3cf3058d	0.029665733
96	0x3df0e331	0.11762083
97	0xbdbe2dcc	-0.09286079
98	0xbea2d4d8	-0.31803012
99	0xbe3d8d18	-0.18510854
100	0x3c461f56	0.012092432
101	0xbe3373ff	-0.17524718
102	0xbe8355b7	-0.25651333
103	0xbe4bca7d	-0.19901462
104	0x3edf098b	0.43561968
105	0xbe1b62f0	-0.1517446
106	0x3f03b96a	0.51454794
107	0x3f162328	0.58647394
108	0xbdec17e7	-0.115279965
109	0x3d3f4c16	0.04670342
110	0x3eedf114	0.4647299
111	0x3da7ccf3	0.08193388
112	0xbf0d1243	-0.5510599
113	0x3f07fe2d	0.53122216
114	0xbdbd729f	-0.09250378
115	0x3eec3a2f	0.4613814
116	0xbb654db3	-0.003498894
117	0x3ea2aa3b	0.317705
118	0x3ef5184f	0.47870108
119	0xbef18167	-0.4716904
120	0x3d526b65	0.05137195
121	0x3e8aaf43	0.2708684
122	0x3dd88b1e	0.105734095
123	0x3b9e367c	0.0048282724
124	0x3e1eda99	0.15513076
125	0xbdc83ae0	-0.097768545
126	0xbe971948	-0.29511476
127	0x3ea75a8b	0.32686266
128	0xbe923646	-0.28557032
129	0xbe6d4f91	-0.23174883
130	0x3ed7d43d	0.42154112
131	0x3ee241a7	0.44190714
132	0x3e9f7940	0.31147194
133	0xbecbbab2	-0.39790875
134	0xbe77be68	-0.24193728
135	0xbee03456	-0.4378993
136	0xbc9ba2e0	-0.018998563
137	0xbedfca8c	-0.43709219
138	0x3eff7fbe	0.49902147
139	0x3d065a40	0.032800913
140	0x3d765620	0.06014073
141	0x3e734478	0.23756588
142	0xbe437760	-0.19088507
143	0xbe8c1cec	-0.27365816

l2pLayer.W f4 [12, 88]
0	0x3daf20ce	0.08551179
1	0xbafab180	-0.0019126385
2	0xbe312080	-0.17297554
3	0xbd8aa15e	-0.067690596
4	0xbca8d190	-0.02060774
5	0x3e79b843	0.24386697
6	0xbd51310c	-0.051072165
7	0x3e229b23	0.15879492
8	0x3d2d6cf4	0.042340234
9	0xbde27d4e	-0.11059056
10	0xbd2a6e30	-0.04160899
11	0x3e5080bf	0.20361613
12	0xbdc129c0	-0.09431791
13	0x3dc3bd56	0.09557597
14	0xbe48ff48	-0.19628632
15	0xbe577f00	-0.2104454
16	0xbe3374fc	-0.17525095
17	0xbdd36218	-0.10321444
18	0xbe419f68	-0.18908465
19	0x3e2baab3	0.16764335
20	0xbb8b0420	-0.004242435
21	0xbe4661e8	-0.19373286
22	0x3d8bc4c2	0.06824638
23	0xbe26a92a	-0.16275468
24	0x3e60fd7b	0.21971695
25	0xbdcaff36	-0.09911959
26	0xbe15276f	-0.14565824
27	0xbd3bda60	-0.045862556
28	0xbe40e140	-0.18835926
29	0x3e4c6889	0.19961752
30	0xbd88ce6c	-0.06679997
31	0x3e5f53ab	0.2180926
32	0xbdc3042e	-0.095222816
33	0xbe26ebe8	-0.16300929
34	0xbe5bb304	-0.21455008
35	0x3e385ee5	0.1800495
36	0xbdf0d4c8	-0.11759335
37	0xbe004c96	-0.12529215
38	0xbe7802c6	-0.24219808
39	0xbe483738	-0.19552314
40	0xbe201627	-0.1563345
41	0xbe2e8abc	-0.1704511
42	0xbdada006	-0.08477788
43	0x3e51d735	0.20492251
44	0x3ddcbaea	0.107778385
45	0x3ddc97e2	0.10771157
46	0xbdf01de2	-0.1172445
47	0xbe466e2b	-0.19377963
48	0x3e1e930b	0.1548578
49	0xbdbac5a4	-0.09119728
50	0x3e1ecc9f	0.15507744
51	0xbd8ba346	-0.06818251
52	0x3de3441a	0.11096974
53	0xbd3f5744	-0.046714082
54	0x3ba9a460	0.0051770657
55	0x3ca554c8	0.020182028
56	0x3d95a9d6	0.07307784
57	0xbd803e1c	-0.062618464
58	0x3e560657	0.20900856
59	0xbd57f588	-0.05272439
60	0xbe13641c	-0.14393657
61	0x3daa7226	0.08322553
62	0xbdf58778	-0.11988729
63	0xbd6aa5d0	-0.057287037
64	0x3d0c48dc	0.03424917
65	0x3e1346bf	0.14382456
66	0x3dd155ee	0.10221468
67	0x3e38bdc5	0.18041141
68	0x3e5a0387	0.21290408
69	0x3dc1ce16	0.09463136
70	0xbe2a2b24	-0.1661802
71	0x3e4122e5	0.18860967
72	0x3ca61318	0.020272776
73	0x3c0281d0	0.00796552
74	0xbe002358	-0.12513483
75	0xbd7385f0	-0.059453905
76	0x3e74b3f5	0.23896773
77	0x3e2d5b19	0.16929282
78	0x3e4034ff	0.18770216
79	0x3e28a4e1	0.16469146
80	0x3ded62da	0.1159112
81	0xbdbb0da8	-0.09133464
82	0xbe239cb2	-0.15977743
83	0xbe3f9223	-0.1870809
84	0xbd81373e	-0.06309365
85	0xbe633c77	-0.22191034
86	0xbe60ad34	-0.21941072
87	0xbe237ffc	-0.15966791
88	0xbd483c77	-0.04888579
89	0x3e72c957	0.23709618
90	0xbe059a4e	-0.13047144
91	0xbe113136	-0.14178929
92	0xbe4919f8	-0.19638813
93	0x3d1c19fc	0.038110718
94	0x3c161b23	0.009161743
95	0xbd8977d0	-0.067123055
96	0x3e53bd79	0.20677747
97	0xbdcaa713	-0.09895148
98	0x3e5e0e8b	0.21685235
99	0xbd832e60	-0.0640533
100	0x3e07780c	0.13229388
101	0x3ae0ce96	0.0017151411
102	0xbcb5b32f	-0.022180168
103	0xbe039a3d	-0.12851806
104	0xbe82e5df	-0.25566003
105	0xbe19ddcf	-0.1502602
106	0xbe1ce9e0	-0.15323591
107	0xbe39d9cd	-0.1814949
108	0xbd84012e	-0.064455375
109	0xbde8474f	-0.11341726
110	0x3e404a61	0.18778373
111	0xbe56d021	-0.20977832
112	0xbe7ab4e3	-0.24483065
113	0x3c055576	0.008138051
114	0xbdbfee7a	-0.09371658
115	0xbe471772	-0.19442537
116	0xbe4dcfd2	-0.20098808
117	0xbe075419	-0.13215674
118	0xbe34c8b2	-0.17654684
119	0x3e16d771	0.14730622
120	0xbe5b89a2	-0.21439222
121	0xbe73f5db	-0.23824255
122	0xbe508b81	-0.20365717
123	0xbe13cf7d	-0.14434619
124	0xbe74f52c	-0.2392165
125	0x3e5a6b36	0.2132996
126	0xbd85c17c	-0.06531045
127	0xbde4811b	-0.111574374
128	0x3de2dcb2	0.110772505
129	0x3dda36d4	0.10654989
130	0x3e0634cc	0.13106078
131	0xbd89bfaf	-0.06726014
132	0xbd963c09	-0.073356695
133	0x3e18b1f6	0.14911637
134	0x3d299d49	0.041409764
135	0x3d0a1b13	0.033717226
136	0xbd2eb6d6	-0.042654835
137	0xbe08aaf0	-0.13346457
138	0x3c3df9c3	0.011595192
139	0xbe2b4cf8	-0.1672858
140	0x3e6024a1	0.21888973
141	0x3e755794	0.2395919
142	0xbd8b282b	-0.06794771
143	0x3e4d2632	0.20034102
144	0xbe15f7d3	-0.14645319
145	0x3df1b8b5	0.11802808
146	0x3dfafded	0.12255464
147	0x3dda22e2	0.106511846
148	0xbe293f8b	-0.16528146
149	0xbe6150c4	-0.22003466
150	0x3e036b65	0.12833937
151	0x3d9eb03a	0.07748456
152	0xbd4590be	-0.04823374
153	0xbd9678c6	-0.073472545
154	0x3d643e9b	0.055723768
155	0x3e4701bf	0.1943426
156	0x3e071029	0.13189758
157	0xbe647995	-0.22312005
158	0x3dd0e6a3	0.102002405
159	0x3e54fcba	0.20799533
160	0x3e6a95b9	0.22908677
161	0x3e50a25f	0.2037444
162	0xbccae120	-0.024765551
163	0xbc416f68	-0.0118063465
164	0xbe422652	-0.1895993
165	0x3db1c948	0.086809695
166	0xbe2245c6	-0.15846929
167	0xbdd6c1dc	-0.104861945
168	0x3dbbf180	0.09176922
169	0x3dc98c9f	0.098412745
170	0x3d574540	0.052556276
171	0xbe640f2e	-0.22271416
172	0x3e4f465b	0.20241682
173	0xbe2c7c19	-0.16844214
174	0x3e04f466	0.12983856
175	0x3e6b97de	0.23007151
176	0xbe184dae	-0.14873382
177	0x3dd4668c	0.10371122
178	0xbe2e061f	-0.16994523
179	0xbe7d274d	-0.24722023
180	0x3df618be	0.12016438
181	0x3e044315	0.12916215
182	0x3d1ffe1f	0.039060708
183	0xbcbad2aa	-0.02280553
184	0x3dbf954d	0.09354649
185	0xbdef9126	-0.11697607
186	0xbc6357ab	-0.013875882
187	0x3e759444	0.2398234
188	0xbe2a536a	-0.16633382
189	0x3e22d397	0.15901028
190	0xbe180370	-0.14845061
191	0x3e660609	0.2246324
192	0xbe2415b1	-0.160239
193	0x3e80a538	0.25126052
194	0xbd8d4443	-0.068977855
195	0xbe90053a	-0.28128988
196	0x3de8c068	0.113648236
197	0xbe1f215c	-0.1554007
198	0xbc709d98	-0.014686011
199	0xbdaf3145	-0.08554319
200	0xbe1f779c	-0.15572971
201	0xbd863703	-0.065534614
202	0xbddda242	-0.10821964
203	0xbe198d9e	-0.14995429
204	0x3e54b911	0.20773722
205	0x3deb9877	0.1150369
206	0xbe8df07b	-0.27722535
207	0xbe395dab	-0.18102138
208	0x3d75c10d	0.05999856
209	0x3dc00c48	0.093773425
210	0x3d052c53	0.032512974
211	0xbde9f030	-0.11422765
212	0x3e1225f8	0.14272296
213	0xbe6b45e6	-0.22975883
214	0x3d2a3282	0.041552074
215	0xbdf09fd6	-0.11749236
216	0xbe77c72a	-0.24197069
217	0xbe357db4	-0.17723733
218	0xbdc403f8	-0.095710695
219	0x3e301972	0.17197207
220	0xbdaa0c16	-0.083030865
221	0xbdd82424	-0.10553768
222	0x3b36d07e	0.0027895267
223	0xbe252e8f	-0.16131042
224	0xbe0bd7c1	-0.13656522
225	0xbe86f2c9	-0.26357105
226	0xbe3d8102	-0.18506244
227	0xbdb2063d	-0.08692596
228	0x3db9a5c5	0.09064821
229	0x3d211e6e	0.03933566
230	0x3d545c17	0.051845636
231	0x3e5dfd2c	0.21678609
232	0x3de9fa6e	0.11424719
233	0xbcf398bb	-0.029735914
234	0xbe484ca3	-0.19560485
235	0x3d356f43	0.04429556
236	0x3d8b9f6b	0.06817516
237	0x3e64505d	0.22296281
238	0x3e29ab3a	0.16569224
239	0xbe619466	-0.22029266
240	0xbe7d6848	-0.24746811
241	0x3e3eb17f	0.18622397
242	0xbe339c58	-0.17540109
243	0xbdb052b0	-0.086095214
244	0xbd9bbc14	-0.076042324
245	0x3e25614e	0.161504
246	0xbd0e2e6a	-0.034712233
247	0xbda4bcc6	-0.08043818
248	0xbcb267af	-0.021777956
249	0xbe4dbf86	-0.20092592
250	0xbe0e7eaa	-0.13915506
251	0xbd8967c4	-0.06709245
252	0xbde33d5a	-0.11095686
253	0x3e71bd06	0.23607263
254	0x3deba4b4	0.11506024
255	0x3e7ba324	0.24573952

l2pLayer.a f4 [176, 1]
0	0xbe255a92	-0.16147831
1	0xbd8d059f	-0.06885838
2	0x3dc9f2e4	0.09860781
3	0x3e406453	0.1878827
4	0xbb2f6403	-0.0026762492
5	0x3e357542	0.17720512
6	0xbe682192	-0.22669056
7	0x3ddbde0d	0.10735712
8	0x3dd7ca07	0.105365805
9	0xbdf1284b	-0.117752634
10	0xbd3f9896	-0.046776377
11	0xbe5f5a10	-0.218117
12	0xbd26d739	-0.040732596
13	0x3c9c8d7f	0.01911044
14	0x3db31722	0.087446466
15	0x3d5846e0	0.052801967
16	0xbc34c719	-0.011033797
17	0x3d60b28d	0.05485778
18	0xbd8145ed	-0.063121654
19	0xbdc265a3	-0.09492042
20	0x3e2fbb65	0.17161329
21	0xbcbbbec9	-0.022918122
22	0xbce381b1	-0.027771803
23	0x3d7e0148	0.06201294
24	0xbdb6a5c7	-0.08918338
25	0xbe37a013	-0.17932157
26	0x3d08767f	0.03331613
27	0x3e2f983d	0.17147918
28	0xbc545fe5	-0.012962316
29	0x3d4964bc	0.049168333
30	0x3d177573	0.036977243
31	0xbdee9c99	-0.116509624
32	0x3d9ab568	0.07554132
33	0x3c286831	0.010278747
34	0x3c4758a5	0.012167131
35	0x3c38a7eb	0.0112705035
36	0xbe132f84	-0.14373595
37	0x3e106c96	0.14103922
38	0xbcab9ba7	-0.020948244
39	0xbc664443	-0.014054361
40	0xbe051b9b	-0.12998812
41	0x3d9abe8f	0.075558774
42	0xbe0a94e2	-0.13533357
43	0x3b69004d	0.0035553158
44	0xbddf7c19	-0.109123416
45	0x3e052828	0.130036
46	0x3e169784	0.14706236
47	0xbdda1d77	-0.10650151
48	0x3e0eeeff	0.13958357
49	0x3ceac17c	0.028656714
50	0xbcd5f797	-0.026119037
51	0x3d0429d2	0.032266445
52	0x3de9c9e2	0.11415459
53	0x3e2ca7d7	0.16860901
54	0xbe5d5f2a	-0.21618333
55	0xbe4c3898	-0.19943464
56	0x3e14b2fe	0.14521405
57	0x3b6cd630	0.0036138408
58	0xbdaa52f9	-0.08316607
59	0x3e4654d4	0.19368297
60	0x3d15e036	0.036590777
61	0x3d0ee9bb	0.03489087
62	0xbe220d6d	-0.15825434
63	0xbded8f05	-0.115995444
64	0x3d5595e3	0.052144896
65	0xbd97f1e8	-0.07419187
66	0xbdba6a22	-0.091022745
67	0x3e047ee0	0.12939024
68	0x3e01dc0b	0.12681596
69	0xbd360852	-0.04444153
70	0xbe125c22	-0.14292958
71	0x3dc191c7	0.09451633
72	0xbe0e2b32	-0.13883665
73	0x3dd1caa0	0.10243726
74	0x3dbf6e5b	0.093472205
75	0xbe106b65	-0.14103468
76	0xbe1283fc	-0.1430816
77	0x3d8f022b	0.069828354
78	0x3d8d3bde	0.068961844
79	0xbd138e12	-0.03602416
80	0xbe663346	-0.22480497
81	0xbd801efb	-0.06255909
82	0x3db709dd	0.08937428
83	0x3e331063	0.1748672
84	0x3a884cc3	0.0010398853
85	0x3dd95e4b	0.10613688
86	0x3da09008	0.07839972
87	0x3dd0c8e4	0.10194567
88	0x3e192873	0.14956836
89	0x3d9a0c9c	0.07521936
90	0xbe8d1fc2	-0.27563292
91	0x3e598242	0.21241096
92	0xbe6eb5c7	-0.2331153
93	0x3e167554	0.14693195
94	0xbe689523	-0.22713141
95	0xbdeb9a08	-0.115039885
96	0x3d7aa9c9	0.061197076
97	0xbd1f4497	-0.03888377
98	0xbd55f824	-0.0522386
99	0xbe74c107	-0.23901759
100	0xbe6b012f	-0.2294967
101	0x3c901918	0.01759009
102	0xbdb56ba1	-0.08858419
103	0x3d409888	0.047020465
104	0xbbdeb119	-0.006796014
105	0xbe4ce7d3	-0.20010309
106	0x3e01617b	0.12634842
107	0x3e04e51b	0.12978022
108	0xbe9f8bb3	-0.3116127
109	0x3e2d3a7b	0.1691684
110	0xbd9e04ec	-0.077157825
111	0x3e7b22df	0.24525021
112	0x3e864147	0.26221678
113	0xbd85b5d7	-0.06528824
114	0x3d4a3969	0.049371157
115	0x3d6b483d	0.05744194
116	0x3c47fc41	0.012206138
117	0xbd6c774e	-0.057730965
118	0xbd07be0a	-0.03314022
119	0xbce1967d	-0.027537579
120	0xbc9847fd	-0.018589014
121	0x3e644036	0.2229012
122	0xbdaeec1f	-0.0854113
123	0xbdcf9657	-0.10136097
124	0xbdddb792	-0.10826029
125	0x3da94299	0.082646556
126	0x3c98d140	0.018654466
127	0xbd98907d	-0.07449434
128	0x3e34604d	0.17614861
129	0x3d730f99	0.059341047
130	0xbe868def	-0.26280162
131	0xbe89e09a	-0.2692917
132	0x3de7e6fd	0.113233544
133	0x3e708cf3	0.23491268
134	0xbd7a087a	-0.06104324
135	0xbd9e0fbe	-0.07717846
136	0x3db1027f	0.08643054
137	0x3e3c81ec	0.18408936
138	0x3e25a78e	0.16177198
139	0x3e5ab117	0.21356617
140	0x3dd47e01	0.10375596
141	0x3e34134b	0.17585485
142	0xbce99819	-0.028514909
143	0xbd7323ad	-0.059360195
144	0x3dbeb048	0.09310967
145	0xbcbadd12	-0.022810493
146	0x3e616f4a	0.2201511
147	0xbe8b829d	-0.27248088
148	0x3df1c00c	0.11804208
149	0xbdb5c8c8	-0.088761866
150	0xbe2ea43a	-0.17054835
151	0xbdba211a	-0.09088345
152	0x3e57197e	0.21005818
153	0x3cb240cb	0.021759411
154	0x3d43cc08	0.047802
155	0xbe78931a	-0.24274865
156	0x3c1be38f	0.009514703
157	0xbdc250cb	-0.09488066
158	0x3d9d2101	0.076723106
159	0xbb9e3b15	-0.0048288205
160	0xbe020b54	-0.12699634
161	0xbde1e427	-0.11029845
162	0xbcc8a044	-0.024490483
163	0xbdeeb72c	-0.11656031
164	0xbdb3956a	-0.08768733
165	0xbe54dbf0	-0.20787024
166	0xbe5ac71f	-0.21365021
167	0xbd11f1b2	-0.03563089
168	0xbd6b241e	-0.05740749
169	0x3d825925	0.06364659
170	0xbd899106	-0.06717114
171	0xbda6aea3	-0.08138778
172	0x3dcf897d	0.10133646
173	0x3e644cc7	0.22294913
174	0x3d71a48a	0.058994807
175	0x3dd500b4	0.10400525

phaseLayer.W f4 [24, 26]
0	0xbc35bdd9	-0.0110926265
1	0xbe15f84b	-0.14645498
2	0x3d36ae14	0.044599608
3	0x3e872090	0.2639203
4	0xbd0fa096	-0.035065256
5	0x3eadf83c	0.3397845
6	0x3e87ba6d	0.2650942
7	0xbd669b26	-0.056300305
8	0xbeb8a4c3	-0.36063203
9	0xbe995486	-0.299473
10	0xbea63010	-0.32458544
11	0xbe5f72f0	-0.21821189
12	0xbe34e901	-0.17667009
13	0x3ea99024	0.33117783
14	0x3e902641	0.28154185
15	0xbde1a45f	-0.110176794
16	0x3d118aaa	0.03553263
17	0xbe968804	-0.29400647
18	0x3d2e6eb9	0.042586062
19	0xbde9f7bd	-0.114242055
20	0xbe070788	-0.13186467
21	0x3e55f831	0.20895459
22	0xbe0ec493	-0.13942175
23	0x3da88785	0.08228973
24	0x3c071598	0.008244894
25	0xbe1ad80d	-0.1512148
26	0xbe87b77c	-0.26507175
27	0x3d427288	0.047472507
28	0x3e142ca7	0.14470159
29	0x3e5cc5e8	0.2155987
30	0x3e5b9e25	0.21447046
31	0xbe92c613	-0.28666744
32	0x3e963741	0.2933903
33	0x3ddbf251	0.107395776
34	0xbe510986	-0.20413789
35	0xbe7e79d1	-0.24851157
36	0x3e6e75d7	0.2328714
37	0xbe10d750	-0.14144635
38	0x3e7a8fc3	0.24468903
39	0xbea5ac77	-0.32358143
40	0x3e77d493	0.24202184
41	0x3e49325f	0.19648121
42	0xbe95f0f7	-0.29285404
43	0xbe9d3a2d	-0.30708447
44	0xbe9e88fa	-0.3096388
45	0x3ddb3573	0.10703554
46	0x3e1e6a0d	0.15470143
47	0x3e7079cf	0.23483966
48	0xbae9d16e	-0.0017838904
49	0x3e161550	0.14656568
50	0x3e18f155	0.14935811
51	0x3d6ebb43	0.058284055
52	0x3c639764	0.013891075
53	0xbeb1508a	-0.3463176
54	0xbe95a196	-0.29224843
55	0x3e7d3ecf	0.24730991
56	0x3e13af34	0.14422303
57	0x3e523429	0.2052771
58	0xbe23dd48	-0.16002381
59	0x3e82881a	0.25494462
60	0xbdc2661e	-0.094921336
61	0x3ea33480	0.31875992
62	0x3d97dded	0.07415376
63	0xbdd4c78b	-0.10389622
64	0x3d98572d	0.074385025
65	0xbccdb5fd	-0.025111193
66	0xbe8e0cc0	-0.27744102
67	0xbde2c487	-0.11072641
68	0xbdb10e6e	-0.0864533
69	0x3dfa91a3	0.12234809
70	0xbd9eba36	-0.07750361
71	0xbec7a53e	-0.38993257
72	0xbe8d7f37	-0.2763612
73	0x3e077cfd	0.13231273
74	0x3ea94723	0.33062086
75	0x3e3f0a94	0.18656379
76	0x3e4d4d58	0.20049036
77	0xbdd1d2a1	-0.102452524
78	0xbe2a15d4	-0.1660989
79	0xbe0368ba	-0.12832919
80	0x3e5b0dd3	0.21391992
81	0xbdd2059e	-0.10254978
82	0x3e522a35	0.20523913
83	0xbe04be79	-0.12963285
84	0xbe35afb4	-0.17742807
85	0x3e8ece7c	0.2789191
86	0x3e949bc9	0.29025105
87	0xbe7d7cf8	-0.24754703
88	0x3de6bafd	0.11266134
89	0xbe894d17	-0.26816627
90	0x3e3827f2	0.17983988
91	0x3ca2039e	0.019777115
92	0x3e8d44ef	0.27591655
93	0xbe9b514e	-0.30335468
94	0xbe40e5eb	-0.18837707
95	0xbd8ddff2	-0.0692748
96	0xbd12a727	-0.03580394
97	0xbe6ecc60	-0.2332015
98	0xbd561779	-0.05226848
99	0xbecdacf8	-0.40171027
100	0x3e9bbbaa	0.30416614
101	0xbb9cc371	-0.0047840406
102	0x3e9784be	0.29593462
103	0xbe1615a9	-0.146567
104	0xbe0ec84a	-0.13943592
105	0xbde567c9	-0.11201436
106	0x3e1efdc7	0.15526496
107	0xbea5027c	-0.32228458
108	0xbe683ed8	-0.22680223
109	0xbc869e5c	-0.016432934
110	0x3dc9fe6e	0.09862982
111	0xbd7013ff	-0.05861282
112	0x3e0f61e6	0.14002189
113	0x3db0f899	0.08641166
114	0xbde0846c	-0.109627575
115	0xbe334119	-0.17505302
116	0x3e7ea706	0.24868402
117	0xbeb921ca	-0.36158592
118	0x3e907249	0.28212193
119	0x3ea46db5	0.3211495
120	0xbe012212	-0.12610653
121	0xbeabd346	-0.33559626
122	0xbca5085c	-0.020145588
123	0xbe7d7aed	-0.24753924
124	0xbeaec4a2	-0.34134394
125	0x3e3a2a2d	0.18180151
126	0xbe584c36	-0.21122822
127	0xbe0b48d3	-0.13601999
128	0x3e6020a1	0.21887447
129	0x3e454ae8	0.19266856
130	0x3e4caa1f	0.19986771
131	0xbe38b414	-0.18037444
132	0x3dc7db85	0.09758667
133	0xbe83cd3e	-0.25742525
134	0x3eaaf63b	0.33390984
135	0xbea068a3	-0.3132983
136	0x3dc04c96	0.093896076
137	0xbdd52f23	-0.10409381
138	0xbeb4a5a5	-0.35282627
139	0xbe8b3bf8	-0.2719419
140	0xbe29e899	-0.16592635
141	0x3e43732d	0.19086905
142	0xbe06065a	-0.1308836
143	0x3cf15cf0	0.029463261
144	0x3e948bc9	0.29012898
145	0xbd946113	-0.07245078
146	0xbce5bae4	-0.028043218
147	0xbe857c47	-0.2607138
148	0x3ea4f0a3	0.3221484
149	0xbe10c5b9	-0.14137925
150	0xbe9f5465	-0.31119075
151	0x3dc2575f	0.09489321
152	0xbe8f1bd9	-0.27950934
153	0x3e1c5e73	0.15270405
154	0xbd1a5139	-0.037675116
155	0xbe18bb84	-0.14915282
156	0xbe0ca375	-0.13734229
157	0x3e49503b	0.19659512
158	0x3e65f554	0.22456867
159	0xbe8087f4	-0.25103724
160	0x3d7445f4	0.059637025
161	0x3e8ecc28	0.27890134
162	0xbea55943	-0.32294664
163	0x3bb958c6	0.0056563346
164	0x3e99900e	0.29992718
165	0x3d52b740	0.051444292
166	0x3eb23d88	0.3481257
167	0x3d1db6f9	0.038504574
168	0x3e54b522	0.20772222
169	0xbde19b24	-0.11015919
170	0xbe57b8ab	-0.21066539
171	0x3e88c353	0.2671152
172	0x3cb14be7	0.021642638
173	0x3e821e3f	0.254137
174	0x3db00523	0.0859473
175	0xbe06de0c	-0.13170642
176	0x3e81ce3a	0.2535265
177	0x3ed4e288	0.4157908
178	0x3e8c84d4	0.2744509
179	0x3e0ed96b	0.13950126
180	0xbdc9acf2	-0.0984744
181	0x3eab4a37	0.3345506
182	0x3e5b1379	0.21394147
183	0xbd734d48	-0.059399873
184	0x3ea0d8c7	0.31415388
185	0xbe2c7d0b	-0.16844575
186	0x3d8198cb	0.06327971
187	0x3e0e1702	0.13875964
188	0x3c1dc15d	0.009628621
189	0x3e2c1078	0.16803157
190	0xbeb013ed	-0.34390202
191	0x3e28f012	0.1649783
192	0xbe11e117	-0.14246021
193	0xbe2d65e5	-0.16933401
194	0x3e16be5e	0.14721057
195	0xbe8e56aa	-0.27800494
196	0x3e79ecc3	0.24406724
197	0x3ded2547	0.11579376
198	0xbdcfd15c	-0.10147354
199	0xbe7decb9	-0.24797334
200	0x3dcf47c9	0.10121114
201	0x3dffbea9	0.124875374
202	0xbe777540	-0.24165821
203	0xbaf1e92c	-0.0018456331
204	0xbe658cbf	-0.22416972
205	0xbe9f55e1	-0.31120208
206	0x3df25a7b	0.11833664
207	0xbda3bcdd	-0.07995007
208	0x3d35e3f4	0.044406846
209	0xbe617785	-0.2201825
210	0xbe8e6c0a	-0.27816802
211	0x3e7b2e85	0.24529465
212	0x3e168e3a	0.14702693
213	0x3eae8172	0.34083134
214	0xbe268b71	-0.1626413
215	0x3e024df5	0.12725051
216	0xbe19478c	-0.14968699
217	0x3e31a2fa	0.17347327
218	0x3e0becd0	0.13664556
219	0xbd448f30	-0.047988117
220	0x3ea9eda5	0.3318912
221	0x3e1a013d	0.15039535
222	0xbea2a5c7	-0.31767103
223	0x3e8b2b00	0.27181244
224	0x3b4ef24f	0.0031577533
225	0x3ea64c0b	0.3247989
226	0xbe1b92e0	-0.15192747
227	0xbda4a8f0	-0.08040035
228	0xbd0f7330	-0.03502196
229	0xbe5a3df7	-0.213127
230	0x3e63a51e	0.22230956
231	0xbea62286	-0.32448214
232	0x3e34b2a5	0.17646272
233	0xbdafe087	-0.08587747
234	0x3e8ad316	0.2711417
235	0x3e985c6d	0.29758015
236	0xbe113a6f	-0.14182447
237	0xbe64a64e	-0.22329065
238	0xbe827c5f	-0.25485513
239	0x3dcd545a	0.100258544
240	0xbeab07dd	-0.33404437
241	0x3eaf6cf3	0.3426281
242	0xbea9c680	-0.33159256
243	0xbe4c6f01	-0.1996422
244	0xbe47d122	-0.19513372
245	0xbe9108c6	-0.28327006
246	0x3d73c5a5	0.05951466
247	0xbd2ea818	-0.042640775
248	0x3e352b87	0.17692386
249	0x3c67cade	0.014147488
250	0xbd400d6b	-0.046887796
251	0x3e9edebf	0.31029317
252	0x3e9a24e9	0.30106285
253	0x3daecbb2	0.085349455
254	0xbea65d97	-0.32493278
255	0xbd2453bd	-0.04011892

p2iLayer.W f4 [24, 176]
0	0xbe2f258c	-0.17104167
1	0xbb3ebc34	-0.0029103877
2	0xbe0fe6ec	-0.14052933
3	0x3df80868	0.12110978
4	0xbdbbbafa	-0.09166522
5	0x3da9deb7	0.082944326
6	0x3d051eb5	0.032499988
7	0xbe0cd801	-0.13754274
8	0x3d71526b	0.05891649
9	0x3caa2fda	0.02077477
10	0xbe17489f	-0.14773796
11	0x3d2ca7fa	0.042152382
12	0x3d166d07	0.03672507
13	0xbcaca642	-0.021075372
14	0x3e290fc5	0.16509922
15	0x3e412526	0.18861827
16	0x3db3084e	0.08741818
17	0x3dcf395e	0.10118364
18	0x3c6e788c	0.014555108
19	0x3d80c191	0.0628692
20	0xbd9c314e	-0.076265916
21	0x3da10e25	0.07864026
22	0x3ad6e595	0.0016395325
23	0xbdccfd47	-0.10009246
24	0x3dbdae9c	0.0926182
25	0x3d68e4e6	0.05685892
26	0xbd09399d	-0.03350221
27	0xbe112f2a	-0.14178148
28	0xbd84ce68	-0.06484681
29	0x3d39ab01	0.045329098
30	0xbe034b58	-0.1282171
31	0x3dd7aa7e	0.10530566
32	0xbe3659ec	-0.1780774
33	0xbdd035b8	-0.10166496
34	0x3e1c6abd	0.15275092
35	0x3e542751	0.20718123
36	0x3c394edb	0.0113103045
37	0xbc1dc0b7	-0.009628466
38	0xbe05572f	-0.13021539
39	0x3da98f76	0.08279316
40	0xbde3747d	-0.11106203
41	0x3d8f1706	0.06986813
42	0x3dd625da	0.10456438
43	0x3db07b2b	0.086172424
44	0x3a9cbd77	0.001195832
45	0x3dddd95e	0.10832475
46	0xbdaafb74	-0.08348742
47	0xbd8b472c	-0.06800684
48	0x3a8b4fad	0.0010628604
49	0x3e1274f5	0.14302428
50	0xbe05a525	-0.13051279
51	0x3d8b6b7b	0.0680761
52	0xbdcb325b	-0.09921714
53	0x3de4d43f	0.11173295
54	0x3e23353f	0.1593828
55	0xbbb32375	-0.0054668733
56	0x3ddee696	0.108838245
57	0xbe361c3e	-0.17784211
58	0x3c6c6b59	0.014429891
59	0x3e2698e0	0.16269255
60	0xbdcb37a2	-0.099227205
61	0x3bcb1feb	0.0061988733
62	0xbd0b069d	-0.033941854
63	0x3e238431	0.15968396
64	0x3db5e05b	0.08880683
65	0xbdc4b5ee	-0.09605013
66	0xbda66316	-0.08124368
67	0x3defdb13	0.11711707
68	0xbd43b853	-0.047783207
69	0xbdceb54a	-0.10093172
70	0xbe081009	-0.13287367
71	0xbd8d5186	-0.06900315
72	0x3d9337a9	0.07188351
73	0xbda30b27	-0.079611115
74	0xbe079d74	-0.13243657
75	0xbc0ee170	-0.008720741
76	0xbe50ee6a	-0.20403448
77	0x3db223a3	0.086982034
78	0xba7ebb7c	-0.00097172684
79	0xbcba7370	-0.022760123
80	0xbe385ad4	-0.18003398
81	0x3d2a03a7	0.04150739
82	0x3e1e609a	0.15466538
83	0x3d7a35cf	0.061086472
84	0xbe15d121	-0.14630558
85	0x3dc51100	0.09622383
86	0x3db94d98	0.09048003
87	0x3dc040ba	0.093873456
88	0x3d9db45d	0.07700417
89	0x3dfbc1fa	0.122928575
90	0x3d93997c	0.07207009
91	0xbdb79efc	-0.08965871
92	0xbdc82860	-0.09773326
93	0xbbd962cb	-0.0066340915
94	0xbb9289a0	-0.0044719726
95	0xbcd6ceff	-0.02622175
96	0xbcb30e4e	-0.021857407
97	0x3e55a779	0.20864667
98	0xbdd5ce50	-0.104397416
99	0xbca74cd9	-0.020422386
100	0x3c4a9356	0.012364229
101	0x3d9f9ab2	0.07793178
102	0x3e0f445a	0.13990918
103	0x3d95939b	0.07303544
104	0x3d949c7a	0.07256408
105	0x3d4cf773	0.050040673
106	0x3dec6288	0.11542231
107	0x3da5bd3d	0.08092735
108	0xbe26011b	-0.16211359
109	0x3dc9f3b0	0.09860933
110	0xbdce6ff3	-0.10079946
111	0x3da2872f	0.079359405
112	0x3d852b1a	0.065023616
113	0x3d808bb1	0.06276644
114	0xbdba2b9a	-0.090903476
115	0xbe14cca8	-0.14531195
116	0x3e1a3a60	0.15061331
117	0xbc10ca02	-0.008837225
118	0xbdcc107f	-0.09964084
119	0xbd2fe823	-0.042945992
120	0xbdd02cc1	-0.10164786
121	0x3e4664a4	0.19374329
122	0xbdc666d3	-0.09687581
123	0x3d41dd69	0.047330294
124	0xbd96aa99	-0.07356758
125	0xbac1b331	-0.0014778135
126	0x3d2ce430	0.042209804
127	0x3dde5634	0.10856286
128	0xbe39b16d	-0.18134089
129	0x3cfbc057	0.030731363
130	0xbd0e318d	-0.034715224
131	0x3d1c2970	0.038125455
132	0xbd7dc70e	-0.06195741
133	0xbe0e3931	-0.13889004
134	0xbdd5cf0a	-0.1043988
135	0x3e3b29e7	0.18277703
136	0xbe091ed3	-0.13390665
137	0xb91afbd6	-0.000147804
138	0x3d01c7ee	0.03168481
139	0xbdac3938	-0.08409351
140	0xbdf57cd7	-0.11986702
141	0xbdac8b87	-0.0842505
142	0xbe19907a	-0.1499652
143	0xbda99dbb	-0.08282038
144	0x3d90ea19	0.070759006
145	0xbdde0e31	-0.108425505
146	0x3e176dcd	0.1478798
147	0x3e30befe	0.17260358
148	0xbe186e8b	-0.14885919
149	0xbdc3531a	-0.09537335
150	0x3d1d16e9	0.038351927
151	0x3e193fca	0.1496574
152	0xbe050243	-0.12989144
153	0xbe2ed1e1	-0.1707225
154	0x3ce4fc58	0.027952358
155	0xbde834f0	-0.11338222
156	0x3e5385a2	0.20656446
157	0xbe276f92	-0.16351154
158	0xbd5fb5f6	-0.05461689
159	0x3e14fedf	0.1455035
160	0xbdbd7958	-0.0925166
161	0x3d853302	0.065038696
162	0x3c49937e	0.012303231
163	0xbda1c6da	-0.07899256
164	0xbded16cd	-0.115766145
165	0xbd4f48ed	-0.050606657
166	0xbcca00a3	-0.024658507
167	0xbcd517d8	-0.026012346
168	0x3e042411	0.12904383
169	0x3bce8f21	0.0063036834
170	0x3d9dd6b6	0.077069685
171	0xbdce9b5a	-0.10088225
172	0xbd9ac134	-0.07556382
173	0xbe06a39a	-0.13148347
174	0x3d57f3d2	0.05272276
175	0xbc8102fa	-0.01574849
176	0xbe486b56	-0.19572195
177	0xbce915d2	-0.028452788
178	0xbd0dce66	-0.034620665
179	0x39d1f287	0.00040044283
180	0x3d005a13	0.0313359
181	0x3d3827b4	0.04495974
182	0xbd9d78ba	-0.076890424
183	0xbdcc61b5	-0.09979574
184	0x3e1c4877	0.15262018
185	0x3e536b1c	0.20646328
186	0x3d3cf1a4	0.046128884
187	0xbe523522	-0.20528081
188	0xbd42b242	-0.04753328
189	0x3dd53166	0.10409813
190	0x3d475f9d	0.04867517
191	0x3dd88a37	0.105732374
192	0xbdc97b78	-0.09838003
193	0xbe105628	-0.14095366
194	0xbdd0be8c	-0.10192594
195	0x3d5dcfe7	0.05415335
196	0x3d11d027	0.0355989
197	0xbe4cd201	-0.20001985
198	0x3e2a22c5	0.16614826
199	0x3d8c1c25	0.06841306
200	0xbd843a46	-0.06456427
201	0xbe372d28	-0.1788832
202	0x3d4aac1a	0.049480535
203	0xbcb8330c	-0.022485279
204	0xbbc91a95	-0.006137202
205	0xbd911a02	-0.07085039
206	0x3dff926c	0.124791
207	0x3e1e19ee	0.15439579
208	0x3e00d947	0.12582885
209	0x3d1ba486	0.0379987
210	0xbc689bfe	-0.014197348
211	0xbdcd739f	-0.100318186
212	0xbd9fe5dc	-0.07807514
213	0xbbb1a2b8	-0.005421009
214	0xbde3cc85	-0.111229934
215	0xbe28e6ac	-0.16494244
216	0xbd325d12	-0.04354579
217	0x3e1da754	0.15395862
218	0x3c882b78	0.01662229
219	0x3b664e4c	0.0035141883
220	0xbdede622	-0.1161616
221	0xbe167638	-0.14693534
222	0xbe36af99	-0.17840423
223	0x3dd9a98d	0.10628042
224	0x3d906db8	0.07052177
225	0x3e16688b	0.14688317
226	0x3e5cbba7	0.21555959
227	0xbdbda355	-0.09259669
228	0xbdabc876	-0.08387844
229	0x3e1e8c8c	0.15483302
230	0xbd7f7d1a	-0.062375166
231	0xbcc47b83	-0.023984676
232	0xbdd66ee4	-0.104703695
233	0x3da97f10	0.082761884
234	0x3dd28c0d	0.10280619
235	0x3d6380b2	0.055542655
236	0x3e047889	0.12936606
237	0x3cdf5ae7	0.027265025
238	0xbbba9cdb	-0.005694968
239	0xbe35a985	-0.17740448
240	0x3c2cb836	0.010541966
241	0xbdbdce89	-0.09267909
242	0x3dedf5f4	0.116191775
243	0xbe2aee80	-0.16692543
244	0xbe0bb425	-0.13642938
245	0x3cfb980d	0.030712152
246	0x3e1a15b2	0.15047339
247	0x3da69b93	0.08135142
248	0x3da07dec	0.07836518
249	0xbe153cf7	-0.14574037
250	0xbb2bbc48	-0.0026204754
251	0x3e1e5ead	0.15465803
252	0xbde2828b	-0.11060055
253	0x3e0780e6	0.13232765
254	0xbd35d609	-0.044393573
255	0x3e2527a9	0.1612841

p2iLayer.a f4 [352, 1]
0	0x3badc9d2	0.0053036
1	0xbd6a8fe6	-0.05726614
2	0xbcb03c20	-0.021513045
3	0xbc80ae5f	-0.015708147
4	0xbc830c34	-0.01599703
5	0x3ca7aeb4	0.020469047
6	0xbddfc69e	-0.10926555
7	0xbd62db07	-0.055384662
8	0x3dcf7078	0.101288736
9	0xbd97aeec	-0.074064106
10	0xbd2eef3e	-0.042708628
11	0x3d98ca7e	0.07460497
12	0xbdde4751	-0.10853446
13	0x3dfcf2f1	0.12351025
14	0xbd81beea	-0.06335242
15	0xbd54cc9f	-0.051952954
16	0xbd11423f	-0.035463568
17	0xbd97cd75	-0.07412235
18	0xbd1a16a8	-0.037619263
19	0x3c341e05	0.010993485
20	0x3ddcb471	0.10776604
21	0x3d127aba	0.035761572
22	0x3e23ce85	0.1599675
23	0xbd5cafae	-0.05387848
24	0x3d10b2eb	0.03532688
25	0x3d484b8e	0.04890018
26	0x3da4021e	0.08008216
27	0xbbdd9f4d	-0.006763375
28	0x3e0e98a8	0.13925421
29	0x3dcd8b20	0.100363016
30	0xbdce4985	-0.100726165
31	0x3d8dd4b4	0.069253355
32	0xbdd06f29	-0.10177452
33	0x3cf097f6	0.029369336
34	0x3d8c227b	0.06842514
35	0xbde3f10b	-0.1112996
36	0x3dd91b00	0.10600853
37	0xbdff57e8	-0.12467939
38	0xbc17f867	-0.009275532
39	0xba109959	-0.00055160146
40	0x3ad553bd	0.0016275566
41	0x3e1347fc	0.14382929
42	0xbdc7a5c2	-0.09748413
43	0x3daf3413	0.08554854
44	0x3dcf627a	0.10126205
45	0x3e0a8f8d	0.13531323
46	0xbded9a24	-0.116016656
47	0x3dd3f126	0.1034873
48	0x3dde8061	0.1086433
49	0xbe002e5c	-0.12517685
50	0xbd371f6d	-0.044707704
51	0xbdbbfee7	-0.09179478
52	0x3db8f81f	0.090317
53	0xbd9e7315	-0.07736794
54	0x3d29764d	0.041372586
55	0xbd443821	-0.04790509
56	0x3d58cd53	0.052930187
57	0xbd86704a	-0.06564386
58	0x3c97b9a7	0.018521143
59	0x3cfa99fa	0.030591
60	0xbd48f90b	-0.04906563
61	0xbde8c74a	-0.11366136
62	0xbe303dd7	-0.1721109
63	0xbdd3753d	-0.10325096
64	0xbe284daf	-0.16435884
65	0xbb92d5a9	-0.0044810367
66	0x3e0b34eb	0.13594405
67	0x3d9f7c53	0.07787385
68	0xbd1e1ec5	-0.038603563
69	0xbe207f8b	-0.15673654
70	0x3e341af7	0.17588411
71	0x3dda3198	0.106539905
72	0xbdd3238a	-0.10309513
73	0xbd88e2ac	-0.06683859
74	0x3dfdbbe2	0.123893514
75	0xbda33afe	-0.07970236
76	0x3d8afd7f	0.06786632
77	0xbda76453	-0.08173432
78	0xbd6f7845	-0.058464307
79	0x3d2f5020	0.042801023
80	0xbe0c7234	-0.1371544
81	0x3cc19286	0.023629438
82	0x3d9208e3	0.07130601
83	0xbd66b433	-0.056324195
84	0xbccd86cd	-0.025088692
85	0xbd0caff6	-0.034347497
86	0xbd39fdf0	-0.04540819
87	0x3d04f86e	0.032463484
88	0xbb970372	-0.004608565
89	0xbd8e8bd5	-0.069602646
90	0xbe12f670	-0.14351821
91	0x3dbd8379	0.09253592
92	0xbc0bd8da	-0.008535588
93	0x3da92c12	0.08260359
94	0x3dba1c2d	0.09087405
95	0xbd8568fe	-0.06514166
96	0xbd6e63ab	-0.05820052
97	0xbe1dc5aa	-0.15407434
98	0x3cbb7d23	0.022886818
99	0x3dc098a0	0.09404111
100	0xbd891ba5	-0.06694726
101	0xbd136e59	-0.035993908
102	0xbdb72df0	-0.08944309
103	0x3e073f9b	0.13207857
104	0xbd17b44e	-0.037037186
105	0x3d1a88d4	0.037728146
106	0xbcfa12ae	-0.030526485
107	0xbddf5c96	-0.10906331
108	0xbd821666	-0.063519284
109	0xbcdbd7d3	-0.026836311
110	0xbda57ca5	-0.08080415
111	0xbdb083f3	-0.08618917
112	0xbdf3abb8	-0.11897987
113	0xbd7734ec	-0.060353205
114	0xbac8f8aa	-0.0015332897
115	0x3dfcd545	0.123453654
116	0x3ccaefaf	0.024772493
117	0x3de18774	0.11012164
118	0xbde40f95	-0.111357845
119	0xbd9cc545	-0.07654814
120	0xbd82a561	-0.063792
121	0x3e0a260d	0.13491078
122	0x3dc3af65	0.09554938
123	0xbd5cfdd3	-0.053953003
124	0x3d9be3cb	0.076118074
125	0xbd5bf202	-0.053697594
126	0x3dbba364	0.09162024
127	0xbd8153ad	-0.06314788
128	0xbdbd06c4	-0.09229806
129	0x3d6309fa	0.055429436
130	0x3ced6c44	0.02898229
131	0xbe232bd4	-0.15934688
132	0x3c6ef60d	0.01458503
133	0x3d0ab572	0.033864446
134	0xbdd72306	-0.10504727
135	0xbcfa447d	-0.030550236
136	0xbd108bb7	-0.035289492
137	0x3cf4ba75	0.029874066
138	0xbd763533	-0.06010933
139	0xbe26ba71	-0.16282059
140	0xbd54752c	-0.051869556
141	0xbc9da4e5	-0.019243667
142	0xbdd650c2	-0.10464622
143	0xbe610221	-0.21973468
144	0xbddab01d	-0.10678122
145	0x3cd1f885	0.025631199
146	0xbdb0e707	-0.08637815
147	0xbcae1a7a	-0.02125286
148	0xbda60d94	-0.081080586
149	0xbce0b56f	-0.027430264
150	0xbca96808	-0.020679489
151	0xbc45164c	-0.012029242
152	0xbde69413	-0.11258712
153	0x3da1cec0	0.079007626
154	0x3e4f599c	0.20249027
155	0xbd30f5f1	-0.043203298
156	0xbd8d06a7	-0.068860345
157	0xbdb66a89	-0.08907039
158	0x3e164179	0.14673413
159	0x3dcd46b6	0.10023253
160	0xbcf8b870	-0.030361384
161	0x3d094025	0.03350844
162	0xbde14b06	-0.11000638
163	0xbe248872	-0.16067675
164	0xbcc7fccf	-0.02441254
165	0x3e0812e3	0.13288455
166	0xbb2ba25a	-0.0026189298
167	0xbc961549	-0.018320696
168	0x3a844824	0.00100923
169	0xbc586149	-0.013206788
170	0xbd9382a3	-0.07202651
171	0xbd554525	-0.052067894
172	0x3d976206	0.07391743
173	0xbdc3fe8c	-0.09570035
174	0xbd41e7a2	-0.047340043
175	0x3de47a0d	0.11156092
176	0xbe2a0e19	-0.1660694
177	0x3d84a09e	0.06475948
178	0x3d633ea8	0.055479676
179	0xbd8a2d28	-0.06746894
180	0x3e25fd0e	0.16209814
181	0xbd0f83d7	-0.03503784
182	0xbc9627c0	-0.018329501
183	0x3db20220	0.086918116
184	0x3e36f6b1	0.17867543
185	0x3d4ba6f3	0.049719762
186	0xbc11b291	-0.008892671
187	0xbd5449d8	-0.051828235
188	0xbe236e34	-0.15960008
189	0x3dad99ab	0.084765755
190	0x3dfaa984	0.12239364
191	0x3d961096	0.07327382
192	0x3d9b0626	0.07569532
193	0x3dcdf43d	0.100563504
194	0x3b49e173	0.0030804544
195	0xbd0e7691	-0.034781042
196	0xbe0a5e48	-0.13512528
197	0xbe2d8b84	-0.16947752
198	0x3e34403e	0.17602631
199	0xbe191353	-0.14948778
200	0x3d76ac88	0.060223132
201	0xbdb2fb0d	-0.087392904
202	0xbd2e3005	-0.042526264
203	0x3cbc6dba	0.02300154
204	0x3e02cf4d	0.12774391
205	0xbd33240e	-0.043735556
206	0x3dbf6976	0.09346287
207	0x3e0cfe67	0.13768922
208	0xbd585775	-0.05281778
209	0x3e14f507	0.14546596
210	0xbdf974a4	-0.121804506
211	0x3d902454	0.07038179
212	0xbdacb5e5	-0.08433131
213	0xbd84fa70	-0.0649308
214	0xbd65dc01	-0.056118015
215	0xbe050675	-0.12990744
216	0x3d9007b1	0.07032717
217	0x3d99f6f6	0.07517807
218	0x3d79818d	0.060914565
219	0xbc7455e4	-0.014913056
220	0xbda3f7fe	-0.08006285
221	0x3bb433f8	0.005499359
222	0xbdbc7700	-0.09202385
223	0x3e10aecf	0.14129184
224	0xbd9bfe42	-0.07616855
225	0xbda3c148	-0.0799585
226	0x3e2b6caa	0.16740671
227	0xbcc3c262	-0.0238964
228	0x3d5c329f	0.053759214
229	0x3cfd73e2	0.030939046
230	0xbd59fccb	-0.053219598
231	0xbe0eb114	-0.13934737
232	0xbd84e6f2	-0.06489362
233	0x3e0ed93c	0.13950056
234	0x3c9fd2ba	0.019509662
235	0xbcccf606	-0.025019657
236	0x3d9c38aa	0.07627995
237	0x3cec03b5	0.028810361
238	0xbe3a3c3c	-0.1818704
239	0x3cdaf92c	0.026730143
240	0xbd891aea	-0.066945866
241	0x3d96bde3	0.07360437
242	0xbd41998c	-0.047265574
243	0xbcbbbe0e	-0.022917774
244	0x3d0076cd	0.031363297
245	0xbde814a8	-0.11332065
246	0x3d05b457	0.03264269
247	0x3cf28853	0.02960602
248	0xbd34b1f4	-0.04411502
249	0xbdea5d43	-0.114435695
250	0x3dd1ffb5	0.1025385
251	0x3d9b8c82	0.07595159
252	0x3c3444dd	0.011002746
253	0xbc9d904d	-0.019233847
254	0xbdcf3e76	-0.10119335
255	0xbc31c657	-0.010850511

intersectionLayer.W f4 [48, 46]
0	0x3e223378	0.15839946
1	0xbe4fc9ab	-0.20291774
2	0x3c99436c	0.018708907
3	0xbc690fec	-0.0142249875
4	0x3d8d163a	0.06889005
5	0x3e73268a	0.2374517
6	0xbe4210ec	-0.18951768
7	0x3c02612d	0.007957739
8	0xbce426a9	-0.027850466
9	0x3e39b29e	0.18134543
10	0x3dd54554	0.10413614
11	0x3e376454	0.17909366
12	0xbce6a75a	-0.028155971
13	0x3e85728c	0.26063955
14	0xbe6b953f	-0.23006152
15	0xbcf69d79	-0.030104386
16	0x3e6202c0	0.22071362
17	0xbe67f0a1	-0.22650386
18	0x3e4440a6	0.19165286
19	0xbe64e8c6	-0.22354421
20	0x3de37062	0.1110542
21	0xbdedf84e	-0.11619626
22	0xbe80c081	-0.2514687
23	0xbd3152ae	-0.04329174
24	0x3e3ef9e9	0.1865002
25	0x3e358683	0.17727093
26	0xbddc1410	-0.10746014
27	0xbc0bcc8e	-0.008532656
28	0xbe58fd9a	-0.21190491
29	0x3dde958b	0.10868367
30	0x3de4906b	0.11160358
31	0x3d97d5e0	0.0741384
32	0x3e12cd94	0.14336234
33	0x3d9b7ff7	0.07592767
34	0xbe2cfab6	-0.16892514
35	0xbe15be78	-0.1462344
36	0xbcdb3aae	-0.02676138
37	0x3e339743	0.1753817
38	0x3e2ef81f	0.17086838
39	0x3e1d7e20	0.15380144
40	0x3cca3004	0.024681099
41	0xbd382886	-0.04496052
42	0x3e4e3c61	0.2014022
43	0x3ddfd8d4	0.109300286
44	0x3d3d7904	0.046257988
45	0xbe08e3ad	-0.13368101
46	0x3e4fa85a	0.20279065
47	0x3e479f75	0.19494422
48	0x3e417661	0.18892814
49	0x3e23320c	0.1593706
50	0xbe533c6d	-0.2062852
51	0xbcafdb3f	-0.02146685
52	0x3e10d82c	0.14144963
53	0x3d89cf80	0.067290306
54	0x3e5e0fcf	0.21685718
55	0x3ba77990	0.005110927
56	0x3e6aea84	0.22941023
57	0x3e65f6a2	0.22457364
58	0xbe3d3df2	-0.18480662
59	0xbe472de2	-0.19451097
60	0xbe016afb	-0.12638466
61	0xbe3dbea8	-0.18529761
62	0x3dddee62	0.108364835
63	0xbd4e5497	-0.05037364
64	0x3dda22f9	0.10651202
65	0xbde02c0f	-0.109459035
66	0x3dae7f93	0.085204266
67	0x3e044507	0.12916957
68	0xbe8532cb	-0.26015314
69	0x3d26f5e7	0.040761854
70	0xbe4b4eb6	-0.19854245
71	0xbdd3febb	-0.1035132
72	0xbe03e41f	-0.1287999
73	0xbe6b14cd	-0.22957154
74	0xbe0e64af	-0.13905595
75	0xbe6be3a3	-0.23036055
76	0x3dce641f	0.1007769
77	0xbd9a14e0	-0.07523513
78	0xbe6dc070	-0.2321794
79	0x3a92f333	0.0011211395
80	0xbd9f31fd	-0.077732064
81	0x3e8279f7	0.25483677
82	0xbd832457	-0.06403416
83	0xbe451722	-0.19247106
84	0x3e21af3a	0.157895
85	0x3dda1501	0.106485374
86	0x3d09a1e8	0.03360167
87	0xbe1dc95a	-0.15408841
88	0xbcdabc3c	-0.026701085
89	0xbd8f6e91	-0.07003511
90	0xbddcba8e	-0.1077777
91	0x3dc240e8	0.09485036
92	0xbe593f52	-0.21215561
93	0xbe3112b6	-0.17292294
94	0x3cafcca0	0.021459877
95	0x3d878a20	0.06618142
96	0x3d0fc910	0.035103858
97	0x3e44155c	0.19148773
98	0xbe06e1ba	-0.13172045
99	0xbe3e256a	-0.1856896
100	0x3e3ce3ec	0.1844632
101	0x3e145796	0.14486536
102	0xbe72311d	-0.23651548
103	0x3e1f7244	0.15570933
104	0xbdeb827e	-0.11499499
105	0xbe78ee17	-0.24309574
106	0x3ddbc690	0.10731232
107	0xbe0e0525	-0.1386915
108	0xbd6a9b58	-0.057277054
109	0x3b00d580	0.0019658506
110	0xbcb0bec0	-0.021575332
111	0x3e248ed0	0.16070104
112	0xbe3e91d2	-0.18610314
113	0xbe7491cb	-0.2388374
114	0xbcb5bfd8	-0.022186205
115	0xbe0f4d89	-0.13994421
116	0x3bfa8300	0.007645011
117	0xbe064070	-0.13110518
118	0xbe000a96	-0.12504038
119	0xbdbbaba6	-0.09163599
120	0xbd0dc5d4	-0.03461249
121	0xbe25be14	-0.1618579
122	0x3e09c182	0.13452724
123	0x3b902280	0.004398644
124	0x3e564254	0.2092374
125	0xbd9970b0	-0.074921966
126	0xbdbe63a0	-0.09296346
127	0x3e64063e	0.22268006
128	0x3e7e515e	0.24835727
129	0xbd4dcde4	-0.05024518
130	0xbe5b01ee	-0.21387455
131	0x3bd4bf00	0.0064924955
132	0x3e72c63e	0.23708436
133	0xbe3b3c4a	-0.18284717
134	0x3cdc3550	0.02688089
135	0xbccefe20	-0.02526766
136	0xbe0a0939	-0.1348008
137	0x3e1680a2	0.14697507
138	0x3d76fec8	0.060301572
139	0xbe887e20	-0.26658726
140	0x3e0240f1	0.12720086
141	0x3e51c59d	0.2048554
142	0xbe1363c8	-0.14393532
143	0x3d848c9e	0.06472133
144	0x3dce9ddb	0.10088702
145	0xbe54a4c1	-0.20765974
146	0xbd59410f	-0.05304056
147	0x3dd84daf	0.10561692
148	0xbd8a5116	-0.06753747
149	0x3e355964	0.17709881
150	0xbdc7f001	-0.09762574
151	0x3b85187f	0.004061758
152	0xbe37320e	-0.17890188
153	0x3e0daef5	0.13836272
154	0x3e6f5ac1	0.23374464
155	0xbdf2ea99	-0.11861152
156	0x3e300ed6	0.1719316
157	0x3e1cbbdc	0.15306038
158	0x3e0f028a	0.13965812
159	0x3b8cbef3	0.004295224
160	0xbdcd6173	-0.100283526
161	0x3e5097ac	0.20370358
162	0x3d24113e	0.040055506
163	0xbe492190	-0.1964171
164	0xbe210b0b	-0.15726869
165	0xbe2d3f74	-0.16918737
166	0xbcce8333	-0.025209045
167	0xbca270db	-0.019829204
168	0xbdae71f5	-0.08517829
169	0xbe072544	-0.1319781
170	0xbe4e3cc4	-0.20140368
171	0xbe6b8dc3	-0.23003297
172	0xbb63e447	-0.0034773515
173	0xbe629b5c	-0.22129577
174	0xbd0b31a4	-0.033982888
175	0xbdc7faba	-0.09764619
176	0xbde9c1f4	-0.11413947
177	0xbda11a0e	-0.07866298
178	0x3e51cba9	0.20487846
179	0xbe821eb2	-0.25414044
180	0x3e492030	0.19641185
181	0xbe282a8c	-0.1642248
182	0x3d3451ce	0.044023328
183	0xbb5a5d6c	-0.0033319844
184	0xbd1546e4	-0.03644456
185	0x3dd67167	0.104708485
186	0xbc13240f	-0.008980765
187	0x3dccc0c2	0.09997703
188	0xbde29961	-0.11064411
189	0x3e01b730	0.12667537
190	0xbdf10e69	-0.11770327
191	0xbe7b36ff	-0.24532698
192	0xbdbf19c0	-0.09331083
193	0x3e6a3df9	0.22875203
194	0x3dc3add3	0.09554639
195	0xbd6d5ce7	-0.057949927
196	0xbe1dc395	-0.1540664
197	0xbdbe0134	-0.09277573
198	0x3d126df1	0.03574938
199	0x3e0351f0	0.12824225
200	0x3dc45ddd	0.095882155
201	0x3dd973bc	0.10617778
202	0x3e0b1c70	0.13585067
203	0x3e05180e	0.12997457
204	0xbd334d19	-0.043774698
205	0x3d88cc98	0.06679648
206	0xbdd81022	-0.10549952
207	0x3e159a05	0.14609535
208	0x3e436ad9	0.19083728
209	0x3e53419b	0.20630495
210	0xbe1fab3e	-0.15592667
211	0x3c238f48	0.009982891
212	0x3dd936d8	0.10606164
213	0x3d0969fb	0.033548336
214	0x3e1b1bdc	0.15147346
215	0x3e1cd9cb	0.15317456
216	0xbd287635	-0.041128356
217	0x3e124d3e	0.14287278
218	0x3e16917a	0.14703932
219	0xbe3fa14c	-0.18713874
220	0x3dafe8e8	0.08589345
221	0xbd9f8c75	-0.07790462
222	0x3c0b0645	0.0084853815
223	0xbe19def1	-0.15026452
224	0xbe3b69ce	-0.1830208
225	0xbe32eeaf	-0.17473863
226	0x3e7850df	0.242496
227	0x3e303e39	0.17211236
228	0x3e7d539c	0.24738926
229	0x3e0f816b	0.14014213
230	0xbc4e6460	-0.012597173
231	0xbd9d7466	-0.07688217
232	0xbda75668	-0.081707776
233	0xbe53cf83	-0.20684628
234	0xbe866092	-0.26245552
235	0x3c906519	0.017626332
236	0x3e3c77b8	0.18405044
237	0xbe0a49c8	-0.13504708
238	0x3dc6c594	0.09705654
239	0x3dc75e37	0.09734767
240	0xbdbb301c	-0.091400355
241	0x3e28debb	0.16491215
242	0xbd25b5d4	-0.040456608
243	0xbdd9f481	-0.106423385
244	0x3cb9b453	0.022668993
245	0x3e3445df	0.17604779
246	0xbe552883	-0.20816235
247	0xbe22da49	-0.15903582
248	0xbdc1abf9	-0.09456629
249	0x3e031b9d	0.12803502
250	0x3e561e1d	0.20909925
251	0x3e1d5459	0.15364207
252	0xbdb39c23	-0.08770015
253	0x3cf563c3	0.029954797
254	0xbd5eb052	-0.05436737
255	0x3c62698b	0.013819109
