test/model/actor_3_3_3_2_45_best_rou3.pth (torch, 689330 bytes, 17 tensors)

v2lLayer.W f4 [3, 40]
-0.27575105 -0.13067363 0.2286609 -0.023960302 0.036152855 0.22272627 0.031085696 -0.18840986
0.2186924 0.020753713 -0.11455268 0.26039955 0.16599801 -0.36041772 0.020285038 0.1501923
0.17539056 0.18902023 0.0731529 -0.20633538 0.007375238 -0.3221381 0.17939146 -0.31792322
-0.23903497 -0.1398123 -0.11715023 0.3741774 0.28716815 -0.061139666 -0.3089629 0.016876893
0.08995316 0.099803284 -0.26412147 -0.2139389 -0.088987105 -0.22602735 0.080315776 0.17457815
-0.14352818 0.3399918 0.043056928 0.3274723 0.01950179 -0.2179691 -0.19316638 0.049641266
-0.17452563 0.17640933 -0.08414249 0.10795206 -0.1168685 -0.06814424 0.35095915 0.026116911
-0.0567768 0.338652 -0.052335177 -0.13855608 0.26601997 -0.0063796444 -0.27348274 0.060986727
-0.23596333 0.30350137 0.23936667 0.011250875 0.082063414 -0.18876171 0.24713191 -0.106525995
0.15250462 0.22204639 -0.107148536 0.17633496 0.0964561 0.23949057 -0.16795534 0.12573983
-0.13223396 -0.18960041 0.27692342 0.15200925 0.21163967 -0.16214217 -0.3741484 -0.07181942
-0.23896752 -0.2685177 0.048676778 -0.27129468 -0.34137756 -0.07355453 0.052685127 -0.34040174
-0.05202732 0.12977259 0.10461246 0.06152297 -0.15622272 -0.18361594 -0.012373471 0.15036565
0.0057642036 -0.2577865 -0.357552 -0.23850028 -0.2629626 0.31287974 0.11187628 -0.20932092
-0.124794975 0.25991634 0.123672135 -0.24373426 -0.34713513 0.104334354 0.19606946 0.18694888
00000000: 3e2f 8dbe 4fcf 05be 1526 6a3e 6548 c4bc
00000010: 0415 143d 5b12 643e 6ea7 fe3c 84ee 40be
00000020: e7f0 5f3e b103 aa3c 989a eabd 1753 853e
00000030: 62fb 293e ac88 b8be cf2c a63c 03cc 193e
00000040: 9599 333e 858e 413e 30d1 953d 9549 53be
00000050: fbab f13b 49ef a4be 65b2 373e d5c6 a2be
00000060: 95c5 74be f52a 0fbe 76ec efbd 2e94 bf3e
00000070: b407 933e 966d 7abd 6330 9ebe 6941 8a3c
00000080: 5d39 b83d aa65 cc3d ee3a 87be cd12 5bbe
00000090: df3e b6bd b773 67be 997c a43d 9dc4 323e
000000a0: 0df9 12be 6813 ae3e 765c 303d 73aa a73e
000000b0: 38c2 9f3c 4b33 5fbe 68cd 45be a454 4b3d
000000c0: d9b6 32be a6a4 343e e652 acbd f815 dd3d
000000d0: c158 efbd 358f 8bbd ebb0 b33e 22f3 d53c
000000e0: ca8e 68bd cc63 ad3e 695d 56bd a5e1 0dbe
000000f0: c533 883e 560c d1bb ee05 8cbe 38cd 793d
00000100: 5fa0 71be 8864 9b3e 891c 753e 9755 383c
00000110: dd10 a83d c04a 41be 2610 7d3e 4d2a dabd
00000120: 2c2a 1c3e 2160 633e b170 dbbd 2791 343e
00000130: c78a c53d 043d 753e 7cfc 2bbe f1c1 003e
00000140: 5768 07be 9c26 42be e8c8 8d3e 50a8 1b3e
00000150: 12b8 583e 9908 26be 6190 bfbe 0f16 93bd
00000160: e7b3 74be 277b 89be 4d61 473d 23e7 8abe
00000170: 0ac9 aebe c2a3 96bd 5ccc 573d 2349 aebe
00000180: 991a 55bd 1be3 043e 0f3f d63d 83ff 7b3d
00000190: d9f8 1fbe d105 3cbe 19ba 4abc 74f9 193e
000001a0: a5e1 bc3b 98fc 83be 0e11 b7be 6b39 74be
000001b0: 09a3 86be c631 a03e 641f e53d 3958 56be
000001c0: 8294 ffbd c113 853e d147 fd3d 7995 79be
000001d0: b2bb b1be 40ad d53d 6fc6 483e 876f 3f3e

v2lLayer.a f4 [80, 1]
0.19547786 0.23139998 -0.15834904 -0.026872927 -0.28209278 0.2206191 -0.029304888 -0.2256345
-0.26019913 0.22634466 -0.035783764 -0.13499534 0.06414121 0.1766554 -0.21216615 -0.20890704
0.11888831 -0.19646162 -0.15831421 -0.0521233 -0.033892404 0.03487719 0.05468585 -0.055401195
-0.026794147 -0.08294202 0.017226476 0.22941868 0.11400304 -0.02084699 0.1650812 0.18177095
0.19088374 0.25275135 0.016075958 -0.2450847 -0.12594187 0.03456995 -0.04004168 0.17779003
-0.1857785 0.16528614 0.20280921 0.04967969 -0.22464867 0.08048735 0.12710346 0.17505644
-0.26412642 0.06292329 0.2551973 0.078865856 0.2000939 0.03984265 -0.041233595 -0.11576316
-0.09123621 -0.2759892 -0.08908291 0.08581623 0.0803179 -0.051243685 -0.292702 -0.026012456
0.08690579 -0.0051015043 -0.02977457 0.003646041 0.23634733 0.102073714 0.18368253 -0.16489045
-0.23533888 -0.21197785 0.059871323 0.15273076 -0.07909599 0.13534851 0.26691264 0.12562276
00000000: 592b 483e 1ef4 6c3e 4026 22be 9d24 dcbc
00000010: 776e 90be f9e9 613e ce10 f0bc bb0c 67be
00000020: d238 85be e5c6 673e ff91 12bd 383c 0abe
00000030: 775c 833d 27e5 343e 1542 59be baeb 55be
00000040: b77b f33d 3c2d 49be 1f1d 22be 3e7f 55bd
00000050: c3d2 0abd 62db 0e3d 45fe 5f3d 5dec 62bd
00000060: 667f dbbc 81dd a9bd 8a1e 8d3c bbec 6a3e
00000070: 6d7a e93d 4fc7 aabc 0c0b 293e 2a22 3a3e
00000080: 0777 433e a068 813e bab1 833c 7cf7 7abe
00000090: e8f6 00be 3899 0d3d bf02 24bd 970e 363e
000000a0: b83c 3ebe c540 293e 38ad 4f3e ee7c 4b3d
000000b0: 4d0a 66be 8dd6 a43d 6927 023e ff41 333e
000000c0: 943b 87be eddd 803d 38a9 823e 6c84 a13d
000000d0: 6ae5 4c3e 0c32 233d 8fe4 28bd 3c15 edbd
000000e0: 0dda babd 754e 8dbe 1a71 b6bd 6bc0 af3d
000000f0: b67d a43d e6e4 51bd 09dd 95be 1318 d5bc
00000100: aafb b13d 852a a7bb cde9 f3bc 6bf2 6e3b
00000110: 0905 723e 060c d13d 4617 3c3e 0bd9 28be
00000120: adfc 70be b910 59be a23b 753d 7465 1c3e
00000130: 14fd a1bd cd98 0a3e c6a8 883e 41a3 003e

laneLayer.W f4 [12, 12]
0.038181625 -0.2311567 0.221418 -0.327372 -0.4074314 0.50530636 -0.24916874 0.102733254
-0.31297207 -0.023811674 0.34950158 -0.08746206 -0.22064818 0.22772104 -0.17730165 0.2487679
0.24107954 -0.3072964 -0.38462752 -0.4716972 0.14075558 -0.34137297 -0.08715822 -0.44940165
-0.43639016 0.09987987 -0.45087236 -0.13584079 0.14241809 0.31540298 -0.4318987 0.110919185
0.45966953 0.2306686 0.32755855 -0.05128331 -0.14270306 -0.30114263 0.36025625 -0.15845269
-0.2501502 -0.38393635 -0.25173116 -0.27776557 -0.0857476 0.23548222 -0.2340427 -0.11444092
-0.23771821 0.14130953 -0.14857268 -0.47048151 0.14933418 0.26519772 -0.035021592 0.28648722
0.46184006 0.21567678 0.4999416 -0.2030931 0.02530573 -0.16256008 -0.5125934 0.23303913
0.2754628 -0.4520579 0.23989438 -0.40920937 -0.17894128 -0.16035433 -0.38442397 0.50591016
-0.32900012 -0.28217453 0.22399855 -0.084231436 -0.45879942 0.0363065 -0.043981433 0.050099015
-0.22763646 0.032164812 -0.3936538 -0.37816703 0.19697928 -0.32459232 0.46269846 0.09271906
0.29164216 0.33483994 -0.0076441476 0.43254423 0.20127985 0.09617321 0.20597413 0.019819919
0.49595034 -0.07152663 0.49184808 0.26388174 -0.009458869 0.07889561 -0.30757546 0.116529904
0.22656558 0.008801944 -0.22987875 -0.19177957 0.030760258 0.03906396 0.44906634 0.048881523
0.23683903 -0.48072037 -0.21705724 -0.19260623 0.12128391 -0.08452943 -0.10989633 -0.28986916
0.22345324 0.47995463 0.020184757 0.29685062 0.15452614 0.13994883 -0.20354405 0.35928723
-0.21520072 -0.07543443 0.49942625 -0.1280201 0.10090023 -0.40131354 -0.014303386 -0.16764474
0.45704883 0.30526936 0.33988708 0.0051222444 0.4339487 -0.138749 -0.090387106 0.1480664
00000000: 5664 1c3d 58b4 6cbe 66bb 623e 4e9d a7be
00000010: d99a d0be c25b 013f 1726 7fbe d065 d23d
00000020: e03d a0be b310 c3bc dff1 b23e 4f1f b3bd
00000030: 99f1 61be b42f 693e 908e 35be 03bd 7e3e
00000040: 8edd 763e f455 9dbe e6ed c4be 4c82 f1be
00000050: 3b22 103e 70c8 aebe 0280 b2bd f917 e6be
00000060: 886e dfbe d18d cc3d bed8 e6be d919 0bbe
00000070: 0cd6 113e 807c a13e d421 ddbe 9929 e33d
00000080: ce59 eb3e 6434 6c3e c1b5 a73e 730e 52bd
00000090: c020 12be 5e2f 9abe 8273 b83e 6c41 22be
000000a0: b013 80be 4e93 c4be e8e2 80be 4a37 8ebe
000000b0: 709c afbd 4022 713e e4a8 6fbe 0060 eabd
000000c0: 676c 73be 72b3 103e 7023 18be f4e2 f0be
000000d0: 0feb 183e ffc7 873e cd72 0fbd 74ae 923e
000000e0: 4d76 ec3e 60da 5c3e 58f8 ff3e a3f7 4fbe
000000f0: f64d cf3c 2676 26be 5239 03bf cfa1 6e3e
00000100: 7609 8d3e 2274 e7be dfa6 753e e483 d1be
00000110: 623c 37be ed33 24be 38d3 c4be 5483 013f
00000120: b472 a8be 2e79 90be e05f 653e 8881 acbd
00000130: c2e7 eabe 20b6 143d e025 34bd a034 4d3d
00000140: 8819 69be 40bf 033d fe8c c9be 1c9f c1be
00000150: f0b4 493e f730 a6be d0e6 ec3e 7ee3 bd3d
00000160: 1f52 953e 2470 ab3e c27b fabb 7076 dd3e
00000170: 4e1c 4e3e 76f6 c43d e2ea 523e 625d a23c
00000180: 34ed fd3e 8e7c 92bd 83d3 fb3e 821b 873e
00000190: 5ff9 1abc 0694 a13d 887a 9dbe 3ba7 ee3d
000001a0: cf00 683e 0736 103c 5665 6bbe dd61 44be
000001b0: f0fc fb3c 8801 203d 06ec e53e fe37 483d
000001c0: ee85 723e fb20 f6be 4144 5ebe 913a 45be
000001d0: b363 f83d c41d adbd 5411 e1bd bb69 94be
000001e0: edd0 643e 9dbc f53e 815a a53c cefc 973e
000001f0: 1a3c 1e3e bf4e 0f3e da6d 50be 7ff4 b73e
00000200: 945d 5cbe 5e7d 9abd ccb4 ff3e b317 03be
00000210: c8a4 ce3d f878 cdbe c058 6abc 10ab 2bbe
00000220: 4e02 ea3e 444c 9c3e ae05 ae3e 80d8 a73b
00000230: 862e de3e 3814 0ebe e01c b9bd b89e 173e

l2pLayer.W f4 [12, 88]
0.099621706 -0.049002375 0.14334254 -0.24293034 0.1519316 0.098069124 0.065873615 0.09162997
0.08810767 0.065776385 -0.14689755 -0.22492008 -0.15062504 0.048285857 -0.11418308 0.21435213
0.1949739 0.22665778 0.22612166 -0.12472399 -0.20165405 0.06896816 -0.12293245 0.14198297
0.1579975 -0.1950813 -0.09591469 0.0369834 0.24461922 0.17048754 -0.122161716 0.07021072
-0.1767088 0.22745539 -0.1247376 -0.16888866 -0.17091037 -0.04053207 -0.2510991 -0.19229282
-0.2020604 -0.078812465 0.03655515 -0.2310582 -0.19356334 -0.0656992 0.2155769 -0.15326127
0.040667824 0.049988482 0.017682815 -0.08585741 -0.16935015 -0.17458388 0.20734264 -0.021250501
-0.01037246 0.16427918 0.19373381 -0.090042666 0.012500145 0.09975014 0.041468523 0.20793796
0.042727396 -0.045156647 -0.001110204 -0.14592016 -0.03902963 -0.12103667 -0.08003885 0.121281765
0.24704032 -0.19996776 0.14721878 -0.091991 -0.035429906 -0.12964763 0.23254229 0.034736753
-0.056029934 -0.12519436 0.09247171 0.012039535 -0.20819542 -0.057506934 0.06047562 -0.11216227
0.20738338 -0.16063246 0.2075447 -0.21335736 0.14129 0.032234278 -0.07739338 0.21546726
0.07279466 0.22823685 -0.13635734 0.22864757 -0.06074925 -0.11530415 -0.23409106 0.07851742
0.16505489 0.17658538 -0.2246835 0.069867104 -0.044438556 0.07691644 -0.008762406 -0.08368348
-0.11779677 -0.07883141 0.19180794 -0.09095839 -0.21975939 -0.19843148 -0.10838449 -0.08078742
0.15084533 -0.10444758 -0.041409757 0.15379362 -0.068769574 0.10145858 0.17093323 0.17915793
0.1981799 0.112006806 -0.115178384 -0.13066894 0.10350616 -0.0060799606 -0.031348974 0.17615423
0.07868563 -0.006428117 -0.22626613 -0.024505455 0.14416869 -0.15432861 0.117129564 -0.23930174
0.20454893 0.07698564 0.108990036 0.1815015 -0.20276955 0.023980398 0.049254924 0.23448238
0.17296661 -0.06629657 0.11689207 -0.016557625 -0.16598116 -0.016280878 -0.03030584 -0.0713318
0.014822797 -0.027871808 -0.06874212 0.028058136 0.06985338 -0.2480776 0.12089877 0.13294606
-0.16682887 -0.18897124 -0.063327804 0.1937147 0.09891239 0.12975846 0.16902542 -0.10017525
0.22385187 -0.10553306 -0.025927817 -0.2187014 -0.0119617805 -0.20847869 -0.04235168 -0.23624614
-0.011618421 -0.23534961 0.22793601 -0.058020815 0.04468958 -0.035083443 0.00371734 0.23747462
-0.23462829 -0.18283184 0.09211622 -0.21270071 -0.18729676 0.23248109 -0.15508667 0.15869221
0.11232765 0.25175676 -0.175706 -0.20423813 -0.098860346 0.1251369 -0.18262418 0.14574823
0.033315092 0.16517092 0.05446969 -0.17340259 0.17260326 -0.05419935 0.11145553 0.11762504
-0.23543428 0.008927548 -0.14098564 0.002175526 -0.23581614 0.14019701 -0.19360782 0.0923124
-0.10327827 -0.21209966 -0.13232777 -0.07941126 0.22349824 -0.051163495 -0.022062555 -0.1526961
0.11544119 0.13047832 -0.21357915 0.0523218 -0.13544975 0.14962462 0.0390245 -0.138904
-0.049608607 0.22267301 -0.15969522 -0.04068388 0.09908728 0.13104057 -0.10480112 0.088304766
-0.02157362 0.08139798 -0.07020135 0.15613323 0.1374992 0.0057937056 0.12929283 -0.063661106
00000000: 7706 cc3d b7b6 48bd 63c8 123e bbc2 78be
00000010: f593 1b3e 77d8 c83d bfe8 863d 7ea8 bb3d
00000020: cb71 b43d c5b5 863d 506c 16be 7351 66be
00000030: 733d 1abe 64c7 453d d2d8 e9bd 207f 5b3e
00000040: 3da7 473e fa18 683e 708c 673e 4b6f ffbd
00000050: 667e 4ebe 2e3f 8d3d 02c4 fbbd fc63 113e
00000060: 19ca 213e 64c3 47be ec6e c4bd e87b 173d
00000070: 767d 7a3e 4994 2e3e ec2f fabd a3ca 8f3d
00000080: 27f3 34be 11ea 683e 6d76 ffbd 26f1 2cbe
00000090: 2103 2fbe f504 26bd 1090 80be 69e8 44be
000000a0: ece8 4ebe 6e68 a1bd daba 153d 859a 6cbe
000000b0: 7835 46be 4d8d 86bd 31c0 5c3e 86f0 1cbe
000000c0: 4e93 263d b9c0 4c3d 8ddb 903c 03d6 afbd
000000d0: 206a 2dbe 1ec6 32be a151 543e 8815 aebc
000000e0: 40f1 29bc cd38 283e 2862 463e 4a68 b8bd
000000f0: 68cd 4c3c cd49 cc3d e6da 293d b0ed 543e
00000100: ec02 2f3d 2df6 38bd 4484 91ba 186c 15be
00000110: 89dd 1fbd 13e2 f7bd 69eb a3bd 9362 f83d
00000120: 23f8 7c3e 59c4 4cbe 85c0 163e c765 bcbd
00000130: f31e 11bd 59c2 04be 911f 6e3e 2048 0e3d
00000140: a57f 65bd f332 00be cf61 bd3d 7841 453c
00000150: 2e31 55be 648c 6bbd 49b5 773d 55b5 e5bd
00000160: 4f5c 543e d67c 24be 9986 543e 5a7a 5abe
00000170: 53ae 103e 1708 043d 6c80 9ebd 73a3 5c3e
00000180: 5e15 953d ecb6 693e 42a1 0bbe 9722 6a3e
00000190: 35d4 78bd 9524 ecbd 91b5 6fbe becd a03d
000001a0: 2604 293e ccd2 343e 6e13 66be 7c16 8f3d
000001b0: 3405 36bd 5e86 9d3d 3290 0fbc 3f62 abbd
000001c0: 6f3f f1bd 5d72 a1bd 4d69 443e 6448 babd
000001d0: 9b08 61be 9f31 4bbe b0f8 ddbd e073 a5bd
000001e0: 3377 1a3e 9de8 d5bd 479d 29bd 137c 1d3e
000001f0: 10d7 8cbd 84c9 cf3d 1f09 2f3e 2d75 373e
00000200: acef 4a3e d363 e53d a5e2 ebbd 14ce 05be
00000210: 0afb d33d 683a c7bb c867 00bd c661 343e
00000220: ee25 a13d f4a2 d2bb 4fb2 67be aabf c8bc
00000230: f5a0 133e 5208 1ebe a0e1 ef3d 840b 75be
00000240: 4675 513e a6aa 9d3d 2b36 df3d 87db 393e
00000250: d2a2 4fbe 8a72 c43c 88bf 493d 261c 703e
00000260: 291e 313e 7fc6 87bd 1c65 ef3d dba3 87bc
00000270: f7f6 29be 7a5f 85bc f443 f8bc 6816 92bd
00000280: 51db 723c 6b53 e4bc abc8 8cbd 2dda e53c
00000290: 4a0f 8f3d 0e08 7ebe c699 f73d 0323 083e
000002a0: 30d5 2abe ad81 41be 02b2 81bd 255d 463e
000002b0: 9492 ca3d 67df 043e 0015 2d3e ae28 cdbd
000002c0: 6d39 653e b821 d8bd 9366 d4bc 43f3 5fbe
000002d0: 58fb 43bc 707b 55be f578 2dbd 82ea 71be
000002e0: 315b 3ebc 7dff 70be 0f68 693e 3ca7 6dbd
000002f0: 6c0c 373d a8b3 0fbd 9e9e 733b 8c2c 733e
00000300: 6642 70be 4538 3bbe 6ea7 bc3d 37ce 59be
00000310: b9ca 3fbe 860f 6e3e 0acf 1ebe 3680 223e
00000320: 0a0c e63d 43e6 803e 46ec 33be cd23 51be
00000330: 4b77 cabd e323 003e d501 3bbe 063f 153e
00000340: 6875 083d 9122 293e 9c1b 5f3d 7390 31be
00000350: e9be 303e 2300 5ebd cc42 e43d 66e5 f03d
00000360: af15 71be da44 123c 8a5e 10be 4593 0e3b
00000370: c979 71be ce8f 0f3e 2141 46be 490e bd3d
00000380: 8f83 d3bd a730 59be ee80 07be 5fa2 a2bd
00000390: b9dc 643e d090 51bd 88bc b4bc 5e5c 1cbe
000003a0: 6e6c ec3d 1c9c 053e 7eb4 5abe 624f 563d
000003b0: 57b3 0abe 3237 193e 27d8 1f3d da3c 0ebe
000003c0: 6532 4bbd 6504 643e 2587 23be 24a4 26bd
000003d0: 46ee ca3d 802f 063e f8a1 d6bd 21d9 b43d
000003e0: 29bb b0bc fcb3 a63d bac5 8fbd 64e1 1f3e
000003f0: 97cc 0c3e 20d9 bd3b 5765 043e c160 82bd

l2pLayer.a f4 [176, 1]
0.13908587 0.09964261 0.07990813 0.09151954 -0.06315337 -0.07229228 0.1502689 0.030165836
0.1298838 -0.07703029 0.04280408 0.06418237 -0.17121288 -0.14101051 -0.109608635 -0.033718303
0.1313491 0.090964586 -0.11464704 0.15610932 0.10950929 0.16251218 0.07321404 -0.16302168
-0.13824645 0.13803051 0.047056895 0.11229644 -0.16029562 -0.07614196 0.13059464 -0.08006622
-0.017838208 -0.13431782 0.08075019 0.17052925 0.064020135 -0.044032246 0.08941853 0.08589523
-0.04938012 -0.030722411 0.17798172 0.17433347 0.086639404 0.04400743 -0.060864154 0.15665059
0.14574642 0.14856525 0.004530782 -0.07489974 -0.0070122173 -0.06698422 -0.026447322 -0.034629874
-0.02174553 0.07184285 -0.080846734 0.043742817 0.106364734 -0.06298395 -0.042667054 0.0030920932
-0.121801116 0.05003874 0.0037615397 -0.16256635 -0.08049463 -0.07272527 -0.026874017 0.10760992
0.1863647 -0.10860551 0.038718432 -0.037188303 -0.039905947 -0.045749635 0.12936321 0.12737624
0.044424802 0.122991905 -0.01399624 -0.137425 0.15326802 0.067685015 -0.12954293 -0.047588315
-0.18867193 -0.02435067 -0.14554888 0.14834756 0.0011185285 -0.015998004 0.11567473 0.108541116
-0.14073142 -0.03474114 -0.089806676 0.166152 -0.20242682 0.16967471 -0.026682349 -0.004227424
0.16170073 0.12794717 0.14267209 -0.08836848 0.14634584 -0.028943287 -0.16349246 0.004351325
-0.16641541 -0.07697311 0.09744171 0.12528886 0.067185804 -0.019000037 0.1443923 -0.2037583
0.07307638 0.029114667 -0.044533215 -0.19873767 -0.09782044 0.15251291 0.13110316 -0.12780695
-0.1466067 0.025788462 0.042349737 -0.16686307 -0.04429509 -0.11149668 -0.13271032 0.07609171
-0.15420735 -0.15395619 0.05326315 0.15388072 0.034908354 0.03335035 -0.07958131 -0.10351573
0.07974124 0.14909796 0.11899191 0.17529036 -0.15893736 0.013920507 -0.13708586 0.1001185
0.010405077 0.1942954 0.17125407 0.026255094 0.027196795 0.017380668 0.025644438 0.023930255
0.0521475 0.0667365 0.19430181 0.02046389 0.002057753 0.0039801365 0.19068898 0.14765748
0.15887035 0.094670564 -0.10130357 0.12837754 -0.06547228 0.16895267 -0.15056022 0.02329573
00000000: 876c 0e3e 6d11 cc3d e0a6 a33d 996e bb3d
00000010: 8e56 81bd fa0d 94bd 17e0 193e 581e f73c
00000020: 4200 053e 0fc2 9dbd 5553 2f3d 0c72 833d
00000030: 6e52 2fbe 0f65 10be 7e7a e0bd 341c 0abd
00000040: 6180 063e a44b ba3d 11cc eabd 1fdb 1f3e
00000050: 6846 e03d 9869 263e 3ef1 953d 28ef 26be
00000060: 7a90 0dbe df57 0d3e bbbe 403d adfb e53d
00000070: 8924 24be 51f0 9bbd 9aba 053e c2f9 a3bd
00000080: 6f21 92bc 9c8a 09be 5b60 a53d 389f 2e3e
00000090: fd1c 833d 285b 34bd 1021 b73d d7e9 af3d
000000a0: cf42 4abd 91ad fbbc d740 363e 7984 323e
000000b0: 0070 b13d 2341 343d b14c 79bd 0369 203e
000000c0: 8d3e 153e 7d21 183e f476 943b 0965 99bd
000000d0: bec6 e5bb 062f 89bd 0ea8 d8bc 0ed8 0dbd
000000e0: af23 b2bc 5822 933d f992 a5bd ab2b 333d
000000f0: c1d5 d93d bbfd 80bd a6c3 2ebd b7a4 4a3b
00000100: dd72 f9bd 6cf5 4c3d 2a84 763b cb77 26be
00000110: 5eda a4bd fdf0 94bd e626 dcbc 9762 dc3d
00000120: 63d6 3e3e 916c debd 3897 1e3d c352 18bd
00000130: 6b74 23bd f863 3bbd ca77 043e eb6e 023e
00000140: c8f6 353d 2ee3 fb3d 7c50 65bc 24b9 0cbe
00000150: 4bf2 1c3e 719e 8a3d e7a6 04be f7eb 42bd
00000160: 3733 41be 0e7b c7bc c40a 15be 6ce8 173e
00000170: 979b 923a 3f0e 83bc dfe6 ec3d ce4a de3d
00000180: e61b 10be ba4c 0ebd 90ec b7bd c023 2a3e
00000190: fa48 4fbe 35bf 2d3e f194 dabc 3486 8abb
000001a0: e094 253e 9504 033e a218 123e 89fa b4bd
000001b0: afdb 153e 791a edbc 916a 27be 8f95 8e3b
000001c0: cd68 2abe 14a4 9dbd 858f c73d b94b 003e
000001d0: b698 893d f7a5 9bbc 93db 133e 04a6 50be
000001e0: 12a9 953d e281 ee3c 7668 36bd e381 4bbe
000001f0: 1556 c8bd 582c 1c3e e83f 063e d3df 02be
00000200: 1120 16be 5342 d33c eb76 2d3d 27de 2abe
00000210: c56e 35bd 5f58 e4bd 37e5 07be f8d5 9b3d
00000220: 88e8 1dbe b1a6 1dbe 762a 5a3d e892 1d3e
00000230: 10fc 0e3d 609a 083d 87fb a2bd 0e00 d4bd
00000240: 604f a33d 23ad 183e 08b2 f33d 517f 333e
00000250: 7ac0 22be d712 643c 3c60 0cbe ee0a cd3d
00000260: 0e7a 2a3c 60f5 463e 3a5d 2f3e ec14 d73c
00000270: d0cb de3c e761 8e3c 4914 d23c 6209 c43c
00000280: 9e98 553d 25ad 883d 0ef7 463e e3a3 a73c
00000290: 5edb 063b ce6b 823b f943 433e 8633 173e
000002a0: e9ae 223e a4e2 c13d 3f78 cfbd 6775 033e
000002b0: 5516 86bd ee01 2d3e 752c 1abe b0d6 be3c

phaseLayer.W f4 [24, 26]
0.04691981 -0.05232033 0.10580279 0.14826828 -0.052030995 0.32294154 0.09255746 -0.059047557
-0.05910036 -0.07983954 0.20501044 -0.10140213 -0.1657568 -0.38191587 -0.32475287 -0.24768706
-0.19219431 0.036987096 -0.2336374 0.12370409 -0.041711614 0.21485372 0.13329278 0.19215839
-0.13580087 0.1858417 0.15460825 -0.20620553 0.0670577 -0.33904076 0.31938478 0.012718615
-0.07941264 0.28045526 -0.014525281 -0.03680629 -0.1414145 -0.20778146 0.32354787 -0.2802855
0.22090225 0.2904515 -0.004295768 0.1836354 0.098459594 0.028671237 0.0523431 -0.23598996
0.006198332 0.20683235 -0.14521927 -0.03277469 0.18109897 0.19606984 0.11134136 0.218799
0.1080892 -0.16872479 0.06112564 0.2906113 0.047302317 -0.3002482 0.049468014 -0.2300853
-0.19507785 -0.03831743 0.28599235 0.2084516 0.2955221 -0.15836835 0.28729075 -0.06504311
-0.11939377 -0.21619132 0.065987624 0.21257204 0.23278193 -0.16202344 -0.32958633 0.1309906
-0.33123168 -0.0053384006 0.27045128 -0.050953094 -0.2483413 -0.103547476 0.0811497 0.06653454
-0.2961294 0.12234018 0.26595753 -0.3061741 0.17791745 -0.13125509 0.15435067 -0.1502586
-0.25499842 -0.2738682 0.15128277 -0.28162447 0.083677135 -0.07573031 -0.17013328 -0.0053008962
-0.22442316 -0.00454587 0.3196944 0.2998311 0.03284576 -0.12889288 0.2651366 0.20003791
-0.13866116 -0.10634672 -0.28712025 -0.049405605 -0.30374122 0.028469838 -0.22806437 0.08953969
0.1423693 0.3463712 0.0052008363 0.07617522 0.093098626 -0.071283184 0.35101727 0.20580712
0.2397728 0.32368156 0.17945115 0.10327482 0.3191965 -0.19744666 -0.32059938 0.14909112
0.2800328 0.25975528 -0.33198953 0.20116536 -0.22866243 0.19769317 0.20016994 0.16571149
-0.2599102 0.31268522 0.23066899 0.08044757 0.09938212 0.13659276 -0.03579809 0.31465217
-0.13047127 0.3357134 -0.09795281 -0.040052995 -0.19791214 0.20612486 0.15362738 0.23273039
-0.014588167 0.017507456 -0.19549498 0.049476583 -0.023829022 0.26594684 0.17101797 -0.0046284683
-0.19273517 0.098732755 0.18416588 -0.35401013 -0.05768482 -0.27971312 -0.24969846 -0.22340412
0.14519657 0.3497076 0.020939857 -0.3236223 -0.23676403 0.23162176 -0.19933279 0.08173549
0.30923072 -0.018321067 0.21443881 -0.3227172 -0.01688497 -0.20219338 0.049339585 -0.34591502
0.21928096 0.22250468 0.33064508 -0.32943973 0.16900943 -0.19359463 -0.27263886 0.098334104
-0.061920173 -0.27715987 -0.28532302 -0.23284057 -0.22603342 0.23631857 -0.1173198 -0.14391007
0.18358088 -0.026475951 -0.25018615 -0.3291998 -0.031061014 0.081337385 0.1451472 -0.27979386
-0.053340886 0.079037376 -0.23356456 -0.34439164 0.19772772 0.2552332 -0.20106822 -0.28525496
-0.111754455 -0.28145298 -0.0033637157 0.2367202 -0.051208902 -0.034560163 0.21856107 -0.33359766
0.10894783 -0.20224418 -0.1340259 0.046376847 -0.19570822 0.05828032 -0.13332038 0.11436964
0.046717145 0.24341331 0.22172979 -0.27171555 0.21678677 0.33653626 0.3482058 0.13548309
0.09882757 -0.33668405 -0.2867006 -0.1572651 -0.19600089 -0.2910305 0.09862714 -0.1588569
00000000: fd2e 403d d84d 56bd 22af d83d a4d3 173e
00000010: 741e 55bd 9858 a53e c48e bd3d dadb 71bd
00000020: 3813 72bd ea82 a3bd 42ee 513e ecab cfbd
00000030: 27bc 29be 7a8a c3be 0246 a6be ada1 7dbe
00000040: 96ce 44be c87f 173d a53e 6fbe 9258 fd3d
00000050: ccd9 2abd 9d02 5c3e e77d 083e 2bc5 443e
00000060: 620f 0bbe 494d 3e3e a051 1e3e 8b27 53be
00000070: 8c55 893d c096 adbe 6786 a33e bd61 503c
00000080: 18a3 a2bd d597 8f3e 72fb 6dbc 31c2 16bd
00000090: f6ce 10be aac4 54be 11a8 a53e 9581 8fbe
000000a0: 3334 623e 0fb6 943e 84c3 8cbb eb0a 3c3e
000000b0: 2fa5 c93d f1df ea3c b865 563d 5aa7 71be
000000c0: 611b cb3b dccb 533e 5cb4 14be c13e 06bd
000000d0: 0272 393e 88c6 483e f006 e43d d80c 603e
000000e0: df5d dd3d 31c6 2cbe e15e 7a3d 01cb 943e
000000f0: 13c0 413d 22ba 99be f99e 4a3d 7b9b 6bbe
00000100: 7dc2 47be bdf2 1cbd 976d 923e 5674 553e
00000110: ac4e 973e 502b 22be c617 933e 5235 85bd
00000120: b984 f4bd 4261 5dbe 8524 873d 7cac 593e
00000130: 635e 6e3e 79e9 25be 8abf a8be 6622 063e
00000140: 3397 a9be c0ed aebb 9778 8a3e 31b4 50bd
00000150: 2f4d 7ebe b310 d4bd d031 a63d 4343 883d
00000160: 469e 97be 7d8d fa3d 962b 883e dac2 9cbe
00000170: fe2f 363e bc67 06be 1a0e 1e3e 64dd 19be
00000180: 278f 82be 7438 8cbe dfe9 1a3e 1531 90be
00000190: eb5e ab3d 7e18 9bbd 6b37 2ebe 24b3 adbb
000001a0: 2fcf 65be 85f5 94bb fcae a33e 7683 993e
000001b0: 4789 063d 7ffc 03be fcbf 873e bdd6 4c3e
000001c0: 31fd 0dbe 4fcc d9bd 6d01 93be 885d 4abd
000001d0: f883 9bbe 9439 e93c b589 69be 9660 b73d
000001e0: 42c9 113e 9157 b13e c76b aa3b c101 9c3d
000001f0: 7eaa be3d ebfc 91bd 89b8 b33e 1abf 523e
00000200: 0087 753e 97b9 a53e 0bc2 373e c081 d33d
00000210: b96d a33e 752f 4abe 9a25 a4be 58ab 183e
00000220: 7660 8f3e a5fe 843e 88fa a9be 4bfe 4d3e
00000230: 7c26 6abe 1470 4a3e 59f9 4c3e 46b0 293e
00000240: f312 85be 4718 a03e 7e34 6c3e b2c1 a43d
00000250: da88 cb3d f9de 0b3e 05a1 12bd 171a a13e
00000260: 439a 05be a0e2 ab3e 7c9b c8bd 9c0e 24bd
00000270: 7ba9 4abe 6512 533e 7f50 1d3e e050 6e3e
00000280: 3503 6fbc cc6b 8f3c d62f 48be f5a7 4a3d
00000290: 1535 c3bc 2f2a 883e 561f 2f3e 68aa 97bb
000002a0: 5e5c 45be 6634 ca3d fb95 3c3e d140 b5be
000002b0: eb46 6cbd 8f36 8fbe f4b0 7fbe 0dc4 64be
000002c0: 69ae 143e e00c b33e 108a ab3c d2b1 a5be
000002d0: 4572 72be 412e 6d3e e51d 4cbe f064 a73d
000002e0: 7d53 9e3e 1016 96bc d995 5b3e 303b a5be
000002f0: 5952 8abc c80b 4fbe 4e18 4a3d c61b b1be
00000300: 308b 603e 44d8 633e 504a a93e 53ac a8be
00000310: cf10 2d3e ac3d 46be 5297 8bbe 6463 c93d
00000320: 02a0 7dbd e6e7 8dbe dc15 92be c26d 6ebe
00000330: 4e75 67be 7ffd 713e 5d45 f0bd 295d 13be
00000340: a0fc 3b3e 18e4 d8bc 6618 80be e08c a8be
00000350: ab73 febc 3794 a63d 78a1 143e 2441 8fbe
00000360: f97b 5abd 59de a13d 8c2b 6fbe 1a54 b0be
00000370: 2379 4a3e edad 823e d4e4 4dbe f00c 92be
00000380: 85df e4bd 9b1a 90be c971 5cbb c866 723e
00000390: 6dc0 51bd f58e 0dbd 79ce 5f3e 50cd aabe
000003a0: 0a20 df3d 1919 4fbe 163e 09be a6f5 3d3d
000003b0: bc67 48be 58b7 6e3d 2385 08be a13a ea3d
000003c0: 7a5a 3f3d 5741 793e 220d 633e 4d1e 8bbe
000003d0: 5afd 5d3e 7b4e ac3e 0848 b23e 14bc 0a3e
000003e0: 1c66 ca3d da61 acbe 6cca 92be 1a0a 21be
000003f0: 75b4 48be f301 95be 07fd c93d 62ab 22be

p2iLayer.W f4 [24, 176]
-0.13420418 0.09146411 -0.1135332 -0.11357408 -0.05654375 -0.13043407 0.12195683 -0.21004444
-0.006738553 0.13990481 -0.10289276 -0.0378418 0.13098396 -0.014144233 0.117592655 0.049449045
-0.05806259 -0.14125486 -0.1428016 0.06387035 -0.17464887 0.104023896 -0.0036675981 0.13315308
0.03516206 -0.08491308 0.1801174 0.10843821 0.03934697 -0.09429061 0.107120864 0.084934525
-0.16472004 0.0011957351 -0.09379197 -0.08969737 -0.08689027 0.040837325 -0.024714632 0.06651008
0.01207559 0.03541871 0.0847356 0.08455955 -0.1599895 0.14924787 0.018215232 -0.1278253
0.044834197 0.044845015 0.039502695 -0.056196354 0.015017717 -0.15946065 0.015317645 0.16760787
0.13584085 0.04589018 -0.026762806 0.033223607 0.07960018 0.0023026906 -0.18010587 0.09123007
-0.14985661 -0.09193006 -0.0028515495 0.067775704 0.021315154 0.00063733006 -0.040216647 0.059926834
0.13101858 -0.03125795 -0.1325948 -0.13557038 -0.048706807 -0.13441464 0.076408155 0.13622607
-0.09006295 -0.022052085 0.05503179 -0.061453838 0.022190442 -0.1130408 -0.16951203 -0.03328342
-0.059619483 -0.07245421 0.1491551 0.07964617 0.12780388 -0.05073401 -0.1313924 -0.09129156
0.0038111631 -0.037522033 -0.0075691207 -0.002574266 -0.0688628 0.07725658 0.047344837 -0.10658234
0.0029587504 -0.08243497 -0.072678976 -0.13542645 -0.09126051 0.09300127 -0.091630206 -0.01113581
0.14191006 0.14335436 0.005601677 0.10476708 0.016033884 0.13752578 -0.11730232 -0.067261755
0.1420565 0.07661606 0.058638148 0.15218663 0.047495276 0.04910284 0.09099467 -0.17677991
0.15413836 0.13308902 0.040244024 -0.12703691 -0.070124425 0.15922838 -0.07072916 -0.125863
0.062701076 0.0607544 -0.092535235 -0.15617828 -0.16948235 -0.031374846 0.030903175 -0.028493972
-0.08534939 -0.11258894 0.09999215 0.0019820859 -0.13849705 -0.101809196 -0.16410844 -0.15722738
-0.119826175 0.12303002 0.016325165 0.13239443 0.13991718 0.021681186 0.13014168 -0.16764438
0.054106627 -0.09945996 -0.19833267 -0.13269871 0.06839572 -0.02293129 0.1403461 -0.12947415
0.12374728 -0.16039619 0.102954134 -0.1424662 -0.023251893 0.05434203 0.0051245205 -0.012521267
-0.15939055 0.09223273 -0.05411512 -0.019231938 0.045671742 0.026896497 -0.11073514 -0.14128442
0.044144657 0.0011744726 0.06370936 -0.11946269 -0.07580237 -0.17134307 0.099543 -0.03544227
-0.15977007 0.052711125 0.07645291 -0.011323286 -0.15634899 -0.009710943 -0.17181075 -0.15781938
-0.01525196 0.030080624 -0.11552388 -0.12535055 -0.15559198 0.058398627 -0.20884652 0.048171435
-0.12555908 0.08730392 -0.066158414 0.098903194 -0.040033776 -0.0058482583 0.036646552 0.02736442
-0.15286127 0.13179286 -0.1487775 -0.13585185 0.13836432 -0.11878701 0.1494419 -0.1409227
-0.13941386 0.07550482 0.09295722 -0.039006457 0.13974626 0.020886634 0.02340629 0.16231062
0.15417324 -0.036373373 -0.07365387 0.07502783 0.08457654 -0.055440046 -0.05390959 0.064332135
-0.14337495 -0.08647437 0.14351699 0.08362646 0.18334712 0.14426133 0.124354005 -0.07619898
-0.04612031 -0.18174921 -0.14434142 -0.05515005 -0.00515517 -0.012707323 0.12515645 0.14510551
00000000: d26c 09be 8951 bb3d 1884 e8bd 8799 e8bd
00000010: 6b9a 67bd 8290 05be 81c4 f93d e415 57be
00000020: 14cf dcbb 3543 0f3e 70b9 d2bd 0100 1bbd
00000030: a920 063e 37bd 67bc 6bd4 f03d 158b 4a3d
00000040: 0ad3 6dbd 1da5 10be 953a 12be 75ce 823d
00000050: 27d7 32be 7b0a d53d 165c 70bb 4859 083e
00000060: 1806 103d e9e6 adbd b270 383e da14 de3d
00000070: 4a2a 213d 6f1b c1bd 2f62 db3d 27f2 ad3d
00000080: 5fac 28be 36ba 9c3a 0116 c0bd 41b3 b7bd
00000090: 87f3 b1bd 0a45 273d 5776 cabc 7036 883d
000000a0: b2d8 453c 3613 113d dc89 ad3d 8f2d ad3d
000000b0: 4ad4 23be 6fd4 183e 1c38 953c a3e4 02be
000000c0: 10a4 373d 68af 373d 94cd 213d 262e 66bd
000000d0: df0c 763c a749 23be dcf6 7a3c 66a1 2b3e
000000e0: dd19 0b3e 57f7 3b3d ac3d dbbc 7a15 083d
000000f0: 6b05 a33d bde8 163b ac6d 38be d5d6 ba3d
00000100: 0374 19be d445 bcbd 10e1 3abb fdcd 8a3d
00000110: 1e9d ae3c 7f12 273a 36ba 24bd d775 753d
00000120: bc29 063e 5608 00bd eec6 07be f6d2 0abe
00000130: ca80 47bd fea3 09be e17b 9c3d d97e 0b3e
00000140: ed72 b8bd 93a6 b4bc 0469 613d 05b7 7bbd
00000150: bbc8 b53c ef81 e7bd 9094 2dbe 3254 08bd
00000160: 8f33 74bd df62 94bd 1dbc 183e 881d a33d
00000170: 05df 023e 77ce 4fbd bb8b 06be 12f7 babd
00000180: b5c4 793b b4b0 19bd 6306 f8bb 04b5 28bb
00000190: f107 8dbd b338 9e3d a9ec 413d d847 dabd
000001a0: 98e7 413b aad3 a8bd b7d8 94bd 3bad 0abe
000001b0: cae6 babd 7377 be3d 9ea8 bbbd f972 36bc
000001c0: df50 113e 7ccb 123e 468e b73b 1f90 d63d
000001d0: 7e59 833c 8fd3 0c3e 333c f0bd 88c0 89bd
000001e0: 4277 113e e2e8 9c3d 8e2e 703d d0d6 1b3e
000001f0: 688a 423d 0f20 493d 6a5b ba3d cb05 35be
00000200: 72d6 1d3e 7d48 083e ebd6 243d f715 02be
00000210: 659d 8fbd c40c 233e 73da 90bd 3be2 00be
00000220: 6c69 803d 9bd9 783d 1d83 bdbd 33ed 1fbe
00000230: c88c 2dbe e982 00bd a828 fd3c 316c e9bc
00000240: a9cb aebd 0895 e6bd afc8 cc3d e2e5 013b
00000250: 2cd2 0dbe 5781 d0bd 0b0c 28be 3700 21be
00000260: 6d67 f5bd 2af7 fb3d 5abc 853c 6892 073e
00000270: 7346 0f3e be9c b13c dc43 053e f8aa 2bbe
00000280: e99e 5d3d aab1 cbbd b817 4bbe 2ce2 07be
00000290: 0e13 8c3d 67da bbbc e3b6 0f3e df94 04be
000002a0: 376f fd3d e63e 24be 9ed9 d23d a9e2 11be
000002b0: c17a bebc c095 5e3d 98eb a73b 0026 4dbc
000002c0: 4737 23be 83e4 bc3d d1a7 5dbd 4c8c 9dbc
000002d0: 4b12 3b3d 0b56 dc3c 1bc9 e2bd ddac 10be
000002e0: 07d1 343d c3f0 993a 0e7a 823d dba8 f4bd
000002f0: 463e 9bbd 8f74 2fbe 33dd cb3d ea2b 11bd
00000300: c49a 23be 9fe7 573d 5893 9c3d 4e85 39bc
00000310: f319 20be a61a 1fbc 28ef 2fbe 679b 21be
00000320: 5be3 79bc a46b f63c c997 ecbd e55b 00be
00000330: 8153 1fbe 6633 6f3d dddb 55be 694f 453d
00000340: 8f92 00be 66cc b23d 107e 87bd c28d ca3d
00000350: 75fa 23bd bfa2 bfbb b21a 163d 592b e03c
00000360: aa87 1cbe b5f4 063e 2159 18be bf1c 0bbe
00000370: 60af 0d3e 9b46 f3bd 4c07 193e 0a4e 10be
00000380: 82c2 0ebe 45a2 9a3d 5b60 be3d 3cc5 1fbd
00000390: a519 0f3e 721a ab3c 8cbe bf3c c134 263e
000003a0: 97df 1d3e 3ffc 14bd d7d7 96bd 31a8 993d
000003b0: 7736 ad3d 1a15 63bd 4dd0 5cbd 91c0 833d
000003c0: e2d0 12be 7919 b1bd 1ef6 123e 5944 ab3d
000003d0: 59bf 3b3e 3eb9 133e 50ad fe3d 360e 9cbd
000003e0: a6e8 3cbd 771c 3abe 3dce 13be 05e5 61bd
000003f0: b3ec a8bb 6032 50bc 0329 003e 8a96 143e

p2iLayer.a f4 [352, 1]
-0.049816202 -0.11686421 0.037557367 0.013620664 0.048961956 0.009669357 -0.1003864 0.09274619
-0.090184584 0.091956615 -0.047801364 0.14061859 -0.1409295 -0.015962161 0.07687445 0.107481085
-0.06879047 -0.09754338 -0.05096215 -0.06314941 0.025464868 0.04738899 0.057305947 -0.040551748
0.05980606 0.13856222 -0.06934621 -0.037106417 -0.0090542175 -0.1372553 0.11355441 -0.049634434
-0.12915714 -0.10165596 -0.049459126 0.057474464 -0.13994151 -0.12155293 -0.037225448 0.14292137
-0.11192027 0.029846404 -0.09137393 0.08081906 0.105223596 -0.00078792084 -0.07281756 0.106826894
0.09953461 0.06071891 0.07938892 0.12825812 -0.108778775 -0.09603825 -0.05821409 0.0645042
-0.04807622 0.036773145 0.005793011 0.017653802 0.0120956665 0.016636511 -0.006470582 -0.020571573
-0.07678863 0.070373796 0.014909549 -0.102036454 0.13161512 -0.031162398 0.027974948 -0.1112516
-0.13338481 0.09437452 -0.047127143 -0.0038934385 0.11241842 -0.03523668 -0.037549596 0.12332097
-0.057327617 -0.025518904 -0.007681501 -0.026115479 -0.07503303 0.026037382 0.045655433 0.10390998
0.08609901 -0.057880502 -0.074562736 0.027349064 0.10270663 0.045898315 -0.0018042645 0.11849536
-0.074562475 -0.060452987 -0.12416344 0.0200229 -0.042280946 0.04055319 0.100257754 -0.005422383
-0.08599474 -0.052383155 -0.04663454 0.011012285 0.03390572 0.03315827 -0.09693548 0.12034086
-0.13337964 0.03722256 0.032369934 -0.093214214 0.034834508 0.030179754 -0.10858926 0.09053381
-0.025615253 -0.085898526 0.016544003 0.08028864 -0.00563692 0.004460487 0.12760337 -0.04547443
0.09639669 -0.07542032 0.017095923 0.108004585 0.12697586 0.013694859 -0.067405306 -0.11862443
0.036023196 -0.05611172 0.12729214 0.0992695 0.06647542 0.12175408 -0.05593118 -0.06682667
-0.008020933 0.07127705 0.040629927 -0.06491664 -0.020924596 -0.043538515 0.10125631 -0.09714153
0.0069477195 -0.0506696 -0.13576037 0.106331185 -0.042033937 0.084474914 0.033086035 -0.067094184
0.0070036575 -0.08477443 0.10085832 -0.10832503 -0.020035792 0.032095235 0.11562311 0.0601884
-0.014756499 0.11065333 -0.12806323 -0.07704242 -0.087065674 0.08824148 -0.08806708 0.063366294
0.08710433 0.11507614 0.09438131 -0.074024685 -0.08674811 0.042233136 0.047230713 0.036987588
0.009484464 0.0060676476 0.0900619 0.13600533 0.008791194 -0.03997686 0.046190042 -0.088769
0.047972105 -0.075532936 -0.040841 -0.12997171 -0.12179324 0.12507886 0.069487676 -0.007993931
-0.09313255 0.024522416 0.047681134 -0.00601562 0.0016814482 -0.094773956 -0.06752314 0.07693761
0.081063434 0.0408904 0.02714819 -0.1025254 -0.10103284 0.102364354 -0.05696125 0.01657406
0.090939015 0.0711496 -0.06259224 -0.0840065 0.03380782 0.06441609 0.006365572 0.09196028
-0.060642 0.024295047 -0.06507629 -0.08105593 -0.03012913 -0.0928584 -0.08960347 -0.040875014
-0.024372617 -0.112789206 0.06494189 0.06545109 0.11607855 -0.12768374 -0.1432513 -0.065200455
-0.063474946 0.10428968 0.13608018 -0.003906172 -0.061638173 -0.12186589 -0.04320759 -0.0099629965
0.106123194 -0.13134283 -0.010321198 0.064865306 -0.057622124 0.008815773 0.026813844 0.049792442
00000000: 130c 4cbd 8156 efbd c1d5 193d 3529 5f3c
00000010: 558c 483d 396c 1e3c 6397 cdbd b7f1 bd3d
00000020: b2b2 b8bd c053 bc3d 5dcb 43bd 52fe 0f3e
00000030: d34f 10be 14c3 82bc 5a70 9d3d 0b1f dc3d
00000040: 05e2 8cbd d3c4 c7bd b0bd 50bd 7a54 81bd
00000050: b39b d03c f51a 423d a4b9 6a3d 9719 26bd
00000060: 33f7 743d 41e3 0d3e 6305 8ebd e6fc 17bd
00000070: 2458 14bc a78c 0cbe 378f e83d 7a4d 4bbd
00000080: c541 04be 0031 d0bd a795 4abd 586a 6b3d
00000090: d44c 0fbe bef0 f8bd b679 18bd fb59 123e
000000a0: 7436 e5bd 7280 f43c 4122 bbbd 7784 a53d
000000b0: 787f d73d 798c 4eba 5f21 95bd 0fc8 da3d
000000c0: cdd8 cb3d 64b4 783d a896 a23d 1956 033e
000000d0: 68c7 debd b4af c4bd e671 6ebd c71a 843d
000000e0: 92eb 44bd 709f 163d 4cd3 bd3b b59e 903c
000000f0: e72c 463c 4b49 883c 2d07 d4bb b785 a8bc
00000100: 5b43 9dbd 2320 903d 2e47 743c 7df8 d0bd
00000110: 1dc6 063e 4948 ffbc b82b e53c e1d7 e3bd
00000120: 0796 08be 6e47 c13d 6408 41bd 0f29 7fbb
00000130: a13b e63d 5654 10bd 9bcd 19bd b48f fc3d
00000140: 5dd0 6abd 050d d1bc 1ab5 fbbb 21f0 d5bc
00000150: ebaa 99bd 594c d53c 3101 3b3d c1ce d43d
00000160: ae54 b03d 1b14 6dbd 59b4 98bd 250b e03c
00000170: db57 d23d dfff 3b3d 127d ecba b2ad f23d
00000180: 36b4 98bd 8d9d 77bd 6749 febd 1107 a43c
00000190: c92e 2dbd 1a1b 263d f053 cd3d 3fae b1bb
000001a0: 031e b0bd b88f 56bd dc03 3fbd df6c 343c
000001b0: b9e0 0a3d f7d0 073d 1c86 c6bd 4575 f63d
000001c0: ac94 08be af76 183d 5696 043d 18e7 bebd
000001d0: a1ae 0e3d 883b f73c 0c64 debd ca69 b93d
000001e0: 14d7 d1bc 91eb afbd 4a87 873c 5f6e a43d
000001f0: eab5 b8bb 4729 923b 75aa 023e 6543 3abd
00000200: a16b c53d f875 9abd c00c 8c3c 8231 dd3d
00000210: f605 023e 6760 603c cb0b 8abd 5df1 f2bd
00000220: 0f8d 133d 67d5 65bd df58 023e cf4d cb3d
00000230: 4424 883d 345a f93d 1818 65bd 6cdc 88bd
00000240: 3b6a 03bc b4f9 913d 916b 263d 04f3 84bd
00000250: 0f6a abbc 7155 32bd 785f cf3d 23f2 c6bd
00000260: b2a9 e33b ed8a 4fbd c404 0bbe 2ac4 d93d
00000270: c72b 2cbd 2f01 ad3d 3985 073d ad68 89bd
00000280: f07e e53b 379e adbd cf8e ce3d 83d9 ddbd
00000290: 1a22 a4bc 4b76 033d cfcb ec3d 1d88 763d
000002a0: 3ec5 71bc 379e e23d 0223 03be 6bc8 9dbd
000002b0: 7d4f b2bd f3b7 b43d 835c b4bd 30c6 813d
000002c0: c163 b23d 0aad eb3d fd4a c13d 419a 97bd
000002d0: fea8 b1bd a7fc 2c3d fe74 413d 4c80 173d
000002e0: ba64 1b3c 1ed3 c63b 6072 b83d fb44 0b3e
000002f0: f108 103c c7be 23bd c531 3d3d 85cc b5bd
00000300: 667e 443d 03b1 9abd e448 27bd 4e17 05be
00000310: bc6e f9bd ac14 003e 8e4f 8e3d faf8 02bc
00000320: 47bc bebd 3ce3 c83c 4b4d 433d ae1e c5bb
00000330: 0a64 dc3a d918 c2bd 9249 8abd 7791 9d3d
00000340: 9604 a63d b17c 273d e265 de3c d6f8 d1bd
00000350: 4eea cebd 67a4 d13d 3350 69bd 53c6 873c
00000360: 3c3e ba3d e2b6 913d 5c30 80bd 9a0b acbd
00000370: 127a 0a3d 95ec 833d 4a96 d03b ac55 bc3d
00000380: bf63 78bd 6806 c73c b846 85bd a700 a6bd
00000390: 5ed1 f6bc 8b2c bebd 0682 b7bd 8f6c 27bd
000003a0: 15a9 c7bc 07fe e6bd 4100 853d 390b 863d
000003b0: 97ba ed3d 87bf 02be 78b0 12be d187 85bd
000003c0: 27ff 81bd d495 d53d 9a58 0b3e b1fe 7fbb
000003d0: 4f78 7cbd d394 f9bd 71fa 30bd d63b 23bc
000003e0: 1e57 d93d bc7e 06be 3e1a 29bc 1ad8 843d
000003f0: 2d05 6cbd 0870 103c b5a8 db3c 29f3 4b3d

intersectionLayer.W f4 [48, 46]
-0.2234303 -0.07384667 -0.04251392 -0.051319513 0.16218074 0.07378381 -0.1859399 0.07498997
-0.26848254 0.12828033 0.20581287 -0.10664545 -0.2693892 -0.20086643 0.10585699 -0.02939086
-0.122993335 0.083552405 -0.06739276 0.01564342 0.023607206 0.12918587 -0.14837502 -0.26775944
-0.030917652 0.2286812 -0.091954835 0.14747222 0.1450115 -0.10429059 0.02697619 -0.19825356
-0.10338841 -0.15055935 0.15752645 -0.11921978 0.21881033 0.06460691 -0.08659903 -0.24840625
0.11721012 0.15068384 -0.19226927 -0.25913185 0.22100148 0.094703056 0.24924858 0.15215158
0.05558767 -0.16175605 0.017388288 -0.16364387 -0.18263152 0.037832502 0.13532896 0.054326747
-0.197637 -0.26708215 -0.17803052 0.08123975 -0.07608402 -0.13261124 -0.10505207 -0.13853362
0.17119987 -0.06887532 -0.17697729 -0.1919791 -0.15685381 -0.15450795 0.23742923 0.00051415234
-0.20931526 -0.0632534 0.24564736 -0.10580172 -0.20933582 0.10809327 -0.2562964 0.103223905
0.10419667 -0.12852527 0.20198768 -0.009365518 -0.07992403 0.036140885 -0.066449136 0.14291754
-0.15998074 -0.07047399 0.12519573 -0.23010471 0.04364505 0.20355245 -0.14033763 0.21432488
-0.06164834 0.08609341 0.093378946 0.06281113 0.19489226 0.17477967 -0.05596962 0.15676823
0.250454 -0.17191349 -0.06302688 -0.20689557 0.0069362847 -0.028338425 -0.0052411086 -0.002043684
-0.12627862 0.024926567 -0.22745344 -0.071154766 -0.037986945 -0.10127471 0.16251148 -0.17661999
-0.19899416 0.15378036 0.12971649 0.023934754 -0.09964103 -0.0963058 -0.08977709 0.13929608
0.24095672 -0.09943812 -0.13964531 -0.14066984 -0.23849271 -0.042939972 0.05377172 -0.024092067
0.021740228 -0.122025855 0.13659663 -0.1732906 -0.17348182 0.20424497 -0.23017523 -0.13186303
0.11697841 -0.1278929 0.20837913 0.17649391 0.22749807 0.09664116 -0.2139251 -0.13276659
-0.24837327 -0.20862538 0.051574945 -0.20285086 0.0154786 -0.16425227 0.20485294 0.06894609
0.047710612 -0.21230978 0.005893443 0.086320296 0.12432435 0.13261536 0.13469669 -0.17849565
-0.21635504 0.04332434 -0.19704 -0.17344491 -0.2065932 -0.054900136 0.07742862 -0.015156521
-0.19725843 0.046838406 0.0020720263 0.039175354 0.124452814 0.09731342 0.022456063 0.044702504
-0.036236268 0.10064414 -0.006439727 -0.121610716 0.19506226 0.07985968 -0.15942879 0.19259618
-0.0503152 -0.16645086 -0.09006282 0.15312389 0.23831742 -0.083549805 -0.06225697 0.096534394
0.083878726 -0.23900533 0.09042235 -0.12462392 -0.03149973 -0.19885439 0.11534566 -0.021775484
-0.0725357 -0.017171348 0.12258363 -0.23218438 -0.10696203 0.21425267 -0.19089912 0.134468
-0.016170932 -0.033699848 -0.050658125 0.16656071 0.15646271 -0.18357936 0.012872149 0.0901408
-0.2508636 0.22205982 0.16250134 0.006409872 -0.23590381 0.16764858 -0.19161849 -0.09817338
-0.2531712 -0.18919945 -0.058410503 0.07877578 0.0047542476 -0.12763116 -0.03173726 0.11127835
-0.223877 0.16426253 0.17005394 0.15349033 0.24590686 0.2263772 0.14700021 -0.19978112
-0.104793675 -0.031387858 -0.19016728 -0.10608209 -0.15065575 0.1023592 0.16246554 -0.15241027
00000000: eaca 64be ec3c 97bd 1423 2ebd 6934 52bd
00000010: b512 263e f71b 973d 0767 3ebe 5794 993d
00000020: 8b76 89be eb5b 033e 9cc0 523e ee68 dabd
00000030: 62ed 89be eeaf 4dbe 8dcb d83d 1ac5 f0bc
00000040: eee3 fbbd 861d ab3d 3705 8abd a126 803c
00000050: e663 c13c 4d49 043e 9fef 17be c417 89be
00000060: 0447 fdbc 682b 6a3e d152 bcbd f502 173e
00000070: e57d 143e 4e96 d5bd 2cfd dc3c fb02 4bbe
00000080: 4dbd d3bd 3b2c 1abe 9d4e 213e 8029 f4bd
00000090: d10f 603e a150 843d d55a b1bd 355e 7ebe
000000a0: dc0b f03d dd4c 1a3e 3ce2 44be eeac 84be
000000b0: 364e 623e adf3 c13d 053b 7f3e a0cd 1b3e
000000c0: e6af 633d 61a3 25be e271 8e3c 4292 27be
000000d0: c203 3bbe 41f6 1a3d ad93 0a3e b985 5e3d
000000e0: 5b61 4abe febe 88be a24d 36be 0761 a63d
000000f0: f0d1 9bbd 3ecb 07be 8a25 d7bd c2db 0dbe
00000100: 054f 2f3e 810e 8dbd 8939 35be 2b96 44be
00000110: 499e 20be 5537 1ebe a620 733e 2ec8 063a
00000120: bd56 56be 008b 81bd fb8a 7b3e 92ae d8bd
00000130: 215c 56be 0160 dd3d 4839 83be 0e67 d33d
00000140: 1065 d53d 219c 03be dcd5 4e3e d471 19bc
00000150: 36af a3bd 7708 143d 7c16 88bd fa58 123e
00000160: fed1 23be ab54 90bd 4f33 003e 92a0 6bbe
00000170: 27c5 323d 0e70 503e abb4 0fbe fb77 5b3e
00000180: f882 7cbd be51 b03d 763d bf3d 1fa3 803d
00000190: d691 473e 71f9 323e 6640 65bd da87 203e
000001a0: 823b 803e 170a 30be 3d14 81bd 6fdc 53be
000001b0: c649 e33b fc25 e8bc 9bbd abbb 54ef 05bb
000001c0: 2f4f 01be cd32 cc3c 8ee9 68be 97b9 91bd
000001d0: 3398 1bbd 1d69 cfbd 6969 263e dfdb 34be
000001e0: 20c5 4bbe 9978 1d3e 66d4 043e d112 c43c
000001f0: 9910 ccbd fa3b c5bd 0ddd b7bd a2a3 0e3e
00000200: 5cbd 763e 37a6 cbbd 2eff 0ebe c10b 10be
00000210: 6f37 74be d3e1 2fbd bc3f 5c3d ba5c c5bc
00000220: 9018 b23c b1e8 f9bd fddf 0b3e 1773 31be
00000230: 38a5 31be 9825 513e 0eb3 6bbe 1a07 07be
00000240: 6092 ef3d 5bf6 02be 5761 553e d2ba 343e
00000250: 41f5 683e cdeb c53d 2e0f 5bbe f7f3 07be
00000260: 9055 7ebe e4a1 55be 4040 533d 23b8 4fbe
00000270: f499 7d3c bf31 28be f8c4 513e 9c33 8d3d
00000280: 346c 433d bc67 59be c81d c13b b2c8 b03d
00000290: c49d fe3d 52cc 073e eeed 093e 90c7 36be
000002a0: 2d8c 5dbe dd74 313d dbc4 49be 8b9b 31be
000002b0: 2b8d 53be f7de 60bd e592 9e3d 0f53 78bc
000002c0: 1dfe 49be a1d9 3f3d d5ca 073b 5676 203d
000002d0: 1ee1 fe3d 424c c73d c7f5 b73c f919 373d
000002e0: 7b6c 14bd 841e ce3d 5804 d3bb 0a0f f9bd
000002f0: 67be 473e 798d a33d 4d41 23be ef37 453e
00000300: 5017 4ebd 1872 2abe db72 b8bd 82cc 1c3e
00000310: 7b09 743e 291c abbd 2a01 7fbd d3b3 c53d
00000320: 9cc8 ab3d d0bd 74be 5a2f b93d d33a ffbd
00000330: dc05 01bd 7ca0 4bbe 583a ec3d 8062 b2bc
00000340: 998d 94bd edaa 8cbc 200d fb3d bec1 6dbe
00000350: e90e dbbd 0d65 5b3e 0f7b 43be fbb1 093e
00000360: e778 84bc da08 0abd e57e 4fbd e48e 2a3e
00000370: c337 203e 3afc 3bbe b5e5 523c bd9b b83d
00000380: 3271 80be a663 633e c066 263e e709 d23b
00000390: c590 71be 12ac 2b3e a337 44be 200f c9bd
000003a0: a89f 81be 80bd 41be da3f 6fbd 3255 a13d
000003b0: 85c9 9b3b beb1 02be eefe 01bd e7e5 e33d
000003c0: 0340 65be 7034 283e 9f22 2e3e 922c 1d3e
000003d0: 02cf 7b3e 6dcf 673e 3987 163e 6c93 4cbe
000003e0: 119e d6bd 8e90 00bd 36bb 42be 9141 d9bd
000003f0: 8045 1abe b3a1 d13d 5e5d 263e 7011 1cbe

neighborLayer.W f4 [6, 32]
-0.38049003 0.36016333 -0.3414994 0.24873182 -0.33647755 -0.08155685 0.307466 0.34089348
-0.16548276 0.20964926 -0.15629958 -0.0016728559 0.03771566 -0.32490703 -0.057083946 0.2904475
0.3379071 -0.36495784 -0.24931934 -0.18960567 0.081355795 0.32056305 0.09612896 0.16091812
0.0955591 -0.06763029 0.30248725 -0.12152421 -0.09151683 0.3872361 -0.28803957 0.3312201
0.20601688 -0.120500095 0.14102079 0.31484857 0.16946833 -0.24521904 -0.26096568 -0.34184894
-0.3713428 -0.29400593 -0.18872322 -0.092375316 0.31307685 0.050387867 0.13837394 0.3732238
-0.16033725 0.3187283 0.36453998 0.38929075 0.13740346 -0.3072063 0.32404947 0.35559762
-0.36783698 -0.38391897 0.18689355 -0.02371563 0.14672989 -0.14705405 0.28842607 0.2568111
-0.088760674 -0.08746027 0.2745257 -0.2867162 -0.06213114 -0.09650359 0.17969032 0.40381956
-0.33678907 0.032880284 0.05728406 -0.19810037 -0.08737817 0.24308369 0.34250638 -0.32022175
0.17200322 -0.273695 -0.056096967 0.116585724 0.2790043 0.24772142 -0.37132114 0.17794834
0.16814005 -0.26453874 0.32889438 -0.016134249 -0.17699835 0.24425113 -0.10566739 0.28644824
0.020843625 0.04996958 0.17490341 0.020650845 -0.14130719 -0.3101686 0.3015505 0.34982714
-0.1652683 -0.33937547 0.04445794 -0.01974737 -0.16728565 0.1728522 0.2606369 0.23279476
0.3600847 -0.0559008 -0.15809554 0.29973802 -0.35820594 0.14557672 0.070256464 -0.3747202
-0.3098583 0.10202579 -0.38707995 0.012853229 0.11649259 0.31716114 0.16809648 0.26956204
0.16643336 0.105966285 -0.019508556 0.27513036 0.37842774 -0.0146131385 0.10919436 0.039654437
0.3012296 -0.15182196 -0.31415743 -0.30934048 -0.3345561 0.24528576 -0.15617658 0.33847466
-0.275979 0.07418055 -0.28674346 -0.12493069 0.004607302 0.37158117 -0.04523926 0.12819572
-0.10548775 -0.21695055 0.22318071 0.12141417 -0.25764704 -0.26165187 0.11710522 -0.28057197
0.10295631 0.32929704 -0.10226718 -0.07861983 0.14113691 -0.007915686 -0.08586984 0.093738765
0.3526107 -0.028504496 0.09175904 -0.052832056 -0.040554475 0.33705956 -0.26032922 0.38222063
-0.3546575 -0.099849984 -0.39631063 0.35154676 0.23446883 -0.14252079 0.16125084 -0.26731244
-0.116697766 -0.2903259 0.34281823 -0.13907178 0.2710239 0.30195874 -0.019857753 -0.12669401
00000000: 97cf c2be 5467 b83e 02d9 aebe 8eb3 7e3e
00000010: c946 acbe 4707 a7bd 2f6c 9d3e 9789 ae3e
00000020: 5074 29be 4cae 563e ff0c 20be bb43 dbba
00000030: bc7b 1a3d 375a a6be dbd0 69bd 89b5 943e
00000040: 2902 ad3e c1db babe 924d 7fbe fd27 42be
00000050: de9d a63d d720 a43e 43df c43d b8c7 243e
00000060: 7db4 c33d c081 8abd 9cdf 9a3e afe1 f8bd
00000070: 2d6d bbbd cf43 c63e ec79 93be ae95 a93e
00000080: 17f6 523e c1c8 f6bd c167 103e d533 a13e
00000090: 1b89 2d3e b31a 7bbe 4b9d 85be d306 afbe
000000a0: a520 bebe f287 96be a940 41be 452f bdbd
000000b0: 9c4b a03e 8263 4e3d e6b1 0d3e 3117 bf3e
000000c0: 732f 24be 5b30 a33e fca4 ba3e 1e51 c73e
000000d0: 7eb3 0c3e 254a 9dbe d0e9 a53e e410 b63e
000000e0: 2155 bcbe 0791 c4be 0661 3f3e 4847 c2bc
000000f0: 5c40 163e 5695 16be 95ac 933e bf7c 833e
00000100: 28c8 b5bd 5f1e b3bd a28e 8c3e 77cc 92be
00000110: 397d 7ebd ada3 c5bd bd00 383e 70c1 ce3e
00000120: 9e6f acbe 7aad 063d b1a2 6a3d d3da 4abe
00000130: 53f3 b2bd eeea 783e ff5c af3e 1bf4 a3be
00000140: 9d21 303e c021 8cbe efc5 65bd 7fc4 ee3d
00000150: a7d9 8e3e afaa 7d3e ce1d bebe 1738 363e
00000160: e82c 2c3e 9f71 87be d864 a83e f92b 84bc
00000170: 0e3f 35be f81c 7a3e 2568 d8bd 58a9 923e
00000180: 40c0 aa3c e7ac 4c3d e119 333e f62b a93c
00000190: d5b2 10be 6bce 9ebe d464 9a3e 8b1c b33e
000001a0: 183c 29be 9fc2 adbe 8719 363d 3dc5 a1bc
000001b0: ee4c 2bbe 2b00 313e 3372 853e c061 6e3e
000001c0: 065d b83e 3df8 64bd cce3 21be 4377 993e
000001d0: c566 b7be 1012 153e 9fe2 8f3d 53db bfbe
000001e0: bfa5 9ebe e6f2 d03d 582f c6be 5a96 523c
000001f0: ab93 ee3d f262 a23e 7c21 2c3e 0904 8a3e
00000200: 826d 2a3e da04 d93d 68d0 9fbc e3dd 8c3e
00000210: 48c1 c13e f26b 6fbc 4ba1 df3d b16c 223d
00000220: c43a 9a3e 3777 1bbe 3ed9 a0be e061 9ebe
00000230: f04a abbe 312c 7b3e c1ec 1fbe 8d4c ad3e
00000240: 1f4d 8dbe f9eb 973d 0ad0 92be a9db ffbd
00000250: daf8 963b e33f be3e cd4c 39bd bd45 033e
00000260: f609 d8bd 4928 5ebe 7c89 643e fea7 f83d
00000270: 50ea 83be 3cf7 85be ddd4 ef3d 21a7 8fbe
00000280: c2da d23d 9f99 a83e 7571 d1bd 6f03 a1bd
00000290: 3286 103e cbb0 01bc 87dc afbd 1cfa bf3d
000002a0: 6489 b43e 4382 e9bc 2aec bb3d 6d66 58bd
000002b0: 731c 26bd 1293 ac3e df49 85be 6cb2 c33e
000002c0: ab95 b5be 267e ccbd 3ae9 cabe f0fd b33e
000002d0: 9918 703e f8f0 11be f11e 253e 2ddd 88be
000002e0: 3dff eebd 99a5 94be df85 af3e d568 0ebe
000002f0: a5c3 8a3e 569a 9a3e baac a2bc 13bc 01be

neighborLayer.a f4 [64, 1]
0.16720141 -0.1833694 -0.027638096 0.16251652 -0.1878574 -0.082610995 0.18388994 0.06249947
0.22226414 -0.017671196 0.07780153 -0.0049895733 0.16550435 -0.05731844 -0.11564222 -0.26622614
0.20858403 0.09834523 0.22589472 -0.18852082 0.3058839 -0.042291176 -0.08317995 -0.2137211
0.11956813 0.1887551 0.21931337 -0.02220037 0.04435506 -0.15936351 0.1665861 0.2803829
-0.036166932 0.24848315 0.23673037 0.19689003 0.1580615 0.08660224 -0.0059135663 -0.19590959
0.25369617 -0.20808573 0.04457665 0.111474335 0.239056 -0.114655234 0.0322844 -0.028775182
-0.2670986 -0.15889065 0.11365744 -0.23145963 -0.22002174 -0.25990576 -0.21774006 -0.0046476186
0.11711677 0.042861823 0.2037616 -0.16101024 -0.052381106 0.08165825 -0.06542018 -0.15839176
00000000: d936 2b3e 30c5 3bbe 4a69 e2bc bb6a 263e
00000010: b15d 40be f42f a9bd a54d 3c3e 72ff 7f3d
00000020: 3699 633e 2fc3 90bc 6956 9f3d 937f a3bb
00000030: f979 293e bec6 6abd d4d5 ecbd cb4e 88be
00000040: 0d97 553e 3969 c93d f250 673e 9a0b 41be
00000050: d19c 9c3e 8339 2dbd 405a aabd b4d9 5abe
00000060: 23e0 f43d 0449 413e af93 603e 8ddd b5bc
00000070: a7ad 353d 3030 23be 8c95 2a3e 598e 8f3e
00000080: c723 14bd 5e72 7e3e 7269 723e 8a9d 493e
00000090: e0da 213e 845c b13d 97c6 c1bb 869c 48be
000000a0: 77e4 813e 6d14 55be 0196 363d a84c e43d
000000b0: 19cb 743e 5dd0 eabd a63c 043d eeb9 ebbc
000000c0: 26c1 88be 3bb4 22be 3bc5 e83d c103 6dbe
000000d0: 614d 61be 5e12 85be 40f7 5ebe 0d4b 98bb
000000e0: ebda ef3d e18f 2f3d e2a6 503e dedf 24be
000000f0: 928d 56bd 713c a73d 04fb 85bd 7331 22be
