test/model/actor_4_3_3_3_3_64_best_rou0.pth (torch, 689372 bytes, 17 tensors)

v2lLayer.W f4 [3, 40]
0.21255721 -0.15005723 -0.11790029 0.1532484 -0.31090733 0.20002715 -0.06205993 0.22019781
0.0911563 -0.016951108 0.124554306 0.033954397 0.08944664 -0.16958928 0.017494448 -0.057486385
0.071204446 0.029039333 0.36557552 0.1476402 -0.118006974 -0.2131733 -0.113228366 -0.18799132
-0.07771895 -0.005026762 0.23628476 0.23249133 -0.32449165 0.2599312 0.12592785 0.36528614
0.19795252 -0.3678477 -0.3104269 -0.20622794 0.34460536 -0.031184986 0.2017941 -0.14572862
0.36037844 -0.17163792 0.25326854 0.011484845 -0.18048716 0.18978827 -0.19964816 0.106140986
-0.057861015 -0.046140864 -0.36563808 -0.19186594 0.17596391 -0.0833701 0.38548446 0.2970802
-0.022489544 -0.25309354 0.27736324 0.11042909 -0.24815677 0.23245093 0.2020983 0.3385413
-0.19238898 -0.06342959 -0.0070791487 0.05119963 -0.2338055 -0.270748 0.19625005 -0.09707087
0.15672359 0.028754098 0.13657357 0.08057984 0.13192151 0.18094592 -0.29759794 0.18284364
-0.24321464 -0.2596066 -0.018436575 -0.08037747 0.24541748 -0.24163972 -0.31088507 0.30335653
-0.0032068251 0.23235263 0.14086127 -0.2564565 0.03206641 0.072239 -0.22777185 -0.20222524
0.14787096 0.09909979 -0.10680556 -0.08745181 0.36273825 -0.049703866 0.16325144 0.1415178
-0.2139699 -0.34214246 0.3754972 0.05024498 0.30761236 0.10005003 0.14122412 0.29759747
0.30925196 -0.26430917 0.06938027 0.25217456 0.29207575 0.26447895 -0.21925803 -0.25085223
00000000: 99a8 593e 9aa8 19be b575 f1bd 26ed 1c3e
00000010: 3f2f 9fbe ebd3 4c3e 8e32 7ebd 897b 613e
00000020: 27b0 ba3d 0ddd 8abc 5416 ff3d c413 0b3d
00000030: cd2f b73d d0a8 2dbe 8450 8f3c d876 6bbd
00000040: a3d3 913d e5e3 ed3c b72c bb3e fe2e 173e
00000050: a4ad f1bd 1a4a 5abe 46e4 e7bd cc80 40be
00000060: 1d2b 9fbd 89b7 a4bb a2f4 713e 3512 6e3e
00000070: c523 a6be b415 853e 3bf3 003e c906 bb3e
00000080: 11b4 4a3e 8956 bcbe 46f0 9ebe 6b2d 53be
00000090: 1d70 b03e a877 ffbc 1da3 4e3e e239 15be
000000a0: 8683 b83e dac1 2fbe 6aac 813e ee2a 3c3c
000000b0: a0d1 38be db57 423e 9170 4cbe 7260 d93d
000000c0: acff 6cbd 34fe 3cbd ea34 bbbe 8178 44be
000000d0: e22f 343e f1bd aabd 385e c53e e51a 983e
000000e0: fe3b b8bc 7a95 81be 8e02 8e3e a628 e23d
000000f0: cf1c 7ebe 9e07 6e3e dbf2 4e3e 4955 ad3e
00000100: 9e01 45be 5fe7 81bd 34f8 e7bb b4b6 513d
00000110: b66a 6fbe 7b9f 8abe c6f5 483e 18cd c6bd
00000120: 267c 203e b78d eb3c f1d9 0b3e 0b07 a53d
00000130: 6f16 073e e349 393e c25e 98be 5d3b 3b3e
00000140: 420d 79be 28eb 84be 4d08 97bc f19c a4bd
00000150: b84e 7b3e 6770 77be 542c 9fbe 8c51 9b3e
00000160: 9929 52bb d9ed 6d3e f03d 103e 444e 83be
00000170: 1158 033d 0af2 933d 063d 69be 2214 4fbe
00000180: 7c6b 173e d5f4 ca3d e0bc dabd ef19 b3bd
00000190: d4b8 b93e 4896 4bbd 632b 273e 0bea 103e
000001a0: ed1a 5bbe 4c2d afbe 2b41 c03e aecd 4d3d
000001b0: 5e7f 9d3e 08e7 cc3d 0e9d 103e b25e 983e
000001c0: 4656 9e3e 8853 87be 3e17 8e3d 061d 813e
000001d0: f48a 953e c969 873e 2d85 60be b46f 80be

v2lLayer.a f4 [80, 1]
-0.18347532 0.05668 0.24925911 -0.18515271 0.16154735 -0.16524553 -0.23272172 -0.08101981
0.1758429 0.22768217 -0.16432527 0.08264034 0.21302967 0.20029844 0.1632215 0.19935621
0.14853619 0.08653462 -0.20615196 -0.24807227 -0.13718966 -0.018158127 -0.19111566 0.07534534
0.107050195 -0.036965385 0.081537545 0.066421814 0.18293929 0.16615823 -0.11548711 0.2438951
-0.05420903 0.012701625 -0.24177912 -0.20109653 -0.18158391 -0.141588 0.21800342 -0.06791149
-0.24011336 0.07498964 0.052068874 0.197261 -0.11630992 0.023306672 -0.116540015 -0.029228719
-0.18758014 -0.084251605 -0.049356543 0.12330061 0.034353364 0.080344334 0.23503286 0.22978373
0.22073202 0.043499466 -0.2047924 0.18747507 -0.02927083 -0.054674063 -0.26885337 -0.083408125
-0.18248323 0.21340375 -0.20093258 -0.18448974 0.021279825 -0.11468022 0.089999646 -0.07167407
-0.09777833 -0.017291455 0.16832562 -0.20908043 0.15827033 0.1665723 0.29427356 -0.22539292
00000000: f4e0 3bbe 4a29 683d c83d 7f3e ac98 3dbe
00000010: ab6c 253e 2036 29be 9a4e 6ebe b7ed a5bd
00000020: 2910 343e 8425 693e e244 28be 573f a93d
00000030: 7324 5a3e 091b 4d3e 8923 273e 0924 4c3e
00000040: df19 183e 1039 b13d 8019 53be a806 7ebe
00000050: 727b 0cbe 5ac0 94bc d3b3 43be a84e 9a3d
00000060: 223d db3d 0469 17bd 28fd a63d 2908 883d
00000070: 7054 3b3e 6225 2a3e 8284 ecbd a3bf 793e
00000080: 4a0a 5ebd 7a1a 503c f294 77be 40ec 4dbe
00000090: 22f1 39be 72fc 10be 4a3c 5f3e 2e15 8bbd
000000a0: 47e0 75be 2b94 993d 2c46 553d cafe 493e
000000b0: e533 eebd a2ed be3c 88ac eebd 1171 efbc
000000c0: 0215 40be 1b8c acbd 162a 4abd 0885 fc3d
000000d0: 1db6 0c3d 928b a43d 74ac 703e 6d4c 6b3e
000000e0: 9307 623e 7f2c 323d 19b5 51be 77f9 3f3e
000000f0: 61c9 efbc e9f1 5fbd 26a7 89be e1d1 aabd
00000100: e2dc 3abe 8386 5a3e 45c1 4dbe e1ea 3cbe
00000110: 0753 ae3c 77dd eabd bc51 b83d dbc9 92bd
00000120: 0140 c8bd cfa6 8dbc 8d5d 2c3e 2e19 56be
00000130: 9e11 223e ee91 2a3e 06ab 963e 67cd 66be

laneLayer.W f4 [12, 12]
0.14650851 -0.34429997 0.45384791 -0.22711872 0.32071295 -0.013475744 -0.06358675 -0.05268521
0.1107442 0.2615382 0.06674786 0.18018693 -0.44649768 0.3675334 0.4641738 0.39588094
0.37406373 -0.39710352 -0.2159468 0.41709697 -0.35229418 0.4784517 -0.40678957 -0.32280412
0.20947166 -0.39421225 -0.14647895 0.36207345 0.36274597 0.50303763 -0.0683382 -0.38306585
0.46033007 -0.13803051 -0.19095099 0.09029256 -0.34966224 0.3286401 0.31336635 -0.39674062
-0.4106862 -0.04379821 0.21001273 -0.014481068 -0.2535388 0.011431217 -0.4699661 -0.3533805
-0.3433213 0.40128854 0.46279976 -0.20531945 0.029829074 0.19525477 0.03642621 -0.25353283
0.31040645 0.32741296 -0.044550862 -0.037517443 0.445457 0.42814884 -0.2618991 0.47176751
0.1251402 -0.3597055 0.25109568 -0.3729833 0.48356113 -0.30338913 0.12074396 0.17557824
0.109444655 0.40522704 -0.16873835 -0.20332429 -0.4211895 -0.064812236 -0.27721187 -0.0046914457
-0.062624015 0.20219083 0.44529563 0.1873778 -0.16107011 -0.2453481 -0.43607652 0.42072344
-0.094720066 0.10092753 0.01849556 -0.31863356 0.2815907 0.28020936 0.025179982 -0.28414446
-0.2124533 0.0068855286 -0.2856686 -0.27897912 -0.07458353 -0.1439752 0.12274039 -0.13142276
-0.06628156 -0.19084078 -0.45693028 0.43606347 0.09277313 0.44449407 -0.04884024 -0.15609959
-0.45992818 -0.23004231 0.29428205 -0.5039 -0.14276214 0.3327481 0.2697977 0.21863252
-0.10499725 -0.0438825 -0.1004126 -0.1852297 0.20299245 -0.16481894 -0.27532843 0.12147111
-0.36687714 -0.112204164 0.2504228 0.18162657 0.41903585 -0.34765673 -0.007752196 -0.13944268
-0.28627157 -0.27863654 0.1221218 0.053383194 -0.26597822 -0.3629563 -0.41055644 0.47275457
00000000: 5406 163e 1648 b0be c15e e83e cf91 68be
00000010: 7d34 a43e 5ec9 5cbc c539 82bd 72cc 57bd
00000020: dbcd e23d 56e8 853e 1ab3 883d ec82 383e
00000030: 589b e4be 562d bc3e 30a8 ed3e e8b0 ca3e
00000040: 4885 bf3e 2751 cbbe 2821 5dbe bc8d d53e
00000050: e75f b4be 9ff7 f43e b946 d0be 9546 a5be
00000060: bd7f 563e 30d6 c9be 94fe 15be b161 b93e
00000070: d7b9 b93e 13c7 003f e6f4 8bbd 3521 c4be
00000080: 62b0 eb3e df57 0dbe a888 43be 4eeb b83d
00000090: ee06 b3be 8443 a83e 8e71 a03e 9621 cbbe
000000a0: 7645 d2be c065 33bd 940d 573e 0042 6dbc
000000b0: d6cf 81be 004a 3b3c 669f f0be 4aee b4be
000000c0: cfc7 afbe b175 cd3e 17f4 ec3e 433f 52be
000000d0: 1a5c f43c def0 473e a633 153d 0ecf 81be
000000e0: 98ed 9e3e aca2 a73e f77a 36bd e4ab 19bd
000000f0: f112 e43e 5336 db3e a417 86be 838b f13e
00000100: c124 003e 522b b8be 9d8f 803e abf7 bebe
00000110: 5395 f73e d255 9bbe 9c48 f73d c8ca 333e
00000120: 8524 e03d eb79 cf3e bfc9 2cbe 3e34 50be
00000130: 26a6 d7be 47bc 84bd b7ee 8dbe b3ba 99bb
00000140: 0541 80bd 1d0b 4f3e cafd e33e f7df 3f3e
00000150: 90ef 24be 883c 7bbe 6c45 dfbe 1069 d73e
00000160: 98fc c1bd 18b3 ce3d 0084 973c f023 a3be
00000170: a82c 903e 9a77 8f3e 4046 ce3c 627b 91be
00000180: 5c8d 59be 00a0 e13b 2843 92be 5ad6 8ebe
00000190: 40bf 98bd 3c6e 13be 505f fb3d b093 06be
000001a0: a0be 87bd c46b 43be c4f2 e9be b643 df3e
000001b0: d7ff bd3d ba94 e33e b40c 48bd 92d8 1fbe
000001c0: b57b ebbe 3690 6bbe 23ac 963e 97ff 00bf
000001d0: 3d30 12be f55d aa3e ed22 8a3e 34e1 5f3e
000001e0: cc08 d7bd 23be 33bd 1fa5 cdbd dbac 3dbe
000001f0: 41dd 4f3e 4cc6 28be d9f7 8cbe d8c5 f83d
00000200: 52d7 bbbe 4ccb e5bd 6b37 803e 51fc 393e
00000210: de8b d63e 1000 b2be 2206 febb 10ca 0ebe
00000220: 3092 92be 73a9 8ebe ff1a fa3d 56a8 5a3d
00000230: 4c2e 88be 68d5 b9be 7434 d2be e30c f23e

l2pLayer.W f4 [12, 88]
-0.055060185 -0.032272965 -0.09174318 -0.12228304 -0.23605107 -0.11801993 0.104049996 0.054591905
-0.06610092 -0.09967776 0.17201698 0.20683129 0.25038466 0.051844064 0.1126844 -0.040231265
-0.13047916 -0.26609743 0.15504827 -0.045569524 0.1140693 0.024051996 -0.24278173 -0.10010126
0.03865204 -0.04733426 -0.2387299 0.09341462 -0.021124514 -0.06555524 0.11919462 0.05339684
-0.07430829 0.25103155 0.13249348 0.022318939 -0.055100106 -0.16624492 0.20150046 -0.078685656
-0.14053512 0.1302739 0.09088848 0.06853581 -0.06369992 -0.06334717 0.03736777 0.18507676
0.023800986 -0.09254916 0.20974335 0.016069097 0.21861544 0.06698464 0.22486553 0.1703574
-0.11352779 0.16980426 -0.01248681 -0.21747044 -0.034765832 -0.23431428 -0.1419949 -0.19075194
0.16409138 -0.043336965 -0.057712905 0.13767587 0.087246336 -0.15592119 0.089430735 0.11460961
-0.20189907 0.21699132 -0.12293663 -0.08581592 -0.19660279 0.2547958 0.063506685 0.19178432
0.024991855 0.12472316 -0.10878307 -0.22769736 0.0437814 -0.053363726 -0.022829657 -0.104656726
0.0059602787 0.080885716 0.09271212 -0.18425298 0.11829846 0.032932885 0.14803244 0.16717881
-0.182862 0.21631429 -0.23206069 0.16286431 0.022617958 0.107128054 -0.12941857 0.14018865
-0.11726543 -0.22840236 0.07101627 0.11503716 0.26444322 -0.022539068 0.23720011 0.1640347
-0.14276765 -0.17547521 0.1438089 -0.1561207 0.10181438 -0.2042167 0.18893094 0.06192673
-0.018777352 0.13698243 -0.17305726 -0.05514954 0.0025555003 -0.0946647 -0.05852862 -0.108214654
0.23585878 0.17221788 0.22745164 0.19972998 -0.23352517 0.08293438 0.09421012 -0.17191409
0.0990208 -0.12961672 0.027381165 0.0833373 0.2261357 -0.13470584 -0.1942739 0.24581325
0.10554083 0.12184431 0.08396561 -0.09353102 0.15655793 -0.21196793 0.009438347 0.08107757
0.17776924 -0.12216069 -0.1670559 0.09862889 -0.19347903 -0.18727627 -0.21298535 -0.13493562
-0.04090061 -0.14824067 -0.09028141 -0.219421 0.14559375 -0.032024674 -0.14671543 0.05754821
-0.16888393 0.17665738 0.1139117 -0.25948927 -0.20391822 -0.19727574 -0.11672661 0.037353646
-0.26130792 -0.15696006 0.118696965 -0.08655227 -0.110740066 -0.1661207 0.062642775 0.015139653
-0.07895116 -0.15761337 0.07298655 0.08472558 0.124478996 0.057628036 -0.044750407 -0.20238896
0.16986652 -0.029618561 -0.15104592 0.19467159 0.14052776 -0.18140751 -0.14193818 -0.063350886
-0.17039733 0.11175056 -0.1767687 0.25478703 -0.11789751 0.15553297 0.026278866 -0.10590673
0.18482634 -0.16597466 -0.11925164 0.028986566 0.18403703 -0.05789086 -0.13541733 -0.1727597
-0.08441022 -0.115601145 -0.061233137 -0.13331148 0.054772202 0.014349533 -0.15392104 -0.1495393
0.03925829 0.03146586 0.15339924 -0.029555172 -0.17548892 -0.1736208 -0.059351034 -0.039108984
0.04026923 -0.046276927 0.07536286 -0.09524261 0.19799034 0.042181913 -0.06989037 0.19642383
0.05162088 -0.16034707 -0.15762618 0.17405742 0.10778518 0.18918668 -0.02097955 0.19713706
0.11733743 0.07703907 -0.035059717 0.24684504 0.063309185 -0.04302974 0.015066304 0.23242469
00000000: ca86 61bd a830 04bd d9e3 bbbd 886f fabd
00000010: 5fb7 71be 6fb4 f1bd 2a18 d53d c39b 5f3d
00000020: eb5f 87bd da23 ccbd 3825 303e 95cb 533e
00000030: 6b32 803e 715a 543d 14c7 e63d 8ac9 24bd
00000040: 549c 05be ec3d 88be f9c4 1e3e 1ca7 3abd
00000050: 2a9d e93d b108 c53c c69b 78be e401 cdbd
00000060: 9a51 1e3d 92e1 41bd 9c75 74be 2a50 bf3d
00000070: 510d adbc d341 86bd 4f1c f43d a5b6 5a3d
00000080: f22e 98bd 3587 803e 5fac 073e 35d6 b63c
00000090: a6b0 61bd 1c3c 2abe 2356 4e3e f225 a1bd
000000a0: 70e8 0fbe 8566 053e bd23 ba3d 815c 8c3d
000000b0: 1b75 82bd 29bc 81bd f20e 193d c384 3d3e
000000c0: 49fa c23c 6a8a bdbd f6c6 563e 57a3 833c
000000d0: badc 5f3e 3e2f 893d 2643 663e 2c72 2e3e
000000e0: 4281 e8bd 2be1 2d3e 7a95 4cbc 92b0 5ebe
000000f0: 9e66 0ebd 15f0 6fbe 1c67 11be 7a54 43be
00000100: 9207 283e 1a82 31bd 5e64 6cbd e7fa 0c3e
00000110: 35ae b23d cea9 1fbe 7627 b73d 71b8 ea3d
00000120: a1be 4ebe f932 5e3e 33c6 fbbd 42c0 afbd
00000130: 3e52 49be 9874 823e cb0f 823d 1c63 443e
00000140: b8bb cc3c db6e ff3d a9c9 debd 7f29 69be
00000150: 2054 333d ec93 5abd 4305 bbbc 4456 d6bd
00000160: 714e c33b 69a7 a53d dadf bd3d d0ac 3cbe
00000170: 7746 f23d a2e4 063d d195 173e ec30 2b3e
00000180: 2d40 3bbe 7e81 5d3e 51a1 6dbe e7c5 263e
00000190: 4c49 b93c f465 db3d 4d86 04be 9d8d 0f3e
000001a0: dc28 f0bd 4fe2 69be fa70 913d 9a98 eb3d
000001b0: 1a65 873e daa3 b8bc 96e4 723e b6f8 273e
000001c0: af31 12be c6af 33be a442 133e 1bde 1fbe
000001d0: 0f84 d03d 2f1e 51be 1d77 413e e2a6 7d3d
000001e0: f6d2 99bc 1f45 0c3e ec35 31be 7ce4 61bd
000001f0: 2e7a 273b 91df c1bd b5bb 6fbd a59f ddbd
00000200: f784 713e e259 303e 15e9 683e 0486 4c3e
00000210: 3921 6fbe 80d9 a93d 3cf1 c03d 3f0a 30be
00000220: 6bcb ca3d 3fba 04be 774e e03c bfac aa3d
00000230: 1e90 673e 54f0 09be bdef 46be 78b6 7b3e
00000240: ca25 d83d 8289 f93d 29f6 ab3d 318d bfbd
00000250: b950 203e 1f0e 59be 4ca3 1a3c ff0b a63d
00000260: 2409 363e 622f fabd b410 2bbe f2fd c93d
00000270: 5e1f 46be 5ac5 3fbe d518 5abe 902c 0abe
00000280: 6687 27bd 67cc 17be 76e5 b8bd e6af 60be
00000290: 8716 153e 4e2c 03bd 923c 16be acb7 6b3d
000002a0: e9ef 2cbe ace5 343e 8a4a e93d c7db 84be
000002b0: f0cf 50be a702 4abe 5c0e efbd 2300 193d
000002c0: 27ca 85be 23ba 20be 6517 f33d 5142 b1bd
000002d0: b0cb e2bd 8b1b 2abe db4a 803d 4f0c 783c
000002e0: 25b1 a1bd 6665 21be f979 953d 9b84 ad3d
000002f0: d8ee fe3d 600b 6c3d 344c 37bd 0d3f 4fbe
00000300: 7df1 2d3e a0a2 f2bc c8ab 1abe fd57 473e
00000310: 82e6 0f3e e4c2 39be 3e58 11be 1cbe 81bd
00000320: a37c 2ebe 7add e43d db02 35be 7273 823e
00000330: 4074 f1bd 0944 1f3e c746 d73c a1e5 d8bd
00000340: 1e43 3d3e 43f5 29be 343a f4bd 3c75 ed3c
00000350: 3474 3c3e f71e 6dbd d7aa 0abe ebe7 30be
00000360: 44df acbd 4bc0 ecbd 99cf 7abd ce82 08be
00000370: d158 603d 4e1a 6b3c 7a9d 1dbe d520 19be
00000380: 4dcd 203d 58e2 003d b114 1d3e b01d f2bc
00000390: 5eb3 33be a7c9 31be 121a 73bd be30 20bd
000003a0: 59f1 243d e08c 3dbd d857 9a3d 8f0e c3bd
000003b0: fbbd 4a3e f1c6 2c3d af22 8fbd 5423 493e
000003c0: 6a70 533d 0632 24be c268 21be 1c3c 323e
000003d0: 7abe dc3d 27ba 413e 4edd abbc 4cde 493e
000003e0: 9b4e f03d a9c6 9d3d c79a 0fbd f2c4 7c3e
000003f0: 3fa8 813d f43f 30bd a9d8 763c bd00 6e3e

l2pLayer.a f4 [176, 1]
-0.029934872 -0.0841725 -0.08233078 -0.112187475 -0.12875083 -0.11451024 0.1764936 -0.08672659
-0.15311642 0.12655285 0.07166382 0.1269992 -0.18273275 -0.17557918 -0.13075852 -0.09702032
-0.00036029087 0.07955052 0.10800492 -0.15819222 0.07354665 -0.10640952 0.04215129 0.057841137
0.028980495 0.065171 -0.009177623 0.12128663 0.038415313 0.16145988 0.039901536 -0.09735182
0.11841337 0.010025228 0.17819083 -0.020408591 0.18223503 -0.10739475 0.09255922 -0.13734491
0.12667985 0.033422947 0.10453823 -0.15853894 -0.18347222 0.08880661 -0.075626634 0.07306037
-0.1093164 -0.056908067 0.001030019 0.11110091 0.104477905 -0.016699063 -0.051853206 -0.0028916
0.09512412 -0.15619862 -0.056509305 -0.17747933 0.026889792 -0.021994598 0.103989795 0.14700793
-0.15743934 -0.081297815 -0.029689778 -0.001711316 -0.04234169 -0.11599519 -0.0712611 -0.00443668
0.14787282 -0.047093954 0.12140182 -0.14893429 0.008098016 -0.14347601 -0.17251301 0.018395547
-0.08425577 0.13577169 0.14530829 -0.18372822 -0.012683874 -0.031507958 -0.105158895 -0.12844032
-0.10697211 0.07626728 0.024076523 0.08025923 -0.044651493 0.07524078 0.0681691 -0.016166588
-0.017427796 -0.1538277 0.02764703 -0.03306187 -0.030594505 -0.11339624 -0.05591414 -0.1475638
0.043382693 -0.034225915 -0.0029766788 0.18579006 0.1456622 0.09596415 -0.10027168 0.02754404
-0.16555713 0.119745456 0.13953798 -0.045891244 0.16004999 0.19648904 0.010887391 -0.044311218
0.042562403 0.043300666 -0.13657813 -0.011657187 -0.05972025 0.09277248 0.024072854 0.100190595
0.19716677 -0.014804668 0.045960147 0.0029966137 -0.11090136 -0.1103226 0.017805964 0.06965602
-0.065588966 0.022703335 0.14324401 0.11177911 0.10867199 0.030431166 -0.10439701 -0.07995926
-0.10012999 0.07787466 -0.20735103 -0.1605777 0.1531501 0.07798836 -0.19821337 0.08828329
-0.064227395 0.028168848 -0.14397241 0.012550323 0.0073395935 0.1058416 0.08230083 -0.06404817
-0.15128604 0.017386604 0.037417136 0.093914405 -0.20627928 0.0151119735 0.04205586 -0.061162673
0.13711858 -0.026168186 -0.1700634 -0.14168337 0.0020035827 -0.15666954 0.0060527185 0.21937267
00000000: fa39 f5bc a262 acbd 0a9d a8bd 8cc2 e5bd
00000010: 42d7 03be 5884 eabd bdba 343e b69d b1bd
00000020: 8dca 1cbe 1297 013e 7bc4 923d 140c 023e
00000030: 4b1e 3bbe 07cb 33be 90e5 05be 97b2 c6bd
00000040: 6ce5 bcb9 62eb a23d af31 dd3d 24fd 21be
00000050: a09f 963d 3ced d9bd d5a6 2c3d d4ea 6c3d
00000060: 8168 ed3c 6078 853d be5d 16bc 2065 f83d
00000070: 6059 1d3d bd55 253e cb6f 233d 6460 c7bd
00000080: b582 f23d db40 243c a877 363e eb2f a7bc
00000090: d29b 3a3e c7f1 dbbd b08f bd3d 25a4 0cbe
000000a0: 5db8 013e 80e6 083d 2418 d63d 0858 22be
000000b0: 24e0 3bbe 3de0 b53d 23e2 9abd ada0 953d
000000c0: 47e1 dfbd 6f18 69bd b401 873a e088 e33d
000000d0: 83f8 d53d 79cc 88bc 0764 54bd ff80 3dbb
000000e0: 6fd0 c23d 88f2 1fbe 4d76 67bd 24bd 35be
000000f0: fb47 dc3c 042e b4bc 9af8 d43d 3f89 163e
00000100: c737 21be 787f a6bd fa37 f3bc 3d4e e0ba
00000110: 7b6e 2dbd e38e edbd 57f1 91bd 9261 91bb
00000120: f96b 173e 97e5 40bd 84a1 f83d 3b82 18be
00000130: 8aad 043c 60eb 12be 40a7 30be 42b2 963c
00000140: 4a8e acbd bc07 0b3e b2cb 143e 4023 3cbe
00000150: 06d0 4fbc 7d0e 01bd 8c5d d7bd dc85 03be
00000160: 3214 dbbd 0532 9c3d 213c c53c f45e a43d
00000170: 7ce4 36bd d717 9a3d 3e9c 8b3d cb6f 84bc
00000180: bdc4 8ebc 0285 1dbe 067c e23c e26b 07bd
00000190: 54a1 fabc 4a3c e8bd 3a06 65bd f71a 17be
000001a0: 0db2 313d 7930 0cbd 6214 43bb c03f 3e3e
000001b0: 7928 153e da88 c43d 3d5b cdbd 0aa4 e13c
000001c0: cf87 29be 1b3d f53d 0be3 0e3e 75f8 3bbd
000001d0: 25e4 233e 6c34 493e 0761 323c ae7f 35bd
000001e0: ea55 2e3d 0a5c 313d 23db 0bbe c9fd 3ebc
000001f0: 399d 74bd 7fff bd3d 6f34 c53c ba30 cd3d
00000200: 16e6 493e 478f 72bc b540 3c3d d662 443b
00000210: 4120 e3bd d1f0 e1bd d0dd 913c d1a7 8e3d
00000220: 8253 86bd 58fc b93c 8fae 123e 72ec e43d
00000230: 6c8f de3d c84a f93c 19ce d5bd aec1 a3bd
00000240: f410 cdbd c07c 9f3d d453 54be 7b6e 24be
00000250: 61d3 1c3e 5cb8 9f3d 72f8 4abe dfcd b43d
00000260: a789 83bd 5bc2 e63c 816d 13be df9f 4d3c
00000270: f980 f03b 7bc3 d83d 568d a83d b02b 83bd
00000280: baea 1abe 5a6e 8e3c b642 193d 3256 c03d
00000290: e03a 53be 3698 773c c442 2c3d b685 7abd
000002a0: d068 0c3e aa5e d6bc 1a25 2ebe 7215 11be
000002b0: 8a4e 033b fb6d 20be e255 c63b 3ba3 603e

phaseLayer.W f4 [24, 26]
0.016122928 -0.10020516 0.31071556 0.26679316 0.23624551 0.026228264 0.023862056 -0.29235223
0.022856772 0.3483306 0.02840326 -0.3235831 0.20672712 0.33780453 0.28527912 0.011710858
0.060532786 0.060090322 -0.15939906 -0.07368444 0.30194855 0.03371877 0.32579175 -0.2314702
-0.058881104 0.0038598564 -0.20986149 0.2799767 0.24625051 -0.1596099 0.28250757 0.31182283
-0.2131776 -0.05640293 0.26960114 -0.22076319 -0.028745048 -0.1821506 0.30588454 0.03931085
0.16611844 0.29744124 -0.01623921 -0.35134915 -0.041422926 -0.026258528 0.21500203 0.10696227
-0.14877321 -0.1374573 0.22430268 0.11464246 0.07313343 0.11991509 0.12707889 -0.2583752
0.056743488 0.017328473 -0.30936858 0.112491064 0.057676654 0.25661218 -0.31634477 0.2831749
-0.2192172 0.2166153 0.22449216 -0.08339474 -0.21405743 -0.02594219 -0.1533749 0.02468832
0.0871519 0.11849661 -0.23114544 0.17933235 0.35085097 -0.13563628 0.12393677 -0.08398332
0.08414375 -0.27841333 -0.23753753 -0.07256853 -0.23150602 0.17292812 0.37764695 -0.13235123
0.05995622 0.07136589 -0.22493833 0.039217226 0.030086454 0.2229827 -0.3441541 0.052294217
-0.20432575 -0.099621214 -0.06929561 -0.08912652 0.15269321 0.18125641 -0.075948395 -0.107676476
-0.10854175 -0.0012530728 0.101491556 0.31392637 -0.30848172 0.13658158 -0.1988071 -0.29407886
0.2589806 -0.10244148 -0.18670918 0.069901675 -0.065979294 -0.29326484 -0.1896674 -0.15663005
-0.036965128 -0.22195645 -0.34647065 0.17101413 -0.28340638 -0.039331615 0.29091582 -0.13261345
-0.23198329 0.08706965 0.2985554 -0.022329058 -0.029683731 0.16861117 0.05565012 0.05527291
0.19155364 0.14967558 -0.24429734 -0.14469868 0.23717074 0.022950558 0.07537136 0.34458572
0.20346665 0.12644601 0.32043034 -0.2991996 0.044378135 0.07464772 -0.044173185 -0.15252265
0.056531757 -0.28157935 -0.15800236 0.25470486 -0.13890302 -0.116318695 0.12773398 -0.074673645
0.054839283 -0.3232381 0.20364794 -0.33018628 0.03269863 -0.30617708 -0.23537402 0.32711673
-0.1769879 0.018481739 0.012573845 0.31751856 0.109987475 0.16776632 -0.17487308 -0.13852131
0.27375826 0.12285649 0.09045326 -0.2763373 -0.2803225 0.07345475 -0.26199287 0.23957808
0.28010097 -0.14160617 -0.21490489 0.33286983 -0.17927606 -0.2701386 -0.24794601 0.059435673
0.061349764 0.17575736 0.2739528 0.16542488 0.041826326 0.30036938 -0.1532128 -0.058507275
0.29009506 -0.13084094 0.18981402 0.083737105 0.11698478 -0.07155921 -0.30190477 0.24413255
0.28196335 -0.2756761 -0.16365634 0.017848073 0.17426446 -0.04955308 -0.14837508 0.26452044
-0.1854259 0.31962207 0.007852604 0.1525819 0.08886 0.07479724 0.25257087 -0.01858138
0.2426146 0.11617667 -0.21294957 0.21364212 -0.23209903 0.17704523 -0.07414326 0.11279741
-0.044702813 0.068465866 -0.10462786 0.13631855 0.12483128 -0.31685394 0.32901502 -0.3032479
-0.13041343 0.118962586 0.32985988 0.09685674 -0.17063548 0.08383794 -0.22867416 0.1876482
-0.005616693 0.010106204 -0.2906421 0.20786875 0.33565477 -0.26592427 0.14170001 -0.12823065
00000000: 3b14 843c 5d38 cdbd 1c16 9f3e 1d99 883e
00000010: 58ea 713e a8dc d63c 5c7a c33c 31af 95be
00000020: 203e bb3c 6358 b23e f4ad e83c afac a5be
00000030: 46b0 533e b7f4 ac3e 1b10 923e e6de 3f3c
00000040: 3af1 773d 4521 763d 8239 23be dee7 96bd
00000050: 0099 9a3e b11c 0a3d 2dce a63e 8606 6dbe
00000060: 502d 71bd a5f5 7c3b eee5 56be 1b59 8f3e
00000070: 1829 7c3e c770 23be d5a4 903e 3ea7 9f3e
00000080: 3b4b 5abe c206 67bd 2909 8a3e bf0f 62be
00000090: bc7a ebbc b085 3abe e69c 9c3e 6a04 213d
000000a0: f41a 2a3e 384a 983e 1708 85bc 09e4 b3be
000000b0: 16ab 29bd 201c d7bc 7e29 5c3e 090f db3d
000000c0: 0158 18be 9bc1 0cbe 9aaf 653e abc9 ea3d
000000d0: fbc6 953d 0b96 f53d f820 023e c149 84be
000000e0: dc6b 683d 71f4 8d3c 8f65 9ebe b761 e63d
000000f0: 5b3e 6c3d ac62 833e f1f7 a1be 4dfc 903e
00000100: 797a 60be 67d0 5d3e 46e1 653e ddca aabd
00000110: df31 5bbe b784 d4bc 4f0e 1dbe 293f ca3c
00000120: b27c b23d 5aae f23d 64b1 6cbe e6a2 373e
00000130: bda2 b33e 3de4 0abe 90d2 fd3d 72ff abbd
00000140: 8f53 ac3d 318c 8ebe 0a3d 73be cf9e 94bd
00000150: ea0f 6dbe 1214 313e f15a c13e 1587 07be
00000160: a794 753d 4828 923d 3c56 66be 3ea2 203d
00000170: de77 f63c 9455 643e f734 b0be 7632 563d
00000180: c53a 51be 3506 ccbd dbea 8dbd f787 b6bd
00000190: 9c5b 1c3e 489b 393e d58a 9bbd 7c85 dcbd
000001a0: 234b debd 253e a4ba ceda cf3d f5ba a03e
000001b0: 51f1 9dbe 0bdc 0b3e 1794 4bbe 8191 96be
000001c0: 1b99 843e d7cc d1bd b130 3fbe 9c28 8f3d
000001d0: 2720 87bd cf26 96be 2c38 42be a163 20be
000001e0: bf68 17bd 8d48 63be 9a64 b1be 541e 2f3e
000001f0: a41a 91be 301a 21bd ebf2 943e d2cb 07be
00000200: 078d 6dbe 9351 b23d 41dc 983e 6eeb b6bc
00000210: 4c2b f3bc 68a8 2c3e 61f1 633d d965 623d
00000220: a326 443e 8e44 193e 1529 7abe e42b 14be
00000230: e3dc 723e cf02 bc3c 4d5c 9a3d 8a6d b03e
00000240: 9059 503e 107b 013e 720f a43e b130 99be
00000250: d9c5 353d e7e0 983d f1ee 34bd e62e 1cbe
00000260: d88d 673d 2b2b 90be 5fcb 21be ad68 823e
00000270: 983c 0ebe 7f38 eebd b2cc 023e 7fee 98bd
00000280: 289f 603d 777f a5be 1689 503e 2d0e a9be
00000290: 00ef 053d 3ec3 9cbe e305 71be d87b a73e
000002a0: 513c 35be 0467 973c 8702 4e3c cb91 a23e
000002b0: 1d41 e13d efca 2b3e ee11 33be 88d8 0dbe
000002c0: 0b2a 8c3e 2f9c fb3d 8f3f b93d 157c 8dbe
000002d0: 6e86 8fbe 726f 963d ee23 86be f553 753e
000002e0: 6569 8f3e 3501 11be 0710 5cbe ea6d aa3e
000002f0: 2594 37be 9b4f 8abe 8fe5 7dbe d272 733d
00000300: e449 7b3d bdf9 333e 8b43 8c3e 2465 293e
00000310: 1552 2b3d 04ca 993e d1e3 1cbe 53a5 6fbd
00000320: 5787 943e 2bfb 05be 9b5e 423e 5c7e ab3d
00000330: b795 ef3d a38d 92bd 4393 9abe e2fd 793e
00000340: 805d 903e 6b25 8dbe 8795 27be 1f36 923c
00000350: 6272 323e 2cf8 4abd a3ef 17be 396f 873e
00000360: 4ae0 3dbe 81a5 a33e 35a8 003c 6e3e 1c3e
00000370: 3bfc b53d 4c2f 993d f850 813e fa37 98bc
00000380: f66f 783e 09ee ed3d 740f 5abe 00c5 5a3e
00000390: 5eab 6dbe 584b 353e 6cd8 97bd 5402 e73d
000003a0: 4c1a 37bd d537 8c3d 2247 d6bd 1797 0b3e
000003b0: 8ba7 ff3d ae3a a2be a874 a83e 4f43 9bbe
000003c0: 198b 05be a8a2 f33d 65e3 a83e d45c c63d
000003d0: 11bb 2ebe 3ab3 ab3d 8f29 6abe da26 403e
000003e0: 3c0c b8bb 7e94 253c 0bcf 94be 8cdb 543e
000003f0: f1da ab3e 3a27 88be cf19 113e e54e 03be

p2iLayer.W f4 [24, 176]
-0.14260955 -0.113168225 0.09040324 -0.091041416 0.07212679 -0.07059746 -0.15328383 -0.17427783
0.112309724 0.12743352 0.047088232 0.050377637 0.14997257 0.13271937 0.056188732 -0.12385183
0.045936618 0.22104739 -0.11795564 0.15528712 -0.087238505 -0.06712309 -0.009111135 0.06425253
0.06365149 -0.12275306 0.08313728 0.027761303 -0.007072034 -0.20492579 0.12677856 -0.07178578
-0.11556402 0.18824701 -0.094373114 0.14023516 0.116395354 -0.098297894 -0.112458825 -0.07178654
0.073086314 0.1244021 -0.039094917 -0.06395945 -0.11248082 -0.18761908 0.18726194 0.0031866438
-0.18189722 -0.08166115 0.12170212 0.13113432 0.14626117 -0.018302975 -0.043403003 0.08481587
0.0002143282 -0.050197706 0.000558335 -0.11406351 -0.116519555 -0.044392727 -0.13017972 -0.0090874825
0.0032734345 0.14607595 0.05312391 0.051040508 -0.12726605 -0.09285377 -0.014674063 -0.10185179
0.034155432 0.124077804 0.06006857 -0.07545838 -0.073513895 0.17772797 -0.03496904 -0.156963
-0.033319555 -0.018900743 -0.10672595 0.011486694 -0.14411972 0.0390041 -0.12684128 0.06081891
0.084172614 -0.14004967 -0.06801905 0.018345537 -0.049395666 0.11160173 0.0019719296 0.020884797
-0.072351016 0.048870854 0.046719246 -0.09460642 0.04434771 -0.014003723 0.13970299 -0.17174362
-0.008480667 0.11291191 0.12246309 -0.0043723937 -0.12860997 -0.13319498 -0.1388429 0.14287253
-0.1519191 -0.05254563 0.117688596 0.12164514 -0.15181684 0.030716026 0.032739874 0.16583769
-0.02479331 0.13479999 -0.023293389 0.16014153 -0.051146727 -0.10891247 0.012657934 -0.06486793
0.06152183 0.096757874 -0.1259794 -0.13388437 -0.04514871 -0.024340509 -0.09940657 0.16352364
0.040665593 -0.04969267 0.04443632 -0.059618432 -0.08096028 0.070480965 -0.12547868 0.06739574
0.07850636 -0.1548196 -0.027446575 0.18389907 0.0922367 -0.06700737 0.023178745 -0.17311077
0.043420397 0.15520473 0.15382046 0.04366368 0.07928624 -0.035526194 -0.049805503 -0.007859256
-0.09248869 0.05971909 0.06682065 -0.04300536 -0.055130318 -0.11507822 0.018369293 0.09564038
0.19033821 -0.15738979 -0.20239902 0.026931878 0.15180252 -0.021783138 0.051377982 0.0117673185
-0.05735833 0.10760335 0.11270885 -0.07647766 -0.143332 -0.12909158 -0.023110917 -0.024426144
0.14472362 -0.17761797 0.115244105 -0.07098247 0.021939762 -0.0006168611 0.07288669 -0.14326218
-0.110096455 0.038556613 0.10593557 -0.10242333 0.06467396 -0.0670672 -0.1695387 0.038331937
-0.039088808 0.10124466 0.12545723 0.10803872 0.122211196 -0.14959413 -0.17189161 0.017626368
0.05522887 -0.121858716 0.12867719 -0.01596341 -0.09277862 0.1394348 0.17469786 0.0305322
-0.03652919 0.02483219 -0.10536471 0.09257325 0.07445752 -0.07039909 -0.14759645 0.15360321
-0.17569782 -0.08283642 0.12292716 -0.069079906 0.046870954 0.12982045 -0.03276117 -0.017196342
0.16903904 0.034380727 0.034953237 -0.05732063 -0.13930003 0.046402063 -0.08792786 -0.10812928
-0.15601999 0.12616007 -0.12381317 0.07623776 0.03184131 0.1141993 0.101484686 -0.11961068
0.09265515 -0.102676734 0.0063430457 -0.06002224 -0.1460815 0.060664073 -0.12971205 0.17225337
00000000: 3d08 12be bec4 e7bd 5525 b93d ec73 babd
00000010: 36b7 933d 6795 90bd 70f6 1cbe e375 32be
00000020: a402 e63d ef7d 023e 97df 403d c858 4e3d
00000030: 6992 193e 96e7 073e 2826 663d 07a6 fdbd
00000040: 0928 3c3d 3f5a 623e ba92 f1bd 9603 1f3e
00000050: 1aaa b2bd d577 89bd df46 15bc d596 833d
00000060: b65b 823d f565 fbbd e143 aa3d ac6b e33c
00000070: 85bc e7bb 11d8 51be 3dd2 013e 6c04 93bd
00000080: d4ac ecbd d3c3 403e b146 c1bd ce99 0f3e
00000090: b060 ee3d 6850 c9bd d050 e6bd d204 93bd
000000a0: 47ae 953d 87c6 fe3d fe21 20bd 2cfd 82bd
000000b0: 585c e6bd 371f 40be 98c1 3f3e 03d7 503b
000000c0: 4443 3abe f63d a7bd f63e f93d 1348 063e
000000d0: 7dc5 153e 1ff0 95bc 59c7 31bd f1b3 ad3d
000000e0: 4abd 6039 1c9c 4dbd 3a5d 123a 219a e9bd
000000f0: cea1 eebd 26d5 35bd d54d 05be aae3 14bc
00000100: 1e87 563b ef94 153e 7598 593d da0f 513d
00000110: 0852 02be 1e2a bebd 7b6b 70bc ac97 d0bd
00000120: 91e6 0b3d 811c fe3d 760a 763d ec89 9abd
00000130: 748e 96bd 52fe 353e b23b 0fbd e9ba 20be
00000140: 167a 08bd bbd5 9abc 2393 dabd b032 3c3c
00000150: 1f94 13be c3c2 1f3d aee2 01be 401d 793d
00000160: b162 ac3d 2e69 0fbe 924d 8bbd 6149 963c
00000170: 1c53 4abd 738f e43d 7d3b 013b 9816 ab3c
00000180: c52c 94bd ce2c 483d ae5c 3f3d 03c1 c1bd
00000190: f2a5 353d df6f 65bc 4d0e 0f3e 8fdd 2fbe
000001a0: 7ff2 0abc 5c3e e73d eecd fa3d 4c46 8fbb
000001b0: 55b2 03be 4464 08be d52c 0ebe 2d4d 123e
000001c0: ae90 1bbe 163a 57bd b806 f13d 1621 f93d
000001d0: e075 1bbe 2da0 fb3c 3f1a 063d 5bd1 293e
000001e0: 571b cbbc 0209 0a3e c7d1 bebc 24fc 233e
000001f0: 3b7f 51bd 800d dfbd 3963 4f3c 7ad9 84bd
00000200: 50fe 7b3d fe28 c63d be00 01be fc18 09be
00000210: dbed 38bd bf65 c7bc ac95 cbbd be72 273e
00000220: f790 263d 8b8a 4bbd dc02 363d 7532 74bd
00000230: 81ce a5bd 5358 903d 7c7d 00be c706 8a3d
00000240: f1c7 a03d 0789 1ebe a4d7 e0bc 0a50 3c3e
00000250: 98e6 bc3d 293b 89bd 5ae1 bd3c f343 31be
00000260: 96d9 313d fded 1e3e 1c83 1d3e b0d8 323d
00000270: d360 a23d ea83 11bd db00 4cbd 1cc4 00bc
00000280: b66a bdbd 019c 743d 44d9 883d 6326 30bd
00000290: 54d0 61bd 21ae ebbd 337b 963c 1bdf c33d
000002a0: 05e8 423e ca2a 21be b041 4fbe 3ea0 dc3c
000002b0: 1f72 1b3e 8d72 b2bc b871 523d b6cb 403c
000002c0: 91f0 6abd 255f dc3d e6d3 e63d 52a0 9cbd
000002d0: a0c5 12be 9530 04be 1b53 bdbc 5619 c8bc
000002e0: 6e32 143e 7ce1 35be 1a05 ec3d 425f 91bd
000002f0: 04bb b33c d9b4 21ba 9e45 953d 52b3 12be
00000300: 407a e1bd 8aed 1d3d c0f4 d83d 53c3 d1bd
00000310: c873 843d 875a 89bd 8e9b 2dbe f301 1d3d
00000320: 961b 20bd 5c59 cf3d dc77 003e 6843 dd3d
00000330: dd49 fa3d 342f 19be 5b04 30be 2c65 903c
00000340: ab37 623d 1091 f9bd f4c3 033e b2c5 82bc
00000350: b802 bebd ffc7 0e3e ffe3 323e aa1e fa3c
00000360: a29f 15bd e06c cb3c 74c9 d7bd 0b97 bd3d
00000370: 2f7d 983d 662d 90bd 8623 17be 294a 1d3e
00000380: 21ea 33be 24a6 a9bd 3cc1 fb3d c479 8dbd
00000390: c2fb 3f3d a7ef 043e 9430 06bd 58df 8cbc
000003a0: 9218 2d3e ced2 0c3d 202b 0f3d 09c9 6abd
000003b0: aba4 0ebe 1710 3e3d 8613 b4bd e272 ddbd
000003c0: b4c3 1fbe 1b30 013e c291 fdbd 8b22 9c3d
000003d0: 096c 023d 53e1 e93d 34d7 cf3d 72f6 f4bd
000003e0: fcc1 bd3d 2e48 d2bd 53d9 cf3b e1d9 75bd
000003f0: 6496 15be e47a 783d 3cd3 04be 3063 303e

p2iLayer.a f4 [352, 1]
-0.08623744 -0.12348248 -0.035558827 0.06573774 0.0058924532 -0.06375605 -0.026811913 -0.07541913
-0.046575446 0.106352195 -0.093617246 0.048760165 -0.1197781 0.00572521 0.03559719 -0.0023078439
0.09921769 0.03772546 -0.028602306 -0.106868856 -0.091803946 0.07011939 0.09055316 0.09338304
-0.026186226 -0.097453974 0.11078904 -0.10135139 0.049920443 0.0672525 0.05626084 0.102265865
0.00026391377 -0.09943746 -0.011470938 0.0142547125 -0.021999033 0.04536737 0.06055434 -0.051448725
-0.03972688 -0.049450286 -0.058287542 -0.103849724 -0.051492926 -0.022791876 -0.10110575 -0.10743372
0.10427768 0.092191294 -0.10950073 -0.078966066 0.045541417 0.038262323 -0.08005601 -0.0103340065
-0.10310363 -0.009065076 -0.09473741 -0.015965726 -0.014402706 -0.080672525 0.10284719 -0.017698934
0.062110055 0.024311442 -0.051578835 0.076372005 -0.0065601454 -0.06559421 -0.012696448 -0.092934385
-0.031314492 0.039764535 0.084592044 -0.06502624 -0.12504303 -0.06224252 -0.05775327 -0.001226601
-0.054006916 0.10907373 -0.045074023 -0.023714988 -0.117979325 0.09650504 0.094176374 -0.110601775
-0.0038018762 0.054158296 0.06017646 -0.07718315 0.006917386 0.025769994 -0.10601172 -0.13022603
0.0381699 -0.09870285 0.041751575 -0.034604833 -0.00038354384 0.021738917 -0.015869739 -0.023649435
-0.024003284 -0.02580469 0.008353088 0.1291787 0.09167115 -0.013167461 0.09373553 0.0678158
0.07704645 -0.033969752 -0.07624849 0.08026606 0.03899278 -0.11203292 0.06361116 -0.04656229
-0.013953703 0.030725691 0.06881407 0.039482452 -0.07933696 -0.042435538 -0.017304527 0.10539048
0.033257376 0.12047706 0.08401491 -0.044341024 -0.04146609 -0.037168846 0.11596793 0.0021613124
0.11652457 0.06774421 0.071610376 0.055127826 -0.057125244 0.052575774 -0.05792698 -0.06816952
0.10081824 -0.10775559 0.063186884 0.07422223 -0.01661547 -0.0068336315 0.03971254 -0.01403488
-0.11499372 0.09006295 0.03570567 0.052163564 0.07743379 0.088686615 0.027446691 -0.08442711
0.122245274 -0.09197139 0.024180617 -0.039782047 0.09954683 0.0856336 -0.053477917 0.11736338
0.07849036 -0.12976348 0.06834406 -0.016653316 -0.08722597 0.12317992 0.122509204 0.0089945635
-0.15116856 0.08542716 0.12991059 -0.0835361 -0.004145308 0.06252154 -0.08611517 -0.1385427
-0.045813043 0.040425245 0.15964146 0.09939469 -0.00558106 0.13801722 -0.17870627 0.013550452
0.07945957 0.13887417 -0.19303586 0.0031399587 0.033055417 0.05831589 0.1419701 0.011892013
0.16220132 -0.13079976 -0.086434 -0.018596567 0.077185586 0.01866573 -0.21595897 0.047035664
-0.0615776 0.02187398 0.023495797 0.13345237 0.01493249 -0.03505602 0.073602125 0.15811706
-0.004837014 -0.20985289 -0.18664883 0.057177883 -0.101348415 -0.11373529 0.17915061 -0.25628257
-0.0043013864 0.1943893 -0.042613592 0.16616522 0.111073926 0.078050345 0.0406186 -0.012639769
-0.0063526337 -0.051408403 -0.09423267 -0.058821715 -0.07073316 -0.14373909 -0.23351547 0.06493244
-0.06701131 0.006367854 0.23699848 0.13793541 0.04258517 -0.09784046 0.01762378 0.17658663
-0.19452804 0.20786956 -0.14825876 0.01823862 -0.044961456 -0.013469128 0.04248501 -0.09868697
00000000: 419d b0bd 62e4 fcbd 22a6 11bd 82a1 863d
00000010: 7b15 c13b 8892 82bd a8a4 dbbc 5875 9abd
00000020: e5c5 3ebd 2ecf d93d 66ba bfbd bdb8 473d
00000030: 384e f5bd 8b9a bb3b 5cce 113d 323f 17bb
00000040: a532 cb3d 0386 1a3d 624f eabc 0fde dabd
00000050: b503 bcbd c19a 8f3d ef73 b93d 9b3f bf3d
00000060: 7f84 d6bc f395 c7bd 5de5 e23d 5191 cfbd
00000070: 6179 4c3d aebb 893d c471 663d c470 d13d
00000080: e85d 8a39 dea5 cbbd 9af0 3bbc 998c 693c
00000090: 5137 b4bc 23d3 393d d407 783d e6bb 52bd
000000a0: a7b8 22bd 628c 4abd ebbe 6ebd 2aaf d4bd
000000b0: 3fea 52bd 07b6 babc 8810 cfbd 3606 dcbd
000000c0: 898f d53d cace bc3d eb41 e0bd f6b8 a1bd
000000d0: a389 3a3d f4b8 1c3d 68f4 a3bd f74f 29bc
000000e0: ff27 d3bd af85 14bc b005 c2bd 8eca 82bc
000000f0: 54f9 6bbc a337 a5bd 8ca1 d23d 5bfd 90bc
00000100: 1d67 7e3d ca28 c73c 5444 53bd ed68 9c3d
00000110: 7df6 d6bb 4256 86bd c304 50bc 6254 bebd
00000120: a043 00bd 23e0 223d 983e ad3d 7a2c 85bd
00000130: 480b 00be 03f2 7ebd b18e 6cbd e6c5 a0ba
00000140: 5b36 5dbd 0c62 df3d 8a9f 38bd ef45 c2bc
00000150: 259f f1bd 6fa4 c53d 8bdf c03d 2f83 e2bd
00000160: e628 79bb 17d5 5d3d 977b 763d 3312 9ebd
00000170: 3dab e23b 981b d33c ac1c d9bd f959 05be
00000180: 0b58 1c3d b824 cabd b303 2b3d ccbd 0dbd
00000190: 6216 c9b9 d015 b23c 4101 82bc 76bc c1bc
000001a0: 89a2 c4bc 5b64 d3bc 64db 083c 6c47 043e
000001b0: 15be bb3d 56bc 57bc 6af8 bf3d 03e3 8a3d
000001c0: 87ca 9d3d de23 0bbd 2b28 9cbd 8862 a43d
000001d0: e5b6 1f3d 8471 e5bd 9146 823d 1ab8 3ebd
000001e0: 139e 64bc 72b4 fb3c 64ee 8c3d 5ab8 213d
000001f0: 6b7b a2bd e3d0 2dbd 39c2 8dbc f7d6 d73d
00000200: e338 083d adbc f63d 0210 ac3d ef9e 35bd
00000210: 59d8 29bd 5c3e 18bd 9880 ed3d cea4 0d3b
00000220: 6fa4 ee3d 7abd 8a3d 76a8 923d b7cd 613d
00000230: 29fc 69bd b259 573d d744 6dbd 769c 8bbd
00000240: cb79 ce3d f6ae dcbd 2068 813d d301 983d
00000250: 2b1d 88bc a8ec dfbb 9ea9 223d 8ef2 65bc
00000260: d481 ebbd ed72 b83d 1c40 123d 76a9 553d
00000270: 9b95 9e3d 54a1 b53d e2d7 e03c 1fe8 acbd
00000280: bb5b fa3d 7f5b bcbd 6e16 c63c 80f2 22bd
00000290: 35df cb3d ab60 af3d a90b 5bbd 365c f03d
000002a0: 8ebf a03d b8e0 04be f8f7 8b3d 896c 88bc
000002b0: 88a3 b2bd c145 fc3d 1be6 fa3d ef5d 133c
000002c0: eecb 1abe 6ff4 ae3d 4807 053e fa14 abbd
000002d0: 5dd5 87bb 4b0b 803d 265d b0bd 23de 0dbe
000002e0: 75a6 3bbd f194 253d 0d79 233e 718f cb3d
000002f0: 53e1 b6bb 6354 0d3e c7fe 36be b702 5e3c
00000300: b3bb a23d 0835 0e3e 31ab 45be c4c7 4d3b
00000310: 1e65 073d a5dc 6e3d 9c60 113e b8d6 423c
00000320: 1a18 263e 5ff0 05be 4f04 b1bd d457 98bc
00000330: 7a13 9e3d dfe8 983c 5924 5dbe 78a8 403d
00000340: cb38 7cbd 1031 b33c 427a c03c bda7 083e
00000350: 67a7 743c e796 0fbd b6bc 963d 70e9 213e
00000360: d07f 9ebb ade3 56be df20 3fbe 5b33 6a3d
00000370: c28f cfbd 0cee e8bd 4273 373e 7837 83be
00000380: a5f2 8cbb fd0d 473e 978b 2ebd 3727 2a3e
00000390: ba7a e33d dcd8 9f3d b05f 263d 0917 4fbc
000003a0: c129 d0bb 9e91 52bd 0ffd c0bd 0aef 70bd
000003b0: 8cdc 90bd 5730 13be ae1e 6fbe 4dfb 843d
000003c0: 3a3d 89bd 6ea9 d03b bbaf 723e f13e 0d3e
000003d0: ca6d 2e3d 9460 c8bd bf5f 903c 20d3 343e
000003e0: 5c32 47be c2db 543e 25d1 17be 2969 953c
000003f0: 8129 38bd 9ead 5cbc c304 2e3d 651c cabd

intersectionLayer.W f4 [48, 46]
0.15330124 0.16490722 -0.11819622 -0.28067124 -0.16670789 -0.026112137 -0.026497476 0.08935313
-0.24105687 0.08279133 -0.19586536 0.09665858 -0.015086351 -0.08785107 -0.13138714 -0.010743502
-0.07637517 -0.10243758 -0.2784304 -0.11341676 0.059649564 0.17979187 -0.22315592 -0.120289
-0.053126212 -0.036984425 0.029624334 0.053252377 0.12593499 0.017594265 -0.23395537 -0.12697604
0.07917629 -0.007979051 -0.16879773 0.036248602 0.23745862 0.28187642 -0.06231735 0.14596649
-0.041315936 -0.1434057 0.004723056 -0.03012708 -0.0070760055 -0.10844347 0.0067890584 -0.20485093
0.27124283 -0.16769223 -0.24015804 0.1196524 0.03625846 -0.07989373 0.15324195 0.21612394
0.19477959 -0.035067543 -0.032172225 0.13123749 0.27784652 -0.07073263 -0.021305876 -0.037793465
0.06141698 -0.18095244 0.26483837 -0.04671884 0.13074002 0.20654704 0.090500645 -0.113286056
0.18942735 0.091426626 -0.080278896 0.19163224 -0.20209272 0.108072445 -0.18417075 0.18593538
-0.18925476 -0.10947391 0.16702381 0.044947844 -0.22392991 -0.20623212 -0.16329421 0.11897097
-0.1806974 0.0155563895 -0.12015244 0.17675148 0.15309244 -0.06465512 -0.11364698 -0.13913083
-0.08416193 -0.11883889 -0.051818922 0.18863338 -0.22926387 0.092446215 -0.22699259 -0.06895801
-0.11238685 0.15428308 0.06233792 -0.059842847 -0.23130557 -0.13590801 -0.27251825 0.022481475
0.12393265 -0.013126987 0.119276 -0.0627733 0.08763858 -0.117038906 -0.056719463 0.15531747
0.18563768 0.10293999 -0.058328155 -0.007482031 -0.21128519 -0.06561766 -0.10263318 0.1500179
-0.18559745 0.106463246 0.025138797 -0.2608855 -0.11072727 0.17953241 -0.07854563 0.12007845
0.1986756 -0.14446473 0.085909724 0.11167581 -0.08825956 -0.09842511 0.11537863 -0.050740335
0.040257197 -0.10025607 -0.2144038 0.06750179 -0.0005099665 0.14139816 -0.073814206 0.1651268
-0.16805075 0.031196935 0.26630864 0.09375842 0.045534823 -0.10171025 0.012788114 0.21542352
-0.036856957 0.16050482 -0.20623231 0.058158487 -0.16349998 -0.16952178 0.22110026 -0.08301521
-0.022542404 -0.04645145 0.18484189 -0.1539898 -0.03357628 -0.017222472 0.0040981206 -0.23647085
0.1392027 -0.20327118 0.2833654 0.15707989 0.06713736 0.22609788 -0.21321517 0.12673023
-0.22064832 0.17737351 -0.08052651 0.20556769 0.021356322 -0.12822458 -0.02745403 0.19180857
-0.10838824 0.09714131 0.15860744 -0.06962671 -0.024702933 0.004584314 0.18970065 0.010336206
0.043542426 -0.20307216 -0.18392453 -0.105674334 -0.1419577 -0.075583525 0.17502716 -0.13879916
0.15244432 -0.23863076 0.13927238 -0.09254435 0.2371011 -0.21343955 -0.17596184 0.18450677
0.12258762 -0.2205358 -0.14337373 0.21565896 0.108464934 -0.2803677 -0.052388422 -0.007695755
-0.10750262 0.0057468675 -0.09704502 -0.016744787 0.06698163 0.2069192 -0.1264536 0.01654766
-0.21586825 -0.0034500645 0.01934357 -0.09928703 0.0855935 0.14679825 0.17514001 -0.0815479
-0.1930393 0.15922837 0.01154391 -0.30602762 -0.11942198 0.02042671 0.14634389 -0.003422073
0.15642789 0.20091343 0.038807925 0.17144012 0.26181293 0.2113494 0.24360016 -0.21064018
00000000: 00fb 1c3e 70dd 283e dc10 f2bd 24b4 8fbe
00000010: 79b5 2abe 1fe9 d5bc 3c11 d9bc c6fe b63d
00000020: 9dd7 76be 808e a93d ee90 48be eff4 c53d
00000030: be2c 77bc 43eb b3bd 5a8a 06be 8305 30bc
00000040: 966a 9cbd cbca d1bd 6e8e 8ebe 0c47 e8bd
00000050: 1a53 743d 5c1b 383e fc82 64be 145a f6bd
00000060: df9a 59bd fb7c 17bd bbae f23c 2a1f 5a3d
00000070: 1af5 003e d921 903c ff91 6fbe 0206 02be
00000080: 2e27 a23d 91ba 02bc 50d9 2cbe 6a79 143d
00000090: 5a28 733e 1b52 903e 7a40 7fbd 3d78 153e
000000a0: e63a 29bd f2d8 12be dec3 9a3b 11cd f6bc
000000b0: d6dd e7bb 9c17 debd c076 de3b 71c4 51be
000000c0: 57e0 8a3e 83b7 2bbe fdeb 75be 510c f53d
000000d0: c083 143d 539f a3bd 75eb 1c3e 984f 5d3e
000000e0: 4d74 473e fca2 0fbd 06c7 03bd 1f63 063e
000000f0: e641 8e3e 45dc 90bd a989 aebc 52cd 1abd
00000100: 5f90 7b3d 994b 39be e598 873e 415c 3fbd
00000110: b6e0 053e 1181 533e 6758 b93d 8502 e8bd
00000120: 3ef9 413e e23d bb3d 4369 a4bd 3e3b 443e
00000130: 65f1 4ebe 1655 dd3d 4297 3cbe d865 3e3e
00000140: 00cc 41be db33 e0bd 4a08 2b3e 3b1b 383d
00000150: e24d 65be 832e 53be 9936 27be 0da7 f33d
00000160: bd08 39be 3ae0 7e3c 7c12 f6bd 57fe 343e
00000170: 44c4 1c3e e769 84bd bfbf e8bd 5078 0ebe
00000180: 175d acbd ce61 f3bd 1440 54bd 1c29 413e
00000190: 26c4 6abe 7154 bd3d bf70 68be db39 8dbd
000001a0: 142b e6bd 62fc 1d3e 0c56 7f3d c61d 75bd
000001b0: 5edb 6cbe 782b 0bbe 8387 8bbe 122b b83c
000001c0: 67d0 fd3d 9312 57bc fa46 f43d 4a8f 80bd
000001d0: db7b b33d 18b2 efbd ab52 68bd 8b0b 1f3e
000001e0: ce17 3e3e 34d2 d23d 81e9 6ebd d32b f5bb
000001f0: 255b 58be 8d62 86bd 5831 d2bd 4b9e 193e
00000200: 420d 3ebe 6709 da3d e1ef cd3c c992 85be
00000210: fbc4 e2bd 58d7 373e 88dc a0bd b1eb f53d
00000220: 9e71 4b3e 90ee 13be 70f1 af3d 49b6 e43d
00000230: 6ec1 b4bd 1b93 c9bd a24b ec3d 19d5 4fbd
00000240: bbe4 243d 0e53 cdbd ab8c 5bbe 613e 8a3d
00000250: 46af 05ba aeca 103e e72b 97bd 0017 293e
00000260: 7f15 2cbe b790 ff3c 9b59 883e 6a04 c03d
00000270: b982 3a3d 774d d0bd 3d85 513c fc97 5c3e
00000280: 52f7 16bd 605b 243e 902e 53be 9837 6e3d
00000290: 8a6c 27be 1e97 2dbe 1b68 623e e103 aabd
000002a0: d9aa b8bc e043 3ebd 3147 3d3e 81af 1dbe
000002b0: 4887 09bd 2416 8dbc 8749 863b 6a25 72be
000002c0: 278b 0e3e 5226 50be 4515 913e 8dd9 203e
000002d0: 507f 893d 3486 673e 1455 5abe 92c5 013e
000002e0: a2f1 61be 67a1 353e 15eb a4bd 5680 523e
000002f0: 74f3 ae3c 4e4d 03be 46e7 e0bc 7769 443e
00000300: a7fa ddbd 06f2 c63d fd69 223e 7398 8ebd
00000310: ce5d cabc 0338 963b e340 423e 3159 293c
00000320: 8b59 323d 26f2 4fbe b656 3cbe c96b d8bd
00000330: 5c5d 11be 89cb 9abd 523a 333e 5e21 0ebe
00000340: 5d1a 1c3e 9f5b 74be 6b9d 0e3e e487 bdbd
00000350: a1ca 723e e68f 5abe 572f 34be 58ef 3c3e
00000360: 380f fb3d 23d4 61be 90d0 12be b4d5 5c3e
00000370: dd22 de3d 5b8c 8fbe 3e95 56bd ac2c fcbb
00000380: 552a dcbd 3850 bc3b 8abf c6bd 5d2c 89bc
00000390: aa2d 893d a0e2 533e 0d7d 01be f58e 873c
000003a0: 910c 5dbe 7a1a 62bb 6876 9e3c 0057 cbbd
000003b0: a54b af3d 4852 163e e757 333e 9602 a7bd
000003c0: 18ac 45be c30c 233e ab22 3d3c a7af 9cbe
000003d0: 8393 f4bd ea55 a73c 2cdb 153e dc44 60bb
000003e0: a22e 203e 40bc 4d3e 0ff5 1e3d 008e 2f3e
000003f0: 580c 863e fa6b 583e 5272 793e 0fb2 57be

neighborLayer.W f4 [6, 32]
-0.050844476 0.30993086 0.3422171 -0.1743183 0.15072477 -0.0507023 0.15970762 0.3882874
-0.39042583 -0.18622735 -0.37308696 -0.2971998 0.23354259 0.21832511 -0.28290883 0.18079856
0.29610008 -0.18341699 0.20641215 -0.1925217 0.051345926 -0.34424213 -0.17176765 0.08767989
-0.29835963 -0.15082698 0.2213813 -0.23297907 0.29815543 0.082765505 0.119601235 0.20962301
-0.058267087 -0.2636821 -0.24833177 -0.3271818 -0.186515 0.10350379 -0.3607224 -0.2531803
0.10058817 -0.053386386 0.11095767 0.030973528 -0.109217666 -0.28974527 0.088169664 0.1121757
-0.28466415 0.1240792 0.433167 -0.019772653 0.022360679 -0.056797978 0.09144605 -0.2481683
0.07869855 -0.18411824 -0.23867562 0.3082911 0.31172484 0.33345768 -0.3080862 0.3587342
-0.3455501 -0.24094361 0.07160451 0.21566823 -0.45546418 0.2639008 0.038528413 0.11000174
-0.015950873 0.358639 0.02153407 0.015426507 -0.15417892 -0.20979172 0.23656906 -0.1546482
-0.10196231 0.09588383 -0.33389273 0.18914793 0.16822612 0.3157947 -0.014908246 -0.22979859
0.27877232 0.24187712 0.370074 -0.33475667 -0.26811078 -0.37139916 -0.2895005 0.27957714
-0.38739154 0.13041098 -0.05135715 0.3183148 0.33135673 0.070439816 -0.16948901 0.19670515
0.20840916 -0.13590577 -0.3254461 -0.0028527325 -0.14465903 -0.20805673 0.01017674 0.2774693
-0.37330765 0.1980382 -0.033034258 -0.06166141 0.28275955 -0.0025078899 -0.2375113 -0.08459734
-0.08097338 -0.28525117 -0.27147406 0.13539514 -0.37481993 -0.084059104 0.24276283 -0.06835342
-0.16481206 -0.21079804 -0.14864404 -0.23899515 -0.3892595 -0.1004938 0.14686285 0.2093971
-0.07411101 -0.3567809 0.22574525 -0.33079013 0.13096201 0.1464891 0.004235143 0.13285667
-0.32246464 -0.24992731 0.16351473 0.43474427 0.22213364 0.059163906 -0.39470577 -0.09339839
-0.33586666 -0.3599176 -0.19507748 -0.06951563 0.27177182 -0.30152318 0.30945367 0.07848933
-0.3170451 -0.0818717 -0.29708198 0.07398094 0.0404023 -0.21313335 0.32778707 -0.25476322
-0.06294793 -0.025829453 -0.2352619 -0.08233426 -0.24107556 -0.010287826 0.029737642 -0.39728597
0.3218856 -0.0013326097 0.3581626 0.0522695 -0.24842113 -0.15039237 -0.12192293 -0.04189851
0.10082597 -0.089522354 -0.2398342 0.14105785 0.33810005 -0.00349663 0.13331252 -0.3263635
00000000: 4c42 50bd 42af 9e3e 1437 af3e 7f80 32be
00000010: 9857 1a3e 37ad 4fbd 658a 233e 9bcd c63e
00000020: e5e5 c7be 62b2 3ebe 4105 bfbe 922a 98be
00000030: ca25 6f3e 9e90 5f3e 6dd9 90be 4223 393e
00000040: 6e9a 973e aad1 3bbe b55d 533e 6924 45be
00000050: 1b50 523d 8140 b0be dce3 2fbe 8491 b33d
00000060: 98c2 98be 6372 1abe c8b1 623e 1192 6ebe
00000070: d4a7 983e f680 a93d 7ef1 f43d 6aa7 563e
00000080: 78a9 6ebd 5701 87be af4a 7ebe 5f84 a7be
00000090: cafd 3ebe ccf9 d33d 9bb0 b8be d9a0 81be
000000a0: 2c01 ce3d afab 5abd c63d e33d 32bc fd3c
000000b0: 83ad dfbd 7e59 94be 4c92 b43d 60bc e53d
000000c0: 80bf 91be 3c1d fe3d 11c8 dd3e 42fa a1bc
000000d0: be2d b73c ffa4 68bd 1148 bb3d d51f 7ebe
000000e0: b52c a13d 7e89 3cbe 6267 74be 55d8 9d3e
000000f0: 669a 9f3e f7ba aa3e 79bd 9dbe 02ac b73e
00000100: f1eb b0be ecb9 76be 63a5 923d 22d8 5c3e
00000110: 9a32 e9be 011e 873e f8cf 1d3d 9848 e13d
00000120: 68ab 82bc 889f b73e 3868 b03c 76bf 7c3c
00000130: 14e1 1dbe a4d3 56be 293f 723e 195c 1ebe
00000140: 9ed1 d0bd be5e c43d fdf3 aabe ffaf 413e
00000150: 7843 2c3e d8af a13e b741 74bc 5250 6bbe
00000160: 3fbb 8e3e a3ae 773e 577a bd3e 3a65 abbe
00000170: d145 89be 0828 bebe 6939 94be bc24 8f3e
00000180: 2f58 c6be 758a 053e e05b 52bd 28fa a23e
00000190: 97a7 a93e c042 903d 878e 2dbe 136d 493e
000001a0: 3669 553e e22a 0bbe dfa0 a6be e9f4 3abb
000001b0: 7f21 14be d30c 55be 57bc 263c 7510 8e3e
000001c0: 2e22 bfbe 87ca 4a3e ee4e 07bd ad90 7cbd
000001d0: dcc5 903e 695b 24bb 2a36 73be 5f41 adbd
000001e0: 5fd5 a5bd 710c 92be a6fe 8abe 06a5 0a3e
000001f0: 66e8 bfbe 2e27 acbd d296 783e e1fc 8bbd
00000200: 7ec4 28be 71db 57be 2536 18be 25bb 74be
00000210: 054d c7be b2cf cdbd 3763 163e 326c 563e
00000220: 83c7 97bd fcab b6be c329 673e 535d a9be
00000230: e81a 063e 3d01 163e f4c6 8a3b 940b 083e
00000240: 161a a5be f2ec 7fbe 6870 273e cd96 de3e
00000250: 0077 633e da55 723d e016 cabe a847 bfbd
00000260: b7f6 abbe 1f47 b8be 64c2 47be 365e 8ebd
00000270: ad25 8b3e 3f61 9abe b670 9e3e 04bf a03d
00000280: bc53 a2be 5aac a7bd 211b 98be 5283 973d
00000290: e27c 253d a13f 5abe b5d3 a73e 5370 82be
000002a0: d8ea 80bd 4a98 d3bc 7fe8 70be dd9e a8bd
000002b0: 83dc 76be 458e 28bc 5b9c f33c 1169 cbbe
000002c0: 30ce a43e f6aa aeba 1761 b73e 8b18 563d
000002d0: 1c62 7ebe 7500 1abe bbb2 f9bd c69d 2bbd
000002e0: d97d ce3d 7f57 b7bd 1997 75be 7871 103e
000002f0: 731b ad3e b727 65bb 1483 083e 1e19 a7be

neighborLayer.a f4 [64, 1]
-0.20154606 -0.3015244 -0.15311614 0.15666708 0.26350808 0.3001099 0.034968663 -0.15436617
-0.017879827 0.12036959 0.16037597 -0.07450082 -0.051760517 -0.26508743 0.107991934 0.037454017
-0.21254893 0.044540085 0.05115693 -0.2125538 0.29624304 -0.16900837 0.14719217 -0.09929225
-0.18974237 -0.09030614 -0.0006208877 -0.0599769 0.15964067 -0.2702591 -0.17450094 -0.067818776
-0.24919787 -0.15113476 -0.27390295 0.16182716 -0.17667925 0.16304 0.30691537 -0.18597499
0.2309604 -0.03310679 0.27003592 0.07839173 0.14642769 -0.053594988 0.06733008 -0.0450258
0.08741485 0.04185581 -0.21611573 0.29428726 -0.22803561 0.27420378 -0.24204151 0.06276237
0.20643374 -0.24335778 -0.18266232 0.22832648 -0.17952585 0.16071348 0.2372484 -0.23279017
00000000: 1762 4ebe 6861 9abe 7aca 1cbe 566d 203e
00000010: 88ea 863e 01a8 993e 4d3b 0f3d 2a12 1ebe
00000020: b778 92bc 5584 f63d 9939 243e e393 98bd
00000030: d602 54bd 8ab9 87be e02a dd3d 6269 193d
00000040: 6da6 59be aa6f 363d ee89 513d b4a7 59be
00000050: 2bad 973e 8810 2dbe 8bb9 163e bc59 cbbd
00000060: d34b 42be 6df2 b8bd 11c3 22ba 57aa 75bd
00000070: d878 233e 675f 8abe 60b0 32be 92e4 8abd
00000080: ba2d 7fbe 12c3 1abe 023d 8cbe 05b6 253e
00000090: 68eb 34be f5f3 263e 0324 9d3e 3a70 3ebe
000000a0: e280 6c3e fc9a 07bd 2642 8a3e d88b a03d
000000b0: 24f1 153e 6b86 5bbd 5ae4 893d f96c 38bd
000000c0: 8f06 b33d ff70 2b3d 714d 5dbe d2ac 963e
000000d0: 2b82 69be 7064 8c3e bbd9 77be 8f89 803d
000000e0: 5e63 533e c832 79be d50b 3bbe 6bce 693e
000000f0: a0d5 37be 1392 243e 3ff1 723e 8c60 6ebe
